outputs/outputs_new_tip_mask/epoch_140_model.pth (torch, 695187 bytes, 241 tensors)

down_convs.0.conv1.weight f4 [3, 1, 3, 3, 3]
1.4054332 -0.7271772 0.4253261 1.0875355 1.393557 1.1821188 0.6601832 1.8256687
1.6809151 -0.72619414 1.0290048 -0.5825462 -0.66362274 4.997459 -0.083007455 0.0056643044
4.334504 0.15769899 -0.12574396 -1.1615286 1.7052281 -0.2088966 -0.7130194 -0.026792133
-0.27586475 -0.8372519 -0.34219658 -2.832109 -0.3365334 -1.2229295 -0.5191582 -0.41558087
-0.6074352 0.71404046 -1.1698109 -1.7102613 -2.138679 1.1043726 0.24726358 -0.54378957
0.07949869 -0.11065732 0.46359098 -2.3372009 -3.035461 -3.2202208 -1.0786217 -1.7528371
-0.59643143 -0.99529004 -0.9829268 1.5402745 -0.111542284 0.0034035074 -0.8371216 -1.0095009
-0.783327 -0.5664043 -0.9280764 -0.16956057 1.1198062 1.2391702 1.745713 -1.1491462
-0.96961033 -1.1560642 -0.7231859 -1.3597611 -0.8819913 1.0137877 1.1496388 1.6925542
-0.91392773 -1.026261 -1.0583707 -0.1612343 -0.5750111 -0.35450143 1.0519395 1.5029317
1.9214393
00000000: 3ce5 b33f 4928 3abf 58c4 d93e 5d34 8b3f
00000010: 1360 b23f ab4f 973f c401 293f 83af e93f
00000020: 3a28 d73f dce7 39bf 6eb6 833f bf21 15bf
00000030: 2ee3 29bf 2feb 9f40 d0ff a9bd a19b b93b
00000040: 42b4 8a40 d87b 213e 06c3 00be f8ac 94bf
00000050: ea44 da3f fee8 55be 7088 36bf 2d7b dbbc
00000060: 253e 8dbe 2456 56bf 6434 afbe 4641 35c0
00000070: 1b4e acbe f488 9cbf 8de7 04bf 04c7 d4be
00000080: e080 1bbf 5bcb 363f 5dbc 95bf d8e9 dabf
00000090: 1ee0 08c0 155c 8d3f aa32 7d3e cb35 0bbf
000000a0: 36d0 a23d 4ea0 e2bd cc5b ed3e b394 15c0
000000b0: fe44 42c0 1918 4ec0 4710 8abf f75c e0bf
000000c0: bbaf 18bf 54cb 7ebf 17a1 7bbf b727 c53f
000000d0: 4870 e4bd 610d 5f3b 9a4d 56bf 5337 81bf
000000e0: 1e88 48bf dfff 10bf 6a96 6dbf 49a1 2dbe
000000f0: cf55 8f3f 219d 9e3f 8673 df3f 3917 93bf
00000100: 6238 78bf e9f9 93bf b622 39bf a70c aebf
00000110: 2fca 61bf ccc3 813f 5d27 933f 9ea5 d83f
00000120: 2bf7 69bf 855c 83bf b178 87bf 9b1a 25be
00000130: ed33 13bf 3681 b5be f4a5 863f 1160 c03f
00000140: b9f1 f53f

down_convs.0.conv1.bias f4 [3]
0.6583799 -0.8111527 0.26214874
00000000: 968b 283f b4a7 4fbf 5c38 863e

down_convs.0.conv2.weight f4 [3, 3, 3, 3, 3]
-0.45405513 0.5696271 -1.700328 -0.94293535 1.2541213 -1.2011473 -1.4521055 0.5631783
-1.0976306 0.6339613 -0.7736492 0.2418999 1.8125739 2.272505 1.9265645 1.3579066
2.5623734 1.3943403 -1.5373102 0.550211 -0.9923427 0.08328802 3.8994505 -0.2000556
0.31239447 3.1524653 -0.16976318 0.01915536 0.28408816 0.4801004 0.12174399 -0.046610862
0.1913865 0.07334875 0.04776234 0.048166282 -0.19790375 0.2108975 0.32553905 -0.21712074
0.0015834696 -0.10685722 0.05904971 -0.0013275034 0.002388282 -0.2733692 0.18245552 0.5054872
-0.11728204 -0.057810042 -0.023186455 0.08925628 0.009704 0.2661747 0.49690047 0.13835496
-0.74994767 -1.4268509 -1.4600427 -1.272259 -1.0715979 -0.5898551 -2.3791275 0.7612937
1.058975 0.2567381 -1.1825513 -0.9400339 -1.7016475 -0.70766336 -0.06867248 -1.3412421
0.041930493 0.6958351 0.06665211 -0.71031934 -1.0547007 -1.7894197 -2.796619 -1.6978472
-2.6464915 -0.31834555 -0.53312844 -0.5811057 -1.3095211 -1.715745 -1.5435946 -1.0337446
-2.211447 -2.1671133 -0.7860637 -0.43826613 -0.9096637 -1.2214487 -1.1986454 -1.8699253
-0.51700646 -1.1000421 -2.007403 -0.5808414 -0.92911613 -0.47210792 -0.108287156 -0.9171327
-0.9458746 0.8136793 0.07915165 0.110443205 0.41970542 0.32292733 0.64371294 0.71295
0.52708036 0.4132084 0.60345656 0.54313594 0.114458755 0.5776764 0.45643964 0.6873586
0.4378036 -0.014654019 0.15034853 1.0108666 1.3233322 0.5742836 1.5058433 1.2317601
1.4799175 0.5756562 0.20468096 0.24464339 0.084583804 0.21209995 -0.16901141 0.88285726
-0.5406466 -0.97408795 -0.20066054 -2.800754 -2.7704124 1.0118133 0.015639175 -0.22122243
0.27858683 -0.5397729 -0.7222823 1.4107252 -1.4021358 -2.1672392 1.1492343 0.69990134
0.7350687 1.6163176 1.4474143 1.5864956 3.447505 1.258263 0.23643832 1.5288497
1.4610512 1.9705405 -0.88952696 -1.0692391 -1.1762061 -0.81207514 -0.9300561 0.15588747
-0.52344114 -0.5695138 1.0587908 -0.083270386 -0.060871698 -0.099637486 -0.761097 -1.4528329
0.29925603 -1.7364483 -2.4491541 0.5752751 -0.736847 -0.6424436 -0.32425514 -0.6156334
-0.54593396 0.7450014 -0.8417571 -0.25526625 1.486943 2.6196017 1.5218741 1.7146312
1.9402398 1.3078707 0.9538666 3.73948 1.105098 -0.16141194 1.940641 0.70417225
0.95690215 1.7209083 1.0325052 0.9545671 4.2134156 1.8071895 0.68654776 3.2220974
1.765049 2.3838992 1.6184218 1.1005033 0.6579525 3.143713 1.1248932 0.22824375
1.3877151 0.53947294 3.2455642 -0.70359206 -0.48351187 0.6081815 -0.27741888 0.021213958
-0.45569548 0.37072343 -0.40366766 2.3990438 -1.646871 -1.1805872 0.089922115 -0.045253552
0.5915445 0.17806622 2.473235 1.8603055 3.8554268 0.39680034 0.57017875 1.4875436
-0.42113215 0.0625607 -0.21859975
00000000: ea79 e8be 15d3 113f 59a4 d9bf 3664 71bf
00000010: 0c87 a03f 32bf 99bf 98de b9bf 742c 103f
00000020: 297f 8cbf 4a4b 223f e00d 46bf 9bb4 773e
00000030: 6c02 e83f b970 1140 aa99 f63f e2cf ad3f
00000040: edfd 2340 be79 b23f 95c6 c4bf a1da 0c3f
00000050: 2c0a 7ebf e992 aa3d 9990 7940 60db 4cbe
00000060: 2bf2 9f3e fec1 4940 66d6 2dbe b4eb 9c3c
00000070: 0174 913e b8cf f53e ea54 f93d 08eb 3ebd
00000080: d3fa 433e df37 963d 72a2 433d 024a 453d
00000090: 48a7 4abe 84f5 573e 0ead a63e e654 5ebe
000000a0: 6c8c cf3a f5d7 dabd 1cde 713d 9fff adba
000000b0: b984 1c3b 0cf7 8bbe 9fd5 3a3e 9c67 013f
000000c0: 9131 f0bd 39ca 6cbd 85f1 bdbc ffcb b63d
000000d0: 87fd 1e3c 0d48 883e bd69 fe3e ecac 0d3e
000000e0: 92fc 3fbf 0da3 b6bf aee2 babf 62d9 a2bf
000000f0: 1f2a 89bf be00 17bf a043 18c0 25e4 423f
00000100: 7e8c 873f 2d73 833e d75d 97bf 10a6 70bf
00000110: 96cf d9bf 6d29 35bf 28a4 8cbd d2ad abbf
00000120: 4fbf 2b3d 4022 323f e780 883d 7dd7 35bf
00000130: 6f00 87bf b40b e5bf cefb 32c0 0f53 d9bf
00000140: 1e60 29c0 30fe a2be 1b7b 08bf 58c3 14bf
00000150: 639e a7bf 889d dbbf 8294 c5bf be51 84bf
00000160: 5988 0dc0 fcb1 0ac0 783b 49bf 6b64 e0be
00000170: b8df 68bf 6e58 9cbf 366d 99bf b659 efbf
00000180: 895a 04bf 2ece 8cbf 4a79 00c0 06b2 14bf
00000190: 8eda 6dbf 21b8 f1be a8c5 ddbd 35c9 6abf
000001a0: d624 72bf 494d 503f 431a a23d 0c30 e23d
000001b0: a1e3 d63e bb56 a53e 5fca 243f e483 363f
000001c0: bdee 063f 0d90 d33e 217c 1a3f f50a 0b3f
000001d0: 5a69 ea3d 9ae2 133f 75b2 e93e bcf6 2f3f
000001e0: cb27 e03e 6917 70bc f7f4 193e 1464 813f
000001f0: f362 a93f 4004 133f 79bf c03f 51aa 9d3f
00000200: f06d bd3f 345e 133f e397 513e cc83 7a3e
00000210: 463a ad3d bb30 593e 5411 2dbe ef02 623f
00000220: d167 0abf d45d 79bf f579 4dbe 8e3f 33c0
00000230: 704e 31c0 1983 813f ba1d 803c 2288 62be
00000240: efa2 8e3e 8f2e 0abf 7ee7 38bf a592 b43f
00000250: 3079 b3bf 0cb4 0ac0 1c1a 933f bc2c 333f
00000260: 762d 3c3f 7fe3 ce3f df44 b93f 4a12 cb3f
00000270: eca3 5c40 c30e a13f e31c 723e 59b1 c33f
00000280: ba03 bb3f ac3a fc3f 0ab8 63bf d4dc 88bf
00000290: ec8d 96bf 28e4 4fbf 2818 6ebf f7a0 1f3e
000002a0: 3d00 06bf a8cb 11bf 7586 873f aa89 aabd
000002b0: 9a54 79bd bd0e ccbd 41d7 42bf 6ef6 b9bf
000002c0: 1638 993e f043 debf f1be 1cc0 3b45 133f
000002d0: 01a2 3cbf 2f77 24bf c504 a6be 279a 1dbf
000002e0: 54c2 0bbf 69b8 3e3f 657d 57bf 42b2 82be
000002f0: 2654 be3f 8ea7 2740 c5cc c23f 0979 db3f
00000300: c759 f83f 4f68 a73f 9a30 743f a453 6f40
00000310: da73 8d3f 2c49 25be ed66 f83f a244 343f
00000320: 8af7 743f b946 dc3f 2129 843f 825e 743f
00000330: 4dd4 8640 fc51 e73f 98c1 2f3f d836 4e40
00000340: 20ed e13f ce91 1840 7228 cf3f 4bdd 8c3f
00000350: 936f 283f 9832 4940 80fc 8f3f bbb8 693e
00000360: a6a0 b13f e61a 0a3f 53b7 4f40 9c1e 34bf
00000370: de8e f7be c8b1 1b3f d909 8ebe e5c8 ad3c
00000380: eb50 e9be 76cf bd3e 87ad cebe ef89 1940
00000390: abcc d2bf 7b1d 97bf 1629 b83d ca5b 39bd
000003a0: 766f 173f fe56 363e 7b49 1e40 7e1e ee3f
000003b0: 50bf 7640 6a29 cb3e 3cf7 113f d467 be3f
000003c0: a29e d7be d31f 803d 9dd8 5fbe

down_convs.0.conv2.bias f4 [3]
1.1587658 1.3320209 0.20717704
00000000: 7052 943f a97f aa3f 3826 543e

down_convs.0.norm0.weight f4 [3]
2.7747138 1.5355237 1.2745042
00000000: e994 3140 0a8c c43f f422 a33f

down_convs.0.norm0.bias f4 [3]
0.33329397 -0.05694156 -1.4825563
00000000: 82a5 aa3e 8e3b 69bd 68c4 bdbf

down_convs.0.norm0.running_mean f4 [3]
0.7444059 -0.9938241 0.27608407
00000000: 6391 3e3f 426b 7ebf e45a 8d3e

down_convs.0.norm0.running_var f4 [3]
219.65857 415.09018 50.09253
00000000: 98a8 5b43 8b8b cf43 c05e 4842

down_convs.0.norm1.weight f4 [3]
1.9698555 0.7973143 1.8657705
00000000: 3a24 fc3f ca1c 4c3f 91d1 ee3f

down_convs.0.norm1.bias f4 [3]
-0.571911 -0.91704744 0.2544232
00000000: c268 12bf 9fc3 6abf c243 823e

down_convs.0.norm1.running_mean f4 [3]
14.087794 -16.483606 9.219549
00000000: 9b67 6141 6dde 83c1 4683 1341

down_convs.0.norm1.running_var f4 [3]
786.42096 3592.6501 1456.4048
00000000: f19a 4444 678a 6045 f40c b644

down_convs.1.conv1.weight f4 [6, 3, 3, 3, 3]
-0.46835452 -0.8446589 -0.44991797 1.3879102 1.2050135 0.4005474 1.0250992 1.9409485
-0.5289717 -1.1773028 -1.2317759 -0.42152873 0.8944913 1.02333 0.4755836 2.9407635
4.963262 0.76608866 -1.2682827 -0.6988755 0.42459425 0.19134729 0.60226387 0.7429802
0.5438676 1.7961824 -0.55866635 -0.9204056 -2.0043437 -2.3994179 -0.32938555 0.88992155
0.91897386 -0.41180265 0.028534157 -0.7908362 -0.5006351 -0.17068535 -0.9230422 -0.59899527
1.0664511 1.292079 0.49910843 1.209673 0.8716014 -0.60515344 0.9641538 0.98074704
-1.3956767 -0.6949638 -0.08993347 0.07646732 0.3153412 0.59689957 1.2365993 1.592125
1.4193861 1.5305585 0.97110444 0.9738744 0.9132907 0.15064818 0.38479432 1.3125521
1.543103 1.3006202 1.218959 0.8288898 0.4359465 0.2701691 -0.331967 -0.016935598
1.2599386 1.4141129 1.2325953 1.3998401 0.58566076 0.63793504 0.47156075 -0.2993897
-0.13741781 -0.543022 -0.44140524 -0.32492945 -0.5105449 -0.35664743 -0.09470451 -0.11184291
-0.07431105 -0.10650625 -0.43694165 -0.617186 -0.36324555 -0.2422837 -0.23940128 -0.13649084
0.0012654646 -0.2043371 -0.07201931 -0.44414684 -0.3462956 -0.16194126 -0.17945191 -0.06161826
0.020475388 -0.14185089 0.0052841827 -0.15203188 0.1502987 0.2126092 0.12295145 0.011182555
0.12540568 0.09746275 0.13295285 -0.082507156 0.0027168407 0.06825882 0.0015298254 -0.014600021
-0.07984755 0.07157898 0.046055753 -0.08169997 0.096571125 0.1951019 -0.0127162775 -0.100623615
0.12538995 0.0014394185 0.075818166 0.01996845 -0.029053524 -0.12099659 -0.14466521 0.11904227
0.37541586 0.015300156 0.0696393 0.105771616 0.17467585 -0.018082095 0.042016193 0.05979033
0.019420171 0.2789056 0.20407604 0.033237603 -0.024478374 -0.031808652 0.016857587 0.16277654
0.23323889 -0.012096095 0.21694316 -0.026230551 -0.107213914 0.07180314 -0.12206134 -0.09303772
-0.07178421 -0.059384942 0.084746204 -0.4822099 -1.35153 -0.67635876 -0.68372846 -0.8192552
0.0060972255 -0.10212357 0.42180005 0.47529155 0.34571618 -0.29232588 -0.22834639 0.08581743
-0.09866176 -0.2810991 -0.81928796 -0.25684565 0.592848 0.26358363 0.01882454 -0.62063277
-0.22653507 0.31791782 0.07315747 -0.19359128 0.53669727 1.5119632 1.7247758 2.440093
0.9696092 1.1058824 1.9608277 1.1214355 1.6110218 0.9718369 0.33175588 0.4301362
1.563205 -0.6259781 -0.6094428 0.15344347 0.6872861 1.0617758 0.7073031 -0.39419484
-0.44446653 1.2236987 -0.036667284 0.027230082 1.1371989 1.9636309 2.395266 2.6564772
2.5599957 1.9515613 3.0003357 1.7138603 0.8642225 2.421295 1.3864933 1.175026
0.6445175 1.2109354 0.11695082 1.639157 0.5727996 0.0233135 1.7436798 1.7062413
3.1898205 1.774171 1.4547983 0.75661314 2.5724423 2.453616 2.5280108 3.3423731
2.3452423 3.6724508 2.6962817 -0.27832982 -0.31046554 -0.28013837 -0.17895405 -0.2382805
-0.28259152 -0.102740526 -0.02213898 -0.10798302 -0.43583867 -0.25511655 -0.4734108 -0.18355732
00000000: 2acc efbe 913b 58bf a65b e6be 0ba7 b13f
00000010: e23d 9a3f 8c14 cd3e 7336 833f 0071 f83f
00000020: b06a 07bf dcb1 96bf d5aa 9dbf 9dd2 d7be
00000030: 62fd 643f 7afc 823f b27f f33e 7835 3c40
00000040: 0bd3 9e40 631e 443f 1657 a2bf 81e9 32bf
00000050: 6b64 d93e 8bf0 433e f72d 1a3f f333 3e3f
00000060: e83a 0b3f 4ee9 e53f c204 0fbf b49f 6bbf
00000070: 2b47 00c0 1090 19c0 39a5 a8be e6d1 633f
00000080: df41 6b3f ccd7 d2be 77c0 e93c 3e74 4abf
00000090: 9f29 00bf 24c8 2ebe 7e4c 6cbf c157 19bf
000000a0: 7881 883f d862 a53f 248b ff3e 91d6 9a3f
000000b0: 4521 5f3f 56eb 1abf c9d2 763f 3d12 7b3f
000000c0: 89a5 b2bf 26e9 31bf 0a2f b8bd e69a 9c3d
000000d0: 6774 a13e 69ce 183f e348 9e3f c1ca cb3f
000000e0: 72ae b53f 57e9 c33f 4d9a 783f d54f 793f
000000f0: 6bcd 693f 8443 1a3e c303 c53e b501 a83f
00000100: 6684 c53f b97a a63f d906 9c3f 1f32 543f
00000110: 6134 df3e 9b53 8a3e 94f7 a9be 86bc 8abc
00000120: ab45 a13f a701 b53f afc5 9d3f f62d b33f
00000130: dded 153f b64f 233f 6970 f13e 9b49 99be
00000140: 41b7 0cbe 7d03 0bbf deff e1be 275d a6be
00000150: 12b3 02bf 7e9a b6be 70f4 c1bd e50d e5bd
00000160: 6430 98bd f31f dabd d1b6 dfbe e7ff 1dbf
00000170: 52fb b9be 3819 78be 9c25 75be 41c4 0bbe
00000180: f2dd a53a bf3d 51be dc7e 93bd 3767 e3be
00000190: a84d b1be eed3 25be 3ec2 37be 6e63 7cbd
000001a0: 00bc a73c 5c41 11be f026 ad3b 3fae 1bbe
000001b0: e7e7 193e 3ab6 593e f8cd fb3d 0937 373c
000001c0: 596a 003e 8d9a c73d cb24 083e 83f9 a8bd
000001d0: 060d 323b 48cb 8b3d 6c84 c83a ed34 6fbc
000001e0: 1d87 a3bd 0098 923d f5a4 3c3d 5052 a7bd
000001f0: 15c7 c53d cbc8 473e ef57 50bc c113 cebd
00000200: 3966 003e dfaa bc3a 8e46 9b3d e094 a33c
00000210: a801 eebc 0fcd f7bd 1e23 14be 6fcc f33d
00000220: 8236 c03e 81ad 7a3c 0d9f 8e3d ca9e d83d
00000230: 3ade 323e e720 94bc 2c19 2c3d b4e6 743d
00000240: 0d17 9f3c b7cc 8e3e 4ff9 503e 2724 083d
00000250: df86 c8bc ca49 02bd ec18 8a3c e5ae 263e
00000260: 2dd6 6e3e b32e 46bc 5926 5e3e 74e1 d6bc
00000270: f892 dbbd 860d 933d 4cfb f9bd 8f8a bebd
00000280: 9a03 93bd a03d 73bd 6b8f ad3d 37e4 f6be
00000290: effe acbf d925 2dbf d408 2fbf b5ba 51bf
000002a0: 3ccb c73b 2a26 d1bd 2df6 d73e 6a59 f33e
000002b0: b601 b13e bdab 95be a3d3 69be 0cc1 af3d
000002c0: 2d0f cabd 39ec 8fbe dbbc 51bf 4681 83be
000002d0: e3c4 173f 6ff4 863e ec35 9a3c cae1 1ebf
000002e0: cff8 67be 20c6 a23e 95d3 953d cb3c 46be
000002f0: fe64 093f 0388 c13f 74c5 dc3f 7c2a 1c40
00000300: 4f38 783f 8e8d 8d3f 67fc fa3f 338b 8f3f
00000310: f635 ce3f 4eca 783f e8db a93e d03a dc3e
00000320: 1a17 c83f 1a40 20bf 7104 1cbf 4920 1d3e
00000330: fbf1 2f3f 45e8 873f d111 353f e8d3 c9be
00000340: 1e91 e3be 29a2 9c3f 6f30 16bd 9f11 df3c
00000350: bc8f 913f 4258 fb3f 0a4c 1940 b903 2a40
00000360: f8d6 2340 c3cc f93f 8005 4040 c65f db3f
00000370: b03d 5d3f 7ff6 1a40 9d78 b13f 4167 963f
00000380: 19ff 243f eeff 9a3f e983 ef3d e6cf d13f
00000390: ffa2 123f f4fb be3c e630 df3f 1d66 da3f
000003a0: 0526 4c40 0918 e33f d536 ba3f 66b1 413f
000003b0: e5a2 2440 0b08 1d40 eeca 2140 71e9 5540
000003c0: 7318 1640 6f09 6b40 e18f 2c40 3f81 8ebe
000003d0: 57f5 9ebe 4c6e 8fbe bb3f 37be ceff 73be
000003e0: d6af 90be a069 d2bd ce5c b5bc 3426 ddbd
000003f0: 3f26 dfbe a39e 82be e662 f2be 73f6 3bbe

down_convs.1.conv1.bias f4 [6]
0.18997273 -0.0015534577 -0.1405094 -0.0016958355 0.0009914789 -0.014559748
00000000: 3688 423e 649d cbba b2e1 0fbe cc46 deba
00000010: 83f4 813a 028c 6ebc

down_convs.1.conv2.weight f4 [6, 6, 3, 3, 3]
-1.2041266 -0.02319223 -0.19589889 0.06423521 -0.0029738634 -1.2196703 -0.9605414 -1.3317883
-3.05599 -0.15646806 1.6672252 1.3574326 -0.028064892 0.32550082 -0.4205601 -0.8042313
-0.05447375 -1.217542 -0.22686468 0.957401 0.5341832 -0.83727175 -0.6833357 -0.6905389
-1.6343503 -1.0627098 -1.1698271 -0.20067576 -0.1456075 0.0163987 -0.18075462 -0.15174179
-0.23037218 -0.15800653 -0.116825625 -0.2554408 -0.12195974 0.0013870867 -0.02487446 -0.09709066
0.07833189 0.17203103 -0.24804147 -0.18539807 -0.073607095 0.083306655 0.11791682 0.028535742
-0.1239694 -0.0055456194 -0.04023868 -0.19496547 -0.085423 -0.075342536 -1.2775277 -1.2451305
-1.5028696 -1.3950615 -1.45609 -1.3619558 -0.9254612 -1.1713818 -0.7947351 -1.4928049
-1.5410182 -1.8251337 -1.5141357 -1.4728608 -1.5718963 -1.0978465 -1.3895087 -0.94488865
-1.5073247 -1.6626334 -1.6811788 -1.6285831 -1.5946797 -1.9010106 -1.2942295 -1.4841706
-1.6816524 -0.10893154 -0.017239619 -0.065937184 0.10408863 -0.040675044 -0.060901985 0.025827631
-0.122311585 -0.028325047 -0.04542554 -0.062274616 -0.1755096 -0.2540164 -0.22920008 -0.11466977
-0.011891194 -0.17765328 -0.20580232 -0.10027737 -0.11671453 -0.28789577 -0.2459858 -0.36199108
-0.38421822 -0.1688265 -0.1517912 -0.05621599 0.2793059 0.1303958 0.4815707 -0.13529132
-0.13249132 0.030778905 -0.41651887 -0.1767347 0.07979051 0.26375368 -0.008299529 0.21405359
-0.16979247 -0.06486366 -0.04218381 0.008621837 0.007138259 0.20640728 0.15913111 0.10298193
0.24194273 -0.24018854 -0.06493556 0.021435073 -0.39006615 0.021081682 0.24226914 -0.9797023
-1.940489 -3.342048 1.1264052 -2.1760223 -3.075079 0.6246304 -0.845186 -1.5572672
-1.9981195 1.4616083 -0.8757822 -2.3760848 -1.2478914 -1.8520669 -0.95190144 -0.84339666
-1.8661513 -2.9959772 -0.9022087 -2.5505242 -2.9550483 -1.5659959 -1.361041 -1.3592236
-1.3337384 -1.1149999 -0.43630496 -1.1262096 -0.38449264 0.8431707 1.1487297 1.5314292
1.0067049 1.5884315 0.31497103 -0.84198916 -2.0620468 -1.7243445 0.5819074 1.4250423
1.6054417 1.6523548 3.2913163 1.5133883 -0.23565865 -1.1813687 -0.9782104 1.1345373
1.4015303 1.6051795 0.66140056 1.9229248 0.90072453 -0.24871421 -0.33257982 -0.27745676
-0.029470295 -0.11273262 0.008266291 -0.103083186 -0.25057733 -0.14805506 -0.15968588 -0.092905894
-0.1206724 -0.10182812 0.09205733 0.09266139 0.083730616 0.11048857 -0.06671501 -0.29351604
0.07920985 0.04920517 -0.09325594 -0.019904984 0.0052700024 -0.10065072 0.15871458 -0.008576695
1.0101542 0.951153 1.0023146 0.6182723 0.97520167 1.0180622 0.5831548 0.63965976
1.0038073 1.4585127 1.4443867 1.445627 0.856689 1.0680344 1.1873584 0.61781913
0.54226756 0.7874531 1.3319967 1.521468 1.5967526 1.1037028 1.0458393 1.5157177
0.41312486 0.44806477 0.6217476 -0.0039568287 0.0070170695 -0.059912983 0.11744449 0.037220538
0.076442294 0.06243139 -0.09608846 -0.009124566 0.100549884 0.04800896 0.07894847 0.0023459056
00000000: d220 9abf a2fd bdbc b899 48be c08d 833d
00000010: 26e5 42bb 281e 9cbf 0be6 75bf 0a78 aabf
00000020: 5795 43c0 2a39 20be a367 d53f 5ac0 ad3f
00000030: 58e8 e5bc 0ba8 a63e a753 d7be 1ae2 4dbf
00000040: de1f 5fbd 6bd8 9bbf 374f 68be 3b18 753f
00000050: 3bc0 083f 7157 56bf 17ef 2ebf 28c7 30bf
00000060: 6432 d1bf e006 88bf e5bc 95bf f27d 4dbe
00000070: 221a 15be 9156 863c bd17 39be 3362 1bbe
00000080: afe6 6bbe 77cc 21be 4642 efbd 23c9 82be
00000090: 07c6 f9bd e8ce b53a 86c5 cbbc 78d7 c6bd
000000a0: 786c a03d e728 303e 95fe 7dbe fed8 3dbe
000000b0: 51bf 96bd ae9c aa3d 607e f13d cac3 e93c
000000c0: abe3 fdbd 07b8 b5bb 50d1 24bd 07a5 47be
000000d0: 41f2 aebd 304d 9abd 0786 a3bf 7060 9fbf
000000e0: 085e c0bf 6091 b2bf 2861 babf 9154 aebf
000000f0: 06eb 6cbf d7ef 95bf c273 4bbf 3b14 bfbf
00000100: 1640 c5bf fb9d e9bf 33cf c1bf b486 bcbf
00000110: e633 c9bf 3c86 8cbf 6cdb b1bf 39e4 71bf
00000120: 04f0 c0bf 2cd1 d4bf de30 d7bf 6975 d0bf
00000130: 771e ccbf 5154 f3bf 50a9 a5bf 4df9 bdbf
00000140: 6340 d7bf 8017 dfbd 1a3a 8dbc 130a 87bd
00000150: 6b2c d53d e09a 26bd 5c74 79bd 7894 d33c
00000160: 7f7e fabd ee09 e8bc 2210 3abd ab13 7fbd
00000170: cab8 33be 700e 82be 6db3 6abe fcd7 eabd
00000180: 48d3 42bc beea 35be d8bd 52be 395e cdbd
00000190: 0708 efbd 1367 93be b4e3 7bbe e556 b9be
000001a0: 40b8 c4be dbe0 2cbe 276f 1bbe bd42 66bd
000001b0: 2f01 8f3e 7a86 053e 6f90 f63e cf89 0abe
000001c0: ceab 07be 0b24 fc3c f641 d5be f1f9 34be
000001d0: 3569 a33d b90a 873e bffa 07bc dd30 5b3e
000001e0: 14de 2dbe 3dd7 84bd eec8 2cbd 9b42 0d3c
000001f0: 0ee8 e93b 6e5c 533e 44f3 223e 31e8 d23d
00000200: d6bf 773e fcf3 75be effc 84bd 9b98 af3c
00000210: c0b6 c7be 7eb3 ac3c 6715 783e c5cd 7abf
00000220: f261 f8bf 1de4 55c0 0c2e 903f f343 0bc0
00000230: 18ce 44c0 c7e7 1f3f 1c5e 58bf 8854 c7bf
00000240: 61c2 ffbf fb15 bb3f 4333 60bf c611 18c0
00000250: e8ba 9fbf 8710 edbf d0af 73bf d8e8 57bf
00000260: 0cde eebf 17be 3fc0 26f7 66bf ca3b 23c0
00000270: 831f 3dc0 8e72 c8bf 9736 aebf 0afb adbf
00000280: f1b7 aabf 51b8 8ebf 5d63 dfbe a327 90bf
00000290: 38dc c4be 09da 573f 9309 933f df05 c43f
000002a0: b5db 803f b951 cb3f e243 a13e 9a8c 57bf
000002b0: 93f8 03c0 52b7 dcbf e2f7 143f c967 b63f
000002c0: 1d7f cd3f 5d80 d33f eda4 5240 b5b6 c13f
000002d0: 8050 71be 1737 97bf ff6b 7abf 8538 913f
000002e0: 5865 b33f 8676 cd3f 8c51 293f 6622 f63f
000002f0: e295 663f f0ae 7ebe e747 aabe d00e 8ebe
00000300: b06b f1bc 5ce0 e6bd 566f 073c 471d d3bd
00000310: ac4b 80be bf9b 17be b284 23be 7245 bebd
00000320: 1723 f7bd 438b d0bd 8e88 bc3d 41c5 bd3d
00000330: f57a ab3d d547 e23d e1a1 88bd bc47 96be
00000340: c638 a23d 5c8b 493d f8fc bebd c70f a3bc
00000350: fcaf ac3b f721 cebd 1386 223e 4485 0cbc
00000360: bc4c 813f c37e 733f d84b 803f 1847 1e3f
00000370: d1a6 793f dd4f 823f a249 153f bec0 233f
00000380: c27c 803f 8bb0 ba3f aae1 b83f 4e0a b93f
00000390: f84f 5b3f 5ab5 883f 5cfb 973f 6529 1e3f
000003a0: 0cd2 0a3f 8796 493f de7e aa3f 77bf c23f
000003b0: 6462 cc3f 2246 8d3f 10de 853f 0a03 c23f
000003c0: 1a85 d33e bf68 e53e da2a 1f3f 49a8 81bb
000003d0: 72ef e53b 5167 75bd bd86 f03d 9074 183d
000003e0: c78d 9c3d 0fb8 7f3d 07ca c4bd 347f 15bc
000003f0: 19ed cd3d 0ba5 443d bcaf a13d c4bd 193b

down_convs.1.conv2.bias f4 [6]
0.30764702 0.046539288 -0.35016096 -0.5494371 -0.7019481 0.037141662
00000000: e983 9d3e fb9f 3e3d 4c48 b3be e9a7 0cbf
00000010: dfb2 33bf db21 183d

down_convs.1.norm0.weight f4 [6]
2.048294 0.54260474 1.3743356 0.42462975 0.28945082 2.7258546
00000000: 4017 0340 25e8 0a3f 3bea af3f 1269 d93e
00000010: e632 943e 6774 2e40

down_convs.1.norm0.bias f4 [6]
-0.52070266 -0.30483976 -0.046654157 -0.51503265 -0.66588026 0.6002252
00000000: c54c 05bf f513 9cbe 6e18 3fbd 2ed9 03bf
00000010: 2177 2abf 5ca8 193f

down_convs.1.norm0.running_mean f4 [6]
28.002892 -1.9128228 43.075176 -4.3056626 -2.1746547 -27.10199
00000000: ec05 e041 61d7 f4bf fb4c 2c42 fdc7 89c0
00000010: 8b2d 0bc0 e0d0 d8c1

down_convs.1.norm0.running_var f4 [6]
863.4828 130.77223 1212.8848 84.82543 726.8387 394.12744
00000000: e6de 5744 b1c5 0243 509c 9744 9fa6 a942
00000010: adb5 3544 5010 c543

down_convs.1.norm1.weight f4 [6]
2.4171896 1.0762897 1.8869885 0.923035 2.742872 1.1816419
00000000: 3cb3 1a40 dcc3 893f d788 f13f 064c 6c3f
00000010: 378b 2f40 0b40 973f

down_convs.1.norm1.bias f4 [6]
-0.11719057 -0.65674347 0.48230588 -0.01937267 -1.112009 -0.6085631
00000000: 9c01 f0bd 5720 28bf ccf0 f63e 6fb3 9ebc
00000010: 5056 8ebf cbca 1bbf

down_convs.1.norm1.running_mean f4 [6]
-65.59202 43.612354 -7.30746 14.326007 -34.57993 -0.71430326
00000000: 1d2f 83c2 0d73 2e42 b6d6 e9c0 5337 6541
00000010: d951 0ac2 94dc 36bf

down_convs.1.norm1.running_var f4 [6]
2188.2646 1417.3805 2138.5725 1771.2811 966.4512 856.1121
00000000: 3cc4 0845 2d2c b144 29a9 0545 ff68 dd44
00000010: e09c 7144 2d07 5644

down_convs.2.conv1.weight f4 [12, 6, 3, 3, 3]
-2.3946896 0.30876547 3.9037185 -3.9982061 -0.47871208 2.57496 -4.344271 0.21823539
1.367614 -0.7174758 -1.2359116 0.35686713 -1.1282861 -0.117668815 0.47223797 0.81225187
2.179496 1.575673 4.687468 0.0655814 -0.24433124 2.491948 -0.55399203 -3.6902308
1.4460421 0.51405144 -2.4875572 0.28160712 0.09077151 -1.0132152 1.3112309 -0.17166059
-2.261565 1.0362903 -0.03229902 -0.7732343 -0.17863 0.97879523 0.59212816 -0.2841341
0.35384715 -0.511191 -0.1819189 -1.4175454 -0.13477054 -1.7687004 0.63574326 0.7690739
-2.6696875 -0.5850741 -0.44921464 -0.8225717 -0.047254432 0.6383656 5.6635985 -1.2186164
-2.593609 4.671676 -1.6221528 -2.6897514 2.3679347 -0.68608755 -0.49304593 -2.2076151
-2.1575105 1.0463004 -1.0735228 -0.24851783 0.6102877 -0.38665986 0.32850572 0.19266406
-4.7006116 -1.1517322 1.2653457 -4.2515554 -0.35923094 2.7277596 -0.24936448 0.6752953
2.283564 1.846494 0.011386715 -2.4948545 1.2512032 0.17095633 -1.4324071 0.9174463
-0.13503654 -0.21165669 0.035090093 -1.7548999 -2.5440898 -0.032721076 -1.3563969 -1.6084858
-0.21413153 -0.70825994 -0.71163106 -3.0583584 -2.4105408 -0.8913818 -1.4585239 -1.4532957
1.563197 0.03946844 -0.49525377 1.8254932 -1.2042954 -1.6977794 -0.017729627 0.035529695
-1.1862034 -0.09103365 1.0027248 -1.9128648 0.5504304 -1.0945579 -3.8519921 -1.536946
-1.2425841 0.3041111 2.3968422 -0.95167416 -0.7205098 1.1691049 0.6248597 -0.8776685
1.2745236 0.32979912 2.6115408 3.0518734 0.36963958 1.0209904 0.28525263 -1.6065549
-0.39030886 0.9926695 -0.58498985 0.027421653 0.37439358 1.808992 -0.649482 -3.0332866
-0.4849341 0.7569315 0.52716357 0.17308375 1.2172797 0.031962004 -0.01825061 1.7304298
0.96032673 0.5118279 0.6907996 -0.6069679 0.3320777 0.34243873 -0.66623366 -2.155522
0.8428231 3.0293531 -0.7355269 -0.00950833 3.3730457 1.4120091 0.099352725 -0.6885107
4.4221106 -0.018642351 -0.9810464 0.05354981 1.4414821 2.3807008 0.36058095 -0.80511034
-0.4606033 0.33423296 -2.5765655 -1.1132452 3.3967185 2.0797246 -0.53582335 0.2762346
-0.027431963 -2.901501 -1.2527293 -1.8059008 -3.6726522 0.9150229 1.036399 0.70681864
0.5709184 0.55515414 0.14899667 -0.54123116 0.66058886 1.0786098 0.61820024 -0.38272813
-1.756088 0.25827366 -0.54927295 -1.5929263 0.5683502 0.9943216 0.29163224 0.8824176
-1.0901458 -3.0349047 -0.034315348 -2.0336363 -1.3592042 1.0546381 0.48387393 -0.13253692
4.9992933 0.9352407 -4.362343 2.3747191 0.09107129 -3.721296 2.400915 0.671136
-2.6392298 -0.8992682 -0.12824209 0.21679842 -0.72032183 -0.3020692 1.1893266 0.1325055
-0.032576174 1.2192764 -4.3331904 0.42048898 2.9505713 -3.5185378 1.3059511 1.7914716
-2.9132712 0.6387142 0.05693079 -0.61869323 -0.5141673 -2.8721867 -0.4537284 0.053488635
-0.75128603 0.4020151 0.5399461 -0.13839974 -0.7548057 -1.4931654 -2.9553154 -0.22735499
00000000: 9842 19c0 8216 9e3e 86d6 7940 9ce2 7fc0
00000010: c019 f5be 25cc 2440 4504 8bc0 1979 5f3e
00000020: fa0d af3f 7eac 37bf 5a32 9ebf 4ab7 b63e
00000030: ae6b 90bf 59fc f0bd 2dc9 f13e bdef 4f3f
00000040: dd7c 0b40 a7af c93f bdff 9540 8b4f 863d
00000050: f831 7abe 137c 1f40 6cd2 0dbf be2c 6cc0
00000060: e817 b93f e098 033f 2334 1fc0 cf2e 903e
00000070: 6ae6 b93d 09b1 81bf 6ad6 a73f cbc7 2fbe
00000080: 7bbd 10c0 29a5 843f fa4b 04bd aff2 45bf
00000090: c8ea 36be 5392 7a3f b695 173f 067a 91be
000000a0: 742b b53e 6add 02bf f348 3abe 2172 b5bf
000000b0: 4a01 0abe c664 e2bf 12c0 223f 07e2 443f
000000c0: 29dc 2ac0 6bc7 15bf 76ff e5be 0f94 52bf
000000d0: dd8d 41bd ee6b 233f 333c b540 9ffb 9bbf
000000e0: b1fd 25c0 5f7e 9540 b4a2 cfbf e324 2cc0
000000f0: 3e8c 1740 6fa3 2fbf 8470 fcbe 9149 0dc0
00000100: a714 0ac0 2ced 853f 3269 89bf 757b 7ebe
00000110: d13b 1c3f 48f8 c5be e731 a83e ba49 453e
00000120: 696b 96c0 f66b 93bf d9f6 a13f be0c 88c0
00000130: 1eed b7be 9d93 2e40 6759 7fbe 27e0 2c3f
00000140: ea25 1240 ea59 ec3f 588f 3a3c b2ab 1fc0
00000150: 6d27 a03f 2d0f 2f3e 1e59 b7bf c3dd 6a3f
00000160: 0547 0abe 88bc 58be a1ba 0f3d 8fa0 e0bf
00000170: 5ed2 22c0 8906 06bd 6a9e adbf dde2 cdbf
00000180: 4c45 5bbe 8650 35bf 742d 36bf 25bc 43c0
00000190: 4d46 1ac0 9931 64bf e9b0 babf 9805 babf
000001a0: d716 c83f a9a9 213d e791 fdbe c3a9 e93f
000001b0: 5a26 9abf d650 d9bf b93d 91bc 9687 113d
000001c0: 83d5 97bf da6f babd 4959 803f c1d8 f4bf
000001d0: 02e9 0c3f 791a 8cbf 0a87 76c0 a6ba c4bf
000001e0: ff0c 9fbf 73b4 9b3e dd65 1940 eba0 73bf
000001f0: 5573 38bf 3ba5 953f cef6 1f3f e2ae 60bf
00000200: 9723 a33f 6edb a83e 7c23 2740 e551 4340
00000210: 6641 bd3e d0af 823f a20c 923e 97a3 cdbf
00000220: 90d6 c7be 971f 7e3f e5c1 15bf 60a3 e03c
00000230: 84b0 bf3e 0d8d e73f 7444 26bf 5e21 42c0
00000240: 4849 f8be 43c6 413f 31f4 063f de3c 313e
00000250: d2cf 9b3f 97ea 023d 4e82 95bc b97e dd3f
00000260: f9d7 753f 2707 033f 3ed8 303f 4062 1bbf
00000270: 1706 aa3e 2154 af3e 4a8e 2abf 13f4 09c0
00000280: 41c3 573f ece0 4140 7e4b 3cbf d4c8 1bbc
00000290: fbdf 5740 b7bc b43f 7179 cb3d 3d42 30bf
000002a0: ee81 8d40 d8b7 98bc db25 7bbf 0c57 5b3d
000002b0: 7c82 b83f 675d 1840 119e b83e b61b 4ebf
000002c0: 32d4 ebbe 9520 ab3e 73e6 24c0 d27e 8ebf
000002d0: d663 5940 351a 0540 b82b 09bf 9f6e 8d3e
000002e0: ffb8 e0bc 31b2 39c0 6f59 a0bf c227 e7bf
000002f0: bc0c 6bc0 f13e 6a3f b9a8 843f 11f2 343f
00000300: b527 123f 951e 0e3f 9592 183e 208e 0abf
00000310: 5a1c 293f e30f 8a3f 5f42 1e3f f1f4 c3be
00000320: 7ec7 e0bf 723c 843e 279d 0cbf 02e5 cbbf
00000330: 667f 113f dc8b 7e3f d250 953e 1fe6 613f
00000340: e689 8bbf e13b 42c0 408e 0cbd 1927 02c0
00000350: 67fa adbf 62fe 863f 53be f73e c2b7 07be
00000360: 36fa 9f40 ef6b 6f3f 5098 8bc0 66fb 1740
00000370: 9683 ba3d b729 6ec0 97a8 1940 92cf 2b3f
00000380: 24e9 28c0 7136 66bf e551 03be 6800 5e3e
00000390: 0367 38bf d0a8 9abe db3b 983f 86af 073e
000003a0: 986e 05bd 4011 9c3f 7fa9 8ac0 554a d73e
000003b0: 29d6 3c40 b92f 61c0 6829 a73f f14e e53f
000003c0: 0973 3ac0 c682 233f 4330 693d ae62 1ebf
000003d0: 78a0 03bf e8d1 37c0 174f e8be e616 5b3d
000003e0: 4854 40bf ecd4 cd3e e839 0a3f a9b8 0dbe
000003f0: f23a 41bf 0b20 bfbf e323 3dc0 bfcf 68be

down_convs.2.conv1.bias f4 [12]
0.0015290625 -0.053303886 0.0728113 -0.049273178 0.000119557146 0.0065738615 -0.18302709 -0.046704028
-0.06373186 0.00024952396 0.11848299 0.03417227
00000000: d36a c83a 2d55 5abd 171e 953d acd2 49bd
00000010: c1ba fa38 8c69 d73b 746b 3bbe b94c 3fbd
00000020: d985 82bd 8ad2 8239 36a7 f23d 39f8 0b3d

down_convs.2.conv2.weight f4 [12, 12, 3, 3, 3]
-2.2895918 2.4419093 1.11095 -2.7119913 1.5461034 -0.16198947 -3.6214473 2.0659933
1.8206038 1.6761105 2.0043654 0.79926604 1.6727874 1.0623813 0.2079992 2.5118408
1.3975155 0.26972502 0.71755236 -0.44832626 -2.2592814 1.1261306 0.18781649 0.3298243
2.0431828 -0.7288159 -3.3567123 0.48041475 -0.20459685 -0.96777767 -2.205878 -1.4939286
-1.683284 2.25814 -0.40567118 -2.06594 -0.2724937 -0.5198996 0.9818036 -0.65770584
-2.6816509 -0.07112107 1.0210369 -2.5903485 -2.668098 0.0780919 0.55006135 3.2147188
-1.3546832 -0.67849636 1.8762264 -0.65422535 -1.0191195 2.5070574 -2.7727582 -0.2325464
-0.71116656 -0.29178476 -0.4506459 -0.46783546 0.21923752 -1.1616693 0.3034619 -0.8224975
1.5185938 0.15368487 -0.7901179 -0.44454965 -0.7937651 -0.522571 -1.7252947 -0.99526405
-0.7314533 0.34008852 -1.9185238 -0.85621846 -1.5057347 -2.1386747 0.2561163 -1.7689197
-1.9388636 -1.696688 0.7498508 0.7017021 -0.57793474 0.20790549 -0.23327416 -0.40924338
-2.2560854 -1.2332897 1.2461491 2.5150092 1.560196 -0.21850435 0.22979973 -0.34985274
-1.418149 -2.484074 -1.301238 1.8770254 1.6697781 -0.64111257 -0.31462198 0.5235069
-0.9950971 -1.1497756 -0.5383458 -0.38063842 2.286671 0.53201133 -2.534765 2.1282575
1.0035614 -1.6821486 1.2755595 -0.005700672 -0.18580991 0.8799801 0.822805 -0.8857211
0.8965107 0.06840935 -2.1173863 -0.5676054 -2.334121 -2.746589 -1.6351128 -0.99807805
-2.3784788 -1.7899773 -2.1770732 -3.0734134 -1.1767718 -3.742507 -3.1257055 -2.4444523
-1.722936 -2.0780327 1.8367814 -0.90383345 -1.2897146 1.6931796 -1.5137621 -2.6667995
-0.5678744 0.48004025 0.55481565 -0.20373997 -0.24752994 0.67829233 -0.4503119 -1.0096588
-0.17464273 -1.2650509 0.6912709 1.1206307 -1.1951939 0.1265613 1.4429914 -2.018424
0.09669625 0.67127144 -1.5278459 -0.86514205 -1.7561514 -0.4635762 -0.25575644 0.70287377
0.27429488 -1.5934099 0.49050134 -1.7104919 -1.0407714 0.66643554 -0.8085927 -0.22062127
0.96100163 -0.9199141 -0.18173748 1.5328529 -0.21784736 2.0291142 2.383052 0.39853022
1.5298587 1.9555614 -0.5239979 1.2883469 2.1399696 -0.98784584 -0.014364166 -1.0736736
-0.46799558 0.37998292 -1.1528661 -2.0155048 0.33253813 1.4875838 -0.7712679 0.5304323
1.0418593 0.12041535 -1.144351 -2.818002 -0.5851265 0.9451365 0.9714998 -0.37244225
1.2564436 2.1134765 -0.97414315 -1.8127654 -1.7483048 0.105962746 1.0978662 0.07274682
0.4403133 -0.77093375 -2.378269 -1.3414171 0.29173577 -0.54881805 -1.7486618 0.29815212
0.5124248 0.5250432 -1.0387248 -1.927309 -0.36120838 0.54311275 -1.0139327 -1.5356703
0.033662535 -0.4540061 -0.8670737 -2.070275 -2.2733302 0.9316726 0.44834933 -0.48738492
0.8940304 0.0813075 -0.66876787 0.011930127 -0.053557556 -0.058127843 0.052161474 -0.046801824
-0.08425241 0.038055755 -0.048642587 -0.23441224 -0.041364443 0.020929681 -0.029508816 -0.06861015
00000000: ac88 12c0 3e48 1c40 9c33 8e3f 4491 2dc0
00000010: b7e6 c53f 91e0 25be cbc5 67c0 3c39 0440
00000020: 8c09 e93f ca8a d63f 8647 0040 b39c 4c3f
00000030: e61d d63f 1cfc 873f befd 543e 00c2 2040
00000040: cae1 b23f 6619 8a3e 83b1 373f 058b e5be
00000050: 1198 10c0 0c25 903f f752 403e bbde a83e
00000060: 82c3 0240 ae93 3abf 60d4 56c0 ecf8 f53e
00000070: d681 51be 47c0 77bf 1b2d 0dc0 0d39 bfbf
00000080: da75 d7bf 5e85 1040 22b4 cfbe 5c38 04c0
00000090: 4b84 8bbe 2418 05bf 7b57 7b3f 695f 28bf
000000a0: 2ba0 2bc0 eca7 91bd 56b1 823f 45c8 25c0
000000b0: 1ec2 2ac0 a5ee 9f3d d2d0 0c3f f4bd 4d40
000000c0: 4266 adbf f0b1 2dbf 3028 f03f 507b 27bf
000000d0: 8272 82bf a173 2040 df74 31c0 a520 6ebe
000000e0: 030f 36bf d064 95be 0fbb e6be 2188 efbe
000000f0: cd7f 603e 94b1 94bf 5c5f 9b3e 328f 52bf
00000100: 4861 c23f 915f 1d3e 2b45 4abf 039c e3be
00000110: 3134 4bbf 37c7 05bf 75d6 dcbf a0c9 7ebf
00000120: 8640 3bbf 1520 ae3e 3092 f5bf 2231 5bbf
00000130: eabb c0bf 0ce0 08c0 ad21 833e f66b e2bf
00000140: af2c f8bf 132d d9bf 39f6 3f3f c0a2 333f
00000150: 88f3 13bf 2de5 543e 6cdf 6ebe 5988 d1be
00000160: b463 10c0 70dc 9dbf d081 9f3f e9f5 2040
00000170: 81b4 c73f 9bbf 5fbe 9f50 6b3e e61f b3be
00000180: e885 b5bf 12fb 1ec0 f78e a6bf 5e42 f03f
00000190: 4abb d53f f41f 24bf 2216 a1be 8c04 063f
000001a0: afbe 7ebf d92b 93bf 08d1 09bf 0ae3 c2be
000001b0: d158 1240 e531 083f 9739 22c0 5f35 0840
000001c0: b374 803f a550 d7bf 8945 a33f b4cc babb
000001d0: f444 3ebe 6046 613f 59a3 523f 9ebe 62bf
000001e0: ba81 653f 341a 8c3d 4283 07c0 964e 11bf
000001f0: 3d62 15c0 1dc8 2fc0 604b d1bf 0b82 7fbf
00000200: ff38 18c0 fa1d e5bf 2b55 0bc0 ceb2 44c0
00000210: 75a0 96bf 3c85 6fc0 8f0b 48c0 e871 1cc0
00000220: 2b89 dcbf 7dfe 04c0 a71b eb3f a161 67bf
00000230: 5e15 a5bf 1cba d83f f5c2 c1bf d8ac 2ac0
00000240: 3760 11bf d6c7 f53e 6608 0e3f 36a1 50be
00000250: 7d78 7dbe 91a4 2d3f 488f e6be 803c 81bf
00000260: 8bd5 32be 30ed a1bf 21f7 303f d470 8f3f
00000270: 1dfc 98bf 4999 013e f1b3 b83f dc2d 01c0
00000280: af08 c63d 72d8 2b3f 7490 c3bf f379 5dbf
00000290: 92c9 e0bf dc59 edbe 82f2 82be 89ef 333f
000002a0: 6170 8c3e dbf4 cbbf fe22 fb3e 66f1 dabf
000002b0: ff37 85bf 859b 2a3f eeff 4ebf 8bea 61be
000002c0: 3404 763f 7e7f 6bbf 6419 3abe 8634 c43f
000002d0: 6113 5fbe 02dd 0140 ed83 1840 270c cc3e
000002e0: 69d2 c33f d64f fa3f ba24 06bf 8de8 a43f
000002f0: 43f5 0840 77e3 7cbf ae57 6bbc 236e 89bf
00000300: 1e9d efbe 1f8d c23e 1e91 93bf 08fe 00c0
00000310: 7042 aa3e 2569 be3f d071 45bf 69ca 073f
00000320: a55b 853f 539c f63d 187a 92bf 255a 34c0
00000330: daca 15bf 77f4 713f 36b4 783f c0b0 bebe
00000340: 25d3 a03f 3343 0740 7261 79bf b208 e8bf
00000350: 74c8 dfbf ff02 d93d e186 8c3f 49fc 943d
00000360: bf70 e13e ea5b 45bf 8f35 18c0 8eb3 abbf
00000370: 645e 953e 577f 0cbf 26d4 dfbf 65a7 983e
00000380: 462e 033f 3b69 063f eff4 84bf 10b2 f6bf
00000390: 4ef0 b8be 7009 0b3f 8cc8 81bf d890 c4bf
000003a0: bae1 093d 7d73 e8be 8bf8 5dbf 637f 04c0
000003b0: 3e7e 11c0 1882 6e3f 0b8e e53e 848a f9be
000003c0: 2ddf 643f 8c84 a63d 5f34 2bbf 9476 433c
000003d0: 2b5f 5bbd 7617 6ebd 45a7 553d 45b3 3fbd
000003e0: 878c acbd 5ae0 1b3d 733d 47bd c309 70be
000003f0: c36d 29bd b974 ab3c 79bc f1bc 7a83 8cbd

down_convs.2.conv2.bias f4 [12]
0.047834262 -0.02193657 -0.023231804 -3.7799404e-05 -0.03917987 -0.019850556 0.01116306 -0.011760158
-0.03051762 0.0074864235 -0.007357251 -0.02726682
00000000: dced 433d 52b4 b3bc a050 bebc cd8a 1eb8
00000010: 127b 20bd a29d a2bc 44e5 363c aead 40bc
00000020: 1600 fabc ac50 f53b 1815 f1bb ab5e dfbc

down_convs.2.norm0.weight f4 [12]
2.5153472 2.5086226 1.2138008 1.0750974 1.5054761 0.86598885 2.5232441 1.4551176
1.9393207 0.5166307 1.8783937 0.9399587
00000000: 73fb 2040 468d 2040 d35d 9b3f cb9c 893f
00000010: 71b3 c03f 72b1 5d3f d57c 2140 4b41 ba3f
00000020: a93b f83f e941 043f 346f f03f 22a1 703f

down_convs.2.norm0.bias f4 [12]
-0.3270393 -0.3085086 -1.0882187 -0.6066283 -0.77918845 0.05273284 1.4572477 0.6738762
-0.073257744 -0.40144256 2.484465 -1.2478166
00000000: b271 a7be d7f4 9dbe c04a 8bbf fe4b 1bbf
00000010: e578 47bf 64fe 573d 1887 ba3f 2783 2c3f
00000020: 2808 96bd e189 cdbe 7901 1f40 74b8 9fbf

down_convs.2.norm0.running_mean f4 [12]
-10.531609 -7.7073417 10.124246 -33.202038 30.476608 -72.91442 -7.2816863 -0.35420185
-4.3908515 -3.9736218 -23.265287 -1.2867346
00000000: 7881 28c1 8ba2 f6c0 e9fc 2141 e3ce 04c2
00000010: 18d0 f341 2fd4 91c2 9303 e9c0 f259 b5be
00000020: db81 8cc0 d24f 7ec0 4f1f bac1 b8b3 a4bf

down_convs.2.norm0.running_var f4 [12]
311.6875 336.90378 2402.6777 409.81583 1060.7034 1698.7748 277.1333 1136.0819
1317.4236 80.40202 2433.964 919.6067
00000000: 00d8 9b43 af73 a843 d82a 1645 6de8 cc43
00000010: 8296 8444 cb58 d444 1091 8a43 9f02 8e44
00000020: 8ead a444 d6cd a042 6d1f 1845 d4e6 6544

down_convs.2.norm1.weight f4 [12]
3.2194312 1.163167 1.2629929 0.14142324 2.351286 2.0408745 2.4769318 1.553258
1.373467 2.3137774 2.1221018 1.09139
00000000: 290b 4e40 a8e2 943f c0a9 a13f 41d1 103e
00000010: 787b 1640 b09d 0240 0d86 1e40 28d1 c63f
00000020: c4cd af3f ee14 1440 84d0 0740 abb2 8b3f

down_convs.2.norm1.bias f4 [12]
-1.7089357 -0.7987626 -1.224183 -0.6190799 -1.176714 -0.58915764 -1.5306811 -0.3495887
0.7372619 -1.1858314 1.0542445 -0.009913975
00000000: 68be dabf b57b 4cbf 07b2 9cbf 057c 1ebf
00000010: 909e 96bf 09d3 16bf 5ced c3bf 4afd b2be
00000020: 32bd 3c3f 53c9 97bf 7cf1 863f 3a6e 22bc

down_convs.2.norm1.running_mean f4 [12]
54.03484 19.802263 87.55475 -17.473986 -35.906826 -50.15289 -131.34787 27.741491
-107.96982 -115.3194 -42.63526 -37.247936
00000000: ad23 5842 096b 9e41 081c af42 b9ca 8bc1
00000010: 97a0 0fc2 8f9c 48c2 0e59 03c3 93ee dd41
00000020: 8cf0 d7c2 88a3 e6c2 828a 2ac2 e3fd 14c2

down_convs.2.norm1.running_var f4 [12]
1851.1644 1382.7218 1423.1758 765.8652 590.7427 2327.079 984.0892 2983.911
1867.2136 2281.4792 3760.8774 927.5086
00000000: 4365 e744 19d7 ac44 a0e5 b144 5f77 3f44
00000010: 88af 1344 4471 1145 b505 7644 937e 3a45
00000020: d666 e944 ab97 0e45 0a0e 6b45 8de0 6744

down_convs.3.conv1.weight f4 [24, 12, 3, 3, 3]
1.0718229 -0.06323247 -1.2231128 0.20429046 0.373778 -0.33844578 -1.970546 1.3263065
0.5606693 0.0041278335 -0.8975507 -0.72221607 0.22119887 -1.038706 0.53448796 0.043519445
-0.08547946 1.3823775 -0.73912245 -1.4836686 -2.7897365 0.30396757 -1.0782515 -0.2460387
-0.6133489 0.85168225 -1.6231891 -0.82817835 -1.2930994 -1.8010588 1.122828 1.269486
0.4936549 -0.8221051 -0.3100619 -0.38266993 -2.0036943 -1.866571 -1.1487105 2.0123289
0.66056794 1.1212289 0.17091677 0.42380717 -0.663982 -3.236217 -1.454643 -0.44653258
0.9801534 0.8858501 1.7263963 0.7274363 -0.9568089 -1.6812688 -0.6345232 -1.1780466
-1.1266223 0.37041685 0.6778575 1.023974 0.83725035 0.500006 0.82677525 -0.57770866
-2.1218562 1.3494807 1.3379776 1.597908 2.7116227 1.4731135 -0.4239821 0.9361355
-0.8205823 -0.13972239 1.3098621 0.4632388 1.6207613 0.13824014 1.3211418 0.07425767
-0.25889263 -0.08016981 -0.09445493 -0.014414463 0.086276814 -0.03085497 -0.27504477 -0.14942968
-0.055952072 0.009916071 -0.20220797 -0.20769876 -0.108851045 0.07652868 -0.064043455 -0.023498362
-0.33910236 0.07514365 -0.11122646 -0.06944046 -0.12511137 -0.15018937 0.16725056 0.0032612507
-0.13621908 -0.27539775 -0.11606534 -0.26893255 3.0745945 1.599259 1.1493587 1.196925
0.35124156 -2.3983686 2.9709017 0.0553346 -3.360361 2.9322379 0.30463448 2.5574412
1.4095199 1.1859868 0.68934107 0.577996 0.14879233 1.5535295 1.1798558 0.8523656
1.6753905 -1.7404851 0.7139676 -0.42371795 -2.1538255 2.620296 0.85878456 -3.819309
-3.5503247 -2.7953923 0.9212779 0.88964623 0.03985506 0.35503316 0.09606809 -1.0467546
-3.4255395 -2.7582076 -3.0914319 1.3555757 0.95472896 1.188328 0.38391212 0.76083815
0.038081612 -3.937208 -3.212988 -3.8418095 -0.30186266 1.4956962 0.29660532 -1.6210392
0.03620276 -0.41041753 2.050392 -0.6300923 0.29375568 2.1491892 0.22974895 0.50804967
1.5945683 -0.540293 -0.29248664 -0.024327096 -1.0390911 -1.4644492 1.3239423 1.8967216
1.3523669 0.9383289 0.49847174 0.5050904 -0.87446433 -1.4383738 -0.4226368 0.1915062
1.2999734 1.0614414 0.702656 1.5502876 -0.73104155 -3.12152 -1.894629 -3.5253472
2.7425754 2.8856692 0.2198066 -2.513489 0.29356068 -0.08441019 -1.2950386 -1.6156904
-0.48548648 2.7150857 0.9555121 1.5844798 0.15120539 2.8750174 0.95249605 -2.1433263
0.99238837 0.5251029 0.8281329 1.3876086 1.6870537 0.8989831 1.1286942 -1.7353144
-0.9086592 -0.91617525 -2.4962788 0.4500178 0.63719016 -0.30056486 0.5735943 0.4457285
0.082251444 -2.1888702 0.23789823 -2.4998524 -0.36679912 -1.0785788 -1.1875143 -0.61271715
0.82046807 1.4341784 -2.5601482 -0.8973672 -0.80425143 -0.280513 -0.5798624 0.1805955
-1.1905502 0.3199178 1.3151085 0.6842624 -0.06430619 -0.72011775 -1.2386173 -1.0868418
-0.28718632 0.22465512 0.28677648 1.4056836 -0.75339806 -0.2729172 -0.13094352 -0.37552965
00000000: 7e31 893f 0680 81bd f68e 9cbf 8531 513e
00000010: d45f bf3e c448 adbe da3a fcbf 69c4 a93f
00000020: 0688 0f3f c742 873b e2c5 65bf 27e3 38bf
00000030: f581 623e 51f4 84bf 34d4 083f 7241 323d
00000040: db0f afbd bff1 b03f 2137 3dbf dae8 bdbf
00000050: 0b8b 32c0 a3a1 9b3e 2504 8abf 92f1 7bbe
00000060: 6f04 1dbf d907 5a3f a9c4 cfbf 7f03 54bf
00000070: 4884 a5bf 1889 e6bf d4b8 8f3f 847e a23f
00000080: 56c0 fc3e 7b75 52bf 6fc0 9ebe 50ed c3be
00000090: 873c 00c0 cceb eebf f208 93bf ffc9 0040
000000a0: fb1a 293f 6e84 8f3f ce04 2f3e 41fd d83e
000000b0: b9fa 29bf 2e1e 4fc0 be31 babf eb9f e4be
000000c0: 55eb 7a3f 12c7 623f 8efa dc3f 4439 3a3f
000000d0: 6ef1 74bf d133 d7bf 1d70 22bf 3bca 96bf
000000e0: 2935 90bf 47a7 bd3e 1288 2d3f 9411 833f
000000f0: 0a56 563f 6500 003f 8ba7 533f b7e4 13bf
00000100: 7ecc 07c0 c9bb ac3f da42 ab3f 4088 cc3f
00000110: 3a8b 2d40 fc8e bc3f 2f14 d9be 93a6 6f3f
00000120: ae11 52bf 6313 0fbe 90a9 a73f a32d ed3e
00000130: 1b75 cf3f d38e 0d3e 2d1b a93f 6814 983d
00000140: 938d 84be 1230 a4bd 9671 c1bd a42a 6cbc
00000150: e6b1 b03d 90c3 fcbc abd2 8cbe 1804 19be
00000160: 002e 65bd 0477 223c 9b0f 4fbe fcae 54be
00000170: 4ced debd 12bb 9c3d 3729 83bd a37f c0bc
00000180: d39e adbe eae4 993d b3ca e3bd cd36 8ebd
00000190: 321d 00be 3ecb 19be bb43 2b3e b5ba 553b
000001a0: 047d 0bbe ef00 8dbe aab3 edbd 87b1 89be
000001b0: 28c6 4440 85b4 cc3f 301e 933f d734 993f
000001c0: efd5 b33e df7e 19c0 4123 3e40 89a6 623d
000001d0: 2810 57c0 c9a9 3b40 0df9 9b3e 1ead 2340
000001e0: 266b b43f 6ace 973f a878 303f 8cf7 133f
000001f0: 045d 183e 0eda c63f 8405 973f a234 5a3f
00000200: 3273 d63f 37c8 debf 95c6 363f 8ff1 d8be
00000210: 47d8 09c0 eeb2 2740 4ed9 5b3f 8f6f 74c0
00000220: 8538 63c0 b5e7 32c0 ded8 6b3f dbbf 633f
00000230: 0f3f 233d e8c6 b53e 59bf c43d 0efc 85bf
00000240: 0a3c 5bc0 7986 30c0 05da 45c0 8183 ad3f
00000250: 1e69 743f 221b 983f 2190 c43e 4ac6 423f
00000260: 77fb 1b3d 37fb 7bc0 98a1 4dc0 35e0 75c0
00000270: be8d 9abe f972 bf3f a7dc 973e 367e cfbf
00000280: 5849 143d 3f22 d2be 9f39 0340 bb4d 21bf
00000290: 2567 963e 518c 0940 4f43 6b3e 8b0f 023f
000002a0: d01a cc3f a450 0abf cfc0 95be 9e49 c7bc
000002b0: f000 85bf 1273 bbbf f176 a93f c6c7 f23f
000002c0: 5c1a ad3f 5336 703f b037 ff3e 9b4d 013f
000002d0: e5dc 5fbf a21c b8bf da63 d8be 341a 443e
000002e0: 8765 a63f 50dd 873f 43e1 333f d36f c63f
000002f0: 8a25 3bbf fcc6 47c0 3483 f2bf 4a9f 61c0
00000300: 5b86 2f40 ceae 3840 fb14 613e 01dd 20c0
00000310: 964d 963e 40df acbd d3c3 a5bf f1ce cebf
00000320: af91 f8be f7c3 2d40 719c 743f 3cd0 ca3f
00000330: 96d5 1a3e 4900 3840 c8d6 733f 422c 09c0
00000340: 2a0d 7e3f 256d 063f 8500 543f 299d b13f
00000350: 60f1 d73f c223 663f 0d79 903f c81e debf
00000360: e49d 68bf 768a 6abf 08c3 1fc0 bc68 e63e
00000370: e51e 233f a3e3 99be 13d7 123f 8736 e43e
00000380: 7273 a83d 7316 0cc0 989b 733e 95fd 1fc0
00000390: 18cd bbbe df0e 8abf 7800 98bf 08db 1cbf
000003a0: 320a 523f 2893 b73f 78d9 23c0 dbb9 65bf
000003b0: 6ce3 4dbf 669f 8fbe dd71 14bf 07ee 383e
000003c0: f363 98bf 44cc a33e 7a55 a83f d22b 2f3f
000003d0: f7b2 83bd a359 38bf 038b 9ebf a21d 8bbf
000003e0: 160a 93be fe0b 663e 5ed4 923e 71ed b33f
000003f0: b2de 40bf cebb 8bbe 0f16 06be 6c45 c0be

down_convs.3.conv1.bias f4 [24]
0.007297577 0.0037763421 -0.0043067215 0.002067295 0.023315718 -0.009705267 -0.001882356 -0.00301317
-0.0067211036 0.0033844842 0.00797534 -0.001225968 -0.0007931412 -0.014432776 0.0035259645 -0.001164765
-1.9462145e-06 0.003225791 -0.0021497924 -0.00156986 0.0012638639 -9.270041e-05 -0.0006997944 -0.05397697
00000000: 8320 ef3b 827c 773b 661f 8dbb 747b 073b
00000010: 9b00 bf3c d702 1fbc 63b9 f6ba 9b78 45bb
00000020: b43c dcbb 39ce 5d3b 00ab 023c a9b0 a0ba
00000030: ceea 4fba 7377 6cbc de13 673b 07ab 98ba
00000040: b69b 02b6 cb67 533b 88e3 0cbb c3c3 cdba
00000050: 3ca8 a53a 2768 c2b8 6872 37ba f516 5dbd

down_convs.3.conv2.weight f4 [24, 24, 3, 3, 3]
0.4496021 -0.35802275 -1.4675962 -0.035227675 0.5989146 -0.38425627 1.7052618 1.4278071
-0.12267728 0.5795149 -0.027762858 -1.1094558 -0.1818789 0.8373557 -0.4102017 0.75012755
1.9738591 0.5009137 -0.21207565 1.3158511 0.7778662 -1.524089 -0.890174 -2.2871926
-0.83306044 0.44528288 0.3129204 -5.3111076 -1.8781177 -1.4529145 -0.25037393 -0.22422837
-1.5989454 0.760164 0.56575173 0.47907832 -2.6943545 2.4008534 0.9650318 1.0973631
0.8320765 1.8655059 0.73368955 0.5455084 2.1077552 -3.0641415 -0.046588954 -4.0685306
-1.2802583 -0.06468281 -0.84132075 0.6874139 0.076729804 -0.7234887 0.3318794 -1.6200875
-1.424128 -1.7956549 -1.8655834 -0.86443156 -2.5000553 0.34027445 -0.10807474 0.43612784
-1.9955137 -1.8151954 -1.9236072 0.45533952 0.68032336 0.6128709 1.7259532 -0.15160578
-0.9721093 -1.4123933 -1.0922498 -0.42442182 1.8946891 -0.12605615 0.14942233 0.41008478
1.0982168 -0.16761297 0.13297464 0.30316365 -0.7935141 -0.2028805 0.15162717 0.53934085
-1.9191796 -0.049800344 -0.20652546 -0.34521562 -1.172859 0.018907765 -2.9555967 -3.5784726
-1.0430393 -1.2919456 -0.5536632 0.40484208 0.64375675 3.0671544 -0.32060465 -0.8867154
1.3840958 0.988974 1.1719882 0.23175685 -1.7169399 -3.3326316 -2.4453156 -1.2201109
-0.70498025 -1.8390856 0.19453807 1.071801 0.28514245 -0.7423702 0.44799948 -2.2691035
-0.0897773 1.6896346 -1.2987943 -0.59435296 0.004253139 -2.0344734 0.019220237 0.36797553
-1.0221736 0.62970537 1.7332088 -0.6162278 -1.9630955 0.24317439 -0.69402224 -2.4187024
-0.63630646 0.18777873 -0.99754894 1.2233452 -0.1455484 -0.097298175 1.648128 -0.7483915
0.66617167 -0.20251907 -2.4877863 0.8864806 2.6211174 2.122833 1.4269774 2.8222935
1.9432944 2.5859523 0.35118854 -2.431916 -0.7798383 0.21714735 -1.6368805 -1.3667841
1.0991517 -2.6574075 -2.9453773 -2.8902876 -2.4103613 -3.2848942 -0.19571033 -0.034727167
-1.0761484 -0.9605568 0.6997644 0.8006452 0.5320222 -1.0659028 -0.39539242 2.0375512
0.40765575 0.3819665 -0.3628666 1.2883754 1.036567 1.5878788 -1.2699615 -1.7643645
1.5506046 0.6734257 -1.4779872 -1.1159973 0.44699094 -3.120311 -0.4471719 -0.61798024
-1.3878474 -0.25866354 -1.3411379 1.1976848 0.9932112 0.24727255 -2.1289098 0.4672418
-0.3288349 -1.1176486 -0.5074787 -1.0170363 0.62733036 0.49204847 0.29697418 -0.23385173
1.1105875 -0.38259593 -1.5768301 -1.1841531 -0.5475194 0.24918075 0.3664682 0.5190028
2.2062948 3.3612838 3.2585175 0.07028618 1.8524857 0.061701052 -1.3997447 -0.15122174
-2.146687 2.472035 1.4002165 2.705685 2.5755918 0.7669704 0.42585874 0.8433171
2.0248861 -0.27442196 1.9838119 1.2280762 3.0137184 0.123452015 0.89983666 -0.9199489
-1.0670463 0.1692937 -1.4017899 0.11464392 -0.5555027 -1.4688517 0.08748724 0.5961588
-1.3297528 0.16355057 0.22903092 -0.5623347 0.7791767 -0.4080689 -0.42030874 -0.42167836
00000000: 3f32 e63e c24e b7be 31da bbbf e54a 10bd
00000010: 7852 193f 3dbd c4be 0546 da3f 62c2 b63f
00000020: 3a3e fbbd 175b 143f ef6e e3bc a602 8ebf
00000030: 763e 3abe f15c 563f f505 d2be 5c08 403f
00000040: 6aa7 fc3f e13b 003f 5c2a 59be cf6d a83f
00000050: 3d22 473f 5915 c3bf 71e2 63bf 5d61 12c0
00000060: 7343 55bf 1efc e33e 1a37 a03e 98f4 a9c0
00000070: 2966 f0bf 1af9 b9bf 0331 80be 1f9c 65be
00000080: 3eaa ccbf 1c9a 423f 1bd5 103f c149 f53e
00000090: 4e70 2cc0 95a7 1940 530c 773f 6576 8c3f
000000a0: f702 553f e6c8 ee3f 14d3 3b3f 70a6 0b3f
000000b0: 76e5 0640 e51a 44c0 0fd4 3ebd 6731 82c0
000000c0: 81df a3bf 6c78 84bd cc60 57bf 5bfa 2f3f
000000d0: 8424 9d3d 8e36 39bf 19ec a93e 075f cfbf
000000e0: d449 b6bf 05d8 e5bf 70cb eebf 634b 5dbf
000000f0: e800 20c0 7438 ae3e 4a56 ddbd 264c df3e
00000100: fe6c ffbf 5358 e8bf c338 f6bf 4322 e93e
00000110: ac29 2e3f 1be5 1c3f 09ec dc3f 8c3e 1bbe
00000120: 28dc 78bf 4ec9 b4bf d7ce 8bbf d14d d9be
00000130: 2c85 f23f dd14 01be 2b02 193e a2f6 d13e
00000140: 5e92 8c3f bca2 2bbe 812a 083e 4438 9b3e
00000150: bd23 4bbf e8bf 4fbe 2744 1b3e 3e12 0a3f
00000160: ada7 f5bf 72fb 4bbd 697b 53be 1ac0 b0be
00000170: 3e20 96bf 75e4 9a3c 7f28 3dc0 b205 65c0
00000180: 5082 85bf 795e a5bf dfbc 0dbf 7647 cf3e
00000190: 3ecd 243f 424c 4440 4b26 a4be c8ff 62bf
000001a0: 0d2a b13f 662d 7d3f b603 963f ab51 6d3e
000001b0: b0c4 dbbf d649 55c0 0d80 1cc0 982c 9cbf
000001c0: 9679 34bf 2867 ebbf fd34 473e c630 893f
000001d0: 31fe 913e f90b 3ebf 3060 e53e fe38 11c0
000001e0: 29dd b7bd f245 d83f e43e a6bf 8427 18bf
000001f0: ea5d 8b3b d034 02c0 c273 9d3c 4a67 bc3e
00000200: 96d6 82bf 5f34 213f c9d9 dd3f 1bc1 1dbf
00000210: b746 fbbf b502 793e 71ab 31bf 05cc 1ac0
00000220: fbe4 22bf 1149 403e 5e5f 7fbf 9396 9c3f
00000230: a40a 15be 4444 c7bd dcf5 d23f 9696 3fbf
00000240: 3a8a 2a3f 2961 4fbe e437 1fc0 65f0 623f
00000250: 63c0 2740 7fdc 0740 32a7 b63f 75a0 3440
00000260: dfbd f83f 3e80 2540 fcce b33e 83a4 1bc0
00000270: 7ca3 47bf e05b 5e3e 4d85 d1bf c8f2 aebf
00000280: 01b1 8c3f f712 2ac0 1081 3cc0 79fa 38c0
00000290: 5c43 1ac0 b53b 52c0 4a68 48be 133e 0ebd
000002a0: 3bbf 89bf 0de7 75bf c223 333f 15f7 4c3f
000002b0: 9b32 083f 816f 88bf e070 cabe 3d67 0240
000002c0: 41b8 d03e 1d91 c33e a7c9 b9be 7ce9 a43f
000002d0: 3aae 843f 9d3f cb3f 198e a2bf b2d6 e1bf
000002e0: 367a c63f a065 2c3f af2e bdbf 00d9 8ebf
000002f0: ffdb e43e 2db3 47c0 b7f3 e4be f433 1ebf
00000300: fca4 b1bf 8c6f 84be 68aa abbf bc4d 993f
00000310: 1743 7e3f 0435 7d3e 0f40 08c0 513a ef3e
00000320: 0c5d a8be 1c0f 8fbf 20ea 01bf 3f2e 82bf
00000330: b998 203f c7ed fb3e 000d 983e d476 6fbe
00000340: bb27 8e3f 9de3 c3be 92d5 c9bf 5492 97bf
00000350: 3b2a 0cbf 3d29 7f3e b8a1 bb3e 5edd 043f
00000360: ef33 0d40 461f 5740 8d8b 5040 33f2 8f3d
00000370: 401e ed3f 3eba 7c3d d62a b3bf dfd9 1abe
00000380: 5263 09c0 d235 1e40 4b3a b33f f129 2d40
00000390: 7fd6 2440 2c58 443f 280a da3e a1e3 573f
000003a0: bc97 0140 0981 8cbe 8ced fd3f 9a31 9d3f
000003b0: c3e0 4040 69d4 fc3d b25b 663f c581 6bbf
000003c0: f994 88bf 545b 2d3e da6d b3bf 6eca ea3d
000003d0: 6d35 0ebf 5503 bcbf 832c b33d dd9d 183f
000003e0: 5735 aabf cd79 273e 1587 6a3e 2bf5 0fbf
000003f0: 2078 473f 68ee d0be b532 d7be 3ae6 d7be

down_convs.3.conv2.bias f4 [24]
0.0024981839 -0.008048464 0.0008069442 0.00084425777 0.0020758142 -0.0009823022 0.0063765133 0.008081626
-0.004141334 0.00070404384 0.0012744506 0.0023929835 0.00090105983 -0.0019984776 -0.012459067 -0.0067125424
0.010351232 -9.925142e-06 -0.00019820043 -0.0009778494 -0.006741907 0.0001186001 0.0024313005 -0.012397414
00000000: 92b8 233b b4dd 03bc 1c89 533a 2e51 5d3a
00000010: 620a 083b 98c0 80ba 12f2 d03b cc68 043c
00000020: 07b4 87bb 958f 383a 770b a73a 9ad3 1c3b
00000030: 1a35 6c3a e4f8 02bb 1d21 4cbc e3f4 dbbb
00000040: 3798 293c 2984 26b7 06d4 4fb9 2e2b 80ba
00000050: 37eb dcbb f2b8 f838 7456 1f3b 861e 4bbc
