outputs/outputs_new_tip_mask/epoch_170_model.pth (torch, 695187 bytes, 241 tensors)

down_convs.0.conv1.weight f4 [3, 1, 3, 3, 3]
000000 b7 dd b3 3f 11 93 2e bf 3f 9c f8 3e 27 82 5c 3f
       1.4052037 -0.68193156 0.48556706 0.86136097
000010 22 59 c0 3f a4 7f a2 3f ef 3e 31 3f 36 1b 0f 40
       1.5027201 1.2695203 0.69236654 2.2360358
000020 89 ac f2 3f b0 9e 5e bf 16 cd 99 3f 44 9d 03 bf
       1.8958904 -0.8696089 1.2015712 -0.51411843
000030 42 0c 43 bf ad b0 ae 40 df 87 a3 3d c1 7f f5 3d
       -0.7619058 5.459067 0.079849 0.11987258
000040 20 1c 9f 40 02 3f 63 3e bd 1a a1 be 6e a4 97 bf
       4.972183 0.22192004 -0.31465712 -1.1847055
000050 24 c9 f3 3f 7f fc 9e be 26 5c 2d bf 50 d9 92 3d
       1.9045758 -0.31052014 -0.6771873 0.07170355
000060 e1 7f 8d be 9f 1b 5f bf c3 95 e1 be e1 03 55 c0
       -0.27636626 -0.8715152 -0.44059572 -3.3283617
000070 67 73 53 bf 4b 5e e3 bf 84 ad c7 be 09 f3 c7 be
       -0.82597965 -1.7763151 -0.3899957 -0.3905261
000080 e1 22 29 3d 0e fd 6a 3f c6 b8 ab bf 5a 6c d1 bf
       0.04129303 0.9179238 -1.3415763 -1.6361191
000090 70 bb 0e c0 e6 71 95 3f 04 84 a2 3d fd b1 07 bf
       -2.2301903 1.1675384 0.07935336 -0.53005964
0000a0 e8 ad 71 be f7 d4 8c 3e bb 80 1a 3f 52 a3 3f c0
       -0.23601496 0.2750623 0.6035268 -2.9943433
0000b0 fd a6 48 c0 2d 4a 5e c0 1c 9d 97 bf 43 95 fc bf
       -3.1351922 -3.4732773 -1.1844821 -1.9733051
0000c0 dd 37 1c bf 03 c1 90 bf 60 e8 53 bf 17 0a da 3f
       -0.6102274 -1.1308903 -0.8277645 1.7034329
0000d0 46 47 1d be a0 8c b3 3d c0 35 6f bf 67 e5 87 bf
       -0.1535922 0.087670565 -0.9344139 -1.0616883
0000e0 38 07 4e bf bd 96 17 bf d3 12 7c bf 71 b8 27 be
       -0.80479765 -0.59214383 -0.98466223 -0.16378953
0000f0 7a 05 ab 3f 02 17 b8 3f 30 55 f7 3f f9 09 a1 bf
       1.3361046 1.4382021 1.9322872 -1.2581168
000100 f1 c3 87 bf d7 2b 9c bf d0 2d 58 bf 24 7f c9 bf
       -1.0606672 -1.2200879 -0.84444904 -1.5741925
000110 59 1b 85 bf 4f 4d 95 3f dd 88 a5 3f 67 1c ec 3f
       -1.0398971 1.1664218 1.2932392 1.8446168
000120 8c 15 83 bf 7b 48 8e bf 50 98 92 bf 27 42 93 be
       -1.024095 -1.1115869 -1.1452732 -0.28761408
000130 38 ff 51 bf b7 c8 19 bf ed 5f 92 3f e2 67 cd 3f
       -0.8203006 -0.6007189 1.1435524 1.6047328
000140 1f 3d 02 40
       2.0349805

down_convs.0.conv1.bias f4 [3]
000000 be 59 8c bd 5a 8d 54 bf 4b 0d 4a 3e
       -0.068530545 -0.83028185 0.19731633

down_convs.0.conv2.weight f4 [3, 3, 3, 3, 3]
000000 8a 0b 06 bf 27 1d 15 3f 39 11 ec bf 69 fc 8c bf
       -0.5236136 0.5824761 -1.8442756 -1.101453
000010 c6 03 9d 3f e9 26 b4 bf ab 02 d9 bf d4 ba 03 3f
       1.2266777 -1.4074374 -1.6953939 0.5145695
000020 85 24 a8 bf 29 35 16 3f 3b b7 47 bf 72 79 72 3e
       -1.3136145 0.58674866 -0.7801396 0.2367914
000030 3a d3 e3 3f 8c dd 1f 40 20 a4 ff 3f 7b 70 b0 3f
       1.7798836 2.4978971 1.9971962 1.3784326
000040 1b 8e 38 40 73 8f b8 3f c6 9e da bf 17 68 15 3f
       2.8836734 1.4418777 -1.7079704 0.58361953
000050 07 e1 86 bf 4d 06 b2 3d e7 90 93 40 6d c4 e3 bd
       -1.0537423 0.08692608 4.6114383 -0.111214496
000060 4e b3 ec 3e f8 3b 82 40 5a 47 61 be 7d ec b6 bd
       0.4623055 4.0698204 -0.21999875 -0.08931825
000070 ed dd 86 3e b5 a6 17 3f 1c f4 d8 3d 63 ab 43 bd
       0.2634119 0.5923875 0.10593435 -0.04777087
000080 43 2e 83 3e 37 da 60 3d a4 3c f1 3c 8c 6a 1d 3d
       0.25621232 0.054895606 0.029447861 0.03843169
000090 6f c6 99 be 1c 76 48 3e f8 db e3 3e 77 66 89 be
       -0.30034205 0.19576305 0.4450376 -0.26835987
0000a0 3a e1 f4 bc f6 84 96 bd 2e 0f 29 3d 5b 9e b4 bc
       -0.029892553 -0.07349579 0.041274242 -0.022048166
0000b0 57 2e 65 bc 74 92 ba be 48 c4 36 3e 3a 09 25 3f
       -0.013988099 -0.3643986 0.17848313 0.64467204
0000c0 4c e9 0f be 15 b0 85 bd f1 10 1c 3d 64 59 9c 3d
       -0.1405384 -0.065277256 0.038102094 0.076342374
0000d0 f7 af 17 bc 93 e7 7d 3e a3 fb f6 3e bc e0 b5 3d
       -0.009258262 0.2479537 0.4823886 0.08880755
0000e0 ca 77 57 bf 04 69 e0 bf 0a e3 d4 bf 98 cb a6 bf
       -0.8416716 -1.7532048 -1.6631787 -1.3030882
0000f0 11 83 74 bf 84 97 44 bf 00 4f 36 c0 d4 e5 3b 3f
       -0.9551249 -0.76793694 -2.8485718 0.73397565
000100 1a 3d 98 3f ac d1 97 3e d8 1f b9 bf ec 23 83 bf
       1.1893647 0.29652154 -1.4462843 -1.0245337
000110 48 36 e0 bf d1 98 23 bf e8 9f 48 be 61 ac d7 bf
       -1.7516565 -0.63905054 -0.1959225 -1.6849481
000120 03 ba 9c bd 24 55 47 3f a4 c3 7e 3e 61 64 5e bf
       -0.076526664 0.7786429 0.24879318 -0.86871916
000130 9e 7e 94 bf 2a a8 f2 bf 21 56 4d c0 40 9a 09 c0
       -1.160114 -1.895757 -3.208382 -2.1500397
000140 2b eb 52 c0 e6 cd ac be 62 cd 0d bf a5 eb 19 bf
       -3.2956035 -0.33750838 -0.55391514 -0.6012519
000150 b3 2a a8 bf 26 7e de bf ca f2 c8 bf 25 d2 6c bf
       -1.3138031 -1.7382247 -1.5699093 -0.92508155
000160 17 51 09 c0 a7 51 06 c0 34 2f 4e bf fc 1d ec be
       -2.1455743 -2.0987337 -0.80540776 -0.46116626
000170 6e b0 6f bf 1c 02 9d bf b3 61 9b bf 9e bd f1 bf
       -0.93628585 -1.2266269 -1.213919 -1.8885992
000180 f4 de e0 be 9f 3f 87 bf 4c 02 fb bf 04 59 1b bf
       -0.439201 -1.0566291 -1.9610076 -0.606827
000190 9b 15 75 bf 41 1d 01 bf 18 c9 3e be eb 90 7e bf
       -0.9573609 -0.5043526 -0.18631399 -0.9943988
0001a0 55 1a 82 bf 22 74 47 3f 8e bc 96 3c 56 83 78 3d
       -1.0164286 0.7791158 0.018400457 0.060672127
0001b0 40 11 ae 3e 24 e7 53 3e 9a 1d 0a 3f a1 e5 3b 3f
       0.33997536 0.20693642 0.5395142 0.7339726
0001c0 41 9d c9 3e 31 20 8e 3e 9c 37 dc 3e de 25 f1 3e
       0.39377788 0.27758935 0.43011177 0.47099203
0001d0 c6 38 b8 bd c1 46 d8 3e b6 d3 86 3e 98 c5 02 3f
       -0.08995204 0.4224148 0.26333398 0.51082754
0001e0 2b 46 e8 3e e9 c5 03 be 3d 32 20 3d a4 1d 7b 3f
       0.45366034 -0.12868465 0.03911041 0.98092103
0001f0 af 1a b0 3f 46 96 05 3f a7 d9 bf 3f b6 74 98 3f
       1.3758143 0.52182424 1.4988297 1.1910617
000200 da b8 b9 3f ac bd 3c 3f c2 29 7e 3e 46 bf 84 3e
       1.4509537 0.73726916 0.24820617 0.2592718
000210 47 ba 1a 3e 56 d7 b1 3e a6 49 e2 bd 08 d1 82 3f
       0.15110122 0.347346 -0.110492036 1.0220041
000220 b6 f4 08 bf 8e e2 77 bf 06 b4 8d 3b ed 86 36 c0
       -0.534984 -0.9683007 0.004324439 -2.8519852
000230 ac 4f 34 c0 cd a5 9b 3f 30 ce 43 3e fc a6 4a bd
       -2.8173628 1.2159973 0.19121623 -0.049475655
000240 73 37 97 3e ac d3 20 bf 5b 19 4f bf c0 02 b6 3f
       0.29534492 -0.62822986 -0.80898064 1.4219589
000250 76 f5 bb bf 67 7e 0d c0 d6 e3 a4 3f 2d 12 4e 3f
       -1.4684284 -2.21084 1.288203 0.80496484
000260 37 39 56 3f 57 31 bc 3f 58 0d a4 3f a0 a7 b5 3f
       0.8368105 1.4702557 1.2816572 1.419178
000270 1a 9a 5e 40 3e 40 a1 3f 3e 3d 89 3e 69 b3 dd 3f
       3.4781556 1.259773 0.26804537 1.7320377
000280 a4 a0 d0 3f 83 75 08 40 b9 b8 94 bf c7 c0 a1 bf
       1.6299024 2.1321723 -1.1618873 -1.2636956
000290 45 27 af bf 95 6a 78 bf f9 51 88 bf c5 aa 8d 3c
       -1.3683859 -0.9703763 -1.0650016 0.017293343
0002a0 1f 39 01 bf 6d bd ff be df b9 90 3f 2e 65 89 be
       -0.50477785 -0.49949208 1.1306723 -0.26835006
0002b0 a2 40 04 be bd 3e 59 be 15 8f 74 bf 62 dc d5 bf
       -0.1291528 -0.21215339 -0.95530826 -1.670788
0002c0 37 87 27 3e ee 67 04 c0 b8 f4 33 c0 9f 66 06 3f
       0.16360174 -2.0688434 -2.8118114 0.5250034
0002d0 96 1a 82 bf e8 8a 4b bf 69 7e ef be 43 3a 5f bf
       -1.0164363 -0.7950883 -0.4677613 -0.87198275
0002e0 4c e0 2a bf f9 8c 2f 3f 4e a2 8b bf 96 eb a0 be
       -0.667485 0.6857448 -1.0908906 -0.31429738
0002f0 1d 34 cb 3f c7 80 46 40 00 98 f4 3f 31 34 02 40
       1.5875279 3.10161 1.9108887 2.0344355
000300 81 46 fd 3f 0e 7a a8 3f 41 4c 55 3f 90 ba 88 40
       1.9787141 1.3162248 0.8331948 4.2727737
000310 95 08 99 3f 6b 9d 8c be b6 78 1a 40 96 f0 84 3f
       1.1955744 -0.2746385 2.4136176 1.0385921
000320 7e 2c a6 3f 37 05 f1 3f 24 88 8f 3f aa a9 73 3f
       1.2982328 1.8829716 1.1213422 0.9518076
000330 ce 65 99 40 62 0f fa 3f 2d 86 28 3f 30 32 6a 40
       4.7936773 1.9535944 0.65829736 3.6593132
000340 ac 55 05 40 f3 15 2a 40 32 4a d1 3f f2 bd 87 3f
       2.083354 2.6575897 1.6350768 1.0604842
000350 51 2b 11 3f 94 ab 5d 40 86 63 90 3f cf ca 86 3d
       0.5670672 3.4635973 1.1280372 0.065816514
000360 e2 c6 93 3f 30 43 6f 3e f1 55 3a 40 d2 02 60 bf
       1.1545069 0.23365474 2.9114954 -0.87504303
000370 6b 35 67 bf f9 a3 14 3e de 8a 98 3c 00 96 fe 3d
       -0.90315884 0.14515676 0.018620905 0.12430954
000380 b1 a6 8a be 80 3c 69 3e 6f de 14 bf 1c 4c 0b 40
       -0.270803 0.22776985 -0.58151907 2.1765203
000390 4e e2 fb bf 0c 40 ca bf 6b 1e 93 be 62 8e b7 3c
       -1.9678438 -1.5800796 -0.28734145 0.02240676
0003a0 f4 9e 1d 3f 26 37 8d 3e e2 12 15 40 0b a5 d3 3f
       0.6157067 0.27581137 2.3292775 1.6534742
0003b0 5b 5f 6a 40 de 96 85 3e c7 00 ed 3e ee de b4 3f
       3.66207 0.26091665 0.46289656 1.4130533
0003c0 46 05 a4 be a1 13 0f 3e 88 80 c2 bd
       -0.32035273 0.13972332 -0.09497172

down_convs.0.conv2.bias f4 [3]
000000 04 63 11 40 af 81 aa 3f eb d3 88 3f
       2.2716684 1.3320826 1.0689672

down_convs.0.norm0.weight f4 [3]
000000 46 ec 4c 40 d8 d5 ce 3f 13 37 b0 3f
       3.201921 1.615901 1.3766807

down_convs.0.norm0.bias f4 [3]
000000 d2 2f b8 3e e6 28 58 bd af fe c0 bf
       0.35973984 -0.05277338 -1.5077723

down_convs.0.norm0.running_mean f4 [3]
000000 32 36 5b bb c9 d3 83 bf a1 0a 5a 3e
       -0.003344905 -1.0299007 0.21293117

down_convs.0.norm0.running_var f4 [3]
000000 16 aa 8d 43 ff 43 f3 43 b7 6e 7f 42
       283.3288 486.53122 63.85812

down_convs.0.norm1.weight f4 [3]
000000 c3 c8 0a 40 71 1d 46 3f 80 d9 fa 3f
       2.1685035 0.77388674 1.9597626

down_convs.0.norm1.bias f4 [3]
000000 d8 19 26 bf 65 2d 73 bf 1f 40 aa 3e
       -0.64883184 -0.9499114 0.33252046

down_convs.0.norm1.running_mean f4 [3]
000000 ce a0 93 41 df e1 a4 c1 d9 46 05 41
       18.453518 -20.610289 8.329797

down_convs.0.norm1.running_var f4 [3]
000000 81 1c a2 44 c8 90 96 45 3c 73 37 45
       1296.8907 4818.0977 2935.2021

down_convs.1.conv1.weight f4 [6, 3, 3, 3, 3]
000000 8d 10 01 bf ab 03 4d bf 23 bf f2 be 08 26 d3 3f
       -0.5041588 -0.8008372 -0.4741145 1.6495981
000010 82 9c c3 3f f2 4c 02 3f e5 92 89 3f 7b 4f 09 40
       1.5282137 0.5089866 1.0747954 2.145476
000020 6c 53 16 bf 1f 4c a5 bf ef 4e a9 bf ac 63 08 bf
       -0.5872104 -1.2913855 -1.3227214 -0.5327709
000030 fd 27 8e 3f b4 ec ae 3f 4e 3f 29 3f 0b 12 50 40
       1.1105953 1.3665986 0.6611222 3.2511013
000040 21 07 b0 40 26 b5 40 3f 24 6d ab bf 2a 26 40 bf
       5.50087 0.7527641 -1.3392682 -0.75058234
000050 6e 79 bd 3e a4 eb 7b 3e 9b c4 59 3f 82 ce 6c 3f
       0.37006706 0.24601609 0.8506562 0.92502606
000060 03 b0 23 3f 16 b1 fb 3f ae 28 38 bf fc db 84 bf
       0.6394045 1.9663417 -0.7193707 -1.0379634
000070 4f 7e f8 bf af 53 0d c0 3d 8b e0 be de f0 67 3f
       -1.9413546 -2.2082326 -0.4385623 0.9060191
000080 67 9b 80 3f 27 25 1b bf eb 0e e4 bd 54 e1 6f bf
       1.0047425 -0.60603565 -0.11135658 -0.937032
000090 49 f9 12 bf 0d b3 48 be 8d d1 6b bf bf 99 1d bf
       -0.5741163 -0.19599552 -0.92116624 -0.6156272
0000a0 1d 08 90 3f 0a 11 b2 3f 11 61 a2 3e 6f 7c 92 3f
       1.1252476 1.391145 0.3171468 1.1444224
0000b0 6c 6b 5c 3f 91 d3 45 bf 79 63 4f 3f b1 33 57 3f
       0.8610141 -0.7727595 0.8101116 0.8406325
0000c0 31 de d3 bf 65 b6 5a bf ab 4b fc bd bc df d5 be
       -1.6552182 -0.8543456 -0.1231912 -0.41772258
0000d0 07 a1 ff 3d da 4d 0e 3f 87 93 c0 3f 97 fd d5 3f
       0.124818854 0.5558754 1.5045022 1.6718014
0000e0 5e 7e ab 3f e9 72 d3 3f c9 d3 73 3f 05 9b 5e 3f
       1.3397939 1.6519443 0.95245034 0.8695529
0000f0 c0 06 42 3f 56 ec 82 bd 86 ca 6a 3e cc da c2 3f
       0.7579155 -0.06392734 0.22928819 1.5223022
000100 84 42 c9 3f fb 07 97 3f 08 ed a4 3f 22 83 3d 3f
       1.5723424 1.179931 1.2884836 0.7402822
000110 f2 73 8b 3e 94 cd 28 3e eb 92 00 bf fe 8e f7 bd
       0.27236897 0.16484672 -0.5022418 -0.120878205
000120 75 4e c6 3f df 7a c3 3f 58 0c 98 3f b0 80 cd 3f
       1.5492693 1.5271872 1.1878767 1.6054897
000130 f8 f4 21 3f 30 7b 1f 3f 24 03 ee 3e 85 79 ca be
       0.6326442 0.62297344 0.4648677 -0.39545837
000140 54 56 26 be 7d 03 0b bf de ff e1 be 27 5d a6 be
       -0.16243869 -0.543022 -0.44140524 -0.32492945
000150 12 b3 02 bf 7e 9a b6 be 70 f4 c1 bd e5 0d e5 bd
       -0.5105449 -0.35664743 -0.09470451 -0.11184291
000160 64 30 98 bd f3 1f da bd d1 b6 df be e7 ff 1d bf
       -0.07431105 -0.10650625 -0.43694165 -0.617186
000170 52 fb b9 be 38 19 78 be 9c 25 75 be 41 c4 0b be
       -0.36324555 -0.2422837 -0.23940128 -0.13649084
000180 f2 dd a5 3a bf 3d 51 be dc 7e 93 bd 37 67 e3 be
       0.0012654646 -0.2043371 -0.07201931 -0.44414684
000190 a8 4d b1 be ee d3 25 be 3e c2 37 be 6e 63 7c bd
       -0.3462956 -0.16194126 -0.17945191 -0.06161826
0001a0 00 bc a7 3c 5c 41 11 be f0 26 ad 3b 3f ae 1b be
       0.020475388 -0.14185089 0.0052841827 -0.15203188
0001b0 e7 e7 19 3e 3a b6 59 3e f8 cd fb 3d 09 37 37 3c
       0.1502987 0.2126092 0.12295145 0.011182555
0001c0 59 6a 00 3e 8d 9a c7 3d cb 24 08 3e 83 f9 a8 bd
       0.12540568 0.09746275 0.13295285 -0.082507156
0001d0 06 0d 32 3b 48 cb 8b 3d 6c 84 c8 3a ed 34 6f bc
       0.0027168407 0.06825882 0.0015298254 -0.014600021
0001e0 1d 87 a3 bd 00 98 92 3d f5 a4 3c 3d 50 52 a7 bd
       -0.07984755 0.07157898 0.046055753 -0.08169997
0001f0 15 c7 c5 3d cb c8 47 3e ef 57 50 bc c1 13 ce bd
       0.096571125 0.1951019 -0.0127162775 -0.100623615
000200 39 66 00 3e df aa bc 3a 8e 46 9b 3d e0 94 a3 3c
       0.12538995 0.0014394185 0.075818166 0.01996845
000210 a8 01 ee bc 0f cd f7 bd 1e 23 14 be 6f cc f3 3d
       -0.029053524 -0.12099659 -0.14466521 0.11904227
000220 82 36 c0 3e 81 ad 7a 3c 0d 9f 8e 3d ca 9e d8 3d
       0.37541586 0.015300156 0.0696393 0.105771616
000230 3a de 32 3e e7 20 94 bc 2c 19 2c 3d b4 e6 74 3d
       0.17467585 -0.018082095 0.042016193 0.05979033
000240 0d 17 9f 3c b7 cc 8e 3e 4f f9 50 3e 27 24 08 3d
       0.019420171 0.2789056 0.20407604 0.033237603
000250 df 86 c8 bc ca 49 02 bd ec 18 8a 3c e5 ae 26 3e
       -0.024478374 -0.031808652 0.016857587 0.16277654
000260 2d d6 6e 3e b3 2e 46 bc 59 26 5e 3e 74 e1 d6 bc
       0.23323889 -0.012096095 0.21694316 -0.026230551
000270 f8 92 db bd 86 0d 93 3d 4c fb f9 bd 8f 8a be bd
       -0.107213914 0.07180314 -0.12206134 -0.09303772
000280 9a 03 93 bd a0 3d 73 bd 73 11 b7 3e 72 26 07 be
       -0.07178421 -0.059384942 0.357555 -0.1319826
000290 71 06 9e bf 75 fa 58 bf bd c9 c2 be c4 9d 52 bf
       -1.2345716 -0.8475717 -0.3804454 -0.8227198
0002a0 cc da fb 3c f0 1d 22 3e e0 8f de 3e da 05 32 3f
       0.030743979 0.15831733 0.43469143 0.6954018
0002b0 7c b8 0e 3f 6e e2 81 be ce 7f 81 be ec 78 b7 3e
       0.5575025 -0.25368065 -0.2529282 0.35834444
0002c0 0d dd a2 bd 5e 8b 73 be f3 d9 25 bf 12 a2 92 be
       -0.07952318 -0.23783633 -0.6478569 -0.28639275
0002d0 90 54 2e 3f 10 1d 80 3e 13 4b d9 bd 67 5a 2b bf
       0.6809778 0.25022173 -0.106100224 -0.6693482
0002e0 d4 1f 25 be d2 7f 91 3e 70 5a bf 3d 2c 8f 1c be
       -0.16125423 0.28417832 0.093434215 -0.1528899
0002f0 58 44 f1 3e 20 0a bb 3f c6 0f d3 3f 97 f0 16 40
       0.47122455 1.4612465 1.6489189 2.3584344
000300 8e 9a 84 3f fb 78 94 3f 5a 61 01 40 05 7c 85 3f
       1.0359666 1.159942 2.0215669 1.0428473
000310 3c 89 cc 3f c2 99 7d 3f a2 e7 a8 3e 8c b9 d2 3e
       1.5979381 0.9906274 0.32989222 0.41157186
000320 37 bb c3 3f c9 14 37 bf f2 c7 2c bf 39 ad f3 3d
       1.5291508 -0.7151609 -0.6749259 0.11898274
000330 70 70 02 3f 78 81 78 3f 76 87 2f 3f cc 05 db be
       0.50952816 0.97072554 0.6856607 -0.4277786
000340 61 f8 fd be c9 e4 93 3f 86 7e 44 be 19 cf f8 bd
       -0.4960356 1.1554195 -0.1918889 -0.12148876
000350 d0 2e 7c 3f e9 f9 dc 3f 5b 84 0e 40 21 46 22 40
       0.9850893 1.7263767 2.2268283 2.5355303
000360 5a 50 36 40 13 c0 0e 40 dc 70 59 40 be b3 03 40
       2.8486543 2.2304733 3.3975134 2.0578456
000370 82 87 52 3f ad 5a 38 40 35 14 cf 3f ed 84 b5 3f
       0.8223802 2.8805344 1.6178042 1.4181191
000380 13 94 65 3f 66 4d 9a 3f 8c 2a ac 3c d3 d1 d4 3f
       0.8967907 1.205487 0.021016382 1.6626533
000390 2f ad 6c 3e 29 a8 28 bf c1 74 f1 3f c0 9a ad 3f
       0.2311294 -0.6588159 1.8863755 1.3562851
0003a0 e4 34 2f 40 c3 d9 f0 3f 54 6e bc 3f 84 0b 52 3f
       2.7376032 1.8816456 1.472117 0.8204882
0003b0 97 ca 36 40 6f a8 1e 40 85 27 2e 40 01 4f 82 40
       2.856115 2.4790304 2.721162 4.072144
0003c0 37 a9 1a 40 0e 52 86 40 62 45 51 40 3f 81 8e be
       2.416578 4.1975164 3.2698598 -0.27832982
0003d0 57 f5 9e be 4c 6e 8f be bb 3f 37 be ce ff 73 be
       -0.31046554 -0.28013837 -0.17895405 -0.2382805
0003e0 d6 af 90 be a0 69 d2 bd ce 5c b5 bc 34 26 dd bd
       -0.28259152 -0.102740526 -0.02213898 -0.10798302
0003f0 3f 26 df be a3 9e 82 be e6 62 f2 be 73 f6 3b be
       -0.43583867 -0.25511655 -0.4734108 -0.18355732

down_convs.1.conv1.bias f4 [6]
000000 2d 03 0f 3e 64 9d cb ba 7f 7c ac bd cc 46 de ba
       0.13966055 -0.0015534577 -0.08422183 -0.0016958355
000010 83 f4 81 3a 06 3b 0b be
       0.0009914789 -0.13596734

down_convs.1.conv2.weight f4 [6, 6, 3, 3, 3]
000000 a6 82 b6 bf 2e 31 42 bc 04 86 4f be 86 92 ab 3d
       -1.4258621 -0.011852546 -0.20265967 0.083775565
000010 6f 20 e6 3d 85 f3 91 bf be 0f 86 bf ef 26 d3 bf
       0.11236655 -1.1402441 -1.0473554 -1.6496257
000020 d1 1d 56 c0 9c fb 29 be de 8e f9 3f b8 df d8 3f
       -3.3455698 -0.16599888 1.9496725 1.6943274
000030 9e 1e b5 bc 8d b6 a5 3e 6a 73 fd be 90 80 8d bf
       -0.022109326 0.32365838 -0.49502116 -1.1054859
000040 77 c1 05 bf 1a d4 c8 bf 8c 40 87 be a3 65 96 3f
       -0.5224833 -1.5689728 -0.26416433 1.1749767
000050 43 25 5b 3f 32 14 63 bf 47 29 51 bf 0e e4 43 bf
       0.8560373 -0.8870269 -0.8170361 -0.7651986
000060 f1 48 08 c0 40 dd aa bf f9 4b 8b bf f2 7d 4d be
       -2.129452 -1.334877 -1.088256 -0.20067576
000070 22 1a 15 be 91 56 86 3c bd 17 39 be 33 62 1b be
       -0.1456075 0.0163987 -0.18075462 -0.15174179
000080 af e6 6b be 77 cc 21 be 46 42 ef bd 23 c9 82 be
       -0.23037218 -0.15800653 -0.116825625 -0.2554408
000090 07 c6 f9 bd e8 ce b5 3a 86 c5 cb bc 78 d7 c6 bd
       -0.12195974 0.0013870867 -0.02487446 -0.09709066
0000a0 78 6c a0 3d e7 28 30 3e 95 fe 7d be fe d8 3d be
       0.07833189 0.17203103 -0.24804147 -0.18539807
0000b0 51 bf 96 bd ae 9c aa 3d 60 7e f1 3d ca c3 e9 3c
       -0.073607095 0.083306655 0.11791682 0.028535742
0000c0 ab e3 fd bd 07 b8 b5 bb 50 d1 24 bd 07 a5 47 be
       -0.1239694 -0.0055456194 -0.04023868 -0.19496547
0000d0 41 f2 ae bd 30 4d 9a bd 8d 89 a8 bf 91 b4 ac bf
       -0.085423 -0.075342536 -1.3166977 -1.3492604
0000e0 bb 81 c1 bf 0a d4 b7 bf de 5e c4 bf d3 10 b0 bf
       -1.5117716 -1.4361584 -1.5341451 -1.3755134
0000f0 d9 d8 7b bf 28 8c a5 bf 21 76 5a bf a9 69 cd bf
       -0.9837776 -1.2933397 -0.853365 -1.604787
000100 5f b8 e3 bf 16 e7 ff bf 15 5f ce bf fb 79 cc bf
       -1.779064 -1.9992397 -1.6122767 -1.5974725
000110 59 47 d9 bf b9 f0 98 bf ed 2d c4 bf b5 c4 89 bf
       -1.6974899 -1.1948463 -1.5326515 -1.0763155
000120 24 c2 ce bf a1 49 f3 bf 72 ea f0 bf 5f c5 e0 bf
       -1.6152997 -1.9006845 -1.8821547 -1.7560233
000130 db 09 e1 bf 4c 37 08 c0 b7 cd ba bf ef 0d da bf
       -1.7581133 -2.128375 -1.4594029 -1.7035502
000140 78 67 fc bf 80 17 df bd 1a 3a 8d bc 13 0a 87 bd
       -1.9719076 -0.10893154 -0.017239619 -0.065937184
000150 6b 2c d5 3d e0 9a 26 bd 5c 74 79 bd 78 94 d3 3c
       0.10408863 -0.040675044 -0.060901985 0.025827631
000160 7f 7e fa bd ee 09 e8 bc 22 10 3a bd ab 13 7f bd
       -0.122311585 -0.028325047 -0.04542554 -0.062274616
000170 ca b8 33 be 70 0e 82 be 6d b3 6a be fc d7 ea bd
       -0.1755096 -0.2540164 -0.22920008 -0.11466977
000180 48 d3 42 bc be ea 35 be d8 bd 52 be 39 5e cd bd
       -0.011891194 -0.17765328 -0.20580232 -0.10027737
000190 07 08 ef bd 13 67 93 be b4 e3 7b be e5 56 b9 be
       -0.11671453 -0.28789577 -0.2459858 -0.36199108
0001a0 40 b8 c4 be db e0 2c be 27 6f 1b be bd 42 66 bd
       -0.38421822 -0.1688265 -0.1517912 -0.05621599
0001b0 2f 01 8f 3e 7a 86 05 3e 6f 90 f6 3e cf 89 0a be
       0.2793059 0.1303958 0.4815707 -0.13529132
0001c0 ce ab 07 be 0b 24 fc 3c f6 41 d5 be f1 f9 34 be
       -0.13249132 0.030778905 -0.41651887 -0.1767347
0001d0 35 69 a3 3d b9 0a 87 3e bf fa 07 bc dd 30 5b 3e
       0.07979051 0.26375368 -0.008299529 0.21405359
0001e0 14 de 2d be 3d d7 84 bd ee c8 2c bd 9b 42 0d 3c
       -0.16979247 -0.06486366 -0.04218381 0.008621837
0001f0 0e e8 e9 3b 6e 5c 53 3e 44 f3 22 3e 31 e8 d2 3d
       0.007138259 0.20640728 0.15913111 0.10298193
000200 d6 bf 77 3e fc f3 75 be ef fc 84 bd 9b 98 af 3c
       0.24194273 -0.24018854 -0.06493556 0.021435073
000210 c0 b6 c7 be 7e b3 ac 3c 67 15 78 3e 9c 33 c4 bf
       -0.39006615 0.021081682 0.24226914 -1.532825
000220 fa c7 e5 bf 33 b3 51 c0 07 6c 4c 3f 76 09 0b c0
       -1.7951653 -3.2765625 0.79852337 -2.1724524
000230 5c 11 54 c0 d7 29 10 3f 67 79 85 bf 0b eb d1 bf
       -3.3135595 0.5631384 -1.0427674 -1.6399854
000240 5c f6 0f c0 4d b8 cc 3f 0e 43 34 bf 35 5a 21 c0
       -2.2494116 1.5993744 -0.7041482 -2.5211308
000250 27 10 b4 bf 0f 4c ee bf 43 60 68 bf c1 42 87 bf
       -1.4067429 -1.8616961 -0.90771884 -1.0567247
000260 b4 0b ef bf c6 2c 4b c0 32 93 72 bf de e5 39 c0
       -1.8675447 -3.1746078 -0.9475585 -2.904655
000270 64 8b 46 c0 2e ce ce bf e1 d3 c4 bf a7 f3 ae bf
       -3.1022577 -1.6156671 -1.537716 -1.3668107
000280 39 cc bb bf 95 88 86 bf 14 5b 2f bf 31 ec a6 bf
       -1.4671699 -1.0510432 -0.6849835 -1.304083
000290 96 45 cb be 18 be 6e 3f 6b 01 b5 3f 41 3e e2 3f
       -0.39701527 0.9325881 1.4141058 1.7675248
0002a0 40 94 65 3f 7e 8e bf 3f bb 37 0b 3e 72 12 87 bf
       0.89679337 1.496536 0.13595478 -1.0552504
0002b0 77 ac 0d c0 94 ab ea bf 30 cb 4f 3f 07 1a ec 3f
       -2.2136514 -1.8333611 0.81169415 1.8445443
0002c0 53 bf f7 3f f9 eb db 3f 77 3c 5e 40 02 e9 c1 3f
       1.9355263 1.7181388 3.4724405 1.5149233
0002d0 96 34 9b be c9 96 a6 bf 32 7b 8b bf 21 88 ad 3f
       -0.30313557 -1.3014766 -1.0896971 1.3557168
0002e0 a1 42 df 3f 98 7e ef 3f 9b 18 43 3f c3 95 06 40
       1.7442209 1.8710508 0.7620942 2.1028907
0002f0 24 39 68 3f f0 ae 7e be e7 47 aa be d0 0e 8e be
       0.9071219 -0.24871421 -0.33257982 -0.27745676
000300 b0 6b f1 bc 5c e0 e6 bd 56 6f 07 3c 47 1d d3 bd
       -0.029470295 -0.11273262 0.008266291 -0.103083186
000310 ac 4b 80 be bf 9b 17 be b2 84 23 be 72 45 be bd
       -0.25057733 -0.14805506 -0.15968588 -0.092905894
000320 17 23 f7 bd 43 8b d0 bd 8e 88 bc 3d 41 c5 bd 3d
       -0.1206724 -0.10182812 0.09205733 0.09266139
000330 f5 7a ab 3d d5 47 e2 3d e1 a1 88 bd bc 47 96 be
       0.083730616 0.11048857 -0.06671501 -0.29351604
000340 c6 38 a2 3d 5c 8b 49 3d f8 fc be bd c7 0f a3 bc
       0.07920985 0.04920517 -0.09325594 -0.019904984
000350 fc af ac 3b f7 21 ce bd 13 86 22 3e 44 85 0c bc
       0.0052700024 -0.10065072 0.15871458 -0.008576695
000360 09 da 99 3f 07 f8 8e 3f a1 f5 84 3f ca 04 70 3f
       1.2019664 1.1169442 1.038746 0.9375731
000370 77 96 90 3f 73 42 9a 3f 8b 83 46 3f 2c bb 4b 3f
       1.1295918 1.2051529 0.7754447 0.79582477
000380 31 cd 9f 3f ad 32 d8 3f 5a f9 d5 3f ca b4 c7 3f
       1.2484494 1.6890465 1.6716721 1.5602047
000390 75 f7 94 3f f9 cf 9c 3f 56 7c b1 3f 2a d6 3c 3f
       1.1638018 1.2250968 1.3866069 0.7376429
0003a0 1e fb 23 3f 0e 6d 77 3f f1 11 be 3f 78 6d d8 3f
       0.6405505 0.9665078 1.4849225 1.6908407
0003b0 ee 9d d4 3f 90 51 a8 3f 42 69 91 3f 45 cd d2 3f
       1.6610696 1.3149891 1.1360247 1.6468893
0003c0 d8 82 e1 3e 19 c1 fb 3e 28 25 3d 3f 49 a8 81 bb
       0.44045138 0.4917076 0.7388482 -0.0039568287
0003d0 72 ef e5 3b 51 67 75 bd bd 86 f0 3d 90 74 18 3d
       0.0070170695 -0.059912983 0.11744449 0.037220538
0003e0 c7 8d 9c 3d 0f b8 7f 3d 07 ca c4 bd 34 7f 15 bc
       0.076442294 0.06243139 -0.09608846 -0.009124566
0003f0 19 ed cd 3d 0b a5 44 3d bc af a1 3d c4 bd 19 3b
       0.100549884 0.04800896 0.07894847 0.0023459056

down_convs.1.conv2.bias f4 [6]
000000 ee be 34 3e 3f ed ff 3c b3 fb c0 be d4 02 12 bf
       0.17650959 0.031241057 -0.3769203 -0.57035565
000010 cb 22 1a bf 8c 00 3b 3d
       -0.6020934 0.04565482

down_convs.1.norm0.weight f4 [6]
000000 81 b9 0a 40 25 e8 0a 3f d9 2e bb 3f 12 69 d9 3e
       2.1675723 0.54260474 1.4623672 0.42462975
000010 e6 32 94 3e e1 c1 40 40
       0.28945082 3.0118334

down_convs.1.norm0.bias f4 [6]
000000 6e 67 06 bf f5 13 9c be c8 ef 49 bd 2e d9 03 bf
       -0.5250157 -0.30483976 -0.04930094 -0.51503265
000010 21 77 2a bf 9c b2 32 3f
       -0.66588026 0.69803786

down_convs.1.norm0.running_mean f4 [6]
000000 49 89 fc 41 85 6b 05 c0 8c c0 49 42 61 96 94 c0
       31.567034 -2.0846875 50.438034 -4.643357
000010 02 22 1a c0 fa 48 01 c2
       -2.4083257 -32.321266

down_convs.1.norm0.running_var f4 [6]
000000 d2 a6 a4 44 87 ee 1b 43 23 b0 b0 44 20 6d cb 42
       1317.2131 155.93175 1413.5043 101.713135
000010 63 2f 58 44 75 d4 ff 43
       864.7404 511.65982

down_convs.1.norm1.weight f4 [6]
000000 80 80 26 40 46 87 91 3f 2d 65 fa 3f fe 76 79 3f
       2.601593 1.1369407 1.9562126 0.9744719
000010 e6 39 42 40 77 0f a1 3f
       3.0347838 1.2582844

down_convs.1.norm1.bias f4 [6]
000000 82 c5 78 ba 02 73 57 bf 3f a3 22 3f 7f 43 03 be
       -0.000948988 -0.84159863 0.63530344 -0.12818716
000010 30 ff 9f bf 46 b6 1e bf
       -1.2499752 -0.6199688

down_convs.1.norm1.running_mean f4 [6]
000000 a3 79 a2 c2 81 bb 5c 42 a3 14 0c c1 cc 53 e2 41
       -81.23757 55.18311 -8.755038 28.290916
000010 f7 07 33 c2 b3 4d 47 be
       -44.75778 -0.19463234

down_convs.1.norm1.running_var f4 [6]
000000 e6 d1 63 45 45 99 03 45 13 ab 14 45 53 d5 3e 45
       3645.1187 2105.5793 2378.6921 3053.3328
000010 d0 e1 d9 44 96 03 7e 44
       1743.0566 1016.056

down_convs.2.conv1.weight f4 [12, 6, 3, 3, 3]
000000 dc 08 22 c0 cb 6a 7a 3e 5e 24 81 40 0b ce 86 c0
       -2.5317907 0.24454801 4.0356894 -4.2126517
000010 e7 5f 13 bf 4c 60 29 40 76 5d 8b c0 55 95 64 3e
       -0.5756821 2.6465025 -4.355159 0.2232259
000020 20 7c ad 3f f9 39 3b bf e9 33 91 bf 69 b8 36 3f
       1.3553505 -0.73135334 -1.1343967 0.7137514
000030 6d ab a6 bf bf 1f a1 bd 65 6f 35 3f 1a e5 5b 3f
       -1.3021065 -0.07867383 0.708731 0.85896456
000040 1b e4 0a 40 15 4d c9 3f 6c 87 9c 40 6f b5 00 3d
       2.1701725 1.5726649 4.891531 0.03142303
000050 78 cb 9e be 7c 3e 19 40 03 9b 43 bf de 90 79 c0
       -0.3101461 2.3944387 -0.76408404 -3.899467
000060 b1 b0 b8 3f 86 c0 00 3f cf d6 22 c0 c8 78 93 3e
       1.4428922 0.5029377 -2.5443609 0.28803086
000070 f4 18 94 bd e4 ae a7 bf 38 22 cc 3f 0f f7 05 3e
       -0.07231322 -1.3100247 1.5947943 0.13082527
000080 b3 d6 16 c0 2e 8d 94 3f f7 d8 3e 3e b1 4c 47 bf
       -2.3568542 1.1605585 0.18637453 -0.77851397
000090 4b 20 a2 be e4 fb 7e 3f 7e 73 e2 3e 20 1f 27 be
       -0.31665263 0.99603105 0.4422874 -0.16320467
0000a0 e9 22 2a 3f 34 a0 36 bf ec 0a 1a be 70 24 b4 bf
       0.6645952 -0.713382 -0.15043229 -1.407362
0000b0 b0 31 75 be 33 37 e0 bf 93 ca 4c 3f 84 78 2c 3f
       -0.23944736 -1.7516845 0.79996604 0.6737139
0000c0 b0 79 29 c0 f9 95 d1 be dd f5 1c bf 88 06 7e bf
       -2.6480522 -0.40934733 -0.6131266 -0.99228716
0000d0 3f 24 12 be c0 ef 4d 3f 64 4a c5 40 2c 5e f5 bf
       -0.1427164 0.80443954 6.165331 -1.9169364
0000e0 c3 59 4e c0 e4 1b a4 40 5f 5e f1 bf 32 f7 43 c0
       -3.2242286 5.1284046 -1.8856925 -3.0619626
0000f0 b4 95 30 40 a4 c0 3a bf f5 68 0d bf 97 e4 1b c0
       2.7591372 -0.72950196 -0.55238277 -2.435827
000100 68 7a 19 c0 e3 06 5e 3f 30 6a 85 bf c5 07 84 be
       -2.398096 0.8672926 -1.0423031 -0.25787178
000110 5e f4 c3 3e 9c f1 a8 be b5 a2 0d 3e 8b b5 31 be
       0.38272375 -0.32996833 0.13831599 -0.1735441
000120 38 57 a8 c0 d7 f2 8b bf b4 63 d0 3f 9f 40 8a c0
       -5.260647 -1.0933484 1.6280427 -4.3203883
000130 0e 86 30 be 33 49 36 40 36 0a 22 3e 61 f7 5b 3f
       -0.17238638 2.8482177 0.15824208 0.85924345
000140 43 0f 0f 40 34 73 00 40 0d 1a 4e 3c 50 7c 31 c0
       2.2353065 2.0070314 0.012579453 -2.7732124
000150 30 09 a7 3f c3 ea e7 3d cf 9a cd bf bb cc 75 3f
       1.3049679 0.11324074 -1.6062869 0.9601552
000160 b5 c7 b1 bd d4 1f 4e be 7c af 9d 3d 28 8f 06 c0
       -0.08680669 -0.20129329 0.076994866 -2.1024876
000170 fd 0e 44 c0 37 b3 84 bc 2c ef c8 bf 42 59 e6 bf
       -3.0634148 -0.016198738 -1.569799 -1.7995989
000180 be bc 0b be 01 85 37 bf 80 63 3b bf 6a 0b 4b c0
       -0.13646218 -0.7168732 -0.731987 -3.1725717
000190 1f d2 2f c0 9b ac a9 bf 49 03 c3 bf 3e f8 c6 bf
       -2.7471998 -1.32558 -1.5235378 -1.5544508
0001a0 ca 9f c3 3f 71 3d d6 3d 87 cd eb be 28 5b f1 3f
       1.5283139 0.10460938 -0.46055242 1.8855944
0001b0 f3 39 92 bf 76 08 da bf 53 8b 2d 3e 40 e2 7f bd
       -1.1423935 -1.7033832 0.16947679 -0.06247163
0001c0 b1 6e bc bf 7a 2e a5 3d 79 4e 79 3f c2 ce e5 bf
       -1.472128 0.08065505 0.97385365 -1.7953722
0001d0 ee 45 1f 3f 0c f9 5f bf 76 92 80 c0 e6 0f c7 bf
       0.6221608 -0.8748939 -4.0178785 -1.5551727
0001e0 f4 70 96 bf 48 cd 22 3f 57 5d 3d 40 e4 67 71 bf
       -1.175322 0.63594484 2.958822 -0.9429915
0001f0 0f 0a 2f bf 48 fc b2 3f e9 ab 3b 3f 42 6c 5c bf
       -0.68374723 1.398324 0.7330919 -0.8610269
000200 19 76 9a 3f cf 2f 1e 3f a8 ec 37 40 02 7b 54 40
       1.206729 0.617917 2.8738194 3.3200078
000210 a8 5c fd 3e d5 f3 60 3f 5b 8f 57 3e 21 07 fb bf
       0.49484754 0.8787206 0.2105078 -1.961155
000220 cc 33 05 bf 89 fe 99 3f 71 b7 60 bf be d0 20 bd
       -0.5203216 1.2030803 -0.8777991 -0.039261572
000230 e9 14 f5 3e 19 78 ed 3f 89 bb b8 be f9 c0 44 c0
       0.47867516 1.8552276 -0.36080578 -3.074278
000240 cd d8 22 bf aa 18 44 3f a6 ac 0d 3f eb 90 c5 3c
       -0.6361206 0.76600134 0.55341566 0.024116954
000250 c7 04 9d 3f 1b 7d 1f bd a8 ce 01 3d ef 3c 08 40
       1.2267083 -0.03893767 0.031691223 2.128719
000260 6c 50 8d 3f bf a7 23 3f a8 c0 4c 3f b5 d1 43 bf
       1.1040168 0.63927835 0.7998147 -0.7649186
000270 f3 8d c4 3e bb 50 e4 3e c7 70 56 bf 8a e3 1c c0
       0.3838955 0.44592842 -0.83765835 -2.451388
000280 15 f3 6d 3f fb f7 42 40 ba 13 58 bf 8d d4 8f bd
       0.9294904 3.0463855 -0.844051 -0.07022963
000290 43 41 7a 40 81 9c b8 3f 80 64 63 3e 4e a4 01 bf
       3.9102333 1.4422761 0.22206306 -0.50641334
0002a0 a9 5d 95 40 d9 f3 14 be 93 85 89 bf 14 e4 3d be
       4.667683 -0.14546145 -1.0743889 -0.18544036
0002b0 f0 cc e2 3f 09 3f 35 40 ac df 22 3e 16 b8 34 bf
       1.7718792 2.8319724 0.15905637 -0.7059339
0002c0 e6 5f e3 be c4 f1 ae 3e f3 86 2a c0 86 3f 98 bf
       -0.44409102 0.34168828 -2.6644866 -1.1894386
0002d0 e9 3a 68 40 aa 75 16 40 ff ae ad be c1 c3 cf 3e
       3.6285956 2.3509316 -0.33922574 0.40579036
0002e0 9e fa fe bd 37 5e 40 c0 ed 6b b2 bf cd 8d f1 bf
       -0.12450145 -3.0057504 -1.3939186 -1.8871399
0002f0 06 ec 69 c0 c1 03 46 3f b2 6f 86 3f 22 64 2b 3f
       -3.6550307 0.7734948 1.0502837 0.66949666
000300 20 9d 0f 3f 33 05 dc 3e d6 da 24 3d ce 73 7c bf
       0.5609913 0.42972717 0.04024776 -0.98614204
000310 d1 b1 0e 3e db 86 7f 3f 14 f8 19 3f 12 27 b9 be
       0.13935019 0.9981515 0.6014416 -0.3616262
000320 46 a8 07 c0 5a 10 c0 3e 72 1c 0c bf e3 e0 fd bf
       -2.1196456 0.37512475 -0.54730904 -1.9834255
000330 b1 15 02 3f 53 0b 39 3f 69 ef 21 3e e9 ee 60 3f
       0.5081435 0.72282904 0.15813984 0.8786455
000340 a2 39 a8 bf 4f 2b 70 c0 b6 53 8b 3d 9f 8f 0a c0
       -1.3142588 -3.7526433 0.06803076 -2.165016
000350 81 98 e2 bf df 29 80 3f 67 25 d3 3e 58 a0 3e be
       -1.770279 1.0012778 0.41239473 -0.18615854
000360 aa 5a ae 40 da b4 60 3f ed 80 9a c0 4f 39 23 40
       5.4485674 0.8777596 -4.828238 2.5503728
000370 96 72 2d 3d 87 83 7e c0 c0 fb 21 40 49 cb 2a 3f
       0.042345606 -3.9767778 2.5309906 0.6671644
000380 5f a8 2e c0 0e 55 5b bf d7 34 9e be 32 ce cc 3d
       -2.7290266 -0.8567666 -0.3089969 0.10000266
000390 b6 d5 f1 be 4a 7f 0f be 7a f7 b0 3f 82 83 07 be
       -0.4723336 -0.140134 1.3825524 -0.1323376
0003a0 95 85 3d 3d 2a e3 bf 3f 8c 11 97 c0 26 70 05 3f
       0.046269972 1.49912 -4.720892 0.5212425
0003b0 e5 97 4b 40 f9 fd 5b c0 4c b2 b9 3f 20 0b d0 3f
       3.181146 -3.4373763 1.4507537 1.6253395
0003c0 14 b7 41 c0 b5 c8 64 3f 10 3a b2 3d 1e d9 5a bf
       -3.0267992 0.89368755 0.08702481 -0.85487545
0003d0 24 01 1c bf af d9 49 c0 85 24 f9 be eb 8b 50 3e
       -0.6093924 -3.1539114 -0.48660675 0.20365874
0003e0 1d 7b 2a bf ed fe 21 3e 2a 4d 1c 3f 08 0d d0 bd
       -0.66594106 0.15819903 0.61055243 -0.101587355
0003f0 5b 3f 13 bf 87 28 c1 bf 39 a7 50 c0 e7 82 04 3c
       -0.5751855 -1.5090493 -3.2602065 0.00808785

down_convs.2.conv1.bias f4 [12]
000000 89 7d 04 bd d7 38 5e bd 20 42 a6 3d 06 6a 41 bd
       -0.032346282 -0.054253425 0.08118081 -0.047220252
000010 33 6d f8 ba 1b fc 44 3c da f2 26 be 60 ee ad bb
       -0.0018953442 0.012022997 -0.16303578 -0.0053079575
000020 a6 2f 3b bd 7e d2 82 39 d6 09 a3 3d 05 af cb 3c
       -0.045699738 0.0002495236 0.079608604 0.02486373

down_convs.2.conv2.weight f4 [12, 12, 3, 3, 3]
000000 8b 63 3c c0 e2 1c 17 40 71 e3 a3 3f 63 59 4d c0
       -2.9435756 2.3611379 1.2803785 -3.2085807
000010 59 fe d7 3f 3e e1 52 be ad 33 68 c0 8a 34 31 40
       1.6874496 -0.20593736 -3.628154 2.7688317
000020 d2 3f 0f 40 56 74 c7 3f c4 46 02 40 05 96 25 3f
       2.2382703 1.5582378 2.0355692 0.64682037
000030 a1 66 c0 3f 91 33 8c 3f 25 e1 fe 3c 9d b9 2f 40
       1.503132 1.0953237 0.031113217 2.745704
000040 23 49 cc 3f c9 12 d9 3d ae 5a 66 3f db d9 f0 be
       1.595982 0.10599286 0.89982116 -0.4704121
000050 01 65 37 c0 5e fb 92 3f 5f fa d4 3d f1 68 d9 3a
       -2.8655398 1.1482961 0.10399317 0.0016587061
000060 37 d6 02 40 dc dd 66 bf 75 ee 5e c0 4c 22 cb 3e
       2.0443246 -0.9018228 -3.4833043 0.39674604
000070 d3 4f be be 3f c5 a9 bf 07 74 2f c0 1f 57 02 c0
       -0.37170276 -1.326332 -2.7414567 -2.0365674
000080 77 0b da bf e0 1b 0b 40 ce 5d 71 bf e5 09 1c c0
       -1.7034749 2.1735764 -0.9428376 -2.438104
000090 63 7f ae be cf 0a 21 bf 9e e8 4a 3f f7 73 cb bf
       -0.34081563 -0.6290712 0.79261196 -1.5894765
0000a0 75 cb 42 c0 8a 78 b3 be 10 4d 68 3e f8 45 53 c0
       -3.043668 -0.35052902 0.22685647 -3.3011456
0000b0 8f e9 26 c0 f0 54 9b 3e 40 dd 5e 3f 54 85 6c 40
       -2.6080053 0.3033824 0.8705635 3.6956377
0000c0 6a eb 9c bf 6b 49 36 bf cd e2 fc 3f 30 c8 d1 be
       -1.2259343 -0.71205777 1.9756714 -0.40973043
0000d0 34 26 99 bf 6a f3 4c 40 5c 46 4c c0 48 3c 20 bf
       -1.1964784 3.2023568 -3.1917944 -0.6259198
0000e0 20 5a 82 bf 6f e9 02 bf 90 bc 1f bf f1 9d 31 bf
       -1.0183754 -0.5113744 -0.623971 -0.69381624
0000f0 a3 0a 10 3e 2a 70 c7 bf 5f 5c 38 3e 36 80 51 bf
       0.14066558 -1.5581105 0.18003987 -0.8183626
000100 0c 5e bc 3f 84 73 93 bc e9 9d 32 bf e9 7a cb be
       1.4716201 -0.017999418 -0.697722 -0.3974221
000110 ef c2 30 bf b6 42 c4 be ba 1f 04 c0 17 84 9a bf
       -0.69047445 -0.38332146 -2.0644364 -1.2071561
000120 54 2e 4f bf ae d9 1c 3e ca 51 1b c0 7a b4 56 bf
       -0.80930066 0.15317413 -2.426867 -0.83869135
000130 35 20 b8 bf 3e 8c 10 c0 31 27 b3 3e b9 a7 ee bf
       -1.4384829 -2.2585597 0.34990838 -1.8644935
000140 59 ce ed bf 3a c2 1c c0 7a b0 78 3e 4e ff 42 3f
       -1.8578597 -2.4493546 0.2428607 0.76170814
000150 23 7c 6f bf e5 ff d2 3d d1 12 08 bd 6e 0f 85 be
       -0.9354879 0.10302714 -0.03322107 -0.25988334
000160 59 0c 02 c0 24 33 8a bf 1e 2f 8d 3f 27 02 2b 40
       -2.0320036 -1.0796857 1.1030004 2.6720064
000170 87 26 d8 3f 19 5b c3 be e8 f8 38 3e 16 dd 43 3d
       1.6886758 -0.3815544 0.180637 0.047818266
000180 47 44 c5 bf 2b 69 1f c0 c3 7b 97 bf 89 12 f7 3f
       -1.5411462 -2.490794 -1.1834644 1.9302531
000190 d3 e7 e9 3f 97 8e 53 bf 48 e3 24 be a8 9a 69 3f
       1.8273872 -0.8263945 -0.16102326 0.9125161
0001a0 f9 68 6a bf 02 2d bd bf b1 c9 3a be 39 41 72 be
       -0.91566426 -1.477936 -0.18241002 -0.23657693
0001b0 b0 f7 1b 40 13 81 11 3f f8 19 36 c0 00 c8 08 40
       2.4369926 0.56837577 -2.845335 2.137207
0001c0 69 e9 82 3f 1f a8 f1 bf ab 7f b2 3f c7 9a ef bd
       1.0227481 -1.8879431 1.3945211 -0.11699443
0001d0 a8 86 ef be 27 29 7c 3f ec e0 53 3f c9 a6 82 bf
       -0.46782422 0.98500293 0.8276508 -1.0207149
0001e0 0c a1 82 3f f0 ec c8 3d 3c 1a 0d c0 d3 1e 2c bf
       1.0205398 0.09810817 -2.2047262 -0.67234534
0001f0 22 05 29 c0 2b 7f 4f c0 c2 fc ea bf c0 7a 95 bf
       -2.6409383 -3.2421367 -1.8358386 -1.1678085
000200 c2 59 22 c0 42 f5 e1 bf f0 b8 0b c0 65 ce 42 c0
       -2.5367284 -1.7652972 -2.1831627 -3.0438473
000210 46 2b 8b bf e7 6e 6d c0 89 84 62 c0 d1 5c 26 c0
       -1.0872581 -3.709894 -3.5393393 -2.599415
000220 8a fb fc bf ad 49 16 c0 72 d5 fd 3f 7b 1a 7a bf
       -1.9764264 -2.3482468 1.9830763 -0.97696656
000230 b6 79 c3 bf 21 ad d9 3f 61 3c f8 bf 30 bb 4e c0
       -1.5271518 1.700596 -1.9393426 -3.230175
000240 58 c1 62 bf f3 f0 1f bd 08 e1 38 3e 26 2c d8 be
       -0.8857627 -0.039048146 0.18054593 -0.42221183
000250 71 a3 17 bf dc 39 20 3f dc 1d 4e bf 6c b1 b8 bf
       -0.59233767 0.62588286 -0.8051431 -1.4429145
000260 13 28 04 bf 27 12 d8 bf ae 51 41 3e 8c a0 53 3f
       -0.5162365 -1.688054 0.18878815 0.8266685
000270 3f 99 ec bf 59 40 b7 be d5 1b 96 3f 6c d5 21 c0
       -1.8484267 -0.3579128 1.1727244 -2.5286512
000280 01 3c 24 3e fa 1a 00 3f 4e 93 d7 bf 4e 62 8e bf
       0.16038515 0.5004116 -1.6841829 -1.112375
000290 ce f4 e8 bf 2e 61 10 bf 3a dd e1 be 20 27 19 3f
       -1.8199708 -0.56398284 -0.44114095 0.59825325
0002a0 d3 7f b0 3c 2a 33 ee bf 72 0f 00 3f 25 4b ea bf
       0.021545326 -1.8609364 0.5002357 -1.8304182
0002b0 d8 b5 b7 bf 90 20 72 3f b3 37 56 bf a7 44 9f be
       -1.4352369 0.94580936 -0.8367874 -0.31107065
0002c0 a9 76 5e 3f 7d 36 a8 bf 0d 35 ae be e0 84 c7 3f
       0.8689981 -1.3141629 -0.3402485 1.5587425
0002d0 cf 59 b3 be d8 36 f8 3f fd 68 24 40 14 3a 71 3e
       -0.35029456 1.9391737 2.568908 0.23557311
0002e0 00 20 e8 3f 13 d3 f5 3f f9 61 55 bf 26 a7 d0 3f
       1.8134766 1.920504 -0.8335262 1.630101
0002f0 7c f4 31 40 1b 96 a9 bf c7 69 b9 be 40 0f ac bf
       2.7805471 -1.3248934 -0.36213514 -1.3442154
000300 3d cd e7 be 0c c8 72 3f fc c6 1c bf 02 0c 08 c0
       -0.45273772 0.948365 -0.61241126 -2.125733
000310 81 a6 37 3e 86 82 b3 3f 04 47 82 bf 7b 18 1a 3f
       0.1793461 1.4024208 -1.0177922 0.60193604
000320 63 c1 8b 3f a9 ba af 3e 26 de 35 bf b7 5a 31 c0
       1.0918392 0.34322098 -0.71042097 -2.7711618
000330 7d f6 f6 be bc 91 77 3f 24 24 88 3f 76 28 5b bf
       -0.4823493 0.9670675 1.0636029 -0.85608613
000340 50 d6 6a 3f db a8 08 40 f9 56 92 bf 20 59 14 c0
       0.91733265 2.1353061 -1.1432792 -2.3179398
000350 58 77 f9 bf 1f 59 29 3e 9f 0e 84 3f 6a 3d df 3d
       -1.9489546 0.16537903 1.0316962 0.10900386
000360 e6 cc 34 3f e2 fd 1a bf 93 33 13 c0 76 26 b2 bf
       0.7062515 -0.60543644 -2.3000228 -1.3917987
000370 a0 e9 bc 3e e3 b4 19 bf 9a 02 03 c0 c3 ff e1 3e
       0.36896992 -0.60041636 -2.0470338 0.44140443
000380 a5 bf 14 3f 77 52 75 3f 7f f2 46 bf 5a 4c aa bf
       0.58104926 0.95828956 -0.7771377 -1.3304551
000390 42 aa 22 3e 09 09 8f 3f 0a 47 1f bf 98 4a c2 bf
       0.1588526 1.1174632 -0.6221777 -1.5179014
0003a0 80 f6 a9 3e 66 d0 d8 be 16 41 f6 be 6b 9b 03 c0
       0.33195877 -0.42346495 -0.48096532 -2.056361
0003b0 7f 26 0d c0 d7 9f ce 3f bf 76 6d 3f fc 29 9b be
       -2.2054746 1.6142529 0.9275932 -0.3030547
0003c0 0b 6c 8b 3f 13 ee 68 3e e1 ac 77 bf 2b 51 43 3c
       1.0892347 0.22747068 -0.9674817 0.011921207
0003d0 9e 6a 5b bd bf 22 6e bd 8b 9f 55 3d d4 b9 3f bd
       -0.053568475 -0.058138605 0.052154105 -0.04680808
0003e0 41 8e ac bd c3 de 1b 3d fd 3e 47 bd f5 08 70 be
       -0.0842557 0.03805424 -0.048644055 -0.23440917
0003f0 d3 74 29 bd 2e 62 ab 3c 9f cc f1 bc 0e 88 8c bd
       -0.041371178 0.02092084 -0.029516516 -0.06861888

down_convs.2.conv2.bias f4 [12]
000000 27 18 51 3d b2 49 70 bc e6 2b bf ba cd 8a 1e b8
       0.051048424 -0.014666008 -0.0014585226 -3.7799404e-05
000010 30 4a 0c bd 0b 04 10 bd 93 c8 1a 3d fe 6b 86 bc
       -0.03425044 -0.035160106 0.03778894 -0.016408917
000020 1e ea fa bc e7 00 0e 3c 21 e8 34 bc 64 e7 47 bc
       -0.030629214 0.008667207 -0.011041672 -0.012201164

down_convs.2.norm0.weight f4 [12]
000000 d6 3f 32 40 20 39 2b 40 dd 24 ad 3f fe 0c 9b 3f
       2.7851462 2.6753616 1.3526875 1.211334
000010 23 8b c7 3f f3 13 84 3f 23 91 29 40 bc 7e c8 3f
       1.5589336 1.0318588 2.6494834 1.5663676
000020 bf a7 f7 3f 6c 81 f9 3e 71 8d 01 40 6e 72 90 3f
       1.9348067 0.48731554 2.024258 1.1284921

down_convs.2.norm0.bias f4 [12]
000000 cb 4a 46 be 60 6a c6 be 3a b7 9c bf 8b b1 0f bf
       -0.19364469 -0.38753033 -1.2243416 -0.56130284
000010 a3 10 65 bf 0a b6 c8 3c cb e7 c5 3f 39 f0 4c 3f
       -0.8947851 0.024500865 1.5461363 0.8005405
000020 09 04 da bd 83 2b dc be 9b 5d 28 40 60 5b a9 bf
       -0.10645301 -0.43001947 2.6307132 -1.323101

down_convs.2.norm0.running_mean f4 [12]
000000 45 5a 4e c1 1e bb ba c0 fa 23 9e 40 5f 2f 29 c2
       -12.897038 -5.8353415 4.9418917 -42.29626
000010 22 d7 18 42 57 de b2 c2 35 ae 26 c1 74 4c 0c c0
       38.21009 -89.43426 -10.417531 -2.1921663
000020 09 36 22 c1 c1 21 8c c0 e3 30 cc c1 ec ff f6 c0
       -10.138192 -4.3791203 -25.52387 -7.7187405

down_convs.2.norm0.running_var f4 [12]
000000 50 dc c9 43 c4 07 f8 43 e9 6e 4c 45 42 47 23 44
       403.7212 496.06067 3270.932 653.1134
000010 f3 59 a9 44 74 50 06 45 2f 00 9d 43 8b 29 a6 44
       1354.8109 2149.0283 314.00143 1329.2982
000020 f2 de dc 44 17 bd b5 42 b9 31 47 45 ff d5 7f 44
       1766.967 90.869316 3187.1077 1023.3437

down_convs.2.norm1.weight f4 [12]
000000 7f cc 58 40 3e d0 ae 3f 42 57 ba 3f 41 d1 10 3e
       3.3874815 1.36573 1.4557879 0.14142324
000010 1c 13 1a 40 b6 c0 06 40 f7 b5 2f 40 9a f5 cc 3f
       2.4074163 2.1055121 2.7454813 1.6012452
000020 75 c5 b9 3f 29 39 1d 40 ff af 0e 40 5f 78 88 3f
       1.4513384 2.4566138 2.229492 1.0661734

down_convs.2.norm1.bias f4 [12]
000000 af 49 00 c0 cc ea 51 bf 1c 1f a2 bf 05 7c 1e bf
       -2.0044973 -0.81998897 -1.2665744 -0.6190799
000010 1d 89 ae bf ef 3d 04 bf cc ec b1 bf 17 80 d2 be
       -1.3635594 -0.51657003 -1.390039 -0.4111335
000020 0c ce 7e 3f 51 fa 9c bf 5f 3e 80 3f e5 2d 7b 3c
       0.9953315 -1.226389 1.0019034 0.015330766

down_convs.2.norm1.running_mean f4 [12]
000000 38 11 31 42 91 68 b0 41 1c e2 d1 42 35 e3 96 c1
       44.266815 22.051058 104.94162 -18.86094
000010 b0 79 26 c2 60 0c 25 c2 99 3d 1a c3 ac 1d c8 41
       -41.618835 -41.262085 -154.24062 25.014488
000020 0b 7c fe c2 3f 50 00 c3 23 dd e7 c1 d3 c4 21 c2
       -127.24227 -128.31346 -28.982977 -40.44221

down_convs.2.norm1.running_var f4 [12]
000000 81 a5 06 45 64 27 b8 44 96 74 02 45 7a 7d 51 44
       2154.344 1473.231 2087.2866 837.9606
000010 d1 8a 40 44 0b ec 3b 45 db 75 a3 44 43 4b 80 45
       770.169 3006.7527 1307.683 4105.4077
000020 f5 3a 20 45 44 af 4b 45 c1 94 5f 45 20 bb a3 44
       2563.6848 3258.954 3577.297 1309.8477

down_convs.3.conv1.weight f4 [24, 12, 3, 3, 3]
000000 8c a8 8b 3f 60 e8 88 3e 3a db 4d bf 3f 74 96 be
       1.0910811 0.26739788 -0.8041264 -0.29385564
000010 47 a8 9e 3e ad 1e 15 bf ee 60 ba bf 7e e7 db 3f
       0.3098776 -0.5824993 -1.456083 1.7180021
000020 15 37 47 3f a0 a1 f0 3d f6 1a 1c bf d6 65 08 bf
       0.77818424 0.117495775 -0.6097864 -0.5328039
000030 41 c2 c8 3d 19 96 35 bf 35 e1 25 3f fc 9d 05 3e
       0.09802676 -0.70932156 0.64796764 0.13048548
000040 9f fc 89 3e 2a 07 02 40 11 e2 fe bc 32 30 a8 bf
       0.26950547 2.0316873 -0.031113656 -1.3139708
000050 85 36 1c c0 a5 e6 67 3f 49 3b 23 bf 7e 91 e8 3d
       -2.4408276 0.9058631 -0.63762337 0.113558754
000060 ab 29 9c be bf 79 a3 3f 45 09 ce bf a1 73 7b bf
       -0.3050054 1.2771529 -1.6096579 -0.9822331
000070 2f 08 a6 bf b8 ea 03 c0 88 3e 92 3f 07 96 a7 3f
       -1.2971247 -2.061201 1.1425333 1.309266
000080 4f 2a 3e 3f c2 8a bc bf 1d 21 02 bf 66 95 02 bd
       0.7428331 -1.4729846 -0.50831777 -0.03188076
000090 b7 fd 05 c0 d3 93 d6 bf ab 48 b8 bf df 81 15 40
       -2.0936105 -1.6763862 -1.4397177 2.3360517
0000a0 8e 2b ab 3e 00 d2 7f 3f 9a e6 7b bd e8 39 cd 3e
       0.33431667 0.9992981 -0.061499216 0.4008324
0000b0 16 2b 0d bf e9 ff 5e c0 5e b6 d3 bf 63 b6 6b bf
       -0.5514387 -3.4843695 -1.6540029 -0.92075175
0000c0 2f 51 90 3f 90 5d e0 3e db 22 d4 3f ad b8 d6 3f
       1.1274775 0.43821383 1.6573137 1.6775109
0000d0 25 7d 24 bf 62 4f a7 bf 43 ca 00 bf c7 3b be bf
       -0.64253455 -1.3071101 -0.50308627 -1.4861993
0000e0 a8 d6 c6 bf b7 43 5d 3e b7 d6 f3 3e 68 29 62 3f
       -1.5534258 0.21607862 0.47624752 0.8834443
0000f0 6d d1 6a 3f b9 a6 f1 3e b5 33 00 3f 12 5d fb be
       0.9172581 0.47197512 0.500789 -0.49094445
000100 1e 52 05 c0 bb 22 82 3f aa ef 81 3f b6 ec a3 3f
       -2.083137 1.0166849 1.0151265 1.2806613
000110 39 19 12 40 d1 5e b1 3f 03 81 aa be 82 92 2b 3f
       2.2827895 1.3857061 -0.33301553 0.6702043
000120 6a b8 94 bf 4e 87 66 bd f0 cf 3f 3f 35 4b 62 bd
       -1.1618779 -0.05628138 0.7492666 -0.055247504
000130 33 6e bb 3f 3b 87 83 be ba 6a c8 3f 7f ec 3b 3c
       1.4643005 -0.2568911 1.565757 0.011469959
000140 c4 bf 72 bf 12 30 a4 bd 96 71 c1 bd a4 2a 6c bc
       -0.9482386 -0.08016981 -0.09445493 -0.014414463
000150 e6 b1 b0 3d 90 c3 fc bc ab d2 8c be 18 04 19 be
       0.086276814 -0.03085497 -0.27504477 -0.14942968
000160 00 2e 65 bd 04 77 22 3c 9b 0f 4f be fc ae 54 be
       -0.055952072 0.009916071 -0.20220797 -0.20769876
000170 4c ed de bd 12 bb 9c 3d 37 29 83 bd a3 7f c0 bc
       -0.108851045 0.07652868 -0.064043455 -0.023498362
000180 d3 9e ad be ea e4 99 3d b3 ca e3 bd cd 36 8e bd
       -0.33910236 0.07514365 -0.11122646 -0.06944046
000190 32 1d 00 be 3e cb 19 be bb 43 2b 3e b5 ba 55 3b
       -0.12511137 -0.15018937 0.16725056 0.0032612507
0001a0 04 7d 0b be ef 00 8d be aa b3 ed bd 87 b1 89 be
       -0.13621908 -0.27539775 -0.11606534 -0.26893255
0001b0 8d be 38 40 a0 ee c8 3f 93 2b 14 3f 75 8b c6 3f
       2.8866303 1.5697823 0.5787899 1.5511309
0001c0 c3 fb 29 3f a4 a2 36 c0 6f b6 48 40 3e 2d be 3d
       0.6639978 -2.8536768 3.1361349 0.09285973
0001d0 8d e8 64 c0 76 c3 55 40 ed 78 8b 3f 31 ef 4a 40
       -3.5766938 3.340055 1.0896279 3.170849
0001e0 59 de ba 3f ea 34 dd 3f 9a 2e 60 3f 6a 67 e3 3e
       1.4599105 1.7281773 0.8757111 0.44414836
0001f0 59 ff 19 3f 42 52 f7 3f 82 cf 94 3f 2e 80 89 3f
       0.60155255 1.9321978 1.1625826 1.0742242
000200 8f 0e 01 40 fe 16 1a c0 5a 15 71 3e 28 cc 4c bf
       2.0165136 -2.4076533 0.23543301 -0.7999902
000210 5d 72 22 c0 12 d9 1e 40 2f 16 1e 3f 96 7a 8d c0
       -2.5382302 2.481999 0.617526 -4.421214
000220 e1 51 8c c0 6b fb 58 c0 f9 7c 0d 3f 49 1f 4c 3f
       -4.384995 -3.3903453 0.5526882 0.7973524
000230 c2 29 1f be 76 04 0a 3f 39 44 a5 3e dc 38 84 bf
       -0.15543273 0.53913057 0.32278612 -1.0329852
000240 b6 42 70 c0 78 4d 3f c0 b6 d8 72 c0 22 ad 85 3f
       -3.7540717 -2.9891033 -3.794477 1.0443461
000250 1a 1a 5d 3f a5 d7 76 3f e8 5c f6 3e cf f2 80 3f
       0.8636795 0.964228 0.48117757 1.0074099
000260 c8 60 2c 3e 69 e6 97 c0 1e f0 6e c0 90 de 97 c0
       0.16833794 -4.7468762 -3.7334056 -4.7459183
000270 52 fa e6 be 2e 7f b5 3f 96 3c 28 be 27 05 d6 bf
       -0.45112854 1.4179437 -0.16429362 -1.6720322
000280 a9 f7 20 bd 8c 02 05 bf 18 e9 2e 40 e9 07 07 bf
       -0.039298687 -0.5195701 2.732977 -0.52746445
000290 cb 37 8c be 12 67 19 40 87 d0 0d 3d 15 04 0c 3f
       -0.27386317 2.396916 0.034622695 0.5469373
0002a0 9d b0 97 3f f1 55 ed be cf ad 9d be 48 45 26 be
       1.1850773 -0.4635463 -0.30796668 -0.16237366
0002b0 0b b6 96 be 30 fa a9 bf 00 58 ab 3f 2e 62 0e 40
       -0.29435763 -1.3279476 1.338623 2.2247424
0002c0 ea 78 ab 3f da 0c 8b 3f e4 ec 6a 3e 11 01 01 3f
       1.3396275 1.0863297 0.22941929 0.5039225
0002d0 e5 28 b5 bf 67 3c 88 bf da a4 94 3e d5 d4 92 3d
       -1.4153105 -1.0643433 0.29032022 0.07169501
0002e0 82 8d be 3f a1 dd 3b 3f c7 97 21 3f b3 33 ca 3f
       1.4886935 0.73385054 0.6312222 1.5797027
0002f0 5f 6a a2 bf 07 40 60 c0 de 1f 0e c0 8d f9 5a c0
       -1.2688712 -3.503908 -2.220695 -3.4214814
000300 9d 41 19 40 24 27 32 40 39 5e 71 3e 9e 0a 38 c0
       2.3946297 2.783639 0.235711 -2.875648
000310 de 98 01 3f f1 f3 8d 3c cf 52 ce bf bb aa e1 bf
       0.5062388 0.017328234 -1.6119021 -1.7630228
000320 ea 4e 2d be 14 1e 2d 40 49 c7 2c 3f 8c 83 9a 3f
       -0.16924635 2.7049608 0.67491585 1.2071395
000330 d0 be 2e 3e 46 91 3b 40 13 58 a9 3e b6 94 20 c0
       0.17064977 2.9307418 0.33075008 -2.5090766
000340 59 6a 96 3f 94 ed 33 3f db 39 72 3f 26 55 bc 3f
       1.1751205 0.7028439 0.9461953 1.4713485
000350 00 d2 98 3f 0a 33 a4 3f a3 b1 76 3f 53 51 1d c0
       1.1939087 1.2828076 0.963648 -2.4580886
000360 6e 30 48 bf fc 38 16 bf 8a a0 46 c0 f9 57 dc 3e
       -0.781989 -0.586807 -3.1035485 0.43035868
000370 a3 9e 73 3f 76 ea ae 3d 19 f5 25 3f d1 e9 2b 3f
       0.95163935 0.085408136 0.64827114 0.6715365
000380 22 d2 49 3f 80 17 f3 bf f5 9c 11 3f 13 bf 28 c0
       0.7883626 -1.8991547 0.5688012 -2.6366622
000390 55 45 9d be 56 7e 78 bf 59 00 63 bf 09 58 69 be
       -0.3071696 -0.97067773 -0.88672405 -0.22787489
0003a0 dd 72 b7 3f 35 a0 1a 40 68 1e 20 c0 6a 99 4d bf
       1.4331928 2.4160283 -2.5018559 -0.80312216
0003b0 ee f8 22 bf a6 21 3b bd fd 6a 24 bf 90 87 c3 be
       -0.63661087 -0.045686387 -0.6422575 -0.38189363
0003c0 0d cf 49 bf 9a d8 f6 3e bf c9 b4 3f 2b 1d 53 3f
       -0.7883156 0.4821213 1.4124068 0.8246638
0003d0 cc 11 c2 3d ad 0b 9f bf c5 cd d0 bf c7 06 4a bf
       0.09476051 -1.2425438 -1.6312796 -0.7891659
0003e0 b2 fe 26 be 68 f8 30 bd 5c 38 18 3f 8e 23 bd 3f
       -0.16308096 -0.04320565 0.59461 1.4776475
0003f0 f3 76 32 bf 75 36 88 3d b7 ee 92 3c c8 01 22 bf
       -0.6971275 0.06651012 0.017936094 -0.6328397

down_convs.3.conv1.bias f4 [24]
000000 96 29 f4 3b 71 5c a2 3b 80 d4 1e bc 4a 2e 85 3a
       0.0074512465 0.0049548675 -0.009694219 0.001016089
000010 59 89 8f 3c 94 d2 01 bc 34 b7 22 bb 24 3e 4d bb
       0.017521547 -0.007923741 -0.0024828436 -0.0031317556
000020 d6 a9 80 bb 34 47 78 3b 71 13 cb 3b 8d 85 06 bb
       -0.003926496 0.0037884237 0.006197386 -0.002052638
000030 07 a5 9d ba 6d a8 a4 bc e1 5d ac 3b 2a f5 b8 ba
       -0.0012027331 -0.020099843 0.0052602147 -0.001411115
000040 b6 9b 02 b6 9d 0e 98 3a 37 b7 0a bb 3d 09 34 ba
       -1.9462145e-06 0.0011601035 -0.0021166333 -0.00068678317
000050 95 89 05 3b 27 68 c2 b8 2f 1f 47 3b 14 30 6a bd
       0.0020376195 -9.270041e-05 0.0030383577 -0.057174757
