outputs/outputs_new_tip_mask/epoch_60_model.pth (torch, 694854 bytes, 241 tensors)

down_convs.0.conv1.weight f4 [3, 1, 3, 3, 3]
0	0x3f71fc29	0.9452539
1	0xbe8a7d4d	-0.27048722
2	0x3f0835ca	0.53207076
3	0x3f60555a	0.87630236
4	0x3f0e9249	0.55691963
5	0x3f81dce8	1.014554
6	0x3f4a32d9	0.7898384
7	0x3f2be7e9	0.6715074
8	0x3f78da1a	0.97207797
9	0xbea2b7b1	-0.3178077
10	0x3f7a30de	0.97730815
11	0xbe820098	-0.25391078
12	0xbefc6b07	-0.49300405
13	0x4066366c	3.5970716
14	0x3e029437	0.12751852
15	0x3d6c977f	0.057761665
16	0x402b6b71	2.6784327
17	0xbe2afdc7	-0.16698371
18	0x3e542daf	0.20720552
19	0xbf2f4fc8	-0.6848111
20	0x3f939906	1.1531074
21	0x3e0adfd7	0.1356195
22	0xbeb7b582	-0.35880667
23	0x3e864385	0.26223388
24	0x3e2e9d45	0.17052181
25	0xbee1ad77	-0.44077656
26	0x3e44374c	0.19161719
27	0xbf8144a0	-1.0099068
28	0xbf1e5484	-0.6184771
29	0xbe8fa502	-0.28055578
30	0xbeb8850e	-0.36039013
31	0xbf563f7d	-0.83690625
32	0xbf214fb8	-0.63012266
33	0x3f270e4e	0.652562
34	0xbeeb1678	-0.4591558
35	0xbf4ea9ae	-0.8072766
36	0xbf8301ab	-1.0234884
37	0xbeb038bc	-0.34418285
38	0x3d9eb4fc	0.07749364
39	0xbefce2aa	-0.4939168
40	0xbf14c1c2	-0.5810815
41	0xbf129bd6	-0.57269037
42	0x3ed0491e	0.40680784
43	0xbf8b46af	-1.0880946
44	0xbff830d4	-1.9389901
45	0xbfa9ca17	-1.3264798
46	0xbf9fa076	-1.2470844
47	0xbf87e0bd	-1.061546
48	0xbe564971	-0.20926453
49	0xbf49d29c	-0.7883699
50	0xbf16a90f	-0.5885171
51	0x3fc002de	1.5000875
52	0x3e3c5349	0.18391146
53	0x3ea7e61a	0.3279274
54	0xbef96654	-0.48710883
55	0xbf3f2cf3	-0.7467796
56	0xbf03a342	-0.51420987
57	0xbdb986b5	-0.090588965
58	0xbf0df180	-0.55446625
59	0xbe119a07	-0.14218913
60	0x3f56504e	0.83716285
61	0x3f56c9be	0.83901584
62	0x3f98303c	1.188972
63	0xbf4f0ee0	-0.8088207
64	0xbf236530	-0.63826275
65	0xbf505ff0	-0.8139639
66	0xbe73ee42	-0.23821357
67	0xbf4e9e03	-0.80709857
68	0xbf14fedf	-0.582014
69	0x3f332b03	0.69987506
70	0x3f3384a7	0.70124286
71	0x3f841efb	1.0321954
72	0xbf08d65c	-0.53452086
73	0xbf2e50d0	-0.6809206
74	0xbf2d540e	-0.6770638
75	0x39c330a0	0.00037229527
76	0xbea33dd5	-0.31883112
77	0xbe4820e6	-0.195438
78	0x3f392bce	0.72332466
79	0x3f70b4a4	0.94025636
80	0x3f90fbd7	1.1326855

down_convs.0.conv1.bias f4 [3]
0	0x3e2b25e0	0.16713667
1	0xbf1f78b7	-0.6229357
2	0x3d708fb3	0.058730792

down_convs.0.conv2.weight f4 [3, 3, 3, 3, 3]
0	0xbeaa08fc	-0.3320998
1	0x3ecad992	0.39619118
2	0xbf97e500	-1.186676
3	0xbf285c42	-0.65765774
4	0x3f797f32	0.9745971
5	0xbf4b503e	-0.79419315
6	0xbf183d57	-0.594686
7	0x3f49b5d8	0.78793097
8	0xbf0b8952	-0.5450641
9	0x3f03186a	0.5120913
10	0xbed04d2c	-0.40683877
11	0x3eb09b25	0.34493366
12	0x3f9bc9fe	1.2171018
13	0x3fa3928b	1.2779096
14	0x3fb52d16	1.4154384
15	0x3f92573f	1.1432875
16	0x3fbfad17	1.4974698
17	0x3f837942	1.027138
18	0xbf8df6ec	-1.109098
19	0x3f09f2ed	0.538863
20	0xbf01130e	-0.504197
21	0xbdaf56f3	-0.08561506
22	0x400a2485	2.158479
23	0xbe3f79d0	-0.18698812
24	0x3e02e4b9	0.12782563
25	0x3fcbe4b1	1.5929166
26	0xbc901673	-0.01758883
27	0xbcf6ad1b	-0.03011184
28	0x3df09ad1	0.11748279
29	0x3e8aba7e	0.27095407
30	0xbc4ef6e6	-0.012632107
31	0xbe438138	-0.19092262
32	0x3dfe3088	0.124116
33	0x3a076661	0.0005165097
34	0xbccf7c17	-0.025327725
35	0xbc30a66f	-0.010781868
36	0xbe41b855	-0.18917973
37	0x3dd653f6	0.10465233
38	0x3e1785fe	0.14797208
39	0xbe6988b5	-0.22806056
40	0xbcd66870	-0.026172847
41	0xbd84f8c0	-0.06492758
42	0x3c07aeec	0.008281451
43	0xbd4b4493	-0.049625944
44	0xbcf8a37d	-0.030351395
45	0xbe635558	-0.22200525
46	0x3de1d0a3	0.110261224
47	0x3ec0797d	0.37592688
48	0xbe2fc7dc	-0.17166084
49	0xbdfd7ef7	-0.12377732
50	0xbc7bc17c	-0.0153659545
51	0x3c8835a8	0.016627148
52	0xbd609a37	-0.05483457
53	0x3e5ce4e0	0.21571684
54	0xbe9ea2c1	-0.30983546
55	0xbe5f4eb8	-0.21807373
56	0xbf2af9fd	-0.667877
57	0xbf6173c2	-0.8806726
58	0xbf7b92a6	-0.9827064
59	0xbf8b84f5	-1.089995
60	0xbf8d08fc	-1.1018367
61	0xbf4d429c	-0.8017976
62	0xbfb7fe7a	-1.4374535
63	0x3de43669	0.111431904
64	0x3dd2a3e0	0.10285163
65	0xbcd7f474	-0.026361682
66	0xbf28721d	-0.65799123
67	0xbf0ac5ab	-0.5420787
68	0xbf940c87	-1.1566323
69	0xbf389345	-0.72099715
70	0xbec5b200	-0.38612366
71	0xbf77fd09	-0.96870476
72	0xbe90515e	-0.28187078
73	0x3e237f87	0.15966617
74	0xbeca0003	-0.39453134
75	0xbedcf4ae	-0.43155426
76	0xbee40d8c	-0.44541585
77	0xbf8e1694	-1.110064
78	0xbfbd9c67	-1.4813355
79	0xbf56c580	-0.8389511
80	0xbf932173	-1.1494583
81	0xbd5eb986	-0.054376148
82	0xbe019504	-0.12654501
83	0xbe8ec55f	-0.27884957
84	0xbf658ef3	-0.8967125
85	0xbf8b7254	-1.0894265
86	0xbf6be0b6	-0.92139757
87	0xbf4efeb7	-0.80857414
88	0xbfcacb84	-1.5843358
89	0xbfa84050	-1.3144627
90	0xbea966ac	-0.33086145
91	0xbd9e97fe	-0.07743834
92	0xbeda6392	-0.4265409
93	0xbf404503	-0.75105304
94	0xbf2de867	-0.6793274
95	0xbf8b7584	-1.0895238
96	0xbeb424b0	-0.3518424
97	0xbf3cb450	-0.73712635
98	0xbf9fda42	-1.2488482
99	0xbe04b6b5	-0.12960322
100	0xbec15feb	-0.37768492
101	0xbc378b88	-0.0112027
102	0x3e1086a7	0.14113866
103	0xbee6c0ed	-0.45069066
104	0xbebae1c1	-0.36500362
105	0x3f48ab44	0.7838633
106	0x3e96d29e	0.29457563
107	0x3ee45bf5	0.44601408
108	0x3da376d7	0.07981651
109	0x3e3dd268	0.18537295
110	0x3ebb523e	0.36586183
111	0x3f10465f	0.5635738
112	0x3e8e13d5	0.27749506
113	0x3e536629	0.2064444
114	0x3e756f4f	0.23968242
115	0xbe6f917f	-0.23395346
116	0xbe30e846	-0.17276105
117	0x3e03a084	0.128542
118	0x3e33fee7	0.17577706
119	0x3e77a07f	0.24182318
120	0x3f051c46	0.51996267
121	0xbdb9ab81	-0.09065915
122	0x3c555caf	0.013022586
123	0x3ee55334	0.4479004
124	0x3e4af3af	0.1981952
125	0xbd8ac17f	-0.06775188
126	0x3ec280c8	0.37988877
127	0x3e6a43ac	0.22877377
128	0x3e79865f	0.24367665
129	0x3ed5fbe3	0.41793737
130	0xbd79fa37	-0.06102964
131	0xbded02f1	-0.11572827
132	0x3e59f9f8	0.21286762
133	0xbd884933	-0.06654587
134	0xbdd077a3	-0.10179069
135	0x3f3256cf	0.6966371
136	0xbe1704b6	-0.14747891
137	0xbf17cc24	-0.5929587
138	0xbdfbb34c	-0.122900575
139	0xbffa61ba	-1.9561074
140	0xbfd6ed2b	-1.6791128
141	0x3f36ad15	0.7135785
142	0x3e22fc6e	0.15916607
143	0x3e93c8f7	0.28864262
144	0x3ea27259	0.31727865
145	0xbdd97aee	-0.1061915
146	0xbec246c7	-0.37944624
147	0x3f69a0f5	0.91261226
148	0xbf9a2297	-1.2041806
149	0xbfb3a912	-1.4035971
150	0x3f571d4e	0.8402909
151	0x3f1c82b2	0.61136925
152	0x3f58f1e5	0.847441
153	0x3f8dc6ef	1.1076335
154	0x3f2b4aff	0.6691131
155	0x3ed93733	0.42424926
156	0x402704ef	2.6096761
157	0x3f7a07e6	0.976683
158	0x3f06ae84	0.5261004
159	0x3f9977a4	1.1989636
160	0x3fa12cfd	1.2591854
161	0x3fe43663	1.7829098
162	0xbec47152	-0.38367707
163	0xbf02f231	-0.51150805
164	0xbeb5cc11	-0.35507253
165	0xbee7e2b8	-0.4529016
166	0xbf1f5d4a	-0.6225172
167	0x3ed2459d	0.41068736
168	0xbee9243e	-0.45535463
169	0xbf1024fd	-0.5630644
170	0x3f53042a	0.8242823
171	0xbee4fcec	-0.44724214
172	0xbef32692	-0.47490364
173	0xbeb5188f	-0.353703
174	0xbf71072a	-0.94151556
175	0xbfb0607f	-1.3779448
176	0xbe8f5f5b	-0.28002438
177	0xbf88e3bf	-1.0694503
178	0xbf9d331c	-1.2281222
179	0x3eaeb92c	0.3412565
180	0xbf50d742	-0.8157846
181	0xbf61d40f	-0.882142
182	0xbf1f1089	-0.62134606
183	0xbf0bfb7e	-0.5468062
184	0xbf549de9	-0.8305345
185	0x3d8810c9	0.066438265
186	0xbeaeb45e	-0.34121984
187	0xbe88852c	-0.26664102
188	0x3f544715	0.8292096
189	0x3f974b63	1.1819881
190	0x3f63c4a4	0.88971925
191	0x3f72365a	0.94614184
192	0x3f9ed561	1.2408868
193	0x3f445d7d	0.7670515
194	0x3f2e127d	0.6799696
195	0x4011f4df	2.2805707
196	0x3f1c1c85	0.6098102
197	0x3d3cb1ba	0.04606793
198	0x3f887b8b	1.0662702
199	0x3f4956d0	0.7864809
200	0x3f2a0f66	0.66429746
201	0x3f939e31	1.1532651
202	0x3f36a928	0.7135186
203	0x3f34b173	0.70583266
204	0x4012f6e3	2.2963188
205	0x3f535549	0.8255201
206	0x3e9b3edf	0.30321404
207	0x3fcb2a28	1.587224
208	0x3f830802	1.0236819
209	0x3fb042e5	1.3770415
210	0x3f8a008c	1.0781417
211	0x3f3e4eb3	0.74338835
212	0x3eb8e9f1	0.36115983
213	0x3ffb0fb7	1.9614171
214	0x3f1b0e93	0.60569113
215	0x3e82259e	0.25419325
216	0x3f89c438	1.0763006
217	0x3f1bbd2a	0.60835516
218	0x40051e2b	2.0799663
219	0x3da5623b	0.080753766
220	0x3ec09f84	0.376217
221	0x3fac6a1e	1.3469884
222	0xbea09d88	-0.31370187
223	0x3d2a1835	0.041526992
224	0xbd4daf02	-0.05021573
225	0x3eae24f6	0.34012574
226	0xbe867f34	-0.26268923
227	0x3f92d103	1.1470035
228	0xbf7a7889	-0.9784017
229	0xbec55788	-0.38543344
230	0x3f208e9b	0.627176
231	0xbde9f007	-0.11422735
232	0x3ec5cd08	0.3863299
233	0x3e241e3b	0.16027157
234	0x3fa0caf3	1.2561935
235	0x3f4b37c0	0.7938194
236	0x3fedd3d8	1.8580275
237	0xbdc56c05	-0.09639744
238	0x3e56c9eb	0.20975463
239	0x3f801a58	1.000804
240	0x3dbfceb4	0.09365597
241	0x3e8b2df3	0.27183494
242	0x3e1e77ae	0.15475342

down_convs.0.conv2.bias f4 [3]
0	0xbf330f10	-0.6994486
1	0x3f525094	0.821542
2	0xbe9ed011	-0.31018117

down_convs.0.norm0.weight f4 [3]
0	0x3ff0c398	1.880969
1	0x3f938043	1.1523517
2	0x3f82f96f	1.0232371

down_convs.0.norm0.bias f4 [3]
0	0x3e82bd88	0.25535226
1	0xbe16109a	-0.1465477
2	0xbf97922f	-1.1841487

down_convs.0.norm0.running_mean f4 [3]
0	0x3e6954ed	0.22786303
1	0xbf365eb2	-0.71238244
2	0x3d908ff4	0.07058707

down_convs.0.norm0.running_var f4 [3]
0	0x431629aa	150.16275
1	0x431e8e90	158.55688
2	0x419f762d	19.932703

down_convs.0.norm1.weight f4 [3]
0	0x3fbc5f27	1.4716538
1	0x3f41b3fd	0.75665265
2	0x3fc45be6	1.5340545

down_convs.0.norm1.bias f4 [3]
0	0xbea0c406	-0.31399554
1	0xbed38735	-0.41314092
2	0x3e09eea8	0.13469946

down_convs.0.norm1.running_mean f4 [3]
0	0x40a46ec3	5.1385207
1	0xc0d472a4	-6.638994
2	0xbebc6af5	-0.36800352

down_convs.0.norm1.running_var f4 [3]
0	0x4330a9bb	176.66301
1	0x43cce5fd	409.79678
2	0x43cbc6a1	407.5518

down_convs.1.conv1.weight f4 [6, 3, 3, 3, 3]
0	0xbe5ec100	-0.21753311
1	0xbf1da243	-0.61575717
2	0xbe92c583	-0.28666314
3	0x3f67e947	0.9059033
4	0x3f31b0e5	0.69410545
5	0x3e78d347	0.24299346
6	0x3f04e343	0.51909274
7	0x3f84fa59	1.03889
8	0xbf0393f1	-0.51397616
9	0xbf3bd801	-0.7337647
10	0xbf52609e	-0.82178676
11	0xbe9510f0	-0.29114485
12	0x3ee36035	0.44409338
13	0x3f199d71	0.6000586
14	0x3e349721	0.17635776
15	0x3fec24a8	1.8448687
16	0x40478271	3.1173365
17	0x3ef5d8c3	0.4801694
18	0xbf3f6525	-0.7476371
19	0xbee30e5b	-0.4434689
20	0x3e9093aa	0.2823766
21	0x3df53113	0.11972251
22	0x3e9fce27	0.3121197
23	0x3ef57867	0.47943422
24	0x3f020cae	0.508006
25	0x3fbaa98e	1.4582994
26	0x3a5b8d1f	0.00083752157
27	0xbe03eef8	-0.12884128
28	0xbf84c1f3	-1.0371689
29	0xbfa2569b	-1.268268
30	0x3e2b215a	0.16711941
31	0x3ef7968f	0.48357055
32	0x3e2020a2	0.15637448
33	0xbda82255	-0.08209673
34	0x3dc01df9	0.09380717
35	0xbea4b028	-0.32165647
36	0x3cb2f4ed	0.021845305
37	0xbe15ddff	-0.14635466
38	0xbe961d37	-0.29319164
39	0xbe1fa1df	-0.15589093
40	0x3f0d2ffc	0.55151343
41	0x3e54c42a	0.20777956
42	0x3edfd984	0.4372064
43	0x3f29fb95	0.6639951
44	0x3f076e1f	0.52902406
45	0x3e3dd878	0.18539608
46	0x3f6ba40b	0.92047185
47	0x3f8048da	1.0022233
48	0xbf1f4b54	-0.62224317
49	0xbe1dbf8f	-0.15405105
50	0x3c0c1430	0.008549735
51	0x3f04fa13	0.5194408
52	0x3f09cd48	0.5382886
53	0x3f7d4514	0.9893353
54	0x3e4c669c	0.19961017
55	0x3f1b25bf	0.6060447
56	0x3f2e3f88	0.6806569
57	0x3f02b677	0.5105967
58	0x3ea55894	0.32294142
59	0x3eeaea8e	0.45882076
60	0x3eed9074	0.4639927
61	0x3e6097ab	0.21932857
62	0x3ecaa3c1	0.3957806
63	0x3ef9c070	0.4877963
64	0x3f45ca56	0.77261865
65	0x3f4a8eb7	0.79124016
66	0x3f1c7183	0.61110705
67	0x3f277733	0.6541626
68	0x3ecaf0fb	0.39636979
69	0x3dd694c6	0.10477595
70	0x3cccb81e	0.024990138
71	0x3e85faa0	0.26167774
72	0x3f1795d3	0.5921299
73	0x3f4da99b	0.8033692
74	0x3f6ecdde	0.9328288
75	0x3f4f2799	0.80919796
76	0x3ed73979	0.42036036
77	0x3f14960f	0.5804147
78	0x3ea4b3e5	0.321685
79	0x3dc0c500	0.09412575
80	0x3e25b1b8	0.16181076
81	0xbf0ac3b1	-0.5420485
82	0xbee17f13	-0.44042262
83	0xbea5dde2	-0.32395846
84	0xbf0274e5	-0.50959617
85	0xbeb61eff	-0.35570523
86	0xbdc01868	-0.09379655
87	0xbde455f6	-0.11149208
88	0xbd977a75	-0.07396404
89	0xbdd977ba	-0.10618539
90	0xbedf35fc	-0.43595874
91	0xbf1dbedd	-0.6161936
92	0xbeb97b0e	-0.36226696
93	0xbe771e1f	-0.24132584
94	0xbe742d77	-0.23845468
95	0xbe0ad67c	-0.13558382
96	0x3ad47d89	0.0016211729
97	0xbe50e1f6	-0.20398697
98	0xbd92d58f	-0.07169639
99	0xbee2e82c	-0.44317758
100	0xbeb0cd3e	-0.34531587
101	0xbe24d7b2	-0.16097906
102	0xbe36cd1b	-0.17851679
103	0xbd789efc	-0.060698494
104	0x3caee1e3	0.021347946
105	0xbe10fb00	-0.14158249
106	0x3bb5f7b2	0.005553209
107	0xbe1b6976	-0.15176949
108	0x3e19e83f	0.15030001
109	0x3e59b698	0.2126106
110	0x3dfbcf38	0.12295383
111	0x3c371e99	0.011176729
112	0x3e0068ff	0.12540053
113	0x3dc9bb21	0.09850145
114	0x3e081739	0.13290109
115	0xbda8bb24	-0.08238819
116	0x3ba26ec9	0.0049570543
117	0x3d8bca6a	0.06825717
118	0x3ac859d7	0.0015285563
119	0xbc6f353c	-0.014600094
120	0xbda39493	-0.07987323
121	0x3d928b44	0.07155469
122	0x3d40d3d9	0.047077034
123	0xbda777b3	-0.08177128
124	0x3dc62408	0.09674841
125	0x3e49eff0	0.19720435
126	0xbc5078ec	-0.0127241425
127	0xbdce172d	-0.10063014
128	0x3e006507	0.12538539
129	0x3abab0b3	0.0014243334
130	0x3d9b3edf	0.07580351
131	0x3cac7c30	0.021055311
132	0xbcee0fd7	-0.029060287
133	0xbdf73cc0	-0.12072134
134	0xbe123b16	-0.14280352
135	0x3df52e1b	0.119716845
136	0x3ec08840	0.3760395
137	0x3c82755b	0.0159251
138	0x3d8fee4d	0.07027874
139	0x3dd9d862	0.10636975
140	0x3e33d2d0	0.17560887
141	0xbc8ed627	-0.0174361
142	0x3d2eb433	0.04265232
143	0x3d8cdaac	0.06877646
144	0x3ca473a0	0.020074666
145	0x3e8f1ab1	0.2795005
146	0x3e5195d0	0.20467305
147	0x3d0a9c3c	0.033840403
148	0xbcc3f4f4	-0.023920514
149	0xbcfcb2a3	-0.0308469
150	0x3c8f1173	0.017464375
151	0x3e274b55	0.1633733
152	0x3e780167	0.24219285
153	0xbc3b3d16	-0.011428138
154	0x3e5ec7a7	0.21755849
155	0xbcd1e08c	-0.025619768
156	0xbdda4ff5	-0.10659782
157	0x3d943d3f	0.07238244
158	0xbdf80f50	-0.12112296
159	0xbdbd363c	-0.0923886
160	0xbd91b3aa	-0.07114346
161	0xbd511060	-0.051041007
162	0x3d7b5fc5	0.06137063
163	0xbd681f78	-0.056670636
164	0xbe375fa5	-0.17907579
165	0x3e81ceb1	0.25353006
166	0xbde288c5	-0.11061243
167	0xbe50c268	-0.2038666
168	0x3f20885e	0.6270808
169	0x3ea230c4	0.3167783
170	0x3eb1df86	0.34740847
171	0x3dd23cf2	0.10265531
172	0x3ddba260	0.1072433
173	0x3d851d82	0.06499769
174	0x3d501bbb	0.050807696
175	0xbe3d663d	-0.18496032
176	0xbe941c60	-0.28927898
177	0x3d170767	0.036872294
178	0xbf0a61d7	-0.5405554
179	0xbeb61b9c	-0.3556794
180	0x3ea9e173	0.33179817
181	0x3c2fdba8	0.0107335225
182	0x3d284c16	0.041088186
183	0xbdf7c975	-0.12098972
184	0xbeab5e0c	-0.3347019
185	0x3cd5da32	0.02610502
186	0x3d8f63bf	0.07001447
187	0xbe55ace3	-0.20866732
188	0x3dff5361	0.12467075
189	0x3f6bec80	0.92157745
190	0x3f1a0030	0.60156536
191	0x3ef9b524	0.48771012
192	0x3f710cfe	0.9416045
193	0x3f1d0653	0.61337775
194	0x3e7d8f72	0.24761751
195	0x3f3ff580	0.7498398
196	0x3f84e4df	1.0382346
197	0x3f07c0ea	0.5302874
198	0x3f0f0b2f	0.5587644
199	0x3dc8f1e6	0.098117635
200	0x3e4bf0ca	0.19916072
201	0x3f2bc4b5	0.67097026
202	0x3ef50e86	0.47862643
203	0x3e427d02	0.18992999
204	0x3f9358fe	1.1511533
205	0x3f9d299a	1.2278321
206	0x3f59c2f0	0.85063076
207	0x3f226fb5	0.634517
208	0x3e98499a	0.29743654
209	0x3f324b5f	0.6964626
210	0x3f3dc19c	0.7412355
211	0x3f06ebd3	0.5270359
212	0x3f0c8850	0.54895496
213	0x3fa11094	1.2583184
214	0x3fbc6aa0	1.4720039
215	0x3fa209c5	1.2659231
216	0x3fa53c9a	1.2909119
217	0x3f9260c5	1.1435782
218	0x3fcb849a	1.5899842
219	0x3f1eaa13	0.6197826
220	0x3ef8bb6b	0.4858049
221	0x3f633dd1	0.887662
222	0x3f4a6c82	0.7907182
223	0x3f1b839b	0.6074769
224	0x3ebd49e7	0.36970446
225	0x3f76b307	0.96366924
226	0x3f1d5f5e	0.61473644
227	0x3fc91fc7	1.5712823
228	0x3f431886	0.76209295
229	0x3f4f20b6	0.8090929
230	0x3f83a8b5	1.028586
231	0x3fc44cb4	1.5335908
232	0x4004bc45	2.073991
233	0x3f96fac9	1.1795284
234	0x3f969d56	1.1766765
235	0x3f882350	1.0635777
236	0x4009c9c5	2.15294
237	0x3fa4c0bc	1.2871318
238	0x3fb7ba26	1.4353683
239	0x3fb9896f	1.4495066
240	0x3face002	1.3505862
241	0x3fdf1a85	1.7429968
242	0x3f9df354	1.2339883
243	0xbe8e813f	-0.27832982
244	0xbe9ef557	-0.31046554
245	0xbe8f6e4c	-0.28013837
246	0xbe373fbb	-0.17895405
247	0xbe73ffce	-0.2382805
248	0xbe90afd6	-0.28259152
249	0xbdd269a0	-0.102740526
250	0xbcb55cce	-0.02213898
251	0xbddd2634	-0.10798302
252	0xbedf263f	-0.43583867
253	0xbe829ea3	-0.25511655
254	0xbef262e6	-0.4734108
255	0xbe3bf673	-0.18355732

down_convs.1.conv1.bias f4 [6]
0	0x3e409310	0.188061
1	0xbacb97ae	-0.0015532875
2	0xbe4d639b	-0.20057528
3	0xbade46cc	-0.0016958355
4	0x3a81f483	0.0009914789
5	0xbe43e3e3	-0.191299

down_convs.1.conv2.weight f4 [6, 6, 3, 3, 3]
0	0xbf0a8cb8	-0.5412097
1	0x3e3deed1	0.18548132
2	0xbde84a92	-0.11342348
3	0xbaa0f84a	-0.0012281027
4	0xbd59ecb3	-0.05320425
5	0xbf3bbf27	-0.7333855
6	0xbf5255dc	-0.8216226
7	0xbf84a5bc	-1.0363078
8	0xbfd9926c	-1.699781
9	0xbe415bb9	-0.18882646
10	0x3f96875e	1.1760061
11	0x3f44754a	0.7674147
12	0xbe92c83d	-0.28668395
13	0x3e96d41c	0.29458702
14	0xbce8a6a9	-0.028399782
15	0xbf5691b3	-0.8381607
16	0xbd7b5b74	-0.061366513
17	0xbec52b5d	-0.38509646
18	0xbec7ba1f	-0.39009187
19	0x3eedf3c8	0.46475053
20	0x3e4d6ad1	0.20060278
21	0xbee7ab67	-0.45247957
22	0xbe37699f	-0.17911385
23	0xbe8fc887	-0.28082678
24	0xbf5ec885	-0.8702472
25	0xbefb0b1c	-0.49031913
26	0xbf09b30e	-0.5378884
27	0xbe4d7df2	-0.20067576
28	0xbe151a22	-0.1456075
29	0x3c8656a6	0.01639874
30	0xbe3917bd	-0.18075462
31	0xbe1b6233	-0.15174179
32	0xbe6be6af	-0.23037218
33	0xbe21cc77	-0.15800653
34	0xbdef4246	-0.116825625
35	0xbe82c923	-0.2554408
36	0xbdf9c605	-0.12195972
37	0x3ab5d061	0.0013871306
38	0xbccbc572	-0.024874423
39	0xbdc6d776	-0.09709065
40	0x3da06c7a	0.0783319
41	0x3e3028e7	0.17203103
42	0xbe7dfe95	-0.24804147
43	0xbe3dd8fe	-0.18539807
44	0xbd96bf4b	-0.07360705
45	0x3daa9cb0	0.08330667
46	0x3df17e62	0.11791684
47	0x3ce9c3df	0.028535781
48	0xbdfde3a9	-0.12396938
49	0xbbb5b7a8	-0.005545575
50	0xbd24d147	-0.040238645
51	0xbe47a3ca	-0.19496074
52	0xbdaef14a	-0.08542116
53	0xbd9a4c16	-0.075340435
54	0xbf5fa03c	-0.87353873
55	0xbf5b0bc8	-0.8556485
56	0xbf6d5155	-0.9270223
57	0xbf67480b	-0.90344304
58	0xbf805e34	-1.0028749
59	0xbf658315	-0.8965314
60	0xbf4009e7	-0.7501511
61	0xbf5b931d	-0.8577135
62	0xbf380fc6	-0.7189907
63	0xbf80e152	-1.0068762
64	0xbf741d16	-0.9535688
65	0xbf7e003f	-0.99219126
66	0xbf9313aa	-1.1490376
67	0xbf8cce18	-1.1000395
68	0xbf92932e	-1.1451166
69	0xbf59c1b3	-0.85061187
70	0xbf7ccef3	-0.9875328
71	0xbf2bf4bc	-0.6717031
72	0xbf882195	-1.0635248
73	0xbf8bc290	-1.0918751
74	0xbf6b73c5	-0.91973525
75	0xbf931899	-1.1491882
76	0xbf84b907	-1.0368966
77	0xbf9693b1	-1.1763822
78	0xbf7708f5	-0.9649804
79	0xbf64115f	-0.89089006
80	0xbf863e23	-1.0487713
81	0xbddf1780	-0.10893154
82	0xbc8d3a1a	-0.017239619
83	0xbd870a13	-0.065937184
84	0x3dd52c6b	0.10408863
85	0xbd269ae0	-0.040675044
86	0xbd79745c	-0.060901985
87	0x3cd39478	0.025827631
88	0xbdfa7e7f	-0.122311585
89	0xbce809ee	-0.028325047
90	0xbd3a1022	-0.04542554
91	0xbd7f13ab	-0.062274616
92	0xbe33b8ca	-0.1755096
93	0xbe820e70	-0.2540164
94	0xbe6ab36d	-0.22920008
95	0xbdead7fc	-0.11466977
96	0xbc42d348	-0.011891194
97	0xbe35eabe	-0.17765328
98	0xbe52bdd8	-0.20580232
99	0xbdcd5e39	-0.10027737
100	0xbdef0807	-0.11671453
101	0xbe936713	-0.28789577
102	0xbe7be3b4	-0.2459858
103	0xbeb956e5	-0.36199108
104	0xbec4b840	-0.38421822
105	0xbe2ce0db	-0.1688265
106	0xbe1b6f27	-0.1517912
107	0xbd6642bd	-0.05621599
108	0x3e8f012f	0.2793059
109	0x3e05867a	0.1303958
110	0x3ef6906f	0.4815707
111	0xbe0a89cf	-0.13529132
112	0xbe07abce	-0.13249132
113	0x3cfc240b	0.030778905
114	0xbed541f6	-0.41651887
115	0xbe34f9f1	-0.1767347
116	0x3da36935	0.07979051
117	0x3e870ab9	0.26375368
118	0xbc07fabf	-0.008299529
119	0x3e5b30dd	0.21405359
120	0xbe2dde14	-0.16979247
121	0xbd84d73d	-0.06486366
122	0xbd2cc8ee	-0.04218381
123	0x3c0d429b	0.008621837
124	0x3be9e80e	0.007138259
125	0x3e535c6e	0.20640728
126	0x3e22f344	0.15913111
127	0x3dd2e831	0.10298193
128	0x3e77bfd6	0.24194273
129	0xbe75f3fc	-0.24018854
130	0xbd84fcef	-0.06493556
131	0x3caf989b	0.021435073
132	0xbec7b6c0	-0.39006615
133	0x3cacb37e	0.021081682
134	0x3e781567	0.24226914
135	0x3ecd2fec	0.40075624
136	0xbfa7b9b8	-1.3103552
137	0xc0270c01	-2.6101077
138	0x3f39415a	0.72365344
139	0xbfdcba2a	-1.7244313
140	0xc0095a87	-2.1461504
141	0x3f2b7968	0.66982126
142	0xbf30d705	-0.69078094
143	0xbf6fff23	-0.9374868
144	0xbf91a4cd	-1.1378418
145	0x3fb83ca0	1.4393501
146	0xbf80da9f	-1.0066718
147	0xc0093e39	-2.1444228
148	0xbf55a7a0	-0.834589
149	0xbfed41ff	-1.8535765
150	0xbf531c59	-0.8246513
151	0xbf41a739	-0.75645787
152	0xbf8b0a0e	-1.0862443
153	0xc0074fd7	-2.114248
154	0xbf2ebd50	-0.6825762
155	0xbf936b49	-1.1517116
156	0xc034a580	-2.8226013
157	0xbffb2f6f	-1.962385
158	0xbfb327c9	-1.3996516
159	0xbfc02aff	-1.5013121
160	0xbfafdfdf	-1.3740195
161	0xbeab7673	-0.33488807
162	0xbef7a178	-0.48365378
163	0xbf9e2afc	-1.2356868
164	0xbf02fe99	-0.51169735
165	0x3f6aedfa	0.91769373
166	0x3f139ffe	0.57666004
167	0x3f8b8aa9	1.0901691
168	0x3eff6b84	0.49886715
169	0x3f862c92	1.0482352
170	0x3f08d0ee	0.534438
171	0xbf3e092f	-0.74232763
172	0xc002024c	-2.0313902
173	0xbfd053a6	-1.6275527
174	0x3e377230	0.17914653
175	0x3e328db9	0.17436875
176	0x3f136f15	0.5759137
177	0x3f38842b	0.7207667
178	0x3ff2b327	1.8960923
179	0x3f90c085	1.1308752
180	0xbd1fc948	-0.039010316
181	0xbf8c6164	-1.0967221
182	0xbf6556e4	-0.8958571
183	0x3f5730dd	0.84058934
184	0x3ec5245a	0.38504297
185	0x3f34843b	0.7051427
186	0x3dff0af9	0.12453265
187	0x3f87c2bd	1.0606304
188	0x3f253bae	0.6454419
189	0xbe7eaeff	-0.24871443
190	0xbeaa7eb1	-0.33299783
191	0xbe8e0ecc	-0.27745664
192	0xbcf1648c	-0.02946689
193	0xbde6df3d	-0.11273048
194	0x3c07791a	0.008268619
195	0xbdd31d3c	-0.103083104
196	0xbe805f90	-0.25072908
197	0xbe179bbf	-0.14805506
198	0xbe2384b2	-0.15968588
199	0xbdbf69df	-0.09346365
200	0xbdf722f8	-0.12067217
201	0xbdd08ae5	-0.10182742
202	0x3dbc88ec	0.09205803
203	0x3dbdc585	0.092661895
204	0x3dab7b04	0.08373073
205	0x3de22737	0.11042636
206	0xbd88a1dd	-0.06671498
207	0xbe9647ad	-0.2935156
208	0x3da123c1	0.07868148
209	0x3d498ba7	0.04920545
210	0xbdbefccc	-0.09325561
211	0xbca30f5a	-0.019904781
212	0x3bacb117	0.005270134
213	0xbdce21e8	-0.10065061
214	0x3e22afc7	0.15887366
215	0xbc0c8501	-0.0085766325
216	0x3f72ce82	0.94846356
217	0x3f41c9e9	0.75698715
218	0x3f3037e5	0.6883529
219	0x3ee2c9c2	0.44294554
220	0x3f19ce9f	0.60080904
221	0x3f020a58	0.50797033
222	0x3ecb0ac1	0.39656642
223	0x3e93de06	0.28880328
224	0x3f09ea5e	0.5387324
225	0x3f9be8ee	1.218046
226	0x3f82b397	1.0211056
227	0x3f5bad3c	0.8581121
228	0x3f170e77	0.59006447
229	0x3f136d77	0.57588905
230	0x3f0ae404	0.54254174
231	0x3ed73cdf	0.42038628
232	0x3e50fb2d	0.20408316
233	0x3eb3126e	0.34974998
234	0x3f91ea90	1.1399708
235	0x3f93cad2	1.1546271
236	0x3f89586c	1.0730109
237	0x3f6e3394	0.9304745
238	0x3f29c022	0.66308796
239	0x3f7e8255	0.9941762
240	0x3eaabda2	0.33347803
241	0x3e7612ab	0.24030559
242	0x3ea78fb1	0.32726815
243	0xbb81a849	-0.0039568287
244	0x3be5ef72	0.0070170695
245	0xbd756751	-0.059912983
246	0x3df086bd	0.11744449
247	0x3d187490	0.037220538
248	0x3d9c8dc7	0.076442294
249	0x3d7fb80f	0.06243139
250	0xbdc4ca07	-0.09608846
251	0xbc157f34	-0.009124566
252	0x3dcded19	0.100549884
253	0x3d44a50b	0.04800896
254	0x3da1afbc	0.07894847
255	0x3b19bdc4	0.0023459056

down_convs.1.conv2.bias f4 [6]
0	0x3e7b8d58	0.24565637
1	0x3e33568f	0.17513488
2	0xbe0801da	-0.13281956
3	0xbeac597b	-0.33662018
4	0xbf0432e6	-0.51640165
5	0x3db45f71	0.088072665

down_convs.1.norm0.weight f4 [6]
0	0x3fd69d15	1.6766688
1	0x3f0b4bf6	0.5441278
2	0x3f88bebd	1.0683209
3	0x3ed96912	0.42462975
4	0x3e9432e6	0.28945082
5	0x3ff8625a	1.9405015

down_convs.1.norm0.bias f4 [6]
0	0xbf06a21a	-0.525911
1	0xbe9b6f82	-0.3035851
2	0xbdd818f9	-0.10551638
3	0xbf03d92e	-0.51503265
4	0xbf2a7721	-0.66588026
5	0x3ec294a3	0.38004026

down_convs.1.norm0.running_mean f4 [6]
0	0x414466ff	12.275146
1	0xbfd78d79	-1.6840049
2	0x41a21329	20.259356
3	0xc058f4fd	-3.389953
4	0xc01780ca	-2.3672357
5	0xc16baf07	-14.730231

down_convs.1.norm0.running_var f4 [6]
0	0x43362cea	182.17545
1	0x429247d2	73.140274
2	0x43449ff1	196.62477
3	0x423d7907	47.36819
4	0x43cc3776	408.4333
5	0x42af3aa4	87.61453

down_convs.1.norm1.weight f4 [6]
0	0x3fefe7ad	1.8742577
1	0x3f6d3f14	0.92674375
2	0x3f97fe94	1.1874566
3	0x3f3ea37f	0.74468225
4	0x3ff9fe5c	1.9530749
5	0x3f83575c	1.0261035

down_convs.1.norm1.bias f4 [6]
0	0xbdf4e2ea	-0.11957343
1	0xbe2375ba	-0.15962878
2	0x3e62e48a	0.22157493
3	0xbe43e28a	-0.19129387
4	0xbf41fb57	-0.7577414
5	0xbf112198	-0.56691885

down_convs.1.norm1.running_mean f4 [6]
0	0xc208f8f0	-34.243103
1	0x418f4859	17.910326
2	0xbfb1fbb0	-1.3904934
3	0x3f8edf42	1.1161883
4	0xc187d4c2	-16.978886
5	0x407215d3	3.782582

down_convs.1.norm1.running_var f4 [6]
0	0x442eeed8	699.73193
1	0x439b8265	311.0187
2	0x440a5d87	553.46136
3	0x43eda6fc	475.30457
4	0x437766fc	247.40228
5	0x431d654e	157.39572

down_convs.2.conv1.weight f4 [12, 6, 3, 3, 3]
0	0xc015fcb2	-2.3435483
1	0x3d2dd5c8	0.042440206
2	0x4071d6c8	3.7787342
3	0xc06aff78	-3.6718426
4	0xbf79871a	-0.97471774
5	0x3ff8a1ca	1.9424374
6	0xc0872c0f	-4.2241282
7	0x3c97fdd9	0.018553661
8	0x3f920d5a	1.1410325
9	0xbf1ccf17	-0.61253494
10	0xbf49f37b	-0.78887147
11	0x3f54c2c8	0.8310971
12	0xbf6ce57a	-0.92537653
13	0x3c6d7d5f	0.014495223
14	0x3f3b4983	0.73159045
15	0x3f1d434d	0.6143082
16	0x402f17cd	2.7358277
17	0x3fbdbacd	1.4822632
18	0x406eb45f	3.729759
19	0x3e0bcfd2	0.13653496
20	0xbe77e561	-0.24208595
21	0x3fdb46d7	1.7130994
22	0xbca3ebd0	-0.020009905
23	0xc0009f3c	-2.009719
24	0x3fb96f8f	1.448717
25	0x3f886537	1.0655888
26	0xbff11f88	-1.8837748
27	0x3ee441ca	0.44581443
28	0x3e7986e0	0.24367857
29	0xbf7f91cc	-0.99831843
30	0x3f8f3c00	1.1190186
31	0xbe4ad85d	-0.19809099
32	0xbffc5894	-1.9714532
33	0x3f52e780	0.8238449
34	0xbb8e4cf2	-0.0043426687
35	0xbef1e95c	-0.47248352
36	0x3dffb8c5	0.12486414
37	0x3f52603f	0.8217811
38	0x3ecd9f89	0.40160778
39	0xbeb7b0b4	-0.35877
40	0x3e6f1ab4	0.2335003
41	0xbeb00717	-0.3438041
42	0xbe3183ca	-0.1733543
43	0xbf86ea8c	-1.0540328
44	0x3cba77da	0.022762228
45	0xbf8db011	-1.1069356
46	0x3ea3cef2	0.31993824
47	0x3e971e7f	0.29515454
48	0xbfffbfbd	-1.9980389
49	0xbe9394d6	-0.2882449
50	0xbe342d73	-0.17595463
51	0xbe9e1c10	-0.30880785
52	0x3e18c4b5	0.14918788
53	0x3eba4dbb	0.3638743
54	0x40838454	4.1099033
55	0xbd9c8f20	-0.076444864
56	0xbfd6cf9d	-1.6782109
57	0x407659df	3.8492353
58	0xbf11b801	-0.5692139
59	0xbfc39e29	-1.5282642
60	0x3fe22f94	1.767077
61	0xbe2fda7b	-0.17173187
62	0xbf1b2742	-0.6060678
63	0xbf8f6327	-1.1202134
64	0xbfd71c30	-1.6805477
65	0x3ede7425	0.43447986
66	0xbd810a45	-0.06300787
67	0xbe3f24e3	-0.18666415
68	0x3dc5d558	0.09659833
69	0x3e9ce533	0.30643615
70	0x3f3c54cc	0.7356689
71	0x3f03f2e4	0.51542497
72	0xc04bf2a1	-3.186684
73	0xbfd407c3	-1.6564869
74	0xbf12ebbc	-0.5739095
75	0xc00fddf3	-2.2479217
76	0xbf3164d4	-0.69294477
77	0x3ea3ca25	0.31990162
78	0x3e03835b	0.12843077
79	0x3f02e423	0.5112936
80	0x3fdb4efb	1.7133478
81	0x3fcf18ef	1.6179484
82	0x3e127d95	0.14305718
83	0xbfe71cea	-1.8055699
84	0x3f806f29	1.0033923
85	0x3e47fdf1	0.19530465
86	0xbf69348f	-0.91095823
87	0x3f2a6f93	0.665765
88	0xbe7c75aa	-0.2465426
89	0xbda277be	-0.07932995
90	0x3e7fba61	0.24973442
91	0xbf5553e5	-0.8333114
92	0xbfe56646	-1.7921836
93	0x3daa1c1f	0.08306145
94	0xbf6832f8	-0.9070277
95	0xbf836365	-1.0264708
96	0xbeac9851	-0.33709958
97	0xbf447045	-0.7673381
98	0xbee2ba88	-0.44282937
99	0xc01060b9	-2.2559035
100	0xbfc9ff8a	-1.5781109
101	0xbf2d781c	-0.677614
102	0xbf7470b6	-0.95484483
103	0xbf8160e5	-1.0107695
104	0x3fa58ec7	1.2934197
105	0x3dad5edf	0.08465361
106	0xbef06453	-0.4695154
107	0x3fd387fd	1.6525875
108	0xbf235591	-0.6380244
109	0xbf867a14	-1.0506005
110	0x3f1d5c6c	0.6146915
111	0x3ea9286a	0.33038646
112	0xbf28ac7a	-0.6588818
113	0xbe7f3527	-0.2492262
114	0x3f0de89b	0.5543305
115	0xbfeb5a05	-1.8386847
116	0xbf2236d7	-0.6336493
117	0xbf8f99a7	-1.1218766
118	0xc0381d74	-2.8767977
119	0xbfa5119f	-1.2896003
120	0xbf5f33c3	-0.8718836
121	0xbd9f1a29	-0.077686615
122	0x3fca0659	1.5783187
123	0xbf7c3176	-0.9851297
124	0xbef73ee3	-0.48290166
125	0x3f8b711e	1.0893896
126	0x3e50d003	0.2039185
127	0xbf6825dd	-0.90682775
128	0xbec49e5b	-0.38402066
129	0x3d628143	0.055299055
130	0x3fde7155	1.7378336
131	0x400bcfde	2.1845622
132	0x3e39f678	0.18160427
133	0x3fa6d4ab	1.3033651
134	0x3fbd7481	1.4801179
135	0xbf57cfbf	-0.8430137
136	0xbe18546b	-0.14875953
137	0x3f048299	0.51761776
138	0xbd8c453a	-0.068491414
139	0x3df74b53	0.12074914
140	0x3e599170	0.21246886
141	0x3fe107d4	1.7580514
142	0xbee56357	-0.44802353
143	0xc0061fbe	-2.0956874
144	0xbded57c3	-0.11589005
145	0x3e9948b3	0.29938278
146	0x3e8af031	0.27136377
147	0x3dd7da8d	0.10539732
148	0x3f729ab8	0.9476733
149	0x3e350c67	0.17680512
150	0xbe9d9404	-0.3077699
151	0x3f68f31c	0.90995955
152	0x3efdbf57	0.49560043
153	0x3e66797f	0.22507285
154	0x3e250df3	0.16118602
155	0xbf031be5	-0.5121444
156	0x3dab885a	0.08375616
157	0x3e93ba12	0.28852898
158	0xbeaf7230	-0.34266806
159	0xbfc159c2	-1.5105517
160	0x3ef94768	0.4868729
161	0x40115c02	2.2712407
162	0xbf1d9b22	-0.6156484
163	0x3eb20c68	0.3477509
164	0x402a2333	2.6583984
165	0x3f50e874	0.81604695
166	0x3c3f91d9	0.011692488
167	0xbf1745da	-0.5909096
168	0x4038db4d	2.888385
169	0xbdd00dcc	-0.101588815
170	0xbf89f69f	-1.0778388
171	0x3ec6640c	0.38748205
172	0x3f9711b5	1.1802279
173	0x3ffaabc0	1.9583664
174	0x3cbd62ab	0.023118338
175	0xbefa465e	-0.4888181
176	0xbf0846b5	-0.5323289
177	0x3dbff3c5	0.09372667
178	0xbfe76d42	-1.8080218
179	0xbf88e0b5	-1.0693575
180	0x402e9d76	2.7283607
181	0x3fd1e0c3	1.6396717
182	0xbf1bfb26	-0.609301
183	0xbf0eea14	-0.55825925
184	0xbea75491	-0.32681707
185	0xc02aecec	-2.6707106
186	0xbfa17f8f	-1.2617053
187	0xbfc656a8	-1.5495195
188	0xc01fc074	-2.4961214
189	0x3f851ed6	1.0400035
190	0x3f187f67	0.595694
191	0x3e0ba901	0.13638689
192	0x3ef868e6	0.4851753
193	0x3e39581a	0.18100014
194	0xbf43fb66	-0.7655548
195	0xbcc5b1e9	-0.024132686
196	0x3f1ab19f	0.6042728
197	0x3ece617a	0.40308744
198	0x3ed980c0	0.4248104
199	0xbed2db51	-0.4118295
200	0xbfa09c2c	-1.254766
201	0x3ed2078d	0.41021386
202	0x3d0cf940	0.03441739
203	0xbf8ea215	-1.1143214
204	0x3e82b572	0.25529057
205	0x3f2eb844	0.6824992
206	0x3bc8a108	0.006122712
207	0x3ec32ffa	0.3812254
208	0xbf66a9bb	-0.9010274
209	0xbfd0f3b7	-1.6324376
210	0xbe0951ed	-0.13410158
211	0xbf92c84b	-1.1467375
212	0xbe649d8c	-0.22325724
213	0xbde47a32	-0.111561194
214	0xbe8c039f	-0.27346513
215	0xbe3f62db	-0.18690054
216	0x406d5304	3.7081919
217	0x3e95b2f0	0.2923808
218	0xc045bdd6	-3.0897117
219	0x3fd15f8c	1.6357284
220	0x3e534964	0.20633465
221	0xc03a15f7	-2.9075906
222	0x3fcd27bc	1.6027751
223	0x3f58041f	0.8438129
224	0xbfe371ad	-1.7769066
225	0xbecf0a87	-0.4043772
226	0x3ebb76ea	0.36614162
227	0x3fa857f5	1.3151842
228	0xbde013ed	-0.109413005
229	0x3d424331	0.04742736
230	0x3f8504bd	1.0392071
231	0x3f54810b	0.83009404
232	0x3e6726b9	0.22573365
233	0x3f456730	0.77110577
234	0xc05c0314	-3.4376879
235	0x3ef84e03	0.48497018
236	0x401282bc	2.2892294
237	0xc02b3b8b	-2.6755092
238	0x3f846e92	1.0346243
239	0x3fe7f0e7	1.8120393
240	0xc01fad0f	-2.4949377
241	0xbeef8d5e	-0.46787542
242	0xbcd554c5	-0.026041398
243	0xbea4203b	-0.3205584
244	0xbf21610f	-0.63038725
245	0xc019dd7d	-2.4041436
246	0x3d29badf	0.04143798
247	0x3dcbf71e	0.09959243
248	0xbf39c84f	-0.7257127
249	0x3f9125d6	1.1339672
250	0x3f2fbe8f	0.68650144
251	0xbc64c19c	-0.013962176
252	0xbf6386a8	-0.88877344
253	0xbfa5e798	-1.2961302
254	0xc0012194	-2.0176744
255	0xbe99c4e4	-0.30033028

down_convs.2.conv1.bias f4 [12]
0	0xbbaa8f05	-0.0052050375
1	0xbd185bef	-0.03719705
2	0x3d3bf6fd	0.045889843
3	0x3ccb9c0c	0.024854682
4	0xbcfe3ca0	-0.031034768
5	0xbbb7fde4	-0.005614983
6	0xbc3c9f8d	-0.011512649
7	0x3a86466a	0.0010244374
8	0xbd156f71	-0.036483232
9	0x3982d288	0.0002495239
10	0x3d9fc9f1	0.07802189
11	0x3d3ed262	0.046587355

down_convs.2.conv2.weight f4 [12, 12, 3, 3, 3]
0	0xbfceb06c	-1.614759
1	0x3fedacfc	1.8568416
2	0x3f09118c	0.535424
3	0xc03ef8d9	-2.9839385
4	0x3fc4c847	1.537362
5	0xbd91d551	-0.07120765
6	0xc049083c	-3.1411276
7	0x3fe3b714	1.7790246
8	0x3fa2c3dc	1.2716022
9	0x3fc189a8	1.5120134
10	0x3fd74e51	1.6820775
11	0x3df3fadd	0.11913083
12	0x3fc0f497	1.5074643
13	0x3f8bc7f1	1.0920392
14	0xbeb6f0a2	-0.35730463
15	0x3ffb4d9c	1.963306
16	0x3fd3d590	1.6549549
17	0x3e251a5f	0.16123341
18	0x3f2d06c5	0.67588454
19	0xbf08b8a6	-0.5340675
20	0xbfa082b9	-1.2539893
21	0x3f844f5d	1.033672
22	0x3e1a6204	0.15076452
23	0xbf4cb4b1	-0.79963213
24	0x3fb3f2c1	1.4058458
25	0xbf4f8bdf	-0.810728
26	0xc0446ba6	-3.0690703
27	0x3eac7971	0.33686402
28	0xbc605763	-0.01369271
29	0xbdfea336	-0.12433474
30	0xbfb27b38	-1.3943853
31	0xbf81bb8b	-1.0135359
32	0xbf8bb593	-1.0914787
33	0x3e8d3d6a	0.27585918
34	0x3cf75443	0.030191546
35	0xbfba1eea	-1.4540684
36	0xbea04e9d	-0.31309977
37	0xbecdb54c	-0.4017738
38	0x3f3a2ca1	0.7272435
39	0xbf2dfbc6	-0.679623
40	0xbfe6d242	-1.8032916
41	0xbda8e701	-0.082471855
42	0x3e8d616f	0.27613398
43	0xbfc17af8	-1.5115652
44	0xbff87c78	-1.9412985
45	0xbd454059	-0.04815707
46	0x3d4927ad	0.049110103
47	0x3faadaeb	1.3348058
48	0xbfc17697	-1.5114316
49	0xbf425256	-0.75906885
50	0x3f917245	1.1362997
51	0xbf054687	-0.5206074
52	0xbf8a4cd3	-1.0804695
53	0x3f4f2656	0.8091787
54	0xbfc05e56	-1.5028789
55	0x3ebcd0b7	0.36877987
56	0xbea0a44c	-0.3137535
57	0x3e88e00b	0.2673343
58	0x3f0d5fd1	0.5522433
59	0x3e9b53d4	0.30337393
60	0x3dddadc1	0.108241566
61	0xbe4cb3e8	-0.19990504
62	0x3f822c45	1.016976
63	0xbcbe128f	-0.023202209
64	0x3f829f9a	1.0204957
65	0xbb31251c	-0.0027030176
66	0x3ee38b19	0.4444206
67	0x3e917041	0.28405955
68	0xbf4602fa	-0.7734829
69	0x3e970130	0.29493093
70	0xbe0ce2b1	-0.13758351
71	0xbd26c683	-0.04071666
72	0xbe8783ff	-0.26467893
73	0x3e4fe92a	0.20303789
74	0xbf9c3e28	-1.2206469
75	0x3d9323fc	0.07184598
76	0xbf5d97ff	-0.8656005
77	0xbfc7c6bd	-1.5607525
78	0x3f5d0eb9	0.8635059
79	0xbf109ac4	-0.56486154
80	0xbf818797	-1.0119504
81	0xbfb257f6	-1.3933094
82	0x3ea7b6f4	0.3275677
83	0xbf1903da	-0.597715
84	0xbf259084	-0.6467364
85	0x3e6e6c9a	0.23283616
86	0xbcb2c3c9	-0.021821873
87	0xbf5b76e7	-0.85728306
88	0xbfa64660	-1.2990227
89	0xbe041486	-0.12898454
90	0x3e986a6e	0.297687
91	0x3f604262	0.8760129
92	0xbdf8189f	-0.12114071
93	0x3db1e517	0.086862735
94	0x3e608074	0.21924001
95	0xbf426d2f	-0.7594785
96	0xbf50f180	-0.816185
97	0xbf9c8900	-1.2229309
98	0xbf22c32f	-0.63579077
99	0x3f0621d1	0.5239535
100	0x3f254605	0.64559966
101	0xbf2d8faf	-0.6779737
102	0xbed363a6	-0.41286963
103	0xbb7a16b0	-0.0038160495
104	0xbf2248e5	-0.6339248
105	0xbed8d69c	-0.42351234
106	0xbf8949d8	-1.072566
107	0xbf377528	-0.7166314
108	0x3f878bd8	1.0589552
109	0x3e70ac0f	0.23503135
110	0xbfbd353d	-1.4781872
111	0x3fccf327	1.6011704
112	0x3f8a089c	1.0783877
113	0xbf0f1b13	-0.55900687
114	0x3f474214	0.778352
115	0x3d8e6d91	0.06954492
116	0x3f1b90fb	0.607681
117	0x3ed99736	0.42498177
118	0x3ebd1bfb	0.3693541
119	0xbf5d6337	-0.86479515
120	0x3f5d3eee	0.8642415
121	0x3eb5c00a	0.35498077
122	0xbfafb06e	-1.3725717
123	0x3e99a300	0.30007172
124	0xbf95abfe	-1.1693113
125	0xbfd894d9	-1.6920425
126	0xbf4e45e7	-0.8057541
127	0xbf23814f	-0.63869184
128	0xbfe36621	-1.7765542
129	0xbf57004f	-0.83984846
130	0xbf7fa506	-0.9986118
131	0xc0002c4e	-2.0027041
132	0xbdcae6fe	-0.099073395
133	0xbfeb0b0e	-1.8362749
134	0xbfad7d21	-1.3553811
135	0xc0101cc9	-2.251757
136	0xbf8bf83a	-1.0935128
137	0xbf94f39e	-1.1636846
138	0xbbb38e42	-0.005479605
139	0xbea0afd2	-0.3138414
140	0xbe29125a	-0.16510907
141	0xbdaf74e8	-0.0856722
142	0xbfa35a8b	-1.2762007
143	0xbf8e82b0	-1.1133633
144	0xbf95e2d0	-1.1709843
145	0xbe3d960a	-0.18514267
146	0x3db0dfa8	0.08636409
147	0xbec1d11e	-0.37854856
148	0xbd1e072e	-0.038581066
149	0x3f22b596	0.6355833
150	0xbec81029	-0.3907483
151	0xbf459a44	-0.77188516
152	0xbed09f85	-0.40746704
153	0xbf94ce35	-1.1625429
154	0xbd984f69	-0.07437021
155	0x3e96eee0	0.29479122
156	0xbebfde05	-0.37474075
157	0x3e9d1fad	0.3068823
158	0x3f56adac	0.8385875
159	0xbf057f35	-0.5214723
160	0xbeda2a27	-0.42610285
161	0xbe8d4c37	-0.2759721
162	0xbfb8c33a	-1.4434578
163	0xbf893c94	-1.0721612
164	0xbf56e7cb	-0.8394744
165	0xbeb375c2	-0.3505078
166	0xbe89e712	-0.26934105
167	0x3efb278f	0.49053618
168	0x3e34c3a8	0.17652762
169	0xbf578082	-0.8418046
170	0x3ea7df0e	0.32787365
171	0xbfbd1183	-1.4770969
172	0xbe232f89	-0.15936102
173	0x3ead70f9	0.33875254
174	0xbee58bc8	-0.44833207
175	0x3ce8c919	0.028416203
176	0x3e8da8d9	0.27667883
177	0x3e08d5fc	0.13362879
178	0xbdfa4717	-0.122205906
179	0x3efce7b2	0.4939552
180	0xbe38d612	-0.18050411
181	0x3f6288c4	0.8848994
182	0x3f964c90	1.1742115
183	0xbda40a11	-0.080097325
184	0x3f35d113	0.71022147
185	0x3faaee0b	1.3353895
186	0xbd852ca9	-0.06502659
187	0x3d14d603	0.03633691
188	0x3f05a74b	0.52208394
189	0xbf1ecb3d	-0.62028867
190	0x3f42ebd7	0.76141113
191	0xbd9b543c	-0.07584426
192	0x3e8b9984	0.2726556
193	0x3e5c21ad	0.21497221
194	0xbf875b86	-1.0574806
195	0xbde86f9a	-0.11349411
196	0x3f1ee9bd	0.62075406
197	0x3f32cc63	0.6984312
198	0xbdfe9647	-0.12431007
199	0x3fc0daba	1.506675
200	0x3f6363b2	0.88824
201	0x3f02cc52	0.5109302
202	0x3e1e0646	0.1543208
203	0xbf8b282d	-1.0871636
204	0x3ebedfcd	0.3728012
205	0x3f12bcfe	0.5731963
206	0x3e8d0777	0.27544758
207	0xbe91acf8	-0.28452277
208	0x3f904167	1.1269959
209	0x3fb6baf6	1.4275806
210	0xbf3cc990	-0.7374506
211	0xbf34b107	-0.7058262
212	0xbf84f93f	-1.0388564
213	0x3dee2b78	0.11629385
214	0x3e052e9d	0.13006063
215	0xbd924c3c	-0.07143447
216	0x3e8b9dc1	0.27268794
217	0xbf5a2d08	-0.8522496
218	0xbfc10e9d	-1.5082585
219	0xbee18458	-0.44046283
220	0xbee3c597	-0.44486687
221	0xbf1a2ca6	-0.6022438
222	0xbf934436	-1.1505191
223	0x3e1048ac	0.14090222
224	0x3e9280e3	0.28613958
225	0x3e54bd74	0.20775396
226	0xbf8d7617	-1.1051663
227	0xbfcd742c	-1.6051078
228	0xbd808b18	-0.0627653
229	0xbe9e058f	-0.30863616
230	0xbf8debc8	-1.108758
231	0xbf1e10bb	-0.6174428
232	0x3e46f0cd	0.19427796
233	0xbe3e9670	-0.18612075
234	0xbeecb43d	-0.4623126
235	0xbfadbcd3	-1.357325
236	0xbfa9c378	-1.3262777
237	0x3f0a5946	0.5404247
238	0xbe934921	-0.2876673
239	0xbf3308fe	-0.69935596
240	0x3e811d11	0.25217488
241	0xbdb03ffd	-0.08605955
242	0xbe2616ed	-0.16219683
243	0x3c43724f	0.011929109
244	0xbd5b6021	-0.053558473
245	0xbd6e1897	-0.05812892
246	0x3d55a5cc	0.05216007
247	0xbd3fb44b	-0.0468028
248	0xbdad0884	-0.0844889
249	0x3d1bde71	0.038053934
250	0xbd473f6c	-0.04864447
251	0xbe700a0a	-0.2344133
252	0xbd296b19	-0.041361902
253	0x3cab7888	0.020931497
254	0xbcf1be14	-0.029509582
255	0xbd8c8415	-0.0686113

down_convs.2.conv2.bias f4 [12]
0	0x3bbaf62a	0.0057056146
1	0xbd09ccf6	-0.03364273
2	0x3bf56a3f	0.007489472
3	0xb81e8acd	-3.7799404e-05
4	0x3c4e769c	0.012601521
5	0x3be4ee73	0.006986433
6	0x3d0ed1c4	0.034868017
7	0xbc147765	-0.009061669
8	0xbcbf965b	-0.023387125
9	0x3c87105d	0.016487295
10	0x3c18905d	0.009311763
11	0xbbe3125c	-0.006929679

down_convs.2.norm0.weight f4 [12]
0	0x3ff18e52	1.8871558
1	0x4003dd74	2.0603914
2	0x3f6a5873	0.9154121
3	0x3f1fb577	0.6238627
4	0x3f8289d0	1.0198307
5	0x3f234b23	0.63786525
6	0x401867e9	2.3813422
7	0x3fb5bb2c	1.4197745
8	0x3fcf9a8c	1.6219039
9	0x3f04613c	0.5171087
10	0x3fe2899d	1.7698246
11	0x3f504a6b	0.8136355

down_convs.2.norm0.bias f4 [12]
0	0xbedd0c95	-0.43173662
1	0xbdcc0cca	-0.09963377
2	0xbf052dd3	-0.5202305
3	0xbe80c86c	-0.2515291
4	0xbf12a59b	-0.57283944
5	0xbe154e85	-0.14580734
6	0x3f5bfdb5	0.85934
7	0x3f127483	0.5720903
8	0x3dfdbdf1	0.12389744
9	0xbecd5fcd	-0.40112153
10	0x3fcb2875	1.5871722
11	0xbf64c272	-0.893592

down_convs.2.norm0.running_mean f4 [12]
0	0xc014f508	-2.3274555
1	0xc06e0ab6	-3.7194037
2	0x3fb7224f	1.4307345
3	0xc193a5b0	-18.455902
4	0x41586cbc	13.5265465
5	0xc2098414	-34.378983
6	0xc0268998	-2.602148
7	0xc1065522	-8.395784
8	0xc03ed3b8	-2.9816723
9	0xc069af80	-3.6513367
10	0xc191c2fc	-18.220207
11	0xc071f7a4	-3.7807398

down_convs.2.norm0.running_var f4 [12]
0	0x42ae14b2	87.04042
1	0x430a822f	138.50853
2	0x4415a711	598.6104
3	0x42fa1160	125.033936
4	0x43a7c373	335.52695
5	0x439a308b	308.37924
6	0x42895401	68.66407
7	0x43f220f9	484.2576
8	0x44069946	538.3949
9	0x427afec9	62.748814
10	0x4494b18c	1189.5483
11	0x43aec313	349.52402

down_convs.2.norm1.weight f4 [12]
0	0x40141901	2.314026
1	0x3f5df7e6	0.8670639
2	0x3f7285ec	0.947356
3	0x3e10d141	0.14142324
4	0x40097cfd	2.1482537
5	0x3ff57550	1.9176426
6	0x3ff74ef6	1.9320972
7	0x3f9c9f81	1.2236177
8	0x3f8b5376	1.0884845
9	0x3fe97c07	1.8240975
10	0x3fe6a0f8	1.8017874
11	0x3f80e0b1	1.006857

down_convs.2.norm1.bias f4 [12]
0	0xbf5b3cfb	-0.85639924
1	0xbe0f966e	-0.14022228
2	0xbf221543	-0.6331369
3	0xbf1e7c05	-0.6190799
4	0xbf4f3f6c	-0.8095615
5	0xbe999132	-0.29993588
6	0xbf2b99a9	-0.6703134
7	0xbe6df477	-0.23237787
8	0x3f494106	0.7861484
9	0xbf8a6d86	-1.0814674
10	0x3f68bbf6	0.90911806
11	0xbe82ec2e	-0.25570816

down_convs.2.norm1.running_mean f4 [12]
0	0x421cbb69	39.183018
1	0x40c3e6a3	6.121904
2	0x425c1a99	55.025974
3	0xc151753b	-13.091121
4	0xc1a170b0	-20.180023
5	0xc1a5a59d	-20.705866
6	0xc28e823b	-71.25436
7	0x417f9783	15.97449
8	0xc25bd407	-54.957058
9	0xc21ea461	-39.660526
10	0xc1c6dbc0	-24.8573
11	0xc1f75858	-30.918137

down_convs.2.norm1.running_var f4 [12]
0	0x43f043b8	480.52905
1	0x442bb5b7	686.8393
2	0x440b87ae	558.12
3	0x440407cb	528.12177
4	0x4311c99b	145.78752
5	0x4439e537	743.5815
6	0x43ad896c	347.0736
7	0x4493cce4	1182.4028
8	0x440eac1b	570.68915
9	0x44123219	584.7828
10	0x44db9322	1756.5979
11	0x43674ca3	231.29936

down_convs.3.conv1.weight f4 [24, 12, 3, 3, 3]
0	0xbf486623	-0.7828085
1	0xbf4746f3	-0.77842635
2	0xbf527963	-0.8221647
3	0xbeda0e8b	-0.4258922
4	0xbed066e1	-0.4070349
5	0xbe17f115	-0.14838059
6	0xc01c0138	-2.4375744
7	0xbe68e791	-0.22744586
8	0xbeb242ae	-0.34816498
9	0xbf61ec2a	-0.8825098
10	0xbeda7904	-0.42670453
11	0xbe960859	-0.29303244
12	0xbeff6db8	-0.49888396
13	0xbd1815d8	-0.037130207
14	0xbde2d8eb	-0.1107653
15	0xbf61c110	-0.88185215
16	0xbeee2209	-0.46510342
17	0xbec9d524	-0.39420426
18	0xbf8d6df1	-1.1049176
19	0xbf54abf8	-0.83074903
20	0xbf5e8bcb	-0.8693206
21	0xbf2521ca	-0.64504683
22	0xbec0a9c1	-0.37629512
23	0xbef3cf96	-0.47619313
24	0xbfd9b55d	-1.7008473
25	0xbeb7d36b	-0.35903487
26	0xbfb89170	-1.4419384
27	0xbf0215a2	-0.5081426
28	0xbf0b12e5	-0.54325706
29	0xbf437e13	-0.7636425
30	0x3efc7ebb	0.49315438
31	0x3f8db7d4	1.1071725
32	0x3ed21040	0.41028023
33	0x3f380169	0.7187715
34	0x3f728aef	0.94743246
35	0x3e813f5c	0.25243652
36	0xbf49aa38	-0.7877536
37	0xbf79acfa	-0.97529566
38	0xbeee97a9	-0.46600083
39	0x3f6da440	0.9282875
40	0x3ee22117	0.4416587
41	0x3f392bb0	0.72332287
42	0x3fa7eb38	1.3118658
43	0x3faa3532	1.3297484
44	0x3f2f8e8c	0.68576884
45	0xbf002496	-0.50055826
46	0xbee09b0d	-0.43868294
47	0x3cd7a954	0.02632586
48	0x3e90f3ad	0.2831091
49	0x3e99e816	0.3005988
50	0x3f083a3a	0.53213847
51	0x3ecd240e	0.4006657
52	0x3e82d905	0.25556198
53	0xbf221fda	-0.6332985
54	0xbe2ac87d	-0.16678043
55	0xbdf1dd62	-0.118098035
56	0x3e644137	0.22290502
57	0x3fa66a70	1.3001232
58	0x3fb19252	1.3872778
59	0x3f093ef7	0.536117
60	0x3f2bcbe5	0.67107993
61	0x3f8b8c8f	1.090227
62	0x3f2ab8f3	0.6668846
63	0xbe332d29	-0.17497696
64	0xbf4a2689	-0.7896505
65	0x3ee785c5	0.45219246
66	0x3fca71a6	1.5815933
67	0x3fbbf49a	1.4684021
68	0x3f9aedd6	1.2103832
69	0x3faa61b4	1.3311067
70	0x3f5bedc1	0.8590966
71	0x3f42ee79	0.7614513
72	0x3e99b919	0.3002403
73	0x3e5c6ab6	0.21525082
74	0x3f61848a	0.88092864
75	0x3f3a9778	0.7288737
76	0x3fa57110	1.2925129
77	0x3ef492cd	0.4776825
78	0x3f40400b	0.7509772
79	0x3f3bab32	0.733081
80	0xbebf4c0f	-0.37362716
81	0xbda43012	-0.08016981
82	0xbdc17196	-0.09445493
83	0xbc6c2aa4	-0.014414463
84	0x3db0b1e6	0.086276814
85	0xbcfcc390	-0.03085497
86	0xbe8cd2ab	-0.27504477
87	0xbe190418	-0.14942968
88	0xbd652e00	-0.055952072
89	0x3c227704	0.009916071
90	0xbe4f0f9b	-0.20220797
91	0xbe54aefc	-0.20769876
92	0xbddeed4c	-0.108851045
93	0x3d9cbb12	0.07652868
94	0xbd832937	-0.064043455
95	0xbcc07fa3	-0.023498362
96	0xbead9ed3	-0.33910236
97	0x3d99e4ea	0.07514365
98	0xbde3cab3	-0.11122646
99	0xbd8e36cd	-0.06944046
100	0xbe001d32	-0.12511137
101	0xbe19cb3e	-0.15018937
102	0x3e2b43bb	0.16725056
103	0x3b55bab5	0.0032612507
104	0xbe0b7d04	-0.13621908
105	0xbe8d00ef	-0.27539775
106	0xbdedb3aa	-0.11606534
107	0xbe89b187	-0.26893255
108	0x4023d5b1	2.5599177
109	0x3f7c07ae	0.9844922
110	0x3f83dace	1.0301149
111	0x3f183891	0.59461313
112	0xbef8c5d8	-0.48588443
113	0xbfbd6df2	-1.4799178
114	0x3fe6c9d6	1.8030345
115	0xbc45b459	-0.012066924
116	0xbf3a5015	-0.72778445
117	0x3fae5850	1.3620701
118	0x3e92ef14	0.28698027
119	0x3ff1135b	1.8834032
120	0x3d4ffa2b	0.05077569
121	0xbd6b0599	-0.057378385
122	0x3ddfb51b	0.10923215
123	0x3f269a04	0.6507876
124	0x3e0240bb	0.12720005
125	0x3f9ca7aa	1.2238667
126	0x3f6e1551	0.93001276
127	0x3f971ee1	1.1806298
128	0x3fb00615	1.3751856
129	0xbf4b7c51	-0.79486567
130	0x3e840fd4	0.25793326
131	0xbf1f8795	-0.62316257
132	0xbeaa0b55	-0.3321177
133	0x3fb9beab	1.4511312
134	0x3f10618b	0.5639884
135	0xc017d70c	-2.3725004
136	0xc02e767e	-2.7259822
137	0xbfd8e5b3	-1.6945099
138	0x3f176da6	0.59151685
139	0x3f3e701f	0.74389833
140	0x3e9fea93	0.31233653
141	0x3efc860d	0.49321023
142	0x3d89f102	0.06735422
143	0xbf5be648	-0.85898256
144	0xc0060bc1	-2.0944674
145	0xc00d64d6	-2.2092795
146	0xbffb9c0d	-1.9656998
147	0x3f4e791b	0.8065354
148	0x3f040fb7	0.5158648
149	0x3edf08b6	0.43561333
150	0x3f2b95ff	0.6702575
151	0x3f54411d	0.82911855
152	0xbce9f0bc	-0.028557174
153	0xbfbf9869	-1.4968387
154	0xbffa80da	-1.9570572
155	0xc0025687	-2.0365312
156	0x3e46328c	0.1935522
157	0x3f0fecc2	0.5622064
158	0x3e9e386c	0.3090242
159	0xbf038755	-0.51378375
160	0x3e243e22	0.16039327
161	0x3cf57238	0.02996169
162	0x3f04b1e3	0.51833934
163	0xbf6f2cd8	-0.934278
164	0x3c9f8ac1	0.019475343
165	0x3f65fe5c	0.89841247
166	0x3ed32801	0.41241458
167	0x3ef1e05b	0.47241482
168	0x3eb48394	0.35256636
169	0xbe0f9a2d	-0.14023657
170	0x3e334422	0.1750646
171	0xbf10c684	-0.5655291
172	0xbf8f06e8	-1.1173983
173	0xbeeb8181	-0.4599724
174	0x3e70a9c7	0.23502265
175	0x3ee2462c	0.44194162
176	0x3f4b0167	0.79299015
177	0xbcb20dad	-0.021735037
178	0x3e8c3c67	0.27389833
179	0x3f3cef5f	0.7380275
180	0x3c4c6d66	0.0124772545
181	0xbf1cfed6	-0.6132635
182	0xbe6b334d	-0.22968788
183	0x3e50cb13	0.20389967
184	0x3f131b99	0.57463986
185	0x3ebc810e	0.3681721
186	0xbe39d4b2	-0.18147543
187	0x3f43d6e5	0.7649978
188	0x3f22d18b	0.6360099
189	0xbfb4aa27	-1.4114426
190	0xbf013c92	-0.5048305
191	0xbf8fa4c8	-1.1222162
192	0x3f8fef06	1.1244819
193	0x40065d60	2.0994492
194	0x3e8885bb	0.26664528
195	0xbf3d9243	-0.740513
196	0x3ed7dac5	0.42159095
197	0xbdb6f97b	-0.089343034
198	0xbf0c0988	-0.54702044
199	0xbf6b1e3b	-0.91843003
200	0xbe6b0e0a	-0.22954574
201	0x3fdebdaa	1.7401631
202	0x3fc929a4	1.5715833
203	0x3fb3bbf7	1.4041737
204	0x3ea99f53	0.33129367
205	0x3f95c265	1.169995
206	0x3d7b15ab	0.06129996
207	0xbf3769e7	-0.7164597
208	0x3e738220	0.23780107
209	0xbe4655d0	-0.19368672
210	0x3edcef16	0.43151158
211	0x3f760b11	0.96110636
212	0x3f4f9392	0.8108455
213	0x3eef3740	0.4672184
214	0x3e426ea0	0.18987513
215	0xbfa9b811	-1.3259298
216	0x3cddba56	0.027066391
217	0xbef43b3b	-0.4770144
218	0xbf6d4eca	-0.9269835
219	0xbd3ec6d3	-0.046576332
220	0x3f0418a5	0.51600105
221	0xbe5e8dc8	-0.21733773
222	0xbe1d26a5	-0.15346773
223	0xbe7efe1e	-0.24901626
224	0xbf7b8297	-0.9824614
225	0xbfb4533b	-1.40879
226	0xbf9dd617	-1.233096
227	0xc00846f5	-2.1293309
228	0xbdffaf07	-0.12484556
229	0xbeb9f3cf	-0.36318824
230	0xbedb0b4d	-0.4278206
231	0x3e2f5dd0	0.1712563
232	0x3eddda68	0.43330693
233	0x3db3573e	0.087568745
234	0xbfb8a920	-1.4426613
235	0xbf8ef006	-1.1166999
236	0xbf1020ee	-0.56300247
237	0x3dbf8eff	0.09353446
238	0xbea71611	-0.32634023
239	0x3e395335	0.18098147
240	0xbe8ebc4f	-0.27878043
241	0xbd5576f5	-0.0521154
242	0x3ea0350a	0.31290466
243	0x3e882d34	0.26596987
244	0xbea9620e	-0.33082622
245	0xbea49eba	-0.3215235
246	0xbf3c3dee	-0.73532
247	0xbe73914d	-0.23785897
248	0x3dce7bc3	0.100821994
249	0xbe52db14	-0.20591384
250	0x3ebd6ceb	0.3699716
251	0x3f42194a	0.7581984
252	0xbf5620df	-0.8364391
253	0xbec2ee74	-0.3807255
254	0xbf392105	-0.7231601
255	0xbeb6219a	-0.3557251

down_convs.3.conv1.bias f4 [24]
0	0x3a8b02da	0.0010605708
1	0xbb9cde57	-0.004787247
2	0xba9fafb4	-0.0012183101
3	0x3aa03a41	0.0012224392
4	0x3bda71fc	0.00666642
5	0xbbb7bad5	-0.005606989
6	0xba8c265c	-0.0010692584
7	0xbb09fb25	-0.0021054235
8	0xbb58dfb9	-0.0033092333
9	0x3b673d12	0.0035284203
10	0x3b260c9a	0.00253371
11	0xba3cae25	-0.00071975804
12	0xba8e0e9f	-0.0010838098
13	0xbbe0f478	-0.0068650804
14	0xb9f56498	-0.0004680499
15	0xba02cfb1	-0.0004990055
16	0xb6029bb6	-1.9462145e-06
17	0x38eda9b8	0.00011332653
18	0xbae953a9	-0.0017801422
19	0xbb7a35a5	-0.0038178947
20	0x3a476533	0.00076063274
21	0xb8c1db3c	-9.243793e-05
22	0xbc134449	-0.008988448
23	0xbcd9993f	-0.026562331
