outputs/outputs_new_full_mask_2/best_model.pth (torch, 693010 bytes, 241 tensors)

down_convs.0.conv1.weight f4 [3, 1, 3, 3, 3]
0	0xbd0f88d2	-0.03504259
1	0xbd4518d1	-0.04811937
2	0xbc85b387	-0.016320957
3	0xbb676301	-0.0035306814
4	0xbeb6c987	-0.35700628
5	0xbe40c955	-0.18826802
6	0xbed5640e	-0.41677898
7	0xbe557476	-0.20845208
8	0xbda8ec8f	-0.08248245
9	0xbd4b8e75	-0.049696404
10	0xbdb8b9cd	-0.09019814
11	0xbde82d95	-0.11336819
12	0xbe05cd3f	-0.13066576
13	0xbf0503f1	-0.5195914
14	0xbe9a91f0	-0.30189466
15	0xbdd42faf	-0.103606574
16	0xbeaed38e	-0.34145778
17	0x3d46ecf0	0.048565805
18	0xbde1430e	-0.10999118
19	0xbd78fda8	-0.06078878
20	0xbe3c8b90	-0.18412614
21	0xbe355ccf	-0.17711185
22	0xbf0c9c3d	-0.549259
23	0xbe36a192	-0.17835072
24	0xbef5c1d6	-0.47999448
25	0xbf02624b	-0.50931233
26	0xbf1b94c9	-0.60773903
27	0xbdaf0971	-0.08546723
28	0xbce7c37e	-0.02829146
29	0xbd09a1e8	-0.03360167
30	0xbeb774db	-0.3583134
31	0xbf135f39	-0.57567173
32	0xbe6ef590	-0.23335862
33	0xbec9a0f0	-0.39380598
34	0xbefba517	-0.4914939
35	0xbf33300b	-0.6999518
36	0xbe2e9f82	-0.17053035
37	0x3e463f69	0.19360127
38	0x3e3ea04c	0.18615836
39	0xbf0547ed	-0.52062875
40	0xbe6a8ea8	-0.22905982
41	0xbece34e3	-0.40274724
42	0xbf11b281	-0.56913
43	0xbf458ea7	-0.77170795
44	0xbebd82b8	-0.37013793
45	0xbc894692	-0.016757283
46	0xbb844315	-0.004036317
47	0x3ddb566e	0.107098445
48	0xbed0457d	-0.40678015
49	0xbec3d610	-0.38249254
50	0xbf0052ba	-0.5012623
51	0xbeb43f83	-0.35204706
52	0xbf07e78f	-0.53087705
53	0xbeb62e49	-0.35582188
54	0xbfb07b3a	-1.3787606
55	0x3fb3709c	1.4018741
56	0xbe643976	-0.22287545
57	0xbf0894f7	-0.533523
58	0x4011f98d	2.2808564
59	0x40b63d99	5.6950192
60	0xbf999354	-1.1998086
61	0x3fc15354	1.5103555
62	0x3fc04a94	1.502276
63	0x3f728df3	0.9474785
64	0x40162d48	2.3465137
65	0x3f951fc6	1.1650321
66	0xbe69827e	-0.22803685
67	0x3fdee6f5	1.7414232
68	0x40070c3b	2.1101215
69	0x3f0bc94e	0.5460404
70	0x400b1054	2.1728716
71	0x4001c229	2.0274756
72	0xbefbd651	-0.49186948
73	0x3f744ae3	0.9542677
74	0xbf235038	-0.6379428
75	0xbfcc5265	-1.5962645
76	0xbd468f54	-0.048476532
77	0xbed5ccbd	-0.41757765
78	0xbfa68d39	-1.3011848
79	0x3ebd15a2	0.36930567
80	0xbfa1e060	-1.2646599

down_convs.0.conv1.bias f4 [3]
0	0xb9b788cf	-0.0003500641
1	0xbae2d55a	-0.0017306015
2	0x3f2a910c	0.66627574

down_convs.0.conv2.weight f4 [3, 3, 3, 3, 3]
0	0x3a491e13	0.0007672023
1	0xbd718143	-0.058961164
2	0xbd0d8a72	-0.03455586
3	0x3d5965ff	0.053075787
4	0x3d8bb621	0.06821848
5	0x3d153402	0.03642655
6	0x3da2ac9c	0.07943079
7	0xbda65540	-0.08121729
8	0x3e7e2b89	0.24821295
9	0x3e4ffe16	0.2031177
10	0xbcc201d1	-0.023682507
11	0xbe646588	-0.22304356
12	0xbd14304e	-0.03617888
13	0x3c0b3df9	0.008498662
14	0xbdd5e688	-0.10444361
15	0x3d79497d	0.0608611
16	0x3e8ca512	0.2746969
17	0x3c4db5a8	0.012555517
18	0xbdceaed5	-0.1009194
19	0x3d97e39e	0.074164614
20	0x3dfa0830	0.12208593
21	0x3d18e71c	0.037329778
22	0x3dd8fd38	0.10595173
23	0x3dad67e5	0.08467082
24	0xbded7236	-0.1159405
25	0xbdc33714	-0.0953199
26	0x3aaa5ecb	0.0012998221
27	0x3ded4608	0.11585623
28	0x3d8e9e5a	0.06963797
29	0x3e3f61a8	0.18689597
30	0xbe04fdf7	-0.12987505
31	0x3e1ea5cf	0.15492938
32	0x3d1aac9c	0.03776227
33	0xbe949a10	-0.2902379
34	0xbeb36edf	-0.35045525
35	0xbe9996c2	-0.29997832
36	0x3e6196bb	0.22030155
37	0x3e5ee323	0.21766333
38	0x3e0feed6	0.14055952
39	0xbe476607	-0.19472514
40	0xbdc29c5f	-0.09502482
41	0xbd9a1973	-0.07524385
42	0xbe75eb1b	-0.24015467
43	0xbeaac233	-0.33351287
44	0xbe2c8364	-0.16846997
45	0x3de3e76a	0.11128123
46	0x3d06b37d	0.032886017
47	0x3de3ec83	0.111290954
48	0xbd360e4b	-0.044447225
49	0x3d8b6964	0.06807211
50	0xbdaeaa36	-0.08528559
51	0xbefc4e82	-0.49278647
52	0xbe709745	-0.23495205
53	0xbe8b222b	-0.27174506
54	0x3dd2febc	0.10302493
55	0x401fbfae	2.4960742
56	0x3f8d7cd1	1.1053716
57	0x3e12cff9	0.14337148
58	0x3f4cc2a7	0.79984516
59	0x3c453448	0.012036391
60	0x3e8a5206	0.27015704
61	0x3f08bae0	0.5341015
62	0xbd993260	-0.074803114
63	0x3feeefbb	1.866691
64	0x40e6ae0f	7.2087474
65	0x402bbe42	2.6834874
66	0x3f9bb81d	1.2165562
67	0x40239f13	2.5565841
68	0x3f4b16d3	0.793317
69	0x3f46fb0b	0.7772681
70	0x3f94775c	1.1598926
71	0x3ee6189c	0.4494065
72	0x3f422e5c	0.7585199
73	0x402f7aaa	2.7418618
74	0x3eecdd4e	0.46262592
75	0x3f3dc56d	0.7412937
76	0x3fd5e828	1.6711473
77	0xbc805bc3	-0.015668755
78	0x3f31d73f	0.69469064
79	0x3f811ac7	1.0086297
80	0x3dc6c9da	0.09706469
81	0x3d5afdc1	0.053464655
82	0x3d9e02d7	0.077153854
83	0x3dc6e518	0.09711665
84	0x3def6ff6	0.11691277
85	0x3e1fcb0d	0.15604801
86	0xbe35c016	-0.17749056
87	0xbd484b10	-0.04889971
88	0xbe2b7141	-0.16742422
89	0x3d42462f	0.047430214
90	0x3ce8b2ce	0.028405573
91	0x3d04f2e4	0.0324582
92	0xbe0a1a6f	-0.13486646
93	0xbe37d419	-0.17952003
94	0x3cd3825b	0.025818994
95	0xbcb4c77f	-0.022067783
96	0xbe98dbde	-0.29855245
97	0x3bc2a518	0.005940091
98	0xbdd7279d	-0.105056025
99	0x3d5ab97f	0.05339956
100	0x3d008018	0.03137216
101	0x3d274aa4	0.040842667
102	0xbdd00af9	-0.10158343
103	0xbd79328f	-0.060839232
104	0xbe59418d	-0.21216412
105	0xba2b8420	-0.00065428205
106	0x3d6b8263	0.057497393
107	0xbcdf6d4a	-0.027273793
108	0x3df5944b	0.11991175
109	0xbe1dd2f9	-0.15412511
110	0xbe4069ed	-0.18790407
111	0x3e7b6e14	0.2455371
112	0xbaa5a995	-0.001263904
113	0x3dd4b44c	0.103859514
114	0x3e53a8ff	0.20669936
115	0x3f15e3fb	0.58550996
116	0x3eda58de	0.42645925
117	0xbdf641b5	-0.12024251
118	0xbe0a9e59	-0.13536967
119	0xbecaeea6	-0.396352
120	0x3e5a8a31	0.21341778
121	0x3da7b789	0.081893034
122	0x3e06ef06	0.13177118
123	0x3edcf91f	0.43158814
124	0x3dfd3697	0.12363928
125	0x3e206395	0.15662988
126	0xbdd37aad	-0.10326133
127	0xbd6f6305	-0.05844404
128	0xbeac4eb1	-0.33653787
129	0x3e9ce09c	0.30640113
130	0x3d8e5aa2	0.069508806
131	0x3e9b3dd5	0.30320612
132	0x3ee0e6f5	0.43926206
133	0x3eb42348	0.35183167
134	0x3e7e464a	0.248315
135	0xbf820c3e	-1.0159986
136	0xbe72d6b5	-0.23714717
137	0xbe817351	-0.25283292
138	0xbf56eb81	-0.839531
139	0x3f20388c	0.62586284
140	0xbf3b0e52	-0.73068726
141	0xbf806104	-1.0029607
142	0xbf251b91	-0.6449519
143	0xbfceb7e1	-1.6149865
144	0xbfaf457c	-1.369308
145	0x3ee5924b	0.44838175
146	0x3ba5a159	0.0050546345
147	0x3e8e3e23	0.27781782
148	0x4124c3e3	10.297824
149	0x3f90a56a	1.130048
150	0xbec6d2bf	-0.38832662
151	0x3fefbd5b	1.8729662
152	0xbf795186	-0.9739002
153	0xbfcb4804	-1.5881352
154	0xbf30cbf8	-0.6906123
155	0xbf3e370e	-0.74302757
156	0xbee920ac	-0.4553274
157	0x3f8afbd1	1.0858098
158	0xbf86961c	-1.051456
159	0xbec4cf09	-0.38439205
160	0xbeb2980e	-0.34881634
161	0xbfd25a28	-1.6433764
162	0xbdf57652	-0.119854584
163	0xbe434db8	-0.19072616
164	0xbdf1d65f	-0.11808466
165	0x3db0b4ac	0.086282104
166	0xbd16fd3d	-0.0368626
167	0xbe3212bc	-0.17389959
168	0xbe636cae	-0.22209427
169	0xbd87c731	-0.066297896
170	0xbe75161d	-0.23934217
171	0xbce773bd	-0.02825343
172	0xbe5fa7b1	-0.21841313
173	0x3d932c3c	0.071861714
174	0x3db22021	0.08697534
175	0xbd16d95e	-0.03682839
176	0xbd643e93	-0.055723738
177	0x3ca02cfe	0.019552704
178	0xbe54316f	-0.20721982
179	0xbd45e2b8	-0.04831192
180	0x3dec5fd4	0.11541715
181	0x3d760ad4	0.06006892
182	0x3de84d24	0.113428384
183	0x3de23fcf	0.11047327
184	0x3dfd8a75	0.12379924
185	0xbea827a0	-0.3284273
186	0x3cc55431	0.024087997
187	0xbe13af6d	-0.14422388
188	0x3d232a9c	0.039835557
189	0xbe783486	-0.24238786
190	0xbe68be25	-0.22728784
191	0xbdc96184	-0.09833053
192	0xbc55a240	-0.013039172
193	0x3d4fd5b6	0.05074092
194	0xbd0114eb	-0.03151409
195	0x3ee2f6c7	0.443289
196	0xbde365cc	-0.111034006
197	0x3e0b0089	0.13574423
198	0xbe22a5bf	-0.1588354
199	0xbe721404	-0.23640448
200	0xbe6f60b1	-0.23376729
201	0x3dce98d2	0.10087742
202	0xbcef1f2e	-0.029189672
203	0x3e0c9230	0.13727641
204	0x3ea7d7b2	0.3278175
205	0x3e47d3e0	0.19514418
206	0x3e9bc973	0.3042713
207	0xbeb137ba	-0.34612828
208	0xbaf76507	-0.0018874713
209	0xbdb383cd	-0.087653734
210	0x3d994406	0.074836776
211	0x3e483ea4	0.19555146
212	0x3e557057	0.20843635
213	0x3e936fdf	0.28796288
214	0x3dc3005b	0.09521552
215	0x3ef12cea	0.4710458
216	0xbf8fefb1	-1.1245023
217	0x3f589d25	0.84614784
218	0xbf9a8a51	-1.2073461
219	0xbfc14cd2	-1.5101569
220	0x3fc749fc	1.5569453
221	0xbf51c3a7	-0.81939167
222	0x3f47cd82	0.78047955
223	0x3f3cf851	0.738164
224	0x3efa4374	0.48879588
225	0x3fbf3386	1.4937599
226	0xc02f6bef	-2.7409627
227	0x3fa7e7b9	1.3117591
228	0x3fecf211	1.8511373
229	0xc01a38db	-2.4097202
230	0x401824fe	2.3772578
231	0x3e7e91d6	0.2486032
232	0xc0c6deeb	-6.2147117
233	0xbc079f80	-0.008277774
234	0xbfb2a882	-1.3957675
235	0x3fe3d5c0	1.7799606
236	0xbf92ff3f	-1.1484145
237	0xbfa83f20	-1.3144264
238	0x3fe33803	1.7751468
239	0xbfdc9339	-1.7232429
240	0x3f289d05	0.6586459
241	0x3f13b69d	0.5770052
242	0x3f79847b	0.97467774

down_convs.0.conv2.bias f4 [3]
0	0xbf65ae40	-0.8971901
1	0x3ff3f24d	1.9058319
2	0x40528012	3.2890668

down_convs.0.norm0.weight f4 [3]
0	0x3f04425f	0.51663774
1	0x3ea087a8	0.31353498
2	0x40563475	3.3469517

down_convs.0.norm0.bias f4 [3]
0	0xbef0c7d4	-0.47027457
1	0xbf20938c	-0.6272514
2	0xbf4f0b6a	-0.8087679

down_convs.0.norm0.running_mean f4 [3]
0	0xbd2870aa	-0.04112307
1	0xbd6ec838	-0.058296412
2	0x3f3c1975	0.73476344

down_convs.0.norm0.running_var f4 [3]
0	0x41f7527b	30.915274
1	0x426ff950	59.99347
2	0x438e418d	284.51212

down_convs.0.norm1.weight f4 [3]
0	0x40280f42	2.6259313
1	0x3ed07b31	0.40718988
2	0x4089e990	4.309761

down_convs.0.norm1.bias f4 [3]
0	0x3ec96b3a	0.3933962
1	0xbece31b2	-0.4027229
2	0xbef80a35	-0.48445287

down_convs.0.norm1.running_mean f4 [3]
0	0x41d70305	26.876474
1	0x3fdcc6af	1.7248133
2	0xbe85932b	-0.26088843

down_convs.0.norm1.running_var f4 [3]
0	0x45d11c86	6691.5654
1	0x41c9bb08	25.216324
2	0x42d8db29	108.42805

down_convs.1.conv1.weight f4 [6, 3, 3, 3, 3]
0	0x3fee5154	1.8618569
1	0x408b21d5	4.34788
2	0x4018a168	2.3848515
3	0xbc412449	-0.011788436
4	0x3f4da124	0.80324006
5	0x3eb8888a	0.3604167
6	0xbf82868e	-1.0197313
7	0xbf1bfea8	-0.6093545
8	0xbf413102	-0.75465405
9	0x3fe4cbe5	1.7874724
10	0x40713bda	3.769278
11	0x40094792	2.1449933
12	0x3d845605	0.064617194
13	0x3f35e4f4	0.7105248
14	0xbda3f99b	-0.08006593
15	0xbf90ee0a	-1.1322644
16	0xbf3a2748	-0.7271619
17	0xbf93f34c	-1.1558623
18	0x3f95e16c	1.1709418
19	0x3fe9b070	1.825697
20	0x3f88287a	1.0637352
21	0xbdca8860	-0.09889293
22	0x3e8d50dd	0.27600756
23	0xbf058e75	-0.521705
24	0xbf8a8181	-1.0820771
25	0xbf373d76	-0.71578157
26	0xbfa05360	-1.2525444
27	0xbe9be515	-0.30448213
28	0x3f2786e1	0.65440184
29	0x3f9e3929	1.2361194
30	0xc015df4f	-2.3417547
31	0xc01c59ac	-2.4429731
32	0xbfcee0f8	-1.6162405
33	0xbfed37ce	-1.8532655
34	0xbf6513f5	-0.89483577
35	0xbf57b3c9	-0.84258705
36	0xbea61c18	-0.3244331
37	0xbd01d8eb	-0.03170101
38	0x3e87331d	0.26406184
39	0xc018e726	-2.3891082
40	0xc0299525	-2.649728
41	0xc0114446	-2.269792
42	0xbfdb667b	-1.714065
43	0xbf8afe12	-1.0858786
44	0xbf8b3fd1	-1.087885
45	0x3dfe210c	0.12408647
46	0x3e0b0ba0	0.13578653
47	0x3cfef101	0.031120779
48	0xbfc31b44	-1.5242696
49	0xbfaa2ec3	-1.329552
50	0xbfc5f59d	-1.546558
51	0xbfb41d9d	-1.4071537
52	0xbf1438c5	-0.57899123
53	0xbf265322	-0.649706
54	0xbfbb2e4f	-1.4623507
55	0xbf975535	-1.1822878
56	0xc08dc89d	-4.430739
57	0x3e191ce0	0.14952421
58	0xbebb1087	-0.36536047
59	0xc0018173	-2.023526
60	0x3ec1c529	0.37845734
61	0xbf753559	-0.9578453
62	0xc0151831	-2.3296015
63	0xbedbcb94	-0.42928755
64	0xbf66c7b0	-0.9014845
65	0xc048c6e7	-3.13714
66	0x3ec14ea6	0.37755316
67	0xbf86a88f	-1.052019
68	0xc00463b1	-2.0685847
69	0x3ede70e7	0.43445513
70	0xc005626c	-2.0841322
71	0xc0447742	-3.069779
72	0xbf72dfee	-0.9487294
73	0xbf910109	-1.1328441
74	0xc05f9747	-3.4936082
75	0x3e919471	0.28433564
76	0xbfa7e6c9	-1.3117305
77	0xc0281b60	-2.6266708
78	0x3f1381c6	0.57619894
79	0xbfde1bf9	-1.7352287
80	0xc03cd2aa	-2.950358
81	0xbdbfcde4	-0.093654424
82	0x3d912ef2	0.07089032
83	0x3ec86952	0.39142853
84	0x3fb7747c	1.4332423
85	0x40335ab6	2.8024116
86	0x40616f20	3.5224075
87	0x400c1840	2.18898
88	0x408b9f1f	4.363174
89	0x40afb5b0	5.4909286
90	0xbf0413ef	-0.51592916
91	0xbe713a7d	-0.23557468
92	0xbd85f3f6	-0.065406725
93	0x3f329538	0.6975894
94	0x3fa3a522	1.278477
95	0x3fd0074c	1.6252227
96	0x3f8cca54	1.0999246
97	0x3fe908dd	1.820583
98	0x3fe9e713	1.8273643
99	0xbfc4c576	-1.537276
100	0xbf98582c	-1.1901908
101	0xbf594ecc	-0.8488586
102	0xbf09a802	-0.53771985
103	0xbdcd6788	-0.10029513
104	0xbd54e3b1	-0.051974956
105	0xbed527a4	-0.41631806
106	0x3e501a36	0.20322499
107	0x3dfe2487	0.12409311
108	0x3f238519	0.63874966
109	0x3f3f6fc7	0.74779934
110	0x3fd1f298	1.6402159
111	0x3fc9a221	1.5752603
112	0x402eba19	2.7301085
113	0x408bb9a7	4.3664126
114	0x3f824df9	1.0180045
115	0x3fdd54a6	1.7291458
116	0x4036ced6	2.8563743
117	0x3de32490	0.11090958
118	0xbdf4ffb5	-0.11962835
119	0x3e18df7e	0.14929006
120	0x3f20b2fa	0.62773097
121	0x3f72b646	0.9480938
122	0x3f928edd	1.1449848
123	0x3dd64b6d	0.10463605
124	0x3dff4fff	0.1246643
125	0x3f13e89f	0.57776827
126	0xbf2469a1	-0.64223677
127	0xbf312805	-0.6920169
128	0xbe8f8a98	-0.28035426
129	0xbe546c68	-0.20744479
130	0xbe80b967	-0.2514145
131	0xbdd25667	-0.10270386
132	0xbe9d1f7b	-0.3068808
133	0x3deb5189	0.11490161
134	0x3ee68d98	0.45029902
135	0xc01e6233	-2.4747436
136	0x3cab6996	0.02092437
137	0xbf22e477	-0.6362986
138	0xbfe3c42d	-1.7794243
139	0xbddad9ea	-0.10686095
140	0xbfba06b1	-1.4533292
141	0xbfeaea92	-1.8352835
142	0xbfb3f81f	-1.4060096
143	0xc0740cde	-3.8132854
144	0xbf6550fd	-0.89576703
145	0x3f9b6b88	1.2142191
146	0x3e191fba	0.14953509
147	0xbe5dc81b	-0.21658365
148	0x3fa5dc64	1.2957883
149	0xbed02518	-0.406533
150	0x3efc7f2b	0.4931577
151	0x3f6d660c	0.92733836
152	0xbfac1cd1	-1.3446294
153	0xbfe34d3f	-1.7757949
154	0xbe30e301	-0.17274095
155	0xbf916812	-1.1359885
156	0xbf3624a5	-0.71149665
157	0x3e2432a6	0.16034946
158	0xbfad5005	-1.3540045
159	0x3dd3c635	0.10340539
160	0x3e34c816	0.17654452
161	0xbfee5c20	-1.8621864
162	0x3f04c517	0.51863235
163	0x3fae104f	1.3598727
164	0x40208813	2.5083053
165	0x3fae040a	1.3594983
166	0x4037f2f8	2.8742046
167	0x40b925ec	5.785879
168	0x3f93e21f	1.1553382
169	0x400052d9	2.0050566
170	0x408aa100	4.3321533
171	0xbcf14fc8	-0.029456988
172	0x3e96577b	0.29363617
173	0x3f945f1b	1.1591524
174	0x3edb2394	0.4280058
175	0x3fad5f1a	1.3544648
176	0x3fba8152	1.4570715
177	0x3e1756e9	0.14779247
178	0x3f5367b3	0.8258011
179	0x3f85857e	1.0431364
180	0xbf8f1f26	-1.1181381
181	0xbf126670	-0.5718756
182	0xbea37ecb	-0.31932673
183	0xbf17123a	-0.59012187
184	0xbe831a29	-0.25605896
185	0xbdcb9deb	-0.0994223
186	0xbf589f34	-0.84617925
187	0xbef2d495	-0.47427812
188	0xbea7e349	-0.32790592
189	0x3f31ed09	0.6950231
190	0x3f9b9377	1.2154378
191	0x404674bb	3.1008747
192	0x3f0df120	0.5544605
193	0x3f954379	1.1661216
194	0x4084d742	4.1512766
195	0xbe2b59b3	-0.16733436
196	0xbe88f264	-0.2674743
197	0x3f53b384	0.82695794
198	0xbd5a3824	-0.053276196
199	0xbe11c125	-0.14233835
200	0x3f3ae316	0.73002756
201	0xbdba86d7	-0.0910775
202	0xbd0919f2	-0.03347201
203	0x3f06c21c	0.5263994
204	0xbf52a4cd	-0.82282716
205	0xbf783c54	-0.96967053
206	0xbf1b813e	-0.6074408
207	0xbec115bd	-0.37711897
208	0xbf485601	-0.7825623
209	0xbe02b1db	-0.12763159
210	0xbf154904	-0.5831454
211	0xbf2cbff6	-0.6748041
212	0xbeceed83	-0.40415582
213	0xbf82dd82	-1.0223849
214	0xbf63f6e5	-0.89048606
215	0xbf040494	-0.51569486
216	0xc03c576e	-2.9428363
217	0x3d90fdca	0.070796564
218	0xbf906805	-1.1281744
219	0xc06cf51b	-3.70246
220	0xbfe966c6	-1.8234489
221	0xc0703096	-3.7529655
222	0xc060365c	-3.5033178
223	0xc03f6925	-2.9907925
224	0xc0b9ff59	-5.8124204
225	0xbfa042d6	-1.2520397
226	0x3fe47466	1.7848022
227	0x3eea93a9	0.4581578
228	0xbfd24579	-1.6427451
229	0x3dfcac39	0.12337536
230	0xbfd264fa	-1.6437066
231	0xbfbce677	-1.4757832
232	0xbf760284	-0.9609759
233	0xc05fa181	-3.4942324
234	0xc00a17e5	-2.1577084
235	0x3d6776e5	0.05650987
236	0xbfb3c0f3	-1.4043258
237	0xc0029d43	-2.0408485
238	0xbf9a79be	-1.2068403
239	0xc049bb9c	-3.1520758
240	0xbff35c4a	-1.9012539
241	0xc005dc0f	-2.0915563
242	0xc094e5c6	-4.6530485
243	0x3fc696c2	1.5514758
244	0x3fdce5be	1.7257612
245	0x3f955a90	1.1668262
246	0xbe97f1fd	-0.2967681
247	0xbe9719f1	-0.2951198
248	0xbf3d2b06	-0.73893774
249	0xbff9e870	-1.9524059
250	0xc00bdc15	-2.1853077
251	0xc00b8d79	-2.1805098
252	0x3fc8448f	1.5645922
253	0x3fe3eaf5	1.7806078
254	0x3f86cdda	1.0531571
255	0xbf02f52b	-0.51155347

down_convs.1.conv1.bias f4 [6]
0	0xbce47160	-0.027886093
1	0x3f16f2ca	0.58964217
2	0x3f38833b	0.7207524
3	0x3ea46ab6	0.32112664
4	0xbf68f2d7	-0.90995544
5	0xbe2cdbd6	-0.16880736

down_convs.1.conv2.weight f4 [6, 6, 3, 3, 3]
0	0xbe8a46fe	-0.27007288
1	0xbf040774	-0.5157387
2	0xbeeff932	-0.46869808
3	0xbd74838b	-0.05969576
4	0xbec3dad9	-0.38252905
5	0xbf0126bf	-0.50449747
6	0x3cd8527a	0.026406515
7	0xbe861df7	-0.26194736
8	0xbef214df	-0.47281548
9	0xbe80035d	-0.25002566
10	0xbef62a50	-0.48079157
11	0xbf0f15ed	-0.5589283
12	0xbe325d59	-0.17418422
13	0xbed00244	-0.4062673
14	0xbefa5edd	-0.489005
15	0x3deae3b7	0.114692144
16	0xbe0d6853	-0.13809328
17	0xbecdc240	-0.40187263
18	0xbe7bc064	-0.2458511
19	0xbede4bf8	-0.43417335
20	0xbeab403a	-0.33447438
21	0xbdefe886	-0.11714272
22	0xbeb31ccc	-0.34982908
23	0xbec83bde	-0.39108175
24	0x3e365510	0.17805886
25	0xbea8f962	-0.33002764
26	0xbf0a0194	-0.5390866
27	0x3d497bfe	0.049190514
28	0xbea4edbd	-0.3221263
29	0xbede30e5	-0.4339668
30	0x3e268037	0.16259848
31	0xbd8e7903	-0.06956675
32	0xbe8477d2	-0.25872666
33	0x3df1a4f8	0.117990434
34	0x3e94bbed	0.29049626
35	0x3d7cfb0a	0.061762847
36	0x3c9eb3b0	0.019372791
37	0xbe87fe46	-0.26561183
38	0xbee2a8e1	-0.4426947
39	0xbda779d4	-0.08177534
40	0xbe9343b6	-0.28762597
41	0xbebff33a	-0.37490255
42	0x3ec7ff7c	0.39062107
43	0x3d89eaff	0.06734275
44	0xbdd8d3e6	-0.105872914
45	0xbe04b4a6	-0.12959537
46	0xbf056d91	-0.5212031
47	0xbed58b00	-0.4170761
48	0x3c07749f	0.008267551
49	0xbeaf21f4	-0.34205592
50	0xbec48bc6	-0.3838789
51	0x3ed44e26	0.41465873
52	0xbe7df7ca	-0.24801555
53	0xbe4c0c98	-0.19926679
54	0xbe876c34	-0.2644974
55	0xbf10a1b7	-0.5649676
56	0xbf007f7b	-0.5019452
57	0x3d7c2903	0.06156255
58	0xbe966639	-0.29374865
59	0xbeeed233	-0.46644744
60	0x3db3a1d0	0.08771098
61	0xbdb88e92	-0.09011568
62	0xbe8fcd47	-0.28086302
63	0xbe113b40	-0.14182758
64	0xbf0b1965	-0.54335624
65	0xbf0bd602	-0.54623425
66	0x3c3697bc	0.011144575
67	0xbeedc1ad	-0.46436825
68	0xbef845d7	-0.48490784
69	0x3ebfd760	0.37469006
70	0xbeaf98cf	-0.3429627
71	0xbe9d86e1	-0.30766967
72	0xbdd6efc6	-0.10494952
73	0xbee50f59	-0.44738272
74	0xbea7d26f	-0.32777736
75	0x3d00a4b6	0.03140708
76	0xbf0f2d5b	-0.5592858
77	0xbeea9ab3	-0.4582115
78	0x3dd95592	0.10612024
79	0xbe77d886	-0.24203691
80	0xbe7885ee	-0.2426984
81	0xbf60f837	-0.87878746
82	0xbf7ab50d	-0.9793251
83	0xbf882e27	-1.0639085
84	0xbf4697e5	-0.7757552
85	0xbf43f5a5	-0.765467
86	0xbf5d99fd	-0.8656309
87	0xbf729bd4	-0.94769025
88	0xbf66be04	-0.9013369
89	0xbf71293a	-0.9420353
90	0xbf57e7c1	-0.84338003
91	0xbf4cf1ae	-0.80056274
92	0xbf78a43b	-0.97125596
93	0xbf7bb981	-0.9832993
94	0xbf2ea15a	-0.6821495
95	0xbf79a226	-0.97513044
96	0xbf89600e	-1.0732439
97	0xbf59b231	-0.85037524
98	0xbf47a0ff	-0.77980036
99	0xbf7c468b	-0.9854514
100	0xbf7611f1	-0.96121126
101	0xbf82e628	-1.0226488
102	0xbf8d96ef	-1.1061686
103	0xbf772ed4	-0.9655583
104	0xbf8505bc	-1.0392375
105	0xbf8ce119	-1.1006194
106	0xbf37f3eb	-0.71856564
107	0xbf51be0c	-0.81930614
108	0x3ce71268	0.028207019
109	0x3d44db59	0.04806075
110	0x3e11da71	0.14243485
111	0x3e361a7a	0.17783538
112	0x3eb3c7fa	0.35113508
113	0x3e82a7cf	0.25518653
114	0x3ea85260	0.32875347
115	0x3ebd06b9	0.3691919
116	0x3eaac0ed	0.33350316
117	0x3dca34e5	0.0987337
118	0x3e02cc64	0.12773281
119	0x3e79d008	0.24395764
120	0x3e72ccc4	0.23710924
121	0x3e4b26cc	0.19839019
122	0x3e592edd	0.21209283
123	0x3eb834ce	0.35977787
124	0x3f028922	0.509905
125	0x3f06e546	0.52693594
126	0x3e075b2a	0.1321837
127	0x3e06c1da	0.13159886
128	0xbc71924d	-0.0147443535
129	0x3dfc9b99	0.123343654
130	0x3e515730	0.20443416
131	0x3e850afb	0.2598494
132	0x3ef8f13e	0.48621553
133	0x3ef4564c	0.4772209
134	0x3f085da2	0.5326787
135	0x3d543802	0.051811226
136	0x3d37a132	0.044831462
137	0xbe9a1a25	-0.30098072
138	0x3e6dc94d	0.23221321
139	0x3eb4e0be	0.35327715
140	0xbe0ec68c	-0.13942927
141	0x3e76f9ca	0.24118724
142	0x3e77cac4	0.24198443
143	0x3de10b14	0.10988441
144	0x3d37f271	0.044908945
145	0x3cec1122	0.028816763
146	0xbeb571bc	-0.35438335
147	0x3e4c2fc8	0.19940102
148	0x3e184c68	0.14872897
149	0xbe1f5798	-0.15560758
150	0x3e8cb25a	0.2747982
151	0x3ea94b72	0.33065373
152	0xb9ca95a4	-0.00038639933
153	0x3dffc751	0.124891885
154	0x3d9af7c6	0.0756679
155	0xbedcf1e6	-0.43153304
156	0x3e466959	0.19376124
157	0x3e400753	0.18752794
158	0xbdfcc73b	-0.12342688
159	0x3e50d5bc	0.20394033
160	0x3ee2134f	0.44155356
161	0x3e938633	0.28813323
162	0x400efc9c	2.234168
163	0x3ff9bd39	1.9510871
164	0xbebae201	-0.36500552
165	0x403c6ddb	2.944205
166	0x406cb921	3.6987994
167	0x3f2fa7d5	0.68615466
168	0x40001620	2.0013504
169	0x401480f2	2.3203702
170	0x3f222408	0.6333623
171	0x404c8ad2	3.195973
172	0x4053e32c	3.3107405
173	0x3ee0e1e3	0.43922338
174	0x40574aa1	3.36393
175	0x40a75d74	5.230158
176	0x3f82a368	1.0206118
177	0x3fa8dbe6	1.3192108
178	0x3fc126dd	1.5089985
179	0x3db3f27a	0.08786483
180	0x3fc6f462	1.554333
181	0x3fc41635	1.5319277
182	0xbe68d9c6	-0.22739324
183	0x3f85226e	1.0401132
184	0x3fc64add	1.5491596
185	0xbcd4ec0f	-0.025991468
186	0xbe65e2d7	-0.22449814
187	0x3de77cb3	0.11303081
188	0xbf4b4b88	-0.79412127
189	0x4011a585	2.2757275
190	0x3faca832	1.3488829
191	0x3e177500	0.14790726
192	0x3fb0ddd6	1.3817699
193	0x3f773652	0.9656726
194	0xbdd98353	-0.10620751
195	0x3f18b05c	0.59644103
196	0x3eaa4e76	0.33262986
197	0xbeb69c34	-0.3566605
198	0x4063d9fc	3.5601797
199	0x3ff76f75	1.9330889
200	0x3e931c7f	0.28732678
201	0x3fbc29ed	1.4700295
202	0x3f6ce314	0.92533994
203	0xbe1f5616	-0.15560183
204	0x3f6ab2e7	0.91679233
205	0x3ef03f41	0.4692326
206	0xbea6ff0f	-0.3261647
207	0x405bfec7	3.4374254
208	0x3fe6a0bc	1.8017802
209	0x3e84af9e	0.25915235
210	0x3fbdef6c	1.4838691
211	0x3eca870e	0.39556164
212	0xbf004a06	-0.5011295
213	0x3f25fab3	0.6483566
214	0x3e4aabd9	0.19792117
215	0xbf49ac2d	-0.78778344
216	0x40103db4	2.253766
217	0x3f8cf2c4	1.1011586
218	0xbee24318	-0.44191813
219	0x401bacab	2.4324138
220	0x3fa37b4e	1.2772005
221	0xbd702095	-0.058624823
222	0x3f8395b5	1.0280062
223	0x3eaef44d	0.34170762
224	0xbeb86325	-0.3601314
225	0x407c4fb4	3.9423647
226	0x3fe290de	1.770046
227	0x3de4248b	0.111397825
228	0x403741f2	2.8634
229	0x3fbee9ad	1.4915062
230	0x3db250f3	0.08706846
231	0x3f94e1ba	1.1631386
232	0x3ef610b0	0.48059607
233	0xbee7de2f	-0.452867
234	0x407061e4	3.7559748
235	0x3fc5446a	1.5411503
236	0xbbc718a3	-0.006075935
237	0x40071765	2.110803
238	0x3f521c09	0.8207403
239	0xbf0ae22f	-0.5425138
240	0x3f33ecca	0.70283186
241	0xbe7b3fb6	-0.24536023
242	0xbf776146	-0.966328
243	0x3fb67b9d	1.4256474
244	0x3fbb15b7	1.4616002
245	0x3f6a3369	0.91484696
246	0x3ebd23be	0.36941332
247	0x3ec40378	0.38283896
248	0x3ee007df	0.43756005
249	0x3f99e072	1.202162
250	0x3f98da6a	1.1941655
251	0x3ff12488	1.8839273
252	0x3fd4b722	1.6618388
253	0x400db3a3	2.2140892
254	0x3fd09046	1.6294029
255	0x3edd28f3	0.43195304

down_convs.1.conv2.bias f4 [6]
0	0xbbe150a1	-0.006876067
1	0xbd274da0	-0.040845513
2	0x3d63528d	0.05549865
3	0xbd552ca0	-0.05204451
4	0x3d10d1a6	0.035356186
5	0xbebacf94	-0.36486495

down_convs.1.norm0.weight f4 [6]
0	0x3fc05751	1.5026647
1	0x3fb56076	1.4170063
2	0x3faa9b0b	1.3328565
3	0x40402aca	3.0026116
4	0x40594fa2	3.3954854
5	0x3fde3ff4	1.7363267

down_convs.1.norm0.bias f4 [6]
0	0x40102f6f	2.252895
1	0x3e9bb315	0.30410066
2	0x3e91d36e	0.2848162
3	0x403bc487	2.93387
4	0x3fcc1b19	1.594577
5	0x3f8cb985	1.0994116

down_convs.1.norm0.running_mean f4 [6]
0	0xc18c6d7b	-17.553457
1	0x411641fd	9.39111
2	0xc17c0686	-15.751593
3	0xc1ff4039	-31.906359
4	0x40323956	2.7847495
5	0x42526e53	52.60774

down_convs.1.norm0.running_var f4 [6]
0	0x45345430	2885.2617
1	0x45b1c2ab	5688.3335
2	0x45bdead2	6077.3525
3	0x4538f9a2	2959.602
4	0x450eca11	2284.6292
5	0x450dd937	2269.576

down_convs.1.norm1.weight f4 [6]
0	0x3d8ff565	0.07029227
1	0x3f4ed48a	0.8079306
2	0x3fa404db	1.2813982
3	0x3f8efdbb	1.1171182
4	0x3f636a76	0.8883432
5	0x40566435	3.3498662

down_convs.1.norm1.bias f4 [6]
0	0xbf97a62e	-1.1847589
1	0xbed43a43	-0.414507
2	0xbed30b1b	-0.4121941
3	0xbf860c81	-1.0472566
4	0x3fb6b8d2	1.4275153
5	0x400a980a	2.1655297

down_convs.1.norm1.running_mean f4 [6]
0	0xc2ab7946	-85.73686
1	0x430d0188	141.00598
2	0x4199a95c	19.207695
3	0xc33d9df3	-189.61699
4	0x42a45e1c	82.18381
5	0x40abb20b	5.3654838

down_convs.1.norm1.running_var f4 [6]
0	0x44ea958f	1876.6737
1	0x46b72561	23442.69
2	0x4660ae3d	14379.56
3	0x464b90fb	13028.245
4	0x45c75d71	6379.68
5	0x473d6afd	48490.99

down_convs.2.conv1.weight f4 [12, 6, 3, 3, 3]
0	0x3d67f2a2	0.056627877
1	0xbce7a3a3	-0.02827627
2	0xbeddee6c	-0.43345964
3	0xbca57378	-0.020196661
4	0x3e0139cb	0.12619703
5	0xbcd7282b	-0.02626427
6	0x3cf67d7a	0.030089129
7	0x3c8782bb	0.01654183
8	0xbeda4dd6	-0.4263751
9	0x3d8b3d1f	0.06798767
10	0x3cc950bf	0.024574636
11	0xbed14bd0	-0.40878153
12	0x3d84daa6	0.064870164
13	0x3d8e7f9f	0.069579355
14	0xbd17d14f	-0.037064847
15	0x3e2c081a	0.16799966
16	0x3e05c5a5	0.13063677
17	0xbe8a4c9a	-0.27011567
18	0x3e406004	0.18786627
19	0xbe2fd7ff	-0.1717224
20	0xbf0147e3	-0.50500315
21	0x3ddba49a	0.10724755
22	0x3d9b16f5	0.07572738
23	0xbeb9ea60	-0.36311626
24	0x3e5b29ed	0.21402712
25	0x3e6794e4	0.22615391
26	0xbf1500f4	-0.5820458
27	0xc02de30a	-2.7169824
28	0xbe65f749	-0.22457613
29	0x4000e181	2.0137637
30	0xc0473ee5	-3.1132138
31	0xbfbd079d	-1.4767948
32	0x3f343498	0.7039275
33	0xc0263dc9	-2.597521
34	0xbf80c0a4	-1.0058789
35	0x3f9d3110	1.2280598
36	0xbf1dd953	-0.61659735
37	0x3e8ebd99	0.27879027
38	0x3f8686af	1.0509852
39	0xbee73ebf	-0.4516506
40	0xbe78bad8	-0.24290025
41	0x3fb7d104	1.4360662
42	0xbf3cd64c	-0.7376449
43	0xbf07928d	-0.52957994
44	0x3fbb4ec5	1.4633414
45	0x3f264e96	0.6496366
46	0x3f9ca369	1.2237369
47	0x402b4187	2.6758745
48	0xbe4b4232	-0.1984947
49	0x3e321575	0.17390998
50	0x402c5e88	2.6932697
51	0x3e83c46e	0.257358
52	0xbdc8abc0	-0.09798384
53	0x3ff2558c	1.8932357
54	0xc0311be5	-2.7673275
55	0xbfad1264	-1.3521237
56	0xc000c0f9	-2.011778
57	0xc015cfa8	-2.3407993
58	0xbf5244c2	-0.82136166
59	0xc04abbe5	-3.1677182
60	0x40199aba	2.4000688
61	0xbf8ed3cb	-1.1158384
62	0xc08c6644	-4.3874836
63	0xbfb0edfa	-1.3822625
64	0xbd893a2e	-0.0670055
65	0x3f01e94f	0.50746626
66	0xc028b72a	-2.6361794
67	0xbfb1e3c0	-1.3897629
68	0xc0258764	-2.5863886
69	0x3ef3322c	0.47499216
70	0xbfae0234	-1.3594422
71	0xc0484ab7	-3.1295602
72	0x3e97b043	0.29626665
73	0x400235f0	2.034542
74	0x40121a77	2.2828653
75	0xbfbccf89	-1.4750835
76	0xbf929c03	-1.1453861
77	0xc0110bd9	-2.2663481
78	0x3fd65420	1.6744423
79	0xbf193872	-0.59851754
80	0xc0273d05	-2.6130993
81	0xc0213fb1	-2.5195124
82	0xbfb8c4ee	-1.4435098
83	0xbe552a9f	-0.2081704
84	0xbe648d96	-0.22319636
85	0xbf733493	-0.95002097
86	0xbfc7e7ce	-1.5617616
87	0x402dbb5f	2.7145612
88	0x3f6fe3f0	0.9370718
89	0xbef43b5f	-0.47701547
90	0xbe9864eb	-0.29764494
91	0x3f0013dc	0.50030303
92	0x3ff1cb7c	1.8890224
93	0xbe59c4f1	-0.21266533
94	0xbef6d039	-0.48205736
95	0x3e261f8e	0.16222975
96	0xbf56e175	-0.8393777
97	0xc0080f7b	-2.1259449
98	0xc017ecb0	-2.3738213
99	0x3db5ec8b	0.088830076
100	0x4011dc94	2.279088
101	0x40ab435f	5.351974
102	0xbf40a9a6	-0.7525886
103	0xbe7b8536	-0.24562535
104	0x3f6f2e3b	0.9342992
105	0x3f16c058	0.58887243
106	0xbfb81fec	-1.4384742
107	0xbf4d370b	-0.80162114
108	0x3f55a49a	0.8345429
109	0x402e48ae	2.723186
110	0xbdec2c0a	-0.11531837
111	0xbe580ec0	-0.21099377
112	0x400537c5	2.081529
113	0xbf0dd244	-0.55398965
114	0xbe879f3a	-0.26488668
115	0x3fefa869	1.872327
116	0xbbc67dd8	-0.006057482
117	0xbfc3641b	-1.5264925
118	0xbf0685d0	-0.5254793
119	0xc02cd38d	-2.700412
120	0xbffc3334	-1.9703126
121	0xbf083230	-0.5320158
122	0xc014b217	-2.3233697
123	0xbfe6e721	-1.8039285
124	0xbe14ba59	-0.14524211
125	0xbfd52061	-1.6650506
126	0x3f72d4a8	0.9485574
127	0x40628eca	3.5399652
128	0x3e165a89	0.14682974
129	0x3e84a7c2	0.2590924
130	0x4030a2f4	2.7599459
131	0xbeace51f	-0.33768556
132	0xbf8e5637	-1.1120061
133	0x3f7e64dd	0.99372655
134	0xbf736e44	-0.95090127
135	0x3ff714f2	1.9303267
136	0x3e42e98d	0.19034405
137	0xbedc624a	-0.4304374
138	0x3faa27e0	1.3293419
139	0x3ed91b3a	0.42403585
140	0xbfa4beb1	-1.2870694
141	0xc023d75e	-2.56002
142	0xbf8d3ca7	-1.1034135
143	0x3f835299	1.0259582
144	0xbf063d9a	-0.52437747
145	0x3e3b89a9	0.18314232
146	0xbe8256fa	-0.25456983
147	0x3f36672c	0.7125118
148	0x3f7471f3	0.9548637
149	0x3f04e316	0.51909006
150	0x3f56ae3e	0.8385962
151	0x3fbacc4b	1.4593595
152	0x404266c6	3.0375228
153	0xbfc0ce94	-1.5063043
154	0xbfb5e0c1	-1.4209214
155	0xc025519e	-2.5831065
156	0xc0052533	-2.0803955
157	0xbe83cad2	-0.25740677
158	0xbd814968	-0.06312829
159	0x3dd76c2a	0.105186775
160	0x3f675b01	0.90373236
161	0x4001ac93	2.026158
162	0xbd04b2f0	-0.03239721
163	0xbe973f3d	-0.29540434
164	0xbe950def	-0.29112193
165	0x3e7762c1	0.24158765
166	0x3ee7534a	0.45180732
167	0x3ef2a54f	0.47391745
168	0x3e978d5f	0.29600045
169	0x3efb02bd	0.49025527
170	0x3f0112f9	0.50419575
171	0xbf016a46	-0.50552785
172	0xbee1f171	-0.44129518
173	0xbebe4b85	-0.37166992
174	0x3eb1f62d	0.3475813
175	0x3edab9ba	0.42719823
176	0x3ee8b733	0.4545227
177	0x3ef5bd2a	0.47995883
178	0x3f10dd92	0.5658809
179	0x3f05d9d2	0.5228549
180	0xbedb1bf2	-0.42794758
181	0xbe37d6f2	-0.17953089
182	0xbe2b688e	-0.16739103
183	0x3e810052	0.25195557
184	0x3ebbe313	0.3669668
185	0x3e672721	0.2257352
186	0x3f0edf75	0.5580972
187	0x3f164db2	0.58712304
188	0x3eb5831a	0.35451585
189	0xbf68c8c8	-0.9093137
190	0xbe954bed	-0.2915949
191	0x3fb26753	1.3937782
192	0xbf6de569	-0.9292818
193	0xbfa22075	-1.2666155
194	0x3ef7dc78	0.48410392
195	0xbffbaaf5	-1.9661547
196	0xbf697cac	-0.9120586
197	0x3f1db728	0.616076
198	0xbedf92f5	-0.43666807
199	0xbe7882e8	-0.24268687
200	0x401dca5d	2.4654763
201	0x3f28cda9	0.6593881
202	0xbf797782	-0.9744798
203	0x3f8a2712	1.0793173
204	0x3e2b1504	0.16707236
205	0x3f0929ed	0.535796
206	0x400b289f	2.1743543
207	0xbf1a7e2e	-0.60348785
208	0xbebe9831	-0.37225488
209	0x3f9e52bc	1.2368999
210	0x3f5a2a3a	0.8522068
211	0xbe293904	-0.16525656
212	0x3fb55117	1.4165372
213	0xbdec888a	-0.1154948
214	0x3f03a637	0.514255
215	0x40022e1c	2.0340643
216	0xbf173146	-0.5905956
217	0xbf347812	-0.7049571
218	0xbe0f8ca3	-0.14018492
219	0xc006487d	-2.0981743
220	0xbf7f6c7b	-0.99774903
221	0xc01dfb58	-2.4684658
222	0x403476d2	2.8197522
223	0x4024b334	2.5734377
224	0x3fc25d62	1.5184748
225	0x3e57625a	0.21033612
226	0xbe886d1a	-0.26645738
227	0x3e179da6	0.14806232
228	0xbf95db2f	-1.1707515
229	0xbe45836f	-0.19288419
230	0xc0147435	-2.3195927
231	0x3ed24212	0.41066033
232	0x3de1a586	0.11017899
233	0xbf5ac5ff	-0.8545837
234	0x3f3fd3a9	0.7493234
235	0x3e543e60	0.20726919
236	0x3e8e0905	0.27741256
237	0xc006157f	-2.095062
238	0xc0009c4f	-2.0095403
239	0xc0655a57	-3.583639
240	0xbecdb1cd	-0.40174714
241	0xbf8656f6	-1.0495288
242	0xc0020ca1	-2.0320208
243	0x408ac24d	4.3362184
244	0x4033e005	2.810548
245	0x40612690	3.5179787
246	0xbf64ee18	-0.894258
247	0xbf3b8cdb	-0.73261803
248	0xbf7c1fdf	-0.9848613
249	0x3fdd07e2	1.7268031
250	0x402c10af	2.6885183
251	0x404852ea	3.1300607
252	0x4072ae5f	3.7918928
253	0x3faa384e	1.3298433
254	0x403353f6	2.8019996
255	0x3f141dc2	0.57857907

down_convs.2.conv1.bias f4 [12]
0	0xbdb56162	-0.08856465
1	0xbbe03898	-0.006842684
2	0x3dad18dd	0.08452008
3	0x3bcc81c9	0.0062410575
4	0xb9320d9c	-0.00016980473
5	0xbc6eaa9e	-0.0145670455
6	0xbc03f500	-0.008054018
7	0xbd14a9a6	-0.0362946
8	0x3d8d9ae9	0.069143124
9	0x3b1f78a5	0.0024333384
10	0x3dcf768a	0.101300314
11	0xbd6e64b3	-0.058201503

down_convs.2.conv2.weight f4 [12, 12, 3, 3, 3]
0	0xbf646fee	-0.8923329
1	0x3fed55b3	1.8541778
2	0x3f96247d	1.1729885
3	0x3f012551	0.50447565
4	0x3fdfa540	1.7472305
5	0x403a47ee	2.9106402
6	0xbe6a7f67	-0.22900163
7	0x3f80dbcc	1.0067077
8	0x4078da9b	3.8883426
9	0xbf4440e9	-0.76661545
10	0x3ff6310e	1.923372
11	0x4008c4e7	2.137018
12	0xbfceacd4	-1.6146493
13	0xbf541ec3	-0.8285944
14	0xbf4a44fb	-0.79011506
15	0xbedf9d25	-0.4367458
16	0x3f00617d	0.50148755
17	0x3f8fda91	1.1238576
18	0xbf19fe56	-0.6015371
19	0x4028cabd	2.6373742
20	0x40332c20	2.7995682
21	0xc00ae4e7	-2.170221
22	0xbf48ad63	-0.7838957
23	0xc0073805	-2.1127942
24	0xc041f27e	-3.0304255
25	0xbfd9cb07	-1.7015084
26	0xc0194246	-2.39467
27	0xbf32f44a	-0.69904006
28	0xbec0c74b	-0.37652048
29	0xbfa54b83	-1.2913669
30	0x3fc4fd6f	1.5389842
31	0x3ff019c0	1.8757858
32	0x402ace98	2.6688595
33	0xbee67bfe	-0.45016474
34	0xbe42bccf	-0.19017337
35	0xbf1247f5	-0.5714105
36	0xbf452ccd	-0.77021486
37	0xbeaa6829	-0.33282593
38	0xbfad0eb1	-1.3520108
39	0xbe6b2e44	-0.22966868
40	0x3eea95b4	0.4581734
41	0x3f79f052	0.97632325
42	0xbf988580	-1.1915741
43	0xbfa6fb77	-1.3045491
44	0xc00eaad6	-2.229177
45	0xc02d363e	-2.7064357
46	0xbfb91a52	-1.4461157
47	0xbf8efb88	-1.1170511
48	0xbee9f271	-0.4569278
49	0x3f20eca2	0.62861073
50	0x3f901402	1.1256106
51	0xbf8be1c8	-1.0928278
52	0xbf09849b	-0.53717965
53	0xbfec0edd	-1.8442036
54	0xbf3b1417	-0.7307753
55	0x3f876d71	1.0580274
56	0x3f7e1314	0.9924786
57	0xc0475af1	-3.1149256
58	0xbfd1f709	-1.6403514
59	0xbf3a8ef8	-0.72874403
60	0xc03c0865	-2.9380124
61	0xc0562d93	-3.3465316
62	0xc0210549	-2.5159476
63	0x3f299fc6	0.6625942
64	0x3fd8aad2	1.692713
65	0x3f91250e	1.1339433
66	0x3ed380af	0.41309115
67	0x3fc02624	1.501164
68	0x3fc8fbfa	1.5701897
69	0x3ef73473	0.48282203
70	0x3e792bed	0.24333163
71	0x3e830580	0.25590134
72	0xbf617de9	-0.8808275
73	0x3fc9d6e8	1.5768709
74	0x3ba0eb2c	0.004910847
75	0x402521bd	2.5801842
76	0x4075631d	3.8341744
77	0x400e3b05	2.2223523
78	0x3f411ffb	0.75439423
79	0x3fda9e5f	1.7079581
80	0x3f6c9e35	0.92428905
81	0x3f00326a	0.50076926
82	0x3d63fb07	0.05565932
83	0xbe8ba255	-0.27272287
84	0x3f8869c8	1.0657282
85	0xbeb9777b	-0.3622397
86	0xbde7e9e8	-0.11323911
87	0x4017a481	2.3694155
88	0x3f38599a	0.7201172
89	0x3fc72a86	1.5559852
90	0x3ffe7e64	1.9882321
91	0x3f23ac3e	0.63934696
92	0x3e622c9e	0.22087333
93	0x3fbd12c2	1.477135
94	0xbe9bb4b2	-0.30411297
95	0x3e5749e8	0.21024287
96	0x403bdbd9	2.9352934
97	0x3fa58618	1.2931547
98	0x40023f20	2.0351028
99	0x401ab66f	2.4173849
100	0x3fa3211b	1.2744478
101	0x3f282827	0.6568627
102	0x3fe0f7c7	1.7575616
103	0xbd469b74	-0.048488095
104	0x3a49cfd7	0.0007698512
105	0x402784a7	2.6174715
106	0x3f7735be	0.9656638
107	0x3fac6a0b	1.3469862
108	0xbf0d1a9a	-0.55118716
109	0xbf887217	-1.0659817
110	0xbfa8535c	-1.3150439
111	0xc0b68089	-5.7031903
112	0xc00731f5	-2.1124241
113	0x3f73bde8	0.9521165
114	0xc0983e54	-4.7576084
115	0xc01fb7f8	-2.4956036
116	0xc008b249	-2.1358817
117	0xbf94698e	-1.1594713
118	0xbf93d145	-1.1548239
119	0xbff04500	-1.8771057
120	0xc0b2f2a0	-5.5921173
121	0xc03617be	-2.845199
122	0x3f89f5c0	1.0778122
123	0xc01537cb	-2.3315303
124	0xbf8505bd	-1.0392376
125	0xc0164b19	-2.3483336
126	0xbf6b99f2	-0.92031777
127	0xbfbdcf7c	-1.4828944
128	0xbfd63462	-1.6734736
129	0xc0824581	-4.0709844
130	0xc02b0d68	-2.6726933
131	0xbf604dc1	-0.87618643
132	0xc029d1a5	-2.6534207
133	0xbfa01ac8	-1.2508173
134	0xbfad523e	-1.3540723
135	0xc07a40d5	-3.910207
136	0x3f610d56	0.87910974
137	0x403178b8	2.772993
138	0xc01401ca	-2.3126092
139	0xbfe41c4c	-1.7821136
140	0x400e0f80	2.219696
141	0x3f016bbd	0.5055502
142	0x3e9a4531	0.30130914
143	0x3fbce6f3	1.475798
144	0xc024d77e	-2.5756526
145	0x3f920f24	1.141087
146	0x403715d1	2.8607066
147	0xbdd4acbb	-0.10384508
148	0x3f1fbb36	0.62395036
149	0x4035b81a	2.8393617
150	0x4026ebfb	2.608153
151	0x40053916	2.0816092
152	0x3ff03e7d	1.876907
153	0xc029858c	-2.648776
154	0xbe39dfc7	-0.1815177
155	0x3f4ee3e7	0.808165
156	0xc0764890	-3.8481789
157	0xbf9f04c3	-1.2423328
158	0xbe2cd64a	-0.1687862
159	0xc0568eed	-3.3524735
160	0xbf54d7c7	-0.8314175
161	0x3dda35c0	0.10654783
162	0xbfc63bc6	-1.5486991
163	0xbfc871ab	-1.5659689
164	0xbf21c0a1	-0.63184553
165	0xc084fd47	-4.1559176
166	0xbfc1c8e0	-1.5139427
167	0x3d718782	0.05896712
168	0xc04c419a	-3.191504
169	0xc03a25c6	-2.9085555
170	0xc01d6aa2	-2.4596334
171	0xbf4a8919	-0.79115444
172	0xbcc770ee	-0.024345841
173	0xbf4b1b66	-0.7933868
174	0xc03f06f8	-2.9848003
175	0xbffbae02	-1.9662478
176	0xbfd1b8b6	-1.6384494
177	0xc0079981	-2.1187441
178	0xc03cf360	-2.9523544
179	0xc00d8c3a	-2.2116838
180	0xbf216dd5	-0.63058215
181	0xbebbad85	-0.36655822
182	0xbf0784d4	-0.52937055
183	0x402295b0	2.5403862
184	0x4023a71a	2.557074
185	0x40040a95	2.0631459
186	0xbf865bcc	-1.0496764
187	0xbf756f17	-0.95872635
188	0x40064876	2.0981727
189	0x3fa6e876	1.3039691
190	0xbfd4ce0d	-1.6625382
191	0xbe548aea	-0.20756117
192	0xbee9cad6	-0.45662564
193	0xbded134c	-0.11575946
194	0x3ff54a68	1.9163332
195	0xc05d5b57	-3.4587
196	0xbf3cba97	-0.73722214
197	0x3ff6dc64	1.9286008
198	0x3ffb5fe1	1.9638635
199	0xbe7f7633	-0.24947433
200	0x3d9f883c	0.077896565
201	0x3ef969c6	0.4871351
202	0x3f51e043	0.8198282
203	0x4020760a	2.5072045
204	0xbf5c8588	-0.8614125
205	0x3f2721a1	0.6528569
206	0x400f6442	2.2404943
207	0x4024447a	2.5666795
208	0x3e8b4030	0.2719741
209	0x3e39c85b	0.18142836
210	0xbf0d11ef	-0.5510549
211	0xbdcb1e39	-0.09917874
212	0x3f6cb331	0.92460924
213	0xc0375366	-2.8644652
214	0xbf4fc78d	-0.81163865
215	0x3e997118	0.29969096
216	0x3f179904	0.5921786
217	0x3fcddc3a	1.6082833
218	0x4013b087	2.3076494
219	0x3e09f03c	0.13470548
220	0x3ee23ca9	0.44186905
221	0x3fb20d73	1.3910354
222	0x3f8735ef	1.0563334
223	0x3f740e64	0.9533446
224	0x3fbe3a66	1.4861572
225	0xbed30a79	-0.41218928
226	0x3f5b17e7	0.8558335
227	0x3fa5834c	1.2930694
228	0xbf06cc6e	-0.52655685
229	0xbe6855fc	-0.2268905
230	0x3f0037ed	0.50085336
231	0x3f986ef9	1.1908866
232	0x3f6b5fb3	0.919429
233	0x3f9090e5	1.1294218
234	0xbf967938	-1.1755743
235	0x3f899df7	1.0751332
236	0x3fd410c4	1.6567616
237	0xbe1725ac	-0.14760464
238	0x3fa0a9b5	1.255179
239	0x3f3e5319	0.74345547
240	0x3e8bba18	0.27290416
241	0x3dc476f1	0.09592999
242	0xbe0d1e47	-0.13781081
243	0xbda42c13	-0.08016219
244	0x3e5cfa82	0.21579936
245	0x3ff1b234	1.8882508
246	0xbedecf85	-0.435177
247	0x3f846e2a	1.0346119
248	0x3fa7823a	1.3086617
249	0xc02166c9	-2.5218985
250	0xbf243bba	-0.64153636
251	0x3f7e00a0	0.99219704
252	0xbf7359a4	-0.95058656
253	0xbf87b65c	-1.0602527
254	0x3f0a6bbd	0.54070646
255	0x3f6f6d91	0.9352656

down_convs.2.conv2.bias f4 [12]
0	0xbbf5eceb	-0.0075050495
1	0xbc1b4606	-0.009477144
2	0xbcc59137	-0.024117095
3	0x3c16c52d	0.009202284
4	0x3cced34c	0.025247239
5	0xbd549bc7	-0.051906373
6	0x3c93afcf	0.018028168
7	0x3d0c964f	0.034323033
8	0x3d2b0c57	0.041759815
9	0x3c913d09	0.0177293
10	0x3c01879f	0.00790587
11	0xbc6150fd	-0.013752219

down_convs.2.norm0.weight f4 [12]
0	0x40489cea	3.1345773
1	0x3f58c5dd	0.84676915
2	0x4015f961	2.3433459
3	0x401d62bd	2.4591515
4	0x3fb83957	1.4392499
5	0x40bc64a9	5.8872876
6	0x3ff42781	1.9074556
7	0x3fadab9b	1.3567995
8	0x3fed4cec	1.85391
9	0x3fb4b091	1.4116384
10	0x401ef111	2.4834635
11	0x3fc9431c	1.5723605

down_convs.2.norm0.bias f4 [12]
0	0x3edf1013	0.4356695
1	0xbea9550d	-0.330727
2	0x3fa9ee86	1.3275917
3	0x3f543619	0.82895046
4	0xbf4e08f7	-0.8048243
5	0x3ed83572	0.42228276
6	0xbfb35fe5	-1.401364
7	0x3f97ee87	1.1869668
8	0x3fad060a	1.3517468
9	0xc04938f3	-3.144101
10	0x3f492040	0.78564835
11	0xc0561ddb	-3.3455722

down_convs.2.norm0.running_mean f4 [12]
0	0xc09b4c03	-4.853029
1	0x411c2f07	9.761481
2	0xc168dbf9	-14.553704
3	0xc2ccd796	-102.42107
4	0x40f14348	7.539463
5	0xc2dbf4a2	-109.9778
6	0xc2903885	-72.11039
7	0x404b733b	3.178908
8	0xc311793c	-145.47357
9	0x42131e85	36.779804
10	0x422e0528	43.505035
11	0x42005136	32.079308

down_convs.2.norm0.running_var f4 [12]
0	0x44d2c0ad	1686.0211
1	0x4464ec4f	915.6923
2	0x4454f77d	851.867
3	0x46175b5e	9686.842
4	0x45847e83	4239.814
5	0x45829981	4179.188
6	0x45378da7	2936.8533
7	0x446f357a	956.8356
8	0x45373554	2931.333
9	0x444c2724	816.6116
10	0x450e86b9	2280.4202
11	0x443cf64b	755.8483

down_convs.2.norm1.weight f4 [12]
0	0x4015c09e	2.3398814
1	0x3fca21ff	1.5791625
2	0x4024a44f	2.5725286
3	0x3fb0e01e	1.3818395
4	0x400e22fc	2.2208853
5	0x403f4581	2.9886172
6	0x3fb13aa4	1.3846021
7	0x402fe105	2.748109
8	0x3ffd31cb	1.9780821
9	0x401889b2	2.3834043
10	0x3f5ef283	0.87088794
11	0x4040d506	3.013002

down_convs.2.norm1.bias f4 [12]
0	0x3f001b3c	0.50041556
1	0x3f53f076	0.8278879
2	0xbfe41430	-1.7818661
3	0xc0248db4	-2.5711489
4	0xbed07280	-0.40712357
5	0xbe797c53	-0.24363832
6	0xbeb9a3f6	-0.36257905
7	0xbe843464	-0.2582122
8	0xc0096802	-2.1469731
9	0xbdc319ba	-0.09526391
10	0xbfe0bc10	-1.7557392
11	0x3ec7cd2d	0.39023724

down_convs.2.norm1.running_mean f4 [12]
0	0x42a2c4ae	81.38414
1	0xc1ac9e67	-21.577345
2	0xc284df88	-66.436584
3	0x42727b2b	60.62028
4	0xc245162d	-49.271656
5	0xc1ba3f86	-23.281017
6	0xc0cfcd6f	-6.4938273
7	0xc1837faf	-16.437346
8	0xc2f18a5a	-120.77022
9	0xc144a432	-12.290087
10	0xc1c7e387	-24.986097
11	0xc16cbdc5	-14.79633

down_convs.2.norm1.running_var f4 [12]
0	0x4562f7de	3631.4917
1	0x456c4514	3780.3174
2	0x459da512	5044.634
3	0x454e8fbe	3304.984
4	0x4564ec6b	3662.7761
5	0x45381cea	2945.8071
6	0x456059bd	3589.6086
7	0x4591ee43	4669.7827
8	0x453d96da	3033.4282
9	0x4588b8bf	4375.0933
10	0x4518e5d9	2446.3655
11	0x453a6d8c	2982.8467

down_convs.3.conv1.weight f4 [24, 12, 3, 3, 3]
0	0xbe581c78	-0.2110461
1	0xbf8f24ea	-1.118314
2	0xbfe22896	-1.7668636
3	0xc057cbe0	-3.3718185
4	0x3faf1a2f	1.3679866
5	0x3fb41bfa	1.4071038
6	0xbf95b29a	-1.169513
7	0x3f63f048	0.89038515
8	0x403f7cf7	2.9920022
9	0xbeaf8e7b	-0.3428839
10	0xbeae14a7	-0.3400013
11	0x3c283147	0.010265655
12	0xc00705eb	-2.1097362
13	0x3e08f5d6	0.13375029
14	0xbfaf5fcf	-1.3701113
15	0xbf8ab55f	-1.08366
16	0x3df39b0f	0.118948095
17	0x3f95b344	1.1695333
18	0x3ff38458	1.9024763
19	0x3f16c1fc	0.58889747
20	0x3f89d9df	1.0769614
21	0xbedfca37	-0.43708965
22	0x3fa3a90b	1.2785963
23	0x3f61332b	0.879687
24	0xbf9e4578	-1.236495
25	0x3fd60b9f	1.6722296
26	0x408061df	4.011947
27	0x3ef04fc9	0.4693587
28	0x3f0ea599	0.5572143
29	0x3f8db358	1.1070356
30	0xc0064deb	-2.0985057
31	0xc0655424	-3.5832605
32	0xbfd173c9	-1.636346
33	0x3f28353f	0.6570625
34	0xc028be72	-2.6366239
35	0xbfac4174	-1.3457475
36	0x3eabe8f5	0.3357617
37	0x3f772cc7	0.965527
38	0x400010eb	2.0010326
39	0x3f2edd70	0.68306637
40	0xbf8323f0	-1.0245342
41	0xbf905bde	-1.1278036
42	0x3f37b39a	0.71758425
43	0xbfcf6286	-1.6201942
44	0xbfd0dbb5	-1.6317049
45	0x3ef9b08f	0.48767516
46	0x3f7f6860	0.9976864
47	0x4009ad88	2.1512165
48	0xbcc64da6	-0.024206948
49	0xbf84dd86	-1.0380104
50	0xbf89e865	-1.0774046
51	0x3f8cd93a	1.1003792
52	0xbe650037	-0.22363363
53	0x3fa57215	1.292544
54	0xbcbfe4ca	-0.023424525
55	0xbf2dab4d	-0.6783951
56	0x3f2d3046	0.67651784
57	0x3ff69887	1.9265298
58	0xbd26c92e	-0.040719204
59	0xbf89220c	-1.0713515
60	0x3eb2db7c	0.34933078
61	0x3f517fd7	0.81835693
62	0x3fbcebd2	1.4759467
63	0x3e090152	0.1337941
64	0x3e22d7dc	0.15902656
65	0x3ecba89c	0.39777076
66	0x3f79068b	0.9727561
67	0xbe036118	-0.12830007
68	0xbecee882	-0.40411764
69	0x3f9acf9f	1.2094611
70	0x3e6e1b80	0.23252678
71	0x3e84f3ad	0.2596716
72	0xc0270fbf	-2.610336
73	0xbf8b5a0d	-1.0886856
74	0x3e6ee3ef	0.23329137
75	0x3f0c6df5	0.5485528
76	0xbde15491	-0.11002458
77	0xbf0394bb	-0.5139882
78	0x3ff87c1d	1.9412876
79	0x3fb1aa5b	1.3880113
80	0x4002eb05	2.0455945
81	0xbfd4fee7	-1.664029
82	0xbfc37c90	-1.5272388
83	0x3f4730d5	0.77808887
84	0xbe8ae86d	-0.27130452
85	0x4002b783	2.0424507
86	0xc046815d	-3.1016457
87	0x3ead4163	0.3383895
88	0xbe80bfaf	-0.25146243
89	0xbf62b185	-0.88552123
90	0xbf88b5a7	-1.0680436
91	0xbe54254b	-0.20717351
92	0x4016f66b	2.3587902
93	0xbe69c1f1	-0.22827889
94	0x4020c71b	2.5121524
95	0xc001a6a9	-2.0257971
96	0x3fe5e681	1.7960969
97	0x400cebaf	2.201885
98	0xbf02cb3f	-0.5109138
99	0x3f21e6a6	0.63242567
100	0xbf5c3b75	-0.86028224
101	0x406699a8	3.6031284
102	0xbfc2100f	-1.5161151
103	0x40594dc4	3.3953714
104	0xbfd04011	-1.6269552
105	0x40060ee9	2.09466
106	0x4046c0a1	3.1055071
107	0x3f222b2a	0.63347113
108	0xbfb62b37	-1.4231938
109	0x3e1ba142	0.15198234
110	0x3f9ba69f	1.2160224
111	0xc07319c2	-3.7984471
112	0xbcb51405	-0.022104273
113	0x3f9a3659	1.2047836
114	0x400c967d	2.196685
115	0x3cf497c7	0.02985753
116	0x403f2e07	2.9871843
117	0xbfa18d42	-1.2621233
118	0x3e5bda3c	0.21469969
119	0xbf0826eb	-0.53184384
120	0xbfd8e6ea	-1.6945469
121	0x3dd514d2	0.10404362
122	0xc011e8b4	-2.279828
123	0xbfaac9c9	-1.334283
124	0xbfced0ac	-1.6157432
125	0x3f2dfecf	0.6796693
126	0xbf9a1868	-1.2038698
127	0x3f8c923b	1.0982126
128	0x3f9a7a23	1.2068523
129	0xbea76941	-0.3269749
130	0xbea0d803	-0.31414804
131	0xc01812fc	-2.3761587
132	0xbeebe2a3	-0.46071348
133	0xbfba17c5	-1.4538504
134	0x4018c953	2.3872879
135	0xc017dfa4	-2.373025
136	0x3f01ac2f	0.50653356
137	0xc027730b	-2.6163967
138	0xc050b640	-3.2611237
139	0x3f981200	1.1880493
140	0xbfa9ce43	-1.3266071
141	0xbfff8e17	-1.9965237
142	0x3ebc7658	0.3680904
143	0xbd32e148	-0.043671876
144	0xbfc612a3	-1.5474437
145	0x3f773990	0.9657221
146	0xbfe7b3c0	-1.810173
147	0xc04c2708	-3.1898823
148	0x3f52f090	0.8239832
149	0xbfc85b08	-1.565278
150	0xbf11a327	-0.56889576
151	0xbecf0461	-0.40433028
152	0xbff8fb02	-1.9451602
153	0xbff1262f	-1.8839778
154	0x3f237302	0.63847363
155	0xbf173e99	-0.5907989
156	0xc038e476	-2.8889441
157	0x3fe85ccb	1.8153318
158	0xc01c76e0	-2.4447556
159	0xbf77e801	-0.96838385
160	0x3fc4cb4a	1.5374539
161	0xbf978479	-1.1837302
162	0xbf562e81	-0.8366471
163	0x3eb05b5b	0.344447
164	0x403547a4	2.8324976
165	0xc0921d51	-4.5660787
166	0x3dbf6444	0.09345296
167	0x3f6094af	0.87726873
168	0xbe887342	-0.26650435
169	0xbe9d2712	-0.3069387
170	0xbf7035fc	-0.93832374
171	0xbf576698	-0.8414092
172	0x3ea0da3f	0.3141651
173	0x403ff7b9	2.9994948
174	0xc04970a4	-3.1475
175	0x3ee74dc1	0.4517651
176	0x3ed8a6ac	0.4231466
177	0xbf1785e6	-0.5918869
178	0x3ed47cf4	0.41501582
179	0xbeb58de4	-0.35459816
180	0x3eeb00cf	0.45899054
181	0x3ec5365c	0.38518035
182	0x3fd4d652	1.6627905
183	0xc0236960	-2.5533066
184	0x3f2c4192	0.6728755
185	0x3f8aadab	1.0834249
186	0xbfd91e82	-1.6962435
187	0xbf9c0b8e	-1.2191026
188	0xbf023896	-0.50867593
189	0xc00675cb	-2.1009395
190	0xbf2d1eae	-0.6762494
191	0x38b297ba	8.515963e-05
192	0xc0081e6b	-2.1268566
193	0xbfab6c21	-1.3392373
194	0xc010b711	-2.2611735
195	0x3c3940ba	0.011306936
196	0xbcfbad3f	-0.030722259
197	0x3d87f82f	0.06639134
198	0x3a20c7e1	0.00061333
199	0xbd85d9d6	-0.065356895
200	0xbfcf0f72	-1.6176589
201	0xc007fb80	-2.1247253
202	0xc0551573	-3.3294342
203	0xc04c5213	-3.1925094
204	0xc06ecffd	-3.7314446
205	0xc089c3c5	-4.3051476
206	0xbfd274e0	-1.6441917
207	0xbeff5b04	-0.49874127
208	0xbfdc318d	-1.7202622
209	0xc0327caf	-2.78886
210	0xc03adf28	-2.9198704
211	0xc012447d	-2.2854302
212	0xbe91c0df	-0.2846746
213	0x3f9b6ae9	1.2142001
214	0x3fb42c7c	1.4076076
215	0x3f21112b	0.6291682
216	0xbff38980	-1.9026337
217	0x3f587b22	0.84562886
218	0x402a4f86	2.6611037
219	0x3faf0d72	1.3675978
220	0x3eda4674	0.42631876
221	0x40154eeb	2.3329418
222	0x403c6061	2.9433825
223	0x3f476b8c	0.7789848
224	0x3ffe7719	1.9880096
225	0xc00d3024	-2.2060633
226	0x3fa291c9	1.270074
227	0x400e0e32	2.2196164
228	0x3fd2d0ae	1.6469934
229	0x3fe69d03	1.8016666
230	0x40039917	2.0562189
231	0x3fbf4a9b	1.4944643
232	0xbf0edd03	-0.5580599
233	0x3f3a4fad	0.72777826
234	0xbc847385	-0.016168365
235	0x400cdd99	2.2010252
236	0x4050be7a	3.2616258
237	0xbf0f180b	-0.5589606
238	0x3f01d7b4	0.5071976
239	0x3f87e2f1	1.0616132
240	0x4011e063	2.2793205
241	0xbebd6208	-0.36988854
242	0x3fba18b8	1.4538794
243	0xbf8a05d8	-1.0783033
244	0xbf8987d1	-1.0744573
245	0xbf8a6f8a	-1.0815289
246	0x3fef07a8	1.8674212
247	0x3e11ea38	0.14249504
248	0xc01e7045	-2.4756024
249	0xbd579ba6	-0.052638672
250	0x3f8f6366	1.1202209
251	0xc0254bf6	-2.5827613
252	0xbf6e506c	-0.93091464
253	0xbeae0169	-0.3398545
254	0xbff1d27a	-1.8892357
255	0xbff69e5a	-1.9267075

down_convs.3.conv1.bias f4 [24]
0	0x3c3d462a	0.011552373
1	0xbbb9f8cf	-0.0056754122
2	0x3c8cfa6e	0.017209258
3	0xbcc45540	-0.023966432
4	0x3b9d1ed9	0.004794937
5	0xbbc9c7ba	-0.0061578425
6	0xbaf7ff8a	-0.0018920761
7	0x3c101124	0.008793149
8	0x3c3b2a76	0.011423698
9	0x3c4d16b8	0.012517624
10	0xbc08d644	-0.008351866
11	0xbc319749	-0.010839292
12	0x3c1c7e87	0.009551651
13	0xbb92f642	-0.0044849226
14	0xbbbeaef2	-0.005819195
15	0xb87fa71b	-6.0952367e-05
16	0xba0485eb	-0.0005055356
17	0x3c0842e0	0.0083167255
18	0x3c35eabc	0.011103328
19	0xbb141e52	-0.002260108
20	0xbb8b7bde	-0.0042567095
21	0xbc2908bf	-0.010317027
22	0x3c2dd271	0.010609255
23	0x3b07ccad	0.0020721362
