outputs/outputs_new_full_mask_2/epoch_30_model.pth (torch, 694982 bytes, 241 tensors)

down_convs.0.conv1.weight f4 [3, 1, 3, 3, 3]
000000 08 83 0f bd b8 12 45 bd 54 a8 85 bc c6 8d 66 bb
       -0.03503707 -0.048113555 -0.016315617 -0.0035179718
000010 b7 c7 b6 be e7 c5 40 be df 61 d5 be 11 6f 55 be
       -0.35699245 -0.18825494 -0.41676232 -0.2084315
000020 36 e4 a8 bd 54 87 4b bd 00 b6 b8 bd 0c 2a e8 bd
       -0.08246653 -0.049689606 -0.09019089 -0.11336145
000030 42 c9 05 be e2 02 05 bf df 8f 9a be 5a 27 d4 bd
       -0.13065055 -0.51957524 -0.3018789 -0.10359068
000040 fc d0 ae be ee fd 46 3d ba 3f e1 bd 51 f6 78 bd
       -0.34143817 0.04858201 -0.10998483 -0.06078178
000050 dd 89 3c be aa 56 35 be 9a 9a 0c bf 22 9b 36 be
       -0.18411966 -0.17708841 -0.54923403 -0.17832616
000060 ae c6 f5 be 51 65 02 bf 35 97 1b bf a3 20 42 bc
       -0.48003143 -0.50935847 -0.607776 -0.0118486015
000070 ed 95 53 3d f7 48 4b 3d 85 18 9c be e0 06 05 bf
       0.051656652 0.04963013 -0.30487457 -0.51963615
000080 0a f4 2a be a2 27 b4 be 8e d7 e4 be 31 f2 27 bf
       -0.16694656 -0.35186487 -0.44695705 -0.6560393
000090 5e d8 b8 bd e6 02 91 3e 3c 81 8e 3e 9c e8 f1 be
       -0.09025644 0.28322524 0.27832973 -0.4724778
0000a0 8d d5 3c be 24 a3 ad be 7a b9 06 bf 7c ed 39 bf
       -0.18440838 -0.3391353 -0.52626765 -0.72628
0000b0 9b 44 a6 be c4 3f 93 3d ca ac bc 3d 98 11 54 3e
       -0.32474217 0.07189897 0.092126444 0.20709836
0000c0 3a 80 b6 be 28 6e aa be a3 93 e0 be a5 5d 9e be
       -0.35644704 -0.33287168 -0.43862638 -0.3093082
0000d0 0e a8 f8 be f1 fa 9e be da 98 16 be a0 68 35 3f
       -0.48565716 -0.31050828 -0.14706746 0.7086277
0000e0 19 15 f7 3e 04 db b8 3e 24 f0 dc 3f a2 9c ed 3f
       0.48258284 0.36104596 1.7260785 1.8563426
0000f0 58 de 60 be 3b 2a 53 3f 54 5e 5c 3f dc 5e f9 3e
       -0.21959817 0.82486314 0.86081433 0.48705184
000100 a0 92 58 3f 74 76 13 3f 17 cc 35 3e b7 48 cf 3f
       0.8459873 0.5760262 0.17753635 1.6194066
000110 9a df f1 3f a0 2b a6 3e 99 8f 65 3f 8e c5 3b 3f
       1.8896363 0.32455158 0.8967224 0.7334832
000120 63 42 32 be 2a 21 1a 3d d7 bd 06 3e bb a0 2d bf
       -0.17408137 0.037629284 0.13158356 -0.6782338
000130 d0 06 42 be 53 64 34 3e 5a 01 9a be 59 fc e9 3e
       -0.18947911 0.17616396 -0.30079156 0.45700338
000140 37 47 be bd
       -0.09290927

down_convs.0.conv1.bias f4 [3]
000000 cf 88 b7 b9 16 11 e5 ba 39 41 94 3f
       -0.0003500641 -0.0017476405 1.1582404

down_convs.0.conv2.weight f4 [3, 3, 3, 3, 3]
000000 fd 1e 49 3a 43 81 71 bd 72 8a 0d bd ff 65 59 3d
       0.0007672159 -0.058961164 -0.03455586 0.053075787
000010 21 b6 8b 3d 02 34 15 3d 9c ac a2 3d 40 55 a6 bd
       0.06821848 0.03642655 0.07943079 -0.08121729
000020 89 2b 7e 3e 16 fe 4f 3e d1 01 c2 bc 88 65 64 be
       0.24821295 0.2031177 -0.023682507 -0.22304356
000030 4e 30 14 bd f9 3d 0b 3c 88 e6 d5 bd 7d 49 79 3d
       -0.03617888 0.008498662 -0.10444361 0.0608611
000040 12 a5 8c 3e a8 b5 4d 3c d5 ae ce bd 9e e3 97 3d
       0.2746969 0.012555517 -0.1009194 0.074164614
000050 30 08 fa 3d 1c e7 18 3d 38 fd d8 3d e5 67 ad 3d
       0.12208593 0.037329778 0.10595173 0.08467082
000060 36 72 ed bd 14 37 c3 bd be 5e aa 3a 1b 99 03 3e
       -0.1159405 -0.0953199 0.0012998206 0.12851374
000070 e7 3d a4 3d ec 48 4e 3e 57 31 ca bd b4 6a 40 3e
       0.080196194 0.20145005 -0.09872692 0.18790704
000080 77 5d 8c 3d e1 52 71 be 43 35 98 be dc 64 78 be
       0.068537645 -0.23566772 -0.29728135 -0.24257225
000090 8f c3 6d 3e 30 49 68 3e 1d 15 1f 3e 63 00 22 be
       0.23219131 0.22684169 0.15535398 -0.1582046
0000a0 de c1 6e bd 5d 0c 25 bd c4 2e 40 be 26 e5 92 be
       -0.058290355 -0.040294994 -0.1876784 -0.2869045
0000b0 3a 4b f3 bd 87 4f fb 3d 41 27 30 3d 62 1d 01 3e
       -0.11879583 0.12271028 0.043006185 0.12608865
0000c0 e8 63 6d bc ca 8f c8 3d 34 5f 6b bd 89 ce e5 be
       -0.014489152 0.097930506 -0.05746384 -0.44884136
0000d0 4f af 45 be c8 ef 69 be 85 7b c9 3e d3 4b af 3f
       -0.19305156 -0.22845376 0.3935205 1.3695015
0000e0 bc 70 63 3f 5a 3a 00 3f ba db 12 3f d9 26 ed 3e
       0.88843894 0.5008904 0.57366526 0.463187
0000f0 00 d5 85 bd da d9 0d 3e e2 f1 90 bd 3e 79 87 3f
       -0.06534767 0.13852635 -0.070773855 1.0583875
000100 6a aa 5b 40 ec 32 d1 3f e0 d9 30 3f 83 ea 9a 3f
       3.4322762 1.6343665 0.6908245 1.2102817
000110 a4 57 31 3f 89 59 32 3d c0 30 08 3f 48 c3 31 3e
       0.69274354 0.04354242 0.53199387 0.1735965
000120 4c 55 0f 3f f7 67 ad 3f e7 04 36 3f 62 1e b8 3e
       0.5598953 1.3547353 0.7110123 0.3596068
000130 5e c9 35 3f f9 cd e0 3e a0 4d 18 bd 8a ef 76 3e
       0.71010387 0.43907145 -0.037183404 0.24114814
000140 d0 16 a4 3d c1 fd 5a 3d d7 02 9e 3d 18 e5 c6 3d
       0.08012164 0.053464655 0.077153854 0.09711665
000150 f6 6f ef 3d 0d cb 1f 3e 16 c0 35 be 10 4b 48 bd
       0.11691277 0.15604801 -0.17749056 -0.04889971
000160 41 71 2b be 2f 46 42 3d cf b2 e8 3c e4 f2 04 3d
       -0.16742422 0.047430214 0.028405575 0.0324582
000170 6f 1a 0a be 19 d4 37 be 5b 82 d3 3c 7f c7 b4 bc
       -0.13486646 -0.17952003 0.025818994 -0.022067783
000180 de db 98 be 18 a5 c2 3b 9d 27 d7 bd 7f b9 5a 3d
       -0.29855245 0.005940091 -0.105056025 0.05339956
000190 18 80 00 3d a4 4a 27 3d f9 0a d0 bd 8f 32 79 bd
       0.03137216 0.040842667 -0.10158343 -0.060839232
0001a0 8d 41 59 be 20 84 2b ba 63 82 6b 3d 4a 6d df bc
       -0.21216412 -0.00065428205 0.057497393 -0.027273793
0001b0 25 94 f7 3d a4 cd 1b be 2a a1 3e be 55 0c 92 3e
       0.12088803 -0.15215164 -0.18616167 0.28525034
0001c0 dc 2f 29 3d 9c d8 13 3e a8 0c 9c 3e c0 f4 2d 3f
       0.041305408 0.14438099 0.30478406 0.67951584
0001d0 e8 8b 04 3f 5f e1 f2 bd c0 63 08 be a7 d3 c9 be
       0.5177598 -0.118593924 -0.13319302 -0.3941929
0001e0 35 5b 83 3e 65 d3 01 3e fa 06 33 3e c9 5c 07 3f
       0.25655523 0.12678297 0.1748313 0.52875954
0001f0 35 5d 5c 3e 8d 04 7c 3e a0 85 cf bd 7a 21 66 bd
       0.2151993 0.24611111 -0.10132909 -0.05618427
000200 f2 58 ab be 16 29 af 3e 93 8a da 3d 65 3a ad 3e
       -0.33466297 0.34211034 0.10670962 0.33833614
000210 90 60 08 3f 7d 37 e2 3e 53 ac ab 3e 11 14 34 be
       0.5327234 0.4418296 0.3352991 -0.1758578
000220 4e 8a 1b 3d 36 80 cf bd b8 8d a8 3e 49 26 4c 3f
       0.037973695 -0.10131876 0.32920623 0.7974592
000230 5f b9 9f 3e 51 10 a3 bd b2 29 1f 3e cb 2e fc bd
       0.31196114 -0.079620965 0.15543249 -0.123136126
000240 51 41 84 bd 67 e2 8c 3e d6 17 2f 3e 9a 1c 53 3f
       -0.064577706 0.2751648 0.17098936 0.8246552
000250 bd 30 9c 40 a9 38 9a 3f e6 30 25 3f 71 c7 8e 3f
       4.8809495 1.2048541 0.6452774 1.1154615
000260 84 d2 e3 3e 38 a2 9b 3d 7b c7 d3 3e 2a 92 4e 3e
       0.44496548 0.075993 0.4136313 0.20172945
000270 19 b9 08 3f de 4f 82 3f 28 cf e5 3e 02 f7 01 3f
       0.53407437 1.0180624 0.4488461 0.5076753
000280 f3 f2 2c 3f 17 56 9a 3e 52 76 f5 bd b8 4d 43 be
       0.6755821 0.30143806 -0.119854584 -0.19072616
000290 5f d6 f1 bd ac b4 b0 3d 3d fd 16 bd bc 12 32 be
       -0.11808466 0.086282104 -0.0368626 -0.17389959
0002a0 c9 6d 63 be 71 c9 87 bd 3a 17 75 be 95 72 e7 bc
       -0.22209848 -0.06630219 -0.23934641 -0.02825288
0002b0 96 a7 5f be 69 2c 93 3d 8b 1f b2 3d 92 da 16 bd
       -0.21841273 0.07186205 0.086974226 -0.03682954
0002c0 c4 3f 64 bd f8 2c a0 3c 6f 31 54 be b8 e2 45 bd
       -0.055724874 0.019552693 -0.20721982 -0.04831192
0002d0 d0 5f ec 3d ca 0a 76 3d 22 4d e8 3d c0 3f e2 3d
       0.11541712 0.060068883 0.11342837 0.110473156
0002e0 6b 8a fd 3d a0 27 a8 be 54 54 c5 3c 6d af 13 be
       0.12379917 -0.3284273 0.024088062 -0.14422388
0002f0 98 2a 23 3d 07 95 03 be 7a 31 f0 bd d0 c0 26 3b
       0.039835542 -0.12849818 -0.11728187 0.0025444515
000300 ba 8d 3a 3c b8 bf 9d 3d 29 e2 a7 bb 67 aa d3 3e
       0.011386329 0.07702583 -0.005123396 0.41340944
000310 46 02 0e be df 4c e1 3d d9 de 49 bd f5 58 07 be
       -0.13868055 0.1100099 -0.04928479 -0.13217528
000320 2a 1e 0d be 1d 14 01 3e f2 ad 41 bb f6 fd 27 3e
       -0.13781038 0.12605329 -0.0029553142 0.16405472
000330 f7 62 98 3e c9 44 2b 3e c0 7d 8e 3e 3d 27 71 be
       0.29763004 0.16725458 0.27830315 -0.23550124
000340 8f 28 d1 3d db 04 17 3c 3d 8a e9 3d 24 51 6d 3e
       0.10212814 0.009217466 0.1140332 0.23175484
000350 6e 48 7d 3e 21 15 84 3e f6 04 8a 3d 1a fe e3 3e
       0.24734661 0.2579737 0.067392275 0.44529802
000360 1f 4e 9c bf 33 93 0a bf 67 74 73 bf c7 4f fc be
       -1.2211341 -0.5413086 -0.9509949 -0.49279615
000370 32 d6 ae 3e 70 17 b9 bf 7a 54 77 be a4 58 14 bf
       0.34147793 -1.4460278 -0.24153319 -0.57947755
000380 85 ff be bf 92 a5 0b bf 39 0e 03 bf 69 94 12 bf
       -1.4921728 -0.54549515 -0.5119358 -0.57257706
000390 71 7e 54 3f d0 aa 0a 3f 20 83 1b be d7 b5 4d be
       0.83005434 0.5416689 -0.15186739 -0.20088898
0003a0 d5 39 d4 bf 29 b8 c1 bf 7c 68 8b bf 67 56 3f 3e
       -1.6580149 -1.5134326 -1.0891261 0.18685304
0003b0 11 c3 44 bf 3f e6 9b be b4 d6 77 3f 8f 87 80 bf
       -0.7686015 -0.304491 0.96811986 -1.0041369
0003c0 45 d8 88 bd a8 21 cc 3e 5d cb 83 be
       -0.06681875 0.39869428 -0.2574109

down_convs.0.conv2.bias f4 [3]
000000 48 c0 12 bd ce e7 f9 3e d9 6e 8f 3f
       -0.035827905 0.48809665 1.1205703

down_convs.0.norm0.weight f4 [3]
000000 ef 42 04 3f 7a 82 e0 3e 36 53 fb 3f
       0.5166463 0.43849546 1.9634769

down_convs.0.norm0.bias f4 [3]
000000 2d c7 f0 be 82 3b 0a bf fe aa 0a bf
       -0.4702696 -0.5399705 -0.54167163

down_convs.0.norm0.running_mean f4 [3]
000000 59 9c 28 bd a6 1d 39 bd f8 6d 9c 3f
       -0.04116473 -0.04519429 1.222106

down_convs.0.norm0.running_var f4 [3]
000000 51 ef f6 41 d2 3f 1a 42 17 7d 25 43
       30.866854 38.562325 165.48863

down_convs.0.norm1.weight f4 [3]
000000 0e 57 fd 3f a8 16 e9 3e ad f6 e9 3f
       1.9792192 0.45525098 1.8278404

down_convs.0.norm1.bias f4 [3]
000000 de 89 43 3e 1a 8f bf bc 4f 21 8e 3c
       0.19095561 -0.023383666 0.017349867

down_convs.0.norm1.running_mean f4 [3]
000000 8b aa 0a 41 10 df f3 40 d3 bf 99 c0
       8.666636 7.6209793 -4.804666

down_convs.0.norm1.running_var f4 [3]
000000 eb e4 32 44 fa 62 f3 43 b1 76 9c 43
       715.57684 486.77325 312.92728

down_convs.1.conv1.weight f4 [6, 3, 3, 3, 3]
000000 c9 6d 79 3f 4a 6f e2 3f f5 65 ad 3f 3e 6b 18 3e
       0.97433144 1.7690213 1.354674 0.1488466
000010 31 25 6e 3f 57 61 15 3f 41 9d f1 be 83 c0 83 be
       0.930255 0.58351654 -0.47190288 -0.25732812
000020 ca 5b a5 be 67 c9 4d 3f 74 eb d3 3f 1f c0 a3 3f
       -0.32296592 0.8038544 1.655623 1.2793006
000030 0c c8 1b 3e c2 f5 7a 3f fa 31 f2 3e e6 e2 29 bf
       0.1521303 0.98031247 0.47303754 -0.66361845
000040 9f e2 b4 be 5b 93 0a bf 78 4f 86 3e 76 37 11 3f
       -0.35329148 -0.54131097 0.26232505 0.5672525
000050 53 8b d6 3e 49 10 00 be bf 63 60 3e ae 24 d1 bd
       0.4190317 -0.12506212 0.2191305 -0.10212074
000060 9c bd 28 bf 9c c7 12 bf f7 06 44 bf c6 73 c4 3e
       -0.6591432 -0.5733583 -0.7657313 0.38369578
000070 e7 84 c4 3f 4b e7 77 3f 23 2e 5e bd 6b f8 45 3e
       1.5353059 0.968373 -0.05424322 0.19333045
000080 f6 b1 13 3d 90 f7 c0 be 72 14 56 be 5e d2 f5 be
       0.03605839 -0.37688875 -0.20906237 -0.4801206
000090 f7 6d 17 3f 65 cb f4 3f 3f 57 88 3f f9 45 f8 bd
       0.5915217 1.9124571 1.0651625 -0.12122721
0000a0 0f 69 07 3e 00 c4 cc bc 51 7d d9 be 41 be a7 be
       0.1322367 -0.024995804 -0.4247842 -0.3276234
0000b0 a1 d6 fc be 93 2e 64 3e 69 a8 1f 3f c8 b6 84 3e
       -0.493825 0.22283392 0.6236635 0.259207
0000c0 3f 30 a8 bd 46 d1 ec 3d fa 83 2f be 5c b0 27 bf
       -0.08212327 0.11563353 -0.17140189 -0.6550348
0000d0 2c 59 05 bf 80 1a 1a bf d6 bc bf bf 71 ac d5 bf
       -0.5208919 -0.60196686 -1.4979503 -1.669325
0000e0 67 d1 ef bf 2a 1b aa 3c 90 32 9c be b3 60 b7 be
       -1.873578 0.020764906 -0.30507326 -0.35815963
0000f0 8d 57 fa 3d 99 5e 63 be 22 dc a4 be b8 0f 91 bf
       0.1222373 -0.22204055 -0.32199198 -1.1332922
000100 f8 cf b2 bf b8 ed b8 bf c2 a6 fd bd ec 13 e2 be
       -1.3969717 -1.4447546 -0.12385322 -0.44155824
000110 19 95 b3 be 07 b2 90 3e 9a 79 9c be 04 14 ec be
       -0.3507469 0.28260824 -0.30561525 -0.4610902
000120 6b bf 5c bf d2 7f 8e bf 13 a8 b0 bf 92 61 2c bd
       -0.8622958 -1.1132758 -1.3801292 -0.042085238
000130 89 e5 35 bf 73 4f 37 bf 68 56 78 3e 70 eb 8d be
       -0.7105337 -0.71605605 0.24251711 -0.27718687
000140 f6 bd b7 be 7d fe 32 be 56 b3 83 be cc 2e 08 3c
       -0.35887116 -0.17479892 -0.2572276 0.0083119385
000150 7e cf 09 3f 7e 23 84 3f 36 25 ae 3f 78 ed 96 3f
       0.5383223 1.0323331 1.3605106 1.179122
000160 6f 57 e8 3f 2e 37 18 40 59 9d d8 be c5 18 83 be
       1.8151683 2.378368 -0.42307547 -0.25604835
000170 f0 28 8a bd 0d 8b 1f 3e 4f a9 06 3f e0 47 76 3f
       -0.067460895 0.15580387 0.52602094 0.9620342
000180 23 42 21 3f f3 9f 81 3f 96 3d 93 3f e9 6f 81 bf
       0.6299154 1.0126938 1.150317 -1.0112277
000190 cc 03 2b bf 0b 92 a2 be 0a 78 0f bf b5 08 f2 bd
       -0.6680267 -0.31752047 -0.5604254 -0.11818067
0001a0 eb e0 de 3d 28 c8 de be 6d 24 aa 3c 27 f4 0a 3e
       0.108827434 -0.43512082 0.020769322 0.13569699
0001b0 c3 8e 9a 3c 72 cb eb 3d 8e d4 bd 3e 25 ce 56 3f
       0.018866902 0.115134135 0.3707623 0.839083
0001c0 72 a4 ac 3f e4 dd fa 3f 58 00 0d 3f 39 e4 7d 3f
       1.3487685 1.9598966 0.5507865 0.99176365
0001d0 3e 8c 7a 3f 38 bf 85 be 03 7d 80 be 4f af 3c bd
       0.9787024 -0.2612245 -0.25095376 -0.046065625
0001e0 0a 49 94 3e 3f 4a 53 3f 69 11 72 3f 8a ae c8 3d
       0.28961974 0.82535166 0.94557816 0.09798916
0001f0 5e ac e5 3e 5a d4 c9 3e 38 cd 75 bf b6 44 27 bf
       0.44858068 0.39419824 -0.96016264 -0.6533922
000200 c5 ab bb be d3 07 12 bf 97 30 a2 be 7f bb 09 be
       -0.36654487 -0.5704319 -0.31677696 -0.1345043
000210 48 49 0b bf 77 74 8a bd 27 bd c5 3c 30 66 34 bf
       -0.54408693 -0.06760495 0.024138046 -0.70468426
000220 23 02 1b 3e 44 c0 f4 3d 82 cc 5a bf 39 fe 7c be
       0.15137534 0.11950734 -0.85468304 -0.24706353
000230 2e 65 db be 54 92 ab bf 20 8c b9 bf 5c 99 12 c0
       -0.4285063 -1.3404031 -1.4495888 -2.2906103
000240 88 73 13 bf 99 c3 1b 3e ab 8b 4a 3d 9e e7 1c bf
       -0.5759816 0.15211333 0.049449604 -0.6129092
000250 b0 44 e2 bc 5c b6 04 bf 24 67 73 bf a3 17 60 bf
       -0.027620643 -0.5184076 -0.95079255 -0.87536067
000260 2f a6 dc bf c5 c2 ab bf 35 c2 1c bf d8 21 ee be
       -1.7238215 -1.3418814 -0.61233836 -0.46510196
000270 50 d4 89 bf f4 c7 29 bf 0a d6 82 bf 6d 8f 87 bf
       -1.0767918 -0.6632073 -1.022157 -1.0590645
000280 ab ec 8f bf 42 eb f8 bf f0 b2 f7 3c f0 d3 9e 3e
       -1.12441 -1.9446795 0.030236691 0.3102107
000290 16 c4 13 3f c0 d6 0f 3f b9 0f ad 3f 1d ea 16 40
       0.5772108 0.5618706 1.3520423 2.3580391
0002a0 0f da 0b 3f 8e 42 58 3f c7 c9 c4 3f f2 6d 3f be
       0.54629606 0.84476554 1.5374078 -0.18694285
0002b0 39 f1 84 bd 34 45 13 3f c6 99 96 3d b5 59 5f 3f
       -0.06491322 0.5752747 0.07353549 0.8724626
0002c0 cc d1 5a 3f 64 63 80 3d 58 ff 23 3f 6a dd 2e 3f
       0.85476375 0.06268957 0.640615 0.683066
0002d0 b0 ae 51 bf a3 08 a3 be 87 b6 de bd bd 12 f8 be
       -0.81907177 -0.31842527 -0.10874658 -0.48451796
0002e0 28 18 2b be 23 6a bc 3d be f2 10 bf f6 7b ad be
       -0.16708434 0.091999315 -0.56620395 -0.33883637
0002f0 b3 cd 4f be 24 30 88 3e 25 3c 2c 3f 96 73 87 3f
       -0.20293312 0.26599228 0.67279273 1.0582149
000300 12 95 32 3f be 80 b4 3f bb 50 34 40 be 41 89 3e
       0.69758713 1.4101789 2.8174274 0.2680797
000310 1d ff 0f 3f e6 70 1a 3f c5 1c df bd fb 2c 97 3d
       0.56248647 0.6032852 -0.10894159 0.07381626
000320 05 2b 26 3f c7 5a 9e 3e fe cd 56 3f 57 35 91 3f
       0.6490939 0.30928633 0.8390807 1.1344403
000330 a7 85 58 be 41 26 6a 3e 6b bd 8f 3d d8 7b 02 bf
       -0.21144734 0.22866155 0.070185505 -0.5097022
000340 a9 73 02 bf 47 95 d5 bd 38 71 cc be 79 95 2f be
       -0.50957733 -0.10428863 -0.3993013 -0.17146863
000350 53 58 08 bc a1 0e 44 bf b1 13 e2 be da 9b cc be
       -0.008321839 -0.7658482 -0.44155648 -0.39962655
000360 9a 3f 8c bf ee 02 b4 be fc 97 16 be aa 7e ae bf
       -1.095691 -0.35158485 -0.14706415 -1.3632405
000370 38 e8 67 bf 6d 9c 61 bf e9 82 c2 bf 99 4f ea bf
       -0.9058871 -0.8812931 -1.5196201 -1.8305541
000380 92 84 1d c0 08 b6 84 bf d0 6f e0 be 1f b4 7e be
       -2.4612164 -1.0368052 -0.43835306 -0.24873398
000390 8f 4c a7 bf 2c d3 76 bf c1 f8 80 bf aa b9 a8 bf
       -1.3070239 -0.9641597 -1.0075914 -1.318166
0003a0 40 88 d0 bf 76 21 0a c0 5e 8a f3 bf d7 95 88 bf
       -1.629158 -2.1582923 -1.9026601 -1.0670727
0003b0 80 19 4f bf ab 82 d4 bf 01 9c ab bf 8f 1b b3 bf
       -0.80898285 -1.6602377 -1.3406984 -1.3992785
0003c0 89 f1 8c bf c6 35 c3 bf 98 d4 00 c0 3b cd 5a 3f
       -1.1011211 -1.5250785 -2.0129757 0.85469407
0003d0 ad 3c 39 3f 28 c3 30 3f fa d1 8a bd bc c3 08 be
       0.7235821 0.69047785 -0.06778331 -0.13355917
0003e0 35 fa b5 bd 8b 6a 75 bf 34 97 82 bf 5f 55 85 bf
       -0.08885614 -0.95865697 -1.0202394 -1.0416678
0003f0 e6 f5 66 3f 06 92 48 3f 16 fe 14 3f 69 43 0a be
       0.9021896 0.78347814 0.58200204 -0.13502277

down_convs.1.conv1.bias f4 [6]
000000 9b f4 3b 3d 61 45 b6 3e 40 5b a7 3e f6 09 e2 3d
       0.04588757 0.35599807 0.32686806 0.11037056
000010 3e 8f 80 be 1b 64 eb bd
       -0.25109285 -0.11493703

down_convs.1.conv2.weight f4 [6, 6, 3, 3, 3]
000000 fe 46 8a be 74 07 04 bf 32 f9 ef be 8b 83 74 bd
       -0.27007288 -0.5157387 -0.46869808 -0.05969576
000010 d9 da c3 be bf 26 01 bf 7a 52 d8 3c f7 1d 86 be
       -0.38252905 -0.50449747 0.026406515 -0.26194736
000020 df 14 f2 be 5d 03 80 be 50 2a f6 be ed 15 0f bf
       -0.47281548 -0.25002566 -0.48079157 -0.5589283
000030 59 5d 32 be 44 02 d0 be dd 5e fa be b7 e3 ea 3d
       -0.17418422 -0.4062673 -0.489005 0.114692144
000040 53 68 0d be 40 c2 cd be 64 c0 7b be f8 4b de be
       -0.13809328 -0.40187263 -0.2458511 -0.43417335
000050 3a 40 ab be 86 e8 ef bd cc 1c b3 be de 3b c8 be
       -0.33447438 -0.11714272 -0.34982908 -0.39108175
000060 10 55 36 3e 62 f9 a8 be 94 01 0a bf fe 7b 49 3d
       0.17805886 -0.33002764 -0.5390866 0.049190514
000070 bd ed a4 be e5 30 de be 37 80 26 3e 03 79 8e bd
       -0.3221263 -0.4339668 0.16259848 -0.06956675
000080 d2 77 84 be f8 a4 f1 3d ed bb 94 3e 0a fb 7c 3d
       -0.25872666 0.117990434 0.29049626 0.061762847
000090 b0 b3 9e 3c 46 fe 87 be e1 a8 e2 be d4 79 a7 bd
       0.019372791 -0.26561183 -0.4426947 -0.08177534
0000a0 b6 43 93 be 3a f3 bf be 7c ff c7 3e ff ea 89 3d
       -0.28762597 -0.37490255 0.39062107 0.06734275
0000b0 e6 d3 d8 bd a6 b4 04 be 91 6d 05 bf 00 8b d5 be
       -0.105872914 -0.12959537 -0.5212031 -0.4170761
0000c0 9f 74 07 3c f4 21 af be c6 8b c4 be 26 4e d4 3e
       0.008267551 -0.34205592 -0.3838789 0.41465873
0000d0 ca f7 7d be 98 0c 4c be 34 6c 87 be b7 a1 10 bf
       -0.24801555 -0.19926679 -0.2644974 -0.5649676
0000e0 7b 7f 00 bf 03 29 7c 3d 39 66 96 be 33 d2 ee be
       -0.5019452 0.06156255 -0.29374865 -0.46644744
0000f0 d0 a1 b3 3d 92 8e b8 bd 47 cd 8f be 40 3b 11 be
       0.08771098 -0.09011568 -0.28086302 -0.14182758
000100 65 19 0b bf 02 d6 0b bf bc 97 36 3c ad c1 ed be
       -0.54335624 -0.54623425 0.011144575 -0.46436825
000110 d7 45 f8 be 60 d7 bf 3e cf 98 af be e1 86 9d be
       -0.48490784 0.37469006 -0.3429627 -0.30766967
000120 c6 ef d6 bd 59 0f e5 be 6f d2 a7 be b6 a4 00 3d
       -0.10494952 -0.44738272 -0.32777736 0.03140708
000130 5b 2d 0f bf b3 9a ea be 92 55 d9 3d 86 d8 77 be
       -0.5592858 -0.4582115 0.10612024 -0.24203691
000140 ee 85 78 be 37 f8 60 bf 0d b5 7a bf 27 2e 88 bf
       -0.2426984 -0.87878746 -0.9793251 -1.0639085
000150 e5 97 46 bf a5 f5 43 bf fd 99 5d bf d4 9b 72 bf
       -0.7757552 -0.765467 -0.8656309 -0.94769025
000160 04 be 66 bf 3a 29 71 bf c1 e7 57 bf ae f1 4c bf
       -0.9013369 -0.9420353 -0.84338003 -0.80056274
000170 3b a4 78 bf 81 b9 7b bf 5a a1 2e bf 26 a2 79 bf
       -0.97125596 -0.9832993 -0.6821495 -0.97513044
000180 0e 60 89 bf 31 b2 59 bf ff a0 47 bf 8b 46 7c bf
       -1.0732439 -0.85037524 -0.77980036 -0.9854514
000190 f1 11 76 bf 28 e6 82 bf ef 96 8d bf d4 2e 77 bf
       -0.96121126 -1.0226488 -1.1061686 -0.9655583
0001a0 bc 05 85 bf 19 e1 8c bf eb f3 37 bf 0c be 51 bf
       -1.0392375 -1.1006194 -0.71856564 -0.81930614
0001b0 68 12 e7 3c 59 db 44 3d 71 da 11 3e 7a 1a 36 3e
       0.028207019 0.04806075 0.14243485 0.17783538
0001c0 fa c7 b3 3e cf a7 82 3e 60 52 a8 3e b9 06 bd 3e
       0.35113508 0.25518653 0.32875347 0.3691919
0001d0 ed c0 aa 3e e5 34 ca 3d 64 cc 02 3e 08 d0 79 3e
       0.33350316 0.0987337 0.12773281 0.24395764
0001e0 c4 cc 72 3e cc 26 4b 3e dd 2e 59 3e ce 34 b8 3e
       0.23710924 0.19839019 0.21209283 0.35977787
0001f0 22 89 02 3f 46 e5 06 3f 2a 5b 07 3e da c1 06 3e
       0.509905 0.52693594 0.1321837 0.13159886
000200 4d 92 71 bc 99 9b fc 3d 30 57 51 3e fb 0a 85 3e
       -0.0147443535 0.123343654 0.20443416 0.2598494
000210 3e f1 f8 3e 4c 56 f4 3e a2 5d 08 3f 02 38 54 3d
       0.48621553 0.4772209 0.5326787 0.051811226
000220 32 a1 37 3d 25 1a 9a be 4d c9 6d 3e be e0 b4 3e
       0.044831462 -0.30098072 0.23221321 0.35327715
000230 8c c6 0e be ca f9 76 3e c4 ca 77 3e 14 0b e1 3d
       -0.13942927 0.24118724 0.24198443 0.10988441
000240 71 f2 37 3d 22 11 ec 3c bc 71 b5 be c8 2f 4c 3e
       0.044908945 0.028816763 -0.35438335 0.19940102
000250 68 4c 18 3e 98 57 1f be 5a b2 8c 3e 72 4b a9 3e
       0.14872897 -0.15560758 0.2747982 0.33065373
000260 a4 95 ca b9 51 c7 ff 3d c6 f7 9a 3d e6 f1 dc be
       -0.00038639933 0.124891885 0.0756679 -0.43153304
000270 59 69 46 3e 53 07 40 3e 3b c7 fc bd bc d5 50 3e
       0.19376124 0.18752794 -0.12342688 0.20394033
000280 4f 13 e2 3e 33 86 93 3e 91 ea 15 3f 92 81 11 3f
       0.44155356 0.28813323 0.58561045 0.56838334
000290 c2 12 27 bd 38 6d a7 3f a5 8c 0a 40 d3 54 ec 3e
       -0.040789373 1.3080206 2.1648343 0.46158466
0002a0 b1 ed 71 3f 81 c1 b3 3f 71 06 ff 3e 06 4f 39 3f
       0.94503313 1.4043428 0.49809602 0.72386205
0002b0 fa 9f 99 3f 98 79 ed 3e 78 89 9e 3f bb f7 48 40
       1.2001946 0.4638183 1.2385702 3.1401203
0002c0 95 2e 57 3f 00 49 42 3f 6e 51 a0 3f ca c7 c8 3e
       0.84055454 0.7589264 1.252485 0.39214927
0002d0 e8 53 de 3e e7 a2 1a 3f 0f 1c 47 3e a6 9a 41 3f
       0.4342339 0.6040482 0.19444297 0.756266
0002e0 a3 24 8c 3f c8 31 a2 3e b3 a8 69 3e ba 52 f3 3e
       1.0948681 0.31678605 0.2281826 0.47524053
0002f0 61 6f 98 bc e3 bc 70 3f 03 8e 30 3f f5 04 42 3d
       -0.018607797 0.9403822 0.6896669 0.04736801
000300 18 7f 02 3f bf 8d ec 3e 79 eb 71 be eb f6 85 3a
       0.5097518 0.46201894 -0.23624982 0.0010220682
000310 75 ad b1 bd 11 34 eb be 99 d4 e2 3f f7 cd 9c 3f
       -0.086756624 -0.4593816 1.772113 1.2250355
000320 02 7c 6c 3e 74 6d 0d 3f 46 62 f3 3e 69 65 2c be
       0.2309418 0.5524514 0.47535914 -0.1683556
000330 55 40 24 3e a5 f1 76 bd 87 9e eb be 60 55 c2 3f
       0.16040166 -0.060289044 -0.46019384 1.5182304
000340 59 7c 91 3f 40 2f 84 3e a5 02 ec 3e 20 83 ca 3c
       1.1366073 0.258173 0.46095768 0.024720728
000350 bf 8a d3 be 4e a5 35 be b0 9b 8c be a1 71 57 bf
       -0.41316792 -0.1773884 -0.2746253 -0.8415776
000360 e1 ca 7c 3f 11 fa 22 3f 86 a5 92 be f1 c6 ba 3f
       0.9874707 0.6366282 -0.2864191 1.4591962
000370 0b 65 5c 3f 4c c6 e1 bd f0 e2 fb 3e cc cf 0a 3e
       0.8609168 -0.1102415 0.49196577 0.1355583
000380 3d a5 b7 be 1b 86 fb 3f 67 42 92 3f 0e ec 87 3e
       -0.35868254 1.9650301 1.1426514 0.26547283
000390 9c 30 f7 3f 31 8a 97 3f 57 aa 3c 3e 00 74 32 3f
       1.931171 1.1839048 0.18424354 0.6970825
0003a0 81 26 ae 3e a3 f2 ad be 5e 22 d0 3f 12 65 83 3f
       0.3401375 -0.3397418 1.6260488 1.0265219
0003b0 c7 0d 39 3e 56 7e ac 3f 95 1f 3b 3f 96 20 90 be
       0.18071662 1.3476055 0.73095065 -0.2814986
0003c0 2c fb a5 3e 86 93 65 be 9a 66 2f bf 48 5f 4d 3f
       0.3241819 -0.22419557 -0.6851593 0.8022351
0003d0 7a 22 6c 3f 55 70 35 3f 79 4c 35 3d 29 d9 3d 3e
       0.9224011 0.7087453 0.044262383 0.18539871
0003e0 b6 05 bd 3e dc 75 9c 3e c2 9d a9 3e d5 e4 31 3f
       0.3691842 0.3055867 0.33128172 0.69489795
0003f0 96 5a 14 3f 63 84 61 3f 80 e4 7e 3f 80 97 e5 3c
       0.57950723 0.8809263 0.99567413 0.028026342

down_convs.1.conv2.bias f4 [6]
000000 a1 50 e1 bb bb 9f a8 bd 84 ad 0a 3d ba 51 7d 3c
       -0.006876067 -0.08233591 0.033856884 0.01546138
000010 4d 71 46 3e c0 73 6e be
       0.19379158 -0.23286343

down_convs.1.norm0.weight f4 [6]
000000 43 af 2d 3f 27 d3 8d 3f c8 ca 80 3f a0 7f d6 3f
       0.67845553 1.1080064 1.0061884 1.6757698
000010 bb 99 21 40 13 54 48 3f
       2.525008 0.7825329

down_convs.1.norm0.bias f4 [6]
000000 ef 14 65 3f 6b 3a 93 3e 6f a6 b2 3e ba 6e 9b 3f
       0.8948507 0.28755507 0.34892604 1.2143166
000010 9f 75 83 3f 7d 69 ca bd
       1.027027 -0.098834015

down_convs.1.norm0.running_mean f4 [6]
000000 b8 db 12 c0 8d 18 40 c0 60 89 05 c1 a1 6c 42 c1
       -2.2946606 -3.0014985 -8.346039 -12.151521
000010 dc 6d 00 40 94 ec 0a 41
       2.0067053 8.682758

down_convs.1.norm0.running_var f4 [6]
000000 7f 21 1a 44 f6 91 35 44 79 46 38 44 0f 7e b1 43
       616.5234 726.28064 737.10114 354.98483
000010 06 2d bf 43 74 8f 76 44
       382.35175 986.24146

down_convs.1.norm1.weight f4 [6]
000000 65 f5 8f 3d 9c c1 0b 3f ef 6c 92 3f e7 cb 66 3f
       0.07029227 0.545923 1.1439494 0.9015488
000010 71 07 48 3f 64 d1 2c 40
       0.78136355 2.7002802

down_convs.1.norm1.bias f4 [6]
000000 2e a6 97 bf 0c 8f ed be 68 6f 4f be 4b f6 a7 be
       -1.1847589 -0.463982 -0.20257342 -0.32805094
000010 4c 68 18 3f 62 23 bf 3f
       0.59534144 1.4932673

down_convs.1.norm1.running_mean f4 [6]
000000 ef 62 0b c2 cc 97 9b 41 85 06 89 41 b8 cd 26 c2
       -34.846615 19.44912 17.128183 -41.700897
000010 2e 51 f0 41 ac 2b ac c1
       30.039639 -21.521324

down_convs.1.norm1.running_var f4 [6]
000000 d5 76 65 44 94 f1 21 45 8b 03 23 45 a5 9c b6 44
       917.85675 2591.0986 2608.2214 1460.8951
000010 53 2a 9e 44 cf 3d 93 45
       1265.3226 4711.726

down_convs.2.conv1.weight f4 [12, 6, 3, 3, 3]
000000 a2 f2 67 3d a3 a3 e7 bc 6c ee dd be 78 73 a5 bc
       0.056627877 -0.02827627 -0.43345964 -0.020196661
000010 cb 39 01 3e 2b 28 d7 bc 7a 7d f6 3c bb 82 87 3c
       0.12619703 -0.02626427 0.030089129 0.01654183
000020 d6 4d da be 1f 3d 8b 3d bf 50 c9 3c d0 4b d1 be
       -0.4263751 0.06798767 0.024574636 -0.40878153
000030 a6 da 84 3d 9f 7f 8e 3d 4f d1 17 bd 1a 08 2c 3e
       0.064870164 0.069579355 -0.037064847 0.16799966
000040 a5 c5 05 3e 9a 4c 8a be 04 60 40 3e ff d7 2f be
       0.13063677 -0.27011567 0.18786627 -0.1717224
000050 e3 47 01 bf 9a a4 db 3d f5 16 9b 3d 60 ea b9 be
       -0.50500315 0.10724755 0.07572738 -0.36311626
000060 ed 29 5b 3e e4 94 67 3e f4 00 15 bf b8 18 90 bf
       0.21402712 0.22615391 -0.5820458 -1.1257544
000070 44 3b b3 be 85 fc 5b 3f 5e 69 a8 bf b7 5f 24 bf
       -0.35006154 0.8593219 -1.3157156 -0.6420855
000080 45 01 c9 3e 0d 28 14 bf 1d fa 47 be e0 51 31 3f
       0.3925878 -0.5787361 -0.19529004 0.69265556
000090 6f 44 4f be 66 4b 0c 3e 0f 22 23 3f 32 90 81 be
       -0.20240949 0.13700637 0.63723844 -0.25305325
0000a0 48 47 1a be d6 a8 d8 3e 48 6c c4 be 68 c4 a7 be
       -0.15066254 0.42316312 -0.38363862 -0.32767034
0000b0 98 6f dd 3d 5b 33 81 3e 2a 40 1b 3f eb b7 ad 3f
       0.108123004 0.25234494 0.6064478 1.3571752
0000c0 06 72 6a 3d e3 2e 3c 3e 85 dc 4c 3f ee 70 2d 3e
       0.057237647 0.18377261 0.80023986 0.1693761
0000d0 5c 46 44 3e 94 b1 0a 3f 3b 51 b0 bf 84 23 23 bf
       0.19167465 0.5417721 -1.377479 -0.6372607
0000e0 b5 40 30 bf ca 31 51 bf 6b 37 65 bf 52 85 06 c0
       -0.68848735 -0.817166 -0.89537686 -2.1018872
0000f0 97 e8 cb 3f fa 26 46 bf f4 64 04 c0 a6 ed 15 bf
       1.5930356 -0.77403224 -2.0686617 -0.5856575
000100 c4 a8 c2 ba 68 22 9c bc ed c9 96 bf 6d 03 17 bf
       -0.0014851321 -0.019059375 -1.1780373 -0.589896
000110 90 58 69 bf ba 0b 3b 3d 3e d5 93 bf 69 d6 b2 bf
       -0.9115076 0.04566548 -1.1549451 -1.3971683
000120 d6 dc b3 3d bf 64 5b 3f 36 c1 06 3f 58 12 23 bf
       0.087823555 0.857006 0.52638566 -0.63699865
000130 ad 07 bb be 9f 0c 54 bf 80 93 e3 3e 7b 9c 1a bf
       -0.36529294 -0.8283176 0.4444847 -0.6039502
000140 21 7a 62 bf 4f 59 7d bf 21 cb f2 bd fe 24 1a 3f
       -0.88467604 -0.989644 -0.1185515 0.60212696
000150 05 40 57 bf 85 5e 80 bf 79 da 8e bf b1 75 0b 40
       -0.8408206 -1.0028845 -1.1160423 2.1790583
000160 89 f4 3b 3f cf ab 1e be 1f 9f 37 3e 46 dd 1f 3f
       0.73420006 -0.15495227 0.17931794 0.6244701
000170 5e 76 7c 3f 47 07 3b 3e 2d 9c a7 be 74 d2 b7 be
       0.98618114 0.18264495 -0.3273634 -0.3590275
000180 4b c0 03 bf 1c 8e a3 bf f9 54 be bf 2c 71 de 3e
       -0.5146529 -1.2777743 -1.4869682 0.43445718
000190 10 43 9e 3f 61 76 df 3f 29 ef 2c 3e 7c 5a 4c 3e
       1.2364216 1.7458001 0.16888107 0.19956392
0001a0 87 1e ac 3e 10 5f 74 be 95 96 40 bf 64 94 33 bf
       0.3361704 -0.23864388 -0.7522977 -0.701483
0001b0 69 f9 4c be 74 df 9d 3f e8 6c 1b 3e d1 4a 2c bf
       -0.20017017 1.2333817 0.15178263 -0.6730166
0001c0 13 6a 9d 3f 84 5f 25 be 2e 2a d1 be 0f 25 aa 3f
       1.2297996 -0.16149718 -0.40852493 1.3292559
0001d0 24 07 86 3d 77 51 53 bf 3e 65 b8 be 76 37 9d bf
       0.06544331 -0.8254618 -0.36014742 -1.228255
0001e0 db ea 98 bf 58 08 c3 bd 8f 9d 92 bf 41 ac 7e bf
       -1.1946672 -0.09523076 -1.1454333 -0.9948159
0001f0 b0 01 11 bd f6 66 7c bf 84 2a e1 3e 3b 53 c8 3f
       -0.035402 -0.98594606 0.4397775 1.56504
000200 38 82 52 be 6b 9a 56 3e b8 60 e7 3f 9e e3 e1 be
       -0.20557487 0.20957343 1.8076391 -0.4411897
000210 66 1c e4 be f3 87 5c 3f 92 f8 22 bf c4 82 d3 3f
       -0.44552916 0.8614494 -0.6366054 1.6524282
000220 10 44 d7 3d 31 fa b9 bf ee b5 fb 3e 01 61 d6 3e
       0.10511029 -1.4529477 0.4916224 0.41870883
000230 7b b2 6a bf 05 2d 30 c0 81 dd fc be d8 da 31 3f
       -0.9167859 -2.7527478 -0.49387744 0.69474554
000240 5c d2 4d be df ce fb be a9 25 8e bf 82 f8 ec 3e
       -0.20099777 -0.49181268 -1.1105243 0.46283346
000250 bf f3 0e 3f 42 44 02 be ab 15 b4 3e 07 a9 bb 3f
       0.5584068 -0.12721351 0.3517278 1.4660958
000260 77 d1 0f 40 bf 08 02 bf da 6d 50 bf 5a d9 a9 bf
       2.2471597 -0.50794595 -0.8141762 -1.3269455
000270 0e 80 81 bf e0 60 3d be 81 aa 00 bf 33 7d 68 3d
       -1.0117204 -0.18493986 -0.5026017 0.056760024
000280 7c fc 39 3f f4 9a 67 3f f0 b2 04 bd 3d 3f 97 be
       0.72650886 0.90470815 -0.03239721 -0.29540434
000290 ef 0d 95 be c1 62 77 3e 4a 53 e7 3e 4f a5 f2 3e
       -0.29112193 0.24158765 0.45180732 0.47391745
0002a0 5f 8d 97 3e bd 02 fb 3e f9 12 01 3f 46 6a 01 bf
       0.29600045 0.49025527 0.50419575 -0.50552785
0002b0 71 f1 e1 be 85 4b be be 2d f6 b1 3e ba b9 da 3e
       -0.44129518 -0.37166992 0.3475813 0.42719823
0002c0 33 b7 e8 3e 2a bd f5 3e 92 dd 10 3f d2 d9 05 3f
       0.4545227 0.47995883 0.5658809 0.5228549
0002d0 f2 1b db be f2 d6 37 be 8e 68 2b be 52 00 81 3e
       -0.42794758 -0.17953089 -0.16739103 0.25195557
0002e0 13 e3 bb 3e 21 27 67 3e 75 df 0e 3f b2 4d 16 3f
       0.3669668 0.2257352 0.5580972 0.58712304
0002f0 1a 83 b5 3e 2f de 57 3e f3 10 6a 3f f9 ef 01 40
       0.35451585 0.2108085 0.9143211 2.0302718
000300 3f 99 0c bf 29 bd 31 be a8 cb a2 3e 43 b0 2c bd
       -0.54921335 -0.17357315 0.31796002 -0.042160284
000310 a0 29 92 3e 2c 59 e4 3e 77 9e cc 3e 50 e7 8d 3f
       0.28547382 0.44599283 0.3996465 1.1086216
000320 77 dc 34 40 1e 5c 26 be a4 a0 fe 3d a2 97 0f 3f
       2.825956 -0.16246077 0.124329835 0.5609075
000330 1c ca fa 3d b9 28 d6 3e f7 1d b4 3e be a6 26 3e
       0.122455806 0.41827944 0.3517911 0.16274545
000340 ea 2d 78 3f ea 96 de 3f 86 ad 13 be 91 6f 3b 3e
       0.9694506 1.7389805 -0.14421663 0.18304278
000350 53 a8 f3 3e e7 a1 93 3d 66 c4 bf 3e 91 0e c3 3e
       0.4758936 0.07208615 0.37454528 0.3809705
000360 61 5c ca be 55 dc 15 be 6e 16 f3 be ac e6 8a bf
       -0.39523605 -0.14634831 -0.4747805 -1.0851645
000370 8d 22 22 bf d0 52 db bf 59 18 83 3f 69 7c 97 3f
       -0.6333397 -1.7134647 1.0241805 1.1834842
000380 6d eb 7b 3f 10 4f 06 be 2f 4c 35 3e ac 60 64 be
       0.98406106 -0.13116097 0.17704843 -0.22302502
000390 0a 76 62 bf 58 c8 d8 be 3b 22 cc bf 6e 31 e0 3e
       -0.88461363 -0.4234035 -1.5947946 0.43787712
0003a0 f8 ca e5 3e a5 f2 b9 3e dd 16 29 be 12 72 84 3d
       0.44881415 0.36317936 -0.16512628 0.0646707
0003b0 19 bf d4 be 36 b4 83 bf d0 4b 9a bf 0c c0 06 c0
       -0.41552046 -1.0289371 -1.2054386 -2.1054716
0003c0 11 b2 35 3f 07 b0 ea 3e 03 64 f8 3e 25 b4 a9 3f
       0.7097483 0.45837423 0.48513803 1.3258101
0003d0 16 8a d0 3f 5f 9e 04 40 55 dd c0 be b2 9c 60 be
       1.629214 2.0721662 -0.37668863 -0.21934775
0003e0 22 76 ee be d4 e8 9e 3f 41 37 f7 3f 52 49 09 40
       -0.46574503 1.2414804 1.9313737 2.1451
0003f0 75 2a b0 3f c8 34 c9 3f d2 52 06 40 f1 ca 81 3e
       1.3762957 1.5719233 2.098805 0.25350145

down_convs.2.conv1.bias f4 [12]
000000 c7 01 a5 3c b6 18 3d bb 9d 97 5a 3d cf a6 e8 3b
       0.020142449 -0.002885384 0.053367246 0.0070999633
000010 18 77 3a bc b2 92 f6 bd c0 27 23 ba a0 7a ab bc
       -0.011380933 -0.12039699 -0.000622388 -0.020932496
000020 7b 0c 1e bc be f2 bd ba 2b 6c 88 bd 37 4e 16 bd
       -0.00964653 -0.0014491898 -0.066612564 -0.036695685

down_convs.2.conv2.weight f4 [12, 12, 3, 3, 3]
000000 aa 03 70 be c3 5e 95 3f 2c e5 7d 3f 92 fc c4 3e
       -0.23438898 1.1669544 0.99177814 0.38473946
000010 14 b4 6a 3f 43 5a c6 3f 55 84 9a 3e 37 7d 5d 3f
       0.9168103 1.5496296 0.30179086 0.8651919
000020 d9 23 00 40 98 35 c4 be f1 ae 65 3f 7d e1 b3 3f
       2.002188 -0.3832214 0.89720064 1.4053189
000030 b9 6c 90 bf 25 47 21 bf 14 b3 64 be 12 90 07 be
       -1.128318 -0.6299918 -0.22333938 -0.13238552
000040 68 e2 09 3e cc 33 7f 3e 0a af 4e bf 95 f8 e5 3e
       0.13465273 0.24922103 -0.8073584 0.44916216
000050 d5 7b 82 3f 64 e6 f8 bf f1 4c 25 bf da 79 0c be
       1.019404 -1.944531 -0.6457053 -0.13718358
000060 4b 87 9f bf d1 8c 53 bf 6b b2 94 bf 77 84 a9 bf
       -1.2463163 -0.82636744 -1.1616949 -1.324355
000070 2d 5a 4b bf e3 f6 81 bf 5d cc c4 3e 9d e4 1a 3f
       -0.7943447 -1.0153469 0.38437167 0.60505086
000080 1d ec 7d 3f 28 94 8f be e4 3a 45 bd 0f 63 07 3e
       0.99188405 -0.28042722 -0.048151866 0.13221382
000090 6e 47 59 bf ba 1a 81 be 9b 74 36 bf 1f 62 83 3c
       -0.8487462 -0.25215703 -0.71271676 0.016037999
0000a0 44 00 a8 3e 47 6d 3d 3f eb 4e 6b be 80 42 58 be
       0.32812703 0.7399487 -0.22979324 -0.21119118
0000b0 0c 3b 09 be 71 38 86 bf e4 85 df be 01 53 2d bf
       -0.13401431 -1.0485975 -0.43656838 -0.6770478
0000c0 49 7b 9e be 82 e6 8a 3e 77 63 6e 3f ea 54 c0 be
       -0.30953434 0.27128989 0.9312052 -0.37564784
0000d0 67 9d 4e bd 0f 04 4b be a0 48 ca be 0f c8 5d 3f
       -0.05044308 -0.19825767 -0.39508533 0.8663339
0000e0 24 2a 1b 3f 64 0d d9 bf 72 6f 72 bf 70 10 8f be
       0.60611176 -1.6957211 -0.947013 -0.27942228
0000f0 45 76 a1 bf af a4 92 bf ae 98 e6 be ff 17 3a 3e
       -1.2614218 -1.1456507 -0.4503836 0.18173216
000100 a8 c9 60 3f 7d 99 6d 3f 84 ab 3a 3d f8 69 27 3e
       0.87807703 0.9281233 0.045573726 0.16349018
000110 30 60 12 3f 7b dc 16 3f 72 54 06 3f 85 44 05 3f
       0.5717802 0.58930176 0.52472603 0.5205768
000120 f6 76 52 3d 8b 62 11 3f 23 44 1c bc 19 2f 87 3f
       0.05138298 0.5679099 -0.009537729 1.0561248
000130 65 44 92 3f 63 5e 3c 3f 49 35 f2 3e 84 9e 43 3f
       1.1427122 0.7358152 0.47306278 0.7641375
000140 41 dc c6 3e f2 e2 1d 3e e2 27 53 3e c7 8a f1 3d
       0.38839915 0.15418604 0.20620683 0.11794048
000150 92 74 17 3f ef 3e b3 bc 6c ca a5 be 0a 9e c8 3f
       0.5916225 -0.021880595 -0.32380998 1.567323
000160 a0 0c 61 3e 7b f6 87 3e 37 8f 38 3f df 52 e6 3e
       0.21977472 0.26555237 0.7209353 0.449851
000170 47 d7 8a 3e 42 b8 85 3f cd 0f d9 3b 2d 9f 0c 3d
       0.2711737 1.0446856 0.006624198 0.03433149
000180 37 88 e7 3f 46 9f da 3e 8c 5b 93 3e 87 a5 92 3f
       1.8088444 0.4269964 0.28780782 1.1456765
000190 f4 a6 50 3f 14 c2 fa 3e a3 cd 93 3f d6 f7 54 3e
       0.8150475 0.48976195 1.154713 0.20797667
0001a0 2e 8a f0 3d f9 4d e0 3f 15 e2 e3 3e a5 76 93 3e
       0.11745106 1.7523795 0.44508424 0.28801456
0001b0 33 4a 51 bf bd ef 9c bf 69 b5 97 bf 4d 20 fd bf
       -0.81753844 -1.2260662 -1.1852237 -1.9775482
0001c0 d8 72 ee be 25 4b ec 3e 18 32 39 bf 64 4b d4 be
       -0.46571994 0.4615108 -0.7234206 -0.41463768
0001d0 5c 3c d2 be b6 02 1a bf ae bd 29 bf 45 2e 97 bf
       -0.41061676 -0.60160387 -0.66305053 -1.1810995
0001e0 4a a9 16 c0 1f 63 45 bf 86 32 f8 3e bf 6f 44 bf
       -2.3540826 -0.7710437 0.48476046 -0.7673301
0001f0 a2 7d 6f be fa 93 c4 be a1 ed 5b be 1f aa 5a bf
       -0.23387769 -0.38394147 -0.21477367 -0.85415834
000200 d6 c0 ad bf bc aa d9 bf 3a cd 47 bf 39 9e d9 be
       -1.3574474 -1.7005229 -0.78047526 -0.42503527
000210 72 ff 98 bf eb 64 4f bf 9c 69 03 bf f8 80 00 c0
       -1.1952956 -0.81013364 -0.5133302 -2.0078716
000220 71 cb 1d 3f b2 4b f7 3f 67 7a 98 bf 2c 54 db be
       0.6163855 1.9319975 -1.1912354 -0.42837656
000230 aa e3 50 3f e6 6e 4a 3c 0c 9a 9e 3d da 93 a7 3f
       0.8159739 0.012355542 0.07744226 1.3091996
000240 94 aa b4 bf 63 05 bd 3e 14 5c c4 3f 84 8d 30 bc
       -1.4114556 0.36918172 1.53406 -0.010775927
000250 5b 2c 09 3f c2 d0 9d 3f 9c 77 68 3f fd 90 5a 3f
       0.53583306 1.2329333 0.9080751 0.85377485
000260 74 e7 b2 3f 48 04 98 bf 27 4a 23 bd ee 73 69 3f
       1.3976884 -1.1876307 -0.03986564 0.9119252
000270 46 42 e1 bf 47 30 1a bf 8b 03 15 3f 31 83 b2 bf
       -1.759835 -0.60229915 0.5820853 -1.3946286
000280 ff 4c d3 be 4e fb fa 3c 18 f0 85 bf 35 05 56 bf
       -0.4126968 0.03063741 -1.0463896 -0.83601695
000290 9c b9 bd be e7 12 09 c0 e8 39 3c bf 10 d6 5e be
       -0.3705567 -2.1417787 -0.7352586 -0.21761346
0002a0 05 7b c1 bf 99 fe d6 bf 74 ef 89 bf ee 6f 57 bf
       -1.5115668 -1.6796447 -1.07762 -0.84155166
0002b0 8b 57 21 bf d8 bc cd be a9 14 de bf 39 45 37 bf
       -0.63024205 -0.4018314 -1.7350055 -0.7159
0002c0 b4 13 56 be 29 b1 e5 bf 5a 48 de bf ed 1a c4 bf
       -0.20905954 -1.794469 -1.736583 -1.5320717
0002d0 ef cc 02 bf 74 03 1b bf a1 48 77 be fb a8 97 3d
       -0.51093954 -0.60552144 -0.241488 0.07405277
0002e0 c7 16 b7 3e 60 79 82 3d a5 45 88 bf 4e 5e 00 bf
       0.35759565 0.06370807 -1.0646254 -0.501439
0002f0 dd 46 d5 bd 37 72 42 3f dc d1 aa be db d7 90 be
       -0.10413907 0.7595553 -0.33363235 -0.28289685
000300 97 62 0d bf 55 e4 ce 3d af 1c 5f 3f be 26 0e c0
       -0.5522856 0.10102145 0.8715314 -2.2211146
000310 4b 88 9a bf 13 ee 11 3f 39 3f 50 3f 60 dd 6a be
       -1.2072843 0.570039 0.8134647 -0.2293601
000320 d9 80 4b bf 82 8a eb 3e ec 91 1a 3f 0a 63 9b 3f
       -0.7949348 0.4600411 0.6037891 1.2139599
000330 92 14 8a be 10 d2 10 3e 3e e2 a4 3f 71 8d ae 3f
       -0.2696882 0.14142632 1.2881544 1.3636914
000340 b3 23 dd 3e 6e 7c 40 bd 7f e3 c9 bd 61 9c 08 be
       0.431913 -0.046993665 -0.098578446 -0.13340904
000350 2c 31 c4 3e c0 74 b8 bf 4f a8 81 bf 8d a1 7c 3d
       0.38318765 -1.4410629 -1.0129489 0.061677504
000360 d8 c7 c6 be 5c 16 6b 3f e7 76 84 3f 7b d1 d8 bd
       -0.38824344 0.9183099 1.0348786 -0.1058683
000370 fa 98 84 3e 2f 33 25 3f 6a ec 57 3e 69 63 1e 3f
       0.25897962 0.64531225 0.21086279 0.6187044
000380 77 4d b2 3f 27 9e 38 bf ec d9 0b 3f da b8 12 3f
       1.392989 -0.7211632 0.546294 0.5731331
000390 2c 60 05 bf fd 9f 83 be b8 47 d5 3e 46 a0 05 be
       -0.5209987 -0.25708 0.4165628 -0.1304942
0003a0 eb bc 7d 3e b9 dc 2f 3f e3 a3 f4 be 49 2b 15 3f
       0.24779098 0.6869617 -0.47781286 0.5826917
0003b0 aa 7d 26 3f 38 85 04 bf 18 f9 a9 3e b1 a5 35 3f
       0.650355 -0.51765776 0.33197856 0.7095595
0003c0 3a b4 2a bf 3a 4f 34 3e bd 7b 14 3e 64 87 54 3f
       -0.66681254 0.17608348 0.14500327 0.8301909
0003d0 1e 69 b4 3e ad 78 41 3f 61 64 b2 3d 73 cb ed be
       0.35236448 0.7557476 0.08710552 -0.46444282
0003e0 d1 d8 b3 3d 8a ad b3 bf 9a af 1e bf 0f f8 08 be
       0.08781589 -1.4037335 -0.61986697 -0.13375877
0003f0 f9 d8 66 3e 58 02 e0 bd d6 15 3a 3f 7b a7 14 3f
       0.22543706 -0.10937947 0.7268957 0.58068055

down_convs.2.conv2.bias f4 [12]
000000 af 82 b6 3c fb f7 ef ba 5c dc 2a bb 1e 16 db ba
       0.022279112 -0.0018308157 -0.0026071286 -0.0016714965
000010 70 24 5b 3b 04 d6 b0 bd e9 9a ad 3c b4 37 32 3d
       0.0033438466 -0.0863457 0.021192031 0.043510154
000020 31 04 80 3c 06 b3 37 bc 5c 63 b6 bb 6e 3b 03 bd
       0.015626999 -0.011212116 -0.005566044 -0.0320391

down_convs.2.norm0.weight f4 [12]
000000 37 05 23 40 1a 35 23 3f 56 2e f8 3f 7c ad d5 3f
       2.5471933 0.637529 1.9389141 1.6693568
000010 e0 bd 5b 3f fe a0 6d 40 1b 63 96 3f 18 f5 68 3f
       0.858366 3.7129512 1.1748995 0.90998983
000020 cd f9 76 3f 31 95 9b 3e 5d 5a fa 3f f2 f1 63 3f
       0.96474916 0.30387262 1.9558827 0.89041054

down_convs.2.norm0.bias f4 [12]
000000 6d 8d e5 3c 5b 90 cb be 0c 94 14 3f 38 a7 88 3d
       0.028021539 -0.39758572 0.580384 0.066725194
000010 ff e6 f6 be 59 4b 12 be 2b 47 64 bf 22 eb b7 3e
       -0.4822311 -0.14286555 -0.89171094 0.3592158
000020 fe 2d 3f 3f f8 8b 07 bf a2 78 ad 3e bf 02 c8 bf
       0.74679554 -0.5294795 0.33881098 -1.5625838

down_convs.2.norm0.running_mean f4 [12]
000000 89 7b 01 c1 69 db 5c bf 3e e2 ee bf f4 8b ff c1
       -8.09266 -0.86272293 -1.8662794 -31.943336
000010 6a 5e d1 c0 38 0c 1d c2 91 2b 08 c2 96 ee 08 c0
       -6.542775 -39.261932 -34.042545 -2.1395621
000020 d4 c2 23 c2 29 9b 21 42 ea 4a dd 40 23 85 bd 41
       -40.94026 40.401524 6.915395 23.690008

down_convs.2.norm0.running_var f4 [12]
000000 2f d9 b8 43 c7 50 97 43 69 de 24 43 58 19 1d 45
       369.69675 302.63107 164.86879 2513.584
000010 4f af 8a 44 7b f5 65 44 99 83 49 44 d6 6d 58 43
       1109.4784 919.83563 806.0562 216.42905
000020 b7 20 ab 43 ad 27 28 44 2f 23 14 44 0c 58 40 43
       342.25558 672.61993 592.54974 192.34393

down_convs.2.norm1.weight f4 [12]
000000 a6 89 fa 3f 54 6f 8d 3f 46 e0 b2 3f 8e 5a 18 3f
       1.9573257 1.10496 1.3974693 0.59513175
000010 69 00 83 3f 93 33 25 40 70 71 33 3f 6e c6 04 40
       1.02345 2.5812728 0.70094967 2.0746112
000020 cc 5e 58 3f 41 09 a1 3f 43 b4 ec 3e 88 e6 2f 40
       0.8451965 1.2580949 0.4623128 2.7484455

down_convs.2.norm1.bias f4 [12]
000000 a0 10 af 3e 97 6e 48 be 85 4a 4b bf 04 c7 a3 bf
       0.3419237 -0.19573437 -0.7941058 -1.279511
000010 72 25 c0 be d9 39 f7 be 63 13 a4 be 17 07 b7 bd
       -0.37528569 -0.48286322 -0.3204604 -0.08936899
000020 72 cc 47 bf e1 ed 00 bd 56 f2 20 bf 7e 0d bb be
       -0.78046334 -0.03147686 -0.62869775 -0.3653373

down_convs.2.norm1.running_mean f4 [12]
000000 83 10 92 41 62 1c a9 c0 de 78 53 c1 54 b0 c6 41
       18.258062 -5.2847147 -13.217009 24.836098
000010 ed 18 3c c1 85 2a 03 c1 f5 cf 8d 40 16 b2 3d c1
       -11.756085 -8.197881 4.4316354 -11.855978
000020 75 c4 19 c2 a2 21 84 c1 11 29 37 41 f4 c8 78 c0
       -38.441853 -16.516422 11.447526 -3.8872652

down_convs.2.norm1.running_var f4 [12]
000000 5b 02 ee 43 e4 72 04 44 60 fe 31 44 78 35 e3 43
       476.0184 529.79517 711.9746 454.41772
000010 69 b0 04 44 62 7b 80 43 41 a9 c5 43 de 64 ec 43
       530.7564 256.96393 395.3223 472.78802
000020 cb 4b ab 43 18 b7 01 44 b9 48 b8 43 79 da ca 43
       342.59213 518.86084 368.56815 405.70682

down_convs.3.conv1.weight f4 [24, 12, 3, 3, 3]
000000 bf 27 59 3d da 01 04 be 03 90 66 be f8 04 29 c0
       0.05301642 -0.12891331 -0.22515874 -2.6409283
000010 e0 cc 2b 3f 41 82 09 3f ce ee ec bf 70 cb 21 3e
       0.6710949 0.53714377 -1.8510377 0.15800261
000020 13 3d d3 3f 46 4c b1 be a1 9f 05 bd ec 06 b4 3d
       1.6503013 -0.34628505 -0.032622937 0.08790383
000030 23 bf 02 c0 1a a5 2c 3e ca 14 2f be 3f 24 50 bf
       -2.042916 0.16859856 -0.17097774 -0.8130531
000040 45 13 57 be b8 b0 84 3f 09 9a d1 3e 94 10 df 3e
       -0.21003444 1.036643 0.40937832 0.43567336
000050 30 7a 70 3f 2f 30 87 bf 4f af 27 3f 70 e8 90 3e
       0.93936443 -1.056158 0.65501875 0.28302336
000060 ab 53 8a bf b3 ee f5 3e b0 e0 b0 3f 6f 6d 8b 3f
       -1.0806783 0.48033676 1.3818569 1.0892771
000070 c5 03 90 3e b2 f5 80 3d 95 50 8f bf 3a c0 ba bf
       0.28127876 0.06296863 -1.1196467 -1.4589913
000080 c3 9d 92 be be 25 27 3f 98 c8 35 bf bd c1 39 be
       -0.28635988 0.65291965 -0.71009207 -0.18140312
000090 9a 7d 83 3f 53 7a 2a 3f 3e 2f 30 3f e1 07 c6 be
       1.0272706 0.665929 0.68822086 -0.38677886
0000a0 1b b5 95 bf 0c 91 83 be 2c bb 47 3f b3 b5 a9 3c
       -1.1695894 -0.256966 0.78019977 0.020716524
0000b0 dd 92 df 3d ba ae 82 3f b0 6f bc 3e c3 67 54 3f
       0.10916684 1.0209572 0.3680396 0.8297083
0000c0 17 e7 f4 bc aa 0d 09 bf 21 49 b9 bd ee ac 30 3e
       -0.029895348 -0.53536475 -0.09047151 0.17253467
0000d0 8e 66 f0 3e 6f 57 94 3f ad 49 2e bf 79 c0 d9 be
       0.46953243 1.1589183 -0.6808117 -0.42529657
0000e0 60 f7 ff bc c0 19 28 3f f7 af bc 3c ae 0f 85 bc
       -0.031245887 0.6566429 0.023033125 -0.016242828
0000f0 93 0d 0b 3f 14 a4 57 3f 69 7a 39 3f da 4d 23 bf
       0.5431759 0.8423474 0.7245241 -0.6379067
000100 97 a0 58 be 4d 73 39 3e 11 2f 4c 3e e6 0f 6b bd
       -0.2115501 0.1811039 0.1993983 -0.05738821
000110 55 7f df 3d 04 08 9c 3e 96 04 90 3e f1 63 b9 3d
       0.109129585 0.30474865 0.281285 0.090522654
000120 a7 d5 43 bf 5d 2c d4 be 6f 6a 98 3d a4 cf 4e 3c
       -0.7649788 -0.41440096 0.074421756 0.012622748
000130 41 8a c6 bc 2d 3b 68 3e 9b 9c f4 3d c5 6f a6 bd
       -0.024235846 0.22678824 0.119439326 -0.08126787
000140 0e 39 8a be 33 84 11 be ee 8a 4b bf 81 cd f2 3e
       -0.26996654 -0.14210586 -0.79508865 0.47422412
000150 c2 b6 13 3e 91 ce 0c bf dc 4a 8e bf 5f b1 e3 bd
       0.14425185 -0.55002695 -1.1116595 -0.11117815
000160 9e b6 b2 bf 27 06 99 be 77 30 46 be d8 ea 8a bf
       -1.396198 -0.29887506 -0.19354425 -1.0852919
000170 a5 e8 9e 3f 32 b6 23 3c e3 54 98 3d dd 3e 07 bf
       1.2414747 0.009992169 0.07438066 -0.52830297
000180 cd fc 31 3f cc 3b 4c bd 92 3f 64 3e 62 eb 13 be
       0.6952637 -0.049861714 0.22289875 -0.1444526
000190 3a f2 99 bf 82 d7 ad 3f df 10 67 3e b3 7d 68 3f
       -1.2027047 1.3581393 0.2256503 0.908168
0001a0 9b 94 da 3e c0 f9 67 3f b4 ac 2a 3f 11 e1 49 3f
       0.42691502 0.90615463 0.66669774 0.7885905
0001b0 4f f5 ac bf 4b d5 37 be 26 3b 06 3e 16 9a 84 c0
       -1.3512362 -0.17952459 0.13108501 -4.1438093
0001c0 6b 1d 1c be 7e 58 45 3f f3 30 03 3f 63 3c 90 3e
       -0.15245597 0.77088153 0.51246566 0.2817107
0001d0 75 c3 0a 40 05 f6 5f bf 06 33 36 3f 3d 25 43 3f
       2.1681798 -0.8748477 0.71171606 0.76228696
0001e0 b6 72 03 c0 a7 30 03 3f 17 8e a3 3e dd ce 7e bd
       -2.0538764 0.5124611 0.31944343 -0.062209
0001f0 d0 2c d5 be 5d 4b 0d 3f a3 27 a2 bf ab 6a 34 3f
       -0.41635752 0.5519312 -1.2668346 0.7047526
000200 f4 b1 ca 3f c1 0b ca bf 99 fe ef 3d 23 f5 92 bd
       1.5835557 -1.5784837 0.117184825 -0.07175662
000210 a3 65 58 be 51 51 f2 bc 99 57 c1 3e d3 7b 92 be
       -0.21132521 -0.02957979 0.37762144 -0.28610095
000220 25 2f 30 be b8 51 03 bf de 8a a6 bf 54 88 83 3f
       -0.17205484 -0.5129657 -1.3011129 1.0275979
000230 9d b0 34 bf 42 52 83 bf 48 54 10 be d8 51 b0 be
       -0.7058199 -1.0259478 -0.14094651 -0.34437442
000240 7f 6f 38 bf 4a 2b 74 3e 0a f2 1e bf aa b5 bd bf
       -0.7204513 0.23844638 -0.6208807 -1.4821064
000250 22 2f 46 3f 06 5c 01 bf ba 5b 76 be 0f b5 07 be
       0.7741567 -0.5053104 -0.24058428 -0.13252662
000260 cf 64 41 bf db e4 40 bf 99 f2 07 3f 9b 5b 5e 3f
       -0.75544447 -0.75349206 0.5310455 0.8685853
000270 90 0e 63 bf 59 47 54 3f 69 e9 5b bf 58 ef a1 bd
       -0.88694096 0.8292137 -0.8590303 -0.07906979
000280 47 e9 7d 3f 0c 77 50 bf 04 72 46 be ef 5d 7f 3c
       0.9918408 -0.8143165 -0.19379431 0.01558636
000290 88 f1 9e 3f 0c f6 4e c0 ce 7e b6 be 20 71 2f 3f
       1.241746 -3.2337675 -0.3564362 0.6853199
0002a0 dd dc 50 bf 96 0d 0b bf cb 15 00 3f dc 77 cb be
       -0.8158701 -0.54317605 0.50033253 -0.39739883
0002b0 8b 06 93 3e 5e c5 e0 3f f5 ab 27 c0 d2 b0 07 3e
       0.2871593 1.7560232 -2.6198704 0.13251045
0002c0 94 11 40 3f 0c 0d eb be 15 56 34 bd 49 37 13 3f
       0.7502682 -0.4590839 -0.044027407 0.57506233
0002d0 78 14 15 3d 9b 78 98 3e 11 45 c3 3f 06 4e f7 bf
       0.036396474 0.29779515 1.5255452 -1.9320686
0002e0 10 6b 2b 3f 4a d8 97 3f 83 2d 33 bf 5b 2a fc 3d
       0.6696024 1.1862881 -0.6999132 0.12312766
0002f0 f1 9a 47 3f 1d f8 47 bf a0 f4 22 be 6e 63 48 3e
       0.77970797 -0.78112966 -0.1591363 0.1956918
000300 89 4e 35 bf 62 f0 6f bf ac 95 d1 bf fe 17 2e bf
       -0.7082296 -0.9372617 -1.6373801 -0.6800536
000310 ee 8e 21 bf 0e 7f 9f bf c0 06 74 bf 84 d5 aa be
       -0.6310872 -1.2460649 -0.953228 -0.33366024
000320 c3 a2 c8 be 81 1d 90 bf 7f 27 f5 bf 32 23 1a c0
       -0.39186677 -1.1259004 -1.9152678 -2.4083982
000330 7e f9 9c bf 6e c4 f6 bf ea 89 0c c0 8d 05 6a bf
       -1.2263639 -1.9278696 -2.1959176 -0.9141472
000340 d8 76 8e bf 6a c8 db bf 35 d3 cb be 10 00 28 bf
       -1.1130018 -1.7170537 -0.39809576 -0.65625095
000350 99 00 8a bf f8 3c e9 3e d3 1d 00 3f 88 b6 20 be
       -1.0781432 0.45554328 0.5004551 -0.1569463
000360 71 a4 10 bf b0 7a 08 3e d7 e3 13 3d 94 c2 cc 3e
       -0.5650092 0.13328052 0.036105957 0.399922
000370 cf fc 71 3f c7 90 a8 3f 18 c7 ab 3f cf 88 d4 3e
       0.9452638 1.3169183 1.3420134 0.41510627
000380 95 bb 0f 3f a0 ac 21 3e fe 0f 7b 3f 9a f7 32 3f
       0.561456 0.15788507 0.9807128 0.6990906
000390 e4 e8 2c 3f 28 6e 61 3f 0b de 43 3f d8 cf 32 3f
       0.6754286 0.8805871 0.76510686 0.69848394
0003a0 3c db 9f be c7 c9 81 3e 35 c3 f2 3e b9 11 71 3f
       -0.3122195 0.25349256 0.47414556 0.9416767
0003b0 45 06 8d 3f 3c 46 0a bf 23 17 ae 3e 9f 99 d1 3e
       1.1017538 -0.5401342 0.34002027 0.40937516
0003c0 b7 bb bf 3e e7 31 97 be 9d 8e 87 bd 3f f8 4a bf
       0.37447903 -0.2953026 -0.06618998 -0.79285043
0003d0 a3 fe e7 be 83 ac 90 be ec 6a 88 3f 85 b8 5b be
       -0.4531146 -0.28256616 1.065763 -0.21457107
0003e0 5b d2 44 bf da 5a b4 3e 31 2a 9b 3e fb 2a 29 bf
       -0.76883477 0.35225564 0.30305627 -0.6608121
0003f0 f5 ef 9c bf d5 9c 28 bf 70 17 27 bf 6f cb 8a be
       -1.2260729 -0.65864307 -0.6527014 -0.27108333

down_convs.3.conv1.bias f4 [24]
000000 b2 84 7d 3b 9e 88 d2 ba 71 d7 12 3c 42 77 2f bc
       0.003868383 -0.0016062444 0.008962498 -0.010709586
000010 49 7d 1f 3c 69 89 b3 bb 88 8f bc bc e5 74 cd 3b
       0.00973446 -0.005479027 -0.02301766 0.0062700384
000020 e4 dd ff 3b 63 fd 4d bc 81 a1 ba ba ea 06 f1 bb
       0.007808434 -0.012572619 -0.0014238806 -0.0073555605
000030 09 26 0f 3a d5 4d 9d bb 73 db 19 bc 1b a7 7f b8
       0.0005460685 -0.004800538 -0.0093907 -6.0952367e-05
000040 22 f8 c3 3a 9c e0 a5 ba e8 48 e2 3a 9e 61 ad 3a
       0.0014951269 -0.001265544 0.0017264159 0.0013227945
000050 43 f8 e2 3a 82 ab 80 3a 0d 5e e6 bb 5b 45 b4 ba
       0.0017316419 0.0009816738 -0.0070302547 -0.001375358
