outputs_side_128_epochs_0_50/epoch_14_model.pth (torch, 694854 bytes, 241 tensors)

down_convs.0.conv1.weight f4 [3, 1, 3, 3, 3]
0	0xbe403921	-0.18771793
1	0xbbaf28af	-0.005345426
2	0x3d29c8f1	0.0414514
3	0x3cd35b06	0.02580024
4	0x3dac3642	0.08408786
5	0x3de91734	0.11381379
6	0xbc57148a	-0.0131274555
7	0x3ecf9532	0.40543514
8	0x3d2bb23f	0.041918036
9	0x3d20b9c7	0.03923967
10	0xbd23ca18	-0.039987653
11	0x3e91be57	0.2846553
12	0x3dacedcb	0.08443793
13	0x3dc88992	0.097918645
14	0x3d95fbcb	0.07323416
15	0x3c741f6e	0.014900072
16	0x3d89b2f3	0.06723585
17	0x3e46a9e8	0.19400752
18	0x3b73c847	0.0037198232
19	0x3dacb47b	0.084328614
20	0xbb854094	-0.004066536
21	0x3e05109e	0.1299462
22	0x3b4b9abb	0.0031067568
23	0x3e6dad54	0.2321065
24	0x3de21334	0.11038819
25	0x3d2841f5	0.041078527
26	0x3e896400	0.26834106
27	0x3e134128	0.14380324
28	0x3cb84272	0.022492621
29	0x3d8c7150	0.0685755
30	0x3e3e0dff	0.18560027
31	0x3ec77661	0.38957503
32	0x3db152c4	0.086583644
33	0x3d3bbc34	0.04583378
34	0x3e2e616f	0.17029355
35	0xbe827354	-0.25478613
36	0x3e449902	0.19198993
37	0x3e6acd7f	0.22929953
38	0x3e0259be	0.12729546
39	0x3e924be0	0.28573513
40	0xbd2dd231	-0.042436782
41	0x3ea4f3cc	0.32217252
42	0x3dbfe943	0.09370663
43	0x3def975c	0.116987914
44	0x3d7cca60	0.061716437
45	0x3e18e8f0	0.14932609
46	0x3e6912fe	0.22761151
47	0x3d489158	0.048966736
48	0x3e98f6ce	0.29875797
49	0x3e13bec0	0.14428234
50	0x3df0a763	0.117506765
51	0xbe71c1ef	-0.23609136
52	0xbe443df1	-0.19164254
53	0x3b7daf85	0.0038709354
54	0x3d53d723	0.051718842
55	0x3df1810f	0.11792194
56	0x3e87c305	0.26515976
57	0xbe02e69c	-0.12783283
58	0xbd39ac53	-0.045330357
59	0x3da9ac36	0.082848
60	0xbd42304f	-0.047409352
61	0xbd8f61c8	-0.07001072
62	0xbd1e4100	-0.038636208
63	0xbd709310	-0.058734
64	0x3e261ddf	0.16222332
65	0x3e150edd	0.14556451
66	0xbd2bddb9	-0.041959498
67	0x3e154494	0.14576942
68	0xbe5bd099	-0.21466292
69	0xbcfc0dfd	-0.030768389
70	0x3e291746	0.16512784
71	0x3e423916	0.18967089
72	0x3d9a05b4	0.07520619
73	0x3e01e346	0.12684354
74	0x3e35f48e	0.17769071
75	0xbddd46d2	-0.108045235
76	0x3d2bf352	0.041980095
77	0x3eda7163	0.42664632
78	0xbe1c3ddb	-0.15257971
79	0x3e6614e1	0.22468902
80	0x3e34096a	0.17581716

down_convs.0.conv1.bias f4 [3]
0	0x3dfc5b38	0.12322086
1	0x3c1d5ffb	0.009605403
2	0xbc892c6c	-0.016744815

down_convs.0.conv2.weight f4 [3, 3, 3, 3, 3]
0	0x3e67c724	0.2263456
1	0x3dc4f692	0.09617342
2	0x3e516702	0.2044945
3	0x3d7b90dd	0.06141745
4	0x3e327944	0.17429072
5	0xbc5a52cb	-0.013325403
6	0x3dc20f72	0.09475602
7	0x3de66715	0.1125013
8	0x3e208c4c	0.15678519
9	0x3ded714d	0.11593876
10	0x3c0a216c	0.00843082
11	0xbd458879	-0.048225854
12	0xbd382225	-0.044954438
13	0xbce65ea2	-0.028121296
14	0x3ce2622c	0.027634703
15	0x3e108122	0.1411176
16	0x3e8fd8bf	0.28095052
17	0xbcef034a	-0.029176373
18	0xbbc14737	-0.005898382
19	0x3ccd5efe	0.02506971
20	0xbdc31bda	-0.09526797
21	0xbb216381	-0.002462596
22	0x3d44c2c3	0.0480373
23	0xbe17696a	-0.14786306
24	0xbd6f28c4	-0.058388487
25	0xbcfddb3d	-0.03098833
26	0x3e2a4b0b	0.16630189
27	0xbcb98386	-0.022645723
28	0x3e44af79	0.19207563
29	0xbccc5de9	-0.024947124
30	0x3e4173c4	0.18891817
31	0x3e168f4b	0.147031
32	0x3e058bd9	0.13041629
33	0x3ce6224f	0.028092531
34	0x3efeba67	0.4975159
35	0x3afabfd6	0.0019130658
36	0x3e4f08ef	0.20218252
37	0x3dc59b82	0.096488014
38	0x3db24677	0.08704846
39	0x3d74cdab	0.059766453
40	0xbc33a630	-0.010964915
41	0x3e386ea1	0.18010952
42	0xbd500b80	-0.050792217
43	0xbdb4ced1	-0.088285096
44	0xbd32950e	-0.04359918
45	0x3e22614e	0.15857431
46	0x3e76fae7	0.24119149
47	0x3da80a53	0.08205094
48	0x3ca419fd	0.020031923
49	0xbd356f2b	-0.04429547
50	0xbc84b315	-0.016198674
51	0x3e1584b5	0.14601405
52	0x3d50f8af	0.051018413
53	0x3d2b24dd	0.041783202
54	0x3e0e023d	0.13868041
55	0x3d03ce7a	0.032179333
56	0xbd039020	-0.03211987
57	0x3e239340	0.1597414
58	0x3dc6903a	0.09695478
59	0x3e778f63	0.24175791
60	0x3e3f0c11	0.18656947
61	0x3bef2bda	0.0072989287
62	0x3d8ffabe	0.07030247
63	0xbb146073	-0.0022640496
64	0x3c193233	0.009350347
65	0x3c96371e	0.018336829
66	0x3e409f9e	0.18810889
67	0x3e56e49f	0.2098565
68	0x3d2d2c01	0.042278294
69	0x3d8b1de3	0.0679281
70	0x3e50cdde	0.20391032
71	0x3cdcea69	0.026967244
72	0x3d369050	0.04457122
73	0x3e2649b7	0.16239057
74	0xbd7a09de	-0.061044566
75	0x3d15ccfc	0.03657244
76	0x3dd7f71d	0.1054518
77	0xba9019e8	-0.0010994049
78	0x3b9f976c	0.004870346
79	0xbd219f70	-0.039458692
80	0x3e53b446	0.20674238
81	0xbe0d303b	-0.1378793
82	0x3de8cc83	0.113671325
83	0xbe179755	-0.14803822
84	0x3cfc84ce	0.030825045
85	0x3e75799c	0.23972172
86	0x3c99f743	0.018794661
87	0xbd44094a	-0.04786042
88	0x3e093095	0.13397439
89	0x3da97199	0.0827362
90	0x3d48add1	0.04899389
91	0xbce497ec	-0.027904473
92	0x3dbdbe97	0.09264868
93	0x3c2194d3	0.009862143
94	0x3e1bf549	0.15230288
95	0xbe2fe3be	-0.1717672
96	0x3d805bea	0.06267531
97	0x3e661f56	0.22472891
98	0x3dd18d2d	0.10232005
99	0x3db30489	0.087410994
100	0xbd5a13d9	-0.053241584
101	0xbe1e4adf	-0.15458249
102	0x3d664918	0.05622205
103	0x3ebfd8e0	0.3747015
104	0x3e6a3349	0.22871126
105	0x3de334f6	0.11094086
106	0x3e937713	0.28801784
107	0xbbceafa8	-0.006307561
108	0xbb89e495	-0.0042081573
109	0x3de5533f	0.111975186
110	0xbe0904d5	-0.1338075
111	0x3c816b4d	0.015798235
112	0xbc886f1f	-0.01665455
113	0xbd2d20bb	-0.042267542
114	0xbd732e98	-0.059370607
115	0x3c83e639	0.01610099
116	0x3d7f426a	0.062319197
117	0xbdcd9863	-0.10038831
118	0x3d7fd426	0.06245818
119	0x3db38717	0.08766001
120	0xbdd79cd5	-0.1052796
121	0xbe1fd69a	-0.15609208
122	0xbe2809f0	-0.16410041
123	0x3d2f951a	0.042866804
124	0x3e290c3b	0.16508572
125	0x3dfe6659	0.12421865
126	0x3da64013	0.0811769
127	0x3cd9fe35	0.026610473
128	0x3cf9be4e	0.030486252
129	0x3e3ebc4d	0.18626519
130	0xbbb43398	-0.0054993145
131	0x3d8e49ff	0.069477074
132	0x3da92163	0.08258321
133	0x3da8a704	0.08234981
134	0x3e8bdc89	0.27316692
135	0x3dcdfb22	0.100576654
136	0x3d2cb889	0.042168174
137	0x3d937b75	0.07201282
138	0x3d9fdded	0.07806001
139	0xbc819176	-0.015816431
140	0x3aed80c3	0.0018120039
141	0x3e3b68ce	0.18301699
142	0xbc7e8563	-0.015534732
143	0x3cdcfaa3	0.026974982
144	0x3cf6d147	0.030129088
145	0x3e319c61	0.1734481
146	0x3d1cfe53	0.03832848
147	0x3dda2173	0.10650911
148	0x3bcf46f3	0.0063255965
149	0x3d60b119	0.054856393
150	0x3d918487	0.07105356
151	0x3ed5afaa	0.41735584
152	0x3d9145aa	0.070933655
153	0xbd42b3b5	-0.047534663
154	0x3e03719f	0.12836312
155	0x3d39b2ec	0.04533665
156	0x3da672d7	0.08127373
157	0x3dd9918c	0.10623464
158	0x3d0536f8	0.032523125
159	0x3e2ff465	0.17183073
160	0xbc3d947f	-0.011571049
161	0x3e7587a5	0.23977526
162	0x3daa05d1	0.08301891
163	0x3e1861da	0.14881077
164	0xbc2fb664	-0.010724638
165	0x3e1a2f1d	0.15057035
166	0x3e73c0af	0.23803972
167	0x3e0afed7	0.13573776
168	0x3e14ac6d	0.145189
169	0xbd1b09a5	-0.037850995
170	0xbd8b2445	-0.06794027
171	0x3c3fa065	0.011695956
172	0xbc75c501	-0.015000583
173	0xbdb4776e	-0.08811842
174	0x3d889091	0.06668199
175	0x3de961b2	0.11395587
176	0x3e199be7	0.15000878
177	0x3da537d9	0.08067293
178	0x3b58a980	0.0033060014
179	0x3d83d3a8	0.064368546
180	0xbab6f8a9	-0.0013959605
181	0x3e6a1bc9	0.22862162
182	0x3dc86549	0.097849436
183	0xbd9a2990	-0.07527459
184	0x3d5f009c	0.05444394
185	0xbd695780	-0.056968212
186	0x3cbed720	0.023295939
187	0x3d847dd1	0.0646931
188	0x3d990ac9	0.0747276
189	0xbc94a87b	-0.018146744
190	0xbd163c10	-0.036678374
191	0x3e55690f	0.20840858
192	0xbc22d250	-0.009937838
193	0x3d4f9206	0.05067637
194	0x3cbe4930	0.023228258
195	0x3e5042e0	0.20338011
196	0x3e2feaa2	0.17179349
197	0xbce3a118	-0.027786776
198	0xbd63c5c8	-0.05560854
199	0xbd10dde5	-0.035367865
200	0xbd636c9f	-0.05552351
201	0x3e14ecb2	0.14543417
202	0x3e750f2f	0.23931573
203	0x3dec2837	0.11531108
204	0x3e3e4284	0.18580061
205	0x3d9b1ca9	0.07573826
206	0x3e615493	0.22004919
207	0x3da1a8f9	0.07893557
208	0x3ddb1a44	0.10698369
209	0xbcb01aa2	-0.021497075
210	0x3e4d5482	0.20051768
211	0x3df8e9e4	0.12153986
212	0x3d1d141b	0.038349252
213	0x3cba0f94	0.022712506
214	0x3e014b8e	0.12626478
215	0x3ea86536	0.32889718
216	0xbdf1371f	-0.11778092
217	0xbc9d7753	-0.019221937
218	0x3d4bb271	0.04973072
219	0x3d114dc5	0.035474557
220	0x3bca58da	0.0061751427
221	0x3d817874	0.06321803
222	0x3e3bfc7a	0.18358031
223	0x3e0d1013	0.13775663
224	0x3e27f472	0.16401842
225	0xbc986658	-0.018603489
226	0x3d85474f	0.06507742
227	0x3db3887d	0.087662674
228	0xbd67739a	-0.05650673
229	0xbd18d279	-0.037310097
230	0x3d6eb7d1	0.05828077
231	0x3d235e35	0.039884765
232	0x3e79436b	0.24342124
233	0xbafc093e	-0.0019228829
234	0xbd847c16	-0.0646898
235	0xbd3d9a7a	-0.0462899
236	0xbe2f3914	-0.17111617
237	0x3bdabf0a	0.0066756057
238	0x3de0ab55	0.10970179
239	0xbde9000c	-0.11376962
240	0xbd695d8f	-0.05697399
241	0x3b9e078a	0.004822676
242	0x3da89915	0.08232323

down_convs.0.conv2.bias f4 [3]
0	0x3d290e76	0.041273557
1	0x3dcf8b59	0.10134
2	0xbe488cf2	-0.19585016

down_convs.0.norm0.weight f4 [3]
0	0x3f857578	1.0426474
1	0x3f823b58	1.017436
2	0x3f7c4686	0.9854511

down_convs.0.norm0.bias f4 [3]
0	0xbd982ac3	-0.07430031
1	0xbc72eb79	-0.014826649
2	0x3cf319af	0.029675333

down_convs.0.norm0.running_mean f4 [3]
0	0x3e0dbc91	0.13841464
1	0x3cb7d05d	0.022438223
2	0xbbd9775d	-0.0066365437

down_convs.0.norm0.running_var f4 [3]
0	0x408d289f	4.4112086
1	0x40ef6e7a	7.482236
2	0x401c530f	2.4425695

down_convs.0.norm1.weight f4 [3]
0	0x3f53d875	0.8275216
1	0x3f5ed3c0	0.87041855
2	0x3f5870a8	0.845469

down_convs.0.norm1.bias f4 [3]
0	0xbc12fbbb	-0.00897115
1	0xbd74412a	-0.059632458
2	0xbd266921	-0.040627602

down_convs.0.norm1.running_mean f4 [3]
0	0x3ffd5391	1.9791127
1	0x3fd2fb2e	1.6482904
2	0x3faaeb01	1.3352968

down_convs.0.norm1.running_var f4 [3]
0	0x41af1786	21.886486
1	0x4164537d	14.270383
2	0x416da16e	14.851912

down_convs.1.conv1.weight f4 [6, 3, 3, 3, 3]
0	0x3dab4a26	0.08363752
1	0xbd785576	-0.060628377
2	0xbd3d2f7e	-0.04618787
3	0x3e805e86	0.25072116
4	0x3e62b731	0.22140194
5	0x3dcc96e9	0.09989721
6	0x3e8ad5e5	0.27116314
7	0x3cba70fd	0.022758955
8	0xbe206c95	-0.15666421
9	0xbd314743	-0.04328085
10	0xbdb5945e	-0.088661894
11	0xbd63d0c6	-0.055619024
12	0x3df028b5	0.11726514
13	0x3d71f098	0.05906734
14	0x3d319c75	0.0433621
15	0x3d4fda32	0.050745197
16	0x3ca85ecd	0.020553017
17	0x3da69f02	0.08135797
18	0xbc5a0d7f	-0.013308882
19	0xbe5c6784	-0.21523863
20	0xbdae2f5a	-0.08505125
21	0x3d21baef	0.039484914
22	0x3d994461	0.07483745
23	0x3dabdbf2	0.083915606
24	0xbd2d9871	-0.042381708
25	0xbc970fe5	-0.018440196
26	0x3dd2341f	0.102638476
27	0x3e00a9fd	0.12564845
28	0xbd100dd3	-0.035169434
29	0xbc277f12	-0.010223167
30	0x3e0edbd7	0.1395105
31	0xbdabbc80	-0.08385563
32	0x3d0fc97b	0.035104256
33	0xbcffcb4f	-0.031224875
34	0xbd18c4ae	-0.037296943
35	0xbcc405c7	-0.023928536
36	0x3cb88abb	0.02252709
37	0xbd964dcd	-0.07339058
38	0x3da5a93b	0.08088919
39	0x3d94212c	0.072328895
40	0xbe992660	-0.2991209
41	0xbdef6a56	-0.11690204
42	0x3bfda2ff	0.007740378
43	0xbe5ef0ec	-0.21771592
44	0x3e7ac0ad	0.24487562
45	0x3cb4e0aa	0.022079784
46	0x3db82aa0	0.08992505
47	0x3e47f60e	0.19527456
48	0x3dc2c82c	0.09510836
49	0x3d40b761	0.047049884
50	0xbcacf1c9	-0.021111386
51	0xbca6ebda	-0.020376135
52	0x3db6de35	0.089291014
53	0x3ddf0a56	0.10890643
54	0x3e1bd6df	0.15218686
55	0xbe48a7c1	-0.19595243
56	0xbcd93eb6	-0.02651916
57	0x3eb1fd1b	0.34763417
58	0x3d96dc6c	0.07366261
59	0x3daf8e7f	0.08572101
60	0x3dafbe99	0.085812755
61	0x3cfd93de	0.030954298
62	0xbdcd9b21	-0.10039354
63	0x3cd8e36f	0.026475636
64	0x3bc9acb3	0.0061546206
65	0xbd93ac54	-0.07210603
66	0xbddec449	-0.10877282
67	0xbba4cde4	-0.005029427
68	0xbe3d875e	-0.1850867
69	0xbe6123a0	-0.21986246
70	0xbd657a1b	-0.056024652
71	0xbcf190c4	-0.029487975
72	0x3d127b7c	0.035762295
73	0x3daf6ac1	0.085652836
74	0x3d08803b	0.033325415
75	0x3e2d0358	0.16895807
76	0x3cb80de1	0.022467555
77	0x3cd374bc	0.0258125
78	0xbda9eeb6	-0.082974836
79	0xbe28eb30	-0.16495967
80	0x3dfc8c2e	0.12331425
81	0x3de8cd92	0.113673344
82	0x3d2a3677	0.041555848
83	0xb901fe1f	-0.00012397066
84	0xbd3de43c	-0.04636024
85	0x3d685a58	0.056726784
86	0x3d3680f6	0.04455658
87	0x3dde2b2d	0.10848079
88	0x3e5575ec	0.20845765
89	0xbe278d31	-0.16362454
90	0xbd55b0c0	-0.052170515
91	0xbd7aa0dc	-0.061188564
92	0xbc56e901	-0.013117076
93	0x3d932272	0.07184304
94	0xbbc18ffb	-0.0059070564
95	0x3c024b0f	0.007952466
96	0x3e0f1005	0.13970955
97	0x3e512df9	0.20427693
98	0x3e3362d8	0.17518175
99	0xbe488879	-0.1958331
100	0x3d3d2e7b	0.046186905
101	0xbdade5c5	-0.08491091
102	0x3dab3822	0.08360316
103	0xbb9bd3ec	-0.0047554877
104	0xbd804132	-0.06262435
105	0x3d200058	0.039062828
106	0x3e207b34	0.15671998
107	0x3d20637d	0.03915738
108	0x3d8f4510	0.069955945
109	0xbb29b559	-0.0025895445
110	0xbdaa39a9	-0.08311779
111	0x3d2fd31e	0.042925946
112	0xbd15f4e1	-0.036610488
113	0x3d873c81	0.06603337
114	0x3e1993bf	0.14997767
115	0x3e4560d9	0.19275226
116	0x3e0c7ad4	0.1371873
117	0xbdf5c07c	-0.11999604
118	0xbe8161de	-0.2526998
119	0x3cebfce3	0.02880711
120	0x3df3945c	0.11893532
121	0x3e169126	0.14703807
122	0x3d1f5c91	0.038906638
123	0x3e06edeb	0.13176696
124	0x3e6c0026	0.23046932
125	0x3cd5772d	0.026057804
126	0xbc91e5d0	-0.017809778
127	0xbe32f4c6	-0.17476186
128	0xbe6a10d2	-0.22857979
129	0xbe0f206f	-0.13977216
130	0x3dd7fdf6	0.10546486
131	0x3d18ea43	0.037332784
132	0x3e3e8962	0.18607095
133	0x3d4774b7	0.048695292
134	0xbcb5c48d	-0.02218845
135	0xbcf4cb66	-0.029882144
136	0xbd0633fe	-0.032764427
137	0x3d6512fd	0.05592631
138	0x3e14041c	0.14454693
139	0xbdf92c07	-0.12166601
140	0xbdf97443	-0.12180378
141	0x3e69f510	0.2284739
142	0xbc090fc3	-0.008365574
143	0x3dadf5ba	0.08494134
144	0x3d647e52	0.05578453
145	0xbd8d5744	-0.0690141
146	0xbdde8b4f	-0.10866415
147	0xbcab2667	-0.020892335
148	0x3d51c9b2	0.051217742
149	0x3d773de5	0.06036176
150	0x3c5be17d	0.01342046
151	0x3d40b483	0.04704715
152	0x3cece3be	0.02891719
153	0xbd873b3d	-0.06603096
154	0xbe856a06	-0.26057452
155	0xbc23d32c	-0.009999078
156	0x3e91ffc3	0.28515443
157	0x3db087fb	0.08619686
158	0x3e4bf72f	0.19918512
159	0x3d9f1a6a	0.0776871
160	0x3e0e8741	0.13918783
161	0x3e2a6435	0.16639788
162	0x3e1a9907	0.15097438
163	0x3e0763d2	0.13221672
164	0x3e00f3e4	0.12593037
165	0x3e17d254	0.14826328
166	0xbd1ca095	-0.03823908
167	0x3db135d6	0.086528465
168	0xbdae4fea	-0.08511336
169	0xbcf13294	-0.029443063
170	0x3d0c8af8	0.03431222
171	0x3e41ad61	0.18913795
172	0x3cb784d2	0.0224022
173	0x3b175d78	0.0023096483
174	0x3c61c550	0.013779953
175	0x3e3e7dcf	0.1860268
176	0x3d99d894	0.07512012
177	0x3c477a67	0.012175179
178	0x3ce16394	0.027513303
179	0x3d86b77f	0.06577968
180	0x3e31427e	0.17310521
181	0xbdb239d9	-0.0870244
182	0x3df08a13	0.117450856
183	0x3dd98ee1	0.10622955
184	0x3db6c396	0.08924024
185	0xbc9e9e34	-0.019362547
186	0xbc80454f	-0.015658049
187	0x3bde7824	0.006789224
188	0x3d3f97f1	0.046775762
189	0x3e3e2950	0.18570447
190	0x3e2dd81f	0.16976975
191	0xba52e554	-0.0008045037
192	0x3e1716a3	0.14754729
193	0xbe0b095b	-0.13577788
194	0xbc4c88c5	-0.01248378
195	0x3e45c2d9	0.1931261
196	0x3c899e5d	0.016799146
197	0xbdda9f43	-0.10674908
198	0x3e2bb99b	0.16770022
199	0x3d443cc7	0.047909524
200	0xbe0e6cdf	-0.13908719
201	0x3debb136	0.1150841
202	0xbd042c95	-0.03226908
203	0x3d13b85e	0.036064498
204	0x3d89f916	0.067369625
205	0xbd6ff7f5	-0.05858608
206	0xbe8c48f2	-0.27399403
207	0x3ca3a053	0.01997391
208	0x3e6d42e3	0.23170047
209	0xbe060137	-0.13086401
210	0xbd7da62c	-0.061926052
211	0x3dfb095a	0.12257643
212	0xbd8cebdc	-0.06880924
213	0xbd693088	-0.05693105
214	0xbe36bd8e	-0.17845747
215	0x3d071788	0.032981426
216	0x3d6dc57a	0.058049656
217	0x3de4930b	0.11160859
218	0x3e556d31	0.20842434
219	0x3d47f420	0.0488168
220	0x3e8260e7	0.25464556
221	0x3df33e63	0.11877134
222	0xbd881470	-0.06644523
223	0x3dc48a14	0.09596649
224	0x3e431c96	0.19053873
225	0xbdfa509c	-0.12222406
226	0x3dd40a8f	0.103535764
227	0x3d5bbd6b	0.05364744
228	0x3e18e3f7	0.14930712
229	0x3e848101	0.25879672
230	0x3d30cd93	0.0431648
231	0xbdd324da	-0.10309763
232	0x3d5f659c	0.05454026
233	0xbcc63e55	-0.024199644
234	0x3de9b766	0.114119336
235	0xbd899374	-0.067175776
236	0x3d679ede	0.056547992
237	0x3e625eb3	0.22106437
238	0x3dc33f10	0.095335126
239	0x3de4908f	0.11160385
240	0xbd3aa6ec	-0.045569345
241	0xbdad8e0f	-0.08474361
242	0xbe00b3c8	-0.12568581
243	0xbdb2814f	-0.0871607
244	0xbd8f2a40	-0.069904804
245	0xbe04996e	-0.12949154
246	0xbe1ee3ff	-0.15516661
247	0xbc7a40fa	-0.015274281
248	0x3dadd1b6	0.08487265
249	0x3cf089e4	0.029362626
250	0x3d5f6950	0.054543793
251	0x3dec71e7	0.11545163
252	0xbd605c7f	-0.05477571
253	0xbe21a0c2	-0.1578398
254	0xbdccb9e0	-0.0999639
255	0x3d0df3fc	0.03465651

down_convs.1.conv1.bias f4 [6]
0	0x3c124c62	0.008929344
1	0xbc970b7e	-0.018438097
2	0x3ca1c231	0.019745918
3	0xbb88689b	-0.0041628606
4	0x3c4fc4da	0.01268121
5	0x3cc1609b	0.023605635

down_convs.1.conv2.weight f4 [6, 6, 3, 3, 3]
0	0x3dc1f827	0.094711594
1	0x3e13a5b2	0.14418676
2	0xbd46930a	-0.04848007
3	0x3d22821a	0.039674856
4	0xbc3a8577	-0.01138436
5	0xbd32999a	-0.043603517
6	0xbd5a2415	-0.053257067
7	0x3e2b524b	0.16730611
8	0x3e380b87	0.17973147
9	0x3d4de782	0.05026961
10	0xbc092510	-0.008370653
11	0xba120971	-0.0005570865
12	0xbdb334f0	-0.087503314
13	0xbe3bbe93	-0.18334417
14	0xbd361481	-0.044453148
15	0xbd01010c	-0.03149514
16	0x3dcd9a2e	0.10039173
17	0x3d83642d	0.064155914
18	0xbe2386ed	-0.15969439
19	0x3e060b64	0.13090283
20	0xbd78accf	-0.060711678
21	0xbdd0324c	-0.10165843
22	0x3d88ce31	0.06679953
23	0x3de800f2	0.11328305
24	0xbe0546eb	-0.13015334
25	0xbdf5f20a	-0.12009056
26	0x3c762b1c	0.0150249265
27	0x3d5f3158	0.054490417
28	0x3e877296	0.2645461
29	0xbca161f5	-0.01970003
30	0xbd2f265e	-0.0427612
31	0x3ea4a34e	0.32155842
32	0x3dfc449f	0.12317776
33	0xbc85e05e	-0.016342338
34	0x3a27e4e8	0.0006404654
35	0xbd865a8d	-0.0656024
36	0xbd8bb61e	-0.068218455
37	0x3d85b7c3	0.065291904
38	0xbd95f8ad	-0.07322822
39	0x3d01f49c	0.03172742
40	0x3e06c070	0.13159347
41	0x3dee05bd	0.11622188
42	0xbda3d8dc	-0.08000347
43	0xbd826474	-0.06366816
44	0xbded724c	-0.11594066
45	0x3ceca29e	0.028886136
46	0xbcb6826b	-0.022278985
47	0x3d26aad7	0.04069027
48	0xbe09bfc0	-0.13452053
49	0xbd6f1cb1	-0.05837697
50	0x3d5963e2	0.05307377
51	0xbd6b427c	-0.05743645
52	0xbdda30d2	-0.10653843
53	0x3c69fee6	0.014281964
54	0xbd82d2f4	-0.06387892
55	0x3db4b72c	0.08824
56	0x3c830842	0.015995149
57	0x3d31b55a	0.04338584
58	0x3dad857a	0.08472724
59	0x3cd4b0b4	0.025963165
60	0x3e3f8fd4	0.1870721
61	0x3df832f9	0.12119097
62	0x3d7ab51e	0.061207883
63	0xb9d4a876	-0.00040561304
64	0xbe0445cb	-0.12917249
65	0xbe26fc5d	-0.16307206
66	0xbd31aae8	-0.04337588
67	0xbb8f8f72	-0.0043811137
68	0x3da90f16	0.082548305
69	0x3d6b7e52	0.057493515
70	0x3dd6a020	0.1047976
71	0xbe0cbd12	-0.13744
72	0xbd8cd440	-0.06876421
73	0xbe3ca98c	-0.18424052
74	0xbc9dd37c	-0.019265883
75	0xbdb9bb95	-0.090689816
76	0xbd875b16	-0.0660917
77	0xbddb97f9	-0.10722346
78	0xbba90928	-0.005158562
79	0x3da5d4d9	0.08097238
80	0xbd78c714	-0.06073673
81	0x3dc3b3a8	0.09555751
82	0x3e5c74cf	0.21528934
83	0x3e9289bc	0.28620708
84	0x3e0be4b9	0.1366147
85	0x3d89b22b	0.06723436
86	0x3e750cc6	0.23930654
87	0x3e001907	0.12509547
88	0x3d810ca4	0.06301239
89	0x3e03114c	0.12799567
90	0x3de84a4f	0.11342298
91	0x3e41c2cd	0.18921967
92	0x3e841952	0.25800568
93	0x3e046f69	0.12933125
94	0x3e0ff2b6	0.1405743
95	0x3e540598	0.20705259
96	0x3cb03f16	0.021514457
97	0xbd05b474	-0.032642797
98	0x3e24d06d	0.16095133
99	0x3e2ef6fe	0.17086408
100	0x3e06ad1f	0.13151978
101	0x3e9b24a9	0.30301407
102	0x3e15cb70	0.14628386
103	0x3dd760bd	0.10516498
104	0x3e45a7b6	0.19302258
105	0x3e6c0e26	0.23052272
106	0x3e569025	0.20953424
107	0x3e0d7b0b	0.13816468
108	0xbcdfe825	-0.027332375
109	0x3cc3e934	0.02391491
110	0xbe03bef7	-0.12865816
111	0x3db91597	0.09037321
112	0xbb36f2a5	-0.0027915624
113	0xbd378f70	-0.044814527
114	0x3c874c5c	0.016515903
115	0x3da44565	0.080210485
116	0xbd77cafd	-0.06049632
117	0xbc3fbcff	-0.011702775
118	0x3cde6e74	0.027152278
119	0xbded47a0	-0.11585927
120	0xbd381464	-0.04494132
121	0xbd264b04	-0.040598884
122	0x3cef386f	0.029201714
123	0xbd045299	-0.032305334
124	0x3c9d0c0c	0.019170783
125	0xbd9197a9	-0.07109005
126	0xbdb5d3b0	-0.08878267
127	0x3c8f6dbd	0.017508382
128	0xbe124c75	-0.14286979
129	0xbe1a50e3	-0.15069918
130	0xbdd92881	-0.10603429
131	0xbdce1676	-0.10062878
132	0x3dfcf0b1	0.12350596
133	0xbd900e73	-0.07034006
134	0x3cce076a	0.02515002
135	0x3d68dc58	0.05685076
136	0x3b0dbe10	0.0021628179
137	0xbe4ac412	-0.19801357
138	0x3db16c2e	0.08663212
139	0x3db3a9a7	0.08772593
140	0x3b9fa3ca	0.00487182
141	0xbd550d0a	-0.05201439
142	0x3dfbd3ae	0.12296234
143	0x3d22d938	0.039757937
144	0x3e1c45ca	0.15260997
145	0xbda5399e	-0.0806763
146	0x3d485a42	0.0489142
147	0xbd4d4959	-0.050118778
148	0x3cb0f90c	0.02160313
149	0x3d2f601a	0.04281626
150	0xbe3186ea	-0.17336622
151	0x3e17ddcc	0.14830703
152	0xbda16cbb	-0.07882067
153	0x3ce6adb6	0.028159004
154	0x3d02e879	0.031959984
155	0x3d83f0b4	0.06442395
156	0xbdfe3d4b	-0.124140345
157	0x3d1a2ac7	0.037638452
158	0xbd3c4a45	-0.045969266
159	0xbd56785e	-0.052360885
160	0x3ddf4ed7	0.109037094
161	0x3cbe734d	0.02324834
162	0x3da6b72d	0.08140407
163	0x3e516f4a	0.2045261
164	0xbd83c347	-0.064337306
165	0xbda74714	-0.08167854
166	0xbd78c785	-0.06073715
167	0xbde52d3d	-0.11190269
168	0x3deb0218	0.11475009
169	0xbc7385e7	-0.014863468
170	0xbe446ee0	-0.1918292
171	0xbd30606d	-0.04306071
172	0x3cc3e203	0.023911482
173	0xbe1a62ed	-0.150768
174	0x3c48ac72	0.012248145
175	0x3dcda1a8	0.10040599
176	0x3b9838a6	0.004645425
177	0x3c86a50a	0.016436119
178	0xbd0980c3	-0.033570062
179	0xbd004c4a	-0.031322755
180	0x3e11ff0e	0.14257452
181	0xbdca0702	-0.09864618
182	0x3be8b9b0	0.007102214
183	0x3d14252c	0.036168262
184	0x3d9e4a5f	0.07729029
185	0xbe345da8	-0.17613852
186	0x3d082cb1	0.033245746
187	0xbe8a1443	-0.26968583
188	0x3c3ac79c	0.01140013
189	0xbde4444b	-0.11145838
190	0x3dc0a199	0.09405822
191	0xbdd737d8	-0.10508698
192	0xbca03293	-0.019555366
193	0xbd318155	-0.04333623
194	0xbdec9167	-0.11551171
195	0x3d763147	0.06010559
196	0x3e0862d5	0.13318951
197	0x3e577c82	0.2104359
198	0xbd87c28f	-0.06628906
199	0xbd541a80	-0.051783085
200	0x3ceeb3fb	0.029138556
201	0xbd5a0317	-0.053225603
202	0xbd3c790d	-0.04601388
203	0x3d276a45	0.04087283
204	0x3df592f2	0.11990918
205	0x3e2082f7	0.15674959
206	0x3ddf4c2b	0.109032
207	0x3c013c29	0.007887878
208	0xbe493dc7	-0.19652472
209	0xbde4ec99	-0.1117794
210	0xbd8dc2a0	-0.069218874
211	0x3cb4f5e7	0.022089912
212	0xbd588f00	-0.05287075
213	0x3da71fae	0.08160339
214	0x3daa2f71	0.0830983
215	0x3cb4c71a	0.022067595
216	0x3d8cbd02	0.06871988
217	0x3d944066	0.072388455
218	0x3de717de	0.11283849
219	0xbdd06356	-0.10175197
220	0x3d14c55c	0.03632103
221	0xbcdc1c69	-0.026869016
222	0xbcec72ec	-0.028863393
223	0xbd06c8b1	-0.032906238
224	0xbd961d61	-0.07329822
225	0x3db992bf	0.09061193
226	0x3e00348d	0.12520047
227	0x3d520fe1	0.051284675
228	0x3c8b9644	0.017039426
229	0x3dcbdcef	0.09954249
230	0xbcfcadf2	-0.030844662
231	0xbd1ae6e8	-0.037817866
232	0xbe0d7bce	-0.13816759
233	0xbd25551c	-0.04036437
234	0xbd83eb64	-0.064413816
235	0x3ce23129	0.027611332
236	0xbd7bd05d	-0.061478008
237	0x3d6ecf99	0.05830345
238	0xbe32c9b5	-0.17459758
239	0xbe13ed18	-0.14445913
240	0xbe06cfe9	-0.13165249
241	0xbe26a42a	-0.16273561
242	0xbe340b3e	-0.17582414
243	0x3c538d7a	0.012912149
244	0xbd8fd775	-0.07023517
245	0x3db3b972	0.08775605
246	0xbdfa919d	-0.12234805
247	0x3da642d7	0.081182174
248	0x3cdb6ff8	0.02678679
249	0xbd4838ce	-0.0488823
250	0x3d9ccf9f	0.07656788
251	0xbd427993	-0.047479223
252	0x3e61fe7e	0.22069737
253	0x3dbe08bf	0.09279012
254	0x3d2e70ba	0.042587973
255	0xbd78de51	-0.060758892

down_convs.1.conv2.bias f4 [6]
0	0xbb41240d	-0.002947095
1	0xba65f227	-0.000877174
2	0x3d096f0e	0.033553176
3	0xbb13bacf	-0.0022541767
4	0xbcd01018	-0.0253983
5	0x3cb50479	0.02209686

down_convs.1.norm0.weight f4 [6]
0	0x3f6f6353	0.9351093
1	0x3f81f48c	1.0152755
2	0x3f73fc95	0.95307285
3	0x3f91e9c4	1.1399465
4	0x3f6e0aa9	0.92985016
5	0x3f596ea5	0.84934455

down_convs.1.norm0.bias f4 [6]
0	0x3bf7d46d	0.007563165
1	0xbd972478	-0.07380003
2	0xbcbc2c13	-0.022970235
3	0x3e1dda9c	0.15415424
4	0xbd981d98	-0.074275196
5	0xbe6531c3	-0.22382264

down_convs.1.norm0.running_mean f4 [6]
0	0x3eb3b8e9	0.35102013
1	0x3f254e44	0.6457255
2	0x3f7a365c	0.97739196
3	0xbfa7edfe	-1.3119504
4	0x3f8a6060	1.0810661
5	0x3f99512a	1.1977894

down_convs.1.norm0.running_var f4 [6]
0	0x3f9c0eb8	1.2191992
1	0x40cbff26	6.374896
2	0x41100d8f	9.00331
3	0x4170a05a	15.039148
4	0x411fa897	9.97866
5	0x4148898c	12.533581

down_convs.1.norm1.weight f4 [6]
0	0x3f6e92df	0.9319286
1	0x3f7f06a8	0.9961953
2	0x3f875ae2	1.057461
3	0x3f744bdb	0.95428246
4	0x3f44450a	0.76667845
5	0x3f6e6c8c	0.9313438

down_convs.1.norm1.bias f4 [6]
0	0x3cb6add8	0.022299692
1	0x3c430c0f	0.01190473
2	0x3e2bc72f	0.16775201
3	0xbdcc97fe	-0.09989928
4	0xbeb2ed20	-0.34946537
5	0xbd072ed2	-0.033003636

down_convs.1.norm1.running_mean f4 [6]
0	0x3fc9c057	1.5761822
1	0xbddae431	-0.10688055
2	0xbfaa5cb5	-1.3309542
3	0x3ebdc451	0.3706384
4	0x4047b6be	3.1205287
5	0xbfbb4d5f	-1.4632987

down_convs.1.norm1.running_var f4 [6]
0	0x3fc6f9e2	1.5545008
1	0x40c649b7	6.1964984
2	0x4175b63a	15.356989
3	0x40a307f3	5.0947204
4	0x40f09c09	7.5190473
5	0x41f5f484	30.744392

down_convs.2.conv1.weight f4 [12, 6, 3, 3, 3]
0	0xbcea2674	-0.028582789
1	0x3d5f67a9	0.054542217
2	0x3dc8a926	0.097978875
3	0x3d488177	0.048951592
4	0xbdf9d663	-0.12199094
5	0xbe3d78b1	-0.18503071
6	0x3cfcfdd7	0.030882759
7	0xbd7c1ec4	-0.061552778
8	0xbde25965	-0.11052207
9	0xbd868152	-0.06567635
10	0xbd5925b0	-0.053014457
11	0xbdbf8011	-0.093505986
12	0xbda59703	-0.08085444
13	0x3c5ae45f	0.013360112
14	0xbda08c22	-0.07839228
15	0x3d2d1ef9	0.042265866
16	0xbd87e98e	-0.06636344
17	0xbde68c04	-0.112571746
18	0x3be7b1a8	0.007070739
19	0xbd62a418	-0.055332273
20	0xbdfbb60a	-0.122905806
21	0x3d8db834	0.069198996
22	0x3c6ae588	0.014336951
23	0xbc16a522	-0.009194644
24	0x3de6c74a	0.1126848
25	0x3d967b86	0.07347779
26	0xbe79f849	-0.2441112
27	0x3cac03fe	0.020997997
28	0x3d534143	0.05157591
29	0xbbae1787	-0.0053128633
30	0xbd6325b5	-0.055455882
31	0x3d59f570	0.053212583
32	0xbddb2007	-0.10699468
33	0xbdc3f93a	-0.095690206
34	0xbe2b0d47	-0.16704284
35	0xbe0b24c6	-0.13588247
36	0x3e94c474	0.29056132
37	0x3e4acd71	0.19804932
38	0x3d2d93bc	0.04237722
39	0x3e5b3ee5	0.21410711
40	0x3eacf77a	0.3378256
41	0x3d0e7bcd	0.034786034
42	0x3dfc8538	0.12330097
43	0xbd5e34e8	-0.054249674
44	0xbcc0d6cb	-0.023539921
45	0x3e32e2ef	0.17469381
46	0x3e6508b2	0.22366598
47	0x3dd17c8d	0.10228834
48	0x3e15c784	0.1462689
49	0x3e0c9fd0	0.13732839
50	0x3dcbde3e	0.09954499
51	0x3e6c9fd9	0.23107852
52	0x3e113a71	0.1418245
53	0x3d3cec1c	0.04612361
54	0x3de3ce3b	0.1112332
55	0xbd500358	-0.05078444
56	0x3aa3a61c	0.0012485418
57	0x3dbf27dc	0.093337744
58	0xbd8e1223	-0.06937053
59	0xbdf5db4f	-0.120047204
60	0x3b50e29a	0.0031873346
61	0xbca62d88	-0.020285383
62	0xbc9bee5f	-0.019034563
63	0xbcc2c47f	-0.023775337
64	0xbba3f871	-0.0050039818
65	0x3d8301ce	0.063968286
66	0xbd8e20f4	-0.06939879
67	0x3cbfc262	0.023408119
68	0x3c11cf24	0.008899484
69	0xbdb5852f	-0.088632934
70	0x3d372934	0.04471703
71	0x3c9f69a4	0.019459553
72	0x3cac0999	0.02100067
73	0xbd15a1c4	-0.036531225
74	0xbd1c8581	-0.038213257
75	0x3ce8c543	0.028414374
76	0xbd929c5d	-0.0715873
77	0xbadf50b0	-0.0017037597
78	0xbd945a46	-0.07243781
79	0x3b03bdee	0.002010222
80	0x3cddf8a8	0.027096108
81	0x3d41d36e	0.047320776
82	0x3d6a97ca	0.057273664
83	0x3b7dda4f	0.0038734858
84	0x3e38e26d	0.18055125
85	0x3db90158	0.090334594
86	0x3dbbf2c5	0.09177164
87	0x3dd0ed63	0.10201528
88	0x3da52449	0.080635615
89	0xbaa63273	-0.001267983
90	0x3e68b261	0.22724296
91	0xbc5af497	-0.013363979
92	0x3dd9d541	0.10636378
93	0x3db16cac	0.08663306
94	0xbad60d9c	-0.001633096
95	0xbd84f93c	-0.0649285
96	0xbd286ef0	-0.041121423
97	0xbaa0da69	-0.0012272123
98	0xbc8c82ec	-0.017152272
99	0x3bc26e9c	0.005933596
100	0xbc0ca08c	-0.008583199
101	0x3d42e437	0.047580924
102	0x3d441a8e	0.047876887
103	0x3c9cd165	0.019142816
104	0x3d26cf56	0.040725075
105	0x3dd11c65	0.10210494
106	0x3d09392d	0.033501793
107	0x3b887ac5	0.004165026
108	0x3dc45176	0.0958585
109	0xbe0da89e	-0.13833854
110	0xbd83f856	-0.06443851
111	0xbda5a9f7	-0.08089059
112	0xbe8fc33e	-0.28078645
113	0xbd707bcd	-0.058711816
114	0x3e4a0c7e	0.19731328
115	0xbe37aa66	-0.17936096
116	0xbd948dff	-0.07253646
117	0xbc48b173	-0.012249338
118	0x3d21d83a	0.03951285
119	0xbc6bdc2b	-0.014395754
120	0xbe1ddb6b	-0.15415733
121	0xbe36cd7e	-0.17851827
122	0xbb34965c	-0.0027555441
123	0x3d0af216	0.033922277
124	0xbc8bb88b	-0.01705577
125	0xbe05adf3	-0.13054638
126	0x3db21cfd	0.08696935
127	0x3d1e4be6	0.0386466
128	0x3cc4e61e	0.02403551
129	0xbdf73718	-0.12071055
130	0xbd3895ef	-0.045064863
131	0xbe076fa7	-0.13226186
132	0xbd9318ed	-0.071824886
133	0xb9945408	-0.00028291368
134	0xbe2b131e	-0.16706511
135	0xbc0eb287	-0.008709556
136	0xbbbc1521	-0.0057398234
137	0x3d11fa31	0.03563899
138	0xbd8a6494	-0.06757465
139	0xbce2a76f	-0.02766773
140	0x3db1a9bd	0.08674953
141	0x3b60fb1a	0.0034329356
142	0x3cadbe82	0.021209005
143	0xbd93af18	-0.07211131
144	0x3d0579de	0.032586925
145	0xbcfd7c16	-0.030942958
146	0xbd38696e	-0.04502242
147	0xbd288649	-0.04114369
148	0x3cf269c5	0.02959145
149	0xbd3616d7	-0.044455376
150	0x3bd3b861	0.0064611887
151	0x3d6c6846	0.05771663
152	0xbdcd0cef	-0.100122325
153	0x3d087b8d	0.033320952
154	0xbc716831	-0.014734314
155	0x3d724cef	0.0591554
156	0x3d24adc9	0.040204797
157	0x3c51774a	0.012784788
158	0x3c311297	0.010807655
159	0x3cc98928	0.024601534
160	0x3dbfd5b4	0.093669325
161	0x3d2a6770	0.041602552
162	0xbd2bfad8	-0.04198727
163	0x3cb6ad89	0.022299545
164	0x3d89c009	0.06726081
165	0x3dfa4a97	0.12221258
166	0x3d95a4aa	0.07306798
167	0xbdd5b546	-0.10434966
168	0x3c36798f	0.01113738
169	0xbd4fd89e	-0.05074369
170	0x3c5fd08d	0.013660562
171	0xbe55e539	-0.20888223
172	0xbe1578f3	-0.1459692
173	0xbd619a70	-0.055078924
174	0xbe215fd2	-0.15759209
175	0xbdac8afe	-0.08424948
176	0xbdf1c60e	-0.11805354
177	0xbda2d6c6	-0.07951121
178	0xbd121171	-0.035661165
179	0xbab445a4	-0.0013753665
180	0xbe86a606	-0.2629854
181	0xbeaacfe5	-0.33361736
182	0xbe2ae264	-0.16687924
183	0xbda4058f	-0.08008873
184	0xbe38d4c9	-0.18049921
185	0xbdaa04a1	-0.08301664
186	0xbe21c8a7	-0.15799199
187	0xbdfb6ba5	-0.12276391
188	0xbe0293c5	-0.12751682
189	0xbe296b9e	-0.16544959
190	0xbde81181	-0.113314636
191	0xbd72e4af	-0.05930012
192	0x3deddf6e	0.116148815
193	0x3dda1e7d	0.106503464
194	0x3db0504b	0.08609065
195	0x3e010936	0.1260117
196	0x3cfda1f7	0.03096102
197	0x3dbb72be	0.09152745
198	0xbe423cd8	-0.18968523
199	0xbca2e23b	-0.019883266
200	0xbd07e858	-0.033180565
201	0xbe0fb8cc	-0.14035338
202	0xbdb147d0	-0.08656275
203	0x3dced5ea	0.100993946
204	0xbca32512	-0.019915137
205	0x3dc26caa	0.09493382
206	0x3d06ebd4	0.032939747
207	0xbc3ea8b3	-0.011636901
208	0x3ce0d1fb	0.027443876
209	0x3d830086	0.06396584
210	0xbda40b37	-0.080099516
211	0xbe1e6549	-0.15468325
212	0xb70d9bae	-8.440502e-06
213	0x3b9e6c5c	0.004834695
214	0xbcf06593	-0.02934531
215	0xbe1dd150	-0.15411878
216	0xbd7e66a8	-0.06210962
217	0xbd47f494	-0.048817232
218	0xbc6df5ab	-0.014523904
219	0x3ded1497	0.11576193
220	0x3c94a28e	0.018143918
221	0xbd2e3783	-0.04253341
222	0x3d8a13ad	0.06742034
223	0x3dec6d25	0.11544255
224	0x3d2d2ec2	0.04228092
225	0x3d7df029	0.061996613
226	0x3e013d44	0.12621027
227	0x3e53ebe3	0.20695452
228	0xbd3e33d3	-0.046436142
229	0x3d55d4ae	0.05220478
230	0x3d07e9ef	0.03318208
231	0x3db75fab	0.08953794
232	0xb9b7f370	-0.00035085855
233	0xbc692c34	-0.01423173
234	0xbe0ed381	-0.1394787
235	0x3db6a8fc	0.0891895
236	0xbd24ffaa	-0.040282883
237	0xbd8e4ee5	-0.06948642
238	0x3d16a78b	0.036780875
239	0x3b1315f8	0.0022443514
240	0x3e14d338	0.14533699
241	0x3dcfdcb4	0.10149518
242	0x3c8a88e6	0.016910981
243	0xbe44803d	-0.19189544
244	0xbd16c01c	-0.036804304
245	0x3bfb54a2	0.007670001
246	0xbdb18342	-0.086676136
247	0xbcb11f05	-0.021621237
248	0x3c85f4b0	0.016352028
249	0xbe58a9cb	-0.21158521
250	0xbddabf3e	-0.10681008
251	0xbcbe56b3	-0.0232347
252	0xbe99bf41	-0.30028728
253	0x3c59db4d	0.013296914
254	0xbdb4b3bf	-0.08823346
255	0xbe1f9b53	-0.15586595

down_convs.2.conv1.bias f4 [12]
0	0xbbabba5d	-0.005240722
1	0x3c260fc7	0.010135598
2	0xbcc3f38b	-0.023919841
3	0xbc8319bc	-0.016003482
4	0x3bbab713	0.0056980937
5	0xbac610ac	-0.001511117
6	0x3c8b1838	0.016979322
7	0x3bd09778	0.0063657127
8	0x3b0c3ac1	0.0021397325
9	0x3c10768a	0.008817324
10	0xbac00648	-0.001465031
11	0x3c308542	0.010773959

down_convs.2.conv2.weight f4 [12, 12, 3, 3, 3]
0	0x3bbe1007	0.0058002505
1	0x3c8692a7	0.016427351
2	0xbe2675ce	-0.16255876
3	0x3d6e4b1f	0.05817711
4	0x3da7a644	0.081860095
5	0x3dac6201	0.0841713
6	0x3cdaacfd	0.026693815
7	0x3d97721c	0.073948115
8	0x3d3119d3	0.04323752
9	0x3cf75d2d	0.030195797
10	0xbb576ea2	-0.0032872339
11	0xbd99ef08	-0.07516295
12	0x3d777c44	0.060421243
13	0x3dc81b58	0.097708404
14	0x3c1fb5ca	0.009747932
15	0x3d369b74	0.044581845
16	0x3d1ffb88	0.03905824
17	0x3c929188	0.01789166
18	0x3dd66107	0.10467725
19	0xbccc168f	-0.0249131
20	0xbd1713da	-0.036884166
21	0x3d6ddc5f	0.05807149
22	0x3d9d94c8	0.076943934
23	0x3d54f4cd	0.051991273
24	0x3d4c77b0	0.04991883
25	0xbd91a91a	-0.07112332
26	0x3cbd1441	0.023080947
27	0x3a937c4f	0.0011252257
28	0x3e2cd7ea	0.1687924
29	0x3dcb2940	0.09919977
30	0x3b13b1a5	0.0022536304
31	0x3de4d2a5	0.1117299
32	0x3d8a80b3	0.06762829
33	0xbd998eaa	-0.07497914
34	0x3d883b5c	0.06651947
35	0x3d62c341	0.05536199
36	0x3c734c69	0.014849761
37	0x3c9c3363	0.019067472
38	0x3dada5a4	0.08478859
39	0xbbb507c4	-0.0055246074
40	0xbca4e6e8	-0.020129636
41	0x3dab22ff	0.08356284
42	0xbde96ac6	-0.113973185
43	0xbcbcbcf0	-0.023039311
44	0xbd073a80	-0.033014774
45	0xbcc04137	-0.023468597
46	0x3c49726e	0.012295349
47	0x3d2dabb9	0.042400096
48	0xbe689fdf	-0.22717236
49	0xbd1b8461	-0.037968043
50	0x3c6486d5	0.013948162
51	0xbd0a16f1	-0.033713285
52	0xbcaa5806	-0.020793926
53	0x3d0b78d2	0.03405077
54	0xbe6ad1b8	-0.22931564
55	0xbe606a88	-0.21915638
56	0xbe9a3147	-0.3011572
57	0xbd16b935	-0.03679772
58	0xbd8553c3	-0.06510117
59	0x3ca1d284	0.019753702
60	0x3ceade9d	0.028670603
61	0x3d8e3015	0.06942765
62	0x3da7a09c	0.08184931
63	0xbe086090	-0.13318086
64	0xbe619b3e	-0.22031876
65	0xbe0dc62e	-0.13845131
66	0xbca2b925	-0.019863674
67	0xbd9b584b	-0.075852
68	0x3cfc750c	0.030817531
69	0x3dc9e557	0.09858196
70	0x3e04bd71	0.12962891
71	0xbcd8be87	-0.026458038
72	0xbd8b6508	-0.068063796
73	0xbdaec7f4	-0.08534232
74	0x3da4b922	0.08043124
75	0x3d36114d	0.044450093
76	0x3bf019ee	0.00732731
77	0xbc9238c8	-0.017849341
78	0x3c9575ba	0.018244613
79	0xbd47ef16	-0.048811994
80	0xbd06f562	-0.03294886
81	0xbe2b9084	-0.16754347
82	0xbd87cf36	-0.06631319
83	0xbda2f2cf	-0.07956468
84	0xbd9f0c25	-0.07765988
85	0xbddc43ba	-0.10755105
86	0xbc339a67	-0.010962105
87	0xbd8edf76	-0.069762155
88	0xbde076cd	-0.109601595
89	0xbdee0081	-0.1162119
90	0xbd9a0bf2	-0.0752181
91	0xbdb4bae0	-0.08824706
92	0xbd347519	-0.044056986
93	0xbc382a43	-0.011240545
94	0xbd7b0930	-0.06128806
95	0x3dcfbd8e	0.101435766
96	0x3b99e3a0	0.0046963245
97	0xb9e9e709	-0.00044613358
98	0x3e0c2390	0.13685441
99	0x3d86d09d	0.065827586
100	0x3ccacc18	0.024755523
101	0x3bc0c3c2	0.005882711
102	0x3d518340	0.05115056
103	0x3d579226	0.052629612
104	0x3d3bf066	0.04588356
105	0xbc96cd26	-0.01840837
106	0x3de37203	0.111057304
107	0x3e2356e1	0.1595111
108	0xbd8b203c	-0.067932576
109	0xbd381dad	-0.044950176
110	0x3d367245	0.04454257
111	0xbe1377b8	-0.14401138
112	0x3cf1b819	0.02950673
113	0x3da6b45d	0.0813987
114	0xbc96b209	-0.01839544
115	0x3c9e9dd4	0.019362368
116	0x3db60c20	0.088890314
117	0xbd611571	-0.05495209
118	0x3dbe1e0e	0.09283076
119	0x3d86ef2b	0.065885864
120	0xbd156c84	-0.03648044
121	0x3e24a88e	0.16079924
122	0x3d2ef193	0.042710852
123	0xbcffc4b1	-0.03122172
124	0x3db06e30	0.086147666
125	0x3d95ebf0	0.07320392
126	0xbd24761a	-0.040151693
127	0x3e0aa6b4	0.13540155
128	0x3e1cc4d8	0.15309465
129	0xbd9e3257	-0.07724445
130	0x3d3c922e	0.046037845
131	0xbb1f95c1	-0.0024350735
132	0xbbce20e3	-0.0062905415
133	0x3cd9be70	0.026580065
134	0xbd0e0cd6	-0.03468021
135	0xbde1cd45	-0.1102548
136	0xbe12d6a5	-0.14339693
137	0x3d8580d2	0.06518711
138	0xbdcd20be	-0.10016011
139	0xbd075f33	-0.033049773
140	0x3be24627	0.0069053355
141	0xbd6c94b4	-0.057759
142	0x3d41f77b	0.047355156
143	0x3bc0d1cd	0.005884385
144	0xbc901ac5	-0.01759089
145	0x3c1c37fc	0.009534832
146	0x3db26649	0.087109156
147	0x3d6eef6b	0.058333796
148	0x3dac7d45	0.08422331
149	0x3e2cf374	0.16889745
150	0x3d66e577	0.05637118
151	0x3d6167e4	0.05503072
152	0x3de42480	0.11139774
153	0x3d7f915e	0.062394492
154	0x3e51ef6f	0.20501493
155	0x3ddabf00	0.106809616
156	0xbb10242c	-0.0021994216
157	0x3cb3ac72	0.021932814
158	0x3e1bc27a	0.15210906
159	0xbd8cd839	-0.06877179
160	0xbda7a165	-0.081850804
161	0xbcd8468b	-0.026400825
162	0xbd9f61cf	-0.077823274
163	0x3dc6e7a6	0.09712152
164	0xbe1901f7	-0.14942156
165	0xbe2c88c9	-0.16849054
166	0xbd23af80	-0.03996229
167	0x3d82c9c4	0.0638614
168	0xbc6975e5	-0.0142493
169	0x3bff2108	0.00778592
170	0xbd6c9e0a	-0.057767905
171	0x3d153a1f	0.03643238
172	0x3e04041a	0.1289219
173	0xbb191707	-0.0023359673
174	0xbdae1df6	-0.08501808
175	0xbd45cf57	-0.048293438
176	0x3ce6f74f	0.028194098
177	0xbd29691c	-0.041360006
178	0xbd4456df	-0.04793441
179	0x3d1a15e4	0.037618533
180	0xbd54ba74	-0.051935628
181	0xbd456fb2	-0.048202224
182	0xbc360619	-0.011109852
183	0xbd5ce2f7	-0.053927388
184	0xbd41e68d	-0.04733901
185	0x3d250eb0	0.04029721
186	0xbd29b3b8	-0.04143116
187	0xbdda7712	-0.10667242
188	0xbe522d20	-0.20525026
189	0x3cacb073	0.021080231
190	0xbbe1a384	-0.0068859477
191	0x3d3aa0e0	0.04556358
192	0x3de0b949	0.1097284
193	0x3dd087db	0.101821624
194	0x3e3bf5bd	0.1835546
195	0x3cdcc01d	0.026947076
196	0x3c28169c	0.010259297
197	0x3da8ffbf	0.08251905
198	0xbd8c9f61	-0.068663366
199	0xbe04a7ab	-0.12954585
200	0xbda91844	-0.082565814
201	0x3d086b59	0.0333055
202	0x3c970441	0.018434646
203	0x3c874bf5	0.016515711
204	0xbced4ff3	-0.028968787
205	0xbc7bd9ed	-0.015371782
206	0xbd2edf6c	-0.04269354
207	0xbd626a5f	-0.055277225
208	0xbdb8d160	-0.0902431
209	0xbe396bcc	-0.18107527
210	0x3d9c7150	0.076388
211	0xbda2fb68	-0.07958108
212	0x3d2e188b	0.042503875
213	0x3bdfe99d	0.006833269
214	0x3e14e004	0.1453858
215	0xbd05d06b	-0.032669466
216	0xbe5725d6	-0.21010527
217	0xbd20ad09	-0.03922752
218	0x3d6dc746	0.05805137
219	0xbd06148f	-0.03273445
220	0x3dc9c2f9	0.09851641
221	0xbdb7ec7d	-0.089806534
222	0xbd79a11f	-0.060944673
223	0xbc8db19c	-0.017296605
224	0xbe16babe	-0.14719674
225	0x3d449800	0.04799652
226	0xbd783fb6	-0.060607634
227	0x3c10497d	0.0088065835
228	0xbcc553c1	-0.024087789
229	0xbdb01f3e	-0.08599709
230	0xbe3c6359	-0.18397273
231	0xbabe7249	-0.0014529909
232	0xbd28b1c2	-0.041185148
233	0x3ca78849	0.020450728
234	0x3cfe6842	0.031055573
235	0x3dd90335	0.10596315
236	0x3c465542	0.012105288
237	0x3dea6ebc	0.11446902
238	0xbdd4b49b	-0.1038601
239	0xbc1aad9e	-0.009440808
240	0xbd877219	-0.06613559
241	0x3dc0582b	0.09391817
242	0x3b8bc06a	0.004264881
243	0xbdd07c55	-0.101799645
244	0xbd264b82	-0.040599354
245	0x3cc7700e	0.024345424
246	0xbbaa14a2	-0.005190448
247	0x3dcf21ba	0.10113855
248	0x3daa5505	0.083169974
249	0xbd8e2b1c	-0.06941816
250	0x3d8be4c2	0.068307415
251	0x3e1a3f11	0.1506312
252	0xbe04eda0	-0.12981272
253	0xbc3bdddb	-0.011466469
254	0x3cec1154	0.028816856
255	0xbd5142b9	-0.051089022

down_convs.2.conv2.bias f4 [12]
0	0x3b914acc	0.0044339653
1	0x3a98ec1a	0.0011667043
2	0xba226ab1	-0.0006195708
3	0xbbe1ae80	-0.006887257
4	0xbb02a4c6	-0.0019934638
5	0x3b4f7e93	0.0031661137
6	0x3a839dd0	0.0010041539
7	0x3aa87231	0.0012851415
8	0x3903ccc4	0.00012569415
9	0x3a015aa4	0.0004934466
10	0xba95b730	-0.0011422392
11	0x39f9dc2c	0.00047657022

down_convs.2.norm0.weight f4 [12]
0	0x3f7a9fda	0.97900164
1	0x3f81b2b9	1.0132667
2	0x3f8bac3d	1.0911938
3	0x3f7f4715	0.9971784
4	0x3f7d40b7	0.9892687
5	0x3f86ae0d	1.0521866
6	0x3f889580	1.0670624
7	0x3f8066f0	1.0031414
8	0x3f7953b4	0.97393346
9	0x3f6ed776	0.9329752
10	0x3f873436	1.0562809
11	0x3f81607e	1.0107572

down_convs.2.norm0.bias f4 [12]
0	0x3af7d9ae	0.0018909478
1	0x3c9ab761	0.01888627
2	0x3d86838c	0.06568059
3	0xbd68a7b9	-0.056800578
4	0xbe32665a	-0.17421857
5	0x3db43821	0.08799768
6	0x3cd3b15c	0.025841407
7	0xbe077483	-0.1322804
8	0xbcade527	-0.021227432
9	0xbe6983c8	-0.22804177
10	0xbbce09f9	-0.00628781
11	0x3c2b2d8e	0.010447873

down_convs.2.norm0.running_mean f4 [12]
0	0x3c285150	0.010273293
1	0xbf82874a	-1.0197537
2	0xbf47cba7	-0.78045124
3	0x3f3e7c50	0.74408436
4	0xbe281419	-0.16413917
5	0x3f57a06f	0.8422918
6	0x3d46c572	0.048528142
7	0x3f32930f	0.69755644
8	0x3f7f9007	0.99829143
9	0x3f7bee52	0.9841052
10	0x3e8e525b	0.27797207
11	0xbf33cb00	-0.7023163

down_convs.2.norm0.running_var f4 [12]
0	0x3fa5692e	1.2922723
1	0x3f15e21c	0.5854814
2	0x3e582058	0.21106088
3	0x3f0976e6	0.5369705
4	0x3f12e8ba	0.5738636
5	0x3f4dc047	0.80371517
6	0x3e46bb48	0.1940738
7	0x3efe5bef	0.49679515
8	0x3eec306f	0.46130702
9	0x3f92597e	1.1433561
10	0x3f0855e8	0.5325608
11	0x3f6260dd	0.8842905

down_convs.2.norm1.weight f4 [12]
0	0x3f8789fb	1.0588983
1	0x3f81eb11	1.0149862
2	0x3f6582bd	0.89652616
3	0x3f8c0e27	1.0941819
4	0x3f75e17e	0.960472
5	0x3f6ccea3	0.925028
6	0x3f8ce365	1.1006895
7	0x3f880468	1.0626345
8	0x3f832efc	1.0248713
9	0x3f9002b8	1.125083
10	0x3f84e9f7	1.03839
11	0x3f78e662	0.97226536

down_convs.2.norm1.bias f4 [12]
0	0xbe08dbb6	-0.13365063
1	0xbbd7339b	-0.006567431
2	0xbdc36c08	-0.0954209
3	0xbd854448	-0.06507164
4	0xbd80a7bc	-0.06281993
5	0xbdba9cc6	-0.091119334
6	0x3d87fb7e	0.06639765
7	0xbc9a91f8	-0.018868431
8	0xbd0edc89	-0.034878287
9	0xbdb23321	-0.08701158
10	0xbe37658d	-0.17909832
11	0xbda8d1f0	-0.082431674

down_convs.2.norm1.running_mean f4 [12]
0	0xbe9255a8	-0.28580976
1	0xbf4f192b	-0.8089778
2	0xbea55e17	-0.32298347
3	0x3e87bc1c	0.26510704
4	0x3fc8e979	1.569625
5	0x3f5cf525	0.8631156
6	0xbfde5b93	-1.7371696
7	0xbf0e6e84	-0.55637383
8	0xbd8a827e	-0.06763171
9	0xbeae371f	-0.3402643
10	0xbf78e3e7	-0.9722275
11	0xbea47292	-0.3211866

down_convs.2.norm1.running_var f4 [12]
0	0x402a47b7	2.6606271
1	0x405c0d32	3.4383054
2	0x408b1bb2	4.347131
3	0x401b5991	2.4273417
4	0x4108ceb4	8.550465
5	0x40c21987	6.065616
6	0x40c83e34	6.257593
7	0x40e11284	7.03351
8	0x40e0a5ed	7.0202546
9	0x3fe5dcb2	1.7957976
10	0x40b4a706	5.6453886
11	0x3fd8e093	1.6943535

down_convs.3.conv1.weight f4 [24, 12, 3, 3, 3]
0	0xbd1cb5ca	-0.038259305
1	0xbe090755	-0.13381703
2	0xbd3f6053	-0.04672272
3	0x3c96467c	0.018344156
4	0x3c184f19	0.009296202
5	0x3e0cee6b	0.13762824
6	0xbe1068bd	-0.14102454
7	0xbb773552	-0.003772099
8	0x3d42ca2b	0.047556084
9	0x3e1bbdcb	0.15209119
10	0x3e0734b3	0.13203697
11	0x3e225301	0.15851976
12	0xbd71791e	-0.058953397
13	0xbd2b129d	-0.041765798
14	0xbd182974	-0.037148908
15	0xbd254479	-0.040348504
16	0x3b6ba2cb	0.0035955186
17	0xbd126abb	-0.035746317
18	0x3d9c2d4d	0.07625828
19	0x3ae50a9c	0.0017474475
20	0xbcdfc248	-0.02731432
21	0xbc91a9b2	-0.017781112
22	0xbd83bf36	-0.06432955
23	0x3db7dd89	0.08977801
24	0x3e0323ed	0.12806673
25	0xbbcf8853	-0.00633339
26	0x3d0d34e3	0.034474265
27	0xbd581054	-0.052749947
28	0x3c81970f	0.0158191
29	0xbd42c689	-0.04755262
30	0x3ddffa0d	0.10936365
31	0x3d9f7bb9	0.0778727
32	0x3d923411	0.07138837
33	0xbded7b15	-0.11595742
34	0x3d9fc108	0.0780049
35	0x3df481a2	0.11938788
36	0x3c0268ea	0.007959584
37	0xbda4d29d	-0.08047984
38	0xbe005e89	-0.12536062
39	0x3de9af9f	0.1141045
40	0x3df1be55	0.11803881
41	0x3cd2c505	0.025728712
42	0xbdac7bfe	-0.08422087
43	0xbe3f0415	-0.18653901
44	0xbdd401b0	-0.10351884
45	0x3d961bab	0.07329496
46	0x3d51f159	0.051255558
47	0x3b881468	0.0041528232
48	0x3da9d3eb	0.08292373
49	0xbd631644	-0.055441156
50	0x3d356c14	0.044292524
51	0xbe2270a2	-0.15863279
52	0xbe19f7f1	-0.15035988
53	0xbe549fd0	-0.20764089
54	0xbcdd88d0	-0.027042776
55	0xbd8a853f	-0.06763696
56	0xbe090f93	-0.13384847
57	0x3cf6f4bb	0.030145993
58	0xbd8b029c	-0.06787607
59	0x3d06a634	0.032873347
60	0xbdf61f63	-0.12017705
61	0xbc5ecaf3	-0.013598192
62	0x3d3c3c75	0.045956094
63	0xbd29504c	-0.041336343
64	0xbca98e0a	-0.020697612
65	0xbc843abf	-0.016141294
66	0x3b21312f	0.0024595966
67	0xbd1981b2	-0.037477203
68	0xbdd4629f	-0.10370373
69	0xbe2b28d6	-0.16714796
70	0xbde02e4f	-0.10946333
71	0xbd8388e0	-0.06422591
72	0xbdcd2ffd	-0.10018919
73	0xbd165dc4	-0.036710516
74	0xbcf6b288	-0.030114427
75	0xbddd6d0e	-0.10811816
76	0xbdaac8b2	-0.08339061
77	0xbd04ac36	-0.032390796
78	0xbe1ace0b	-0.15117662
79	0xbe3af50e	-0.18257543
80	0xbd787972	-0.060662694
81	0x3d1274ac	0.0357558
82	0xbda12676	-0.07868664
83	0xbcd1c7a9	-0.0256079
84	0x3d8f9985	0.070117034
85	0x3bd9490e	0.0066310233
86	0x3c1f3cb9	0.009719067
87	0x3da34fa4	0.079741746
88	0x3cf051e2	0.02933592
89	0x3db6ee9e	0.08932231
90	0x3dc74cb4	0.09731427
91	0xbd9114b7	-0.07084029
92	0xbc78f05a	-0.015194023
93	0x3d5b6b25	0.053568978
94	0xbdb876b2	-0.09007014
95	0xbd764587	-0.0601249
96	0xbd320862	-0.043465026
97	0xbde25ec6	-0.11053233
98	0x3c3c7573	0.011502611
99	0xbc32c244	-0.010910574
100	0xbe29ce3d	-0.1658258
101	0x3d2d4e9c	0.042311296
102	0xbd1cd631	-0.038290206
103	0xbd1ebd7a	-0.038754918
104	0xbdfde363	-0.12396886
105	0xbda4716b	-0.08029445
106	0xbe0b8d13	-0.13628034
107	0xbdd5f617	-0.104473285
108	0x3d589c07	0.052883174
109	0x3e0555d8	0.13021028
110	0x3d89583b	0.06706282
111	0xbd9f8b62	-0.07790257
112	0x3ab3ea44	0.0013726433
113	0x3c8ecfce	0.017433073
114	0xbd949544	-0.07255033
115	0xbda36716	-0.079786465
116	0xbb0c7429	-0.0021431542
117	0x3de172a0	0.11008191
118	0x3dc542cf	0.09631883
119	0x3d3ffc10	0.046871245
120	0x3d2fd8e8	0.042931467
121	0x3aff2f09	0.0019468974
122	0xbd3309aa	-0.04371039
123	0x3ce4c4ef	0.027925937
124	0x3d5bb664	0.053640738
125	0x3d89c3f5	0.06726829
126	0x3cb4cb13	0.02206949
127	0x3d697c37	0.057003226
128	0x3d6f1c78	0.05837676
129	0x3d2fe90d	0.042946864
130	0x3cd8c615	0.02646164
131	0xbd1c026a	-0.03808824
132	0x3be62012	0.007022866
133	0xbd322f3d	-0.04350208
134	0xbd1cd80f	-0.038291987
135	0xbc0ce946	-0.008600539
136	0x3d40d44b	0.04707746
137	0xbc5922c2	-0.013252916
138	0xbd4d21f2	-0.0500812
139	0xbdd43626	-0.103618905
140	0xbdbe433a	-0.09290166
141	0x3cde08ac	0.027103744
142	0xbd45e903	-0.04831792
143	0xbc9ba6fa	-0.019000519
144	0xbbcc34a9	-0.0062318635
145	0xbd64a5fd	-0.05582236
146	0xbdeeedd8	-0.11666459
147	0xbd6825b6	-0.05667659
148	0xbe20040a	-0.15626541
149	0xbdd234b6	-0.1026396
150	0xbd8810ed	-0.06643853
151	0xbe1bac9c	-0.15202564
152	0xbe4c6976	-0.19962105
153	0xbd6ba0c6	-0.057526372
154	0xbde40293	-0.111333035
155	0xbd8a15d9	-0.06742448
156	0xbde6e1cc	-0.11273536
157	0xbde00591	-0.10938562
158	0xbe014aa3	-0.12626128
159	0xbe025c7c	-0.12730592
160	0xbd4faac2	-0.050699957
161	0xbd8867d1	-0.066604264
162	0xbe173064	-0.14764553
163	0xbdff70ae	-0.12472664
164	0xbc92536f	-0.01786205
165	0x3d01123e	0.031511538
166	0x3d3e31bc	0.04643415
167	0x386515bc	5.4618096e-05
168	0xbd6934c3	-0.056935083
169	0xbde087cd	-0.10963402
170	0x3db36024	0.08758572
171	0x3ddb5839	0.107101865
172	0xbcd34c96	-0.025793355
173	0xbc53d160	-0.012928337
174	0xbcc80c35	-0.024419883
175	0xbcf5293b	-0.029926887
176	0xbdf6ad42	-0.12044765
177	0x3d8bb183	0.06820967
178	0xbdc1868e	-0.094494924
179	0xbd97d433	-0.07413521
180	0x3e35df28	0.17760909
181	0x3d83ce71	0.0643586
182	0x3c98241b	0.018571904
183	0x3d5f2637	0.054479804
184	0xbe08258e	-0.13295576
185	0x3c80cabe	0.015721675
186	0xbbaffa9f	-0.0053704525
187	0xbd90e6ba	-0.070752576
188	0xbd15ad7c	-0.0365424
189	0xbd98d446	-0.07462363
190	0xbe173905	-0.14767845
191	0xbd789074	-0.060684636
192	0xbe8748d9	-0.26422766
193	0xbddc6e6d	-0.107632495
194	0xbe229fb3	-0.15881233
195	0xbdc26806	-0.09492497
196	0xbd60ac3e	-0.054851763
197	0x3d5052e6	0.050860308
198	0x3e115591	0.14192797
199	0x3e76b3de	0.24092051
200	0x3e66a9f3	0.22525768
201	0xbdcea59b	-0.100901805
202	0x3c0567b6	0.008142402
203	0x3d626579	0.055272553
204	0x3dc19a8c	0.094533056
205	0x3ddef2d8	0.108861625
206	0x3dc5b817	0.09654253
207	0x3e3ec4de	0.18629786
208	0x3e216131	0.15759732
209	0x3e41fd28	0.18944228
210	0xbdc28f46	-0.094999835
211	0x3d8f8a69	0.070088215
212	0x3cdfd430	0.027322859
213	0x3cffe3ed	0.031236613
214	0xbd8062e4	-0.06268862
215	0xbce114fe	-0.02747583
216	0x3daf5320	0.08560777
217	0xbbcfd0b5	-0.0063420185
218	0x3e0ccbce	0.1374962
219	0xbd01f0c5	-0.031723756
220	0xbc44b0b1	-0.012005017
221	0x3d1b730f	0.037951525
222	0xbe2b2baf	-0.16715883
223	0xbcb20eed	-0.021735633
224	0x3d3fafeb	0.046798628
225	0x3bff4f21	0.0077914153
226	0x3e1b2dd1	0.15154196
227	0x3e19eac4	0.15030962
228	0xbd2684e7	-0.04065409
229	0xbd807b8c	-0.06273565
230	0xbd459ec8	-0.04824713
231	0xbd83de01	-0.06438828
232	0xbd08a32e	-0.033358745
233	0x3cfb0d98	0.03064613
234	0x3c12001e	0.008911161
235	0x3dabc922	0.083879724
236	0xbd4c9989	-0.04995111
237	0x3d1fec9b	0.039044004
238	0xbcb261b6	-0.021775108
239	0xbd31b57e	-0.043385975
240	0x3cc930ef	0.024559466
241	0x3cf8f1c0	0.030388713
242	0x3cb9c57f	0.022677181
243	0xbdba6761	-0.09101749
244	0xbc1f115f	-0.009708731
245	0x3d8990ee	0.06717096
246	0xbd36c079	-0.04461715
247	0x3bd614a6	0.006533223
248	0x3d427ece	0.04748421
249	0xbdb93790	-0.09043801
250	0x3debdeb5	0.11517087
251	0x3d91b8b5	0.07115308
252	0xbe9bb1d9	-0.30409124
253	0xbe7b7135	-0.24554904
254	0xbde1d45b	-0.11026832
255	0xbe1c09c8	-0.15238106

down_convs.3.conv1.bias f4 [24]
0	0xb8eabed5	-0.00011193535
1	0x3a19ae37	0.0005862447
2	0xb7f38ee5	-2.9034398e-05
3	0xb8dbf13d	-0.00010487668
4	0x395ba4c3	0.00020946846
5	0x3a733b7e	0.00092785794
6	0x381b623d	3.704637e-05
7	0xb92986f0	-0.00016167364
8	0xb965d33d	-0.00021917834
9	0xb9bab6c0	-0.00035612844
10	0x3993677c	0.00028115127
11	0x3a0b5844	0.0005315582
12	0x391c84b3	0.00014926754
13	0xb5d70ff1	-1.6023388e-06
14	0xb8c2c035	-9.286442e-05
15	0xb9e8cc63	-0.00044402768
16	0x3a1d5a58	0.0006002537
17	0xba0863b8	-0.00052028475
18	0xb8f36bd4	-0.000116072275
19	0x3984e48e	0.00025347288
20	0x3a0b7fd2	0.0005321476
21	0xb91a41bd	-0.00014711074
22	0x39132f12	0.00014036548
23	0x39b3ee27	0.00034318978
