outputs_full_mask/epoch_17_model.pth (torch, 694790 bytes, 241 tensors)

down_convs.0.conv1.weight f4 [3, 1, 3, 3, 3]
00000000: c7b6 1c3d 31d7 863e 09f3 aa3e d222 67be
00000010: 32c9 623e d689 863d ef27 4cbf e08e 5abe
00000020: 0ace 18bf b035 893e 2bc3 de3f 9972 983f
00000030: 25e1 9a3d b5ab 9c3f 78e2 423f 3bab ffbe
00000040: fe9f 31be ba77 5c3c 7569 dc3d 3c15 1a3f
00000050: 0312 ab3e 378b b5be 0d90 d13e a158 b23e
00000060: d485 21bf 85bc e8bd 2987 61be 1444 14bf
00000070: 801e 8bbe 9259 f4be 8f3b 27be fe2a 7b3e
00000080: fb09 033e aa14 c43e 0c13 3e3f 779e a93e
00000090: 7339 07bf e147 9dbe 0286 13bf 4852 723d
000000a0: a77d 563e ecca 543e b42e 6d3f 8dea 883f
000000b0: 8589 2c3f 2e85 13bf f1e2 9ebe 85ae 04bf
000000c0: e954 abbd 3f66 303e 39d1 3ebe 72be 143f
000000d0: 279a 583f 3df1 3e3f 3749 8f3e 6ae9 6b3f
000000e0: a93f d33e 16a6 13bd 0296 ad3d 522d 973d
000000f0: 6782 36bf a0f0 05bf 0b45 48bf e549 563f
00000100: 24e6 ee3f 442a 533f 1bdf 2f3e e286 0a3f
00000110: 59f6 c93e fea0 0dbf 6706 8cbe e32d b6be
00000120: 018e e23d 4b7e 8b3f ce1d 903e 5b9f 1e3e
00000130: 0ac5 693e 0249 bcbc d7aa 0fbf 9ca9 0dbf
00000140: 2431 c8be
0.038260248 0.26336053 0.33388546 -0.22571877 0.22147062 0.06569259 -0.79748434 -0.21343565
-0.5968939 0.26798773 1.740331 1.1909972 0.07562474 1.2239901 0.76126814 -0.49935326
-0.17346188 0.013456279 0.10762302 0.6018865 0.3341218 -0.35457775 0.40930215 0.34833243
-0.6309483 -0.11364082 -0.22024216 -0.5791638 -0.27171707 -0.47724587 -0.16331314 0.24528119
0.12796776 0.38297015 0.74247813 0.33128712 -0.52822036 -0.30718902 -0.57626355 0.0591605
0.2094637 0.20780534 0.9264939 1.0696579 0.6739734 -0.5762509 -0.31032518 -0.51828796
-0.08365805 0.17226504 -0.186345 0.58103096 0.8461022 0.7458685 0.27985546 0.92153037
0.41259506 -0.036047064 0.08475877 0.07381691 -0.7129273 -0.5232029 -0.7823035 0.83706504
1.8663983 0.8248637 0.17174952 0.54112065 0.3944576 -0.5532378 -0.27348635 -0.35581884
0.11062241 1.0897917 0.2814774 0.15490477 0.2282907 -0.022984032 -0.56120056 -0.5533693
-0.3909999

down_convs.0.conv1.bias f4 [3]
00000000: 9a13 c0be 0d8f 2fbe b2b8 78bb
-0.37514955 -0.17144413 -0.0037951884

down_convs.0.conv2.weight f4 [3, 3, 3, 3, 3]
00000000: 67ba aabe c54b c2be 1eb6 61be e62c c2bc
00000010: 57d0 0cbe 2509 68be 92f4 053e 750c d53d
00000020: 7d8a fcbd a7c1 a0be 34a0 38be fe85 79be
00000030: d77b 39be aeba dfbd ebeb 11be bde1 313e
00000040: 6bee c93d a12e f93d ff18 98be be63 75bd
00000050: 1d58 5fbe 9fe4 cf3b 63cc 5fbe 40e2 9dbe
00000060: 9dfb f93d ca82 fa3d d065 8a3e 55b7 cabe
00000070: 1d48 44be 45e9 a7bb d6dd a83e fc59 193f
00000080: 96f5 cd3e a590 5b3f 2f67 9c3f 6232 a83f
00000090: 53ba 1b3e 0225 2cbe 5ee3 1bbe 4e0c 293f
000000a0: babf 8a3f c4ba 1a3f 12c4 b03f 727a c23f
000000b0: 7904 a33f 977c 45be 8e1c 12be 45cf a43d
000000c0: dd56 d73e ca68 193f b810 ed3e 150d 883f
000000d0: a507 bd3f 86db 8a3f b87b f1be 9908 f7be
000000e0: 56b1 9bbe 82b8 0dbf 8ffb 0ebf aaa2 0fbf
000000f0: 0d2d 3abe ade8 49be 10e9 62be b166 9ebe
00000100: cb56 25bf 358b 0bbf de59 12bf b456 29bf
00000110: 82eb 21bf 2491 8fbe 5b1a 97bc d279 9fbd
00000120: 71f6 01bf a365 ffbe 916e 12bf 9878 07bf
00000130: 9e8c f9be ca54 97be fe2b 6fbe 0cac c4bd
00000140: 109d b4be c36e 963e d69e b33e 5256 143f
00000150: ad18 743d 893f bdbd b1e0 e23c 25f0 ffbd
00000160: 6565 8abe 0535 bbbe 095d 433e f708 7e3e
00000170: d674 1a3f 2bae 85be d8f7 18be 4ef7 e93d
00000180: 2a90 01bf 72d7 9fbe a026 72be 4766 af3e
00000190: 9344 a83e 65e7 143f bdfd 713e c2b6 9cbd
000001a0: 2cb6 c13e c9a9 a7be dcce 3ebe 3487 8fbe
000001b0: b19e 8cbf 5d0b 8abf d2d8 72bf 5e62 94be
000001c0: 127f 09bf 120d 38bf cfa0 3d3e 6100 1c3f
000001d0: 649a 0a3f a304 95bf 5edf 6abf 2f89 60bf
000001e0: 5dd7 05bf c676 5abe 59d6 ffbe 5edf 2f3f
000001f0: 0360 133f a9cf 283f f245 c6bf bed6 8fbf
00000200: ab1f 51bf 6f8c a3be 1559 f2be 7747 0cbf
00000210: 40c4 0d3f 73bf 0a3f cb7e cd3e 8473 0e3f
00000220: 4347 c03e 71dd 133f c817 b4bd 616f 9c3c
00000230: dc5c 683e 8b35 26be 2122 b9be 01a8 f9be
00000240: ee2a bf3e c4e3 f03e 67d2 dc3e d4a5 4fbe
00000250: 5839 d9be 89fb 8ebd 2d8c 01bf 00ed 18bf
00000260: fc28 18bf ee90 273f b6bc f13e 3bc9 e13e
00000270: dca8 02bc 383e 56bd 7216 6a3e a290 b6be
00000280: 37ea 9dbe 7ccd d3be acf2 293f 6ee8 443f
00000290: db45 04bd a41a 713e 44a7 a03e e1be a3be
000002a0: 38bb 413e 99c8 333e c7b4 d1be c987 e73f
000002b0: 0bc8 fc3f 834f f93e fa44 f93e 25b2 423f
000002c0: a68a 9bbd ad58 763e 7cc7 a43e 28e1 d23c
000002d0: a5fb 553f a615 933f 5582 893e 72a3 333e
000002e0: 55a4 3d3e dba5 ecbe a680 143d d6ff 0f3e
000002f0: 239b 6d3e c118 90be 2528 95be e0dc b9be
00000300: a818 373e d809 403e 704d c63e bb43 c63c
00000310: dadf 38be 5de6 4e3d c1f1 78be 30b0 03bf
00000320: ed98 3bbf bb8a f13e 07c3 8c3e e2b2 a83e
00000330: 7953 9fbd 0c77 423d 171d 093c e4c4 58bd
00000340: a128 babd 377d e3be f4ec 233f 4a56 403f
00000350: b2c9 093f 9bdc 71bc e459 183d fcfe 0a3e
00000360: 3a09 383e 112a 8f3e 2fd4 bf3c 6475 253e
00000370: 1a1c b03e b24e 52be 97db 9b3d 27a0 aa3e
00000380: f7c7 473d 6956 433f db84 cb3f 5371 053f
00000390: d896 693e d455 683f cc40 383e 21af ce3e
000003a0: fff9 153f ef98 923e b012 c73e 1507 6f3f
000003b0: ad39 053f 4c68 d0bd b973 923e 8347 c6bd
000003c0: 30d5 733e 38e1 d63e f530 5d3c
-0.3334534 -0.37948433 -0.22042128 -0.02370305 -0.1375135 -0.22659738 0.13081577 0.104027666
-0.12331102 -0.31397745 -0.18029863 -0.2436752 -0.18113647 -0.10924278 -0.14250152 0.17371269
0.09859928 0.12167097 -0.2970657 -0.059909575 -0.21810956 0.0063443924 -0.21855311 -0.30836678
0.122061945 0.12231977 0.27030802 -0.39592996 -0.19168134 -0.0051242434 0.32981747 0.5990293
0.4022643 0.85767585 1.2218989 1.3140376 0.15207796 -0.16810992 -0.15223452 0.660344
1.083976 0.6044123 1.3809836 1.5193617 1.273574 -0.19285809 -0.14268705 0.08047346
0.4205846 0.5992552 0.46301818 1.0628992 1.4767958 1.0848243 -0.47164702 -0.48248747
-0.30408734 -0.5535966 -0.558526 -0.5610758 -0.18181248 -0.19717665 -0.22159219 -0.30937722
-0.6458556 -0.5450929 -0.57168376 -0.66147923 -0.6324998 -0.2804042 -0.018445184 -0.07786907
-0.50766665 -0.4988223 -0.5719996 -0.52918386 -0.48740095 -0.29556876 -0.23356625 -0.09603128
-0.3527608 0.2938138 0.3508212 0.57944214 0.059593845 -0.09240634 0.027695032 -0.12496976
-0.27030483 -0.36563888 0.19078459 0.24808107 0.6033453 -0.26109442 -0.14938295 0.11424123
-0.506106 -0.3121906 -0.23647547 0.3425772 0.32864818 0.5816558 0.2363195 -0.07652046
0.378343 -0.32746723 -0.18633598 -0.2803284 -1.0985929 -1.0784718 -0.9486209 -0.28981298
-0.5370952 -0.71894944 0.18518375 0.6093808 0.5414183 -1.164204 -0.9174708 -0.87709326
-0.52281743 -0.21334371 -0.49968222 0.68700206 0.5756838 0.65941864 -1.5490096 -1.1237409
-0.81688946 -0.3194308 -0.4733359 -0.54796547 0.5537758 0.5419838 0.40135798 0.5564501
0.37554368 0.5775977 -0.087935984 0.019096078 0.22691673 -0.16231363 -0.3615885 -0.4876099
0.3733744 0.4704877 0.43129274 -0.20278102 -0.42426562 -0.0698157 -0.50604516 -0.59736633
-0.5943754 0.6545552 0.47214288 0.4409884 -0.0079748295 -0.05230543 0.22860125 -0.3565722
-0.30842754 -0.4136771 0.6638591 0.7691716 -0.032293182 0.23545319 0.31377614 -0.31981567
0.18919075 0.1755699 -0.40958235 1.8088313 1.9748548 0.48693475 0.48685437 0.76053077
-0.075948045 0.24057265 0.32183444 0.025742128 0.83587104 1.1490982 0.26857248 0.17542818
0.18519719 -0.46220288 0.0362555 0.14062437 0.23203711 -0.28143886 -0.2913219 -0.36301327
0.178805 0.18753755 0.38730955 0.024202218 -0.18054143 0.05051266 -0.24310972 -0.51440716
-0.7328022 0.47176155 0.27492544 0.32948977 -0.07779593 0.047476813 0.008368752 -0.052922145
-0.090897806 -0.4443147 0.64033437 0.75131667 0.5382339 -0.014762069 0.0371951 0.13573831
0.1797227 0.27961782 0.023416607 0.16158062 0.3439644 -0.20537832 0.07610243 0.33325312
0.048774686 0.76303726 1.5899919 0.52126044 0.22811449 0.90755963 0.17993468 0.40367988
0.5858459 0.28632304 0.38881445 0.9337018 0.5204113 -0.10176143 0.28603914 -0.096816085
0.23811793 0.41968703 0.013500442

down_convs.0.conv2.bias f4 [3]
00000000: 4070 11bd 4c73 bfbf 9c7b 55bf
-0.03550744 -1.4957061 -0.8339174

down_convs.0.norm0.weight f4 [3]
00000000: d4ed 5b3f 60ba c33f 3b7d 6f3f
0.8590977 1.5291252 0.9355046

down_convs.0.norm0.bias f4 [3]
00000000: a611 8ebd 1a37 87be aca4 723e
-0.0693696 -0.26409227 0.2369563

down_convs.0.norm0.running_mean f4 [3]
00000000: 8ffd d3be 1a77 e1bd 77de 73bd
-0.41404387 -0.11009045 -0.05953833

down_convs.0.norm0.running_var f4 [3]
00000000: 712f 9e41 b549 1541 7895 a141
19.773165 9.330495 20.197983

down_convs.0.norm1.weight f4 [3]
00000000: a739 993f 330a 493f 00b2 813f
1.1970719 0.7853119 1.0132446

down_convs.0.norm1.bias f4 [3]
00000000: 02f0 71be 931e 913e c66d 02be
-0.23626712 0.2834364 -0.12737188

down_convs.0.norm1.running_mean f4 [3]
00000000: fe3b 08bf 2b89 a4c0 5930 b340
-0.5321654 -5.141744 5.599652

down_convs.0.norm1.running_var f4 [3]
00000000: f863 7e43 353f 5343 567e 2c43
254.3905 211.2469 172.4935

down_convs.1.conv1.weight f4 [6, 3, 3, 3, 3]
00000000: ec80 f0be 6588 dcbe 36a2 1dbf 8d8a 683e
00000010: 4174 923e 8c2d 053e 9827 1fbf 0a2a 37bf
00000020: fba4 4dbf eee9 32be cfb7 1fbe fa0f 8ebe
00000030: b4f0 f23e 10e7 c33e 79c3 b13d cb99 31bf
00000040: 9c1e 30bf 8bd3 4cbf dbcd eebe 28d4 25be
00000050: 4d38 02bf 82ba cb3e 19bf b03d 0a4b d0bd
00000060: f44f 00bf 19d1 51bf e6ea 3ebf 80ae c4bf
00000070: 6e89 bcbf ce1c 64bf 3370 d03d 7db2 32be
00000080: 6d99 0ebe 3a6a 5f3e ade6 143e 0f0a 4abe
00000090: c263 8abf 122e b8bf 3601 2fbf fe8f 513d
000000a0: ed7f 6abe 3a90 cebe 31d0 6d3d 6fa3 173e
000000b0: 5123 c23d 8353 62bf 04c0 66bf f142 1bbf
000000c0: a670 9d3d bc09 ddbe 9db6 0dbf 51f3 b93e
000000d0: 891c fd3d 95eb 9cbe b813 e43e b391 8d3f
000000e0: e621 e03e 0857 35be 0b94 f53e ff98 6bbe
000000f0: f5d5 adbe f2de 903e a13b 66be 9433 623f
00000100: f78d f03f 3d28 473f 66f8 353b 86c4 753f
00000110: f7db 1b3d 7717 f53d 0e7e 333f c045 02bd
00000120: cc69 36be 159d af3e 2d27 373b 6fff 30bf
00000130: cac9 53be aa18 18bf 1cf8 bdbe 2573 f6bc
00000140: 0900 d9be 712d 88bf 3175 3abf 3b96 e5bd
00000150: f16a 2abf bf4b 87bf 627b f4be a9c3 703f
00000160: 9a11 6a3e 5284 363f 84c7 38bf 3e90 babe
00000170: 5513 c7bd 4749 67bf 82b0 56bf 161d 55bf
00000180: f116 a43e 43c6 51be 8f06 7d3e 7af4 00bf
00000190: 05cb 2abe 1384 12bd 008e 27bf 8c30 3cbf
000001a0: 3f11 42bf 8c4b 393f c6fb 313e 3c30 323f
000001b0: 4540 f03e 6583 e03e 7326 9a3e 408d 47bf
000001c0: b12d 56bf a1a2 44bf 39da f6be e761 81be
000001d0: 7b63 39be 460f fc3e cfbf 313f ee8a a43e
000001e0: b046 75bf c9d2 5bbf ac3a 03bf f844 8bbe
000001f0: f094 efbe 94d0 83bd 07e5 4e3e 3bd5 923e
00000200: 17bf e43d 13ba e0be 83fb debe 4174 dcbe
00000210: a0dd 5d3e 3c2a d2bd 4447 633e b4c9 66bf
00000220: e2eb 94bf 5569 c0bf 2a4d 38bd e538 4bbe
00000230: 375e 36be 7954 793f a9a8 353f 7d1b 0e3f
00000240: 73e5 4bbf 41e2 18bf 1f7c 8dbf ca0e 41be
00000250: 26d0 8cbd 3d5f 103d c037 533f c54e 3f3f
00000260: 1254 2c3f 39c2 acbf 6002 3cbf 68bd 67bf
00000270: 8e4d a4be 2675 bdbd 48e4 5b3e 14ad 0a3f
00000280: bf10 203f 99d3 243f 6a30 f83c f011 413e
00000290: a539 99bd 507b 74be 4bd8 5cbe 02d6 eebd
000002a0: 21c6 57be 8d5a 86be 4bdc c4be cf0d 1bbd
000002b0: cf1b ac3e c3be af3e 1c39 66be 99ca 8b3e
000002c0: a89e 993e ae40 01bd f6fb ffbd 804d f4bd
000002d0: 4ad9 b13d 3f14 903e 2669 953e d044 65bd
000002e0: c84c 7d3e f5f8 453f bc7e 763d 7caa 2a3e
000002f0: 69cc 743d 3ce1 843f db44 ea3e 4e6b 7f3e
00000300: feaf 283e 992e 72be 9fbe 06bd eb36 923d
00000310: f0d5 a9be ab8e f5be 4d60 843f 9062 2c3f
00000320: 1a17 a43e b12d 133e d06d 94be 6dfb e3be
00000330: 145f c83d 23be edbe b9f3 26bf 3ee7 553f
00000340: 36da 183f 21f2 6e3e 1f27 f53d d44e 85be
00000350: ee1e d7be 6bba 953e 2151 8fbe 2353 e0be
00000360: a046 543c 3d97 3d3f 0abc df3e 982a b83d
00000370: 3e9b 503f 8c15 fc3e 96c0 9dbe ac0d 2e3f
00000380: 4e17 8b3e 9985 c33e 91c9 a53f bf7b 7f3f
00000390: 77e4 a93e 7402 0940 d4a2 c03f acc1 2a3c
000003a0: e1ce b93f a021 b83f 53c0 0b3d e0f7 de3e
000003b0: 4360 f93e 28e4 cbbe 542e 003f ca7d b83e
000003c0: 9c25 96be 4d20 da3e 8866 c93e a504 983d
000003d0: 516f 503c ef69 af3e 28c6 46be 273b 49be
000003e0: 834c f83d 6f69 f1bd 109c 06bf 8746 e6be
000003f0: 8938 bfbe 3ab4 adbe d7d5 903e 7226 f2be
-0.4697336 -0.4307281 -0.6157564 0.22709103 0.2860432 0.13005656 -0.6216979 -0.7154852
-0.80329865 -0.1747205 -0.15597461 -0.27746564 0.47449267 0.38262224 0.086798616 -0.69375294
-0.68796706 -0.8001029 -0.4664143 -0.16194212 -0.5086716 0.39790732 0.08630199 -0.101705626
-0.50122 -0.8195968 -0.74577177 -1.5365753 -1.472944 -0.8910645 0.1017765 -0.174509
-0.13925715 0.21817866 0.14541121 -0.197304 -1.0811694 -1.438906 -0.6836122 0.051162712
-0.22900362 -0.4034441 0.058059875 0.14808439 0.09479392 -0.8840868 -0.9013674 -0.6064902
0.076875016 -0.4317149 -0.5535677 0.36318448 0.12358958 -0.30648485 0.44546294 1.1060089
0.43775862 -0.17708981 0.4796451 -0.23007582 -0.339523 0.28295094 -0.22483684 0.8835995
1.8793324 0.77795774 0.0027766465 0.96002996 0.03805157 0.11967366 0.7011422 -0.0318048
-0.17813796 0.34299532 0.0027946935 -0.6913976 -0.20682445 -0.59412634 -0.37103355 -0.030084202
-0.4238284 -1.0638868 -0.7283507 -0.11210295 -0.6656943 -1.0569991 -0.47750384 0.94048554
0.22858277 0.71295655 -0.72179437 -0.36438173 -0.09720484 -0.9034619 -0.8386308 -0.83247507
0.32048753 -0.20485787 0.24709533 -0.5037304 -0.16679008 -0.035770487 -0.6545105 -0.73511577
-0.75807565 0.723809 0.173812 0.6960485 0.46924034 0.43850246 0.3010746 -0.77949905
-0.8366347 -0.7681065 -0.48213366 -0.25270006 -0.18104355 0.49230403 0.694333 0.32137245
-0.95810986 -0.8586851 -0.512614 -0.27201056 -0.46793318 -0.064362675 0.20204554 0.28678307
0.1116926 -0.43891963 -0.43551263 -0.43057445 0.21666574 -0.10261962 0.22195154 -0.90151525
-1.1634486 -1.5032145 -0.044995464 -0.19845922 -0.17809378 0.9739452 0.7096048 0.55510694
-0.79646987 -0.59720236 -1.1053504 -0.18853298 -0.06875639 0.035247076 0.8250694 0.7472957
0.6731578 -1.3496772 -0.73441124 -0.90523386 -0.3209042 -0.0925086 0.21473801 0.54170346
0.6252555 0.6438537 0.030296523 0.18854499 -0.07481698 -0.23875165 -0.21566884 -0.116619125
-0.21071674 -0.2624096 -0.3844932 -0.037854966 0.33614966 0.34325227 -0.22482723 0.27303007
0.30003858 -0.031555824 -0.124992296 -0.119288445 0.08684023 0.28140447 0.29181784 -0.055973828
0.24736321 0.77333003 0.060179457 0.16666597 0.059765253 1.0381236 0.45755658 0.24943277
0.16473386 -0.23650588 -0.032896634 0.07139381 -0.33171034 -0.4796041 1.0341889 0.67337894
0.32048875 0.14372899 -0.2899003 -0.4452776 0.0978376 -0.46434125 -0.6521564 0.8355597
0.59707963 0.23334552 0.119703524 -0.26036704 -0.42015785 0.29243788 -0.27991584 -0.43813428
0.012956291 0.74058896 0.4369815 0.08992499 0.8148688 0.4923519 -0.30810994 0.6798961
0.27166218 0.38187864 1.2952138 0.99798197 0.33182117 2.1407747 1.5049691 0.010422152
1.451626 1.4385262 0.03411896 0.4354849 0.48706254 -0.39822507 0.5007069 0.3603347
-0.2932557 0.4260277 0.39336038 0.07422761 0.012721852 0.34260508 -0.19411528 -0.19651471
0.121239685 -0.11787688 -0.5258188 -0.44975683 -0.3734782 -0.33926564 0.28288147 -0.47294956

down_convs.1.conv1.bias f4 [6]
00000000: 5602 8a3d 74dc 61be c676 f6bb 8ee5 f53e
00000010: b2ff 553d 346a 713d
0.06738727 -0.22056752 -0.007521483 0.480267 0.052245803 0.058939174

down_convs.1.conv2.weight f4 [6, 6, 3, 3, 3]
00000000: 44b8 c3be 5375 83be 34e3 e0be e76a 4c3d
00000010: 7277 2e3e 4c22 f9bd 0885 e6bd eb8d 483b
00000020: d5f3 acbe c74f a63c b77a 0a3e e042 51bd
00000030: 449c 063f 21ce 633f ca5e b43e ceb4 f43e
00000040: 2fd0 a63f 23d5 493f db08 98bc ab7e d9bd
00000050: 0441 00bd 10d8 e83e e327 823f 8fec 123f
00000060: 6d7c 273f b08e e43f 7ba4 843f fec2 0a3f
00000070: df77 f13e 704a 2d3f fcbe efbd 40c5 2fbd
00000080: 8468 42be 746b eabe 9fb5 e0be 50e0 6cbe
00000090: c3f7 033f 01a9 183f 575b 3b3f 818a 2bbd
000000a0: db7d f6bd 5a99 8cbd e21e 9fbe 9613 8fbe
000000b0: 7d4e 4bbe 60ca d93e d625 1a3f e30a cf3e
000000c0: e389 24bd f8c5 4dbe c6ab 553d c2b2 acbe
000000d0: 31ee 1fbe 794f 65be 3e4a 8ebe 7d6b 24be
000000e0: 2a50 0cbf c751 e33e 2400 e13e a9cf 51bd
000000f0: c4b6 073f bc6d 6e3f d8ed 89bd cd03 2fbe
00000100: 561c 6d3e 07a6 90be a884 a63f 3561 e23f
00000110: 2242 593e 9695 cd3f 806a f83f 29bc eb3e
00000120: c759 b8be 6fbc 27be cf1c dfbe c814 1f3f
00000130: 6753 733f 0a36 303e b73c 923f f2a6 9d3f
00000140: 21ef d53e 4338 3ebe 6dda bfbd 8393 37be
00000150: 0e8a 51be d9ec 4bbe 17f1 39be ec5f 21be
00000160: 4789 b2be dadf 1abd 4691 47be a505 88be
00000170: 080b cbbe 0a21 58be e57c 00be 3ce5 97be
00000180: 5893 e0be aa0f dbbe 8a2c a5be 711d 2bbe
00000190: 5790 9abe d699 08be 68ff 1abe 72fa aebe
000001a0: aca9 34be cc87 55be 7e08 b9be 4750 04bf
000001b0: ba7e e8ba ae69 9f3e 8aff bdbe fe2e bf3c
000001c0: b92a e13e 8808 39be 65b3 a33e 9ebe eb3e
000001d0: 4aa7 493e 72bf a83e 1c3f b23f 3b56 8d3d
000001e0: fffd 2b3f ae00 e43f 0056 0c3f 637e 2d3f
000001f0: 188c c33f 1e7f 1d3f 6618 dcbc 66e1 843e
00000200: 41ef e43d dd49 d83e 20af 713f 9746 433e
00000210: 227e 1d3f 033f 893f 9fc0 123f b50a 713d
00000220: 14ae b73d 3406 353e 9fb0 bcbe 8811 f0be
00000230: 6d9c 17bf 1ee1 b9bd 0c81 1dbf 4357 cdbe
00000240: e7ea 0f3e c63a 063e ac29 fc3d 6c1c f2be
00000250: e7e7 10bf 88ac 40bf 2b13 c8be 761c 1cbf
00000260: c9d8 f7be 6a2a 89bd c216 723d 2635 583e
00000270: aaf1 04bf 72c6 30bf 6077 36bf bd95 b7be
00000280: 800c 3bbf 91f6 35bf c94d 1d3f 0d39 273f
00000290: 7800 193f a7a7 c13e 51b6 d13e df30 1b3f
000002a0: 2bd1 d2bd 8e82 303d 7290 f33e 7344 dd3e
000002b0: fea5 ca3e 1009 ea3e d1d4 68bd 2a80 25bc
000002c0: f5cd 303e dbed e3be 3a7e cebe 65b7 d3bd
000002d0: e2d6 bf3e 250c b43e 84fb b23e 075e 0dbe
000002e0: 4d1d 28be 672f ee3c c410 ecbe 3d46 a7be
000002f0: 72ed 2fbe 904a 88bf 2c9e 8bbf c0e0 a0bf
00000300: ee5a 64bf 17ff 52bf ddb4 36bf 4a46 f6be
00000310: f9ac 14bf a8d5 42bf 2fb0 22bf 905b 1bbf
00000320: 0e8d 0fbf c3c7 c2be eb31 dfbe 6f38 a5be
00000330: dd48 293c af94 74be c969 75be e77a 01bf
00000340: ce20 3ebf f64a 06bf bd63 0cbf 71ca a3be
00000350: bdab d3be 4a97 d93d 8051 2abd dc92 80bd
00000360: 9612 bfbe 728f 7038 4afa 2e3e 8c8d f4be
00000370: beaa b2be 4b16 aebb e44c 4fbe 5e06 9dbe
00000380: 066c 6d3d 4cfa 00bf ad32 e6be 1e25 1cbe
00000390: 9650 5ebf 8ed9 f8be db38 00be 2b1d b1be
000003a0: 84a8 01bf 2431 3dbe 091e adbe f365 65be
000003b0: e16f 043b 5fe6 d5be ff67 0ebf 631a 5a3d
000003c0: 237b d5be ed48 e6be 1874 433e 6311 edbe
000003d0: 68cc 00bf e4c2 6fbf 89a9 c3be 2fdc c4be
000003e0: 09f8 30bf 4d69 493e 55ec 243d 5e3f e8bd
000003f0: ad85 95be 98ad 54be 9779 aebe 4603 633d
-0.3822652 -0.2567545 -0.43923342 0.049906638 0.17037752 -0.12164745 -0.112558424 0.0030602168
-0.3377978 0.020301713 0.13523374 -0.051089168 0.5258219 0.889864 0.35228568 0.47794193
1.3032283 0.78840846 -0.01855891 -0.10619863 -0.031312004 0.45477343 1.0168422 0.5739221
0.65424234 1.7856045 1.0362695 0.54203784 0.47161767 0.6769171 -0.11706349 -0.04291272
-0.18985182 -0.45785105 -0.43888566 -0.23132443 0.5154993 0.5963288 0.7318625 -0.041880134
-0.12035724 -0.06865187 -0.3107825 -0.2794463 -0.1985416 0.42537212 0.60213983 0.40437993
-0.04017056 -0.2009505 0.05216577 -0.3373013 -0.15618207 -0.22393598 -0.27791017 -0.16056629
-0.5480982 0.4439833 0.4394542 -0.05122343 0.53013253 0.9313619 -0.06734818 -0.17091294
0.2315534 -0.2825167 1.3009233 1.7685915 0.21216634 1.6061275 1.9407501 0.46041992
-0.36005995 -0.16380475 -0.43576667 0.62141085 0.95049137 0.17208114 1.1424779 1.2316573
0.41784003 -0.1857615 -0.09367833 -0.17927365 -0.2046282 -0.19914569 -0.18158375 -0.15759248
-0.3487036 -0.037811138 -0.19489011 -0.26566806 -0.39656854 -0.21106353 -0.12547643 -0.2966708
-0.43862414 -0.42785388 -0.32260543 -0.1671045 -0.30188248 -0.13339934 -0.15136492 -0.3417545
-0.1764285 -0.20852584 -0.36139292 -0.51684994 -0.0017737963 0.31135315 -0.37109023 0.023337837
0.43977907 -0.1806966 0.31972805 0.46043867 0.19692722 0.3295856 1.392551 0.06901213
0.6718444 1.7812707 0.54818726 0.67770976 1.5277128 0.6152209 -0.026867103 0.25953215
0.111784466 0.42243853 0.94407845 0.19069897 0.6152059 1.0722355 0.57325166 0.0588481
0.0896875 0.17678148 -0.368535 -0.46888375 -0.5922306 -0.09076141 -0.61525035 -0.40105638
0.14054452 0.13108358 0.12312636 -0.4728731 -0.56603855 -0.7526326 -0.39077124 -0.6098093
-0.4840758 -0.06697543 0.059103735 0.21114025 -0.5193125 -0.69052804 -0.712759 -0.3585643
-0.7306595 -0.71079355 0.61446816 0.6532143 0.5976634 0.3782322 0.4095941 0.60621446
-0.10293802 0.043093257 0.4757114 0.43216285 0.39579767 0.4571004 -0.056843583 -0.0101013575
0.17266066 -0.44517407 -0.40330678 -0.10337714 0.3746863 0.35165516 0.34957516 -0.138054
-0.16417427 0.029075338 -0.4610654 -0.32670775 -0.17180422 -1.0647755 -1.0907645 -1.2568588
-0.8920125 -0.82420486 -0.71369725 -0.481005 -0.58076435 -0.76107264 -0.63550085 -0.6068659
-0.5607461 -0.3804303 -0.43592772 -0.32269618 0.010332313 -0.23884843 -0.23966135 -0.5057816
-0.74268806 -0.5245813 -0.5483969 -0.31990388 -0.41341963 0.10624559 -0.04158163 -0.06278011
-0.37318867 5.7354053e-05 0.17087665 -0.47764242 -0.3489589 -0.005312716 -0.20244175 -0.3066892
0.057964347 -0.5038192 -0.44960538 -0.15248534 -0.86841714 -0.4860348 -0.12521689 -0.34592566
-0.5064776 -0.18475777 -0.33811978 -0.22402172 0.0020208287 -0.41777322 -0.55627435 0.05324782
-0.41695508 -0.44977513 0.19087255 -0.46302328 -0.503119 -0.93656754 -0.38215283 -0.38449237
-0.6912847 0.19669075 0.040264446 -0.11340211 -0.2920355 -0.20769346 -0.3407714 0.055423044

down_convs.1.conv2.bias f4 [6]
00000000: 7053 87bd 23f9 ca3c 03a7 4cbd 12dd 97bc
00000010: 0259 9e3a d4f7 ca3c
-0.06607711 0.024777 -0.049963962 -0.018538032 0.001208097 0.024776377

down_convs.1.norm0.weight f4 [6]
00000000: cd31 8b3f a0ad 0e40 fbdf 2d3f 4bc6 c53f
00000010: a94f 613f c455 a53f
1.0874573 2.2293472 0.6791989 1.5451139 0.88012177 1.2916799

down_convs.1.norm0.bias f4 [6]
00000000: 5547 fa3e 1a43 fa3c 6b97 94bf 7f78 d03d
00000010: d029 d2be fb6b 72be
0.48882547 0.030549575 -1.1608709 0.10179233 -0.41047525 -0.23674004

down_convs.1.norm0.running_mean f4 [6]
00000000: 42f1 9dc0 db32 a8c0 9674 d740 048c 1abf
00000010: bcc8 c440 da3f 12be
-4.9357004 -5.256208 6.7329817 -0.60369897 6.1495037 -0.1428217

down_convs.1.norm0.running_var f4 [6]
00000000: 6b8e 8142 21cd c042 1431 6a43 d081 3a43
00000010: d29f 9943 44dd ed42
64.77816 96.40064 234.19171 186.50708 307.2486 118.93216

down_convs.1.norm1.weight f4 [6]
00000000: f3f6 633f e5ff 923f c3e6 b43f 936e c03f
00000010: e93c 4d3f 35a7 7e3f
0.8904869 1.1484343 1.4132923 1.5033745 0.80171067 0.9947389

down_convs.1.norm1.bias f4 [6]
00000000: df69 a4bd b148 283e 096d fc3e 8be4 2ebf
00000010: 24ef ecbe e618 41bf
-0.08028006 0.1643398 0.49301937 -0.6831748 -0.462762 -0.75428617

down_convs.1.norm1.running_mean f4 [6]
00000000: 529e 7840 ccba 0ec1 e55d f6c1 cba8 f1c0
00000010: 2634 3dc1 0a81 85c0
3.884663 -8.920605 -30.795847 -7.5518546 -11.825232 -4.172002

down_convs.1.norm1.running_var f4 [6]
00000000: 4759 8643 8187 9543 4b7b 8743 75cf 0843
00000010: 4719 8a43 1ca0 5543
268.69748 299.05862 270.96323 136.81038 276.19748 213.62543

down_convs.2.conv1.weight f4 [12, 6, 3, 3, 3]
00000000: 2ce5 353f fd13 473e ebed e13e a115 903e
00000010: 9590 60be 9482 e03c 7418 a03d 1719 23bf
00000020: 8ce2 86be 9c04 ff3e 7992 fdbd d053 d83d
00000030: 46eb ee3d 4281 1dbf efea c5be c633 91be
00000040: 4f0f 8cbf ab27 4fbf 5275 193f 7001 9b3e
00000050: eb2b 4e3e 4a25 e13e 0325 9abe 9d2e 07be
00000060: b233 ed3d 65a9 11bf d26e 33bf c5c6 003e
00000070: 5060 e93e 1b06 e3be f126 37bf 88fd 02bf
00000080: 140f 62bf 13f6 b03d 200e d23d 1f00 dbbd
00000090: c388 3f3f fd74 7f3f b801 f33e 1f05 88be
000000a0: 82b0 70bd 991a 92be aa70 0c3d 2942 4e3e
000000b0: 74da ab3d c061 063f bea1 f63e 01a6 2e3e
000000c0: cd7f 02bf 57d7 55be ee09 d1be bb8b 5fbe
000000d0: a089 a2bd c2cb 69bd 7658 99bf 3b82 42bf
000000e0: 355a 78bf 9c88 32bf 4120 87be 47b4 debe
000000f0: 6757 873e ab08 233f ffce 263f 5ec0 5cbf
00000100: 7e48 9dbe 29d5 d0be b896 50be f168 a23e
00000110: 1c03 003e a1c2 0f3f 196c 993f 44b4 9c3f
00000120: a9ea 92bf 5481 2dbf 45a3 f9be 24c3 48bf
00000130: 327f 3c3d f6df dc3d fb44 aa3e 79c6 613f
00000140: b946 993f 2f56 183f 46a0 ef3e 86ca 593d
00000150: e127 33be 701f ecbe a63d b3be 9258 093e
00000160: aeda 56be 2df0 1b3e 7471 f13e de2f d63e
00000170: 2dca 7b3e 3a54 20bd b5ff 0abf 3128 acbe
00000180: 4fa3 823e 40f6 6bbe 9684 bebd 88f6 bc3e
00000190: 0ec3 663e 9eaa 793e 9eab 323e d64e 42be
000001a0: 30d9 59bd 6615 1d3f 1218 053e 25e4 173e
000001b0: a8cf 133f 453b 143f 37a3 673f 3a59 bdbb
000001c0: d212 61bd 6a71 9d3e 7120 933e 0656 933e
000001d0: 2837 d93d 3e39 453f 328a 023f b020 373f
000001e0: 2b65 0f3d d181 58be bc6a 073d b9e3 9f3e
000001f0: e72e 963e 6f42 ab3e effd 6d3f d334 4e3f
00000200: baa5 693f 0b1b 363e 822d 08be d0fb 95bd
00000210: b4d8 743e d6dd 863e 1d1b c43d b118 4e3e
00000220: e290 4e3e 93c7 ff3e 1b92 4a3e 21d2 fb3d
00000230: cf09 853e 18a6 7abe a22d 4fbd 94c0 a6bd
00000240: a423 783e d233 883d 1a74 9e3e d931 7d3e
00000250: 38ae 973e 0415 183e a714 4b3d 568e 1f3e
00000260: 00c1 423e 80b0 0a3f 8d5c 953e 89ee cb3e
00000270: ff40 e83e c9a0 9a3e 4998 cc3d e875 a4bd
00000280: 190c d73d f1a3 2d3e 5d9b 9fbd cd9d 543d
00000290: 36d3 d03e 5e21 aa3e f53c 9d3e 19f2 133f
000002a0: bb83 843e 5f83 0c3d a5c8 613e 0886 e3be
000002b0: 1b95 18bf 284e efbc d70d 08be fbad fbbe
000002c0: ca26 b5be c7ee dcbe 0362 1bbf a294 03bf
000002d0: e528 d7bd 0252 5ebe 12c7 93bd 3f6d 2cbe
000002e0: 1511 1bbf 5103 e2be e17a fabe f6f6 6dbf
000002f0: e842 3abf 8415 093f 1104 ea3e 78ce c53e
00000300: 7915 be3d 24eb d43d d637 9a3c cbd9 39bf
00000310: 792b 07bf 9826 f63d 809e 833f 0a3e 9d3f
00000320: 4737 a53f b666 cd3e 0458 803f 57bc 863f
00000330: 9007 5fbf 1b18 cdbe c9f2 c23e 852f 583f
00000340: d385 923f ed45 d53f 7972 f3be 56b2 8b3e
00000350: 64fa 353f 21d6 d1bf aaa1 80bf cf27 bbbd
00000360: 4e6e 413f 805c 193f 85db 203f 3d5a bebe
00000370: 3827 26bf 5fbf 0bbf 446d acbe c4b4 74be
00000380: 2809 ce3d 33bf a83f 88e2 de3f 048f df3f
00000390: c0e7 543e cc78 c53e 4202 243f 63d0 853e
000003a0: 183b 253f 3e1a 4f3f f618 913f 75ee be3f
000003b0: 95ce d33f 5679 04be 6649 0d3f 946a 2c3f
000003c0: 636b 2bbe 9638 f93e b88c 5a3f f6f0 1c3d
000003d0: 23e9 8ebd 0bce bf3b 714d abbe eaf2 4dbe
000003e0: e70f 313d 9405 4cbf f527 29bf 8a52 a2bd
000003f0: 185e ac3c 2bf6 433d c4c7 483e 8690 a1be
0.71052814 0.19441219 0.4412683 0.28141502 -0.21930154 0.027406015 0.07817164 -0.6371016
-0.26344717 0.49808204 -0.12381453 0.10562861 0.116659686 -0.61525357 -0.38655803 -0.28359812
-1.0942172 -0.80919904 0.5994464 0.30274534 0.20133941 0.43973762 -0.30106363 -0.13201375
0.11582126 -0.568991 -0.70090973 0.12575825 0.45581293 -0.44340596 -0.71543795 -0.5116811
-0.8830426 0.08640685 0.102566004 -0.106933825 0.74818057 0.99787885 0.4746225 -0.26566407
-0.05876208 -0.28535917 0.034287132 0.20142426 0.08391276 0.52492905 0.48170274 0.17055513
-0.5097626 -0.20882927 -0.40827888 -0.21830647 -0.07936406 -0.057079084 -1.1980121 -0.75979966
-0.97012645 -0.697397 -0.26391795 -0.43496916 0.2643387 0.636851 0.651596 -0.8623103
-0.3071937 -0.40787628 -0.20369995 0.3172069 0.12501186 0.56156355 1.1986114 1.2242513
-1.1477863 -0.67775464 -0.48757377 -0.7842276 0.04601974 0.10784905 0.33255753 0.8819347
1.1974708 0.59506506 0.46801966 0.053171657 -0.17495681 -0.46117735 -0.35007972 0.13412693
-0.20981857 0.15228339 0.4715687 0.41833395 0.24588843 -0.039142825 -0.5429643 -0.33624414
0.2551522 -0.23043156 -0.093026325 0.36906838 0.22535345 0.24381492 0.1744828 -0.18975386
-0.05318564 0.61360776 0.12997463 0.14833124 0.57738733 0.5790294 0.9048342 -0.005778459
-0.05494959 0.3075059 0.28735688 0.28776568 0.10606223 0.7704047 0.5099212 0.7153425
0.03500859 -0.21143271 0.033060774 0.31228426 0.2933266 0.33449122 0.92965597 0.80549353
0.91268504 0.17783754 -0.1329861 -0.0732342 0.2391079 0.26341122 0.09575484 0.20126607
0.20172456 0.4995695 0.19782297 0.12295938 0.25984046 -0.24477422 -0.05058063 -0.081422
0.24232346 0.06650509 0.30947953 0.24726047 0.29625106 0.14851767 0.049580242 0.1558164
0.19018936 0.5417557 0.29172173 0.39830425 0.45362088 0.30200794 0.099899836 -0.08030301
0.10500354 0.1695707 -0.07793305 0.051908303 0.4078614 0.33228582 0.3071057 0.57791287
0.25881752 0.034304973 0.22049196 -0.44438195 -0.59602517 -0.029212072 -0.1328653 -0.49156174
-0.35381156 -0.43150923 -0.6069643 -0.5139867 -0.10505847 -0.21710971 -0.07215704 -0.16838549
-0.6057294 -0.44143155 -0.48921874 -0.9295496 -0.7275834 0.53548455 0.45706227 0.38634086
0.09281439 0.10396412 0.018825453 -0.7259795 -0.5280071 0.1201908 1.0282745 1.2284558
1.2907494 0.40117425 1.002686 1.0526227 -0.87120914 -0.40057454 0.38075855 0.8444751
1.144709 1.6661965 -0.47548273 0.27284497 0.7108519 -1.6393472 -1.0049336 -0.09138452
0.75558937 0.5990677 0.6283496 -0.3717822 -0.64903593 -0.54588884 -0.33677113 -0.23897082
0.1006034 1.3183349 1.7412882 1.746552 0.2079153 0.38568723 0.64065945 0.2613555
0.64543295 0.8089942 1.1335742 1.4916521 1.6547419 -0.12936911 0.5519012 0.67350125
-0.16740184 0.48675984 0.8537097 0.038315736 -0.06978061 0.0058534197 -0.3345752 -0.20112196
0.043228056 -0.7969601 -0.66076595 -0.07925899 0.021040961 0.047842186 0.19607455 -0.31555575

down_convs.2.conv1.bias f4 [12]
00000000: 459f 71bb 0391 09bc a582 aabc 8e46 f73b
00000010: 8892 abbb d879 173b 7217 a73b f250 973a
00000020: aa61 edba ada8 2739 dfc7 4fbc 4a84 b8bb
-0.0036868614 -0.00839639 -0.02081425 0.0075462526 -0.0052359737 0.0023113396 0.0050992304 0.0011544509
-0.0018110771 0.00015989198 -0.01268193 -0.0056310045

down_convs.2.conv2.weight f4 [12, 12, 3, 3, 3]
00000000: a679 71bd 7c09 80bd ce8d 873c 84f6 073e
00000010: 4d4c 8a3d eb76 f73d d646 7c3d 7498 ad3e
00000020: cf9d 083e 64b9 4fbe 109a d0bd 6d00 20bc
00000030: 3a93 243e e627 7e3d c53f 0a3e ef9f c6bd
00000040: 0fe3 ac3e 51f5 b93e 14c3 f6be d5cd dcbe
00000050: f395 86be 1ff7 1cbd c893 8fbd 78cd b3bb
00000060: 7a19 88b9 136a b73e dfdc 8c3e c84b e4be
00000070: 026a 26bf 85c9 04bf d54f f83e 5154 cd3e
00000080: 1748 083e 882a 803f b101 c93e 40d1 023f
00000090: 5f31 04bf c3f6 bfbe 75d8 eabe c527 483e
000000a0: b4d5 91bc 95eb 1dbc a32c 093f 2c31 f33c
000000b0: d404 c13c b9ee f6be 92ef d6be 8768 14bf
000000c0: 8fef 1cbd 37ae 69be c107 c0be d1d9 e93e
000000d0: 0154 1ebe 1f5e 97be e1bf 233e fedf 79bf
000000e0: ff74 d8bf bb02 8c3e 3597 87be a574 0bbf
000000f0: e9fa 1e3f 36d9 9c3e aad3 133f 2dbd cc3d
00000100: eae1 52bf 58a9 bdbf 93c7 7f3e ce2a b4be
00000110: 5021 15bf 7d10 bb3e 1cad 80bd a3c4 5e3e
00000120: 10e4 8dbe 3db9 8dbf 001a bfbf 8a95 f63e
00000130: 53e1 4fbd 41ae cdbe f528 543f 22b6 703e
00000140: 857b b23e bf41 fabf cb7d 47bf f1bd 353e
00000150: 59c9 6bbf df3c dcbe 3ea6 4c3e 4b74 0a3f
00000160: 49f4 f83e 332e e93e 0f99 c1bf d04f c5be
00000170: 1367 2a3f 8ee7 76bf 8a07 31be 05a7 9d3e
00000180: 2e65 1f3e 13db 1d3e 59fc 9b3d c9ef bebf
00000190: 12b1 02bf db52 5a3e 021c 0bbf c7b1 c2bd
000001a0: 99d9 c33e 0864 bd3d 5f83 843d b1d9 893c
000001b0: 7f2c 053e f722 9c3e 650c 1b3f 4d7e d1be
000001c0: 816f 623e e282 c13e d23b 84be 2cbb c33c
000001d0: ba1e 3b3d 6bce 493e f2b1 473e 0c07 023f
000001e0: d7b3 88be abd4 593e 207c be3e 34ec e5be
000001f0: a9df 3cbe 8296 b2bd a220 dd3e da1c cb3e
00000200: a0d9 e33e cb75 c9be ecb5 013d 3902 6b3e
00000210: 8a83 1bbf d8a6 abbe 1e9e 0bbe 47d4 ca3f
00000220: e3b2 773f 9167 0a3f 2b08 833f 19a5 183f
00000230: 1b04 363f 68cc 0d3e 619c 20be b408 353e
00000240: f95b 9e3f 08e4 163f 9727 213e c008 333f
00000250: 23c7 f33d fc4b 693e 62a0 3ebe e601 c0be
00000260: 63fb 69be 5ebc 3c3f fb1b 1a3e 662a 30be
00000270: d71a 1b3f 4570 393b c781 393d 93ca 5fbd
00000280: c28e 83be 21ad a6bd 2b44 eebd 2799 9f3e
00000290: 1ef6 5c3e 206f e5be 15cb 8b3e 1d13 b83e
000002a0: cf9d 2ebe 75d8 e1bc cbaf 313f 0445 24be
000002b0: a96d c53e 0940 c93e 6437 8dbd bc16 d63e
000002c0: 0509 083f 1fcd 2dbd fd1c 343d cfff f13e
000002d0: 290c 2abf c63d 64bd 324c eebd f9cf bfbe
000002e0: 8364 3f3e 6d6a 8f3e fc4b 5fbd 2f16 523e
000002f0: cbab c53e 8b77 2bbe b552 d23d 8bd2 e43d
00000300: 2548 65bd f9d2 593d 1233 26bc 0272 87bd
00000310: 90f5 c9bb d830 14bd 4f1a d4bd 29b9 413d
00000320: ed83 c53d caff bbbd 75f4 993d 6266 b73d
00000330: 2b46 c73d c7c3 943d 31bd 0c3c 80c3 5dbe
00000340: 0a2a 0abe 4939 4fbe 6564 6cbe 733d 1cbe
00000350: 9e8c 15be 602c 3dbe 0686 b5bd 237b cc3c
00000360: 2662 ac3e d6d6 6ebc e716 eb3d 3bad 803e
00000370: 008a 36bc 9ecf 2a3e 0eb7 5f3d 8adb fdbd
00000380: d809 d5ba 0cb7 103e a81d 1bbe cdca 84bc
00000390: 680c 6d3e b4b9 343e 0ee9 753e 062d 8ebc
000003a0: f61b 40be f07e 5cbe 3070 64bd 63e2 15be
000003b0: 844c 14be 9cdb 493e e04b ab3d 941b 5a3e
000003c0: 3e85 67be 981b c1be 37f7 c4be e973 d23e
000003d0: 2b85 67bc e308 b3be 063d a93e e3dd e53e
000003e0: 1446 403e 85e8 9ebe b2ff 1cbe e973 67be
000003f0: f824 bcb9 d672 abbe 5ac0 96be 92a8 903e
-0.058953904 -0.06251809 0.01654711 0.13277632 0.067528345 0.12083229 0.061590992 0.33905375
0.13341449 -0.20285565 -0.10185635 -0.0097657265 0.16071787 0.06204977 0.13500889 -0.09698474
0.33766982 0.36319974 -0.48195708 -0.43125787 -0.26286277 -0.03832161 -0.07010609 -0.0054871403
-0.00025958923 0.35823116 0.2751226 -0.44589067 -0.65005505 -0.51869994 0.48498407 0.4010339
0.1330875 1.001298 0.39259103 0.5110054 -0.51637834 -0.37492952 -0.4586827 0.19546421
-0.017802097 -0.009638687 0.53583735 0.029686533 0.023561873 -0.48229006 -0.41979653 -0.57971996
-0.0383144 -0.22820364 -0.37505916 0.45673993 -0.15461732 -0.29563996 0.15991165 -0.9760741
-1.6910704 0.27345833 -0.2648255 -0.5447486 0.6210161 0.3063447 0.5774485 0.0999702
-0.8237597 -1.4817305 0.24978475 -0.35188907 -0.58253956 0.36536017 -0.06283018 0.21754698
-0.2771306 -1.1072155 -1.492981 0.48160964 -0.050751995 -0.40172008 0.82874995 0.23506978
0.34859863 -1.9551314 -0.7792632 0.17748238 -0.9210411 -0.4301519 0.19985291 0.540837
0.48623875 0.4554306 -1.5124835 -0.38537455 0.6656353 -0.96447074 -0.17288032 0.30791488
0.1556594 0.15415601 0.07616491 -1.4916927 -0.5105144 0.2132067 -0.5433961 -0.095065646
0.3825195 0.09247595 0.064703695 0.016827436 0.13005255 0.30495426 0.6056579 -0.40916672
0.22112848 0.37795168 -0.2582689 0.023892961 0.0456836 0.19707648 0.19501474 0.50792
-0.26699707 0.21272533 0.37204075 -0.4490677 -0.18444695 -0.08720113 0.4318896 0.3967045
0.44501972 -0.3934768 0.031667635 0.22950067 -0.6074759 -0.3352573 -0.13634536 1.5846032
0.96757334 0.5406428 1.0236868 0.5962692 0.71100014 0.13847506 -0.15684654 0.17679101
1.2371818 0.589417 0.15737759 0.69935226 0.11903217 0.22782892 -0.18615869 -0.37501448
-0.22849803 0.73724926 0.15049736 -0.17203674 0.6058783 0.0028295678 0.04528978 -0.05463655
-0.25694853 -0.081384905 -0.11634096 0.31171533 0.21578261 -0.44811344 0.27303377 0.35952082
-0.17052387 -0.027569035 0.69408864 -0.16041952 0.38560227 0.39306667 -0.068953305 0.4181422
0.5313876 -0.042431947 0.043972958 0.4726548 -0.66424805 -0.055722974 -0.11635627 -0.37463358
0.18690686 0.28010884 -0.054515824 0.20516275 0.3860763 -0.16744821 0.10269681 0.111729704
-0.055977006 0.053179715 -0.010144012 -0.06613542 -0.0061633065 -0.036179394 -0.103565805 0.047295723
0.096443035 -0.09179647 0.075173296 0.08955075 0.0973018 0.07263904 0.008590029 -0.21656609
-0.13492599 -0.20236696 -0.23085172 -0.15257816 -0.14604422 -0.18473959 -0.088634536 0.02496106
0.3366863 -0.014577588 0.11478978 0.25132164 -0.0111413 0.16680762 0.054617934 -0.123953894
-0.0016253544 0.14132327 -0.15148032 -0.016209984 0.23149264 0.17648965 0.24014685 -0.017355453
-0.18760666 -0.21532798 -0.055771053 -0.14637141 -0.14482313 0.1971268 0.083640814 0.21299583
-0.22609422 -0.37716365 -0.3846986 0.41104057 -0.014130871 -0.34967718 0.3305437 0.4489585
0.18776733 -0.31036773 -0.15331915 -0.2260281 -0.00035885698 -0.3348605 -0.29443628 0.2825361

down_convs.2.conv2.bias f4 [12]
00000000: 9adf 563c 4cae a63c 8bf2 85bc 5331 c03b
00000010: dd3a e83a 8225 42b9 af8d b7ba f9ac e7bb
00000020: f1cc aa3c 80dd 233a 6ec2 483c 9b71 42bb
0.013114834 0.020346783 -0.016351005 0.005865255 0.0017717738 -0.00018515254 -0.0014004017 -0.0070701805
0.020849677 0.00062509626 0.012253387 -0.0029669765

down_convs.2.norm0.weight f4 [12]
00000000: 0132 413f 89f8 8c3f c3a2 bb3f fa27 c83f
00000010: 47e9 c13f 650e b63f 363f 953f a00a 403f
00000020: 8c43 c73e 49cc 7a3f ebaa 9a3f 0829 ab3f
0.75466925 1.1013347 1.4659046 1.56372 1.5149316 1.4223143 1.1659915 0.7501621
0.38918722 0.97967964 1.208341 1.3371897

down_convs.2.norm0.bias f4 [12]
00000000: edfb 8dbe 203b 0a3e 2c24 9abe d9e8 24bf
00000010: 71a3 d73e c95b 94bd 7a33 7e3e fdb9 863e
00000020: bcd4 4a3e 3594 73be 0f5d 61bf 6a65 a03e
-0.27731267 0.13499117 -0.30105722 -0.644178 0.42116883 -0.07244069 0.24824324 0.26313773
0.19807714 -0.23787005 -0.8803262 0.31327373

down_convs.2.norm0.running_mean f4 [12]
00000000: 531a 8b3f b6cd 3341 709a 3b41 8fbb c540
00000010: 8950 1a40 82fc 3141 8410 9d40 1a8b adc1
00000020: 25b3 12c0 97ed 18c1 6c60 0a41 e38f 473e
1.0867409 11.237722 11.725204 6.1791453 2.4111655 11.124147 4.908266 -21.69292
-2.292184 -9.558005 8.6485405 0.19488482

down_convs.2.norm0.running_var f4 [12]
00000000: 4d61 9842 9542 5c43 dfa3 2243 361e 2043
00000010: 5303 e743 bc36 e043 ae23 ea42 8494 0645
00000020: bef1 c843 28b0 a143 293a 3043 6934 ca43
76.19004 220.26009 162.64012 160.11801 462.02597 448.4276 117.06969 2153.2822
401.8886 323.37622 176.22719 404.40945

down_convs.2.norm1.weight f4 [12]
00000000: 848e 713f 00c5 b13f 8d71 853f 934d 0240
00000010: 25c1 c13f 9037 1b3f 9ce6 243f 9fbe 2f3f
00000020: 9062 0940 bda0 a03f 85ba 8d3f 16cd c33f
0.94358087 1.3888245 1.0425278 2.0359848 1.5137068 0.60631657 0.6441438 0.6865024
2.1466408 1.2549053 1.1072546 1.5296962

down_convs.2.norm1.bias f4 [12]
00000000: c16f 07be 1402 823e be97 4a3d f20c a0be
00000010: af23 5cbf 5e71 bfbe 22af 6abf d3c8 eabe
00000020: 071a bbbd fbcb 3e3f f836 023e 3b85 bbbe
-0.13226224 0.2539221 0.04946112 -0.31259876 -0.8599195 -0.3739118 -0.9167348 -0.45856342
-0.09135824 0.7453 0.12716281 -0.36625084

down_convs.2.norm1.running_mean f4 [12]
00000000: 812d f8bf 07df cec0 bf18 1dc0 d371 98c1
00000010: da4c 7a40 4ccb 9540 e655 e841 4b68 0740
00000020: ffdd 59c1 9ca3 63c1 a007 b0c1 48e3 17c2
-1.9388887 -6.464725 -2.4546354 -19.055578 3.9109406 4.6810665 29.041943 2.1157405
-13.616698 -14.227444 -22.003723 -37.971954

down_convs.2.norm1.running_var f4 [12]
00000000: 1afc f142 4bb3 2c43 a6cb a543 9fa3 d043
00000010: 9fe4 ce42 0bd9 0044 7a67 ca43 57bd 0e43
00000020: f30f bc43 12e2 8d43 87b5 6543 0c3b ed43
120.992386 172.70036 331.591 417.2783 103.446526 515.3913 404.8084 142.73961
376.1246 283.76617 229.70909 474.4613

down_convs.3.conv1.weight f4 [24, 12, 3, 3, 3]
00000000: 31c8 483e 6f15 b83d a2e7 d33e 03d5 a3bc
00000010: 3257 e3be 8be2 19be 58ea 37bf 0359 9bbe
00000020: 234e 163f cb36 a2bd fba1 8abd c450 ba3d
00000030: 1330 b6bc 3248 87be b7ef bbbd c710 123e
00000040: cd5b 4c3f b313 813f ed3c 23be 9e87 95be
00000050: 7137 30be 14eb b93d 1701 65bd cdb6 e0bd
00000060: 4fbf a63f 9bbe a23f e4b7 aa3e d9f1 4fbf
00000070: b6d6 68bc 59f8 c1bc 0234 11bd 1c5a ec3e
00000080: cbfe 36bf e177 e03e a127 393e 132a c4bd
00000090: 8412 b6bd 7b2c 8e3e e27e 9f3e 32b1 6b3e
000000a0: a576 563f 9cba 37bd 3fa6 6fbd 5048 27be
000000b0: 06ad f0be ef30 0dbe ce87 363e b8a1 fb3e
000000c0: a975 9bbf 8164 40be 9695 38bb 12c2 31bf
000000d0: df3b 13bf ee14 1dbf f51a 483e 264f 023e
000000e0: 7141 1e3f bf84 88bd 9b9c 6f3e 684e 8e3f
000000f0: 2573 c6be aa1e 823c bd76 fb3e dcb1 8f3e
00000100: 6912 0f3f a2ad 753f 4a45 fa3e f979 ab3f
00000110: 404f 8d3f bb33 993d a346 fb3e a3f6 6c3e
00000120: b5a0 0a3f efc5 363f 0374 003f 78f6 863f
00000130: 45a0 853f 7654 cfbc 6ea8 533f f487 663e
00000140: d128 c3be c3f8 683f a6a5 6f3f 120d 2f3f
00000150: 8ab4 a6be 7f7c fd3e cbc8 d0be 0ab3 213e
00000160: a0f0 f03e b8b7 77be 76f3 9e3f a0d5 4e3f
00000170: 9d2c af3e 86c5 0a3f b597 b73f fab4 fa3e
00000180: 4623 633e c72d 0b3f 6699 843e d9e3 8d3f
00000190: f1bb 443f 787f 723d 2f0a 7c3e a68c 9c3f
000001a0: b8a7 b23e f05c 27be 3af1 743e 6307 92bd
000001b0: 6429 0abf 86cd 253e 2666 1abf a330 c53c
000001c0: 1bd0 94be 782f 93bf 67df 5f3e fd1c 22bf
000001d0: 44b1 1fbf d921 203c 9413 003f 4648 293d
000001e0: de31 40be c175 113c 96a9 bdbe f6e4 babe
000001f0: e539 1dbf 9d55 13bf c30d 03bf 46ad 2b3e
00000200: 808f ce3e 01e8 84bf 79a0 b5be 9892 5b3e
00000210: 1627 08bf 30a2 f5be 81a8 a7be 254f 89be
00000220: 63bb 833d e3f5 f73d cffc 053f 3980 523f
00000230: 3192 5d3f 54e3 13be 19ab 093e a0f8 273f
00000240: 9922 ba3b f2fb ca3e 73d1 fd3e 64db 093f
00000250: f458 303f adf9 053f cd96 043e ab91 9b3d
00000260: eab1 3e3d a43c 6c3d f04e 833e d499 503e
00000270: 910b 433f 0fba c93e c8d2 6c3e f069 303f
00000280: bbff 913e ddcb a03d 71fb 12bf 6061 5fbe
00000290: a69c b3be 5c3c 7fbf 3244 3bbf 6fd1 82bf
000002a0: 8103 743e 4362 b33d b0fe 4c3d 4291 8ebc
000002b0: 046e d63d 9a1f 4fbe 98ae d0be 21ae babd
000002c0: 3241 14bf d54e ffbd bee3 02be 2713 17be
000002d0: 489f c4bd 89a2 9e3d 7d7a 15be 005d 65bf
000002e0: def8 0bbf 462f 4fbf 1e44 b9be 47ee b7be
000002f0: 1426 85be 7269 4abe 944e bdbe 05a4 6ebe
00000300: bc7a f73e 0048 963e b024 1b3f 1f0f 4d3f
00000310: 6caf 323f 4cfc fb3e 26e5 eebd 5739 6abd
00000320: be2d 083c f7d6 e13e 14f7 813e cc29 c03e
00000330: 6f64 363f c04d ef3e 40b5 ab3e 8ee3 83be
00000340: bfcc 7f3d 6e5d d6bc 8819 e63e 4015 803e
00000350: 2c5f 893d 18b3 4c3f d30a 0a3f 6b89 fe3e
00000360: 4047 af3e bf2c d13d dbc7 ab3e faf2 39be
00000370: 8125 0f3f bbf2 81be 4472 c83d 3913 2d3f
00000380: 0010 66be fedc f23e cfba 403e aa67 db3d
00000390: 0a4c 5d3f 8834 923f 0bf6 333e dfbf 1b3f
000003a0: ced5 403f 2371 6e3d 590e 323f 2465 ff3e
000003b0: c4ce 343e cc47 123f 2f47 563f ba02 ab3d
000003c0: 69c8 8cbd de3e 6e3e 2dd0 a3bd 6897 62be
000003d0: 1c88 c83d 2748 c33e 4a0f f63d 2c03 8a3e
000003e0: eb6f bb3e cbab 86be 9743 27be 68ea 963e
000003f0: 5e54 6a3e 9e4d 1b3f dbed 683f 73cb 493f
0.19607617 0.08988463 0.4138766 -0.019999033 -0.44402462 -0.15027826 -0.71841955 -0.30341348
0.5871298 -0.07920607 -0.067691766 0.09097436 -0.02223972 -0.26422268 -0.09176581 0.14264213
0.79827577 1.0084137 -0.1594121 -0.2920503 -0.17208649 0.09078041 -0.055909242 -0.109723665
1.3027133 1.2714418 0.33343422 -0.81228405 -0.014211347 -0.023677992 -0.03544999 0.46162498
-0.71482533 0.4384146 0.18081523 -0.095783375 -0.0889025 0.2776831 0.3115149 0.23016813
0.8377479 -0.0448557 -0.058508154 -0.16336179 -0.47007006 -0.13788198 0.17825243 0.4914682
-1.2145282 -0.18788339 -0.0028165332 -0.6943675 -0.5751323 -0.6136006 0.19541533 0.12725505
0.61818606 -0.06665944 0.23399584 1.1117678 -0.38759723 0.015883762 0.49114028 0.28065383
0.55887467 0.9596807 0.48880988 1.3396598 1.103981 0.0748057 0.4907733 0.2314096
0.5415147 0.7139577 0.5017702 1.0543966 1.0439535 -0.025308829 0.8267888 0.225128
-0.38117078 0.9100458 0.93612134 0.6837932 -0.32559615 0.49509045 -0.40778193 0.15790954
0.47058582 -0.24191177 1.2418048 0.80794716 0.34213725 0.54207647 1.4343172 0.489662
0.22181424 0.54366726 0.25898284 1.1085159 0.76849276 0.059203595 0.2461326 1.2230422
0.34893584 -0.16344047 0.23920146 -0.07130315 -0.5396941 0.16191682 -0.60312116 0.024071043
-0.29065022 -1.1498861 0.21862565 -0.6332548 -0.6237986 0.009773695 0.50029874 0.04132869
-0.18769023 0.008878172 -0.37043446 -0.36502808 -0.61416465 -0.5755251 -0.51192874 0.16765317
0.40343857 -1.0383302 -0.35473993 0.2144264 -0.5318464 -0.47975302 -0.32745746 -0.26818195
0.064322256 0.12107446 0.5233888 0.822269 0.86551195 -0.14442188 0.13444175 0.65613747
0.005680394 0.39645344 0.4957386 0.5385039 0.6888573 0.523341 0.12948151 0.07596143
0.04655639 0.05767502 0.25646162 0.20371181 0.76189524 0.39399764 0.23127282 0.6891165
0.2851542 0.07851384 -0.5741492 -0.2181449 -0.3508045 -0.99701476 -0.7315093 -1.0220164
0.23829462 0.08758976 0.050047576 -0.017403249 0.104702026 -0.20226899 -0.40758204 -0.09115244
-0.5791198 -0.12466208 -0.12782189 -0.147534 -0.09600693 0.07745845 -0.14597507 -0.8959503
-0.54676616 -0.8093151 -0.36184782 -0.3592398 -0.26005614 -0.19766787 -0.36974013 -0.23304756
0.48335826 0.29351807 0.60602856 0.801012 0.6979892 0.49215925 -0.116648 -0.05718359
0.008311687 0.44109318 0.25383818 0.37531888 0.71247 0.46739006 0.3353672 -0.25759548
0.06245112 -0.026167598 0.44941354 0.25016212 0.06707606 0.79960775 0.53922766 0.49714217
0.34234047 0.10213613 0.33550915 -0.18159094 0.559166 -0.253805 0.097874194 0.67607456
-0.22467041 0.4743423 0.18821262 0.10713132 0.8644415 1.1422281 0.17574327 0.6083965
0.7532624 0.058213364 0.6955314 0.49881852 0.17657 0.57140803 0.8370237 0.083501294
-0.06874163 0.2326617 -0.07998691 -0.2212807 0.09791586 0.38140985 0.12014635 0.26955545
0.36608824 -0.26302943 -0.16334377 0.29475713 0.22883746 0.6066531 0.9098794 0.78826064

down_convs.3.conv1.bias f4 [24]
00000000: f3c4 f0b9 ed47 213b 8d5b dc38 b013 353a
00000010: 86bf 2bbb e44e c239 1d59 de3a 9cf7 39ba
00000020: e629 1d37 d115 f337 26f5 833b f7e1 3837
00000030: d7e5 96b8 91b1 bb3a bd75 0eba ff48 4d3b
00000040: 4b09 eab4 2500 1ab7 839c 39b7 53f1 9bb8
00000050: 242e 80b7 9882 7eb9 c6f0 933b a74d ae3a
-0.00045923106 0.0024609521 0.0001050747 0.0006907536 -0.0026206686 0.00037061342 0.0016963814 -0.00070940866
9.3676845e-06 2.8978016e-05 0.0040270267 1.1019866e-05 -7.1953684e-05 0.0014319887 -0.00054344145 0.0031324027
-4.3592658e-07 -9.179149e-06 -1.10633e-05 -7.435926e-05 -1.5280275e-05 -0.00024271978 0.0045147864 0.0013298289

down_convs.3.conv2.weight f4 [24, 24, 3, 3, 3]
00000000: a894 ec3d e56a 123e 54fd 44bf 03b2 c1be
00000010: fa53 31bf c1fb bdbf 80b9 243f 3bc2 a93d
00000020: 7812 433d 45e6 ddbe 5b92 29be cf38 5bbf
00000030: a7c0 17bf 23c1 9fbe d5ce 76be d6b8 f53e
00000040: 8677 d03d 075e d93e 594e 03c0 0448 9dbf
00000050: bb1c b0bf fe2e 00c0 c5ad 60bf 5881 093d
00000060: ade8 a8bc f2c9 733e 1996 253f 2da2 2a3f
00000070: 34a1 703f caf4 033f 2c05 a4bf 353f d2be
00000080: 09ca b4bf 38c3 9a3f 7019 443f 3c13 b2be
00000090: e4d3 b13e 5699 303f 860a e53e 0686 d0be
000000a0: d9e4 ec3e 7151 c33e 8e3c 433f 4a9d 3e3e
000000b0: 7752 69be d183 6abf b6ee abbd 664e 85be
000000c0: 4940 04c0 a384 a0be dfbf 833e 88b8 98bd
000000d0: e1d9 a23e 6796 343f 9ffb 6fbd 63bd 14bf
000000e0: 9c2d 93bf 1db3 99be a599 cfbe b8be f1be
000000f0: 0ee4 a2be ca1a adbe 440a 00bf a6c1 903d
00000100: 2f55 4fbf 39e4 87bf 6758 30bf bb46 1dbf
00000110: 09ff c3be d0b9 c1be c2a4 eabe a281 18bf
00000120: 455e 4f3d 6105 1abf 3880 75be 6a24 10bf
00000130: 1a91 0dbf a7b2 9dbe 9b38 ffbe 2005 14bf
00000140: aa25 28bf d863 4cbe 9994 d7be a41a 80bf
00000150: 704d a83e 15f1 34bf b94f dabf c08c 4e3e
00000160: fc01 06bf 30f7 c0be 7703 04bf 2a8d b0be
00000170: 342a 38bf 6c3c fabe f73e 2fbf 695b 8cbf
00000180: a7dc e4bd 3f93 bcbe add8 473e b103 fbbf
00000190: 1568 b9bf 8e5e a3bf 06ac 13c0 314a e2bf
000001a0: a724 a2bf 9da3 86be 2425 efbd 713c f23e
000001b0: e1f0 403e 0917 353f 5dcc 7c3e 9278 adbe
000001c0: 1580 f13e ca41 7dbb ca5f 3b3f f030 713f
000001d0: be19 62be dacd 30be 64b5 1f3f 066c bf3e
000001e0: b4a7 4cbe 9cfa fc3e ed27 0cbd 0956 9ebe
000001f0: c43a 5a3e 8581 02bf 2216 1ec0 cba0 4dbf
00000200: 9be7 f8be 3d3c 92be 6d1e 8b3f 892e 3d3f
00000210: 797d 523f f2dc b63f 600f af3f 1f4e df3d
00000220: b6dd abbe b2eb 94bf c58d 48be fedc 50bf
00000230: a560 89bf f5bd 503e d95f 89be 1d7f febe
00000240: 81aa 143f eb16 e9bd 8388 3dbf f825 adbe
00000250: 03ae 3cbf 1026 15bf 376b 0d3f 9166 bcbe
00000260: cfe3 5cbf 8f98 573f 00d4 513f edf9 0b3f
00000270: 0e68 2ebf 57eb 14bf 6fad 7abf 8af1 0f3e
00000280: a1cb edbe a013 6fbf ae74 583e 4020 223e
00000290: 6038 c63d e0dc 64bf 2082 67bf 2a94 d9bf
000002a0: 4c6a c53e 7224 2cbf 621b b9bf 5d00 aa3e
000002b0: 4882 9e3e d37a e63e bf00 3cbf d537 34bf
000002c0: ea3a eebf d06d 08bf bfd1 25bf 7c86 77bf
000002d0: aa4b 963e d6e4 ab3e 8c95 1a3f 1c47 d6bf
000002e0: 840e aebf 8497 c1bf 9ae2 48bf a49b 46bf
000002f0: 88ec a8be ce60 c3be 66cd 00c0 3589 60bf
00000300: 7d00 ba3f 0637 883c 9369 23bf d2c3 9f3f
00000310: 151a 933e 0a5f 313f a55d 4ebf 3801 f0bf
00000320: c352 a3bf 057f a13f 379e e03e 1196 303e
00000330: a1e1 e53e 5f47 773e 33db 573f 9610 c0bf
00000340: aabe c6bf 6157 9abe 9f9c 9e3e 0049 4c3e
00000350: 6929 8d3c cf48 5b3f ef0c 6c3f fe56 e53f
00000360: 68a3 d5bd ae97 5abc 1d0f 803d 6c6e 643e
00000370: 25a6 933e bed8 48bd 9d22 543d 1869 773b
00000380: 9cee 0fbe f877 0fbd 34ae 533e df23 89bd
00000390: fbf9 2f3e b6c0 bc3d 0b3b ae3d 5a30 0b3e
000003a0: a03e 403d 4f93 2dbe a472 46bd 80fa 3c3c
000003b0: a244 c03a ebb9 713d 3c5e e33d 5f3e 86bc
000003c0: 5373 28bd d378 a5bd fd3f 5cbe b762 1f3e
000003d0: 732c 9a3d 2ee2 323d ee1b 46be d60c cebe
000003e0: c1d5 ecbe 6535 2dbe 4393 6abe ee85 90be
000003f0: 19d8 de3d efd9 b83c cdcd 243d ecaa be3b
0.115517914 0.1429859 -0.7694905 -0.37831125 -0.69268763 -1.4842454 0.6434555 0.08289
0.047625035 -0.43339744 -0.16559736 -0.8563356 -0.5927834 -0.3120204 -0.24102338 0.4799258
0.10179047 0.4245455 -2.051657 -1.2287602 -1.3758768 -2.0028682 -0.8776515 0.033570617
-0.020618761 0.23807505 0.64682156 0.6665371 0.93995976 0.51545393 -1.2814078 -0.41063848
-1.4124156 1.2090826 0.76601315 -0.347803 0.34731972 0.6898397 0.4473459 -0.40727252
0.46268347 0.38148072 0.76264274 0.18614689 -0.22785364 -0.91607386 -0.0839514 -0.26036376
-2.0664237 -0.31351194 0.25732324 -0.074570715 0.31806853 0.70541996 -0.058589574 -0.5810148
-1.1498294 -0.30019465 -0.4054691 -0.4721582 -0.31814617 -0.338095 -0.50015664 0.070681855
-0.80989355 -1.0616523 -0.6888489 -0.6143605 -0.38280514 -0.37837076 -0.45828825 -0.59572804
0.05062701 -0.6016446 -0.23974693 -0.56305563 -0.5529953 -0.30800363 -0.49847874 -0.5782032
-0.6568247 -0.19959962 -0.4210556 -1.000813 0.3287158 -0.7068036 -1.705558 0.2017088
-0.5234678 -0.3768859 -0.51567787 -0.344827 -0.71939397 -0.48874223 -0.6845545 -1.0965396
-0.111748986 -0.3683109 0.19516249 -1.9610502 -1.4484888 -1.2763231 -2.3073745 -1.7678891
-1.2667435 -0.26296702 -0.11677006 0.47311738 0.18841888 0.70738274 0.24687333 -0.3388105
0.4716803 -0.003864395 0.7319304 0.942153 -0.22080132 -0.17266026 0.62386155 0.37387103
-0.19985849 0.4940995 -0.034217764 -0.30925015 0.2131148 -0.5097888 -2.4701009 -0.80323476
-0.486142 -0.28561583 1.086866 0.7389913 0.82222706 1.4286177 1.3676567 0.10903572
-0.3356759 -1.1634429 -0.19585331 -0.8158721 -1.0732619 0.20384963 -0.26830938 -0.49706355
0.5807267 -0.113813244 -0.74036425 -0.3381803 -0.7370302 -0.58261204 0.5524172 -0.36797002
-0.8628511 0.8421716 0.8196411 0.5467823 -0.68127525 -0.581716 -0.9792089 0.14056984
-0.4644442 -0.9338932 0.2113826 0.15832615 0.096787214 -0.8939953 -0.9043293 -1.6998341
0.3855766 -0.6724311 -1.4461482 0.33203402 0.30958772 0.45015582 -0.7343864 -0.7039769
-1.8611729 -0.5329256 -0.6477317 -0.9668958 0.29354602 0.33573025 0.6038444 -1.6740451
-1.359818 -1.5124364 -0.78470767 -0.7758124 -0.3299296 -0.38159794 -2.0125365 -0.8770936
1.4531399 0.0166278 -0.6383297 1.2481635 0.28730837 0.69285643 -0.8061164 -1.8750372
-1.2759632 1.2616888 0.43870708 0.17244746 0.44898704 0.2414832 0.84318846 -1.5005062
-1.5526936 -0.3014479 0.30978867 0.19949722 0.01723166 0.8565797 0.92207235 1.7917173
-0.10431558 -0.013341827 0.06252883 0.22307748 0.28837696 -0.049034826 0.051790822 0.003775185
-0.14055866 -0.03502652 0.20671922 -0.06696295 0.17185204 0.09216444 0.08507355 0.13592663
0.046934724 -0.16950725 -0.048449174 0.011534333 0.0014668892 0.059015196 0.11101958 -0.016387163
-0.041125607 -0.08079686 -0.21508785 0.15565 0.07528009 0.043672733 -0.19346592 -0.40244168
-0.4625683 -0.169149 -0.22907738 -0.2822718 0.10881061 0.022564856 0.04023533 0.0058187153
