outputs_full_mask/epoch_20_model.pth (torch, 694790 bytes, 241 tensors)

down_convs.0.conv1.weight f4 [3, 1, 3, 3, 3]
0	0xbd1e34b8	-0.038624495
1	0x3e854b8a	0.26034194
2	0x3ea44890	0.3208661
3	0xbe4ccef9	-0.20000829
4	0x3e99e2cb	0.30055842
5	0x3dd6c468	0.1048668
6	0xbf51fdaa	-0.82027686
7	0xbe57e3f0	-0.21083045
8	0xbf1c4b7e	-0.6105269
9	0x3e754338	0.23951423
10	0x3ff0568f	1.8776416
11	0x3fb12820	1.384037
12	0x3defd406	0.11710362
13	0x3faf9f05	1.3720404
14	0x3f605183	0.87624377
15	0xbf00e7f8	-0.50353956
16	0xbe00fa52	-0.1259549
17	0x3d61da74	0.055139974
18	0x3d35732a	0.044299282
19	0x3f263bc3	0.6493494
20	0x3ec13b9d	0.37740794
21	0xbebe45ec	-0.3716272
22	0x3ee904d2	0.4551149
23	0x3eb7e91a	0.3592003
24	0xbf20bb4e	-0.62785804
25	0xbd4817b6	-0.048850738
26	0xbe1da2ed	-0.15394183
27	0xbf1a1d8c	-0.60201335
28	0xbe933f3f	-0.2875919
29	0xbf04529c	-0.5168855
30	0xbe36a11f	-0.178349
31	0x3e807429	0.25088623
32	0x3e0cd239	0.13752069
33	0x3ed66554	0.41874182
34	0x3f490ddc	0.7853677
35	0x3ec1175f	0.37713143
36	0xbf0e3a22	-0.55557454
37	0xbea5d023	-0.32385358
38	0xbf1dbc0d	-0.6161507
39	0x3d3617fc	0.044456467
40	0x3e5db0ee	0.21649525
41	0x3e5e6290	0.21717286
42	0x3f7a17e4	0.97692704
43	0x3f90d48c	1.1314864
44	0x3f3adb82	0.7299119
45	0xbf1fe0b1	-0.62452227
46	0xbeb549d6	-0.35407895
47	0xbf13ca8d	-0.5773094
48	0xbdd173a2	-0.10227133
49	0x3e2b81ce	0.16748735
50	0xbe3ff942	-0.18747428
51	0x3f215758	0.630239
52	0x3f668a73	0.90055007
53	0x3f4a8dbe	0.7912253
54	0x3e9402d6	0.28908414
55	0x3f800020	1.0000038
56	0x3eec3d35	0.46140447
57	0x3b879c21	0.004138485
58	0x3e2112ea	0.15729871
59	0x3df4182d	0.11918674
60	0xbf3a687c	-0.7281568
61	0xbf03cf89	-0.5148855
62	0xbf46d1a6	-0.7766365
63	0x3f5e92f7	0.86943
64	0x40014128	2.0196018
65	0x3f6cc174	0.92482686
66	0x3e556452	0.2083905
67	0x3f1ffeac	0.62497973
68	0x3ee633bc	0.44961345
69	0xbf1208cc	-0.5704467
70	0xbe844145	-0.25831047
71	0xbeac5ba8	-0.33663678
72	0x3dbd44bc	0.09241626
73	0x3f92cb21	1.146824
74	0x3e9ad915	0.30243745
75	0x3e134aa6	0.14383945
76	0x3e829f19	0.25512007
77	0xbc8949cc	-0.016758822
78	0xbf16c76d	-0.5889805
79	0xbf0b6714	-0.5445416
80	0xbec22c71	-0.3792453

down_convs.0.conv1.bias f4 [3]
0	0xbe9c4f0f	-0.30529067
1	0xbe4bb467	-0.19893037
2	0x3cf4717a	0.029839266

down_convs.0.conv2.weight f4 [3, 3, 3, 3, 3]
0	0xbeb29469	-0.34878853
1	0xbed49ce4	-0.41525948
2	0xbe881b31	-0.26583245
3	0xbdc30371	-0.09522141
4	0xbe66248e	-0.22474882
5	0xbeaa0e15	-0.3321387
6	0x3df61ba7	0.12016993
7	0x3d95335f	0.07285189
8	0xbe3913f1	-0.18074013
9	0xbe95440e	-0.29153484
10	0xbe36eb96	-0.17863306
11	0xbe81d783	-0.25359735
12	0xbe5ad446	-0.21370038
13	0xbe2481eb	-0.16065185
14	0xbe5e96c0	-0.21737194
15	0x3e271064	0.16314846
16	0x3d7a25ae	0.06107109
17	0x3d6e7545	0.058217306
18	0xbe81cc86	-0.25351351
19	0xbcf7469f	-0.030185042
20	0xbe4ce904	-0.20010763
21	0xbaf10172	-0.0018387272
22	0xbe791197	-0.24323116
23	0xbeb4eed7	-0.3533847
24	0x3dd7ac8a	0.10530956
25	0x3da4728d	0.08029661
26	0x3e599f25	0.21252115
27	0xbef10928	-0.47077298
28	0xbe905f5e	-0.2819776
29	0xbdf5ce7f	-0.12002277
30	0x3ea5f2f3	0.32411918
31	0x3f186d84	0.5954211
32	0x3ec98c98	0.39365077
33	0x3f5ddb95	0.8666318
34	0x3fa32df2	1.2748396
35	0x3fb3f412	1.4058859
36	0x3d7cae67	0.06168976
37	0xbe90a0f7	-0.28247806
38	0xbe94374c	-0.28948438
39	0x3f2468a9	0.642222
40	0x3f86a933	1.0520386
41	0x3f115aa8	0.56778955
42	0x3fba8fa9	1.4575092
43	0x3fd11088	1.633317
44	0x3fb5d3b6	1.4205234
45	0xbe96d70c	-0.29460943
46	0xbe8981c3	-0.26856813
47	0xbd811018	-0.06301898
48	0x3ec1e874	0.3787266
49	0x3f0a3f40	0.5400276
50	0x3eca1c81	0.39474872
51	0x3f9304b3	1.1485809
52	0x3fcc00ce	1.5937746
53	0x3f9abea0	1.2089424
54	0xbefa3c16	-0.48873967
55	0xbf03f902	-0.5155183
56	0xbeb363f1	-0.35037187
57	0xbf290fed	-0.66039926
58	0xbf2f541d	-0.6848772
59	0xbf365856	-0.7122854
60	0xbe73fe85	-0.2382756
61	0xbe8c5d11	-0.27414754
62	0xbea83b7d	-0.32857886
63	0xbe966538	-0.293741
64	0xbf247ff7	-0.6425776
65	0xbf0e1042	-0.5549356
66	0xbf21fa23	-0.63272303
67	0xbf3d8539	-0.74031407
68	0xbf3d9cb5	-0.7406724
69	0xbea9a1ba	-0.331312
70	0xbdc4ddc8	-0.09612614
71	0xbe3f7b6a	-0.18699422
72	0xbef23dc7	-0.47312757
73	0xbef063c2	-0.4695111
74	0xbf0e7300	-0.55644226
75	0xbf0ee2b4	-0.5581467
76	0xbf07c41d	-0.5303362
77	0xbebb7eb8	-0.36620116
78	0xbe913068	-0.28357244
79	0xbe2e6cf9	-0.17033757
80	0xbee74082	-0.45166403
81	0x3eba6cb0	0.36411047
82	0x3ece8b87	0.40340826
83	0x3f2b1d00	0.66841125
84	0x3dae00c8	0.08496243
85	0xbdafea9e	-0.085896716
86	0x3d217049	0.039413724
87	0xbe0737e4	-0.13204914
88	0xbe7f0c26	-0.24906978
89	0xbeb1c25b	-0.34718594
90	0x3e5d1652	0.21590546
91	0x3e8525ea	0.2600549
92	0x3f27d747	0.6556286
93	0xbe82a0e8	-0.25513387
94	0xbe18c7b0	-0.14919925
95	0x3dfd7da2	0.12377478
96	0xbf049cf9	-0.5180202
97	0xbe90a590	-0.28251314
98	0xbe4af513	-0.19820051
99	0x3ec3df6c	0.38256395
100	0x3eb676dd	0.3563756
101	0x3f2524c2	0.6450921
102	0x3e76bb04	0.24094778
103	0xbd945205	-0.072422065
104	0x3ecb250a	0.39676696
105	0xbebb681c	-0.36602867
106	0xbe4198f4	-0.18906003
107	0xbe86cc4c	-0.2632774
108	0xbfad83b0	-1.3555813
109	0xbf9f6523	-1.245274
110	0xbf960ca2	-1.1722605
111	0xbec0db50	-0.37667322
112	0xbf08b689	-0.53403527
113	0xbf335a50	-0.7005968
114	0x3e8a1366	0.26967925
115	0x3f26f40e	0.6521615
116	0x3f2081fc	0.6269834
117	0xbfabfc25	-1.3436323
118	0xbf7c17f1	-0.9847403
119	0xbf81ea5c	-1.0149646
120	0xbf0fd031	-0.5617705
121	0xbe14b93e	-0.1452379
122	0xbed4f985	-0.41596618
123	0x3f468c9b	0.77558297
124	0x3f1ef00f	0.6208505
125	0x3f3d8a44	0.740391
126	0xbfe1e86a	-1.7649052
127	0xbf9f1d9a	-1.2430909
128	0xbf7a2b0c	-0.97721934
129	0xbeae4f19	-0.34044722
130	0xbed68fa1	-0.41906455
131	0xbef1981e	-0.4718637
132	0x3f36e610	0.714448
133	0x3f2878eb	0.65809506
134	0x3f0c9a04	0.5492251
135	0x3f29b825	0.6629661
136	0x3ee45410	0.44595385
137	0x3f2d1fe2	0.67626774
138	0xbd937f87	-0.07202058
139	0xbb2b5f9e	-0.0026149522
140	0x3e527f2f	0.20556329
141	0xbe4c9ca9	-0.19981636
142	0xbebbaec7	-0.36656782
143	0xbf030e19	-0.51193386
144	0x3ed9825e	0.42482275
145	0x3ef807ce	0.48443455
146	0x3ef360b5	0.4753472
147	0xbe5b69f5	-0.21427138
148	0xbeef5b04	-0.46749127
149	0xbde2c7b6	-0.11073248
150	0xbf0b0ed8	-0.54319525
151	0xbf1708f6	-0.5899805
152	0xbf186145	-0.5952342
153	0x3f379d3b	0.7172429
154	0x3eff6849	0.4988425
155	0x3efde569	0.4958909
156	0xbcc7ed5c	-0.024405174
157	0xbdb53242	-0.088474765
158	0x3e4c5dbe	0.19957635
159	0xbedc861c	-0.43071067
160	0xbeaf1241	-0.34193614
161	0xbee20c52	-0.44150025
162	0x3f48bb41	0.78410727
163	0x3f5a5985	0.85292846
164	0xbe0b4449	-0.13600267
165	0x3eb7532c	0.35805643
166	0x3e9d99b9	0.30781344
167	0xbee30cd9	-0.4434574
168	0x3e6e5bfe	0.2327728
169	0x3e103b5c	0.14085144
170	0xbef7f3b4	-0.48428118
171	0x400c2c1f	2.190193
172	0x4015d1fe	2.340942
173	0x3ee8720b	0.45399508
174	0x3f27d5d1	0.6556063
175	0x3f45bdbf	0.77242655
176	0xbe52c2a4	-0.20582062
177	0x3eab4b14	0.33455718
178	0x3eb8b6b1	0.36076882
179	0xbc1c70ed	-0.009548408
180	0x3f809d58	1.0048018
181	0x3fa48dc9	1.2855769
182	0x3e4ea59a	0.2018036
183	0x3e86c306	0.26320666
184	0x3e2e4eda	0.17022267
185	0xbf13649e	-0.57575405
186	0x3e568c82	0.20952037
187	0x3e86cb83	0.26327142
188	0x3e86c426	0.26321524
189	0xbe92be20	-0.2866068
190	0xbeb894b4	-0.3605095
191	0xbed427b7	-0.4143655
192	0x3dc5e285	0.09662346
193	0x3e108414	0.14112884
194	0x3ebf1995	0.37324205
195	0x3d8a703c	0.06759688
196	0xbdf1321f	-0.11777138
197	0x3dbda172	0.09259309
198	0xbe91cb91	-0.2847562
199	0xbf1e24a7	-0.6177468
200	0xbf505194	-0.8137448
201	0x3ed87333	0.4227539
202	0x3e912648	0.2834952
203	0x3eb5fbd5	0.35543695
204	0xbd2b7e28	-0.04186836
205	0x3dda11b1	0.106479056
206	0x3d3c2be5	0.0459403
207	0xbcc8c542	-0.024508122
208	0xbdd69aa6	-0.104787156
209	0xbee2152e	-0.44156784
210	0x3f23dcd9	0.6400886
211	0x3f500244	0.8125346
212	0x3f1cf862	0.613165
213	0xbcdd4484	-0.02701021
214	0x3d48ce4f	0.049024876
215	0x3e09e940	0.13467884
216	0x3e2edefe	0.17077252
217	0x3eb0680a	0.34454376
218	0xbd3df9d0	-0.046380818
219	0x3e6c9646	0.231042
220	0x3eb918bf	0.36151692
221	0xbea2960d	-0.31755105
222	0x3ce0be81	0.02743459
223	0x3e6b15fd	0.22957607
224	0xbd4be6cf	-0.049780663
225	0x3f6b11c8	0.9182401
226	0x3ff8e343	1.9444355
227	0x3f1c4402	0.6104127
228	0x3ea753e3	0.32681188
229	0x3f7ab378	0.979301
230	0x3d9944e3	0.07483842
231	0x3ed53787	0.41643927
232	0x3f13082a	0.5743433
233	0x3e8220f5	0.2541577
234	0x3ef6a495	0.4817244
235	0x3f92d838	1.1472235
236	0x3f0a652f	0.54060644
237	0xbd701af9	-0.058619473
238	0x3e91dbed	0.28488103
239	0xbe4c6ce3	-0.19963412
240	0x3ebd1dcc	0.36936796
241	0x3f0c46a5	0.54795295
242	0x3db7e35e	0.08978914

down_convs.0.conv2.bias f4 [3]
0	0x3c84646c	0.016161166
1	0xbfb0938e	-1.379503
2	0xbfa2da41	-1.2722856

down_convs.0.norm0.weight f4 [3]
0	0x3f6b3576	0.9187845
1	0x3fc9caa2	1.5764964
2	0x3f7612c2	0.9612237

down_convs.0.norm0.bias f4 [3]
0	0x3d706bf7	0.058696713
1	0x3b4fa1b9	0.0031682088
2	0x3ec0c9ab	0.3765386

down_convs.0.norm0.running_mean f4 [3]
0	0xbea7d0dd	-0.32776538
1	0xbe172fb7	-0.14764296
2	0xbcc6c049	-0.02426161

down_convs.0.norm0.running_var f4 [3]
0	0x41d9051c	27.127495
1	0x414d3011	12.824235
2	0x41c11de0	24.139587

down_convs.0.norm1.weight f4 [3]
0	0x3f9d0e57	1.2270001
1	0x3f4d6614	0.80233884
2	0x3f85cf88	1.0453959

down_convs.0.norm1.bias f4 [3]
0	0xbe73f355	-0.23823293
1	0x3e743ce9	0.2385136
2	0xbe05f84c	-0.13082999

down_convs.0.norm1.running_mean f4 [3]
0	0x3e753087	0.23944293
1	0xc0a210a8	-5.064533
2	0x40ecdc84	7.4019184

down_convs.0.norm1.running_var f4 [3]
0	0x438fd710	287.68018
1	0x436174ae	225.45578
2	0x437c3cf1	252.23805

down_convs.1.conv1.weight f4 [6, 3, 3, 3, 3]
0	0xbef94187	-0.48682806
1	0xbeb4ee87	-0.35338232
2	0xbf16fb03	-0.58976763
3	0x3e328240	0.17432499
4	0x3e968180	0.29395676
5	0x3e0bc84a	0.13650623
6	0xbf4f903f	-0.8107948
7	0xbf5c9844	-0.8616984
8	0xbf66758d	-0.9002312
9	0xbd31bb36	-0.04339143
10	0x3d906645	0.07050756
11	0xbe0ae2b4	-0.13563043
12	0x3ef74607	0.48295614
13	0x3ede0b77	0.43368122
14	0x3de312f5	0.110876
15	0xbf571aa2	-0.84025013
16	0xbf4c7313	-0.7986309
17	0xbf5f8438	-0.87311125
18	0xbe9699c9	-0.29414204
19	0x3d5ff18c	0.054673716
20	0xbeca546d	-0.39517537
21	0x3ee15d9b	0.44016728
22	0x3e0ab29a	0.13544694
23	0xbdd1bd7f	-0.10241222
24	0xbf1bc136	-0.6084169
25	0xbf6606d0	-0.89854145
26	0xbf4c329c	-0.79764724
27	0xbfe2c4fd	-1.7716366
28	0xbfcfecd5	-1.624415
29	0xbf83d1c5	-1.0298392
30	0xbdafe918	-0.08589381
31	0xbea41a1d	-0.32051173
32	0xbe7709c5	-0.2412482
33	0x3e4bdf8a	0.19909492
34	0x3e57be2c	0.21068639
35	0xbe0a8a53	-0.13529329
36	0xbf979945	-1.1843649
37	0xbfbe4ec1	-1.4867784
38	0xbf3b032b	-0.7305171
39	0x3cfdf42b	0.031000217
40	0xbe87244a	-0.26394874
41	0xbedceaa1	-0.43147758
42	0x3ea82fa1	0.32848838
43	0x3ef55d68	0.47922826
44	0x3ec799f9	0.3898466
45	0xbf807e88	-1.0038614
46	0xbf7bbefa	-0.9833828
47	0xbf314f1b	-0.6926133
48	0x3e56aadc	0.20963615
49	0xbea85d5e	-0.32883734
50	0xbef41f13	-0.47679958
51	0x3f4a2261	0.7895871
52	0x3f15cd07	0.5851597
53	0x3e0109fe	0.12601468
54	0x3ee70a5a	0.45125085
55	0x3f9aa580	1.2081757
56	0x3ef7036f	0.48244807
57	0xbe25b3a2	-0.16181806
58	0x3f13c630	0.57724285
59	0xbe3f19f2	-0.18662241
60	0xbebf1fc7	-0.37328932
61	0x3e9d68c9	0.30744007
62	0xbe78c1e2	-0.2429271
63	0x3f68f9d8	0.9100623
64	0x40006e68	2.0067387
65	0x3f58896c	0.8458469
66	0x3d64115d	0.05568062
67	0x3f8ca133	1.0986694
68	0x3ddee3a1	0.108832605
69	0x3dfdadc0	0.12386656
70	0x3f444a57	0.76675934
71	0xbcb85f16	-0.022506278
72	0xbe3553d8	-0.17707765
73	0x3ed17eff	0.40917203
74	0x3d150a14	0.036386564
75	0xbf260423	-0.6485006
76	0xbdebdb97	-0.11516493
77	0xbf0d4186	-0.55178106
78	0xbebabea9	-0.36473587
79	0x3c8e4faf	0.01737198
80	0xbed8d28a	-0.4234813
81	0xbf9373fe	-1.1519773
82	0xbf82c41d	-1.0216099
83	0xbed498f2	-0.41522938
84	0xbf3b18f0	-0.73084927
85	0xbf99fb27	-1.2029771
86	0xbf22fbb6	-0.6366533
87	0x3f767c43	0.9628336
88	0x3e58d954	0.21176654
89	0x3f3a5570	0.7278662
90	0xbf348eb5	-0.70530254
91	0xbef328df	-0.4749212
92	0xbe409bf4	-0.18809491
93	0xbf84d526	-1.0377548
94	0xbf76ad15	-0.9635785
95	0xbf722635	-0.9458955
96	0x3eb86049	0.3601096
97	0xbe7b562c	-0.2454459
98	0x3e761e85	0.2403508
99	0xbed8ee86	-0.4236948
100	0xbe09bb04	-0.13450247
101	0x3d165374	0.03670068
102	0xbf3d135a	-0.73857653
103	0xbf54db98	-0.83147573
104	0xbf54a5ac	-0.83065295
105	0x3f539c49	0.8266035
106	0x3e46eee3	0.19427066
107	0x3f385c77	0.7201609
108	0x3f0c9a1d	0.5492266
109	0x3ed3bba0	0.41354084
110	0x3e2aa150	0.16663098
111	0xbf57d97e	-0.8431624
112	0xbf5390a6	-0.8264259
113	0xbf0710fc	-0.5276029
114	0xbee79dd8	-0.45237613
115	0xbea860e9	-0.32886437
116	0xbe6bab3c	-0.2301454
117	0x3f44d199	0.7688232
118	0x3f5f3cb4	0.87202
119	0x3ea2fbcf	0.3183274
120	0xbf8e3fc9	-1.1113216
121	0xbf8176f8	-1.0114431
122	0xbec71ede	-0.38890737
123	0xbe0f49a2	-0.13992932
124	0xbee0e8da	-0.43927652
125	0xbcf129bd	-0.029438848
126	0x3ed3f8c8	0.41400743
127	0x3ecdf026	0.4022228
128	0x3cab57e7	0.020915939
129	0xbea9ce75	-0.33165327
130	0xbebff3d9	-0.37490728
131	0xbe596cdf	-0.21232937
132	0x3ed83c63	0.4223357
133	0x3b867e9a	0.0041044476
134	0x3eaf200c	0.34204137
135	0xbf8e4091	-1.1113454
136	0xbf9c772f	-1.2223872
137	0xbfbdacc2	-1.4818347
138	0xbe684d08	-0.22685635
139	0xbeaf9847	-0.34295866
140	0xbe48ea21	-0.19620563
141	0x3f695363	0.91142863
142	0x3f1c2760	0.6099758
143	0x3efe3664	0.49650872
144	0xbf753504	-0.9578402
145	0xbf1c5f60	-0.6108303
146	0xbf8689d0	-1.0510807
147	0xbeb92fd5	-0.36169305
148	0xbe355115	-0.17706712
149	0x3daf8cee	0.08571802
150	0x3f4bdfc1	0.79638296
151	0x3f3953b3	0.7239334
152	0x3f37ad2c	0.71748614
153	0xbfc206a9	-1.5158283
154	0xbf49114b	-0.7854201
155	0xbf64d79f	-0.8939151
156	0xbed828e0	-0.42218685
157	0xbe005c01	-0.12535097
158	0x3ea3914b	0.31946787
159	0x3f087b99	0.53313595
160	0x3f260e9e	0.64866054
161	0x3f3f688d	0.74768907
162	0x3e4bd660	0.19905996
163	0x3eacc53e	0.33744234
164	0x3d0375b1	0.03209466
165	0xbe8d50e0	-0.27600765
166	0xbe573cfc	-0.21019357
167	0xbd9da61a	-0.07697697
168	0xbe82ef96	-0.25573415
169	0xbea8fdb1	-0.3300605
170	0xbed9c1dd	-0.42530718
171	0x3de2ad6c	0.11068234
172	0x3eec3418	0.46133494
173	0x3edb12ec	0.42787874
174	0xbe8ec37d	-0.2788352
175	0x3e8d9a42	0.27656752
176	0x3eae5db2	0.3405586
177	0xbe2e1c02	-0.17002872
178	0xbe8af661	-0.27141097
179	0xbe7178ba	-0.2358121
180	0x3e3d7580	0.18501854
181	0x3eb6c1e8	0.35694814
182	0x3ea9d253	0.33168277
183	0xbdb5254d	-0.08845005
184	0x3e86ac48	0.26303315
185	0x3f52dd98	0.82369375
186	0xbde5172a	-0.11186059
187	0xbb4790a6	-0.0030451207
188	0xbda055f4	-0.07828894
189	0x3f747aa2	0.9549962
190	0x3f01f990	0.5077143
191	0x3eda5468	0.42642522
192	0x3ed37683	0.41301355
193	0x3d8228b3	0.06355419
194	0x3e95516e	0.29163688
195	0x3e0f3d4a	0.13988224
196	0xbe03e351	-0.12879683
197	0xbdfa52cd	-0.12222824
198	0x3f91c6b8	1.1388769
199	0x3f6aaebf	0.9167289
200	0x3f30254e	0.6880692
201	0x3f01574c	0.5052383
202	0x3d8fb6ad	0.070172645
203	0xbde44a36	-0.11146967
204	0x3ea02d6c	0.31284654
205	0xbe356021	-0.17712452
206	0xbe6bd213	-0.23029356
207	0x3f89e548	1.0773096
208	0x3f7827fd	0.9693602
209	0x3f388389	0.72075707
210	0x3f2089aa	0.6271006
211	0x3e6b210b	0.22961824
212	0x3d036b88	0.03208497
213	0x3f1fe2e5	0.6245559
214	0x3e151df1	0.14562203
215	0x3e1f05c4	0.15529543
216	0xbded242d	-0.115791656
217	0x3f35b1bc	0.70974326
218	0x3ec032cd	0.37538758
219	0x3dac3983	0.08409407
220	0x3f65f852	0.8983203
221	0x3ee64344	0.44973195
222	0xbee34945	-0.44391838
223	0x3f1bc432	0.60846245
224	0x3d9e59f8	0.07732004
225	0x3eb73786	0.3578455
226	0x3fb6fb4d	1.4295441
227	0x3f9221ba	1.1416543
228	0x3ed2511a	0.410775
229	0x40197629	2.397837
230	0x3fcce019	1.6005889
231	0xbd7aa259	-0.061189983
232	0x3fc06a4b	1.5032438
233	0x3fae69d2	1.3626044
234	0xbbe6b683	-0.0070408
235	0x3f0b9b3d	0.5453375
236	0x3f2175c8	0.63070345
237	0xbed1d9ec	-0.40986574
238	0x3f110dde	0.56661785
239	0x3eb3f5cc	0.35148466
240	0xbee87ebf	-0.454092
241	0x3eb52297	0.35377952
242	0x3e8378ff	0.2567825
243	0x3d802cb7	0.06258529
244	0xbe1e5e4f	-0.15465663
245	0x3e55abce	0.2086632
246	0xbdbe343f	-0.09287309
247	0xbe4d422f	-0.20044778
248	0x3df2cb76	0.11855213
249	0xbda20f87	-0.07913118
250	0xbf0ad07d	-0.5422438
251	0xbeea2a4d	-0.45735398
252	0xbeb4be1c	-0.35301292
253	0xbee45014	-0.44592345
254	0x3e7ae2dc	0.24500602
255	0xbedec6ce	-0.4351105

down_convs.1.conv1.bias f4 [6]
0	0x3d905675	0.0704774
1	0xbe609fae	-0.21935913
2	0xbcd333bb	-0.025781503
3	0x3ef06430	0.46951437
4	0x3c9abadb	0.018887928
5	0x3d40f6a5	0.04711022

down_convs.1.conv2.weight f4 [6, 6, 3, 3, 3]
0	0xbecca2f1	-0.39968064
1	0xbe91d940	-0.2848606
2	0xbef2118c	-0.47279012
3	0x3db9fdfb	0.09081646
4	0x3e50843d	0.20362945
5	0xbdeaf36c	-0.1147221
6	0xbd454392	-0.048160143
7	0x3d56669d	0.052343953
8	0xbea1385b	-0.31488308
9	0x3d927832	0.07151832
10	0x3e375e4c	0.17907065
11	0xbb046635	-0.0020202522
12	0x3f188ff1	0.5959464
13	0x3f7bad40	0.98311234
14	0x3ee4fd62	0.44724566
15	0x3f1d4738	0.61436796
16	0x3fb99cfb	1.4501032
17	0x3f64026d	0.890662
18	0x3cfe8e60	0.031073749
19	0xbd43e282	-0.047823437
20	0x3d4e0090	0.050293505
21	0x3f03d12e	0.5149106
22	0x3f8f11e1	1.1177331
23	0x3f36dd86	0.7143177
24	0x3f414a75	0.7550424
25	0x3ff432d3	1.907801
26	0x3f93122a	1.1489918
27	0x3f2bc993	0.6710445
28	0x3f16318e	0.58669364
29	0x3f1a7002	0.6032716
30	0xbc8f824a	-0.017518181
31	0x3d179f11	0.037016932
32	0xbe031cb2	-0.12803915
33	0xbeb10fae	-0.34582275
34	0xbeae1f22	-0.34008127
35	0xbe054fb9	-0.13018693
36	0x3f2bdb5c	0.6713159
37	0x3f3a089b	0.7266938
38	0x3f3613c8	0.71123934
39	0x3c801b83	0.015638119
40	0xbd76d1b6	-0.06025859
41	0xbc0b1f9d	-0.008491424
42	0xbe550bfc	-0.20805353
43	0xbe3557c2	-0.17709258
44	0xbdb8151a	-0.089884
45	0x3f17e22e	0.593295
46	0x3f40c819	0.75305325
47	0x3ec83ca3	0.39108762
48	0xbd04f783	-0.032462608
49	0xbe2df7f0	-0.16989112
50	0x3d97566b	0.0738953
51	0xbe69a594	-0.2281707
52	0xbcd18433	-0.025575733
53	0xbdd22d96	-0.10262601
54	0xbea9b0d0	-0.3314271
55	0xbe6764b9	-0.22597016
56	0xbf2288c6	-0.6348995
57	0x3ed46fff	0.41491696
58	0x3ec52192	0.38502175
59	0xbe1145fd	-0.14186855
60	0x3ef7fe10	0.48436022
61	0x3f5f9c63	0.87348
62	0xbe1ab75a	-0.15109006
63	0xbe2bb957	-0.1676992
64	0x3e65970a	0.22420898
65	0xbea34a1b	-0.31892475
66	0x3fb1bd4b	1.3885893
67	0x3fe8f3b4	1.8199372
68	0x3e4afb5c	0.19822448
69	0x3fd94360	1.6973686
70	0x40008629	2.0081885
71	0x3ee7a543	0.45243272
72	0xbebcde6d	-0.36888447
73	0xbe398455	-0.18116887
74	0xbef611dd	-0.48060504
75	0x3f28238d	0.65679246
76	0x3f7c1ec5	0.9848445
77	0x3e230365	0.15919264
78	0x3f9e9989	1.2390605
79	0x3fa7a048	1.3095789
80	0x3ed7a63e	0.4211902
81	0xbdff8b25	-0.124777116
82	0xbd610600	-0.054937363
83	0xbe283b3d	-0.16428848
84	0xbe27f27b	-0.16401093
85	0xbe34633d	-0.17615981
86	0xbe38a885	-0.18033035
87	0xbdfeb2eb	-0.1243647
88	0xbea12c2e	-0.3147902
89	0xbc1ba3df	-0.009499519
90	0xbe067de5	-0.13133962
91	0xbe6e6a98	-0.2328285
92	0xbec3d937	-0.3825166
93	0xbe2a7536	-0.16646275
94	0xbdda8448	-0.10669762
95	0xbe943248	-0.28944612
96	0xbecf4870	-0.40484953
97	0xbece6bab	-0.4031652
98	0xbe9852ac	-0.29750574
99	0xbde751e2	-0.11294915
100	0xbe8a1348	-0.26967835
101	0xbdf27b5a	-0.11839934
102	0xbde3e89c	-0.11128351
103	0xbea599c7	-0.32343885
104	0xbe339248	-0.1753627
105	0xbe377283	-0.17914777
106	0xbeaa0562	-0.33207232
107	0xbefb0b27	-0.49031946
108	0xbe55cbf6	-0.20878586
109	0x3e0b4f96	0.13604578
110	0xbf10a3f4	-0.5650017
111	0x3c8e71ca	0.017388243
112	0x3f0c8aa8	0.5489907
113	0xbde33a5f	-0.11095118
114	0x3ea9bc5f	0.33151528
115	0x3f04d45f	0.5188655
116	0x3e4a927c	0.19782442
117	0x3e3eac18	0.18620336
118	0x3fa63e77	1.2987813
119	0xbd390f1b	-0.04518042
120	0x3f478172	0.7793189
121	0x40087cb8	2.1326122
122	0x3f3e7ada	0.74406207
123	0x3f3c1406	0.73468053
124	0x3fd81e9f	1.6884345
125	0x3f32ade2	0.69796574
126	0xbdc2499a	-0.09486695
127	0x3e78ed74	0.24309331
128	0x3d42b283	0.047533523
129	0x3f0ca288	0.54935503
130	0x3f9f2193	1.2432121
131	0x3ec150f2	0.3775707
132	0x3f2b58ea	0.6693255
133	0x3f9b3052	1.2124121
134	0x3f2a50ab	0.6652934
135	0x3c8025d0	0.01564303
136	0x3d8b46ff	0.06800651
137	0x3e3357fa	0.17514029
138	0xbed19d85	-0.4094049
139	0xbef60e50	-0.48057795
140	0xbf125be7	-0.5717148
141	0x3e06176b	0.13094871
142	0xbed71ca7	-0.42014048
143	0xbe267829	-0.16256775
144	0x3e1d0d03	0.15336995
145	0x3e2f7b4b	0.17136876
146	0x3e389fb5	0.18029673
147	0xbf0339bb	-0.51259965
148	0xbf15e875	-0.58557826
149	0xbf40dcfc	-0.75337195
150	0xbe498720	-0.19680452
151	0xbed6aedc	-0.41930282
152	0xbe8986c0	-0.2686062
153	0xbbf1c345	-0.0073780143
154	0x3e16553b	0.1468095
155	0x3ea146b2	0.3149925
156	0xbf08d29f	-0.5344638
157	0xbf32bb84	-0.69817376
158	0xbf360bad	-0.71111566
159	0xbe68f549	-0.22749819
160	0xbf17807f	-0.59180444
161	0xbf08bb46	-0.53410757
162	0x3f349cf8	0.70552015
163	0x3f34a45b	0.70563287
164	0x3f266417	0.64996475
165	0x3ea978a7	0.33099863
166	0x3eb06355	0.34450784
167	0x3f16bc36	0.5888094
168	0xbe2ce4f1	-0.16884209
169	0xbd91e78b	-0.071242414
170	0x3ed4af8a	0.41540176
171	0x3f021d96	0.50826395
172	0x3edd14bc	0.43179882
173	0x3ef81fc8	0.48461747
174	0xbdbd5310	-0.092443585
175	0xbd8a4773	-0.06751909
176	0x3e182ee8	0.14861643
177	0xbf02cc4f	-0.51093
178	0xbf0aed26	-0.5426811
179	0xbe51e6c6	-0.2049819
180	0x3ef7289b	0.48273167
181	0x3ed5f8e5	0.41791454
182	0x3ed19894	0.4093672
183	0xbded0068	-0.11572343
184	0xbe28c8b3	-0.1648281
185	0x3d2c2eb0	0.042036712
186	0xbf05764a	-0.5213362
187	0xbef1d62e	-0.4723372
188	0xbe8d9c63	-0.27658376
189	0xbf9ff13e	-1.2495496
190	0xbf94987a	-1.1609032
191	0xbfa45992	-1.2839835
192	0xbf8b6ea9	-1.0893146
193	0xbf5c0927	-0.85951465
194	0xbf3aaa5e	-0.7291621
195	0xbf09feee	-0.53904617
196	0xbf155a05	-0.58340484
197	0xbf46039a	-0.77349246
198	0xbf342036	-0.7036165
199	0xbf1730bb	-0.5905873
200	0xbf031501	-0.51203924
201	0xbeef321b	-0.46717915
202	0xbec7d1fe	-0.390274
203	0xbe884006	-0.26611346
204	0x3d567652	0.052358933
205	0xbe000c86	-0.12504777
206	0xbe061da1	-0.1309724
207	0xbf0d9051	-0.55298334
208	0xbf36c005	-0.7138675
209	0xbefd40ea	-0.49463588
210	0xbf209a77	-0.62735695
211	0xbe92d6f0	-0.2867961
212	0xbeb10c66	-0.34579772
213	0x3e18f3ef	0.14936803
214	0x3df77094	0.120820194
215	0x3da4583c	0.08024642
216	0xbefff6c5	-0.49992958
217	0xbe0e9e95	-0.13927682
218	0x3ddd0b76	0.107932016
219	0xbefa7081	-0.4891396
220	0xbec8fcb3	-0.39255294
221	0x3c6d8f7d	0.014499542
222	0xbe2511a6	-0.16120014
223	0xbe902a7f	-0.28157422
224	0x3e00f0bf	0.12591837
225	0xbf2a235b	-0.664602
226	0xbf26c5f9	-0.6514583
227	0xbe890a46	-0.2676565
228	0xbf758430	-0.9590483
229	0xbf220eb1	-0.6330367
230	0xbe2e6717	-0.17031513
231	0xbedca40d	-0.4309391
232	0xbf1ead0c	-0.619828
233	0xbe5cc094	-0.21557838
234	0xbed8ad9c	-0.42319953
235	0xbeb3a739	-0.35088518
236	0xbd827827	-0.063705735
237	0xbed8e9d9	-0.42365912
238	0xbf1b7836	-0.607303
239	0x3dbc7e32	0.09203757
240	0xbefc62d1	-0.4929414
241	0xbf0d134f	-0.5510759
242	0x3e3db6b0	0.18526721
243	0xbf060ba6	-0.52361524
244	0xbee3bb44	-0.4447881
245	0xbf5a4ae4	-0.85270524
246	0xbef1f4b6	-0.47257012
247	0xbebe8722	-0.37212473
248	0xbf29d4f7	-0.66340584
249	0x3e3166d5	0.17324384
250	0x3db677a7	0.089095406
251	0xbd67a748	-0.056556016
252	0xbe90b48b	-0.28262743
253	0xbdaf9708	-0.08573729
254	0xbe471090	-0.19439912
255	0x3cb320fc	0.021866314

down_convs.1.conv2.bias f4 [6]
0	0xbd91df91	-0.0712272
1	0x3d097161	0.033555392
2	0xbd0660d9	-0.032807205
3	0x3d1401f6	0.036134683
4	0xbbe20c43	-0.0068984344
5	0x3cff89a2	0.031193558

down_convs.1.norm0.weight f4 [6]
0	0x3f88beeb	1.0683264
1	0x40153d45	2.3318646
2	0x3f1d1868	0.61365366
3	0x3fd495db	1.6608232
4	0x3f6da8bd	0.928356
5	0x3fa9a552	1.3253577

down_convs.1.norm0.bias f4 [6]
0	0x3f2f3122	0.68434346
1	0x3dbaea43	0.09126713
2	0xbfad56fc	-1.354217
3	0x3e2868cc	0.16446227
4	0xbedd7c2f	-0.43258807
5	0xbe7368b9	-0.23770417

down_convs.1.norm0.running_mean f4 [6]
0	0xc08a8f61	-4.3300023
1	0xc09d85fc	-4.9226055
2	0x412a8e1c	10.659695
3	0xbfaf9609	-1.3717662
4	0x4103c0e7	8.234595
5	0xbfd45e9f	-1.6591376

down_convs.1.norm0.running_var f4 [6]
0	0x42a36816	81.70329
1	0x42fe6274	127.19229
2	0x438abda3	277.48154
3	0x43617c82	225.48636
4	0x43bf9735	383.1813
5	0x4318def6	152.87094

down_convs.1.norm1.weight f4 [6]
0	0x3f6cdf02	0.9252778
1	0x3f8f154f	1.1178378
2	0x3fbe4a4f	1.4866427
3	0x3fb7b784	1.435288
4	0x3f504e48	0.8136945
5	0x3f803fc7	1.0019463

down_convs.1.norm1.bias f4 [6]
0	0xbdcf3240	-0.10117006
1	0x3e87f842	0.26556593
2	0x3f144fbc	0.57934165
3	0xbf2ae7ef	-0.6676015
4	0xbf1d13f2	-0.6135856
5	0xbf5bffa1	-0.85936934

down_convs.1.norm1.running_mean f4 [6]
0	0x410613fe	8.379881
1	0xc1143f41	-9.265443
2	0xc2118dfa	-36.38865
3	0xc101233e	-8.071104
4	0xc1697480	-14.590942
5	0xc0979bd3	-4.7377715

down_convs.1.norm1.running_var f4 [6]
0	0x439232da	292.39728
1	0x43de7fe7	444.99924
2	0x43b033e8	352.40552
3	0x4362d09c	226.81488
4	0x4390f9f6	289.95282
5	0x4352e096	210.87729

down_convs.2.conv1.weight f4 [12, 6, 3, 3, 3]
0	0x3f3e7d3c	0.7440984
1	0x3e371234	0.17878038
2	0x3eda4bc4	0.4263593
3	0x3eb78391	0.35842565
4	0xbe34c962	-0.17654946
5	0x3d9ccd0b	0.07656296
6	0x3dd6b72d	0.10484157
7	0xbf29a4b8	-0.66266966
8	0xbe8b8b6e	-0.27254814
9	0x3f0716d5	0.52769214
10	0xbe215a33	-0.15757065
11	0x3d46574d	0.0484231
12	0x3e42c489	0.19020285
13	0xbf1bb4a8	-0.60822535
14	0xbece4cf6	-0.40293092
15	0xbe75f86c	-0.24020547
16	0xbf91920f	-1.1372699
17	0xbf5d0495	-0.86335117
18	0x3f2f1ab5	0.68400127
19	0x3e9cd7d8	0.30633426
20	0x3e1570b4	0.14593774
21	0x3f0eb31d	0.55742055
22	0xbe917e84	-0.28416836
23	0xbe352aca	-0.17692104
24	0x3e5b17e8	0.21395838
25	0xbf16cb32	-0.589038
26	0xbf45d802	-0.77282727
27	0x3de1a10e	0.11017047
28	0x3eff8c12	0.49911553
29	0xbefd61f0	-0.49488783
30	0xbf4c5613	-0.7981884
31	0xbefbbfcc	-0.49169767
32	0xbf626237	-0.88431114
33	0x3d851ea3	0.06499984
34	0x3e31c7b6	0.1736134
35	0x3b255516	0.0025227717
36	0x3f578e68	0.8420167
37	0x3f92bd2c	1.1463981
38	0x3f0c43c5	0.5479091
39	0xbe6d4991	-0.23172595
40	0x3d9e833c	0.07739875
41	0xbe2e8caf	-0.17045854
42	0x3db43ea4	0.0880101
43	0x3ea1e0df	0.31616876
44	0x3e5f4d32	0.21806791
45	0x3f026c62	0.5094663
46	0x3f0ccae2	0.54997075
47	0x3e76fc37	0.2411965
48	0xbf11048b	-0.5664756
49	0xbe23d28d	-0.15998287
50	0xbea8eaf6	-0.3299176
51	0xbe4e1102	-0.20123675
52	0xbc20dec2	-0.009818735
53	0x3cc62cfa	0.024191368
54	0xbfa60104	-1.296906
55	0xbf4a2661	-0.7896481
56	0xbf800bfc	-1.0003657
57	0xbf3c64f9	-0.7359157
58	0xbe663c79	-0.22484006
59	0xbecd3fcd	-0.4008774
60	0x3ec2556a	0.3795579
61	0x3f51a1d1	0.8188754
62	0x3f5141ac	0.8174083
63	0xbf6d166d	-0.92612344
64	0xbe95c264	-0.2924987
65	0xbebe2cad	-0.3714346
66	0xbe72e453	-0.23719911
67	0x3ebf6e0b	0.37388644
68	0x3e4d4a5e	0.200479
69	0x3f29ce1a	0.6633011
70	0x3fb003d1	1.3751165
71	0x3fb3053f	1.3985976
72	0xbfa5e49a	-1.2960389
73	0xbf3974d8	-0.72443914
74	0xbee48982	-0.4463616
75	0xbf6d84b6	-0.92780626
76	0x3cac6be9	0.02104755
77	0x3e1dab8a	0.15397468
78	0x3eac1ca9	0.33615616
79	0x3f7eea84	0.9957659
80	0x3fad3b7d	1.3533779
81	0x3f1ed18e	0.62038505
82	0x3f046731	0.5171996
83	0x3d284861	0.04108465
84	0xbe327971	-0.17429139
85	0xbedc4d04	-0.43027508
86	0xbeb88a60	-0.36043072
87	0x3e2930e1	0.16522552
88	0xbe4d484b	-0.20047109
89	0x3e1e25be	0.15444085
90	0x3ef8fb99	0.48629454
91	0x3eedd19e	0.46448988
92	0x3e6f8bfe	0.23393247
93	0xbdc26fb1	-0.0949396
94	0xbf15e9e0	-0.5855999
95	0xbedeeb11	-0.43538716
96	0x3e57d459	0.21077098
97	0xbe9dc309	-0.30812863
98	0xbe505bc2	-0.20347503
99	0x3eb1a989	0.34699658
100	0x3e7e867b	0.24855988
101	0x3e5d1e69	0.21593632
102	0x3da79953	0.08183541
103	0xbe92a9e3	-0.28645238
104	0xbe64b796	-0.22335657
105	0x3f0b2554	0.54353833
106	0x3be8728d	0.0070937336
107	0xbd24ed0d	-0.04026513
108	0x3f3914ca	0.72297347
109	0x3f39e3f2	0.7261344
110	0x3f89d30d	1.0767533
111	0xbe43dc35	-0.19126971
112	0xbe6f1a28	-0.23349822
113	0x3e0fab6d	0.14030237
114	0x3e8a2296	0.26979512
115	0x3e653291	0.22382571
116	0x3bdd2ee1	0.006749973
117	0x3f7829bc	0.9693868
118	0x3f331599	0.6995483
119	0x3f669864	0.9007628
120	0xbd7113a7	-0.058856633
121	0xbea14cf1	-0.31504014
122	0xbd9aac38	-0.07552379
123	0x3eb1f15f	0.34754464
124	0x3e9842bb	0.2973841
125	0x3e9eeed3	0.31041583
126	0x3f925fc6	1.1435478
127	0x3f784ba4	0.9699042
128	0x3f87602e	1.0576227
129	0x3e245e9e	0.16051719
130	0xbe2f30ce	-0.17108461
131	0xbde34de7	-0.11098843
132	0x3e946c6c	0.2898897
133	0x3e9f2ed3	0.31090412
134	0x3e060af9	0.13090123
135	0x3df5c25c	0.11999962
136	0x3dff17cf	0.12455713
137	0x3ee77243	0.45204362
138	0x3e08c726	0.13357219
139	0x3d3344a4	0.043766633
140	0x3e1decdf	0.1542239
141	0xbeba0165	-0.3632919
142	0xbe3adf75	-0.18249305
143	0xbe4c8121	-0.19971134
144	0x3e4b88f1	0.19876458
145	0x3aea791a	0.0017888874
146	0x3e844ce3	0.2583991
147	0x3e81fcc2	0.2538815
148	0x3e919fc9	0.2844222
149	0x3ddbe306	0.10736661
150	0xbcb3a7ce	-0.021930601
151	0x3dd57a56	0.10423724
152	0x3e20cadf	0.15702389
153	0x3f146eeb	0.5798175
154	0x3e8e3780	0.27776718
155	0x3ebcc450	0.36868525
156	0x3efb1678	0.4904058
157	0x3ea7c233	0.3276535
158	0x3dd4d9c5	0.10393099
159	0xbe1bd3e8	-0.15217555
160	0x3d9f8177	0.07788365
161	0x3e38fe0a	0.18065658
162	0xbde6e10f	-0.11273395
163	0x3d5f4a24	0.054514065
164	0x3ee99b5b	0.4562634
165	0x3ebd478c	0.36968648
166	0x3ec31693	0.3810316
167	0x3f336954	0.7008259
168	0x3eb6970a	0.3566211
169	0x3e13630c	0.14393252
170	0x3eb6bd67	0.35691378
171	0xbeda7f04	-0.4267503
172	0xbf0b50bb	-0.5442006
173	0xbcc1b8ad	-0.02364763
174	0xbdde02e1	-0.10840393
175	0xbef3962a	-0.47575504
176	0xbeade489	-0.3396342
177	0xbecd0a3d	-0.40046874
178	0xbf1dfc0b	-0.6171271
179	0xbf09eb39	-0.53874546
180	0x3c5c664d	0.013452125
181	0xbd9a8dfb	-0.07546612
182	0xbade1743	-0.0016944188
183	0xbe13764e	-0.14400598
184	0xbf2540a8	-0.6455178
185	0xbf0066dc	-0.5015695
186	0xbf01f89d	-0.5076998
187	0xbf83c79d	-1.0295292
188	0xbf57eb20	-0.8434315
189	0x3ee9b72d	0.45647565
190	0x3ec1dcc6	0.3786375
191	0x3ea92d95	0.3304259
192	0xbda8ed62	-0.08248402
193	0x3c7117d9	0.014715158
194	0x3d1d89fa	0.038461663
195	0xbf632646	-0.88730276
196	0xbf177253	-0.5915882
197	0x3e55ce5d	0.20879503
198	0x3f85fd42	1.0467913
199	0x3f98b797	1.1931027
200	0x3fab8472	1.3399794
201	0x3eaa26e9	0.3323281
202	0x3f82cfb3	1.0219635
203	0x3f98e916	1.1946132
204	0xbf85d36c	-1.0455146
205	0xbef41a9a	-0.47676545
206	0x3eeed70c	0.46648443
207	0x3f57bfbf	0.84276956
208	0x3f8fb8d6	1.1228282
209	0x3fe31e33	1.7743591
210	0xbf08d59b	-0.53450936
211	0x3e907335	0.28212896
212	0x3f50e936	0.8160585
213	0xbfe525e1	-1.7902185
214	0xbf8bfef3	-1.0937179
215	0xbd9762ff	-0.07391929
216	0x3f1ee821	0.6207295
217	0x3f1edc9e	0.62055385
218	0x3f36aee4	0.7136061
219	0xbefab821	-0.48968604
220	0xbf2ba223	-0.67044276
221	0xbef97d5f	-0.48728463
222	0xbf1043a4	-0.5635321
223	0xbecc873d	-0.3994693
224	0x3ceab469	0.02865048
225	0x3f96d1e6	1.1782806
226	0x3fdead00	1.7396545
227	0x3ff48eae	1.9106042
228	0x3e030279	0.12793912
229	0x3ed7535b	0.42055783
230	0x3f4c6f6b	0.7985751
231	0x3ca10ab5	0.019658426
232	0x3efd1ac2	0.49434477
233	0x3f4cebcf	0.80047315
234	0x3f554605	0.83309966
235	0x3faa3203	1.3296512
236	0x3fd82e71	1.6889173
237	0xbea5bdc2	-0.32371336
238	0x3eecbfc5	0.4624006
239	0x3f37ade7	0.7174973
240	0xbec61e78	-0.3869512
241	0x3eb7e431	0.35916284
242	0x3f5efb4e	0.8710221
243	0x3d1b3f82	0.037902363
244	0xbda224bf	-0.07917165
245	0xbbe66708	-0.0070313253
246	0xbeecd5a2	-0.4625674
247	0xbe92632b	-0.28591284
248	0x3da0da9a	0.07854195
249	0xbf6a557e	-0.915367
250	0xbf2df6c2	-0.6795465
251	0x3d93783b	0.072006665
252	0x3c20bff4	0.00981139
253	0x3cfc354c	0.030787133
254	0x3e571df7	0.21007524
255	0xbefd86c6	-0.49516886

down_convs.2.conv1.bias f4 [12]
0	0xbc1bb6e0	-0.00950405
1	0xbbeafd19	-0.007171285
2	0xbc3c4413	-0.0114908395
3	0xbb1ea14b	-0.0024205025
4	0xbb2e5904	-0.002660335
5	0x3a71cea5	0.0009224213
6	0x3c8b4b39	0.017003642
7	0x3b0fd606	0.0021947636
8	0xbb440d87	-0.002991529
9	0x3b4c80a0	0.0031204596
10	0xbbeae7ee	-0.0071687615
11	0xbc037a1b	-0.008024718

down_convs.2.conv2.weight f4 [12, 12, 3, 3, 3]
0	0xbb7db0d4	-0.0038710134
1	0xbcc456bb	-0.023967138
2	0x3d2a1306	0.04152205
3	0x3e20ff6a	0.15722433
4	0x3d5bc856	0.053657852
5	0x3da87fd8	0.08227509
6	0x3ce5fa35	0.02807341
7	0x3eaa7f94	0.3330046
8	0x3e066d10	0.13127542
9	0xbe28bdc8	-0.16478646
10	0xbd669284	-0.056292072
11	0x3d222946	0.039590143
12	0x3e43a411	0.19105555
13	0x3d3ba512	0.04581172
14	0x3dc255c6	0.09489016
15	0xbe072e0c	-0.13201159
16	0x3ea0003a	0.31250173
17	0x3eb1b2a0	0.34706593
18	0xbedd5054	-0.43225348
19	0xbea92ba1	-0.330411
20	0xbe032fd4	-0.12811214
21	0xbd2cac3c	-0.042156443
22	0xbddc3cb2	-0.10753764
23	0xbd926adf	-0.0714929
24	0xbd03d86b	-0.032188814
25	0x3ea9c55c	0.33158386
26	0x3e6fcbc7	0.23417579
27	0xbef54329	-0.47902802
28	0xbf3763ad	-0.7163647
29	0xbf012c01	-0.5045777
30	0x3f37a791	0.7174006
31	0x3ef3f7e8	0.47650075
32	0x3e69a061	0.22815086
33	0x3fa044c0	1.2520981
34	0x3eff5630	0.49870443
35	0x3f1967f0	0.5992422
36	0xbf16200a	-0.5864264
37	0xbee5f49e	-0.4491319
38	0xbeeb7e91	-0.45995
39	0x3ebb105d	0.36535922
40	0x3dead22a	0.11465867
41	0x3e07cca1	0.13261653
42	0x3f379c5a	0.7172295
43	0x3dcd84c7	0.10035091
44	0x3dcc5cd3	0.09978642
45	0xbf1a3b9e	-0.6024722
46	0xbf01b4c3	-0.50666445
47	0xbf2200fa	-0.6328274
48	0x3d391b64	0.045192137
49	0xbe4377b2	-0.19088629
50	0xbeaa3a6a	-0.3324769
51	0x3f162f0b	0.5866553
52	0xbe077dde	-0.13231608
53	0xbe8a4b67	-0.27010652
54	0x3e1c42da	0.15259877
55	0xbf8f42ba	-1.1192238
56	0xbfe308ee	-1.77371
57	0x3e916433	0.28396758
58	0xbec425b9	-0.3831003
59	0xbf334e64	-0.7004149
60	0x3f19362f	0.598483
61	0x3ea00722	0.31255442
62	0x3f2ac756	0.6671041
63	0x3dcfb9d4	0.10142866
64	0xbf7c3055	-0.9851125
65	0xbfcd3b54	-1.603373
66	0x3e6c11a2	0.23053601
67	0xbf02a002	-0.510254
68	0xbf499279	-0.78739125
69	0x3e9c6545	0.30546013
70	0xbe008afb	-0.12553017
71	0x3e6907af	0.22756837
72	0xbe246ead	-0.16057844
73	0xbf94b67b	-1.1618189
74	0xbfcb31aa	-1.5874531
75	0x3f01decb	0.5073058
76	0xbe42ce98	-0.19024122
77	0xbf19d784	-0.60094476
78	0x3f43fdc4	0.7655909
79	0x3e00a68b	0.12563531
80	0x3e8a2bfa	0.26986676
81	0xc0057eba	-2.0858598
82	0xbf2dbc91	-0.67865855
83	0x3ea54ff5	0.32287565
84	0xbf76825b	-0.96292657
85	0xbebdfc11	-0.37106374
86	0x3ea9ee51	0.33189633
87	0x3f1ab485	0.604317
88	0x3f06325c	0.5242059
89	0x3ed83231	0.42225793
90	0xbfcb034f	-1.5860385
91	0xbe8b810c	-0.27246892
92	0x3f435481	0.7630082
93	0xbf83a0b3	-1.0283417
94	0xbdf9984d	-0.12187252
95	0x3ee00c8c	0.43759573
96	0x3e21ab1a	0.15787926
97	0x3e187770	0.14889312
98	0x3d1e57bd	0.038657892
99	0xbfed8390	-1.8555775
100	0xbf32b5fd	-0.6980894
101	0x3d9eafed	0.07748399
102	0xbf4472ba	-0.7673756
103	0xbe5f1587	-0.21785556
104	0x3eb38577	0.35062763
105	0xbc0c4389	-0.0085610235
106	0xbc7d293e	-0.015451727
107	0xbdb17bb2	-0.08666171
108	0xbe36d068	-0.17852938
109	0x3da8a6fc	0.08234975
110	0x3ee502fc	0.4472884
111	0xbf55dc98	-0.83539724
112	0xbc9d392e	-0.019192304
113	0x3e820d5f	0.25400826
114	0xbee33204	-0.44374096
115	0xbd75ed22	-0.0600406
116	0x3c48c732	0.012254523
117	0xbded4aa5	-0.11586503
118	0xbd7821c0	-0.06057906
119	0x3e98aad1	0.29817823
120	0xbf27332c	-0.6531246
121	0xbbe93f0e	-0.0071181124
122	0x3e75ef47	0.24017058
123	0xbf110772	-0.56651986
124	0xbe5c85b3	-0.21535377
125	0xbde0fcf8	-0.1098575
126	0x3dacaf59	0.084318824
127	0x3dd3a065	0.10333327
128	0x3e505d21	0.20348026
129	0xbf3aefe7	-0.7302231
130	0xbe30ed29	-0.1727797
131	0x3db1ac7a	0.086754754
132	0xbf2bec3b	-0.67157334
133	0xbeb78c78	-0.35849357
134	0xbe397c0d	-0.18113728
135	0x3ff0d365	1.8814512
136	0x3f7df4e2	0.99201787
137	0x3ea95465	0.330722
138	0x3f98d228	1.1939135
139	0x3f10db39	0.5658451
140	0x3f09aaab	0.53776044
141	0x3e009f38	0.12560737
142	0xbe65acc4	-0.22429186
143	0x3db24a17	0.08705538
144	0x3fc0896c	1.5041938
145	0x3f19a8bf	0.6002311
146	0xbd8948e0	-0.06703353
147	0x3f4feb13	0.8121807
148	0x3d97256c	0.073801845
149	0x3d1a6712	0.03769595
150	0xbe6c102b	-0.23053043
151	0xbef9e2c4	-0.4880582
152	0xbebb28b4	-0.36554492
153	0x3f70f5be	0.9412497
154	0x3e11f035	0.14251788
155	0xbecc868a	-0.39946395
156	0x3f21e3cf	0.63238233
157	0xbdc15c21	-0.094414
158	0xbe33dcab	-0.17564647
159	0xbdd8804a	-0.10571344
160	0xbeb9d5af	-0.3629584
161	0xbe589146	-0.21149167
162	0xbde26dc3	-0.11056092
163	0x3ec448cb	0.38336787
164	0x3e95f339	0.29287127
165	0xbeece7a4	-0.46270478
166	0x3eb7e79d	0.35918894
167	0x3eefb303	0.46816263
168	0xbe98a225	-0.29811206
169	0xbe062749	-0.13100924
170	0x3f256ed3	0.6462223
171	0xbe307f91	-0.17236163
172	0x3ed43a92	0.41450936
173	0x3ed696e2	0.4191199
174	0xbd89a5a5	-0.06721047
175	0x3ef64d75	0.4810597
176	0x3f136598	0.57576895
177	0xbdf80544	-0.12110379
178	0x3c8876c6	0.016658198
179	0x3eff6ccb	0.4988769
180	0xbf4cc151	-0.7998248
181	0xbe252a24	-0.16129357
182	0xbe56d65c	-0.20980209
183	0xbee7c1dd	-0.45265093
184	0x3df06582	0.11738111
185	0x3e2135c4	0.15743166
186	0xbd9a34c1	-0.07529593
187	0x3e6293ec	0.2212674
188	0x3ed8fc84	0.42380154
189	0xbe352d4f	-0.17693065
190	0x3daff076	0.08590786
191	0x3df40e02	0.11916734
192	0x3dd03c98	0.10167807
193	0x3e623403	0.22090153
194	0x3e2598ee	0.1617162
195	0x3d432c6f	0.047649797
196	0x3da14b68	0.07875711
197	0x3d832939	0.06404347
198	0xbd471a76	-0.04860922
199	0x3dda19b8	0.10649437
200	0x3e33ae0c	0.17546862
201	0x3da76b86	0.08174805
202	0x3e8646e2	0.26225954
203	0x3e8be6c6	0.27324504
204	0x3e2f6adb	0.17130606
205	0x3e02ef02	0.12786487
206	0x3da931d8	0.0826146
207	0xbe3a1b67	-0.18174516
208	0xbdad2b5b	-0.08455535
209	0xbdfc46c9	-0.12318189
210	0xbe231af6	-0.15928254
211	0xbd45f17d	-0.048326004
212	0xbcdf9ca8	-0.02729638
213	0xbe4d15b4	-0.2002781
214	0xbdbb41a7	-0.091433816
215	0x3d13ed7e	0.036115162
216	0x3f17ea20	0.5934162
217	0x3e52e36d	0.20594569
218	0x3eac9891	0.3371015
219	0x3ef99151	0.4874368
220	0x3e071ab8	0.13193786
221	0x3e503bbd	0.20335288
222	0xbdaa61df	-0.08319449
223	0xbe88ef26	-0.26744956
224	0xbe36b33e	-0.17841813
225	0x3ebbc426	0.36673087
226	0x3d019627	0.031637337
227	0x3e050bf2	0.12992838
228	0x3eacc55f	0.33744332
229	0x3e812d4e	0.25229877
230	0x3e6ee89a	0.23330918
231	0xbe4950a9	-0.19659676
232	0xbebc0d15	-0.3672873
233	0xbec194eb	-0.37808928
234	0x3dc41392	0.09574045
235	0xbd21540c	-0.039386794
236	0xbdb55358	-0.08853787
237	0x3e069ed0	0.1314652
238	0x3beb4a45	0.0071804845
239	0x3dec58ed	0.11540399
240	0xbef3aa5b	-0.47590908
241	0xbf116171	-0.5678931
242	0xbf051c06	-0.51995885
243	0x3f1684e9	0.58796555
244	0x3ded68b4	0.11592236
245	0xbed2f928	-0.41205716
246	0x3f01cdf7	0.507049
247	0x3f092a8a	0.53580534
248	0x3e92c028	0.2866223
249	0xbe7ab0bd	-0.24481483
250	0xbdbab15f	-0.09115862
251	0xbdd2dfe2	-0.102966085
252	0x3e293778	0.16525066
253	0xbe77ba4c	-0.2419216
254	0xbec03add	-0.3754491
255	0x3e9f4dd8	0.31114078

down_convs.2.conv2.bias f4 [12]
0	0x3c1d2a8e	0.009592665
1	0x3c8f5d98	0.017500684
2	0xbc79eec1	-0.015254677
3	0x3aee9313	0.001820179
4	0xb9e4dfaa	-0.00043654192
5	0x3b087a46	0.0020824834
6	0xbb24a8f4	-0.0025125118
7	0xbbf91a2c	-0.007601997
8	0x3ca94cfd	0.020666594
9	0xb9a41bc7	-0.00031301213
10	0x3c889dd8	0.016676828
11	0xba2f4617	-0.00066861644

down_convs.2.norm0.weight f4 [12]
0	0x3f2dd070	0.67896175
1	0x3f8bf957	1.0935467
2	0x3fc92a0c	1.5715957
3	0x3fc9f991	1.5779287
4	0x3fbd087b	1.4768213
5	0x3fc6fd70	1.5546093
6	0x3f8bf9bb	1.0935587
7	0x3f6d34d1	0.92658716
8	0x3edc8482	0.43069845
9	0x3f858a79	1.0432884
10	0x3fa1ef9f	1.2651252
11	0x3fbb5fc4	1.46386

down_convs.2.norm0.bias f4 [12]
0	0xbec996c6	-0.39372844
1	0x3e019a8f	0.12656616
2	0xbea393d9	-0.31948736
3	0xbf093e3a	-0.53610575
4	0x3f119026	0.5686058
5	0x3e64f7b2	0.22360113
6	0x3e1c9bf4	0.15293866
7	0x3ea22172	0.31666142
8	0x3e937210	0.2879796
9	0xbe7ca77d	-0.24673267
10	0xbf66d6ff	-0.9017181
11	0x3ebe22cf	0.37135932

down_convs.2.norm0.running_mean f4 [12]
0	0x3ffc428e	1.9707811
1	0x4118822b	9.531779
2	0x4161ba89	14.108041
3	0x411b16cf	9.6930685
4	0x40303354	2.7531328
5	0x416d8def	14.847152
6	0x40dc47dc	6.883772
7	0xc1c2dd7e	-24.35815
8	0xbfafcb1e	-1.3733861
9	0xc106c64c	-8.423412
10	0x40e44f02	7.1346445
11	0xbfa5786c	-1.2927375

down_convs.2.norm0.running_var f4 [12]
0	0x42d46f1b	106.217
1	0x436dff1f	237.99657
2	0x43594189	217.256
3	0x43541e4b	212.11833
4	0x44340cc3	720.1994
5	0x4401aa71	518.66315
6	0x4306e6a6	134.90097
7	0x450fb026	2299.0093
8	0x44016710	517.61035
9	0x438f36d3	286.4283
10	0x4345915f	197.56786
11	0x43be7975	380.94888

down_convs.2.norm1.weight f4 [12]
0	0x3f830e71	1.0238782
1	0x3fb02a35	1.376288
2	0x3f57c868	0.8429017
3	0x40007f62	2.0077748
4	0x3fc0cc73	1.5062393
5	0x3f13348a	0.57502043
6	0x3f283d92	0.6571895
7	0x3f1de85b	0.6168267
8	0x401538a3	2.3315818
9	0x3f9e5a66	1.2371337
10	0x3fb247b9	1.3928138
11	0x3fde1834	1.7351136

down_convs.2.norm1.bias f4 [12]
0	0xbdf3662e	-0.118847236
1	0x3e8227c5	0.25420967
2	0x3dfcd884	0.123459846
3	0xbeec172d	-0.46111432
4	0xbf65c425	-0.8975242
5	0xbedcefae	-0.4315161
6	0xbf729eaa	-0.9477335
7	0xbf0f5176	-0.55983675
8	0xbdd9aa3f	-0.10628175
9	0x3f40d063	0.7531797
10	0x3e9134fa	0.2836073
11	0xbf137ba9	-0.57610565

down_convs.2.norm1.running_mean f4 [12]
0	0xc07ad0a4	-3.9189844
1	0xc122ab3a	-10.166803
2	0xc08da6f4	-4.42663
3	0xc1b26cae	-22.303066
4	0x41078cc7	8.471869
5	0x412290fd	10.160398
6	0x4208ab62	34.167366
7	0xbe856f0b	-0.26061282
8	0xc1887042	-17.054813
9	0xc1488b21	-12.533967
10	0xc1f06d34	-30.053322
11	0xc2425368	-48.58145

down_convs.2.norm1.running_var f4 [12]
0	0x4312b0b3	146.69023
1	0x435982d9	217.51112
2	0x43cd42bb	410.52133
3	0x4401c4b1	519.0733
4	0x430497b0	132.59253
5	0x444e7ea4	825.97876
6	0x43d771e2	430.8897
7	0x4321509f	161.31493
8	0x440916fc	548.35913
9	0x43c27a48	388.95532
10	0x43554022	213.25052
11	0x440cd193	563.2746

down_convs.3.conv1.weight f4 [24, 12, 3, 3, 3]
0	0x3e960de8	0.29307485
1	0x3e3c3a79	0.1838168
2	0x3f2a3823	0.6649191
3	0xbdb6732c	-0.08908686
4	0xbf21b692	-0.63169205
5	0xbeed9a00	-0.46406555
6	0xbf8e9e1f	-1.1142005
7	0xbf03570f	-0.51304716
8	0x3f0db948	0.5536084
9	0x3d54419d	0.051820386
10	0x3d3a369b	0.045462232
11	0x3e8ec768	0.2788651
12	0xbc8001b8	-0.01562582
13	0xbeadc163	-0.33936605
14	0xbe909f2f	-0.28246447
15	0x3c6d8408	0.014496811
16	0x3f56f401	0.8396607
17	0x3f8e9dd5	1.1141917
18	0xbd085c70	-0.03329128
19	0xbe422be5	-0.18962057
20	0xbc052b8d	-0.008128059
21	0xbc97ca1c	-0.01852899
22	0xbe2d1114	-0.16901046
23	0xbe42ec82	-0.19035533
24	0x3fca055b	1.5782884
25	0x3fb6c77b	1.4279627
26	0x3e94018c	0.2890743
27	0xbf26bcdb	-0.6513192
28	0x3e2f7ff1	0.1713865
29	0x3d1b0582	0.03784705
30	0x3e9cf0fe	0.30652612
31	0x3f04a860	0.5181942
32	0xbf517a03	-0.818268
33	0x3f1dfd62	0.61714756
34	0x3ea24b77	0.316982
35	0xbc196ecc	-0.009364795
36	0x3d23d32a	0.039996304
37	0x3e94794f	0.289988
38	0x3ea933bc	0.33047283
39	0x3e7b5d83	0.2454739
40	0x3f529d02	0.82270825
41	0x3ddf1ccd	0.10894165
42	0x3e38b31c	0.18037075
43	0xbd3d5453	-0.046222996
44	0xbedfaa18	-0.4368446
45	0xbe3214fc	-0.17390817
46	0x3e3c8fa0	0.18414164
47	0x3f2ca57c	0.6744001
48	0xbfdedbce	-1.7410829
49	0xbed02ed4	-0.40660727
50	0x3ea3611e	0.31910032
51	0xbf227586	-0.63460577
52	0xbf212059	-0.62939984
53	0xbf3586e8	-0.70908976
54	0x3e7728e2	0.2413669
55	0x3da25f7c	0.079283684
56	0x3eee10cb	0.46497187
57	0xbee79856	-0.4523341
58	0xbd55cab9	-0.052195285
59	0x3f8daebe	1.1068952
60	0xbf113110	-0.5671549
61	0xbdf17d48	-0.117914736
62	0x3ef8977e	0.4855308
63	0x3e5f922a	0.21833101
64	0x3ee52a3c	0.44758785
65	0x3f4e5948	0.8060498
66	0x3e43726f	0.19086622
67	0x3f8b22e0	1.0870018
68	0x3f73753f	0.9510078
69	0xbd41d322	-0.047320493
70	0x3e993807	0.29925558
71	0x3d925a48	0.07146126
72	0x3f0dd052	0.55395997
73	0x3f36688a	0.71253264
74	0x3ef87d05	0.48532882
75	0x3f98af47	1.192849
76	0x3f8a51a0	1.080616
77	0xbe634f34	-0.22198182
78	0x3f7c74d2	0.98615754
79	0x3e656818	0.2240299
80	0xbef7306f	-0.4827914
81	0x3f87e522	1.0616801
82	0x3f613493	0.87970847
83	0x3e71015d	0.23535676
84	0xbe97243b	-0.2951983
85	0x3e40be45	0.18822582
86	0xbf4abf5e	-0.79198253
87	0x3ea8fb0b	0.3300403
88	0x3f182444	0.59430337
89	0xbe02e39b	-0.12782137
90	0x3fa98ce6	1.3246124
91	0x3f55a91d	0.8346117
92	0x3de9dd07	0.11419111
93	0x3ecac69a	0.39604646
94	0x3f8cf497	1.1012143
95	0x3e537902	0.2065163
96	0x3ee3aefe	0.44469446
97	0x3f3b0a3d	0.730625
98	0x3f058ed9	0.52171093
99	0x3f948b94	1.1605096
100	0x3f505c7b	0.81391114
101	0x3de67d55	0.11254374
102	0xbde20174	-0.110354334
103	0x3f5687fd	0.8380125
104	0x3df6daed	0.120534755
105	0x3b0406d9	0.0020145683
106	0x3ebc4767	0.36773226
107	0x3d687ca1	0.05675948
108	0xbefdbaf4	-0.49556696
109	0x3cc47f0a	0.023986358
110	0xbf52e4a8	-0.8238015
111	0x3e6f9b53	0.23399095
112	0xbec7d8ab	-0.39032492
113	0xbfb89930	-1.4421749
114	0x3e4c6c71	0.19963242
115	0xbf1d7a5c	-0.6151483
116	0xbf297f02	-0.66209424
117	0x3db7b658	0.08970326
118	0x3eba04a0	0.36331654
119	0x3db0c1c2	0.08630706
120	0xb9f8d0cf	-0.0004745782
121	0x3de9420e	0.11389552
122	0xbe8fbce2	-0.28073794
123	0xbe9cda95	-0.30635515
124	0xbefd43fa	-0.49465925
125	0xbf0f2584	-0.5591662
126	0xbf390cd2	-0.7228519
127	0x3ccb66ec	0.02482935
128	0x3f18a695	0.59629184
129	0xbfb42fe6	-1.4077117
130	0xbed87763	-0.42278585
131	0x3f067c02	0.5253297
132	0xbf37d91a	-0.71815646
133	0xbf150f70	-0.5822668
134	0xbeb66c7b	-0.3562964
135	0xbd8a9218	-0.067661464
136	0x3e98c621	0.2983866
137	0x3e98dcab	0.29855856
138	0x3f181ff4	0.59423757
139	0x3f5413f4	0.82842946
140	0x3f3c6cfe	0.7360381
141	0xbef547dc	-0.47906387
142	0xbd2acb45	-0.04169776
143	0x3f204e0d	0.62619096
144	0x3e26593d	0.16244979
145	0x3eecf9df	0.46284387
146	0x3ef7623c	0.48317134
147	0x3f15ae6d	0.5846928
148	0x3f2e4ca7	0.6808571
149	0x3eee2af1	0.46517137
150	0xbdadd45f	-0.08487772
151	0xbd85fdf4	-0.06542578
152	0x3d5d2572	0.05399079
153	0x3e54c1a2	0.2077699
154	0x3e61f8f3	0.22067623
155	0xbca0642e	-0.01957902
156	0x3f32b607	0.69809
157	0x3e9b3424	0.30313218
158	0x3e502123	0.2032514
159	0x3f4e0b21	0.8048573
160	0x3e91c5d9	0.28471258
161	0x3e46b481	0.19404794
162	0xbf090ecd	-0.5353821
163	0xbe3fb5f7	-0.18721758
164	0xbecf7731	-0.40520623
165	0xbf5a220d	-0.8520821
166	0xbecbe2a6	-0.39821357
167	0xbf8bea42	-1.0930865
168	0x3ecb4620	0.3970194
169	0x3df6361e	0.12022041
170	0xbe3f95a7	-0.18709432
171	0x3e7a11f4	0.24420911
172	0x3e069c5c	0.13145584
173	0xbeb9b226	-0.3626873
174	0xbded5355	-0.1158816
175	0x3dfc9376	0.123328134
176	0xbf318b1b	-0.69352883
177	0x3bdd78fb	0.0067588068
178	0xbe2bf3f7	-0.16792284
179	0xbe658ba9	-0.22416557
180	0x3d5a3cf5	0.05328079
181	0x3de638e5	0.112413205
182	0xbdecb5e0	-0.115581274
183	0xbf852883	-1.0402988
184	0xbf431f20	-0.7621937
185	0xbf7b2434	-0.98102117
186	0xbe833e22	-0.2563334
187	0xbef80863	-0.484439
188	0xbe84c649	-0.2593253
189	0xbe5e28ee	-0.21695301
190	0xbebec95c	-0.37263
191	0xbe4f24cf	-0.20228885
192	0x3f008af3	0.5021202
193	0x3eae5cdf	0.3405523
194	0x3f46c101	0.7763825
195	0x3f72301f	0.94604677
196	0x3f228aac	0.63492846
197	0x3ea26604	0.31718457
198	0xbe21b375	-0.15791114
199	0xbdbdd078	-0.09268278
200	0xb8da1c82	-0.0001040036
201	0x3ef804b5	0.4844109
202	0x3e6b828e	0.22999021
203	0x3ede5952	0.4342752
204	0x3f33acd9	0.7018562
205	0x3eac6d31	0.33677056
206	0x3e5ba2b9	0.21448793
207	0xbe6399c2	-0.22226623
208	0x3dd31822	0.10307337
209	0xbbdb359c	-0.0066897403
210	0x3f299d73	0.66255873
211	0x3ea72df6	0.32652253
212	0x3df34253	0.11877885
213	0x3f265b2c	0.6498287
214	0x3eafeb70	0.34359312
215	0x3eedd70d	0.46453133
216	0x3eb4de39	0.35325792
217	0x3cb68078	0.022278056
218	0x3e4276f0	0.18990684
219	0xbe87f4f5	-0.26554075
220	0x3edba047	0.4289572
221	0xbf1bac43	-0.60809726
222	0x3d98fabd	0.074696995
223	0x3f5f6399	0.8726135
224	0xbde5e78f	-0.11225807
225	0x3ebf5b7e	0.3737449
226	0x3dd82191	0.10553277
227	0xbd144253	-0.036196064
228	0x3f3c81e5	0.73635703
229	0x3f823167	1.0171326
230	0xbdf45370	-0.11929977
231	0x3f4edea3	0.80808467
232	0x3f811b3f	1.008644
233	0x3e0c9b9f	0.1373124
234	0x3f1fbb04	0.6239474
235	0x3eb0b9f6	0.34516877
236	0x3db45a80	0.08806324
237	0x3e9fcea3	0.3121234
238	0x3f5e674e	0.8687638
239	0x3d808095	0.06274525
240	0x3d9fb14c	0.077974886
241	0x3ee6dfc7	0.45092604
242	0x3d8899aa	0.06669934
243	0xbcbb027b	-0.022828331
244	0x3e92848c	0.2861675
245	0x3ee01c9b	0.43771824
246	0xbd703da3	-0.05865253
247	0x3e7b802c	0.24560612
248	0x3eb9d386	0.36294192
249	0xbf008944	-0.5020945
250	0xbe40be9b	-0.1882271
251	0x3f0ba87b	0.54553956
252	0x3e8ca1ab	0.27467093
253	0x3f1cff41	0.61326987
254	0x3f5c9293	0.86161155
255	0x3ee5cb3d	0.4488162

down_convs.3.conv1.bias f4 [24]
0	0xba052fd8	-0.00050806766
1	0x3b3216cc	0.0027174233
2	0x392f2df7	0.00016706424
3	0x38a1c1e4	7.713193e-05
4	0xbb6cfc0a	-0.003616097
5	0x39de218f	0.00042368143
6	0x3b5e1277	0.0033885518
7	0xbb17a83d	-0.002314105
8	0x371d29e6	9.3676845e-06
9	0x37f315d1	2.8978016e-05
10	0x3c1a95ce	0.00943513
11	0xb9b84f8d	-0.00035154485
12	0x39e195d4	0.00043026975
13	0x3b19e200	0.0023480654
14	0x3b7be77c	0.0038437536
15	0x38d495ce	0.00010136851
16	0xb4ea094b	-4.3592658e-07
17	0xb719dbf1	-9.17072e-06
18	0xb7399c83	-1.10633e-05
19	0xb9b9fef5	-0.00035475907
20	0xb7cbd62d	-2.429922e-05
21	0x39ec2c91	0.00045046632
22	0x3b7a4832	0.0038190004
23	0x398542ef	0.00025417606
