outputs_full_mask/epoch_5_model.pth (torch, 694457 bytes, 241 tensors)

down_convs.0.conv1.weight f4 [3, 1, 3, 3, 3]
000000 fc b4 6f 3e 07 43 28 3e e6 94 a1 3e fd 1e b3 bd
       0.23408884 0.16431819 0.31558913 -0.08746145
000010 73 a2 10 3e 75 fb 14 3e cb 8a e1 be f2 1c 49 3d
       0.1412447 0.14549048 -0.44051203 0.04909987
000020 4c 50 70 be ad ba 89 3e 27 5b 68 3f 8a 0f bd 3e
       -0.23468131 0.26900235 0.9076409 0.36925918
000030 54 03 9c 3d 8a 24 31 3f 5e 91 ee 3e 4f b6 4c be
       0.07617822 0.6919638 0.4659528 -0.1999142
000040 5d 05 53 ba a0 30 96 3e e6 6d 99 3e b3 ec a8 3e
       -0.00080498104 0.29333973 0.29966658 0.32993087
000050 c2 fe 27 3e 3f 97 0b be 0c b6 ab 3e 7e 11 ed 3e
       0.16405776 -0.13631915 0.33537328 0.46302408
000060 5f 25 89 be e5 d7 08 3e 97 38 fa 3d 18 ef c2 be
       -0.26786324 0.13363607 0.12217825 -0.3807304
000070 34 5b ec bd 39 12 ab be 2c 87 ef bd 9d ee 4c 3e
       -0.11540833 -0.3341234 -0.11695704 0.20012899
000080 db 8a a7 3d ab 76 65 3e 88 82 f0 3e 0c a3 e7 3d
       0.081807815 0.2240855 0.46974587 0.113103956
000090 54 71 c7 be b1 2a 50 be 22 41 f5 be c5 08 cb 3a
       -0.3895365 -0.20328785 -0.47901255 0.0015490284
0000a0 1b 9f b6 3d 80 c4 e9 3d 8c 38 25 3f 99 47 31 3f
       0.08917066 0.114144325 0.6453941 0.69249874
0000b0 41 e9 c8 3e 74 4f dd be c6 2a 3e be 84 d6 cb be
       0.3924046 -0.4322468 -0.18571004 -0.398121
0000c0 9a 98 26 be 6f 77 64 3d 45 41 85 be 70 5a a1 3e
       -0.1626915 0.055777963 -0.2602636 0.3151431
0000d0 34 27 04 3f b1 6a 09 3f 36 b8 70 3e 47 a2 21 3f
       0.5162232 0.53678423 0.23507771 0.6313824
0000e0 d4 51 c2 3e 7e 09 a4 bc 3a 88 66 3a a5 d4 2b 3e
       0.37953055 -0.020024057 0.0008794103 0.16780336
0000f0 0a 77 e9 be d1 01 8e be 9a 7a e5 be 0a 92 16 3f
       -0.45598632 -0.2773576 -0.448201 0.5881659
000100 85 b7 85 3f a6 09 e6 3e e7 a3 c6 3d 1f 9d 92 3e
       1.0446631 0.44929236 0.09699231 0.286355
000110 62 b9 ae 3e 5f 96 a7 be 5f e9 96 bd 10 71 a5 bd
       0.3412581 -0.32731912 -0.07368731 -0.080782056
000120 0f 66 de 3d b9 cd 35 3f aa 13 59 3e 49 8a 79 3e
       0.1085931 0.7101703 0.21198907 0.24369158
000130 f0 00 30 3e 0c 58 b3 3d 18 e4 8c be 2f 40 9c be
       0.17187858 0.08757028 -0.27517772 -0.30517718
000140 e3 e2 99 bd
       -0.07513978

down_convs.0.conv1.bias f4 [3]
000000 02 e6 11 be cb 14 a2 bd 45 ba 52 3c
       -0.14247897 -0.07914122 0.012861793

down_convs.0.conv2.weight f4 [3, 3, 3, 3, 3]
000000 58 f3 99 be 58 0d a4 be 93 db 58 be 3e 86 4e 3d
       -0.3006847 -0.3204143 -0.21177511 0.050420992
000010 75 ef 86 bd 12 d3 52 be b6 a2 cc 3d 52 ee 3c 3d
       -0.065886416 -0.2058833 0.09991972 0.046125717
000020 6f ea 4c be 51 e8 7d be f5 c4 9b bd c7 be 45 be
       -0.20011304 -0.24795653 -0.07605926 -0.19311057
000030 20 26 02 be 89 e1 1e bd 02 90 ee bd 79 c1 d9 3d
       -0.12709856 -0.038789306 -0.11648561 0.10632605
000040 fb 55 27 3d 20 54 8d 3d 2e eb 69 be db 4d 1a 3d
       0.04085348 0.06900811 -0.2284362 0.037671905
000050 16 d8 41 be e2 c4 90 3d d8 1a 0b be a2 7b 92 be
       -0.18930086 0.070688024 -0.13584459 -0.2860995
000060 b4 c7 81 3d e7 06 af 3d e4 25 68 3e ef 39 5b 3a
       0.063369185 0.085462384 0.22670704 0.000836282
000070 de bf 96 3d 3c 1f fa 3d 20 42 b6 3e 6d a5 dd 3e
       0.073608145 0.12212989 0.35597324 0.43290272
000080 e5 0d 8d 3e f8 73 de 3e 7c 9a 27 3f 0b bc 59 3f
       0.27549663 0.43447852 0.654701 0.85052556
000090 5c 29 cd 3e 67 eb 1b bd c7 d7 e4 bd f1 4a 0a 3f
       0.40070617 -0.038066294 -0.11173969 0.540206
0000a0 50 46 54 3f ae 84 fb 3e 7a 94 6f 3f 52 31 66 3f
       0.8291979 0.49124664 0.9358593 0.89919007
0000b0 92 12 53 3f 0d 64 0d bc 2e 9f d5 bc ba 83 e0 3d
       0.8245021 -0.008629811 -0.02607688 0.10962625
0000c0 81 6c 9a 3e 98 af c9 3e c3 69 ce 3e 6e 05 36 3f
       0.30160907 0.3939178 0.40315065 0.71102035
0000d0 82 2a 80 3f 23 36 44 3f 44 0e b5 be 34 a7 85 be
       1.0012972 0.76645106 -0.35362446 -0.26104128
0000e0 5f d7 e4 bd 10 34 9c be f9 1d 9b be cf 6c be be
       -0.11173891 -0.3050847 -0.30296305 -0.3719239
0000f0 7c 3b ac 3c 71 5e 09 bd 2c 76 ed bd e0 ca cf bd
       0.021024458 -0.033537332 -0.11594805 -0.10146117
000100 61 35 a8 be ad cc 88 be be 6b a8 be cf fb d2 be
       -0.32853225 -0.26718655 -0.328947 -0.4120774
000110 7a 68 e6 be 90 cb 0b be d1 a9 f6 3d 56 d3 17 3d
       -0.45001584 -0.13651872 0.12044109 0.03706678
000120 31 9d 9c be d4 2d 54 be e5 68 ac be 29 9b 92 be
       -0.30588678 -0.20720607 -0.33673778 -0.28634003
000130 5f d1 6d be aa 48 06 be fb 96 ac bd ba eb 87 3d
       -0.232244 -0.13113657 -0.08427235 0.06636758
000140 79 14 64 be 97 e2 c6 3c c6 25 dd 3d 24 e9 72 3e
       -0.22273435 0.024277968 0.1079822 0.23721749
000150 e2 9a c2 bd 3f ef 65 be 99 6f 37 be 4a 70 81 be
       -0.09502198 -0.22454546 -0.17913665 -0.25280982
000160 e8 19 c9 be 27 e2 e9 be 55 b7 32 3b 54 fd b5 3d
       -0.39277577 -0.45680353 0.002726992 0.08886209
000170 18 89 a5 3e a7 d6 bd be f8 86 6f be 25 6a b0 bd
       0.32331157 -0.3707783 -0.2339133 -0.086139955
000180 ae a3 18 bf 29 1f c7 be dd 3f 9c be 41 91 58 3d
       -0.59624755 -0.3889096 -0.30517474 0.0528729
000190 04 61 86 3d 06 49 5d 3e 6b c3 0e 3d 56 27 8f be
       0.06561473 0.21609887 0.034854334 -0.27959698
0001a0 85 27 96 3d bb 79 c5 be fc 89 83 be 40 20 b8 be
       0.073317565 -0.38569435 -0.2569121 -0.35962105
0001b0 b9 2b 9d bd 68 00 57 be f1 a4 5f bd 04 fb 93 bc
       -0.07674355 -0.20996249 -0.05460066 -0.01806403
0001c0 12 30 74 be 87 08 77 be 9d 86 9c be 4c 9b 5d 3d
       -0.23846462 -0.24124347 -0.30571452 0.05410318
0001d0 50 f2 52 bd 09 c2 4c be bf f6 1f be 40 a3 e2 bd
       -0.05150062 -0.19995894 -0.1562147 -0.11066294
0001e0 6f 14 db be 54 d5 bb bd 17 62 34 be a9 fb 2f 3e
       -0.42789027 -0.091715485 -0.17615543 0.17185844
0001f0 55 ee 99 ba 6a 52 9a 3d d1 11 ce be d0 d1 6e be
       -0.0011744002 0.075352505 -0.40247968 -0.23322225
000200 0d e2 48 bd 7b dc 97 bd f6 f0 7e be f4 97 6e be
       -0.049043704 -0.074151 -0.24896607 -0.23300153
000210 a5 01 02 bd d6 08 61 bd ac 7a 3c be 65 dc 78 3e
       -0.03173985 -0.054940067 -0.1840617 0.24302824
000220 a7 09 09 3e ec 6d 87 3e a1 28 0c be 16 ab 57 3c
       0.13382588 0.2645105 -0.13687374 0.013163349
000230 03 1e f8 3d 88 fe 0b 3d 63 d1 0c be 28 36 7f be
       0.12115099 0.034178287 -0.1375175 -0.24923003
000240 24 cd 27 3e 3a 16 af 3e 70 41 62 3e 6b d9 42 be
       0.16386849 0.34196645 0.22095275 -0.19028251
000250 9c 53 b1 be 8a ac 01 be 4b fc 91 be f5 90 b4 be
       -0.346341 -0.12663475 -0.28512797 -0.35266843
000260 6e ec b5 be da e9 b6 3e 48 29 81 3e 70 0b 1d 3e
       -0.35531944 0.3572529 0.25226808 0.15336394
000270 21 6d dd bd 52 94 d6 bd b1 8e 2f 3d 61 ea 06 be
       -0.1081183 -0.104775086 0.04286069 -0.13175346
000280 fc f2 d7 bd 6c 35 88 be df 6d d1 3e 66 6e dc 3e
       -0.105443925 -0.26603258 0.40904137 0.43052977
000290 23 c3 18 3d 00 4e 4a 3e f0 f7 9b 3e 1b f8 b0 bd
       0.037295472 0.19756317 0.304626 -0.08641072
0002a0 bc 65 0b 3e 13 66 08 3e 41 d1 96 be 01 16 7c 3f
       0.13613027 0.13320188 -0.29456523 0.98471075
0002b0 fb 40 3b 3f 5c 64 85 3e 9a 69 a8 3e 53 82 1c 3f
       0.7314603 0.2605313 0.32893068 0.6113636
0002c0 b5 c8 b1 3d b8 7e 8e 3d 47 9b cf 3d 63 74 9f 3c
       0.0868086 0.069577634 0.10137039 0.019464677
0002d0 cb 47 0b 3f 42 46 29 3f c7 2a 63 3e 5e 13 86 3e
       0.5440642 0.6612283 0.22184287 0.2618665
0002e0 21 99 8d 3e 3d 9f 36 be bf e9 d5 bd 81 cc 37 bd
       0.2765589 -0.17834182 -0.10444974 -0.044872764
0002f0 66 96 71 3e b9 38 a0 be 2c f4 40 be 1e 8b 79 be
       0.23592529 -0.31293276 -0.18843144 -0.24369475
000300 d5 75 f8 bd 60 c7 ac bd 0f 29 1b 3e bf 22 0e 3e
       -0.1213185 -0.08436465 0.15152381 0.13880442
000310 cf b9 79 3c ef 87 92 3e 4a be 12 be d2 b4 4d be
       0.015242054 0.28619334 -0.14330402 -0.20088509
000320 56 65 e5 be 14 24 09 3e 39 61 4e bd f6 6a 10 bb
       -0.44803876 0.13392669 -0.050385688 -0.002203641
000330 f0 d1 de 3d ce d4 9c 3e 8b 8c 8e 3e ba f0 03 be
       0.10879886 0.30631107 0.278416 -0.12884799
000340 4c 23 34 3d 1b e0 86 be 39 13 6e 3e f8 23 ac 3e
       0.043978974 -0.26342854 0.2324952 0.33621192
000350 95 2e 19 3e 18 23 82 3e 0a f4 bc 3e be 92 e3 3e
       0.14959176 0.254174 0.36904937 0.44447893
000360 70 c8 8b 3e 05 27 b2 3d bf 65 62 3d 08 f9 69 3e
       0.2730136 0.08698849 0.055272814 0.22848904
000370 19 c0 b1 3e 8b 70 61 3d 2c 00 25 bd c5 d6 f2 3d
       0.3471687 0.05503897 -0.040283367 0.1185737
000380 f8 94 01 bd 48 90 e8 3e 8f 16 1f 3f 84 50 f5 3c
       -0.03163621 0.45422578 0.62143797 0.02994562
000390 6c 20 2a 3e 2f 61 38 3f 2c 71 a5 3e 2a 61 dc 3d
       0.1661393 0.7202329 0.32312906 0.1076072
0003a0 92 93 1c 3e 98 18 ff 3c 72 f5 9a 3e 6d 53 b1 3e
       0.15290669 0.031139657 0.30265385 0.3463396
0003b0 9e ef 65 3e d3 06 0a 3e fb aa dc 3e 54 28 65 3e
       0.22454688 0.13479166 0.43099198 0.22378665
0003c0 19 bc 27 bd 13 31 b1 3c 7c e9 51 be
       -0.04095087 0.021629846 -0.20499223

down_convs.0.conv2.bias f4 [3]
000000 15 8b b9 3d a2 d1 4b bf 6c 6d c8 bc
       0.09059731 -0.7961675 -0.024466239

down_convs.0.norm0.weight f4 [3]
000000 42 9a 8d 3f b1 05 95 3f 1a a3 5b 3f
       1.1062701 1.1642362 0.8579575

down_convs.0.norm0.bias f4 [3]
000000 b4 8f 88 be 03 fa dc be 14 75 02 be
       -0.26672137 -0.43159494 -0.12739974

down_convs.0.norm0.running_mean f4 [3]
000000 9d 22 14 be c1 e1 18 bd fe 95 8d bc
       -0.14466329 -0.03732467 -0.017283436

down_convs.0.norm0.running_var f4 [3]
000000 ec 99 94 41 8e 80 56 40 de 73 2c 41
       18.575157 3.3515964 10.778288

down_convs.0.norm1.weight f4 [3]
000000 f7 05 7d 3f 32 18 5e 3f b8 29 7e 3f
       0.98837227 0.8675567 0.9928241

down_convs.0.norm1.bias f4 [3]
000000 70 a7 87 be 4c 67 89 bd ec 8a 96 bd
       -0.26494932 -0.067091554 -0.07350716

down_convs.0.norm1.running_mean f4 [3]
000000 0c 35 49 3f 36 75 26 c0 41 dd 3a 40
       0.7859657 -2.600904 2.9197543

down_convs.0.norm1.running_var f4 [3]
000000 02 b5 83 42 46 e7 05 42 12 7c 76 42
       65.85353 33.475853 61.621162

down_convs.1.conv1.weight f4 [6, 3, 3, 3, 3]
000000 9b 0b 84 be 1e af ae be fb 75 ea be 2d 74 d9 3b
       -0.25790104 -0.3411798 -0.45793137 0.0066361637
000010 91 e1 2e 3e c2 5d 2e 3d aa f4 c1 be 25 4b b7 be
       0.17078234 0.042569883 -0.37881976 -0.35799518
000020 4a 67 09 bf 67 5e 2e bd e0 81 1a be 48 ac ea bd
       -0.5367323 -0.042570498 -0.15088606 -0.11458641
000030 78 dc 58 3e 27 2a 97 3e ec cf c6 3d c8 0a b4 be
       0.21177852 0.29524347 0.09707627 -0.35164475
000040 af e5 37 be dd fb a0 be 61 50 07 bf f5 8f 7e be
       -0.17958711 -0.31442156 -0.52857023 -0.24859603
000050 95 24 b9 be d8 93 9c 3d ed 9a c9 bc 63 c7 51 bd
       -0.36160722 0.076453865 -0.024610007 -0.05121554
000060 b1 5a 83 be f1 ab b3 be cb 7a 70 be cf a5 00 3e
       -0.2565513 -0.35092118 -0.23484342 0.12563251
000070 23 1a 3b 3e 9a 91 9e 3e 71 7f 71 bc 6b c3 42 be
       0.18271689 0.3097046 -0.014739857 -0.19019859
000080 96 3f 09 be d9 a9 c7 bd b2 71 b7 be 33 62 0e bf
       -0.13403162 -0.09749193 -0.3582893 -0.5561859
000090 02 c3 81 3e 02 a4 1b be 97 fb 49 3e 25 b7 84 be
       0.25344092 -0.15199283 0.1972488 -0.25920978
0000a0 84 4a 94 be 1e 8c aa be 53 ea 08 bf 31 7e 0e bf
       -0.289631 -0.33310026 -0.5348255 -0.556613
0000b0 b5 93 a3 be 95 e3 c4 3c 86 df 0c bc 0e 29 29 3d
       -0.3194863 0.0240343 -0.008598214 0.04129892
0000c0 2c 7f 21 be b0 64 b2 be 99 42 9a be 02 ef 7d be
       -0.15771168 -0.34842443 -0.30128935 -0.24798205
0000d0 3f 09 b9 be de 11 bc be 9b 89 ed 3e 78 0a 54 3f
       -0.36139867 -0.36732382 0.46394047 0.82828474
0000e0 1a f5 de 3e 94 6b 01 be 75 23 77 3e 9e e5 1f be
       0.43546373 -0.12638694 0.2413462 -0.15614936
0000f0 15 9a 6d be 49 1e 35 3e ff 59 cd bd f7 d5 4c 3f
       -0.23203309 0.17687334 -0.10026931 0.80013984
000100 0b 6c b7 3f 57 5c 1e 3f 17 b1 8a bd 20 a9 11 3f
       1.4329847 0.6185965 -0.067720585 0.5689869
000110 25 17 01 bc a5 a7 cf 3d d2 fb dc 3e de fa 42 bd
       -0.007879053 0.101393975 0.43160874 -0.047602527
000120 7c 6c 05 3d 29 3b 9d 3e 11 1f c1 3d cf ce 02 bf
       0.032574162 0.30709198 0.094297536 -0.51096815
000130 87 ac 6b be 34 7a d3 be f6 e3 73 be 42 ea b1 bd
       -0.23015033 -0.4130417 -0.23817429 -0.08687259
000140 39 0e 96 be f1 d2 23 bf 18 00 e9 be db b5 97 be
       -0.29307726 -0.63993746 -0.45507884 -0.29630932
000150 43 5a cd be 86 89 4c bf 19 a8 ab be 08 51 8f 3e
       -0.40107927 -0.79897344 -0.33526686 0.2799151
000160 19 3d 84 bd a5 e8 8a 3e 8a 9f a4 be be f7 97 bd
       -0.06456966 0.2713062 -0.3215297 -0.074203
000170 4f ba 84 be 76 cd 17 bf 0a fa 51 bf f7 5f 23 bf
       -0.25923392 -0.59297884 -0.82022154 -0.63818306
000180 a8 bc 70 bd 27 dd 38 be 3c ff 98 3b 76 5a d2 be
       -0.058773667 -0.18053113 0.004669098 -0.4108464
000190 7c e5 2e be b2 0c c3 be 7a 51 04 bf 3a ac 14 bf
       -0.17079729 -0.38095623 -0.51686823 -0.58075297
0001a0 95 20 cb be 4f ce 3f 3e 95 45 79 bd 51 02 7a 3e
       -0.39673296 0.18731044 -0.060857374 0.24414946
0001b0 d8 98 9d 3d 56 61 43 be dd 52 47 bd a1 4e 93 be
       0.07695168 -0.190801 -0.04866301 -0.28770927
0001c0 c8 26 80 be cb d1 14 be 4c 82 89 be 68 cb c6 bb
       -0.25029588 -0.14533155 -0.2685722 -0.0060667284
0001d0 70 81 7b bc 9f 5a ff bc a9 69 24 bd 78 72 98 bd
       -0.0153506845 -0.031171141 -0.040139828 -0.07443708
0001e0 7b 29 b5 be 25 d2 a1 be 98 a5 06 bd b5 38 2d bc
       -0.3538321 -0.3160564 -0.032872766 -0.010572602
0001f0 57 e4 cd bd 08 a6 34 3e 0b 5c 9b bc b7 db 47 be
       -0.10053318 0.17641461 -0.018964788 -0.19517408
000200 b8 a2 cd bd 6f 6b 95 be 0f ba 8c be 89 fe 1a be
       -0.10040802 -0.29183528 -0.274857 -0.1513616
000210 d8 b9 74 3e 95 97 88 3d 31 fb 2f 3e 0e 93 02 bf
       0.23899019 0.06669537 0.17185666 -0.5100564
000220 1f db 55 bf c9 30 49 bf 48 42 aa bd a6 3e 85 be
       -0.8353748 -0.78590065 -0.083134234 -0.2602436
000230 a4 f4 7e be df ca 1c 3f a4 8a c7 3e a6 c0 8c 3e
       -0.2489801 0.61247057 0.38972962 0.2749073
000240 90 6c 11 bf fe c4 12 bf 52 b2 23 bf 00 75 2e be
       -0.5680628 -0.57331836 -0.6394397 -0.1703682
000250 44 ed df bd 23 6c 82 bd fc b8 14 3f fc 5d 0d 3f
       -0.10933927 -0.06368282 0.58094764 0.55221534
000260 56 90 fa 3e 33 32 5e bf 0d 7d f5 be cd 02 a7 be
       0.48938245 -0.8679535 -0.4794697 -0.32619324
000270 f9 cd e8 be 03 1a a3 be df 7b 39 bd b0 f9 c2 3e
       -0.45469645 -0.31855783 -0.04528415 0.3808112
000280 7e 35 e2 3e 61 5d e8 3e b5 b2 59 be 67 3d 09 bd
       0.44181436 0.45383742 -0.21259578 -0.033505823
000290 01 a5 8a be 78 ab 77 be b9 a0 cc bd e0 f3 8d 3d
       -0.27079013 -0.24186504 -0.09991593 0.06931281
0002a0 aa ee c5 be 41 30 45 be 7b 5f 2a be bd 95 76 be
       -0.3865865 -0.19256689 -0.16637985 -0.24080558
0002b0 0f 0d 2e 3e 92 66 58 3e e4 d3 63 be 51 b3 ab 3e
       0.16997169 0.21132877 -0.22248799 0.33535245
0002c0 92 be cd 3e 93 68 4c be 28 c5 b4 bd c3 27 60 3d
       0.40184456 -0.19961767 -0.08826667 0.05472542
0002d0 5b 2d f2 bd 89 a7 05 3e b0 45 3e 3e fa eb d6 bd
       -0.11825057 0.13052191 0.18581271 -0.10494228
0002e0 28 ad 7f 3e 03 84 4e 3f 4a a3 5b be dd 6b c7 3d
       0.24968398 0.80670184 -0.21449009 0.0973737
0002f0 62 96 16 3e 82 59 1a 3f 4c d1 83 3e 42 e6 97 3e
       0.14705804 0.6029283 0.25745618 0.2966786
000300 c8 4a 12 bd d2 65 32 be da 93 25 3d 7e ce f0 bd
       -0.03571585 -0.17421654 0.040424205 -0.11758135
000310 2b f3 48 be 7e 13 59 be 98 55 93 3e 05 6c 42 3e
       -0.19624011 -0.21198842 0.2877624 0.18986519
000320 ad 5b 41 3e d2 3e 81 3d c2 15 18 be 87 7a 75 be
       0.18882628 0.0631081 -0.1485205 -0.23972522
000330 54 c1 b5 bd 88 6c 86 be 7c 1a 90 be 97 aa 8d bc
       -0.08874765 -0.26254678 -0.28145206 -0.017293258
000340 b4 11 69 3d 87 f3 9d 3d a3 c5 82 bd 14 4b 73 be
       0.05690165 0.07712465 -0.063853525 -0.23759109
000350 d4 18 99 be 1a 65 c6 bd 6e d9 87 be 7a a0 70 be
       -0.29901755 -0.09687252 -0.26533073 -0.23498717
000360 cd d4 16 bd 3d bb c3 3e 8f a5 9e 3e 8b 39 b9 bb
       -0.036824036 0.3822879 0.30985686 -0.0056526116
000370 59 d9 8f 3e d8 04 f5 3d 48 7e 2d be f1 10 e4 3e
       0.2809551 0.119638145 -0.16942704 0.44544175
000380 a3 14 40 3e 95 02 dd 3d 68 dd 06 3f 7e e9 d6 3e
       0.18757872 0.10791508 0.5268159 0.41975015
000390 11 e5 fa 3d 60 a6 88 3f b7 0b 2a 3f 16 84 b6 bc
       0.12250722 1.0675774 0.66424125 -0.02227978
0003a0 47 57 42 3f fb 17 70 3f 7c 5d c9 3b f8 ea b5 3d
       0.75914425 0.9378659 0.0061451774 0.08882707
0003b0 31 67 81 3e 31 4c 98 be bc 95 8c 3e 5c 2b 53 3e
       0.2527404 -0.2974563 0.27457988 0.20622009
0003c0 27 98 b4 bd 41 c7 81 3e 09 9d ab 3e 01 48 79 be
       -0.08818083 0.2534733 0.33518246 -0.24343874
0003d0 83 1d 51 be d0 f1 90 be 6d 24 63 be f8 a2 2a be
       -0.20421414 -0.28309488 -0.22181864 -0.1666373
0003e0 c4 78 e7 bd 70 95 3a bc 16 42 8e be 6b 37 74 be
       -0.11302331 -0.011388168 -0.27784795 -0.23849265
0003f0 48 9f 11 be 52 ec b1 3a 27 a4 c5 3d 21 8a 57 be
       -0.14220917 0.0013574457 0.0965045 -0.21048786

down_convs.1.conv1.bias f4 [6]
000000 99 36 2e bc df 94 0c 3d f7 71 89 bc 2b 35 1c be
       -0.010633134 0.034321662 -0.016777975 -0.15254657
000010 4b d9 1d bb 31 f1 0a 3d
       -0.0024085816 0.033921424

down_convs.1.conv2.weight f4 [6, 6, 3, 3, 3]
000000 9d 98 d4 bd 6a fb c0 bd 89 e5 96 be 72 78 b6 3c
       -0.10380671 -0.094229534 -0.29471996 0.02227423
000010 2b be 23 3e 87 37 4e bc 9f 2f 11 3d 31 9f 0b 3e
       0.15990512 -0.012586481 0.035445806 0.13634945
000020 8b 5e 0a be 79 78 41 3e 88 5f 3b 3e e0 2d 4e bc
       -0.13512628 0.18893613 0.18298161 -0.01258418
000030 06 a5 b2 3e 1a b4 24 3f e0 d1 59 3e 36 6e b8 3e
       0.34891528 0.64337313 0.21271467 0.36021584
000040 81 a4 73 3f 99 2d 15 3f 53 39 1e 3e 18 82 3d bd
       0.9517289 0.582727 0.15451555 -0.046266645
000050 77 b3 9b 3c fc 37 71 3e 79 96 1f 3f 92 9f 6b 3e
       0.019006474 0.23556513 0.6233898 0.2301009
000060 96 b6 e1 3e 3f 40 99 3f 03 79 1d 3f e8 d6 8e bd
       0.44084615 1.1972731 0.61512774 -0.06974584
000070 42 20 4a be 4c 80 b2 bd 74 d0 66 be 13 f4 08 be
       -0.19738868 -0.08715877 -0.22540456 -0.13374357
000080 ce ae 90 be 8e c4 a2 be 28 d6 a8 be 7b e0 0f be
       -0.28258365 -0.31790584 -0.32975888 -0.14050476
000090 4d bc 20 bd 7e de 5a 3c 2f 4d 22 3d 40 eb 1c bd
       -0.039242078 0.01335871 0.03962439 -0.03831029
0000a0 b2 d0 f1 bd d7 f6 a7 bd 70 9b 63 be 87 12 83 be
       -0.118073836 -0.08201378 -0.22227263 -0.25600073
0000b0 d1 4a 0b be c2 91 f5 bd 7d c7 73 3d a6 3d 21 be
       -0.13602759 -0.11990692 0.05951642 -0.15746173
0000c0 70 cf 03 bc f4 7d 1e be e2 51 56 3d 03 00 9b be
       -0.008045062 -0.15477735 0.052324183 -0.30273446
0000d0 9b ed 24 be 76 41 45 be 5f 09 58 3e 22 98 81 3e
       -0.16106264 -0.19263253 0.21097325 0.2531138
0000e0 a8 7d 41 be 96 76 af 3e 9d 83 8f 3e 3e 43 78 bd
       -0.1889559 0.3427016 0.280301 -0.060611002
0000f0 3b f8 21 3e 3d 16 04 3f 1d af 77 be 72 49 be 3e
       0.15817349 0.5159643 -0.24187894 0.3716541
000100 a2 57 23 3f 0c 6e d8 3c 83 cd 58 3f 14 33 a1 3f
       0.6380559 0.026419662 0.84688586 1.2593713
000110 73 f9 87 3d e2 22 27 3f 78 4a 7f 3f 8b e0 bb 3d
       0.066393755 0.652876 0.99723005 0.091736875
000120 0b db 71 3d 88 ad 1a 3e a0 d1 1c be be e2 b1 3e
       0.059046786 0.1510526 -0.1531434 0.34743303
000130 91 11 1a 3f 36 29 cd 3c 8a b9 e3 3e 96 d9 00 3f
       0.60183054 0.025044065 0.44477493 0.5033201
000140 6a 2f 5e 3d 46 5c 83 be dd 7e eb bd 3e c6 37 be
       0.054244436 -0.25656337 -0.114988066 -0.17946717
000150 f6 8d 46 be 7f d3 2f be ac 82 fa bd 4e 4a 17 be
       -0.19390091 -0.17170523 -0.12231955 -0.14774439
000160 8c a7 9c be 1c bd 02 3d 6a 23 49 be 20 80 58 be
       -0.30596578 0.03191863 -0.19642416 -0.21142626
000170 fa db b4 be ff b6 14 be 5e 37 2c bd 20 c3 4a be
       -0.3532408 -0.14522932 -0.04204499 -0.19800997
000180 6b 3e aa be 33 fe 9b be e6 08 28 be d6 5a 23 be
       -0.33250746 -0.30467376 -0.16409644 -0.1595262
000190 13 88 76 be 0f d2 88 bd 6e 09 84 bd b9 b9 61 be
       -0.24075346 -0.066806905 -0.06447111 -0.22043504
0001a0 ae 28 36 bd 08 21 72 bd b8 16 2e be 0e 58 a0 be
       -0.04447239 -0.059113532 -0.17000854 -0.3131718
0001b0 57 3e 58 3e 4c 18 07 3f a9 b4 22 bb cc 02 e7 3c
       0.21117531 0.5277145 -0.002482692 0.028199576
0001c0 51 54 d5 3e c0 7c d5 3c 84 9b bc 3d e2 28 00 3e
       0.4166589 0.026060462 0.0920935 0.12515596
0001d0 c1 7f b1 3d d1 f1 c4 3e 74 76 a1 3f a3 b5 8c 3e
       0.08666945 0.3846574 1.2614274 0.27482328
0001e0 fe db d8 3e ad d8 99 3f 72 b9 0a 3f f3 5d 69 3e
       0.4235534 1.2019249 0.5418922 0.22789745
0001f0 af 39 3c 3f 52 12 a7 3e c7 77 0c 3c 3a f5 24 3e
       0.7352552 0.32631165 0.008573479 0.16109172
000200 2d d3 62 3e f7 cf 69 3e dd 13 1a 3f f0 6a 39 3e
       0.2215087 0.22833239 0.6018656 0.181072
000210 cd b9 77 3e 56 69 07 3f ab 42 b9 3e 1f 57 63 3d
       0.24191971 0.52895105 0.36183676 0.055503007
000220 95 4f d3 3d ec ed 4e 3e 24 8b 98 bd 28 48 99 bb
       0.103179134 0.20207947 -0.07448414 -0.004677791
000230 7c ca ae 3c fe b2 a6 be 37 36 23 bf 0e 0a f6 be
       0.021336786 -0.32558435 -0.637546 -0.48054546
000240 26 8c d4 3d ba 94 08 3e ce cd 12 3e fe dc 0f bd
       0.10378294 0.13337985 0.14336321 -0.035122864
000250 01 55 de 3d e1 47 62 3d ce 17 ba be 8d 18 d3 be
       0.10856057 0.05524433 -0.36346287 -0.41229668
000260 7a a8 b3 be 45 ed 17 be 42 99 9d 3c 81 ad 40 3e
       -0.35089475 -0.14836605 0.019238118 0.18816186
000270 36 0d cc bc 09 d1 da 3c 80 0f 16 3e e6 39 91 be
       -0.024908643 0.026711004 0.1465435 -0.28364486
000280 51 35 e9 be ee ab e4 be a1 18 c6 3e 24 00 a5 3e
       -0.4554849 -0.44662422 0.38690665 0.3222667
000290 28 09 60 3e e7 5e 03 3f 93 b6 d0 3e 58 d1 e5 3e
       0.21878493 0.51316684 0.40764293 0.4488628
0002a0 55 b3 05 bd 74 23 ab bc 43 3d 34 3e 0a c7 12 3e
       -0.032641727 -0.020890929 0.17601494 0.1433374
0002b0 c2 89 fb 3c d9 40 9f 3d 03 53 52 3e 16 2c 2b 3e
       0.030705336 0.077760406 0.20539479 0.16716036
0002c0 90 3a 39 3e c2 02 4b be fe 4f 80 be 5f 37 50 be
       0.18088746 -0.19825271 -0.2506103 -0.20333622
0002d0 89 e1 ab 3d eb 12 d6 bb 0f b8 30 3b 8b c1 57 3d
       0.08392627 -0.006533017 0.0026965176 0.05267481
0002e0 fe a5 86 bc a2 f6 b0 3c 39 65 94 be db bf 72 be
       -0.016436573 0.021601979 -0.28983477 -0.23706
0002f0 c3 7e 8e be d1 40 af be f0 07 cf be b7 17 05 bf
       -0.27831087 -0.34229138 -0.40435743 -0.5198931
000300 8a d8 5f be 54 0c 67 be ac 7c bf bd c7 5d a3 3c
       -0.21859947 -0.22563297 -0.09349951 0.019942177
000310 c2 6f 62 3d 1e ee 06 be 3a 54 cc be 61 e1 af be
       0.05528236 -0.13176772 -0.3990801 -0.34351638
000320 25 b3 97 be 5f d5 33 bd 42 f8 96 bd 2c 95 af 3c
       -0.29628864 -0.04390466 -0.0737157 0.021433435
000330 30 14 d2 3d 51 a8 ca 3d 35 8f 87 3d 64 aa 46 be
       0.10257757 0.09895385 0.066191114 -0.19400936
000340 5e bf cb be 97 b5 f9 bd 07 01 6c be 67 ce 78 3d
       -0.3979444 -0.12192839 -0.23047267 0.060743716
000350 c4 16 ae 3b 4b 07 08 3e d4 57 2a 3e 2e 0f 37 3e
       0.0053127725 0.13284032 0.16635066 0.17876884
000360 43 79 ac bd 4b 24 19 3e 2b a2 e5 3d 34 18 48 be
       -0.08421566 0.14955251 0.11212572 -0.19540483
000370 2d 29 59 be c0 52 e0 bd 84 74 a8 bd f0 c7 a5 be
       -0.21207114 -0.10953283 -0.082253486 -0.32379103
000380 ef 15 35 be 47 86 6e be 29 ed 94 be fd 23 63 be
       -0.17684148 -0.2329341 -0.2908719 -0.22181697
000390 6c 03 fb be 3a 13 56 be 38 c7 23 be 8f ae 94 bd
       -0.49026048 -0.20905772 -0.15993965 -0.07259857
0003a0 8e 40 a8 be e2 95 94 be 50 b9 a1 be e1 45 8f be
       -0.3286175 -0.29020602 -0.31586695 -0.27983
0003b0 75 40 7f be 72 34 8c be 3e 53 ff be de f6 50 be
       -0.24926932 -0.27383763 -0.49868196 -0.20406672
0003c0 a3 f1 90 be ef 44 c3 be 67 1f d3 bd f5 2e 93 be
       -0.28309354 -0.3813853 -0.10308724 -0.28746763
0003d0 97 82 9f be cf 4b 22 bf 44 0a 63 be ed 14 0e be
       -0.3115432 -0.63396925 -0.22171885 -0.1387517
0003e0 1a ac c5 be e3 08 cc bc c2 9d 24 be 22 96 29 be
       -0.38607866 -0.024906581 -0.16075805 -0.16561177
0003f0 18 6b ba be 28 16 51 be 66 db 90 be 6f 65 a5 bd
       -0.3640983 -0.20418608 -0.28292388 -0.080759875

down_convs.1.conv2.bias f4 [6]
000000 e1 46 38 bb 68 e0 b0 bc 9d e5 1a bd 00 51 0e 3c
       -0.002811842 -0.02159138 -0.037816633 0.008686304
000010 28 20 a9 3a 08 6a 6f 3c
       0.001290326 0.014612682

down_convs.1.norm0.weight f4 [6]
000000 ae b2 72 3f 34 13 c7 3f bb 37 32 3f 56 62 ac 3f
       0.94803894 1.5552735 0.6961629 1.346751
000010 93 fb 4a 3f 81 32 aa 3f
       0.7929012 1.3296663

down_convs.1.norm0.bias f4 [6]
000000 7d 5e 82 bd 48 b4 53 3e f2 67 e9 be d2 74 ad 3e
       -0.063656785 0.2067424 -0.45587116 0.3387819
000010 e4 11 96 be 53 1e 3e be
       -0.29310524 -0.18566255

down_convs.1.norm0.running_mean f4 [6]
000000 bb d9 dd be b2 09 42 c0 8b 94 08 40 34 25 17 c0
       -0.43330178 -3.0318418 2.1340663 -2.3616457
000010 c0 a4 42 40 86 aa 00 3e
       3.0413055 0.1256505

down_convs.1.norm0.running_var f4 [6]
000000 df 40 ab 41 1d 04 98 42 20 52 49 42 02 6c 3b 42
       21.406675 76.00803 50.3302 46.855476
000010 08 d5 ae 42 55 82 00 42
       87.41608 32.127277

down_convs.1.norm1.weight f4 [6]
000000 9e 9d 6d 3f 5c 40 61 3f 4f 2a a0 3f 8b 0a 97 3f
       0.9281863 0.8798883 1.2512912 1.1800092
000010 1e 14 4c 3f 79 35 8d 3f
       0.79718196 1.1031944

down_convs.1.norm1.bias f4 [6]
000000 b4 be 58 be 9d 49 27 be 61 87 88 3e 49 f7 8b be
       -0.21166497 -0.16336675 0.26665786 -0.273371
000010 9a f8 b6 be da 4b 01 bf
       -0.35736543 -0.50506365

down_convs.1.norm1.running_mean f4 [6]
000000 e5 65 ac bf ef ed ba c0 f5 29 c5 c1 3f ba 05 c1
       -1.3468596 -5.8415446 -24.645487 -8.35797
000010 fb 24 95 c0 d8 7c 9c c0
       -4.660764 -4.8902397

down_convs.1.norm1.running_var f4 [6]
000000 e7 62 63 43 b5 23 9a 42 3b fc ab 42 ac 19 5a 42
       227.38634 77.06974 85.99264 54.52507
000010 00 3b d4 42 f1 bf 99 42
       106.115234 76.874886

down_convs.2.conv1.weight f4 [12, 6, 3, 3, 3]
000000 42 c0 ee 3e e0 03 16 3e 21 f4 ff 3e 3c 9a e6 3d
       0.46631056 0.14649916 0.49990943 0.112598866
000010 39 2f 3f be 89 e5 a2 3d 07 6a 28 3d 50 4a d5 be
       -0.18670358 0.079539366 0.04111674 -0.41658258
000020 96 ae a2 bd 80 0e a1 3e 38 97 82 bd a5 77 8e 3e
       -0.07943456 0.31456375 -0.06376499 0.27825657
000030 75 52 dd 3c 8b 2a d4 be 3b fb 25 be 14 2d 58 be
       0.027016858 -0.41438708 -0.16209118 -0.21110946
000040 1f da 1d bf b3 26 c3 be c8 63 b2 3e 8c aa 97 3e
       -0.6166095 -0.38115463 0.34841752 0.29622304
000050 d6 b8 a6 3e e1 e8 7e 3e 3d d4 4c be a9 d3 2a 3d
       0.32562894 0.24893524 -0.20002837 0.04170576
000060 7b 3a a9 3d 12 5a 69 be 09 8c a4 be 79 cb 48 be
       0.082631074 -0.22788265 -0.32138088 -0.19608869
000070 69 15 36 be ea 5d e9 be bb 4a ae bd b4 1f ad bc
       -0.17781605 -0.45579463 -0.085103475 -0.021133281
000080 7b 08 38 be 70 c0 a2 3e a6 6e 8e 3e f3 e4 12 3e
       -0.17971985 0.31787443 0.27818793 0.1434515
000090 62 5b a8 3b 04 7b e2 3c a5 bc 9e 3d 56 6d d0 3c
       0.005137847 0.027646549 0.07750825 0.02544276
0000a0 f8 d7 05 3d 6d a4 1c bd 27 79 6d 3e 57 f5 60 3e
       0.032676667 -0.038242746 0.23190747 0.2196859
0000b0 87 98 df 3d 47 94 aa 3d 06 a9 c5 bd 13 aa a0 bd
       0.10917764 0.08329063 -0.09651379 -0.07844939
0000c0 a9 b1 c1 bd ba 02 df bc 97 c5 21 be ee d2 f7 3d
       -0.09457714 -0.02722298 -0.15798031 0.121007785
0000d0 41 52 89 3d 74 fe 2d 3d 44 e3 22 bf 95 f2 f8 be
       0.06705142 0.042478994 -0.6362803 -0.48622575
0000e0 3e 10 37 bf 64 52 9a be 2f dc 2d be 40 0b b9 be
       -0.7150916 -0.30140984 -0.16978525 -0.36141396
0000f0 54 4d 80 3e 8c fc a7 3e 02 6e 9a 3e 96 6a fa be
       0.25058997 0.32809865 0.30162054 -0.48909444
000100 9d ee 8d be 73 11 e5 be e9 a0 98 3d 81 5c 6f 3e
       -0.2772111 -0.44739875 0.07452566 0.23375131
000110 c4 87 f0 bc e5 9c e1 3e fa ca 34 3f 37 b7 25 3f
       -0.029361613 0.44065014 0.7062222 0.6473269
000120 81 16 dc be c4 b9 b1 be 66 f0 d7 be 55 4a 56 be
       -0.4298592 -0.3471204 -0.42175597 -0.20926793
000130 e0 b8 7c 3e 81 c3 95 3d 07 62 b9 3e 0a 5d 0c 3f
       0.24679899 0.0731268 0.362076 0.54829466
000140 c2 ea 31 3f 5e 73 1f 3f 93 18 e3 3e bb 9b c3 3e
       0.69498837 0.6228541 0.44354686 0.3820475
000150 0d 3a 0c 3e 80 6e bc bd bb 37 54 3d 5d b8 41 3d
       0.1369402 -0.09200764 0.05181096 0.047294963
000160 37 db 82 be 83 9c 9f 3c b4 4e c9 3e b9 aa 8e 3e
       -0.25557873 0.01948381 0.39317858 0.27864626
000170 5c 07 d4 3e 94 67 6e 3e 42 e2 6a be 0e dc c0 bb
       0.41411865 0.232817 -0.22937873 -0.0058856076
000180 0b 38 e6 3c e6 bc e2 be f5 9f a2 be 9c 74 c5 3e
       0.028102895 -0.44284743 -0.31762663 0.38565528
000190 81 9e 6c 3e d3 df f3 3e f6 08 b5 3e 8a 1b 9d 3d
       0.2310734 0.47631702 0.353584 0.07671268
0001a0 42 ed 7b 3e 20 a2 3e 3e 73 00 0f be 61 4a 82 bd
       0.24602225 0.18616533 -0.13965015 -0.06361843
0001b0 99 7a 47 3e fe aa 1d 3e db 42 a3 3e cc 9d 9c 3e
       0.19480361 0.1539726 0.31886944 0.3058914
0001c0 36 4a 3c 3d 66 37 3f 3e 4b b6 d6 3e 99 03 52 3e
       0.04596921 0.18673477 0.41935953 0.20509185
0001d0 8f 37 f7 bb 23 d4 94 3e ff 60 2a 3d a0 6b 17 3e
       -0.007544465 0.29068097 0.04159641 0.1478715
0001e0 0a 2e 90 3e 5b de bf bd 03 8b a0 3c 6b 82 b5 3e
       0.28160125 -0.09368583 0.019597536 0.35451064
0001f0 21 da ed 3d 6a b3 10 3e 51 83 5c 3e 82 7c 3b 3e
       0.116138704 0.14130941 0.21534468 0.18309215
000200 8b 20 8c 3e 82 c5 c4 3e af ad 46 3d 97 63 83 3d
       0.27368578 0.38431937 0.04850548 0.0641548
000210 9c ec c1 3e f9 5b 2d 3e b3 b8 0f bc 7a a2 9f 3e
       0.3787583 0.16929616 -0.008772063 0.31178647
000220 7c 26 22 3e 90 17 45 3e 87 a3 cf 3e fa a8 22 3d
       0.15834993 0.1924727 0.4055445 0.03971193
000230 b1 76 5d 3d b2 6c 70 3e 54 1f f2 3d 25 05 18 bd
       0.05406827 0.23478964 0.118223816 -0.03711428
000240 46 5f 92 3e 13 59 99 3d d9 76 20 3e ef 20 bd 3e
       0.28588313 0.07487693 0.15670337 0.3693919
000250 d4 cd 1c 3e 33 44 50 bd 7e 84 c5 3e 73 a6 1b 3e
       0.15312892 -0.05084629 0.38577646 0.15200214
000260 d9 1f 87 3d e8 3c bd 3e e9 16 83 3e 6d cd b1 3e
       0.06597871 0.3696053 0.25603417 0.3472704
000270 45 26 31 3f 20 49 aa 3e 3e 5a e8 3d e4 ff a0 3e
       0.6919902 0.33258915 0.11345337 0.3144523
000280 e2 2e 16 3e 7e bd aa 3d bb 67 51 bb 6b 1c 70 3d
       0.14666322 0.08336924 -0.0031952697 0.05862085
000290 3e 32 95 3e ae 58 d7 3d a8 12 1b bb 1a 2c 41 3e
       0.29139894 0.10514961 -0.0023662243 0.1886448
0002a0 54 04 f9 3b 1e fe 59 be da b4 be bd fb ee 86 be
       0.007599393 -0.21288344 -0.093118384 -0.26354203
0002b0 50 a9 b6 be 61 e7 c8 3c 35 2f 22 be 7b 39 c9 be
       -0.3567605 0.024524393 -0.1583832 -0.39301667
0002c0 7c 08 bc be 60 2d eb be c6 1a d6 be d3 f7 c9 be
       -0.36725223 -0.45933056 -0.41817302 -0.39446887
0002d0 bc d0 c4 bd 76 02 db bd ad 0a 1b be d9 70 7e be
       -0.096101254 -0.10693829 -0.15140791 -0.24847735
0002e0 fc 74 d0 be 69 85 b1 be 47 7d e9 be 7a 97 0b bf
       -0.40714252 -0.34672096 -0.45603392 -0.5452801
0002f0 f8 17 da be 7c c3 8a 3e 9a f6 83 3e a6 43 9a 3e
       -0.42596412 0.27102268 0.2577408 0.30129737
000300 1d 6d ff 3e 37 ff bb 3e 11 b8 71 3e fc 89 76 3e
       0.49887934 0.3671815 0.23605372 0.24076074
000310 23 cd 1f 3e 54 91 c3 3e 8c 4d ae 3e 41 6f 19 3f
       0.15605597 0.38196814 0.3404354 0.59935385
000320 5b c1 27 3f 4c 9a d3 3e 54 06 0a 3f 83 2b ff 3e
       0.6552941 0.41328657 0.53915906 0.49837884
000330 13 18 d2 bd c9 2b 29 be 2a ca 1f 3e cd 7a 28 3e
       -0.10258498 -0.16520609 0.15604463 0.16453095
000340 d9 ff af 3e a8 56 21 3f ac 56 81 be 38 fc f6 bd
       0.34374884 0.6302285 -0.25261438 -0.12059826
000350 99 24 ae 3d e3 57 4c bf e3 67 4e bf 37 87 a0 be
       0.08503074 -0.79821604 -0.8062727 -0.3135316
000360 ff 4f cb 3e 4a f3 84 3e 87 d1 a1 3e be 40 36 3e
       0.3970947 0.25966865 0.3160517 0.17798135
000370 d6 49 d5 bc d3 c1 6e bd 33 63 56 3e 06 21 05 3e
       -0.026036184 -0.058290314 0.20936279 0.13000879
000380 53 e6 68 3e 0e e6 04 3f 24 fa 36 3f 56 44 3a 3f
       0.22744112 0.51913536 0.71475434 0.7276052
000390 0b ac 9c 3e 06 9f 5e 3e 1e 54 b2 3e 2b 9d 9a 3e
       0.30600008 0.2174035 0.348298 0.30198035
0003a0 27 ff 94 3e b3 25 5a 3e 31 dc 30 3f d3 a6 3e 3f
       0.29100916 0.21303444 0.69085985 0.74473304
0003b0 1b e4 76 3f 8b a5 db 3d dd ff ae 3e f8 33 c2 3e
       0.9644181 0.10724934 0.34179583 0.37930274
0003c0 aa 38 b1 bd e6 9e b5 3d 05 72 6e 3e 86 54 25 3e
       -0.08653386 0.08868198 0.23285682 0.16145524
0003d0 f1 62 c0 3d c5 32 6a 3e 82 42 69 bc c7 d6 7e bd
       0.093938716 0.2287093 -0.014237048 -0.062216546
0003e0 2d 0d 01 bd f7 6c 82 bd b0 a7 3e be 21 ea c3 bc
       -0.031506706 -0.0636844 -0.18618655 -0.023915352
0003f0 6b 14 01 bd d4 18 7d bd 34 9f ef 3c 33 e1 46 be
       -0.031513613 -0.061791256 0.029250719 -0.19421844

down_convs.2.conv1.bias f4 [12]
000000 69 39 19 3b 8e 7b e5 3a 66 ad 85 3b a5 bb 24 3b
       0.0023380166 0.0017508136 0.0040795086 0.002513626
000010 a1 92 56 3b df 40 91 bb 0a 11 7f 3a 9d 2b 14 ba
       0.0032741206 -0.004432782 0.0009730017 -0.0005652251
000020 05 6f 16 3a 1f cb 92 39 27 51 58 3a 53 d7 90 ba
       0.0005738589 0.00027998627 0.0008251839 -0.00110505

down_convs.2.conv2.weight f4 [12, 12, 3, 3, 3]
000000 2b d6 01 bd ca 07 e9 bb 31 66 c1 bd f9 67 f1 3d
       -0.031698387 -0.007111524 -0.094433196 0.11787409
000010 fd c0 8a 3d 2e 71 1a bd 59 e7 4b 3e 96 db 94 3e
       0.06775091 -0.037705593 0.19912471 0.2907378
000020 49 82 bf bd 2a 17 01 be c3 7e 96 bc cf a5 e4 bd
       -0.09351022 -0.12606493 -0.018370992 -0.11164438
000030 40 4c e5 3d 8a 3f 0d 3d ac 35 b6 bd 7c 40 11 3d
       0.11196184 0.034484424 -0.08896956 0.035461888
000040 fe df 87 3e 5f a2 18 3d d4 87 a1 be 2c 53 9d be
       0.2653808 0.037264224 -0.3154894 -0.30727518
000050 75 fa bd be d8 b2 af bd a4 39 15 be 49 d8 98 be
       -0.37105146 -0.085790336 -0.1457277 -0.29852512
000060 7e b1 56 bc 9c 06 85 3d 3f 3c 8c be a5 47 de be
       -0.013103841 0.06495401 -0.27389714 -0.43414035
000070 e1 6c 1c bf 4e fd fe be 16 6c 97 bd 44 cd ee 3d
       -0.61103636 -0.4980263 -0.07393663 0.11660245
000080 87 bc 49 be 2b a8 f4 3d 81 16 1b be 23 ea a6 be
       -0.19700824 0.11946138 -0.15145303 -0.32600507
000090 31 b1 99 be a6 fc 27 be 22 02 60 be 4f 74 79 bd
       -0.30018 -0.16404971 -0.21875814 -0.060901936
0000a0 52 84 cb bd 8d ef ad bd 4f c6 db bd 63 e4 84 be
       -0.099373475 -0.08492956 -0.10731184 -0.25955495
0000b0 30 f9 b3 be 34 9f 14 be 4e 29 cf bd d3 98 5b be
       -0.35151052 -0.14513856 -0.101153 -0.21445017
0000c0 55 ab e6 bd 28 14 9d bd c9 23 0a be 06 bd 43 be
       -0.11263148 -0.0766986 -0.13490213 -0.19115075
0000d0 e8 6e b2 be e3 fb ba be 6b aa 43 be 1b 5d fd be
       -0.3485024 -0.365203 -0.19107978 -0.49485096
0000e0 6e a2 61 bf 61 7d 98 bb 83 9e 5d 3c ed bc f9 bd
       -0.88138473 -0.004653618 0.013526562 -0.12194238
0000f0 90 c3 b5 3e 3c e7 bc 3e 4f 61 0a 3f 7b af a4 bd
       0.35500765 0.36895168 0.5405473 -0.08041283
000100 b6 ad 8e be ac 08 1e bf 36 1b 8d bb 76 23 a4 bd
       -0.27866906 -0.6173198 -0.0043062223 -0.08014576
000110 eb 69 01 be c7 04 62 3e 72 64 1a 3e b4 fd c6 3e
       -0.12638061 0.22072135 0.1507738 0.38865435
000120 70 74 09 bf 8e 2f 28 bf 14 ac 2a bf 4b b3 56 3d
       -0.53693295 -0.6569756 -0.6666882 0.05241708
000130 47 1b 8b 3d 96 ae a0 bc e2 d3 e7 3e 96 46 94 3e
       0.06792312 -0.019614499 0.4527884 0.28960103
000140 bf 40 ee 3e e6 be 9a bf 63 23 3c bf c9 75 06 bf
       0.46533772 -1.2089508 -0.73491496 -0.52523476
000150 81 c9 85 be f9 8d 72 be 6e a0 ef bd 11 93 7e 3e
       -0.26130298 -0.23686971 -0.117005214 0.24860789
000160 4f 3e fa 3d 1e 5c e4 3d 5c a3 57 bf 23 f9 02 be
       0.12218916 0.111503825 -0.8423364 -0.1279035
000170 46 aa 87 3e 0c 98 df be f9 48 db bb ab 75 97 3d
       0.26497096 -0.4367069 -0.0066920486 0.0739549
000180 ce 5c 09 3e 48 08 d9 3d 03 a3 4a 3d 43 ad 3a bf
       0.13414308 0.10597283 0.049471866 -0.72920626
000190 37 ff 0d bd 6f c2 ef 3d 19 ce 61 be c4 28 82 bd
       -0.03466722 0.11707007 -0.22051276 -0.06355432
0001a0 82 5a 05 3e 92 3e 5f 3e e4 df 21 3e ea 97 62 3e
       0.13022807 0.21801212 0.15808064 0.22128263
0001b0 44 5e a9 3c ea 2b 28 3e 99 50 88 3e ae 6b 7f be
       0.020674832 0.16423002 0.2662399 -0.2494342
0001c0 b6 83 93 3d 25 22 7a 3d ea 4e ac bd 39 24 df 3d
       0.07202856 0.06106772 -0.08413489 0.10895581
0001d0 4a 9a 8f 3d f7 2c 0d 3d aa 87 17 3e d7 94 aa 3e
       0.0701185 0.03446671 0.14797845 0.3331668
0001e0 d5 6d fc bd e1 96 0d 3e 04 db 46 3e 10 89 0e be
       -0.12325636 0.13827087 0.19419485 -0.13919473
0001f0 c0 00 d5 3c 6d 35 28 3d 63 c5 3c 3e a7 92 86 3e
       0.026001334 0.041066576 0.18434672 0.26283762
000200 52 f1 63 3e f9 8a 26 be cf 30 14 3d cb 77 12 3e
       0.22260025 -0.16263951 0.03617936 0.1430351
000210 98 11 e9 bd 8c a6 66 3b 62 86 cb 3d fc 87 89 3e
       -0.11380309 0.0035194485 0.09937741 0.2686156
000220 2c f9 3e 3e 30 d9 9e 3d e8 14 9b 3e bc d8 37 3e
       0.18649739 0.07756269 0.30289388 0.17953771
000230 4c a5 33 3d c5 48 6a 3e 3c 2c 8b 3d c3 1b 9c 3d
       0.04385881 0.22879322 0.067955464 0.07622483
000240 b5 76 7d 3e a5 e0 7e 3d 7f 04 7c bd b6 60 45 3e
       0.24752314 0.062225956 -0.061527725 0.19275174
000250 ce c2 49 3d 84 ee 30 bd 87 5d 1d 3e ec 54 16 3e
       0.049258046 -0.043196216 0.15367709 0.14680833
000260 89 55 87 bd 8e a3 78 3e dd 8c b1 3d 66 43 d8 bb
       -0.066081114 0.24281141 0.08669446 -0.0065998314
000270 f2 33 b3 3d ca 2c c6 bc 51 e7 da bd 2b b5 87 3d
       0.08750142 -0.024191279 -0.10688651 0.06626352
000280 ea 3a c0 3a 65 1d 4c be 8c ea b9 be 52 a6 a4 3c
       0.0014665995 -0.19933088 -0.36311758 0.020098839
000290 57 dd a1 3c 77 ee c4 be 99 0d fd 3d 16 57 20 3e
       0.019758863 -0.38463184 0.12356109 0.1565822
0002a0 b9 9d e0 3c 16 2a 43 3e 15 c9 25 3f 0d 82 95 be
       0.027418958 0.19059023 0.6475995 -0.29200783
0002b0 a2 8b 51 3e b4 e0 76 3e 62 08 c3 bd 09 fc 89 3e
       0.20463422 0.24109155 -0.09523083 0.269501
0002c0 a0 80 ae 3e 07 95 13 3e 51 1f 76 3e d8 39 e2 3e
       0.34082508 0.14412318 0.24035384 0.44184756
0002d0 3a de c9 be 81 43 a8 3d e8 e7 64 3c 14 e4 5c be
       -0.39427358 0.08216 0.013971306 -0.2157138
0002e0 66 c3 6c 3e 88 60 62 3e 09 ed da 3d 5f db bf 3e
       0.23121414 0.22107136 0.10689742 0.37472054
0002f0 a3 e4 bf 3e 5d 7e 0a be a3 eb cf 3b 03 26 50 bd
       0.37479123 -0.13524766 0.0063452288 -0.0508175
000300 2f f2 aa bc 8c f2 f5 bb 42 da 6e bd 4e 34 2c bd
       -0.020867435 -0.0075057205 -0.058313616 -0.04204207
000310 8c ba a4 bb b7 c9 75 bb 18 93 41 be 27 8c fe bd
       -0.005027121 -0.0037504265 -0.18903768 -0.12429076
000320 dd af e7 bd 7a d2 9d bd ea 72 b1 bc 01 83 06 bd
       -0.1131284 -0.07706161 -0.02166124 -0.03283978
000330 9a 32 d5 3d ff 86 22 3d 22 ba 0d bd d2 dd 1b be
       0.10410042 0.039679524 -0.03460134 -0.15221336
000340 e3 b6 13 be 83 30 7d be 8f 0b ef 3a ea c9 50 bd
       -0.14425234 -0.24725537 0.0018237698 -0.05097381
000350 7f a6 b5 bd ee 30 48 bd ff 30 7d bd 40 cc b7 bc
       -0.08869647 -0.048874788 -0.061814304 -0.022436261
000360 9d 5f 2b bb 53 45 55 be dc 4c 25 be 2b d4 48 3e
       -0.002614952 -0.20827226 -0.16142601 0.19612186
000370 a1 db 3f bd a7 cd 7f bc b5 df 72 3d d6 e4 41 bd
       -0.046840314 -0.015612996 0.059295375 -0.047337376
000380 cc ea 9c 3d dd 44 3a bd b5 d6 7d be b9 bb 72 be
       0.076619714 -0.04547583 -0.24788935 -0.23704423
000390 24 dc 0d 3e c6 7a f1 3d a4 4e d8 bb 56 1c 01 bd
       0.13853508 0.11790995 -0.0066011716 -0.031521164
0003a0 7a 7c 8a bd b1 fe 93 bd 4b 13 ed bd dd 09 42 be
       -0.06762023 -0.07226313 -0.115759455 -0.18949075
0003b0 56 48 97 be 0a 77 f5 3d 44 51 32 bc 6e f5 92 bd
       -0.29547375 0.119855955 -0.010883633 -0.07175718
0003c0 eb d2 ff bc a3 d3 b2 bd 40 3d f2 bd 25 83 7e 3e
       -0.031228503 -0.08731773 -0.11828089 0.24854715
0003d0 04 ca 81 3d 8c c7 35 3d 20 a5 9f 3e 45 11 83 3e
       0.063373595 0.044379756 0.31180668 0.25599113
0003e0 38 24 e2 3d c4 e1 06 3e fa 9c 21 3e 75 51 84 3d
       0.110420644 0.1317206 0.15782538 0.06460849
0003f0 f8 27 89 bd e4 07 2a be 13 bf e5 bc 58 6a 09 3e
       -0.066970766 -0.16604573 -0.028045213 0.13419473

down_convs.2.conv2.bias f4 [12]
000000 f5 af 26 3b 24 fe 39 3b 72 f4 0c bc 0b 68 4d 3b
       0.0025434468 0.002838024 -0.008603202 0.0031342532
000010 00 d5 66 3b 5e dc 0f b9 65 51 25 b8 f6 51 b2 3a
       0.0035222173 -0.00013719636 -3.941487e-05 0.0013604749
000020 57 9f c5 3a dd f6 3a bb 96 cc e0 3b 0d 3c 2c 39
       0.0015077394 -0.002852849 0.006860326 0.00016425569

down_convs.2.norm0.weight f4 [12]
000000 5d 21 48 3f c9 50 75 3f d4 5f 9c 3f 6d 85 86 3f
       0.7817591 0.95826393 1.2216744 1.0509468
000010 84 98 95 3f 24 f2 b2 3f 47 b9 93 3f 33 9a 64 3f
       1.1687169 1.3980145 1.1540917 0.8929779
000020 13 a8 30 3f 83 7d 32 3f 48 e2 93 3f e7 38 46 3f
       0.6900646 0.69722766 1.155343 0.77430576

down_convs.2.norm0.bias f4 [12]
000000 10 dd e5 bd db df 39 bc 94 28 c3 be 1e ec b7 be
       -0.11223805 -0.011344875 -0.38116896 -0.3592233
000010 28 d1 39 3e 49 ba 89 bd 34 a3 37 3d e5 42 5c 3e
       0.18146193 -0.06724984 0.044833377 0.21509893
000020 81 2c b2 3e 85 9f 0f be 80 32 46 bf 4c 7d 86 3e
       0.3479958 -0.14025696 -0.77420807 0.2626747

down_convs.2.norm0.running_mean f4 [12]
000000 4e 2c 25 40 71 d0 7d 40 0b 3d ac 40 9e 75 71 40
       2.5808291 3.9658473 5.3824515 3.7728038
000010 a7 b9 36 3f df b3 23 40 82 a0 d5 3f b3 e0 26 c1
       0.71377033 2.5578535 1.6689608 -10.429858
000020 a9 eb ac c0 18 7d 13 c1 87 23 14 41 36 45 c9 c0
       -5.403767 -9.21804 9.258674 -6.2896986

down_convs.2.norm0.running_var f4 [12]
000000 ee 0f 87 42 1d 1a a0 42 26 91 cc 42 d9 07 96 42
       67.53111 80.051 102.28349 75.01533
000010 8f fb 4c 43 71 59 a8 42 1b 90 9b 42 7e 80 53 44
       204.98265 84.17469 77.781456 846.0077
000020 4b b0 9b 43 56 fc 94 43 47 ed 7c 43 8c 5a ab 43
       311.3773 297.97137 252.92686 342.7074

down_convs.2.norm1.weight f4 [12]
000000 fd a0 a2 3f c9 8b 92 3f 17 bb a7 3f 87 a0 be 3f
       1.270538 1.1448909 1.310397 1.4892739
000010 32 9b 6c 3f 66 d8 be 3e df 5f 8f 3e 40 d2 70 3f
       0.9242431 0.37274474 0.2800283 0.94070816
000020 a0 12 d1 3f ae d5 91 3f a4 55 87 3f 36 89 4a 3f
       1.6333809 1.1393335 1.057301 0.7911562

down_convs.2.norm1.bias f4 [12]
000000 6e b9 a4 bd a9 47 3c 3e 6f 0b 7b bc f8 60 b2 bd
       -0.080431804 0.18386711 -0.01532255 -0.087099016
000010 9e 9b de be ab 33 ab be d6 3f 09 bf 4e 91 d2 be
       -0.43478101 -0.33437857 -0.5361303 -0.41126484
000020 d6 33 86 3e 93 80 9e 3e 8d b0 9d bc 48 eb 35 3d
       0.26211423 0.3095747 -0.019249225 0.044413835

down_convs.2.norm1.running_mean f4 [12]
000000 e6 13 9d bf 90 5b 73 c0 8c 02 b8 c0 c9 e1 27 c1
       -1.2271698 -3.8024635 -5.750311 -10.492623
000010 9a 0e 06 40 a8 5d 5d c0 83 77 0e 40 77 e0 a5 3f
       2.0946412 -3.4588413 2.2260444 1.2959126
000020 19 df 36 c1 5f 45 11 c1 34 be 8a c1 1d d9 28 c1
       -11.429467 -9.079436 -17.342873 -10.553006

down_convs.2.norm1.running_var f4 [12]
000000 47 ff 44 42 00 f6 fa 42 65 f7 83 42 94 a5 b6 42
       49.249294 125.48047 65.98319 91.323395
000010 b4 7c 1c 42 02 b5 52 43 36 27 08 43 5b ee 5a 42
       39.12178 210.70706 136.15317 54.73277
000020 4a ec 12 43 63 77 e3 42 18 9c e7 42 ba 78 db 42
       146.923 113.73318 115.80487 109.735794

down_convs.3.conv1.weight f4 [24, 12, 3, 3, 3]
000000 66 bf 49 3c a0 b9 93 3d fa 9a 95 3e d3 e3 cb 3d
       0.012313699 0.072131395 0.292198 0.099555634
000010 8a 8e 94 3d f7 26 74 3e ab aa cd 3d 84 12 aa 3e
       0.0725375 0.23842989 0.10042318 0.3321725
000020 8a 09 c5 3e e0 85 7b bc 25 80 42 3e ef 19 10 3e
       0.3848384 -0.0153517425 0.18994196 0.14072393
000030 d8 1c c6 3d 74 0b 2f 3d 01 92 26 3e fa 75 da 3e
       0.0967347 0.042735532 0.16266634 0.42668134
000040 ce 83 28 3f 9d 56 3b 3f a8 b4 47 bd 47 42 0b bc
       0.6582612 0.73179036 -0.04875627 -0.0084996885
000050 f6 bb 1b be d0 a6 95 3d 51 a6 9c 3d 34 90 b6 3d
       -0.1520842 0.073072076 0.0764891 0.08914223
000060 ed 03 44 3f f1 7e 56 3f cb 32 20 3f c3 ab db be
       0.7656849 0.8378745 0.62577504 -0.4290448
000070 3d f7 00 be a1 00 ad bd c5 e8 ea be 3a 40 ad 3d
       -0.12594314 -0.084473856 -0.45880714 0.08459516
000080 9b 83 ad be 76 2e a8 bd 82 d5 52 3e 4e 25 34 bd
       -0.3388947 -0.08211987 0.2058926 -0.04398089
000090 9f 00 30 3d ea 37 18 3e 20 e4 11 3e 98 b9 d4 3d
       0.042969342 0.1486508 0.14247179 0.10386962
0000a0 2c e3 ff 3e ea c3 72 3d cf 35 ba bd a4 b9 28 ba
       0.49978006 0.05926887 -0.090922944 -0.0006436354
0000b0 54 c3 1e be c2 ee 30 3e 24 74 1d 3e 1a e8 3e 3e
       -0.155042 0.17278579 0.15376335 0.18643227
0000c0 78 22 1d bf 53 68 13 be 3b cb d9 be 17 10 09 bf
       -0.6138072 -0.14395265 -0.42537865 -0.53540176
0000d0 87 c2 b1 be fe 97 ce be 8d 59 e1 3d 68 41 a4 3e
       -0.34718725 -0.40350336 0.110034086 0.3208115
0000e0 de 66 ef 3e 5b 4d 83 3e 1a 95 0c 3f 05 2c 2a 3f
       0.4675817 0.25644955 0.5491501 0.6647342
0000f0 45 f7 d6 3d 97 b7 83 3e 86 b1 a8 3e 20 3b a6 3e
       0.10496382 0.25726005 0.3294794 0.32466984
000100 af bd 0b 3f d3 48 20 3f b1 d8 00 3f 50 18 8a 3f
       0.5458631 0.6261112 0.50330645 1.078867
000110 b2 9e 48 3f e5 89 1b 3e 55 1d 11 3f d7 d1 e5 3e
       0.7836715 0.15189321 0.5668538 0.44886658
000120 65 67 af 3e 94 ac ff 3e 99 4f 9f 3e dd 9d dd 3e
       0.3425857 0.49936354 0.31115416 0.43284503
000130 ad d4 39 3f c3 c6 de 3e 01 c6 b0 3e ac cb 9d 3e
       0.7259014 0.43511018 0.34526065 0.30819452
000140 2b a6 07 3e e6 cb b3 3d 5b ce dc 3e bb 4f b3 3e
       0.13246982 0.08779125 0.43126187 0.35021767
000150 ad 1a 4d be 24 aa f0 3e 57 ac b0 bd 0c 71 87 3e
       -0.20029707 0.47004807 -0.08626621 0.26453435
000160 89 21 02 3f b1 4f 36 bd ba 06 2b 3f 70 75 11 3f
       0.5083242 -0.044509593 0.6680714 0.5681982
000170 8f f8 cd 3e c8 4a 07 3f 69 74 91 3f ea c7 db 3e
       0.40228698 0.5284848 1.136365 0.4292596
000180 c9 51 6b 3e 2e 40 64 3e 39 07 4e bd 17 a8 07 3f
       0.22980417 0.22290108 -0.050299857 0.5299086
000190 3b d3 fa 3e 88 73 8a 3e 08 e8 3e 3e 0f 38 5f 3f
       0.4898928 0.27041268 0.186432 0.87194914
0001a0 48 e2 79 3e 46 8f 9b bc c4 ae a6 bd d8 81 ca be
       0.24402726 -0.018989217 -0.08138803 -0.39552188
0001b0 c3 a2 1f bf 3a 1c 1f be 88 50 93 be cf e2 f4 be
       -0.6235773 -0.15538111 -0.28772378 -0.4782929
0001c0 1c da 2a be 3a 24 d9 be b8 73 1f 3e 4a 2f dc ba
       -0.16684765 -0.4241045 0.15571487 -0.0016798761
0001d0 fa 65 4a be 26 b5 69 be 70 12 5f 3e 82 35 a6 3c
       -0.19765463 -0.22823009 0.21784377 0.020289186
0001e0 98 2d 36 be d6 74 4f 3e fd a3 81 bd 3c 93 4d 3d
       -0.1779083 0.20259413 -0.063301064 0.05018924
0001f0 14 67 03 be 4d ac 4c be 02 66 f6 be 31 88 17 bd
       -0.1283229 -0.19987603 -0.481247 -0.036995117
000200 92 c1 c0 bd 96 e3 fd be 8d c2 86 be 90 6f 9f be
       -0.094119206 -0.49587697 -0.26320305 -0.31139803
000210 34 86 86 be ce 1e a9 be 08 77 7e be b3 08 ba be
       -0.26274264 -0.33031315 -0.24850094 -0.36334762
000220 97 54 03 be 24 5e f4 bd 17 60 06 3e 6e 52 af 3e
       -0.12825237 -0.119320184 0.13122593 0.34242576
000230 58 f1 84 3e 96 eb 21 3e d8 f1 9b 3e f1 be ca 3e
       0.2596538 0.15812525 0.3045795 0.39598802
000240 09 24 91 bd 7d af 25 3e 20 4a 12 3e 65 0c 51 3e
       -0.07086951 0.16180225 0.14286089 0.20414884
000250 26 77 ae 3e 8b c7 6e 3e 26 be ba 3d 86 ac a3 3d
       0.34075278 0.23318307 0.09118299 0.079918906
000260 d1 a0 c4 3d c1 ab e1 bd 33 bd ff 3c b7 1d 00 bd
       0.09600986 -0.110190876 0.031218147 -0.03127834
000270 cf 27 32 3e 84 58 b0 3d 0b 73 86 3c c0 67 d5 3b
       0.17397998 0.08610633 0.016412279 0.006512612
000280 27 9e 1e 3c 11 9d 96 3d a8 ea 18 bf b6 c1 f4 be
       0.009681261 0.07354177 -0.5973306 -0.4780404
000290 f3 7c f2 be be 2c 2c bf 87 0c e0 be 9f 2a b7 be
       -0.47360954 -0.6725577 -0.43759558 -0.35774705
0002a0 69 ec a0 3d 51 ef db 3d 23 a2 24 3e 21 c0 8d bd
       0.07857592 0.10739005 0.16077475 -0.06921411
0002b0 a3 bb a6 3c b8 ba b6 bd c0 e6 d5 be dc f4 35 be
       0.020353144 -0.089223325 -0.4177761 -0.17769188
0002c0 bd 90 58 be e1 46 08 be ea 5b b1 bd 58 7e 22 3d
       -0.21148963 -0.13308288 -0.08660109 0.039671272
0002d0 83 56 01 be bb 5a 3d 3e 5d aa 99 3d c0 e6 1b bf
       -0.12630658 0.18491642 0.07503197 -0.6089897
0002e0 72 67 ac be fc 77 ad be 6f 7c b7 be 4a bb 85 be
       -0.33672673 -0.33880603 -0.35837123 -0.26119453
0002f0 91 4c a1 bd 31 eb ba be b8 4a b1 be d9 9f 79 be
       -0.07875932 -0.36507562 -0.34627318 -0.24377383
000300 0b 81 79 3e ce 5a 8a 3d 10 28 82 3e 74 72 15 3f
       0.24365632 0.06755601 0.2542119 0.58377767
000310 de 92 e2 3e 9c a2 ce 3e ad b7 27 be 5f 89 fc 3a
       0.44252676 0.40358436 -0.1637866 0.0019267014
000320 a5 f5 6e 3c d5 13 a2 3e e6 04 95 3e f4 4e b1 3e
       0.014584933 0.31655756 0.291053 0.3463055
000330 8a 70 02 3f e9 eb e6 3e 4a 1e e5 3e e9 24 91 be
       0.5095297 0.4510186 0.4474967 -0.28348473
000340 22 30 c0 3d d0 ee 46 bd 92 d9 84 3e 90 25 c1 3e
       0.093841806 -0.048567593 0.25947243 0.3772397
000350 3a 4b 58 3e ca e9 0a 3f e4 35 10 3f 0e c2 eb 3e
       0.21122447 0.54262984 0.5633223 0.4604649
000360 30 c2 bb bc ac c5 49 3d 24 62 01 3e 68 0d d8 bd
       -0.022919744 0.04926078 0.12635094 -0.10549432
000370 ee 86 00 3f 1b a4 31 be 64 b8 b3 3e dc 91 1b 3f
       0.50205886 -0.17347758 0.35101616 0.6076944
000380 ff f3 e3 bd 3a 26 68 3e 1d 46 22 3e fe 5d eb bc
       -0.11130523 0.22670832 0.15847059 -0.028731342
000390 df 87 24 3f cf 02 6d 3f ed 68 3b 3e 94 96 21 3f
       0.6426982 0.9258241 0.18301745 0.6312039
0003a0 33 22 02 3f e5 15 7a bd 0e 4f 6e 3e e7 4c 46 3d
       0.50833434 -0.061056037 0.23272344 0.048413184
0003b0 79 81 ba bd 55 e2 96 3e 02 fd 0c 3f ae 1b 50 bd
       -0.09106726 0.29469553 0.5507356 -0.050807647
0003c0 b1 67 66 3d 58 2b e5 3d 3d 24 88 be 72 4e bb bc
       0.05625123 0.11189908 -0.26590148 -0.022864554
0003d0 01 bc 19 3e 7b 2d 85 3e d3 cc 4e 3d eb 33 b6 3e
       0.15013124 0.2601126 0.050488304 0.35586485
0003e0 c4 c9 61 3e 81 91 64 3d a5 ed 49 3e 59 77 88 3e
       0.22049624 0.055802826 0.1971956 0.26653555
0003f0 bb 41 c5 3e a9 8b 16 3f a5 b1 28 3f a2 4b c8 3e
       0.3852671 0.58806854 0.65896064 0.39120203

down_convs.3.conv1.bias f4 [24]
000000 76 0c 97 b8 84 99 30 39 e3 e1 c8 b7 7a 94 9d 39
       -7.202562e-05 0.00016841857 -2.3947045e-05 0.00030055997
000010 cf 8b c9 38 c9 5f 6d b8 86 09 1a 39 b2 96 a9 b8
       9.610468e-05 -5.659441e-05 0.00014690132 -8.086617e-05
000020 62 93 1f 37 e2 7f 23 37 68 cc 21 39 27 7d a9 b9
       9.511454e-06 9.745332e-06 0.00015430304 -0.00032327438
000030 50 44 df 37 5d 5e c3 39 88 06 02 39 75 5f 32 b8
       2.6615482e-05 0.00037263604 0.00012400199 -4.252741e-05
000040 a1 6b 15 37 f5 24 26 b7 dd 92 44 b7 14 84 22 b8
       8.906151e-06 -9.902976e-06 -1.1716705e-05 -3.8746817e-05
000050 dd 8b 8b b7 13 55 39 b8 9e fe fa b8 a6 68 9f b8
       -1.663522e-05 -4.418667e-05 -0.00011968355 -7.601203e-05
