outputs/outputs_new_tip_mask_2/epoch_30_model.pth (torch, 694982 bytes, 241 tensors)

down_convs.0.conv1.weight f4 [3, 1, 3, 3, 3]
00000000: 2eda 3ebf 1b34 b83e f336 1abf 0189 583e
00000010: a8b7 553f 9bc1 883c b152 253f 54a7 d03e
00000020: 8d63 52bd 733e 093e 0d5e 7fbf fac7 bd3e
00000030: 88da 003f 8ace 33bf 1703 fd3e 761f 103f
00000040: 526b 8bc0 ae13 1cbe 2a6c 0ebf cef2 833e
00000050: fd1c 51bf 59ca 593e 7931 9e3d f22d abbe
00000060: 1825 663f cc9f b03e 7269 bd3e 1e49 0dbf
00000070: 40ac 5c3d d39c 10bf 6fe4 63bf 5bca 0d3f
00000080: b94d cfbd 3441 febe dcc5 b03e abdd 53be
00000090: 80e3 593e 2644 343f 4b54 7c3e 3cee 8f3e
000000a0: a5e4 e53f 6890 4640 9a3b 253f 5de4 583f
000000b0: 2a48 963f f19e 58bf c2bd 0e3e ee59 aebe
000000c0: 16b4 34bf 97c8 1c3f 26fa fe3c 75b9 27bf
000000d0: 8efa 193d e060 6cbe eb0f 29bf b696 563e
000000e0: 7ee6 01be 4fac 91bf be02 94be a4d6 97bd
000000f0: b287 abbe 62de a5be 70bb 323f 04e6 1e3e
00000100: 4334 a63f 2b5c 803e c1ff 5cbf bbe9 be3e
00000110: 7612 5bbe a6de d9be 17ec 033e d4a5 ab3d
00000120: e881 a33f bf47 3e3f 671a 803f 9ce0 843e
00000130: 269a 29bf 1ed6 1c3e 535a bf3e adf4 2ebf
00000140: 074d 5f3f
-0.74551666 0.35977253 -0.60240096 0.21146013 0.8348336 0.01669388 0.645793 0.4075266
-0.05136447 0.13402729 -0.99752885 0.37066633 0.5033345 -0.7023703 0.4941642 0.56298006
-4.3568506 -0.15241882 -0.55633795 0.25771183 -0.8168486 0.21268596 0.0772428 -0.3343349
0.8990035 0.34496915 0.3699451 -0.5518969 0.053875208 -0.56489295 -0.89020437 0.55386895
-0.10122246 -0.4965912 0.34525955 -0.20690028 0.2127819 0.70416486 0.2464153 0.28111446
1.7960402 3.1025639 0.6454407 0.84723455 1.1740773 -0.84617525 0.13939574 -0.34052986
-0.7058729 0.61243576 0.03112514 -0.6551736 0.037592463 -0.2308383 -0.66039914 0.20955929
-0.12685582 -1.138071 -0.28908342 -0.07413986 -0.33501965 -0.32396227 0.69817257 0.15517431
1.2984699 0.2507032 -0.8632775 0.37287697 -0.21393761 -0.4255268 0.1288303 0.083812386
1.2774019 0.74328226 1.0008057 0.25952613 -0.66250837 0.15316054 0.373736 -0.68342096
0.8722691

down_convs.0.conv1.bias f4 [3]
00000000: 3c31 a83e 2474 823f 14b7 1d3f
0.32850063 1.0191693 0.6160748

down_convs.0.conv2.weight f4 [3, 3, 3, 3, 3]
00000000: 9637 9e3d 08f3 22be 6894 733e d9c6 df3d
00000010: 222e 75be a72f 563d 74de 133e dfa0 28be
00000020: ada2 87bd 2f15 51be 5f1b 913e 5d09 683e
00000030: dad5 2ebe 1cd8 9a3e 09af 88be fdd6 8abd
00000040: f2c4 a03e 7a81 9cbc 3f0f 083e 18f9 943c
00000050: 68ca 673e 1a7f 713e 1695 92be df63 bbbd
00000060: 6ae6 2f3e 42b9 02bc a90d a9be 59a8 6440
00000070: 1c98 883f ed55 5e3f a553 a53f c287 933e
00000080: a835 d53e 66d4 b1be cdd3 23bf ed25 ef3d
00000090: 3841 ba3f fc4a 0040 3b13 d5be b572 923d
000000a0: 4e17 613f dc1d 4ebf 9f2e 80bf f9dc b43e
000000b0: 58a1 58bf 776e 373f b9a4 2abe fb44 0dbe
000000c0: dc84 a83e d8b1 02bf 4bcc 22bf 1c60 efbe
000000d0: 54ef 6cbf 2ccf 26bf 12e5 513e 4247 8bbd
000000e0: f9f7 5abf ac11 e63f f839 2740 662c 313f
000000f0: 04b0 b33e a795 2d3f d1d1 4ebf 22ea d63d
00000100: 5f70 09be 2a36 3bbf f701 783f d6c7 9d3f
00000110: b9cd 653f deb3 2a3d 0a5f 993e 871c a5be
00000120: 50f3 5cbf 5ea4 d7be db52 97bf 577e 2cbf
00000130: e508 c63e b3bc 93be 527e 91bf ede6 d8be
00000140: acd5 91bf d943 d7bd 2242 d33e c9bd d33e
00000150: 33dd 093e e8e0 0abe a48e 6bbd 8407 653d
00000160: b274 2dbc 14c6 61bc 54ea 6e3e 3784 8fbe
00000170: f63a f93e 74cb e3bd c316 9fbe 0fa7 9e3e
00000180: 4ba9 1abe b267 2bbe 981b 993e b847 80bc
00000190: ded8 f03d d81b 603f bfb4 89be 8c0c b7bd
000001a0: cc86 0c3f b5ee c1bd 770f 6e3e 0b9f 4e3e
000001b0: 65a4 373e 3284 e73e 1258 183f c730 253f
000001c0: 2009 a63f 2a74 6e3f cc9e 623f 216b 8f3f
000001d0: 2a0a 813f dfce b83e dd7d a13f 404f 3d3f
000001e0: 24d3 883e 9fd7 0140 8be7 7e3f 4c95 ce3e
000001f0: 073b 5e3f 8cf9 9d3e d993 333e c624 433f
00000200: b609 273f b612 cebd 95d4 b93e f271 803e
00000210: 1ad7 083f 0204 ad3d 75d0 683e b44b 993d
00000220: 2635 94bd e0c8 8fbe f29e 16be 37e6 3a3e
00000230: 6fb7 953e 606f 94bd e126 393f dcc7 ad3f
00000240: c415 cdbd efba a13e 00d9 21bc 8963 6dbe
00000250: 9078 cf3e 7054 7c3f 8d0f f0be 4293 cc3e
00000260: 2a52 823f e2f7 00bf 648a 74be 9820 d6be
00000270: 0013 f8be ca96 58bd a96b 3cbd a7e9 97bf
00000280: 9065 21bf 7e43 f9be c815 bfbe d16a 323f
00000290: 8134 23bf 9c31 6b3e a7bd a43f 422b 2e3f
000002a0: ec95 a4be 1e95 483f 36e6 b9bb 0490 0d3e
000002b0: f60b 97be 3d58 903e b143 fd3e a4d8 3c3e
000002c0: cb40 b53f 4df3 103f b720 8cbe 815c 8f3f
000002d0: 861a 5abe 63df e13e 9239 f2be 5978 293d
000002e0: b148 7e3f 220c ec3e 80c0 d8bd 992e 1b3e
000002f0: 3f22 c6bc 57d3 53bf 6d32 653e 82d2 98bf
00000300: 6505 fabe a98b c83e e2cd 27bf 4e37 243e
00000310: 5bb2 0b3e 8b7b 41bf 80be 543d b8bc 67bf
00000320: 9f05 983e 8288 0f3f d76f 59bf 3774 133f
00000330: 7907 833f 1d7b d1bf 8a3d 7b3e 935f 5bbf
00000340: 711d 433e 08a4 30bf 0682 f3be aec9 f43e
00000350: b9e8 32bf 0796 c73d 98a7 293f cde1 fbbe
00000360: 4889 6c3d 154b aebf 9b03 093e 6402 cf3e
00000370: 442b 15bf b496 173f 31e6 bb3e 9e43 44bf
00000380: 065b 0b3f d597 74bf 8ea1 78be 2ec6 23bf
00000390: c587 19bf 8843 e63d 5baa 26bd d0ce debe
000003a0: 1375 723e 3653 95be 6b68 473e 488d bdbe
000003b0: b0ef ed3e d6ae 3e3e eedc 82bd bfbe a03e
000003c0: 2b08 193f a4a3 c43e 497f 473f
0.07725446 -0.15913022 0.23787081 0.10926599 -0.2394338 0.05229154 0.14440328 -0.16467617
-0.06622825 -0.20418237 0.28341195 0.22659822 -0.17073765 0.30243003 -0.2669604 -0.06779287
0.31400257 -0.019104708 0.13287066 0.018185183 0.22635806 0.23583642 -0.2862937 -0.09149908
0.1717774 -0.007978739 -0.33018234 3.5727751 1.067142 0.8684986 1.2916151 0.28814512
0.416425 -0.3473236 -0.6399506 0.11677156 1.4551153 2.0045767 -0.41616234 0.07150785
0.87926185 -0.8051431 -1.0014228 0.3532484 -0.8462119 0.7165293 -0.16664399 -0.13795845
0.32913864 -0.5105262 -0.63592976 -0.46753013 -0.92552686 -0.6515987 0.2049754 -0.06800701
-0.85534626 1.7974143 2.6129131 0.6920837 0.35095227 0.67806476 -0.80788904 0.10493876
-0.13421772 -0.7312952 0.96878 1.232661 0.8976703 0.04167544 0.29955322 -0.32248327
-0.86308765 -0.4211759 -1.182216 -0.6738028 0.3867866 -0.28854904 -1.1366675 -0.42363682
-1.1393332 -0.10510988 0.41261393 0.41355732 0.13463287 -0.13562357 -0.05750908 0.05591537
-0.010586904 -0.013780136 0.23331577 -0.2803056 0.48677796 -0.1112279 -0.31072053 0.3098683
-0.15103643 -0.16738775 0.29903865 -0.015659198 0.11760114 0.87542486 -0.2689571 -0.0893794
0.54893184 -0.09469358 0.23248087 0.20177858 0.17933805 0.45218045 0.59509385 0.64527553
1.2971535 0.93146 0.88523555 1.1204568 1.0081227 0.3609533 1.2616535 0.7394905
0.26723588 2.0287855 0.99572057 0.4034828 0.8680882 0.30854452 0.17536868 0.76227987
0.6524919 -0.100621626 0.36295 0.25086933 0.5345322 0.0844803 0.2273577 0.07485142
-0.072367 -0.28082943 -0.1470907 0.18251882 0.2924151 -0.072478056 0.7232495 1.3576617
-0.10013917 0.31587932 -0.009878397 -0.23182501 0.4052167 0.9856634 -0.46886864 0.399561
1.0181324 -0.5037824 -0.23880917 -0.41821742 -0.48451996 -0.05287818 -0.04600111 -1.186818
-0.630456 -0.48684305 -0.37321305 0.6969424 -0.6375199 0.22968143 1.2870377 0.68034756
-0.3214563 0.78352535 -0.0056731952 0.13824469 -0.29501313 0.2819232 0.49465707 0.18442017
1.4160398 0.5662125 -0.2736871 1.1200105 -0.2129918 0.44115743 -0.47309548 0.041374538
0.9932967 0.46103007 -0.105835915 0.15154494 -0.024186252 -0.82744354 0.22382517 -1.1939242
-0.4883224 0.39169052 -0.6554853 0.16036722 0.13642256 -0.75579137 0.051939487 -0.90522337
0.2969179 0.5606767 -0.8493628 0.57599205 1.0236655 -1.6365696 0.24535194 -0.8569271
0.190542 -0.6900029 -0.47560138 0.4781012 -0.69886357 0.09745412 0.6627135 -0.4919571
0.05774811 -1.3616663 0.13380282 0.4043151 -0.58269143 0.5921433 0.3669906 -0.76665676
0.54435766 -0.9554418 -0.24280378 -0.63974273 -0.5997279 0.11243349 -0.040689807 -0.4351716
0.23677473 -0.29165047 0.19473426 -0.37021852 0.4647193 0.18621382 -0.06389795 0.31395528
0.5977809 0.38406098 0.77928597

down_convs.0.conv2.bias f4 [3]
00000000: f18c fcbe 5935 d33e 33ac 89be
-0.4932628 0.4125164 -0.2688919

down_convs.0.norm0.weight f4 [3]
00000000: 43c9 653f 84fb 0240 3755 8f3f
0.89760226 2.0466013 1.119788

down_convs.0.norm0.bias f4 [3]
00000000: 8635 28be 94ff 8b3c a4c2 933d
-0.16426668 0.017089643 0.07214859

down_convs.0.norm0.running_mean f4 [3]
00000000: b207 a33e 8cc6 813f a381 203f
0.3184181 1.0138717 0.6269781

down_convs.0.norm0.running_var f4 [3]
00000000: 1932 ee40 69e2 eb41 ed6a 0641
7.4436154 29.485552 8.401105

down_convs.0.norm1.weight f4 [3]
00000000: 1e9f 793f 80c0 823f 995d 973f
0.9750842 1.0214996 1.1825439

down_convs.0.norm1.bias f4 [3]
00000000: 9174 6ebe e6d4 3fbf e68d a4bc
-0.23286654 -0.7493423 -0.020087194

down_convs.0.norm1.running_mean f4 [3]
00000000: ce8c 8840 4db0 4c41 35e6 4ec0
4.267188 12.793042 -3.2328007

down_convs.0.norm1.running_var f4 [3]
00000000: 36e0 6343 8d20 5344 61d7 f042
227.87582 844.5086 120.42066

down_convs.1.conv1.weight f4 [6, 3, 3, 3, 3]
00000000: 6365 903f 7358 4b3f adcb 0f3f 26bc 4b3f
00000010: b832 2c3e 8bcd a0bd 54fd d63e 808b 8abe
00000020: d9d2 ddbe d05a 123f 6a11 a13e eae0 cf3d
00000030: b78a 5fbd 166c 8fbf c16d 8dbf c1c7 a3be
00000040: 1be6 d2bf 7b89 efbf 4e8b 363f ee21 d43e
00000050: 7747 c2bb ffe5 843e 7842 11bf 0606 67bf
00000060: 43a4 fdbe 7e3f c2bf 5f41 dfbf 8b55 513f
00000070: 4092 cb3e b00f 323f 2ed7 a43e 7cb6 16bf
00000080: ae54 853e 179e f33d b7f3 20bf bf17 203f
00000090: a5b0 f23e 87b2 cfbe a0bc a63e f3ed 14bf
000000a0: 7d29 12c0 8009 31bf 601d b8be ed9f e0bf
000000b0: eff2 0abf 2428 083f da44 25bd 744a 133f
000000c0: cf33 cdbe fa6b a4bf 1432 20be 8ae1 80be
000000d0: 3002 aebf 1640 05bf 20b6 83be f5e4 13bf
000000e0: 23ea b5be ce69 b4be cc02 9fbe 941a 67be
000000f0: 1469 d6bd 5dd2 2cbe badf d4be e925 a8be
00000100: 1a30 09bf b519 10bf 9799 d9bd 37bd 86be
00000110: db8b 33be fabe 08be 9bee ffbd 2596 aebe
00000120: 05e7 62be c793 ecbe 6bdb f7be 3670 5bbe
00000130: f790 8bbe 62c2 bebe baff 44be d930 94be
00000140: 0db6 41be 4555 e3bd 01e9 8dbf f73f 98bf
00000150: ba62 9d3f ff92 5a3d 12cc bcbd 6553 993f
00000160: 1199 663e 1665 0f3e 3e92 16bf 6982 e6bf
00000170: 3e15 d9bf 178f ec3e 0cd6 4cbf d94f 1dbf
00000180: dd6f c2bd 6ea4 50bf ffd1 74bf fb08 21bf
00000190: 5960 9bbf aaf3 7ebf 5441 bb3d 5394 b8be
000001a0: 51f3 8ebe 133c 41be 0ee8 2ebf 9929 35bf
000001b0: 3521 723e 727d e0be 88c0 83bd 3f0a 903b
000001c0: 71f9 38bf a9c7 48bd dca8 febd 5ebd 2fbf
000001d0: 82de 1fbf b79d efbe 93f2 afbf 58e6 96bd
000001e0: d97e 33bf db63 5abf ce79 cdbc 64ff e0be
000001f0: ce4a 7ebf bd53 21bf 019e 99be 7a0b adbc
00000200: 83f2 5c3f 1110 afbe 07d6 0ebe 744e 8b3f
00000210: b4da 3cbf 4e11 18bf c5a9 f53e fcb4 ffbe
00000220: 9cd2 dbbe 4eab 4ebe 648d 61bf 1a9e 39bf
00000230: d610 3dbe 527d 73bf 0534 23bf bebf 9abe
00000240: 8b03 1ebf 6200 1dbf 1954 09be 2084 55bf
00000250: 8875 41bf 5481 c1be db35 3ebf 083c 40bf
00000260: de1c e5be 36d2 f4be 156a d6be 94fe bcbd
00000270: fb00 24bf dd0f 0abf 989c 76bd 9afc 32bf
00000280: df71 5dbf e61f 50be ca94 adbe d1d0 aebe
00000290: fb24 9bbf 7cca 933d 23d1 883e 72bb 613e
000002a0: 198c 44be facc ddbd 0f3f 49bf 4b95 37be
000002b0: 509f 273e 62bb 0fbf 1418 fd3e f9f3 ae3f
000002c0: 6ac9 5e3f fc14 033e d94e 093f 1418 03bf
000002d0: 27cf b9be 9c48 34be cb7f 39bf bfd0 7e3e
000002e0: fd14 4e3f 952d f43e c826 e2bd c29a 3abe
000002f0: 07b2 febe c1bc 1a3f 9387 e03c 359a 82be
00000300: d7d9 103f 1ad0 af3e b2c4 bebe 8ffd 943e
00000310: 93f7 823d 8698 91be 9c11 703f c05c 3b3f
00000320: a8be 8fbe ad1b 993f c165 533f 06b4 9c3d
00000330: d6cb 0d3f 3f21 7b3e 272f e3be 0d53 ff3e
00000340: e04e 873e e4c2 ffbd 3723 083f 6f2f c23e
00000350: c904 82be b04f 2f3f 5cac d43d 90fb 12bf
00000360: b598 cd3d f319 8a3b cfb7 cf3d ac9f d73e
00000370: 4837 3e3e d4d7 1c3f 4194 693e 1137 6a3e
00000380: a847 163f 183c 4cbe 25c8 3ebe 8bfb b7bd
00000390: 82e6 1a3d b406 a3be 4deb b13e ba15 ee3d
000003a0: 087b a13e 5268 0d3f 0cb5 bbbd 21b4 c9bd
000003b0: 1196 9e3e 9ab0 7b3e ad7b 5fbe 675c fe3e
000003c0: 9c67 843e c79a 2c3e 7c2c ee3e 9ba3 2d3e
000003d0: 41b8 21bc dec0 8fbe 3f45 153f a076 c1bd
000003e0: 14c7 b33d 942b 9e3e d977 08be fb18 fdbd
000003f0: f035 5fbe 32b1 3cbf 2a46 26bf 1e59 623c
1.1280941 0.7943184 0.5617016 0.79583967 0.16816223 -0.07851704 0.4199015 -0.27059555
-0.43324926 0.5716982 0.31458598 0.10150321 -0.05457565 -1.120486 -1.1049119 -0.31988338
-1.6476473 -1.8713831 0.7130631 0.41432136 -0.0059289294 0.25956723 -0.5674205 -0.90243566
-0.49539384 -1.5175626 -1.7441825 0.81771153 0.39760017 0.6955519 0.3219542 -0.588722
0.26041168 0.118953876 -0.6287188 0.62536234 0.47400394 -0.40565893 0.32565784 -0.5817558
-2.2837822 -0.6915512 -0.3595991 -1.7548805 -0.5427694 0.5318625 -0.040348865 0.5753548
-0.4007859 -1.2845452 -0.15644103 -0.25172073 -1.3594418 -0.5205091 -0.25724888 -0.57771236
-0.35530195 -0.35236973 -0.3105682 -0.22568733 -0.10469261 -0.16877122 -0.4157694 -0.32841423
-0.5358902 -0.56289226 -0.10624998 -0.26316234 -0.1753382 -0.13354102 -0.12496682 -0.34098926
-0.2215844 -0.46206495 -0.4840959 -0.21429524 -0.27259037 -0.37257677 -0.19238177 -0.28943518
-0.18917103 -0.11100248 -1.1086732 -1.189452 1.2295754 0.053362843 -0.09218611 1.1978575
0.22519328 0.14003405 -0.588169 -1.8008548 -1.6959608 0.4620292 -0.8001411 -0.6144996
-0.094939925 -0.815009 -0.9563293 -0.6290433 -1.2138778 -0.9959055 0.0914332 -0.36050662
-0.2792001 -0.18870573 -0.6832284 -0.707666 0.2364548 -0.43845707 -0.06433207 0.0043957527
-0.7225562 -0.049018536 -0.12434551 -0.68648326 -0.62448895 -0.46800014 -1.3745903 -0.07368153
-0.7011543 -0.8530862 -0.025082495 -0.43944848 -0.9933289 -0.630184 -0.3000336 -0.021123637
0.86307544 -0.34191945 -0.13948832 1.0883317 -0.73771214 -0.59401405 0.47981086 -0.49942768
-0.4293412 -0.20182535 -0.8810637 -0.7250687 -0.18463454 -0.951131 -0.6375125 -0.30224413
-0.61724156 -0.6132871 -0.13410987 -0.8340473 -0.75569963 -0.37793982 -0.74300927 -0.750916
-0.44748586 -0.47816628 -0.4187781 -0.092282444 -0.64063996 -0.53930455 -0.060207933 -0.6991669
-0.8650188 -0.20324668 -0.3390258 -0.3414369 -1.212066 0.07216355 0.2672206 0.22044161
-0.19194068 -0.10830112 -0.78611845 -0.17928044 0.16369367 -0.561453 0.49432433 1.3668205
0.87026083 0.12800974 0.53635937 -0.51208615 -0.36290857 -0.17605823 -0.7246062 0.24884318
0.80500776 0.47691026 -0.11042553 -0.18223098 -0.497452 0.60444266 0.027408397 -0.25508276
0.565824 0.34338456 -0.37259442 0.290997 0.06394877 -0.2843668 0.9377687 0.731884
-0.28075147 1.1961571 0.8257714 0.07651524 0.55389154 0.24524401 -0.44371912 0.4986805
0.26427364 -0.12488344 0.53178734 0.37926814 -0.25394276 0.6848097 0.103844374 -0.57415104
0.10038892 0.004214519 0.101424806 0.42114007 0.18575776 0.6126683 0.2281046 0.22872569
0.5870309 -0.19944799 -0.18631037 -0.08983525 0.037817486 -0.31841052 0.34749833 0.11625238
0.31539178 0.55237305 -0.09165391 -0.0984881 0.30973867 0.24579087 -0.21824522 0.49679872
0.25860298 0.16855918 0.46518314 0.16956942 -0.00987059 -0.28076833 0.58308786 -0.09446454
0.087782055 0.30892622 -0.13326968 -0.1235828 -0.2179792 -0.7370788 -0.6495081 0.0138151925

down_convs.1.conv1.bias f4 [6]
00000000: 2bd8 9dbe c074 813d 1d02 01bd 937b 033e
00000010: 0796 53ba 7fd4 1bbd
-0.30828986 0.063210964 -0.031496156 0.12840109 -0.0008071367 -0.03804445

down_convs.1.conv2.weight f4 [6, 6, 3, 3, 3]
00000000: 4a2d 5cbc cb7b 733e 9b45 59be e022 b7bd
00000010: f1cf 52be 63a4 80be d364 043c b3fe 6fbd
00000020: 3268 8cbe 9fb3 363e c512 bb3b dd5d 42bd
00000030: e5d0 913e b1f9 713d a3fb 1abe 188a 08bd
00000040: 268e ac3d 0c1d 6cbe d013 3c3c c0d5 9bbd
00000050: 358f 72be b0f1 8c3d 7100 203e b3b9 1bbe
00000060: 310f 1f3e 9d1a 3bbe 691d 27be 6c6f 89be
00000070: fb41 c1bd f01d 2abe 08b0 5abe f329 19bd
00000080: ef67 24be 6297 4b3e 0a8d 143e f3bb 5dbe
00000090: 961d 4ebd 1ebc 053d 5c11 63be 7406 48be
000000a0: 1e5f 81bd 5c33 cabd 3e89 94bd 9b6a 8b3d
000000b0: adf8 c93d 22a2 1abe bd2f b4bc 0378 83be
000000c0: 9324 d03c 7227 93b9 e739 bebd cb2c 60bd
000000d0: c668 073d 7fba 16bd 4fb1 3abe e0c4 19be
000000e0: 18ad a5be c272 a3be 88ec 74be a7c4 c9be
000000f0: 7129 1fbe 42d6 49be c843 d0bd fc53 86be
00000100: f013 85be 7b40 81be 0813 e4be 7937 57be
00000110: 7754 41be 9458 babe 817a 52bd 8a91 1fbd
00000120: a11c 88be 81c2 6cbe 3cf4 72be 0d07 b6be
00000130: 72e2 84be 8614 3bbe f57a 87be 312d 2fbe
00000140: 5e28 08be a622 4cbe d99b 1bbe 4b35 d1be
00000150: 58c9 29bd 3645 623d 7900 05be c5a6 023e
00000160: 235c 633e b76d efbb df2e 6cbe 9ecf 4abe
00000170: 8670 0cbf fae7 b7bd 9e0b 4ebd 570e 32be
00000180: 5e5b 643e 23de ce3e 064e 2fbd 5fab febe
00000190: c129 51be 603e 0ebf 6f06 0bbe 8f01 1b3d
000001a0: 40ee 93be 3bcf 4e3e 7196 bb3e a471 3ebd
000001b0: d885 63be c59e a4be cad2 80be 17fe 9ebe
000001c0: c56b b4be 6806 bebe 453f c8be 780f 30be
000001d0: d453 cdbd 08d8 95be 9554 52be e70e 70be
000001e0: b9e7 87be ecc5 e1bd fa37 4bbe bdf4 71be
000001f0: 50bc 9abe 188e 65be 39a2 63be 5997 21be
00000200: d34b febd ca46 4abe 21b9 f7bd c663 59be
00000210: 254c a3be 23ae 1dbd e51c 82be 4b46 f6be
00000220: 2a81 dbbe 935d 2dbf eb29 edbe 0cfe 88be
00000230: 474e 85be a7a6 06bf 45c4 b1be 2ada efbe
00000240: 1629 13bf a5c9 e3be ceb9 07bf dd8e 1ebf
00000250: 4dae 93be 7283 e3be b51a 0bbf 0eca 61be
00000260: 19ce 28bf ff10 16bf a661 b0be 0883 b0be
00000270: 67b5 bcbe b434 bcbe 161a 86be 712d 8ebe
00000280: 4890 afbe 9e08 07bf b60f 7bbf b89c d5be
00000290: cbef 36bf e357 2a3f bb0e a83f 5cf6 8c3e
000002a0: 02b2 ec3f 6245 dd3f d23f 6b3f cfa0 27bf
000002b0: f67b 4f3e 62fa 86bf fe07 a33f 1d23 e53f
000002c0: 2d39 88be fdda c03f 340f a83f cddf 273f
000002d0: fa45 15bf f8a8 48bf a74c b6bf 050f 583f
000002e0: 89a3 473c ffff 2fbf 351d ac3f eb18 363f
000002f0: 8391 d13e a1f5 e93e 5b1d 2c3f 6684 b43e
00000300: 3d30 0d3d 7b30 403e 8fa5 e13e 1bd9 73be
00000310: df8b ea3e af44 3a3f 204d 503f 4f09 0040
00000320: 91b3 623f c10e ca3e 52e8 d23f 8f27 3c3f
00000330: 53df c13e 7bee b73f dea6 3e3f b23f 853f
00000340: 19f7 bc3f bc5a 093f fe05 523f 2d07 813f
00000350: 89a5 b63e 4e0a 5e3f 908e aa3f d097 473f
00000360: b9c5 6f3d ad47 02bf db72 1cbf a5f1 00be
00000370: 6b3e 6ebe 3630 80be 250e 6e3d 6629 223e
00000380: 2479 3bbd c14a 91be 22f7 dcbe 2419 07bf
00000390: 9d7a 63be 9201 d0bd 90b9 73bd eb9f 1e3e
000003a0: afa9 d33d 45e6 613e 7533 0ebe a20f d7be
000003b0: ea61 f3be fa53 cabd 125b d7bd 92c7 ed3b
000003c0: c837 e23d 1ec1 a43e d8d4 363e c5ce 6e3e
000003d0: 064c e13e b416 c63d ac2e bebe 5a62 863e
000003e0: 1155 28bc c9d5 c93e 0495 8a3f f5e6 4b3f
000003f0: 4f8d 643f ecb2 ea3f f75b fb3e 64e1 073f
-0.013438532 0.23777692 -0.21217959 -0.08942199 -0.20587136 -0.25125417 0.008080679 -0.05859251
-0.27423245 0.17841958 0.0057090246 -0.047452796 0.28479686 0.059076015 -0.15135054 -0.03333482
0.0842555 -0.23057956 0.011479333 -0.07609129 -0.23687442 0.06882036 0.15625168 -0.15207557
0.15533139 -0.18271871 -0.16319813 -0.2684282 -0.09436413 -0.16612983 -0.21356213 -0.03739352
-0.16055273 0.19881967 0.14506927 -0.21653728 -0.050321184 0.032650106 -0.22174591 -0.19533712
-0.0631697 -0.09873077 -0.07252739 0.06807443 0.09861884 -0.15100911 -0.02199542 -0.256775
0.025408065 -0.00028067414 -0.09288388 -0.054730218 0.033058904 -0.03679895 -0.182317 -0.15016508
-0.32358623 -0.3192349 -0.23918355 -0.39407846 -0.15543152 -0.19710639 -0.10169178 -0.2623595
-0.25991774 -0.25244507 -0.4454577 -0.21017255 -0.18879877 -0.36395705 -0.05138636 -0.038957156
-0.26584342 -0.23121072 -0.2372598 -0.35552254 -0.25954014 -0.18269548 -0.26460996 -0.17107083
-0.13296649 -0.19935092 -0.1519617 -0.40860972 -0.041451782 0.055241786 -0.12988462 0.1275893
0.22203116 -0.00730678 -0.23064755 -0.19805762 -0.548592 -0.08979793 -0.050304048 -0.17388283
0.22300479 0.40403852 -0.04279902 -0.4974012 -0.20426084 -0.55563927 -0.13576673 0.037843283
-0.28892708 0.2019624 0.36638215 -0.046495095 -0.22219026 -0.32152382 -0.2516082 -0.3105323
-0.35238472 -0.37114263 -0.3911077 -0.17193401 -0.100257546 -0.2926638 -0.20540078 -0.23443185
-0.26543978 -0.11024079 -0.19845572 -0.23628516 -0.30221796 -0.22417486 -0.22229852 -0.15780391
-0.12416806 -0.19753566 -0.120958574 -0.21229467 -0.3189403 -0.038496148 -0.2541267 -0.48100504
-0.42871982 -0.6772091 -0.46321043 -0.26756322 -0.26036283 -0.5259804 -0.34720054 -0.46846133
-0.5748457 -0.4448978 -0.5301789 -0.6193674 -0.28843918 -0.44436222 -0.54337627 -0.22049734
-0.6593948 -0.58619684 -0.344495 -0.3447497 -0.3685715 -0.3675896 -0.26191777 -0.27769044
-0.34289765 -0.52747524 -0.9807085 -0.4172113 -0.71459645 0.66540354 1.3129495 0.27531707
1.8491824 1.7286799 0.9189426 -0.6547975 0.20262131 -1.0545161 1.2736814 1.7901341
-0.26606122 1.506683 1.312964 0.6557587 -0.583099 -0.78382826 -1.4242142 0.8439792
0.012184986 -0.68749994 1.3446413 0.7113177 0.4093133 0.45695212 0.6723229 0.35257262
0.03446983 0.18768494 0.44071624 -0.23813288 0.45809838 0.7276105 0.81367683 2.0005682
0.88555247 0.3946438 1.6477149 0.7349786 0.37865695 1.4369653 0.7447337 1.0410063
1.4762908 0.53654075 0.82040393 1.0080315 0.35673168 0.86734474 1.3324757 0.7796602
0.058538172 -0.5089062 -0.61112756 -0.1259218 -0.23265998 -0.25036782 0.058118958 0.15836105
-0.045769826 -0.28377345 -0.43157297 -0.52772737 -0.22214742 -0.101565495 -0.059503138 0.15490691
0.10335099 0.22060497 -0.13886817 -0.42004114 -0.4753564 -0.098792985 -0.10515417 0.0072564567
0.11045796 0.32178587 0.17854631 0.23321064 0.44003314 0.09672299 -0.37144983 0.2624691
-0.010274188 0.39420918 1.0826726 0.7964929 0.8927812 1.8335853 0.490936 0.53078294

down_convs.1.conv2.bias f4 [6]
00000000: 1c6d 72bb 9d9a 18be 6e8c 47be 273c 68bc
00000010: ffbc c3bd 629c 0e38
-0.0036991304 -0.1490273 -0.19487163 -0.014174498 -0.095575325 3.400108e-05

down_convs.1.norm0.weight f4 [6]
00000000: 13ee a53f f0e8 6d3f c05b 3a3f 0451 323f
00000010: 29b3 9f3f bac0 663f
1.296328 0.9293356 0.7279625 0.6965487 1.247655 0.9013783

down_convs.1.norm0.bias f4 [6]
00000000: 827f 4e3f 48a8 ba3b 0b13 67bf 145c 933f
00000010: 776b 27bf 1fbc a0bf
0.8066331 0.00569633 -0.9026343 1.1512475 -0.65398353 -1.255741

down_convs.1.norm0.running_mean f4 [6]
00000000: c5c2 c7c0 6616 1ac1 fccd 3640 60ba 15c1
00000010: 3edc 9740 5f49 ce3f
-6.2425256 -9.630468 2.8563223 -9.358002 4.745635 1.6116141

down_convs.1.norm0.running_var f4 [6]
00000000: e981 7543 d94b 4b43 e820 3442 3e28 2643
00000010: ddcc e842 85f2 8941
245.50746 203.29628 45.032135 166.1572 116.40012 17.243418

down_convs.1.norm1.weight f4 [6]
00000000: 677d e73e 5c11 6e3f 73eb 943f 4cdd b03f
00000010: ab34 b13f db32 143f
0.45212862 0.9299524 1.1634353 1.3817534 1.3844198 0.578901

down_convs.1.norm1.bias f4 [6]
00000000: 8565 1fbf b6e3 97be 0bf2 933e 59fe 51bf
00000010: 6f72 05bf b457 03bf
-0.6226428 -0.29665917 0.28895602 -0.8202873 -0.52127737 -0.513057

down_convs.1.norm1.running_mean f4 [6]
00000000: 47ed dec0 f40e 0e42 392c 44c1 7ffc ddc1
00000010: 4d54 5341 d3de ea3f
-6.9664645 35.514603 -12.260797 -27.74829 13.208081 1.834925

down_convs.1.norm1.running_var f4 [6]
00000000: e001 2243 eb3b e442 3c58 3744 cdf1 7542
00000010: a655 9143 a358 a542
162.00732 114.11703 733.37866 61.486134 290.66913 82.67312

down_convs.2.conv1.weight f4 [12, 6, 3, 3, 3]
00000000: 5dfa 64bd 7220 20bd 26a2 ba3d 5d33 603d
00000010: 6f21 913e b909 053e 7427 d7bd fb02 333d
00000020: f80d 803d 35d9 1fbe 6525 943d bf1a 6d3d
00000030: 3573 09be b1f1 6abc c336 a03e 80ef ccbd
00000040: 30b4 1c3d b9d9 463e 35bd 58be 5497 aebd
00000050: 14ff 8dbd f7b7 93be b2ce 09be dc33 46bd
00000060: e57a 1fbe 2bcc c1bd 6d7d e73d 2a17 d23e
00000070: 2b09 02be b3bd 0a3e 87c2 323e b93a 7dbe
00000080: f4ec 7b3e b9bf 6b3e 17e1 b03e 32ba 1c3f
00000090: 9c49 00bd 5db3 ffbe 04e9 e8bd a14a a93c
000000a0: 983d 6cbf e32e 89be 89ed b73e e745 a33e
000000b0: f01d 293f 6814 063f d459 423d 916d ed3e
000000c0: 64da 893e f76e 7bbe ac99 d33e c9ee 083f
000000d0: fb5f be3e b018 353f e160 cc3e bfb7 09be
000000e0: 9c98 4cbe 7e64 8bbe 6e0e 29bf 733d 08bf
000000f0: 631b 40bf 8acd 12bf 6568 11bf 8a12 73be
00000100: 6875 993d 1604 443f 61e1 8e3e f24d 2d3e
00000110: da08 043f 7419 cc3e 9c8b 0e3f c578 3c3f
00000120: b3ca 933e 896f a13f f5bf f93f c145 d63e
00000130: 5045 cb3f 4e5f d63f 889e 2f3f aa87 c93f
00000140: 2b75 a03f 8fec 19bf c6e4 583f 0af6 e03c
00000150: 3628 dabf 7fd2 08be 8d1e b0be 214f 83bf
00000160: 2a39 85bf 3d8f 9bbf 8bb6 5a3f d30a 1540
00000170: a160 303f 45cb 94be bceb d93f 9b3f a33e
00000180: 8843 c3bf 45fd 25bf d6e2 6ebf 5f7c c1bd
00000190: 1256 343f b007 06bf 1fbc f3be ad45 183f
000001a0: 1bc9 38bf 594e a9bf 6794 49bf 649a 52bf
000001b0: c3bc adbf 1864 5cbf fc98 49bf 6f86 cebf
000001c0: d9fb 28bf f817 97bf 0a7a 373f 42f0 383f
000001d0: a6fe 15bf 54d3 c9bd 5b46 963d e4e5 25bf
000001e0: 0fc5 1ebf d37f b03d e79e e3be 1b66 913f
000001f0: 9f02 a63f ef9d 39bd 97ee 4dbf 3f72 3ebf
00000200: bcc6 a3bf 92c2 77bf 6f1c 97be e6a3 71bf
00000210: 3e14 3e3f 7df9 6f3f 0236 ce3e 4ec6 4d3d
00000220: 9d61 2b3e a150 853d 926f 613d 6418 ec3d
00000230: f12e a43d 85ba 7a3d 7eab 3d3e 149b 0b3e
00000240: 1a7a 9e3d 7fe8 e43d 0273 8d3e 7d63 073e
00000250: 2fa1 3dba c09e 453d 0929 8d3d d3b8 c33d
00000260: 935e d53d c5b9 22bd 89ce 63bc fafa c4bc
00000270: 85b2 09bc b1bd 8fbd c3b7 85bd a261 81bd
00000280: 5ab1 a93c 9be9 613e 95c9 8abe ece2 d4be
00000290: 13de c7be e92c 9dbc d625 02bb f5dc 29bd
000002a0: ca93 a03e 504c 433e a495 c63d aa2d c1be
000002b0: 16df cabe 36f1 a3be bf74 d13c 9642 51bd
000002c0: 4d55 d5bd dcbc b53e 5f27 8b3e 2f6b cb3d
000002d0: 77d5 3fbe 8855 9abe e490 59be 1c8d de3d
000002e0: 6796 92bb 3e0b 283d 95a6 313e 110d b63d
000002f0: 74f5 f83d d1cf a7bf 1226 b6bf c8c6 f0bf
00000300: 730b e7bd 620e 2d3e 4150 b1bd b6ed 923d
00000310: 5188 2d3f 8fc6 873e f5a1 30bf b932 4fbf
00000320: 9b87 03c0 f7ef fd3e 87fd 573f ab7d 7d3e
00000330: 8b16 f43e ad29 753f 7e33 f43e cd88 69bf
00000340: 58d8 c2bf 742d 03c0 201a ddbd d3b7 2a3e
00000350: c478 13be 111d 42be 5590 1b3e f40c 1abd
00000360: 4590 9abe edb4 7dbc e4a3 88bd bbf7 e23f
00000370: c761 cd3f 2655 543f 0ef3 963f 1f43 a13f
00000380: c34d 623f 758a 23bf 66bc f0be 407e 03bf
00000390: bc36 893f 05a6 463f 04f0 93be 39dd babe
000003a0: 2a3d 88bf ed04 b6bf 03d0 e6bf cb37 fdbf
000003b0: 52f7 fabf 5489 163e 6ff9 03bf 03d6 46bf
000003c0: 0abf 703d 8654 6dbf 333c 2bbf a479 5e3f
000003d0: c82e 083f 4c45 413f 01ca 143d 492e 80bf
000003e0: 5bc0 bcbe cdb0 3dbf 20fc 03c0 40c5 cfbf
000003f0: e8bb ec3e 6423 193e e5d9 283f b065 18bf
-0.055902828 -0.039093442 0.091129586 0.054736484 0.2834582 0.1299199 -0.10505572 0.043704014
0.06252664 -0.15610202 0.07233695 0.057886835 -0.13422854 -0.01433985 0.3129178 -0.100066185
0.038257778 0.19418992 -0.21165927 -0.08524957 -0.06933418 -0.28851292 -0.13457754 -0.0483893
-0.15574224 -0.0946277 0.1130322 0.41033298 -0.1269881 0.13548927 0.17457019 -0.24729432
0.24602109 0.23022355 0.3454673 0.6122161 -0.0313202 -0.4994153 -0.11372569 0.020665469
-0.92281485 -0.26793584 0.35923412 0.3188927 0.66061306 0.5237489 0.047448948 0.46372655
0.2692443 -0.24554048 0.4132818 0.5348936 0.37182602 0.70740795 0.39917663 -0.13449
-0.19980091 -0.27225107 -0.6603764 -0.53218764 -0.7504179 -0.5734488 -0.5679992 -0.23737541
0.074930966 0.76568735 0.27906325 0.16924265 0.51576006 0.3986317 0.55681777 0.7362178
0.28865585 1.2612163 1.9511706 0.41850093 1.5880527 1.6747835 0.68601274 1.5744526
1.2535757 -0.60126585 0.8472408 0.02746107 -1.7043521 -0.13361548 -0.34398308 -1.0258523
-1.040807 -1.2153088 0.8543479 2.3287857 0.68897444 -0.29061332 1.7025065 0.31884465
-1.5254984 -0.64839584 -0.93314874 -0.0944755 0.7044383 -0.5235548 -0.47604463 0.59481317
-0.7218186 -1.3227035 -0.7874207 -0.8226683 -1.357323 -0.8609023 -0.7874906 -1.6134776
-0.6600929 -1.180419 0.7167059 0.72241604 -0.5859169 -0.09854761 0.07337638 -0.6480391
-0.6201944 0.086181305 -0.4445717 1.1359285 1.296955 -0.045316633 -0.80442184 -0.74393076
-1.2795024 -0.96781266 -0.2951388 -0.94390714 0.7424964 0.93740064 0.4027558 0.050237946
0.16736455 0.06509519 0.055038042 0.1152809 0.08016766 0.061213035 0.1852245 0.13633376
0.07738133 0.111771576 0.27626806 0.13221546 -0.0007233796 0.0482471 0.068925925 0.09556737
0.10418429 -0.039727945 -0.013904222 -0.024045456 -0.008404379 -0.07018603 -0.065291904 -0.0631745
0.02071445 0.2206177 -0.2710692 -0.41579378 -0.39036617 -0.019186454 -0.0019858978 -0.041470487
0.31362754 0.1907208 0.096965104 -0.3773015 -0.39623326 -0.32019967 0.025568364 -0.051088892
-0.104166605 0.3549565 0.27178475 0.09932553 -0.18733774 -0.3014338 -0.21246678 0.10866758
-0.0044734958 0.041026346 0.17348702 0.08889211 0.121561915 -1.3110296 -1.4230368 -1.8810663
-0.11281481 0.16900018 -0.08657885 0.07174246 0.6778613 0.26518676 -0.68997127 -0.8093677
-2.0551517 0.4959714 0.8437123 0.2475497 0.4767345 0.9576672 0.47695535 -0.91224366
-1.5222273 -2.0496492 -0.107959986 0.16671686 -0.14401537 -0.189564 0.15191777 -0.03761001
-0.30188194 -0.015485031 -0.06671885 1.7731851 1.6045464 0.82942426 1.1792924 1.2598609
0.88399905 -0.63883144 -0.47018737 -0.5136452 1.0719829 0.77597076 -0.28894055 -0.36496904
-1.0643666 -1.4220253 -1.803223 -1.9782652 -1.9606726 0.14700824 -0.5155248 -0.77670306
0.05877594 -0.927071 -0.6688873 0.8690436 0.5319638 0.75496364 0.03632546 -1.0014125
-0.36865506 -0.740979 -2.0622635 -1.6232071 0.4623711 0.14954907 0.6595748 -0.5953016

down_convs.2.conv1.bias f4 [12]
00000000: 25e9 44bd 8d4f 573b 04a0 c9bd e481 19ba
00000010: eb65 0ebb 33fa b43a f914 343b cf14 993d
00000020: f26e 293d 76ac be3b 39c9 37bc d4b7 953a
-0.048073906 0.0032853812 -0.09844974 -0.0005855842 -0.0021728228 0.0013807475 0.002747832 0.07474672
0.04136557 0.005818899 -0.011217409 0.0011422583

down_convs.2.conv2.weight f4 [12, 12, 3, 3, 3]
00000000: f9ad 173e abfa 833f 4898 753f d272 c23e
00000010: 997a e13f a0e0 bb3f bb7f 1c3f d7dc 643f
00000020: 4e4a 383d ade8 883e 973a 423e a768 653f
00000030: 1b4e 7b3f ca7f e43f 8aac 0440 982f 993f
00000040: 61fe a43f 26b7 b33f 33fd 843e 5f87 0c3f
00000050: 7c07 c03e 8726 6a3e 5d8b c63f ab09 9d3f
00000060: 78a9 463f 21da d83f 5c87 573f b2a4 b6be
00000070: 5596 a5bf 9cb6 b7be e538 893e d6c4 0bbf
00000080: ff4b e6bd f658 023f 3185 c33e 7a4e 913d
00000090: b875 39bf 4a5a cdbf d2b4 86bf ba58 4cbf
000000a0: 2a2a 97bf 4e21 33bf c882 67bd dd23 913e
000000b0: 3b57 c93e 639f 5ebf 9898 bdbf 8e53 a9bf
000000c0: e201 a5bf 3409 b8bf a2f7 82bf 8ce2 44be
000000d0: 93c6 2bba 10a1 393f 030c db3e c0b9 e2be
000000e0: 5da8 79bf 44fd 773e c73b db3c 3bc6 7dbf
000000f0: b36e 1d3e cc7e a23e 9318 cabe bc0c 813f
00000100: 6703 3a3d 877b aebf d1e7 da3e f986 89be
00000110: 8b93 48bf 75d6 a7bb 75da f6be b605 0bbe
00000120: 2c9e 8d3f d8d1 3f3f 3757 51bf 6568 233f
00000130: 17b4 09bd f7c8 6bbf ca40 053f 7a0c d5bd
00000140: 36e1 63bf 7536 973d 0d12 113e 6c9b f53d
00000150: a89c 1ebe 86a1 0ebe 7c2b c3bd 9528 b9bd
00000160: 8dfb 43be b8a2 82bd 06b2 9cbd 73bb ecbd
00000170: aa36 143d f1ae 0dbe 8351 5abe da8e e2bd
00000180: f374 a1bd 3f7f bdbd ffc2 6bbd d18a fbbd
00000190: 71d7 b8bd bf57 053e 7841 eabd ff54 39bd
000001a0: a7b7 9ebd 9c3b febd 1073 37bc 93ae 26be
000001b0: b95d 6d3e 9035 3d3e 10ad 2f3e 4079 903d
000001c0: b5f5 633d 2652 bf3d 6bc7 05be 4bdb 863c
000001d0: 78ed 633c 6398 5e3d 3699 ee3d e348 133e
000001e0: b7ef f03d e982 133e e937 25bd 31ea 2fbe
000001f0: d265 4fbe 290b 16be 5ee7 4c3e 4358 c43d
00000200: 83ce 9d3e 4275 343e bdb1 8e3c 66a4 00bd
00000210: 2b11 17bd 825a 42bd 776f 17be 9b94 37bf
00000220: bb9a a3bf eb5f 28bf dc70 68bf 7d18 a0bf
00000230: 7967 45bf 8d34 52bf 349d d7be 19e7 083e
00000240: 6ed0 c6be 2bfc e53e 79ef 0c3f 2f85 29bf
00000250: fb9e 1f3e b0f7 aebe b47e 0cbf dfac 0c3e
00000260: e18c a1be ef14 95be 8d5d 143f 31c7 673e
00000270: bc60 98be 7846 e23e eb76 cfbe 9dbb 89be
00000280: b5da 953e 6dc3 bebe 94cf dcbb 11ef 313f
00000290: a9fd 883f 0ab6 02bf 1bac 9abd a53a 8c3e
000002a0: b190 46bf a2e6 6cbe df1e 6cbd 56ee 89bf
000002b0: 5352 3abf 1be2 bebe b1ad 8abf f6ca dabe
000002c0: 6ed9 5dbe 2257 f1bc dfbc ef3e d6b1 cc3e
000002d0: 1861 d33e 5e42 85bf d4f3 9abf ef0b bfbe
000002e0: a24e b7bf d765 8ebf fd0c 24bf dd74 5bbf
000002f0: c0cf 0cbf d00d dd3e 4482 47be f9a4 a33d
00000300: 6673 bf3e 5d7b 96be aca2 a03d 9714 133f
00000310: b252 42be 4e25 a33d cbcc d53d 908a 68bf
00000320: 0423 5dbf c08f 883e 4f12 9cbf 6996 46bf
00000330: e614 b03e 0db4 5cbf 6862 a0be a8bb ce3d
00000340: 549e 47bf af9a debe a059 8f3e c589 1ebf
00000350: fc9d bfbe bf4b 0d3f 68bd b2bd b3d3 b93d
00000360: bc0c 1cbf 1c3e 25bf 9cd0 9dba ae39 acbd
00000370: b9ad 00bf b9ef 043e 5436 9a3e 857c 3dbe
00000380: 928d 813e 9b18 17bf 3f58 a0bf 2aa6 21bf
00000390: 89cc 8abe 267f acbf 094f febe 42e8 6e3e
000003a0: bf71 1dbf b303 9f3d bee9 19bd 4972 3abf
000003b0: 42ba e2be de06 883e 38ca 01bf 780d b6bc
000003c0: cfa0 283f fa01 903e 3686 123f aaca 21bf
000003d0: a0bf 693d 97d7 08bf 4205 42bf b39f bdbe
000003e0: afc9 41be af41 fdbe 532a edbc e144 8b3d
000003f0: dec7 3abe ba49 ce3e 830f 28bf 3913 2abd
0.14812459 1.0310873 0.9593549 0.37978226 1.7615539 1.4677925 0.611324 0.89399475
0.044992737 0.26740018 0.18967663 0.8961281 0.98166054 1.7851498 2.073031 1.196765
1.289013 1.4040267 0.25974426 0.5489406 0.3750571 0.2286626 1.551128 1.2268575
0.7760234 1.6941568 0.84190917 -0.35672528 -1.2936503 -0.35881507 0.2680122 -0.5459722
-0.11244964 0.50916994 0.38187554 0.07095046 -0.7244525 -1.6043179 -1.0523932 -0.79822886
-1.1809742 -0.69972694 -0.056521207 0.28347674 0.39324364 -0.86961955 -1.4812193 -1.3228624
-1.28912 -1.4377809 -1.0231822 -0.19227046 -0.0006552722 0.72511387 0.42782602 -0.4428234
-0.97522527 0.24217707 0.026761902 -0.991306 0.1537426 0.31737363 -0.39471874 1.0082011
0.0454134 -1.3631448 0.42754987 -0.26860788 -0.7835013 -0.005122001 -0.48213544 -0.13576397
1.1063895 0.7492957 -0.81773704 0.6383117 -0.033619013 -0.92103523 0.52051985 -0.1040277
-0.8901552 0.07383434 0.14167042 0.11992535 -0.15489447 -0.13928804 -0.09529778 -0.090409435
-0.19138928 -0.063786924 -0.07651143 -0.115591906 0.036184944 -0.13836266 -0.21320157 -0.11062403
-0.078836344 -0.09252786 -0.05755901 -0.122823365 -0.09025467 0.13021754 -0.114382684 -0.045247074
-0.07749873 -0.12413713 -0.011196867 -0.16277532 0.23180284 0.18477464 0.17155862 0.070543766
0.055654246 0.093418404 -0.13064353 0.016461989 0.013911597 0.054344546 0.116503164 0.14383273
0.11764472 0.14405407 -0.040336523 -0.1717918 -0.20253685 -0.14652695 0.20010135 0.09587147
0.30821618 0.17622855 0.017418737 -0.031406783 -0.036881607 -0.047449596 -0.14788614 -0.7171113
-1.2781595 -0.6577136 -0.9079721 -1.2507473 -0.7711101 -0.82111436 -0.42112124 0.13369407
-0.38830894 0.4491895 0.55052906 -0.6621885 0.1558799 -0.34173346 -0.54880834 0.1373782
-0.31552795 -0.29117534 0.5795525 0.22634579 -0.29761302 0.44194388 -0.40520415 -0.2690095
0.29268423 -0.37258473 -0.0067386124 0.6950541 1.0702411 -0.5105902 -0.07552358 0.27388492
-0.7756453 -0.23134854 -0.05764663 -1.0775859 -0.72781867 -0.3728188 -1.0834256 -0.42732972
-0.21664974 -0.029460493 0.46823785 0.39979428 0.41285014 -1.0410879 -1.210566 -0.37313792
-1.4320872 -1.1124829 -0.6408232 -0.85725194 -0.550045 0.431746 -0.19483286 0.079904504
0.3739273 -0.29390994 0.07843527 0.5745329 -0.18976858 0.079661 0.10439452 -0.9083643
-0.86381555 0.26672173 -1.2193087 -0.7757326 0.34390944 -0.86212236 -0.31325078 0.10094386
-0.77975965 -0.4347739 0.27998066 -0.6192897 -0.3742522 0.55193704 -0.087275326 0.090735815
-0.6095693 -0.64547896 -0.001204032 -0.08409439 -0.5026508 0.12982072 0.30119574 -0.18504532
0.25303322 -0.5902192 -1.252693 -0.6314417 -0.27109173 -1.3476303 -0.49669674 0.23330787
-0.6150169 0.077643774 -0.03757643 -0.72830635 -0.44282728 0.2656774 -0.50699186 -0.02222322
0.65870374 0.28126508 0.5723604 -0.63199866 0.057067513 -0.53453964 -0.7578927 -0.37035903
-0.18924592 -0.49464175 -0.028950846 0.06800247 -0.18240306 0.40290624 -0.6564867 -0.04152224

down_convs.2.conv2.bias f4 [12]
00000000: 1881 743c 0e23 38ba 7bff 66bc 0b4e 0fbc
00000010: f596 c6bc 91c9 1fbd 58bd 22bc 3f86 b93d
00000020: 809a 2fbc 04b2 8e38 7070 3bbd 2fff 893c
0.0149233565 -0.00070242665 -0.014098997 -0.008746634 -0.024241904 -0.039010588 -0.009932838 0.090588085
-0.010717988 6.804246e-05 -0.045761526 0.016845314

down_convs.2.norm0.weight f4 [12]
00000000: 2b37 df3f e860 853f 84f9 8b3f 4677 203f
00000010: 8ef0 153f fb2c 173f 6363 b33f 65f3 9b3f
00000020: 3f5e 8b3f 68e2 3a3f cf21 b73f 0c57 543f
1.7438711 1.0420198 1.0935521 0.62681997 0.5857018 0.5905301 1.4014705 1.2183653
1.0888137 0.7300172 1.4307193 0.82945323

down_convs.2.norm0.bias f4 [12]
00000000: 3704 a43f d764 f2be d0e8 79bf 7f15 85be
00000010: 4287 b4be b229 34bf bd63 a9bf efe8 8abd
00000020: 4ff1 ae3e f79a 75bf d208 82bd af09 6fbe
1.2813786 -0.4734256 -0.9762087 -0.25992963 -0.35259444 -0.7037612 -1.3233563 -0.0678271
0.3416848 -0.9593958 -0.063493386 -0.23343538

down_convs.2.norm0.running_mean f4 [12]
00000000: ffd0 0940 64ac 08c1 a93f 5240 940b 03c1
00000010: dc02 10c1 5c99 5440 140d 71bf ee6a ad40
00000020: 7916 09be 7d61 4a41 334c 1cc1 ff1a 17c1
2.153381 -8.542088 3.2851355 -8.190327 -9.000698 3.3218603 -0.9416058 5.419303
-0.13387479 12.648801 -9.768603 -9.444091

down_convs.2.norm0.running_var f4 [12]
00000000: 692d b243 a92e d443 592a 0943 5406 ab43
00000010: d730 a643 aa76 0643 eba2 ba42 c9ac 2043
00000020: 096c 0244 5fd5 2343 b5aa 9443 831f e343
356.35477 424.36453 137.16542 342.04944 332.38156 134.46353 93.3182 160.67494
521.68805 163.83348 297.33365 454.2462

down_convs.2.norm1.weight f4 [12]
00000000: 555b e13f 058b 913f 48b8 1440 ff24 873f
00000010: 85dc f83f e2af 903f 5faf 0b3f e7a8 aa3f
00000020: 1a61 673f 81bf 4b3d 80e3 d03f b1d8 5e3f
1.7605997 1.137055 2.3237476 1.0558165 1.9442297 1.1303675 0.5456447 1.3332795
0.9038254 0.04974318 1.6319427 0.87049395

down_convs.2.norm1.bias f4 [12]
00000000: 4455 313e 72ed be3b eafe abbd a202 19bf
00000010: 666a 52be 3713 873d 232e 283e 5377 333d
00000020: 0169 7bbf f29c 04bf 78e5 433e e82c 8dbf
0.17317683 0.0058266455 -0.083982304 -0.5976964 -0.205484 0.06595462 0.1642385 0.04381497
-0.982071 -0.5180198 0.19130504 -1.1029329

down_convs.2.norm1.running_mean f4 [12]
00000000: 7262 c541 1e34 c341 9bee 97c1 fb0a c0bf
00000010: 6172 dec1 2b7f a740 817e 9641 ac89 13c1
00000020: a54e f9bf 3f46 00c0 c024 9ac0 cfb5 13c1
24.673069 24.400448 -18.991507 -1.5003351 -27.80585 5.2342734 18.81177 -9.221111
-1.9477125 -2.0042875 -4.816986 -9.231887

down_convs.2.norm1.running_var f4 [12]
00000000: 7f07 8f43 d445 b943 424a 8243 3e1a d343
00000010: a4c9 6943 bc03 a443 8c63 c443 c256 0c43
00000020: 57e0 9c42 81f8 c543 710f 3743 9d24 de42
286.05856 370.54553 260.58014 422.20502 233.78766 328.02917 392.7777 140.3389
78.43816 395.94144 183.06032 111.07151

down_convs.3.conv1.weight f4 [24, 12, 3, 3, 3]
00000000: c3c4 aabd 91a1 fcbc 4dfa f2bd 7cbc 3d3d
00000010: afcd 903c d7e4 b0bc 9a03 813e b3a0 413e
00000020: 2ac5 283e 4625 9e3d 15f3 ea3d 51bf a33d
00000030: cd76 553e 366f 983e 288e 653e 453d 853e
00000040: a75d 193e 962a 173e fc22 ad3d 9b3b 3f3e
00000050: d598 363e 9cad aa3e bcb4 693e 7548 8d3e
00000060: b438 be3e 444c c83e dc98 d13e 4ae7 9ebe
00000070: 57d6 cebe 8896 cabe b195 49be ca9e 9abe
00000080: 5748 f8be d553 93be 934c 82be 3d53 a5be
00000090: 746f abbe 64c4 babe e5a8 afbe 0fc3 66be
000000a0: 032b 9cbe 1014 6abe 124b 97bd 8223 a4bd
000000b0: 3bec 86bd ab45 47be cc7a 89be f83a 61be
000000c0: ccdd cabe 4969 9cbe f021 31be 25f3 31be
000000d0: b04e 2fbe a467 3abe a64a d2bd 0a3a f93d
000000e0: 60bc 3fbe 0cfe 6fbd 4f9a 363e d9da d9bd
000000f0: 0e01 85bd c00e 423e e060 0f3e 1791 9abd
00000100: 5396 453e 0225 29bd 4dcd f43d d463 6d3e
00000110: baf2 173e 2d84 b83c 2635 563e 0769 273e
00000120: 9e0d 8ebe 73ea d4bc 107f 93be fae2 67be
00000130: e768 3b3d 28c1 8bbe 4b6d ccbc 1619 883d
00000140: a3ed bd3c 87cb 33bf 7f82 2ebf c75d 0abf
00000150: 0ba5 3fbf 2046 26bf ed8f 28bf b400 1abf
00000160: 346b 35bf c4e5 0abf df9c 05bf 1582 0ebf
00000170: 276a 0abf 18bf 1ebf c63c 1dbf a124 36bf
00000180: fa9f f7be 05e9 15bf 5df3 24bf 8421 ccbe
00000190: 13c9 04bf 868b d5be 8743 2fbf 89e6 26bf
000001a0: de11 21bf f70a 21bf 8047 09bf 7902 0bbf
000001b0: 997c 093c a087 2a3e f903 04be 81c9 303e
000001c0: d617 c63d 7239 dc3d 245b b3bd ad41 743e
000001d0: fb58 b03d 8b21 623e 576e af3e d232 193e
000001e0: 669c 1f3e 6db7 243e 3f9d 7b3d 99e4 073e
000001f0: 75d0 6b3e 0393 3b3e 4add babd 7661 233e
00000200: cb43 f83b 9e74 cc3e 884f 193e 3491 4e3d
00000210: 7e1a a4bd 90af 453e 7b6c eebd 1d0e f8be
00000220: 3e88 00bf 6cfe ffbe a01e d6be 598e 0cbf
00000230: 00c0 febe 3e42 8cbe 92ff 69be e06d 95be
00000240: aa24 d0be b3c0 08bf ad31 fbbe 2757 e2be
00000250: b42b b6be add7 dfbe 9e6f 05be dc87 a0bd
00000260: e12c 87be 9f56 84be 5d30 b6be 3423 a9be
00000270: d1cd eebe e7c6 f2be 89a3 b2be b480 7dbe
00000280: 2e65 1cbe c2b9 40be c389 00be b5db 13be
00000290: fa9f c5bd 4f4a bcbd da13 31bc 4ef6 eabd
000002a0: 002f 8cbc d50c 153d abb6 b93c de25 82bd
000002b0: 6801 3cbd c1db 91bc 4ea6 e2bc a679 bb3d
000002c0: 3cbb 4f3d ca2e 7d3e 1493 913e 61c0 ed3d
000002d0: 99cc 183d 1ed8 b6bd 35aa b03d cf6d 9abc
000002e0: 0ce5 61bd edcc bd3d 0c34 593d 6788 9e3d
000002f0: 1578 653e d705 18be d465 c4bd dc04 26be
00000300: 57f9 cebd 9146 91bd 6f97 b7bd 32d8 2abe
00000310: 37ae febd 861d 34be 3dfd 183e 68b1 e4bc
00000320: e61f 7dbc 155c 813d cf6f 213e 3602 073e
00000330: 6dfb b8bc 87ab a73d 4332 383d 3614 093e
00000340: 4705 c63d 62aa 693d 4e09 883d 84ca ab3d
00000350: 7177 c63d 277d 10be 2a6e 143d 1d6c cbbd
00000360: 6921 0cbe 336b 9bbd ab57 8fbe d6a4 b33b
00000370: 988e 1fbe 3530 a3be bfc9 09be 03b8 17be
00000380: 59ed 20be 0a6b c7ba af0a 00be 5b32 15be
00000390: 4836 70bd 6fe9 98be 10e7 4fbe b875 46be
000003a0: 2732 a6be cb56 2ebd 1df2 c6bd 0665 bfbc
000003b0: d341 1ebe 49a8 573e cc34 163d dac5 d1bd
000003c0: 4a89 933e bf61 0bbc fe22 393e 3fe3 e53d
000003d0: 8cb5 e33d 2740 dd3d 5b17 fb3d 9b99 9b3d
000003e0: 129c 283e 200d 1d3e 4499 da3c 510f 113e
000003f0: 9935 1b3e 5b7d 5a3e 1dfb f93d 49b3 043e
-0.083383106 -0.03083876 -0.11864147 0.04632233 0.017676203 -0.021593494 0.2519806 0.18908958
0.16481462 0.07721953 0.114721455 0.07995475 0.208461 0.29772347 0.2241751 0.26023307
0.14977132 0.14762339 0.08453938 0.18675081 0.17831738 0.33335578 0.22822851 0.27594343
0.37152636 0.39120686 0.40936935 -0.31035835 -0.40397903 -0.3956797 -0.19686009 -0.3019927
-0.4849269 -0.28774896 -0.25449046 -0.32290068 -0.3348347 -0.3647796 -0.34308544 -0.22535346
-0.30501565 -0.22859216 -0.073873654 -0.08014585 -0.06588026 -0.1946017 -0.268515 -0.21995151
-0.39622343 -0.30549076 -0.17298102 -0.17377909 -0.1711986 -0.18203598 -0.10268144 0.12169273
-0.18724203 -0.058591887 0.17832302 -0.10637445 -0.06494342 0.18950939 0.14001799 -0.07547205
0.19295625 -0.04129506 0.119532205 0.23182613 0.14838687 0.022523964 0.20918712 0.16348659
-0.27744764 -0.0259907 -0.28807878 -0.22645178 0.04575434 -0.27295804 -0.024954459 0.0664541
0.023184603 -0.70232433 -0.6816787 -0.5404934 -0.7486121 -0.6495075 -0.65844613 -0.6015732
-0.70866704 -0.54256845 -0.5219249 -0.5566724 -0.54068226 -0.62010336 -0.6142086 -0.7114964
-0.4836424 -0.58558685 -0.6443384 -0.3986932 -0.51869315 -0.4170801 -0.68462414 -0.6519552
-0.6291789 -0.62907356 -0.53624725 -0.5430065 0.008391523 0.166533 -0.1289214 0.17264368
0.09672515 0.10753144 -0.08757618 0.23853178 0.08610722 0.22083108 0.3426387 0.14960793
0.15587005 0.16085596 0.06142926 0.13270797 0.23028739 0.183178 -0.09124239 0.15955147
0.007576441 0.39932722 0.14971745 0.050431445 -0.080128655 0.19305253 -0.11641785 -0.48448268
-0.5020789 -0.49998796 -0.4182024 -0.54904705 -0.4975586 -0.2739429 -0.22851399 -0.2918539
-0.40652972 -0.53419036 -0.49061337 -0.44207117 -0.35580218 -0.43719235 -0.1303086 -0.07838413
-0.26401427 -0.25847337 -0.35583773 -0.3303467 -0.466414 -0.47417375 -0.34890392 -0.24756128
-0.15272972 -0.18820861 -0.12552552 -0.1443928 -0.09649654 -0.09193861 -0.010807956 -0.1147276
-0.017112255 0.03638919 0.02267011 -0.06354879 -0.04589978 -0.017804982 -0.02766719 0.09154062
0.05071567 0.2472488 0.28432524 0.11608959 0.037304495 -0.0892794 0.086262144 -0.018851189
-0.055150077 0.09267602 0.05302815 0.077408604 0.22409089 -0.14845978 -0.09589735 -0.16212791
-0.101061516 -0.070935376 -0.089644305 -0.16684034 -0.124355726 -0.17589387 0.14940353 -0.027916625
-0.0154495 0.063163914 0.15765308 0.13184437 -0.022580827 0.08187013 0.04496981 0.13386616
0.09668975 0.057047255 0.066424 0.08388236 0.096907504 -0.14110242 0.036237873 -0.0993273
-0.1368462 -0.07588806 -0.27996573 0.0054822965 -0.15581739 -0.31872717 -0.13455866 -0.14816289
-0.15715541 -0.0015214395 -0.12504075 -0.1456999 -0.058645517 -0.29865596 -0.20302987 -0.19380844
-0.32460138 -0.04256324 -0.09714148 -0.023363601 -0.15454797 0.2106029 0.036671445 -0.10242815
0.2881568 -0.008507191 0.18079755 0.112249844 0.11118612 0.10803252 0.12260314 0.07597657
0.16465786 0.15337038 0.02668441 0.14165999 0.15157165 0.21336882 0.12206099 0.12959017

down_convs.3.conv1.bias f4 [24]
00000000: 59ae 3139 f995 4ebb 4dd1 eb39 51a6 d5ba
00000010: 25c7 983b 4fc2 3eb8 d366 5938 835b 943c
00000020: beba 3d3a 3a28 493a 4ccb 103d 7c2a 63bc
00000030: 4e78 8cbc f821 8dbb f345 0c38 c1c1 09b9
00000040: e31c 99bb 7178 b7bb 5f78 383a 29db 95bb
00000050: bd3c 30bb 99d2 b238 c12a 52bc f29d dbbb
0.00016944985 -0.0031522496 0.00044978634 -0.0016300177 0.0046624118 -4.5480494e-05 5.1832594e-05 0.018110042
0.00072376046 0.0007673536 0.03535013 -0.0138651095 -0.01714721 -0.004307028 3.3443746e-05 -0.00013137517
-0.004672633 -0.0055990745 0.00070369797 -0.004573245 -0.0026891672 8.526928e-05 -0.012827576 -0.006702178

down_convs.3.conv2.weight f4 [24, 24, 3, 3, 3]
00000000: 2c12 55be acaa 723d 5e87 733d a657 28bd
00000010: d393 dc3b 400a 1a3e 057c 0b3d 78c8 3f3d
00000020: 5ea8 1f3e 65a7 47bc 309b 1c3e db39 f63d
00000030: ff25 3c3e 9747 8e3d ede7 e23d 4dc8 3e3e
00000040: 86ca b83c db26 bd3d 8050 b5bd dcf6 333c
00000050: d182 45bd e01f 1b3e ee3e 383d 4d48 aa3c
00000060: fdf9 9f3d 1000 f7bc 8ea9 b63d 4d0f e3bd
00000070: 1420 02bd 942e a7bd 4b20 f4be f053 d6be
00000080: 9d16 40be 09d3 cdbe 88b3 07be 30bf 83be
00000090: bf5a 0fbe d7dc 9dbd 0697 adbd 0037 7ebe
000000a0: 3c77 17be 24ed 8ebd 442b 273d 9fdc 7f3e
000000b0: 6e08 32bd 505f b4bc 8ac9 07be 35ec 81bd
000000c0: 2cc3 6abe f45b 62be 3e06 e8be 0e9c bbbd
000000d0: a9ff 713e b72d 14be c287 c2bd 3030 c43c
000000e0: 876d 12be 60e1 4d3e 0859 7c3e 3dab 703e
000000f0: 4590 153e 0c10 653e 9c08 183e 5f24 d03d
00000100: bdda 6dbd 04fb 913d 8dca 713e 4723 553e
00000110: 9f77 7d3e 8b33 743e 62e1 613e 5956 523e
00000120: 0102 a13d 32b1 b0bc 2d6d 3b3d e025 bc3d
00000130: 052b 2b3e c90c 233e c9b5 213e c223 333e
00000140: 03e9 193e 4f5c f23e 8808 003e 98ff 52bf
00000150: 0672 b7bf 35f0 be3e f701 96bf d950 18bf
00000160: 8802 cf3f 5acc 283e 5622 e83e 5236 4cbf
00000170: e8ac 36bd 6357 37be c6e2 7fbf 1127 84be
00000180: aa63 5a3d d2ce e2be b12d 863f 056e 01be
00000190: 6b6c 66bf 3b79 c8be abcc 57bf 46a9 22be
000001a0: a7e3 39bf 3b1c 973e d958 ec3e c04c b03e
000001b0: 7c81 3d3e 2a5e bdbe 0afa 873f 010e 873f
000001c0: db02 bfbe 1a97 4f3f ab40 c43f 354b 48bf
000001d0: fd5a ae3f 210f 003f c37f eebd 6dcb 2cbe
000001e0: 8523 7bbd 90e7 6dbf df12 443d e951 093e
000001f0: 45e7 c3bf 4989 27be da42 65be 0d0c 7abe
00000200: 7b77 353f a7f5 3dbf 5a31 5abf 7545 103f
00000210: 55cf 163d 0bf0 00be f76f 503f 3552 243d
00000220: e29b df3d f037 be3d 918e bc3d bbc4 a23d
00000230: e90d 193e 7f16 4c3d 187d 45bd 896e 653d
00000240: 991d 95bb febf 14be 8ea9 c8bd 1bf1 6e3c
00000250: 84e4 e6bc 9301 d93d 88d4 4f3d 4259 ebbd
00000260: 9c15 71bd 5e44 83bd 7dc4 dbbd a71c 4ebd
00000270: 2a63 84bd 2e5f 29be fc34 273d cf3f 403c
00000280: 7c46 0abe 4c4e c0bc 6858 3cbd 4e52 e0bd
00000290: 03c2 2dbe 9c72 f93d 1d51 dc3d 4054 843d
000002a0: 17ae a53c f880 c13c 9ec6 5cbb ef6c 4cbd
000002b0: 8525 cdbb 07df 0c3d ec9b 5a3e 4d65 2e3e
000002c0: d4e8 823d a56b 263d f996 413d 04d8 973d
000002d0: e800 bdbd 15a7 d0bd f256 f6bd 226d 083e
000002e0: 15ca 163e c687 db3d 7a94 ed3d dd51 c83d
000002f0: c46b 673d 4068 c8be 3096 a63e 1ad3 8cbf
00000300: 7853 babd c740 0c3f da9d 98bf 0f7d 80bf
00000310: 08c5 0abf 4d25 8bbf 4597 b33e f5b3 b73e
00000320: 304c e13d 9ac0 2a3f bb29 513f 9dc8 d33e
00000330: 38f5 e8be bdf1 32bf 9685 93bf b3ca 9abf
00000340: d92e 253e f936 53bf 4cd7 d2bf 3068 fe3e
00000350: 951a b7be 5096 c1bf f1cc 7abf 0ab6 84bf
00000360: 9d6a 393d 0881 463c 7826 8ebc 9ab4 f8bd
00000370: bb96 9ebd 7574 0abe 021f 0f3c 8c55 1bbe
00000380: f871 5cbd 43b4 b53d c938 163d 487a 0a3e
00000390: 7d37 01bd 1e4c 293b f6c2 8dbc 2ebb ad3c
000003a0: d8be 5fbc c9c4 113c 4455 373d c9b1 023e
000003b0: cde9 c2bc 5221 4fbd b0a7 a53d cb5f 753c
000003c0: 73a5 3d3d 4e46 cb3c 75e0 08bb 934d 623f
000003d0: e687 673c 307a 9ebe 4c06 ff3e 949f 103f
000003e0: 1143 37bf f756 89be cecb bb3f afac 5fbe
000003f0: d1de a93e 59a4 bc3d b826 44bc c63e 073e
-0.20807713 0.059244797 0.059455268 -0.041099213 0.006731489 0.15042973 0.03405382 0.04682204
0.1559157 -0.012185906 0.15293574 0.12022754 0.1837387 0.069472484 0.110793926 0.18631096
0.022557508 0.09235927 -0.08853245 0.010984149 -0.04822046 0.15148878 0.04498189 0.020786429
0.07811353 -0.030151397 0.08919059 -0.11086903 -0.031768873 -0.08163181 -0.47680888 -0.41860914
-0.18758626 -0.4020007 -0.1325208 -0.25731802 -0.1399946 -0.077081375 -0.08476071 -0.24825668
-0.14791578 -0.06978825 0.040812746 0.24986504 -0.04346507 -0.022018105 -0.13260475 -0.06343881
-0.22926015 -0.2210539 -0.45317262 -0.091606244 0.23632683 -0.14470564 -0.0949855 0.023948759
-0.14299594 0.20105505 0.24643338 0.23502822 0.14605816 0.22369403 0.14847034 0.10163187
-0.058069933 0.071279556 0.23612423 0.20814238 0.24752663 0.23847787 0.22058633 0.20540752
0.0786171 -0.021568868 0.045758415 0.091869116 0.1671563 0.15922846 0.15792002 0.1749411
0.15030293 0.4733605 0.12503254 -0.82421255 -1.4331672 0.37292638 -1.171935 -0.59498364
1.6172647 0.16484204 0.45338696 -0.79770386 -0.04459849 -0.17904429 -0.99955404 -0.25811055
0.053317703 -0.44298416 1.0482694 -0.12639625 -0.9000918 -0.39154992 -0.84296674 -0.15884885
-0.72612995 0.29513726 0.46161535 0.34433556 0.18506426 -0.36985904 1.0623181 1.0551149
-0.37306866 0.8108994 1.5332235 -0.78239757 1.3621517 0.50023085 -0.11645462 -0.16874476
-0.06131317 -0.9293146 0.04786956 0.13410152 -1.5304953 -0.16360964 -0.22388783 -0.2441866
0.7088544 -0.7420296 -0.85231555 0.56355983 0.03681882 -0.12591569 0.81420845 0.04011746
0.10918404 0.09288013 0.0920688 0.079476796 0.14946713 0.04982614 -0.048215 0.056013618
-0.0045506475 -0.14526364 -0.09797965 0.014583851 -0.028185137 0.105960034 0.050739795 -0.11491634
-0.0588585 -0.064095244 -0.107308365 -0.050320294 -0.064642265 -0.16540214 0.040822014 0.011733963
-0.1350345 -0.023474835 -0.04598275 -0.109531984 -0.16968541 0.12180063 0.10757659 0.06461382
0.020224614 0.023621067 -0.003368772 -0.049908575 -0.006260576 0.034392383 0.21348542 0.1703083
0.06392065 0.04063 0.04726312 0.074142486 -0.092286885 -0.10188118 -0.12028302 0.13322881
0.14725526 0.10719256 0.11600585 0.09781239 0.056499258 -0.39142036 0.3253646 -1.1001923
-0.09097952 0.5478634 -1.1923172 -1.0038165 -0.54206896 -1.0870758 0.35076347 0.35879484
0.1100086 0.66700137 0.817043 0.41363993 -0.45499587 -0.69900113 -1.1525142 -1.2093109
0.16131152 -0.82505757 -1.6471953 0.49688864 -0.35762468 -1.5123997 -0.97968966 -1.0368054
0.04526769 0.012115724 -0.017352328 -0.12143822 -0.07743593 -0.13520987 0.00873542 -0.15169352
-0.053819627 0.08872273 0.03667525 0.13523209 -0.03154706 0.0025832723 -0.017304879 0.021207418
-0.013656341 0.008897015 0.04475905 0.12763132 -0.023793126 -0.050568886 0.080886245 0.014976452
0.046300363 0.024813797 -0.002088574 0.8839962 0.014131522 -0.30952597 0.49809492 0.56493497
-0.7158671 -0.2682416 1.4671571 -0.21843217 0.33177808 0.09211034 -0.011972122 0.1320754
