outputs/outputs_new_tip_mask_2/epoch_130_model.pth (torch, 695315 bytes, 241 tensors)

down_convs.0.conv1.weight f4 [3, 1, 3, 3, 3]
-1.3233893 0.73221135 -1.0840207 -0.01759648 1.5166066 0.25448126 0.23164539 0.58120203
-0.34377867 0.5454057 -2.6844585 0.8482205 1.130101 -3.1243746 1.4087018 0.655598
-6.3691645 0.13281892 -1.1100104 0.72575563 -0.9981664 -0.013771193 0.7301199 -0.19196138
-0.043102764 0.15689318 -0.3142851 -0.86978793 0.44288322 -1.1845633 -1.7454813 1.1528512
-0.41730583 -1.2281415 0.5885752 -0.9107366 0.7768224 0.71151346 -0.39080393 1.113973
3.2688818 4.294418 1.1836103 1.4191681 1.2199032 -1.2919071 0.27351084 -0.9900043
-1.3654565 1.1870314 -0.20178832 -1.2941072 0.2895623 -0.5127358 -1.8034058 0.51642084
0.4210753 -1.7562039 -0.17556615 0.8708384 -0.6134401 -0.5103219 1.9027473 0.4525194
2.424586 -0.46730438 -1.329686 0.37377915 -0.8356804 -0.4235787 0.38293487 -0.5202993
3.1453426 0.8233002 0.9029581 0.6198467 -1.2880245 0.05920096 2.2159753 -1.1136856
1.6025504
00000000: d264 a9bf 3472 3b3f 31c1 8abf 7e26 90bc
00000010: 2a20 c23f 5e4b 823e 7334 6d3e a8c9 143f
00000020: c203 b0be b59f 0b3f 2bce 2bc0 fb24 593f
00000030: 26a7 903f c1f5 47c0 5750 b43f 45d5 273f
00000040: 32d0 cbc0 af01 083e d214 8ebf 1fcb 393f
00000050: d587 7fbf 92a0 61bc 23e9 3a3f 8691 44be
00000060: 868c 30bd 9ba8 203e fae9 a0be 6caa 5ebf
00000070: 97c1 e23e c59f 97bf ee6b dfbf a190 933f
00000080: 1ca9 d5be be33 9dbf ddac 163f 0926 69bf
00000090: d5dd 463f bf25 363f 7417 c8be ab96 8e3f
000000a0: 5c35 5140 df6b 8940 8b80 973f 4da7 b53f
000000b0: ca25 9c3f 365d a5bf 9d09 8c3e ec70 7dbf
000000c0: 47c7 aebf a5f0 973f 99a1 4ebe 4ea5 a5bf
000000d0: 8341 943e a742 03bf 00d6 e6bf 2834 043f
000000e0: 2f97 d73e 4acb e0bf 9dc7 33be 44ef 5e3f
000000f0: 690a 1dbf 75a4 02bf 398d f33f 9fb0 e73e
00000100: 6b2c 1b40 8542 efbe 2733 aabf fb5f bf3e
00000110: 27ef 55bf 4fdf d8be 0a10 c43e 5632 05bf
00000120: 4b4d 4940 cdc3 523f 4328 673f 46ae 1e3f
00000130: fddd a4bf b57c 723d 8ad2 0d40 408d 8ebf
00000140: 5f20 cd3f

down_convs.0.conv1.bias f4 [3]
1.2172253 -0.053814486 1.4732058
00000000: 0ace 9b3f 946c 5cbd 0292 bc3f

down_convs.0.conv2.weight f4 [3, 3, 3, 3, 3]
0.019393422 -0.6345701 -0.13713995 -0.6058052 -0.51416236 -1.5257075 0.82266814 -0.43224305
-1.6787412 0.054374266 0.76889926 1.7422589 -0.36868688 -0.08553426 -0.47730005 -0.31027046
0.26408923 -0.318087 1.1220418 -0.7392168 0.70519894 1.5186404 -0.7754962 -0.35375893
1.8382813 0.27806288 -0.019984512 6.1461515 2.7187214 0.67358255 2.2699988 1.0290773
-0.24146916 -0.28566483 -0.13134536 -0.2533473 2.607241 2.85249 -0.72307956 0.021038422
0.61701566 -1.6487664 -0.82511663 0.9197473 -1.0979692 1.1196883 -0.051300466 -0.6567502
0.25582036 -0.60419446 -1.1220609 -0.67174965 -0.75283283 -1.0431277 1.5656 -0.6767889
-1.9757177 4.071327 3.0402656 0.16254449 1.8291582 0.79736525 -1.6830696 -0.15884373
-0.34760755 -0.780064 1.6158758 1.5142047 0.89532685 -0.16699198 0.23714374 -0.6287119
-1.7002156 0.05458772 -0.93910646 -1.4848233 0.44241565 -0.78912127 -2.241174 -0.35087273
-1.6189805 0.389266 0.69035846 2.2641394 0.712951 -0.68739605 -0.8861949 0.39322802
-0.6217597 -0.9868457 -0.31702763 -0.1586208 2.1907978 -0.10253701 0.2535117 -0.061036274
0.0039295712 -0.4241333 -0.034533933 0.2773056 1.0905781 2.466502 -0.6009591 -0.7063181
0.26216656 -0.68423927 -0.29565313 0.03481977 -0.17972676 0.41656193 -0.6022637 0.52810407
3.9671776 2.7344692 0.85593593 1.2898643 1.2440817 0.23762111 1.3794961 0.42446196
0.03191434 4.509253 3.8503191 -0.14854392 0.051134277 0.5666267 -0.2434735 0.4100554
-0.43236768 -1.0842156 0.45530745 0.09897953 0.61776817 0.6608528 0.7696595 0.32578626
0.12953174 -0.5372835 0.75891113 0.6659211 -0.783241 -0.32995123 1.8897456 3.265452
-0.22036076 0.50195044 0.3741658 -0.04262413 0.84822404 0.54904526 -1.668299 0.6700672
1.8016245 -0.87135506 -0.31197414 -0.4147921 -0.5868225 -0.046090152 -0.39501134 -2.7752166
-1.7042378 -1.0827762 -1.151902 -0.24861081 -2.2810078 0.36532867 2.5386355 -0.27162918
-0.2680182 1.7014952 -1.0142092 1.1140512 -3.2153802 1.4281574 2.3414218 -0.07293651
1.8623742 1.7363904 -1.6908622 1.600479 -0.74711347 -1.0273906 -1.8447313 0.34312418
1.6593872 -0.30324504 -0.5551223 -0.13687064 -1.4823546 -1.1904066 1.0196602 -1.8687837
-0.91376567 1.2368308 -0.9806044 -0.6052046 1.0615847 -1.3094684 0.82824177 -2.0231514
1.3257077 1.1366229 -2.4400206 1.6814252 1.4349732 -2.1593087 1.3615355 -1.6722753
1.1628952 -1.4110637 -1.520662 1.4020141 -1.2027441 -1.3874018 1.5070184 -1.4563887
0.8129482 -2.005653 0.76267725 1.1266918 -1.06404 1.5374273 0.75013053 -2.358688
0.92921007 -1.5770396 0.32139787 -1.2448475 -1.4547334 0.7540838 -0.16168636 -1.4099215
0.25065282 -0.87323606 0.6436032 -0.85713965 0.5278471 0.4774491 -0.1185282 0.6074411
0.6295953 0.007835975 0.88041836
00000000: f4de 9e3c 3073 22bf 6a6e 0cbe 0d16 1bbf
00000010: 25a0 03bf 624a c3bf 619a 523f f64e ddbe
00000020: fee0 d6bf 8db7 5e3d 95d6 443f 5702 df3f
00000030: 87c4 bcbe 962c afbd ac60 f4be c5db 9ebe
00000040: b436 873e 4ddc a2be 119f 8f3f 503d 3dbf
00000050: eb87 343f cf62 c23f eb86 46bf e41f b5be
00000060: cd4c eb3f 425e 8e3e 8fb6 a3bc 46ad c440
00000070: 88ff 2d40 e86f 2c3f a947 1140 ceb8 833f
00000080: b143 77be a942 92be 667f 06be bdb6 81be
00000090: 09dd 2640 328f 3640 be1b 39bf c558 ac3c
000000a0: bdf4 1d3f c70a d3bf d83a 53bf 8f74 6b3f
000000b0: 418a 8cbf f251 8f3f 7020 52bd c820 28bf
000000c0: e3fa 823e 7dac 1abf b19f 8fbf c9f7 2bbf
000000d0: a7b9 40bf 3585 85bf 9565 c83f 0a42 2dbf
000000e0: 51e4 fcbf 5048 8240 b693 4240 1072 263e
000000f0: db21 ea3f 2120 4c3f d36e d7bf eea7 22be
00000100: 9ef9 b1be 46b2 47bf 05d5 ce3f 76d1 c13f
00000110: 2434 653f f2ff 2abe cfd5 723e 43f3 20bf
00000120: aaa0 d9bf 6097 5f3d 4869 70bf b10e bebf
00000130: 4e84 e23e da03 4abf 656f 0fc0 97a5 b3be
00000140: c13a cfbf e04d c73e 55bb 303f a9e7 1040
00000150: f583 363f 30f9 2fbf abdd 62bf 2f55 c93e
00000160: a52b 1fbf eba1 7cbf 7251 a2be 7e6d 22be
00000170: 0836 0c40 edfe d1bd 49cc 813e 2c01 7abd
00000180: a2c3 803b 0028 d9be 7473 0dbd 00fb 8d3e
00000190: 1098 8b3f 2bdb 1d40 75d8 19bf 43d1 34bf
000001a0: b23a 863e 4e2a 2fbf d95f 97be 2d9f 0e3d
000001b0: 4b0a 38be 9b47 d53e f42d 1abf d431 073f
000001c0: 3de6 7d40 8b01 2f40 9e1e 5b3f 461a a53f
000001d0: 123e 9f3f f352 733e 5493 b03f 1453 d93e
000001e0: 9cb8 023d cd4b 9040 a16b 7640 e61b 18be
000001f0: 2d72 513d 730e 113f 1e51 79be c8f2 d13e
00000200: 4c5f ddbe 94c7 8abf 0f1e e93e c8b5 ca3d
00000210: 0e26 1e3f a62d 293f 6808 453f 75cd a63e
00000220: f8a3 043e 698b 09bf 0048 423f ce79 2a3f
00000230: 7b82 48bf 5eef a8be 2fe3 f13f 2afd 5040
00000240: 40a6 61be d37f 003f a992 bf3e a496 2ebd
00000250: 3625 593f 3b8e 0c3f d28a d5bf 8689 2b3f
00000260: a29b e63f 2011 5fbf 13bb 9fbe a15f d4be
00000270: 003a 16bf 07c9 3cbd ed3e cabe 269d 31c0
00000280: 7724 dabf 6998 8abf 8671 93bf d593 7ebe
00000290: 08fc 11c0 5c0c bb3e 0179 2240 fb12 8bbe
000002a0: ae39 89be 98ca d93f 9bd1 81bf 3b99 8e3f
000002b0: cac8 4dc0 ddcd b63f dbd9 1540 bd5f 95bd
000002c0: 4762 ee3f 0a42 de3f 2c6e d8bf 7fdc cc3f
000002d0: d442 3fbf 8981 83bf 2820 ecbf f9ad af3e
000002e0: cd66 d43f ef42 9bbe 7f1c 0ebf d127 0cbe
000002f0: ccbd bdbf 3e5f 98bf 3a84 823f 4e34 efbf
00000300: 8cec 69bf 7950 9e3f e408 7bbf b0ee 1abf
00000310: 02e2 873f a99c a7bf a707 543f 507b 01c0
00000320: cab0 a93f dc7c 913f 4c29 1cc0 f138 d73f
00000330: 34ad b73f 1d32 0ac0 cc46 ae3f 1e0d d6bf
00000340: c0d9 943f bc9d b4bf 0da5 c2bf 3375 b33f
00000350: 85f3 99bf 6296 b1bf fbe5 c03f f26a babf
00000360: 601d 503f 9e5c 00c0 d13e 433f 7037 903f
00000370: 7632 88bf 6bca c43f 8e08 403f bff4 16c0
00000380: b6e0 6d3f 6fdc c9bf 438e a43e 2a57 9fbf
00000390: b434 babf a30b 413f 1c91 25be 4f78 b4bf
000003a0: 9155 803e 668c 5fbf 2ec3 243f 816d 5bbf
000003b0: fd20 073f 3574 f43e eabe f2bd 4381 1b3f
000003c0: 282d 213f 7662 003c 1963 613f

down_convs.0.conv2.bias f4 [3]
-2.7953374 0.27090943 -0.48207447
00000000: cfe6 32c0 a4b4 8a3e 77d2 f6be

down_convs.0.norm0.weight f4 [3]
2.0291047 3.4471385 1.1015172
00000000: dadc 0140 eb9d 5c40 84fe 8c3f

down_convs.0.norm0.bias f4 [3]
-0.85278034 0.447595 -0.004398845
00000000: d04f 5abf 2c2b e53e 3024 90bb

down_convs.0.norm0.running_mean f4 [3]
1.1791819 -0.1133758 1.5364089
00000000: 6fef 963f 9231 e8bd 0ca9 c43f

down_convs.0.norm0.running_var f4 [3]
56.950527 35.599453 30.280703
00000000: 57cd 6342 d765 0e42 e13e f241

down_convs.0.norm1.weight f4 [3]
1.3583562 1.5297217 1.9126321
00000000: 9ede ad3f eccd c33f 21d1 f43f

down_convs.0.norm1.bias f4 [3]
-0.27360356 -1.3624927 -0.3270721
00000000: c415 8cbe 2966 aebf ff75 a7be

down_convs.0.norm1.running_mean f4 [3]
11.867261 29.379267 -9.843966
00000000: 4de0 3d41 bd08 eb41 e280 1dc1

down_convs.0.norm1.running_var f4 [3]
1597.5186 4362.2256 504.50854
00000000: 98b0 c744 ce51 8845 1841 fc43

down_convs.1.conv1.weight f4 [6, 3, 3, 3, 3]
1.3783817 1.268075 0.9696491 1.4761924 0.629107 0.23573124 1.0492429 -0.06183205
-0.69740385 0.7590903 0.45700306 0.22594298 0.2552885 -1.7625626 -1.8296793 0.03074279
-2.707345 -3.8605788 1.1983526 0.7750627 0.7814817 0.71365666 -0.9655219 -0.6216376
-0.37867698 -3.0268798 -3.8236969 0.62316483 -0.036111373 1.2562417 0.1310534 -1.357079
0.6394245 0.772788 -0.3660282 2.067234 -0.48835433 -2.1346443 0.36707246 -2.1201308
-5.6496897 -1.3373041 -0.06659519 -3.050411 -0.3646424 0.260048 -0.72618675 1.5620182
-1.3790872 -3.588993 0.20054743 1.0755876 -1.7172091 0.17417917 -0.31646279 -0.29323786
0.04555437 -0.25632584 0.2134451 0.20916 -0.91569465 -0.25114933 -0.8550096 0.44778627
-0.49197388 0.27982742 0.35081628 -0.24799648 0.27590188 -0.3515566 0.09792022 -0.30094013
0.7657525 0.63890606 0.95808434 0.3548207 0.83125716 1.1404132 -0.44941527 0.67263675
1.0380934 0.73760587 -0.49834183 -1.3205872 2.2676446 0.7901008 -0.03807091 1.7409812
0.5250119 0.1556256 -0.077937335 -2.2136579 -2.4351754 0.88857996 -1.0498784 -0.76784027
-0.1556461 -1.4823309 -1.2381457 -0.5550507 -1.5394156 -0.665375 -0.020981533 -0.30253607
0.9172988 -0.6061544 -1.0081105 0.15165633 1.3243456 -1.3832344 -0.45761508 1.1905583
-0.9690203 0.2540697 0.7338867 -0.8701342 -0.5865713 -1.4336017 -3.2203958 -0.41572562
-1.0111871 -1.6931784 -0.03702971 -0.20327494 -1.1665379 -1.0516446 -1.2621547 0.25938982
1.9541695 -0.91476196 0.44325432 2.2172163 -1.5532856 -0.4142424 1.084067 -1.6237658
-0.49783054 -1.00224 -2.8029985 -2.052839 -1.9789468 -4.235102 -3.2229004 -3.9288487
-0.39647368 -0.017083976 0.16897158 -2.008831 -1.6378144 -0.6845249 -3.1077628 -2.4179564
-2.080459 -0.9639642 0.3996052 -0.9361886 -2.3240163 -0.5258646 -1.498273 -4.161987
-2.168344 -3.1085985 -1.8823229 -1.4500943 -2.3417308 -0.09198601 1.6194129 1.3672745
-0.1445466 0.07671998 -0.9536542 -0.91882616 -0.29778343 -1.4772867 1.8807027 4.3348517
2.9001083 0.12585555 -0.3513583 -1.4390881 -1.1065031 -0.5348202 -1.6637199 1.1271727
2.9661298 1.4034585 -0.44355905 -0.94354445 -1.3378478 -0.2918929 -0.23732214 -0.46737295
0.44444126 0.6356617 -0.4493091 0.43862757 0.76797634 0.33930805 0.7740693 1.115854
-0.5216279 1.3959899 1.2278137 -0.22332056 0.32542032 0.515643 0.10381481 0.12937802
0.4430663 -0.5044333 0.26251963 0.47864035 -0.5130392 0.6225467 0.44840336 -0.09356913
0.45253775 0.5389857 0.030587656 -0.13125375 0.19916753 0.44716945 -0.12765932 -0.34596428
-0.14383353 -1.3002923 0.3238706 -1.3151771 -1.2252712 -0.18637325 -0.7958384 -0.9670954
-0.49161574 -1.202993 0.5959729 0.84922063 0.519599 -0.8509886 -0.7151011 -0.0027949114
0.13805647 -0.1232443 -0.08631417 0.9085975 0.889845 0.15627572 0.6576086 -0.20611775
-0.20944202 0.045659292 -0.5634934 -0.60230815 0.21541378 -0.26905212 -0.20088167 -0.2609553
00000000: d06e b03f 4850 a23f ec3a 783f dff3 bc3f
00000010: 280d 213f 8863 713e 974d 863f 9b43 7dbd
00000020: 0f89 32bf be53 423f 4efc e93e 995d 673e
00000030: 2db5 823e a79b e1bf ee32 eabf 4ed8 fb3c
00000040: 2445 2dc0 b913 77c0 9e63 993f 826a 463f
00000050: 2f0f 483f 34b2 363f 712c 77bf a423 1fbf
00000060: f3e1 c1be 66b8 41c0 73b7 74c0 bb87 1f3f
00000070: 85e9 13bd 87cc a03f dd32 063e c4b4 adbf
00000080: 53b1 233f 6fd5 453f 0c68 bbbe 904d 0440
00000090: 9409 fabe 039e 08c0 ecf0 bb3e 39b0 07c0
000000a0: 42ca b4c0 c82c abbf 0f63 88bd ef39 43c0
000000b0: 69b2 babe 0325 853e 60e7 39bf 36f0 c73f
000000c0: ee85 b0bf 10b2 65c0 4e5c 4d3e dbac 893f
000000d0: 82cd dbbf 065c 323e 6907 a2be 4623 96be
000000e0: 3897 3a3d 243d 83be 5a91 5a3e 0a2e 563e
000000f0: f76a 6abf a596 80be e9e1 5abf 3e44 e53e
00000100: 00e4 fbbe 8a45 8f3e 319e b33e caf2 7dbe
00000110: 0343 8d3e 3aff b3be 658a c83d d314 9abe
00000120: 5b08 443f 598f 233f 0445 753f 0fab b53e
00000130: 45cd 543f 0ff9 913f c219 e6be ec31 2c3f
00000140: 3fe0 843f bdd3 3c3f a926 ffbe 0009 a9bf
00000150: 1721 1140 0c44 4a3f 3ef0 1bbd 79d8 de3f
00000160: 2e67 063f 515c 1f3e 9c9d 9fbd 92ac 0dc0
00000170: ead9 1bc0 fa79 633f 6a62 86bf 2e91 44bf
00000180: b161 1fbe 05bd bdbf 8f7b 9ebf cd17 0ebf
00000190: 920b c5bf 0456 2abf 77e1 abbc 02e6 9abe
000001a0: 18d4 6a3f ef2c 1bbf c409 81bf cc4b 1b3e
000001b0: 2884 a93f d30d b1bf 864c eabe 3764 983f
000001c0: b711 78bf 6c15 823e 00e0 3b3f 1dc1 5ebf
000001d0: 8929 16bf 4380 b7bf f71a 4ec0 fdd9 d4be
000001e0: 946e 81bf 12ba d8bf 77ac 17bd 4e27 50be
000001f0: 1d51 95bf 4a9c 86bf 498e a1bf bece 843e
00000200: 3a22 fa3f d72d 6abf 3bf2 e23e dfe6 0d40
00000210: 10d2 c6bf 9417 d4be b5c2 8a3f 8fd7 cfbf
00000220: a5e3 febe 6649 80bf 5464 33c0 b761 03c0
00000230: 214e fdbf f585 87c0 0044 4ec0 4272 7bc0
00000240: 99fe cabe b2f3 8bbc e306 2d3e b090 00c0
00000250: e7a3 d1bf 063d 2fbf 96e5 46c0 ccbf 1ac0
00000260: 3e26 05c0 5cc6 76bf 0e99 cc3e 0eaa 6fbf
00000270: afbc 14c0 109f 06bf 69c7 bfbf ff2e 85c0
00000280: 26c6 0ac0 47f3 46c0 f5ef f0bf b19c b9bf
00000290: ebde 15c0 2963 bcbd ec48 cf3f da02 af3f
000002a0: 0604 14be 5d1f 9d3d af22 74bf 3138 6bbf
000002b0: 1277 98be bb17 bdbf deba f03f 1bb7 8a40
000002c0: 609b 3940 47e0 003e 3ce5 b3be 0a34 b8bf
000002d0: e5a1 8dbf fae9 08bf c6f4 d4bf 3247 903f
000002e0: 12d5 3d40 87a4 b33f 2c1a e3be 218c 71bf
000002f0: 993e abbf fc72 95be 9304 73be 824b efbe
00000300: ce8d e33e baba 223f d80b e6be cb93 e03e
00000310: 199a 443f c9b9 ad3e 6829 463f 4ed4 8e3f
00000320: 6889 05bf ccaf b23f 0029 9d3f 25ae 64be
00000330: 7e9d a63e 2e01 043f dc9c d43d ac7b 043e
00000340: 96d9 e23e 8a22 01bf f968 863e 5910 f53e
00000350: 8956 03bf 385f 1f3f 2095 e53e 2ca1 bfbd
00000360: 07b3 e73e f8fa 093f f792 fa3c 6267 06be
00000370: 93f2 4b3e 65f3 e43e 20b9 02be 3b22 b1be
00000380: 1949 13be fa6f a6bf 5ed2 a53e b957 a8bf
00000390: b0d5 9cbf a1d8 3ebe 11bc 4bbf 9093 77bf
000003a0: 0fb5 fbbe adfb 99bf ae91 183f 8666 593f
000003b0: 7104 053f 64da 59bf de10 37bf d52a 37bb
000003c0: ad5e 0d3e 8267 fcbd 7cc5 b0bd d999 683f
000003d0: e2cc 633f be06 203e 0a59 283f 8810 53be
000003e0: f877 56be 3d05 3b3d 1a41 10bf de30 1abf
000003f0: 6e95 5c3e 33c1 89be edb3 4dbe ef9b 85be

down_convs.1.conv1.bias f4 [6]
-0.2636021 0.34926075 -0.11068134 -0.10931356 0.3122954 -0.2776255
00000000: dbf6 86be 4ed2 b23e e6ac e2bd cadf dfbd
00000010: 2fe5 9f3e ee24 8ebe

down_convs.1.conv2.weight f4 [6, 6, 3, 3, 3]
-0.013438532 0.23777692 -0.21217959 -0.08942199 -0.20587136 -0.25125417 0.008080679 -0.05859251
-0.27423245 0.17841958 0.0057090246 -0.047452796 0.28479686 0.059076015 -0.15135054 -0.03333482
0.0842555 -0.23057956 0.011479333 -0.07609129 -0.23687442 0.06882036 0.15625168 -0.15207557
0.15533139 -0.18271871 -0.16319813 -0.2684282 -0.09436413 -0.16612983 -0.21356213 -0.03739352
-0.16055273 0.19881967 0.14506927 -0.21653728 -0.050321184 0.032650106 -0.22174591 -0.19533712
-0.0631697 -0.09873077 -0.07252739 0.06807443 0.09861884 -0.15100911 -0.02199542 -0.256775
0.025408065 -0.00028067414 -0.09288388 -0.054730218 0.033058904 -0.03679895 -0.182317 -0.15016508
-0.32358623 -0.3192349 -0.23918355 -0.39407846 -0.15543152 -0.19710639 -0.10169178 -0.2623595
-0.25991774 -0.25244507 -0.4454577 -0.21017255 -0.18879877 -0.36395705 -0.05138636 -0.038957156
-0.26584342 -0.23121072 -0.2372598 -0.35552254 -0.25954014 -0.18269548 -0.26460996 -0.17107083
-0.13296649 -0.19935092 -0.1519617 -0.40860972 -0.041451782 0.055241786 -0.12988462 0.1275893
0.22203116 -0.00730678 -0.23064755 -0.19805762 -0.548592 -0.08979793 -0.050304048 -0.17388283
0.22300479 0.40403852 -0.04279902 -0.4974012 -0.20426084 -0.55563927 -0.13576673 0.037843283
-0.28892708 0.2019624 0.36638215 -0.046495095 -0.22219026 -0.32152382 -0.2516082 -0.3105323
-0.35238472 -0.37114263 -0.3911077 -0.17193401 -0.100257546 -0.2926638 -0.20540078 -0.23443185
-0.26543978 -0.11024079 -0.19845572 -0.23628516 -0.30221796 -0.22417486 -0.22229852 -0.15780391
-0.12416806 -0.19753566 -0.120958574 -0.21229467 -0.3189403 -0.038496148 -0.2541267 -0.48100504
-0.42871982 -0.6772091 -0.46321043 -0.26756322 -0.26036283 -0.5259804 -0.34720054 -0.46846133
-0.5748457 -0.4448978 -0.5301789 -0.6193674 -0.28843918 -0.44436222 -0.54337627 -0.22049734
-0.6593948 -0.58619684 -0.344495 -0.3447497 -0.3685715 -0.3675896 -0.26191777 -0.27769044
-0.34289765 -0.52747524 -2.7821696 -1.0085021 -0.3688778 0.19342853 2.6403956 1.2729274
2.1999562 2.310212 1.4496617 -2.021251 -0.47437674 -2.1844308 2.8350964 3.6316764
-0.5147426 2.078575 1.410587 0.33202803 -2.2589529 -2.5464008 -3.101361 1.1062186
-0.6396153 -1.9534223 1.6312547 -0.09650175 -0.8004509 0.46411148 1.016338 2.2801595
-0.32978037 -0.3537438 1.78127 0.3553425 0.7194528 3.1019232 0.8147493 2.5838895
2.3285878 0.051874265 1.7046818 1.1483754 0.90325 2.0069716 1.7728469 2.4874713
1.7628095 1.0943394 2.7149327 0.9205339 -0.032942217 3.3101778 1.2369003 0.99663246
0.9233319 0.38030115 -0.5312612 0.37570566 0.02392161 -0.008648915 0.43546543 0.61206055
0.01256184 -0.09234042 0.23129547 -0.26480615 0.31018463 0.7447127 0.27667996 0.12362717
0.2860465 0.18388851 -1.0267409 -0.7767312 -0.7038076 0.17309785 0.35228917 -0.24553145
-0.3119367 0.21559152 -0.10846318 1.1582967 0.252672 2.3695 -0.05825736 -0.4399339
2.124336 1.6661601 1.118983 3.5004249 0.046785068 0.17814109 0.6976569 -0.2568392
00000000: 4a2d 5cbc cb7b 733e 9b45 59be e022 b7bd
00000010: f1cf 52be 63a4 80be d364 043c b3fe 6fbd
00000020: 3268 8cbe 9fb3 363e c512 bb3b dd5d 42bd
00000030: e5d0 913e b1f9 713d a3fb 1abe 188a 08bd
00000040: 268e ac3d 0c1d 6cbe d013 3c3c c0d5 9bbd
00000050: 358f 72be b0f1 8c3d 7100 203e b3b9 1bbe
00000060: 310f 1f3e 9d1a 3bbe 691d 27be 6c6f 89be
00000070: fb41 c1bd f01d 2abe 08b0 5abe f329 19bd
00000080: ef67 24be 6297 4b3e 0a8d 143e f3bb 5dbe
00000090: 961d 4ebd 1ebc 053d 5c11 63be 7406 48be
000000a0: 1e5f 81bd 5c33 cabd 3e89 94bd 9b6a 8b3d
000000b0: adf8 c93d 22a2 1abe bd2f b4bc 0378 83be
000000c0: 9324 d03c 7227 93b9 e739 bebd cb2c 60bd
000000d0: c668 073d 7fba 16bd 4fb1 3abe e0c4 19be
000000e0: 18ad a5be c272 a3be 88ec 74be a7c4 c9be
000000f0: 7129 1fbe 42d6 49be c843 d0bd fc53 86be
00000100: f013 85be 7b40 81be 0813 e4be 7937 57be
00000110: 7754 41be 9458 babe 817a 52bd 8a91 1fbd
00000120: a11c 88be 81c2 6cbe 3cf4 72be 0d07 b6be
00000130: 72e2 84be 8614 3bbe f57a 87be 312d 2fbe
00000140: 5e28 08be a622 4cbe d99b 1bbe 4b35 d1be
00000150: 58c9 29bd 3645 623d 7900 05be c5a6 023e
00000160: 235c 633e b76d efbb df2e 6cbe 9ecf 4abe
00000170: 8670 0cbf fae7 b7bd 9e0b 4ebd 570e 32be
00000180: 5e5b 643e 23de ce3e 064e 2fbd 5fab febe
00000190: c129 51be 603e 0ebf 6f06 0bbe 8f01 1b3d
000001a0: 40ee 93be 3bcf 4e3e 7196 bb3e a471 3ebd
000001b0: d885 63be c59e a4be cad2 80be 17fe 9ebe
000001c0: c56b b4be 6806 bebe 453f c8be 780f 30be
000001d0: d453 cdbd 08d8 95be 9554 52be e70e 70be
000001e0: b9e7 87be ecc5 e1bd fa37 4bbe bdf4 71be
000001f0: 50bc 9abe 188e 65be 39a2 63be 5997 21be
00000200: d34b febd ca46 4abe 21b9 f7bd c663 59be
00000210: 254c a3be 23ae 1dbd e51c 82be 4b46 f6be
00000220: 2a81 dbbe 935d 2dbf eb29 edbe 0cfe 88be
00000230: 474e 85be a7a6 06bf 45c4 b1be 2ada efbe
00000240: 1629 13bf a5c9 e3be ceb9 07bf dd8e 1ebf
00000250: 4dae 93be 7283 e3be b51a 0bbf 0eca 61be
00000260: 19ce 28bf ff10 16bf a661 b0be 0883 b0be
00000270: 67b5 bcbe b434 bcbe 161a 86be 712d 8ebe
00000280: 4890 afbe 9e08 07bf 110f 32c0 9916 81bf
00000290: 8ddd bcbe 2112 463e 3efc 2840 49ef a23f
000002a0: 15cc 0c40 83da 1340 848e b93f 2d5c 01c0
000002b0: 82e1 f2be b7cd 0bc0 3872 3540 636d 6840
000002c0: 2cc6 03bf 5f07 0540 1d8e b43f 94ff a93e
000002d0: af92 10c0 3bf8 22c0 b37c 46c0 9298 8d3f
000002e0: d4bd 23bf be09 fabf f4cc d03f b6a2 c5bd
000002f0: 5aea 4cbf 05a0 ed3e 5d17 823f 22ee 1140
00000300: f9d8 a8be e81d b5be a800 e43f 74ef b53e
00000310: 0f2e 383f e985 4640 6993 503f 725e 2540
00000320: 9507 1540 1c7a 543d 0333 da3f f7fd 923f
00000330: 643b 673f 3972 0040 a6ec e23f bb32 1f40
00000340: bea3 e13f 5013 8c3f 75c1 2d40 1ca8 6b3f
00000350: 6bee 06bd f4d9 5340 c052 9e3f 4e23 7f3f
00000360: 7b5f 6c3f d5b6 c23e bc00 08bf 7e5c c03e
00000370: 41f7 c33c 2eb4 0dbc 53f5 de3e 00b0 1c3f
00000380: 2dd0 4d3c f91c bdbd b8d8 6c3e ac94 87be
00000390: 85d0 9e3e 7ea5 3e3f ffa8 8d3e 3e30 fd3d
000003a0: b074 923e 454d 3c3e 3f6c 83bf dbd7 46bf
000003b0: bc2c 34bf 9040 313e 3f5f b43e 996c 7bbe
000003c0: 2bb6 9fbe 06c4 5c3e f221 debd 1143 943f
000003d0: 395e 813e e3a5 1740 459f 6ebd 043f e1be
000003e0: 1ff5 0740 bc44 d53f d63a 8f3f f606 6040
000003f0: b3a1 3f3d 9e6a 363e a599 323f 6d80 83be

down_convs.1.conv2.bias f4 [6]
-0.0036991304 -0.043152664 -0.43602052 0.052847214 -0.036231272 3.400108e-05
00000000: 1c6d 72bb d9c0 30bd 153e dfbe 5276 583d
00000010: 3e67 14bd 629c 0e38

down_convs.1.norm0.weight f4 [6]
1.9331945 1.5560721 0.9071586 1.3955346 1.6712844 1.4363489
00000000: eb72 f73f 5f2d c73f 8c3b 683f e1a0 b23f
00000010: a6ec d53f 48da b73f

down_convs.1.norm0.bias f4 [6]
1.6768956 -0.06371768 -1.6640828 1.5697337 -0.9859188 -2.2024012
00000000: 84a4 d63f 6a7e 82bd aa00 d5bf 09ed c83f
00000010: 2d65 7cbf 24f4 0cc0

down_convs.1.norm0.running_mean f4 [6]
-6.622805 -23.05045 -0.2317835 -27.793657 10.825821 3.6218603
00000000: 05ee d3c0 5267 b8c1 a758 6dbe 6959 dec1
00000010: 9036 2d41 8fcc 6740

down_convs.1.norm0.running_var f4 [6]
1393.3835 688.8197 273.80414 1435.7341 1449.2893 326.65298
00000000: 462c ae44 7634 2c44 eee6 8843 7e77 b344
00000010: 4229 b544 9553 a343

down_convs.1.norm1.weight f4 [6]
0.45212862 1.4907222 1.6356871 1.686854 1.7843273 0.578901
00000000: 677d e73e fccf be3f 325e d13f d5ea d73f
00000010: d664 e43f db32 143f

down_convs.1.norm1.bias f4 [6]
-0.6226428 -0.5605453 0.63666785 -1.1833631 -0.9873558 -0.513057
00000000: 8565 1fbf e67f 0fbf aafc 223f 7178 97bf
00000010: 5ac3 7cbf b457 03bf

down_convs.1.norm1.running_mean f4 [6]
-10.266939 59.4125 -34.717846 -88.511986 27.888115 3.8222349
00000000: 6245 24c1 66a6 6d42 13df 0ac2 2306 b1c2
00000010: dc1a df41 7f9f 7440

down_convs.1.norm1.running_var f4 [6]
315.10956 905.9125 3105.9753 485.23785 1613.2126 159.697
00000000: 068e 9d43 667a 6244 9b1f 4245 729e f243
00000010: cea6 c944 6fb2 1f43

down_convs.2.conv1.weight f4 [12, 6, 3, 3, 3]
-0.055902828 -0.039093442 0.091129586 0.054736484 0.2834582 0.1299199 -0.10505572 0.043704014
0.06252664 -0.15610202 0.07233695 0.057886835 -0.13422854 -0.01433985 0.3129178 -0.100066185
0.038257778 0.19418992 -0.21165927 -0.08524957 -0.06933418 -0.28851292 -0.13457754 -0.0483893
-0.15574224 -0.0946277 0.1130322 0.96034163 -0.46523213 0.714219 0.44688657 -0.49678493
1.1039 -0.30371752 -0.116602525 0.80333346 -0.17651936 -1.7201883 -0.25612536 -0.13873115
-1.8223617 0.19530112 0.20292462 0.5431387 1.380979 0.60815215 -0.16041446 0.95974493
0.5681342 -0.21358709 1.3472577 0.4704251 0.51201534 1.1653062 0.15642074 -1.22298
-0.59575236 0.05954234 -1.0687604 -0.79599404 -0.95855796 -0.6494729 -1.0642695 -2.145612
-1.5178628 -0.61545694 0.19221362 0.14745918 -0.9915248 0.66571766 1.4127482 0.10991213
-1.2611413 -0.42948595 0.19697273 0.21899192 1.8900945 0.87672466 0.31115904 2.0456867
0.879907 -1.1455594 1.4590895 -0.124634534 -2.789631 0.39340588 -0.669843 -2.2962232
-1.5055809 -1.6583085 1.5810211 3.8884764 1.3865625 0.19840264 3.2324624 0.78578514
-1.5509704 -0.6654002 -1.3503473 -0.025986496 1.1528277 -0.9433607 -0.598994 0.77648395
-2.0027068 -2.096548 -1.650682 -2.2948592 -3.1591172 -0.9282253 -1.7705575 -4.236598
-0.9131492 -1.8076198 0.35399976 0.8541816 -0.36889568 0.36998785 2.0135517 -0.6892236
-1.6547604 0.08151944 -0.57299846 0.6490024 1.1879642 0.5350479 -1.6111044 -0.9120837
-2.7965488 -2.4977686 -1.5412171 -2.9989035 0.37808844 0.7895095 0.7989222 0.050237946
0.16736455 0.06509519 0.055038042 0.1152809 0.08016766 0.061213035 0.1852245 0.13633376
0.07738133 0.111771576 0.27626806 0.13221546 -0.0007233796 0.0482471 0.068925925 0.09556737
0.10418429 -0.039727945 -0.013904222 -0.024045456 -0.008404379 -0.07018603 -0.065291904 -0.0631745
0.02071445 0.2206177 -0.2710692 -0.41579378 -0.39036617 -0.019186454 -0.0019858978 -0.041470487
0.31362754 0.1907208 0.096965104 -0.3773015 -0.39623326 -0.32019967 0.025568364 -0.051088892
-0.104166605 0.3549565 0.27178475 0.09932553 -0.18733774 -0.3014338 -0.21246678 0.10866758
-0.0044734958 0.041026346 0.17348702 0.08889211 0.121561915 -2.941632 -2.098086 -3.6200578
0.1617215 0.70330256 -1.2125874 1.0775439 1.0494492 -0.8359684 -2.040719 -0.68287855
-2.8530512 0.72524804 2.980128 1.8458773 0.6467457 1.8220788 1.7407502 -3.0800195
-2.5622265 -5.057308 -0.48747507 2.1886613 0.29188865 -0.47960278 1.6134928 1.387396
0.6272415 0.78747076 0.41411877 2.0985453 2.4772027 1.6716416 1.5427271 1.4021827
1.7408899 -2.1119862 -1.4920939 -1.4128373 -0.022432264 0.30988735 0.12227609 -2.7021513
-3.532021 -1.7585455 -2.164564 -3.426189 -4.7444477 1.3264668 -0.69661117 -0.14567992
2.4126523 -1.7724398 -0.13808125 1.1773684 0.4002979 1.4046665 -0.17563 -1.5416737
0.15367217 -1.1099893 -2.3320544 -1.6887629 0.70012313 -0.31626636 0.9232799 -0.5584558
00000000: 5dfa 64bd 7220 20bd 26a2 ba3d 5d33 603d
00000010: 6f21 913e b909 053e 7427 d7bd fb02 333d
00000020: f80d 803d 35d9 1fbe 6525 943d bf1a 6d3d
00000030: 3573 09be b1f1 6abc c336 a03e 80ef ccbd
00000040: 30b4 1c3d b9d9 463e 35bd 58be 5497 aebd
00000050: 14ff 8dbd f7b7 93be b2ce 09be dc33 46bd
00000060: e57a 1fbe 2bcc c1bd 6d7d e73d f3d8 753f
00000070: e832 eebe 0ed7 363f 51ce e43e 985a febe
00000080: 984c 8d3f dd80 9bbe 4ecd eebd 43a7 4d3f
00000090: 7ec1 34be 212f dcbf dd22 83be 8a0f 0ebe
000000a0: 2643 e9bf 04fd 473e 79cb 4f3e 230b 0b3f
000000b0: ebc3 b03f dcaf 1b3f b043 24be d8b1 753f
000000c0: 3e71 113f 93b6 5abe f172 ac3f 8fdb f03e
000000d0: 7013 033f c128 953f c22c 203e 9c8a 9cbf
000000e0: 3a83 18bf abe2 733d 24cd 88bf 44c6 4bbf
000000f0: 0e64 75bf db43 26bf fc39 88bf b551 09c0
00000100: 5449 c2bf 968e 1dbf a6d3 443e 8aff 163e
00000110: 92d4 7dbf 796c 2a3f efd4 b43f 9c19 e13d
00000120: 146d a1bf 95e5 dbbe 38b3 493e 6b3f 603e
00000130: 9eee f13f 0771 603f 3d50 9f3e 88ec 0240
00000140: 9641 613f b1a1 92bf 72c3 ba3f 6440 ffbd
00000150: 5089 32c0 7f6c c93e d57a 2bbf 52f5 12c0
00000160: e0b6 c0bf 7443 d4bf e65e ca3f ccdc 7840
00000170: e17a b13f 102a 4b3e aae0 4e40 3729 493f
00000180: 3386 c6bf ab57 2abf 2ed8 acbf a2e1 d4bc
00000190: dc8f 933f 1680 71bf ac57 19bf a7c7 463f
000001a0: 592c 00c0 d82d 06c0 8c49 d3bf f9de 12c0
000001b0: fa2e 4ac0 2ca0 6dbf a1a1 e2bf 3692 87c0
000001c0: 25c4 69bf 1660 e7bf 753f b53e a5ab 5a3f
000001d0: e5df bcbe 0c6f bd3e 08de 0040 f570 30bf
000001e0: 30cf d3bf aaf3 a63d 07b0 12bf 0525 263f
000001f0: 360f 983f e6f8 083f ab38 cebf 517e 69bf
00000200: a8fa 32c0 71db 1fc0 9a46 c5bf 09ee 3fc0
00000210: cf94 c13e 4b1d 4a3f 2a86 4c3f 4ec6 4d3d
00000220: 9d61 2b3e a150 853d 926f 613d 6418 ec3d
00000230: f12e a43d 85ba 7a3d 7eab 3d3e 149b 0b3e
00000240: 1a7a 9e3d 7fe8 e43d 0273 8d3e 7d63 073e
00000250: 2fa1 3dba c09e 453d 0929 8d3d d3b8 c33d
00000260: 935e d53d c5b9 22bd 89ce 63bc fafa c4bc
00000270: 85b2 09bc b1bd 8fbd c3b7 85bd a261 81bd
00000280: 5ab1 a93c 9be9 613e 95c9 8abe ece2 d4be
00000290: 13de c7be e92c 9dbc d625 02bb f5dc 29bd
000002a0: ca93 a03e 504c 433e a495 c63d aa2d c1be
000002b0: 16df cabe 36f1 a3be bf74 d13c 9642 51bd
000002c0: 4d55 d5bd dcbc b53e 5f27 8b3e 2f6b cb3d
000002d0: 77d5 3fbe 8855 9abe e490 59be 1c8d de3d
000002e0: 6796 92bb 3e0b 283d 95a6 313e 110d b63d
000002f0: 74f5 f83d b343 3cc0 0b47 06c0 07af 67c0
00000300: 529a 253e a30b 343f 1036 9bbf f5ec 893f
00000310: 5a54 863f 0602 56bf 249b 02c0 21d1 2ebf
00000320: 6498 36c0 dba9 393f 6bba 3e40 b545 ec3f
00000330: 2091 253f e139 e93f e7d0 de3f 0a1f 45c0
00000340: 85fb 23c0 78d5 a1c0 5596 f9be 0713 0c40
00000350: 6e72 953e 7f8e f5be ef86 ce3f 3196 b13f
00000360: e692 203f af97 493f 6007 d43e 914e 0640
00000370: 7d8a 1e40 5af8 d53f 1578 c53f b97a b33f
00000380: 7bd5 de3f c82a 07c0 effc bebf dad7 b4bf
00000390: dec3 b7bc 8ea9 9e3e e36b fa3d 0cf0 2cc0
000003a0: a20c 62c0 0518 e1bf 3788 0ac0 ae46 5bc0
000003b0: 84d2 97c0 aac9 a93f 1c55 32bf 1e2d 15be
000003c0: e568 1a40 4fdf e2bf 2c65 0dbe 02b4 963f
000003d0: d9f3 cc3e 1dcc b33f 5ad8 33be 9055 c5bf
000003e0: 3d5c 1d3e 2114 8ebf 6140 15c0 6229 d8bf
000003f0: 453b 333f aaed a1be 125c 6c3f f6f6 0ebf

down_convs.2.conv1.bias f4 [12]
-0.112991445 0.028203929 -0.12348256 -0.000583992 -0.0021719993 0.021605302 0.005522053 0.09498697
0.06493857 -0.025464917 0.06344925 -0.0047496213
00000000: 0f68 e7bd ed0b e73c 6de4 fcbd 0a17 19ba
00000010: 1a58 0ebb 9afd b03c 57f2 b43b 8788 c23d
00000020: 83fe 843d cd9b d0bc aef1 813d b6a2 9bbb

down_convs.2.conv2.weight f4 [12, 12, 3, 3, 3]
1.4661626 0.4633975 1.186948 1.1783732 3.281768 1.7878252 0.9151208 1.523773
-1.1536441 -0.054192964 -0.99720395 0.8570553 2.3345175 3.7142656 3.9768484 1.4676553
0.7504391 1.2185113 1.9883682 0.38969064 1.0307282 0.3132297 2.7794225 2.273041
-0.571171 1.4308907 0.7215706 0.18688697 -1.7926346 0.41585413 1.879205 -0.41763198
1.1895632 2.1383507 0.3477287 -0.21530347 -0.30768815 -3.6566298 -1.6283693 0.17024374
-2.1274972 -1.4980352 -0.534621 -1.4695418 -1.2421973 0.6521759 -2.391665 -1.9029478
0.6402525 -2.0404737 -0.83103055 0.037944715 -0.73482764 -0.0071742292 0.34672752 -2.8522987
-1.1179384 0.04165796 -0.31738517 -0.81732386 0.7407347 -0.18399565 -1.8636583 2.2089853
-0.25269735 -0.8841164 0.92455673 -0.49654758 0.24394912 0.3074779 -0.38117832 -0.40473267
2.4694502 0.6387384 -0.38504875 1.4326972 -0.9117634 -0.54979706 0.11991418 -0.9723713
-0.05648116 0.07457855 0.14220056 0.12156266 -0.14877777 -0.13811769 -0.09337906 -0.08622778
-0.19191736 -0.060444042 -0.07606387 -0.115166135 0.038067378 -0.13483976 -0.21144596 -0.109427735
-0.07892597 -0.09255314 -0.049888577 -0.12250968 -0.0892448 0.13117687 -0.112651385 -0.043457452
-0.07573083 -0.12060149 -0.010376084 -0.16010854 0.231803 0.18477477 0.17155877 0.07054391
0.05565441 0.09341857 -0.1306432 0.016462248 0.013911905 0.0544183 0.11650336 0.14383277
0.117644876 0.14405423 -0.04033627 -0.17179161 -0.20253664 -0.14652658 0.19868928 0.095868625
0.3082162 0.17622873 0.017418923 -0.031406507 -0.036881357 -0.047449294 -0.14788586 -2.045054
-1.5159564 -2.0445354 -2.809449 -1.7609253 -1.2144288 -1.6273602 -1.0861098 0.09706758
-0.14074765 1.3544118 0.9169962 -0.9828581 -0.28319582 -0.49829683 -0.013205903 -1.1610721
-0.31715304 0.47139448 2.1521084 0.67942274 -0.86620283 0.534184 -1.4353237 0.71366155
-0.34852546 -1.3511037 -1.159165 1.0171605 2.2845957 -1.1352514 0.65918064 1.7476145
0.38708496 -0.3807875 -0.14532453 -2.412399 -0.061039694 -5.118227e-05 -0.8256178 0.56840694
-0.33543015 0.93677485 0.32430816 -0.43384063 0.19060561 -0.38742012 -1.1343313 -0.21260951
0.41075584 -1.0765847 -0.49948606 -1.7184138 -0.87273407 0.27785748 -0.03115691 0.740147
-0.33171928 -0.79969496 0.43411475 -0.025337296 -0.5483797 0.38927677 0.9456154 -1.0767134
-0.69551486 0.39523602 -2.8210132 -0.9668397 0.3759114 -2.8427331 -1.4175061 0.67406374
-1.5949402 -1.020035 1.0926539 -1.3156216 -0.977444 1.6097304 -0.9064856 -0.9756523
-1.4788712 -1.9400557 -0.9497467 0.10799545 -0.4791247 0.23128612 1.7391988 0.4762968
1.0559229 -1.2828078 -2.6328053 -1.5867162 -0.36241835 -1.9894788 -1.3157383 1.0011659
-1.1687106 -0.33031353 -0.48355985 -0.67533576 -0.7255523 0.04803279 -0.80939996 -0.035161857
0.9947708 0.22779554 1.2090559 -0.53755736 0.18050459 -1.390694 0.26123074 0.2832507
0.6049679 -1.2010936 -0.097379 0.7545548 -0.9670867 0.14665973 -0.9840879 1.2148404
00000000: 37ab bb3f 7042 ed3e e9ed 973f efd4 963f
00000010: 7d08 5240 75d7 e43f 5b45 6a3f fe0a c33f
00000020: 9caa 93bf 71f9 5dbd c248 7fbf fa67 5b3f
00000030: bc68 1540 87b6 6d40 af84 7e40 21dc bb3f
00000040: c71c 403f 2ef8 9b3f d982 fe3f 8885 c73e
00000050: e7ee 833f a55f a03e 0fe2 3140 8179 1140
00000060: 4338 12bf 6d27 b73f dab8 383f 4c5f 3f3e
00000070: 0d75 e5bf d5ea d43e ca89 f03f dcd3 d5be
00000080: 9b43 983f bdda 0840 7f09 b23e 8378 5cbe
00000090: 4d89 9dbe 3906 6ac0 686e d0bf 6054 2e3e
000000a0: ea28 08c0 9ebf bfbf ecdc 08bf f219 bcbf
000000b0: 5200 9fbf 00f5 263f 0a11 19c0 cb93 f3bf
000000c0: 96e7 233f 1f97 02c0 6bbe 54bf eb6b 1b3d
000000d0: aa1d 3cbf cc15 ebbb 4586 b13e 108c 36c0
000000e0: 9b18 8fbf 89a1 2a3d 4f80 a2be 233c 51bf
000000f0: caa0 3d3f 5b69 3cbe 5b8c eebf 0460 0d40
00000100: 8c61 81be 7455 62bf c0af 6c3f 7c3b febe
00000110: cccd 793e be6d 9d3e ce29 c3be 1f39 cfbe
00000120: 790b 1e40 5c84 233f 1c25 c5be 9f62 b73f
00000130: 5469 69bf 80bf 0cbf 9195 f53d 53ed 78bf
00000140: ca58 67bd a4bc 983d 069d 113e d8f5 f83d
00000150: 3359 18be b96e 0dbe 853d bfbd 3198 b0bd
00000160: fc85 44be 2c94 77bd 60c7 9bbd 39dc ebbd
00000170: 8aec 1b3d 6f13 0abe 4a85 58be a61b e0bd
00000180: f0a3 a1bd 808c bdbd f757 4cbd 5be6 fabd
00000190: fac5 b6bd 3b53 063e c5b5 e6bd 7100 32bd
000001a0: c418 9bbd eafd f6bd 7300 2abc 7ef3 23be
000001b0: c45d 6d3e 9935 3d3e 1aad 2f3e 5379 903d
000001c0: e1f5 633d 3c52 bf3d 55c7 05be d6db 863c
000001d0: c2ee 633c b9e5 5e3d 5099 ee3d e648 133e
000001e0: ccef f03d f482 133e a537 25bd 24ea 2fbe
000001f0: c465 4fbe 100b 16be 3475 4b3e c556 c43d
00000200: 84ce 9d3e 4e75 343e 21b2 8e3c 1ca4 00bd
00000210: e810 17bd 315a 42bd 646f 17be 2ae2 02c0
00000220: dc0a c2bf abd9 02c0 03ce 33c0 0066 e1bf
00000230: 6772 9bbf 574d d0bf a505 8bbf 5ecb c63d
00000240: 2720 10be 5e5d ad3f 43c0 6a3f 979c 7bbf
00000250: 0bff 90be c320 ffbe 925d 58bc 039e 94bf
00000260: e261 a2be 9e5a f13e 25bc 0940 a6ee 2d3f
00000270: 78bf 5dbf 48c0 083f b0b8 b7bf 86b2 363f
00000280: ee71 b2be f7f0 acbf 855f 94bf 5132 823f
00000290: d136 1240 eb4f 91bf 10c0 283f d5b1 df3f
000002a0: 0030 c63e 94f6 c2be f4cf 14be bf64 1ac0
000002b0: c204 7abd 8bac 56b8 b05b 53bf 1e83 113f
000002c0: 80bd abbe 7ad0 6f3f b80b a63e 5c20 debe
000002d0: 1e2e 433e ee5b c6be c531 91bf 4fb6 59be
000002e0: 974e d23e 87cd 89bf a3bc ffbe fcf4 dbbf
000002f0: 806b 5fbf 5643 8e3e c73c ffbc 467a 3d3f
00000300: 1cd7 a9be cfb8 4cbf 4a44 de3e 2990 cfbc
00000310: 9d62 0cbf 494f c73e da13 723f bfd1 89bf
00000320: 430d 32bf 605c ca3e 7b8b 34c0 ce82 77bf
00000330: 7677 c03e 57ef 35c0 d770 b5bf 718f 2c3f
00000340: 0027 ccbf 8290 82bf 15dc 8b3f 4a66 a8bf
00000350: c539 7abf a50b ce3f 710f 68bf 59c4 79bf
00000360: a74b bdbf bf53 f8bf 9a22 73bf b82c dd3d
00000370: d54f f5be 45d6 6c3e 119e de3f 2ddd f33e
00000380: 7b28 873f 0c33 a4bf e27f 28c0 8419 cbbf
00000390: e68e b9be 3ea7 febf 1d6a a8bf 3426 803f
000003a0: 4f98 95bf db1e a9be 2895 f7be cee2 2cbf
000003b0: ccbd 39bf 08be 443d d634 4fbf e105 10bd
000003c0: 4da9 7e3f 3c43 693e 58c2 9a3f 5c9d 09bf
000003d0: 32d6 383e 4302 b2bf 09c0 853e 3c06 913e
000003e0: 2ddf 1a3f 6fbd 99bf a46e c7bd 812a 413f
000003f0: fe92 77bf f82d 163e 2fed 7bbf e47f 9b3f

down_convs.2.conv2.bias f4 [12]
-0.013893228 0.04278446 0.047423545 0.00842106 0.009287093 -0.01617176 0.00852039 0.03139877
0.053320576 6.804246e-05 -0.07528686 -0.0036878795
00000000: 6ca0 63bc c23e 2f3d 313f 423d 7cf8 093c
00000010: e428 183c a47a 84bc 1b99 0b3c ff9b 003d
00000020: ad66 5a3d 04b2 8e38 ff2f 9abd 5ab0 71bb

down_convs.2.norm0.weight f4 [12]
2.5734346 2.0795121 1.4907073 0.59154147 0.55734295 1.1213323 1.7862443 1.4556046
1.9369254 1.0693272 2.5440407 1.2696956
00000000: 27b3 2440 ba16 0540 7fcf be3f 436f 173f
00000010: 07ae 0e3f d187 8f3f a7a3 e43f 4051 ba3f
00000020: 2ced f73f b7df 883f 90d1 2240 6385 a23f

down_convs.2.norm0.bias f4 [12]
2.1032615 -0.61011696 -1.6724674 -0.2923044 -0.37186584 -0.9672435 -1.5355128 -0.22083114
0.51863676 -1.507226 -0.08980196 -0.5209869
00000000: d69b 0640 a030 1cbf 6913 d6bf eca8 95be
00000010: 3365 bebe 459d 77bf af8b c4bf 8f21 62be
00000020: 61c5 043f c8ec c0bf 17ea b7bd 665f 05bf

down_convs.2.norm0.running_mean f4 [12]
-11.103758 -20.43264 7.298087 -10.189528 -12.917891 -3.7044334 1.6261624 2.8386765
30.986181 16.215149 -23.328909 -37.471664
00000000: fea8 31c1 0c76 a3c1 ee89 e940 4f08 23c1
00000010: aeaf 4ec1 7015 6dc0 1726 d03f e0ac 3540
00000020: b3e3 f741 a0b8 8141 9ba1 bac1 fce2 15c2

down_convs.2.norm0.running_var f4 [12]
1888.2856 1572.691 755.2482 498.44745 513.36926 1440.3004 581.7523 1240.4182
2735.528 1027.5073 1382.0728 530.3513
00000000: 2409 ec44 1d96 c444 e3cf 3c44 4639 f943
00000010: a257 0044 9d09 b444 2670 1144 620d 9b44
00000020: 73f8 2a45 3c70 8044 54c2 ac44 7c96 0444

down_convs.2.norm1.weight f4 [12]
2.8108954 1.5960134 3.3375185 1.55132 2.7668798 1.2397265 1.7677592 1.9681898
1.2041225 0.04974318 2.5973523 1.2336612
00000000: b6e5 3340 2b4a cc3f e799 5540 a791 c63f
00000010: 8f14 3140 5caf 9e3f ef45 e23f a5ed fb3f
00000020: b020 9a3f 81bf 4b3d 053b 2640 9ce8 9d3f

down_convs.2.norm1.bias f4 [12]
-0.27642822 0.7148172 -1.272889 -1.303909 -0.7134917 -0.38531047 0.43559325 -0.09436154
-1.3909665 -0.5180198 0.48412976 -1.9145005
00000000: 0088 8dbe 43fe 363f 07ee a2bf 7de6 a6bf
00000010: 64a7 36bf 6a47 c5be 1406 df3e a040 c1bd
00000020: 310b b2bf f29c 04bf dbdf f73e 5a0e f5bf

down_convs.2.norm1.running_mean f4 [12]
46.854996 69.61314 -55.413616 -18.198618 -75.36268 -2.4840646 40.559433 -35.850277
-5.0265245 -5.1557655 -3.3011267 -40.699123
00000000: 846b 3b42 ed39 8b42 8ba7 5dc2 c596 91c1
00000010: b1b9 96c2 eafa 1ec0 dc3c 2242 af66 0fc2
00000020: 4ad9 a0c0 08fc a4c0 a945 53c0 e7cb 22c2

down_convs.2.norm1.running_var f4 [12]
1149.2424 2389.8376 1588.2074 1689.9524 1334.3362 1427.5012 1395.9415 621.2238
690.1253 830.34973 1369.0739 653.866
00000000: c2a7 8f44 675d 1545 a386 c644 7a3e d344
00000010: c2ca a644 0a70 b244 217e ae44 534e 1b44
00000020: 0588 2c44 6296 4f44 5d22 ab44 6d77 2344

down_convs.3.conv1.weight f4 [24, 12, 3, 3, 3]
-0.06128117 -0.0011808687 -0.07798574 0.046499725 0.025900751 -0.029703248 0.27089265 0.20547996
0.16844538 0.0627702 0.11428896 0.079220735 0.11053025 0.20836635 0.1786118 0.22931433
0.11874296 0.12554376 0.09172304 0.20627272 0.1677148 0.21515349 0.10920231 0.23142447
0.26963264 0.31908593 0.37324923 -0.33271968 -0.43639517 -0.43929958 -0.22343048 -0.33552498
-0.5161006 -0.32587996 -0.29016918 -0.3435346 -0.3724638 -0.40400365 -0.39642456 -0.27008107
-0.36241215 -0.2898672 -0.13627648 -0.13104717 -0.09335922 -0.26222956 -0.33371606 -0.30217376
-0.44665 -0.37069267 -0.24074866 -0.24884972 -0.21984397 -0.20773374 -0.1353678 0.09040046
-0.21178122 -0.08084838 0.15816979 -0.14132796 -0.054999292 0.20548289 0.122215696 -0.15484664
0.139549 -0.0801805 0.07109742 0.19739854 0.09477283 0.019074274 0.2033309 0.09914069
-0.3374408 -0.09362082 -0.3203638 -0.32494313 -0.015369115 -0.3284318 -0.020337539 0.04966981
-0.032560207 -0.73587894 -0.71673536 -0.5765681 -0.78677803 -0.6898218 -0.7005627 -0.6354592
-0.75312185 -0.57442254 -0.5582626 -0.5925051 -0.5772318 -0.662233 -0.6552121 -0.7549418
-0.53246504 -0.6382817 -0.68160367 -0.44032878 -0.5565923 -0.46235415 -0.731246 -0.70136726
-0.67598677 -0.6659927 -0.5810359 -0.5690934 -0.02326115 0.13293777 -0.14984593 0.15048636
0.09741816 0.0894381 -0.11465055 0.21976407 0.059359714 0.14160867 0.28697065 0.08245951
0.10424089 0.13769884 0.0061504147 0.030341351 0.20051731 0.088509776 -0.15184876 0.09960126
-0.036094338 0.319062 0.10779478 -0.01806435 -0.08573537 0.2368308 -0.16888064 -0.50743556
-0.5266012 -0.52894497 -0.44254777 -0.5782453 -0.5255515 -0.29833078 -0.26563504 -0.32222375
-0.43650532 -0.5640375 -0.5283509 -0.4713982 -0.38960072 -0.47463506 -0.16401325 -0.1287343
-0.29724288 -0.30788556 -0.39892557 -0.374811 -0.49548677 -0.5096076 -0.38220194 -0.26652423
-0.18547077 -0.21382868 -0.09452009 -0.11598125 -0.087508015 -0.07094802 0.024080208 -0.0829049
-0.016438503 0.04565146 0.037021596 -0.038375333 -0.021619689 -0.024768272 -0.014758099 0.12672615
0.07126733 0.23996544 0.27973256 0.113674 0.043126784 -0.100707255 0.043399386 -0.0020325116
-0.022713104 0.094677866 0.03742757 0.06558443 0.22051433 -0.17584276 -0.11934879 -0.20525086
-0.11524339 -0.0869842 -0.124616 -0.20195678 -0.16043995 -0.21989524 0.041737877 -0.12859827
-0.13298737 -0.026936574 0.09215955 0.051620588 -0.0992019 0.013229829 -0.043746483 0.007208971
-0.0624154 -0.07444853 -0.016843485 0.0010341817 -0.010051513 -0.22159415 -0.0301014 -0.19101068
-0.14543614 -0.08173194 -0.27841756 -0.00467774 -0.16205482 -0.32820702 -0.13798445 -0.15337032
-0.16225973 -0.043160763 -0.15424107 -0.15714344 -0.09246906 -0.3278943 -0.22090682 -0.20565026
-0.33171293 -0.049149554 -0.14205322 -0.05201038 -0.16733378 0.14785533 -0.019338496 -0.12673172
0.26160237 -0.02990529 0.17000368 0.112249844 0.11118612 0.10803252 0.12260314 0.07597657
0.16465786 0.15337038 0.02668441 0.14165999 0.15157165 0.21336882 0.12206099 0.12959017
00000000: f701 7bbd 61c7 9aba fdb6 9fbd 7f76 3e3d
00000010: d02d d43c 3a54 f3bc 71b2 8a3e 5769 523e
00000020: f27c 2c3e aa8d 803d 5510 ea3d 7b3e a23d
00000030: af5d e23d fd5d 553e 03e6 363e 60d1 6a3e
00000040: 822f f33d 8b8e 003e 4ad9 bb3d 2839 533e
00000050: 6ebd 2b3e 3251 5c3e 76a5 df3d 89fa 6c3e
00000060: 4a0d 8a3e 3b5f a33e 861a bf3e 3c5a aabe
00000070: 306f dfbe e0eb e0be f6ca 64be eec9 abbe
00000080: 2b1f 04bf bdd9 a6be 0e91 94be c4e3 afbe
00000090: 93b3 bebe 91d9 cebe 29f8 cabe 1148 8abe
000000a0: 168e b9be 7969 94be 108c 0bbe 3b31 06be
000000b0: 1e33 bfbd f442 86be d5dc aabe 85b6 9abe
000000c0: 4faf e4be 6ecb bdbe d186 76be 76d2 7ebe
000000d0: c71e 61be 27b8 54be db9d 0abe e023 b93d
000000e0: 2ddd 58be d693 a5bd 43f7 213e 47b8 10be
000000f0: f046 61bd 1b6a 523e 394c fa3d 1e90 1ebe
00000100: efe5 0e3e ad35 a4bd 869b 913d d822 4a3e
00000110: 4218 c23d a741 9c3c fa35 503e 460a cb3d
00000120: 0ac5 acbe 46bc bfbd b906 a4be f25e a6be
00000130: bece 7bbc 3628 a8be e99a a6bc 9272 4b3d
00000140: da5d 05bd 9062 3cbf f87b 37bf f899 13bf
00000150: 496a 49bf 2998 30bf 1458 33bf 74ad 22bf
00000160: 98cc 40bf 5b0d 13bf 4cea 0ebf 6aae 17bf
00000170: 77c5 13bf 1a88 29bf fbbb 27bf de43 41bf
00000180: a14f 08bf 6e66 23bf 947d 2ebf c672 e1be
00000190: d57c 0ebf afb9 ecbe f032 3bbf ce8c 33bf
000001a0: 780d 2dbf 7f7e 2abf c5be 14bf 1bb0 11bf
000001b0: 2b8e bebc d720 083e 3671 19be 1919 1a3e
000001c0: 2c83 c73d 532b b73d e8cd eabd d509 613e
000001d0: 2c23 733d dd01 113e d1ed 923e 88e0 a83d
000001e0: 3f7c d53d ed00 0d3e 6b89 c93b 6d8e f83c
000001f0: 6954 4d3e 9d44 b53d 3e7e 1bbe bffb cb3d
00000200: a8d7 13bd 185c a33e 82c3 dc3d b0fb 93bc
00000210: 0796 afbd c683 723e 0cef 2cbe 4ce7 01bf
00000220: 56cf 06bf f068 07bf 9f95 e2be e207 14bf
00000230: 8b8a 06bf d0be 98be 5101 88be 83fa a4be
00000240: a07d dfbe c364 10bf 0142 07bf 1b5b f1be
00000250: bf79 c7be 5e03 f3be 17f3 27be edd2 03be
00000260: 3830 98be 2da3 9dbe f93f ccbe 3ae7 bfbe
00000270: 71b0 fdbe a575 02bf f9af c3be dd75 88be
00000280: 0dec 3dbe e8f5 5abe c093 c1bd 9487 edbd
00000290: 6737 b3bd 324d 91bd db43 c53c 0bca a9bd
000002a0: 0aaa 86bc 06fd 3a3d f5a3 173d 742f 1dbd
000002b0: c61b b1bc d5e6 cabc f4cb 71bc 80c4 013e
000002c0: 9bf4 913d 80b9 753e 1b39 8f3e eacd e83d
000002d0: b6a5 303d 9b3f cebd 8ec3 313d e333 05bb
000002e0: d510 babc 78e6 c13d a74d 193d 2151 863d
000002f0: 82ce 613e 2010 34be 236d f4bd 482d 52be
00000300: ba04 ecbd c624 b2bd ac36 ffbd c2cd 4ebe
00000310: 5f4a 24be 382c 61be 56f5 2a3d 44af 03be
00000320: d72d 08be 17aa dcbc 25be bc3d 1c70 533d
00000330: 5e2a cbbd edc1 583c 832f 33bd 3b39 ec3b
00000340: 4aa7 7fbd 7978 98bd 59fb 89bc 618d 873a
00000350: 1aaf 24bc 94e9 62be 3697 f6bc 4e98 43be
00000360: 36ed 14be 1363 a7bd bf8c 8ebe ba47 99bb
00000370: b3f1 25be c00a a8be cc4b 0dbe 1c0d 1dbe
00000380: 6a27 26be 57c9 30bd 5ff1 1dbe 36ea 20be
00000390: 6b60 bdbd c3e1 a7be 6635 62be fb95 52be
000003a0: 47d6 a9be 0b51 49bd 6676 11be d608 55bd
000003b0: 8c59 2bbe 6367 173e c46b 9ebc f6c5 01be
000003c0: bff0 853e f0fb f4bc 7215 2e3e 3fe3 e53d
000003d0: 8cb5 e33d 2740 dd3d 5b17 fb3d 9b99 9b3d
000003e0: 129c 283e 200d 1d3e 4499 da3c 510f 113e
000003f0: 9935 1b3e 5b7d 5a3e 1dfb f93d 49b3 043e

down_convs.3.conv1.bias f4 [24]
0.00016930839 -0.004299295 0.00047266835 0.008525395 0.0036442296 -4.5433673e-05 4.180869e-05 -0.004610392
0.00073216826 0.004332239 0.036340874 -0.020675745 -0.013628802 -0.0008372797 0.0017839327 -0.00013161481
0.02553287 -0.010943087 0.00070539577 0.0013080485 -0.008674107 8.522489e-05 -0.015758647 -0.00815915
00000000: 6088 3139 1ae1 8cbb 79d0 f739 19ae 0b3c
00000010: 07d4 6e3b 0990 3eb8 bd5b 2f38 c512 97bb
00000020: fbee 3f3a 74f5 8d3b 2bda 143d 2e60 a9bc
00000030: 574b 5fbc e47c 5bba d9d2 e93a 1502 0ab9
00000040: 4f2a d13c a24a 33bc 4fea 383a d372 ab3a
00000050: d71d 0ebc c4ba b238 4718 81bc f5ad 05bc

down_convs.3.conv2.weight f4 [24, 24, 3, 3, 3]
-0.21060203 0.055495124 0.054625135 -0.041567557 0.0051099937 0.14753227 0.030822424 0.04379223
0.15171686 -0.014349316 0.1505481 0.11647027 0.18236455 0.06694862 0.10837061 0.18233968
0.018915495 0.08844645 -0.08963656 0.009868386 -0.04993282 0.15060437 0.044610683 0.019550288
0.075527884 -0.032686673 0.08692972 1.0407611 0.09735424 -2.30711 0.79638743 -0.26610026
-0.6036951 0.5756148 0.8097551 -0.098076575 -0.46376002 -0.4673531 -1.1776825 -0.71049374
-1.1984756 -0.97974586 1.0556164 1.020846 0.14202867 -0.92045563 -0.73647493 -0.22257647
-0.33972448 -0.11739581 -0.03357339 1.1541436 1.644416 1.5044087 -0.13173227 -0.0014381458
-0.16370045 0.17110935 0.22853312 0.21623194 0.1253161 0.20209023 0.13287702 0.077989206
-0.07367134 0.06196439 0.21574648 0.19485535 0.23309284 0.22138819 0.20571314 0.1866195
0.056056734 -0.03384632 0.036975678 0.0653404 0.14893125 0.13976568 0.1450058 0.16021122
0.13094503 -1.9470065 -1.1935227 -3.7178662 -1.9758841 -0.12469914 -0.64813995 -1.4231727
3.3660393 0.49891108 -1.5377797 -0.7682731 -0.15809122 -1.5041941 -0.42833555 0.60445815
1.4892527 0.68712217 2.3763342 -3.119515 -1.6878504 -1.4801409 0.24303721 0.31047696
-0.5739853 2.3689413 2.0808854 -0.023546247 0.85483944 -0.60668385 2.5970154 1.4200201
0.037051167 1.1600652 0.56171495 1.0707288 2.280785 1.5619508 0.22029486 0.8297144
-0.94700056 -1.0342273 -0.5468682 -0.37692475 -1.6736146 0.8941494 2.1684365 -1.5886947
0.5761761 -2.054572 -4.3374515 0.55635613 -0.81776047 -0.2472441 -1.2891129 0.03960119
0.11475057 0.09844535 0.07233985 0.06166327 0.1401621 0.049052704 -0.048479788 0.056463074
0.00019941902 -0.13756546 -0.09031079 0.024272744 -0.010227119 0.13243257 0.060924493 -0.106254876
-0.042734507 -0.060374927 -0.10117482 -0.041595947 -0.05731856 -0.15597944 0.058100577 0.018170014
-0.1314512 -0.015831336 -0.060540404 -0.12428648 -0.17907305 0.10975391 0.09607 0.054490108
0.019273102 0.021582028 -0.00857789 -0.06416103 -0.020228839 0.025275549 0.20142968 0.15906623
0.053564217 0.03787047 0.04502291 0.07237701 -0.1050763 -0.11413627 -0.12559058 0.11980046
0.13503997 0.09610807 0.1144975 0.09631945 0.056620505 -0.39135015 -0.61361957 -1.6319954
0.6092692 0.6747452 -2.2613935 0.5742573 0.4433259 -1.2361605 -1.1923597 -2.4611552
-1.0951213 -0.070438825 -0.18316147 -0.24474283 -0.7572194 0.47447413 -0.8442836 -1.1845845
-1.1778928 -1.5023915 -2.761509 0.17156127 0.39536336 -3.286137 -1.2832477 -1.2222706
-0.31313977 -0.31802207 -0.37799338 -0.31801122 -0.38618973 -0.43377045 -0.48565745 -0.30162868
0.15755816 -0.23704162 -0.25845566 -0.18435857 -0.25014433 -0.27999863 -0.3226283 -0.34192142
-0.26857653 -0.29557183 -0.29361767 -0.16835615 -0.33765906 -0.39793321 -0.20361777 -0.2841345
-0.34488818 -0.24784377 -0.27661124 2.0578978 0.21833971 1.9723047 0.7973834 2.5306792
-2.2367024 0.23182432 2.5188131 -2.2477648 1.7434275 1.7245802 1.3094525 -1.3024147
00000000: 0fa8 57be db4e 633d 9bbe 5f3d be42 2abd
00000010: bc71 a73b b312 173e 4f7f fc3c 7b5f 333d
00000020: aa5b 1b3e 6519 6bbc 4829 1a3e f787 ee3d
00000030: c6bd 3a3e 5c1c 893d 69f1 dd3d 41b7 3a3e
00000040: abf4 9a3c 6a23 b53d 5f93 b7bd 03af 213c
00000050: 5b86 4cbd 0838 1a3e b1b9 363d ed27 a03c
00000060: 5dae 9a3d 76e2 05bd 3608 b23d a937 853f
00000070: a961 c73d b1a7 13c0 0ce0 4b3f 4b3e 88be
00000080: c38b 1abf 7e5b 133f 1c4c 4f3f 5fdc c8bd
00000090: f471 edbe e848 efbe 4dbe 96bf ebe2 35bf
000000a0: a667 99bf a0d0 7abf 701e 873f 15ab 823f
000000b0: f76f 113e fba2 6bbf 9f89 3cbf 16eb 63be
000000c0: 5ef0 adbe 376d f0bd 4084 09bd faba 933f
000000d0: 397c d23f 7790 c03f d3e4 06be 2a80 bcba
000000e0: 17a1 27be 4a37 2f3e 9604 6a3e e86b 5d3e
000000f0: dd52 003e bef0 4e3e ea10 083e ceb8 9f3d
00000100: 00e1 96bd 5fce 7d3d a5ec 5c3e 2988 473e
00000110: e4af 6e3e 96b3 623e 77a6 523e 2f19 3f3e
00000120: bf9b 653d 70a2 0abd cf73 173d 30d1 853d
00000130: 6f81 183e bc1e 0f3e 677c 143e 690e 243e
00000140: 7416 063e 8237 f9bf 5ac5 98bf 85f1 6dc0
00000150: c5e9 fcbf 4362 ffbd 80ec 25bf 862a b6bf
00000160: 306d 5740 4671 ff3e f7d5 c4bf 8cad 44bf
00000170: aae2 21be 6f89 c0bf cc4e dbbe c5bd 1a3f
00000180: d59f be3f 3de7 2f3f dc15 1840 22a6 47c0
00000190: 7b0b d8bf 4275 bdbf bfde 783e d6f6 9e3e
000001a0: b3f0 12bf bc9c 1740 3a2d 0540 0fe4 c0bc
000001b0: c2d6 5a3f a24f 1bbf 8035 2640 38c3 b53f
000001c0: f7c2 173d 047d 943f 8dcc 0f3f a40d 893f
000001d0: 62f8 1140 01ee c73f fa94 613e 2a68 543f
000001e0: a16e 72bf 8f61 84bf 8eff 0bbf 48fc c0be
000001f0: 0139 d6bf fae6 643f aac7 0a40 595a cbbf
00000200: 4780 133f 1c7e 03c0 67cc 8ac0 5b6d 0e3f
00000210: c058 51bf 8f2d 7dbe a701 a5bf db34 223d
00000220: 5902 eb3d b79d c93d ea26 943d a092 7c3d
00000230: a786 0f3e 7deb 483d be92 46bd d345 673d
00000240: 231b 5139 f6dd 0cbe ddf4 b8bd a2d7 c63c
00000250: a58f 27bc 679c 073e f68b 793d 289c d9bd
00000260: 610a 2fbd b34b 77bd be34 cfbd 8360 2abd
00000270: dec6 6abd 13b9 1fbe dffa 6d3d 48d9 943c
00000280: 259b 06be b8b0 81bc 37f9 77bd e989 febd
00000290: ed5e 37be a8c6 e03d 59c0 c43d 0531 5f3d
000002a0: a0e2 9d3c cbcc b03c 478a 0cbc dc66 83bd
000002b0: f3b6 a5bc ab0e cf3c 9543 4e3e 42e2 223e
000002c0: 2766 5b3d 111e 1b3d f169 383d 663a 943d
000002d0: 3e32 d7bd 47c0 e9bd d19a 00be f259 f53d
000002e0: eb47 0a3e 4fd4 c43d aa7d ea3d 2243 c53d
000002f0: e7ea 673d 0c5f c8be 2c16 1dbf 3ae5 d0bf
00000300: 11f9 1b3f 1abc 2c3f acba 10c0 8702 133f
00000310: 9dfb e23e 823a 9ebf 3e9f 98bf 9183 1dc0
00000320: ef2c 8cbf 3b42 90bd ae8e 3bbe dd9d 7abe
00000330: 21d9 41bf 46ee f23e f822 58bf 77a0 97bf
00000340: 31c5 96bf 5d4e c0bf 90bc 30c0 c2ad 2f3e
00000350: 116d ca3e 1250 52c0 7641 a4bf 5d73 9cbf
00000360: db53 a0be cad3 a2be 5988 c1be 5ed2 a2be
00000370: a9ba c5be 2917 debe 18a8 f8be 136f 9abe
00000380: ed56 213e 0abb 72be 4d54 84be 7ec8 3cbe
00000390: eb12 80be fb5b 8fbe 892f a5be 5310 afbe
000003a0: dd82 89be 3155 97be 0e55 96be 8e65 2cbe
000003b0: a6e1 acbe e7bd cbbe 2d81 50be 147a 91be
000003c0: 2f95 b0be c2ca 7dbe fd9f 8dbe 99b4 0340
000003d0: 7294 5f3e 7b74 fc3f 5221 4c3f a6f6 2140
000003e0: 2226 0fc0 5b63 6d3e 3c34 2140 61db 0fc0
000003f0: a228 df3f 0bbf dc3f 249c a73f 86b5 a6bf
