outputs/outputs_new_diff_mask_2/epoch_200_model.pth (torch, 695315 bytes, 241 tensors)

down_convs.0.conv1.weight f4 [3, 1, 3, 3, 3]
000000 de 43 a3 3f fd a9 84 bf bc 15 5c 3e 26 ca 29 3f
       1.2755086 -1.0364376 0.21492666 0.6632408
000010 a5 1c ae 3f 43 de 6c 40 f3 eb 20 40 4e de b6 3f
       1.3602492 3.7010658 2.5144012 1.4286592
000020 9a bb 6e 3f 74 c8 28 bf 2e 38 73 c0 10 9c 0d c0
       0.9325501 -0.6593087 -3.800304 -2.2126503
000030 9d 42 56 bf 83 1e ba bf bb e3 f8 3f ab 7a 41 40
       -0.83695394 -1.4540561 1.9444498 3.023112
000040 06 8b a6 3f 55 86 86 3f 42 2c 98 3f 1d 46 38 bf
       1.3011177 1.0509745 1.1888506 -0.71981984
000050 53 e6 0a 3f c8 25 2b 3f 14 a1 1c 3f 8c 4a 37 40
       0.54257697 0.66854525 0.61183286 2.863925
000060 52 4b c6 3f a4 41 74 be f2 06 f0 be bd d3 12 c0
       1.5491736 -0.23853165 -0.468803 -2.2941735
000070 6c e1 56 3f 5b aa 16 c0 e3 b1 c7 bf bf a2 86 3f
       0.83937716 -2.3541477 -1.5601162 1.0518416
000080 71 3e 54 bf c6 0d df bf e1 81 78 3f 20 28 3b bf
       -0.8290778 -1.7426078 0.9707318 -0.731081
000090 aa 62 72 3f 23 01 dc 40 1e 49 89 40 ca 19 96 bd
       0.946818 6.8751388 4.2901754 -0.073291376
0000a0 29 5d 03 3e cc 40 1a 40 a0 21 d2 3f eb 06 c7 3f
       0.12828507 2.410205 1.6416512 1.5548986
0000b0 b7 bf 0f 3f 83 00 ba bf eb 82 81 40 76 91 28 be
       0.5615191 -1.4531406 4.047231 -0.16461739
0000c0 a6 74 d2 bf e6 cb 14 3f 56 0e f0 bf 8a a7 85 be
       -1.6441848 0.58123624 -1.8754375 -0.26104385
0000d0 82 08 ac 3f ec f5 7b bf d7 9f ce 3f cf 27 94 bf
       1.3440096 -0.9842212 1.6142529 -1.1574649
0000e0 c6 25 26 40 20 16 a3 bf 01 a8 ae bd d4 86 23 c0
       2.5960555 -1.2741127 -0.08528138 -2.5551043
0000f0 03 c9 d0 bd b7 1a ca be 74 b7 c3 be 55 d2 3b c0
       -0.1019459 -0.39473507 -0.382259 -2.9347126
000100 1d 03 da c0 64 93 89 bf 4b f8 b7 3f 96 38 92 40
       -6.81288 -1.0748105 1.4372648 4.5694075
000110 36 14 51 3f 84 a7 45 bf be 3d a7 bf 2e 2b a6 be
       0.81671464 -0.77208734 -1.3065717 -0.32454818
000120 25 af e6 bf 4b 65 9d c0 32 94 12 3d be eb 6c be
       -1.80222 -4.918615 0.03578586 -0.23136804
000130 1e 6c 21 40 f6 63 3d bf ba d4 90 bf 0b bd 9a bf
       2.522224 -0.73980653 -1.1314919 -1.2088941
000140 9d a4 c8 be
       -0.3918809

down_convs.0.conv1.bias f4 [3]
000000 6e 02 9f bd 51 3b 31 bf b4 bc 05 bc
       -0.07764135 -0.69231135 -0.008162666

down_convs.0.conv2.weight f4 [3, 3, 3, 3, 3]
000000 00 a9 33 c0 d3 42 42 bf 63 d8 83 c0 89 28 c4 3f
       -2.80719 -0.75883216 -4.1201644 1.532487
000010 71 7c c4 3f 29 52 5f 3f 55 a0 42 be 5d 14 58 bf
       1.5350477 0.8723474 -0.19006474 -0.8440607
000020 8c 83 35 3e ab 22 b1 bf ee fa 0d 3f 32 3b 05 c0
       0.17725962 -1.3838705 0.55461013 -2.081738
000030 88 9d 32 bf a1 8b b5 c0 b9 f8 5c c0 bc 64 54 3e
       -0.69771624 -5.6732945 -3.4526808 0.20741552
000040 3a 82 24 3f 44 16 a0 3f 5a a7 48 c0 36 0e 9e bd
       0.6426121 1.2506795 -3.1352143 -0.07717554
000050 0f ac 73 c0 cd 12 8d bf 5a 8d a7 c0 70 c9 2e c0
       -3.8073766 -1.1021363 -5.236005 -2.7310448
000060 ee d5 1c 3f fe a5 ad 3f 85 68 e4 3f d1 c2 47 3f
       0.6126393 1.3566282 1.7844397 0.7803164
000070 aa b1 e7 3f d2 4e 99 3f 54 78 a7 3f c9 6d 8d 3e
       1.8101094 1.1977179 1.3083596 0.27622822
000080 d3 98 38 c0 6e 7d a7 bf 19 ed 29 3f 1e 4a b2 3f
       -2.8843277 -1.3085153 0.6637741 1.3928869
000090 0d 97 0e 40 a9 11 33 40 8e 17 a2 3e c4 db 19 bf
       2.2279694 2.797953 0.31658596 -0.6010096
0000a0 75 8d c2 3f 13 d5 d9 be 25 6c 84 be 8c de 0b c0
       1.5199419 -0.42545375 -0.25863758 -2.1854582
0000b0 04 44 cf bf f2 c7 ae 3f e8 8e be 3f 0b 5a 31 bf
       -1.6192632 1.3654768 1.4887362 -0.6927802
0000c0 8e 44 32 c0 8a d5 49 bf a0 d7 2d bf 65 b8 30 3f
       -2.7854342 -0.7884146 -0.6790714 0.69031364
0000d0 f6 f8 41 c0 36 72 12 c0 db ab 59 c0 7a 02 e8 bf
       -3.0308204 -2.288221 -3.4011142 -1.8125756
0000e0 a0 4e 95 bf 3c d5 12 c0 e7 0c 72 c0 27 f4 72 c0
       -1.166462 -2.2942648 -3.7820375 -3.7961519
0000f0 04 5c 78 bf c9 07 0d c0 a0 2e 12 c0 91 cf 84 bf
       -0.97015405 -2.2036002 -2.2840958 -1.0375844
000100 48 64 f7 be fc a0 95 be bc 73 4b c0 09 87 8b c0
       -0.48318696 -0.29224384 -3.1789389 -4.360234
000110 c5 5d 11 c0 3e 2a 86 bf 1c 3e 9b bf d8 6d 06 c0
       -2.2713482 -1.0481641 -1.2128329 -2.1004543
000120 34 45 22 bf 40 99 2f 3f b3 95 b7 3e c9 4a 5d c0
       -0.63386846 0.68593216 0.358564 -3.4576895
000130 38 fa e7 bf 0f 0c 6b bf 22 b8 9a bd a4 9e 4c bf
       -1.8123236 -0.91815275 -0.07554652 -0.79929566
000140 84 9c af bf 3e 85 48 bd 56 81 d2 3e 63 cf 82 3f
       -1.371964 -0.048955195 0.411143 1.0219539
000150 0a bc f4 be 95 74 0b 3e fd eb 08 bf 13 95 84 bf
       -0.47799712 0.13618691 -0.5348509 -1.0357994
000160 95 81 5a be 80 43 21 bf b0 9f ae 3f 33 92 75 3f
       -0.21338494 -0.6299362 1.3642483 0.9592621
000170 67 5b ff 3f d2 33 7c 3e 1d 66 fd 3c bd a7 36 be
       1.9949769 0.24629143 0.03093248 -0.17837425
000180 79 ed 57 bf dc b8 9b 3e b6 b0 95 3f d4 83 b6 3f
       -0.8434673 0.30414474 1.1694553 1.4258981
000190 82 69 f3 3f 64 de ff 3f e7 73 04 bf b1 3e 40 3e
       1.9016573 1.9989743 -0.5173935 0.18773915
0001a0 87 f4 8e bf 60 12 af bf bf e6 5a 3f 94 bf 9d 3f
       -1.1168374 -1.3677483 0.8550834 1.232409
0001b0 37 08 fa bd 9b ab ef bf af ae 67 bf e0 b1 98 3f
       -0.12208598 -1.8724245 -0.9050092 1.1929283
0001c0 00 07 4c bf d0 cf a3 be 4e 19 44 bf be 0c e3 3e
       -0.7969818 -0.31994486 -0.7660111 0.4434566
0001d0 26 b8 b3 3f 1c e2 09 c0 10 29 fa bf 2f c1 70 c0
       1.4040573 -2.1544256 -1.9543781 -3.761791
0001e0 fc 69 aa be b0 81 e5 bf bc b5 21 c0 92 23 1b 3d
       -0.33283985 -1.7930202 -2.5267172 0.03787572
0001f0 0c a5 86 40 1b ec 2f 40 8d 29 bc bf 63 c2 62 c0
       4.2076473 2.7487857 -1.470018 -3.5431144
000200 50 05 0e c0 c2 1b 95 3f 33 5a dc bf 3b 6d 73 be
       -2.2190742 1.1649096 -1.7215027 -0.23772137
000210 ba 5b 00 3f 11 75 eb 3f 51 d1 32 40 ab 79 c1 be
       0.50139964 1.8395101 2.7940257 -0.37788138
000220 a0 a8 10 40 de 99 b8 3f 62 0f d2 3f e6 4f e7 3e
       2.260292 1.4421957 1.6410944 0.45178145
000230 9c 09 72 3f dd 03 4d bf 37 bb 3d c0 e8 6e 28 c0
       0.9454591 -0.8008402 -2.9645517 -2.6317692
000240 82 53 b8 3f 57 28 99 40 0d 2f 72 40 27 f1 70 3f
       1.4400485 4.7861743 3.7841218 0.9411797
000250 c9 40 dc bf 8d ea 98 be a8 85 ff bf 15 99 98 c0
       -1.7207271 -0.29866448 -1.9962664 -4.768687
000260 4d b2 87 c0 da 0f 77 3e 6b 46 6d 40 f4 07 3a 40
       -4.240515 0.2412714 3.707423 2.9067354
000270 72 2e 80 3f 04 b8 9f 3d 3f 2d c8 3f c1 25 ec be
       1.0014174 0.0779877 1.5638808 -0.46122554
000280 e6 b2 67 c0 6a d9 41 c0 97 d1 d5 3f 2d c5 9d 3f
       -3.620294 -3.028895 1.6704587 1.2325798
000290 85 69 d8 3e c5 b2 40 40 ed 3e 00 40 d3 48 a8 40
       0.42268005 3.0109112 2.0038407 5.2588897
0002a0 3f d2 2b bf 85 1e 34 3f 7c 52 59 3f bd 4d 87 3f
       -0.67117685 0.7035907 0.84891486 1.0570599
0002b0 26 65 c2 be 48 80 aa be fa 80 16 bf 49 b0 97 c0
       -0.37967795 -0.33300996 -0.5879055 -4.740269
0002c0 0f 22 a2 3f d6 0a c0 3e 6e b7 ae 3f 36 67 5c 40
       1.2666644 0.37508267 1.3649728 3.4437995
0002d0 a2 bd 91 3f 90 94 be 3e be 10 15 bf f2 1f 90 3f
       1.1385996 0.3722272 -0.5822867 1.1259749
0002e0 a9 d1 8d be 81 48 2a 40 63 33 d0 3f 0d 43 1f 40
       -0.2769902 2.6606753 1.6265682 2.4884675
0002f0 c1 80 29 40 2c 2d fc 3f 00 c0 4d 3e 8e 78 08 3f
       2.6484835 1.9701285 0.20092773 0.5330895
000300 4d c6 52 3f 63 6e 8c 3e 0f cb 39 40 43 0a 2d 40
       0.8233383 0.27427968 2.9030187 2.7037513
000310 2f 0f c0 bf 8d 95 19 3f c5 99 63 3f cd d7 10 be
       -1.5004634 0.5999382 0.8890651 -0.14144821
000320 17 52 51 bf 14 d5 ee bf aa 4f 0c 3e 14 c0 a4 3e
       -0.81765884 -1.8658776 0.13702264 0.32177794
000330 4a 01 a7 3f 6f 5b 38 3e b2 f3 38 c0 78 71 fb 3f
       1.3047268 0.18003629 -2.889874 1.9644003
000340 1d 64 a4 be 96 8c 84 3f 11 0e 42 be 3e 31 b3 bf
       -0.3210763 1.0355403 -0.18950678 -1.3999403
000350 4c 25 b3 3f 52 90 70 40 41 29 06 be 5c 76 2b 40
       1.3995757 3.7588086 -0.13101675 2.679099
000360 9b a4 1f c0 ae 0a ab bf a4 91 62 bf 1f 42 62 bd
       -2.4944217 -1.3362634 -0.8850348 -0.05523884
000370 cf 75 89 bf 3b 42 f8 3e 0f d4 08 40 f6 50 35 3c
       -1.0739077 0.4848803 2.137943 0.011066666
000380 d0 85 b6 3f db a2 14 c0 f5 6a 88 bd 3d 67 c2 bf
       1.4259586 -2.32244 -0.066610254 -1.5187756
000390 14 4e 29 bf fa 94 32 bf 6c 82 6d 3f 11 c6 70 3f
       -0.6613476 -0.6975857 0.92777133 0.94052225
0003a0 a2 96 92 bf 94 54 ba be fa d9 c5 bf 9e 2e 1c bf
       -1.145222 -0.36392653 -1.5457146 -0.6100863
0003b0 5a 81 e6 bf a2 7a cb 3f 9c 2b d9 3f bd 01 25 40
       -1.8008225 1.58968 1.6966434 2.578231
0003c0 ca 76 1d 40 8f 83 86 3f c6 f1 04 40
       2.4603753 1.0508898 2.0772567

down_convs.0.conv2.bias f4 [3]
000000 f8 3c 43 c0 53 1f 42 3e 9a b6 21 3f
       -3.0505962 0.18957262 0.6316925

down_convs.0.norm0.weight f4 [3]
000000 0c b9 d1 3f 07 b6 b3 3f 1a c4 e8 3f
       1.6384597 1.4039925 1.8184845

down_convs.0.norm0.bias f4 [3]
000000 6e bb eb bf b3 6a fa 3f 94 52 52 c0
       -1.8416574 1.9563812 -3.2862902

down_convs.0.norm0.running_mean f4 [3]
000000 81 4b 99 bd 3e 7f 2c bf 8f 7c 40 bc
       -0.07485104 -0.67381656 -0.011748447

down_convs.0.norm0.running_var f4 [3]
000000 af 18 56 43 f3 cf f5 42 27 f4 5d 43
       214.09642 122.90615 221.95372

down_convs.0.norm1.weight f4 [3]
000000 4c 77 28 40 64 69 c0 3f 81 48 08 40
       2.6322813 1.5032163 2.1294253

down_convs.0.norm1.bias f4 [3]
000000 ec cc 41 40 cb 94 d1 bf 57 11 d3 bf
       3.0281324 -1.6373533 -1.6489667

down_convs.0.norm1.running_mean f4 [3]
000000 7e 89 47 c1 65 28 94 c1 0c 59 01 42
       -12.471067 -18.519724 32.33696

down_convs.0.norm1.running_var f4 [3]
000000 fd 6f 97 44 77 62 11 44 0d 92 72 44
       1211.4996 581.5385 970.28204

down_convs.1.conv1.weight f4 [6, 3, 3, 3, 3]
000000 8a de 88 3e 01 d8 45 bf 0a 7b a0 be a2 5b fa 3f
       0.26732284 -0.7728272 -0.3134387 1.9559214
000010 c3 10 e3 3f ba 1b 2a 40 c1 7c 02 3f 5f f4 41 bf
       1.773949 2.6579423 0.5097161 -0.75763506
000020 3c 51 0a 40 6e 2d b6 be 94 54 43 c0 11 21 cb bf
       2.1612082 -0.35581535 -3.0520372 -1.5869466
000030 63 f5 a2 3f 86 66 b6 3f 27 14 ee 3f b7 3e f8 bf
       1.2731136 1.4250038 1.85999 -1.9394139
000040 ba 0c 83 c0 4e 6d 79 bf a4 4e 2b be 76 7a a1 bf
       -4.0953035 -0.9743241 -0.16729218 -1.2615497
000050 ea d3 b0 3e 58 3b 2f 40 23 98 22 40 d2 73 3c 40
       0.34536678 2.737997 2.5405357 2.944569
000060 56 93 cc 3f 47 bd 83 bf df cd a1 3f 94 13 99 bf
       1.5982463 -1.0292138 1.2640952 -1.19591
000070 d2 a7 61 be 76 35 57 be 01 cf ff 3f 24 5b 94 3f
       -0.22036675 -0.21016487 1.9985048 1.1590314
000080 f0 84 14 40 9a a8 cd 3f 8c f5 73 3f 98 d5 95 3f
       2.3206139 1.6067078 0.9529655 1.1705809
000090 96 1a 5c be f0 52 fe be 0f 19 08 bd a1 c7 b7 3f
       -0.21494517 -0.4967265 -0.033227023 1.4357797
0000a0 84 e0 97 bf 02 b2 16 3f 75 83 af 3f 3d 40 fd 3e
       -1.1865392 0.5886537 1.3711993 0.49463072
0000b0 93 06 85 3e 31 53 48 bf 3f c6 c6 be 40 73 65 bf
       0.25981578 -0.7825194 -0.38823125 -0.8962898
0000c0 e1 df 10 40 c5 e1 63 3f d0 c5 d3 3f 72 0a 06 40
       2.2636645 0.8901637 1.6544743 2.0943875
0000d0 96 13 90 3f 93 73 a0 3f cd 3b d3 bf 95 2d 0e be
       1.1255977 1.253527 -1.6502625 -0.13884576
0000e0 3d 2e 27 bf 25 c5 fc bf 6a 0e ed 3e f6 05 93 bf
       -0.6530493 -1.9747664 0.4630006 -1.1486194
0000f0 19 b4 14 c0 e2 de 09 3f 49 d9 9d bf 0d b2 00 bf
       -2.3234923 0.5385572 -1.2331935 -0.50271684
000100 32 1f 4b 3f cc 1e e5 3e 01 5d d5 3e 01 46 88 40
       0.79344475 0.4475006 0.4167252 4.2585454
000110 08 a8 c0 3f aa 23 4d 3f 23 99 01 41 8c c6 71 40
       1.5051279 0.80132544 8.099887 3.7777433
000120 c6 1f 47 bf 05 ee 13 3f dc bd ee 3e b7 86 43 bf
       -0.7778286 0.57785064 0.46629226 -0.76377434
000130 da 16 06 40 67 50 4f 3f 75 9d c7 bf 50 3f 7c 40
       2.0951447 0.8098206 -1.5594927 3.9413643
000140 82 30 0a 40 99 d6 e5 bd 11 db 20 be 12 0b 3f be
       2.1592107 -0.11222572 -0.15708567 -0.18656567
000150 42 32 c0 bc 52 75 0d bd 0a 68 db bd f5 2c 1a 3c
       -0.023461465 -0.034535713 -0.10713203 0.009410133
000160 7f 67 98 bd 23 91 8f bd 38 f4 5f bd 4e 5d 36 3c
       -0.07441615 -0.070101045 -0.054676265 0.011130644
000170 e7 cd 3e bc 69 1b db bd d2 bb 30 be fa cc 87 bd
       -0.011645771 -0.106985874 -0.17259148 -0.06630893
000180 91 f0 17 bd 7f c6 ba bb 14 6a 57 3d f8 fc 02 be
       -0.037094656 -0.005699932 0.0525914 -0.12791812
000190 f9 df 00 3e 51 4d ac bd 99 43 02 3c 34 94 78 bd
       0.12585439 -0.084131844 0.007950687 -0.060688213
0001a0 c1 e4 7f 3b ce cf d9 3d fa 7e 6e 3d 9b 30 8e bc
       0.003904626 0.10635339 0.058226563 -0.017357161
0001b0 75 f3 8d be 9a 2d 34 be cd 72 05 3d 92 2f 98 be
       -0.27724805 -0.1759552 0.032580186 -0.29723793
0001c0 e7 bf e2 bc 40 34 bf bd 63 75 bc be 90 34 9a be
       -0.027679397 -0.09336138 -0.3680831 -0.30118227
0001d0 6e 25 77 be 56 f8 cc 3c af c3 68 be 70 9e b5 bd
       -0.24135372 0.02502076 -0.22730897 -0.0886811
0001e0 b7 a7 4c be b9 1e b1 be e7 cb e4 bd bd 5c e6 be
       -0.19985853 -0.34593752 -0.11171704 -0.4499263
0001f0 aa cd cb be 3e c9 cc be 89 3d 77 be bf 58 10 be
       -0.39805347 -0.39997286 -0.24144568 -0.14096354
000200 f1 0b 93 3e 30 cb a5 be a2 21 04 be ae 48 a0 be
       0.28720048 -0.32381582 -0.12903455 -0.3130545
000210 b9 57 c1 bd af cb 64 be 16 78 19 be 6e 8e 4f 3d
       -0.0944056 -0.22343324 -0.14987215 0.05067294
000220 8c 4f 57 bc 4f a2 2e 3e a6 43 ee be 0c 76 19 bf
       -0.013141524 0.17054103 -0.46535987 -0.5994575
000230 a4 1c ee be ec a7 17 bf 06 d4 15 bf 10 ac fb be
       -0.46506226 -0.59240603 -0.5852665 -0.4915471
000240 f0 50 4b be fb e7 65 be 63 73 23 bd 86 60 ce be
       -0.19855094 -0.22451775 -0.039904963 -0.40308017
000250 fb 0f 1f bf 29 83 1e bf 17 6a 48 bf 0e 11 3f bf
       -0.6213376 -0.61918885 -0.7828688 -0.746354
000260 26 e6 55 bf 3d c5 97 be fc d2 a9 be a2 3a fb bd
       -0.83554304 -0.29642668 -0.3316878 -0.12267043
000270 0f fb 37 bf cf 06 1a bf 14 4d 41 bf b9 ee 2a bf
       -0.7186746 -0.6016664 -0.75508237 -0.6677051
000280 ad df 7a bf 89 69 58 bf 4c 16 00 be d7 e2 6c 3d
       -0.9799755 -0.84536034 -0.12508506 0.05783352
000290 05 50 67 bc e9 d1 82 3c 1c e8 c4 bc 71 d3 0a be
       -0.014118199 0.015969234 -0.02403646 -0.13557221
0002a0 98 b5 58 be fb ba 2f bd 52 b6 4b be e6 3b b5 bd
       -0.21163023 -0.042902928 -0.19893768 -0.08849315
0002b0 e0 da ca 3d e6 c6 a4 bd bf a0 24 be cf 1b 27 3d
       0.09905028 -0.08045749 -0.16076945 0.040798005
0002c0 3c f3 ff bd a3 3f fb 3c d1 af 95 bc 3b 5a e7 bd
       -0.12497565 0.030669993 -0.018272312 -0.11296507
0002d0 8d b9 4e be e1 fe 42 bd 0e 3b 0c bb 07 ce 19 be
       -0.2018797 -0.047606353 -0.0021397504 -0.1502
0002e0 3c df 1a 3e a2 72 e7 bd 94 13 a6 3c fa cb 4a 3b
       0.1512422 -0.11301161 0.020273007 0.0030944333
0002f0 9c df 1e bd 63 c8 9e be bb f1 15 bd 49 a5 49 3d
       -0.03878747 -0.31012258 -0.036607485 0.049229894
000300 f4 21 96 bc ab a4 a9 3d 83 18 fe bd f6 4d 48 be
       -0.018326737 0.08283361 -0.12407019 -0.1956099
000310 f6 ed b5 bd 4b d5 ff bd b5 22 1f bc 8c 3d df bb
       -0.08883278 -0.12491854 -0.009712865 -0.006812757
000320 0c 79 f3 bc 0a 5f 9c bd 17 e0 5d be 8e c5 4b be
       -0.029720806 -0.07635315 -0.21667515 -0.1989958
000330 e7 fd 30 be cc 1f cd bc f1 ed 14 3e dd 3f 91 bd
       -0.17284356 -0.025039576 0.14543892 -0.07092259
000340 2a f2 5a 3c d9 91 47 3d 4a df 11 be ef 7d 22 bd
       0.0133634005 0.048723076 -0.14245334 -0.03967088
000350 70 61 f7 bd 44 ce 57 be 52 a3 17 be e2 70 2c bd
       -0.120791316 -0.21074778 -0.14808396 -0.04209984
000360 7f 15 eb bd 36 5e 8b be ca 1b 1a be 42 d5 90 be
       -0.114787094 -0.27220315 -0.15049663 -0.28287703
000370 00 49 66 be 8d 67 22 be 8f 0f d0 bd 68 1d ea be
       -0.22488785 -0.15859814 -0.101592176 -0.4572556
000380 44 90 81 be 6c bb 45 be 66 6e 4e be 7b e6 91 be
       -0.25305378 -0.19309777 -0.20159301 -0.28496155
000390 ae 88 41 be fc 64 34 be a7 27 94 be 8e f7 7e be
       -0.18899795 -0.17616647 -0.28936502 -0.24899122
0003a0 03 1f 9a be 95 6b 8b be 84 b2 88 be c0 c8 cf be
       -0.30101785 -0.27230516 -0.26698697 -0.40582848
0003b0 9c f7 46 be e1 9f 7b be 88 1f c5 be 34 89 ae be
       -0.19430393 -0.24572708 -0.3850062 -0.34089053
0003c0 27 85 be be 04 51 56 be 89 0f a2 be 19 7e 1a be
       -0.37210962 -0.20929343 -0.31652477 -0.15087165
0003d0 ce 6c c3 be cf d3 81 3f 9c cc 42 3f 54 7f aa 3e
       -0.3816895 1.0142764 0.7609346 0.3330027
0003e0 3e 1b 0c 40 48 44 47 40 81 14 bf 3e bb 88 32 40
       2.1891627 3.1135426 0.3732033 2.7895954
0003f0 09 86 cf be c4 49 c3 bf 05 84 82 3e 9f 66 ca 3e
       -0.40531948 -1.5256886 0.25491348 0.3953142

down_convs.1.conv1.bias f4 [6]
000000 e8 32 3a 3c 42 e2 4d 37 05 0f 97 32 40 cc 55 bd
       0.011364676 1.2271632e-05 1.7585544e-08 -0.05219674
000010 bf f4 b0 3d 41 50 8c bd
       0.086404316 -0.06851245

down_convs.1.conv2.weight f4 [6, 6, 3, 3, 3]
000000 b6 30 0c bf a8 af 18 bf 78 82 ac bf b2 56 83 3f
       -0.54761827 -0.5964303 -1.3477316 1.0260832
000010 6a 92 b4 3e e4 5e 98 bf b8 ed 80 40 b4 f2 69 40
       0.35267955 -1.1903958 4.0290184 3.6554384
000020 08 14 dc 3f e2 d6 32 3e 90 54 fe 3d 79 1e 02 bf
       1.7193613 0.17464784 0.12418473 -0.5082775
000030 0d b2 0b 40 bd 21 c6 3d bc d9 41 bf 5e 85 a8 40
       2.1827424 0.09674404 -0.7572286 5.26628
000040 70 06 ec 40 cd 1c 55 40 a9 b4 12 bf e3 b3 b8 be
       7.375786 3.3298829 -0.57306916 -0.36074743
000050 b9 d8 84 bf a9 61 67 bb b1 cd 4e bf 45 ed fb bf
       -1.0378639 -0.0035306013 -0.8078261 -1.9681784
000060 4c 6e 24 40 91 e8 51 40 fd 51 ea 3f 29 1c 74 be
       2.569232 3.2798197 1.8306271 -0.23838867
000070 49 8b 75 be a8 37 41 be 42 d1 da bc b1 68 67 bd
       -0.23978914 -0.18868887 -0.02671111 -0.056496326
000080 01 53 92 3c 92 ef 1a 3d 49 5c 06 3d b3 8b 0d 3c
       0.017861845 0.03782613 0.032802854 0.008639264
000090 d0 e2 10 be 75 dd 05 be 71 18 18 be 93 a3 c7 3d
       -0.14149022 -0.1307276 -0.14853074 0.09747996
0000a0 34 90 84 bd 5a 84 47 3c ab ba 5a bd 31 3c c3 bc
       -0.06472817 0.012177551 -0.053400677 -0.023832412
0000b0 4e bc 48 3d 83 cb 4f be d5 55 00 3c d3 c8 19 be
       0.049007706 -0.20292477 0.007832964 -0.15018015
0000c0 79 93 a4 bd c3 ab 57 bd 7e e8 34 be 4c 63 9f 3c
       -0.08035941 -0.05265404 -0.17666814 0.019456528
0000d0 50 9c 0a be 14 01 b6 bc 82 6c f4 bd 53 83 82 bd
       -0.13536191 -0.022217311 -0.11934759 -0.06372704
0000e0 b9 09 81 be 8c db 97 be 46 1c 83 be e8 cd 38 bc
       -0.2520273 -0.29659688 -0.25607508 -0.011279561
0000f0 5e f9 8f bd 6f 8d 49 be de f6 13 3d b5 9c 2d bd
       -0.07029985 -0.19682859 0.036124103 -0.042385776
000100 27 d9 14 be 39 c6 12 be 28 a5 f4 bc ce 21 13 be
       -0.14535962 -0.14333428 -0.029863909 -0.14368364
000110 c8 a8 05 bd 51 17 56 be b6 84 19 bd 6f c2 04 3d
       -0.032631665 -0.20907332 -0.03748008 0.03241199
000120 b3 ea cd bd 02 d2 ef bd c3 6f 8e bd e1 57 14 bd
       -0.10054531 -0.11709978 -0.069549106 -0.03621662
000130 15 bb b3 bc b2 b6 01 bd 95 55 eb bd 5d f0 18 be
       -0.021939794 -0.031668372 -0.11490933 -0.14935441
000140 30 9a 99 3d ee 70 b4 3f e6 d3 84 3f 5f 10 d2 3f
       0.07500112 1.4096963 1.0377166 1.6411246
000150 2c 8e 13 bf a3 0d ed 3e 17 b2 82 3f 49 c1 a4 3f
       -0.5763881 0.46299466 1.0210599 1.2871486
000160 ab 4c ff 3f 8b 96 0b 40 b6 81 f2 3f 77 a1 61 3f
       1.9945272 2.1810634 1.8945835 0.88137
000170 a2 e0 ed 3f 88 ad 17 3e ab 20 3d 3f 8b 88 a6 3f
       1.8584177 0.1481229 0.7387797 1.301042
000180 c3 24 eb 3f 65 7f 12 40 7b f2 1e 40 9a 92 e9 3f
       1.8370594 2.2890255 2.4835498 1.8247864
000190 0d 30 cb 3f 69 28 0e 40 b9 06 87 3e 2c 22 53 3f
       1.5874039 2.2212164 0.26372316 0.8247402
0001a0 16 3f 4c 3f f3 27 e3 3f fa 4f 1d 40 6c 9c 1b 40
       0.7978376 1.7746567 2.4580064 2.4314222
0001b0 8b 00 95 3e 1b 7e db 3e a4 22 07 3f a2 69 92 3f
       0.29101977 0.42869648 0.5278723 1.1438487
0001c0 be 6f d2 3f 6c 77 46 3f 90 37 6a bf b4 7d 2a bf
       1.6440351 0.77525973 -0.9149103 -0.6659806
0001d0 50 82 03 c0 df 67 1b 3f d6 da 0e bc 4a 73 83 3e
       -2.0548286 0.6070537 -0.008719167 0.25673896
0001e0 76 3d f4 3f 6d 67 2b 40 c3 e8 d0 3f 6d 1b 15 bf
       1.9081256 2.6781876 1.6321033 -0.58244973
0001f0 16 52 39 bf 81 6f ec bf 77 1a e5 3f 4c c5 bf 3f
       -0.7239088 -1.8471528 1.7898701 1.4982085
000200 5e 28 ae 3f 86 01 a2 3f ec 82 c4 3f 87 25 d9 3e
       1.3606069 1.2656715 1.5352454 0.42411444
000210 ea fe b0 bf 94 d0 b9 bf 92 a8 06 c0 e9 29 cb 3f
       -1.3827794 -1.4516778 -2.1040387 1.5872165
000220 6b c5 af 3f 0c 3c 2c 3f fe 22 8a bf b8 5b ec bf
       1.3732122 0.67279124 -1.0791929 -1.846549
000230 de c8 00 c0 1c 21 51 bf 06 2a 89 bf b8 81 99 bf
       -2.01226 -0.81691146 -1.071595 -1.1992712
000240 4a 65 c0 3f 19 b1 92 3d ca a6 89 bf 71 a0 6c bf
       1.5030911 0.07162685 -1.0754025 -0.92432314
000250 6e 75 fd bf 8d 73 38 c0 9f 23 a5 bf ca ac b4 bf
       -1.9801462 -2.8820527 -1.2901496 -1.4115231
000260 2d 12 dc bf a4 d1 ea 3f c0 30 48 be d3 e1 b7 bf
       -1.7193047 1.8345227 -0.19549847 -1.4365791
000270 dd 70 af be f9 86 dc bf e5 a5 26 c0 ee 91 d0 bf
       -0.34265795 -1.722869 -2.6038754 -1.6294534
000280 3c 4b eb bf dc 2b 1b c0 7f 28 20 bf 11 36 66 bf
       -1.8382335 -2.424552 -0.6256179 -0.8992625
000290 af 7e c3 be ed e5 68 3f 71 c9 2d 3f 30 55 f9 3e
       -0.3818259 0.9097584 0.678855 0.48697805
0002a0 9e 45 2b 3f 18 60 c1 3f 31 30 29 3e 7d b3 35 bf
       0.669031 1.510745 0.1652229 -0.70977
0002b0 7d 88 d0 bf 2b 31 a9 bd b5 23 54 3f d6 2c 23 be
       -1.6291653 -0.08261331 0.82866985 -0.15935072
0002c0 94 d3 d0 3e cc f5 07 40 3f 96 73 40 51 1e f8 3f
       0.4078642 2.1243773 3.8060453 1.9384252
0002d0 e4 cd fe be 38 08 00 bf a7 cd ff 3d 89 51 d4 3f
       -0.49766457 -0.5001254 0.12490397 1.6587383
0002e0 03 77 69 3f b8 db 11 3f bd a2 46 3f 9b 7c d3 3f
       0.9119722 0.5697589 0.7759207 1.6522402
0002f0 57 2b 54 3d 63 bd 0c be be 0d f3 bd 65 28 36 be
       0.051799145 -0.1374412 -0.118678555 -0.17788847
000300 b7 e2 87 bd 5b 72 ce bc ac 13 ed bd e3 fa 93 3d
       -0.06635039 -0.025201013 -0.11576018 0.07225587
000310 10 07 a6 bd 4a ed 8a bc bb a9 36 be 17 7f 07 be
       -0.08106816 -0.016958851 -0.17838185 -0.13232075
000320 ac 06 3e be c0 f4 2f 3a b3 4b 5c bd e7 26 57 3c
       -0.18557233 0.0006712191 -0.05378313 0.013131834
000330 94 69 19 be a6 28 e7 bd de b9 f2 bd 26 c3 de bd
       -0.14981681 -0.1128705 -0.118518576 -0.10877065
000340 cc 68 22 be 51 74 1c 3c db 87 81 3c 7d 54 4d bb
       -0.1586029 0.009549216 0.015811851 -0.0031330877
000350 64 cc 18 be 28 97 41 bd 23 d4 d5 bd dd bb 36 bd
       -0.14921719 -0.047263294 -0.104408525 -0.044612754
000360 ca 01 8c be 39 ba 71 be 7d 4f da be 06 3c 7d be
       -0.27345115 -0.23606195 -0.4263877 -0.24729928
000370 19 6c 9e 3d ae 7e cd bd 80 ba 97 bd c5 f2 d6 be
       0.07735462 -0.10033928 -0.07408619 -0.41982093
000380 02 44 29 bc a5 27 85 be 8b e9 cb bd 02 b3 21 be
       -0.010331156 -0.2600681 -0.09956654 -0.15790942
000390 64 d2 95 bd 11 76 dc bc f1 2f 3e 3b 5f f2 99 bd
       -0.073155195 -0.026911767 0.0029020275 -0.07516932
0003a0 cc 7f c6 bd b8 af 1b be e1 d4 a0 be fc 7f dc bd
       -0.09692344 -0.1520375 -0.31412414 -0.107665986
0003b0 44 94 27 be 0a df 11 be 1c e5 0c be 3b cb 2b bd
       -0.16365153 -0.14245239 -0.13759273 -0.041941863
0003c0 21 57 6b 3c 8b 93 08 3d df 08 f7 bd df d7 1d c0
       0.014364035 0.033343833 -0.12062239 -2.4663007
0003d0 1e 8e 2e c0 2a ac 70 c0 12 fe ba bf 3d b3 c7 bf
       -2.7274241 -3.760508 -1.4608786 -1.5601574
0003e0 e6 ef de bf ce f0 0a 3f 64 8e f7 bd 9e 86 05 3f
       -1.7416961 0.5427369 -0.12087706 0.52158535
0003f0 f1 cb b4 bf ad a8 31 c0 12 3c 3e c0 62 6e 67 bf
       -1.4124738 -2.7759202 -2.9724164 -0.90402806

down_convs.1.conv2.bias f4 [6]
000000 36 cf 03 3d 89 f0 d8 bd 2f a6 dc bc 3d b3 1a bf
       0.032180034 -0.105927534 -0.026934711 -0.60429746
000010 91 71 54 3f cd 9f b6 3d
       0.8298579 0.08917198

down_convs.1.norm0.weight f4 [6]
000000 5b 41 fd 3f 50 b4 02 3f 15 8c 08 3f 44 0a ea 3f
       1.978557 0.51056385 0.5333875 1.8284383
000010 7c 69 29 40 2b 06 0e 40
       2.6470633 2.2191265

down_convs.1.norm0.bias f4 [6]
000000 77 00 ce bf 80 32 94 be 83 64 a9 be 58 71 25 c0
       -1.6093892 -0.28944778 -0.33084497 -2.585043
000010 b3 60 8a bd 0c b4 b9 be
       -0.06756725 -0.36270177

down_convs.1.norm0.running_mean f4 [6]
000000 fb 5c 32 42 f7 87 2e c1 e7 e3 0b c1 50 b0 d2 42
       44.5908 -10.908195 -8.74314 105.34436
000010 ce 11 f5 42 99 61 62 c3
       122.534775 -226.38124

down_convs.1.norm0.running_var f4 [6]
000000 ca a7 3e 45 38 4f 52 44 1f c4 5d 43 22 40 4c 45
       3050.4868 841.2378 221.7661 3268.0083
000010 20 3d 32 45 cc 1b 5b 45
       2851.8203 3505.7373

down_convs.1.norm1.weight f4 [6]
000000 18 d2 83 3f 4e f5 a8 3f e5 ac d3 3f ff 8a 32 40
       1.029849 1.3199861 1.6537138 2.7897336
000010 0a 04 0c 40 09 05 2a 40
       2.1877465 2.6565573

down_convs.1.norm1.bias f4 [6]
000000 75 21 e8 bf e8 61 97 bf 99 98 df be 32 c8 04 40
       -1.813521 -1.1826754 -0.4367111 2.074719
000010 4c a0 39 40 2b ec 91 3f
       2.9004087 1.1400198

down_convs.1.norm1.running_mean f4 [6]
000000 74 7b c4 40 ad c1 99 41 c4 53 46 41 4a d7 1b c2
       6.14007 19.219568 12.395451 -38.960243
000010 f7 49 8a c1 a4 f3 13 40
       -17.286116 2.3117456

down_convs.1.norm1.running_var f4 [6]
000000 be 30 b7 45 d9 f6 54 45 c5 eb 32 45 dd 80 6c 46
       5862.093 3407.428 2862.7356 15136.216
000010 1f 1c f0 45 9f 14 37 46
       7683.515 11717.155

down_convs.2.conv1.weight f4 [12, 6, 3, 3, 3]
000000 92 94 03 bf 0c 9a ae be ac 0e 8e be 60 c9 c5 be
       -0.51398575 -0.34101903 -0.2774557 -0.386302
000010 69 54 83 be d3 55 8a be eb 89 21 bf 7d 55 6f be
       -0.25650337 -0.27018604 -0.6310107 -0.23372455
000020 7f 65 95 be c3 c9 03 bf 40 f7 b0 be 4c e6 9f be
       -0.29178998 -0.5147974 -0.34563637 -0.3123039
000030 c4 ab cd be f1 02 c0 be 6c 9c cc be 8b 81 8e be
       -0.4017011 -0.37502244 -0.3996309 -0.27833208
000040 1b 05 a8 be e3 8c f9 bd 60 d9 ee be 8d 03 d9 be
       -0.32816395 -0.12185075 -0.4665022 -0.42385522
000050 50 2d c1 be e6 9f af be 88 6a c8 be a3 c7 f4 be
       -0.37729883 -0.3430168 -0.39143777 -0.4780856
000060 26 70 bf be d4 fd ff be 08 68 f8 be 55 7a 07 bf
       -0.3739025 -0.49998343 -0.4851687 -0.5292104
000070 2f 70 0a bf 81 eb 05 bf 5a 74 36 bf 53 59 ff be
       -0.5407743 -0.52312475 -0.7127129 -0.49872836
000080 c7 82 d5 be a8 fa f9 be 7e 80 e0 be ce 79 c0 be
       -0.41701338 -0.48824048 -0.43848032 -0.3759293
000090 7f 6c 36 bf 65 53 12 bf bb 4f 08 bf 50 d8 0a bf
       -0.712593 -0.571585 -0.5324666 -0.54236317
0000a0 b6 6e 32 bf 56 5a e8 be 7a 09 00 bf 0c b4 0d bf
       -0.6970018 -0.4538142 -0.5001446 -0.55352855
0000b0 d9 74 5d be ef 40 04 bf 69 bd c0 be bc 6a db be
       -0.21626605 -0.5166158 -0.37644508 -0.4285487
0000c0 bd c8 2f bf 22 17 1a bf 25 61 ed be a2 de 04 bf
       -0.6866568 -0.6019155 -0.46363178 -0.5190221
0000d0 11 53 ef be 7b db 86 be a5 c1 19 bf ca 60 f7 be
       -0.46743062 -0.26339325 -0.60061103 -0.48316032
0000e0 07 ba c4 be bf 44 ff be 8d 27 12 bf 74 21 13 bf
       -0.38423178 -0.49857137 -0.570916 -0.5747292
0000f0 c6 bb 89 be dd a1 c7 be 35 81 16 bf 09 43 f4 be
       -0.26901072 -0.3899068 -0.58790904 -0.47707394
000100 bb f9 27 bf 60 d6 06 bf 65 66 f4 be de c9 ef be
       -0.65615433 -0.5267086 -0.4773437 -0.468337
000110 64 28 e6 be 4f 27 c5 be 9d d2 8d be a7 48 eb be
       -0.4495269 -0.38506553 -0.27699748 -0.45953867
000120 51 67 be be 8e 1b e0 be 96 35 8c be 30 e7 06 bf
       -0.371882 -0.43771023 -0.27384633 -0.52696514
000130 c5 0f fb be ed 35 d2 be f9 77 29 bf 71 20 f9 be
       -0.4903547 -0.41056767 -0.6619869 -0.48657563
000140 77 75 d4 be 81 ee f5 3e 01 15 b3 3e b6 2d b3 3e
       -0.4149587 0.48033527 0.34976962 0.34995812
000150 9d 20 ac 3e b4 f0 04 3f 94 4b bd 3e 3d 44 71 3e
       0.33618632 0.51929784 0.36971724 0.23561187
000160 97 92 d2 3e 9b 00 72 3e 73 79 e5 3e ab 61 c7 3e
       0.41127464 0.23633043 0.4481922 0.38941702
000170 8d 4b 88 3e 03 be c7 3e 1e 67 19 3f ca 12 f2 3e
       0.2662014 0.39012155 0.5992297 0.4727996
000180 2a c3 ab 3e 44 81 00 3f f3 97 8b 3e e0 e3 e5 3e
       0.33547336 0.50197244 0.27264366 0.44900417
000190 4b a8 e5 3e 26 58 d1 3e 65 14 a4 3e 28 de 1b 3f
       0.4485496 0.40887564 0.3204681 0.6088586
0001a0 d6 0b 03 3f 0d c4 eb 3e 23 9f 31 3f 9d 9e cc 3e
       0.51189935 0.46048012 0.6938345 0.39964762
0001b0 9c c2 c7 3e bf ba c7 3e bc 90 15 3e 0a 25 a4 3e
       0.39015663 0.39009663 0.14605993 0.3205951
0001c0 17 4f bc 3e 3c 87 6e 3e 4c 56 36 3e 79 10 92 3e
       0.3677909 0.23293775 0.17806357 0.28528193
0001d0 fc eb 6e 3e 56 b1 5b 3e 97 02 3e 3e 97 f6 ca 3e
       0.23332208 0.21454367 0.18555675 0.39641258
0001e0 a5 4b 94 3e a6 2c 76 3e 02 39 8f 3e 35 cb b2 3c
       0.28963962 0.2404047 0.2797318 0.021825412
0001f0 2e 98 61 3e ad 35 52 3e d0 bc b8 3e 66 6c 95 3e
       0.22030708 0.20528288 0.36081553 0.29184264
000200 5c a8 76 3e e6 4c 81 3e fe 82 12 3f a1 fb d0 3e
       0.24087662 0.2525398 0.5723113 0.40816978
000210 4d 23 0d 3f 3a 71 1a 3f c0 e0 f0 3e 8f 26 fe 3e
       0.5513199 0.6032902 0.4704647 0.49638793
000220 ef 3e 6e 3e d8 8e a5 bc 02 b5 a2 be 07 d9 e9 be
       0.23266195 -0.020209715 -0.31778723 -0.4567339
000230 a6 bd 00 bf 52 c2 c8 bd 58 18 08 3d 64 fa 3c 3e
       -0.5028938 -0.09802689 0.03322634 0.18454891
000240 1a 80 af 3d e5 8e 0c be 98 e0 46 be fa e7 05 bf
       0.08569355 -0.13726385 -0.19421613 -0.52307093
000250 27 9e ae be 73 1f df be dd 9e 5c bd b7 7b 0a 3e
       -0.34105036 -0.4357868 -0.05386244 0.13523756
000260 7d ca 80 3e 99 fe ae 3d bc 4b bc be f2 fa 86 be
       0.25154486 0.085446544 -0.3677653 -0.2636333
000270 c3 03 b5 be e3 db aa be 59 fc f0 be 0e 00 b6 3c
       -0.35354432 -0.33370885 -0.47067526 0.022216823
000280 9c f4 b9 3e 5f 42 46 3e 0d 12 08 40 e1 41 ad 3e
       0.36319435 0.19361256 2.1261017 0.33839324
000290 f3 38 36 40 40 8a 22 be 93 d8 a9 bf 21 ca 9f 3f
       2.847226 -0.1587305 -1.3269218 1.248356
0002a0 30 d1 c5 bf 3d 5e 33 c0 ab 79 94 be 1f 80 09 3f
       -1.5454464 -2.8026268 -0.28999075 0.5371112
0002b0 04 58 a8 bf 9c 46 a1 3f 25 c3 ea bf 14 d6 55 c0
       -1.315186 1.2599673 -1.8340803 -3.3411913
0002c0 ac b9 3e bf b9 c9 1b c0 44 c7 9f c0 b5 b4 16 c0
       -0.7450206 -2.4341872 -4.9930744 -2.3547795
0002d0 61 fb 19 40 28 c5 a4 3f f1 fc 6f 40 35 bd 29 be
       2.405968 1.2872667 3.7498133 -0.16576083
0002e0 23 be 8c bf d5 b9 b6 3f 0f fe 66 be 0b de d7 bf
       -1.0995525 1.4275461 -0.22557853 -1.6864637
0002f0 94 74 41 3f 84 de 4e bf c1 5c b9 be 55 13 73 bf
       0.7556851 -0.8080828 -0.36203578 -0.94951373
000300 88 09 5c c0 69 c5 60 bf 34 0d d8 bf c1 47 24 bf
       -3.4380817 -0.87801224 -1.6879029 -0.6417199
000310 32 6b 1f 3f 86 e0 59 bf 1e 27 d5 bd db c6 c3 3f
       0.6227294 -0.8510822 -0.10407852 1.5295061
000320 5c d5 7d bf 3a 6c b3 bf 8e af 59 bc 68 e1 f4 be
       -0.99153686 -1.4017403 -0.013286484 -0.4782822
000330 d6 1c 5a 3f dd 44 cb 3f cd 28 3e bf 7f aa a8 bf
       0.8520025 1.588039 -0.7428101 -1.3177031
000340 22 50 82 bf 49 9f c5 bf 4a 27 8e bf 82 dc 3b be
       -1.0180705 -1.5439235 -1.110574 -0.18345836
000350 8c 38 fe be 42 4e 60 bc 15 ec 03 be 2d ea bf bf
       -0.49652517 -0.013690533 -0.12883027 -1.499334
000360 f1 24 12 bf c7 8c c8 3c c3 02 0f c0 93 b2 0b bf
       -0.5708762 0.02448119 -2.2345436 -0.5456936
000370 70 2d 19 3f 9d 76 c9 bf 1b 05 c2 be 88 5f cb bd
       0.5983496 -1.5739323 -0.3789452 -0.099303305
000380 8f 9a 1b c0 5b 4a 78 3f b5 21 4d 40 fc 7e d1 bb
       -2.4313085 0.9698846 3.2051823 -0.0063933115
000390 24 76 d5 3f 7b ac 77 40 23 2d 1d 3f 0a fd 99 3f
       1.6676679 3.8699024 0.61397 1.2030346
0003a0 62 6b 36 40 93 fa 8c bf fe cd 62 be 12 97 67 3f
       2.8503041 -1.1013969 -0.22148892 0.9046489
0003b0 3d 71 c9 bf 26 52 ac 3e 24 f3 c7 3f 6d 5a 0a be
       -1.5737683 0.33656424 1.5621076 -0.13511057
0003c0 bb c2 14 bf 21 ac a0 be 5f 3e c0 bf 01 78 df bf
       -0.58109635 -0.31381324 -1.5019034 -1.7458497
0003d0 ae 9d 96 bf ec 4f 2e c0 e3 af 09 c0 af 38 86 bf
       -1.176687 -2.723628 -2.1513603 -1.0486048
0003e0 26 1b 21 c0 80 ec 5a bf c4 57 36 bf c5 5f 94 bf
       -2.517282 -0.8551712 -0.7122767 -1.1591727
0003f0 38 26 7d bf 90 ee dd 3f 69 77 63 bf ca 3d 39 bf
       -0.9888644 1.7338428 -0.8885408 -0.7235991

down_convs.2.conv1.bias f4 [12]
000000 3b ba 28 b6 ff 9c 05 bc b9 d0 48 b8 02 cd b0 b3
       -2.5142351e-06 -0.008155107 -4.7878104e-05 -8.2329294e-08
000010 d4 a5 f4 3b 59 fb ca 39 4d 25 11 ba 48 7e c6 3c
       0.0074660573 0.0003871571 -0.0005536869 0.024230137
000020 7e 07 c8 3b 82 d9 9d 3c b3 d0 d1 bb c8 f0 89 3c
       0.0061044088 0.019268755 -0.0064030527 0.016838446

down_convs.2.conv2.weight f4 [12, 12, 3, 3, 3]
000000 d6 00 82 be 96 54 dc be 63 76 b1 be ca 18 f1 3d
       -0.25391263 -0.43033284 -0.34660634 0.11772306
000010 58 da 19 3e 9c 0e 65 be 09 79 d4 3b 5d 15 57 bd
       0.15024698 -0.22368854 0.006484155 -0.052510608
000020 ff b7 57 3e 0e 75 26 3d 0e 73 a3 3d 1c 3c 00 3d
       0.21066283 0.040638976 0.07980929 0.031307325
000030 e4 5b 11 3d d0 2d 6a 3e 9d 8c a2 3d a3 f7 80 3b
       0.035488024 0.22869039 0.07936976 0.0039357706
000040 e0 91 3b be a7 fb 9e 3d d0 e4 8e 3e ea 9c 8b 3e
       -0.18317366 0.077628426 0.27908945 0.27268153
000050 f0 2d fe 3c 8b 82 0c 3e e4 ff b2 3e d8 e4 ff 3e
       0.031027764 0.13721673 0.34960854 0.4997928
000060 5b 33 82 3e a7 f3 cc bd 1a 4c 20 3d c1 7a a8 bf
       0.25429806 -0.100074105 0.039135076 -1.3162462
000070 78 b3 be 3f f8 fd 84 3f 02 e4 ad bf 0e 69 8e 3e
       1.489852 1.0390005 -1.3585207 0.27814525
000080 0b 1b 81 3f 66 4b 46 3f 2a e3 15 40 e7 53 21 40
       1.0086378 0.774588 2.34199 2.520746
000090 38 83 c5 3e a9 56 8a 40 65 c2 77 40 62 37 5e bf
       0.38576674 4.3230786 3.87124 -0.8680326
0000a0 40 89 8e 3f 8a fd 8f 3f 2b 38 a6 3f 7b da fb 3f
       1.1135635 1.1249249 1.2985891 1.967605
0000b0 18 4a 01 40 23 7d a9 be 47 3b 86 40 e2 12 fd 3f
       2.0201473 -0.33103284 4.194736 1.9771388
0000c0 a9 e6 7f bd db e6 e2 3f d7 15 0f bf 1c 39 9b be
       -0.062475834 1.7726701 -0.558927 -0.30317008
0000d0 5b 09 c6 3f f4 9d 50 bf 04 ec a8 3e ca 87 98 3e
       1.5471605 -0.8149102 0.32992566 0.297911
0000e0 b9 fe 4b 3e 9b da 9f be 14 0d 21 be 5a f7 56 be
       0.19921388 -0.3122147 -0.15727645 -0.20992795
0000f0 5b 90 d7 be 3f f8 06 bf d3 fc ce be 8b c0 86 3e
       -0.42102322 -0.52722543 -0.40427265 0.26318774
000100 85 25 de 3e a9 b6 a7 3e 27 2c 2d be 0f 1b 26 be
       0.43388 0.32756546 -0.16911374 -0.1622126
000110 e9 75 3c be a3 6a 0d bf 8a 42 e2 be b7 e3 9d be
       -0.18404354 -0.5524084 -0.4419139 -0.30837795
000120 8c 89 89 3d fc f1 71 3e 36 8b 76 3e 28 b8 3c 3e
       0.06715688 0.23627466 0.24076542 0.18429625
000130 e5 d8 89 3c 8b 0b 9b 3d a1 5e 02 bf d8 45 f2 be
       0.016827056 0.07570561 -0.5092564 -0.47318912
000140 5b 6a af be 06 5c cd bd ba 6d 3d be 23 bb 1b be
       -0.3426083 -0.10027318 -0.18498889 -0.15208106
000150 54 29 e4 bc 57 81 6c bd 01 b8 64 bd 21 05 38 3c
       -0.027851738 -0.057740536 -0.055839542 0.011231692
000160 f0 64 40 bd 88 bd 5a bc 48 33 34 3c d0 f5 47 bd
       -0.04697126 -0.013350852 0.0109985545 -0.04881841
000170 e0 08 c6 3d d0 9b 55 3d ad 60 96 bd 22 cf 32 bd
       0.096696615 0.052150548 -0.07342658 -0.04365457
000180 60 bb 2f be 5e 3b 20 be df b2 35 bb 74 a2 9f bd
       -0.17161322 -0.15647647 -0.0027725024 -0.07794657
000190 b3 bb 80 bd 01 9f 16 be ad 8a cf bd 83 84 c1 3d
       -0.06285801 -0.14709093 -0.10133872 0.09449103
0001a0 ad 60 8d 3b c1 db bf bd af 08 14 bc e9 d2 de 3d
       0.004314503 -0.093680866 -0.009035273 0.10880072
0001b0 c5 a3 ae bf 6c 9d 1f c0 9b 6c db be 04 3b 1d c0
       -1.3643728 -2.4939833 -0.42856297 -2.456727
0001c0 93 ac 0e c0 41 54 f3 bf 0f 60 4b c0 38 a8 b9 be
       -2.229283 -1.9010087 -3.177738 -0.36261153
0001d0 46 af 44 bf b6 50 d0 bf 0a 18 94 bf 73 c2 85 3d
       -0.76829946 -1.6274631 -1.1569836 0.06531229
0001e0 d6 7a 21 c0 4b 26 ab be 12 bb b2 bf 71 07 51 bf
       -2.5231223 -0.33427653 -1.3963339 -0.8165198
0001f0 1a 34 3d 40 96 06 80 3f 9c ba fd bd 43 b7 b6 3e
       2.956305 1.000201 -0.123891085 0.35686693
000200 4a 0f 76 3f 86 a2 4f c0 19 6b cb bf 1e 99 22 c0
       0.9611708 -3.2442946 -1.5892059 -2.5405955
000210 8d 0b d0 bf 76 d0 43 3f 08 01 a2 bf 1b 35 15 be
       -1.6253525 0.7648996 -1.2656565 -0.1457104
000220 9c 92 9c 3e 1e 28 ab bf d5 ed 19 c0 13 70 8a bf
       0.30580604 -1.3371618 -2.405141 -1.0815452
000230 d0 f7 f7 bf 36 54 43 c0 6d a2 e1 bf 3d b1 14 c0
       -1.9372501 -3.0520148 -1.7627693 -2.3233178
000240 22 d4 0d 3f 95 9b 0b bd 9c 49 ac be 6a 4b 66 bf
       0.55401814 -0.03408392 -0.3364991 -0.8995882
000250 07 08 a7 3e 7d ef bb be 53 f6 d9 bf cf 27 90 3f
       0.32623312 -0.36706153 -1.7028297 1.1262149
000260 c9 80 47 bf 44 c8 70 be ab b6 82 be e7 aa 82 be
       -0.77930886 -0.23513895 -0.2552999 -0.25521013
000270 26 0b ae bf a5 8b 08 be 95 13 a7 3e d9 a5 12 c0
       -1.3597152 -0.1333452 0.32632127 -2.2913725
000280 15 45 47 bf 2b c5 cf bd ff d9 07 c0 da dc bf bf
       -0.77839786 -0.10145029 -2.1226804 -1.4989274
000290 90 3f e1 be d9 f8 42 c0 b4 07 11 bf 1d ce a9 bf
       -0.43993807 -3.0464385 -0.5665238 -1.3266026
0002a0 4d 69 97 bf c4 ea 67 bf 52 2d 35 be 4c af d7 bf
       -1.182901 -0.905926 -0.1769307 -1.6850371
0002b0 aa 9b 90 bf 4b 00 8b 3f 2a b8 ea bf 62 c3 3a 40
       -1.1297505 1.0859464 -1.8337452 2.9181752
0002c0 f5 4b c6 3f 4b ba 85 3e c3 2b a7 3f 22 84 2c 3f
       1.549193 0.26118693 1.306023 0.6738912
0002d0 2c 33 ee bf 10 c6 a6 be 09 83 e9 3f f5 66 1f c0
       -1.8609366 -0.32572985 1.8243114 -2.490659
0002e0 fd 39 e2 3e b8 72 93 3e 74 39 f7 3e 94 60 be 3e
       0.44184867 0.2879846 0.4828602 0.37183058
0002f0 aa d8 1a bf 75 37 8f 40 f2 ce 7d 40 76 64 6b 40
       -0.60486853 4.4755197 3.965756 3.6780066
000300 e8 ec 45 c0 44 78 fc bf f9 66 02 c0 49 a6 88 3f
       -3.0925846 -1.9724202 -2.037535 1.0675746
000310 f0 e3 89 3f 3b b8 81 3f 36 d4 77 40 89 15 4d 40
       1.0772686 1.0134348 3.8723273 3.2044394
000320 5d a1 41 40 09 df 1b c0 ec fb 4e 3e 8c fb 7d bd
       3.0254738 -2.435488 0.20213288 -0.062007472
000330 0a 6a 54 3f 0a 7c c6 3f ea 9f ec 3e 92 71 5d 40
       0.829743 1.5506604 0.46215755 3.4600568
000340 01 ca 3b 40 0a 70 2d 40 fd a2 07 c0 45 d0 a5 3f
       2.9342043 2.7099633 -2.119323 1.2954184
000350 7e eb 7c 3e 56 03 36 bf 1f 27 97 be 3a 62 81 bf
       0.24699208 -0.7109884 -0.29522035 -1.0108101
000360 55 6b 0a c0 2e 97 0d c0 8b 2f 76 be cd 80 cb be
       -2.162801 -2.2123523 -0.24041574 -0.39746705
000370 3a e9 a9 be 47 5a 93 be 60 6f c1 3f fb 7c ac 3f
       -0.3318575 -0.28779814 1.5112114 1.3475641
000380 93 5f 8e 3e f2 ce e0 bf 9d fd ab 3f 0f be 3f 40
       0.27807292 -1.7563155 1.3436772 2.9959753
000390 3b 10 ae bf 83 f3 c9 3f 1f 80 39 3f f5 79 a3 3f
       -1.3598703 1.5777439 0.7246112 1.2771593
0003a0 f8 e7 9d 40 79 b5 eb 3f 6b 00 44 bf 7a f3 34 40
       4.9345665 1.8414756 -0.7656314 2.8273606
0003b0 dc 3b 65 40 39 28 d0 bf 57 e1 a8 bd a3 6d 16 bf
       3.5817785 -1.6262275 -0.08246105 -0.5876104
0003c0 e9 18 60 3f 66 4d 0c 40 45 0a ff 3d de 53 3d 3f
       0.8753801 2.192224 0.12453131 0.73956096
0003d0 6a 66 9a bf cf 2c e8 bf 8d e7 31 40 78 0d a9 3f
       -1.2062504 -1.8138674 2.7797577 1.3207235
0003e0 c2 23 5d 3f fc 78 0a 3d bc 69 37 3e 5e 7b e3 be
       0.8638269 0.033806786 0.17911428 -0.4443006
0003f0 a6 ef e9 be 71 16 df be f9 74 fd bf fb 3f 8f 3f
       -0.4569065 -0.4357181 -1.9801322 1.11914

down_convs.2.conv2.bias f4 [12]
000000 a7 1c 45 3b 0a 8d 34 3c 69 fe 9e bc 41 53 66 b7
       0.0030076893 0.011019954 -0.019408422 -1.3728452e-05
000010 32 eb 49 b3 cb 9b 95 3c bf 30 a0 3b e4 b4 37 33
       -4.701287e-08 0.018262764 0.0048886235 4.2772527e-08
000020 04 d4 51 3c a1 3b 55 bb 80 e9 12 3c 5e 7a 96 bd
       0.012806896 -0.0032536762 0.008966804 -0.073475584

down_convs.2.norm0.weight f4 [12]
000000 fd f0 b1 3e e0 ca fd 3f 74 64 4e bd 3d b0 87 3e
       0.34754172 1.9827538 -0.05038877 0.26501647
000010 e5 e6 d1 3f 71 38 9e 40 f5 62 92 40 d0 0c ad 3f
       1.6398588 4.94439 4.5745797 1.3519535
000020 89 18 84 3f b8 72 8b 3f a7 9a e4 3f 4d 74 1f 40
       1.0319988 1.0894384 1.7859696 2.4914734

down_convs.2.norm0.bias f4 [12]
000000 9a c3 5f bf ca 1a 09 c0 20 22 83 bf 1e b4 1d bf
       -0.8740784 -2.14226 -1.0244789 -0.6160296
000010 f2 eb 34 c0 29 77 9c 3f bb b5 2a 3f 70 d5 40 3f
       -2.826901 1.2223865 0.6668355 0.7532568
000020 10 0c 81 c0 69 06 0d 3f 3e b7 2c c0 21 a6 c8 bf
       -4.0327225 0.55087906 -2.6986842 -1.5675699

down_convs.2.norm0.running_mean f4 [12]
000000 3f 72 1e 42 95 c5 37 c3 bd 7c e6 42 cb d5 cf c1
       39.61157 -183.7718 115.24363 -25.979391
000010 bc 53 a1 c3 cc f6 32 43 06 fb 3a c2 da e8 da c2
       -322.65417 178.96405 -46.74514 -109.45479
000020 f9 05 47 c3 f9 76 27 c3 27 4c c5 c3 d8 b7 28 c3
       -199.02333 -167.46474 -394.59494 -168.71814

down_convs.2.norm0.running_var f4 [12]
000000 c3 dc 98 44 f3 40 71 45 1e db 8a 44 2c 5f 40 43
       1222.8988 3860.0593 1110.8474 192.37177
000010 7e e6 0e 46 6d 7a 38 46 4a 0b c4 45 cc de 6d 45
       9145.623 11806.606 6273.411 3805.9248
000020 23 ec f2 45 a4 67 31 45 9e d3 3a 46 86 82 d6 45
       7773.517 2838.4775 11956.904 6864.3154

down_convs.2.norm1.weight f4 [12]
000000 4f 5d b4 3f 7d c9 12 40 82 ef 1c 40 fb c5 8c 3e
       1.4090976 2.2935479 2.4521184 0.27494797
000010 82 d2 00 3e d3 a8 bf 3f 35 58 8c 40 64 06 36 3e
       0.12580302 1.4973396 4.3857675 0.17775875
000020 40 cc fe 3f 64 6f f2 3f 6a 6a 27 40 08 f6 b1 40
       1.9906082 1.8940244 2.61587 5.561283

down_convs.2.norm1.bias f4 [12]
000000 80 73 fa bf f1 90 99 bd 8c 40 a9 bf eb f7 4f bf
       -1.9566498 -0.074983485 -1.3222823 -0.8123767
000010 d3 bf 48 bf 6b 21 75 3f e1 1d e0 bf 1f e2 8c bf
       -0.784177 0.95754117 -1.7509118 -1.1006507
000020 36 4c 3d bf f4 0a 10 c0 e3 6f 9b bf 0a 09 3c 3f
       -0.73944414 -2.2506685 -1.214352 0.7345129

down_convs.2.norm1.running_mean f4 [12]
000000 48 d2 cc c1 71 88 6f c3 5d 25 e8 42 0a bb 16 c1
       -25.602676 -239.53297 116.072975 -9.420664
000010 8d d2 5e c1 99 75 60 c2 e7 e6 8d c1 50 41 d1 bf
       -13.926404 -56.11484 -17.737745 -1.6348057
000020 4f 0e aa c2 35 ef 32 42 f8 9f 1a c3 b3 b6 58 c2
       -85.02795 44.7336 -154.62488 -54.178417

down_convs.2.norm1.running_var f4 [12]
000000 d7 62 92 45 1f 2f 96 46 63 26 ca 45 57 66 0e 45
       4684.355 19223.56 6468.7983 2278.3962
000010 36 73 ad 43 18 de fb 45 80 ee bb 45 1e 73 89 44
       346.9001 8059.7617 6013.8125 1099.5974
000020 b2 6b ec 45 8d c3 18 45 0e a8 71 45 41 7c 4e 46
       7565.462 2444.222 3866.5034 13215.063

down_convs.3.conv1.weight f4 [24, 12, 3, 3, 3]
000000 48 1c 0e bf da 4b 0b bf 7e 41 de be 87 b0 0b bf
       -0.55511904 -0.54412615 -0.43409342 -0.54566234
000010 c8 a4 1c bf a6 51 00 bf 4c b4 0b bf aa bc 11 bf
       -0.61188936 -0.50124586 -0.54571986 -0.56928504
000020 c2 2a 08 bf e5 40 a9 be 27 1d 08 bf f8 4a e2 be
       -0.53190243 -0.33057323 -0.5316948 -0.44197822
000030 fb bd d0 be b5 4b 0e bf cc 06 1a bf 14 95 11 bf
       -0.40769944 -0.5558427 -0.6016662 -0.568681
000040 72 cd 06 bf 2c 9e 04 bf 6c e7 8e be a0 a1 ac be
       -0.52657235 -0.5180385 -0.27910936 -0.3371706
000050 13 b7 db be db 47 ab be 20 2e f1 be ce d5 f8 be
       -0.42913112 -0.3345326 -0.47105503 -0.4860062
000060 e3 07 d6 be d1 1b 01 bf ea ea ed be c1 73 19 3e
       -0.41802892 -0.5043307 -0.46468288 0.14985563
000070 18 ba 67 3e 5a b2 a1 be b1 da d2 3d f9 81 cb 3d
       0.22629583 -0.31581384 0.10295618 0.099369
000080 70 5e 08 3e 41 07 2a 3e 3a 31 13 3e 42 ff af 3d
       0.13317275 0.1660433 0.14374247 0.085936084
000090 9b 05 93 3e d1 3f 2a 3e b2 aa 71 3d 9a 0a 10 3e
       0.28715214 0.16625907 0.05900068 0.14066544
0000a0 58 27 4d bc 68 9e eb 3c 85 ad f9 3d 0c de 3d 3d
       -0.012521587 0.028762057 0.12191299 0.04635434
0000b0 21 b1 20 3d ad d5 5a bc e0 e9 65 3e 0e e6 9d be
       0.039231423 -0.013356608 0.22452497 -0.3083958
0000c0 a4 69 9f 3e 47 51 20 3e af ff dc bd 1d fa 91 3d
       0.31135285 0.15656005 -0.10790955 0.071277834
0000d0 af f8 8a 3e 4c 16 bf be fa d2 10 bf 41 0a 2f bf
       0.27142856 -0.373217 -0.56571925 -0.6837502
0000e0 87 08 2c bf 14 67 29 bf 69 96 1b bf a3 84 0c bf
       -0.6720051 -0.6617291 -0.6077638 -0.5488989
0000f0 dc f7 1f bf 27 c0 25 bf 95 16 23 bf 24 39 02 bf
       -0.6248758 -0.64746326 -0.6370633 -0.5086844
000100 1d d9 0e bf b2 9e 25 bf 90 57 17 bf 54 e9 23 bf
       -0.5580004 -0.64695275 -0.59117985 -0.64027905
000110 af 42 2b bf 90 d6 08 bf a8 20 10 bf 1a 20 1b bf
       -0.66898626 -0.53452396 -0.5629983 -0.6059586
000120 08 11 81 3e fb 1b e7 be 04 05 ec be 56 5e 0d bf
       0.25208306 -0.45138535 -0.46097577 -0.5522207
000130 1f d1 00 bf 1b c4 14 bf cb b1 00 bf 66 c8 12 bf
       -0.50319093 -0.58111733 -0.5027129 -0.57337034
000140 de 96 14 bf bc 9f 02 be be 83 6f be 66 76 1a be
       -0.58042705 -0.12756246 -0.233901 -0.15084228
000150 fa d2 91 3b b1 5b da bd eb 5e 71 be e0 c1 9a bb
       0.004450199 -0.1066202 -0.23571365 -0.0047228187
000160 9c 95 03 be a7 a3 d1 bd 69 cd cf bd 9d 28 46 be
       -0.1285004 -0.10236292 -0.10146601 -0.1935143
000170 46 15 b0 bd 65 c7 7c bd 63 7f 97 bd f2 46 80 be
       -0.085978076 -0.061713595 -0.07397344 -0.25054127
000180 70 40 79 bd ba 34 47 bd 4e 53 07 be 57 25 4e bc
       -0.060852468 -0.04863427 -0.13215372 -0.012582145
000190 7e 47 6b bd 5e f8 14 be 5c 33 35 bd 88 d9 6a bd
       -0.057441227 -0.1454787 -0.044238433 -0.05733636
0001a0 84 b6 fa bd 09 1b 2e bd 1c 08 d6 bd 94 4a 23 be
       -0.12241843 -0.04250625 -0.104507655 -0.15946418
0001b0 d1 e2 31 bd 1b 5f ae bc 16 e1 b1 bc de 8b 48 3d
       -0.0434292 -0.021285584 -0.021713775 0.048961513
0001c0 1c d7 ba bc cb 20 d9 bc 6d d4 ab 3d 53 04 2a 3d
       -0.02280765 -0.026504895 0.083901264 0.04150803
0001d0 f7 ce e2 bc 39 a4 48 3b 1f f3 d6 bc a3 91 19 bd
       -0.02768658 0.0030615462 -0.026238976 -0.037492406
0001e0 5c f1 87 bd 8d 68 00 3d 78 5a 27 bc 7b d1 79 3b
       -0.066378325 0.031349707 -0.0102144405 0.0038119245
0001f0 8d e7 ae bd 74 1f d4 bd 2b 15 0a 3e 5e 56 54 3d
       -0.085402586 -0.10357562 0.13484637 0.05184018
000200 c8 ff 8d bc e8 0b 94 bc 4f 97 7b bd 64 f4 0d bd
       -0.01733388 -0.018072084 -0.061423596 -0.034656897
000210 34 64 d7 bc ab 3c 9c bd 6d 38 72 bc 88 1a fb be
       -0.026292898 -0.07628759 -0.014783961 -0.4904368
000220 1e 9d ce be 11 fc d8 be 77 be f9 be 44 1b ad be
       -0.40354246 -0.4237981 -0.48778126 -0.33809865
000230 8e 27 0a bf 57 e3 c9 be a8 bd a6 be 5e e2 ee be
       -0.53966606 -0.3943126 -0.3256657 -0.4665708
000240 a6 2a 03 bf e5 31 9b 3d b1 38 01 bf 75 61 70 3d
       -0.5123695 0.07577876 -0.5047713 0.058686692
000250 4f 9f 30 3d 99 f8 98 ba f9 4e bb be 57 7e 77 3e
       0.04312068 -0.0011670768 -0.3658369 0.24169289
000260 e0 7a 50 3b 00 fa ad be c0 e6 b2 be 15 4c ee be
       0.003181152 -0.33979797 -0.34941673 -0.4654242
000270 a1 a1 b7 be 01 4b dc be 89 9a 08 bf e3 1e bf be
       -0.358655 -0.43025973 -0.533608 -0.37328252
000280 a8 2d ad be 73 f3 a9 be 58 c0 5f 3e de e7 7b 3e
       -0.33823895 -0.3319355 0.21850717 0.24600169
000290 b5 6e 98 3d 0e 20 ca bb 5a 42 3a 3d 45 f6 9f bd
       0.07442991 -0.006168372 0.045473434 -0.07810644
0002a0 da 31 ed be 5f 4f ec be e4 61 20 bf df be 87 3e
       -0.46327096 -0.46154305 -0.6264937 0.2651281
0002b0 2f 94 79 3e 5b ed e6 3d 99 9b 74 3d 3f ac 0c 3e
       0.24372934 0.11275741 0.059718702 0.13737582
0002c0 44 0b ce 3d ca 40 fa be bf 02 0c bf 7a f8 05 bf
       0.100607425 -0.48877555 -0.5469169 -0.5233227
0002d0 a4 fd 8b 3e a1 a3 8c 3e a2 6f 45 3e d6 fc 0e 3e
       0.2734195 0.2746859 0.19280866 0.13963637
0002e0 26 2a 07 3e fd d9 ba bc bd a1 0b bf 76 65 0b bf
       0.13199672 -0.022809023 -0.5454367 -0.5445169
0002f0 4f 78 17 bf cb 3d e6 bc b0 b4 62 bd 0c e9 7e 3c
       -0.5916795 -0.028105637 -0.0553481 0.015558492
000300 0a f2 9d 3c 1e 54 97 bd b2 87 ea bd d6 27 a6 bc
       0.019280452 -0.07389091 -0.11451663 -0.020282667
000310 05 74 41 3d 30 0c 60 bd 5c 57 93 bd 45 ec c8 bc
       0.047229785 -0.054699123 -0.07194397 -0.024526725
000320 7a c2 34 3c eb a4 12 3c ac 6d 8f 3c e1 7a e3 bd
       0.011032695 0.008950452 0.01750835 -0.11107422
000330 a4 eb ef bb 92 71 ad bd a5 93 20 3d 91 f4 37 3d
       -0.0073217917 -0.084689274 0.039203305 0.04491097
000340 87 65 7b bd fe 71 18 bd 70 9c ab bd e3 a5 c5 bb
       -0.06137612 -0.037218086 -0.083794475 -0.006031738
000350 b0 66 67 bd cc 82 57 3d 6a 5b 4f 3c 83 16 73 bd
       -0.056494415 0.052614972 0.012656072 -0.05934764
000360 81 91 0c bf 36 44 fe be cf 2b ef be 90 e1 0e bf
       -0.5490952 -0.49661416 -0.4671311 -0.5581293
000370 9c 70 08 bf 8f 8e 2b bf 7e 52 e3 be ba 36 eb be
       -0.5329683 -0.670144 -0.44398874 -0.4594019
000380 bd db 0d bf a3 a4 05 3c 04 9d a0 be 01 a0 00 bf
       -0.5541342 0.008156928 -0.31369793 -0.50244147
000390 37 22 f2 3c 52 fe 78 bc b5 a5 21 bf f6 d1 d9 3d
       0.02955733 -0.015197353 -0.63143474 0.1063575
0003a0 87 4d ac 3c 91 78 c6 be 65 88 31 be 62 91 9d be
       0.021033062 -0.3876386 -0.17337187 -0.3077498
0003b0 c9 30 b6 be f3 c8 6a be 35 ef cd be 07 a2 04 bf
       -0.35584095 -0.22928219 -0.40221563 -0.51809734
0003c0 75 f0 8a be cd 32 92 be 97 5e e6 be 8f f4 c6 be
       -0.2713658 -0.28554383 -0.4499404 -0.38858458
0003d0 b6 dc fb be d7 2f 23 bf 91 c6 0c bf ec 0c 2e bf
       -0.49191827 -0.6374487 -0.5499049 -0.6798847
0003e0 4e ac 15 bf 40 73 f1 be 47 b8 21 bf 4a 78 11 bf
       -0.5846604 -0.4715824 -0.6317181 -0.5682417
0003f0 f7 02 b5 be 5c c1 cf be bd b4 12 bf d8 49 ef be
       -0.35353824 -0.4057721 -0.57307035 -0.46736026

down_convs.3.conv1.bias f4 [24]
000000 09 b2 2f 35 f4 23 0b 39 0b 90 82 34 8a 13 61 b4
       6.5451655e-07 0.00013269467 2.4319192e-07 -2.0961866e-07
000010 d2 d1 0e b8 e1 86 cf b0 eb bd a0 33 27 0b ae 3b
       -3.405085e-05 -1.5099567e-09 7.4851265e-08 0.005311388
000020 68 1b a2 34 ba e4 13 35 2d 5c 88 b6 8d fa 93 b7
       3.0194792e-07 5.509461e-07 -4.0638465e-06 -1.7640437e-05
000030 97 ba 92 b0 fa e1 bd 35 e0 c2 cb 3a 0b f9 ae b4
       -1.067593e-09 1.4147365e-06 0.0015545748 -3.2591228e-07
000040 1f b1 d2 ba 02 37 14 3a 86 6f 1b b2 ca 42 19 34
       -0.0016074515 0.0005653949 -9.047545e-09 1.4273533e-07
000050 26 43 0a 34 4c ee 3b 3b 1e 4e 9b 3b 00 62 24 3b
       1.287668e-07 0.0028675972 0.004739537 0.0025082827
