outputs/outputs_new_diff_mask_2/epoch_150_model.pth (torch, 695315 bytes, 241 tensors)

down_convs.0.conv1.weight f4 [3, 1, 3, 3, 3]
00000000: e2ef 9e3f 2046 78bf 7589 763e d821 123f
00000010: c562 a03f 757f 4c40 633f fc3f f9be 593f
00000020: ae59 093f 9991 fdbe d698 60c0 cdb7 08c0
00000030: 8e4e 53bf 4540 93bf 2da8 e53f a21b 1e40
00000040: ac35 913f fb6f 643f 98f5 993f 9921 4bbf
00000050: 1502 773e b6cf 693e a921 183f 2962 2540
00000060: 40a2 983f cf62 c8bd 60f1 3dbe e06b b0bf
00000070: a290 ad3f 48a0 02c0 d6f3 c3bf 0f44 763f
00000080: 5267 71bf 161d b6bf 09de a83f 6e28 14bf
00000090: 45c0 ac3f e485 a740 e750 6d40 11c9 51be
000000a0: 2e2d 1b3d 22c1 fd3f 3102 b63f bc59 ad3f
000000b0: 2333 183f 0dc5 dfbf dca1 4b40 75b8 393e
000000c0: ca6a d6bf 2220 f73e 43a1 ecbf 62ce a0be
000000d0: ce1a 913f 55e4 8ebf f029 583f c045 b2bf
000000e0: f731 d63f 5cee 2dbf 2780 9a3e dcec b5bf
000000f0: f42c e4be 7b0d 27bf 032b 30bf f0df 50c0
00000100: 6640 e3c0 4b3a d7bf d27b b63f ade9 8040
00000110: 41c1 953f eb89 47bf dd9e 7bbf 167c d3be
00000120: f717 e1bf 2035 85c0 8e13 83be f75a 01bd
00000130: 5bd1 ed3f 00ee 0dbf 5a41 94bf 0fb5 64bf
00000140: aad9 93be
1.2416956 -0.96982 0.24075873 0.5708289 1.2530142 3.1952794 1.9706844 0.85057026
0.53652465 -0.49525145 -3.5093284 -2.1362183 -0.8254174 -1.1503989 1.7941948 2.4704366
1.1344504 0.8923337 1.2028074 -0.7934814 0.24121888 0.22833142 0.5942636 2.5841162
1.1924515 -0.09784471 -0.18549109 -1.3782921 1.3559763 -2.0410328 -1.5308788 0.961976
-0.9429828 -1.4227626 1.319276 -0.5787419 1.3496176 5.235094 3.708063 -0.20486857
0.037884884 1.9824564 1.4219419 1.354301 0.5945303 -1.748201 3.181754 0.18136771
-1.675134 0.48266703 -1.8486713 -0.31407458 1.1336305 -1.1163431 0.8443899 -1.3927536
1.6733998 -0.6794183 0.30175897 -1.4212909 -0.44565547 -0.65254945 -0.6881563 -3.263668
-7.101611 -1.6814665 1.4256537 4.028525 1.1699601 -0.7794482 -0.9828928 -0.41305608
-1.7585438 -4.162735 -0.25600857 -0.03158089 1.8579515 -0.55441284 -1.1582444 -0.89338773
-0.28877002

down_convs.0.conv1.bias f4 [3]
00000000: 4966 febd fca5 a7bd 8fc7 77bc
-0.12421853 -0.08185956 -0.015123262

down_convs.0.conv2.weight f4 [3, 3, 3, 3, 3]
00000000: e74f 18c0 ecb4 94bf 191c 5ac0 0f45 3f3f
00000010: a033 993f d0d5 8a3f d83f 87be 3b90 4ebf
00000020: 2e2f 0d3e 1e43 c9bf bde7 4dbf 334a 1dc0
00000030: 8ea3 43bf 5c01 9dc0 648c 31c0 a552 853e
00000040: 8433 5f3f b325 913f a47a 21c0 e8dc 9dbf
00000050: ccac 7bc0 a8d6 29bf b74b 89c0 a9e4 0dc0
00000060: db5a f63e bb7d b63f 0a87 d73f 9377 3e3f
00000070: a68d b33f ce32 1d3f 528b f43e 7c6f f2bd
00000080: 0eff 18c0 9dca 75bf 914e c23e aad8 623f
00000090: 58e8 fd3f 8838 1e40 39b0 063f 23e3 0fbf
000000a0: 1355 953f 1625 b7be b3b2 e4be 3d40 edbf
000000b0: 32a5 d8bf b18c a43f e66b dc3f f4dd a83e
000000c0: 74cd f1bf ea70 11bf c6bc 41bf bf86 4e3f
000000d0: 7156 16c0 19b9 fabf 742a 55c0 16bc b2bf
000000e0: 428b a7bf b19a 6cc0 f0e3 90c0 afa0 89c0
000000f0: 7d62 a3be 276c f7bf 553f e1bf 0b97 a1bf
00000100: 58bb 68be ffe7 7abe 6ae2 78c0 985a 8bc0
00000110: 12d6 3cc0 30c8 63bf 1db7 aebf 6926 f8bf
00000120: 1286 adbf 96dc 5c3d fd8e 96be d6f2 63c0
00000130: 39e4 1ec0 090a e6bf 0221 a5bd 60b4 27bf
00000140: bab0 4cbf 4617 b63e 8d24 cf3e 0546 4a3f
00000150: 2873 0dbf 5c53 32be 98c7 1dbf 04d4 88bf
00000160: fa4d 09be d4dc 0fbe c53b bb3f b401 6a3f
00000170: bce5 e03f 6534 783d 7218 ebbd 4e80 5bbe
00000180: 2a69 64bf 8165 273d 8db9 8f3f 12c8 a93f
00000190: e056 db3f 5adc f73f 33c0 17bf 8c60 0a3e
000001a0: f36d 56bf 23e2 a3bf dbcf c43e 451d 7f3f
000001b0: bc5e dbbd b7ca c7bf faed 88be 8233 a33f
000001c0: eeae f2be b6eb 1d3e 0acf 51bf 78c6 ef3d
000001d0: 805c 913f 5048 07c0 0f21 15c0 4990 4ec0
000001e0: 5f29 97be 6862 cbbf 15d1 03c0 5577 623b
000001f0: f681 7640 a83b 2d40 6ee7 8ebf e01d 4bc0
00000200: d177 ecbf 61f4 773f 848d c2bf 79fd 86bd
00000210: fda0 a33e 61ef e83f 947b 3340 347d 353f
00000220: 11ba 0c40 7b27 b43f a63b 9b3f 287f e03e
00000230: de9b 2c3f e767 3dbf 0456 1ac0 3895 f9bf
00000240: 8379 e63f 5462 7640 0681 4940 ad48 733f
00000250: a466 3bbf fbcd 19be b566 fabf 66e7 83c0
00000260: 6c2d 5ac0 a8a1 4d3f f93e 4440 8a05 2840
00000270: 1c84 703f 156e 9b3e d586 543f fff3 0dbf
00000280: 0c53 33c0 e96a 14c0 e4f9 a73f 6846 853f
00000290: d4b9 e43e 91fb 1f40 9f64 dd3f ffdb 7a40
000002a0: 4be9 1dbf 9f22 583f 0384 8c3f 2f38 5c3f
000002b0: 7d8b 9ebd 13f7 6a3d 1991 2abe caff 63c0
000002c0: 5fb6 753f 5407 ce3e b61e a53f f56f 4c40
000002d0: 37bd 4f3f e327 f93e 7d1d 19be 12ed 873f
000002e0: 75ec 763e 77fc 0440 c2f0 9a3f bd6a 0240
000002f0: 6f13 1040 ac2b 0240 ef11 203f 3220 863f
00000300: f672 e23e f0bd e639 5886 2d40 0da7 3740
00000310: 38aa b7bf 74f9 343f a1c9 633f 844c 063e
00000320: 451a 2ebf 58fa edbf 3a01 b13e 8774 013f
00000330: bd72 943f ab44 be3e de96 3ac0 122c e23f
00000340: 477f 40be 267e 6c3f b252 32be 7b71 9fbf
00000350: cbcb b93f c8d8 5340 d561 26bf ac23 0440
00000360: da46 29c0 8b43 fbbf 4b3f 9bbf 710a 3dbf
00000370: 0a7c 8dbf 7882 d73e 92fa cd3f d42b a73d
00000380: cc83 833f 6b59 07c0 bd52 62bf f353 59bf
00000390: 2aa4 59bf d738 2bbf 674b e93e 3f45 a03f
000003a0: 14bd 89be 0103 de3e 3753 78bf 7631 1cbf
000003b0: 61be 25bf e212 493f 1524 833f 062d c83f
000003c0: 2688 1140 edd3 b93f 4042 1a40
-2.3798769 -1.1617713 -3.407965 0.7471475 1.196888 1.08465 -0.26415896 -0.8068883
0.13787529 -1.5723608 -0.8043173 -2.4576538 -0.7642144 -4.906416 -2.7741938 0.26039615
0.8718798 1.133963 -2.5231104 -1.233304 -3.9324217 -0.66343164 -4.2904925 -2.2170813
0.48116192 1.425712 1.6838086 0.74401206 1.4027603 0.61405647 0.47762543 -0.1183767
-2.3905673 -0.9601229 0.37950566 0.88611853 1.9836531 2.4722004 0.52612644 -0.5620596
1.1666588 -0.35770482 -0.44667587 -1.8535229 -1.6925414 1.2855436 1.7220428 0.32981837
-1.8890824 -0.5681292 -0.7567867 0.80674356 -2.349026 -1.9587737 -3.3307161 -1.3963649
-1.3089373 -3.6969416 -4.5278244 -4.3008647 -0.31911078 -1.932988 -1.7597452 -1.262422
-0.22727716 -0.24502562 -3.8888192 -4.354809 -2.9505658 -0.88977337 -1.3649632 -1.9386722
-1.355654 0.053921305 -0.29405966 -3.5616965 -2.4826796 -1.7971812 -0.08062936 -0.65509605
-0.79957163 0.3556463 0.40457574 0.7901309 -0.5525384 -0.17414612 -0.6163268 -1.0689702
-0.13408652 -0.14049083 1.4627615 0.9140885 1.7570109 0.060596842 -0.11479272 -0.21435663
-0.8922297 0.040868286 1.1228501 1.3264182 1.7135887 1.9364121 -0.5927765 0.13513392
-0.8376152 -1.2803386 0.3843983 0.99654037 -0.107114285 -1.5608739 -0.26744062 1.2750094
-0.47399086 0.15421948 -0.8195654 0.11707777 1.1356354 -2.1137886 -2.3301427 -3.2275565
-0.2952375 -1.5889406 -2.0596364 0.003455599 3.8516822 2.7067661 -1.1164377 -3.1736984
-1.8474065 0.9685727 -1.5199437 -0.06591315 0.31958762 1.8198053 2.8044176 0.7089417
2.1988566 1.4074548 1.2127578 0.43847013 0.67425334 -0.7398667 -2.4115 -1.9498663
1.8005832 3.8497515 3.1485 0.9503277 -0.7320349 -0.15019982 -1.9562594 -4.121997
-3.4090223 0.8032479 3.0663435 2.625338 0.9395158 0.30357423 0.8301824 -0.55450433
-2.8019438 -2.3190253 1.3123136 1.0412111 0.44673026 2.4997294 1.7296332 3.9196775
-0.616841 0.8442783 1.0977787 0.8602323 -0.07741449 0.057364535 -0.16656913 -3.5624871
0.959814 0.40239966 1.2899997 3.1943333 0.81148094 0.48663244 -0.14952655 1.0619223
0.24113639 2.0779092 1.2104723 2.0377648 2.2511861 2.0339155 0.62527364 1.0478575
0.44228333 0.00044010533 2.7113247 2.869571 -1.4348822 0.70693135 0.88979536 0.13115126
-0.68008834 -1.8592024 0.34571248 0.5056843 1.1597515 0.37161765 -2.9154582 1.7669699
-0.18798552 0.9237999 -0.17414358 -1.2456506 1.4515318 3.3101063 -0.6499303 2.0646772
-2.6449494 -1.9629987 -1.212869 -0.7384406 -1.1053479 0.42091727 1.6092093 0.081626564
1.0274596 -2.1148326 -0.884075 -0.8489372 -0.8501612 -0.66883606 0.4556534 1.2521132
-0.26902068 0.43361667 -0.97001976 -0.6101297 -0.6474362 0.7854444 1.0245386 1.563874
2.2739348 1.45178 2.4102936

down_convs.0.conv2.bias f4 [3]
00000000: d6c7 3dc0 3192 c83e 3c99 fd3e
-2.965322 0.39174035 0.4953097

down_convs.0.norm0.weight f4 [3]
00000000: de8d bf3f 960d bd3f da0f db3f
1.496517 1.4769771 1.7114213

down_convs.0.norm0.bias f4 [3]
00000000: 39e6 c6bf 9e19 ac3f e2f1 37c0
-1.5539008 1.3445318 -2.8741384

down_convs.0.norm0.running_mean f4 [3]
00000000: 265e fbbd b6a6 8bbd 36d0 85bc
-0.12273817 -0.06818907 -0.016334634

down_convs.0.norm0.running_var f4 [3]
00000000: eb55 0f43 af2e b742 0a0b 8443
143.33562 91.59118 264.08624

down_convs.0.norm1.weight f4 [3]
00000000: bfc2 2240 25e3 af3f 0902 0640
2.5431364 1.3741194 2.0938742

down_convs.0.norm1.bias f4 [3]
00000000: 5744 2340 5625 9cbf 15b0 bcbf
2.5510461 -1.2198894 -1.4741236

down_convs.0.norm1.running_mean f4 [3]
00000000: 53f9 2cc1 eb5f 10c1 32bc bd41
-10.81087 -9.023417 23.716892

down_convs.0.norm1.running_var f4 [3]
00000000: 3a7f 8f44 e5e9 e343 f41c 4f44
1147.9758 455.8273 828.4524

down_convs.1.conv1.weight f4 [6, 3, 3, 3, 3]
00000000: ccf5 2e3f cf8f dabe 5b43 0a3f 2c38 1640
00000010: 49ce 0a40 d3c1 3940 4308 123f 3b64 2bbf
00000020: 0945 1540 3566 8ebc 11b2 1ec0 5730 51bf
00000030: ac82 df3f 668d e63f 0e0d 0140 f9b2 c1bf
00000040: 6636 6ac0 3e6a 4cbf b3e9 3f3f 2e72 10bf
00000050: 7041 2a3f 8ec5 3840 6acb 1940 8ae2 4040
00000060: 2ee1 e93f 7d5a 2bbf 5c62 793f d082 83bf
00000070: 022e d9be a9c2 cbbe 09e8 0a40 d105 663f
00000080: 018f d23f 4ce4 f23f c8b9 813f c048 853f
00000090: 16e1 29be 37ad 0bbf 6284 b0bd 1042 b53f
000000a0: e2de a7bf bd9c 413e bbe1 f93f 3ebd a23f
000000b0: e81c 2e3f 6d9b 27bf 3843 8dbe 5bdb 39bf
000000c0: 19c6 0a40 fa1b 3d3f 7b70 933f 50d2 1940
000000d0: 8515 b63f 6521 c33f c915 a2bf 3b79 64bd
000000e0: b0be 06bf aa2a d9bf 5d49 053f e47c 84bf
000000f0: e049 12c0 ff5e 083f debf 74bf 11d5 c4be
00000100: eeba 263f c15b be3e 83c5 cf3e 1d13 7740
00000110: 2b53 923f 42c8 043f fb31 e340 81c9 3c40
00000120: fb87 09bf c251 023f 1c32 b93e 2d30 f4be
00000130: a886 e93f d9cc 053f d2a0 b2bf 4b25 4540
00000140: 313c a73f 99d6 e5bd 11db 20be 120b 3fbe
00000150: 4232 c0bc 5275 0dbd 0a68 dbbd f52c 1a3c
00000160: 7f67 98bd 2391 8fbd 38f4 5fbd 4e5d 363c
00000170: e7cd 3ebc 691b dbbd d2bb 30be facc 87bd
00000180: 91f0 17bd 7fc6 babb 146a 573d f8fc 02be
00000190: f9df 003e 514d acbd 9943 023c 3494 78bd
000001a0: c1e4 7f3b cecf d93d fa7e 6e3d 9b30 8ebc
000001b0: 75f3 8dbe 9a2d 34be cd72 053d 922f 98be
000001c0: e7bf e2bc 4034 bfbd 6375 bcbe 9034 9abe
000001d0: 6e25 77be 56f8 cc3c afc3 68be 709e b5bd
000001e0: b7a7 4cbe b91e b1be e7cb e4bd bd5c e6be
000001f0: aacd cbbe 3ec9 ccbe 893d 77be bf58 10be
00000200: f10b 933e 30cb a5be a221 04be ae48 a0be
00000210: b957 c1bd afcb 64be 1678 19be 6e8e 4f3d
00000220: 8c4f 57bc 4fa2 2e3e a643 eebe 0c76 19bf
00000230: a41c eebe eca7 17bf 06d4 15bf 10ac fbbe
00000240: f050 4bbe fbe7 65be 6373 23bd 8660 cebe
00000250: fb0f 1fbf 2983 1ebf 176a 48bf 0e11 3fbf
00000260: 26e6 55bf 3dc5 97be fcd2 a9be a23a fbbd
00000270: 0ffb 37bf cf06 1abf 144d 41bf b9ee 2abf
00000280: addf 7abf 8969 58bf 4c16 00be d7e2 6c3d
00000290: 0550 67bc e9d1 823c 1ce8 c4bc 71d3 0abe
000002a0: 98b5 58be fbba 2fbd 52b6 4bbe e63b b5bd
000002b0: e0da ca3d e6c6 a4bd bfa0 24be cf1b 273d
000002c0: 3cf3 ffbd a33f fb3c d1af 95bc 3b5a e7bd
000002d0: 8db9 4ebe e1fe 42bd 0e3b 0cbb 07ce 19be
000002e0: 3cdf 1a3e a272 e7bd 9413 a63c facb 4a3b
000002f0: 9cdf 1ebd 63c8 9ebe bbf1 15bd 49a5 493d
00000300: f421 96bc aba4 a93d 8318 febd f64d 48be
00000310: f6ed b5bd 4bd5 ffbd b522 1fbc 8c3d dfbb
00000320: 0c79 f3bc 0a5f 9cbd 17e0 5dbe 8ec5 4bbe
00000330: e7fd 30be cc1f cdbc f1ed 143e dd3f 91bd
00000340: 2af2 5a3c d991 473d 4adf 11be ef7d 22bd
00000350: 7061 f7bd 44ce 57be 52a3 17be e270 2cbd
00000360: 7f15 ebbd 365e 8bbe ca1b 1abe 42d5 90be
00000370: 0049 66be 8d67 22be 8f0f d0bd 681d eabe
00000380: 4490 81be 6cbb 45be 666e 4ebe 7be6 91be
00000390: ae88 41be fc64 34be a727 94be 8ef7 7ebe
000003a0: 031f 9abe 956b 8bbe 84b2 88be c0c8 cfbe
000003b0: 9cf7 46be e19f 7bbe 881f c5be 3489 aebe
000003c0: 2785 bebe 0451 56be 890f a2be f1bb 5b3e
000003d0: 1510 3bbe cfcb 823f bbd9 903e 3828 d23d
000003e0: 516c ea3f e884 0740 d907 0dbd d652 1d40
000003f0: b66b c9be 12a4 e7bf ef72 05bd a0aa 6f3c
0.68343806 -0.42687842 0.54009026 2.3471785 2.1688406 2.902455 0.57043856 -0.66949815
2.3323386 -0.01738272 -2.4796183 -0.81714386 1.7461753 1.8011901 2.0164218 -1.5132743
-3.6595702 -0.7984961 0.7496597 -0.56424224 0.665061 2.8870578 2.4030404 3.0138268
1.8271844 -0.6693495 0.9741571 -1.0274296 -0.42417914 -0.3979695 2.1704123 0.89852625
1.6449891 1.8975921 1.0134821 1.0412827 -0.1658977 -0.5456118 -0.08619 1.4160786
-1.3114893 0.18907447 1.9522012 1.2714002 0.6801286 -0.65471536 -0.27590346 -0.72600335
2.168341 0.73870814 1.1518701 2.4034615 1.4225317 1.5244566 -1.2662898 -0.055779677
-0.52634716 -1.6966145 0.5206507 -1.0350614 -2.285759 0.5326995 -0.95605266 -0.38443807
0.6512898 0.37179378 0.40580377 3.8605416 1.1431631 0.5186807 7.099851 2.9497988
-0.53723115 0.50906 0.36171043 -0.47693005 1.8244219 0.522657 -1.3955328 3.0804012
1.3065244 -0.11222572 -0.15708567 -0.18656567 -0.023461465 -0.034535713 -0.10713203 0.009410133
-0.07441615 -0.070101045 -0.054676265 0.011130644 -0.011645771 -0.106985874 -0.17259148 -0.06630893
-0.037094656 -0.005699932 0.0525914 -0.12791812 0.12585439 -0.084131844 0.007950687 -0.060688213
0.003904626 0.10635339 0.058226563 -0.017357161 -0.27724805 -0.1759552 0.032580186 -0.29723793
-0.027679397 -0.09336138 -0.3680831 -0.30118227 -0.24135372 0.02502076 -0.22730897 -0.0886811
-0.19985853 -0.34593752 -0.11171704 -0.4499263 -0.39805347 -0.39997286 -0.24144568 -0.14096354
0.28720048 -0.32381582 -0.12903455 -0.3130545 -0.0944056 -0.22343324 -0.14987215 0.05067294
-0.013141524 0.17054103 -0.46535987 -0.5994575 -0.46506226 -0.59240603 -0.5852665 -0.4915471
-0.19855094 -0.22451775 -0.039904963 -0.40308017 -0.6213376 -0.61918885 -0.7828688 -0.746354
-0.83554304 -0.29642668 -0.3316878 -0.12267043 -0.7186746 -0.6016664 -0.75508237 -0.6677051
-0.9799755 -0.84536034 -0.12508506 0.05783352 -0.014118199 0.015969234 -0.02403646 -0.13557221
-0.21163023 -0.042902928 -0.19893768 -0.08849315 0.09905028 -0.08045749 -0.16076945 0.040798005
-0.12497565 0.030669993 -0.018272312 -0.11296507 -0.2018797 -0.047606353 -0.0021397504 -0.1502
0.1512422 -0.11301161 0.020273007 0.0030944333 -0.03878747 -0.31012258 -0.036607485 0.049229894
-0.018326737 0.08283361 -0.12407019 -0.1956099 -0.08883278 -0.12491854 -0.009712865 -0.006812757
-0.029720806 -0.07635315 -0.21667515 -0.1989958 -0.17284356 -0.025039576 0.14543892 -0.07092259
0.0133634005 0.048723076 -0.14245334 -0.03967088 -0.120791316 -0.21074778 -0.14808396 -0.04209984
-0.114787094 -0.27220315 -0.15049663 -0.28287703 -0.22488785 -0.15859814 -0.101592176 -0.4572556
-0.25305378 -0.19309777 -0.20159301 -0.28496155 -0.18899795 -0.17616647 -0.28936502 -0.24899122
-0.30101785 -0.27230516 -0.26698697 -0.40582848 -0.19430393 -0.24572708 -0.3850062 -0.34089053
-0.37210962 -0.20929343 -0.31652477 0.21458413 -0.18267854 1.0218447 0.28291115 0.10261577
1.8314306 2.117487 -0.034431312 2.458181 -0.3933999 -1.8096945 -0.032580312 0.0146280825

down_convs.1.conv1.bias f4 [6]
00000000: 6b66 b1bb 42e2 4d37 050f 9732 81f6 10bd
00000010: 8d23 b13d d870 ddbb
-0.0054138205 1.2271632e-05 1.7585544e-08 -0.035391334 0.08649359 -0.006757837

down_convs.1.conv2.weight f4 [6, 6, 3, 3, 3]
00000000: 0312 10bf 4c16 aabe 364f 58bf c064 093f
00000010: ea07 b73e a69e 4fbf c642 4840 6074 5f40
00000020: 3323 d53f 7cd9 883c 2da4 7d3e 84f8 65be
00000030: e290 a93f ac87 0dbe fdcc 14bf af6d 8a40
00000040: 5aae e640 1b21 4340 6275 bfbe 4bd3 c63b
00000050: b920 12bf 22d0 0a3e e845 cabe 84dc abbf
00000060: fbe5 1d40 17f8 6040 9043 f23f 291c 74be
00000070: 498b 75be a837 41be 42d1 dabc b168 67bd
00000080: 0153 923c 92ef 1a3d 495c 063d b38b 0d3c
00000090: d0e2 10be 75dd 05be 7118 18be 93a3 c73d
000000a0: 3490 84bd 5a84 473c abba 5abd 313c c3bc
000000b0: 4ebc 483d 83cb 4fbe d555 003c d3c8 19be
000000c0: 7993 a4bd c3ab 57bd 7ee8 34be 4c63 9f3c
000000d0: 509c 0abe 1401 b6bc 826c f4bd 5383 82bd
000000e0: b909 81be 8cdb 97be 461c 83be e8cd 38bc
000000f0: 5ef9 8fbd 6f8d 49be def6 133d b59c 2dbd
00000100: 27d9 14be 39c6 12be 28a5 f4bc ce21 13be
00000110: c8a8 05bd 5117 56be b684 19bd 6fc2 043d
00000120: b3ea cdbd 02d2 efbd c36f 8ebd e157 14bd
00000130: 15bb b3bc b2b6 01bd 9555 ebbd 5df0 18be
00000140: 309a 993d f002 9c3f 5b2c 853f cde8 c53f
00000150: 2fd8 1abf 76f3 863e 9d4d 053f 5c06 983f
00000160: 6861 f93f 329b fa3f 76d9 b83f 609a 2c3f
00000170: d58d be3f 6f8c dd3c 7515 383f ef44 663f
00000180: 7b10 d03f 48ba 1e40 862f 1c40 3c9f a53f
00000190: c0d6 963f acdb dd3f 96c4 3ebe c140 083f
000001a0: 09a0 023f e34a c53f 8c5b 2040 6788 2440
000001b0: 7579 f03d 754c f23d 1302 b33e 3f4c 183f
000001c0: caa8 803f 43bb 9b3e 9c8f b7bf 4ae9 95bf
000001d0: ca07 14c0 44e4 a73e 74c1 88be 176a 063e
000001e0: 99f8 bf3f 9dd5 0c40 2143 ab3f 78d2 3cbf
000001f0: 0c9a 66bf b251 eabf 7d56 8e3f 74e3 413f
00000200: 6bb3 713f 048f 913f cb8b b53f 2a22 fe3e
00000210: 5935 a5bf 59e7 aebf 385e f2bf 2644 cd3f
00000220: 7633 5a3f fae1 f93e f054 7fbf 747f efbf
00000230: 2d7f e7bf b94a f6be 921f 8fbf 0507 91bf
00000240: d11d 463f 6485 e3be f9b1 6cbf 32a8 b7bf
00000250: c7aa 07c0 d731 23c0 7828 81bf 571c 9abf
00000260: d5e2 a5bf 83da 803f ae63 36bf 33b2 aabf
00000270: 6811 3cbf a01b ffbf a6f6 15c0 4690 44bf
00000280: c159 98bf b307 c2bf 592d 12bf a540 3fbf
00000290: 9982 a5be 81f3 213f 0022 163f 0d22 de3e
000002a0: 560a b63e 0c3d b23f 2674 e13e 08fa 31bf
000002b0: 2895 d4bf 5196 dabe da97 1f3f 1f4c 63bd
000002c0: 83ea c73e 7b50 d43f a506 5a40 8187 fc3f
000002d0: 7ed3 10bf 2c88 3abf 9815 75be d3f1 af3f
000002e0: 45f6 813f 5225 443f eeae 313f d5da d93f
000002f0: 6686 173f 63bd 0cbe be0d f3bd 6528 36be
00000300: b7e2 87bd 5b72 cebc ac13 edbd e3fa 933d
00000310: 1007 a6bd 4aed 8abc bba9 36be 177f 07be
00000320: ac06 3ebe c0f4 2f3a b34b 5cbd e726 573c
00000330: 9469 19be a628 e7bd deb9 f2bd 26c3 debd
00000340: cc68 22be 5174 1c3c db87 813c 7d54 4dbb
00000350: 64cc 18be 2897 41bd 23d4 d5bd ddbb 36bd
00000360: ca01 8cbe 39ba 71be 7d4f dabe 063c 7dbe
00000370: 196c 9e3d ae7e cdbd 80ba 97bd c5f2 d6be
00000380: 0244 29bc a527 85be 8be9 cbbd 02b3 21be
00000390: 64d2 95bd 1176 dcbc f12f 3e3b 5ff2 99bd
000003a0: cc7f c6bd b8af 1bbe e1d4 a0be fc7f dcbd
000003b0: 4494 27be 0adf 11be 1ce5 0cbe 3bcb 2bbd
000003c0: 2157 6b3c 8b93 083d df08 f7bd 460e eebf
000003d0: 67a2 18c0 073c 4fc0 5ec3 46bf 1567 6dbf
000003e0: 3e00 8fbf f45b b03e 8450 a3be f1bf 303e
000003f0: aebe 89bf 54ac 2ec0 4032 31c0 90ff ebbe
-0.56277484 -0.33220136 -0.84495866 0.5366936 0.35748225 -0.81101453 3.1290755 3.491478
1.6651367 0.016705267 0.2476966 -0.22458082 1.324734 -0.13821286 -0.5812529 4.325889
7.208783 3.0488956 -0.37394243 0.0060676686 -0.5708118 0.13555959 -0.3950646 -1.3426671
2.467162 3.5151422 1.8926868 -0.23838867 -0.23978914 -0.18868887 -0.02671111 -0.056496326
0.017861845 0.03782613 0.032802854 0.008639264 -0.14149022 -0.1307276 -0.14853074 0.09747996
-0.06472817 0.012177551 -0.053400677 -0.023832412 0.049007706 -0.20292477 0.007832964 -0.15018015
-0.08035941 -0.05265404 -0.17666814 0.019456528 -0.13536191 -0.022217311 -0.11934759 -0.06372704
-0.2520273 -0.29659688 -0.25607508 -0.011279561 -0.07029985 -0.19682859 0.036124103 -0.042385776
-0.14535962 -0.14333428 -0.029863909 -0.14368364 -0.032631665 -0.20907332 -0.03748008 0.03241199
-0.10054531 -0.11709978 -0.069549106 -0.03621662 -0.021939794 -0.031668372 -0.11490933 -0.14935441
0.07500112 1.2188396 1.0404161 1.546167 -0.6048612 0.2635762 0.52071553 1.1876941
1.9482851 1.9578612 1.4441364 0.6742306 1.4887034 0.027044503 0.7190774 0.89948934
1.625503 2.4801197 2.4404006 1.293922 1.1784286 1.7332664 -0.18629679 0.53223807
0.51025444 1.5413479 2.5055876 2.5708253 0.11741916 0.11830989 0.3496252 0.5949134
1.005151 0.30416307 -1.4340701 -1.1711819 -2.3129754 0.3279134 -0.26710093 0.13126408
1.4997741 2.200538 1.3379861 -0.7375865 -0.90078807 -1.8306181 1.1120144 0.7573769
0.94414395 1.137177 1.4183286 0.4963544 -1.2906905 -1.3664352 -1.8935003 1.6036422
0.85234773 0.4880522 -0.9973898 -1.8710771 -1.8085686 -0.48103884 -1.118151 -1.1330267
0.77389246 -0.44437706 -0.92459065 -1.4348204 -2.1197984 -2.549917 -1.0090475 -1.2039899
-1.2959849 1.0066684 -0.7124585 -1.3335632 -0.7346406 -1.9930305 -2.3431792 -0.76782644
-1.1902391 -1.51586 -0.57100445 -0.74708015 -0.323262 0.6326218 0.5864563 0.43385354
0.3555476 1.392488 0.44033927 -0.6952214 -1.6608019 -0.42692807 0.6234108 -0.055492517
0.39046106 1.6587061 3.4066556 1.9728853 -0.5657271 -0.7286403 -0.23934019 1.3745674
1.015328 0.76619446 0.69407547 1.7019907 0.5918945 -0.1374412 -0.118678555 -0.17788847
-0.06635039 -0.025201013 -0.11576018 0.07225587 -0.08106816 -0.016958851 -0.17838185 -0.13232075
-0.18557233 0.0006712191 -0.05378313 0.013131834 -0.14981681 -0.1128705 -0.118518576 -0.10877065
-0.1586029 0.009549216 0.015811851 -0.0031330877 -0.14921719 -0.047263294 -0.104408525 -0.044612754
-0.27345115 -0.23606195 -0.4263877 -0.24729928 0.07735462 -0.10033928 -0.07408619 -0.41982093
-0.010331156 -0.2600681 -0.09956654 -0.15790942 -0.073155195 -0.026911767 0.0029020275 -0.07516932
-0.09692344 -0.1520375 -0.31412414 -0.107665986 -0.16365153 -0.14245239 -0.13759273 -0.041941863
0.014364035 0.033343833 -0.12062239 -1.8598106 -2.3849123 -3.2380388 -0.77641857 -0.92735416
-1.1171949 0.34445155 -0.31897366 0.1726072 -1.0761316 -2.729268 -2.768692 -0.46093416

down_convs.1.conv2.bias f4 [6]
00000000: fa42 233d bd0f 7ebd 0724 9d3c c09e 04bf
00000010: e065 3e3f 4940 543e
0.039858796 -0.062026728 0.019182218 -0.51804733 0.743742 0.20727648

down_convs.1.norm0.weight f4 [6]
00000000: 7041 d43f 50b4 023f 158c 083f fd58 bc3f
00000010: effe 2c40 f7b4 0640
1.658247 0.51056385 0.5333875 1.4714657 2.70306 2.1047952

down_convs.1.norm0.bias f4 [6]
00000000: 7194 bdbf 8032 94be 8364 a9be 0992 1fc0
00000010: 7f3d 5abe 07a4 b1be
-1.4810926 -0.28944778 -0.33084497 -2.4932883 -0.21312521 -0.34695455

down_convs.1.norm0.running_mean f4 [6]
00000000: 9ad1 8b42 255b 2ac1 d935 03c1 ff00 8d42
00000010: def1 a342 33c8 30c3
69.90938 -10.647252 -8.200646 70.501945 81.9724 -176.78203

down_convs.1.norm0.running_var f4 [6]
00000000: 2334 0f45 dc53 4d44 d866 5943 827f 1a45
00000010: b121 e244 2e52 1a45
2291.2585 821.3103 217.40173 2471.9692 1809.0529 2469.1362

down_convs.1.norm1.weight f4 [6]
00000000: 79b4 6d3f 71bd 993f c761 be3f ea67 1b40
00000010: fdb1 f63f fa5a 1140
0.92853504 1.2010938 1.4873589 2.4282174 1.9273068 2.2711778

down_convs.1.norm1.bias f4 [6]
00000000: a9e6 cbbf 5eec 95bf b8a9 31bf 190b 0440
00000010: 96ba 4040 3c9b 733f
-1.5929767 -1.1712759 -0.69399595 2.0631773 3.0113883 0.95158744

down_convs.1.norm1.running_mean f4 [6]
00000000: 2e91 c33e 0e50 5d41 6878 3541 58a5 0cc2
00000010: 9e71 85c1 037a 1140
0.381967 13.832045 11.341896 -35.16147 -16.680477 2.273072

down_convs.1.norm1.running_var f4 [6]
00000000: ca75 5345 afb9 f144 d903 ee44 10db 3646
00000010: 38e4 ac45 5267 c045
3383.3618 1933.8026 1904.1202 11702.766 5532.5273 6156.915

down_convs.2.conv1.weight f4 [12, 6, 3, 3, 3]
00000000: 9294 03bf 0c9a aebe ac0e 8ebe 60c9 c5be
00000010: 6954 83be d355 8abe eb89 21bf 7d55 6fbe
00000020: 7f65 95be c3c9 03bf 40f7 b0be 4ce6 9fbe
00000030: c4ab cdbe f102 c0be 6c9c ccbe 8b81 8ebe
00000040: 1b05 a8be e38c f9bd 60d9 eebe 8d03 d9be
00000050: 502d c1be e69f afbe 886a c8be a3c7 f4be
00000060: 2670 bfbe d4fd ffbe 0868 f8be 557a 07bf
00000070: 2f70 0abf 81eb 05bf 5a74 36bf 5359 ffbe
00000080: c782 d5be a8fa f9be 7e80 e0be ce79 c0be
00000090: 7f6c 36bf 6553 12bf bb4f 08bf 50d8 0abf
000000a0: b66e 32bf 565a e8be 7a09 00bf 0cb4 0dbf
000000b0: d974 5dbe ef40 04bf 69bd c0be bc6a dbbe
000000c0: bdc8 2fbf 2217 1abf 2561 edbe a2de 04bf
000000d0: 1153 efbe 7bdb 86be a5c1 19bf ca60 f7be
000000e0: 07ba c4be bf44 ffbe 8d27 12bf 7421 13bf
000000f0: c6bb 89be dda1 c7be 3581 16bf 0943 f4be
00000100: bbf9 27bf 60d6 06bf 6566 f4be dec9 efbe
00000110: 6428 e6be 4f27 c5be 9dd2 8dbe a748 ebbe
00000120: 5167 bebe 8e1b e0be 9635 8cbe 30e7 06bf
00000130: c50f fbbe ed35 d2be f977 29bf 7120 f9be
00000140: 7775 d4be 81ee f53e 0115 b33e b62d b33e
00000150: 9d20 ac3e b4f0 043f 944b bd3e 3d44 713e
00000160: 9792 d23e 9b00 723e 7379 e53e ab61 c73e
00000170: 8d4b 883e 03be c73e 1e67 193f ca12 f23e
00000180: 2ac3 ab3e 4481 003f f397 8b3e e0e3 e53e
00000190: 4ba8 e53e 2658 d13e 6514 a43e 28de 1b3f
000001a0: d60b 033f 0dc4 eb3e 239f 313f 9d9e cc3e
000001b0: 9cc2 c73e bfba c73e bc90 153e 0a25 a43e
000001c0: 174f bc3e 3c87 6e3e 4c56 363e 7910 923e
000001d0: fceb 6e3e 56b1 5b3e 9702 3e3e 97f6 ca3e
000001e0: a54b 943e a62c 763e 0239 8f3e 35cb b23c
000001f0: 2e98 613e ad35 523e d0bc b83e 666c 953e
00000200: 5ca8 763e e64c 813e fe82 123f a1fb d03e
00000210: 4d23 0d3f 3a71 1a3f c0e0 f03e 8f26 fe3e
00000220: ef3e 6e3e d88e a5bc 02b5 a2be 07d9 e9be
00000230: a6bd 00bf 52c2 c8bd 5818 083d 64fa 3c3e
00000240: 1a80 af3d e58e 0cbe 98e0 46be fae7 05bf
00000250: 279e aebe 731f dfbe dd9e 5cbd b77b 0a3e
00000260: 7dca 803e 99fe ae3d bc4b bcbe f2fa 86be
00000270: c303 b5be e3db aabe 59fc f0be 0e00 b63c
00000280: 9cf4 b93e 5f42 463e 7f06 1040 b5fc 443f
00000290: 760f 2540 5675 993d 68ce 73bf d025 643f
000002a0: af79 a0bf 9a63 14c0 8cc7 f4be 2459 663f
000002b0: e8c8 2cbf 5bdb a23f 92c6 b0bf 885a 2cc0
000002c0: e5a3 20bf 23e7 0bc0 55c0 88c0 690c f7bf
000002d0: 57f5 0e40 bdbb 963f fb15 3940 db25 40be
000002e0: b3fc 94bf e1bb 153f 106e a9be 8517 d6bf
000002f0: 08d3 a43d 1e10 6cbf b5a3 afbe 3c40 94bf
00000300: afc4 66c0 f20f 95bf 6cea f1bf 6dd7 a0bf
00000310: f3da fdbe 4a67 89bf 4c49 dfbe f1df a93f
00000320: ff21 48bf 0847 ecbf 5e9c 12bf b277 afbe
00000330: d256 54bf 9c88 40bf 52ed 75bf 9b08 aabf
00000340: afba 64bf bd07 c2bf ac5b fabf 50fb 4fbf
00000350: b217 77bf 8528 adbf 108a bfbf 2636 d3bf
00000360: b035 a5be 4958 fb3d a975 a5bf 235f fcbe
00000370: 827e 273f b4eb 91bf 232d 98be b87c 963d
00000380: db3a 08c0 2410 5a3f e67c 1440 3ddd 2e3e
00000390: 50c8 c53f 6df5 5640 bfa7 1a3f 73f9 b33f
000003a0: 35c5 4440 163a 60bf fadf c0bd 2aba 313f
000003b0: 1ac0 64bf 16fe d63e 102d b93f 02fe 1dbe
000003c0: 6a96 bdbe 2b0a 333d d739 cbbf d49a adbf
000003d0: 2b7b 29be 506e debf 8035 f4bf 874b 27bf
000003e0: 167f 01c0 3c66 04bf ad48 fcbd b226 35bf
000003f0: cc6c 73bf ebc0 0840 50d2 0dbf d7f1 3fbf
-0.51398575 -0.34101903 -0.2774557 -0.386302 -0.25650337 -0.27018604 -0.6310107 -0.23372455
-0.29178998 -0.5147974 -0.34563637 -0.3123039 -0.4017011 -0.37502244 -0.3996309 -0.27833208
-0.32816395 -0.12185075 -0.4665022 -0.42385522 -0.37729883 -0.3430168 -0.39143777 -0.4780856
-0.3739025 -0.49998343 -0.4851687 -0.5292104 -0.5407743 -0.52312475 -0.7127129 -0.49872836
-0.41701338 -0.48824048 -0.43848032 -0.3759293 -0.712593 -0.571585 -0.5324666 -0.54236317
-0.6970018 -0.4538142 -0.5001446 -0.55352855 -0.21626605 -0.5166158 -0.37644508 -0.4285487
-0.6866568 -0.6019155 -0.46363178 -0.5190221 -0.46743062 -0.26339325 -0.60061103 -0.48316032
-0.38423178 -0.49857137 -0.570916 -0.5747292 -0.26901072 -0.3899068 -0.58790904 -0.47707394
-0.65615433 -0.5267086 -0.4773437 -0.468337 -0.4495269 -0.38506553 -0.27699748 -0.45953867
-0.371882 -0.43771023 -0.27384633 -0.52696514 -0.4903547 -0.41056767 -0.6619869 -0.48657563
-0.4149587 0.48033527 0.34976962 0.34995812 0.33618632 0.51929784 0.36971724 0.23561187
0.41127464 0.23633043 0.4481922 0.38941702 0.2662014 0.39012155 0.5992297 0.4727996
0.33547336 0.50197244 0.27264366 0.44900417 0.4485496 0.40887564 0.3204681 0.6088586
0.51189935 0.46048012 0.6938345 0.39964762 0.39015663 0.39009663 0.14605993 0.3205951
0.3677909 0.23293775 0.17806357 0.28528193 0.23332208 0.21454367 0.18555675 0.39641258
0.28963962 0.2404047 0.2797318 0.021825412 0.22030708 0.20528288 0.36081553 0.29184264
0.24087662 0.2525398 0.5723113 0.40816978 0.5513199 0.6032902 0.4704647 0.49638793
0.23266195 -0.020209715 -0.31778723 -0.4567339 -0.5028938 -0.09802689 0.03322634 0.18454891
0.08569355 -0.13726385 -0.19421613 -0.52307093 -0.34105036 -0.4357868 -0.05386244 0.13523756
0.25154486 0.085446544 -0.3677653 -0.2636333 -0.35354432 -0.33370885 -0.47067526 0.022216823
0.36319435 0.19361256 2.2503965 0.769481 2.5790687 0.07493083 -0.95236826 0.891202
-1.2537135 -2.3185792 -0.47808492 0.8997977 -0.6749406 1.2723192 -1.3810599 -2.6930256
-0.62750083 -2.1859825 -4.273478 -1.9300662 2.2337244 1.1776043 2.8919666 -0.1876444
-1.1639618 0.58489805 -0.33091784 -1.6725928 0.080480635 -0.9221209 -0.34304586 -1.1582103
-3.6057546 -1.1645491 -1.8899665 -1.2565743 -0.49581107 -1.0734646 -0.4361061 1.3271466
-0.78176874 -1.8459177 -0.5726985 -0.34271008 -0.8294498 -0.7520845 -0.9606525 -1.3283876
-0.89347357 -1.5158612 -1.9559226 -0.8124285 -0.9652053 -1.352799 -1.4964008 -1.65009
-0.32267523 0.122726984 -1.2926532 -0.49291334 0.6542741 -1.1400056 -0.29721937 0.07348007
-2.1285923 0.8518088 2.3201232 0.17076583 1.5451756 3.3587296 0.6041221 1.4060501
3.0745366 -0.8758863 -0.0941772 0.6942469 -0.89355624 0.41990727 1.4466877 -0.15428928
-0.3702882 0.04371087 -1.5877026 -1.3562875 -0.16550891 -1.7377415 -1.9078827 -0.6534962
-2.0233817 -0.517185 -0.12318549 -0.7076217 -0.95087886 2.1367748 -0.55399036 -0.74978393

down_convs.2.conv1.bias f4 [12]
00000000: 3bba 28b6 ae22 4a3b 31a8 37b8 02cd b0b3
00000010: 1b4b c83b 88e4 54bc dca0 a8bc c566 5b3c
00000020: a80c 983b 1999 3d39 617e 09bb 5e2e a43c
-2.5142351e-06 0.0030843425 -4.378724e-05 -8.2329294e-08 0.006112469 -0.012993939 -0.020584516 0.013391201
0.0046401806 0.00018081478 -0.0020979869 0.02004164

down_convs.2.conv2.weight f4 [12, 12, 3, 3, 3]
00000000: d600 82be 9654 dcbe 6376 b1be ca18 f13d
00000010: 58da 193e 9c0e 65be 0979 d43b 5d15 57bd
00000020: ffb7 573e 0e75 263d 0e73 a33d 1c3c 003d
00000030: e45b 113d d02d 6a3e 9d8c a23d a3f7 803b
00000040: e091 3bbe a7fb 9e3d d0e4 8e3e ea9c 8b3e
00000050: f02d fe3c 8b82 0c3e e4ff b23e d8e4 ff3e
00000060: 5b33 823e a7f3 ccbd 1a4c 203d f999 19bf
00000070: d064 bd3f 405d 503f aa06 87bf a0a3 cbbd
00000080: 3961 a73f ba63 9b3f 1046 0e40 f889 2540
00000090: 4b94 733f 9543 6a40 0b68 4140 f7e7 71bf
000000a0: d98c 353f a2f6 b03f 2c82 783f 4f91 0140
000000b0: 74c2 1d40 cfac 9b3b d01a 6740 e305 ed3f
000000c0: 2211 72be c21e df3f c3e6 463f 0852 16bf
000000d0: 6eda d53f 69ab 2f3f 4613 a73e 2d96 983e
000000e0: 5aff 4b3e 20cb 9dbe 103d 1fbe 4e89 56be
000000f0: a63f cdbe e896 04bf 7e58 d0be 0bc1 863e
00000100: 5e25 de3e 29b6 a73e 6b8a 2cbe e31a 26be
00000110: aa77 3cbe 5c7c 11bf 53c4 e1be 7ae2 9dbe
00000120: 2789 893d 13f1 713e b389 763e 94b7 3c3e
00000130: 0fa7 993c ff68 9b3d 3d88 09bf 8045 f2be
00000140: 5c6b afbe 065c cdbd ba6d 3dbe 23bb 1bbe
00000150: 5429 e4bc 5781 6cbd 01b8 64bd 2105 383c
00000160: f064 40bd 88bd 5abc 4833 343c d0f5 47bd
00000170: e008 c63d d09b 553d ad60 96bd 22cf 32bd
00000180: 60bb 2fbe 5e3b 20be dfb2 35bb 74a2 9fbd
00000190: b3bb 80bd 019f 16be ad8a cfbd 8384 c13d
000001a0: ad60 8d3b c1db bfbd af08 14bc e9d2 de3d
000001b0: a0d5 98bf a381 d2bf d39e 913c d662 15c0
000001c0: 9a67 0fc0 4c49 ccbf 9d39 29c0 2e80 dcbe
000001d0: fb3e 0cbf e6ae 60bf f751 d0be f903 0f3e
000001e0: 6a3f fabf 07f7 d2be 852e acbf 3b9c 43be
000001f0: 51db 4640 97c8 a93f 4fde 5ebe 2392 103f
00000200: 6178 203f cc95 1ec0 2e86 8bbf 5f67 10c0
00000210: 557e 5fbf 45d4 b03f ae65 16bf 4ded d4be
00000220: f6cf b23e 73b8 7cbf 75d7 27c0 e232 70bf
00000230: 338e c6bf b70b 52c0 3d26 b9bf 81f8 f1bf
00000240: 8550 063f 18cf 203e a4ad 8bbd 6668 6cbf
00000250: 7f08 0b3f 0468 12be 119d d8bf ce7f b93f
00000260: 58fa 94be 48d7 e5bc 7be8 493e 1efa a1bc
00000270: e7fe bebf b493 8e3d 6bdd e53e 2021 18c0
00000280: 6774 aebe 8eb5 163e c15b 04c0 e3bc 9cbf
00000290: b923 d5be 7192 c2bf 388d 853e a05c fabe
000002a0: 4c90 1a3e 7fd1 25bf 142f 90be 3335 dcbf
000002b0: 839d 57bf e914 393f 956f 3abf 18b0 5040
000002c0: 4669 d13f 6aa0 fe3e 7b48 c73f e05e 2e3f
000002d0: 711f b4bf e6bc 38bd a73d 863f 51b4 97bf
000002e0: 920d a63f e424 423f ff8a 453e 69e1 563f
000002f0: 84fd 8bbe 3d08 8240 06f2 5b40 34b1 3a40
00000300: f88d 3dc0 3061 07c0 c8d6 e9bf 6918 633f
00000310: ea16 503f 20f6 363f b73f 6a40 cc11 4440
00000320: 624a 2740 b54a eabf 1379 cf3e 3be1 8dbe
00000330: eb87 613f e1b1 c33f 3fd9 f03e 5aa6 4e40
00000340: 8d25 3140 b884 2140 54e2 e6bf c5b8 783f
00000350: 7928 68be 5649 26bf d449 60be 8882 25bf
00000360: c65e cebf 84bf c1bf 7320 b63c e14e 37bd
00000370: 5dfb fe3e a1ec d43e 4873 7a3f 33c0 a53f
00000380: 8b66 043f e2b0 8ebf 7d9c 693f 85a3 ce3f
00000390: 6432 bbbe 9a1c f63f cff2 3d3f 4f58 ad3f
000003a0: c95c 9240 32a6 d83f 421f 07bf efb1 c53f
000003b0: 3ccd c33f 5c4f 68bf 11a1 193f bac0 fdbe
000003c0: fa19 113f f7f6 0940 bbce c13e 5d48 b93e
000003d0: 05a6 92bf 2b49 a0bf 3cee 1940 4038 9b3f
000003e0: 29f9 4c3f fdaa e9be 87d2 edbe 47dc 4bbf
000003f0: f156 72bf fa27 8cbf e3a4 d0bf c831 a03f
-0.25391263 -0.43033284 -0.34660634 0.11772306 0.15024698 -0.22368854 0.006484155 -0.052510608
0.21066283 0.040638976 0.07980929 0.031307325 0.035488024 0.22869039 0.07936976 0.0039357706
-0.18317366 0.077628426 0.27908945 0.27268153 0.031027764 0.13721673 0.34960854 0.4997928
0.25429806 -0.100074105 0.039135076 -0.6000057 1.479639 0.8139229 -1.0548909 -0.09943318
1.3076545 1.2139809 2.2230263 2.586546 0.9514815 3.6603749 3.0219753 -0.94494575
0.7091804 1.3825266 0.97073627 2.024494 2.4649935 0.004750825 3.6110115 1.8517421
-0.23639348 1.7431262 0.77695864 -0.5871892 1.6707284 0.68620926 0.32631892 0.29802075
0.19921628 -0.30819035 -0.15550637 -0.20950815 -0.40087622 -0.51792765 -0.40692514 0.26319155
0.43387884 0.32756165 -0.16849677 -0.16221194 -0.18405023 -0.5683038 -0.44095096 -0.3083685
0.06715613 0.23627119 0.24075966 0.18429404 0.018756418 0.07588386 -0.5372351 -0.4731865
-0.34261596 -0.10027318 -0.18498889 -0.15208106 -0.027851738 -0.057740536 -0.055839542 0.011231692
-0.04697126 -0.013350852 0.0109985545 -0.04881841 0.096696615 0.052150548 -0.07342658 -0.04365457
-0.17161322 -0.15647647 -0.0027725024 -0.07794657 -0.06285801 -0.14709093 -0.10133872 0.09449103
0.004314503 -0.093680866 -0.009035273 0.10880072 -1.1940193 -1.6445812 0.017775929 -2.3341575
-2.2406983 -1.5959868 -2.6441414 -0.43066543 -0.547836 -0.87766874 -0.40687534 0.13966359
-1.9550602 -0.41204092 -1.3451697 -0.19102566 3.107136 1.326434 -0.21764491 0.56472987
0.62683684 -2.4778929 -1.0900323 -2.2563093 -0.8730214 1.381478 -0.587489 -0.41587296
0.34924287 -0.9871895 -2.6225255 -0.9382764 -1.5512146 -3.281965 -1.4464794 -1.8903962
0.52466613 0.15704 -0.06820229 -0.923468 0.5430984 -0.14297491 -1.6922933 1.4492128
-0.29097247 -0.028056756 0.1971759 -0.019772585 -1.492154 0.06961766 0.4489549 -2.3770218
-0.34073183 0.14717695 -2.0681002 -1.2245144 -0.41628817 -1.520094 0.26084304 -0.48898792
0.15094107 -0.6477279 -0.28160918 -1.7203735 -0.8422472 0.7229753 -0.7282651 3.260748
1.6360252 0.4973176 1.5568994 0.6811352 -1.4072095 -0.045102023 1.0487565 -1.1851903
1.2972891 0.7583754 0.19291304 0.839377 -0.27341855 4.0635056 3.436647 2.9170656
-2.96179 -2.1153069 -1.8268671 0.8870912 0.81284964 0.71469307 3.6601388 3.0635862
2.613915 -1.8304049 0.4052206 -0.277109 0.8809802 1.5288659 0.47040746 3.2289033
2.767917 2.5237255 -1.803782 0.97156936 -0.22671689 -0.6495565 -0.21903163 -0.646523
-1.6122673 -1.5136571 0.02223227 -0.04475296 0.4980115 0.41586784 0.97832155 1.294928
0.5171897 -1.114773 0.9125441 1.6143652 -0.36561882 1.9227479 0.7419862 1.3542575
4.5738263 1.6925719 -0.5278207 1.5444926 1.5297008 -0.9074609 0.6001139 -0.495611
0.5668026 2.1556985 0.37853035 0.3618802 -1.1456915 -1.2522329 2.4051657 1.2126541
0.8006769 -0.45638266 -0.46449682 -0.7963299 -0.9466391 -1.09497 -1.630032 1.2515192

down_convs.2.conv2.bias f4 [12]
00000000: 1c45 763b 3cb0 2ebb 097c 5abc 4153 66b7
00000010: 32eb 49b3 5208 aa3c b135 8d3a e4b4 3733
00000020: 6801 603b f9d4 eeb9 f647 8039 a4fb 5ebd
0.0037577813 -0.0026655337 -0.013335236 -1.3728452e-05 -4.701287e-08 0.02075592 0.0010773448 4.2772527e-08
0.0034180526 -0.00045553574 0.00024467678 -0.054439202

down_convs.2.norm0.weight f4 [12]
00000000: fdf0 b13e 1289 f23f f17e 8b3e 3db0 873e
00000010: 96d3 c43f c7bc 9140 21cf 8340 a2a9 d03f
00000020: 1437 693f 2e4c 813f cfdd cd3f 408d 1340
0.34754172 1.894808 0.27245286 0.26501647 1.5377071 4.554294 4.1190343 1.6301768
0.9109967 1.0101373 1.6083316 2.3054962

down_convs.2.norm0.bias f4 [12]
00000000: 9ac3 5fbf b1f6 e5bf d279 3bbf 1eb4 1dbf
00000010: e429 0ac0 96c5 9e3f d029 223f 2ea7 063f
00000020: 0dbe 52c0 ca95 0a3f 7418 15c0 7858 d2bf
-0.8740784 -1.7965909 -0.7323276 -0.6160296 -2.1588068 1.2404048 0.6334505 0.52598846
-3.2928498 0.5413481 -2.3296175 -1.6433249

down_convs.2.norm0.running_mean f4 [12]
00000000: 0348 2742 4dec 37c3 8c51 eb42 7bba c2c1
00000010: eb5c 9ec3 423c 4343 e896 dec1 ca4f f9c2
00000020: 4f40 2fc3 175e 0fc3 377f bdc3 58a1 26c3
41.820324 -183.92305 117.65927 -24.341055 -316.72592 195.23538 -27.823685 -124.65584
-175.2512 -143.36754 -378.99387 -166.63025

down_convs.2.norm0.running_var f4 [12]
00000000: d747 8844 c049 7745 aa6a 4544 bcad 2a43
00000010: 76c5 fe45 d279 1446 500c 4a45 64d3 4145
00000020: 526c d845 f16c e944 39f6 2546 febf a845
1090.245 3956.6094 789.6666 170.67865 8152.6826 9502.455 3232.7695 3101.212
6925.54 1867.4044 10621.556 5399.999

down_convs.2.norm1.weight f4 [12]
00000000: 6881 b03f 3e9b 0040 2822 2040 fbc5 8c3e
00000010: 82d2 003e b08f b33f 30b1 7940 6406 363e
00000020: 428d b73f b40c f73f 85d0 1b40 cb0c 9d40
1.3789492 2.0094752 2.5020847 0.27494797 0.12580302 1.4028225 3.9014397 0.17775875
1.4339983 1.9300752 2.434602 4.9078116

down_convs.2.norm1.bias f4 [12]
00000000: 4cbc debf 85f8 193e 8887 96bf ebf7 4fbf
00000010: d3bf 48bf 337f ba3f b10b a4bf 1fe2 8cbf
00000020: 20cc 0cbf 4223 06c0 5d4b e2bf c210 b93f
-1.7401214 0.15036209 -1.1760111 -0.8123767 -0.784177 1.4570068 -1.2816068 -1.1006507
-0.5499897 -2.095902 -1.7679249 1.4458239

down_convs.2.norm1.running_mean f4 [12]
00000000: 5c14 31c1 e75d 47c3 66fc fd42 d6e7 00c1
00000010: 4dce 52c1 674f a3c2 03be 80c0 f833 08bc
00000020: 2e10 dec2 f36b 2842 fcbe 07c3 b944 1ec2
-11.067471 -199.3668 126.992966 -8.056601 -13.175366 -81.65508 -4.023195 -0.008313172
-111.0316 42.10542 -135.74603 -39.567112

down_convs.2.norm1.running_var f4 [12]
00000000: c737 8545 d543 6246 8857 c845 3040 2145
00000010: f914 c543 f271 0646 1c1f 9b45 5325 9a44
00000020: 9791 ff45 98cd 0a45 b89a 4e45 d5bb 1c46
4262.972 14480.958 6410.9414 2580.0117 394.16385 8604.486 4963.8887 1233.1664
8178.1987 2220.8496 3305.67 10030.958

down_convs.3.conv1.weight f4 [24, 12, 3, 3, 3]
00000000: b80a 6ebe 73c1 61be eef6 dfbd 83b6 5fbe
00000010: b560 92be ca1b 33be bac3 5dbe b37e 78be
00000020: 0d01 53be 6de3 21bd 6a2f 69be ecc1 02be
00000030: c73e ccbd e1f3 78be 474b 90be 69d2 82be
00000040: 55ba 58be 5468 4bbe bf65 e9bc 0a6a 94bd
00000050: 0dbf 1bbe cb06 8dbd ce3b 49be a930 4ebe
00000060: f498 15be 4414 68be ab3a 39be 02cd 5ebe
00000070: 7acd 41be 0153 29be 264c 81be 7751 91be
00000080: df32 85be 6260 49be 7fc1 77be 4fdf 75be
00000090: 4d72 623c a6b3 19be 85ca 3ebe 5094 1bbe
000000a0: 27bf a9be f925 84be 5c48 30be 9ae0 89be
000000b0: 1767 77be e21f 513d e230 24bd f02c 8bbd
000000c0: 1ded 78bd 9d17 73be 4587 45be 8498 82be
000000d0: 45c8 00be 7396 74be f675 95be 0186 9fbe
000000e0: 7382 9bbe d019 74be 400a 67be a321 1abe
000000f0: 5555 56be c8b9 83be 2c35 73be dda7 19be
00000100: b52a 47be 3891 91be e931 58be 1d48 99be
00000110: d7ee a0be feb9 10be e275 4cbe 84f0 6dbe
00000120: 9a9d d5bb 80b5 c9bd ceb5 03be 7c45 0dbe
00000130: bb32 14be dec2 55be f43f b7bd 2fb5 4bbe
00000140: 5f52 47be bc9f 02be be83 6fbe 6676 1abe
00000150: fad2 913b b15b dabd eb5e 71be e0c1 9abb
00000160: 9c95 03be a7a3 d1bd 69cd cfbd 9d28 46be
00000170: 4615 b0bd 65c7 7cbd 637f 97bd f246 80be
00000180: 7040 79bd ba34 47bd 4e53 07be 5725 4ebc
00000190: 7e47 6bbd 5ef8 14be 5c33 35bd 88d9 6abd
000001a0: 84b6 fabd 091b 2ebd 1c08 d6bd 944a 23be
000001b0: d1e2 31bd 1b5f aebc 16e1 b1bc de8b 483d
000001c0: 1cd7 babc cb20 d9bc 6dd4 ab3d 5304 2a3d
000001d0: f7ce e2bc 39a4 483b 1ff3 d6bc a391 19bd
000001e0: 5cf1 87bd 8d68 003d 785a 27bc 7bd1 793b
000001f0: 8de7 aebd 741f d4bd 2b15 0a3e 5e56 543d
00000200: c8ff 8dbc e80b 94bc 4f97 7bbd 64f4 0dbd
00000210: 3464 d7bc ab3c 9cbd 6d38 72bc 91ba 68be
00000220: 1d35 39be 8b48 02be 417e 91be 9567 bbbe
00000230: 1e18 a9be 7747 40be 0444 69be 6956 81be
00000240: 0c0c 44be 640e 13be 820d f0bd f870 82be
00000250: f145 9dbe 5690 76be 9c9a 6bbe a30f 14be
00000260: f1a7 dbbd 5190 24bd 9b06 9cbd 167c 04be
00000270: 747b c8bd 03bc 7abe d1b0 62be 65d0 fbbd
00000280: 7439 f2bd cdac 4bbd 68cf 91bd a6b1 c0bd
00000290: 08fb 70be 7614 4fbe 410c 85be 8a0e 8dbe
000002a0: b7f1 86bd 7aac b7bd 7402 82be 05fa 49bd
000002b0: 67b6 e3bd 872a 67be be49 4dbe aa1a 65be
000002c0: 5f3a 46be f988 98bd ee24 23be 55ad 0cbe
000002d0: d26d 07bd 37d4 98bd 554a 0dbe 83ca c5bd
000002e0: 2f5d 5fbe cdc2 8dbe 05d0 0cbe 34da 20be
000002f0: 43ad 5bbe cb3d e6bc b0b4 62bd 0ce9 7e3c
00000300: 0af2 9d3c 1e54 97bd b287 eabd d627 a6bc
00000310: 0574 413d 300c 60bd 5c57 93bd 45ec c8bc
00000320: 7ac2 343c eba4 123c ac6d 8f3c e17a e3bd
00000330: a4eb efbb 9271 adbd a593 203d 91f4 373d
00000340: 8765 7bbd fe71 18bd 709c abbd e3a5 c5bb
00000350: b066 67bd cc82 573d 6a5b 4f3c 8316 73bd
00000360: 8ddb 88be f8ac 71be 9588 2abe 03f6 94be
00000370: af24 92be e19a bfbe 37b5 3bbe b604 64be
00000380: 03a2 83be 2647 0bbe 0c98 5fbe a3ba 4dbe
00000390: 99be 8bbe 67b7 9fbe f81c b6be 6ac0 47be
000003a0: eb23 9bbe 9970 2ebe 1659 0d3d eb4d c9bd
000003b0: 8744 c8bd 95a6 7fbd 7089 6cbe f2eb 89be
000003c0: 287f c5bd b089 0bbe 027d 47be 94a2 84bd
000003d0: 3a6e 27be 3051 9ebe e826 6abe bc39 b7be
000003e0: f82f 89be 1a5a 16be 96d2 9dbe ad2d 80be
000003f0: acbe 30bd b421 a7bd 3f47 7bbe 9855 1bbe
-0.23246276 -0.22046451 -0.1093577 -0.21846966 -0.28589407 -0.1749107 -0.21656695 -0.24267082
-0.2060587 -0.03952353 -0.22771993 -0.12769288 -0.09972911 -0.24311782 -0.28182432 -0.25551155
-0.2116483 -0.19864017 -0.0284909 -0.07246788 -0.15209599 -0.06886061 -0.1965172 -0.2013575
-0.14609128 -0.2266398 -0.18088786 -0.21757892 -0.1892604 -0.1653557 -0.2525341 -0.28382465
-0.26015374 -0.19665673 -0.24194907 -0.24010967 0.013821197 -0.15009937 -0.18631943 -0.15193295
-0.3315365 -0.2581022 -0.17215103 -0.2692917 -0.2416042 0.051055796 -0.04008568 -0.067956805
-0.060773004 -0.23739477 -0.19289882 -0.25506985 -0.12576397 -0.23885517 -0.2919156 -0.31156924
-0.30372962 -0.23837972 -0.22562504 -0.15051894 -0.20930989 -0.25727677 -0.23750752 -0.15005441
-0.19449885 -0.28431106 -0.21112789 -0.2993783 -0.3143222 -0.1413345 -0.19966844 -0.2323628
-0.0065190317 -0.098490715 -0.12862322 -0.13796037 -0.14472477 -0.20875117 -0.08947745 -0.19893335
-0.19465016 -0.12756246 -0.233901 -0.15084228 0.004450199 -0.1066202 -0.23571365 -0.0047228187
-0.1285004 -0.10236292 -0.10146601 -0.1935143 -0.085978076 -0.061713595 -0.07397344 -0.25054127
-0.060852468 -0.04863427 -0.13215372 -0.012582145 -0.057441227 -0.1454787 -0.044238433 -0.05733636
-0.12241843 -0.04250625 -0.104507655 -0.15946418 -0.0434292 -0.021285584 -0.021713775 0.048961513
-0.02280765 -0.026504895 0.083901264 0.04150803 -0.02768658 0.0030615462 -0.026238976 -0.037492406
-0.066378325 0.031349707 -0.0102144405 0.0038119245 -0.085402586 -0.10357562 0.13484637 0.05184018
-0.01733388 -0.018072084 -0.061423596 -0.034656897 -0.026292898 -0.07628759 -0.014783961 -0.2272742
-0.18086667 -0.12722985 -0.28416637 -0.36602464 -0.33026212 -0.18777262 -0.22779852 -0.25261238
-0.1914522 -0.14360958 -0.117213264 -0.25476813 -0.30717424 -0.24078497 -0.23008198 -0.1445909
-0.10725392 -0.040176693 -0.076184474 -0.1293796 -0.09789172 -0.24485783 -0.22137763 -0.122956075
-0.118273646 -0.049725343 -0.07119638 -0.09408884 -0.23533261 -0.20222649 -0.2598591 -0.27550155
-0.06589072 -0.08968444 -0.25392497 -0.049310703 -0.11118775 -0.22574817 -0.20047662 -0.22373453
-0.19358204 -0.074480005 -0.15932056 -0.13737996 -0.033063717 -0.07462352 -0.13797887 -0.09657767
-0.2181289 -0.27687684 -0.13751228 -0.15708238 -0.21452813 -0.028105637 -0.0553481 0.015558492
0.019280452 -0.07389091 -0.11451663 -0.020282667 0.047229785 -0.054699123 -0.07194397 -0.024526725
0.011032695 0.008950452 0.01750835 -0.11107422 -0.0073217917 -0.084689274 0.039203305 0.04491097
-0.06137612 -0.037218086 -0.083794475 -0.006031738 -0.056494415 0.052614972 0.012656072 -0.05934764
-0.26730004 -0.23601139 -0.16653664 -0.29093942 -0.28543612 -0.3742285 -0.18330847 -0.22267422
-0.25709543 -0.1360136 -0.21835345 -0.20090728 -0.27293852 -0.31194612 -0.35568976 -0.19506994
-0.3030084 -0.1703514 0.034508787 -0.09829315 -0.097786956 -0.062414724 -0.23099303 -0.26937824
-0.09643394 -0.13626742 -0.1948128 -0.06476322 -0.16350642 -0.30921316 -0.22866404 -0.35786235
-0.2679441 -0.14682809 -0.30824727 -0.25034848 -0.04315059 -0.08160725 -0.24538897 -0.1516937

down_convs.3.conv1.bias f4 [24]
00000000: 9c4e c433 f423 0b39 0b90 8234 8a13 61b4
00000010: d2d1 0eb8 e186 cfb0 ebbd a033 2454 283b
00000020: 681b a234 bae4 1335 2d5c 88b6 8dfa 93b7
00000030: 97ba 92b0 fae1 bd35 f87f 97ba 0bf9 aeb4
00000040: 9f46 e8bb 6554 1cb9 866f 1bb2 ca42 1934
00000050: 2643 0a34 95d5 3fbb d146 a43a ddd0 ab38
9.14126e-08 0.00013269467 2.4319192e-07 -2.0961866e-07 -3.405085e-05 -1.5099567e-09 7.4851265e-08 0.0025684917
3.0194792e-07 5.509461e-07 -4.0638465e-06 -1.7640437e-05 -1.067593e-09 1.4147365e-06 -0.0011558523 -3.2591228e-07
-0.007088497 -0.00014908759 -9.047545e-09 1.4273533e-07 1.287668e-07 -0.0029271592 0.0012533312 8.192819e-05

down_convs.3.conv2.weight f4 [24, 24, 3, 3, 3]
00000000: a7e7 f9bb 15aa 66bc f97f aebd 0738 323d
00000010: 30da 563d 5fdf b53b 4c9e 23bd 05a3 2abd
00000020: ff75 a4bd 7e8e c1bb 2988 23bd 53e3 36bc
00000030: a5ed 81bc fd00 85bd 7d5e 083c 963d 2d3d
00000040: 2da1 e63c 3f58 4e3c 3d87 1ebc 4421 84bc
00000050: eaca 2c3c 64f9 55bd c44a cabc 4b2f d5bc
00000060: a595 69bd 0928 5dbd 3e7e 80bd bc05 27be
00000070: f093 21be c847 10be deaf e1bd 253d 0bbe
00000080: bd1d 8cbd 5361 05be f6ff ecbd 839a 9bbd
00000090: 2526 0ebe 0c94 3cbe 33e5 77bd 362a fdbd
000000a0: 5965 1bbe df9e 05be e686 19bc 8589 ccbd
000000b0: 72fc 65bd bf50 94bd a490 36be c495 96bd
000000c0: 4865 06be 2136 8cbd 81b6 8fbd 4196 82bd
000000d0: 13e1 43bc fb04 ddbc c325 7ebc c523 1fbd
000000e0: eb68 92bd 76ef a6bb c12c 713d 81d9 503d
000000f0: ae8b bdbd 35fc d43d f6b1 13bd 03d2 ae3d
00000100: c807 133d 8567 84bc 682d e1bc a471 0bbb
00000110: 2e92 8ab9 b868 66bd 5854 533d f0ed ac3c
00000120: b1de 243d bb7e 39bd 7b95 153d fe44 88bc
00000130: 790f 30bd d913 70bd 7f3f 13bb 4cf3 c8bc
00000140: 77ee a3bc 1262 84bd 395d ccbd 8537 24be
00000150: 1701 11be 277d e8bd 6bae 0dbe 4d19 b3bd
00000160: ce2c 4bbe 97b6 2ebd 929b f63d 4632 e5bc
00000170: 7ea1 c3bd dfc8 f0bd 6dfc 4dbe 9f38 09be
00000180: 617a f3bd b5f5 40be d5b5 04be 3027 4d3d
00000190: 1a0c 0dbc c419 f0bc 801d bfbd ea6f b2bd
000001a0: 2a89 8dbc c692 00bd 8be0 63bd c28e b4bd
000001b0: 1e87 92bd a3dc 33bd ae7f 21be 3181 f6bd
000001c0: 093d 9dbd 362b 6abd f81c bfbd 03aa ebbd
000001d0: 889a 8fbd 000f 01be 762f 3bbe 9323 d7bd
000001e0: 4f0f 3dbe 5f40 65be 69f4 12be eec8 e5bd
000001f0: 783b 0abe 12c1 1fbe 4bf6 27be 28d7 19be
00000200: 8002 7abd 80c6 0abe 8200 68be cb5f 1bbe
00000210: b724 55bd 02b8 89bc fc31 b7bb 52c6 83bd
00000220: 1eb9 44bd 2dee b23a 3533 11bd 4de2 b23c
00000230: 23d2 87bd cc21 b0bc b2b4 16bd 3b79 663c
00000240: 4ce7 dabd b085 90bd 84b7 f5bc c8fb 84bd
00000250: 578e f9bd 493b 14bd 0d9e 8dbb 8b1e 893d
00000260: e443 17bd 37cc 26bd f7ea 92bd a2ee ecbb
00000270: 78f3 793b d6c7 f8bc 315f 12bd 25d0 ee3c
00000280: f63b a83c ff54 bb3b 2f0f 3a3d 9897 2f3c
00000290: d43b c2ba 64e3 db3d f6bf 513d d676 e8bb
000002a0: 959c 983c 578b 4f3c cd07 f23c 2130 0ebd
000002b0: eba1 7abd 3aa8 93bd 0a89 be3d 1530 d03c
000002c0: 526b c33d 11c3 bdbb 48da da3d 6fef bc3d
000002d0: 9b03 7e3c 6b7b 043d d989 4e3d 5b5f 8e3d
000002e0: e329 cebb c86a c33d 971b c63d 3084 7d3d
000002f0: e78d f53c 8017 e9bd dd93 23be 6558 bbbd
00000300: bc18 0cbe 284e 40be 9806 26be 1dac 47be
00000310: c46d 1bbe e9d4 6fbe 03b7 e5bd a770 09be
00000320: e530 47be db6e 5abe b623 4abe 781a 4dbe
00000330: 3760 babd 81fd 84be 9599 37be de46 24be
00000340: 71d3 95be 663b f4bd 3ec7 92be eafa 72be
00000350: ee04 4dbe 39d8 60be a7b8 40be 9361 42be
00000360: d154 72bd c1eb ccbd 6207 dcbd e658 373c
00000370: c962 91bd 41cc bfbd c467 d4bd 1ac3 6ebd
00000380: d598 d8bd 86e5 a4bd 2470 10bd 16bb 01be
00000390: 04c3 d7bd 551a 63bd 8ad7 4ebe 6711 f3bc
000003a0: 6621 84bd 54dd b4bd 5d01 f5bc 97fc 39bd
000003b0: 1bd7 16be bb33 babd b6d3 3ebe d2c8 aebd
000003c0: 9b5a c5bd 3a13 c1bd 3f5e c7bd 7c00 70bd
000003d0: 96b5 8dbd 2923 d6bd aa4f 683d 5050 3fbb
000003e0: 9f8c 19bd 0d06 88bd 1dcb 68bd 6a8a d7bc
000003f0: f2b0 9f3c 6439 acbd 479b 8abd 461c ca3d
-0.007626492 -0.014078637 -0.085205026 0.043510463 0.052454174 0.0055503096 -0.039945886 -0.041659374
-0.080303185 -0.005906879 -0.039924774 -0.011162597 -0.015860388 -0.06494329 0.008323309 0.04229506
0.028153026 0.012594282 -0.009675798 -0.016129144 0.010546425 -0.05223979 -0.024693854 -0.026023528
-0.057027478 -0.05399326 -0.06274079 -0.16310781 -0.1577909 -0.14089882 -0.11019872 -0.13597544
-0.068416096 -0.13025407 -0.11572258 -0.0759783 -0.13881738 -0.1841585 -0.060521316 -0.12361567
-0.1517538 -0.13048886 -0.009370541 -0.09987167 -0.056148954 -0.072419636 -0.17828614 -0.07352784
-0.13124573 -0.06846262 -0.07017232 -0.06376315 -0.011955517 -0.026979914 -0.015511933 -0.03885247
-0.07148918 -0.005094464 0.05888057 0.050988678 -0.092551574 0.10399667 -0.03605839 0.0853615
0.035896093 -0.016162643 -0.027487472 -0.0021277452 -0.00026430323 -0.05625221 0.05159411 0.021109551
0.040251438 -0.045286875 0.03651951 -0.01663446 -0.042983506 -0.05861268 -0.0022468267 -0.024530075
-0.02001117 -0.06464018 -0.09978718 -0.16036804 -0.14160572 -0.11351996 -0.13836066 -0.0874506
-0.1984131 -0.0426546 0.120413914 -0.027978074 -0.095522866 -0.11757063 -0.20115824 -0.13400505
-0.11888576 -0.1884373 -0.12959988 0.0500862 -0.008608842 -0.029309161 -0.093317986 -0.08712752
-0.017277319 -0.031389974 -0.055634063 -0.088162914 -0.07154678 -0.043911587 -0.15771362 -0.1203636
-0.07677657 -0.057170115 -0.09331697 -0.115070365 -0.07011896 -0.12603378 -0.18279824 -0.10504832
-0.18462871 -0.22387837 -0.14351048 -0.11219965 -0.13499248 -0.15600994 -0.16402547 -0.15023482
-0.06103754 -0.13552284 -0.22656444 -0.15173261 -0.052036967 -0.016811375 -0.0055906754 -0.06434311
-0.048028104 0.0013651304 -0.035449225 0.021836424 -0.06631877 -0.02150049 -0.03679342 0.0140669895
-0.10688648 -0.07056749 -0.029994734 -0.06493336 -0.12185352 -0.03618935 -0.0043218196 0.06695279
-0.03692998 -0.0407221 -0.07173722 -0.0072305957 0.0038139503 -0.030368727 -0.035735313 0.029151985
0.020536404 0.0057169194 0.045424636 0.010717295 -0.0014818856 0.10736731 0.05120846 -0.0070942445
0.018629352 0.012667499 0.029544735 -0.034713868 -0.061189573 -0.07209821 0.09303482 0.025413552
0.09541954 -0.005791076 0.10686165 0.09225356 0.015503789 0.032344263 0.05042443 0.06951781
-0.0062916144 0.09541851 0.09673231 0.061893642 0.02997489 -0.113814354 -0.15974374 -0.09147719
-0.1368131 -0.18779814 -0.16213453 -0.1949925 -0.15178591 -0.23421063 -0.11216547 -0.1342188
-0.19452246 -0.2133135 -0.19740185 -0.20029628 -0.09100383 -0.25974658 -0.1792968 -0.16042659
-0.2926288 -0.11925392 -0.28667635 -0.23728529 -0.20021412 -0.21957482 -0.1882044 -0.18982534
-0.05916292 -0.10005904 -0.10743596 0.011190629 -0.0709892 -0.0936513 -0.10371354 -0.058291532
-0.105760254 -0.080515906 -0.035263196 -0.12669024 -0.10535243 -0.055445034 -0.20199409 -0.029671384
-0.06451683 -0.088312775 -0.029907877 -0.045406904 -0.14730494 -0.09091898 -0.18635449 -0.08534397
-0.09636422 -0.09427495 -0.09734773 -0.058594212 -0.069194004 -0.10455925 0.0567166 -0.0029192157
-0.037487622 -0.06641779 -0.05683433 -0.026311118 0.019493554 -0.08409384 -0.06767898 0.09868674
