outputs/outputs_new_diff_mask_2/epoch_130_model.pth (torch, 695315 bytes, 241 tensors)

down_convs.0.conv1.weight f4 [3, 1, 3, 3, 3]
000000 13 6b 92 3f 97 85 6f bf f4 dc 62 3e 97 7e b2 3e
       1.1438926 -0.93563217 0.221546 0.34862205
000010 52 8d 90 3f d5 b0 34 40 e7 87 ed 3f 3b 04 52 3f
       1.1293128 2.823293 1.8557099 0.82037705
000020 9d cc f9 3e 4d dd c5 be bd 0b 51 c0 d7 34 02 c0
       0.4878892 -0.38645402 -3.2663414 -2.034475
000030 68 95 38 bf 43 2f 5a bf df 9d e7 3f cc df 0b 40
       -0.72102976 -0.85228366 1.8095053 2.1855345
000040 6a 5a 6d 3f bc 45 1e 3f 8a cd 98 3f da 24 3a bf
       0.92716086 0.61825156 1.1937726 -0.7271248
000050 ea 2b 56 3e b1 8c 08 3f ce 82 86 3f 8c e6 34 40
       0.2091519 0.5333968 1.0508668 2.8265715
000060 b8 15 86 3f e4 38 18 be 04 18 68 be 00 62 a6 bf
       1.0475378 -0.14865452 -0.22665411 -1.2998657
000070 e3 5a ed 3f b9 fb ab bf 26 8f 99 bf 6d ae 88 3f
       1.8543361 -1.3436195 -1.199681 1.067823
000080 80 66 80 bf f8 08 9f bf 38 18 98 3f ad d0 34 bf
       -1.003128 -1.2424612 1.1882391 -0.70630914
000090 b7 c5 99 3f 78 80 90 40 5c 9a 70 40 7c d9 c1 3c
       1.2013463 4.515682 3.7594213 0.023663275
0000a0 e5 53 12 3e 87 8a f8 3f 85 7e b9 3f 94 4b 92 3f
       0.14289816 1.9417275 1.4491736 1.1429315
0000b0 27 c0 08 3f 35 47 df bf f8 9c 41 40 9a c6 97 3e
       0.534182 -1.7443606 3.0252056 0.29643708
0000c0 52 63 de bf 1f d4 04 3f 1b c7 e2 bf 10 7f 1d be
       -1.737406 0.5188617 -1.7717012 -0.15380502
0000d0 29 47 8b 3f 48 fe 88 bf 19 2d 4f 3c 58 19 e8 bf
       1.0881091 -1.07026 0.012645029 -1.8132734
0000e0 84 87 5c 3f f0 4f 86 be 62 76 a9 3e d4 5d 91 bf
       0.8614428 -0.26232862 0.3309813 -1.1356759
0000f0 d8 34 4b bf 1e 8a 93 bf c1 f9 9f bf 74 98 46 c0
       -0.7937751 -1.1526525 -1.2498094 -3.103055
000100 fc 3e d8 c0 a5 e5 13 c0 21 3c c3 3f d0 e0 60 40
       -6.7576885 -2.3108914 1.5252725 3.5137215
000110 85 f2 8b 3f ac 0e 56 bf 2d 18 84 bf d3 07 40 bf
       1.0933386 -0.8361614 -1.0319878 -0.7501194
000120 9c c7 c3 bf aa 2b 6f c0 8c 0c 94 bf 68 5c 34 3e
       -1.5295291 -3.73704 -1.1566329 0.17613375
000130 3c 30 b1 3f ad b4 22 bf 20 98 6a bf 41 30 31 bf
       1.3842845 -0.6355694 -0.91638374 -0.69214255
000140 23 11 d8 be
       -0.42200574

down_convs.0.conv1.bias f4 [3]
000000 0a 5e 61 bd 7b b7 dd 3d cd 64 f4 bc
       -0.055021323 0.10826012 -0.029833222

down_convs.0.conv2.weight f4 [3, 3, 3, 3, 3]
000000 aa f5 0a c0 cb 14 af bf 1b c6 44 c0 6d c0 9f 3e
       -2.1712441 -1.367822 -3.0745914 0.31201497
000010 a9 b9 90 3f db aa b0 3f 5d 54 80 be a0 bb 1e bf
       1.1306659 1.3802141 -0.25064364 -0.62005043
000020 ef 2e 81 3e 51 b8 c4 bf 32 f8 a2 bf c5 c0 20 c0
       0.2523112 -1.5368749 -1.2731993 -2.5117657
000030 d1 fa 8b bf 16 f3 96 c0 7b 7d 11 c0 23 65 18 3e
       -1.0935918 -4.7171736 -2.2732837 0.1488233
000040 0a 62 7a 3f 39 6e 9a 3f bb 87 11 c0 9e 27 cb bf
       0.97805846 1.2064887 -2.2739093 -1.5871465
000050 6b 84 70 c0 dc 54 8a bf c8 a6 89 c0 bd b0 e9 bf
       -3.7580822 -1.0807147 -4.301609 -1.8257061
000060 a4 0b 80 3e 8f 3f b8 3f 81 18 e3 3f 29 76 2e 3f
       0.2500888 1.4394397 1.7741853 0.6814905
000070 d8 94 ad 3f bc 62 1c 3f 57 08 42 3e 35 0e cf be
       1.3561049 0.61088157 0.18948494 -0.40440527
000080 45 80 12 c0 0b eb 10 bf fa 91 2f 3e 44 3a 42 3f
       -2.289079 -0.5660865 0.1714553 0.75870156
000090 22 23 da 3f 89 25 11 40 52 01 25 3f 7f e3 1e bf
       1.7041972 2.267916 0.6445514 -0.6206588
0000a0 15 e0 3d 3f e6 77 22 bf 64 ef c1 be 52 45 ec bf
       0.7417005 -0.634642 -0.37877953 -1.8458655
0000b0 23 46 cc bf dd 3c 84 3f e7 00 cd 3f ca 3b 01 3f
       -1.5958904 1.0331074 1.60159 0.50481856
0000c0 2e 8e d0 bf 5c 40 0e bf 72 7d 6e bf 67 d4 e6 3e
       -1.629339 -0.55566955 -0.93160164 0.45083925
0000d0 72 13 17 c0 1c cb db bf 84 95 2c c0 a6 3d aa bf
       -2.3605618 -1.7171359 -2.6966257 -1.3300064
0000e0 bf b7 bb bf 93 85 88 c0 7f 26 a1 c0 de 29 8f c0
       -1.466545 -4.2663054 -5.035949 -4.4738607
0000f0 ab 0c 77 3d 39 f4 a7 bf 46 61 8a bf d4 0a 8c bf
       0.060314815 -1.3121406 -1.0810935 -1.0940804
000100 33 d6 36 be a5 f3 68 be 3d 19 76 c0 a6 29 86 c0
       -0.17855148 -0.22749193 -3.8452904 -4.192584
000110 dd b9 39 c0 6b 6b 2c bf 6f 3a 9d bf d2 a9 cd bf
       -2.9019692 -0.67351407 -1.2283458 -1.606745
000120 2f bd bc bf 74 9b 96 3d 41 81 1a be b2 ca 4d c0
       -1.4745234 0.07353869 -0.15088369 -3.2154965
000130 4e 94 1b c0 f4 07 dc bf 7c b6 47 3e 9d bc 09 bf
       -2.4309268 -1.7189927 0.19503206 -0.53803426
000140 48 14 0e bf 28 6c f5 3e e1 eb fe 3e 96 3f 74 3f
       -0.55499697 0.4793408 0.49789336 0.95409524
000150 e1 48 8a be 7e 14 ce 3d bc b0 e1 be 71 6f 84 bf
       -0.27008727 0.10062502 -0.4408015 -1.0346509
000160 f5 c2 13 be 1d 82 ae bc dd 47 be 3f af b0 62 3f
       -0.14429839 -0.021302277 1.4865681 0.8855085
000170 cb 16 e0 3f 61 22 5c 3e c0 e4 28 3e 4f 64 8d bb
       1.7506956 0.2149749 0.16493511 -0.004314936
000180 4c 9a 47 bf 0f ed c8 ba ca e2 89 3f 72 40 bc 3f
       -0.77969813 -0.0015329438 1.0772336 1.4707167
000190 9a a6 da 3f 39 d8 f6 3f 50 83 0c bf c9 3c 93 3e
       1.7082093 1.9284736 -0.54887867 0.28757313
0001a0 b1 ca 14 bf d3 c6 8c bf e6 49 a5 3e 79 3e 67 3f
       -0.5812178 -1.0998176 0.32282943 0.903297
0001b0 7a d2 5b 3e 8c ee a6 bf d5 10 29 be 10 e6 a3 3f
       0.21467009 -1.3041549 -0.16510327 1.2804585
0001c0 b8 d9 21 bf c4 0b ec 3d 26 b9 29 bf 95 5e 51 3e
       -0.6322284 0.115256816 -0.6629814 0.20446236
0001d0 e4 84 98 3f 3f 60 ec bf e2 91 0e c0 ff b1 46 c0
       1.1915555 -1.8466872 -2.227654 -3.104614
0001e0 ec 82 85 be 46 53 d9 bf d7 62 09 c0 bc 12 07 3e
       -0.26076448 -1.6978538 -2.1466577 0.1319074
0001f0 28 9c 71 40 7a f6 23 40 e1 d0 84 bf eb a8 47 c0
       3.775156 2.5619187 -1.0376245 -3.119685
000200 f3 7b f9 bf 09 c3 84 3f 68 95 c2 bf c5 a4 12 be
       -1.9490951 1.037202 -1.5201845 -0.14320667
000210 35 ec f9 3e 73 67 ef 3f 7c 24 2f 40 c0 53 7b 3f
       0.48813024 1.8703445 2.7366018 0.9817467
000220 a4 9b 06 40 05 f1 c0 3f 22 76 3d 3f 6f 4b 84 3e
       2.1032495 1.5073553 0.7400838 0.258388
000230 00 aa 18 3f 46 1d 36 bf a6 fa 03 c0 09 e2 ba bf
       0.596344 -0.7113842 -2.0621734 -1.460023
000240 be 9b d2 3f 10 8d 4d 40 5f 09 33 40 68 44 43 3f
       1.6453779 3.2117348 2.797447 0.76276255
000250 e6 55 dc be eb 12 f7 3d e1 6f f9 bf 49 b2 6c c0
       -0.43034285 0.12064155 -1.9487268 -3.6983817
000260 3b ea 34 c0 41 c9 49 3f 1c 08 29 40 8b ba 20 40
       -2.8267963 0.78822714 2.64112 2.5113857
000270 e5 6c 47 3f 78 07 d8 3e 0d 14 5f 3f 4e 9c 32 bf
       0.77900535 0.42193198 0.8713997 -0.6976975
000280 35 99 1d c0 b4 65 ef bf 0b a3 88 3f 3c b6 69 3f
       -2.462476 -1.8702912 1.0674757 0.9129369
000290 be 00 0e 3f 66 25 00 40 d6 85 d6 3f 6b aa 72 40
       0.5546988 2.0022826 1.6759593 3.7916515
0002a0 53 7b e7 be ce 64 8b 3f f8 30 9e 3f 26 64 39 3f
       -0.45211276 1.0890138 1.2358694 0.7241844
0002b0 13 aa 52 bd 4b fc 8c 3e 15 f9 b2 be f7 6c 48 c0
       -0.051431727 0.27536234 -0.3495566 -3.1316507
0002c0 30 a6 ac 3f ef 84 eb 3e 5f eb b0 3f d1 5f 41 40
       1.3488216 0.45999858 1.382183 3.0214732
0002d0 7c d9 1d 3f 83 5a e7 3e 5d a6 09 3d 1f ae 25 3f
       0.6165998 0.45186242 0.033605922 0.6471881
0002e0 ba 42 bb 3e 9c 21 16 40 6e 8b 7f 3f 4d 77 f1 3f
       0.36574346 2.3458014 0.9982213 1.8864533
0002f0 31 9e fd 3f 3f 22 f3 3f 0e dd dd 3e 63 a4 66 3f
       1.9813901 1.8994826 0.43332714 0.90094584
000300 e8 0e a1 3e bc 05 87 be db 08 1c 40 ce 22 28 40
       0.31456685 -0.26371562 2.4380405 2.6271243
000310 5e 11 b8 bf 2e 83 82 3f b1 c5 2c 3f 4f e1 b7 3c
       -1.43803 1.0196283 0.67489153 0.022446303
000320 5e 7b 67 bf 6b 50 f0 bf 5a 5e 99 3e 1d f4 70 3e
       -0.9042262 -1.8774542 0.29954797 0.23530622
000330 3c ec 49 3f af 87 f1 3e 49 28 2a c0 f2 e8 d0 3f
       0.7887609 0.4717383 -2.6587088 1.6321089
000340 f3 85 9d be 73 dd 45 3f be e7 39 bd ed db 9c bf
       -0.30766258 0.7729103 -0.045387022 -1.2254616
000350 12 14 a7 3f 29 2b 40 40 b2 a8 3b bf 77 7e 0d 40
       1.3053 3.0026343 -0.73304284 2.2108438
000360 f0 71 12 c0 b0 53 f1 bf bd 2b b5 bf 3c 52 6a bf
       -2.2882042 -1.8853664 -1.4153973 -0.9153173
000370 1c 3e 85 bf be 18 df 3e 88 b3 d4 3f 61 95 1b 3f
       -1.0409579 0.43573564 1.6617289 0.6077481
000380 3c 4c ba 3f 0c 44 f5 bf c2 32 8b bf 0b 94 69 bf
       1.4554515 -1.9161391 -1.0874865 -0.9124152
000390 f1 a1 35 bf 3b 53 e5 be 3d 8a 05 3f 28 81 a2 3f
       -0.7095023 -0.44790062 0.5216406 1.2695665
0003a0 ab 0a 19 3e 23 89 4d 3f f2 c1 73 bf b9 4e 63 bf
       0.14945476 0.8028738 -0.9521781 -0.88791996
0003b0 2f 01 4f bf de aa 1d 3f 52 f5 6e 3f 2d c3 be 3f
       -0.8086118 0.6158885 0.9334308 1.4903313
0003c0 68 22 f8 3f bc ac b7 3f 17 91 11 40
       1.93855 1.4349589 2.2744806

down_convs.0.conv2.bias f4 [3]
000000 0a 9f 40 c0 23 44 e9 3e 4f 39 00 3f
       -3.009707 0.45559797 0.50087446

down_convs.0.norm0.weight f4 [3]
000000 40 54 c8 3f 30 db b5 3f 47 d9 ce 3f
       1.5650711 1.4207516 1.6160058

down_convs.0.norm0.bias f4 [3]
000000 4f 8e bc bf 4d 03 ad 3f 1d d5 28 c0
       -1.4730929 1.3516632 -2.6380074

down_convs.0.norm0.running_mean f4 [3]
000000 48 f5 66 bd 68 8d be 3d dd a7 08 bd
       -0.056386262 0.09304315 -0.033363212

down_convs.0.norm0.running_var f4 [3]
000000 ab 1e 06 43 d7 4c c7 42 5e 58 ab 43
       134.1198 99.65008 342.69037

down_convs.0.norm1.weight f4 [3]
000000 47 af 24 40 c6 e5 a1 3f 54 37 00 40
       2.573198 1.2648246 2.003377

down_convs.0.norm1.bias f4 [3]
000000 e9 cb 24 40 d7 10 8e bf 52 8a ad bf
       2.5749457 -1.1098889 -1.3557837

down_convs.0.norm1.running_mean f4 [3]
000000 87 15 60 c1 e9 e9 db c0 25 54 a5 41
       -14.005256 -6.8723035 20.666086

down_convs.0.norm1.running_var f4 [3]
000000 b1 d3 97 44 ff 55 c0 43 39 a8 3b 44
       1214.6154 384.67184 750.6285

down_convs.1.conv1.weight f4 [6, 3, 3, 3, 3]
000000 34 7a ab 3e f7 f4 29 bf 20 e6 13 3f c1 ce 1c 40
       0.3349167 -0.6638941 0.5777302 2.4501193
000010 69 01 06 40 dd f6 26 40 e3 d0 42 3f 63 35 0f bf
       2.093836 2.6088173 0.76099986 -0.55940837
000020 0d f8 12 40 0b 27 ff be 67 eb 24 c0 6c fb 3a bf
       2.2963898 -0.49834475 -2.5768678 -0.7303989
000030 ed 53 03 40 6e 04 ea 3f b8 35 ef 3f fe 1b 9d bf
       2.0519974 1.8282602 1.8688269 -1.2274168
000040 4b 28 60 c0 2e 8e 28 bf ea 8a ed 3e 0b 26 25 bf
       -3.5024593 -0.6584195 0.46395046 -0.64511174
000050 93 96 1a 3f d1 3c 4a 40 20 3e 21 40 f2 f3 3f 40
       0.6038601 3.159962 2.5194168 2.9992642
000060 df 59 e4 3f 68 c4 40 bf a8 fa 75 3f c2 51 6b bf
       1.7839926 -0.7529969 0.96085596 -0.9192163
000070 8c f0 a2 be 48 f0 cc be 4a b9 07 40 e7 e7 88 3f
       -0.31824148 -0.4002707 2.1206841 1.0695771
000080 0f 04 ed 3f 23 d4 d9 3f 98 18 96 3f 1e e2 90 3f
       1.8516864 1.7017864 1.1726255 1.1319005
000090 ca 11 6f bd 45 b0 ba be 00 77 23 bc 9f 22 bd 3f
       -0.058366574 -0.36462608 -0.009977102 1.477619
0000a0 07 13 87 bf 41 c2 e8 3e 0d 98 f2 3f 38 9e c6 3f
       -1.0552682 0.45460704 1.8952652 1.5517035
0000b0 c1 63 5f 3f b5 b2 ef be 42 1e 5d bd 3a 87 06 bf
       0.8726159 -0.4681603 -0.053983934 -0.5255009
0000c0 28 4a 15 40 70 86 71 3f f4 e4 a3 3f 39 e8 1a 40
       2.3326511 0.9434576 1.2804246 2.4204237
0000d0 6d 7c cd 3f a5 51 d0 3f 9b 6c 76 bf 3b 15 a3 3d
       1.6053597 1.6274916 -0.9625947 0.07963034
0000e0 35 35 db be bd 55 b3 bf c7 d6 2c 3f 29 7c 6a bf
       -0.4281403 -1.401054 0.67515224 -0.91595703
0000f0 fa d9 04 c0 a3 bc 28 3f 01 3f 46 bf 8e ae 82 be
       -2.0758042 0.65912837 -0.77439886 -0.255238
000100 15 29 19 3f 80 98 98 3e db 27 04 3f 6a 66 6e 40
       0.5982831 0.29803848 0.51623315 3.7250009
000110 38 b8 7c 3f 9a 66 fb 3e 9b d8 d4 40 be 5c 21 40
       0.98718596 0.49101716 6.651441 2.5212855
000120 69 27 e1 be f3 cc d4 3e 2b 9f 80 3e d5 24 72 be
       -0.4397538 0.41562614 0.25121436 -0.23646863
000130 c6 a9 e3 3f dc 25 e8 3e 4a b6 af bf 0f dd 23 40
       1.7786186 0.45341384 -1.3727505 2.5603673
000140 38 f3 4a 3f 99 d6 e5 bd 11 db 20 be 12 0b 3f be
       0.7927737 -0.11222572 -0.15708567 -0.18656567
000150 42 32 c0 bc 52 75 0d bd 0a 68 db bd f5 2c 1a 3c
       -0.023461465 -0.034535713 -0.10713203 0.009410133
000160 7f 67 98 bd 23 91 8f bd 38 f4 5f bd 4e 5d 36 3c
       -0.07441615 -0.070101045 -0.054676265 0.011130644
000170 e7 cd 3e bc 69 1b db bd d2 bb 30 be fa cc 87 bd
       -0.011645771 -0.106985874 -0.17259148 -0.06630893
000180 91 f0 17 bd 7f c6 ba bb 14 6a 57 3d f8 fc 02 be
       -0.037094656 -0.005699932 0.0525914 -0.12791812
000190 f9 df 00 3e 51 4d ac bd 99 43 02 3c 34 94 78 bd
       0.12585439 -0.084131844 0.007950687 -0.060688213
0001a0 c1 e4 7f 3b ce cf d9 3d fa 7e 6e 3d 9b 30 8e bc
       0.003904626 0.10635339 0.058226563 -0.017357161
0001b0 75 f3 8d be 9a 2d 34 be cd 72 05 3d 92 2f 98 be
       -0.27724805 -0.1759552 0.032580186 -0.29723793
0001c0 e7 bf e2 bc 40 34 bf bd 63 75 bc be 90 34 9a be
       -0.027679397 -0.09336138 -0.3680831 -0.30118227
0001d0 6e 25 77 be 56 f8 cc 3c af c3 68 be 70 9e b5 bd
       -0.24135372 0.02502076 -0.22730897 -0.0886811
0001e0 b7 a7 4c be b9 1e b1 be e7 cb e4 bd bd 5c e6 be
       -0.19985853 -0.34593752 -0.11171704 -0.4499263
0001f0 aa cd cb be 3e c9 cc be 89 3d 77 be bf 58 10 be
       -0.39805347 -0.39997286 -0.24144568 -0.14096354
000200 f1 0b 93 3e 30 cb a5 be a2 21 04 be ae 48 a0 be
       0.28720048 -0.32381582 -0.12903455 -0.3130545
000210 b9 57 c1 bd af cb 64 be 16 78 19 be 6e 8e 4f 3d
       -0.0944056 -0.22343324 -0.14987215 0.05067294
000220 8c 4f 57 bc 4f a2 2e 3e a6 43 ee be 0c 76 19 bf
       -0.013141524 0.17054103 -0.46535987 -0.5994575
000230 a4 1c ee be ec a7 17 bf 06 d4 15 bf 10 ac fb be
       -0.46506226 -0.59240603 -0.5852665 -0.4915471
000240 f0 50 4b be fb e7 65 be 63 73 23 bd 86 60 ce be
       -0.19855094 -0.22451775 -0.039904963 -0.40308017
000250 fb 0f 1f bf 29 83 1e bf 17 6a 48 bf 0e 11 3f bf
       -0.6213376 -0.61918885 -0.7828688 -0.746354
000260 26 e6 55 bf 3d c5 97 be fc d2 a9 be a2 3a fb bd
       -0.83554304 -0.29642668 -0.3316878 -0.12267043
000270 0f fb 37 bf cf 06 1a bf 14 4d 41 bf b9 ee 2a bf
       -0.7186746 -0.6016664 -0.75508237 -0.6677051
000280 ad df 7a bf 89 69 58 bf 4c 16 00 be d7 e2 6c 3d
       -0.9799755 -0.84536034 -0.12508506 0.05783352
000290 05 50 67 bc e9 d1 82 3c 1c e8 c4 bc 71 d3 0a be
       -0.014118199 0.015969234 -0.02403646 -0.13557221
0002a0 98 b5 58 be fb ba 2f bd 52 b6 4b be e6 3b b5 bd
       -0.21163023 -0.042902928 -0.19893768 -0.08849315
0002b0 e0 da ca 3d e6 c6 a4 bd bf a0 24 be cf 1b 27 3d
       0.09905028 -0.08045749 -0.16076945 0.040798005
0002c0 3c f3 ff bd a3 3f fb 3c d1 af 95 bc 3b 5a e7 bd
       -0.12497565 0.030669993 -0.018272312 -0.11296507
0002d0 8d b9 4e be e1 fe 42 bd 0e 3b 0c bb 07 ce 19 be
       -0.2018797 -0.047606353 -0.0021397504 -0.1502
0002e0 3c df 1a 3e a2 72 e7 bd 94 13 a6 3c fa cb 4a 3b
       0.1512422 -0.11301161 0.020273007 0.0030944333
0002f0 9c df 1e bd 63 c8 9e be bb f1 15 bd 49 a5 49 3d
       -0.03878747 -0.31012258 -0.036607485 0.049229894
000300 f4 21 96 bc ab a4 a9 3d 83 18 fe bd f6 4d 48 be
       -0.018326737 0.08283361 -0.12407019 -0.1956099
000310 f6 ed b5 bd 4b d5 ff bd b5 22 1f bc 8c 3d df bb
       -0.08883278 -0.12491854 -0.009712865 -0.006812757
000320 0c 79 f3 bc 0a 5f 9c bd 17 e0 5d be 8e c5 4b be
       -0.029720806 -0.07635315 -0.21667515 -0.1989958
000330 e7 fd 30 be cc 1f cd bc f1 ed 14 3e dd 3f 91 bd
       -0.17284356 -0.025039576 0.14543892 -0.07092259
000340 2a f2 5a 3c d9 91 47 3d 4a df 11 be ef 7d 22 bd
       0.0133634005 0.048723076 -0.14245334 -0.03967088
000350 70 61 f7 bd 44 ce 57 be 52 a3 17 be e2 70 2c bd
       -0.120791316 -0.21074778 -0.14808396 -0.04209984
000360 7f 15 eb bd 36 5e 8b be ca 1b 1a be 42 d5 90 be
       -0.114787094 -0.27220315 -0.15049663 -0.28287703
000370 00 49 66 be 8d 67 22 be 8f 0f d0 bd 68 1d ea be
       -0.22488785 -0.15859814 -0.101592176 -0.4572556
000380 44 90 81 be 6c bb 45 be 66 6e 4e be 7b e6 91 be
       -0.25305378 -0.19309777 -0.20159301 -0.28496155
000390 ae 88 41 be fc 64 34 be a7 27 94 be 8e f7 7e be
       -0.18899795 -0.17616647 -0.28936502 -0.24899122
0003a0 03 1f 9a be 95 6b 8b be 84 b2 88 be c0 c8 cf be
       -0.30101785 -0.27230516 -0.26698697 -0.40582848
0003b0 9c f7 46 be e1 9f 7b be 88 1f c5 be 34 89 ae be
       -0.19430393 -0.24572708 -0.3850062 -0.34089053
0003c0 27 85 be be 04 51 56 be 89 0f a2 be 53 ca d5 bd
       -0.37210962 -0.20929343 -0.31652477 -0.10438981
0003d0 4a d2 17 bf 3c ea 30 3f ff d5 04 3e 47 36 92 bc
       -0.5930525 0.69107413 0.12972258 -0.017848147
0003e0 45 15 c5 3f 8f 5e e6 3f fe 31 35 be 22 28 1d 40
       1.5397116 1.7997607 -0.17694852 2.4555745
0003f0 c0 9b 4b bf cd 8e 0b c0 08 5c 58 be 9c 0b 73 3e
       -0.7953453 -2.1805909 -0.21128857 0.23734897

down_convs.1.conv1.bias f4 [6]
000000 b9 2c de b8 42 e2 4d 37 05 0f 97 32 9d 33 2c bd
       -0.00010594115 1.2271632e-05 1.7585544e-08 -0.04204141
000010 15 bd e8 3d d3 b4 ff 3a
       0.113641895 0.0019508846

down_convs.1.conv2.weight f4 [6, 6, 3, 3, 3]
000000 f3 c1 05 bf 70 cd b2 be f7 85 50 bf d4 28 aa 3e
       -0.5224907 -0.3492236 -0.81454414 0.33234274
000010 f9 6e be 3e a6 d2 26 bf 0d cd 27 40 b1 5e 53 40
       0.3719404 -0.65165174 2.6218903 3.3026545
000020 b7 d9 c5 3f 37 a4 c5 bc de 60 49 3e 7d 5d 65 be
       1.5457066 -0.024126155 0.19665858 -0.22398944
000030 68 b9 80 3f 92 1d 96 bd 9c 2e cc be 03 4c 80 40
       1.0056581 -0.07329859 -0.3987931 4.009279
000040 3e 08 e6 40 08 7f 3c 40 2e 60 9a be 89 f6 c5 3d
       7.188506 2.9452534 -0.30151504 0.096661635
000050 a4 67 dd be 40 0e 59 3e cd 6d 74 bd e9 03 72 bf
       -0.43243134 0.21196842 -0.059675027 -0.94537216
000060 c5 a4 1a 40 a6 87 64 40 45 0e ee 3f 29 1c 74 be
       2.4163067 3.5707793 1.8598105 -0.23838867
000070 49 8b 75 be a8 37 41 be 42 d1 da bc b1 68 67 bd
       -0.23978914 -0.18868887 -0.02671111 -0.056496326
000080 01 53 92 3c 92 ef 1a 3d 49 5c 06 3d b3 8b 0d 3c
       0.017861845 0.03782613 0.032802854 0.008639264
000090 d0 e2 10 be 75 dd 05 be 71 18 18 be 93 a3 c7 3d
       -0.14149022 -0.1307276 -0.14853074 0.09747996
0000a0 34 90 84 bd 5a 84 47 3c ab ba 5a bd 31 3c c3 bc
       -0.06472817 0.012177551 -0.053400677 -0.023832412
0000b0 4e bc 48 3d 83 cb 4f be d5 55 00 3c d3 c8 19 be
       0.049007706 -0.20292477 0.007832964 -0.15018015
0000c0 79 93 a4 bd c3 ab 57 bd 7e e8 34 be 4c 63 9f 3c
       -0.08035941 -0.05265404 -0.17666814 0.019456528
0000d0 50 9c 0a be 14 01 b6 bc 82 6c f4 bd 53 83 82 bd
       -0.13536191 -0.022217311 -0.11934759 -0.06372704
0000e0 b9 09 81 be 8c db 97 be 46 1c 83 be e8 cd 38 bc
       -0.2520273 -0.29659688 -0.25607508 -0.011279561
0000f0 5e f9 8f bd 6f 8d 49 be de f6 13 3d b5 9c 2d bd
       -0.07029985 -0.19682859 0.036124103 -0.042385776
000100 27 d9 14 be 39 c6 12 be 28 a5 f4 bc ce 21 13 be
       -0.14535962 -0.14333428 -0.029863909 -0.14368364
000110 c8 a8 05 bd 51 17 56 be b6 84 19 bd 6f c2 04 3d
       -0.032631665 -0.20907332 -0.03748008 0.03241199
000120 b3 ea cd bd 02 d2 ef bd c3 6f 8e bd e1 57 14 bd
       -0.10054531 -0.11709978 -0.069549106 -0.03621662
000130 15 bb b3 bc b2 b6 01 bd 95 55 eb bd 5d f0 18 be
       -0.021939794 -0.031668372 -0.11490933 -0.14935441
000140 30 9a 99 3d 22 c7 8d 3f 7f fd 80 3f 3b ec bf 3f
       0.07500112 1.1076396 1.0077361 1.4993967
000150 90 bd 55 bf dd 47 e4 3b 48 47 3a 3e 72 54 8b 3f
       -0.83492374 0.0069665746 0.18191254 1.0885146
000160 59 f3 f4 3f 7b f5 f0 3f ca 37 9f 3f a2 13 1f 3f
       1.9136764 1.8824915 1.24389 0.6213933
000170 5e 9d b1 3f 48 20 4c be 12 73 12 3f b3 9c 32 3f
       1.387615 -0.1993419 0.57206833 0.69770354
000180 42 bf d6 3f d5 43 26 40 2c ac 18 40 59 05 8d 3f
       1.6777117 2.5978901 2.3855085 1.1017257
000190 c5 63 86 3f 2c 0b c9 3f a5 9b 97 be 32 59 fe 3e
       1.0499197 1.5706534 -0.29610935 0.49677426
0001a0 f4 f5 ec 3e 00 06 d5 3f b1 41 25 40 7e 9b 21 40
       0.46281397 1.6642456 2.5821345 2.5251155
0001b0 f3 bf c2 3c f4 f9 f5 bd 12 39 85 3d 5e 73 1a 3f
       0.02377317 -0.120105654 0.06505026 0.60332286
0001c0 54 18 7a 3f 09 a1 a5 3e a8 d4 8b bf 41 21 3d bf
       0.9769337 0.32349423 -1.0924273 -0.73878866
0001d0 08 6d f0 bf 98 61 2a 3e ba 93 ff be 57 78 20 be
       -1.8783274 0.16638792 -0.49917394 -0.15670906
0001e0 b7 39 bf 3f b4 06 0a 40 63 b1 b5 3f 3d 57 b5 be
       1.4939488 2.1566591 1.4194759 -0.3541812
0001f0 79 19 fb be f2 ea b0 bf a6 d9 59 3f e4 5d ea 3e
       -0.49042872 -1.38217 0.8509773 0.45774758
000200 72 69 1c 3f 62 56 97 3f 24 28 bc 3f fa 9f 22 3f
       0.61098397 1.1823237 1.469975 0.63525355
000210 82 e3 84 bf 90 8e 85 bf ac 1e c6 bf b6 c1 8b 3f
       -1.038193 -1.0434132 -1.547811 1.0918491
000220 61 4c 02 3f 75 1f ab 3e 59 b6 9d bf ea 8c ee bf
       0.50897795 0.33422437 -1.2321273 -1.8636754
000230 30 3f d2 bf b1 29 2e bf 3c e3 90 bf ba fb 59 bf
       -1.6425533 -0.68032366 -1.1319346 -0.8514973
000240 8b 0e 08 3f 2f 2a 08 bf d8 e5 69 bf a1 63 cb bf
       0.5314719 -0.5318937 -0.9136634 -1.5889779
000250 46 19 05 c0 e1 0d 17 c0 00 d9 8b bf 2c 03 99 bf
       -2.0796676 -2.360222 -1.0925598 -1.1954093
000260 e3 59 8f bf e2 11 86 3f 75 23 0e bf da 0e 94 bf
       -1.1199306 1.0474207 -0.55522853 -1.1567032
000270 0a f5 1a bf 2a 48 ed bf d9 cc 06 c0 ed 4c fa be
       -0.6053015 -1.8537648 -2.106253 -0.48886815
000280 ff 7e 6a bf 8b 85 86 bf 59 69 09 bf 2c a7 3b bf
       -0.9160003 -1.0509504 -0.5367637 -0.7330196
000290 5d 98 a9 be 8a f1 ed 3e 5d 37 01 3f ff de b5 3e
       -0.33124056 0.46473342 0.504751 0.35521695
0002a0 c8 99 63 3e 07 6b ac 3f 3e 94 07 3f 53 4f 2a bf
       0.22226632 1.3470162 0.52960575 -0.6652729
0002b0 be f5 d1 bf 4b e5 02 bf a3 71 f1 3e 69 0e ad bd
       -1.640312 -0.51131123 0.4715701 -0.08450014
0002c0 6b 5b 8a 3e 03 cc be 3f 42 81 52 40 5e fd fa 3f
       0.2702287 1.490601 3.2891393 1.9608572
0002d0 cd 16 13 bf 37 35 43 bf ee dd 93 be 37 44 a9 3f
       -0.57456666 -0.76253074 -0.28880256 1.3223943
0002e0 6e 58 87 3f f7 d0 44 3f 57 0c 4e 3f d8 ff ea 3f
       1.0573862 0.76881355 0.8048758 1.8359327
0002f0 34 ab 53 3f 63 bd 0c be be 0d f3 bd 65 28 36 be
       0.8268311 -0.1374412 -0.118678555 -0.17788847
000300 b7 e2 87 bd 5b 72 ce bc ac 13 ed bd e3 fa 93 3d
       -0.06635039 -0.025201013 -0.11576018 0.07225587
000310 10 07 a6 bd 4a ed 8a bc bb a9 36 be 17 7f 07 be
       -0.08106816 -0.016958851 -0.17838185 -0.13232075
000320 ac 06 3e be c0 f4 2f 3a b3 4b 5c bd e7 26 57 3c
       -0.18557233 0.0006712191 -0.05378313 0.013131834
000330 94 69 19 be a6 28 e7 bd de b9 f2 bd 26 c3 de bd
       -0.14981681 -0.1128705 -0.118518576 -0.10877065
000340 cc 68 22 be 51 74 1c 3c db 87 81 3c 7d 54 4d bb
       -0.1586029 0.009549216 0.015811851 -0.0031330877
000350 64 cc 18 be 28 97 41 bd 23 d4 d5 bd dd bb 36 bd
       -0.14921719 -0.047263294 -0.104408525 -0.044612754
000360 ca 01 8c be 39 ba 71 be 7d 4f da be 06 3c 7d be
       -0.27345115 -0.23606195 -0.4263877 -0.24729928
000370 19 6c 9e 3d ae 7e cd bd 80 ba 97 bd c5 f2 d6 be
       0.07735462 -0.10033928 -0.07408619 -0.41982093
000380 02 44 29 bc a5 27 85 be 8b e9 cb bd 02 b3 21 be
       -0.010331156 -0.2600681 -0.09956654 -0.15790942
000390 64 d2 95 bd 11 76 dc bc f1 2f 3e 3b 5f f2 99 bd
       -0.073155195 -0.026911767 0.0029020275 -0.07516932
0003a0 cc 7f c6 bd b8 af 1b be e1 d4 a0 be fc 7f dc bd
       -0.09692344 -0.1520375 -0.31412414 -0.107665986
0003b0 44 94 27 be 0a df 11 be 1c e5 0c be 3b cb 2b bd
       -0.16365153 -0.14245239 -0.13759273 -0.041941863
0003c0 21 57 6b 3c 8b 93 08 3d df 08 f7 bd 9e 64 c1 bf
       0.014364035 0.033343833 -0.12062239 -1.5108831
0003d0 6a 08 0b c0 cc 66 3b c0 a9 cb cf be 16 93 21 bf
       -2.1723886 -2.9281492 -0.40585068 -0.6311506
0003e0 7b 46 40 bf 41 72 a9 3e 29 53 26 be 49 d8 c5 3e
       -0.75107545 0.3309498 -0.1624266 0.38641575
0003f0 d9 05 73 bf bc 88 2a c0 ca 10 28 c0 26 d9 4d be
       -0.949308 -2.6645956 -2.6260247 -0.20102367

down_convs.1.conv2.bias f4 [6]
000000 f0 3b c0 3c d3 e3 41 bd 6f fc 78 bc f2 21 c1 be
       0.02346608 -0.04733641 -0.015196904 -0.3772121
000010 27 b1 4c 3f 8c 76 7c bd
       0.79957813 -0.061636493

down_convs.1.norm0.weight f4 [6]
000000 d4 de bf 3f 50 b4 02 3f 15 8c 08 3f b3 c4 b6 3f
       1.4989877 0.51056385 0.5333875 1.4278778
000010 55 54 27 40 85 33 01 40
       2.6145222 2.0187695

down_convs.1.norm0.bias f4 [6]
000000 46 f5 bd bf 80 32 94 be 83 64 a9 be 8b e7 1e c0
       -1.4840477 -0.28944778 -0.33084497 -2.4828823
000010 37 cf 69 be a7 fa a3 be
       -0.22832952 -0.3202717

down_convs.1.norm0.running_mean f4 [6]
000000 2c 56 88 42 82 21 24 c1 7e ff fe c0 ec df 65 42
       68.168304 -10.258181 -7.968688 57.468674
000010 2e 5c a4 42 8f 77 26 c3
       82.18004 -166.46703

down_convs.1.norm0.running_var f4 [6]
000000 81 ba 0f 45 40 1b 43 44 27 d8 49 43 15 9c f2 44
       2299.6565 780.4258 201.84435 1940.8776
000010 4d 32 bd 44 b4 71 d5 44
       1513.5719 1707.5532

down_convs.1.norm1.weight f4 [6]
000000 52 81 6d 3f 7d 16 9c 3f 1c 4a a8 3f 4c 25 14 40
       0.9277545 1.2194363 1.3147616 2.3147764
000010 7e 89 ff 3f f9 23 09 40
       1.9963834 2.1428206

down_convs.1.norm1.bias f4 [6]
000000 b6 e5 bd bf a2 ac 8a bf f8 31 47 bf 33 00 ec 3f
       -1.4835727 -1.0833933 -0.7781062 1.8437561
000010 81 17 3e 40 9c ef 59 3f
       2.9701846 0.8513124

down_convs.1.norm1.running_mean f4 [6]
000000 4e a9 7e bf f0 33 68 41 30 9e 6b 41 a1 e3 08 c2
       -0.9947709 14.51268 14.72612 -34.222294
000010 d8 a0 62 c1 3e 79 83 40
       -14.1642685 4.10855

down_convs.1.norm1.running_var f4 [6]
000000 7f f0 2e 45 71 ec e4 44 45 57 d9 44 e9 06 21 46
       2799.031 1831.3888 1738.7272 10305.728
000010 c6 8f 8c 45 99 30 98 45
       4497.9717 4870.0747

down_convs.2.conv1.weight f4 [12, 6, 3, 3, 3]
000000 92 94 03 bf 0c 9a ae be ac 0e 8e be 60 c9 c5 be
       -0.51398575 -0.34101903 -0.2774557 -0.386302
000010 69 54 83 be d3 55 8a be eb 89 21 bf 7d 55 6f be
       -0.25650337 -0.27018604 -0.6310107 -0.23372455
000020 7f 65 95 be c3 c9 03 bf 40 f7 b0 be 4c e6 9f be
       -0.29178998 -0.5147974 -0.34563637 -0.3123039
000030 c4 ab cd be f1 02 c0 be 6c 9c cc be 8b 81 8e be
       -0.4017011 -0.37502244 -0.3996309 -0.27833208
000040 1b 05 a8 be e3 8c f9 bd 60 d9 ee be 8d 03 d9 be
       -0.32816395 -0.12185075 -0.4665022 -0.42385522
000050 50 2d c1 be e6 9f af be 88 6a c8 be a3 c7 f4 be
       -0.37729883 -0.3430168 -0.39143777 -0.4780856
000060 26 70 bf be d4 fd ff be 08 68 f8 be 55 7a 07 bf
       -0.3739025 -0.49998343 -0.4851687 -0.5292104
000070 2f 70 0a bf 81 eb 05 bf 5a 74 36 bf 53 59 ff be
       -0.5407743 -0.52312475 -0.7127129 -0.49872836
000080 c7 82 d5 be a8 fa f9 be 7e 80 e0 be ce 79 c0 be
       -0.41701338 -0.48824048 -0.43848032 -0.3759293
000090 7f 6c 36 bf 65 53 12 bf bb 4f 08 bf 50 d8 0a bf
       -0.712593 -0.571585 -0.5324666 -0.54236317
0000a0 b6 6e 32 bf 56 5a e8 be 7a 09 00 bf 0c b4 0d bf
       -0.6970018 -0.4538142 -0.5001446 -0.55352855
0000b0 d9 74 5d be ef 40 04 bf 69 bd c0 be bc 6a db be
       -0.21626605 -0.5166158 -0.37644508 -0.4285487
0000c0 bd c8 2f bf 22 17 1a bf 25 61 ed be a2 de 04 bf
       -0.6866568 -0.6019155 -0.46363178 -0.5190221
0000d0 11 53 ef be 7b db 86 be a5 c1 19 bf ca 60 f7 be
       -0.46743062 -0.26339325 -0.60061103 -0.48316032
0000e0 07 ba c4 be bf 44 ff be 8d 27 12 bf 74 21 13 bf
       -0.38423178 -0.49857137 -0.570916 -0.5747292
0000f0 c6 bb 89 be dd a1 c7 be 35 81 16 bf 09 43 f4 be
       -0.26901072 -0.3899068 -0.58790904 -0.47707394
000100 bb f9 27 bf 60 d6 06 bf 65 66 f4 be de c9 ef be
       -0.65615433 -0.5267086 -0.4773437 -0.468337
000110 64 28 e6 be 4f 27 c5 be 9d d2 8d be a7 48 eb be
       -0.4495269 -0.38506553 -0.27699748 -0.45953867
000120 51 67 be be 8e 1b e0 be 96 35 8c be 30 e7 06 bf
       -0.371882 -0.43771023 -0.27384633 -0.52696514
000130 c5 0f fb be ed 35 d2 be f9 77 29 bf 71 20 f9 be
       -0.4903547 -0.41056767 -0.6619869 -0.48657563
000140 77 75 d4 be 81 ee f5 3e 01 15 b3 3e b6 2d b3 3e
       -0.4149587 0.48033527 0.34976962 0.34995812
000150 9d 20 ac 3e b4 f0 04 3f 94 4b bd 3e 3d 44 71 3e
       0.33618632 0.51929784 0.36971724 0.23561187
000160 97 92 d2 3e 9b 00 72 3e 73 79 e5 3e ab 61 c7 3e
       0.41127464 0.23633043 0.4481922 0.38941702
000170 8d 4b 88 3e 03 be c7 3e 1e 67 19 3f ca 12 f2 3e
       0.2662014 0.39012155 0.5992297 0.4727996
000180 2a c3 ab 3e 44 81 00 3f f3 97 8b 3e e0 e3 e5 3e
       0.33547336 0.50197244 0.27264366 0.44900417
000190 4b a8 e5 3e 26 58 d1 3e 65 14 a4 3e 28 de 1b 3f
       0.4485496 0.40887564 0.3204681 0.6088586
0001a0 d6 0b 03 3f 0d c4 eb 3e 23 9f 31 3f 9d 9e cc 3e
       0.51189935 0.46048012 0.6938345 0.39964762
0001b0 9c c2 c7 3e bf ba c7 3e bc 90 15 3e 0a 25 a4 3e
       0.39015663 0.39009663 0.14605993 0.3205951
0001c0 17 4f bc 3e 3c 87 6e 3e 4c 56 36 3e 79 10 92 3e
       0.3677909 0.23293775 0.17806357 0.28528193
0001d0 fc eb 6e 3e 56 b1 5b 3e 97 02 3e 3e 97 f6 ca 3e
       0.23332208 0.21454367 0.18555675 0.39641258
0001e0 a5 4b 94 3e a6 2c 76 3e 02 39 8f 3e 35 cb b2 3c
       0.28963962 0.2404047 0.2797318 0.021825412
0001f0 2e 98 61 3e ad 35 52 3e d0 bc b8 3e 66 6c 95 3e
       0.22030708 0.20528288 0.36081553 0.29184264
000200 5c a8 76 3e e6 4c 81 3e fe 82 12 3f a1 fb d0 3e
       0.24087662 0.2525398 0.5723113 0.40816978
000210 4d 23 0d 3f 3a 71 1a 3f c0 e0 f0 3e 8f 26 fe 3e
       0.5513199 0.6032902 0.4704647 0.49638793
000220 ef 3e 6e 3e d8 8e a5 bc 02 b5 a2 be 07 d9 e9 be
       0.23266195 -0.020209715 -0.31778723 -0.4567339
000230 a6 bd 00 bf 52 c2 c8 bd 58 18 08 3d 64 fa 3c 3e
       -0.5028938 -0.09802689 0.03322634 0.18454891
000240 1a 80 af 3d e5 8e 0c be 98 e0 46 be fa e7 05 bf
       0.08569355 -0.13726385 -0.19421613 -0.52307093
000250 27 9e ae be 73 1f df be dd 9e 5c bd b7 7b 0a 3e
       -0.34105036 -0.4357868 -0.05386244 0.13523756
000260 7d ca 80 3e 99 fe ae 3d bc 4b bc be f2 fa 86 be
       0.25154486 0.085446544 -0.3677653 -0.2636333
000270 c3 03 b5 be e3 db aa be 59 fc f0 be 0e 00 b6 3c
       -0.35354432 -0.33370885 -0.47067526 0.022216823
000280 9c f4 b9 3e 5f 42 46 3e 76 4e 04 40 03 f5 35 3f
       0.36319435 0.19361256 2.0672889 0.71076983
000290 a7 28 0b 40 08 92 00 3e 32 cd 59 bf 9d 28 11 3f
       2.1743562 0.12555707 -0.8507873 0.56702596
0002a0 4b d5 aa bf d3 d5 18 c0 6c e8 68 bf 85 15 5f 3f
       -1.3346342 -2.3880508 -0.9097965 0.8714221
0002b0 93 a1 f9 be 81 e3 8e 3f 65 9e 9d bf 81 9f 1c c0
       -0.48756084 1.1163179 -1.2313963 -2.4472353
0002c0 b8 25 49 bf 61 49 0b c0 be 6e 87 c0 fc 8f 0a c0
       -0.7857318 -2.1763537 -4.2322683 -2.165038
0002d0 66 9e 0a 40 0c fc a0 3f ab ce 20 40 97 5d 2c be
       2.1659179 1.2576919 2.512614 -0.16832577
0002e0 d6 80 8a bf 71 24 17 3e 87 f0 cd be af 7c e0 bf
       -1.0820568 0.14759995 -0.4022257 -1.753805
0002f0 7a fc c8 be fa 03 86 bf 23 9c 0f bf 97 9a 97 bf
       -0.39255124 -1.0469964 -0.5609762 -1.1844052
000300 df 75 4b c0 23 66 8a bf dd 27 f0 bf 52 35 95 bf
       -3.1790693 -1.081242 -1.8762165 -1.1656897
000310 ad 8e 28 bf f5 78 94 bf 1e 08 37 bf 96 fe 68 3f
       -0.65842706 -1.1599413 -0.7149676 0.9101347
000320 77 cf 41 bf e9 4e dc bf 7e 89 35 bf 44 e1 ef be
       -0.7570719 -1.7211581 -0.7091292 -0.46851552
000330 1f 7b 67 bf 0e 39 8e bf 2c 42 95 bf 02 8b a0 bf
       -0.9042224 -1.1111162 -1.1660819 -1.2542422
000340 03 23 62 bf 2c 86 c3 bf af 29 0f c0 c9 b8 99 bf
       -0.88334674 -1.5275321 -2.2369192 -1.2009517
000350 a4 cf b3 bf 9b 27 b9 bf bb 79 d0 bf c7 a5 de bf
       -1.4047742 -1.4465212 -1.6287149 -1.7394341
000360 26 40 f9 bd 14 90 d7 3e f8 6c 23 bf c6 82 df be
       -0.121704385 0.4210211 -0.6383815 -0.4365446
000370 6f d0 31 3f cc 64 4e bf 65 76 62 3d ef 54 c6 3e
       0.6945867 -0.80622554 0.05528869 0.38736674
000380 87 d4 d0 bf 40 0c 64 3f 4a 90 06 40 52 52 f4 3e
       -1.6314858 0.8908119 2.1025567 0.47719055
000390 a2 74 a4 3f 5c 69 37 40 78 9f 24 3f 12 0c c7 3f
       1.2848094 2.8658056 0.6430583 1.5550559
0003a0 e7 32 44 40 83 51 15 bf 5a 2b a3 bc 50 f6 10 3f
       3.0656068 -0.583275 -0.019918133 0.56625843
0003b0 33 8d e1 be fa 19 85 3e d8 7c 84 3f 2c ab 3e be
       -0.4405304 0.2599638 1.0350599 -0.18619984
0003c0 47 88 99 be 33 5b 22 3d 13 4a c1 bf e7 10 ae bf
       -0.29986784 0.039637756 -1.5100731 -1.3598908
0003d0 2d e4 a1 be 44 22 de bf f7 e0 ee bf 83 ae 3e bf
       -0.31619397 -1.7354207 -1.8662404 -0.74485034
0003e0 b4 96 e9 bf cb e7 09 bf c8 c3 c4 be 9f 1d 1d bf
       -1.8249116 -0.53869313 -0.3843062 -0.61373323
0003f0 3e 58 6e bf 39 ab e1 3f 87 97 85 bf f5 fc 40 bf
       -0.93103397 1.7630378 -1.0436867 -0.7538598

down_convs.2.conv1.bias f4 [12]
000000 3b ba 28 b6 71 9c 86 3b 87 78 3a b8 02 cd b0 b3
       -2.5142351e-06 0.0041080047 -4.4458106e-05 -8.2329294e-08
000010 e0 31 c0 3b a2 d9 6a bc 82 ef 04 3c 9b a6 c3 3c
       0.0058653206 -0.014334114 0.008113744 0.023883155
000020 f7 71 21 3b c1 cc 11 b9 34 28 81 3b 01 68 9f 3c
       0.0024634579 -0.00013904554 0.00394156 0.019458773

down_convs.2.conv2.weight f4 [12, 12, 3, 3, 3]
000000 d6 00 82 be 96 54 dc be 63 76 b1 be ca 18 f1 3d
       -0.25391263 -0.43033284 -0.34660634 0.11772306
000010 58 da 19 3e 9c 0e 65 be 09 79 d4 3b 5d 15 57 bd
       0.15024698 -0.22368854 0.006484155 -0.052510608
000020 ff b7 57 3e 0e 75 26 3d 0e 73 a3 3d 1c 3c 00 3d
       0.21066283 0.040638976 0.07980929 0.031307325
000030 e4 5b 11 3d d0 2d 6a 3e 9d 8c a2 3d a3 f7 80 3b
       0.035488024 0.22869039 0.07936976 0.0039357706
000040 e0 91 3b be a7 fb 9e 3d d0 e4 8e 3e ea 9c 8b 3e
       -0.18317366 0.077628426 0.27908945 0.27268153
000050 f0 2d fe 3c 8b 82 0c 3e e4 ff b2 3e d8 e4 ff 3e
       0.031027764 0.13721673 0.34960854 0.4997928
000060 5b 33 82 3e a7 f3 cc bd 1a 4c 20 3d e8 c2 4e bf
       0.25429806 -0.100074105 0.039135076 -0.80766153
000070 f9 9e d3 3f f6 83 8d 3f cd 36 99 bf 83 0c 49 3e
       1.653289 1.1055896 -1.1969849 0.19633679
000080 fc 41 9d 3f 71 40 74 3f 32 ba 09 40 be 85 0b 40
       1.2285762 0.9541083 2.1519895 2.180038
000090 6a 4b 36 3f ef b7 60 40 0d 62 39 40 9b ed 88 bf
       0.7120882 3.5112264 2.8966095 -1.0697511
0000a0 89 a1 78 3f d7 ec c0 3f 87 68 68 3f 87 56 17 40
       0.97121483 1.5072278 0.90784496 2.3646562
0000b0 b4 05 28 40 a0 e3 4b 3d c2 f1 59 40 42 99 e4 3f
       2.625348 0.049777627 3.4053807 1.785927
0000c0 90 65 2c bf 22 0e ca 3f 82 a3 40 3f 59 47 0a bf
       -0.6734247 1.5785563 0.75249493 -0.5401512
0000d0 64 a8 f9 3f 56 85 92 3f 6c e9 a6 3e 9c 95 98 3e
       1.9504514 1.1446941 0.32599962 0.29801643
0000e0 2b a8 4b 3e 1c 7c 9e be 00 b0 1d be e2 df 5c be
       0.1988837 -0.30954063 -0.1539917 -0.2156978
0000f0 d7 c8 cd be 5d 90 04 bf 30 06 d3 be 78 c0 86 3e
       -0.4019229 -0.5178278 -0.41215658 0.26318717
000100 22 14 de 3e 41 64 a7 3e 34 a0 2d be 2f 4f 21 be
       0.43374735 0.32693675 -0.16955644 -0.15752862
000110 7c e3 3f be 03 3f 12 bf 41 c6 dc be d4 24 a0 be
       -0.18739122 -0.571274 -0.43120006 -0.31278098
000120 d3 de 88 3d be c3 71 3e ee 36 75 3e 06 84 39 3e
       0.06683125 0.23609826 0.23946735 0.18116769
000130 f6 98 a4 3c 78 ab a2 3d 18 e2 0a bf fe a1 f1 be
       0.020092469 0.07942861 -0.5425124 -0.47193903
000140 b7 61 af be 06 5c cd bd ba 6d 3d be 23 bb 1b be
       -0.34254238 -0.10027318 -0.18498889 -0.15208106
000150 54 29 e4 bc 57 81 6c bd 01 b8 64 bd 21 05 38 3c
       -0.027851738 -0.057740536 -0.055839542 0.011231692
000160 f0 64 40 bd 88 bd 5a bc 48 33 34 3c d0 f5 47 bd
       -0.04697126 -0.013350852 0.0109985545 -0.04881841
000170 e0 08 c6 3d d0 9b 55 3d ad 60 96 bd 22 cf 32 bd
       0.096696615 0.052150548 -0.07342658 -0.04365457
000180 60 bb 2f be 5e 3b 20 be df b2 35 bb 74 a2 9f bd
       -0.17161322 -0.15647647 -0.0027725024 -0.07794657
000190 b3 bb 80 bd 01 9f 16 be ad 8a cf bd 83 84 c1 3d
       -0.06285801 -0.14709093 -0.10133872 0.09449103
0001a0 ad 60 8d 3b c1 db bf bd af 08 14 bc e9 d2 de 3d
       0.004314503 -0.093680866 -0.009035273 0.10880072
0001b0 9c a2 96 bf 69 35 b1 bf b0 2b cf be 6e 3b eb bf
       -1.1768374 -1.3844424 -0.40463018 -1.8377512
0001c0 60 3f 02 c0 57 e8 f2 bf dd 0b 05 c0 7e 4e 9f be
       -2.035118 -1.8977154 -2.078849 -0.31114572
0001d0 2b 0f 42 bf 90 54 b9 be 07 44 63 3e 22 d4 d3 3e
       -0.75804394 -0.3619733 0.22193919 0.41372782
0001e0 8f bc 9b bf 49 a8 02 bc 59 26 91 bf 18 ef 54 3e
       -1.2166919 -0.007974693 -1.1339828 0.20794332
0001f0 9a f2 4a 40 9e 75 a8 3f 17 53 c8 3d 05 16 54 3f
       3.1710572 1.3160894 0.09781473 0.828461
000200 22 01 19 3f dd 43 d2 bf 9c 63 28 bf 68 f6 05 c0
       0.59767354 -1.642696 -0.6577699 -2.0931644
000210 4e 15 f1 be 0b 05 bf 3f d7 64 da be d0 f2 d3 be
       -0.47086567 1.4923414 -0.4265506 -0.4139619
000220 12 4e c3 3e c9 6f 5c bf 6f 09 21 c0 6f b3 4b bf
       0.381455 -0.8610807 -2.5162008 -0.7957067
000230 be f2 bb bf 0d d7 44 c0 fe a9 a6 bf c7 61 eb bf
       -1.4683454 -3.0756257 -1.3020627 -1.8389214
000240 51 ea f3 3e 87 92 20 3e 7b 97 a7 bd 0a 84 6a bf
       0.47639707 0.15680896 -0.081831895 -0.91607726
000250 9a 6f 17 3f d0 0c 30 be 2c be c9 bf 45 49 c4 3f
       0.59154665 -0.17192388 -1.5761161 1.533486
000260 7b 74 72 be fe de c3 3a 04 13 84 3e b4 b1 f4 bd
       -0.23677246 0.0014943776 0.25795758 -0.11947957
000270 19 9a a7 bf 4f 96 2b 3e d7 a5 16 3e 0e 6c 14 c0
       -1.3093902 0.16756557 0.147117 -2.3190951
000280 e4 48 f6 bd 27 ce db bd d5 98 e7 bf f5 ac 80 bf
       -0.120256215 -0.1073268 -1.8093516 -1.0052782
000290 a3 22 cf be fe 30 a1 bf de 71 fd 3e 97 a4 3f be
       -0.40456113 -1.2593076 0.49500936 -0.1871513
0002a0 1c 1e 16 3f 6c cf a1 be b4 1e 6a be 57 10 b8 bf
       0.58639693 -0.31603563 -0.22863275 -1.4379987
0002b0 ce 53 1e bf 02 00 1d 3f 1d c4 0d bf 91 47 48 40
       -0.61846626 0.61328137 -0.5537737 3.129368
0002c0 8d 4c cc 3f e1 fc 1b 3e 39 4d c2 3f 1f 2e 62 3f
       1.5960861 0.15233184 1.5179816 0.88351625
0002d0 31 87 92 bf 51 e7 71 bd 1d 6d 0f 3f 68 62 b9 bf
       -1.1447507 -0.05905849 0.5602587 -1.4483156
0002e0 f1 5f 65 3f 18 8f c0 3e 98 fc 6f bf f3 9a 6c 3e
       0.8959952 0.37609172 -0.937448 0.23105983
0002f0 ec f1 b1 be e1 b3 69 40 18 21 4c 40 18 c9 2d 40
       -0.34754884 3.651604 3.18952 2.7153988
000300 91 97 1e c0 6c ea f3 bf 45 cb e2 bf 28 d8 36 3f
       -2.4780009 -1.9055915 -1.7718283 0.7142358
000310 07 87 33 3f 77 0e a8 3e d0 c6 64 40 0b 2c 43 40
       0.7012791 0.32823536 3.5746346 3.0495632
000320 64 f1 26 40 fa 07 bf bf 2f bf 7d 3d 21 63 44 bf
       2.6084833 -1.4924309 0.061949905 -0.7671376
000330 31 af 2a 3f 26 70 ac 3f 62 a2 37 3e fc b7 47 40
       0.6667357 1.3471725 0.17933038 3.1206045
000340 36 04 27 40 0d 53 19 40 14 76 d6 bf 6a 47 51 3e
       2.609632 2.395694 -1.6754785 0.20437399
000350 84 9e 8a bf e7 b5 47 bf 2a f0 a8 be c6 9d 48 bf
       -1.0829625 -0.78011936 -0.3299573 -0.78365743
000360 af de c2 bf c5 91 8d bf 51 8b b5 bd ab d0 58 3e
       -1.5224208 -1.106011 -0.08864463 0.2117335
000370 14 9d 71 3f 8a b8 fe 3e ec 01 1f 3f 36 31 7a 3f
       0.9438031 0.49750167 0.6211231 0.9773134
000380 29 4c ee bd 3f 01 87 bf e4 6b 64 3f 3e f4 95 3f
       -0.1163562 -1.0547255 0.8922713 1.1715162
000390 d9 3e 92 3e e5 b7 1c 40 46 86 71 3f f8 9b c1 3f
       0.28563574 2.448724 0.9434551 1.5125723
0003a0 de 91 94 40 67 91 c2 3f ed fa 06 bf 8d 72 96 3f
       4.642806 1.5200623 -0.5272663 1.1753708
0003b0 72 93 64 3f fb 81 b4 be b5 7b 88 3f 75 e2 99 be
       0.89287484 -0.35255417 1.0662752 -0.30055586
0003c0 be cc 5c 3f 36 56 17 40 cb 48 fb 3e 4b f5 f6 3e
       0.8624991 2.364637 0.49078974 0.4823402
0003d0 4a 0b 5d bf 9d b0 7a bf d2 65 09 40 16 b6 95 3f
       -0.8634535 -0.9792574 2.1468396 1.1696193
0003e0 b3 29 4d 3f ca a6 e8 be bc 1b f9 3c 36 87 ae be
       0.8014175 -0.4543975 0.030408733 -0.34087533
0003f0 a4 7b 35 bf ca b3 9f bf ad c7 cb bf 2b 93 ae 3f
       -0.70891786 -1.2476742 -1.5920311 1.3638662

down_convs.2.conv2.bias f4 [12]
000000 c8 0e 14 bb 48 2c bd 3a 19 2c e2 bb 41 53 66 b7
       -0.0022591818 0.0014432753 -0.0069022295 -1.3728452e-05
000010 32 eb 49 b3 da 39 c4 3b aa 7f 37 ba e4 b4 37 33
       -4.701287e-08 0.0059883418 -0.00069999194 4.2772527e-08
000020 a7 0e b2 3b 3a 4b 02 bb cc d0 70 bc e6 e2 bb bc
       0.0054338756 -0.0019881264 -0.014698219 -0.022935342

down_convs.2.norm0.weight f4 [12]
000000 fd f0 b1 3e 3c 12 e9 3f c1 09 90 3e 3d b0 87 3e
       0.34754172 1.820869 0.28132442 0.26501647
000010 26 07 c2 3f 0e 18 8f 40 28 2a 7d 40 2c c1 d1 3f
       1.5158432 4.4716864 3.955698 1.6387076
000020 c3 4a 58 3f 79 3c 66 3f f0 2b c5 3f 32 a1 0d 40
       0.8448908 0.89936024 1.5404034 2.2129636

down_convs.2.norm0.bias f4 [12]
000000 9a c3 5f bf a1 92 da bf fe ba 39 bf 1e b4 1d bf
       -0.8740784 -1.7075998 -0.7255095 -0.6160296
000010 db fa f3 bf c8 63 91 3f ef 52 eb 3e c8 69 45 3f
       -1.906093 1.1358576 0.4596171 0.77114534
000020 a2 06 44 c0 44 96 0c 3f 52 22 0b c0 c5 2d e1 bf
       -3.0629048 0.5491679 -2.1739697 -1.7592093

down_convs.2.norm0.running_mean f4 [12]
000000 50 53 21 42 ee 8e 43 c3 d5 b0 e2 42 92 7a ba c1
       40.33136 -195.55832 113.345375 -23.309849
000010 d2 18 99 c3 58 9f 3f 43 5b e9 26 c2 96 95 f0 c2
       -306.1939 191.62244 -41.727886 -120.29216
000020 e9 4b 34 c3 43 5d fb c2 b2 1d ba c3 29 e2 20 c3
       -180.29652 -125.68215 -372.232 -160.88344

down_convs.2.norm0.running_var f4 [12]
000000 8f 7d 86 44 cc 0c 8e 45 18 0e 3b 44 f1 51 39 43
       1075.9237 4545.5996 748.2202 185.32008
000010 e3 e4 ee 45 96 2d 0d 46 a9 a5 37 45 7a fb 2d 45
       7644.611 9035.396 2938.3538 2783.7173
000020 c1 91 d4 45 ee 23 c4 44 a0 8c 22 46 07 0e 96 45
       6802.219 1569.1228 10403.156 4801.7534

down_convs.2.norm1.weight f4 [12]
000000 77 d1 ad 3f 3c 29 e7 3f 3b 4c 20 40 fb c5 8c 3e
       1.3579549 1.8059459 2.5046527 0.27494797
000010 82 d2 00 3e 40 f6 ba 3f a2 0c 68 40 64 06 36 3e
       0.12580302 1.46064 3.625771 0.17775875
000020 f3 4c a9 3f 7e f1 eb 3f 97 1c 16 40 8d a9 97 40
       1.3226608 1.8433073 2.345495 4.739447

down_convs.2.norm1.bias f4 [12]
000000 9b f1 d0 bf cb 29 c6 3d 2c 5d b4 bf eb f7 4f bf
       -1.6323732 0.0967594 -1.4090934 -0.8123767
000010 d3 bf 48 bf 05 d2 c3 3f 3f 97 69 bf 1f e2 8c bf
       -0.784177 1.5298468 -0.9124641 -1.1006507
000020 60 80 0e bf 22 f6 06 c0 81 20 f4 bf a2 6a db 3f
       -0.55664635 -2.1087728 -1.907242 1.7141917

down_convs.2.norm1.running_mean f4 [12]
000000 78 3d a1 c0 82 71 1e c3 1d 96 f2 42 ae 52 36 c1
       -5.0387535 -158.44339 121.29319 -11.395185
000010 47 86 64 c1 a8 58 80 c2 51 6c ab bf f3 f5 51 c0
       -14.282783 -64.17316 -1.339243 -3.2806365
000020 3f 2e ba c2 03 eb 28 42 04 4c 00 c3 2e 7e fd c1
       -93.090324 42.229504 -128.29694 -31.686611

down_convs.2.norm1.running_var f4 [12]
000000 1a ce 50 45 bb 88 15 46 05 73 b5 45 f5 e9 12 45
       3340.8813 9570.183 5806.3774 2350.6223
000010 7c 63 b4 43 92 d8 c5 45 85 58 70 45 2d d8 89 44
       360.77722 6331.0713 3845.5325 1102.7555
000020 8b 7f bf 45 91 31 f6 44 13 f5 47 45 db 77 09 46
       6127.943 1969.549 3199.3171 8797.964

down_convs.3.conv1.weight f4 [24, 12, 3, 3, 3]
000000 b8 0a 6e be 73 c1 61 be ee f6 df bd 83 b6 5f be
       -0.23246276 -0.22046451 -0.1093577 -0.21846966
000010 b5 60 92 be ca 1b 33 be ba c3 5d be b3 7e 78 be
       -0.28589407 -0.1749107 -0.21656695 -0.24267082
000020 0d 01 53 be 6d e3 21 bd 6a 2f 69 be ec c1 02 be
       -0.2060587 -0.03952353 -0.22771993 -0.12769288
000030 c7 3e cc bd e1 f3 78 be 47 4b 90 be 69 d2 82 be
       -0.09972911 -0.24311782 -0.28182432 -0.25551155
000040 55 ba 58 be 54 68 4b be bf 65 e9 bc 0a 6a 94 bd
       -0.2116483 -0.19864017 -0.0284909 -0.07246788
000050 0d bf 1b be cb 06 8d bd ce 3b 49 be a9 30 4e be
       -0.15209599 -0.06886061 -0.1965172 -0.2013575
000060 f4 98 15 be 44 14 68 be ab 3a 39 be 02 cd 5e be
       -0.14609128 -0.2266398 -0.18088786 -0.21757892
000070 7a cd 41 be 01 53 29 be 26 4c 81 be 77 51 91 be
       -0.1892604 -0.1653557 -0.2525341 -0.28382465
000080 df 32 85 be 62 60 49 be 7f c1 77 be 4f df 75 be
       -0.26015374 -0.19665673 -0.24194907 -0.24010967
000090 4d 72 62 3c a6 b3 19 be 85 ca 3e be 50 94 1b be
       0.013821197 -0.15009937 -0.18631943 -0.15193295
0000a0 27 bf a9 be f9 25 84 be 5c 48 30 be 9a e0 89 be
       -0.3315365 -0.2581022 -0.17215103 -0.2692917
0000b0 17 67 77 be e2 1f 51 3d e2 30 24 bd f0 2c 8b bd
       -0.2416042 0.051055796 -0.04008568 -0.067956805
0000c0 1d ed 78 bd 9d 17 73 be 45 87 45 be 84 98 82 be
       -0.060773004 -0.23739477 -0.19289882 -0.25506985
0000d0 45 c8 00 be 73 96 74 be f6 75 95 be 01 86 9f be
       -0.12576397 -0.23885517 -0.2919156 -0.31156924
0000e0 73 82 9b be d0 19 74 be 40 0a 67 be a3 21 1a be
       -0.30372962 -0.23837972 -0.22562504 -0.15051894
0000f0 55 55 56 be c8 b9 83 be 2c 35 73 be dd a7 19 be
       -0.20930989 -0.25727677 -0.23750752 -0.15005441
000100 b5 2a 47 be 38 91 91 be e9 31 58 be 1d 48 99 be
       -0.19449885 -0.28431106 -0.21112789 -0.2993783
000110 d7 ee a0 be fe b9 10 be e2 75 4c be 84 f0 6d be
       -0.3143222 -0.1413345 -0.19966844 -0.2323628
000120 9a 9d d5 bb 80 b5 c9 bd ce b5 03 be 7c 45 0d be
       -0.0065190317 -0.098490715 -0.12862322 -0.13796037
000130 bb 32 14 be de c2 55 be f4 3f b7 bd 2f b5 4b be
       -0.14472477 -0.20875117 -0.08947745 -0.19893335
000140 5f 52 47 be bc 9f 02 be be 83 6f be 66 76 1a be
       -0.19465016 -0.12756246 -0.233901 -0.15084228
000150 fa d2 91 3b b1 5b da bd eb 5e 71 be e0 c1 9a bb
       0.004450199 -0.1066202 -0.23571365 -0.0047228187
000160 9c 95 03 be a7 a3 d1 bd 69 cd cf bd 9d 28 46 be
       -0.1285004 -0.10236292 -0.10146601 -0.1935143
000170 46 15 b0 bd 65 c7 7c bd 63 7f 97 bd f2 46 80 be
       -0.085978076 -0.061713595 -0.07397344 -0.25054127
000180 70 40 79 bd ba 34 47 bd 4e 53 07 be 57 25 4e bc
       -0.060852468 -0.04863427 -0.13215372 -0.012582145
000190 7e 47 6b bd 5e f8 14 be 5c 33 35 bd 88 d9 6a bd
       -0.057441227 -0.1454787 -0.044238433 -0.05733636
0001a0 84 b6 fa bd 09 1b 2e bd 1c 08 d6 bd 94 4a 23 be
       -0.12241843 -0.04250625 -0.104507655 -0.15946418
0001b0 d1 e2 31 bd 1b 5f ae bc 16 e1 b1 bc de 8b 48 3d
       -0.0434292 -0.021285584 -0.021713775 0.048961513
0001c0 1c d7 ba bc cb 20 d9 bc 6d d4 ab 3d 53 04 2a 3d
       -0.02280765 -0.026504895 0.083901264 0.04150803
0001d0 f7 ce e2 bc 39 a4 48 3b 1f f3 d6 bc a3 91 19 bd
       -0.02768658 0.0030615462 -0.026238976 -0.037492406
0001e0 5c f1 87 bd 8d 68 00 3d 78 5a 27 bc 7b d1 79 3b
       -0.066378325 0.031349707 -0.0102144405 0.0038119245
0001f0 8d e7 ae bd 74 1f d4 bd 2b 15 0a 3e 5e 56 54 3d
       -0.085402586 -0.10357562 0.13484637 0.05184018
000200 c8 ff 8d bc e8 0b 94 bc 4f 97 7b bd 64 f4 0d bd
       -0.01733388 -0.018072084 -0.061423596 -0.034656897
000210 34 64 d7 bc ab 3c 9c bd 6d 38 72 bc 91 ba 68 be
       -0.026292898 -0.07628759 -0.014783961 -0.2272742
000220 1d 35 39 be 8b 48 02 be 41 7e 91 be 95 67 bb be
       -0.18086667 -0.12722985 -0.28416637 -0.36602464
000230 1e 18 a9 be 77 47 40 be 04 44 69 be 69 56 81 be
       -0.33026212 -0.18777262 -0.22779852 -0.25261238
000240 0c 0c 44 be 64 0e 13 be 82 0d f0 bd f8 70 82 be
       -0.1914522 -0.14360958 -0.117213264 -0.25476813
000250 f1 45 9d be 56 90 76 be 9c 9a 6b be a3 0f 14 be
       -0.30717424 -0.24078497 -0.23008198 -0.1445909
000260 f1 a7 db bd 51 90 24 bd 9b 06 9c bd 16 7c 04 be
       -0.10725392 -0.040176693 -0.076184474 -0.1293796
000270 74 7b c8 bd 03 bc 7a be d1 b0 62 be 65 d0 fb bd
       -0.09789172 -0.24485783 -0.22137763 -0.122956075
000280 74 39 f2 bd cd ac 4b bd 68 cf 91 bd a6 b1 c0 bd
       -0.118273646 -0.049725343 -0.07119638 -0.09408884
000290 08 fb 70 be 76 14 4f be 41 0c 85 be 8a 0e 8d be
       -0.23533261 -0.20222649 -0.2598591 -0.27550155
0002a0 b7 f1 86 bd 7a ac b7 bd 74 02 82 be 05 fa 49 bd
       -0.06589072 -0.08968444 -0.25392497 -0.049310703
0002b0 67 b6 e3 bd 87 2a 67 be be 49 4d be aa 1a 65 be
       -0.11118775 -0.22574817 -0.20047662 -0.22373453
0002c0 5f 3a 46 be f9 88 98 bd ee 24 23 be 55 ad 0c be
       -0.19358204 -0.074480005 -0.15932056 -0.13737996
0002d0 d2 6d 07 bd 37 d4 98 bd 55 4a 0d be 83 ca c5 bd
       -0.033063717 -0.07462352 -0.13797887 -0.09657767
0002e0 2f 5d 5f be cd c2 8d be 05 d0 0c be 34 da 20 be
       -0.2181289 -0.27687684 -0.13751228 -0.15708238
0002f0 43 ad 5b be cb 3d e6 bc b0 b4 62 bd 0c e9 7e 3c
       -0.21452813 -0.028105637 -0.0553481 0.015558492
000300 0a f2 9d 3c 1e 54 97 bd b2 87 ea bd d6 27 a6 bc
       0.019280452 -0.07389091 -0.11451663 -0.020282667
000310 05 74 41 3d 30 0c 60 bd 5c 57 93 bd 45 ec c8 bc
       0.047229785 -0.054699123 -0.07194397 -0.024526725
000320 7a c2 34 3c eb a4 12 3c ac 6d 8f 3c e1 7a e3 bd
       0.011032695 0.008950452 0.01750835 -0.11107422
000330 a4 eb ef bb 92 71 ad bd a5 93 20 3d 91 f4 37 3d
       -0.0073217917 -0.084689274 0.039203305 0.04491097
000340 87 65 7b bd fe 71 18 bd 70 9c ab bd e3 a5 c5 bb
       -0.06137612 -0.037218086 -0.083794475 -0.006031738
000350 b0 66 67 bd cc 82 57 3d 6a 5b 4f 3c 83 16 73 bd
       -0.056494415 0.052614972 0.012656072 -0.05934764
000360 8d db 88 be f8 ac 71 be 95 88 2a be 03 f6 94 be
       -0.26730004 -0.23601139 -0.16653664 -0.29093942
000370 af 24 92 be e1 9a bf be 37 b5 3b be b6 04 64 be
       -0.28543612 -0.3742285 -0.18330847 -0.22267422
000380 03 a2 83 be 26 47 0b be 0c 98 5f be a3 ba 4d be
       -0.25709543 -0.1360136 -0.21835345 -0.20090728
000390 99 be 8b be 67 b7 9f be f8 1c b6 be 6a c0 47 be
       -0.27293852 -0.31194612 -0.35568976 -0.19506994
0003a0 eb 23 9b be 99 70 2e be 16 59 0d 3d eb 4d c9 bd
       -0.3030084 -0.1703514 0.034508787 -0.09829315
0003b0 87 44 c8 bd 95 a6 7f bd 70 89 6c be f2 eb 89 be
       -0.097786956 -0.062414724 -0.23099303 -0.26937824
0003c0 28 7f c5 bd b0 89 0b be 02 7d 47 be 94 a2 84 bd
       -0.09643394 -0.13626742 -0.1948128 -0.06476322
0003d0 3a 6e 27 be 30 51 9e be e8 26 6a be bc 39 b7 be
       -0.16350642 -0.30921316 -0.22866404 -0.35786235
0003e0 f8 2f 89 be 1a 5a 16 be 96 d2 9d be ad 2d 80 be
       -0.2679441 -0.14682809 -0.30824727 -0.25034848
0003f0 ac be 30 bd b4 21 a7 bd 3f 47 7b be 98 55 1b be
       -0.04315059 -0.08160725 -0.24538897 -0.1516937

down_convs.3.conv1.bias f4 [24]
000000 9c 4e c4 33 f4 23 0b 39 0b 90 82 34 8a 13 61 b4
       9.14126e-08 0.00013269467 2.4319192e-07 -2.0961866e-07
000010 d2 d1 0e b8 e1 86 cf b0 eb bd a0 33 b3 cc fd b9
       -3.405085e-05 -1.5099567e-09 7.4851265e-08 -0.00048408433
000020 68 1b a2 34 ba e4 13 35 2d 5c 88 b6 8d fa 93 b7
       3.0194792e-07 5.509461e-07 -4.0638465e-06 -1.7640437e-05
000030 97 ba 92 b0 fa e1 bd 35 60 f4 50 bb 0b f9 ae b4
       -1.067593e-09 1.4147365e-06 -0.003188394 -3.2591228e-07
000040 ce 58 0f bb 2d 0d c3 ba c0 c0 8a b2 ca 42 19 34
       -0.0021873 -0.0014881246 -1.6152967e-08 1.4273533e-07
000050 26 43 0a 34 f8 d4 55 ba b2 f4 c9 39 ff 5a bd 3a
       1.287668e-07 -0.000815704 0.0003852002 0.0014446675
