outputs/outputs_new_diff_mask_2/epoch_180_model.pth (torch, 695315 bytes, 241 tensors)

down_convs.0.conv1.weight f4 [3, 1, 3, 3, 3]
0	0x3fa2a6ae	1.2707117
1	0xbf68d231	-0.90945727
2	0x3eb0ac1c	0.3450631
3	0x3ede81e8	0.43458486
4	0x3f977bc1	1.1834642
5	0x40608c58	3.508566
6	0x40143f14	2.31635
7	0x3fa126db	1.2589983
8	0x3f7e6b1c	0.99382186
9	0xbf0e879c	-0.55675673
10	0xc067085b	-3.609885
11	0xc00681e8	-2.1016788
12	0xbf6fa452	-0.9361011
13	0xbfadd299	-1.3579894
14	0x3ffc8464	1.9727902
15	0x40332b4b	2.7995174
16	0x3fa3b7c3	1.2790455
17	0x3f925ebb	1.143516
18	0x3fa5f2e2	1.2964747
19	0xbf2fa901	-0.68617254
20	0x3ee835a0	0.45353413
21	0x3f09cf8f	0.53832334
22	0x3f3160af	0.6928815
23	0x40372b08	2.8620014
24	0x3fb1c354	1.3887734
25	0xbe639918	-0.2222637
26	0xbeaa439c	-0.33254707
27	0xc0021d35	-2.0330327
28	0x3f656985	0.89614135
29	0xc00c188e	-2.1889987
30	0xbfc9c674	-1.5763688
31	0x3f7492f9	0.9553676
32	0xbf93ea48	-1.1555872
33	0xbfccfc3d	-1.6014477
34	0x3f92461d	1.1427647
35	0xbf2e8867	-0.68176883
36	0x3faf0bae	1.3675439
37	0x40c418b1	6.128014
38	0x408ab233	4.334253
39	0xbcacce6b	-0.021094522
40	0x3da0f82e	0.078598365
41	0x4004722c	2.0694685
42	0x3fc2ae3d	1.5209423
43	0x3fb91199	1.4458495
44	0x3f0c996d	0.5492161
45	0xbfa6df9e	-1.3036993
46	0x406d9db2	3.71275
47	0xbd3707da	-0.044685222
48	0xbfc9d293	-1.5767387
49	0x3f20509f	0.6262302
50	0xbffcc1d9	-1.9746658
51	0xbee50728	-0.44732022
52	0x3f96df01	1.1786805
53	0xbf9025f2	-1.126158
54	0x3f943aa3	1.1580395
55	0xbfa090da	-1.2544205
56	0x401c0195	2.4375966
57	0xbf983a04	-1.1892705
58	0xbd88bd0a	-0.06676681
59	0xc00f3c52	-2.2380567
60	0xbeb13f77	-0.34618732
61	0xbf363e7c	-0.71189094
62	0xbf173a31	-0.5907317
63	0xc0478cb9	-3.117964
64	0xc0d4bc0b	-6.6479545
65	0xbf711a76	-0.94181
66	0x3fb3f930	1.4060421
67	0x408e5d1e	4.448867
68	0x3f84f47b	1.038711
69	0xbf403a37	-0.7508883
70	0xbfb1c718	-1.3888884
71	0xbeec3fe5	-0.46142498
72	0xbfdaacd2	-1.708399
73	0xc08bdbf4	-4.3705997
74	0x3e535fb7	0.20641981
75	0xbc5c8d7f	-0.01346147
76	0x401dce4d	2.4657166
77	0xbf06a70a	-0.5259863
78	0xbf9fd4b9	-1.2486793
79	0xbfa8fc2b	-1.3201956
80	0xbee68cc5	-0.45029274

down_convs.0.conv1.bias f4 [3]
0	0xbc9eed08	-0.019400135
1	0x3e1a5132	0.15070036
2	0x3c738199	0.014862441

down_convs.0.conv2.weight f4 [3, 3, 3, 3, 3]
0	0xc01f9ee9	-2.494074
1	0xbf227f88	-0.6347585
2	0xc0645dd8	-3.5682278
3	0x3f9b9a56	1.2156475
4	0x3fbb64e8	1.4640169
5	0x3f8e4a16	1.1116359
6	0xbeb8a6f6	-0.3606488
7	0xbf6a6d08	-0.9157262
8	0x3df64247	0.1202436
9	0xbfb5729e	-1.4175603
10	0x3e70daa2	0.23520902
11	0xc00230db	-2.034232
12	0xbf55481c	-0.83313155
13	0xc0ae6a9c	-5.450514
14	0xc0483911	-3.128483
15	0x3d9f38c5	0.077745
16	0x3f323cf3	0.6962425
17	0x3fa04631	1.2521421
18	0xc0377a80	-2.8668518
19	0xbeaa2129	-0.33228424
20	0xc0705faf	-3.75584
21	0xbf73c18b	-0.952172
22	0xc09c5fb3	-4.886682
23	0xc01e7b5b	-2.476279
24	0x3ed7a45a	0.42117578
25	0x3fb3bc5a	1.4041855
26	0x3ff00ddb	1.8754228
27	0x3f45cd43	0.7726633
28	0x3fd501ae	1.6641138
29	0x3f77dacb	0.96818227
30	0x3f714a6e	0.94254196
31	0x3db63400	0.08896637
32	0xc02ccde6	-2.700067
33	0xbf963030	-1.1733456
34	0x3f14df8b	0.581536
35	0x3fa43a4c	1.2830291
36	0x400f8598	2.242529
37	0x40315642	2.7708898
38	0x3efded32	0.49595028
39	0xbf1614d9	-0.5862556
40	0x3faeeab0	1.3665371
41	0xbe9e0143	-0.30860338
42	0xbe9d5368	-0.30727696
43	0xbffa9835	-1.95777
44	0xbfd99b62	-1.7000544
45	0x3fbacfa9	1.4594623
46	0x3fd3ab77	1.6536702
47	0xbe49038f	-0.19630264
48	0xc019aeec	-2.4013014
49	0xbf33a790	-0.70177555
50	0xbf2e57cb	-0.6810271
51	0x3f412333	0.75444335
52	0xc02796ac	-2.6185713
53	0xc005c278	-2.0899944
54	0xc0618213	-3.523564
55	0xbfd070ab	-1.6284384
56	0xbf99edc7	-1.2025689
57	0xc0317890	-2.7729836
58	0xc0803313	-4.0062346
59	0xc07ec94d	-3.9810364
60	0xbf33a8ab	-0.7017924
61	0xc003b15e	-2.0577006
62	0xc0043705	-2.0658581
63	0xbf6e600d	-0.9311531
64	0xbe9f56f1	-0.3112102
65	0xbeab927e	-0.33510202
66	0xc062ce18	-3.543829
67	0xc085a6a9	-4.1765943
68	0xc016fe45	-2.3592694
69	0xbf95050b	-1.1642164
70	0xbfb153e8	-1.3853731
71	0xc011f288	-2.280428
72	0xbf2c6134	-0.6733582
73	0x3f111efe	0.56687915
74	0x3da491b8	0.08035606
75	0xc07b1a66	-3.9234862
76	0xc0119782	-2.2748723
77	0xbfa8a2f3	-1.3174728
78	0xbed2267a	-0.4104498
79	0xbf89b2c8	-1.0757685
80	0xbfc2f4d3	-1.5230964
81	0x3daf646a	0.08564074
82	0x3ecc6e0c	0.3992771
83	0x3f78df73	0.97215956
84	0xbf0d867a	-0.5528332
85	0x3c2a03c8	0.010376878
86	0xbf0f76f6	-0.56040895
87	0xbf8c05fa	-1.0939324
88	0xbe6aee2e	-0.22942421
89	0xbef10148	-0.4707129
90	0x3fb620e5	1.4228789
91	0x3f774912	0.9659587
92	0x3ffdc72e	1.982641
93	0x3e4c70d4	0.19964916
94	0x3c058e98	0.008151673
95	0xbe1d71b7	-0.1537541
96	0xbf6c1fc9	-0.92236
97	0x3e2dab08	0.16959774
98	0x3f961f21	1.172825
99	0x3fb83020	1.4389687
100	0x3ff35e42	1.901314
101	0x40031979	2.0484297
102	0xbf01bedf	-0.5068187
103	0x3e4fce4a	0.20293537
104	0xbf7b84c3	-0.98249453
105	0xbfb518ea	-1.4148228
106	0x3f2a15d5	0.66439563
107	0x3f936f7a	1.1518395
108	0x3cbb3103	0.022850519
109	0xbfcb4489	-1.588029
110	0xbf1963ca	-0.5991789
111	0x3f875809	1.0573741
112	0xbf2d7f49	-0.67772347
113	0x3d51cddf	0.051221725
114	0xbf5a984b	-0.8538863
115	0x3e09480b	0.13406388
116	0x3fa476d0	1.2848759
117	0xc003267e	-2.0492244
118	0xbffb1f83	-1.9618992
119	0xc060c1d9	-3.5118315
120	0xbf129cef	-0.5727071
121	0xbfde610e	-1.7373369
122	0xc00c1573	-2.1888092
123	0x3ce7ce81	0.02829671
124	0x407ccf57	3.950155
125	0x402d9ecb	2.712817
126	0xbfab38ae	-1.3376672
127	0xc059173b	-3.3920429
128	0xc004baa4	-2.0738916
129	0x3f6414c1	0.8909417
130	0xbfe2887b	-1.76979
131	0xbdd6ab73	-0.1048192
132	0x3eefdaec	0.46846712
133	0x3fd56ebb	1.6674417
134	0x402cb8b4	2.6987734
135	0x3e4f56ee	0.20248005
136	0x40154072	2.3320584
137	0x3fb5c972	1.4202101
138	0x3fdc36bf	1.7204207
139	0x3f12559c	0.5716188
140	0x3f5745a3	0.8409063
141	0xbf897646	-1.0739219
142	0xc036cf86	-2.8564162
143	0xc0176f58	-2.366171
144	0x3fd9d513	1.701815
145	0x4090e5f0	4.5280685
146	0x40680527	3.6253145
147	0x3f8ba2d5	1.0909067
148	0xbfacb695	-1.349322
149	0xbef0e12c	-0.47046793
150	0xc013e1e6	-2.3106627
151	0xc0940956	-4.6261396
152	0xc0782e9c	-3.8778448
153	0x3ee42c54	0.4456507
154	0x406131a1	3.518654
155	0x403930b0	2.8935966
156	0x3f80e6f5	1.0070482
157	0x3ca72950	0.020405442
158	0x3f758ef7	0.9592127
159	0xbf40be21	-0.75290114
160	0xc05576ef	-3.3353841
161	0xc02d4d76	-2.7078528
162	0x3fbfd565	1.4986998
163	0x3f87efb8	1.0620031
164	0x3eb88b37	0.36043712
165	0x40295b25	2.646188
166	0x3fe3a280	1.7783966
167	0x4095c137	4.679836
168	0xbf1a3085	-0.60230285
169	0x3f61c329	0.88188416
170	0x3f9a594e	1.2058504
171	0x3f7fb415	0.9988416
172	0xbe8bd1d7	-0.27308533
173	0xbe2fd743	-0.1717196
174	0xbf1f8c37	-0.62323326
175	0xc08ec9b6	-4.462123
176	0x3f912cee	1.1341836
177	0x3eedc3df	0.464385
178	0x3fbb51e3	1.4634365
179	0x406702ca	3.6095452
180	0x3f86117b	1.0474085
181	0x3efa510d	0.48889962
182	0xbeb5a8dd	-0.35480395
183	0x3f8120c8	1.0088129
184	0xbde9c4e3	-0.11414506
185	0x401f0213	2.4845016
186	0x3fc2377c	1.5173182
187	0x401b897f	2.430267
188	0x402d4a26	2.7076507
189	0x3ff754f6	1.9322803
190	0x3e893994	0.2680174
191	0x3f3dac13	0.7409069
192	0x3f268a3d	0.65054685
193	0x3d657909	0.05602363
194	0x40309cf6	2.7595801
195	0x402f7f09	2.7421286
196	0xbfc26946	-1.5188377
197	0x3f3cc1fc	0.73733497
198	0x3f509e05	0.8149112
199	0xbda92eee	-0.08260904
200	0xbf5ea90c	-0.86976695
201	0xc00012f7	-2.0011575
202	0x3df88433	0.1213459
203	0x3e7c8a57	0.24662147
204	0x3f90462b	1.1271414
205	0x3e7d3bc3	0.24729829
206	0xc03bc6b3	-2.9340026
207	0x3fe777c5	1.8083426
208	0xbebe742b	-0.37198004
209	0x3f7329a5	0.9498542
210	0xbe3eaa0d	-0.18619557
211	0xbfb5eb8e	-1.421251
212	0x3fb820a0	1.4384956
213	0x405ed93c	3.482009
214	0xbefa41a1	-0.48878196
215	0x40171271	2.3605006
216	0xc026e955	-2.6079915
217	0xbfd5dd70	-1.6708202
218	0xbf8f091b	-1.1174654
219	0xbea0f5fd	-0.31437674
220	0xbf9472ce	-1.1597536
221	0x3ee275ab	0.442304
222	0x3fe0eaca	1.7571652
223	0x3cb82d17	0.022482438
224	0x3f9e4b35	1.2366701
225	0xbfff11af	-1.9927272
226	0xbe79cbbe	-0.24394128
227	0xbf925612	-1.1432517
228	0xbf54aa93	-0.83072776
229	0xbf709eae	-0.93992126
230	0x3ef39fe1	0.47582915
231	0x3f8bc6ec	1.0920081
232	0xbf30ea38	-0.6910739
233	0x3df063f4	0.117378145
234	0xbf77b925	-0.96766883
235	0xbefeb705	-0.49749008
236	0xbf8fe45e	-1.1241567
237	0x3f9821f1	1.1885358
238	0x3fa1eb56	1.2649944
239	0x3ffa688f	1.9563159
240	0x401b552d	2.4270737
241	0x3f9c54d7	1.2213391
242	0x401297b4	2.2905092

down_convs.0.conv2.bias f4 [3]
0	0xc02fdf70	-2.7480125
1	0x3ec374bf	0.38175008
2	0x3f162f84	0.58666253

down_convs.0.norm0.weight f4 [3]
0	0x3fd59d98	1.6688719
1	0x3fac7f6e	1.3476388
2	0x3fdb47f8	1.7131338

down_convs.0.norm0.bias f4 [3]
0	0xbfd6e7d2	-1.6789496
1	0x3fba54d3	1.4557136
2	0xc05261c5	-3.2872174

down_convs.0.norm0.running_mean f4 [3]
0	0xbc8afa32	-0.016965006
1	0x3e333e25	0.17504175
2	0x3c2be3d1	0.010491327

down_convs.0.norm0.running_var f4 [3]
0	0x4341f63f	193.9619
1	0x42e9ee27	116.96514
2	0x4361ae72	225.68143

down_convs.0.norm1.weight f4 [3]
0	0x4026f77d	2.6088555
1	0x3fb9fd53	1.4530433
2	0x40045983	2.0679634

down_convs.0.norm1.bias f4 [3]
0	0x4033d48f	2.8098485
1	0xbfc14fb2	-1.5102446
2	0xbfd7c256	-1.6856182

down_convs.0.norm1.running_mean f4 [3]
0	0xc1159293	-9.348285
1	0xc1468f84	-12.410038
2	0x41b53441	22.650515

down_convs.0.norm1.running_var f4 [3]
0	0x448d0b5f	1128.3553
1	0x43dde24f	443.76804
2	0x445aa29b	874.5407

down_convs.1.conv1.weight f4 [6, 3, 3, 3, 3]
0	0x3f0b3d00	0.54389954
1	0xbef1355b	-0.4711102
2	0x3e0c9261	0.13727714
3	0x400b8092	2.1797223
4	0x3ff5111c	1.9145846
5	0x402ab08d	2.6670258
6	0x3eb05cec	0.34445894
7	0xbf35e1e5	-0.7104781
8	0x401a732e	2.41328
9	0x3d86d9cc	0.0658451
10	0xc01de1d6	-2.466909
11	0xbf8346bc	-1.0255961
12	0x3fd87c73	1.6912979
13	0x3fdaa84f	1.7082614
14	0x3fea7ce4	1.8319364
15	0xc0027799	-2.0385497
16	0xc08277f6	-4.0771437
17	0xbf6b92fa	-0.92021143
18	0x3f0d0894	0.55091214
19	0xbf3629e2	-0.7115766
20	0x3efbb194	0.4915892
21	0x4041f9a5	3.030862
22	0x4029f866	2.655786
23	0x403f1e08	2.986208
24	0x3fdb4a69	1.7132083
25	0xbf5ab7a1	-0.85436445
26	0x3f89ea0d	1.0774552
27	0xbf6210a4	-0.8830664
28	0xbe4ed265	-0.20197447
29	0xbe73cf8a	-0.23809639
30	0x3ffaec53	1.960337
31	0x3f78f101	0.9724274
32	0x3ffdf846	1.9841392
33	0x3fcf81a5	1.6211439
34	0x3f61f53a	0.8826481
35	0x3f8e50f7	1.1118459
36	0x3b8d12e7	0.004305232
37	0xbec6459f	-0.38724992
38	0x3d26d1f5	0.040727574
39	0x3faaf139	1.3354865
40	0xbfaa35fe	-1.3297727
41	0x3ed82a44	0.42219746
42	0x3fbb1f12	1.4618857
43	0x3f3380a9	0.70118195
44	0x3ecc1595	0.39860216
45	0xbf04ac9d	-0.51825887
46	0xbd2648fc	-0.040596947
47	0xbefee359	-0.49782827
48	0x400d4df8	2.2078838
49	0x3f5840d4	0.8447392
50	0x3fc5c675	1.5451189
51	0x4007a753	2.1195877
52	0x3fa69afc	1.3016047
53	0x3fbd6cb2	1.4798796
54	0xbfb5e19a	-1.4209473
55	0xbda051c9	-0.07828099
56	0xbf1c4a8a	-0.6105124
57	0xbfe71c39	-1.8055488
58	0x3f06021c	0.5234697
59	0xbf8359bb	-1.0261759
60	0xc014a9dc	-2.3228674
61	0x3ef0824c	0.4697441
62	0xbf938f7b	-1.1528162
63	0xbed5073e	-0.41607088
64	0x3f4446f9	0.76670796
65	0x3eedf3aa	0.46474963
66	0x3ef0aa6b	0.4700502
67	0x40853980	4.163269
68	0x3fc00d08	1.5003977
69	0x3f3d0aaf	0.73844427
70	0x40f7aec3	7.740083
71	0x4062a3f5	3.5412571
72	0xbf31a0b9	-0.6938587
73	0x3f0d5018	0.5520034
74	0x3ef0aed3	0.4700838
75	0xbf229706	-0.63511693
76	0x4002dff9	2.0449202
77	0x3f5187c9	0.81847817
78	0xbfb87bb7	-1.4412755
79	0x406c1a33	3.689099
80	0x3ff9f003	1.9526371
81	0xbde5d699	-0.11222572
82	0xbe20db11	-0.15708567
83	0xbe3f0b12	-0.18656567
84	0xbcc03242	-0.023461465
85	0xbd0d7552	-0.034535713
86	0xbddb680a	-0.10713203
87	0x3c1a2cf5	0.009410133
88	0xbd98677f	-0.07441615
89	0xbd8f9123	-0.070101045
90	0xbd5ff438	-0.054676265
91	0x3c365d4e	0.011130644
92	0xbc3ecde7	-0.011645771
93	0xbddb1b69	-0.106985874
94	0xbe30bbd2	-0.17259148
95	0xbd87ccfa	-0.06630893
96	0xbd17f091	-0.037094656
97	0xbbbac67f	-0.005699932
98	0x3d576a14	0.0525914
99	0xbe02fcf8	-0.12791812
100	0x3e00dff9	0.12585439
101	0xbdac4d51	-0.084131844
102	0x3c024399	0.007950687
103	0xbd789434	-0.060688213
104	0x3b7fe4c1	0.003904626
105	0x3dd9cfce	0.10635339
106	0x3d6e7efa	0.058226563
107	0xbc8e309b	-0.017357161
108	0xbe8df375	-0.27724805
109	0xbe342d9a	-0.1759552
110	0x3d0572cd	0.032580186
111	0xbe982f92	-0.29723793
112	0xbce2bfe7	-0.027679397
113	0xbdbf3440	-0.09336138
114	0xbebc7563	-0.3680831
115	0xbe9a3490	-0.30118227
116	0xbe77256e	-0.24135372
117	0x3cccf856	0.02502076
118	0xbe68c3af	-0.22730897
119	0xbdb59e70	-0.0886811
120	0xbe4ca7b7	-0.19985853
121	0xbeb11eb9	-0.34593752
122	0xbde4cbe7	-0.11171704
123	0xbee65cbd	-0.4499263
124	0xbecbcdaa	-0.39805347
125	0xbeccc93e	-0.39997286
126	0xbe773d89	-0.24144568
127	0xbe1058bf	-0.14096354
128	0x3e930bf1	0.28720048
129	0xbea5cb30	-0.32381582
130	0xbe0421a2	-0.12903455
131	0xbea048ae	-0.3130545
132	0xbdc157b9	-0.0944056
133	0xbe64cbaf	-0.22343324
134	0xbe197816	-0.14987215
135	0x3d4f8e6e	0.05067294
136	0xbc574f8c	-0.013141524
137	0x3e2ea24f	0.17054103
138	0xbeee43a6	-0.46535987
139	0xbf19760c	-0.5994575
140	0xbeee1ca4	-0.46506226
141	0xbf17a7ec	-0.59240603
142	0xbf15d406	-0.5852665
143	0xbefbac10	-0.4915471
144	0xbe4b50f0	-0.19855094
145	0xbe65e7fb	-0.22451775
146	0xbd237363	-0.039904963
147	0xbece6086	-0.40308017
148	0xbf1f0ffb	-0.6213376
149	0xbf1e8329	-0.61918885
150	0xbf486a17	-0.7828688
151	0xbf3f110e	-0.746354
152	0xbf55e626	-0.83554304
153	0xbe97c53d	-0.29642668
154	0xbea9d2fc	-0.3316878
155	0xbdfb3aa2	-0.12267043
156	0xbf37fb0f	-0.7186746
157	0xbf1a06cf	-0.6016664
158	0xbf414d14	-0.75508237
159	0xbf2aeeb9	-0.6677051
160	0xbf7adfad	-0.9799755
161	0xbf586989	-0.84536034
162	0xbe00164c	-0.12508506
163	0x3d6ce2d7	0.05783352
164	0xbc675005	-0.014118199
165	0x3c82d1e9	0.015969234
166	0xbcc4e81c	-0.02403646
167	0xbe0ad371	-0.13557221
168	0xbe58b598	-0.21163023
169	0xbd2fbafb	-0.042902928
170	0xbe4bb652	-0.19893768
171	0xbdb53be6	-0.08849315
172	0x3dcadae0	0.09905028
173	0xbda4c6e6	-0.08045749
174	0xbe24a0bf	-0.16076945
175	0x3d271bcf	0.040798005
176	0xbdfff33c	-0.12497565
177	0x3cfb3fa3	0.030669993
178	0xbc95afd1	-0.018272312
179	0xbde75a3b	-0.11296507
180	0xbe4eb98d	-0.2018797
181	0xbd42fee1	-0.047606353
182	0xbb0c3b0e	-0.0021397504
183	0xbe19ce07	-0.1502
184	0x3e1adf3c	0.1512422
185	0xbde772a2	-0.11301161
186	0x3ca61394	0.020273007
187	0x3b4acbfa	0.0030944333
188	0xbd1edf9c	-0.03878747
189	0xbe9ec863	-0.31012258
190	0xbd15f1bb	-0.036607485
191	0x3d49a549	0.049229894
192	0xbc9621f4	-0.018326737
193	0x3da9a4ab	0.08283361
194	0xbdfe1883	-0.12407019
195	0xbe484df6	-0.1956099
196	0xbdb5edf6	-0.08883278
197	0xbdffd54b	-0.12491854
198	0xbc1f22b5	-0.009712865
199	0xbbdf3d8c	-0.006812757
200	0xbcf3790c	-0.029720806
201	0xbd9c5f0a	-0.07635315
202	0xbe5de017	-0.21667515
203	0xbe4bc58e	-0.1989958
204	0xbe30fde7	-0.17284356
205	0xbccd1fcc	-0.025039576
206	0x3e14edf1	0.14543892
207	0xbd913fdd	-0.07092259
208	0x3c5af22a	0.0133634005
209	0x3d4791d9	0.048723076
210	0xbe11df4a	-0.14245334
211	0xbd227def	-0.03967088
212	0xbdf76170	-0.120791316
213	0xbe57ce44	-0.21074778
214	0xbe17a352	-0.14808396
215	0xbd2c70e2	-0.04209984
216	0xbdeb157f	-0.114787094
217	0xbe8b5e36	-0.27220315
218	0xbe1a1bca	-0.15049663
219	0xbe90d542	-0.28287703
220	0xbe664900	-0.22488785
221	0xbe22678d	-0.15859814
222	0xbdd00f8f	-0.101592176
223	0xbeea1d68	-0.4572556
224	0xbe819044	-0.25305378
225	0xbe45bb6c	-0.19309777
226	0xbe4e6e66	-0.20159301
227	0xbe91e67b	-0.28496155
228	0xbe4188ae	-0.18899795
229	0xbe3464fc	-0.17616647
230	0xbe9427a7	-0.28936502
231	0xbe7ef78e	-0.24899122
232	0xbe9a1f03	-0.30101785
233	0xbe8b6b95	-0.27230516
234	0xbe88b284	-0.26698697
235	0xbecfc8c0	-0.40582848
236	0xbe46f79c	-0.19430393
237	0xbe7b9fe1	-0.24572708
238	0xbec51f88	-0.3850062
239	0xbeae8934	-0.34089053
240	0xbebe8527	-0.37210962
241	0xbe565104	-0.20929343
242	0xbea20f89	-0.31652477
243	0xbe5466ff	-0.20742415
244	0xbf06eb1c	-0.527025
245	0x3f59d62b	0.8509242
246	0x3ef44512	0.47708946
247	0x3d4f89c0	0.050668478
248	0x3ff669a7	1.9250993
249	0x401e14d8	2.4700222
250	0x3d19fb2a	0.037593044
251	0x40236848	2.5532398
252	0xbeafcbf3	-0.34335288
253	0xbfd42b2e	-1.6575677
254	0x3d8cd528	0.06876594
255	0x3e17312d	0.14764853

down_convs.1.conv1.bias f4 [6]
0	0xbc0a35f5	-0.008435716
1	0x374de242	1.2271632e-05
2	0x32970f05	1.7585544e-08
3	0xbd1a154e	-0.037617974
4	0x3dba9620	0.09110665
5	0xbd357743	-0.04430319

down_convs.1.conv2.weight f4 [6, 6, 3, 3, 3]
0	0xbea5b198	-0.32362056
1	0xbebc268b	-0.36748156
2	0xbf8c9075	-1.0981585
3	0x3f822129	1.016637
4	0x3ef9d092	0.4879194
5	0xbf608e4f	-0.87717146
6	0x406b4533	3.6760986
7	0x40607ecc	3.507739
8	0x3fd7e573	1.6866897
9	0x3e85f0bb	0.26160225
10	0x3e73b92c	0.23801106
11	0xbeb399fe	-0.35078424
12	0x3ffc4afe	1.9710386
13	0x3d9cc4e7	0.07654744
14	0xbf157f7e	-0.5839766
15	0x4095ac13	4.677255
16	0x40dfd819	6.995129
17	0x40475c73	3.1150177
18	0xbeec704f	-0.46179435
19	0xbe58ba36	-0.21164784
20	0xbf47c722	-0.7803823
21	0x3dcf88cd	0.101335146
22	0xbf18797a	-0.5956036
23	0xbfcfed31	-1.624426
24	0x401668da	2.3501496
25	0x40509b7a	3.2594895
26	0x3fee75e6	1.862973
27	0xbe741c29	-0.23838867
28	0xbe758b49	-0.23978914
29	0xbe4137a8	-0.18868887
30	0xbcdad142	-0.02671111
31	0xbd6768b1	-0.056496326
32	0x3c925301	0.017861845
33	0x3d1aef92	0.03782613
34	0x3d065c49	0.032802854
35	0x3c0d8bb3	0.008639264
36	0xbe10e2d0	-0.14149022
37	0xbe05dd75	-0.1307276
38	0xbe181871	-0.14853074
39	0x3dc7a393	0.09747996
40	0xbd849034	-0.06472817
41	0x3c47845a	0.012177551
42	0xbd5abaab	-0.053400677
43	0xbcc33c31	-0.023832412
44	0x3d48bc4e	0.049007706
45	0xbe4fcb83	-0.20292477
46	0x3c0055d5	0.007832964
47	0xbe19c8d3	-0.15018015
48	0xbda49379	-0.08035941
49	0xbd57abc3	-0.05265404
50	0xbe34e87e	-0.17666814
51	0x3c9f634c	0.019456528
52	0xbe0a9c50	-0.13536191
53	0xbcb60114	-0.022217311
54	0xbdf46c82	-0.11934759
55	0xbd828353	-0.06372704
56	0xbe8109b9	-0.2520273
57	0xbe97db8c	-0.29659688
58	0xbe831c46	-0.25607508
59	0xbc38cde8	-0.011279561
60	0xbd8ff95e	-0.07029985
61	0xbe498d6f	-0.19682859
62	0x3d13f6de	0.036124103
63	0xbd2d9cb5	-0.042385776
64	0xbe14d927	-0.14535962
65	0xbe12c639	-0.14333428
66	0xbcf4a528	-0.029863909
67	0xbe1321ce	-0.14368364
68	0xbd05a8c8	-0.032631665
69	0xbe561751	-0.20907332
70	0xbd1984b6	-0.03748008
71	0x3d04c26f	0.03241199
72	0xbdcdeab3	-0.10054531
73	0xbdefd202	-0.11709978
74	0xbd8e6fc3	-0.069549106
75	0xbd1457e1	-0.03621662
76	0xbcb3bb15	-0.021939794
77	0xbd01b6b2	-0.031668372
78	0xbdeb5595	-0.11490933
79	0xbe18f05d	-0.14935441
80	0x3d999a30	0.07500112
81	0x3fbc3b5e	1.4705617
82	0x3f8e5110	1.1118488
83	0x3fc9e2e3	1.5772365
84	0xbed2533b	-0.41079125
85	0x3ec1e2b5	0.37868276
86	0x3f2dd91c	0.6790941
87	0x3f99970f	1.1999224
88	0x3fefa9a7	1.8723649
89	0x4003a576	2.056974
90	0x3fee9b41	1.864113
91	0x3f78499d	0.96987325
92	0x3feb320e	1.837465
93	0x3e856d18	0.26059794
94	0x3f37aa7c	0.71744514
95	0x3f829b99	1.0203735
96	0x3fdcc98a	1.7249005
97	0x401339dc	2.3004065
98	0x4022492f	2.5357168
99	0x3fdb0539	1.7110969
100	0x3fc80726	1.5627182
101	0x400cb48d	2.19852
102	0x3e28b8e4	0.1647678
103	0x3f2e8717	0.6817488
104	0x3f274876	0.6534494
105	0x3fd531fa	1.6655877
106	0x40202a31	2.5025752
107	0x40293f83	2.6445014
108	0x3e8a4467	0.27005312
109	0x3ec95cea	0.393287
110	0x3f0e27e3	0.5552961
111	0x3f90394c	1.1267486
112	0x3fd744bb	1.681785
113	0x3f61b7b9	0.88170964
114	0xbf8e9811	-1.1140157
115	0xbf6d3a39	-0.92666966
116	0xc016386c	-2.3471937
117	0x3ee89f95	0.4543425
118	0xbe038b50	-0.12846112
119	0x3e45a0ca	0.19299617
120	0x3fe7cc06	1.8109138
121	0x402c975a	2.6967378
122	0x3fd902d0	1.6953983
123	0xbf49819e	-0.78713405
124	0xbf7165d5	-0.9429601
125	0xc0063a0b	-2.0972927
126	0x3fb3f35c	1.4058642
127	0x3f8a56a8	1.0807695
128	0x3f871a36	1.0554874
129	0x3f91ab53	1.1380409
130	0x3fc08d56	1.5043132
131	0x3ee3d2a8	0.44496655
132	0xbfc54720	-1.5412331
133	0xbfd2ba2a	-1.6463063
134	0xc014b582	-2.3235784
135	0x3fe45221	1.7837564
136	0x3fae02a9	1.3594562
137	0x3f4c7bc2	0.7987634
138	0xbf9e5f24	-1.2372785
139	0xbffe0d82	-1.9847872
140	0xc0018df8	-2.02429
141	0xbf853c7d	-1.0409085
142	0xbf9ea29c	-1.2393374
143	0xbf9d8928	-1.2307482
144	0x3fada36b	1.3565496
145	0x3cf0687a	0.029346693
146	0xbf520495	-0.8203824
147	0xbfa559e7	-1.2918061
148	0xc0099d3d	-2.150222
149	0xc031de9b	-2.7792118
150	0xbfbdfca5	-1.4842726
151	0xbfb67312	-1.4253867
152	0xbfd08979	-1.6291953
153	0x3fc7e74c	1.5617461
154	0xbe9b8a24	-0.3037883
155	0xbf982a12	-1.1887839
156	0xbf3a95ca	-0.7288481
157	0xbff9af9b	-1.9506716
158	0xc0221d38	-2.5330334
159	0xbfcf5e4d	-1.6200653
160	0xbfda2cf9	-1.7044975
161	0xc00d3f9d	-2.2070076
162	0xbf06093f	-0.5235786
163	0xbf51374d	-0.8172501
164	0xbeb377b5	-0.35052267
165	0x3f7fe2e6	0.99955595
166	0x3f5e952a	0.86946356
167	0x3f15b3f5	0.5847772
168	0x3f1ffec7	0.62498134
169	0x3fc2d84d	1.522226
170	0x3e442359	0.19154109
171	0xbf27f375	-0.6560586
172	0xbfcfef6c	-1.6244941
173	0xbe358be4	-0.17729145
174	0x3f730594	0.94930387
175	0x3dc2e56f	0.09516417
176	0x3f042820	0.51623726
177	0x40033367	2.0500124
178	0x406c944b	3.696551
179	0x3fefd619	1.8737212
180	0xbed58514	-0.41703093
181	0xbef5c0ce	-0.4799866
182	0x3de8c1b8	0.11365074
183	0x3fe7102a	1.8051808
184	0x3f9ab18a	1.2085431
185	0x3f4eb15b	0.8073937
186	0x3f7450c7	0.95435756
187	0x3fe6e731	1.8039304
188	0x3e69b9e7	0.22824822
189	0xbe0cbd63	-0.1374412
190	0xbdf30dbe	-0.118678555
191	0xbe362865	-0.17788847
192	0xbd87e2b7	-0.06635039
193	0xbcce725b	-0.025201013
194	0xbded13ac	-0.11576018
195	0x3d93fae3	0.07225587
196	0xbda60710	-0.08106816
197	0xbc8aed4a	-0.016958851
198	0xbe36a9bb	-0.17838185
199	0xbe077f17	-0.13232075
200	0xbe3e06ac	-0.18557233
201	0x3a2ff4c0	0.0006712191
202	0xbd5c4bb3	-0.05378313
203	0x3c5726e7	0.013131834
204	0xbe196994	-0.14981681
205	0xbde728a6	-0.1128705
206	0xbdf2b9de	-0.118518576
207	0xbddec326	-0.10877065
208	0xbe2268cc	-0.1586029
209	0x3c1c7451	0.009549216
210	0x3c8187db	0.015811851
211	0xbb4d547d	-0.0031330877
212	0xbe18cc64	-0.14921719
213	0xbd419728	-0.047263294
214	0xbdd5d423	-0.104408525
215	0xbd36bbdd	-0.044612754
216	0xbe8c01ca	-0.27345115
217	0xbe71ba39	-0.23606195
218	0xbeda4f7d	-0.4263877
219	0xbe7d3c06	-0.24729928
220	0x3d9e6c19	0.07735462
221	0xbdcd7eae	-0.10033928
222	0xbd97ba80	-0.07408619
223	0xbed6f2c5	-0.41982093
224	0xbc294402	-0.010331156
225	0xbe8527a5	-0.2600681
226	0xbdcbe98b	-0.09956654
227	0xbe21b302	-0.15790942
228	0xbd95d264	-0.073155195
229	0xbcdc7611	-0.026911767
230	0x3b3e2ff1	0.0029020275
231	0xbd99f25f	-0.07516932
232	0xbdc67fcc	-0.09692344
233	0xbe1bafb8	-0.1520375
234	0xbea0d4e1	-0.31412414
235	0xbddc7ffc	-0.107665986
236	0xbe279444	-0.16365153
237	0xbe11df0a	-0.14245239
238	0xbe0ce51c	-0.13759273
239	0xbd2bcb3b	-0.041941863
240	0x3c6b5721	0.014364035
241	0x3d08938b	0.033343833
242	0xbdf708df	-0.12062239
243	0xc0098757	-2.1488855
244	0xc022b36a	-2.5422006
245	0xc063096a	-3.5474496
246	0xbf838c02	-1.0277102
247	0xbfa60e2e	-1.2973077
248	0xbfd4606c	-1.6591926
249	0x3f07393f	0.52821726
250	0xbe553627	-0.20821439
251	0x3e9c6e82	0.3055306
252	0xbf8f4570	-1.1193066
253	0xc02621af	-2.595806
254	0xc02fcff2	-2.747067
255	0xbf0910d4	-0.535413

down_convs.1.conv2.bias f4 [6]
0	0x3d477be5	0.04870214
1	0xbdd0143b	-0.10160109
2	0xbc315264	-0.010822866
3	0xbf1005a2	-0.56258595
4	0x3f28d03c	0.6594274
5	0x3e41d5d9	0.18929233

down_convs.1.norm0.weight f4 [6]
0	0x3fedabf8	1.8568106
1	0x3f02b450	0.51056385
2	0x3f088c15	0.5333875
3	0x3fdc0762	1.7189753
4	0x402f2d0f	2.7371252
5	0x40082849	2.1274588

down_convs.1.norm0.bias f4 [6]
0	0xbfb5e7cc	-1.4211364
1	0xbe943280	-0.28944778
2	0xbea96483	-0.33084497
3	0xc01f5138	-2.4893322
4	0xbdf397aa	-0.11894162
5	0xbf076220	-0.528841

down_convs.1.norm0.running_mean f4 [6]
0	0x427616f1	61.522404
1	0xc124ec93	-10.307757
2	0xc10392eb	-8.223369
3	0x42a8e969	84.45588
4	0x42d803b2	108.00722
5	0xc351b294	-209.69757

down_convs.1.norm0.running_var f4 [6]
0	0x45413fcc	3091.9873
1	0x444dee9a	823.72815
2	0x435748d1	215.28444
3	0x454c0c31	3264.762
4	0x4507f3ed	2175.2454
5	0x4531d980	2845.5938

down_convs.1.norm1.weight f4 [6]
0	0x3f744e7d	0.95432264
1	0x3fa8c5b8	1.3185339
2	0x3fc86eaa	1.5658772
3	0x4027bcde	2.6209025
4	0x40041008	2.0634785
5	0x40254d33	2.5828369

down_convs.1.norm1.bias f4 [6]
0	0xbfdc5ca1	-1.7215768
1	0xbf8c6ac0	-1.0970078
2	0xbef656ed	-0.48113194
3	0x4009a567	2.1507204
4	0x403bb18b	2.9327114
5	0x3f772ed0	0.96555805

down_convs.1.norm1.running_mean f4 [6]
0	0x408e370d	4.44422
1	0x418f31e5	17.899363
2	0x413a6369	11.64927
3	0xc2117afe	-36.37011
4	0xc173a1f8	-15.227043
5	0x3fd26928	1.6438341

down_convs.1.norm1.running_var f4 [6]
0	0x45adc76a	5560.927
1	0x45453a9c	3155.663
2	0x45179b3e	2425.7026
3	0x465ce758	14137.836
4	0x45dd3142	7078.157
5	0x462585e5	10593.474

down_convs.2.conv1.weight f4 [12, 6, 3, 3, 3]
0	0xbf039492	-0.51398575
1	0xbeae9a0c	-0.34101903
2	0xbe8e0eac	-0.2774557
3	0xbec5c960	-0.386302
4	0xbe835469	-0.25650337
5	0xbe8a55d3	-0.27018604
6	0xbf2189eb	-0.6310107
7	0xbe6f557d	-0.23372455
8	0xbe95657f	-0.29178998
9	0xbf03c9c3	-0.5147974
10	0xbeb0f740	-0.34563637
11	0xbe9fe64c	-0.3123039
12	0xbecdabc4	-0.4017011
13	0xbec002f1	-0.37502244
14	0xbecc9c6c	-0.3996309
15	0xbe8e818b	-0.27833208
16	0xbea8051b	-0.32816395
17	0xbdf98ce3	-0.12185075
18	0xbeeed960	-0.4665022
19	0xbed9038d	-0.42385522
20	0xbec12d50	-0.37729883
21	0xbeaf9fe6	-0.3430168
22	0xbec86a88	-0.39143777
23	0xbef4c7a3	-0.4780856
24	0xbebf7026	-0.3739025
25	0xbefffdd4	-0.49998343
26	0xbef86808	-0.4851687
27	0xbf077a55	-0.5292104
28	0xbf0a702f	-0.5407743
29	0xbf05eb81	-0.52312475
30	0xbf36745a	-0.7127129
31	0xbeff5953	-0.49872836
32	0xbed582c7	-0.41701338
33	0xbef9faa8	-0.48824048
34	0xbee0807e	-0.43848032
35	0xbec079ce	-0.3759293
36	0xbf366c7f	-0.712593
37	0xbf125365	-0.571585
38	0xbf084fbb	-0.5324666
39	0xbf0ad850	-0.54236317
40	0xbf326eb6	-0.6970018
41	0xbee85a56	-0.4538142
42	0xbf00097a	-0.5001446
43	0xbf0db40c	-0.55352855
44	0xbe5d74d9	-0.21626605
45	0xbf0440ef	-0.5166158
46	0xbec0bd69	-0.37644508
47	0xbedb6abc	-0.4285487
48	0xbf2fc8bd	-0.6866568
49	0xbf1a1722	-0.6019155
50	0xbeed6125	-0.46363178
51	0xbf04dea2	-0.5190221
52	0xbeef5311	-0.46743062
53	0xbe86db7b	-0.26339325
54	0xbf19c1a5	-0.60061103
55	0xbef760ca	-0.48316032
56	0xbec4ba07	-0.38423178
57	0xbeff44bf	-0.49857137
58	0xbf12278d	-0.570916
59	0xbf132174	-0.5747292
60	0xbe89bbc6	-0.26901072
61	0xbec7a1dd	-0.3899068
62	0xbf168135	-0.58790904
63	0xbef44309	-0.47707394
64	0xbf27f9bb	-0.65615433
65	0xbf06d660	-0.5267086
66	0xbef46665	-0.4773437
67	0xbeefc9de	-0.468337
68	0xbee62864	-0.4495269
69	0xbec5274f	-0.38506553
70	0xbe8dd29d	-0.27699748
71	0xbeeb48a7	-0.45953867
72	0xbebe6751	-0.371882
73	0xbee01b8e	-0.43771023
74	0xbe8c3596	-0.27384633
75	0xbf06e730	-0.52696514
76	0xbefb0fc5	-0.4903547
77	0xbed235ed	-0.41056767
78	0xbf2977f9	-0.6619869
79	0xbef92071	-0.48657563
80	0xbed47577	-0.4149587
81	0x3ef5ee81	0.48033527
82	0x3eb31501	0.34976962
83	0x3eb32db6	0.34995812
84	0x3eac209d	0.33618632
85	0x3f04f0b4	0.51929784
86	0x3ebd4b94	0.36971724
87	0x3e71443d	0.23561187
88	0x3ed29297	0.41127464
89	0x3e72009b	0.23633043
90	0x3ee57973	0.4481922
91	0x3ec761ab	0.38941702
92	0x3e884b8d	0.2662014
93	0x3ec7be03	0.39012155
94	0x3f19671e	0.5992297
95	0x3ef212ca	0.4727996
96	0x3eabc32a	0.33547336
97	0x3f008144	0.50197244
98	0x3e8b97f3	0.27264366
99	0x3ee5e3e0	0.44900417
100	0x3ee5a84b	0.4485496
101	0x3ed15826	0.40887564
102	0x3ea41465	0.3204681
103	0x3f1bde28	0.6088586
104	0x3f030bd6	0.51189935
105	0x3eebc40d	0.46048012
106	0x3f319f23	0.6938345
107	0x3ecc9e9d	0.39964762
108	0x3ec7c29c	0.39015663
109	0x3ec7babf	0.39009663
110	0x3e1590bc	0.14605993
111	0x3ea4250a	0.3205951
112	0x3ebc4f17	0.3677909
113	0x3e6e873c	0.23293775
114	0x3e36564c	0.17806357
115	0x3e921079	0.28528193
116	0x3e6eebfc	0.23332208
117	0x3e5bb156	0.21454367
118	0x3e3e0297	0.18555675
119	0x3ecaf697	0.39641258
120	0x3e944ba5	0.28963962
121	0x3e762ca6	0.2404047
122	0x3e8f3902	0.2797318
123	0x3cb2cb35	0.021825412
124	0x3e61982e	0.22030708
125	0x3e5235ad	0.20528288
126	0x3eb8bcd0	0.36081553
127	0x3e956c66	0.29184264
128	0x3e76a85c	0.24087662
129	0x3e814ce6	0.2525398
130	0x3f1282fe	0.5723113
131	0x3ed0fba1	0.40816978
132	0x3f0d234d	0.5513199
133	0x3f1a713a	0.6032902
134	0x3ef0e0c0	0.4704647
135	0x3efe268f	0.49638793
136	0x3e6e3eef	0.23266195
137	0xbca58ed8	-0.020209715
138	0xbea2b502	-0.31778723
139	0xbee9d907	-0.4567339
140	0xbf00bda6	-0.5028938
141	0xbdc8c252	-0.09802689
142	0x3d081858	0.03322634
143	0x3e3cfa64	0.18454891
144	0x3daf801a	0.08569355
145	0xbe0c8ee5	-0.13726385
146	0xbe46e098	-0.19421613
147	0xbf05e7fa	-0.52307093
148	0xbeae9e27	-0.34105036
149	0xbedf1f73	-0.4357868
150	0xbd5c9edd	-0.05386244
151	0x3e0a7bb7	0.13523756
152	0x3e80ca7d	0.25154486
153	0x3daefe99	0.085446544
154	0xbebc4bbc	-0.3677653
155	0xbe86faf2	-0.2636333
156	0xbeb503c3	-0.35354432
157	0xbeaadbe3	-0.33370885
158	0xbef0fc59	-0.47067526
159	0x3cb6000e	0.022216823
160	0x3eb9f49c	0.36319435
161	0x3e46425f	0.19361256
162	0x40086214	2.1309862
163	0x3eee4986	0.4654047
164	0x4031ecec	2.7800856
165	0xbd7da994	-0.0619293
166	0xbfa1c4b5	-1.2638155
167	0x3f89049e	1.0704534
168	0xbfac4ad8	-1.346034
169	0xc02c6228	-2.693491
170	0xbee55239	-0.44789293
171	0x3f28490d	0.65736467
172	0xbf8f6c95	-1.1205012
173	0x3fa0bc33	1.2557434
174	0xbfd37999	-1.6521484
175	0xc04b8102	-3.179749
176	0xbf462bbe	-0.77410495
177	0xc010acff	-2.2605588
178	0xc099fe5a	-4.812299
179	0xc011c9f4	-2.2779512
180	0x40196ec1	2.397385
181	0x3fa4dd7c	1.2880092
182	0x405d5e4e	3.458881
183	0xbe4ab4de	-0.19795558
184	0xbf97a73b	-1.184791
185	0x3f85bd13	1.0448326
186	0xbe9dacb5	-0.30795828
187	0xbfeeb4c7	-1.8648919
188	0x3ebb2f6b	0.36559615
189	0xbf35e323	-0.7104971
190	0xbe1ed95c	-0.15512604
191	0xbf485140	-0.7824898
192	0xc0667237	-3.6007211
193	0xbf9a71bd	-1.206596
194	0xbfdfb12a	-1.7475941
195	0xbf755937	-0.95839256
196	0x3cf2fea9	0.029662447
197	0xbf875b39	-1.0574714
198	0xbe1c5b55	-0.15269215
199	0x3fc38c77	1.5277241
200	0xbf4de902	-0.80433667
201	0xbfb9ff8d	-1.4531113
202	0xbebb27af	-0.36553714
203	0xbf134de2	-0.57540715
204	0x3c8dae46	0.017295014
205	0x3e7a4561	0.24440528
206	0xbfa708b6	-1.3049533
207	0xbfb5340a	-1.4156506
208	0xbf792478	-0.9732127
209	0xbfc312f2	-1.5240157
210	0xbfb58b24	-1.4183087
211	0xbef54f93	-0.47912273
212	0xbf3cbaee	-0.7372273
213	0xbf346b7a	-0.70476496
214	0xbf86d8bd	-1.0534893
215	0xc0037e18	-2.0545712
216	0xbeb4d37f	-0.3531761
217	0x3d767963	0.060174357
218	0xbff28939	-1.8948127
219	0xbeedb481	-0.46426776
220	0x3f0d28eb	0.5514056
221	0xbfc3490c	-1.5256667
222	0xbeda87f3	-0.42681846
223	0xbe4f83cb	-0.20265119
224	0xc019d18c	-2.4034147
225	0x3f86792f	1.0505732
226	0x40394be8	2.895258
227	0x3db2fe67	0.0873993
228	0x3fd60b6f	1.6722239
229	0x4067bf7a	3.6210618
230	0x3f0310a2	0.51197255
231	0x3f87b044	1.0600667
232	0x402bfc57	2.6872766
233	0xbf850b37	-1.0394047
234	0xbe2b5b39	-0.16734017
235	0x3f4bd0d4	0.7961552
236	0xbfae183d	-1.3601147
237	0x3eded3a8	0.43520856
238	0x3fba64b1	1.4561979
239	0xbeb4a658	-0.3528316
240	0xbee3ac53	-0.4446741
241	0xbe150077	-0.14550959
242	0xbfc6c332	-1.5528319
243	0xbfad07b9	-1.3517982
244	0xbf071664	-0.5276854
245	0xc0185ca4	-2.3806543
246	0xc0054129	-2.082102
247	0xbf3da78a	-0.7408377
248	0xc01f1531	-2.4856684
249	0xbf5eeed1	-0.87083155
250	0xbc96d702	-0.01841307
251	0xbf454a08	-0.7706609
252	0xbf6c5a4b	-0.92325276
253	0x40025436	2.0363898
254	0xbf661e20	-0.8988972
255	0xbf397f4b	-0.7245986

down_convs.2.conv1.bias f4 [12]
0	0xb628ba3b	-2.5142351e-06
1	0x3b23ee9a	0.0025014044
2	0xb845f454	-4.719601e-05
3	0xb3b0cd02	-8.2329294e-08
4	0x3bdaab0f	0.006673224
5	0xbc91a309	-0.017777937
6	0xbd2335e8	-0.03984633
7	0x3cb5a7db	0.022174766
8	0x3b80594f	0.0039168964
9	0x3bb30f54	0.0054644737
10	0xbc076a1d	-0.0082650455
11	0x3c94ac33	0.018148517

down_convs.2.conv2.weight f4 [12, 12, 3, 3, 3]
0	0xbe8200d6	-0.25391263
1	0xbedc5496	-0.43033284
2	0xbeb17663	-0.34660634
3	0x3df118ca	0.11772306
4	0x3e19da58	0.15024698
5	0xbe650e9c	-0.22368854
6	0x3bd47909	0.006484155
7	0xbd57155d	-0.052510608
8	0x3e57b7ff	0.21066283
9	0x3d26750e	0.040638976
10	0x3da3730e	0.07980929
11	0x3d003c1c	0.031307325
12	0x3d115be4	0.035488024
13	0x3e6a2dd0	0.22869039
14	0x3da28c9d	0.07936976
15	0x3b80f7a3	0.0039357706
16	0xbe3b91e0	-0.18317366
17	0x3d9efba7	0.077628426
18	0x3e8ee4d0	0.27908945
19	0x3e8b9cea	0.27268153
20	0x3cfe2df0	0.031027764
21	0x3e0c828b	0.13721673
22	0x3eb2ffe4	0.34960854
23	0x3effe4d8	0.4997928
24	0x3e82335b	0.25429806
25	0xbdccf3a7	-0.100074105
26	0x3d204c1a	0.039135076
27	0xbf89bb49	-1.076028
28	0x3fa7a259	1.309642
29	0x3f95d946	1.1706932
30	0xbfc54a80	-1.541336
31	0xbb8cc792	-0.0042962516
32	0x3fafd885	1.3737952
33	0x3f54d7a4	0.8314154
34	0x401627f5	2.3461888
35	0x40279770	2.618618
36	0x3f65a8a8	0.89710474
37	0x407d0684	3.9535227
38	0x406371c6	3.5538192
39	0xbf89f0fb	-1.0776666
40	0x3f2fcc55	0.6867116
41	0x3f96b257	1.1773175
42	0x3f9c4833	1.2209533
43	0x400140c6	2.0195785
44	0x401179af	2.273052
45	0x3e1dca99	0.15409316
46	0x407d1d7a	3.954924
47	0x40033132	2.0498776
48	0xbebf7e53	-0.37401065
49	0x3fc075d5	1.503596
50	0x3bff43fc	0.007790087
51	0xbe9c6567	-0.30546114
52	0x3fc94a6a	1.5725834
53	0xbd31eda9	-0.04343954
54	0x3ea8ec32	0.32992703
55	0x3e9887ca	0.297911
56	0x3e4bfeb7	0.19921385
57	0xbe9fda91	-0.3122144
58	0xbe210d1a	-0.15727654
59	0xbe56f753	-0.20992784
60	0xbed9ff2e	-0.425775
61	0xbf07b1ae	-0.5300549
62	0xbecefcb1	-0.40427163
63	0x3e86c09f	0.26318833
64	0x3ede2585	0.43388
65	0x3ea7b6a9	0.32756546
66	0xbe2d2c05	-0.16911323
67	0xbe261b0f	-0.1622126
68	0xbe3c75e5	-0.18404348
69	0xbf0dcbec	-0.55389285
70	0xbee129a8	-0.43977094
71	0xbe9de3a3	-0.30837736
72	0x3d898991	0.06715692
73	0x3e71f1ea	0.23627439
74	0x3e768b34	0.2407654
75	0x3e3cb83a	0.18429652
76	0x3c89d88b	0.016826889
77	0x3d9b0b60	0.07570529
78	0xbf021846	-0.5081829
79	0xbef245a8	-0.47318769
80	0xbeaf6a61	-0.34260848
81	0xbdcd5c06	-0.10027318
82	0xbe3d6dba	-0.18498889
83	0xbe1bbb23	-0.15208106
84	0xbce42954	-0.027851738
85	0xbd6c8157	-0.057740536
86	0xbd64b801	-0.055839542
87	0x3c380521	0.011231692
88	0xbd4064f0	-0.04697126
89	0xbc5abd88	-0.013350852
90	0x3c343348	0.0109985545
91	0xbd47f5d0	-0.04881841
92	0x3dc608e0	0.096696615
93	0x3d559bd0	0.052150548
94	0xbd9660ad	-0.07342658
95	0xbd32cf22	-0.04365457
96	0xbe2fbb60	-0.17161322
97	0xbe203b5e	-0.15647647
98	0xbb35b2df	-0.0027725024
99	0xbd9fa274	-0.07794657
100	0xbd80bbb3	-0.06285801
101	0xbe169f01	-0.14709093
102	0xbdcf8aad	-0.10133872
103	0x3dc18483	0.09449103
104	0x3b8d60ad	0.004314503
105	0xbdbfdbc1	-0.093680866
106	0xbc1408af	-0.009035273
107	0x3dded2e9	0.10880072
108	0xbfac6dc2	-1.3470995
109	0xbfd24991	-1.6428701
110	0x3ce1c038	0.027557477
111	0xc0200f66	-2.5009398
112	0xc000dfa4	-2.01365
113	0xbfcb2b00	-1.5872498
114	0xc045d3a1	-3.0910418
115	0xbefb91f1	-0.49134782
116	0xbf4784d7	-0.7793707
117	0xbfc69286	-1.5513465
118	0xbf51a71e	-0.81895626
119	0x3d42f2eb	0.047594946
120	0xc02695cb	-2.6028926
121	0xbec8de60	-0.3923216
122	0xbfbdd100	-1.4829407
123	0xbf44d525	-0.7688773
124	0x4039e804	2.904786
125	0x3f85ec50	1.0462742
126	0xbe736b9c	-0.23771518
127	0x3ec0c4b5	0.37650076
128	0x3f1c9892	0.61170304
129	0xc03bdad0	-2.9352303
130	0xbfb4a600	-1.4113159
131	0xc02f9bdf	-2.7438886
132	0xbfb3e102	-1.4053042
133	0x3f6f3008	0.93432665
134	0xbf9bd45b	-1.2174181
135	0xbec69889	-0.3878825
136	0x3e893826	0.2680065
137	0xbf9f1bcd	-1.2430359
138	0xc02582ed	-2.586116
139	0xbf85a19e	-1.0439947
140	0xbfe73599	-1.8063232
141	0xc049c581	-3.1526797
142	0xbfd065db	-1.6281084
143	0xc00d289f	-2.2056043
144	0x3f0abd85	0.54195434
145	0x3d49beb0	0.04925412
146	0xbe7debbe	-0.2479696
147	0xbf62d790	-0.8861017
148	0x3ee2efc0	0.4432354
149	0xbe915f91	-0.28393224
150	0xbfd6c0cb	-1.6777586
151	0x3fa77707	1.3083199
152	0xbf1c0386	-0.60942876
153	0xbdcd0106	-0.10009961
154	0x3b97c474	0.0046315733
155	0xbe1c682b	-0.15274112
156	0xbfb0ee59	-1.3822738
157	0x3d08969a	0.03334675
158	0x3ee57c79	0.44821528
159	0xc010d646	-2.2630782
160	0xbf037198	-0.51345205
161	0x3d9ad962	0.07560994
162	0xc010442b	-2.2541606
163	0xbfc3800a	-1.527345
164	0xbf3d995c	-0.7406213
165	0xc02b28f9	-2.6743758
166	0xbf0ddb42	-0.55412686
167	0xbf9b796d	-1.2146431
168	0xbf1c16d4	-0.6097233
169	0xbf597d2b	-0.84956616
170	0xbe89b653	-0.26896915
171	0xbfe7cd69	-1.8109561
172	0xbf957746	-1.1677024
173	0x3f54af82	0.83080304
174	0xbfb5a564	-1.4191098
175	0x404a6fab	3.1630657
176	0x3fc50fbb	1.5395426
177	0x3f0518b8	0.5199084
178	0x3fe000fa	1.7500298
179	0x3f71eb7b	0.9449994
180	0xbfc9e30e	-1.5772417
181	0xbde4ad75	-0.11165897
182	0x3fc560b0	1.5420132
183	0xbffdc3f6	-1.9825428
184	0x3f5027a4	0.81310487
185	0x3ebd3e1b	0.36961445
186	0x3f422fc6	0.75854146
187	0x3f4fb2d5	0.8113225
188	0xbed8352a	-0.4222806
189	0x4082f9f1	4.0930104
190	0x40623bbc	3.534896
191	0x4055e74e	3.3422427
192	0xc055ed59	-3.3426116
193	0xc00a77f0	-2.1635704
194	0xbff69f89	-1.9267436
195	0x3f847fd5	1.0351511
196	0x3f79f802	0.97644055
197	0x3f60d05c	0.8781793
198	0x406f4322	3.7384725
199	0x403fdc5e	2.9978251
200	0x4034e5e3	2.8265312
201	0xc0229347	-2.540239
202	0xbc0e797e	-0.008695958
203	0xbe5fd88d	-0.21859951
204	0x3f65a5a6	0.89705884
205	0x3fca99d4	1.5828195
206	0x3f10003c	0.5625036
207	0x405f38d1	3.4878428
208	0x4038bfb4	2.8867006
209	0x4029c57d	2.6526787
210	0xc00b0489	-2.1721518
211	0x3f8a823b	1.0820993
212	0xbce8ae54	-0.028403439
213	0xbf1efdc0	-0.6210594
214	0xbe58277c	-0.21108812
215	0xbf582e59	-0.8444572
216	0xbfebad07	-1.8412179
217	0xbfe57d21	-1.7928811
218	0x3da185d2	0.07886852
219	0xbe8be9a5	-0.27326694
220	0x3dd9a138	0.10626453
221	0x3d83f975	0.064440645
222	0x3f9a9891	1.207781
223	0x3fce28c5	1.6106192
224	0x3f023c76	0.50873506
225	0xbf9f371f	-1.2438697
226	0x3fb75680	1.4323273
227	0x4029207e	2.6426082
228	0xbf4aa342	-0.7915536
229	0x3ff1588c	1.8855147
230	0x3f418e1f	0.75607485
231	0x3f9250b4	1.1430879
232	0x409b0418	4.8442497
233	0x3fe3569c	1.7760806
234	0xbee81400	-0.4532776
235	0x401a3426	2.409433
236	0x4030897a	2.758391
237	0xbf77650a	-0.9663855
238	0x3eef13cf	0.466948
239	0xbee45334	-0.4459473
240	0x3f36179f	0.7112979
241	0x401774ec	2.3665113
242	0x3e953939	0.2914522
243	0x3f1970f3	0.5993797
244	0xbfa16424	-1.2608685
245	0xbfda5c5b	-1.7059435
246	0x402f1de1	2.7361987
247	0x3fad99cb	1.3562559
248	0x3f7e6213	0.993684
249	0xbde03ffa	-0.109497026
250	0xbd3c3f16	-0.0459586
251	0xbece3afe	-0.40279382
252	0xbf221480	-0.6331253
253	0xbf4c4f7a	-0.7980877
254	0xc0005f07	-2.0058
255	0x3fa2b0d6	1.2710216

down_convs.2.conv2.bias f4 [12]
0	0x3b74d511	0.0037358443
1	0x3c1545ac	0.009110849
2	0xbc484535	-0.0122235315
3	0xb7665341	-1.3728452e-05
4	0xb349eb32	-4.701287e-08
5	0x3ca3d3e7	0.019998504
6	0xba5cc167	-0.0008421153
7	0x3337b4e4	4.2772527e-08
8	0x3c13e648	0.009027071
9	0xbbec7215	-0.007215748
10	0xba5965f9	-0.0008293088
11	0xbd7c7a38	-0.061639994

down_convs.2.norm0.weight f4 [12]
0	0x3eb1f0fd	0.34754172
1	0x3ffbdde2	1.9677088
2	0x3e76299e	0.24039313
3	0x3e87b03d	0.26501647
4	0x3fe2ad63	1.7709163
5	0x409b72c0	4.8577576
6	0x408eb8dc	4.460066
7	0x3fb44e2b	1.4086355
8	0x3f7b74c9	0.98225075
9	0x3f7381cc	0.9511993
10	0x3fcc3ebf	1.5956649
11	0x4019d81f	2.403816

down_convs.2.norm0.bias f4 [12]
0	0xbf5fc39a	-0.8740784
1	0xbffeb89f	-1.9900092
2	0xbf4573a5	-0.77129585
3	0xbf1db41e	-0.6160296
4	0xc01df379	-2.4679854
5	0x3f9f0043	1.2421955
6	0x3f18a4ee	0.5962666
7	0x3f11281f	0.56701845
8	0xc0709e8e	-3.7596774
9	0x3eec4c14	0.46151793
10	0xc02afcb7	-2.6716745
11	0xbfd0f08f	-1.6323413

down_convs.2.norm0.running_mean f4 [12]
0	0x4221406c	40.312912
1	0xc33a2d17	-186.17613
2	0x42e9ffa3	116.99929
3	0xc1c807f3	-25.003881
4	0xc39d6915	-314.82095
5	0x433b41ab	187.25652
6	0xc21861f1	-38.095646
7	0xc2fc0f75	-126.03019
8	0xc3395173	-185.31816
9	0xc323c19c	-163.75629
10	0xc3c3c680	-391.55078
11	0xc327a196	-167.6312

down_convs.2.norm0.running_var f4 [12]
0	0x4497eb34	1215.3501
1	0x4581de9c	4155.826
2	0x4450a655	834.59894
3	0x4351047b	209.0175
4	0x46086d79	8731.368
5	0x462d50ea	11092.229
6	0x4597b5dd	4854.733
7	0x45780bc8	3968.7363
8	0x45d990ea	6962.1143
9	0x4526caa8	2668.666
10	0x463e30e1	12172.22
11	0x45cd7fb8	6575.965

down_convs.2.norm1.weight f4 [12]
0	0x3fb4a515	1.4112879
1	0x400b9c0e	2.1813998
2	0x40226143	2.5371864
3	0x3e8cc5fb	0.27494797
4	0x3e00d282	0.12580302
5	0x3fbf9b49	1.4969264
6	0x408666e2	4.200059
7	0x3e360664	0.17775875
8	0x3fee555d	1.8619801
9	0x3ff2138d	1.8912216
10	0x40235960	2.55233
11	0x40a9cab7	5.3059955

down_convs.2.norm1.bias f4 [12]
0	0xbfed39e7	-1.8533295
1	0x3d9565bd	0.07294796
2	0xbf8882d1	-1.0664922
3	0xbf4ff7eb	-0.8123767
4	0xbf48bfd3	-0.784177
5	0x3f823c8d	1.0174729
6	0xbfc010bf	-1.500511
7	0xbf8ce21f	-1.1006507
8	0xbf26e024	-0.6518576
9	0xc0005187	-2.004976
10	0xbfb195ee	-1.387388
11	0x3f72e552	0.94881165

down_convs.2.norm1.running_mean f4 [12]
0	0xc1c9a4c4	-25.205452
1	0xc35cd689	-220.83803
2	0x42d90caf	108.52477
3	0xc0de14b5	-6.9400277
4	0xc14931c7	-12.574653
5	0xc281818e	-64.75304
6	0xc10f3aaf	-8.951827
7	0x3f332918	0.6998458
8	0xc2a0522b	-80.160484
9	0x42293431	42.30097
10	0xc30e2d74	-142.17755
11	0xc2417e5f	-48.37341

down_convs.2.norm1.running_var f4 [12]
0	0x45619d26	3609.8218
1	0x4672a2dd	15528.716
2	0x45b880ba	5904.091
3	0x450b8e5e	2232.898
4	0x43ae0f9d	348.12198
5	0x45ec4719	7560.887
6	0x45af4731	5608.899
7	0x4483ff8f	1055.9862
8	0x45cb3a14	6503.26
9	0x4500bc17	2059.7556
10	0x4555ae56	3418.896
11	0x4640ba25	12334.536

down_convs.3.conv1.weight f4 [24, 12, 3, 3, 3]
0	0xbf0e1c48	-0.55511904
1	0xbf0b4bda	-0.54412615
2	0xbede417e	-0.43409342
3	0xbf0bb087	-0.54566234
4	0xbf1ca4c8	-0.61188936
5	0xbf0051a6	-0.50124586
6	0xbf0bb44c	-0.54571986
7	0xbf11bcaa	-0.56928504
8	0xbf082ac2	-0.53190243
9	0xbea940e5	-0.33057323
10	0xbf081d27	-0.5316948
11	0xbee24af8	-0.44197822
12	0xbed0bdfb	-0.40769944
13	0xbf0e4bb5	-0.5558427
14	0xbf1a06cc	-0.6016662
15	0xbf119514	-0.568681
16	0xbf06cd72	-0.52657235
17	0xbf049e2c	-0.5180385
18	0xbe8ee76c	-0.27910936
19	0xbeaca1a0	-0.3371706
20	0xbedbb713	-0.42913112
21	0xbeab47db	-0.3345326
22	0xbef12e20	-0.47105503
23	0xbef8d5ce	-0.4860062
24	0xbed607e3	-0.41802892
25	0xbf011bd1	-0.5043307
26	0xbeedeaea	-0.46468288
27	0x3e1973c1	0.14985563
28	0x3e67ba18	0.22629583
29	0xbea1b25a	-0.31581384
30	0x3dd2dab1	0.10295618
31	0x3dcb81f9	0.099369
32	0x3e085e70	0.13317275
33	0x3e2a0741	0.1660433
34	0x3e13313a	0.14374247
35	0x3dafff42	0.085936084
36	0x3e93059b	0.28715214
37	0x3e2a3fd1	0.16625907
38	0x3d71aab2	0.05900068
39	0x3e100a9a	0.14066544
40	0xbc4d2758	-0.012521587
41	0x3ceb9e68	0.028762057
42	0x3df9ad85	0.12191299
43	0x3d3dde0c	0.04635434
44	0x3d20b121	0.039231423
45	0xbc5ad5ad	-0.013356608
46	0x3e65e9e0	0.22452497
47	0xbe9de60e	-0.3083958
48	0x3e9f69a4	0.31135285
49	0x3e205147	0.15656005
50	0xbddcffaf	-0.10790955
51	0x3d91fa1d	0.071277834
52	0x3e8af8af	0.27142856
53	0xbebf164c	-0.373217
54	0xbf10d2fa	-0.56571925
55	0xbf2f0a41	-0.6837502
56	0xbf2c0887	-0.6720051
57	0xbf296714	-0.6617291
58	0xbf1b9669	-0.6077638
59	0xbf0c84a3	-0.5488989
60	0xbf1ff7dc	-0.6248758
61	0xbf25c027	-0.64746326
62	0xbf231695	-0.6370633
63	0xbf023924	-0.5086844
64	0xbf0ed91d	-0.5580004
65	0xbf259eb2	-0.64695275
66	0xbf175790	-0.59117985
67	0xbf23e954	-0.64027905
68	0xbf2b42af	-0.66898626
69	0xbf08d690	-0.53452396
70	0xbf1020a8	-0.5629983
71	0xbf1b201a	-0.6059586
72	0x3e811108	0.25208306
73	0xbee71bfb	-0.45138535
74	0xbeec0504	-0.46097577
75	0xbf0d5e56	-0.5522207
76	0xbf00d11f	-0.50319093
77	0xbf14c41b	-0.58111733
78	0xbf00b1cb	-0.5027129
79	0xbf12c866	-0.57337034
80	0xbf1496de	-0.58042705
81	0xbe029fbc	-0.12756246
82	0xbe6f83be	-0.233901
83	0xbe1a7666	-0.15084228
84	0x3b91d2fa	0.004450199
85	0xbdda5bb1	-0.1066202
86	0xbe715eeb	-0.23571365
87	0xbb9ac1e0	-0.0047228187
88	0xbe03959c	-0.1285004
89	0xbdd1a3a7	-0.10236292
90	0xbdcfcd69	-0.10146601
91	0xbe46289d	-0.1935143
92	0xbdb01546	-0.085978076
93	0xbd7cc765	-0.061713595
94	0xbd977f63	-0.07397344
95	0xbe8046f2	-0.25054127
96	0xbd794070	-0.060852468
97	0xbd4734ba	-0.04863427
98	0xbe07534e	-0.13215372
99	0xbc4e2557	-0.012582145
100	0xbd6b477e	-0.057441227
101	0xbe14f85e	-0.1454787
102	0xbd35335c	-0.044238433
103	0xbd6ad988	-0.05733636
104	0xbdfab684	-0.12241843
105	0xbd2e1b09	-0.04250625
106	0xbdd6081c	-0.104507655
107	0xbe234a94	-0.15946418
108	0xbd31e2d1	-0.0434292
109	0xbcae5f1b	-0.021285584
110	0xbcb1e116	-0.021713775
111	0x3d488bde	0.048961513
112	0xbcbad71c	-0.02280765
113	0xbcd920cb	-0.026504895
114	0x3dabd46d	0.083901264
115	0x3d2a0453	0.04150803
116	0xbce2cef7	-0.02768658
117	0x3b48a439	0.0030615462
118	0xbcd6f31f	-0.026238976
119	0xbd1991a3	-0.037492406
120	0xbd87f15c	-0.066378325
121	0x3d00688d	0.031349707
122	0xbc275a78	-0.0102144405
123	0x3b79d17b	0.0038119245
124	0xbdaee78d	-0.085402586
125	0xbdd41f74	-0.10357562
126	0x3e0a152b	0.13484637
127	0x3d54565e	0.05184018
128	0xbc8dffc8	-0.01733388
129	0xbc940be8	-0.018072084
130	0xbd7b974f	-0.061423596
131	0xbd0df464	-0.034656897
132	0xbcd76434	-0.026292898
133	0xbd9c3cab	-0.07628759
134	0xbc72386d	-0.014783961
135	0xbefb1a88	-0.4904368
136	0xbece9d1e	-0.40354246
137	0xbed8fc11	-0.4237981
138	0xbef9be77	-0.48778126
139	0xbead1b44	-0.33809865
140	0xbf0a278e	-0.53966606
141	0xbec9e357	-0.3943126
142	0xbea6bda8	-0.3256657
143	0xbeeee25e	-0.4665708
144	0xbf032aa6	-0.5123695
145	0x3d9b31e5	0.07577876
146	0xbf0138b1	-0.5047713
147	0x3d706175	0.058686692
148	0x3d309f4f	0.04312068
149	0xba98f899	-0.0011670768
150	0xbebb4ef9	-0.3658369
151	0x3e777e57	0.24169289
152	0x3b507ae0	0.003181152
153	0xbeadfa00	-0.33979797
154	0xbeb2e6c0	-0.34941673
155	0xbeee4c15	-0.4654242
156	0xbeb7a1a1	-0.358655
157	0xbedc4b01	-0.43025973
158	0xbf089a89	-0.533608
159	0xbebf1ee3	-0.37328252
160	0xbead2da8	-0.33823895
161	0xbea9f373	-0.3319355
162	0x3e5fc058	0.21850717
163	0x3e7be7de	0.24600169
164	0x3d986eb5	0.07442991
165	0xbbca200e	-0.006168372
166	0x3d3a425a	0.045473434
167	0xbd9ff645	-0.07810644
168	0xbeed31da	-0.46327096
169	0xbeec4f5f	-0.46154305
170	0xbf2061e4	-0.6264937
171	0x3e87bedf	0.2651281
172	0x3e79942f	0.24372934
173	0x3de6ed5b	0.11275741
174	0x3d749b99	0.059718702
175	0x3e0cac3f	0.13737582
176	0x3dce0b44	0.100607425
177	0xbefa40ca	-0.48877555
178	0xbf0c02bf	-0.5469169
179	0xbf05f87a	-0.5233227
180	0x3e8bfda4	0.2734195
181	0x3e8ca3a1	0.2746859
182	0x3e456fa2	0.19280866
183	0x3e0efcd6	0.13963637
184	0x3e072a26	0.13199672
185	0xbcbad9fd	-0.022809023
186	0xbf0ba1bd	-0.5454367
187	0xbf0b6576	-0.5445169
188	0xbf17784f	-0.5916795
189	0xbce63dcb	-0.028105637
190	0xbd62b4b0	-0.0553481
191	0x3c7ee90c	0.015558492
192	0x3c9df20a	0.019280452
193	0xbd97541e	-0.07389091
194	0xbdea87b2	-0.11451663
195	0xbca627d6	-0.020282667
196	0x3d417405	0.047229785
197	0xbd600c30	-0.054699123
198	0xbd93575c	-0.07194397
199	0xbcc8ec45	-0.024526725
200	0x3c34c27a	0.011032695
201	0x3c12a4eb	0.008950452
202	0x3c8f6dac	0.01750835
203	0xbde37ae1	-0.11107422
204	0xbbefeba4	-0.0073217917
205	0xbdad7192	-0.084689274
206	0x3d2093a5	0.039203305
207	0x3d37f491	0.04491097
208	0xbd7b6587	-0.06137612
209	0xbd1871fe	-0.037218086
210	0xbdab9c70	-0.083794475
211	0xbbc5a5e3	-0.006031738
212	0xbd6766b0	-0.056494415
213	0x3d5782cc	0.052614972
214	0x3c4f5b6a	0.012656072
215	0xbd731683	-0.05934764
216	0xbf0c9181	-0.5490952
217	0xbefe4436	-0.49661416
218	0xbeef2bcf	-0.4671311
219	0xbf0ee190	-0.5581293
220	0xbf08709c	-0.5329683
221	0xbf2b8e8f	-0.670144
222	0xbee3527e	-0.44398874
223	0xbeeb36ba	-0.4594019
224	0xbf0ddbbd	-0.5541342
225	0x3c05a4a3	0.008156928
226	0xbea09d04	-0.31369793
227	0xbf00a001	-0.50244147
228	0x3cf22237	0.02955733
229	0xbc78fe52	-0.015197353
230	0xbf21a5b5	-0.63143474
231	0x3dd9d1f6	0.1063575
232	0x3cac4d87	0.021033062
233	0xbec67891	-0.3876386
234	0xbe318865	-0.17337187
235	0xbe9d9162	-0.3077498
236	0xbeb630c9	-0.35584095
237	0xbe6ac8f3	-0.22928219
238	0xbecdef35	-0.40221563
239	0xbf04a207	-0.51809734
240	0xbe8af075	-0.2713658
241	0xbe9232cd	-0.28554383
242	0xbee65e97	-0.4499404
243	0xbec6f48f	-0.38858458
244	0xbefbdcb6	-0.49191827
245	0xbf232fd7	-0.6374487
246	0xbf0cc691	-0.5499049
247	0xbf2e0cec	-0.6798847
248	0xbf15ac4e	-0.5846604
249	0xbef17340	-0.4715824
250	0xbf21b847	-0.6317181
251	0xbf11784a	-0.5682417
252	0xbeb502f7	-0.35353824
253	0xbecfc15c	-0.4057721
254	0xbf12b4bd	-0.57307035
255	0xbeef49d8	-0.46736026

down_convs.3.conv1.bias f4 [24]
0	0x352fb209	6.5451655e-07
1	0x390b23f4	0.00013269467
2	0x3482900b	2.4319192e-07
3	0xb461138a	-2.0961866e-07
4	0xb80ed1d2	-3.405085e-05
5	0xb0cf86e1	-1.5099567e-09
6	0x33a0bdeb	7.4851265e-08
7	0x3bb92a2e	0.00565078
8	0x34a21b68	3.0194792e-07
9	0x3513e4ba	5.509461e-07
10	0xb6885c2d	-4.0638465e-06
11	0xb793fa8d	-1.7640437e-05
12	0xb092ba97	-1.067593e-09
13	0x35bde1fa	1.4147365e-06
14	0xb9b636a4	-0.00034754456
15	0xb4aef90b	-3.2591228e-07
16	0xb9ac210b	-0.00032831015
17	0xb8c5b294	-9.426955e-05
18	0xb21b6f86	-9.047545e-09
19	0x341942ca	1.4273533e-07
20	0x340a4326	1.287668e-07
21	0xba90b3f5	-0.001103996
22	0x3b2506cd	0.0025181056
23	0xba56f2ff	-0.00081996614
