outputs_side_128_epochs_0_20/epoch_3_model.pth (torch, 694009 bytes, 241 tensors)

down_convs.0.conv1.weight f4 [3, 1, 3, 3, 3]
000000 62 55 24 be 94 7f 68 3b 64 e5 58 3d 81 f7 e3 3c
       -0.16048196 0.0035476433 0.05295314 0.02782798
000010 8c 51 57 3d bc 3a b1 3d c2 b5 98 3c ea 6f cd 3e
       0.052568004 0.08653781 0.018641356 0.40124446
000020 11 ec ba 3c 1b 8a 89 3d 79 d8 b6 bc 1a 7b 95 3e
       0.022817643 0.06715795 -0.02232002 0.29195482
000030 3a 3b b8 3d 43 3e ef 3c f7 44 eb 3b e3 d5 62 3d
       0.089956716 0.029204493 0.007179852 0.05537976
000040 20 a0 84 3d 32 bb 0c 3e 26 65 ae 3b 9d 15 8a 3d
       0.06475854 0.13743284 0.0053221164 0.06742404
000050 79 b7 2d bc df 39 f8 3d 19 f7 61 bd ae 2d 32 3e
       -0.010602825 0.12120413 -0.05516729 0.17400238
000060 e1 af 0c 3e 60 b6 e6 3c ad 5a 64 3e 43 1b 00 3e
       0.13738967 0.028163135 0.22300215 0.125104
000070 ff ae 0b bc 74 b1 63 3d 8c 0a 46 3e 28 7d b3 3e
       -0.008525609 0.055589154 0.19339961 0.35056424
000080 46 e4 54 3d 7d 3c b2 3d 01 81 3a 3e 36 94 86 be
       0.05197551 0.087029435 0.18213274 -0.2628495
000090 b1 2f 35 3e f8 89 3b 3e 69 9c f4 3d 0b 28 a3 3e
       0.17693974 0.1831435 0.11943895 0.31866488
0000a0 83 b2 bb bd 65 ff 91 3e 27 0a 0f 3e e3 52 15 3e
       -0.09164908 0.28515163 0.13968717 0.145824
0000b0 eb aa 54 3d 83 e5 f8 3d 75 11 3e 3e 4c 1c f0 3c
       0.051920813 0.12153151 0.18561347 0.029310368
0000c0 b7 65 9d 3e b6 cc f1 3d 24 9b a8 3d 74 08 5c be
       0.30741665 0.11806624 0.08232716 -0.214876
0000d0 da f6 3f be 00 83 36 bc d9 36 df 3c 38 a3 c0 3d
       -0.1874651 -0.011139631 0.027247833 0.094061315
0000e0 e7 93 78 3e 7d 7e 08 be ae 14 73 bd 2d 98 69 3d
       0.2427517 -0.13329501 -0.059345894 0.05702989
0000f0 fe f3 22 bd f3 00 83 bd 4a ac 43 bd d7 26 89 bd
       -0.03978347 -0.063966654 -0.04777173 -0.06696861
000100 19 3b 03 3e 0c 3e 17 3e fa b3 e9 bc 4e 3f 01 3e
       0.12815513 0.14769763 -0.028528202 0.12621805
000110 b0 6f 74 be 90 68 78 bc c7 3c 20 3e cb 8a 3e 3e
       -0.2387073 -0.015161648 0.15648185 0.18607633
000120 21 21 81 3d 6d 45 dc 3d 06 db 2c 3e 1b 0b cc bd
       0.06305147 0.107554294 0.16880426 -0.09963056
000130 b6 e6 11 3d ff b1 ca 3e 7a 93 1a be 30 81 60 3e
       0.035620414 0.39588925 -0.1509532 0.21924281
000140 ba d8 16 3e
       0.14731112

down_convs.0.conv1.bias f4 [3]
000000 40 4b 6b 39 f7 9a 71 b9 d3 9a c5 b9
       0.00022439379 -0.0002304128 -0.0003769012

down_convs.0.conv2.weight f4 [3, 3, 3, 3, 3]
000000 dd c0 3b 3e c8 90 44 3c 05 3b 3d 3e 8e b7 94 3d
       0.1833529 0.011997409 0.18479545 0.07261573
000010 3b 47 26 3e 93 b3 8b 3b ad ad ec 3d a8 97 f5 3d
       0.1623811 0.0042633503 0.115565635 0.11991817
000020 50 19 39 3e 30 1d 8f 3d 94 1b 81 bd d0 2e 9f bd
       0.18076062 0.06987989 -0.06304088 -0.07772601
000030 58 14 ff bc cb ff 85 3c 81 61 2c 3d 9f da 0e 3e
       -0.03113763 0.016357323 0.042085174 0.13950585
000040 19 e2 92 3e cb 8c f4 bc 5b b3 05 bd 85 64 04 bd
       0.28688124 -0.029852292 -0.03264175 -0.032322425
000050 32 9a f5 bd 70 26 15 3b e0 de 41 3d 06 41 10 be
       -0.11992301 0.0022758506 0.04733169 -0.14087304
000060 08 da 87 bd 55 69 59 bd 98 c3 1e 3e 7f 79 34 bd
       -0.06633383 -0.053078968 0.155043 -0.04406118
000070 2c b0 15 3e 42 30 61 bd 02 f9 20 3e 60 ea 8c 3d
       0.14617985 -0.054977663 0.15719989 0.06880641
000080 63 bf 96 3d 65 67 4d 3d 70 21 ff 3e 74 00 21 3c
       0.07360723 0.050147433 0.49830198 0.009826768
000090 d1 e0 29 3e ac d0 31 3d 10 c0 44 3d a2 db 02 3d
       0.16589667 0.043411896 0.048034728 0.03194774
0000a0 c2 ab a4 bd 49 b7 af 3d 47 b5 f9 bc e3 bf 38 bd
       -0.08040573 0.08579881 -0.030481948 -0.045104872
0000b0 df cc c3 bc 28 6b 01 3e 94 32 41 3e 80 f5 39 3d
       -0.023901401 0.12638533 0.1886695 0.045400143
0000c0 ba c1 17 3c 65 01 bf bd bb 15 a1 bd 53 b9 29 3e
       0.009262497 -0.09326438 -0.07865473 0.16574602
0000d0 4b 33 6f 3d d1 8e 39 3d 08 cc 06 3e 8a a4 10 3d
       0.058398526 0.045302216 0.13163769 0.035313167
0000e0 cd ce 7d bc 28 8b 88 3d b6 2b 85 3d c5 86 7d 3e
       -0.0154912 0.06667167 0.06502478 0.24758442
0000f0 d9 f2 e5 3d e2 ad cc bc 60 9f 86 3d 39 ed 4d 3b
       0.1122796 -0.024985258 0.06573367 0.0031421913
000100 e7 70 17 3b ff a6 2b 3d 34 8a 15 3e 99 f6 1f 3e
       0.0023108067 0.041907307 0.14603502 0.15621413
000110 a7 75 1e 3d da 01 81 3d 57 c2 27 3e 09 dc 98 3c
       0.03868642 0.06299181 0.16382729 0.018659608
000120 46 ed ea 3c 4c c9 1e 3e 06 1a 25 bd b2 f6 76 bc
       0.028677594 0.15506476 -0.04030802 -0.015073465
000130 fb 76 62 3d 68 cf 90 bc 24 89 4a bc 4e be 89 bd
       0.05528925 -0.017677024 -0.012361798 -0.06725751
000140 45 60 43 3e 0a ae 02 be 91 fb e7 3d b3 4d 04 be
       0.19079693 -0.12761703 0.11327279 -0.12920265
000150 f3 2a 02 3d e5 f1 55 3e 00 21 3c 3b a2 e9 02 bd
       0.03177924 0.20893057 0.0028706193 -0.03196109
000160 4d 20 eb 3d 44 c0 80 3d 36 39 7a 3d 2e 5c 4a bc
       0.1148077 0.06286672 0.061089717 -0.012351079
000170 29 fe f3 3d d6 08 1b 3c 51 c7 a5 3d 75 81 5e be
       0.119137116 0.009462556 0.08094657 -0.21729071
000180 2b 97 96 3d c2 e2 47 3e f4 bc 4f 3d f5 77 b6 3d
       0.07353052 0.19520095 0.05071731 0.08909599
000190 6d 19 b2 bd 70 60 0c be 2a cc 5d 3d 09 d8 75 3e
       -0.08696256 -0.13708663 0.054149784 0.24008192
0001a0 ac 3c 2f 3e b0 1e 01 3e 58 5c 5e 3e 50 f3 87 bd
       0.17112988 0.12609363 0.21714914 -0.06638205
0001b0 e5 f3 94 3c a0 a2 e3 3d ca 92 11 be e6 53 43 3d
       0.018182704 0.11115003 -0.14216152 0.047687434
0001c0 39 87 08 bc fd d1 0c bd 6a 4d 1d bd 24 40 d2 b9
       -0.008333021 -0.034379948 -0.038403906 -0.0004010211
0001d0 f6 91 16 3d bc fd 56 bd 01 8c da 3d 02 dc e4 3d
       0.036760293 -0.052488074 0.10671235 0.11174776
0001e0 28 2d 9e bd 53 78 0c be 83 75 2c be 8f 31 7e 3d
       -0.077234566 -0.13717775 -0.16841702 0.06205898
0001f0 83 3e 0d 3e 3b 40 06 3d f0 b7 1c 3e c1 db a9 3d
       0.13793378 0.0327761 0.15304542 0.08293868
000200 6f 87 b1 3d df 3e 54 3e 6b c2 b9 bc 8e 72 5d 3d
       0.0866841 0.20727108 -0.022675714 0.054064326
000210 e0 f5 df 3d 5d 14 6e 3c ef 95 e2 3d dd eb fc 3c
       0.10935569 0.014531222 0.11063754 0.030874187
000220 fa 82 9d bc 6a 42 4c 3d e5 f6 8f 3d c7 28 0b bd
       -0.019227494 0.049868025 0.07029513 -0.033974435
000230 16 3e 48 3b 27 47 1c 3e 03 9b 6d bd 8b 3f 4f 3c
       0.0030554584 0.15261517 -0.05800916 0.012649427
000240 8f 41 87 3c 5d 91 02 3e c0 47 6f 3d 51 f0 20 3e
       0.016510753 0.12750764 0.058418036 0.15716673
000250 2d 97 08 bd e8 02 a2 3d 21 8d d0 3c f1 d2 8a 3e
       -0.033347297 0.079107106 0.02545792 0.2711406
000260 c6 8b 6f 3d 55 e5 85 bd 5e 64 ec 3d 4f 9b 82 3d
       0.058482908 -0.06537882 0.11542581 0.06377279
000270 3b ed a1 3d 44 98 c6 3d 59 fc 1b 3d a3 c2 cd 3d
       0.07906576 0.09697011 0.038082454 0.1004689
000280 0b 3d c3 bd a4 79 58 3e 61 66 98 3d ef 3d f1 3d
       -0.095331274 0.21140152 0.07441402 0.11779391
000290 ad 93 d3 3b af 4e 0e 3e 54 d7 20 3e 1d 04 de 3d
       0.0064568133 0.13897203 0.15707141 0.10840628
0002a0 a3 11 4e 3e 71 85 04 bd 5e 5c 40 bd db 99 02 bd
       0.20123915 -0.032353822 -0.04696309 -0.03188501
0002b0 d6 8b 81 bd 76 56 cb bd 29 9a e7 3c a6 aa 03 bd
       -0.063255 -0.099286005 0.028271751 -0.032145165
0002c0 9e 1d cd 3d 73 5a f4 3d cd a1 12 3d df 30 60 3d
       0.10015415 0.11931314 0.035798836 0.054734107
0002d0 d7 09 23 bd f8 7e 37 3e 5f 42 a9 3d a5 7f b9 bd
       -0.039804306 0.17919528 0.082646124 -0.090575494
0002e0 20 ed 93 3c f8 74 ac bd 3c dd 4d 3d ca c5 a0 3d
       0.018057406 -0.084207475 0.050259814 0.07850225
0002f0 34 ef 9c 3d 7b 4e 0b 3d 04 d3 1e 3c 26 48 84 3e
       0.07662812 0.03401039 0.009693865 0.25836295
000300 83 49 de bc 9f cd 89 3b 7a 63 f2 bb 78 9c 4f 3e
       -0.027134662 0.00420542 -0.0073971124 0.20274532
000310 ba b2 f9 3d e8 37 a0 bd 54 6e 24 bc 1f 2f 1c 3d
       0.121922925 -0.07823163 -0.01003607 0.038130876
000320 76 da af ba 96 a8 bf 3d 1d 79 17 3e 28 ef 5e 3c
       -0.0013416547 0.09358327 0.14792295 0.013606824
000330 7b 95 27 3e 80 8e 0a 3c 11 fe bb 3d a2 c7 d4 3d
       0.16365616 0.008456826 0.09179319 0.103896394
000340 17 eb 10 3e fd 92 a8 3c f4 d3 13 3e af 0c 2e 3d
       0.1415218 0.020577902 0.14436322 0.042492565
000350 02 23 ea bc 13 b9 dd 3b 6a ea ac 3d 21 ae 8a 3e
       -0.028581146 0.0067664473 0.084431484 0.27085975
000360 1c 6e bb bd 01 bf 7c 3c 1e b5 cc 3d a4 e6 99 3d
       -0.09151861 0.015426398 0.09995483 0.07514694
000370 e0 8f 6a 3a 9d e8 6f 3d c9 d3 6f 3d 1d 44 25 3d
       0.00089478306 0.058571447 0.058551583 0.04034816
000380 b0 67 07 3e 53 fd 53 3d 1b 6f cd 3d b0 6a 1f 3e
       0.13223147 0.05175526 0.10030957 0.15568042
000390 13 cd 47 bd 5d 36 94 bd 6d 4d 85 3d 79 ff b0 bc
       -0.04877956 -0.072369315 0.065089084 -0.021606194
0003a0 34 2e 22 3e 4d c6 c9 bc b4 e4 08 bd 10 7b da bb
       0.15837938 -0.02463069 -0.033421233 -0.006667502
0003b0 26 74 f7 bd f1 66 32 bc fb 35 c1 3d 70 c7 ec bd
       -0.120827004 -0.010888801 0.09434124 -0.11561477
0003c0 ec d0 b1 bd 48 85 fc bc 52 4b 80 3d
       -0.08682427 -0.030825272 0.06264366

down_convs.0.conv2.bias f4 [3]
000000 02 e5 64 b8 40 4d 97 b6 c3 54 6d 39
       -5.4572716e-05 -4.5091438e-06 0.00022633657

down_convs.0.norm0.weight f4 [3]
000000 ea 2c 84 3f dc f5 80 3f 83 30 79 3f
       1.0326207 1.007503 0.9733965

down_convs.0.norm0.bias f4 [3]
000000 d9 06 bf bd 70 36 33 bd bd e7 d2 3c
       -0.09327478 -0.043753088 0.025745267

down_convs.0.norm0.running_mean f4 [3]
000000 b4 5c 73 3c 04 37 65 3c cc 23 26 3c
       0.014853645 0.0139901675 0.010140371

down_convs.0.norm0.running_var f4 [3]
000000 86 2a 4d 40 cd ee bf 40 23 0d c4 3f
       3.2057204 5.9979005 1.5316509

down_convs.0.norm1.weight f4 [3]
000000 86 a8 67 3f de fd 6f 3f c0 19 6e 3f
       0.9049152 0.93746746 0.9300804

down_convs.0.norm1.bias f4 [3]
000000 21 4c 16 3b d0 ed 0f bd e4 26 95 bd
       0.002293356 -0.035138905 -0.072828084

down_convs.0.norm1.running_mean f4 [3]
000000 28 90 b1 3f 97 68 8c 3f 32 9c 8c 3f
       1.3872118 1.0969418 1.0985167

down_convs.0.norm1.running_var f4 [3]
000000 ea b0 37 41 d3 3d e5 40 01 50 f0 40
       11.480692 7.163797 7.509766

down_convs.1.conv1.weight f4 [6, 3, 3, 3, 3]
000000 e2 c9 11 3e a8 17 ac bb 24 47 94 bc 62 9c f3 3d
       0.14237168 -0.0052518435 -0.018100329 0.11895062
000010 03 27 3e 3e ff 7c 70 3d 1c 5c 76 3e bf b1 e3 3c
       0.1856957 0.058712956 0.24058574 0.027794717
000020 26 0b 25 be f3 c4 55 bb dc 4c 56 bd 6d a8 24 bd
       -0.16117534 -0.0032618612 -0.052319393 -0.040199686
000030 f1 2d 42 3b 3b da 28 3d 22 ed 01 3d d1 43 88 3d
       0.0029629434 0.041223746 0.031720288 0.0665356
000040 2f 77 4e 3d 90 58 aa 3d e6 7c 01 bb 91 a8 46 be
       0.05040663 0.08317673 -0.0019758283 -0.1940024
000050 76 0b ad bd 5a d6 29 3c 0a ec af 3d 72 6c b0 3d
       -0.084494516 0.010366047 0.08589943 0.08614434
000060 c8 16 cb bc 4d 73 c7 3a ea 4a a2 3d f2 48 a8 3d
       -0.024791136 0.0015216857 0.07924445 0.08217038
000070 f7 4d 4b bd 08 04 1e bd 7b d0 a3 3d 41 3b 57 bd
       -0.0496349 -0.038578063 0.07998749 -0.052546743
000080 5a 4f 64 3d 09 08 41 bd 00 e6 c8 bc 45 b4 47 bd
       0.055739738 -0.047126804 -0.024523735 -0.048755903
000090 1a b0 b8 bc 15 d0 a3 bd 99 db 6a 3d 95 53 7a 3d
       -0.02254491 -0.07998673 0.05733833 0.061114866
0000a0 e8 5b 79 be 9a 66 b3 bd 0d cc e0 3c 1e 13 3f be
       -0.24351466 -0.08759804 0.027441049 -0.18659636
0000b0 8e fa 50 3e 90 b6 1b 3d cc 57 fa 3d e8 30 45 3e
       0.20408079 0.038015902 0.12223777 0.19256938
0000c0 d0 3a c5 3d 62 a1 95 3d 1c c6 e9 bc 76 4b 04 bc
       0.09630358 0.07306172 -0.028536849 -0.008074632
0000d0 d3 c4 ab 3d e3 6e e5 3c ed f7 36 3e cd ac 2f be
       0.083871506 0.028006976 0.17868014 -0.17155762
0000e0 68 90 c6 bc ed ea 2c 3e dd 33 f5 3c a8 1e 39 3d
       -0.02423878 0.16886492 0.029931957 0.04519525
0000f0 26 7f ba 3d e3 2e 4d 3d 68 3b d2 bd 25 d7 18 3c
       0.09106283 0.050093543 -0.10265237 0.009328638
000100 f9 c8 ed 3a 93 e1 a4 bd 34 6a 4d be 1c 69 1a bc
       0.001814156 -0.08050837 -0.20060045 -0.009424474
000110 6b d6 3c be 03 bc 30 be 18 ce 67 bc 6a 59 0d bd
       -0.18441169 -0.17259221 -0.014148258 -0.0345091
000120 c1 71 b7 3c c6 9c be 3d c7 b6 02 3d 94 7b 15 3e
       0.02239311 0.09307246 0.03191259 0.14597923
000130 7b ac 21 3d fd eb e5 3c 39 4d 62 bd af 28 1b be
       0.03947113 0.02806663 -0.055249427 -0.15152238
000140 72 ab 9f 3d 89 b3 cf 3d f5 14 cc 3c 22 c0 24 39
       0.077963725 0.101416655 0.024912337 0.00015711834
000150 3d 6e a8 bd 2e e0 c3 3c 98 cb 16 3d 01 ee 82 3d
       -0.08224151 0.023910608 0.036815256 0.06393052
000160 be ce 27 3e 86 4b 37 be 3d 54 50 bd da fd 84 bd
       0.1638746 -0.17899904 -0.050861586 -0.06493731
000170 06 a8 f7 3a 6b b5 54 3d df 7d 9a bc 6d 85 0f 3d
       0.0018894679 0.051930826 -0.018858848 0.035039354
000180 6f 4a 92 3d 10 1f a0 3d c0 48 1f 3e 4f 7b 4b be
       0.07143103 0.07818425 0.15555096 -0.19871257
000190 83 7a 2f 3d 34 1d 88 bd 92 0a 94 3d 0a 9e 52 bc
       0.042841446 -0.06646195 0.072285786 -0.012855062
0001a0 d9 f1 10 bd 95 4d 50 ba 14 25 c1 3d d6 dc cf 3c
       -0.035386894 -0.0007946131 0.094309 0.025373857
0001b0 dd 16 84 3d 8e 03 32 3a 29 2d 7f bd 85 4c d1 3a
       0.06449673 0.0006790691 -0.062298927 0.0015968239
0001c0 71 f7 8a bd 44 07 8b 3d 60 3a c6 3d 0b 4c 11 3e
       -0.06785477 0.06788495 0.09679103 0.14189164
0001d0 21 fe f9 3d 81 83 02 be 4b a8 79 be d7 db 7e 3d
       0.12206674 -0.12745477 -0.24380605 0.062221374
0001e0 04 d6 a6 3d d0 b9 e6 3d 8e db 4b 3d 4d 92 4b 3d
       0.08146289 0.1126591 0.04976993 0.04970007
0001f0 e6 d9 cc 3d 90 9f ba ba 43 1d 10 bd b0 17 33 be
       0.10002498 -0.0014238227 -0.035184156 -0.17489505
000200 74 3c 4c be 8c a6 1c be 83 19 c8 3d a7 fb 5c 3d
       -0.19944936 -0.15297908 0.09770491 0.053950932
000210 22 33 26 3e 10 25 ba 3c 2c 4e ec bc 7c f3 29 bd
       0.16230443 0.02272275 -0.028845869 -0.04149197
000220 15 4b 3d bd 52 8b 79 3d 61 e1 da 3d b1 01 21 be
       -0.046214182 0.06092388 0.10687519 -0.15723301
000230 b6 9b 05 be 7a 65 3e 3e 28 36 54 bd b5 88 8f 3d
       -0.1304768 0.18593398 -0.05180946 0.07008497
000240 23 7f 65 3d b0 ab 86 bd 5a e8 aa bd 30 c5 38 bd
       0.05602945 -0.065757155 -0.08345099 -0.045109928
000250 c2 37 b8 3c 80 fc a0 3d f2 dc 68 bd e0 79 ef bd
       0.022487525 0.078606606 -0.056851335 -0.11693168
000260 63 2d aa bb 23 91 93 bd b4 57 84 be ed 70 96 3c
       -0.005193399 -0.07205417 -0.25848162 0.018364394
000270 4d 74 8c 3e 63 fa 92 3d 0e da 5d 3e 4a ff 22 3d
       0.2743248 0.07176664 0.21665213 0.039794244
000280 0f dc 9a 3d 6c 96 0d 3e cd 78 cd 3d ae 51 40 3d
       0.07561504 0.13826913 0.100328065 0.046952896
000290 86 25 c2 3d ec e6 f4 3d d4 cd b5 bd 01 f5 79 3d
       0.09479813 0.11958107 -0.08877149 0.06102467
0002a0 af 79 cb bd 3b 3f 41 bd cc 79 f5 3c cc 46 33 3e
       -0.09935319 -0.047179442 0.029965304 0.17507476
0002b0 cf 91 04 bd 21 6d 34 3b 97 81 c2 bc 87 c8 c5 3d
       -0.032365616 0.0027530866 -0.023743434 0.09657388
0002c0 79 ae 79 3d ca 4b fa ba 35 b8 d5 3c 7a 01 a5 3d
       0.060957406 -0.0019096073 0.026088813 0.08056922
0002d0 38 ef 35 3e ad 24 c0 bd 39 a7 02 3e 41 d1 bc 3d
       0.17767036 -0.09381995 0.12759103 0.092195995
0002e0 55 ff 85 3d ae da c8 bc 92 91 6f bc 73 ff e5 3c
       0.06542841 -0.024518337 -0.014622109 0.02807591
0002f0 60 41 97 3d 6d c7 09 3e 93 76 83 3d 3b 5f 9e bc
       0.07385516 0.13454981 0.064191006 -0.019332519
000300 de ea 01 3e 61 cb 2d be f6 e4 9c bc 32 f6 23 3e
       0.12687251 -0.16972114 -0.019152146 0.16011885
000310 41 1e bc bb a3 8a da bd 28 48 1f 3e 76 dc be 3c
       -0.0057409112 -0.10670974 0.15554869 0.023298483
000320 3c 6b 0b be 80 a5 d6 3d 70 8c 23 bd 21 b6 27 3d
       -0.13615125 0.10480785 -0.039928854 0.040945176
000330 dc 28 5a 3d ed 77 3c bd 99 2c 80 be ee 19 99 3c
       0.053261623 -0.046012808 -0.25034025 0.018689122
000340 24 83 65 3e 0c f0 fe bd d8 62 89 bd 8c 45 f1 3d
       0.22413307 -0.12448129 -0.06708306 0.11780843
000350 3e 9e 86 bd af 16 55 bd c8 46 1c be 03 2d 7e 3d
       -0.06573151 -0.052023586 -0.15261376 0.062054645
000360 13 80 9a bb af 99 04 3b 8c 8b 28 3e c1 de ff 3c
       -0.0047149747 0.0020233204 0.16459483 0.031234147
000370 39 c7 61 3e 18 4a d3 3d 21 32 9d bd 37 84 b1 3d
       0.22048654 0.10316867 -0.07675577 0.08667796
000380 a0 1d 47 3e e3 6b 15 be 22 22 14 3d e0 10 20 3d
       0.19444895 -0.14591937 0.036165364 0.039078593
000390 fe 7d ff 3d 97 2a 54 3e 9c 2d 0d 3d 06 24 e4 bd
       0.12475203 0.20719372 0.034467325 -0.111396834
0003a0 40 06 83 3d 62 02 a1 ba d7 61 e4 3d 64 60 a9 bd
       0.063976765 -0.0012284035 0.11151474 -0.08270338
0003b0 15 1c 63 3d f0 91 53 3e fc ed 9b 3d 09 e9 d7 3d
       0.055446703 0.2066114 0.07613751 0.10542495
0003c0 2f bc 1a bd db ce 53 bd 8a b0 ba bd 19 63 5d bd
       -0.037777122 -0.051710945 -0.091157034 -0.054049585
0003d0 2d e1 28 bd 0b c1 c9 bd a0 3f 0f be 41 a4 27 bc
       -0.04123037 -0.09851273 -0.13989115 -0.010232032
0003e0 cb 00 b7 3d 1f c5 bc 3c 61 f5 08 3d d1 55 b0 3d
       0.08935698 0.023043213 0.033437137 0.08610118
0003f0 45 08 5c bc 67 4d d3 bd af 9f 81 bd d8 54 87 3d
       -0.013429706 -0.10317498 -0.06329285 0.066079795

down_convs.1.conv1.bias f4 [6]
000000 ed 6a df 37 4e ec 32 b8 a9 0d 72 37 c1 f1 0f 39
       2.6633463e-05 -4.2658583e-05 1.44275045e-05 0.00013727603
000010 3d 8f 88 37 0d e0 8d 38
       1.6279164e-05 6.765137e-05

down_convs.1.conv2.weight f4 [6, 6, 3, 3, 3]
000000 30 10 48 3d 6b 7c ad 3d 61 9a 88 bd bf 7c 4a 3d
       0.048843563 0.084709965 -0.066700704 0.049435373
000010 62 fb 51 bd 55 35 81 bd 8b 30 92 bb 58 8b 23 3e
       -0.051265128 -0.063090004 -0.004461353 0.15971124
000020 81 29 2d 3e 5e 6b 52 3d 9f 0f 95 bc 27 df b9 3c
       0.16910364 0.051371925 -0.018195925 0.022689415
000030 39 cd 5c bd 64 ac 58 be 95 7f 5d bd 64 aa 36 3c
       -0.053906653 -0.21159512 -0.05407675 0.011149023
000040 29 91 aa 3d ab 0f 0b 3d 1e a0 08 be b4 03 23 3e
       0.08328468 0.03395049 -0.1334233 0.15919381
000050 df 34 8d 3b 26 76 87 bd 86 ad 3f 3d a7 b3 de 3d
       0.0043092812 -0.06614332 0.046796344 0.1087411
000060 be 29 b9 bd 86 0f 04 be c2 21 2d bb 81 65 26 3d
       -0.09041165 -0.12896547 -0.0026417826 0.040624145
000070 7f a5 73 3e 0d 6a 2f bc 51 fa 68 bd 00 0c 89 3e
       0.237936 -0.010706437 -0.056879345 0.26766968
000080 f9 93 b1 3d ee 10 79 bc 4a 01 a9 bb 75 92 96 bd
       0.08670802 -0.01520179 -0.0051576244 -0.07352153
000090 4b b8 72 bd c4 5b 78 3d 38 dc 53 bd a3 4c 10 3d
       -0.059257787 0.06063439 -0.05172369 0.035229336
0000a0 4f 3e ca 3d 9f f5 b3 3d 92 b5 a1 bd ed 86 7a bd
       0.09875166 0.08787083 -0.0789596 -0.06116383
0000b0 24 37 f2 bd c9 ce 2d 3d 15 a8 b1 bc 83 65 79 3d
       -0.118269235 0.042433534 -0.021686593 0.060887825
0000c0 2b e7 ef bd 21 10 8f bd 9a 56 07 3d bd 81 8b bd
       -0.11714014 -0.06985498 0.033041574 -0.06811855
0000d0 6e 9f f3 bd 71 9d b8 ba af bd 99 bd 4a 98 bd 3d
       -0.11895643 -0.0014085007 -0.075068824 0.092575625
0000e0 f6 53 54 3d 78 2c 8b 3c ec 80 6d 3d b9 2c 1c 3d
       0.051837884 0.016988978 0.057984278 0.03812859
0000f0 bc 73 2a 3e 75 c0 a2 3d 9c d0 34 3d 1e f0 83 bb
       0.16645712 0.079468645 0.044144258 -0.004026427
000100 63 f6 e5 bd 88 ae ef bd c4 c0 4d bd 57 ca 5e bc
       -0.11228635 -0.11703211 -0.050232664 -0.013598046
000110 44 f5 dc 3d ca d9 70 3d 50 80 b2 3d 26 bf 0b be
       0.10788968 0.05880145 0.0871588 -0.13647136
000120 20 2e 8a bd f7 66 1f be ba 9f f7 3c 9d 85 ab bd
       -0.06747079 -0.15566622 0.03022753 -0.08375094
000130 97 e4 83 bd ef 05 a4 bd d2 8b 8c 3c 3a a8 b1 3d
       -0.064400844 -0.08008944 0.017156515 0.08674665
000140 b3 49 45 bd 36 7f 12 3d 6a 85 12 3e 72 f4 4d 3e
       -0.04816599 0.03576585 0.14308706 0.2011278
000150 36 e3 de 3d f2 69 0b 3d b6 d7 4f 3e 5a 28 e9 3d
       0.10883181 0.034036584 0.20297131 0.113846496
000160 ca c7 59 3d 9d fe f5 3d 46 cb 25 3d 57 5d de 3d
       0.05316905 0.12011454 0.04047706 0.10857647
000170 19 0b 22 3e 74 f9 92 3d ef 29 98 3d 56 ba 02 3e
       0.15824546 0.07176486 0.07429873 0.12766394
000180 a0 ab a4 bb e9 56 8b bd 4c 40 e8 3d 31 75 a2 3d
       -0.005025342 -0.06803686 0.11340389 0.07932509
000190 0c b1 d5 3c 6a e0 32 3e b0 e9 8a 3d 9e 18 3b 3c
       0.0260854 0.1746842 0.067828536 0.011419443
0001a0 28 1b 9c 3d 47 6e 44 3e 7b 97 18 3e 77 71 28 3d
       0.07622367 0.19182692 0.14901535 0.041123834
0001b0 cf 06 24 bd 17 b3 27 3d 87 8c a3 bd c0 74 83 3d
       -0.040045556 0.040942278 -0.07985788 0.06418753
0001c0 d4 cb 25 3a 4a e4 2c bc 28 c1 71 bc 13 72 94 3d
       0.0006324623 -0.010552475 -0.014755525 0.072483204
0001d0 7f ae 2d bd 16 bc 03 bc 13 4d 65 3d db be 8f bd
       -0.04240274 -0.008040449 0.055981707 -0.07018825
0001e0 c8 50 48 bd e5 bd b6 bc e1 cc 90 3d dd 09 22 bd
       -0.048905164 -0.022307346 0.070703276 -0.039560188
0001f0 84 67 b5 3c cd a2 4a bd a3 0a 62 bd d6 de 93 3d
       0.022144087 -0.049471665 -0.055185925 0.07220237
000200 d0 ba b3 bd 97 47 12 be 9c c2 a0 bd 3e 01 64 bd
       -0.08775866 -0.14285122 -0.07849619 -0.055665247
000210 d1 62 02 3e 6f 91 84 bd c0 39 32 3d a7 44 e9 3c
       0.12733008 -0.06473052 0.043512106 0.028475119
000220 0c 7f 76 bb 2f ab 29 be 15 08 81 3d 69 e6 87 3d
       -0.0037612347 -0.16569208 0.0630037 0.06635744
000230 bf 8a 8c 3c 34 f7 96 bd 84 b4 b9 3d 6d 08 0b 3d
       0.017156003 -0.07371369 0.09067634 0.033943582
000240 f3 d5 11 3e 39 8f 93 bd 05 21 af 3d 60 4b 3c bd
       0.14241771 -0.07205052 0.0855122 -0.04597032
000250 87 5e 96 3c 3e 7f 76 3d d5 48 2e be 93 87 0f 3e
       0.018355621 0.06017994 -0.1701997 0.14016561
000260 da a3 9e bd d6 e5 2c 3d 61 82 87 3d fc 70 e4 3d
       -0.07746096 0.042211376 0.06616665 0.111543626
000270 01 4e d4 bd f2 32 4c 3d 9d e1 c8 bc 2c 69 17 bd
       -0.103664406 0.049853273 -0.024521643 -0.036965534
000280 f4 c9 e6 3d f8 7a dd 3c 2b 87 7b 3d ff 66 2f 3e
       0.11268988 0.027036175 0.061408203 0.17129134
000290 9b aa c9 bd 3a 54 93 bd 1c 68 6d bd 13 55 c3 bd
       -0.098469935 -0.07193799 -0.057960615 -0.09537711
0002a0 4e 47 ed 3d 4b 63 3f bb 64 7e 39 be c4 62 4e bd
       0.11585866 -0.002920347 -0.1811462 -0.05038716
0002b0 19 db ca 3b 1b f1 13 be 97 0a 17 3d 1b 59 ea 3d
       0.0061906693 -0.14447443 0.036875334 0.11442777
0002c0 3c 82 4e 3d b1 15 49 3c 5a 79 0c bc 10 cd ca 3c
       0.05041717 0.012273238 -0.008573854 0.024755985
0002d0 27 c1 12 3e f6 f6 cf bd 25 dd 14 3d 08 ec 1e 3d
       0.14331494 -0.10154526 0.036343712 0.038799316
0002e0 e1 75 c6 3d ea 6f e7 bd 3f 17 35 3d 68 6a 61 be
       0.09690452 -0.11300643 0.044211622 -0.22013247
0002f0 75 4d cd 3d ee 2b 61 bd 1a d1 32 3e 68 c8 04 bd
       0.100245394 -0.054973535 0.17462578 -0.032417685
000300 38 f1 8e ba 6f fa bd bc 43 e2 f0 bd c0 06 cf 3b
       -0.0010905629 -0.023190705 -0.11761906 0.0063179433
000310 68 a5 b7 3d ae 24 2d 3e 79 ca b9 bc 5e ee 2e 3c
       0.089670956 0.16908523 -0.022679554 0.010676948
000320 49 56 c6 3d cd a4 26 bd fb 4c 13 bd ea ca eb 3c
       0.09684426 -0.04068451 -0.035962086 0.02878328
000330 27 1e 85 3d 1a 4a df 3d 8f 0d 85 3d 82 dd 87 bc
       0.06499892 0.109028056 0.06496727 -0.016585115
000340 4e 9b 48 be eb 80 b3 bd 98 56 33 bd 89 36 20 3d
       -0.19590494 -0.087648235 -0.043783754 0.03911451
000350 63 06 2b bd aa f1 6f 3d a6 52 59 3d bb d1 14 bc
       -0.041754138 0.05858008 0.053057335 -0.009083207
000360 0c f0 d9 3b 1d 76 c2 3b 7b c6 31 3d 68 3e ff bd
       0.0066509303 0.0059344904 0.043402176 -0.12463075
000370 a3 e7 3a 3c 38 4e 66 bd 26 2a 8d bb 85 5a e6 ba
       0.011407766 -0.05622694 -0.004308003 -0.0017574584
000380 4e 2c 7c bd c1 94 3f 3d 36 77 b5 3d be 92 9a 3c
       -0.06156569 0.046772722 0.08860628 0.0188688
000390 be 29 6f 3c d7 93 db 3d b3 31 9e bc 80 1f d0 3b
       0.014597354 0.107215576 -0.019310808 0.0063514113
0003a0 8f f7 9a bd e1 89 0b 3c cf a1 ae bd 67 a4 9f 3c
       -0.07566749 0.00851676 -0.08526956 0.019487573
0003b0 09 e3 5e bd 45 60 7e 3d d0 71 14 be b1 77 b7 bd
       -0.054415736 0.06210353 -0.14496541 -0.08958376
0003c0 e9 a5 d8 bd 0b 46 f1 bd a6 c7 e4 bd 92 0e 8c bb
       -0.1057852 -0.11780938 -0.111708924 -0.004274198
0003d0 a8 81 d8 bd 9e 2a 02 3d c1 c3 be bd 47 cd ac 3d
       -0.10571605 0.031778924 -0.09314681 0.08437591
0003e0 4b 11 0d 3b fa f7 9d bb af 10 dc 3d a0 be c2 bc
       0.00215252 -0.004820821 0.1074537 -0.023772538
0003f0 58 3d 64 3e e1 0d 7d 3d bf 1a 99 bb 36 e3 61 bd
       0.22289026 0.061780814 -0.004672378 -0.055148326

down_convs.1.conv2.bias f4 [6]
000000 43 80 17 b9 ba fa 9f 39 78 6f a4 b6 62 28 ac 37
       -0.00014448263 0.0003051365 -4.9005575e-06 2.0522803e-05
000010 c2 3c 23 37 ab aa 5b 37
       9.729703e-06 1.3093154e-05

down_convs.1.norm0.weight f4 [6]
000000 da f4 77 3f 03 a7 83 3f c3 04 7b 3f 97 d5 88 3f
       0.9685799 1.0285343 0.9805414 1.0690182
000010 46 12 7b 3f dd 13 72 3f
       0.9807476 0.9456156

down_convs.1.norm0.bias f4 [6]
000000 31 6e 4d bd 26 ca 89 bd b8 c9 1d bb 6f 6d e8 3d
       -0.050153915 -0.0672801 -0.0024076533 0.11348998
000010 96 d6 b5 bc 00 c9 21 be
       -0.02219705 -0.15799332

down_convs.1.norm0.running_mean f4 [6]
000000 86 78 76 3e 6d 2f c3 3e b0 4f 2f 3f 1d 22 ee be
       0.24069414 0.3812212 0.6848097 -0.465104
000010 2a ea 12 3f d5 b7 26 3f
       0.57388556 0.65124255

down_convs.1.norm0.running_var f4 [6]
000000 b0 f8 02 3f f4 14 20 40 6e 8a 97 40 4b 4e f3 3f
       0.51160717 2.5012789 4.735648 1.9008268
000010 e1 8d 46 40 db 7f 7a 40
       3.1024096 3.9140537

down_convs.1.norm1.weight f4 [6]
000000 22 f2 75 3f db d9 7f 3f d1 82 80 3f 73 cd 75 3f
       0.9607259 0.99941796 1.0039922 0.96016616
000010 41 7b 6e 3f 96 3e 75 3f
       0.9315682 0.95798624

down_convs.1.norm1.bias f4 [6]
000000 e0 eb 16 bb 01 dc f9 39 dc 9e 23 3d d7 be 76 bd
       -0.0023028776 0.00047656897 0.039946422 -0.060240593
000010 aa 86 4d be 17 90 a5 bc
       -0.20070902 -0.020210309

down_convs.1.norm1.running_mean f4 [6]
000000 11 f2 5e 3f 1e 38 13 3e 0f 18 45 bf 70 f8 a1 bc
       0.87088114 0.14376876 -0.76989836 -0.019771785
000010 ad 0b c4 3f 79 89 ea be
       1.5316063 -0.45808008

down_convs.1.norm1.running_var f4 [6]
000000 10 7d 0f 3f 09 6e 5b 3f ce 02 e4 40 3a e1 3f 40
       0.56050205 0.85714775 7.1253424 2.9981217
000010 0d 82 70 40 05 ba 88 40
       3.7579377 4.2727075

down_convs.2.conv1.weight f4 [12, 6, 3, 3, 3]
000000 c8 64 0f bd 08 b1 46 3d 8b a0 e6 3c ed 06 4a 3d
       -0.035008222 0.048508674 0.028152725 0.04932301
000010 d8 db 0f bd a5 3e f6 bd 09 10 46 bb 03 06 f1 bc
       -0.03512177 -0.12023667 -0.003022196 -0.029421812
000020 23 1d a5 bd 0a 63 2f bd 1b 67 54 3c 61 84 71 bd
       -0.08062198 -0.04281906 0.012964035 -0.058964137
000030 c0 83 a2 bd c4 bc 93 3d 08 18 dc ba c2 fd ca 3c
       -0.079352856 0.072137386 -0.001679183 0.024779204
000040 91 0b 11 bd d6 de 1e bd 3d c9 e8 bc 1c 9a 13 3c
       -0.03541142 -0.03878673 -0.02841627 0.0090089105
000050 a5 96 f9 bb e9 2d 5d 3d 3b 25 8a 3d d4 99 dc 3d
       -0.007616835 0.05399886 0.067453824 0.10771528
000060 36 5c c0 3d 98 84 cf 3d 26 ff 0a be f1 df 86 bd
       0.09392588 0.10132712 -0.13573894 -0.06585682
000070 c0 b4 6d 3c 44 47 cb 3c 21 eb f8 bd a9 3d cf 3c
       0.014508426 0.024814256 -0.12154222 0.025297957
000080 ab cd 5e bd 1b 60 17 bd 9b 53 9c bd 5a 6b 61 bc
       -0.05439536 -0.036956888 -0.07633134 -0.013758505
000090 a5 2b 08 3e c7 28 67 3d 4d b2 93 bc 76 be b5 3d
       0.13297899 0.056435373 -0.018029356 0.08874218
0000a0 cc 9d 64 3e a7 94 70 3c a7 82 a3 3d b7 a5 9e bd
       0.2232582 0.014683879 0.07983904 -0.07746451
0000b0 cc aa 97 3c f8 c2 a7 3d 3f 54 dd 3d a1 00 a9 bc
       0.01851406 0.08191484 0.10807084 -0.020630183
0000c0 7f 31 09 3d ad 04 28 3d 57 fe 6a 3d f5 6c 1f 3e
       0.03349447 0.041020084 0.057371464 0.15568908
0000d0 13 e7 e3 3d 4b 44 83 3d f7 9a b6 3d 71 f7 ab bd
       0.11128058 0.0640951 0.08916276 -0.08396805
0000e0 a2 39 71 bb a6 8d e2 3d 94 77 40 bd d3 60 ab bd
       -0.0036808033 0.110621735 -0.04698904 -0.08368077
0000f0 83 4e 40 3d 3e 70 fe 3c ad 46 1e 3d 1b 2c 5b 3c
       0.046949875 0.03105938 0.03864162 0.013377215
000100 90 e5 99 bc 46 b0 81 3d f8 8a 61 bd 67 2c 9f 3c
       -0.018786222 0.063324496 -0.05506417 0.019430352
000110 94 68 e4 3c dc 4a 8e bd b1 c7 8f 3d 24 f6 0e 3d
       0.027881898 -0.06947872 0.0702051 0.034902707
000120 47 8f 4b 3d 40 37 84 bd f0 f2 bc bd b0 1e dd 3b
       0.049697187 -0.064558506 -0.09226024 0.006748043
000130 5c 92 db bd fa 01 8f bc 4c 12 bf bd d3 ce 41 bb
       -0.10721275 -0.017456997 -0.09329662 -0.002957274
000140 54 ae ed 3c b0 cf ae 3c f9 7f 90 3c 91 29 b8 bc
       0.02901379 0.021339267 0.017639147 -0.022480758
000150 46 46 1b 3e eb aa 8c 3d 5b 25 bc 3d d7 59 e0 3d
       0.15163526 0.068685375 0.091868125 0.109546356
000160 52 0d be 3d bf 3e 32 3d 4b 14 46 3e b8 32 2b bd
       0.092798844 0.04351687 0.19343679 -0.041796416
000170 24 5a d2 3d 39 44 6e 3d 60 60 b9 bc 8d dd 0c bd
       0.10271099 0.05817053 -0.022628963 -0.034390975
000180 b5 fd 01 bd 61 4f b8 3c 73 2e 88 3d ef d7 4e 3b
       -0.031736095 0.022498788 0.066494845 0.0031561812
000190 7e bf bc ba ad b6 c6 3d 69 21 a5 3c cd 6b 2d bc
       -0.0014400331 0.097028114 0.020157533 -0.010584784
0001a0 c0 a5 a5 3d 52 50 ca 3d 25 b0 4e 3d 7c 1f b8 3d
       0.08088255 0.09878601 0.050460953 0.0899038
0001b0 ae 4e 84 3d 19 2e 30 be 8a 8e 83 bd 63 bf 96 bd
       0.064603195 -0.17205085 -0.064236715 -0.07360723
0001c0 e7 d1 4a be a7 f8 44 bc a5 e9 d8 3d 5d 52 37 be
       -0.19806634 -0.012022174 0.10591439 -0.17902513
0001d0 5c 5d 28 3d 6f 3e 1a bd 94 02 37 bc 21 82 13 bc
       0.04110466 -0.037657198 -0.011170048 -0.009003193
0001e0 aa 6c 14 be 36 dc ec bd 6d ed ae 3d 6b 48 80 ba
       -0.14494577 -0.115654394 0.08541379 -0.0009787207
0001f0 af 40 81 3c 03 f6 0d bd 42 5c 27 3d 20 18 31 bd
       0.015777914 -0.034658443 0.04085947 -0.043235898
000200 ec 36 04 bc 02 32 f5 bd 78 ed 80 bc 1c 06 6e bd
       -0.008069735 -0.11972429 -0.015738234 -0.058111295
000210 d6 f9 be bd 29 9f 39 3c ef 44 d7 bd 9e 36 4d bc
       -0.09324996 0.011329451 -0.10511195 -0.012525229
000220 da 92 68 bd 6f e7 bc bc 58 6b 35 bd 87 9b 15 bd
       -0.056780674 -0.023059575 -0.044291824 -0.036525276
000230 c3 b8 aa 3d a6 42 24 3d dd 28 92 3d 97 66 e2 3a
       0.08336022 0.040102623 0.071367 0.0017273006
000240 32 83 85 3d 51 e5 6b bb c6 05 0c bc 7a 42 25 bd
       0.06519164 -0.0035994838 -0.008546298 -0.0403466
000250 06 3d 50 3c 8d 07 03 bc 52 73 94 ba 6c ef 3a 3d
       0.012709862 -0.007997406 -0.0011325872 0.045638487
000260 0f d6 88 bd b5 66 5c 3d 7c 4f 89 3c 08 66 de 3d
       -0.066814534 0.053808887 0.016761534 0.10859305
000270 0d 92 1d 3b 3b c9 9e bb b0 da d5 3c 17 23 da bc
       0.0024043352 -0.004845766 0.026105255 -0.02662806
000280 6b c0 82 3d 77 c2 4b 3d 9a 58 ce bc 7a ba b4 3c
       0.06384357 0.049746003 -0.025188733 0.022061575
000290 a0 7d 36 3d 6a ee e6 3d cb a6 65 3d 7c ed 01 be
       0.0445534 0.112759426 0.05606727 -0.1268825
0002a0 99 df 96 3c 0d d6 1b bd 3e e4 1d 3c a6 ed e3 bd
       0.018417167 -0.03804593 0.009636937 -0.11129312
0002b0 e5 ff af bd 37 5f 0e bd 86 8e 80 bd 30 f7 17 bd
       -0.0859373 -0.034758773 -0.06277184 -0.03710097
0002c0 8f 99 cd bd 5b df 3c bc 65 fd ae bc e3 27 bd bc
       -0.100390546 -0.0115278615 -0.021361062 -0.023090309
0002d0 2a df 1e bd 43 6b 0d be a7 35 3a bd a0 64 7d bc
       -0.038787045 -0.13810448 -0.045461323 -0.015465885
0002e0 b8 b1 a0 bd 92 7f 1d bd 1f 11 2a bd 58 67 de bc
       -0.07846397 -0.03845174 -0.041520234 -0.027148888
0002f0 71 41 0c bd 6d d9 c0 bd 6b b9 d5 bd e2 c3 5c bd
       -0.034242097 -0.09416471 -0.10435756 -0.053897746
000300 60 92 a9 3d 19 e8 68 3d 3a 21 9b bc d7 12 1d 3d
       0.08279872 0.05686197 -0.018936742 0.038348045
000310 e7 5a 69 bd 26 ff 17 bb 65 58 27 be 5b 84 18 bc
       -0.056971457 -0.0023192852 -0.16342314 -0.0093089
000320 3e eb 5d bd 6b 95 00 be 5b 20 90 bd 6f eb 9d 3d
       -0.054179423 -0.12556998 -0.07037421 0.07710921
000330 be ad e2 bc 1d 05 c4 3d e7 bc ec 3c 66 3d 4c bd
       -0.027670737 0.09571288 0.02889867 -0.04986324
000340 ae 81 b9 3c ab c3 95 3d 7c 0e 9f bd 4b 17 fe bd
       0.022644844 0.07312711 -0.077664346 -0.124067865
000350 a7 63 b7 3c 5b eb 0c bd 36 8b 80 bc a7 42 cc bd
       0.022386385 -0.03440414 -0.015691381 -0.099736504
000360 58 28 fd bc 7a ac 70 bd 27 46 05 bc 9c e1 04 3d
       -0.030903026 -0.058758236 -0.008134401 0.03244172
000370 85 e5 d7 bc 36 22 db bd 2e eb 0e 3d 22 05 b2 3d
       -0.02635456 -0.106998846 0.034892254 0.08692385
000380 8e 38 bb 3c 4e e0 35 bc 1d fb 9b 3c 51 f0 d4 3d
       0.022854116 -0.011100842 0.019040639 0.10397399
000390 53 0c 87 bd 85 a1 00 3d 1c 35 d6 3c 35 49 be 3d
       -0.065941475 0.031404037 0.026148371 0.09291307
0003a0 fb a0 bb 3c f6 08 18 3d 62 13 32 be 34 dc 09 3d
       0.02290391 0.03711792 -0.17390206 0.033657268
0003b0 0f f2 a5 bd fa 43 bc bd 58 c1 9d 3c d7 a2 e0 3b
       -0.0810281 -0.09192653 0.019257233 0.0068553495
0003c0 8c 71 ff 3d 35 41 c4 3d 37 9d 15 3d 90 9a a2 bc
       0.12472829 0.0958275 0.036526885 -0.019849092
0003d0 4b f6 1d 3d 84 66 6f 3d 67 87 32 bd 3f d9 cc bc
       0.03856496 0.058447376 -0.04358616 -0.025005935
0003e0 e3 12 89 bc 79 96 30 be bc ca f4 bd 21 cd 70 bd
       -0.016732639 -0.17244901 -0.11952731 -0.058789376
0003f0 ba f0 ef bd 47 b7 b9 3d 35 5f 66 bd ea 2f db bd
       -0.11715837 0.090681605 -0.05624314 -0.10702498

down_convs.2.conv1.bias f4 [12]
000000 3c b0 65 36 8b cb da 36 90 3f 42 37 c8 51 f1 36
       3.422624e-06 6.520602e-06 1.15781e-05 7.1918803e-06
000010 d7 52 16 37 05 35 c9 35 a2 78 2c 37 d7 ba 2a b7
       8.959984e-06 1.4991098e-06 1.0280086e-05 -1.0176292e-05
000020 94 d2 bb 36 19 4b fa 36 d3 7b 24 b6 6a 8e c9 37
       5.597549e-06 7.459323e-06 -2.450998e-06 2.4027384e-05

down_convs.2.conv2.weight f4 [12, 12, 3, 3, 3]
000000 2b 65 85 3d 5c 31 80 3d fc bb 98 bc 04 d4 1c 3d
       0.06513437 0.062594146 -0.018644325 0.03828813
000010 19 75 77 3d 35 f4 c6 3d 94 04 41 bd f8 c0 0f 3d
       0.060414407 0.097145475 -0.047123507 0.03509614
000020 5b 76 3b 3d f3 60 1e bd 58 d9 80 bd 30 dd c2 ba
       0.04576717 -0.038666677 -0.06291455 -0.0014866944
000030 69 c7 35 bc 5e 68 19 3d 79 b1 34 3b 13 a7 ef 3c
       -0.011094906 0.037453048 0.0027571602 0.029254472
000040 4f 94 c8 3c 91 fc e8 3c 36 cb 80 3d 5e 51 60 bd
       0.024484782 0.028440746 0.062887594 -0.054765098
000050 68 f8 46 3c 15 e0 29 3d f0 ac 71 3d 4b 3d 78 3d
       0.012144186 0.041473467 0.059002817 0.06060533
000060 84 32 24 3d 77 bf 35 bd c2 97 8a 3d e1 1c ef 3c
       0.040087238 -0.04437205 0.06767227 0.029188575
000070 da 02 14 3e f7 b2 26 3d d5 b6 a2 3c 7b bd a6 3d
       0.14454213 0.040698018 0.019862572 0.08141609
000080 83 18 c4 3c 72 ae 1d bc ba 6c 84 3d d4 7b 23 3c
       0.02393747 -0.009624111 0.064660504 0.009978253
000090 65 37 af 3c d5 18 14 bd 5b 21 69 3c 36 9f 41 3d
       0.021388719 -0.036156494 0.014229144 0.047270976
0000a0 b0 53 1d bd 4c 52 88 3d db 78 4f bc d6 a1 f1 ba
       -0.03840989 0.06656322 -0.0126630915 -0.0018435072
0000b0 a6 46 1e bd 75 ab e6 3c 59 fe 80 bd a3 3b cc bc
       -0.038641594 0.028157929 -0.06298513 -0.02493078
0000c0 d4 b5 f8 bd 30 27 15 bd 44 25 3c ba 82 3f 25 3d
       -0.12144056 -0.036414325 -0.0007177184 0.04034377
0000d0 dd 43 86 bc 2f 41 ac 3c 44 cf 70 bd 55 78 83 bd
       -0.016389782 0.021027176 -0.058791414 -0.06419436
0000e0 7e 5d d1 bd f2 f6 42 3c e7 05 23 bd 9f 1e 02 3d
       -0.1022291 0.011899697 -0.03980055 0.031767484
0000f0 d8 d9 68 3c 4f 28 fb 3c d7 df 63 3d 73 57 42 bd
       0.014212094 0.03065887 0.055633392 -0.04744668
000100 6e 52 03 be 13 55 34 bd 54 2b 16 bd 5b e8 c3 bd
       -0.12824413 -0.044026446 -0.036662415 -0.09565803
000110 dd 0b 75 3c e7 4e 82 3d f6 2a a3 3d aa 3f 33 bd
       0.014956442 0.06362706 0.079671785 -0.043761887
000120 91 64 98 bd f7 f2 c4 bd 83 4b 90 3d aa 93 12 3c
       -0.074410565 -0.09616654 0.07045653 0.008946339
000130 af 41 10 3c c3 22 b6 bc ef 36 c8 bb 1b 4c 2d bd
       0.008804723 -0.022233373 -0.006110064 -0.042308908
000140 34 45 40 bc b3 57 02 bd 0b a4 ed bc 3d 2a 91 bd
       -0.011735249 -0.031821918 -0.029008886 -0.070881344
000150 49 10 b7 bc ed d3 ae bd 92 74 5f bc be 01 9e bc
       -0.022346633 -0.085365154 -0.013638632 -0.01928794
000160 a6 dd 6e bd 4d 5e 9d bd 42 53 30 bd a6 ca f3 bc
       -0.05831685 -0.07684002 -0.04304815 -0.029759716
000170 e0 f8 39 bc 1f 83 3c 3d 73 9b d9 bc e5 7e e3 3d
       -0.01135084 0.046023484 -0.026563382 0.111081876
000180 21 07 1a 3d dc bb 90 3c 85 69 07 3e b4 13 60 bb
       0.037604455 0.017667703 0.13223846 -0.0034191431
000190 38 8c b0 3c 45 27 21 3c 36 92 0c 3d c5 dc 29 3d
       0.021551237 0.009836023 0.034319125 0.041470308
0001a0 5b e7 ba 3c 22 c6 28 bc 38 43 f1 3d 08 96 03 3e
       0.022815397 -0.010301145 0.11780399 0.12850201
0001b0 f2 de 05 bd 89 fa f1 bc db 15 df 3c ef d3 d7 bd
       -0.03268332 -0.02953841 0.027232101 -0.1053847
0001c0 12 6f 43 3d 1e 0b ba 3d af 05 a3 3c 50 f1 07 3d
       0.047713347 0.09084152 0.019900171 0.033189118
0001d0 1b d0 b9 3d 13 a0 40 bd 42 a1 77 3d 55 60 ee bb
       0.09072896 -0.04702766 0.06045652 -0.0072746673
0001e0 98 ec af bc 52 6b 14 3e 89 68 1a bc 95 61 ab bc
       -0.021475121 0.14494064 -0.009424337 -0.020920554
0001f0 80 72 91 3d 6e 9b 50 3d c7 30 87 bd c7 13 92 3d
       0.07101917 0.05092948 -0.066011004 0.071326785
000200 6d 04 c1 3d 41 84 91 bd 20 a1 1a 3d be 3a 0c bd
       0.09424672 -0.071053036 0.037751317 -0.03423571
000210 07 f2 23 3c 27 e1 db 3c f5 1b 21 bd 12 9e a7 3d
       0.010006434 0.02684076 -0.039333303 0.081844464
000220 41 5d 19 bd 77 a0 ff 3d cc b4 c3 bb b9 ab 66 3d
       -0.03744245 0.12481778 -0.0059724804 0.05631611
000230 1f a3 b0 3d 5c f4 b6 bd 80 3c 47 3d 39 6d 28 3c
       0.08624863 -0.089333266 0.04864168 0.010279947
000240 1d 33 d4 3c a9 f3 1e 3d 3f b3 74 3d fe e0 45 3d
       0.025903279 0.03880659 0.059741255 0.048310272
000250 1e 39 8d 3d bf 90 0f 3e fc d3 9b 3c 15 2f d3 3b
       0.0689566 0.1402006 0.01902198 0.0064448216
000260 39 3b 70 3d 91 d9 99 3d c5 11 03 3e 69 be 53 3d
       0.05865023 0.075122006 0.12799747 0.05169526
000270 53 4b bc 3c 6f 9f d5 bb de 4c ef 3d d9 15 2c bd
       0.022985136 -0.00651925 0.11684583 -0.042013023
000280 69 cb bb bd f4 dd 40 bd f0 d6 54 bd 47 8a 0e 3e
       -0.09169657 -0.04708667 -0.051962793 0.13919936
000290 c2 9d 67 bd b4 db e4 bd 6f 96 ab bc b0 f0 01 3e
       -0.056546934 -0.111747175 -0.020945756 0.12689471
0002a0 82 2d 09 3d a4 72 ac 3c ca 57 7b bd 0c f7 c7 3c
       0.033490665 0.021050759 -0.06136302 0.024409793
0002b0 af f1 97 3d 73 57 1f bd e3 a3 4d bd cb 20 b0 bd
       0.07419144 -0.038901757 -0.050205123 -0.08600005
0002c0 45 80 a9 bc 6d 99 70 bc c1 3f 8d bd cd 6f f6 3b
       -0.020691046 -0.014685017 -0.06896926 0.007520652
0002d0 65 f0 aa bc 84 df 9c bd c2 37 37 bd 1e 7e fb bb
       -0.020866582 -0.0765982 -0.04473091 -0.0076749464
0002e0 71 2a 0c bd c3 88 1d 3c c8 f9 e7 3c e1 c3 bc bc
       -0.034220163 0.009615126 0.028317347 -0.023042621
0002f0 6e c8 07 be e4 71 0f 3c 8c 70 67 bd 04 5c c6 bc
       -0.13260052 0.008755181 -0.056503817 -0.024213798
000300 20 9d c1 3d 10 ef 60 3d 4a 4a 70 3d 8d 6a 59 3d
       0.09453797 0.054915488 0.058664598 0.05308013
000310 f6 60 14 3d f2 d8 e0 3d e1 15 a4 3c 31 ff 46 bd
       0.03622528 0.10978879 0.020029964 -0.048583213
000320 03 95 58 bd 80 80 76 3d 96 3b 84 3d 21 9e 98 3c
       -0.052876484 0.06018114 0.064566776 0.01863009
000330 4f a7 25 3a d0 e1 18 3d 0b a1 ae 3c 4e 0c 7f bb
       0.00063191814 0.037324727 0.021317026 -0.0038917246
000340 74 0d 99 3c 17 6d 01 be a3 c3 bb 3d 57 98 5a bd
       0.018683173 -0.1263927 0.09168174 -0.05336794
000350 15 81 6e 3d 92 d6 c3 3c e5 24 17 3e 33 f5 4b bd
       0.05822857 0.023906026 0.14760168 -0.049794387
000360 a6 e2 84 bd a4 04 b1 3a 54 78 55 3d f6 5d 4e bd
       -0.06488542 0.0013505411 0.052116707 -0.050382577
000370 91 aa fe 3d 01 42 2f bd d1 67 65 bd 25 86 eb 3c
       0.12434877 -0.042787556 -0.05600721 0.028750489
000380 44 4a 61 bd a1 04 8c 3d ea 0c 9a bd 5b 6d 1b bd
       -0.055002466 0.068368204 -0.075219944 -0.037946086
000390 7a f5 9c bc b9 2d 7c 3c 16 bf de bc d3 ec b8 3c
       -0.019160021 0.0153917605 -0.027190726 0.022573864
0003a0 ab 7a fe bb 56 f5 43 3d 95 ce 39 bc ca 71 a7 3d
       -0.007766088 0.047841392 -0.011340757 0.081760004
0003b0 f9 27 3a 3c fd a2 f5 3d 5a a0 7d bd dc 9f 37 3d
       0.011362069 0.11993978 -0.0619205 0.04483019
0003c0 6a 89 2a bd ee 5d c0 3d 8b f3 dd bc 80 75 56 bd
       -0.041634955 0.09392916 -0.02709367 -0.05235815
0003d0 ab cf bf bc 17 f1 69 3c c8 f9 12 3c 87 45 c1 3d
       -0.023414453 0.014278672 0.008970685 0.094370894
0003e0 47 9f 3a 3d ab 2e 2c bd 67 30 9b 3d 56 00 03 3e
       0.045562055 -0.042036694 0.075775914 0.12793097
0003f0 22 fe bb bd 79 b7 34 3c 22 87 34 3d 67 5c e0 bc
       -0.09179331 0.011030071 0.044074185 -0.02738781

down_convs.2.conv2.bias f4 [12]
000000 4b 3f 2b b7 5f dd 10 b7 5b e4 e7 35 95 4c 82 37
       -1.0207131e-05 -8.634611e-06 1.7277301e-06 1.5532869e-05
000010 11 4b 9a 35 12 c6 1c 33 22 a0 8f b6 71 24 56 34
       1.1495741e-06 3.6501724e-08 -4.280374e-06 1.994356e-07
000020 c0 54 d6 b6 7d 1a 45 b6 df 0e a7 35 dd fd 95 b5
       -6.387563e-06 -2.9370706e-06 1.2446798e-06 -1.1175249e-06

down_convs.2.norm0.weight f4 [12]
000000 20 8a 7b 3f 8a 05 82 3f 05 4a 80 3f 95 4e 80 3f
       0.9825764 1.015794 1.0022589 1.0023981
000010 87 fc 7f 3f 17 01 82 3f d6 85 80 3f cc c9 82 3f
       0.999947 1.0156583 1.0040843 1.0217834
000020 c3 90 81 3f 33 03 80 3f bf 82 82 3f 96 c9 84 3f
       1.0122303 1.0000976 1.019615 1.0374019

down_convs.2.norm0.bias f4 [12]
000000 e6 ad d8 3b 74 df 00 3d f5 9f 36 3c 1a b6 e7 bc
       0.006612527 0.0314631 0.011146535 -0.028285075
000010 c1 f8 b3 bd d5 1d 7c 3c 21 55 d2 bc 68 18 27 bd
       -0.087876804 0.015387972 -0.025675358 -0.04079476
000020 c1 52 74 bc 1e fd d3 bd 35 24 f0 3c 71 fb f5 3c
       -0.014912308 -0.10351013 0.02931414 0.030027123

down_convs.2.norm0.running_mean f4 [12]
000000 eb ec 74 3e 5f a6 4e bf b0 65 12 bd 70 cb 9a 3e
       0.23918502 -0.8072261 -0.035741508 0.30233335
000010 c0 bf 43 3e c7 b7 fa bd cd 8e ec 3e 4e 75 19 3f
       0.19116116 -0.12242084 0.46202698 0.5994462
000020 59 42 c8 3e 35 d8 2c 3f 7a 85 ab be 1a 30 f4 be
       0.3911312 0.67517406 -0.33500272 -0.4769295

down_convs.2.norm0.running_var f4 [12]
000000 94 6c 67 3f aa 3c d5 3e 24 43 23 3e 36 54 12 3f
       0.9040005 0.41647846 0.15943581 0.57159746
000010 d9 6c fe 3e 79 03 7f 3f 87 58 93 3e 02 90 75 3f
       0.4969242 0.99614674 0.28778479 0.95922863
000020 18 0c e7 3e 01 1e c1 3f 8b 73 ef 3e c9 a1 29 3f
       0.45126414 1.5087281 0.4676784 0.6626249

down_convs.2.norm1.weight f4 [12]
000000 27 b6 84 3f 0d 26 82 3f 4f 71 7a 3f ea 25 87 3f
       1.0368088 1.0167862 0.97829145 1.0558445
000010 f8 1b 7c 3f dc 37 7d 3f d0 58 81 3f 3a 2a 76 3f
       0.98480177 0.9891336 1.0105228 0.9615818
000020 c9 99 84 3f 18 79 87 3f 48 b5 82 3f 99 63 7a 3f
       1.0359432 1.058383 1.0211573 0.97808224

down_convs.2.norm1.bias f4 [12]
000000 39 5b a3 bd 11 96 03 3d 12 98 78 bb c2 21 e0 3b
       -0.07976384 0.032125536 -0.0037932438 0.0068399617
000010 92 79 a6 bc 22 b3 f5 bc 52 b4 ad 3c 00 f8 03 bd
       -0.020321641 -0.029992644 0.021204147 -0.032218933
000020 41 c4 1b 3d 5e ef a6 bc 28 6a 64 bc e0 f1 30 bd
       0.03802896 -0.020377811 -0.013941325 -0.04319942

down_convs.2.norm1.running_mean f4 [12]
000000 3e b6 af 3e 88 75 91 be b3 78 01 3f 29 ff 88 3e
       0.34318727 -0.28409982 0.505748 0.26757172
000010 6f 86 ae bd b3 b1 c4 3e 8d 64 65 be 6f 42 ec be
       -0.08521735 0.38416824 -0.22401638 -0.46144435
000020 5d ef 90 bc 94 24 8a be 28 8b 01 3e 27 0f c5 3e
       -0.017692262 -0.26981032 0.1265074 0.38488123

down_convs.2.norm1.running_var f4 [12]
000000 27 5a d4 3f 01 da da 3f f0 e3 9d 40 1a 0e 6f 3f
       1.6590012 1.709778 4.9340744 0.9338089
000010 76 db 9e 40 65 ba 8e 40 9f a2 cc 3f 9a 58 02 41
       4.9642897 4.4602532 1.5987128 8.146631
000020 d6 26 e4 3f 1b a8 c8 3f 8a 8a 81 40 ef 3e 2f 40
       1.7824352 1.5676302 4.0481615 2.7382162

down_convs.3.conv1.weight f4 [24, 12, 3, 3, 3]
000000 15 5b 07 bc c4 e6 c6 bd 4c 85 fa bc 36 9d 28 3c
       -0.008261462 -0.09711984 -0.030581139 0.010291388
000010 f3 f2 a5 bb 02 2a ca 3d 7f ae 08 bd f6 5c ab 3b
       -0.005064362 0.098712936 -0.033369537 0.0052295877
000020 6f 75 83 3c 70 05 b6 3d 2f 2c d3 3c 12 0e c7 3c
       0.016047208 0.08887756 0.025777904 0.024298701
000030 53 51 2d bd 34 da 5a bd df fd 95 bd 2e c4 ce 3c
       -0.042313885 -0.05343075 -0.07323813 0.02524003
000040 af ce 24 3d 83 6f 61 bd 2b 63 28 3d 12 e8 1c bd
       0.04023617 -0.055037986 0.0411102 -0.038307257
000050 59 86 8c bd 62 df 48 3b e9 cb 40 bd 44 49 bb 3d
       -0.06861562 0.0030650725 -0.047069464 0.09144834
000060 1f 3e 17 3e d3 25 ae 3c f8 c1 02 3d 4f e7 24 bc
       0.14769791 0.02125827 0.031923264 -0.010064914
000070 10 a2 61 3d 7d fa b6 bc 17 0a f1 3c a9 3f ae 3c
       0.055086195 -0.022336239 0.029423757 0.02127059
000080 cd 2a 84 3c 4e a2 66 bd 76 de 4b 3d 84 2f 7b 3d
       0.01613369 -0.05630713 0.049772702 0.06132461
000090 84 01 b9 bc 38 b4 9b bd e3 b8 11 be b9 45 5f 3c
       -0.02258373 -0.076027334 -0.14230685 0.013627463
0000a0 4c b9 1f 3d 21 ec 6c bd d1 e9 d6 bb 96 f1 11 be
       0.038995072 -0.057842378 -0.006558635 -0.14252314
0000b0 68 bc 94 bd 53 d6 23 3c e3 d3 7d bc 6d 86 e9 bc
       -0.07262498 0.009999829 -0.015492412 -0.028506482
0000c0 12 0b 68 3d 85 f0 42 bd 45 08 c9 3d 23 9f 0a bd
       0.056651182 -0.04759266 0.098160304 -0.03384317
0000d0 c0 14 5a 3a 7d 2f 7f bc 14 94 9a 3a 35 6a 7c 3c
       0.0008319132 -0.015575287 0.0011793398 0.015406181
0000e0 b0 c2 5d bd 97 e6 0b 3d 74 5f 1e bd 76 cf 08 3d
       -0.054140747 0.034155454 -0.03866525 0.033400975
0000f0 ca 89 4c bd d0 38 47 3b 83 6f 4d 3d 7f b0 a0 bb
       -0.049936093 0.0030398853 0.050155174 -0.0049038525
000100 82 f0 74 3b c7 6c 47 3c 9c 11 ae 3c 1f c2 66 bb
       0.00373748 0.012171931 0.021248631 -0.003521092
000110 e5 0e 1b bd ad 56 9e bd aa bd a4 bc 6c 5f 9b 3c
       -0.037856 -0.07731376 -0.02010997 0.0189664
000120 b0 c8 a6 bc e3 e6 b1 bc 60 f5 0c bd e8 50 0f bd
       -0.020359367 -0.02171654 -0.034413695 -0.034989268
000130 31 6b 67 bc b3 31 2c 3d 7f 2d 96 bc f4 03 8e bd
       -0.0141246775 0.042039584 -0.018332241 -0.06934348
000140 7e eb 3b 3d 99 ed 98 3c ac 90 32 bd 8e 08 0c bd
       0.04587888 0.018667983 -0.043595 -0.034187846
000150 13 91 01 bd 29 04 ea bc 5d 46 03 bd ca d3 7c 3d
       -0.031632494 -0.028566437 -0.032049526 0.061725415
000160 8b 02 ef 3c 43 50 45 3d 9e 2a 9d 3d 72 e1 91 bd
       0.029176017 0.048172247 0.07674144 -0.071230784
000170 ee 01 2c bd 4c ff fc bc 3f cb 57 bd 3d 32 1a bd
       -0.041994028 -0.030883454 -0.052684065 -0.037645567
000180 5e 4c 04 bd 48 c6 8b bc 94 38 5e 3d 4c f2 39 3d
       -0.032299392 -0.017062321 0.054253176 0.045397088
000190 46 c9 f7 bd 10 82 28 3d 62 da 4c bd f3 09 53 3d
       -0.12098937 0.041139662 -0.050012954 0.05152316
0001a0 44 21 68 bd 06 2a 61 bc 49 25 16 bd a4 57 29 bd
       -0.05667235 -0.013742929 -0.03665665 -0.041343346
0001b0 01 a4 16 3d 02 37 b5 3d 05 a1 c8 3c 87 1d a6 bc
       0.0367775 0.088483825 0.024490843 -0.020277752
0001c0 a6 9d 17 3d 29 e6 4c 3d 07 df 73 bc 37 c5 5a ba
       0.03701558 0.050024185 -0.014884717 -0.00083454273
0001d0 4a 9b 83 3d ec 38 e7 3d d8 33 8f 3d 21 3e 47 bc
       0.064261034 0.11290154 0.0699231 -0.012160809
0001e0 cb 4f 80 3d 21 90 a3 3c e8 60 9b bc 92 fd 0f 3d
       0.06265219 0.019966187 -0.018967107 0.035153933
0001f0 e9 18 b0 3d e9 9e d1 3d 7d aa 6a 3d 8b 8e d0 3d
       0.08598501 0.10235388 0.057291497 0.10183438
000200 b4 7b ca 3d a7 51 2c 3d 2f 4d b6 3c 83 fe 00 bd
       0.09886876 0.042070057 0.0222536 -0.03149272
000210 4b 4f af bb e4 fc 51 bd 9e 12 66 bd 75 ab a2 bc
       -0.0053500286 -0.051266566 -0.0561701 -0.019857148
000220 38 f1 b5 3d 86 8e f3 3c 83 bd 58 bd 97 80 41 bd
       0.088838995 0.029731046 -0.052915107 -0.047241773
000230 a8 eb ee bc 46 6d ba 3b 0c 27 2c bd c9 f9 7b 3c
       -0.029165104 0.005689296 -0.042029426 0.015379378
000240 bf 9b 97 3c 87 4e ee bc 42 8e 97 bd e1 92 85 bd
       0.018506883 -0.02909018 -0.074001804 -0.065221556
000250 d3 5e a4 bd 50 df d5 3b 17 b8 27 3b 7c 54 9f bd
       -0.08025899 0.006526865 0.0025591904 -0.07779786
000260 78 03 10 be 10 9e c9 3c da 65 74 bd de 7a d2 3b
       -0.14063823 0.024611503 -0.059667446 0.0064233383
000270 ae b9 01 bd 1c 12 94 bc 64 d4 b4 bc f7 43 16 bd
       -0.03167122 -0.018075041 -0.022073932 -0.03668591
000280 90 b9 3c 3d 19 da 90 3c 37 45 ca bd 9e 0d 1e bd
       0.046075404 0.017682122 -0.09876483 -0.038587205
000290 13 c3 02 3d 82 b8 b4 bb c8 65 85 3c 4f 55 53 bd
       0.03192432 -0.005515159 0.016283885 -0.05159503
0002a0 33 2b c1 bc 17 b0 95 bd 6f 19 65 3d 2c 88 92 3d
       -0.02358017 -0.07308977 0.05593246 0.07154879
0002b0 7d 36 f0 3b b9 1e 6b 3d c7 10 71 bd 74 1f ba b9
       0.0073307143 0.057402346 -0.05885389 -0.0003550012
0002c0 e2 7d 6a bd de 60 e7 3c 00 69 b8 bd e6 03 83 bd
       -0.057248957 0.028244432 -0.09004402 -0.06397228
0002d0 bd 3a 6f 3d 64 a9 4e bd c3 ef 54 bc cb 7e 39 3d
       0.058405627 -0.050454512 -0.012996617 0.045286935
0002e0 81 8d bd bd 5f 80 51 3d c4 12 58 bd d4 5e 2e bd
       -0.09255505 0.051147815 -0.05275227 -0.042570904
0002f0 2d 66 b3 bc 00 e6 ce 3c ca 7e 39 bd 13 9d 67 3d
       -0.021899307 0.025256157 -0.04528693 0.056546282
000300 f8 2b 63 3b c3 4b 6a 3d 9a 33 1a bd 92 0a 2f bd
       0.0034663659 0.05720116 -0.037646867 -0.04273469
000310 5d 61 f6 bc 13 81 3c bc 4b 55 08 3d 3d b0 fb 3d
       -0.030075723 -0.011505383 0.033284467 0.12289474
000320 f6 0e cc 3d d7 29 fb bc 7c 35 69 3d 83 8c ab 3d
       0.09963791 -0.0306596 0.056935772 0.0837641
000330 f0 4d 48 3c 87 15 b9 3d e4 56 d7 3c 00 d0 11 3d
       0.012225613 0.09037309 0.02628655 0.035598755
000340 50 77 b7 3b 0d 51 ff 3c e5 89 06 be 24 a0 20 3d
       0.00559894 0.031166578 -0.1313854 0.039215222
000350 51 cf a3 3a b7 b9 1f 3d d7 80 f7 3b 08 f4 c2 38
       0.0012497698 0.03899547 0.0075532007 9.296095e-05
000360 78 46 92 3d 2c 8b 22 bc 1f 5f ba 3d 99 c6 ae bc
       0.07142347 -0.0099208765 0.09100174 -0.021334933
000370 90 5e 18 bc d5 33 91 bb 3d b4 6b bd 3d aa 31 3c
       -0.009299889 -0.0044312277 -0.057544935 0.010843811
000380 cb 47 7c 3d 7d 0b 31 bd 4f 31 9e 3d c0 3f 34 3d
       0.061591905 -0.043223847 0.077242486 0.04400611
000390 b2 aa b4 ba d1 3c 31 bd c0 02 4c bd 68 23 c4 bc
       -0.0013783781 -0.04327089 -0.04980731 -0.023942664
0003a0 eb 7f 73 bb 15 f6 3d 3d 68 2f 8f 3c f5 c6 83 3d
       -0.0037155102 0.04637726 0.01747866 0.064344324
0003b0 4b e1 66 bd 1c 5b 83 3d 87 5c ba 3b 4a 66 3c ba
       -0.0563672 0.06413862 0.0056872997 -0.0007186873
0003c0 d1 14 74 3d 83 dc 80 3d 8e 90 12 3d ca 88 11 bc
       0.059590165 0.06292059 0.03578239 -0.008882711
0003d0 32 06 97 3c 0e 8e 45 3d b8 d1 36 bc 0c a8 aa 3c
       0.018435571 0.048231177 -0.011158399 0.020832084
0003e0 70 8e a0 3c 69 44 78 bd a6 10 97 3d c3 86 ea bc
       0.01959917 -0.060612116 0.07376222 -0.028628713
0003f0 85 51 b5 bd 8d 05 51 bd fb b4 7a 3c 0b 8c 10 bd
       -0.08853439 -0.051030684 0.015301938 -0.035289805
