outputs/outputs_new_full_mask/epoch_90_model.pth (torch, 694854 bytes, 241 tensors)

down_convs.0.conv1.weight f4 [3, 1, 3, 3, 3]
00000000: ed18 d7be f08a f5bd 7626 33be 7265 a1be
00000010: 56bd 89be a95c 5fbc 4ddd 08be ef3d bbbc
00000020: c5fc 2abe a872 19be 2c6d 83bd 4418 a3bc
00000030: fac5 9bbe 9a89 abbe 7a30 89bd 8563 47be
00000040: d5c5 1bbe 7137 88bc 9a83 b0bc beee 63be
00000050: a378 eabd f95a adbe fc39 bcbd 1316 443e
00000060: 03ba 173e db46 8ebe 1150 66be f704 b6bf
00000070: c3fb 01bf 3122 973e 63ef b9bf 87f3 1ebf
00000080: 6d5d 433f 304a dfbe 5752 73bb c303 343f
00000090: 91c6 4abe eebd 2a3f fdc7 973f b261 4d3e
000000a0: b784 df3f 7b8c a640 e4b1 303e 1d4a d83e
000000b0: deb8 5c3f 01df 72be 9854 343f 1236 4f3f
000000c0: c11e 47bf 1e8f cd3d aeb4 ae3f 10ff d8bd
000000d0: a44d 103e 98c8 5e3e e0fc 2abf e6cd 9f3f
000000e0: 3477 e93f 1b77 6abe 12db 9d3f 27f6 6240
000000f0: 0323 fdbe 9d04 9e3e 1113 4f3f 148a 8bbe
00000100: 6a78 4f3e 26e7 093f 8a28 a13d 89be da3e
00000110: 84cd c03f 3b02 4e3f cd00 363f 43cf cc3f
00000120: ca2a 5bbf ad65 b7bd 55a1 83bf 111b 6bbf
00000130: 1571 d0bd 1225 64bf 9083 9dbd 07bf 053f
00000140: 67f2 42bf
-0.42011204 -0.11989391 -0.1749514 -0.3152271 -0.26902264 -0.013632932 -0.1336567 -0.02285668
-0.16697986 -0.14985144 -0.06417307 -0.019909032 -0.30424482 -0.3350342 -0.06698699 -0.19471557
-0.15212186 -0.016627999 -0.021547128 -0.22259042 -0.11448791 -0.3385847 -0.09190747 0.19149046
0.14817052 -0.27788433 -0.2249148 -1.4220265 -0.5077478 0.29518273 -1.452618 -0.62090343
0.7631443 -0.43611288 -0.0037127936 0.7031824 -0.1980231 0.6669606 1.1857907 0.20056799
1.7462376 5.2046485 0.1725536 0.42244044 0.86219585 -0.23717882 0.7044158 0.8094188
-0.777813 0.10037063 1.3648889 -0.10595524 0.14092118 0.21756208 -0.66792107 1.248471
1.8239503 -0.22896998 1.233248 3.546274 -0.49440774 0.30862895 0.8088847 -0.27253783
0.20260778 0.5386833 0.0786906 0.42723492 1.5062718 0.80472153 0.7109497 1.6000751
-0.85612166 -0.0895494 -1.028361 -0.91838175 -0.10177819 -0.89119065 -0.07691109 0.5224461
-0.76151127

down_convs.0.conv1.bias f4 [3]
00000000: 2b2f f939 0aaf 973f eeb3 54bf
0.00047528124 1.1850293 -0.8308705

down_convs.0.conv2.weight f4 [3, 3, 3, 3, 3]
00000000: 2a93 c2bc 3ba7 213d b407 ecbd 9c18 4c3e
00000010: c3c4 4dbd fb8e f5bd 79e8 f3bd 6e3c e4bd
00000020: 0436 613d 393d cf3e 61eb 98bd 3776 7dbc
00000030: 1d74 f83d 3f0b 00be 6b01 af3d 53c0 2e3e
00000040: ac85 3c3d 45c5 55be 6ee1 993d 5977 753e
00000050: d961 3a3d 5bc8 e5bc 7cb7 973d b13c ccbd
00000060: a38c 16be 37e1 28be 419c 153d 6023 30bf
00000070: 5234 19bf 9616 9ebf 7332 8a3f 92dd bcbe
00000080: 6d68 a3bf a340 de3f 2b56 7b3f c1ec 9bbe
00000090: 5ada 8b3d ab47 27bf 9d65 d3bf b98e 933f
000000a0: 4fab 70bf 0aec e4bf 5dce 873f b0e4 1ebe
000000b0: 801c f0bf b5b9 5bbf 2a92 13bf e43d 9d3e
000000c0: e137 c83e 762f 95bf 59d0 c03e 9af0 203f
000000d0: ad1a 18bf 68a0 7fbf bd3d 59be ca74 b9be
000000e0: b74c 473e 341b 9b3f fe32 ac3e 0634 bd3e
000000f0: 4689 8a3f d40f 8a3f dee9 643e 5085 74bd
00000100: 3256 64bf d27a 32c0 f7e8 363f 318a 90bf
00000110: 379c 29c0 9806 aa3f 479e 583f 6154 8ebf
00000120: 068d 053f 2083 3abf ca1a 8fbf 3fdf 953f
00000130: 37c5 6cbf 9bc4 c0bf ca1f 1d3f bcc3 eebe
00000140: 3867 eebf 51da 01be 3e1f 69be 82dd 9bbd
00000150: 03cb c43d 84f6 abbd fe03 15be 30a1 a7bc
00000160: d04f 5ebe 87be 0c3e 3a12 83be 6087 7ebd
00000170: 21c7 a3bd b842 f03d d6d2 6ebc bffe 86bd
00000180: 61ad b6be b8bd b2bc 4124 a3bd a1cc 813c
00000190: e5bd 413d 7dbe a1ba 3ae1 163c cc70 01be
000001a0: 892d 88bd e6fd 46bd d898 22be 613e 8c3d
000001b0: 0652 113f 4000 d1bf 270b cabe 2854 9d3f
000001c0: 3f11 003f 3934 2b3d 56c1 303d 2fa3 c73e
000001d0: fdc9 9fbd 0618 07be 37b9 e7bf 5eac e63f
000001e0: 1f70 05be 73ac 1dbf bc34 8e3f 05dc 2fc0
000001f0: cc23 f0bf 1564 e33e da15 1ebf 4de8 4cbf
00000200: 8b7b 61bf 8f67 9f3e 2f8c 5c3f e69d 533e
00000210: 24c5 24bd 8d48 be3f 01cb 073f 4c97 343f
00000220: c0b9 413f 70fb 41bf 3bde a23f 8bba ad3f
00000230: 6ed4 47bf a9f0 f23e 4d5b 9f3f 7779 1cbd
00000240: ba6f dabf 8dd4 3ec0 97e3 553f 7369 d4bf
00000250: 26ce 04c0 b637 7f3f a375 1ec0 b901 49c0
00000260: e940 7d3f 071c 9c3f d3af d1bf 3974 a93f
00000270: e0da da3f 70ab 1dbf 54fa b73f 1a74 e2be
00000280: d9fe 07c0 b1ba 8e3e 7143 f43d d19a 323d
00000290: 198a 89bd 9e56 d93c 7607 15be da97 77bd
000002a0: 0855 203d c55c 51be f401 e3bd feb5 3c3e
000002b0: 0dac 66bd 3ff0 f0bc 91dc f0bd ad40 40bc
000002c0: 5ead 0ebe 77f2 90be 462c 7d3d 9f27 17be
000002d0: c8eb 9a3d 1fa7 3ebe cf3b e0bd 04a0 7dbc
000002e0: 998f 703d c352 fdbb 41d7 a8bd 404f fe3d
000002f0: 3aaa 5dbd 4fd0 7a3f 5b39 1240 8a84 ac3f
00000300: 5c09 e93e 0693 8940 37fd 2b3f e6ca 033f
00000310: 4d3b 963f 2201 ab3e 4ef8 8a3e 22bf 8b3f
00000320: 4fe9 173f 84d8 35be 8786 973f ddc3 27bf
00000330: 24c1 a63e f16d 6a3f c162 d8be 45ee 02bf
00000340: c4e4 83be 712f 4abf f448 84bf 2a58 02bf
00000350: 2df3 e9bf 49f2 3bbe ca92 5f3e 8375 50bf
00000360: 6fbf 00bf 1a82 2f3e ec30 96be a5f8 b8bf
00000370: 4e2b 14bf 12bc a0bf e1c1 b7be cc03 543e
00000380: 1e40 9ebe 8992 7d3e 48b4 c53f b658 6a3f
00000390: f415 47be eabc 2040 a2f3 8ebc 6e09 ca3e
000003a0: e84a 743f b3da 403e 21cb 863e 301c f93f
000003b0: a1f7 533f f7f6 9c3d ac22 0840 d6fd 31be
000003c0: 7d73 133f 6041 b33f 2218 ef3e
-0.023751814 0.039466124 -0.11524907 0.19931263 -0.050236475 -0.11990162 -0.11909575 -0.111443385
0.054983154 0.40476397 -0.0746677 -0.015470079 0.12131522 -0.1250429 0.08545192 0.17065553
0.046025917 -0.20876034 0.075137004 0.23971309 0.04550347 -0.028049638 0.07408044 -0.099725135
-0.14702086 -0.16492163 0.03652597 -0.6880398 -0.5984546 -1.2350643 1.0796646 -0.36887795
-1.2766243 1.7363476 0.98178357 -0.30454066 0.06828757 -0.6534373 -1.6515385 1.152793
-0.94011396 -1.7884533 1.0609852 -0.15516925 -1.8758698 -0.8583024 -0.57644904 0.3071128
0.39105132 -1.1655109 0.37658957 0.6286713 -0.59415704 -0.99854136 -0.21214958 -0.36221915
0.19462858 1.2117677 0.33632654 0.36953753 1.0823143 1.078608 0.22354838 -0.05969745
-0.89194024 -2.7887464 0.71449226 -1.1292173 -2.6501596 1.3283262 0.8461651 -1.11195
0.5216831 -0.7285633 -1.118005 1.1708754 -0.92488426 -1.5059999 0.6137663 -0.46633708
-1.862525 -0.12680937 -0.22765824 -0.07610609 0.09609034 -0.083966285 -0.14552304 -0.020462602
-0.21710134 0.13744555 -0.25599843 -0.062140822 -0.07996965 0.117314756 -0.014576634 -0.06591558
-0.35679153 -0.02181898 -0.07965899 0.015844645 0.04730024 -0.0012340095 0.009208972 -0.12640685
-0.0664931 -0.04858198 -0.15878618 0.06847835 0.5676578 -1.6328201 -0.39461634 1.2291307
0.50026315 0.04179785 0.04315313 0.38991687 -0.07802198 -0.13192758 -1.8103398 1.8021352
-0.13031052 -0.6159126 1.1109843 -2.747804 -1.8760924 0.44412294 -0.6175209 -0.8004196
-0.88079137 0.31133696 0.86151403 0.20665702 -0.04022707 1.4865891 0.53044134 0.7054336
0.75674057 -0.7577429 1.2724069 1.3572553 -0.78058517 0.47449234 1.2449738 -0.038201775
-1.7065346 -2.981723 0.835504 -1.659468 -2.0750823 0.99694383 -2.47593 -3.1407301
0.9892717 1.2196053 -1.6381782 1.3238593 1.7098045 -0.6158972 1.4373269 -0.44229203
-2.1249297 0.2787681 0.11926926 0.043604676 -0.06715793 0.02653056 -0.14553627 -0.06044755
0.039143592 -0.20445545 -0.11084357 0.184288 -0.056316424 -0.029411433 -0.1176082 -0.01173417
-0.13933322 -0.28309986 0.0618098 -0.14761208 0.07564503 -0.18618439 -0.109489076 -0.015480045
0.058730695 -0.007730813 -0.082441814 0.124174595 -0.05411742 0.97974104 2.2847507 1.3477948
0.45514953 4.299197 0.6718325 0.51481473 1.1736847 0.33399302 0.27142566 1.0917704
0.59340376 -0.17758375 1.183793 -0.6553324 0.3256923 0.9157401 -0.42262843 -0.5114482
-0.25760472 -0.7897864 -1.0334764 -0.5091578 -1.8277336 -0.18354143 0.2183334 -0.8142931
-0.50292104 0.17139474 -0.293342 -1.445088 -0.5787858 -1.2557395 -0.35890105 0.20704573
-0.30908293 0.2476293 1.5445642 0.9154161 -0.19441968 2.5115304 -0.017450158 0.3946032
0.954268 0.18833427 0.2632685 1.9461727 0.82799727 0.07664292 2.1271162 -0.17381987
0.57598096 1.4004326 0.466981

down_convs.0.conv2.bias f4 [3]
00000000: f061 ae3f 0d3b 6c3f 2906 f73f
1.3623638 0.92277604 1.9298755

down_convs.0.norm0.weight f4 [3]
00000000: ad5c f53e fef6 3340 5358 3940
0.47922269 2.8119502 2.896016

down_convs.0.norm0.bias f4 [3]
00000000: e134 01bf 2dd6 9abd e84b 583d
-0.5047131 -0.07560382 0.052806765

down_convs.0.norm0.running_mean f4 [3]
00000000: 8936 debc f013 9e3f 6e8e 44bf
-0.027125614 1.2349834 -0.7677983

down_convs.0.norm0.running_var f4 [3]
00000000: 53cc 5a41 e019 ba42 2115 9b42
13.674884 93.05054 77.54127

down_convs.0.norm1.weight f4 [3]
00000000: 9390 e53f caf7 2340 caa0 0840
1.7934746 2.5619988 2.1348138

down_convs.0.norm1.bias f4 [3]
00000000: a7c4 9cbe 48a2 fe3e 56c4 0bbe
-0.30618784 0.49733186 -0.13649115

down_convs.0.norm1.running_mean f4 [3]
00000000: b2d4 43c1 8fb1 dbc0 0454 a141
-12.239428 -6.8654246 20.166023

down_convs.0.norm1.running_var f4 [3]
00000000: f4c6 9e44 e93b af43 4878 fa44
1270.2173 350.46805 2003.7588

down_convs.1.conv1.weight f4 [6, 3, 3, 3, 3]
00000000: 83d3 c4bd 805e e6bd d280 13c0 996f 8bbf
00000010: 4ccd 75bf 7cac f8bf 9c99 9cbf fd3a b8bf
00000020: e518 cbbf b113 373e d7a7 163e 78d3 e8bf
00000030: fc67 ebbe d772 23bf e891 15c0 fb48 05be
00000040: 39e6 ddbe 38d5 afbf 8a0a a4be ecc3 3f3d
00000050: 1aea e6bf c523 333e c9da 9bbe 37f5 bdbf
00000060: e9cf 783f 076e 113f be55 26bf e6b3 11bf
00000070: b8df 85be b8db 07be f163 1bbf db35 cdbe
00000080: 1adc fbbe 2acc 7ebe 2a99 16bf 4de8 2cbf
00000090: 4f78 24be 058e b13e ee8e 183e 216c a5be
000000a0: 30f8 cebc 16a3 f9be 78d2 553e b1bc 093e
000000b0: 270c 16be ff9a f9bb 4ca7 ecbd fb5c 03bf
000000c0: c523 ad3e 8480 593e 0baa 1abd 3425 443f
000000d0: 4b32 003f 1046 113e 1c94 6d3e 921c 2cc0
000000e0: 6486 36c0 6e04 bcbe 01c2 1ec0 e424 98bf
000000f0: f8fc 32bf ca49 62bf 1541 b1bf 303e 3cbf
00000100: 4f49 29c0 374b 10c0 e69e c3bf bbb2 39c0
00000110: 374c dbbf 4ae2 0fbf 0b0b 59bf f924 acbf
00000120: a3e6 32bf 60d1 55be be10 aa3f 6906 40c0
00000130: 761c 1dc0 078d d2be f1d2 94bf 939d a9bf
00000140: 5510 a6bf 3403 61bd cd20 84bb 7977 c6bf
00000150: 49fa 4bbf c11a 33bf 56ce c8bf acaf 75bf
00000160: 6070 b1bf 4d7d b4bf 9f18 a6bc 09d3 ac3e
00000170: 700e 9dbf a310 a8be 1eac 56bf 3bca f4bf
00000180: 393f 79be 8586 f0be f32c 65bf eabf 273d
00000190: 33c6 f33e 9423 a1bf 5e83 2b3e ef6a e33d
000001a0: b0c1 a4bf f09b 8a3f cb57 b53e 6de0 f9bd
000001b0: 46d8 5d3d b7f4 003f 4af1 c93e 0023 2cbe
000001c0: 8ca1 1abe 4c87 5fbe 2953 47be 30e6 6abe
000001d0: 4c63 27be 1a5d b43e a572 f63e 2b5e c23e
000001e0: 6688 203d 044a b23e a2f9 76be 4cff 903e
000001f0: a646 5c3e 0efb 2e3e 477f cb3d 6437 643e
00000200: 640c 2dbe 86a0 533f 52b6 ec3e f01c 103f
00000210: 7a24 493f ea4f 093f 809c 953e 78e9 81bf
00000220: 8853 64c0 ae73 4cc0 32cc b1bf b7ea 0ac0
00000230: 4ed8 54bf 38c8 62bf b7e0 55bf 9dbf 7bbf
00000240: eb6a 76bf a6eb 21c0 1d37 1ec0 4229 01c0
00000250: ed12 0cc0 6a27 9bbf aca8 27bf f0eb 19bf
00000260: d3d1 87bf 687b 3ebe 5fd8 723e af41 823f
00000270: c62b 5ec0 da14 3ac0 9699 60bf 8222 a7bf
00000280: e26a b3bf 8881 a6bf 7074 f1bf 674f c8bf
00000290: 3982 a1bf 76ad a7bf 4cc6 50bf 9523 d7be
000002a0: 03b0 61bf 2530 60bf b4bb 67bf 89df e2be
000002b0: 3e9b a0be a99e f23d 1f98 35bf 9307 d7be
000002c0: ccf0 ef3d 2ba9 49bf 868f 5fbf 62d4 68be
000002d0: eb8d 213f b42d 2f3f dfed 983f b280 bb3e
000002e0: dabc 523f a5a2 893f 5164 04be 9abb 3d3e
000002f0: 1f3b 123f a3b3 a83e 5ace a43e 5a0c 0abf
00000300: f5a7 7c3e 973b 3b3e 0ab0 4cbe ba45 08c0
00000310: 5ebf 98bf 14c5 b4bf 0f76 8a3f db03 8f3f
00000320: 5997 013e 57cd adbd 11f2 e53e 16a5 133c
00000330: a715 26c0 716b 74bf dd27 a9bf d1fc 0b3f
00000340: d878 0c3f 8114 5bbe 46b6 1dbf e2fc 12be
00000350: d8f5 d0be 9100 67c0 83ea f8bf b45a 00c0
00000360: cdef cabf f24c d4bf 2985 e5bf f576 89bf
00000370: 1616 0cbf 1771 4cbf be1d 3f3e a02d a1be
00000380: fc28 a3bf 9723 3cbd 6a53 4ebe 0012 b5bf
00000390: 4e24 973e 4e59 9b3e d211 45bf 0144 943f
000003a0: 1c5f 433e 863b 29bf 3588 853f 0ef3 203e
000003b0: 2ba3 b3bf a5d7 773f af91 553e 6175 7fbf
000003c0: c58e f63f e532 283f c14b b5be 7310 78bf
000003d0: 49e0 7f3f b6c1 f33f 3cea 87bf 6d56 803e
000003e0: 90e8 4d3f 81f5 06be b648 633f 7215 9b3e
000003f0: 2395 53bf e031 8c3e bca7 5b3f 6f15 9ebf
-0.09610655 -0.11248493 -2.3047376 -1.0893432 -0.96016383 -1.9427638 -1.2234378 -1.4393002
-1.5866972 0.17878605 0.14712463 -1.8189535 -0.4597777 -0.63847107 -2.3370304 -0.13016121
-0.43339708 -1.3736944 -0.3203929 0.046817705 -1.8040192 0.17494114 -0.30440357 -1.4840459
0.97192246 0.56808513 -0.6497458 -0.5691513 -0.26147246 -0.1326741 -0.60699373 -0.4008015
-0.49191362 -0.2488257 -0.5882746 -0.6754196 -0.16061519 0.34678665 0.14898273 -0.32309058
-0.02526483 -0.48757237 0.20881069 0.13450886 -0.14653073 -0.007617354 -0.11555347 -0.5131375
0.33816352 0.21240431 -0.03775982 0.7661927 0.5007674 0.14186883 0.2320103 -2.6892438
-2.8519526 -0.3672213 -2.480591 -1.1886258 -0.6991725 -0.88393843 -1.3847986 -0.7353239
-2.6450994 -2.2545907 -1.5282867 -2.9015338 -1.7132634 -0.56204665 -0.84782475 -1.3448783
-0.69883174 -0.20880651 1.3286359 -3.0003912 -2.454862 -0.4112322 -1.1626874 -1.3251213
-1.2973734 -0.054934695 -0.0040322305 -1.550521 -0.7967878 -0.699627 -1.5687969 -0.9597118
-1.3862419 -1.4100739 -0.020275412 0.33754757 -1.2270031 -0.32825193 -0.8385638 -1.9124216
-0.24340524 -0.4697763 -0.8952171 0.040954508 0.47612152 -1.2588983 0.16749331 0.1110438
-1.2871609 1.0828838 0.35418543 -0.12201009 0.054161333 0.50373405 0.394419 -0.16810226
-0.15100688 -0.21828955 -0.19465317 -0.22939372 -0.16346473 0.3522728 0.48134342 0.3796247
0.03919258 0.34822094 -0.24118665 0.28319776 0.21511325 0.17087957 0.099363856 0.22286755
-0.16899258 0.82666814 0.4623285 0.56294155 0.78571284 0.53637564 0.29220963 -1.0149374
-3.5675983 -3.1945605 -1.389044 -2.1705759 -0.83142555 -0.8858676 -0.8354601 -0.98339254
-0.96256894 -2.5300078 -2.4721138 -2.0181432 -2.1886551 -1.2121403 -0.6549175 -0.6012564
-1.0610908 -0.18601763 0.23715352 1.0176295 -3.4714217 -2.9075227 -0.87734354 -1.3057406
-1.4016993 -1.300828 -1.8863659 -1.5649232 -1.2617866 -1.3099811 -0.81552577 -0.42019334
-0.881592 -0.8757346 -0.9052079 -0.4431117 -0.3136844 0.11846668 -0.70935243 -0.41997966
0.1171585 -0.78773755 -0.87328374 -0.22737268 0.63107175 0.6842911 1.1947592 0.36621624
0.82319415 1.075276 -0.12928893 0.18528596 0.5712146 0.32949552 0.32188684 -0.53925097
0.24673446 0.1828445 -0.19989029 -2.1292558 -1.1933401 -1.4122643 1.0817279 1.1173052
0.12655391 -0.08486431 0.44911245 0.0090115275 -2.5950716 -0.9547644 -1.321529 0.5468264
0.5487189 -0.2139454 -0.6160625 -0.1435428 -0.40812564 -3.6094096 -1.9446567 -2.005536
-1.5854431 -1.6585982 -1.7931262 -1.0739428 -0.547212 -0.7986006 0.1866369 -0.31480122
-1.2746882 -0.04593238 -0.20149007 -1.4146118 0.29519886 0.30341572 -0.76980317 1.1583253
0.1907925 -0.6610645 1.0432192 0.15717718 -1.403417 0.9681342 0.20856355 -0.9978848
1.926232 0.6570266 -0.35409358 -0.969001 0.99951607 1.9043491 -1.0618358 0.25065938
0.8043299 -0.1317959 0.88782823 0.302898 -0.8264944 0.27381802 0.8580282 -1.2350291

down_convs.1.conv1.bias f4 [6]
00000000: dfb1 cbbd 8d8c e6bd cda9 f53e 53f0 03bf
00000010: d6e3 863c 68fe 963e
-0.099460356 -0.11257277 0.4798111 -0.5153858 0.016466063 0.29490972

down_convs.1.conv2.weight f4 [6, 6, 3, 3, 3]
00000000: 76cc 38bf 2b25 dabe 5eb9 82bf bf9f 5dbf
00000010: e196 4abf b301 2bbf 1c54 d7bf 9db2 c1bf
00000020: 5987 c2bf b6c1 1abf bb89 89be 6edc 0ebf
00000030: 297c 58bf 868e 1fbf 77ec f4be 1d61 73bf
00000040: 7188 71bf 26a4 87bf 7e2b 30bf 161b 483c
00000050: b6c2 23bf 1b06 18bf 6a66 633e 33ab f9bd
00000060: 7072 99bf 68f9 7dbf 541e 93bf 1161 1dbf
00000070: c615 04bf fa58 4fbf 2aa8 86bf 092a 65bf
00000080: 59bd 20bf 0f88 ccbf f2e3 ebbf 8a0f d3bf
00000090: 7d96 4ebf c4e0 c2be 6971 dcbe b06f a1bf
000000a0: b8a5 43bf d2db 06bf fab1 88bf e1b6 9ebf
000000b0: bd0b a8bf b932 7abf 2eab 0ebe 7fb7 19bf
000000c0: b2e6 85bf c763 83be ff85 09be 4dc6 b8bf
000000d0: 97d1 d1bf 5453 91bf 4a79 0b3d 9940 9c3f
000000e0: 52b9 653f c247 b33e 2b6e a23f f4aa 403f
000000f0: 52df 593e 9445 3a3f bec7 0e3e 3565 da3f
00000100: bbfe 3e40 4712 0c40 8470 dd3f 6bfd 2040
00000110: 1bda fa3f 7e30 493f 812f ab3f 2474 8d3f
00000120: 6760 653f 6f67 0940 73e4 0840 f7ef ae3e
00000130: dacf 903f 8b56 7b3f e47d b43d 1644 9e3e
00000140: 0181 a73e 90b6 b3bf 31c2 b2bf 292f c7bf
00000150: c645 24bf ddaa afbf ccc7 75bf eedd 873e
00000160: bf25 6bbf d5e0 aabd 6774 12bc 7235 813f
00000170: 5aae 11bf ac66 0b3f 7e26 f03e 3fea aebe
00000180: 88de 6f3e 5558 b7be d0a2 e9be 0352 76bf
00000190: 04a0 d33e 52f2 f0be 951e 99be 600f aebe
000001a0: 817e 04bf 0501 48bf dc99 93bf 72bf 86be
000001b0: 3bce 963e d51b ebbc 240c e53e 9cfa a3bf
000001c0: 577c 483a fa91 55bf 1f43 4cbf c8ee 18bf
000001d0: 7cc7 663e e96b 2abd f456 f8be a8a9 823d
000001e0: 4292 7cbf d881 573e 396d 5cbf 633f d5bf
000001f0: f023 b8bf 509c 48bf 350e 703f 1933 4e3d
00000200: f9da 8e3e 015a 723f 0280 a73f 6b77 fdbd
00000210: 3fba 163f a692 85bd cd56 f5bc cc04 0a3e
00000220: 4e5e ddbe 9fbc bebf d145 37bf 4b37 41bf
00000230: f66e c0bf b906 053e caed 70be 7326 eebe
00000240: 424e 653d 79fb c8be c18e 03c0 1838 76bf
00000250: a19f 0ebf 8c85 cfbf 0c24 0bbd e91c 6b3e
00000260: 4d37 90be 0d70 303f 8cd0 b13c 081a e1bf
00000270: 9023 34bf 47c1 b6be b433 acbf 4fd0 12bf
00000280: e503 65be 4a5b 60be 836e d93f 2b68 1640
00000290: e853 2a40 75d3 6a3f dc96 be3f 5d18 0e40
000002a0: 8189 a03f 6422 a83f 4dce de3f 7a24 c43e
000002b0: 9f4d 9a3f 1864 0140 5d49 a73d ecec 6d3f
000002c0: df41 cd3f efb7 9a3f d0fc 9f3f dc5c b73f
000002d0: 1e02 b6bf 5aa1 49bf 2451 ff3c c189 c3bf
000002e0: 6291 d5be fa13 c03e d318 243d 71d1 393f
000002f0: 6767 813f 5104 e93f fb5b 1b40 418f 1c40
00000300: 1e44 903f f6d7 d03f 5722 0a40 c8a5 a43f
00000310: da2b be3f cdaa f03f 666b 313f ebe1 b83f
00000320: aec3 f23f d797 b03e 342f 8e3f 114a d83f
00000330: 789d a63f 6c61 df3f c24f d13f bce0 7abf
00000340: ed1f cdbe 21f4 73bd bc72 a2bf 311f f3be
00000350: 8a08 c03e 0bac 043f c765 803f dd39 833f
00000360: aaa7 af3f e00e 8a3e 387c 5c3e b5cd 0a40
00000370: 2ce4 3a3f bd73 0f3f 13df bf3f fd7f 663e
00000380: 74c0 bb3e f380 383f a84a 47be 81f1 093e
00000390: 3905 743f c207 84be c65f 1abd 5591 093f
000003a0: 2e00 21bf 75b9 8dbd be95 9c3f 8cd3 8d3f
000003b0: ebcb bb3f 8391 dd3f 8382 5d3f 64bb 9b3f
000003c0: 40b6 553f e223 9f3e 9038 253f f2b4 a43f
000003d0: 3012 bc3e 1d74 ae3f c4b1 473f f5ff 013f
000003e0: 6896 eb3f 70f6 bb3e c2a6 02bd c396 8b3f
000003f0: 5d6e a33f 9db0 4b3d 6f3a 9a3f 5bf7 e73e
-0.7218698 -0.42606482 -1.021282 -0.8657188 -0.7913647 -0.6679947 -1.6822543 -1.5132633
-1.5197555 -0.6045183 -0.26862893 -0.558051 -0.84564453 -0.6232685 -0.47836658 -0.9507006
-0.9434882 -1.0596969 -0.68816364 0.012213489 -0.6396898 -0.59384316 0.22207037 -0.12190857
-1.1988049 -0.9920869 -1.149363 -0.61476237 -0.51595724 -0.8099514 -1.052007 -0.89517266
-0.6278892 -1.5979022 -1.8428938 -1.6489117 -0.80698377 -0.38062108 -0.43055275 -1.2612209
-0.7642474 -0.5267917 -1.0679314 -1.239956 -1.3128582 -0.97733647 -0.13932487 -0.6004562
-1.0461028 -0.25662062 -0.13430022 -1.4435517 -1.6392087 -1.1353555 0.034051217 1.2207214
0.897359 0.35015684 1.268987 0.75260854 0.21276596 0.7276242 0.13943383 1.7062136
2.9842975 2.1886156 1.7299962 2.5154674 1.959781 0.7858962 1.3373872 1.1051068
0.89600223 2.146938 2.1389434 0.34167454 1.1313431 0.9817893 0.08813074 0.3091132
0.3271561 -1.4040089 -1.3965513 -1.5561267 -0.64168966 -1.3724018 -0.9600799 0.26536506
-0.9185447 -0.083436646 -0.008938885 1.0094435 -0.56906664 0.5445354 0.46904367 -0.3416309
0.23424733 -0.3580958 -0.4563203 -0.9621889 0.4133302 -0.47059876 -0.29906145 -0.33996105
-0.5175553 -0.78126556 -1.1531329 -0.26317936 0.29454216 -0.028699795 0.44735825 -1.2810855
0.00076479226 -0.8342587 -0.7978992 -0.5973935 0.22537035 -0.041606817 -0.4850384 0.063800156
-0.9866067 0.21045625 -0.8610416 -1.6659969 -1.4385967 -0.78363514 0.9377168 0.0503417
0.27901438 0.94668585 1.308594 -0.12376293 0.5887794 -0.065221116 -0.029948616 0.13478392
-0.4323601 -1.4901313 -0.71590906 -0.75474995 -1.5033863 0.12990846 -0.2352821 -0.4651371
0.055982836 -0.39254358 -2.055588 -0.9617934 -0.55712324 -1.621263 -0.033969924 0.22960247
-0.2816719 0.68920976 0.021705888 -1.7586069 -0.70366764 -0.35694334 -1.3453279 -0.57349104
-0.22364767 -0.21909824 1.698685 2.350108 2.6613712 0.9172891 1.4889789 2.220237
1.2541963 1.3135495 1.7406708 0.3830908 1.2054938 2.0217342 0.0816829 0.9293964
1.6035727 1.2087382 1.2499027 1.4325213 -1.4219396 -0.7876183 0.03116662 -1.5276414
-0.4171248 0.3751524 0.040062737 0.7258521 1.0109681 1.8204442 2.427489 2.4462435
1.1270788 1.6315906 2.158346 1.2863092 1.4857132 1.8802124 0.693045 1.4443945
1.8965967 0.34490845 1.1108155 1.6897603 1.3016806 1.7451606 1.6352465 -0.9799917
-0.4006342 -0.05955899 -1.2691264 -0.47484735 0.37506515 0.51825017 1.003106 1.0252033
1.3723042 0.26964474 0.2153176 2.1688054 0.7300441 0.5603598 1.4989952 0.22509761
0.36670268 0.7207176 -0.19462073 0.13471033 0.9532047 -0.2578717 -0.037688993 0.53737384
-0.628909 -0.06920139 1.2233198 1.1080184 1.4671606 1.7310032 0.8652727 1.2166562
0.83481216 0.31082064 0.6453943 1.286772 0.36732626 1.3629185 0.78005624 0.50781184
1.8405275 0.36711454 -0.031897314 1.0905384 1.2768055 0.04972898 1.2049083 0.45305905

down_convs.1.conv2.bias f4 [6]
00000000: 17cf aa3d afc5 0c3e 0ce0 a2bd 954e c83e
00000010: 8ae4 183f 4705 a2be
0.083402805 0.13747285 -0.0795289 0.39122453 0.5972372 -0.3164465

down_convs.1.norm0.weight f4 [6]
00000000: 7338 0e40 8b75 1940 f425 c23f c517 e53f
00000010: 28d9 8e3f cb79 cf3f
2.2221954 2.3977993 1.5167832 1.7897879 1.1160021 1.6209043

down_convs.1.norm0.bias f4 [6]
00000000: 0783 453e 44eb b93d 6c35 ee3c 008c 3c3f
00000010: d72e 8fbe 38d0 6e3e
0.19288264 0.090780765 0.029078208 0.73651123 -0.27965423 0.23321617

down_convs.1.norm0.running_mean f4 [6]
00000000: 1c25 09c2 dd59 c6c1 79d7 bbc1 639d 20c1
00000010: 1b1d f141 4ea3 16c2
-34.28624 -24.793879 -23.480211 -10.0384245 30.139212 -37.659477

down_convs.1.norm0.running_var f4 [6]
00000000: 782d 9a45 a012 bf45 3a55 af43 c37f c842
00000010: 354f a744 c813 0144
4933.6836 6114.328 350.66583 100.249535 1338.4752 516.3091

down_convs.1.norm1.weight f4 [6]
00000000: fb50 973f 6861 af3f c7ed 843f 86a0 d23f
00000010: b1a9 c83f f25a ca3f
1.1821588 1.3701601 1.0385064 1.6455238 1.5676786 1.5809004

down_convs.1.norm1.bias f4 [6]
00000000: 0e71 29bf ec09 a5bf 2ec4 6cbf 2fa6 603e
00000010: 12b1 273f fd5e 63bf
-0.6618813 -1.2893653 -0.92486846 0.21938394 0.6550456 -0.88816816

down_convs.1.norm1.running_mean f4 [6]
00000000: 4e0b 15c2 7a04 8a42 2330 29c1 6946 86c1
00000010: 42f4 3dc2 f996 3ec1
-37.26104 69.00874 -10.574252 -16.78438 -47.488533 -11.911859

down_convs.1.norm1.running_var f4 [6]
00000000: 3116 a343 afbf 1a44 8216 0a44 a1fd 8c43
00000010: e72c a344 76f5 8244
326.17337 618.99506 552.3517 281.98148 1305.4032 1047.6707

down_convs.2.conv1.weight f4 [12, 6, 3, 3, 3]
00000000: ce2c 3cbf 9184 95be cbdc 34c0 df22 b9bf
00000010: 16b0 96be 181e 3abf 65af 02be a19c 2fbb
00000020: 252f 6f3f 5ba2 c33e 1c9c 62be 4244 0fc0
00000030: 4f53 4e3f 1dc8 2e3f faa3 9ebf 3dfc 923f
00000040: a63b 9b3f 0f92 8e3e 3825 f13f da98 813f
00000050: 112f a3bf 20e1 ca3f 50a4 b13f d9cf 8fbf
00000060: af9e 843f 5d4b ba3f f2f3 df3e 7b26 243f
00000070: 881e 103e 8a9f 50bf 0c58 883f 0097 08bf
00000080: 9270 84bf 7d48 9b3e 4294 abbe 06eb eabe
00000090: 33b6 ec3e 4e52 bebe ff2d 9cbf 2d80 243e
000000a0: f42a 30bf d38b 87bf 0c6d 13bf c9e1 dfbe
000000b0: 5663 9abe 154f bf3d 880b 8dbf 444d ddbf
000000c0: f9f0 9a3e 0e1d 41bf dbc7 66bf a0c3 9abf
000000d0: a0f3 afbf 9db5 33bf b094 c33f 0627 aa3f
000000e0: acaa 1540 6f81 293f 3df2 c13e 4e83 833f
000000f0: ee86 c6be faac 02bf 2e68 4fbf 9f3d 5d3f
00000100: 8663 56be 87f3 c33f 1205 a33d 89f1 35bf
00000110: 2bb2 213f 6c2a c8bd cee7 b1be b2c1 79bf
00000120: 1031 a4be f389 a2bf cbd6 4a3f a8dc 24bf
00000130: c4e6 95bf a2ba d63f 9212 febe 4572 2abf
00000140: 5d6b db3d 9213 d53e 9356 d43f 71af fd3f
00000150: 7b61 1d3f 4faa d03e 45ca 8bbf 1fe9 67bf
00000160: 0609 85be e179 83bf 760d 7f3f d537 ef3f
00000170: b0f2 d43f bb54 433f e4c6 093f c1b2 a33e
00000180: af63 e7bf 569c 7fbf bcf7 1a3f b935 05be
00000190: be02 b13e 8d7a 9f3f faf7 4fbf 1cc5 32bf
000001a0: 99ec 113e 3f1e abbf 3671 babf 19a2 013f
000001b0: 0983 aabf 64f8 53bf d319 35bf faec fd3d
000001c0: 8ead 0e3f d100 a3be 80fb b83e 434e 0f3e
000001d0: 3585 1cbf f5d4 6cbe 0d0b 053f 8973 743f
000001e0: 5d03 2e40 09c4 f23f e796 213f 2de3 fe3f
000001f0: 5fde a73f 1540 023f 7030 ca3e ad0f dbbe
00000200: c2ae 383e f696 2540 a3db 0840 5d64 453f
00000210: 1d7c d03f 3f9f 9b3f 7a14 e83e bf21 aabf
00000220: bab5 3f3f bda5 08be 5163 65bf 5c23 cabe
00000230: a9d7 b8be 588f 64bf 73bd 76bf fe32 e03e
00000240: 34ea a73f 202b f53f 3f67 b03f 2ae4 2b3e
00000250: 4db2 c5bc 112d 80be 884e 97bf 2bb5 b2bf
00000260: 7f0d 36bf 6382 d43f da19 993f d9ad 423e
00000270: 1f2c d7be 1e6e 3b3e 1ee8 05bf ab81 96bf
00000280: 9982 8fbf 9cb9 13bf 7c20 bdbc adbd e53e
00000290: 0d70 b53f 8981 603f 98d2 9f3e 3bd9 3c3f
000002a0: 32c9 c53f dabb 153e 3a38 243f d624 9cbf
000002b0: 1564 3cbf de64 613c d859 05bf d6bc 65be
000002c0: 05af 413f 62c9 28bf 39f2 87bf 92f3 fe3e
000002d0: e80e 5dc0 f2f1 04c0 16d8 3fbf 9843 19bf
000002e0: eed6 5cbe 0832 af3f b82b 60bf de6f ffbd
000002f0: e216 be3f df5d 953f 5d22 473f 0cb9 ad3e
00000300: 0022 2fbe 42f9 50bf 50e6 dcbf 4981 c43e
00000310: 165a d83e 3272 efbf 2c13 9e3f a934 b13f
00000320: 0b9d 0b40 cd50 18bf 175e bdbf 3712 a0bf
00000330: 12d8 733e 78cc 0e3d 41fa 30bd daea b03f
00000340: 228c 9c3f 9915 c23f 42aa ff3e fb14 bdbe
00000350: 48a2 9cbe a8d7 343f 33ac 973f fcb4 ab3f
00000360: b282 833e 8063 cb3e 14d6 b93e 7d52 3bbe
00000370: 285d b6be 9adb c1bf 71d4 e73e 33e2 223e
00000380: 25bf b3bf 4fcb e23e 2c54 253f f6f7 3a3f
00000390: d82a 53bd 28f9 0abf 6a88 2fbf a2c9 6e3f
000003a0: e4f0 663f b5cf 263f 3d9b 5b3f ac5f de3e
000003b0: c541 cf3e 1760 773f 7304 643d a9ee dbbd
000003c0: 9fe9 cd3f b5d4 a53f 79ea 823f a1e7 16bf
000003d0: db8b 89bf c36d 8bbf e67d 9cbf bae4 d2be
000003e0: 1d73 55bf c82c 95bf cdef d9bf 4676 32c0
000003f0: 33a6 543f 2273 923f 10df 7d3e d1e5 42bf
-0.73505867 -0.29202703 -2.8259761 -1.4463767 -0.29431218 -0.7270217 -0.1276222 -0.002679624
0.9343131 0.38209805 -0.22129864 -2.2385411 0.8059587 0.682741 -1.2393792 1.1483227
1.2127578 0.2784581 1.8839483 1.0124772 -1.2748739 1.5849953 1.3878269 -1.1235305
1.0360926 1.4554249 0.43740803 0.64121217 0.14074147 -0.8149344 1.065187 -0.5335541
-1.0346854 0.30328742 -0.3351155 -0.45882434 0.46232757 -0.37172168 -1.2201537 0.1606452
-0.6881554 -1.0589546 -0.5758827 -0.43726948 -0.30153912 0.093412556 -1.1019144 -1.7289205
0.30261973 -0.7543496 -0.90148705 -1.209095 -1.3746223 -0.70198995 1.5279751 1.3293159
2.338542 0.66213125 0.37880126 1.0274446 -0.38774818 -0.5104519 -0.8101834 0.8642215
-0.20936403 1.5308694 0.079599515 -0.7107168 0.6316249 -0.09773716 -0.34747165 -0.9756118
-0.32068682 -1.2698349 0.79234 -0.64399195 -1.1711049 1.6775706 -0.49623543 -0.6658061
0.10713837 0.41616493 1.658892 1.9819165 0.6147687 0.40754935 -1.0921103 -0.9059009
-0.25983447 -1.027157 0.99629915 1.8688914 1.6636562 0.76301163 0.5381911 0.31972316
-1.8077296 -0.99847925 0.6053426 -0.13008775 0.34572405 1.2459275 -0.8123776 -0.69832015
0.14250411 -1.3368605 -1.4565799 0.50637966 -1.3321239 -0.8280089 -0.7074253 0.12398715
0.55733573 -0.3183656 0.3612938 0.13994698 -0.6114076 -0.23128112 0.5196999 0.9548879
2.7189553 1.8966075 0.63120884 1.9913079 1.3114737 0.5087903 0.3949008 -0.42785397
0.18035415 2.587339 2.1384056 0.7710627 1.6287876 1.2157973 0.45328122 -1.3291548
0.7488667 -0.13344474 -0.8960467 -0.39480102 -0.36102036 -0.89281225 -0.96382827 0.43788904
1.3118348 1.9153786 1.3781508 0.16786256 -0.024132872 -0.25034383 -1.1820841 -1.3961538
-0.71114343 1.6602291 1.1961014 0.1901163 -0.4202585 0.18303725 -0.5230731 -1.1758322
-1.121173 -0.5770509 -0.023086779 0.44871274 1.417482 0.87697655 0.31215358 0.7376897
1.5452025 0.14622441 0.64148295 -1.2198741 -0.73590213 0.013756959 -0.52090216 -0.22435316
0.75657684 -0.65932286 -1.0620795 0.49795204 -3.4540348 -2.0772672 -0.74939096 -0.59868765
-0.21566364 1.3687143 -0.8756671 -0.12472509 1.4850733 1.1669272 0.7778681 0.33930242
-0.17102814 -0.8163034 -1.7257786 0.38379887 0.4225623 -1.8706725 1.2349601 1.3844196
2.1814601 -0.5949829 -1.4794339 -1.2505559 0.23812893 0.034862965 -0.04320741 1.3821671
1.2230265 1.5162841 0.49934584 -0.3693007 -0.3059256 0.70641565 1.1849426 1.3414607
0.2568565 0.3972435 0.3629614 -0.18293186 -0.35617948 -1.5145142 0.45279267 0.159066
-1.4042708 0.44295737 0.6458156 0.7303461 -0.05155453 -0.5428643 -0.68567526 0.9327642
0.9021132 0.65160686 0.8578375 0.43432367 0.40479866 0.96630996 0.055668306 -0.1073888
1.608692 1.2955538 1.0227805 -0.5894719 -1.0745806 -1.0892872 -1.2225921 -0.4119013
-0.83378774 -1.1654291 -1.7026306 -2.7884688 0.830661 1.1441386 0.24792123 -0.7613192

down_convs.2.conv1.bias f4 [12]
00000000: 1739 83bd d164 8e3d 7c67 9cbd f8ba 683c
00000010: a43d 883c dd24 7336 391d 9a3c f574 9a3b
00000020: 26cc 443d 3e9d b439 d9c9 3eb8 54ad 1fbe
-0.064073734 0.06952823 -0.076369256 0.014204733 0.016630955 3.623128e-06 0.018812763 0.0047136494
0.048046254 0.0003444943 -4.5487515e-05 -0.15593463

down_convs.2.conv2.weight f4 [12, 12, 3, 3, 3]
00000000: ff87 993f d11e a8bf 8be4 1bc0 e419 bb3e
00000010: 274f e3bf 26dc 5cc0 cbb3 7fbd 4e3e cfbf
00000020: a5a6 f2bf ca6d 9b3e de25 c3bf da2b 0cc0
00000030: 44e4 be3f 8d4a ba3d 2796 8bbf 7437 8b3f
00000040: 4cdf f13e c685 6c3e 4d40 333f fb88 8d3f
00000050: e956 8a3f d6db 9d3e 8bb2 9a3f 3d4d 583f
00000060: b1ad dabf 0bb8 a6be ed4b ddbe 2b9d dd3e
00000070: ef18 01bf 122e 1ebf e3ff 4d3e 296f 34bf
00000080: 2178 81bf da48 2ac0 b1e1 7ebf beb3 1ec0
00000090: 586f 813f cb90 86bf 01a6 9cbf 3996 173f
000000a0: 0bdf b6bf 4c01 02c0 36d0 8abf 94ae 03bf
000000b0: 6ccb 67bf 4222 b73f 60aa 103f 5ddd 6c3f
000000c0: 453a 7fbf 30e1 9cbf 841f 0b3d 0b2f 0ac0
000000d0: 7790 18c0 9ea7 91bf 07ae 913f 8b1c c33e
000000e0: 57cc a63f fbc2 39bf df6b e1bf 2b2d 16bf
000000f0: 92a0 78be e8e4 71be b906 dfbe 2c61 a83f
00000100: a0e6 aa3f 8d20 ba3f d584 8abf b052 bbbe
00000110: ef91 9e3e c32e 11bf 1752 d13e 49ff 2c3f
00000120: 3f2c f8be 07f0 cf3e e2a7 f73e 2a1a bbbf
00000130: 49e4 91bf 03c2 0ebf e62a 5bbe 6b78 303d
00000140: 39a3 5a3f 6367 61be 22a3 163f 6d32 623f
00000150: 8224 b83f 2fd1 543f 4d56 2e3f 3f58 873e
00000160: f66e c5bf 8b48 debf 4656 e0bd 0088 4bbf
00000170: b100 a8bf ca86 9a3f f270 943f c3ed 013e
00000180: 7696 453f a8fb 1e3f 7a0c 90bf 6936 77bf
00000190: f3bb e6bc dd47 0cc0 63f2 373f f6f0 f13f
000001a0: 57da ad3e b3ff 313f e8b8 883e 4b36 72bf
000001b0: c6e9 89bf 9a50 b1bf 062c 133e a0b2 49bd
000001c0: e00c 963f 290e bb3f 3aaa 943e 613a 4c3e
000001d0: 8b40 b1be 9ef7 b6bf 9e4b a6bf b489 e63e
000001e0: 436a 32bf c431 f53e b014 ad3f bf5f a23e
000001f0: 5da9 593e 260e c73d 9be3 bebf 0480 05c0
00000200: 6128 ffbe b307 a4bf 0348 00bf e599 153f
00000210: 65fb e03e 4177 b7be a6c3 b4be 5401 e4bd
00000220: c719 0fbe 88d2 0fbe d1e4 2ebe 948b 92be
00000230: 27d6 4cbe 8b9e bc3b 0604 e8bd 36bb e1bc
00000240: aa34 92be 4122 bebe 29ea 03be d8a8 b5be
00000250: 000f 6bbe 1172 04be c016 753c 4ac1 2ebe
00000260: 5238 463c ee48 9fbe 0374 8ebe d42f 80be
00000270: bd6a 9cbe 03be e0be afcc 5abe 1100 5bbe
00000280: 9f16 92be 5804 58be 9edc cb3e 5185 99bf
00000290: 19d2 85c0 0142 613d e953 0dbf 96b3 a7bf
000002a0: ebe2 d7be 071e d7bd d356 37bf a571 bdbd
000002b0: 9716 99bf 70fd 02c0 3b7b 18bf d343 b5bf
000002c0: 45a1 25bf d255 c3bd d8ef 4f3f 1d94 c13e
000002d0: c549 a7bf 7b1f a5bf 48ce fd3e 82c2 d43c
000002e0: 8259 b8be 4427 b43f fcad 00c0 d2ce 453f
000002f0: af51 6b3f b04d df3e ab2a 37bf cccf 0ac0
00000300: 21cc ccbd fc5e 9ebf 1234 dabf 9714 0dbf
00000310: 1954 513f 3e0b e13f 2188 453f b512 13bf
00000320: 0bd1 82bf 9a64 06be e82d a1bf 87f4 c3bf
00000330: 9646 45bf f4a5 273f e323 cb3f 7ba2 2d3f
00000340: e113 2ebe f116 aebe 438f c1be 2946 88bf
00000350: 86a4 28bf 1311 d0bf 5002 a9bd 60bc 853f
00000360: ab21 54bf f15e adbf 70ef 17c0 daa4 4cbf
00000370: de11 1bbf bb58 f5be cf00 e8be 4767 3bbd
00000380: e572 2b3f 067f b23e d51f 41be aba8 e4bf
00000390: a15f f83e 24c1 a63d 08e9 b73e fe8a d1be
000003a0: 4fab 77be 96bd 8b3f 573b 35bf ec8e f23e
000003b0: eceb 95bf 0f10 03c0 9bf8 f2be 41f6 193f
000003c0: dd5d 31c0 95e1 01c0 5e5d 8a3f 81f7 9d3e
000003d0: e75a 0540 e9ee 4b3f 05ac d4bf f1e2 113e
000003e0: 7a16 c93e 51e1 10c0 d218 40c0 f6ea 52c0
000003f0: 9edf e03c d860 953f 323c c83f 902b babe
1.1994628 -1.3134404 -2.4358242 0.3654319 -1.775853 -3.4509368 -0.062427323 -1.6190889
-1.8957106 0.303572 -1.5245931 -2.1901765 1.4913411 0.09096251 -1.0905198 1.0876298
0.47240674 0.23097906 0.7001999 1.1057428 1.0807773 0.30831784 1.2085737 0.84492856
-1.7084256 -0.3256229 -0.4322199 0.43283972 -0.5042867 -0.6178905 0.20117144 -0.70482117
-1.0114785 -2.6606965 -0.9956313 -2.4797206 1.0112104 -1.0512937 -1.223816 0.59213597
-1.4286817 -2.0313292 -1.0844791 -0.5143826 -0.9054477 1.430733 0.5650997 0.92525274
-0.9969829 -1.2256222 0.033965603 -2.1591213 -2.3838174 -1.1379278 1.1381234 0.38107714
1.303111 -0.7256314 -1.7611045 -0.5866267 -0.24280003 -0.23622477 -0.43559816 1.3154655
1.3351631 1.4541184 -1.0821787 -0.36586523 0.30970713 -0.5671198 0.40882942 0.67577034
-0.48471257 0.40612814 0.48370272 -1.461736 -1.1397792 -0.5576479 -0.21403083 0.04308359
0.8540531 -0.22012095 0.5884267 0.88358194 1.4386141 0.8313169 0.68100435 0.26434514
-1.5424488 -1.7365888 -0.10953955 -0.79504395 -1.3125211 1.2072384 1.1596968 0.12688355
0.7718271 0.62102747 -1.1253808 -0.965674 -0.028165793 -2.1918862 0.7185423 1.890166
0.33955643 0.6953079 0.26703572 -0.94614094 -1.0774467 -1.3852723 0.14372262 -0.049242616
1.1722679 1.4613696 0.29036123 0.19944145 -0.34619555 -1.4294317 -1.2991827 0.45026934
-0.6969339 0.4788953 1.3521938 0.31713673 0.21256013 0.097194955 -1.491321 -2.0859385
-0.49835494 -1.281485 -0.5010988 0.5843795 0.439418 -0.3583317 -0.35305518 -0.11133066
-0.13974677 -0.14045155 -0.17079474 -0.28622115 -0.20003568 0.0057562045 -0.113288924 -0.02755509
-0.28555804 -0.3713551 -0.12882294 -0.3548038 -0.22954941 -0.12934138 0.014959037 -0.17065921
0.012098389 -0.31110328 -0.27822885 -0.2503649 -0.30550185 -0.43894967 -0.21367143 -0.21386744
-0.28532884 -0.21095407 0.39816755 -1.199381 -4.1818967 0.054994587 -0.5520616 -1.310168
-0.42165312 -0.10503774 -0.7161686 -0.092501916 -1.1960019 -2.0467186 -0.59563035 -1.4161323
-0.646992 -0.09537853 0.8122535 0.37808314 -1.3069388 -1.2900232 0.49571443 0.025971655
-0.3600579 1.4074483 -2.0106192 0.7726871 0.91921514 0.43613958 -0.7154948 -2.168933
-0.09999872 -1.2372737 -1.7047141 -0.5510954 0.8176895 1.7581556 0.7716084 -0.5745042
-1.0220045 -0.13124314 -1.2592134 -1.5308999 -0.7706083 0.654876 1.5870327 0.6782605
-0.1699977 -0.34001878 -0.37804613 -1.0646411 -0.6587604 -1.6255211 -0.08252394 1.0448112
-0.82863873 -1.3544599 -2.373989 -0.79939044 -0.6057414 -0.47919258 -0.45313117 -0.04575279
0.6697219 0.34862536 -0.18859799 -1.7863973 0.4851046 0.081423074 0.35919976 -0.40926355
-0.24186443 1.0917232 -0.7079367 0.47374666 -1.1712623 -2.0478551 -0.47455296 0.6014138
-2.771354 -2.0293934 1.0809743 0.30852893 2.0836732 0.7966142 -1.6614996 0.14246728
0.3927496 -2.2637522 -3.001515 -3.2955909 0.027450379 1.1670179 1.564337 -0.3636136

down_convs.2.conv2.bias f4 [12]
00000000: d023 383d 28e8 f1bd b6c3 06bd 7cb5 bb3b
00000010: 75d4 d6bc c193 31bd cb71 6dbd 8342 243d
00000020: 58bb a33c d65b b53d 8154 8fbd 7a58 1b3d
0.04495603 -0.118118584 -0.03290149 0.0057284217 -0.026224354 -0.0433538 -0.05796985 0.040102493
0.019986793 0.08855407 -0.0699854 0.037926175

down_convs.2.norm0.weight f4 [12]
00000000: efe2 0c40 eca3 0040 bde2 c63f 6d3d 0240
00000010: 0170 8c3f 7f9c a33e 373c fb3f 8d12 b33f
00000020: 28a2 d63f 8e39 ba3f 0265 bb3e ef8d cc3f
2.201351 2.010005 1.5537945 2.0349991 1.0971681 0.31955335 1.9627751 1.3990036
1.6768236 1.4548814 0.366005 1.5980815

down_convs.2.norm0.bias f4 [12]
00000000: e52c 1bbf e996 a2be 42a1 9d3e cf48 30bf
00000010: dc65 3cbf 8fc8 1ebf f266 78bc 1a6b f2be
00000020: adaa 8bbf 227a 5dbe ce7a 07bf b214 573f
-0.6061538 -0.3175576 0.30787092 -0.688611 -0.73592925 -0.6202478 -0.015161263 -0.47347337
-1.0911461 -0.21628621 -0.5292176 0.84015954

down_convs.2.norm0.running_mean f4 [12]
00000000: b1df 9e41 ad12 d1c0 10d3 b840 82a4 41c2
00000010: 98f0 4e41 55c7 81c1 3f43 abc1 fbb8 6c41
00000020: 5553 05c1 4d39 88c1 96f1 19c1 f69e fb3e
19.859224 -6.5335298 5.7757645 -48.410652 12.933739 -16.22233 -21.407835 14.795161
-8.332845 -17.027979 -9.621481 0.49144715

down_convs.2.norm0.running_var f4 [12]
00000000: 9430 4e44 c3ee 8744 087c 0144 ff73 4744
00000010: ce1f 8144 c589 d443 eee5 c943 d38b 9b44
00000020: db62 1b44 dfe9 7644 a02a 6443 5571 a543
824.75903 1087.4613 517.938 797.81244 1032.9939 425.07632 403.79633 1244.3695
621.5446 987.65424 228.1665 330.8854

down_convs.2.norm1.weight f4 [12]
00000000: 10b5 0f40 1439 6340 5c06 a33f ad21 aa3f
00000010: aa6e d53f b2d3 1540 05a9 0240 00fd ce3f
00000020: 4550 cb3f cc6c ed3f 157d cc3f 4701 c23f
2.2454262 3.5503588 1.2736316 1.3291527 1.6674397 2.3410459 2.0415661 1.617096
1.5883871 1.8548827 1.5975672 1.515664

down_convs.2.norm1.bias f4 [12]
00000000: b627 89bf 5af0 afbf 63e9 83be db04 96bf
00000010: 701b 71be 8480 24bf 07f2 0bbf 1bec 9cbd
00000020: 94f1 40bf 99db 32bf a6d3 bcbf 639e 9dbf
-1.0715244 -1.3745224 -0.25763997 -1.1720232 -0.23545623 -0.642586 -0.5466618 -0.07662221
-0.7536862 -0.6986633 -1.475209 -1.2313961

down_convs.2.norm1.running_mean f4 [12]
00000000: 40f1 1fc2 5a5a f8c1 dcbe 7641 296d 38c1
00000010: 91a4 1bc1 b7a6 7ac1 2e44 eec1 63a5 ebc1
00000020: 81ea 4ec0 671d 07c2 8db7 b1c1 d9c0 bbc1
-39.985596 -31.044117 15.421597 -11.52665 -9.727677 -15.665702 -29.78329 -29.455755
-3.233063 -33.778713 -22.214624 -23.469164

down_convs.2.norm1.running_var f4 [12]
00000000: f20e 4244 9003 b944 bc31 0f45 1731 d043
00000010: 0d85 7d44 5ebd 2a44 f3ea 7c44 6cbd 0444
00000020: 2bd9 3f44 b897 2f44 c5cc 0144 83c2 bd43
776.2335 1480.1113 2291.1084 416.3835 1014.0789 682.95886 1011.6711 530.9597
767.39325 702.3706 519.1995 379.51962

down_convs.3.conv1.weight f4 [24, 12, 3, 3, 3]
00000000: 181a 06be 16a2 8a3f f628 493e af54 453f
00000010: 680c 53be c040 f0bf cdfb ddbf 12dc d5bf
00000020: 9976 04c0 1191 5b3d be84 a23f 8d5f 9abf
00000030: 154f 8d3f 9634 a8be 4691 acbf da08 4b3f
00000040: ae87 41bf cf7b 223f a7fb ae3e ef2f 443f
00000050: e0be 92be 19c3 253e 9b12 a53e fc09 29bf
00000060: b017 0640 c45e b4be 4658 58be 2052 17c0
00000070: 2091 f7be c8cb 3bc0 238b 0dc0 5c09 db3f
00000080: e531 793f fe7a 2ebf fa60 0f40 c225 8a3f
00000090: 0d22 cf39 d1ff 2c3f da00 223e 09a2 bcbd
000000a0: 3119 013f 75e6 b63e c569 56bf 1a98 b4be
000000b0: 564a 82bf d987 9ebf 192d 2abf 8206 ebbf
000000c0: 3077 3040 85e2 dc3f f7a9 d73f e195 6840
000000d0: 1008 bd3f 2645 00c0 49a7 a2be 777c 09bf
000000e0: dadc 273f 711f acbf 36ab ebbf 0596 c9be
000000f0: d59b b13f 8e80 733e f8f6 0a3f 72b4 5bbd
00000100: e083 d9be 64bd 39bd 2703 babe c8ff 8fbf
00000110: e728 49bf b0a1 4940 41d7 2840 9207 fe3f
00000120: 6e4c ae3e f233 da3e 4850 2d3f fb8e c4bf
00000130: ed0b a1bf fb12 9bbf 1b51 af3f f77b fb3f
00000140: e32b 963f 8a53 dcbf f9fe 693c e08e 35c0
00000150: 588e 47bd f0b6 23bd e941 e2bf 0dae a83f
00000160: fb67 833e 0247 dd3e d3be 8ebf e248 78bf
00000170: f83f 85bf efb0 bbbf ed83 82bf 2ed9 cfbf
00000180: 989f a13e 95f3 4bbd ffce f03e 5831 08bf
00000190: e312 1d3f de79 8a3e e353 4ebf 8d77 9fbe
000001a0: 7fd3 c2bd 4959 003f 11f7 863f cd0b c03f
000001b0: e672 b3be e1aa 803f 76f1 59bf db6c 2cbf
000001c0: 10fd 3f3e a36e b23e 4262 d9bf ad29 c5bd
000001d0: 2a60 00be cf8f a73e 6408 a13f ff0e c43e
000001e0: f097 7fbe dc5d 483f 909f b33f 469f c7ba
000001f0: 043e 23be ddc0 45be 7b5a 7ebe 4ff7 3cbc
00000200: d6c4 d4bf bb09 adbe 0130 29bf f522 a1be
00000210: fe4b 453f 3690 9ebf 07fa 19c0 ce6f 7d3f
00000220: 2447 173f 7ef1 d7bd 22e3 493f d677 0d3f
00000230: b0c8 723f dd06 b0be d1be 55be b536 18bf
00000240: 40f8 093f 9f65 01bf d7da b83f 5dc6 32bf
00000250: 3e5d a8bf ceda 5dbf 8c0f f53e 462a d5bf
00000260: 2a7b 0bc0 651b 1a40 e127 2b40 403e 1b40
00000270: 85a9 1fbe c564 9f3c 9db9 923e 11e2 0640
00000280: f968 ae3f 24fe cd3f 8e82 4ebf 5c71 d0bf
00000290: 8d8e e1be 6116 d2bf df54 80be e908 cabf
000002a0: 3d1c 443e ad21 ad3e 7e36 5c3f 3123 3a3f
000002b0: addc fe3d cef7 293f 7eb2 943f bdde 993f
000002c0: 49fb 8fbe 5f75 e13e 4a72 293f e15c 5b3e
000002d0: 7d26 573f e5bb 89bf 3567 f43f 5e49 9cbd
000002e0: 8e67 85bf 5730 90bf a931 d53f 5511 e5bd
000002f0: 5f98 233f 4cf7 fbbf 6d69 ca3d 7fb9 0a3f
00000300: 751d 01c0 a22f efbe adb6 a5bf a7eb c33e
00000310: 2166 063f cb21 963f d9bd 98bf cbf4 863d
00000320: 12a5 b23e 42bb d3bf 3b7d f6bf 2845 33c0
00000330: 8bf8 c5be 4bc8 2bbf f44a fbbe c582 99be
00000340: d2ec 41be f9c1 83bc 3a80 f8bf e208 89bf
00000350: ff26 f2be dc8b 993e a67a 46bf 1a2d d2be
00000360: 5d4c eebf 0ee8 05c0 336f 16c0 3bda 6a3f
00000370: 0cba 693f 09ca 7e3e 12cb 3240 a633 2a40
00000380: 7c12 2240 0710 623e 4985 8dbe 6534 66bf
00000390: 22d6 8e3f a1b7 9f3f 60a8 ab3f cfb5 0940
000003a0: 8d42 c23f 172f b23f a277 953e ecba 1f3f
000003b0: 4c72 273e 14a7 6a3f f19f 803f 6431 a83f
000003c0: e266 a93f 75bf 503f ab18 753f 77c9 2bc0
000003d0: beb7 c1be c4ae a9be 8282 63bf 73ee 27bf
000003e0: 9038 133f 1759 24be 9901 36bf 5d06 cbbf
000003f0: 9e29 52bf fcb5 9abf ba4b 08c0 c340 a53f
-0.13095891 1.0830715 0.19644532 0.7708234 -0.20610201 -1.876976 -1.7342469 -1.6707785
-2.0697386 0.053605143 1.269676 -1.206041 1.1039759 -0.3285262 -1.3481834 0.7931038
-0.75597656 0.63470167 0.3417637 0.7663564 -0.2866125 0.16187705 0.32240757 -0.6603086
2.0951958 -0.3522855 -0.21127424 -2.3643875 -0.4835291 -2.9343128 -2.2116172 1.7112231
0.9734176 -0.6815642 2.240294 1.0792773 0.00039507487 0.67577845 0.15820637 -0.09210593
0.50429064 0.357227 -0.8375514 -0.35272294 -1.0178936 -1.2385207 -0.66475064 -1.8361361
2.7572746 1.7256628 1.6848744 3.634148 1.4768085 -2.0042205 -0.31768253 -0.53705543
0.6557137 -1.3447095 -1.8411624 -0.39372268 1.3875681 0.23779508 0.54283094 -0.053638883
-0.42483425 -0.045346633 -0.3633053 -1.1249933 -0.7857804 3.1504936 2.638138 1.984606
0.34042686 0.42617756 0.67700624 -1.5356134 -1.2581764 -1.2115167 1.3696626 1.9647206
1.1732143 -1.7212994 0.014281982 -2.8368454 -0.048719734 -0.039969385 -1.7676364 1.3178116
0.25665268 0.43218237 -1.1151985 -0.9698621 -1.0410147 -1.4663371 -1.019651 -1.6238153
0.31567073 -0.049792845 0.47032925 -0.5320029 0.61356944 0.27046102 -0.8059675 -0.31145898
-0.09512996 0.5013624 1.0544149 1.5003601 -0.35048598 1.0052148 -0.85134065 -0.673536
0.1874888 0.34850034 -1.6983111 -0.0962709 -0.12536684 0.32726905 1.2580686 0.3829269
-0.24960303 0.7826822 1.403307 -0.0015229962 -0.15941626 -0.19311853 -0.24839203 -0.011533572
-1.662257 -0.33796486 -0.66088873 -0.31471983 0.7706908 -1.238776 -2.4058855 0.98998725
0.59092927 -0.10544108 0.788622 0.5526098 0.94837475 -0.34380236 -0.20873572 -0.59458476
0.53894424 -0.50545686 1.4441785 -0.6983393 -1.3153455 -0.86661994 0.47863424 -1.6653526
-2.1793923 2.407922 2.674309 2.4256744 -0.1559201 0.01945723 0.28657237 2.107548
1.3625785 1.6093183 -0.8066796 -1.6284595 -0.4405407 -1.641308 -0.25064752 -1.5783969
0.19151397 0.33814755 0.8602065 0.7270995 0.12444434 0.66393745 1.1616971 1.2021099
-0.28121403 0.4403486 0.66190016 0.21422149 0.84043103 -1.0760466 1.9093996 -0.07631181
-1.0422227 -1.1264752 1.665578 -0.111849464 0.63904375 -1.9684844 0.098833896 0.54189295
-2.017423 -0.46716028 -1.2946373 0.38265726 0.52499586 1.1729063 -1.1932937 0.06589659
0.34891564 -1.6541522 -1.9256967 -2.801096 -0.38666186 -0.671025 -0.49080622 -0.29982582
-0.18937996 -0.016083704 -1.9414132 -1.0705836 -0.47295377 0.29989517 -0.77530897 -0.41050035
-1.8617054 -2.0922885 -2.350537 0.91739243 0.9129951 0.24881758 2.7936444 2.6594024
2.5323782 0.22076426 -0.2764075 -0.899237 1.1159098 1.2477914 1.3410759 2.1517217
1.517656 1.3920621 0.29192835 0.62394595 0.16352195 0.9166119 1.004881 1.3140073
1.3234522 0.8154214 0.95740765 -2.6841714 -0.37835497 -0.33141148 -0.88871014 -0.6559822
0.5750818 -0.1604961 -0.7109619 -1.5861317 -0.8209475 -1.2086787 -2.129622 1.2910389

down_convs.3.conv1.bias f4 [24]
00000000: b08a 0bbb a857 5fbb 8b74 833b c87e e838
00000010: 4ef3 6d3c f670 6e39 cd7d 9736 fa6d 1139
00000020: c4d8 29bb cb1e d7bb 0d2c c33b f0ec 0a3c
00000030: 6503 30bb f4dd e5bc ad26 5ab8 226e dfba
00000040: e254 80bc df75 7d3c 86b5 3bb8 98a3 2bbb
00000050: e877 c33a 8394 7438 323c a33a b1f4 4e38
-0.002129238 -0.0034079347 0.0040116957 0.00011086237 0.01452334 0.0002273953 4.514796e-06 0.00013869247
-0.0025916556 -0.00656495 0.005956179 0.008479342 -0.0026857492 -0.028059937 -5.201127e-05 -0.0017046372
-0.015665475 0.015469997 -4.475333e-05 -0.0026190039 0.0014913054 5.8312446e-05 0.0012453853 4.9342114e-05

down_convs.3.conv2.weight f4 [24, 24, 3, 3, 3]
00000000: 89de af3f 1149 fb3d 10f9 11bf 5b34 52be
00000010: cf74 cdbe b7e5 b0bf af8e f8bf 5991 2dc0
00000020: 5dc7 39bf ec67 6b3b 4cd1 83bd 610b 69be
00000030: a320 4f3f 719f 1fbf a275 39be 8ee7 12c0
00000040: 0499 16c0 c5e4 88bf b3bd e73f 6a44 f43e
00000050: 5c35 0f3f a09d 58bf 96a8 1f3d bace a43e
00000060: 5b89 9bbf decc 72bf 4ea1 5bbe 322d 07be
00000070: 52a8 1ec0 0a17 913f 64eb 3ebf 35e6 0ac0
00000080: bd03 bebf 298f 833f c6bb 57be b8d0 81bf
00000090: 94e6 92bf c2ca fbbd ec26 753f faa0 f9bd
000000a0: 4a01 4bbf 32b3 363f 1e15 01bf c9da 5dbf
000000b0: 9ff6 e0bd 1352 7fbf 3dd5 2fbf 9ae9 a63f
000000c0: c910 84be 31d7 38bf 9356 483e 7f77 aabf
000000d0: 7f42 9bbf dd13 ab3e b4cd a63f 5242 83be
000000e0: 2117 1abf 952f 42c0 bdf0 e2bf 94b7 e7bf
000000f0: e890 a73f c1f2 853f bca6 8c3f d4d1 553f
00000100: 3e6d d83e e515 b43e d47a 4ec0 a2a4 ebbe
00000110: b445 2dbf 791e 2240 43e1 d73f 7fc3 673f
00000120: bfa0 fa3f 488f de3e c415 e53e 9fa4 52c0
00000130: 4c62 ecbf 6d8b e6bf d6cd 2a40 4724 9f3f
00000140: 8df2 2c3f 7650 833e ac5f 6d3e 6960 233f
00000150: a09a a83c fb63 50bd cc70 353e 1099 ba3d
00000160: 2135 a8bb 2de3 5c3e 0f46 253e cbb0 1a3d
00000170: 63db 093f efb2 5a3c b426 08be 2895 183e
00000180: 1d01 433d fc7b c5bd 807e 3f3e 0626 b2be
00000190: 4d7b 02be 87be 023f 6455 c1bd 667e b8be
000001a0: 3726 cb3d 3861 4ebd cd0c 49be a0ca 5f3e
000001b0: 0074 9dbe 6e87 1cbe 0792 4c3e 2f53 f6bc
000001c0: 48f6 dd3e 10af 3840 0566 bdbf 065f bbbf
000001d0: d855 ffbf f42b 24bf c5c1 4f3f 4ffd d7bf
000001e0: b969 6ebf cea5 51bd df7c 243f e123 e4bf
000001f0: 7279 08bf 380e f9be b06a bdbd cb57 8f3e
00000200: ad2e 933e 390f 28bd af10 5e3f 8f7b 07bf
00000210: cbc2 5dbd 3146 a93f 599c 6d3e 8cd9 8bc0
00000220: cae9 24c0 18a5 efbf 757f f43f 9ade c93f
00000230: 365e bc3e d75b 673f 62bf c63f 6371 b8bf
00000240: f150 3bbf ae33 733f a597 09bf 75e3 c43f
00000250: 595e e23f 23ef b43f 0dca f2be b128 dcbe
00000260: f9e1 d1bf 376b cebf 4328 173f a8c3 15bf
00000270: 5e27 bd3f 949b 873f 6006 103f 0558 b8bf
00000280: 6f61 1cbe 7d0e 933f a641 923e f9dc ad3e
00000290: 53e9 2d3e 64cf 513e 5c7b 5d3e b8f3 5d3e
000002a0: b0c2 913e bf72 d83e 041c ab3e e310 56be
000002b0: 183a 27bd bc74 aabe a5d7 16be efe9 613e
000002c0: 7daf 633d 0323 eb3d a88d 9d3e 666d bb3e
000002d0: 5100 a5be 6010 8fbe 3767 b0be 956f 46bf
000002e0: 5207 aabe 9dc0 c8be 375e 06bf db83 d7bc
000002f0: f568 6e3e a9a8 bc3e cfea 753e a848 aa3d
00000300: a625 5f3e 57bc 5b3e 3235 d43d a403 793e
00000310: 2a1a 3d3e 116b 343e d8e1 d33c e410 8c3d
00000320: e681 343c cd7c 1d3e 41ff e33d 6ae9 a03c
00000330: 6d10 363e 1fa8 1a3e 9c91 2a3e aa91 efbd
00000340: 70e7 0f3d 8f6c bcbc 258b 1dbd b73e ec3c
00000350: 01cf b5bb 13ea 1d3e c7a0 203e e595 1f3e
00000360: da76 87bc 796a 86be c61d 00bc e911 01c0
00000370: 0149 f63e 86b7 863e 48f9 0e3e cb31 20bd
00000380: c771 d2be af68 69bf 88fb 0bbf 9d68 463d
00000390: 6c76 9c3e 6b2f bbbe c4ff 5c3f ebff 0e3e
000003a0: 7a07 de3e 567e 473e c0fb 3e3f 1d00 3fbf
000003b0: b973 16bf bdb4 653e 63d2 5c3f 8ed2 10bf
000003c0: da0e 73bf 8140 45bf 6379 91bf 4cbf 69c0
000003d0: fa5c 1ec0 da3e 54c0 cb1d ba3f 9a17 ad3f
000003e0: 0bd9 c63f 1f1b 33c0 b11e 06bf 481b 2cbf
000003f0: 226b 6fc0 0f3b 00c0 f699 39c0 96ba 0a40
1.3739787 0.12269796 -0.57020664 -0.20527785 -0.4012818 -1.3820103 -1.9418544 -2.7119963
-0.7256983 0.0035920097 -0.064364046 -0.22758247 0.80909175 -0.62352663 -0.1811128 -2.295383
-2.3530893 -1.0694815 1.8104767 0.47708446 0.55940795 -0.84615517 0.038979135 0.3218897
-1.2151293 -0.9484385 -0.21448252 -0.13200834 -2.4790235 1.1335156 -0.7457793 -2.1703007
-1.4844891 1.0278064 -0.21067724 -1.0141821 -1.1476617 -0.12294532 0.95762515 -0.12188907
-0.7929884 0.7136718 -0.5042285 -0.86661965 -0.10984539 -0.9973461 -0.6868475 1.304004
-0.25794056 -0.72203356 0.19564275 -1.3317717 -1.2129668 0.33413592 1.3031526 -0.25636536
-0.6019154 -3.0341542 -1.7729717 -1.8102899 1.3091097 1.0464708 1.0988383 0.835233
0.42270845 0.35172954 -3.2262468 -0.46024042 -0.67684484 2.53311 1.686562 0.9053268
1.9580306 0.4346869 0.44743168 -3.2912977 -1.8467498 -1.8011299 2.6688132 1.2432946
0.67557603 0.25647324 0.23181027 0.63818985 0.020581543 -0.0508766 0.1771881 0.091112256
-0.0051332866 0.21571036 0.16140006 0.03776626 0.5385038 0.013348325 -0.13296014 0.14900649
0.047608484 -0.09642789 0.187006 -0.34794635 -0.12742348 0.5107197 -0.09440115 -0.36033934
0.09919398 -0.050385684 -0.1963379 0.21854639 -0.30752563 -0.15286037 0.1997758 -0.030068962
0.4335196 2.885685 -1.4796759 -1.4638374 -1.9948072 -0.6412957 0.81155044 -1.6874179
-0.9313007 -0.051183514 0.6425304 -1.7823449 -0.5331031 -0.4864366 -0.09248865 0.27996668
0.28746548 -0.041030142 0.8674421 -0.5292291 -0.054140847 1.3224546 0.23204173 -4.370306
-2.5767694 -1.8722258 1.9101397 1.5771058 0.36790627 0.9037451 1.5527155 -1.4409603
-0.7317038 0.9500073 -0.53747016 1.5381914 1.7685043 1.4135479 -0.47419778 -0.42999795
-1.6397086 -1.6126469 0.5904581 -0.5850167 1.4777639 1.0594354 0.5625973 -1.4401861
-0.15271543 1.1488796 0.2856571 0.3395765 0.16983537 0.2048927 0.21629089 0.21675003
0.28468847 0.42275044 0.33419812 -0.2090488 -0.040826887 -0.33292186 -0.147307 0.22061895
0.05558728 0.11481287 0.30772138 0.36606902 -0.32226804 -0.2794218 -0.34453747 -0.7751401
-0.3320871 -0.39209452 -0.5248751 -0.02630799 0.23282225 0.36847427 0.24015354 0.08314639
0.21791705 0.21458565 0.10361709 0.24317795 0.18467012 0.17618968 0.025864527 0.06839159
0.011017298 0.15379639 0.1113267 0.01964255 0.17779703 0.15103196 0.16657108 -0.11697705
0.035132825 -0.023000984 -0.038462777 0.028838499 -0.0055483584 0.15421323 0.15686332 0.15584524
-0.016536165 -0.26253107 -0.007819599 -2.0167181 0.48102573 0.26311892 0.13962281 -0.039109986
-0.4110243 -0.9117536 -0.5468068 0.04843961 0.305591 -0.36559615 0.8632777 0.13964812
0.4336508 0.19481787 0.7460289 -0.7460955 -0.5877033 0.22432227 0.86258525 -0.5657128
-0.94944537 -0.7705155 -1.1365169 -3.6523008 -2.4744248 -3.3163362 1.4540342 1.3522828
1.5534986 -2.7985303 -0.5239058 -0.6722913 -3.7409139 -2.0036047 -2.900022 2.1676383

down_convs.3.conv2.bias f4 [24]
00000000: 1c8a 60bb 330d 5a38 c0ef f63b 8ef7 b3bb
00000010: 1498 80bc 3695 a7ba ba5e f03a 90a3 10bb
00000020: 0d17 0d3a 988e 19bb 6011 a8bb 78ec 6bbb
00000030: 8517 2ebc 6e4b 513a 240f 04bb 59c0 a8bb
00000040: cbac c0bb 2976 78bb 46fd 5b39 76e8 2c3c
00000050: 90cc feb8 86a7 0c3b 3994 8b3b 1c15 bc38
-0.0034262007 5.1987543e-05 0.0075359046 -0.0054921573 -0.015697517 -0.0012785557 0.0018338778 -0.0022070147
0.0005382158 -0.002343094 -0.0051290244 -0.00359991 -0.010625725 0.0007983957 -0.0020150626 -0.0051498828
-0.0058799735 -0.0037912226 0.00020979819 0.01055347 -0.000121497666 0.0021462156 0.004259613 8.9684705e-05
