outputs/outputs_new_full_mask/epoch_80_model.pth (torch, 694854 bytes, 241 tensors)

down_convs.0.conv1.weight f4 [3, 1, 3, 3, 3]
000000 9a 80 dd be 3f 14 07 be dd 18 47 be 10 f6 9d be
       -0.43262178 -0.13191317 -0.19443078 -0.30851793
000010 42 39 86 be fd 5f eb bb 7e 8f 03 be 67 f0 8a bc
       -0.2621556 -0.0071830736 -0.12847707 -0.016960336
000020 5e 06 25 be e3 1f 21 be 59 7d 92 bd 0c d7 fc bc
       -0.1611571 -0.1573482 -0.071528144 -0.030864261
000030 3b 9f 98 be 12 38 a8 be c3 d5 78 bd c7 50 42 be
       -0.29808983 -0.32855278 -0.060750734 -0.18976127
000040 47 d8 15 be 6b c6 30 bc c8 4c db bc d7 12 6a be
       -0.14633285 -0.010789494 -0.02677001 -0.2285875
000050 5c c4 fe bd 94 ce aa be 4e 5d b1 bd c8 75 49 3e
       -0.12439796 -0.33360732 -0.086603746 0.19673836
000060 f2 e1 1b 3e 5f d6 8b be f7 53 61 be 71 fe ae bf
       0.1522291 -0.2731199 -0.22004686 -1.3671399
000070 50 54 08 bf 36 2e a8 3e f6 4f aa bf a2 d8 13 bf
       -0.5325365 0.32847756 -1.3305652 -0.5775243
000080 4c 5b 49 3f a3 b8 ce be fb 9e 76 bc fa 4f 33 3f
       0.7865493 -0.40375242 -0.015052552 0.7004391
000090 8c 88 77 be 2a 62 25 3f ac d4 97 3f b0 6a 1e 3e
       -0.24173182 0.6460291 1.1861777 0.15470386
0000a0 54 0b d7 3f e4 61 9d 40 d0 1f 32 3e a1 9a e4 3e
       1.6800332 4.9181995 0.17394948 0.44649222
0000b0 5d e3 67 3f 55 2b 82 be 2d 60 2a 3f de 49 3d 3f
       0.90581304 -0.25423685 0.66553 0.7394084
0000c0 a4 66 31 bf c6 c8 34 3e d5 ff 9d 3f 96 76 7e bd
       -0.6929724 0.17654714 1.2343699 -0.06212481
0000d0 23 d3 32 3e a5 f2 84 3e 49 ff 2f bf 23 dc 90 3f
       0.17463355 0.25966373 -0.6874891 1.131718
0000e0 32 ae d9 3f 08 bb 4a be 80 d2 8e 3f e0 f7 54 40
       1.7006285 -0.1979791 1.115799 3.327629
0000f0 22 66 e7 be 37 3a ab 3e d2 fd 73 3f fa 9e a3 be
       -0.4519511 0.33442852 0.95309174 -0.31957227
000100 0c 9c 59 3e 74 89 01 3f 78 ec b3 3d e0 e4 db 3e
       0.21250933 0.5060036 0.08785337 0.42948055
000110 9e 70 b4 3f ee 09 3c 3f 25 91 32 3f 0c c5 cc 3f
       1.4096868 0.7345265 0.6975272 1.5997634
000120 8e cc 4c bf 95 27 dd bd e1 e1 70 bf 2b d2 50 bf
       -0.79999626 -0.10798565 -0.94094664 -0.8157069
000130 c6 b3 07 be 1e c0 5e bf b1 f6 a1 bd ed 8c e8 3e
       -0.13252172 -0.870119 -0.07908381 0.45420018
000140 a7 46 35 bf
       -0.7081093

down_convs.0.conv1.bias f4 [3]
000000 8c 34 f9 39 16 8f 95 3f ce 53 24 bf
       0.0004753213 1.1684291 -0.64190376

down_convs.0.conv2.weight f4 [3, 3, 3, 3, 3]
000000 09 12 c8 bc c8 09 22 3d b9 4b f0 bd 7d 57 4c 3e
       -0.024422662 0.03956011 -0.11733193 0.19955249
000010 59 7b 4e bd f1 fe f5 bd ee a9 f3 bd 09 d6 e3 bd
       -0.050410602 -0.12011517 -0.11897646 -0.11124808
000020 61 61 62 3d 2f b0 cd 3e 63 d0 a1 bd b4 72 b4 bc
       0.05526865 0.4017348 -0.07901075 -0.022027351
000030 12 d3 f4 3d 78 df f5 bd 1a f4 dc 3d 75 d9 2e 3e
       0.11954321 -0.12005514 0.10788746 0.17075141
000040 54 2b 3d 3d 81 83 55 be 57 fb 97 3d f6 e1 74 3e
       0.0461839 -0.20850946 0.07420986 0.23914322
000050 5b cc 32 3d a6 75 fb bc c3 96 96 3d f4 84 cb bd
       0.04365192 -0.030695748 0.07352974 -0.09937468
000060 f8 74 16 be d3 b5 28 be 08 af 16 3d da 2c 27 bf
       -0.14693058 -0.1647561 0.036788017 -0.65302813
000070 fe 94 04 bf 86 c4 9c bf b7 6a 7d 3f 6d cb 9f be
       -0.51789844 -1.2247474 0.9899096 -0.3120989
000080 e2 b6 9d bf 41 5b ca 3f fb 59 66 3f 8d 37 ba be
       -1.2321436 1.5809098 0.8998105 -0.36370507
000090 3c 19 5a 3d 6e 41 29 bf 32 fc d2 bf 19 89 85 3f
       0.05324672 -0.6611546 -1.6483214 1.0432464
0000a0 83 88 6d bf e1 9d e0 bf 8c 0f 6b 3f 29 71 76 be
       -0.92786425 -1.7548181 0.918206 -0.24066605
0000b0 6f df f2 bf b5 79 50 bf ff d0 03 bf 7a 72 82 3e
       -1.8974437 -0.8143571 -0.5149078 0.25477964
0000c0 1d ce ab 3e 25 7e 8e bf 41 52 a5 3e 17 ac 08 3f
       0.3355569 -1.1132246 0.32289317 0.5338759
0000d0 34 f8 1e bf 63 9f 84 bf 64 ca 3f be 1e e1 93 be
       -0.6209748 -1.0361141 -0.1872955 -0.28882688
0000e0 55 73 11 3e 43 17 8e 3f 91 ad ac 3e 95 87 91 3e
       0.14204152 1.1100849 0.3372617 0.28423753
0000f0 23 b6 80 3f fa c4 86 3f d4 67 43 3e ab 27 8f bd
       1.0055584 1.0528862 0.19082576 -0.06989988
000100 1b 93 56 bf 2b 3d 2c c0 4d 88 27 3f ca 3c 87 bf
       -0.83818215 -2.6912334 0.65442353 -1.0565426
000110 1e ce 22 c0 7f 76 9d 3f 94 58 47 3f 67 48 8f bf
       -2.5438304 1.2301787 0.77869534 -1.119397
000120 cf 10 de 3e 2a b7 3c bf d1 a9 8d bf 6d 72 82 3f
       0.433722 -0.73716986 -1.1067449 1.019117
000130 d6 77 6b bf 93 db bf bf c5 32 08 3f a6 d6 01 bf
       -0.9197973 -1.4988884 0.5320247 -0.5071815
000140 cd 68 ec bf 21 73 07 be 72 43 67 be 67 50 9c bd
       -1.8469483 -0.13227512 -0.22584322 -0.07632523
000150 28 88 d0 3d 47 72 b5 bd bb 10 13 be e2 5d a9 bc
       0.1018222 -0.08859687 -0.14361851 -0.02067465
000160 be af 5e be 88 5c 0c 3e 82 48 87 be db 12 82 bd
       -0.21746728 0.13707173 -0.26422507 -0.06351253
000170 c5 23 96 bd 11 80 01 3e dc d7 03 bb 1e 81 f1 bb
       -0.07331041 0.1264651 -0.0020117676 -0.0073701283
000180 ec d4 b6 be 24 79 b6 bc 25 18 a4 bd 38 ff 1b b9
       -0.35709321 -0.022274561 -0.08012418 -0.00014877028
000190 1c 84 2c 3d 19 a1 c0 bb fc 5f 3f 3c 7d 2c 05 be
       0.042118177 -0.0058785793 0.011680599 -0.13005252
0001a0 95 fa 83 bd c5 e1 47 bd a6 f6 22 be a5 80 8b 3d
       -0.06444279 -0.048799295 -0.15914401 0.06811646
0001b0 40 5c df 3e f2 f6 c0 bf 47 5a d1 be 0c c3 8e 3f
       0.4362507 -1.5075362 -0.4088919 1.1153274
0001c0 d8 f4 bf 3e fd a0 c4 3b d2 1d 1f 3e 7a 49 69 3d
       0.37491488 0.0060006366 0.1553872 0.05695484
0001d0 e7 30 43 be c9 15 97 be 2b fc e7 bf 85 83 d6 3f
       -0.19061624 -0.29508808 -1.812383 1.6758887
0001e0 60 83 16 be c9 2f 33 bf 74 7e 87 3f 5b 9a 17 c0
       -0.14698553 -0.6999479 1.0585465 -2.368796
0001f0 53 71 fc bf a4 92 f5 3e 87 4f 35 bf d0 1e 4a bf
       -1.9722084 0.4796344 -0.70824474 -0.78953266
000200 4f f4 65 bf 8c 12 59 3e 83 6a 43 3f f5 5a 09 3e
       -0.8982591 0.21198481 0.763344 0.13413604
000210 7d 0e 42 bd a5 3d a3 3f 44 da de 3e d7 6b 35 3f
       -0.0473771 1.2753187 0.43525898 0.70867676
000220 f6 dc 51 3f b2 20 3b bf 97 8a a4 3f 92 d3 a7 3f
       0.81977785 -0.73096764 1.2854794 1.3111441
000230 ec cb 50 bf c9 9f 06 3f c2 4d 94 3f f2 51 ab bd
       -0.8156116 0.5258756 1.158623 -0.08365239
000240 44 aa d3 bf 96 c6 32 c0 71 1b 66 3f 48 86 c0 bf
       -1.6536336 -2.7933707 0.8988562 -1.5040979
000250 ab f6 01 c0 0e 39 88 3f 06 7b 12 c0 08 5e 53 c0
       -2.0306804 1.0642412 -2.2887588 -3.3026142
000260 ec da 6f 3f c2 38 8d 3f f2 c4 c8 bf bb 19 99 3f
       0.93693423 1.1032946 -1.5685103 1.1960977
000270 94 28 de 3f 5e 00 09 bf 66 29 b7 3f 60 60 05 be
       1.7356133 -0.53516185 1.4309509 -0.13025045
000280 65 ae 01 c0 94 50 8d 3e d0 7a f4 3d 03 0f 33 3d
       -2.0262692 0.2760054 0.11937487 0.04371549
000290 1e 4f 89 bd 86 56 d5 3c 3b b3 17 be 52 da 77 bd
       -0.067045435 0.026042234 -0.14814465 -0.06051094
0002a0 6d 0d 22 3d 59 de 50 be fd c3 e1 bd aa d0 3c 3e
       0.039563585 -0.20397319 -0.1102371 0.18438974
0002b0 10 3d 66 bd b7 0e f0 bc d3 4c f1 bd 43 6d 59 bc
       -0.056210577 -0.029303892 -0.11782231 -0.013270679
0002c0 4e 99 0e be f9 c4 90 be 85 c6 7e 3d a4 a4 16 be
       -0.13925669 -0.28275278 0.06220104 -0.14711243
0002d0 84 29 9b 3d 39 86 3e be 40 f8 df bd 13 19 ae bc
       0.07576278 -0.1860589 -0.10936022 -0.02125219
0002e0 da 7c 56 3d 46 42 29 bc 29 9c aa bd ba 8f fb 3d
       0.05236516 -0.010330742 -0.083305664 0.12283273
0002f0 66 41 5f bd 48 a5 68 3f a0 38 07 40 6f 23 a0 3f
       -0.05450573 0.908772 2.112831 1.2510813
000300 c2 50 d3 3e 95 b8 7f 40 e0 66 26 3f 91 4b 0b 3f
       0.4127255 3.995641 0.65000725 0.5441218
000310 3e 05 94 3f cc 22 ab 3e f0 1d 68 3e 40 43 83 3f
       1.15641 0.33424985 0.2266767 1.0254898
000320 f9 f9 07 3f 9e 68 3b be ba 9f 94 3f 9b 7a 22 bf
       0.53115803 -0.18301627 1.1611245 -0.6346833
000330 7a 3a 9f 3e af 96 6a 3f 4b ff cb be eb e7 f2 be
       0.31099302 0.91636175 -0.3984321 -0.47442564
000340 5e 9b 84 be 4a 7b 4b bf 67 31 7c bf 64 57 f4 be
       -0.25899786 -0.79485 -0.9851288 -0.47722924
000350 39 c5 e0 bf 72 11 31 be 44 8d 75 3e d2 af 43 bf
       -1.7560188 -0.17291811 0.2397967 -0.76440156
000360 1c 87 e4 be 0a 02 45 3e 19 5b 93 be 00 99 aa bf
       -0.4463433 0.19239059 -0.2878044 -1.3327942
000370 89 d3 fb be 55 58 96 bf bd 1b 9e be ff de 64 3e
       -0.49184826 -1.1745707 -0.30880538 0.22350691
000380 ca 53 98 be b1 af 65 3e be f5 be 3f 82 a8 55 3f
       -0.29751426 0.22430302 1.4918745 0.8346025
000390 39 d4 42 be 57 d9 1f 40 65 be b5 bc 40 45 c9 3e
       -0.19026269 2.4976404 -0.022185514 0.39310646
0003a0 46 12 70 3f 5c ca 22 3e b6 c5 8b 3e 6d 1c ea 3f
       0.93777883 0.15897506 0.2729928 1.8289925
0003b0 4b 95 45 3f 4d 6a c9 3d 23 90 ff 3f 0d e0 1b be
       0.7718093 0.098347284 1.9965862 -0.15222187
0003c0 9f 9f 0e 3f 15 52 a7 3f 82 da dc 3e
       0.5571231 1.3071924 0.43135458

down_convs.0.conv2.bias f4 [3]
000000 b1 55 95 3f 55 e1 a3 3e af f0 e2 3f
       1.1666776 0.32007852 1.7729701

down_convs.0.norm0.weight f4 [3]
000000 11 c1 ff 3e 1d 0c 2d 40 dd 73 33 40
       0.49951985 2.7038643 2.8039467

down_convs.0.norm0.bias f4 [3]
000000 f1 fa fc be d6 2e 4d bc 4b 10 ad 3d
       -0.49410203 -0.012523374 0.08450373

down_convs.0.norm0.running_mean f4 [3]
000000 db a9 df bc 95 de 99 3f b5 d8 18 bf
       -0.027302673 1.2021052 -0.5970567

down_convs.0.norm0.running_var f4 [3]
000000 a3 80 58 41 fe 62 ba 42 b1 65 8f 42
       13.531405 93.193344 71.698616

down_convs.0.norm1.weight f4 [3]
000000 d1 e9 e1 3f e3 bf 16 40 16 7f 03 40
       1.764948 2.3554618 2.0546317

down_convs.0.norm1.bias f4 [3]
000000 e4 81 b3 be f4 eb f1 3e 51 61 96 bd
       -0.35060036 0.4725033 -0.073427804

down_convs.0.norm1.running_mean f4 [3]
000000 74 86 4d c1 1b 50 02 c1 f5 44 97 41
       -12.845325 -8.144557 18.90867

down_convs.0.norm1.running_var f4 [3]
000000 c4 b5 9f 44 d7 2c c9 43 59 38 d8 44
       1277.6802 402.3503 1729.7609

down_convs.1.conv1.weight f4 [6, 3, 3, 3, 3]
000000 00 9c 24 be c2 d8 19 be 24 eb 16 c0 bc 51 90 bf
       -0.16075134 -0.15024093 -2.3581018 -1.1274943
000010 26 73 5f bf 9f 6a f6 bf 9d 03 a1 bf 06 8b ac bf
       -0.8728508 -1.9251288 -1.2579228 -1.3479927
000020 2e 16 c1 bf f2 ff 06 bc c5 e9 3c ba 95 11 f3 bf
       -1.5084894 -0.008239733 -0.0007206465 -1.8989741
000030 05 4a 29 bf 9a ac 35 bf 82 62 16 c0 bb 6e a6 be
       -0.6612857 -0.70966494 -2.3497624 -0.32506356
000040 f6 03 02 bf ce 75 a9 bf 72 7e e9 be 53 ba 7b bd
       -0.50787294 -1.3239076 -0.45604283 -0.06145699
000050 50 14 ef bf 60 37 f9 bd 5e 68 ee be 06 1e cf bf
       -1.8678074 -0.12168765 -0.46564 -1.6181037
000060 bb 32 2b 3f 54 7a c9 3e 58 0d 30 bf bc f5 0f bf
       0.66874284 0.3935114 -0.6877036 -0.56234336
000070 ee 1b 80 be d3 c5 0a be 07 ee 17 bf 88 da bc be
       -0.2502131 -0.13552026 -0.59347576 -0.36885476
000080 d5 b5 ca be 93 14 37 be 22 08 06 bf 4f 6a 06 bf
       -0.39591852 -0.17878942 -0.5235616 -0.52505964
000090 6b 2e 1f be 16 ad 87 3e fc aa 0c 3e a8 28 9c be
       -0.15545051 0.26499242 0.137371 -0.30499768
0000a0 a0 55 6a bd 85 d5 dc be 6f 70 42 3e 5c 5c 92 3d
       -0.057210565 -0.43131652 0.18988203 0.071465224
0000b0 3d a2 03 be c6 39 af 3d 81 fe b3 bd 46 19 f4 be
       -0.12854858 0.08555941 -0.08788777 -0.47675532
0000c0 c2 ad a4 3e dc 51 31 3e 18 6a be bd 7a f9 30 3f
       0.32163817 0.17316383 -0.092975795 0.6913067
0000d0 07 71 c7 3e 1e 2c 1a 3d c3 bd 31 3e c9 51 2a c0
       0.3895342 0.03763973 0.17357545 -2.6612418
0000e0 1b 69 32 c0 30 20 f4 be 46 05 26 c0 de 07 a7 bf
       -2.7876651 -0.47680807 -2.5940719 -1.3049276
0000f0 bf db 0b bf 52 3b 37 bf be 64 96 bf 2c e8 30 bf
       -0.5463218 -0.7157489 -1.1749494 -0.69104266
000100 7a a8 23 c0 8f f4 0e c0 0e 4e c6 bf b4 f0 3f c0
       -2.557158 -2.2336767 -1.549257 -2.9990664
000110 30 7b f1 bf 46 66 be be 1d 96 25 bf 7e db 8e bf
       -1.8865719 -0.37187403 -0.6468218 -1.1160734
000120 0b ec 28 bf 09 0e 39 be ec 99 a9 3f ad c3 34 c0
       -0.65985173 -0.1807176 1.3250098 -2.824443
000130 b5 2f 17 c0 61 e3 aa be 8e 70 6b bf 0f f9 88 bf
       -2.3622868 -0.333766 -0.9196862 -1.0701007
000140 a1 55 7f bf 0c 7c 16 bd 40 b8 0a 3d 9d f1 c2 bf
       -0.99740034 -0.036739394 0.03386712 -1.5229985
000150 84 e1 44 bf 5f f7 0f bf 3c 93 c2 bf b7 0e 81 bf
       -0.7690661 -0.56236833 -1.5201182 -1.0082616
000160 bf bd a4 bf 8f ed ab bf 95 3b 0b be 17 b0 89 3e
       -1.2870406 -1.3431872 -0.13596947 0.26892158
000170 62 91 a0 bf 70 4d e7 be 4e f7 52 bf a6 a3 f1 bf
       -1.2544367 -0.45176268 -0.82408607 -1.8878067
000180 41 05 d0 be fb b2 f3 be 24 24 4d bf f5 db 9a bd
       -0.40629008 -0.4759749 -0.8013327 -0.07561485
000190 29 f2 cc 3e 39 72 a6 bf 5c f7 8d bd 61 af e8 3c
       0.40028504 -1.3003608 -0.06931946 0.02840394
0001a0 12 12 af bf 72 2d 4a 3f f1 2e 65 3e 2a ac fc bd
       -1.367739 0.78975594 0.22381188 -0.12337525
0001b0 f0 53 a9 3d 77 9a 17 3f 8e 61 05 3f 88 ff 81 bd
       0.08267963 0.5922007 0.5210198 -0.06347567
0001c0 ba 31 66 bb 75 89 bf bb ad b6 1e bd 3b 6c ca bd
       -0.0035124854 -0.0058452436 -0.038748432 -0.098839246
0001d0 00 76 92 3c 6b 23 d4 3e 85 4d 01 3f 19 4d fa 3e
       0.017878532 0.41433272 0.5050891 0.48886946
0001e0 b1 16 2c 3e 69 c0 ec 3e 02 97 92 bd 41 76 c9 3e
       0.16805531 0.46240547 -0.07157709 0.39348033
0001f0 e3 97 90 3e 6f 08 95 3e df 7f 78 3e a7 6e bd 3e
       0.2824088 0.29107997 0.24267529 0.36998484
000200 30 09 81 3c 76 27 68 3f 88 39 11 3f b4 12 25 3f
       0.015751451 0.9068521 0.5672841 0.64481664
000210 ef 32 56 3f ff 29 11 3f 3c 4a 9f 3e a0 40 81 bf
       0.8367147 0.56704706 0.31111324 -1.0097847
000220 50 30 5f c0 b1 5d 47 c0 68 c6 b0 bf f6 50 0b c0
       -3.4873238 -3.1150935 -1.3810549 -2.1768165
000230 06 d9 5a bf d3 02 47 bf 2d 09 3b bf a9 88 5c bf
       -0.854874 -0.77738684 -0.73060876 -0.86146027
000240 2d d9 74 bf bb 09 18 c0 2e 8a 16 c0 d2 e4 04 c0
       -0.95643884 -2.375594 -2.3521838 -2.076466
000250 d7 45 0b c0 94 bd 91 bf 97 db 08 bf 95 e8 db be
       -2.1761377 -1.138598 -0.5346007 -0.42950884
000260 b5 7d 5b bf 10 35 47 be 51 6f 8e 3e a3 60 8d 3f
       -0.8573869 -0.19453835 0.27819303 1.1045116
000270 6a 1a 4e c0 1f 88 28 c0 64 09 0f bf 9a 56 8e bf
       -3.2203622 -2.6333082 -0.55873704 -1.1120179
000280 80 92 91 bf da 4f 7a bf f8 49 c5 bf c9 17 a9 bf
       -1.1372833 -0.97778094 -1.5413198 -1.3210384
000290 d1 b5 a0 bf 7e d8 96 bf 52 da 53 bf 9d 85 08 bf
       -1.2555486 -1.1784818 -0.82755005 -0.5332888
0002a0 dc 8f 6c bf 2c e1 5e bf 4f 31 78 bf 30 6f 59 be
       -0.9240701 -0.87062335 -0.9695024 -0.21233821
0002b0 c8 a5 02 be e2 50 eb 3d c1 bf 0a bf 57 4c bb be
       -0.12758553 0.114900365 -0.54198843 -0.3658168
0002c0 a7 31 b6 3d 1f 00 48 bf f1 12 55 bf f6 a0 73 be
       0.08896189 -0.78125185 -0.8323203 -0.2379187
0002d0 13 6c 46 3f 50 2a 4a 3f c0 6b 95 3f 6d c8 e6 3e
       0.7750866 0.78970814 1.1673508 0.45074788
0002e0 e1 95 55 3f 73 d2 86 3f da 0e 25 be ec 24 50 3e
       0.8343182 1.0532974 -0.16118947 0.20326585
0002f0 d9 e4 10 3f 3c 0f 24 3e 1e 56 91 3e f4 6c c0 be
       0.56599194 0.16021436 0.28386015 -0.37583125
000300 f8 f8 fd 3d eb f4 78 3e c4 17 56 bc 4b 64 07 c0
       0.12401003 0.24312179 -0.01306719 -2.1154964
000310 72 98 8f bf c8 2f 95 bf bc ac 50 3f 10 04 81 3f
       -1.1218398 -1.1655207 0.8151357 1.0079365
000320 f3 c6 79 3e 0c f1 4a be e1 16 e8 3e 9b 2f 2b 3e
       0.243923 -0.19818515 0.45329955 0.16717379
000330 9b 2d 21 c0 fc d7 7c bf b0 9e 9a bf 2d 08 85 3e
       -2.5184085 -0.98767066 -1.2079678 0.259828
000340 36 56 eb 3e dc a2 1a be a6 90 4b bf 0b e2 4c be
       0.4596421 -0.15101188 -0.7951759 -0.20008104
000350 b1 f0 ca be 58 e9 61 c0 7b d8 fb bf 23 0b fe bf
       -0.39636758 -3.5298672 -1.967544 -1.9847149
000360 1b 75 b6 bf 1b 75 c9 bf eb 22 dc bf 28 c6 76 bf
       -1.4254488 -1.5738863 -1.7198156 -0.9639611
000370 84 41 ed be 5e 17 30 bf e2 aa 6a 3e 3f 9f 76 be
       -0.46339047 -0.68785655 0.22916749 -0.24084185
000380 54 78 8f bf 52 89 54 bd fb a9 78 be 78 c4 b1 bf
       -1.1208596 -0.05188877 -0.24283592 -1.3888083
000390 17 cf 7c 3e e0 44 83 3e 58 31 49 bf 10 48 8f 3f
       0.24688374 0.25638485 -0.7859092 1.1193867
0003a0 c6 ff 4a 3e 49 29 19 bf 5c 1f 80 3f eb 90 f5 3d
       0.19824132 -0.5982862 1.000957 0.119905315
0003b0 8a 46 a9 bf 33 43 5d 3f 37 c5 06 3e 5a 5f 84 bf
       -1.3224652 0.8643066 0.13161169 -1.0341599
0003c0 62 2b e6 3f a4 93 1a 3f d7 3a b3 be 2d 40 61 bf
       1.7981989 0.6038153 -0.3500583 -0.8798855
0003d0 9d 51 68 3f d4 98 d8 3f b2 18 81 bf 18 09 73 3e
       0.9074953 1.692164 -1.0085661 0.23733938
0003e0 48 34 51 3f 7b 8f f5 bd 48 e9 73 3f 25 bd 9f 3e
       0.817204 -0.11990257 0.95277834 0.31198993
0003f0 03 8f 27 bf 7d 18 a7 3e a5 5a 4a 3f a6 6e 93 bf
       -0.65452594 0.3263587 0.7904456 -1.1518142

down_convs.1.conv1.bias f4 [6]
000000 6c ba ae bd 42 6b cc bd e5 f3 b6 3e f2 ac 14 bf
       -0.08531651 -0.09981395 0.35732952 -0.58076394
000010 c0 79 86 3c 4e 83 61 3e
       0.016415477 0.22022745

down_convs.1.conv2.weight f4 [6, 6, 3, 3, 3]
000000 f3 71 22 bf 69 ea a8 be aa 56 67 bf ec d9 44 bf
       -0.6345512 -0.3299134 -0.90366614 -0.7689502
000010 ce cd 39 bf 8e b3 23 bf c2 1b c9 bf 4e df b8 bf
       -0.7257966 -0.63945854 -1.5711596 -1.4443147
000020 1f bb b4 bf 38 46 01 bf 32 41 6e be 7c 0c fd be
       -1.4119605 -0.5049777 -0.23267058 -0.49423587
000030 d1 6a 38 bf 56 ea 19 bf 9f 7b fe be b8 2b 50 bf
       -0.7203799 -0.60123193 -0.4970369 -0.8131671
000040 67 07 63 bf 97 af 81 bf 4a 7f 11 bf 95 03 52 3b
       -0.8868317 -1.0131711 -0.5683485 0.0032045592
000050 b4 ef 15 bf c5 63 0c bf ff 51 7e 3d 26 46 86 be
       -0.5856888 -0.54839736 0.062089916 -0.26225394
000060 88 89 85 bf b7 1a 80 bf 74 a5 90 bf 03 08 0d bf
       -1.0432596 -1.0008153 -1.1300492 -0.5509035
000070 e5 7a e9 be 3e 77 3a bf 58 de 76 bf c8 26 4f bf
       -0.45601574 -0.728382 -0.9643302 -0.8091855
000080 97 04 1b bf 70 9d b2 bf 51 c7 d1 bf 86 6b bb bf
       -0.6055388 -1.3954296 -1.6388952 -1.4642189
000090 bc eb 30 bf 3a b6 ad be 33 a1 b4 be 06 27 8b bf
       -0.691097 -0.3392809 -0.35279235 -1.0871284
0000a0 61 76 31 bf ba e2 f1 be 92 3a 73 bf b9 31 95 bf
       -0.69321257 -0.4724329 -0.95011246 -1.1655799
0000b0 6f 23 9b bf b2 e6 51 bf 91 1e 00 be e9 3c 04 bf
       -1.2120188 -0.8199264 -0.1251166 -0.5165544
0000c0 a5 ec 6d bf 1a 75 98 be 92 4b 43 be 6f 34 a5 bf
       -0.92939216 -0.2977684 -0.19071797 -1.2906626
0000d0 1a 8d c5 bf 3c 31 85 bf 99 29 f6 3d 53 aa 9d 3f
       -1.5433686 -1.040565 0.12019653 1.2317604
0000e0 23 d4 45 3f db d2 bb 3e 1a 09 97 3f d5 98 26 3f
       0.7727682 0.36684307 1.1799653 0.65076953
0000f0 d8 44 8f 3e ca fa 4d 3f 5a 52 39 3e d5 ec cf 3f
       0.2798221 0.804608 0.18097821 1.624415
000100 ff 97 2e 40 56 67 f5 3f ee 1e d6 3f 19 4b 16 40
       2.728027 1.9172161 1.6728189 2.3483336
000110 83 82 e5 3f 02 dc 55 3f 7d 09 ae 3f 4a 65 8a 3f
       1.7930454 0.8353883 1.3596646 1.0812161
000120 6c 61 50 3f 51 8d f8 3f 94 87 e7 3f b3 c9 b3 3e
       0.81398654 1.9418126 1.808825 0.35114822
000130 e0 65 88 3f b8 5a 5d 3f a7 7c 4c 3e 5f 39 d2 3e
       1.065609 0.8646655 0.19969426 0.41059396
000140 1f c9 ab 3e 66 c0 b2 bf 0e 34 a4 bf b2 b3 c6 bf
       0.3355188 -1.3964965 -1.2828386 -1.5523589
000150 83 73 32 bf c5 14 a8 bf 2c 10 82 bf ff 7c 0e 3e
       -0.69707507 -1.3131338 -1.0161185 0.1391487
000160 ba 7e 72 bf 9f a2 27 be fa 81 08 be 0e 10 75 3f
       -0.9472462 -0.16370629 -0.13330832 0.9572762
000170 2e 4e 21 bf eb b4 ef 3e 7f c5 eb 3e a8 8a dd be
       -0.6300992 0.46817717 0.46049115 -0.4326985
000180 23 83 23 3e f6 46 b3 be b2 6b f0 be 7c 47 6f bf
       0.15967993 -0.35015076 -0.46957165 -0.9346845
000190 26 a9 13 3f de a7 d5 be 8a 1e 9e be a0 84 67 be
       0.57679975 -0.41729635 -0.30882674 -0.22609186
0001a0 51 6e f8 be 23 30 48 bf 11 45 8c bf 75 78 83 be
       -0.48521665 -0.7819845 -1.0958577 -0.2567784
0001b0 f5 6f b6 bd 43 c6 08 be 7d 5b 09 3f 16 4e c0 bf
       -0.08908073 -0.13356881 0.53655225 -1.502383
0001c0 4d 66 1d bd e7 19 06 bf 81 3d 7f bf 61 69 05 bf
       -0.03842764 -0.52383274 -0.9970322 -0.5211392
0001d0 9c 48 49 3e 4d 68 0c bf 73 9f 2a bf bf 5b e5 3c
       0.19656605 -0.5484665 -0.6664955 0.02799785
0001e0 b4 51 9e bf ec dd 9a 3d 0c 42 30 bf 6e 57 d4 bf
       -1.2368684 0.075618595 -0.6885078 -1.6589181
0001f0 dd a9 96 bf 9c 96 1b bf e4 c9 df 3e 04 85 07 be
       -1.1770588 -0.60776687 0.43708718 -0.13234335
000200 43 de 95 3e 6c 65 23 3f b3 cf 90 3f db 11 ab 3c
       0.29271135 0.6382663 1.1313385 0.020882538
000210 68 0c 66 3e 0a 5c d3 bd c1 77 90 bc ef 67 46 3e
       0.2246567 -0.103202894 -0.017635228 0.19375585
000220 0d 22 96 be 56 8e b7 bf aa 1e 2d bf 01 57 2a bf
       -0.29322854 -1.4340312 -0.67624915 -0.6653901
000230 00 6b bf bf 2c 84 0a 3e 51 9e 40 be 64 13 00 bf
       -1.4954529 0.13526982 -0.18810393 -0.5002959
000240 be d8 f0 3d 54 71 a6 be 70 63 f8 bf de 6c 60 bf
       0.1176009 -0.32508337 -1.9405346 -0.8766612
000250 91 58 05 bf 7b 7e ca bf a4 e5 9c 3d e1 cb 8c 3e
       -0.52088267 -1.5819849 0.07660988 0.27499297
000260 09 0b 6d be ff c4 31 3f 9d 3a 25 39 91 cc da bf
       -0.23148741 0.6944122 0.00015757461 -1.7093679
000270 17 3c 28 bf 0b a8 d8 be 63 05 b7 bf d9 93 e0 be
       -0.6571669 -0.42315707 -1.4298519 -0.438628
000280 1c dd 3d be c2 28 4f be 0b 9e dc 3f 12 80 13 40
       -0.18541378 -0.20230392 1.7235731 2.3046918
000290 4e ff 23 40 09 f1 70 3f 38 57 b4 3f 61 11 04 40
       2.5624576 0.9411779 1.4089117 2.0635607
0002a0 93 1c a5 3f 38 08 a6 3f a9 1b d7 3f f8 2d fb 3e
       1.2899345 1.2971258 1.6805316 0.4905851
0002b0 01 b8 9b 3f fe b6 fb 3f 71 d8 d8 3d e2 c5 5c 3f
       1.2165529 1.966522 0.10588158 0.86239445
0002c0 32 98 bc 3f 7a 8d 99 3f a7 d2 99 3f 92 d8 ac 3f
       1.4733946 1.19963 1.2017411 1.3503592
0002d0 6c 69 a2 bf 21 19 43 bf aa 14 d6 bb 9c 0c c0 bf
       -1.2688422 -0.7621022 -0.006533225 -1.5003848
0002e0 f8 83 06 bf 9e c1 5c 3e 59 bb b1 3c 22 42 23 3f
       -0.5254512 0.21558234 0.02169578 0.63772786
0002f0 71 55 67 3f 25 bc f5 3f fa db 19 40 c6 eb 18 40
       0.9036475 1.9198042 2.4040513 2.3893905
000300 73 37 9d 3f 18 29 cd 3f 6b f9 03 40 6d 87 b4 3f
       1.2282547 1.6028166 2.0620983 1.4103829
000310 5b 1c bd 3f 22 2d e8 3f 51 df 52 3f d7 e0 b7 3f
       1.4774278 1.8138773 0.82372004 1.4365491
000320 95 07 f2 3f c6 ab cf 3e 2a f4 87 3f e7 a3 ce 3f
       1.8908564 0.4056074 1.0621388 1.6143769
000330 ae 83 a8 3f 80 83 d4 3f 5c ab c3 3f 74 09 60 bf
       1.3165185 1.6602631 1.528667 -0.87514424
000340 84 04 cb be c7 74 6a bc 6c ae 9c bf 12 bf 0b bf
       -0.39651883 -0.014310068 -1.2240729 -0.54588425
000350 20 dd 94 3e 09 a8 f8 3e b7 8f 61 3f 30 6e 64 3f
       0.29074955 0.485657 0.88109916 0.8923063
000360 92 9c 8f 3f 04 d5 be 3d c7 ba 02 3c 8f eb fe 3f
       1.1219656 0.09317973 0.0079791015 1.9915637
000370 65 94 22 3f f2 56 f2 3e 56 b8 ac 3f 0e 03 38 3e
       0.6350768 0.4733196 1.3493755 0.17969915
000380 ce 66 a4 3e 66 76 08 3f 0c a0 a8 be ea 6e 93 bd
       0.32109684 0.5330566 -0.32934606 -0.071988896
000390 02 b9 5c 3f fd 0c 79 be 54 44 b4 bd 8f 2b f9 3e
       0.862198 -0.24321361 -0.08802095 0.48666045
0003a0 1b 32 15 bf 90 c0 9e bd 63 90 90 3f 2a 14 7c 3f
       -0.5827958 -0.07751572 1.1294063 0.9846827
0003b0 8d d1 a2 3f 6e da db 3f a2 06 68 3f 86 7d 99 3f
       1.27202 1.7176034 0.9063512 1.1991432
0003c0 2c 66 52 3f 7c c5 b0 3e 47 ec 23 3f ec 3c a3 3f
       0.8218715 0.3452567 0.64032406 1.2752967
0003d0 b8 a9 d4 3e 18 08 ac 3f 04 ec 45 3f 63 87 09 3f
       0.41535735 1.343997 0.77313256 0.5372221
0003e0 47 f7 e4 3f 7d d5 b8 3e c2 49 7b bc 7e 4a 87 3f
       1.7887963 0.3610038 -0.015337409 1.0569608
0003f0 ef ea a8 3f bb 30 37 3e bb ae 9f 3f a9 13 03 3f
       1.3196696 0.17889683 1.2475199 0.51201874

down_convs.1.conv2.bias f4 [6]
000000 44 d1 e1 3d 2e 48 f1 3d ea 09 5c bd fd 43 59 3e
       0.110262424 0.11781345 -0.053720392 0.21217342
000010 55 7d 26 3f 39 39 a3 be
       0.6503499 -0.31879595

down_convs.1.norm0.weight f4 [6]
000000 ab fa 09 40 47 32 15 40 af 7f b7 3f b1 d9 db 3f
       2.1559246 2.3311937 1.4335841 1.7175809
000010 99 0c 8a 3f 0e d2 c6 3f
       1.0785094 1.5532854

down_convs.1.norm0.bias f4 [6]
000000 3d 08 78 3e 29 6f a5 3d cc d5 cb 3d c3 2d 3c 3f
       0.24221893 0.08077843 0.09952888 0.73507327
000010 3b 3f 88 be 71 74 7b 3e
       -0.2661074 0.24556138

down_convs.1.norm0.running_mean f4 [6]
000000 54 f6 01 c2 08 d3 a1 c1 a4 68 a9 c1 a5 a3 10 c1
       -32.490555 -20.228043 -21.176094 -9.039952
000010 08 b5 90 41 63 74 0d c2
       18.088394 -35.36366

down_convs.1.norm0.running_var f4 [6]
000000 ef 10 7c 45 a1 6b 99 45 6c 1c 92 43 a0 ee a2 42
       4033.0583 4909.4536 292.22205 81.466064
000010 88 1a 6c 44 4b 41 cc 43
       944.41455 408.5101

down_convs.1.norm1.weight f4 [6]
000000 44 fc 9f 3f d7 0e a5 3f 4d 6a 84 3f bd 6b d5 3f
       1.249886 1.2895154 1.034494 1.6673504
000010 60 aa c0 3f 7c 4d bc 3f
       1.5051994 1.4711146

down_convs.1.norm1.bias f4 [6]
000000 57 24 28 bf cd 37 9d bf fe 76 65 bf 1c 3e a9 3e
       -0.6568045 -1.2282654 -0.8963469 0.33055198
000010 53 60 27 3f ad d4 6e bf
       0.65381354 -0.9329327

down_convs.1.norm1.running_mean f4 [6]
000000 35 6a 0d c2 8f 53 7e 42 f6 d4 19 c1 05 db 65 c1
       -35.353718 63.5816 -9.614492 -14.365972
000010 9d 30 39 c2 34 cf 2b c1
       -46.297474 -10.738087

down_convs.1.norm1.running_var f4 [6]
000000 28 e6 90 43 cc 7a 0d 44 5c 83 e2 43 fb 6b 83 43
       289.7981 565.9187 453.02625 262.8436
000010 57 32 93 44 fd 89 85 44
       1177.5731 1068.3121

down_convs.2.conv1.weight f4 [12, 6, 3, 3, 3]
000000 76 38 16 bf df 93 53 be 81 82 28 c0 d4 08 b1 bf
       -0.586799 -0.20661877 -2.6329653 -1.3830819
000010 34 1f a0 be f8 5d 5e bf 22 45 85 be 52 3e 9c bd
       -0.31273806 -0.86862135 -0.26029307 -0.07629074
000020 3c cf 49 3f 12 b1 d5 3e f0 eb 0c be 71 13 01 c0
       0.7883184 0.41736656 -0.13761878 -2.0168116
000030 f1 6b 4f 3f b1 63 36 3f 72 ea 98 bf 37 de 93 3f
       0.8102408 0.71245867 -1.1946547 1.155219
000040 ce a6 99 3f 35 31 5b 3e d0 d7 e3 3f 86 48 76 3f
       1.200403 0.2140549 1.7800236 0.9620441
000050 de ae 8d bf 50 f4 b4 3f 74 67 a4 3f bd 9c 8b bf
       -1.106899 1.4137058 1.2844071 -1.0907208
000060 bd 07 82 3f 85 1d b7 3f a8 02 ab 3e 8d 25 14 3f
       1.0158612 1.4305884 0.33400464 0.578698
000070 c9 b3 3b 3e 69 fd 40 bf 20 ee 8b 3f 90 26 db be
       0.18330301 -0.75386673 1.0932045 -0.42802858
000080 70 5e 36 bf 41 ad d5 3e 98 1f d6 be fb 99 e6 be
       -0.7123785 0.41733745 -0.4182098 -0.45039353
000090 98 74 c3 3e 4b 77 75 be 58 0b 60 bf 0e be 84 3e
       0.3817489 -0.23971288 -0.8751731 0.2592625
0000a0 d8 ad d8 be ed 19 22 bf 25 1e af be 67 f4 b7 be
       -0.42320132 -0.6332081 -0.34202686 -0.35928652
0000b0 8a 4c 81 be 19 bf 89 be 89 2f 92 bf 15 a2 e0 bf
       -0.25253707 -0.26903608 -1.1420757 -1.7549464
0000c0 09 9c 15 3e 0c c6 15 bf e4 a0 50 bf a2 04 94 bf
       0.14610304 -0.5850532 -0.814955 -1.1563914
0000d0 29 6c ac bf 77 e2 3f bf 84 72 aa 3f a8 f2 a7 3f
       -1.3470508 -0.7495493 1.3316197 1.3120928
0000e0 b2 59 15 40 9b e9 24 3f 16 6a fc 3e 21 dd 9c 3f
       2.3335996 0.64418954 0.49299687 1.2254983
0000f0 db ed 8f be 58 01 ad be 16 a3 4a bf 40 8e 0f 3f
       -0.28111157 -0.33790088 -0.791551 0.5607643
000100 23 f1 5d be 05 1f c7 3f 2c 53 7c bd 96 ff 1b bf
       -0.21674018 1.5556341 -0.061602756 -0.6093687
000110 a3 1e 4d 3f 22 0d 5b be 7d fb 9a be c3 76 82 bf
       0.8012487 -0.21391729 -0.30269995 -1.0192493
000120 27 c9 43 bf fa 11 c5 bf 4d c1 17 3f 7f 4e 51 bf
       -0.7647881 -1.5396111 0.5927933 -0.817604
000130 03 6c 94 bf 80 01 d3 3f aa 93 2c bf 06 0a 4b bf
       -1.1595463 1.6484833 -0.6741282 -0.7931217
000140 5e f1 af bd 7f d1 f6 3e 55 20 ba 3f da 0c cd 3f
       -0.08590959 0.48206708 1.4541117 1.6019547
000150 75 03 12 3f 6f 78 a5 3e d9 fc 89 bf 3a 2c 4c bf
       0.57036525 0.32318446 -1.0780288 -0.79754984
000160 db 6c b6 be 23 12 90 bf 34 a4 94 3f 01 44 e8 3f
       -0.35629925 -1.1255535 1.1612611 1.8145753
000170 35 8b bb 3f b1 e9 5f 3f b1 ec 1a 3f d6 db be 3e
       1.4651858 0.8746596 0.6051741 0.37277097
000180 79 74 ce bf 8e 0d 6d bf e6 01 f6 3e 21 b9 9c bd
       -1.6129295 -0.9259881 0.48048323 -0.07652498
000190 03 fe 98 3e 69 32 71 3f d6 13 14 bf 9a 5e 23 bf
       0.29881296 0.94217545 -0.5784277 -0.63816226
0001a0 28 df 06 3d f3 73 9a bf a0 05 a8 bf d0 7f b2 3e
       0.032927662 -1.2066635 -1.3126717 0.34863138
0001b0 80 58 ad bf 68 5e 3d bf 5a 54 66 bf e1 e7 81 bd
       -1.3542633 -0.7397218 -0.8997246 -0.063430555
0001c0 ec 56 fb 3e 6d 9f b2 be 0e fd 0f 3e c1 63 1a 3e
       0.49089754 -0.34887257 0.14061376 0.15077116
0001d0 4a d9 e5 be df 51 78 be 38 ce 11 3f 2f f0 40 3f
       -0.4489234 -0.24249981 0.5695529 0.7536649
0001e0 8c 88 26 40 a7 8a dd 3f ad 43 1a 3f f9 a1 e8 3f
       2.6020842 1.7307938 0.60259515 1.817443
0001f0 fa 2b 91 3f 24 cd 03 3f 47 61 c5 3e 0e 06 c8 be
       1.1341546 0.51484895 0.3855078 -0.3906712
000200 5c ca 1e 3e 0c 0a 2b 40 de b1 07 40 7c 88 61 3f
       0.15506881 2.6724882 2.1202312 0.88098884
000210 fb 06 d7 3f b8 34 91 3f e6 de 0f 3f 04 b3 99 bf
       1.6799005 1.1344213 0.5619949 -1.2007756
000220 55 d8 3c 3f 0b 3b 94 be d8 2e 5c bf 77 bc b2 be
       0.73767596 -0.28951296 -0.8600898 -0.34909412
000230 34 7c f1 be 41 b7 6e bf 2d f0 68 bf 35 5a d2 3e
       -0.47165072 -0.93248373 -0.9099148 0.41084448
000240 06 80 9f 3f df 33 ee 3f 0c 25 9e 3f c4 7c 21 3e
       1.2460945 1.860958 1.2355056 0.1577025
000250 8b 86 18 3c 75 e4 50 be 46 9c 81 bf bf 97 9a bf
       0.009309421 -0.2039965 -1.0125816 -1.2077559
000260 ad 98 1b bf 3e 56 c2 3f c6 c2 8b 3f 6e dd 70 3d
       -0.6077984 1.5182569 1.0918815 0.05880492
000270 f8 8d db be 53 9a 9c 3d 9e a6 08 bf c9 44 83 bf
       -0.4288175 0.076466225 -0.5337924 -1.0255367
000280 14 5d 87 bf 2f 4f 14 bf 69 18 01 bd b9 e5 bd 3e
       -1.057528 -0.57933325 -0.03151742 0.37089327
000290 69 15 a3 3f b5 63 4d 3f 40 50 aa 3e 79 03 3b 3f
       1.2740909 0.80230266 0.3326435 0.73052174
0002a0 0a 8a b2 3f c2 05 83 3e 3d 62 36 3f ce 6e 8f bf
       1.3948376 0.2559033 0.7124365 -1.120569
0002b0 bb 1a 35 bf 3d 82 97 bd 01 a1 fe be fc 0d 36 be
       -0.7074391 -0.07397888 -0.4973221 -0.17778772
0002c0 ae 9a 40 3f ca 72 14 bf 76 28 63 bf 2a 5f 0e 3f
       0.7523602 -0.57987654 -0.88733613 0.5561396
0002d0 fb 10 48 c0 6c e7 fa bf 02 82 4b bf 0a 6e d6 be
       -3.1260364 -1.9601874 -0.7949525 -0.41880828
0002e0 3c 1c ff bd b3 8d ad 3f 87 42 1f bf 60 48 e9 3d
       -0.12456557 1.3558868 -0.6221089 0.113907576
0002f0 8f ce c8 3f d8 f5 8b 3f 9f c3 37 3f 98 62 3c 3e
       1.5688037 1.09344 0.7178287 0.18396986
000300 ad 77 26 be 2d 06 3b bf 40 38 d0 bf ad f9 a9 3e
       -0.1625659 -0.730563 -1.6267166 0.331983
000310 f4 98 21 3e 7b b5 06 c0 ad fa 8b 3f 0f 0e aa 3f
       0.15781003 -2.1048267 1.0935875 1.328554
000320 28 66 01 40 11 72 15 bf 74 06 ae bf e3 df 9d bf
       2.0218601 -0.58377177 -1.3595719 -1.233395
000330 d9 3a 8d 3e 52 7b a1 3b c9 ef 3b be 33 b0 a5 3f
       0.2758396 0.004928031 -0.1835319 1.2944397
000340 fb ff 9c 3f f6 59 c4 3f 68 b9 e3 3e 5a 50 9d be
       1.2265619 1.5339954 0.4447739 -0.30725366
000350 36 58 82 be 0b 23 16 3f c3 99 8e 3f 23 e9 a4 3f
       -0.25457925 0.5864722 1.1140674 1.2883648
000360 d6 15 79 3e ef 73 d9 3e 63 c6 88 3e 02 ee 23 be
       0.24324736 0.42471263 0.26713857 -0.16008762
000370 8b 65 92 be d0 ac b3 bf 80 71 dc 3e 38 33 c4 3d
       -0.28593096 -1.4037113 0.43055344 0.09580082
000380 46 97 b4 bf bf 93 cb 3e 1e 2d 25 3f 6d d0 37 3f
       -1.4108665 0.3976116 0.6452197 0.7180241
000390 a5 62 de bc d2 83 da be e0 94 0c bf 9b 1d 63 3f
       -0.027146647 -0.42678696 -0.54914665 0.8871705
0003a0 4d e9 5d 3f 69 2a 27 3f a4 df 4a 3f 23 87 eb 3e
       0.86684114 0.6529909 0.792475 0.4600154
0003b0 e2 6c f6 3e 89 a6 62 3f 3e 2a eb 3d 45 56 f1 3c
       0.48129946 0.8853536 0.114826664 0.029460082
0003c0 64 c7 bd 3f cb 0f 9d 3f 09 f2 84 3f 87 a8 0f bf
       1.4826474 1.2270445 1.0386363 -0.5611653
0003d0 75 7b 8d bf d1 1f 92 bf 93 a9 8f bf 98 eb f5 be
       -1.1053301 -1.141596 -1.1223625 -0.48031306
0003e0 19 e5 65 bf a7 0e 92 bf b5 b2 e0 bf ff 53 37 c0
       -0.898027 -1.1410722 -1.7554537 -2.8645017
0003f0 53 f8 33 3f a8 f4 8a 3f 70 e0 5b 3e e5 3a 3b bf
       0.7030079 1.0855913 0.21472335 -0.7313674

down_convs.2.conv1.bias f4 [12]
000000 bc 16 9a bd 62 25 96 3d b9 af 1f bd 50 98 b0 3b
       -0.075238675 0.07331349 -0.03898594 0.005389251
000010 96 98 84 3c dd 24 73 36 c9 bc d2 39 a2 32 e9 3b
       0.01618604 3.623128e-06 0.00040194977 0.0071166316
000020 cc 3c 1c 3d 52 f1 fb ba d9 c9 3e b8 10 cb 28 be
       0.038143918 -0.0019221699 -4.5487515e-05 -0.16483712

down_convs.2.conv2.weight f4 [12, 12, 3, 3, 3]
000000 6a d1 b6 3f 11 59 8b bf 14 15 f1 bf c5 4c d6 3e
       1.4282658 -1.0886556 -1.8834558 0.41855446
000010 30 a3 d5 bf 0d e4 55 c0 07 c2 10 3e de b2 ac bf
       -1.6690426 -3.342044 0.14136516 -1.3492086
000020 1c 98 f1 bf 94 03 c7 3e cf d8 bc bf 70 51 01 c0
       -1.8874545 0.38869917 -1.4753665 -2.0205956
000030 79 54 ae 3f dd 6d 13 bd 81 e0 96 bf 48 35 9b 3f
       1.3619529 -0.035993446 -1.1787263 1.2125635
000040 a3 4d 19 3f 65 45 41 3e 6c e7 2b 3f 5b d4 89 3f
       0.5988409 0.18874128 0.67149997 1.0767931
000050 98 a6 82 3f a3 fb a0 3e cb 77 8b 3f 6e 0c 40 3f
       1.020709 0.31441984 1.0895933 0.75018966
000060 78 61 bc bf f9 24 ee bd 9b 90 b8 be d7 71 d5 3e
       -1.4717245 -0.11628146 -0.36047825 0.41688415
000070 26 b8 fb be 2f aa db be d5 da 96 3e 1c 1e 5b bf
       -0.49163932 -0.42903277 0.2946383 -0.8559282
000080 66 86 7b bf 7d 97 10 c0 4a a1 76 bf 7f 2d 0c c0
       -0.9825195 -2.259246 -0.9633986 -2.1902769
000090 8b 1e 7c 3f 23 06 82 bf 2d c2 86 bf 4d c2 1f 3f
       0.98484105 -1.0158123 -1.0528008 0.62405854
0000a0 2b 5a b5 bf 70 f8 ec bf bc 18 34 bf ae 2f 88 be
       -1.4168142 -1.8513317 -0.7035024 -0.26598877
0000b0 f3 29 34 bf e5 14 a7 3f 2d f7 b2 3e ab 7b 68 3f
       -0.7037651 1.3053252 0.34954205 0.908137
0000c0 f5 df 6d bf c9 ea a0 bf 14 e5 97 3e 9b 98 03 c0
       -0.92919856 -1.2571651 0.2966696 -2.0561893
0000d0 a9 41 2f c0 4c 33 b8 bf 9b c9 a2 3f 1d 65 88 3e
       -2.7383826 -1.4390655 1.2717775 0.26639643
0000e0 98 fb af 3f af 64 99 be 0a 4d cc bf 6e c2 0b bf
       1.3748655 -0.29959628 -1.596101 -0.5459355
0000f0 0e b7 b3 bd aa b3 ca be 2e ad fc be b0 53 ae 3f
       -0.08775149 -0.39590198 -0.49350876 1.3619289
000100 d2 55 99 3f 44 23 b8 3f 53 5b 08 bf dd b5 2e be
       1.1979315 1.4385762 -0.5326435 -0.17061563
000110 70 38 dd 3e ba 2c 9d be cb e9 89 3e 14 c2 1d 3f
       0.4320712 -0.30698186 0.26936182 0.61624265
000120 4b f6 9f be db ec d4 3e c6 a6 02 3f bb ab 98 bf
       -0.31242594 0.41586956 0.51035726 -1.1927408
000130 cc 1c 71 bf 1b 6d cb be 07 10 03 3e 7a cd 19 3e
       -0.94184566 -0.39731678 0.12799083 0.1501979
000140 78 5e 90 3f c5 65 61 be 17 71 b3 3e be f4 03 3f
       1.127883 -0.22011478 0.35047218 0.5154532
000150 db d7 b1 3f db 8a 37 3f 7b bc 02 3f 8f 3b 08 3e
       1.3893999 0.7169625 0.5106885 0.1330397
000160 1e 96 c8 bf 0c 59 df bf ae 9d 0e be 57 79 3b bf
       -1.5670812 -1.744905 -0.13927338 -0.73232025
000170 1b f9 b1 bf 8c 2d 9a 3f 47 7e 92 3f 31 3c 07 3e
       -1.3904146 1.204515 1.1444787 0.13206555
000180 a1 4f 34 3f ae 1a f0 3e 94 17 71 bf bd 5f 6c bf
       0.70434004 0.46895355 -0.941766 -0.92333585
000190 44 ad db bd 76 af 12 c0 f7 71 30 3f bf d3 ce 3f
       -0.10726407 -2.2919593 0.68923897 1.615837
0001a0 6c a3 a2 3e 94 63 0d 3f 18 43 cd 3d b3 39 34 bf
       0.31765306 0.5523007 0.10022563 -0.7040054
0001b0 a7 80 71 bf 1f 6f a8 bf bd 82 37 3e f6 9b 6b 3c
       -0.9433693 -1.3158911 0.17920966 0.014380446
0001c0 4e 9e 94 3f 0d d2 c0 3f 04 9d 9d 3e 09 35 87 3e
       1.1610811 1.5064102 0.30783856 0.2640765
0001d0 2a aa bc be d7 dc b2 bf c9 14 9c bf ac 51 f6 3e
       -0.36848575 -1.3973645 -1.2193843 0.48109186
0001e0 ec 4a 07 bf aa 66 01 3f 77 16 af 3f f2 6a bd 3e
       -0.52848697 0.5054728 1.3678731 0.36995655
0001f0 1e 93 9c 3e 77 f4 e8 3d 5a 46 c6 bf 2e b4 fd bf
       0.30580992 0.11374753 -1.549022 -1.9820611
000200 56 65 cd be 72 02 79 bf f6 53 97 be a3 54 2a 3f
       -0.40116376 -0.97269356 -0.29556245 0.66535395
000210 81 6a 10 3f af 3b 01 be a5 0a 54 be 54 01 e4 bd
       0.5641251 -0.12620424 -0.20707186 -0.11133066
000220 c7 19 0f be 88 d2 0f be d1 e4 2e be 94 8b 92 be
       -0.13974677 -0.14045155 -0.17079474 -0.28622115
000230 27 d6 4c be 8b 9e bc 3b 06 04 e8 bd 36 bb e1 bc
       -0.20003568 0.0057562045 -0.113288924 -0.02755509
000240 aa 34 92 be 41 22 be be 29 ea 03 be d8 a8 b5 be
       -0.28555804 -0.3713551 -0.12882294 -0.3548038
000250 00 0f 6b be 11 72 04 be c0 16 75 3c 4a c1 2e be
       -0.22954941 -0.12934138 0.014959037 -0.17065921
000260 52 38 46 3c ee 48 9f be 03 74 8e be d4 2f 80 be
       0.012098389 -0.31110328 -0.27822885 -0.2503649
000270 bd 6a 9c be 03 be e0 be af cc 5a be 11 00 5b be
       -0.30550185 -0.43894967 -0.21367143 -0.21386744
000280 9f 16 92 be 58 04 58 be c5 f3 41 3e eb cc 8f bf
       -0.28532884 -0.21095407 0.18940647 -1.1234411
000290 fc 91 86 c0 ee ae a1 3d 23 6f b3 be 8b db a8 bf
       -4.2053204 0.07894693 -0.35045728 -1.3191999
0002a0 b2 a2 63 be 8c 4d 5e bc dd 93 2b bf e3 3d 71 be
       -0.22230032 -0.013568293 -0.67022496 -0.23558764
0002b0 c8 6e 84 bf a2 86 0c c0 bb 29 36 bf 66 54 ad bf
       -1.0346308 -2.1957173 -0.71157426 -1.3541381
0002c0 a2 7e 32 bf 27 26 73 be 86 27 53 3f 57 bf be 3e
       -0.69724476 -0.23745023 0.8248218 0.37255356
0002d0 eb 6c 9f bf bd 85 85 bf fa 56 df 3e 28 0d b0 3d
       -1.2455114 -1.0431439 0.43621045 0.08596259
0002e0 d6 8e c0 be 06 d5 a5 3f 08 75 06 c0 41 09 24 3f
       -0.37608975 1.2955635 -2.100893 0.6407662
0002f0 96 b8 69 3f 3a e9 fa 3e 30 31 04 bf 9a ac fb bf
       0.9129728 0.49006063 -0.51637554 -1.9662049
000300 fc 70 d7 bd f7 75 92 bf 40 4a d0 bf 2a 11 06 bf
       -0.10519597 -1.144225 -1.6272659 -0.5236994
000310 0b de 4f 3f 90 3f df 3f a0 11 49 3f 4c 91 d4 be
       0.81198186 1.7441273 0.7854252 -0.41517103
000320 23 85 73 bf ad 03 4a be da c9 94 bf e9 e0 b3 bf
       -0.95125026 -0.19727965 -1.16241 -1.4053012
000330 ad 95 61 bf 9b 86 21 3f 0c a6 c8 3f 58 4e 0b 3f
       -0.8811901 0.63096017 1.5675673 0.5441642
000340 af 89 7f be 32 c3 bd be 6c 0e 2f bf c4 91 8f bf
       -0.24954866 -0.37062985 -0.6838138 -1.1216359
000350 29 c1 fc be 08 b2 df bf 33 a6 1c be 24 0a 7e 3f
       -0.4936612 -1.7476206 -0.15297775 0.99234223
000360 11 24 24 bf 1a 58 bb bf cf fc 0d c0 cb 73 48 bf
       -0.6411753 -1.4636261 -2.2185552 -0.78301686
000370 8b 2c 3b bf b0 49 8a be b7 f1 f7 be 00 f6 38 be
       -0.7311484 -0.27009344 -0.484266 -0.18062592
000380 e6 2e b0 3e 68 f5 11 3f ea 8e e5 bd f4 76 c7 bf
       0.3441078 0.57015085 -0.11208899 -1.5583177
000390 0e 83 eb 3e 86 6e 2a be 65 e5 ca 3e 4f 77 9e be
       0.45998424 -0.16643724 0.3962814 -0.309504
0003a0 1f f2 83 be ab bc 67 3f 90 64 c6 be 7e d8 0f 3f
       -0.2577066 0.9052226 -0.38748598 0.56189716
0003b0 e6 c3 2f bf ba 64 f1 bf 8b 73 01 bf 8e aa 34 3f
       -0.6865829 -1.8858864 -0.5056693 0.70572746
0003c0 34 33 29 c0 98 c5 fa bf d1 e3 8a 3f 2f 5f 56 3e
       -2.6437502 -1.9591551 1.0850774 0.20934747
0003d0 4c 5a e8 3f 24 ad 40 3f 11 04 d3 bf c1 49 8b be
       1.8152556 0.7526419 -1.6485616 -0.27204707
0003e0 14 19 69 3e 22 20 00 c0 34 df 40 c0 34 2f 57 c0
       0.22763473 -2.0019612 -3.0136232 -3.362256
0003f0 c0 e6 9c 3e 18 6e 9e 3f 4b 60 cf 3f b9 57 b6 be
       0.30644798 1.2377348 1.6201261 -0.35613802

down_convs.2.conv2.bias f4 [12]
000000 24 01 1d 3d 3a 57 e9 bd 03 a1 12 bd 55 95 12 3c
       0.038331166 -0.1139359 -0.035798084 0.008946736
000010 d1 c6 e1 38 ed 8f 4d bd f1 9d 5a bd 30 54 f0 3c
       0.000107658685 -0.050186086 -0.05337328 0.029337019
000020 78 4b d2 3c e4 ce af 3d 9b 1b 37 bd 93 bf 06 3d
       0.025670752 0.08584383 -0.04470406 0.032897543

down_convs.2.norm0.weight f4 [12]
000000 8b 2c 05 40 0c 1c f1 3f ed d6 c1 3f 0a ca 02 40
       2.0808437 1.8836684 1.5143715 2.0435815
000010 e6 ab 87 3f 7f 9c a3 3e ba 70 f7 3f 35 7d a9 3f
       1.0599334 0.31955335 1.9331276 1.3241335
000020 59 24 cd 3f 3b 27 b8 3f 02 65 bb 3e c0 85 d0 3f
       1.6026717 1.4386972 0.366005 1.6290817

down_convs.2.norm0.bias f4 [12]
000000 3b 98 27 bf 65 88 ad be 6b e4 8f 3e a7 a2 1e bf
       -0.6546666 -0.33893123 0.28103957 -0.6196694
000010 c2 57 34 bf 8f c8 1e bf 01 5e 90 3d 91 88 f5 be
       -0.7044641 -0.6202478 0.0704918 -0.47955754
000020 4a 6e 7a bf 70 df 16 be ce 7a 07 bf ad 10 4e 3f
       -0.9782454 -0.14733672 -0.5292176 0.80494195

down_convs.2.norm0.running_mean f4 [12]
000000 87 4d 96 41 ab aa fd c0 73 22 4b 40 ba a3 33 c2
       18.787855 -7.9270835 3.1739776 -44.90989
000010 9e 78 bf 40 61 0d 85 c1 f4 db 91 c1 84 b2 56 41
       5.983474 -16.631533 -18.232399 13.418583
000020 49 91 d1 c0 0e cb 5d c1 31 6a 18 c1 9e 9f 0d c0
       -6.548985 -13.862074 -9.525926 -2.2128673

down_convs.2.norm0.running_var f4 [12]
000000 b1 32 32 44 52 93 76 44 a4 45 eb 43 8b cf 22 44
       712.79205 986.3019 470.54407 651.24286
000010 3a 2c 65 44 45 be d1 43 9b 04 b7 43 9d 24 63 44
       916.69104 419.48648 366.03598 908.5721
000020 20 0a 04 44 d7 9d 4d 44 e2 1d 5b 43 e7 47 a4 43
       528.1582 822.46625 219.11673 328.56174

down_convs.2.norm1.weight f4 [12]
000000 48 7c 06 40 bb 29 5b 40 d7 12 a0 3f 48 73 aa 3f
       2.1013355 3.424422 1.250575 1.3316431
000010 92 3e d8 3f a0 01 17 40 d7 9a fa 3f d4 42 dd 3f
       1.6894095 2.3594742 1.9578503 1.7286019
000020 dc 35 ba 3f f5 be e4 3f b9 e4 c8 3f 1f bb b5 3f
       1.4547687 1.7870775 1.5694801 1.419773

down_convs.2.norm1.bias f4 [12]
000000 dc b9 95 bf 26 9d a6 bf 2c 90 84 be 29 7e 91 bf
       -1.1697345 -1.3016708 -0.25891244 -1.1366626
000010 9a cf d1 be 3f 48 0d bf 8b 4a 04 bf 89 0f 90 bd
       -0.409787 -0.55188364 -0.51676244 -0.07034213
000020 5a 95 2a bf 93 99 3a bf 12 1e ad bf 40 11 aa bf
       -0.6663414 -0.72890586 -1.3524802 -1.3286514

down_convs.2.norm1.running_mean f4 [12]
000000 54 d9 08 c2 ee 06 f7 c1 6d 5d 9e 41 d9 c8 46 c1
       -34.212234 -30.878384 19.795618 -12.424035
000010 cc 04 23 c1 6c dd 68 c1 2e 3b e1 c1 6c b0 e6 c1
       -10.188671 -14.554058 -28.153896 -28.836143
000020 7b 01 06 c0 ff ba 0f c2 e0 34 af c1 26 73 be c1
       -2.0938404 -35.932613 -21.900818 -23.806225

down_convs.2.norm1.running_var f4 [12]
000000 27 53 27 44 f8 92 a4 44 03 25 05 45 27 84 aa 43
       669.29926 1316.5928 2130.3132 341.03244
000010 2a 39 69 44 c2 92 22 44 1a 43 67 44 ac 1d ef 43
       932.8932 650.2931 925.04846 478.2318
000020 d9 48 2f 44 4e df 1a 44 ca 64 e5 43 90 89 b0 43
       701.13824 619.48914 458.7874 353.0747

down_convs.3.conv1.weight f4 [24, 12, 3, 3, 3]
000000 d9 4b f0 bc aa d8 61 3f b6 ba 04 3e 2d b0 5d 3f
       -0.029333042 0.8822123 0.1296185 0.8659695
000010 2c da a1 be 90 30 e9 bf cf 41 ff bf 28 97 ca bf
       -0.31611764 -1.8217945 -1.9941958 -1.5827379
000020 46 2d e9 bf 09 e2 26 bf 91 2e 58 3f ac 53 a9 bf
       -1.8216941 -0.6518865 0.84446055 -1.322866
000030 c6 cd 89 3f b6 2f 77 be e6 72 9f bf 60 98 2c 3f
       1.0765922 -0.24139294 -1.2456939 0.67420006
000040 a3 69 52 bf 35 11 39 3f 21 4b d2 3c 6b 07 36 3f
       -0.8219244 0.7229188 0.02567059 0.7110507
000050 c6 ba eb bd 6b 88 28 3d 33 29 c1 3e 23 48 4d bf
       -0.115102336 0.041145723 0.37726745 -0.80188197
000060 4b b1 f4 3f 3a aa ca bd 2c 19 ea bd 6d f1 1e c0
       1.9116606 -0.098957494 -0.114305824 -2.4834855
000070 cd f1 68 bf 27 31 3c c0 2a 6c 13 c0 fc 7d a2 3f
       -0.9099396 -2.9405 -2.3034768 1.2694697
000080 6a 0c 13 3f 7a 83 54 bf 5a bd 0b 40 c2 6e 6f 3f
       0.5744082 -0.8301312 2.183432 0.9352838
000090 75 18 7e 3d 87 40 22 3f 6b 74 c2 3e 81 96 90 be
       0.062035043 0.6337971 0.37979445 -0.28239825
0000a0 7b 55 0b 3e 85 67 49 3d ab 4d 8a bf 2c b0 35 be
       0.13606827 0.04917099 -1.0804952 -0.17742985
0000b0 5e 63 17 bf 44 95 99 bf 81 ba 23 bf 53 7a cd bf
       -0.59136 -1.1998677 -0.6395646 -1.6052955
0000c0 1c a5 18 40 d5 6b b9 3f e7 5e e7 3f 5d 14 5d 40
       2.3850775 1.4486033 1.8075837 3.4543679
0000d0 da 10 c3 3f cb a8 d4 bf 5e 00 ba be 3f 0e 11 bf
       1.5239518 -1.6614012 -0.36328405 -0.5666236
0000e0 d3 b9 0e 3f 9b f0 a4 bf 0d bc fa bf 0c 66 c0 be
       0.55752295 -1.2885927 -1.9588639 -0.37577856
0000f0 aa 50 96 3f f8 12 01 be b9 b1 bb 3e b7 9a e3 3c
       1.1743367 -0.12604892 0.3665903 0.027783735
000100 d9 e6 e9 be 6e eb 58 be 2c c0 90 bd 3d 22 74 bf
       -0.45683935 -0.2118356 -0.07067904 -0.95364743
000110 e1 35 2f bf 6a 82 51 40 a5 5a 2d 40 37 b3 fb 3f
       -0.6844159 3.2735848 2.7086575 1.9664067
000120 90 af 83 3e 6e 9f 65 3e 06 15 b8 3e 22 01 97 bf
       0.2571988 0.22424099 0.3595354 -1.1797221
000130 40 79 8b bf 7e 6b 8e bf 8e 26 b7 3f b3 1a f8 3f
       -1.0896378 -1.1126554 1.4308641 1.9383148
000140 ec 2e 99 3f 24 93 b3 bf b6 41 5a be 39 43 17 c0
       1.1967444 -1.4029279 -0.21314129 -2.363478
000150 c0 52 02 3d 6e cc 0a be 14 c5 e0 bf 29 ee a5 3f
       0.031817198 -0.13554546 -1.7560143 1.2963306
000160 c8 47 1d 3e c7 1c 85 3e d7 6b 5b bf da c0 86 bf
       0.15359414 0.25998518 -0.85711426 -1.0527604
000170 8f 47 8b bf fb 28 a6 bf 2e dd 91 bf 28 8d de bf
       -1.0881213 -1.2981256 -1.1395624 -1.7386827
000180 3f e7 c1 3e e8 06 e5 bc 1b 63 d3 3e 3d 27 a4 be
       0.3787174 -0.027957395 0.4128655 -0.32061186
000190 7b 4f 1e 3f 0c a6 f0 3d dd 17 42 bf 31 28 a4 be
       0.6184003 0.11750421 -0.7581766 -0.32061914
0001a0 2a a0 33 be b7 dc bd 3e e9 a5 3d 3f 43 59 a3 3f
       -0.17541566 0.37082455 0.74081284 1.2761616
0001b0 81 ee c3 bd 62 e2 4c 3f d6 80 83 bf fa f3 18 bf
       -0.095669754 0.8003293 -1.0273693 -0.5974728
0001c0 0e 08 9b 3e 47 8a bf 3e eb 6f a2 bf 74 59 72 bd
       0.30279583 0.37410185 -1.2690405 -0.05916734
0001d0 a1 e4 9f be 11 77 07 3f 10 5a 8f 3f b7 90 01 3e
       -0.31229118 0.52916056 1.119936 0.1265286
0001e0 b7 6f 40 be 2f d0 34 3f 86 ea 9d 3f f3 15 84 bd
       -0.18792616 0.7063016 1.2337196 -0.06449499
0001f0 21 60 eb be c7 f1 e0 be 3e 86 d4 bd 79 b5 08 3d
       -0.45971778 -0.4393446 -0.10377167 0.03337619
000200 2a be d3 bf db 30 52 be 23 14 15 bf d0 e6 a2 be
       -1.6542408 -0.2052645 -0.5823385 -0.3181672
000210 06 45 17 3f 22 e2 be bf 43 b2 20 c0 67 ba 45 3f
       0.59089696 -1.491276 -2.5108802 0.7723755
000220 b1 71 09 3f 55 0e 50 bd b1 fe 07 3f 85 2e e9 3e
       0.53689104 -0.050794918 0.53123003 0.45543304
000230 d7 51 70 3f a6 11 3b bf be 39 f7 be 42 ef 48 bf
       0.9387488 -0.73073804 -0.4828624 -0.7849008
000240 c5 d1 e2 3e 5d b9 d4 be c9 68 c0 3f 22 0c f2 be
       0.44300666 -0.4154767 1.5031978 -0.47274882
000250 f9 9d a0 bf 20 dc ec be 89 f2 11 3f cd b9 c7 bf
       -1.254821 -0.46261692 0.57010704 -1.5603577
000260 7a 91 f5 bf a1 d1 11 40 9f 82 32 40 04 ae 1d 40
       -1.9185021 2.2784197 2.7892225 2.463746
000270 68 f7 1e 3d ab db 61 3e b0 cd f9 3e 28 21 09 40
       0.038810164 0.22056453 0.4878974 2.1426487
000280 d9 99 aa 3f 88 3b bd 3f 81 df c8 be b0 75 98 bf
       1.33282 1.4783792 -0.3923302 -1.1910915
000290 a7 01 91 be 3c bb b6 bf bd ba e7 bd af 0c f0 bf
       -0.28321573 -1.4275889 -0.113149144 -1.8753871
0002a0 0c 7c 76 3e 19 c9 ea 3e 29 65 0f 3f b8 fd 46 3f
       0.24070758 0.4585655 0.56013733 0.77730894
0002b0 84 96 c7 3d e7 f5 3b 3f c5 e2 8e 3f 31 07 89 3f
       0.097455055 0.7342209 1.1162955 1.070532
0002c0 75 35 b1 be 34 62 80 3e f0 e3 21 3f e6 1b a7 be
       -0.34611097 0.25074923 0.6323843 -0.32638472
0002d0 99 45 29 3f 51 e6 64 bf 2e 81 fa 3f 39 11 3b bd
       0.6612182 -0.89413935 1.9570673 -0.04567072
0002e0 19 2b 89 bf da 0c 52 bf 09 15 bf 3f 15 ea a0 3b
       -1.0716277 -0.8205086 1.4928294 0.0049107173
0002f0 85 f0 bd 3e 72 96 e6 bf d3 03 59 3e b8 9e 21 3f
       0.37097564 -1.8014662 0.21192865 0.6313281
000300 31 00 ff bf c3 df ba be c9 32 9b bf 1e b9 cb 3e
       -1.9921933 -0.36498842 -1.2124873 0.3978967
000310 40 f1 39 3f e9 66 a3 3f 83 cd 98 bf 7e e7 26 bd
       0.72633743 1.2765781 -1.1937717 -0.040748112
000320 e7 ac 8e 3e 77 c8 d9 bf 90 e1 f6 bf 59 2b 3d c0
       0.2786629 -1.7014302 -1.9287586 -2.9557707
000330 eb 8a ec be dd 75 28 bf 78 29 33 bf 41 cd 89 bd
       -0.46199736 -0.65804845 -0.6998515 -0.06728602
000340 45 78 d3 bd 91 67 fd 3b 5e 03 ee bf 71 d2 8d bf
       -0.10325674 0.0077332933 -1.8594778 -1.1079847
000350 25 01 3c bf 25 39 0c 3f 3f 10 24 bf 3c e5 2d bf
       -0.73439246 0.54774696 -0.6408729 -0.6792791
000360 16 a1 d4 bf 20 4b 00 c0 13 73 1c c0 0c bd 6a 3f
       -1.661166 -2.0045853 -2.4445236 0.9169471
000370 be df 84 3f 61 b7 a2 3e 32 43 2a 40 df 6a 22 40
       1.0380781 0.31780532 2.6603513 2.537773
000380 68 58 10 40 8b 75 97 3e 24 47 6a be d6 9f 81 bf
       2.255396 0.29581866 -0.228787 -1.0126903
000390 54 49 90 3f 07 93 ad 3f ee 2a 9c 3f 53 30 03 40
       1.1272378 1.3560494 1.2200601 2.0498245
0003a0 bc 2b b1 3f 54 a7 7a 3f 98 ed d2 3e 01 cd 2e 3f
       1.3841472 0.9791157 0.41196895 0.6828156
0003b0 e4 d1 30 3d 06 e6 47 3f d1 0c 68 3f f9 35 80 3f
       0.043168917 0.7808536 0.90644556 1.0016471
0003c0 5c 1d 8f 3f 0d ca 2a 3f 9b 26 18 3f 05 c1 1f c0
       1.1180835 0.66714555 0.5943391 -2.496156
0003d0 0f a1 a2 bd 32 a4 ca 3d 6a f0 71 bf 9c d3 71 bf
       -0.07940876 0.09894599 -0.9450747 -0.94463515
0003e0 1a 93 d5 3e 80 93 75 be 3a c8 65 bf b2 9e b8 bf
       0.41713792 -0.23982048 -0.89758646 -1.442343
0003f0 2c bd 6d bf a8 28 b9 bf 82 1e fe bf 9c 99 97 3f
       -0.9286678 -1.4465532 -1.985306 1.1843753

down_convs.3.conv1.bias f4 [24]
000000 19 ad 8d bb 87 9e 6a bb 1c a3 a1 3b c8 7e e8 38
       -0.0043236134 -0.0035800056 0.004932774 0.00011086237
000010 a1 f1 5f 3c 26 b5 63 ba cd 7d 97 36 fa 6d 11 39
       0.013668449 -0.0008686356 4.514796e-06 0.00013869247
000020 5d d4 ad bb 25 a1 bc bb 56 cd 8c 3b 63 3f fd 3b
       -0.0053048567 -0.0057565146 0.004296939 0.0077285036
000030 35 fa 8c bb a1 1a e0 bc 68 25 5f b8 3c bc 8d ba
       -0.004302288 -0.027356448 -5.320218e-05 -0.0010813545
000040 6a 1e 65 bc e0 98 83 3c 86 b5 3b b8 6b bc 19 bb
       -0.013984302 0.016064107 -4.475333e-05 -0.0023458253
000050 16 23 ec b9 83 94 74 38 d1 e1 cc 37 16 ed 4e 38
       -0.0004503957 5.8312446e-05 2.4423849e-05 4.933503e-05
