outputs/outputs_new_full_mask/epoch_10_model.pth (torch, 694854 bytes, 241 tensors)

down_convs.0.conv1.weight f4 [3, 1, 3, 3, 3]
000000 92 a3 f3 be 62 1d 3c be 52 3c 70 be cc f1 90 be
       -0.47585732 -0.18370584 -0.2346051 -0.28309476
000010 78 69 6f be 42 6a a9 3c a1 c0 b8 bd b6 91 1b 3c
       -0.23380077 0.02068055 -0.09021116 0.009495189
000020 ad c1 09 be 69 a9 26 be 50 0c bd bd c4 b0 69 bd
       -0.13452788 -0.16275562 -0.09230864 -0.057053342
000030 b6 0f 8c be 9a 30 9a be eb fd 0a bd 2f 5b 23 be
       -0.27355736 -0.30115205 -0.03393356 -0.15952753
000040 48 f9 f5 bd a3 be 82 3c 82 55 6b bc cb ab 6a be
       -0.12010437 0.015960043 -0.014363648 -0.22917096
000050 ea 2b 08 be eb 41 a1 be d3 21 82 bd 5b 91 60 3e
       -0.13298002 -0.31495604 -0.06354108 0.21930449
000060 40 b9 3e 3e 48 fa 81 be c0 f5 4a be 12 ee de be
       0.18625355 -0.25386262 -0.19820309 -0.43541008
000070 15 24 bf bc c3 d0 ee 3e 82 c0 d3 be 4a 79 4d 3e
       -0.023332635 0.46643648 -0.4135781 0.200658
000080 3e 67 f4 3e 47 89 11 3d 39 06 5d 3e 30 e5 99 3e
       0.47735018 0.03553131 0.21584405 0.3005767
000090 86 f5 78 be e9 ca 57 3e 08 8f f0 3e b7 9a 59 be
       -0.2431241 0.21073498 0.46984124 -0.21250425
0000a0 87 0b 2e 3f 50 99 e1 3f f8 61 fe 3d 52 03 8d 3e
       0.6798634 1.7624912 0.1242103 0.27541596
0000b0 79 13 a2 3e e3 1c 36 be 7d 1f 86 3e 3c c6 d9 3e
       0.3165548 -0.17784457 0.261959 0.42534053
0000c0 2d f1 d0 be e9 0e 6d 3e be 1c 23 3f 3b 84 c1 3d
       -0.40809003 0.23150219 0.6371573 0.09449049
0000d0 76 83 fc 3d 50 85 6c 3e c2 bc 8d be d6 f7 c0 3e
       0.12329762 0.2309773 -0.27683073 0.37689084
0000e0 97 06 08 3f 26 90 9e bb 61 1c 0c 3e 5b 3d 0f 3f
       0.53135055 -0.004838961 0.136827 0.55952996
0000f0 bb 81 c1 bd b4 e4 14 3e 55 7d ec 3e 03 b0 60 be
       -0.09448572 0.14540368 0.4618937 -0.21942143
000100 bf 53 9d 3e 91 53 8d 3e b1 ec fe bd 18 5e a4 3e
       0.30727956 0.2760282 -0.12447489 0.32103038
000110 86 db 0f 3f f2 7b 8c 3e 39 5c fb 3e 89 ff 85 3f
       0.5619434 0.27438313 0.49093798 1.0468608
000120 ce d2 ab be 6a d7 e0 bd 00 ba 52 3e 8e 1e 05 bf
       -0.3355927 -0.10978587 0.20578766 -0.5199975
000130 63 28 1a be 81 ec 15 3e 40 38 0a be 16 f6 85 3e
       -0.15054469 0.14641 -0.1349802 0.2616431
000140 fc 51 ba 3d
       0.090976685

down_convs.0.conv1.bias f4 [3]
000000 e8 58 f1 39 9c e2 2e 3b 4d 20 a8 bc
       0.00046033342 0.0026685363 -0.020523215

down_convs.0.conv2.weight f4 [3, 3, 3, 3, 3]
000000 79 25 9a bc 75 f8 3c 3d aa ad fb bd f9 9e 35 3e
       -0.018816696 0.046135385 -0.12288983 0.17736425
000010 c6 5c 65 bd 16 5a 0a be 29 28 f0 bd 74 42 e9 bd
       -0.05599668 -0.13510928 -0.1172641 -0.11389628
000020 c7 81 73 3d 5a 7f c0 3e 91 b5 a2 bd 1e 18 13 bd
       0.059449937 0.37597162 -0.07944787 -0.03591167
000030 3e d7 82 3d 51 9d 22 be 38 a8 86 3d 3a 8c 36 3e
       0.063887104 -0.15880324 0.06575054 0.1782693
000040 1c 2e 3c 3d 10 63 51 be dc 7b 98 3d df ff 75 3e
       0.04594241 -0.20447946 0.07445499 0.24023388
000050 ff a9 21 3d 63 4b 71 bd bb 20 87 3d 87 fc c5 bd
       0.03946876 -0.058909785 0.0659804 -0.096673064
000060 70 ed 14 be af 8e 28 be dd 9c 17 3d a7 ab b1 be
       -0.145437 -0.1646068 0.03701483 -0.34701273
000070 12 74 ed be af a6 08 bf 45 c7 d9 3e 40 2b e1 bd
       -0.46377617 -0.5337934 0.42534843 -0.109945774
000080 88 65 18 bf 52 f5 39 3f 40 09 22 3e 85 c5 b6 be
       -0.59529924 0.72639954 0.15823841 -0.3569757
000090 39 e0 93 39 bc db d8 be 99 8b 12 bf 9a 6a ed 3e
       0.00028205084 -0.42355144 -0.5724426 0.46370393
0000a0 87 70 65 be b5 c3 f2 be 10 8a c8 3e 83 38 8b be
       -0.22406207 -0.47414938 0.39167833 -0.27191553
0000b0 c2 95 6a bf ac b4 5a bd 77 76 4f 3d 04 83 c7 be
       -0.9163476 -0.05339496 0.050650086 -0.38967144
0000c0 f5 62 17 3e 54 15 04 bf f0 8a bf be f8 9b e8 3e
       0.14783843 -0.51595044 -0.37410688 0.45431495
0000d0 29 b6 c4 be 87 c9 70 bf 0f b4 ab 3e c1 dd b5 3d
       -0.38420227 -0.94057506 0.3353581 0.08880187
0000e0 81 cf 2e be 64 a5 4d 3f 92 8b bb 3e fc 49 6a be
       -0.17071344 0.8033049 0.3662992 -0.22879785
0000f0 40 5c 10 3f c6 47 ea 3e 0f f5 78 be e9 4c 1a 3e
       0.5639076 0.45757884 -0.24312232 0.15068401
000100 83 37 3f bd a5 07 20 bf 40 59 11 3f c9 01 37 be
       -0.0466838 -0.62511665 0.5677681 -0.17871775
000110 59 12 15 bf 86 8b 17 3f e1 07 35 3e b1 32 3f bf
       -0.5823112 0.5919727 0.17678787 -0.74686724
000120 c7 19 52 3e 25 3e 85 be 97 99 ea be 86 0f 11 3f
       0.20517646 -0.26023975 -0.45820305 0.5666431
000130 c0 e8 2f be 8b d0 fa be 1f 10 c6 3e c3 cf ca be
       -0.17178631 -0.4898723 0.38684174 -0.39611635
000140 82 86 6b bf 7a 62 e8 bd c3 b6 69 be b0 c3 b3 bd
       -0.9200212 -0.11346908 -0.22823624 -0.08777559
000150 6c 40 c0 3d 38 85 db bd 0c 54 01 be d3 c7 0b bd
       0.093872875 -0.10718769 -0.12629718 -0.034126114
000160 21 c8 74 be 06 79 dd 3d 19 43 75 be cc 3a 20 bd
       -0.23904468 0.10814099 -0.23951377 -0.039118573
000170 0e 84 92 bd 74 6c 9c 3b e3 ed 07 be a7 c6 d8 bd
       -0.07154094 0.004773671 -0.1327434 -0.10584765
000180 8d ca bd be e4 7f 1d bd bc 2c e5 bd 2d 34 f6 bc
       -0.37068596 -0.038452044 -0.11190173 -0.030054176
000190 8f 73 b0 bc ab ad 72 bd 67 7d 9f bc c4 0d 12 be
       -0.021539478 -0.059247654 -0.019468976 -0.14263064
0001a0 79 93 79 bd 18 e6 7e bd ce 92 30 be 59 09 4d 3d
       -0.060931657 -0.062231153 -0.17243502 0.050057743
0001b0 7e c1 b6 be 4a cc 08 be d1 6b d0 be e1 0b 9b be
       -0.35694498 -0.1335918 -0.40707257 -0.302825
0001c0 19 61 08 3f 3e fb 2c be 37 fc 6c be 18 0e a3 be
       0.5327316 -0.16892716 -0.23143087 -0.3184669
0001d0 27 c2 9c be bd a6 8e be 3b 95 ae be b9 a1 55 be
       -0.30616876 -0.27861586 -0.3409823 -0.20862474
0001e0 f4 38 48 3d 48 53 ad 3e d5 5e 0a bf 0a 14 d6 be
       0.04888244 0.338526 -0.5405095 -0.41812164
0001f0 7c da eb be 34 9c ab bd 5a 5a 1d bf 71 fe ad be
       -0.46065128 -0.08379403 -0.6146599 -0.33983186
000200 38 fb 26 bf df a0 a6 be a7 ab a5 bc d9 e0 a2 be
       -0.6522708 -0.3254461 -0.020223452 -0.3181217
000210 94 63 0f bf 81 95 23 be 05 86 9c 3c ca cb cb be
       -0.5601132 -0.15975 0.019106874 -0.39803916
000220 0f db 86 be 43 49 08 bf 4e b9 a9 be b7 41 e8 be
       -0.26339003 -0.5323679 -0.3314919 -0.45362636
000230 11 0c 23 bf 93 ea 22 bf 2b 02 3b bf 6a 99 c7 be
       -0.63690287 -0.6363918 -0.73050183 -0.38984233
000240 20 11 8a be a4 25 6d be 13 22 21 bf c2 85 a2 be
       -0.2696619 -0.2315889 -0.6294262 -0.31742674
000250 86 53 b2 bd bd 32 a2 be 4f 5a 0b bf 35 9e 3f bf
       -0.08707337 -0.31679335 -0.54434675 -0.7485078
000260 23 7e dd be 03 a4 21 bf a4 b2 d1 be a4 28 1b bf
       -0.43260297 -0.6314089 -0.40956604 -0.6060889
000270 dc 2d 37 bf d5 eb b5 be 89 63 8d be 7d 54 75 bf
       -0.7155435 -0.35531488 -0.27615002 -0.95832044
000280 7e df 54 bf e1 ae fb be 22 39 f6 3d 07 0d 37 3d
       -0.8315352 -0.4915686 0.12022616 0.04469016
000290 8f 7a 87 bd 67 4a 5e 3c 7d a6 23 be 19 e6 87 bd
       -0.06615173 0.013567544 -0.15981479 -0.066356845
0002a0 38 e6 0e 3d 12 7f 5b be 35 f8 e8 bd 32 9b 3d 3e
       0.034887522 -0.21435192 -0.11375467 0.18516234
0002b0 eb 5f 62 bd 4a 12 e8 bc b0 b9 f3 bd 44 fe 42 bc
       -0.055267256 -0.028329033 -0.119006515 -0.011901442
0002c0 cd 40 07 be b6 ec 91 be 95 22 64 3d 2d 8e 16 be
       -0.13208313 -0.2850091 0.055697042 -0.14702673
0002d0 b5 07 9c 3d 83 85 3d be 63 e8 dd bd 60 22 6e bc
       0.076186575 -0.18507962 -0.1083534 -0.014534563
0002e0 d0 bf 75 3d 2d af ee 3b 41 78 af bd a6 4a e6 3d
       0.05999738 0.007284066 -0.085678585 0.11244707
0002f0 2d da 6a bd b0 03 6e 3e 08 91 06 3f dd 74 98 3e
       -0.057336975 0.23243594 0.5256505 0.2977666
000300 3e 6f 46 bd 3f 3f df 3e e6 25 ad 3e 2b 89 5d 3e
       -0.048445933 0.4360294 0.33817977 0.21634357
000310 3f 6d c3 3e 59 db a5 3e ff 58 3c 3e fc db eb 3e
       0.38169286 0.3239391 0.18393324 0.46066272
000320 0d b6 d4 3e 74 07 25 bd 2b c7 e9 3e bc 42 2e 3e
       0.41545144 -0.04029031 0.45659766 0.17017645
000330 61 f1 90 3e 39 52 0d 3f 15 5c 79 3e ab 66 05 3d
       0.28309157 0.55203587 0.24351533 0.032568615
000340 89 da 23 3e dc 73 83 bd c1 90 dd be e7 b6 0f 3e
       0.16001333 -0.06418583 -0.432745 0.14034615
000350 2f 01 a0 be 10 df 5c 3c cd 22 e1 3e 97 c8 fb 3d
       -0.31250903 0.013480917 0.43971863 0.12294119
000360 a7 03 03 3e 57 de 39 3e 6e 87 a8 3b 32 94 9f bd
       0.12794362 0.18151222 0.0051430976 -0.07791938
000370 02 e5 b7 3e 36 aa 10 be 8e a0 46 3d b3 ff a2 3e
       0.35916907 -0.1412743 0.04849296 0.31835708
000380 87 e2 43 3d 7c 82 4b 3e 94 69 e3 3e e6 c4 92 3e
       0.047823455 0.19873995 0.44416487 0.28665847
000390 23 a9 99 3e 0b db 92 3f 87 a2 a2 3e 6d 39 b4 3e
       0.30011854 1.1473097 0.31764624 0.35200062
0003a0 8c 04 08 3f b8 4d 5d 3e 7f af 2c 3e be 3a fd 3e
       0.5313194 0.21611679 0.16863821 0.4945888
0003b0 34 db 9a 3e 05 d3 ab 3e 09 4c 40 3f 43 a4 7d 3e
       0.30245364 0.33559433 0.7511602 0.24769692
0003c0 38 37 92 3e 1a 4b ef 3e a0 04 c6 3e
       0.28557754 0.46736985 0.38675404

down_convs.0.conv2.bias f4 [3]
000000 9c b3 e0 3e 62 54 8d 3d c4 15 1b 3f
       0.4388703 0.0690086 0.60580087

down_convs.0.norm0.weight f4 [3]
000000 fe 67 16 3f 9e 26 c8 3f 56 3d d4 3f
       0.5875243 1.5636785 1.6581218

down_convs.0.norm0.bias f4 [3]
000000 1e 9d dd be 6b fe 8a bd 4a 5d 3c be
       -0.43283933 -0.067868076 -0.18394962

down_convs.0.norm0.running_mean f4 [3]
000000 99 3a d1 bc a4 ea 37 3d 02 eb ad ba
       -0.025540637 0.044901505 -0.001326889

down_convs.0.norm0.running_var f4 [3]
000000 e6 8c 3a 41 3e 3c fd 41 ab 44 86 41
       11.659399 31.654415 16.78353

down_convs.0.norm1.weight f4 [3]
000000 7d ac 66 3f b6 59 93 3f b7 7a 88 3f
       0.90106946 1.1511753 1.066245

down_convs.0.norm1.bias f4 [3]
000000 ad f3 1d be 59 15 23 3e d3 0c cb bd
       -0.15424986 0.15926112 -0.099145554

down_convs.0.norm1.running_mean f4 [3]
000000 87 43 07 c0 ef ba 1a c1 90 9e eb 40
       -2.1134965 -9.670638 7.363106

down_convs.0.norm1.running_var f4 [3]
000000 2c 76 3b 42 43 0a 1a 44 31 87 96 43
       46.865402 616.16034 301.05618

down_convs.1.conv1.weight f4 [6, 3, 3, 3, 3]
000000 3d 2a 02 be cd e9 3a be c0 c9 eb be f4 20 e0 be
       -0.12711425 -0.1825325 -0.4605236 -0.4377514
000010 bf 81 ee be 6f 54 b5 be 44 ca 82 be 57 0b 91 be
       -0.46583363 -0.3541598 -0.2554494 -0.28328964
000020 ec 83 af be b8 6f 99 bd 13 47 71 be a0 71 14 be
       -0.34280336 -0.07492012 -0.23562269 -0.1449647
000030 2f 37 c5 be fb d3 6d be 30 5f c6 be 0c 9b 94 be
       -0.38518664 -0.23225395 -0.38744497 -0.2902454
000040 9d 05 d7 bd f7 ac ba be 4a 0b 5b be 11 2b cc bd
       -0.104991175 -0.36460087 -0.21391025 -0.09969152
000050 ab 12 03 be d7 40 21 be 0f 07 82 be 36 c7 06 be
       -0.1280009 -0.1574739 -0.2539601 -0.1316193
000060 86 00 86 be 52 bc a7 bd 1f 86 fc be 2d d7 b9 3e
       -0.26172274 -0.08190216 -0.49321076 0.3629698
000070 23 6f 06 3f 71 f9 22 3f 20 db 36 bd 6e dc 16 3e
       0.5251333 0.6366187 -0.044642568 0.14732525
000080 72 4f 61 3e dc 21 8f 3d cd aa d3 bd dd db 7f 3d
       0.22002962 0.0698888 -0.10335312 0.062465537
000090 49 67 17 3e 75 6a 08 3f d7 58 50 3f a2 87 d5 bd
       0.14785494 0.5328744 0.8138556 -0.104262605
0000a0 6d 8a 25 3e 66 2e 35 3e a2 b2 57 bd 8a 01 f3 3c
       0.16166086 0.17693481 -0.052660592 0.02966382
0000b0 ed 1a 6e 3e 59 3b aa 3e fd 3e a0 3e 75 fb fa 3e
       0.23252459 0.33248404 0.31298056 0.4901997
0000c0 a4 ae c6 bd b9 0b 27 bd 00 13 61 3d 03 96 b7 3d
       -0.09701279 -0.040782664 0.05494976 0.08964159
0000d0 b3 35 64 3d 4e 0e 24 3d bd b0 e0 be 93 54 ab bf
       0.055715274 0.040052705 -0.4388484 -1.3385185
0000e0 a7 e7 8a bf 8e 6d 00 bf 0e 80 c9 bf ae 61 74 bf
       -1.0851945 -0.5016717 -1.5742204 -0.9546155
0000f0 08 f2 9c bd fe 0e fc bc b5 23 9a be 5b b9 ff be
       -0.07663351 -0.030768868 -0.30105367 -0.49946102
000100 44 f1 ad bf 5f 7d b2 bf ef 4b 31 bf ec 4c f9 bf
       -1.3589253 -1.394451 -0.6925649 -1.94766
000110 29 e3 a4 bf de 9f 1d be e1 16 1b be 7e 1a 90 be
       -1.2881824 -0.15393016 -0.15145446 -0.28145212
000120 fd 0e a9 be b5 f7 4e bf bd d0 df be 3f 57 a9 be
       -0.33019248 -0.8084672 -0.43713942 -0.33074376
000130 98 f7 89 bf d2 f8 df be 14 5f 65 be 06 7e d8 be
       -1.0778685 -0.43744522 -0.2239955 -0.42283648
000140 76 f9 7c be b2 30 71 be 25 f1 86 be 00 77 a8 bd
       -0.24704537 -0.23553732 -0.26355854 -0.082258224
000150 d2 11 67 be e7 f6 ca be 79 65 c3 be a7 d6 06 be
       -0.22565392 -0.39641497 -0.38163355 -0.13167821
000160 7d 0e df be 3f fe 01 bf 20 d0 ab be 96 6a 6d be
       -0.4356574 -0.50778574 -0.33557224 -0.2318519
000170 d6 c8 a4 bc c1 d1 75 be 7e 8d 1a bf 6d 76 cd be
       -0.020115297 -0.24005796 -0.6037215 -0.40129414
000180 74 fe c4 be e8 2c 92 be 5b 47 3f be e0 a6 17 be
       -0.38475382 -0.28549886 -0.18679564 -0.14809752
000190 55 07 27 be f7 fa 73 be 78 ec 5d be db 86 00 be
       -0.1631139 -0.23826204 -0.21672237 -0.12551443
0001a0 44 51 c3 be 81 44 22 be ff d8 0a bf e4 06 63 be
       -0.38147938 -0.15846445 -0.5423736 -0.22170597
0001b0 0b 45 f8 3e 72 e2 5a 3f 88 ff 54 3f eb 72 b7 3b
       0.48490176 0.8550178 0.8320241 0.005598416
0001c0 b2 31 80 3d 68 ef 53 3e 42 c4 07 be 32 2e 4f bd
       0.06259479 0.20696795 -0.1325846 -0.050581165
0001d0 7c ff 39 3e d5 5c e7 3e 49 75 e8 3e f9 d4 37 3f
       0.18163866 0.45188013 0.4540198 0.71809345
0001e0 73 33 ae 3d eb dd a4 3e e6 de c2 3d f0 0f 1d bd
       0.08505907 0.3220056 0.09515171 -0.038345277
0001f0 27 47 32 bd 2e 17 83 3e df cd 2e 3e 3a a3 f9 3e
       -0.043524887 0.25603622 0.17070721 0.48757344
000200 0e 92 0a 3f 3c fb 1c 3e b4 89 12 bb af 5b 9c 3e
       0.5412911 0.15330213 -0.002235991 0.305387
000210 7b 86 98 3d 82 dd a2 bb 78 c7 09 bd 55 ee 64 bf
       0.07447525 -0.0049702534 -0.033637494 -0.89426166
000220 65 9a b7 bf f4 b7 95 bf 4d 76 49 bf e5 e4 8e bf
       -1.4343992 -1.1696763 -0.7869614 -1.1163603
000230 cc cf 56 bf 4a 59 75 be 7a d0 ed bd ff 67 ec bd
       -0.8391082 -0.23959842 -0.116120294 -0.11543273
000240 bb 29 3a bf 50 4a a1 bf 58 0f b0 bf 92 38 88 bf
       -0.72719926 -1.2600803 -1.3754683 -1.0642264
000250 fd 5d 9a bf 9a 23 45 bf 6e b1 6c be 71 6e 48 3d
       -1.2059933 -0.7700745 -0.23114559 0.04893345
000260 48 b9 d8 bd a8 68 32 bd f4 e1 fd be 2b d8 e5 be
       -0.105822146 -0.04355684 -0.4958645 -0.44891486
000270 10 af 0d bf 32 de 7f bf e5 f0 68 be b9 cb b8 be
       -0.5534525 -0.9994842 -0.22748144 -0.36092928
000280 c9 dc cf be f7 e4 43 be d6 d4 00 be 2a df dc be
       -0.40598133 -0.19130312 -0.1258119 -0.4313901
000290 92 3b 12 3d cd b3 57 be bb 82 9e be 9e af 1d bd
       0.035701342 -0.21064682 -0.30959114 -0.03849756
0002a0 9f 1d bb be a8 b7 80 be f0 a0 30 be b0 ab 63 bc
       -0.36546037 -0.2514012 -0.17248893 -0.013895914
0002b0 15 53 78 be 5e 91 06 3e e1 eb fe bd 12 61 7f be
       -0.24250443 0.1314139 -0.12447334 -0.24939373
0002c0 b3 c2 2b 3e f7 8f fa be e9 89 dd be f9 3a 11 3e
       0.1677349 -0.4893796 -0.4326928 0.14182653
0002d0 5a b7 13 3e 09 aa 9a 3d 64 2c 40 3f 76 ae f0 3d
       0.14425412 0.07551963 0.75067735 0.11752026
0002e0 35 65 a5 3e 57 bf 3c 3f e7 80 cc be 12 79 06 3c
       0.32303777 0.7372946 -0.39942095 0.008207576
0002f0 5b 98 c9 3e aa 36 27 3c 6d 17 27 be 7d 11 95 be
       0.3937405 0.010205904 -0.1631753 -0.29114905
000300 48 0c a3 bd f5 82 36 be 3e 8d 9a bd d8 f5 53 bf
       -0.07961327 -0.17823394 -0.07546471 -0.82797
000310 6e a5 11 bf d4 44 f1 be 56 a5 c2 3d 93 1c 0c be
       -0.5689305 -0.47122824 0.095041916 -0.13682775
000320 56 f2 80 be 06 25 9f be 36 a1 aa be a6 6f 06 be
       -0.25184888 -0.31082934 -0.3332612 -0.13128528
000330 1a c3 87 bf 63 7d 65 bf 8d b1 21 bf ff 97 54 bd
       -1.0606415 -0.8964445 -0.63161546 -0.051902767
000340 b9 83 de bd 42 b0 c1 be 95 d6 6e be 6d 14 9e be
       -0.10864968 -0.37829787 -0.23324044 -0.3087496
000350 be 34 af be 9e 2a 83 bf 3e 04 65 bf d7 bf 41 bf
       -0.34219927 -1.0247381 -0.894596 -0.7568335
000360 4e bf e2 be 41 b1 1b bf 4b 25 9b be c9 f4 38 be
       -0.4428658 -0.60817343 -0.3030189 -0.18062128
000370 e8 ad 24 be 38 5a 90 be f3 c6 62 3e 67 a7 db bd
       -0.16081965 -0.2819383 0.22146206 -0.10725289
000380 d7 d5 01 bf 03 12 93 be a6 39 6c be 7a 3c c7 be
       -0.5071692 -0.2872468 -0.23068866 -0.38913327
000390 4e e0 50 3d f7 63 e2 3c c7 72 fa be ac 54 dc 3e
       0.050995164 0.027635558 -0.48915693 0.4303335
0003a0 a7 1a c8 bc 14 a2 5c be 42 a1 19 3e 3b c1 38 be
       -0.024426771 -0.21546203 0.15002921 -0.18042462
0003b0 c9 5c a0 be 3a 29 57 3e d0 2a c1 bc 71 3c 9f be
       -0.3132079 0.2101182 -0.023579985 -0.311008
0003c0 13 33 04 3f 08 25 46 3e 5b 11 b7 3d e5 3b 08 3c
       0.51640433 0.19350064 0.08938857 0.008315061
0003d0 98 64 06 3e 47 5f 15 3f b2 8c 34 be 24 eb 91 be
       0.13124311 0.58348507 -0.17631796 -0.2849971
0003e0 75 76 84 3d e0 c4 b4 be 08 92 f1 3c b6 d1 6a bd
       0.064679064 -0.35306454 0.029488578 -0.057328902
0003f0 1c 24 de bd 15 03 c2 bd 03 47 0f 3f 9a b2 86 be
       -0.10846731 -0.09473244 0.5596773 -0.26308137

down_convs.1.conv1.bias f4 [6]
000000 7a 72 5e bd 40 ff c8 bc 1e 8d 1c 3e f0 3d b7 be
       -0.054308392 -0.024535775 0.15288207 -0.35789442
000010 86 c2 b2 3a 7f 76 f1 3d
       0.0013638295 0.117901795

down_convs.1.conv2.weight f4 [6, 6, 3, 3, 3]
000000 1c 1b 0f bf aa 74 f6 be f4 65 b2 be 7f 4d 7d be
       -0.5590074 -0.48135883 -0.3484341 -0.24736594
000010 f9 ec 96 be 29 4c 04 be 51 78 92 be a5 d9 c7 be
       -0.2947767 -0.12919678 -0.2860742 -0.39033237
000020 61 18 df be ed e5 fd be 36 86 11 bf ec 44 f4 be
       -0.43573287 -0.49589482 -0.56845415 -0.47708833
000030 ec 73 a9 be a2 63 f1 be 95 0a 9f bd 2a e8 47 be
       -0.33096254 -0.47146326 -0.0776569 -0.19522157
000040 4f 3a 81 be 24 52 55 be 18 23 ff be f8 40 d7 be
       -0.25239798 -0.20832115 -0.49831462 -0.42041755
000050 82 be 5f be 9d 45 43 be 7f 55 43 be a9 4c 6e 3d
       -0.21850017 -0.19069524 -0.19075583 0.058178578
000060 c7 4e af 3d b8 14 c4 bc 81 7d 1e 3d 7a e1 07 bf
       0.085599475 -0.02393566 0.03869391 -0.53078425
000070 6f 41 33 bf 4c 01 dd be 19 b9 d5 be c0 52 9e be
       -0.7002172 -0.43165052 -0.4174278 -0.30922508
000080 bd e9 69 be ec 11 cd bd 99 58 fb be a3 5b f3 be
       -0.2284307 -0.10013184 -0.49091032 -0.4753085
000090 e4 ed 0f bf 1b e8 30 bf fd 81 e6 be bb 72 b7 be
       -0.5622237 -0.69104165 -0.45021048 -0.3582972
0000a0 2c e1 a0 be 06 27 5f be cd 36 be bd ee 9c 9e be
       -0.31421793 -0.2179223 -0.09287796 -0.30979103
0000b0 b2 ae 01 bf 32 f5 01 bf be e1 f8 be d2 8f c8 be
       -0.5065719 -0.50764763 -0.48609728 -0.39172226
0000c0 eb e8 a1 be ae d5 aa be 62 52 13 be ae f3 b4 3d
       -0.31623015 -0.3336615 -0.14386895 0.08835541
0000d0 39 a7 9b be c5 64 c7 3c 55 46 b1 3e 1d bb fa 3e
       -0.30401018 0.024340043 0.34623972 0.4897088
0000e0 3a e8 1e be 99 00 ea 3e d3 c7 18 3f 70 64 b7 3e
       -0.15518275 0.4570358 0.5967991 0.35818815
0000f0 51 d8 e2 3d 9f ac f0 3e 77 ba de 3e 72 56 20 3f
       0.11076415 0.470067 0.43501636 0.62631905
000100 48 61 38 3f a6 f5 a9 3e ec 3e cc 3e 6d b3 ef 3e
       0.7202344 0.33195227 0.39891756 0.46816579
000110 be 5f eb 3e ea ec 6f bd 3e cd 3a 3e 70 91 54 3e
       0.45971483 -0.05857555 0.18242356 0.20758605
000120 c8 7f c3 3e c5 79 2b 3f cc 0a eb 3e 43 f7 8a 3e
       0.38183427 0.6698268 0.45906675 0.2714177
000130 94 15 02 3f 6d 99 1a 3f 47 44 e8 bd 3f 5b e6 bc
       0.50814176 0.6039036 -0.11341148 -0.028119681
000140 86 4f 2d 3e a1 b3 2f be c3 5e ab be f1 5f 05 bf
       0.16924867 -0.17158367 -0.33470735 -0.5209952
000150 3f 21 60 ba 53 35 09 bf 91 e4 21 bf 46 76 3a 3e
       -0.0008549876 -0.5359699 -0.6323939 0.1820918
000160 3f 1d aa be 2f b1 88 bd eb 35 38 be c8 f5 3d be
       -0.33225438 -0.0667442 -0.17989318 -0.1855079
000170 d5 da 78 be ca 26 04 be 4d 9f 10 bf 48 ad d2 be
       -0.24302228 -0.12905422 -0.56493074 -0.41147828
000180 c7 7e 52 3e 99 e8 ec bd 38 95 21 bd 49 c5 14 bf
       0.20556174 -0.11567802 -0.039448947 -0.58113533
000190 3f 73 47 be 7c 05 fd 3c e2 e5 ea be 65 4d 26 bf
       -0.19477557 0.030886404 -0.45878512 -0.64961845
0001a0 97 b2 9c be 55 1d aa be 0c 4a e3 be 8d 6a a3 3d
       -0.30605003 -0.33225504 -0.4439243 0.07979307
0001b0 1b 1a 0b be 16 b4 2e bd 65 8d 0a 3f 2f 41 de be
       -0.13584177 -0.042652212 0.54122 -0.43409106
0001c0 e5 44 d9 bd 1d cc 5a 3e cd 46 29 be 27 24 40 be
       -0.10608844 0.21366926 -0.16530915 -0.18763791
0001d0 90 c3 f6 3d 66 36 c1 be 97 88 cf be 0a a4 bb 3c
       0.12049019 -0.37736815 -0.40533897 0.022905368
0001e0 2b 25 3c bd 8a 9b 8a bd f2 82 d0 3d c7 83 12 be
       -0.045933884 -0.06767948 0.10181226 -0.14308082
0001f0 9e 1d 65 bd 38 bc 9a 3c ce 39 74 be ed ea c6 be
       -0.05593645 0.018888578 -0.23850176 -0.3885111
000200 63 df 8c 3c e6 f9 bc bd 79 c4 29 be 6d 38 e3 3c
       0.017196363 -0.09227352 -0.16578855 0.027736867
000210 06 b6 53 be 18 84 f4 bc dc f5 1f bd c9 df 43 bc
       -0.20674905 -0.029848143 -0.03905283 -0.01195521
000220 98 16 a2 be 86 d9 e5 be 60 9a 72 3c 35 84 58 be
       -0.31657863 -0.4489252 0.014807314 -0.21144183
000230 18 63 b9 be 32 af 40 be 39 c4 ea be 40 b4 9d be
       -0.36208415 -0.18816832 -0.4585283 -0.30801582
000240 68 98 06 3e d6 9f f8 bd b5 75 06 bf 31 db 76 be
       0.13144076 -0.12139861 -0.52523357 -0.24107052
000250 15 34 9d be 1a 40 b3 be 60 04 05 be a8 6e 70 be
       -0.30703798 -0.35009843 -0.1298995 -0.23479712
000260 68 76 d6 bd b3 cf c7 3e c0 38 47 3d c8 49 bf be
       -0.10471803 0.3902565 0.048638105 -0.37360978
000270 3d 5a 30 be b9 b1 af be de 2f ac be 68 13 4e be
       -0.17221923 -0.3431528 -0.3363027 -0.2012459
000280 ce 79 c2 be ef 7c bb bd 37 ba 9a 3f 7f 3d a0 3f
       -0.37983555 -0.091546886 1.2088078 1.2518767
000290 03 79 80 3f c2 c8 51 3f 6a 1d 22 3f 7a 0c 36 3f
       1.003693 0.8194696 0.6332613 0.7111279
0002a0 e6 1d 1e 3f 90 92 7d 3e 73 ac b0 3e 38 82 44 3f
       0.6176437 0.2476294 0.34506568 0.767612
0002b0 6c 7c 5d 3f 13 99 80 3f f8 ea d0 3e e8 19 b8 3e
       0.8651798 1.0046715 0.40804267 0.35957265
0002c0 eb 11 01 3f d3 64 a6 3e 3c ca bd 3d 76 dc 48 3e
       0.50417966 0.32498798 0.09267089 0.19615349
0002d0 10 b2 cc bd a6 47 00 3e b5 dc 59 3e 62 df d1 be
       -0.099949 0.12527332 0.212756 -0.4099074
0002e0 96 3a 47 be c3 fc 9b bd bd ee ec be 39 4d 99 be
       -0.19455943 -0.0761657 -0.46275893 -0.2994173
0002f0 f8 f3 0b be c3 1d bc 3f 95 20 a6 3f 98 1d 74 3f
       -0.13667285 1.4696583 1.2978693 0.95357656
000300 85 c7 88 3f 8e 37 3d 3f d6 be 3a 3f a8 60 37 3f
       1.0685889 0.73912895 0.7294744 0.7163186
000310 57 e9 8a 3e 4f 05 c5 3e 79 67 7d 3f b1 03 70 3f
       0.2713115 0.38480613 0.9898601 0.9375563
000320 f8 b1 86 3f 77 81 08 3f ff a9 cd 3e 50 fd 25 3f
       1.0523062 0.5332255 0.4016876 0.6483965
000330 71 b2 71 3e ae 5b 63 3e 5c bf 82 3e 76 74 bd 3c
       0.23603226 0.22202942 0.2553662 0.023126822
000340 17 88 73 3e 37 0e 8b 3e 46 40 b9 be b7 08 ae be
       0.23782383 0.27159283 -0.3618185 -0.33991024
000350 ed f5 a7 3c 38 56 7d be f5 c6 8b be 5d f5 49 be
       0.020503009 -0.24739921 -0.2730023 -0.19722505
000360 a9 ff 7e 3e 76 ea 06 be 2d 42 e1 be 0e 2a 07 3f
       0.24902214 -0.13175377 -0.439958 0.52798545
000370 bc 84 c0 3d b8 ea 37 be 7d 0e b1 3e e4 30 97 bd
       0.09400317 -0.17960632 0.34581366 -0.07382372
000380 34 75 1b be 46 fc c3 3e d9 d8 91 3e 9a e8 9d bd
       -0.15181428 0.38278407 0.28485754 -0.07710381
000390 eb 24 c5 3e e0 d4 6a 3e 7b 59 36 be 9f a2 f7 3e
       0.3850473 0.22932768 -0.17807572 0.48366258
0003a0 06 26 e4 3d 82 31 0f be c9 98 0e 3f f9 60 11 3f
       0.11140065 -0.1398373 0.5570188 0.56788594
0003b0 53 f9 ef 3e 6d a5 4f 3f 83 f5 f3 3e 36 fe 9f 3e
       0.46869907 0.81111795 0.47648248 0.31248635
0003c0 f9 f8 1c 3f 63 9e dd 3e 1b ab 08 3e 7d 07 8b 3e
       0.613174 0.43284902 0.13346522 0.2715415
0003d0 c9 75 92 3b 5c 4d 70 3e 94 9a 5f 3e cf 9e c1 3e
       0.0044696075 0.2346701 0.2183631 0.37816474
0003e0 e1 07 4f 3f c1 68 39 3e 5f 2d 84 3e 02 4e 34 3f
       0.808714 0.18106367 0.25815865 0.7043153
0003f0 2f 96 26 3f 4f 85 87 3e f8 e4 89 3e ed 3f 15 3f
       0.6507291 0.26468894 0.26932502 0.5830067

down_convs.1.conv2.bias f4 [6]
000000 1e ea 14 3d 7a 19 03 bd ad c1 60 3d 40 05 1d 3d
       0.036356084 -0.03200672 0.054872204 0.038335085
000010 6c 3f a7 3d ca e2 be bd
       0.08166394 -0.093206

down_convs.1.norm0.weight f4 [6]
000000 11 2d a0 3f 62 97 af 3f 9a 03 a4 3f b1 c6 99 3f
       1.2513753 1.3718073 1.2813599 1.2013761
000010 02 98 47 3f 9e a6 54 3f
       0.7796632 0.8306674

down_convs.1.norm0.bias f4 [6]
000000 1d 0c e1 bc f2 36 a0 3c b9 fd df bd 62 87 ab 3e
       -0.027471596 0.01955745 -0.10937066 0.33501726
000010 82 45 24 be 27 ec 03 bc
       -0.1604214 -0.008051909

down_convs.1.norm0.running_mean f4 [6]
000000 67 58 92 c0 21 87 69 c0 81 6d ae c0 e5 3c 1e c0
       -4.5732913 -3.6488726 -5.450867 -2.4724667
000010 ec 4c c9 3f cc bb eb c0
       1.57266 -7.3666744

down_convs.1.norm0.running_var f4 [6]
000000 a6 c5 af 43 c5 0b 9c 43 94 6f 4f 41 a5 4e 48 40
       351.54413 312.09195 12.964741 3.1298
000010 7b 07 a2 42 7d bc be 41
       81.01461 23.842035

down_convs.1.norm1.weight f4 [6]
000000 93 55 7d 3f e0 d2 61 3f 6d c5 3e 3f f2 df ad 3f
       0.989587 0.88212395 0.7452 1.3583968
000010 41 c7 a6 3f 86 93 89 3f
       1.3029557 1.0748146

down_convs.1.norm1.bias f4 [6]
000000 68 25 af be 0b f5 27 bf d3 b9 ae be 18 74 a3 bd
       -0.34208226 -0.6560828 -0.34126148 -0.079811275
000010 08 fc 91 3e e7 8f 12 bf
       0.28512597 -0.5725083

down_convs.1.norm1.running_mean f4 [6]
000000 f9 b0 f1 c0 52 14 7d 41 42 a3 fb c0 94 b3 07 be
       -7.552853 15.817461 -7.863679 -0.13252097
000010 a1 77 51 c1 cf 73 74 be
       -13.091706 -0.23872302

down_convs.1.norm1.running_var f4 [6]
000000 de 55 ce 41 0a 13 86 42 c2 12 41 42 0c cc ee 41
       25.791927 67.037186 48.26832 29.849632
000010 ad 9e ef 42 a7 65 0d 42
       119.80991 35.34927

down_convs.2.conv1.weight f4 [12, 6, 3, 3, 3]
000000 6f 12 0a be 46 95 f5 bd d9 2c 11 bf 08 0c de be
       -0.13483594 -0.11991362 -0.5670906 -0.43368554
000010 23 3c c5 bd 06 db 36 bf 60 93 9a be 30 87 32 be
       -0.09630611 -0.71427953 -0.30190563 -0.17434382
000020 e8 4e ea be 7f 73 ad 3e b2 d1 4b 3e 9d 8b 0c bf
       -0.45763326 0.3387718 0.19904211 -0.5490053
000030 59 39 ed 3e 58 1a 0a 3f 4f 4f 7c be 62 a1 f9 3e
       0.46332815 0.5394645 -0.24639629 0.48755938
000040 6f 68 41 3f a3 3a 85 3d 96 2f 49 3f 36 ee 31 3f
       0.7554998 0.06505325 0.78588235 0.69504106
000050 da cd a0 be 48 c3 42 3f a0 a8 68 3f 84 6c 5b be
       -0.31407052 0.76079226 0.908823 -0.21428114
000060 73 14 00 3f 43 b9 55 3f 70 98 b2 bd 9c e2 a3 3e
       0.50031203 0.8348581 -0.087204814 0.32008827
000070 e6 20 ae be 4c 35 32 3d d7 2b 44 3f bf 4b e9 be
       -0.34009475 0.04350786 0.76629394 -0.45565602
000080 d3 87 b0 3d d0 19 cc 3e 50 04 d2 be bf a4 1a bd
       0.086196564 0.39863443 -0.41018915 -0.03775477
000090 81 52 71 3e f3 1b d3 be ba 37 de be 84 92 e9 3e
       0.23566629 -0.4123226 -0.4340189 0.45619595
0000a0 b6 fb 0f bf 65 95 d4 be 48 6b 93 3e 79 cb 1b bf
       -0.56243455 -0.4152023 0.28792787 -0.6085735
0000b0 fc bb de be e9 d0 53 3d 23 d4 3a bf 9a 4d 1a bf
       -0.43502796 0.051712904 -0.72979945 -0.6027466
0000c0 8e af 6c 3d d4 20 75 bf e7 2f 3d bf 6d c7 7a 3c
       0.05778461 -0.95753217 -0.7390122 0.015306336
0000d0 43 bd 6e bf 22 3c 30 bf f1 ef 0b 3f c7 58 30 3f
       -0.9325754 -0.68841755 0.54662997 0.68885463
0000e0 cf 33 ae 3f 26 fd fe 3e 83 f3 86 bd f4 09 2c 3f
       1.3609561 0.49802512 -0.06589415 0.6720269
0000f0 f4 57 57 3e 3c 6c 9c be 89 3e 3f be 07 a6 b3 3e
       0.21029645 -0.30551326 -0.18676199 0.35087606
000100 33 90 ba 3d b6 a3 39 3f 78 8b 53 3e 35 1a 0c bf
       0.09109535 0.7251543 0.20658672 -0.5472749
000110 40 f2 06 3d 45 33 10 3d 33 c2 9e be 9d 19 05 bf
       0.03294587 0.035205144 -0.31007537 -0.5199221
000120 29 f8 85 be e4 6d d6 be c2 46 01 3f bd d1 34 be
       -0.26165894 -0.41880715 0.5049859 -0.17658134
000130 52 b6 5b bf 1b 59 8a 3e d2 d3 be bd 5a 2d b7 be
       -0.85825074 0.27021107 -0.09317745 -0.35776788
000140 94 8a be be 10 8f a5 3d 48 11 e1 3d 84 2f a0 3e
       -0.37215102 0.08083928 0.10989624 0.31286252
000150 d9 b6 f6 be 3b d1 61 be 73 9c c0 bd 41 aa 59 bf
       -0.48186377 -0.22052471 -0.0940484 -0.8502541
000160 1f 60 77 be ce 0c a5 bd af df b1 3e 79 ed d3 3e
       -0.24157761 -0.08059083 0.3474097 0.41392115
000170 6d 14 b0 3e b9 0a 41 be e7 25 22 3e 71 f1 ab 3e
       0.34390584 -0.18851747 0.15834771 0.33582643
000180 3b 39 21 bf 3d 43 93 bc 98 d6 95 3e 82 5b a0 3c
       -0.6297795 -0.017976398 0.29265285 0.019574884
000190 3b 44 87 3e 2e 0f 33 3e 88 2a 25 bf 78 6e 57 be
       0.26419243 0.1748626 -0.6451802 -0.21038234
0001a0 cc 0a a0 be 59 83 32 bf 53 f3 57 be f2 ae c7 bd
       -0.31258237 -0.6973167 -0.21088915 -0.09750165
0001b0 3b 57 a2 3e a0 14 aa 3e 1c 3f d0 bd 70 43 6f 3c
       0.31707177 0.3321886 -0.10168287 0.014603481
0001c0 e3 eb e8 3e ba d8 48 3d cc 51 ce be 6d 15 ed be
       0.45492467 0.04903481 -0.4029678 -0.4630541
0001d0 22 3d 94 be 0d a3 5a 3e 65 a8 5b 3e ca ff 9a 3e
       -0.2895289 0.21351261 0.21450956 0.30273277
0001e0 99 33 e7 3e 66 fb c5 3e 83 b5 8a 3e fa 30 e2 3c
       0.45156553 0.38668364 0.27091607 0.027611244
0001f0 44 08 f2 be 8a 77 60 be ee a7 e7 3e 7f 3d 90 3d
       -0.4727193 -0.219206 0.45245308 0.070429794
000200 1f 2d f7 3e 94 5d 8a 3f 2e 26 88 3f ce 30 0a 3f
       0.48276612 1.0809808 1.0636652 0.5398072
000210 2d 5d 17 3f 65 27 70 3d e4 07 d7 3d 91 4c 3e 3e
       0.5912655 0.05863132 0.10499552 0.18583895
000220 04 97 8b 3e 3f a4 f2 bd 3c 2e af be 4d 52 b6 bd
       0.27263653 -0.11847734 -0.34214962 -0.089024164
000230 d5 a8 b1 be c8 89 c8 be 67 96 bf be 2f 7c 82 be
       -0.3469912 -0.3916762 -0.37419435 -0.2548537
000240 91 9c b0 3e 1b 5a 82 3e 61 ce 51 be 5c 60 15 3e
       0.3449445 0.2545937 -0.20488884 0.1458754
000250 50 70 5f 3d 06 ce 69 be fe 69 23 be b0 74 0a be
       0.05455047 -0.22832498 -0.15958402 -0.13521075
000260 42 41 5e be 15 e1 17 3f 3c 17 ff 3e e4 af 8a be
       -0.21704581 0.5932782 0.49822414 -0.2708732
000270 89 e8 e4 bc 7f ec 26 3e 4a 42 9a be 7c f6 51 be
       -0.027942913 0.16301154 -0.301287 -0.20504183
000280 60 b8 54 be 0d f2 9c be eb f1 3c be af 2d db 3d
       -0.20773458 -0.3065342 -0.1845166 0.10702073
000290 b6 c1 2e 3e 98 47 76 bb 1e 6a 02 3f 8a 29 e7 3e
       0.17066082 -0.0037579294 0.5094317 0.4514888
0002a0 53 0b 80 3e 2d 1f d8 3e 5c b3 d9 3e 0a 17 01 bf
       0.2500864 0.42211285 0.42519653 -0.5042578
0002b0 d8 78 81 be 5a d5 a5 be 63 97 7e be 75 a4 a2 3e
       -0.2528751 -0.32389337 -0.24862437 0.31766096
0002c0 97 a8 1f 3f 49 f6 c9 be c3 79 17 be 45 d6 95 3e
       0.6236662 -0.39445713 -0.14792542 0.29265037
0002d0 bc cd 95 bf df 67 41 bf a7 e0 f5 be 56 4e 3f bf
       -1.170341 -0.7554912 -0.4802296 -0.74728906
0002e0 23 e6 46 be 6e a9 39 3e 32 97 8b bf 0d e2 cd be
       -0.19423728 0.18131039 -1.0905516 -0.40211526
0002f0 7d ec 2b bd df b4 be 3c 73 b6 2d 3e 1a 59 11 be
       -0.04197358 0.023279605 0.1696413 -0.14194146
000300 db 17 34 be c9 39 dc bd 34 c8 ea be 06 8e c5 be
       -0.17587225 -0.10753209 -0.45855868 -0.38584918
000310 e0 d4 26 be 3e 04 c2 be 75 32 98 3e 16 89 e2 3e
       -0.16292143 -0.37893862 0.29725996 0.44245213
000320 fc f8 ee 3e b6 f7 c6 3d 82 a5 0c 3c ec 9d 9a bd
       0.46674335 0.09715216 0.008584382 -0.075496525
000330 e4 07 dd bc a9 66 a0 3d f5 3c 94 3c 9c e6 cb 3e
       -0.026981302 0.07832081 0.018095473 0.39824378
000340 c3 bd 05 3f da 96 ee 3e 72 e7 fb 3e 1d f8 52 3e
       0.5224268 0.46599466 0.49200016 0.2060246
000350 67 39 44 3d 70 ab b7 3e 1c 94 db 3e 98 2b 34 3e
       0.047906306 0.35872984 0.42886436 0.17594755
000360 4c 09 42 3e 6e 76 e9 3d 69 74 64 be 4f 5d 0e be
       0.18948859 0.11399542 -0.22310032 -0.13902782
000370 91 4e 43 bd ba b1 02 bf a3 f6 85 bd cd 5f d4 bd
       -0.04768235 -0.5105244 -0.06541183 -0.10369835
000380 53 41 c3 be 80 07 cd 3e a8 05 a6 3e e2 c8 6f 3e
       -0.38135776 0.40044785 0.3242619 0.23416474
000390 8f 4f c4 3d 99 3c 68 3d 62 7f 90 bd 68 3c 6b 3e
       0.09585487 0.056698415 -0.07055546 0.22972262
0003a0 09 d9 ae 3e df 72 61 3e a7 a6 d1 3e d5 2b 2d 3e
       0.3414996 0.22016476 0.40947458 0.16911252
0003b0 93 3f 31 3e b2 67 0e 3f b1 33 22 3e c3 2c 10 be
       0.17309408 0.55626976 0.15840031 -0.14079575
0003c0 e3 8f 3b 3f a1 cd 1b 3f 3e 6c 63 3e 8e ec fe 3d
       0.7326643 0.6086064 0.2220926 0.12447463
0003d0 38 b8 a4 be 9d 40 8c bb 8f f0 ae 3e 06 1f 96 be
       -0.32171798 -0.0042801634 0.34167907 -0.29320544
0003e0 c9 d3 8a be 0e a5 9a 3c c8 63 51 bf e5 a3 9c bf
       -0.27114704 0.018877532 -0.8179288 -1.2237517
0003f0 b4 20 3e 3e a6 46 b1 bd b3 97 07 bd d6 34 f3 3d
       0.18567163 -0.08656053 -0.033103656 0.11875312

down_convs.2.conv1.bias f4 [12]
000000 33 50 49 bc 9f 8a 36 3c 5e 98 d4 b9 92 bd 63 3c
       -0.012287187 0.011141448 -0.00040549313 0.013900178
000010 84 bb 54 bb dd 24 73 36 3e 5f 69 bd 0c f7 2d 3c
       -0.00324604 3.623128e-06 -0.056975596 0.010617983
000020 da c2 b7 ba 0e fe 3a bc d9 c9 3e b8 c0 29 e1 bc
       -0.0014019862 -0.01141311 -4.5487515e-05 -0.027485728

down_convs.2.conv2.weight f4 [12, 12, 3, 3, 3]
000000 fc 68 ab 3e 75 5e 79 bf 63 4d 74 bf a1 66 b1 3d
       0.33478534 -0.97409755 -0.9543058 0.08662153
000010 2b 29 60 bf 68 4c ab bf 1a 60 86 bd 0a 39 2f bf
       -0.8756282 -1.3382692 -0.06561299 -0.6844641
000020 fa 61 67 bf 26 25 25 3e 0d 32 55 bf 22 70 a8 be
       -0.90383875 0.16127452 -0.83279496 -0.3289805
000030 ee fb b1 3e 1e 24 67 be 66 7e b7 be 6c f6 82 3e
       0.3476252 -0.22572371 -0.35838622 0.2557863
000040 8f 3e 61 3d 23 a2 02 be 29 ee ae 3e 02 fd fe bd
       0.0549913 -0.12757163 0.34166077 -0.12450601
000050 69 81 3d 3f f7 f9 b2 3e c6 8d 8b 3e 36 bb 2c 3f
       0.7402559 0.34956333 0.27256602 0.6747316
000060 fa f7 83 be bf 6b 11 3d 02 92 4f 3d 77 5a 82 3d
       -0.2577513 0.035503145 0.050676353 0.06364911
000070 8c 16 d8 bc fc c0 4c 3e dd c6 44 be b9 96 55 be
       -0.026377939 0.19995493 -0.19216485 -0.20858277
000080 ea 71 bb be c7 12 61 bf a3 de 26 bf 8d 5d 61 bf
       -0.36610347 -0.87919277 -0.65183467 -0.8803337
000090 e8 88 e1 3e ff 48 e1 3c 5e 51 ac bc 18 86 87 3c
       0.44049764 0.027500628 -0.021034893 0.016543433
0000a0 97 d4 a1 be 6e af 17 bf 4d 4d 3a bf db 90 11 bf
       -0.31607506 -0.5925206 -0.727742 -0.56861657
0000b0 62 98 45 bf e3 7f de 3e db 3a 33 3e 4b 01 c7 3d
       -0.7718564 0.43456945 0.1750292 0.097170435
0000c0 17 9e a4 be 6b d2 f2 be 6e 1a 0a bf aa 1f 26 bf
       -0.32151863 -0.4742616 -0.5394658 -0.64892066
0000d0 72 6a 81 bf 82 36 4c bf e3 24 9b 3e f7 f8 83 3d
       -1.011061 -0.7977067 0.3030158 0.06443971
0000e0 e4 c1 0c 3e a3 b7 08 be 4a 4b ba 3c f3 fc 34 3d
       0.13745838 -0.13351302 0.022740979 0.044186544
0000f0 93 7a 2c be c7 41 5d be 9d 2e 3e bc 38 46 f8 3c
       -0.16843633 -0.21607123 -0.011607793 0.03030692
000100 29 0e 1b 3e 8e ec 42 3e 3a 3f 85 be 79 45 1f bd
       0.1514212 0.19035551 -0.260248 -0.038884614
000110 23 60 b7 bc 9c 88 be be d3 08 d6 be b5 a9 88 be
       -0.022384709 -0.372136 -0.41803607 -0.26691976
000120 8e 49 f0 be 38 81 4f bc ef 89 0f bd e7 92 0b bf
       -0.46931118 -0.0126650855 -0.035043653 -0.5452103
000130 ca b7 2b be 29 dd 81 3c 2d 03 80 be f2 0b de be
       -0.16769329 0.015852528 -0.25002423 -0.4336849
000140 5b 05 6c bd e9 56 a2 be 68 c3 10 3e d5 0f 87 3e
       -0.057622295 -0.31706932 0.14137042 0.26379266
000150 5a 19 1c 3f 39 af 0d 3f 19 e4 b4 3e a0 a6 f8 3c
       0.60976183 0.55345494 0.35330275 0.03035289
000160 9c 13 5e be 88 3d a0 be 14 e1 81 be 35 92 8c 3d
       -0.21687168 -0.31296945 -0.25367033 0.06863824
000170 bb 51 1a 3e b7 09 0f 3f aa c5 09 3f 9d c2 dc 3e
       0.1507024 0.558742 0.53817236 0.43117228
000180 48 0d 5f 3e 76 3f 98 bd 91 c1 ab be 3f 31 9b be
       0.2178241 -0.07433979 -0.33546117 -0.3031101
000190 e9 35 41 3d fb cb a7 bd d1 c0 25 3f 44 2d 38 3f
       0.047170553 -0.08193203 0.6474734 0.7194407
0001a0 f1 f9 b9 3e a6 03 f6 3e a0 ac 33 bd 21 30 ae be
       0.36323503 0.4804966 -0.0438658 -0.34021094
0001b0 60 84 bf bf 5e f4 ab bf 87 92 44 bf f5 6f 07 be
       -1.4962273 -1.343395 -0.76786083 -0.13226302
0001c0 10 e4 0f 3e 53 7a b9 3e 5c 82 2e 3d 4c 3d 4f bc
       0.14051843 0.36226138 0.04260479 -0.012648892
0001d0 3f 13 b0 bd 1c bc b1 bf 58 f7 85 bf 42 71 3f bf
       -0.08597421 -1.3885531 -1.0466108 -0.7478219
0001e0 c7 28 64 be ac 41 e0 3d e5 f9 25 3f 6a 68 96 bb
       -0.2228118 0.10950026 0.64834434 -0.004590084
0001f0 9d 86 12 3e d1 f4 fa 3d 4b 29 93 bf 53 2b 52 bf
       0.14309163 0.12253726 -1.1496977 -0.8209736
000200 1a 84 4d be b4 fb 0b bf 29 b8 e0 bd ff 7c 04 3f
       -0.20069924 -0.54680943 -0.10972626 0.5175323
000210 f5 a9 b2 3d ce e8 65 3e ca 1a 43 3e 54 01 e4 bd
       0.08723823 0.22452089 0.19053188 -0.11133066
000220 c7 19 0f be 88 d2 0f be d1 e4 2e be 94 8b 92 be
       -0.13974677 -0.14045155 -0.17079474 -0.28622115
000230 27 d6 4c be 8b 9e bc 3b 06 04 e8 bd 36 bb e1 bc
       -0.20003568 0.0057562045 -0.113288924 -0.02755509
000240 aa 34 92 be 41 22 be be 29 ea 03 be d8 a8 b5 be
       -0.28555804 -0.3713551 -0.12882294 -0.3548038
000250 00 0f 6b be 11 72 04 be c0 16 75 3c 4a c1 2e be
       -0.22954941 -0.12934138 0.014959037 -0.17065921
000260 52 38 46 3c ee 48 9f be 03 74 8e be d4 2f 80 be
       0.012098389 -0.31110328 -0.27822885 -0.2503649
000270 bd 6a 9c be 03 be e0 be af cc 5a be 11 00 5b be
       -0.30550185 -0.43894967 -0.21367143 -0.21386744
000280 9f 16 92 be 58 04 58 be 52 57 42 be d5 85 bc be
       -0.28532884 -0.21095407 -0.18978623 -0.36820856
000290 6c d8 47 bf 8d df a8 be 62 3d 05 bf b6 63 37 bf
       -0.7806461 -0.32983056 -0.5204679 -0.7163652
0002a0 2c 8f 50 3e 4b c9 b0 bc bb 58 1e bf 9b ff 01 bf
       0.20367116 -0.021580359 -0.6185414 -0.5078065
0002b0 12 e6 02 bf 1a d8 04 bf 3f 44 b6 be 8c ab e2 be
       -0.5113231 -0.51892245 -0.35598943 -0.44271505
0002c0 65 b5 bf bb b9 1b 84 be b2 e3 f3 bd 60 56 59 3e
       -0.0058504813 -0.258024 -0.11908664 0.21224356
0002d0 41 ca 09 bf b1 52 47 bf 08 ec a1 be 57 be 1f 3e
       -0.5382424 -0.7786055 -0.3162539 0.15599953
0002e0 78 6f 9f be f8 88 42 3e f3 d7 5f bf c8 87 57 bd
       -0.3113973 0.18997562 -0.8743889 -0.052619725
0002f0 9f a4 64 3f 02 49 34 be 08 a6 fa be f6 c5 0e bf
       0.8931369 -0.17605975 -0.48954797 -0.55770814
000300 b8 d2 b0 be d7 03 0b bf d7 5d fd be 47 d9 f1 be
       -0.34535766 -0.54302734 -0.49485657 -0.47236082
000310 50 8a 9e 3d 30 c7 0a 3f 86 f2 69 be 01 ea dc be
       0.07741225 0.54210186 -0.22846422 -0.4314728
000320 bb c6 de be 21 26 88 be ac e1 d8 be 1e c8 e4 be
       -0.43510994 -0.2659159 -0.42359674 -0.44683927
000330 2f 6e 22 bf 30 cf 4f be 37 83 f8 3e 20 33 b9 be
       -0.63449377 -0.2029388 0.4853761 -0.36171818
000340 33 0d 0d bf 19 75 c0 be 39 a7 67 be 7f ff 58 be
       -0.55098265 -0.37589338 -0.22622384 -0.21191214
000350 92 f7 6a be ce e0 7a bf 6b cd c6 be a8 af 93 3e
       -0.22946003 -0.97999275 -0.38828596 0.28844953
000360 5f ce c2 be e8 d5 0e bf 34 46 01 bf 46 cd 46 bf
       -0.38048074 -0.55795145 -0.50497746 -0.7765697
000370 1d 43 9d be f6 08 b7 3e b0 fb eb ba 3b d1 3c 3e
       -0.30715266 0.35749024 -0.0018004086 0.1843919
000380 e0 7e d0 3e 89 95 99 be fe 4f 52 be cb 47 e8 be
       0.40721798 -0.299969 -0.20538327 -0.45367274
000390 44 39 47 bf 1c ed c8 be 55 19 ef 3e 1a 93 b3 bd
       -0.77821755 -0.392434 0.46699014 -0.08768292
0003a0 ee 3e 5d 3e 92 1e 11 3f ac 23 9a bd 47 f8 a7 3d
       0.21606037 0.5668727 -0.07526335 0.08201652
0003b0 a4 24 55 3e 28 d7 8f bf ea b2 95 be ed ec ea 3e
       0.20814759 -1.1237535 -0.29238063 0.45883885
0003c0 76 19 a7 be 91 d8 08 3d 84 3d 22 3f 35 a7 2c be
       -0.32636613 0.03340966 0.63375115 -0.1686066
0003d0 04 57 2f be 61 e0 2c be 9c 30 0b bf 7d fa f3 be
       -0.17123038 -0.16882469 -0.5437105 -0.47652045
0003e0 52 9c da be d4 42 84 bf e8 27 23 bf 4d 17 45 bf
       -0.42697388 -1.0332894 -0.6373277 -0.7698868
0003f0 74 d7 61 be 2f 84 9d be e0 84 8a be f4 28 db be
       -0.22054845 -0.3076491 -0.270545 -0.42804682

down_convs.2.conv2.bias f4 [12]
000000 63 21 3f 3b ae 9f 6f 3c df 1d 8b bb bd 9b 8a 37
       0.0029164187 0.014625473 -0.0042455043 1.6523403e-05
000010 57 72 00 bb 26 8c 01 3b 4b 8b 69 3b d5 3b 2c bc
       -0.0019599402 0.0019767373 0.0035636004 -0.010512312
000020 15 c9 18 ba e0 f4 99 3b 55 94 0c bc b2 03 a8 3b
       -0.00058283034 0.004698381 -0.008580287 0.0051273936

down_convs.2.norm0.weight f4 [12]
000000 89 7f b0 3f 3d 66 90 3f fe 6a 94 3f 09 4a 8e 3f
       1.3788921 1.1281201 1.1595151 1.1116344
000010 49 38 29 3f 7f 9c a3 3e 7d 75 d8 3f 64 e8 7d 3f
       0.6610151 0.31955335 1.6910855 0.99182725
000020 18 c6 50 3f e6 72 6f 3f 02 65 bb 3e 66 64 a7 3f
       0.8155227 0.93534696 0.366005 1.3077514

down_convs.2.norm0.bias f4 [12]
000000 e0 33 15 be c3 11 c3 be 0c be c1 bb ed f0 02 bf
       -0.1457057 -0.3809949 -0.005912548 -0.51148874
000010 df 0d 04 bf 8f c8 1e bf 1e 85 47 be 70 30 b9 be
       -0.51583666 -0.6202478 -0.19484374 -0.36169767
000020 eb 93 07 bf 5e d0 c7 be ce 7a 07 bf d6 4b 6e 3e
       -0.5296008 -0.3902616 -0.5292176 0.23271117

down_convs.2.norm0.running_mean f4 [12]
000000 03 b2 c1 3f 7d a5 1d bf 75 c8 10 40 60 1c 29 c1
       1.513245 -0.6158064 2.262235 -10.5694275
000010 7b d8 aa 40 bc 0f 49 c1 2c 62 08 c1 07 ea e5 40
       5.338926 -12.566341 -8.523968 7.184818
000020 35 c4 79 3f 7f 07 35 c1 50 0e fa c0 47 e0 ab bf
       0.97565013 -11.31433 -7.814247 -1.3427819

down_convs.2.norm0.running_var f4 [12]
000000 68 b9 c1 42 15 0f c5 42 d5 15 00 43 93 be 85 42
       96.86212 98.52946 128.08528 66.872215
000010 e8 76 53 43 2b 46 a9 43 11 1e 41 42 4e 06 1e 43
       211.46448 338.5482 48.27936 158.02463
000020 ad 16 2d 43 e2 84 23 43 54 d8 1a 43 a9 3c 0d 42
       173.08858 163.51907 154.84503 35.30924

down_convs.2.norm1.weight f4 [12]
000000 1c 76 6f 3f 6e fa a7 3f ff 53 6c 3f 8a 97 a4 3f
       0.93539596 1.31233 0.9231567 1.2858746
000010 fa bc a9 3f ba 6e f1 3f 81 4f 5a 3f 0f ae 9f 3f
       1.3260796 1.8861916 0.85277563 1.2474993
000020 66 31 98 3f 74 aa ca 3f 20 f7 a9 3f fe a8 9d 3f
       1.1890075 1.5833268 1.3278542 1.2317197

down_convs.2.norm1.bias f4 [12]
000000 e6 b2 db bb 8a f5 ad be ea c2 0b be dd ab 7d bf
       -0.006704676 -0.33976394 -0.13648573 -0.9909037
000010 c8 20 9e be 5a bc 45 bf 76 80 df be b7 4a 92 be
       -0.30884385 -0.77240527 -0.43652695 -0.28572628
000020 ff bd 05 bf 19 bf c3 be 85 c0 90 bf 5d fa 98 bf
       -0.52243036 -0.38231733 -1.1308752 -1.1951405

down_convs.2.norm1.running_mean f4 [12]
000000 42 aa 51 c1 ce b2 46 c1 48 09 47 41 09 17 f0 bf
       -13.104067 -12.4186535 12.439766 -1.875703
000010 aa 7c c6 3e 16 de 17 c0 69 b3 03 c1 25 f2 e6 c0
       0.38766986 -2.37293 -8.231301 -7.2170587
000020 2c a5 78 40 69 6b b9 c0 58 c2 43 c0 d9 7b 6a c0
       3.8850813 -5.7943616 -3.0587368 -3.663809

down_convs.2.norm1.running_var f4 [12]
000000 8a 7a a6 42 2b 54 24 43 98 45 29 43 ae c6 07 42
       83.239334 164.32878 169.27185 33.944023
000010 ad 12 81 42 05 2b f0 41 01 4c 6f 42 17 8b 52 42
       64.536476 30.021006 59.824223 52.63583
000020 49 6b 92 42 f7 e5 32 42 40 22 d1 41 b7 4f bf 41
       73.20954 44.724575 26.141724 23.913923

down_convs.3.conv1.weight f4 [24, 12, 3, 3, 3]
000000 eb b7 5b bf 29 fa ed be 5e 85 33 3d f5 30 17 bf
       -0.8582751 -0.4647992 0.04382836 -0.5905908
000010 ac 7f eb be 0a fe 7f be b1 31 1d bf 66 95 5f bf
       -0.45995843 -0.24999252 -0.6140395 -0.8733734
000020 7f 8a 49 bf be 1f 7b bf 00 74 ae be 59 4c 98 bd
       -0.78726953 -0.9809531 -0.34072876 -0.07436437
000030 d8 4f f7 be 3c bb 7b be e8 d0 3c be 76 89 e3 bd
       -0.48303103 -0.24583143 -0.18439066 -0.11110203
000040 79 3f fa be 90 dd 52 bf ed 6d 83 bf f1 b4 3a bf
       -0.4887655 -0.8236933 -1.0267922 -0.72932345
000050 e4 71 ca be 10 f6 ba be 10 73 cc be d5 c3 e7 be
       -0.39540017 -0.36515856 -0.39931536 -0.45266595
000060 d4 68 00 3f e1 79 b0 bd 37 39 4f bf 20 b1 23 bf
       0.50159955 -0.086169966 -0.8094668 -0.63942146
000070 36 74 23 bf 25 64 75 bf c8 22 6c bf 10 ec 14 bf
       -0.638492 -0.95855933 -0.9224057 -0.581727
000080 9b 03 21 bf 9c 65 1f bf 52 5a a2 be b8 f0 44 be
       -0.62896127 -0.6226442 -0.31709534 -0.19232452
000090 e0 58 e2 be 06 5b c2 be 52 b2 26 bf 44 11 4d bf
       -0.4420843 -0.3796007 -0.65115845 -0.8010447
0000a0 ee 38 02 bf a0 da 1b bf 8f 54 05 bf d3 17 a6 be
       -0.5086812 -0.6088047 -0.5208215 -0.3244005
0000b0 fc 72 4d be 9d 7c 5c bf 90 f5 1d bf 5a 2c 29 bf
       -0.20063394 -0.86127645 -0.61702824 -0.660833
0000c0 7d c5 1a bf a9 b4 e0 be ae f1 0d bf 99 e1 b9 be
       -0.60457593 -0.43887833 -0.554469 -0.3630493
0000d0 67 5d 87 be 12 a2 fd be 16 0c b7 3e 29 fe 34 3e
       -0.26438448 -0.49537712 0.35751408 0.1767508
0000e0 10 fc f4 3d 05 73 8b 3e 9a 52 ff bd e0 24 2a be
       0.119621396 0.2723619 -0.12466927 -0.16615629
0000f0 e8 45 37 3f cc e3 e1 3e 80 5b e5 bc d6 5d ec 3e
       0.71591043 0.44119108 -0.027997732 0.4616534
000100 f1 e9 44 3e d2 64 41 3d 8c 38 0e 3e 23 26 5a bd
       0.19229867 0.04721529 0.13888758 -0.053259026
000110 55 b6 f8 bd 0a b0 57 3f 6f 85 7c 3f ee cb 14 3f
       -0.12144152 0.8425299 0.98641104 0.5812367
000120 7e 3e 10 3f 92 e1 cb 3e fb b6 e7 3e 3c 2f 22 3e
       0.56345356 0.39820534 0.4525679 0.15838331
000130 ee a3 12 be f8 58 b7 bd 5e dd 1c 3f 9d 6c 2d 3f
       -0.14320347 -0.08952516 0.6127528 0.67743856
000140 16 63 1c 3f 64 df df 3e 5e a0 7f be bd d3 19 bf
       0.61088693 0.4372512 -0.24963519 -0.6008871
000150 93 b6 09 3f a2 7c e6 3c 18 b0 20 bf 98 3b 5d 3f
       0.5379421 0.028135601 -0.627687 0.8641906
000160 6f 14 25 3f 64 ce 40 3e ab 13 6d 3e bc 6f 69 be
       0.64484304 0.18828732 0.23152034 -0.2279653
000170 49 04 a2 be d5 72 50 3e a7 ed 28 be bc 42 a7 be
       -0.31643894 0.20356305 -0.16496907 -0.32668102
000180 4d e2 92 3e ce 1f 06 3f da 78 ea 3e 1e b9 0b be
       0.2868828 0.5239228 0.45795327 -0.13644835
000190 9a f2 3b 3d 45 3a b2 bd 89 75 8a be e3 68 37 3e
       0.04588566 -0.0870252 -0.27042797 0.17911105
0001a0 bd 6b fe bc 14 c8 24 3d 38 4c 48 3f a7 7c 3e 3f
       -0.031057233 0.040229872 0.782413 0.74408954
0001b0 09 fe 06 3e 20 cd 06 3d 33 44 cd 3d 84 f3 6d 3d
       0.13182844 0.032910466 0.100227736 0.058093563
0001c0 22 9b 46 3e 3d c3 50 3e 66 0c 52 3e fd 9f b5 3e
       0.19395116 0.20386977 0.20512542 0.35473624
0001d0 0f c6 62 3d 9b da e8 3d 74 c6 68 3d a2 b2 66 bd
       0.055364665 0.11369821 0.056829885 -0.0563227
0001e0 13 48 d7 3d c6 22 1b 3e 88 73 3c 3e 26 fa 0c bd
       0.10511794 0.15149984 0.18403447 -0.034418248
0001f0 80 b3 15 3e c7 a2 30 3e 4e d7 82 3e 6d aa 50 3d
       0.14619255 0.17249595 0.2555489 0.05094378
000200 cc 6e 35 be 01 15 fe 3d ac 6e 6b 3e e5 22 95 3c
       -0.17718047 0.1240635 0.22991437 0.018205116
000210 bb d6 b6 be 3e a5 f0 be c2 1e 93 be 4e f8 b4 3e
       -0.357107 -0.4700107 -0.28734404 0.3534569
000220 2b a3 d0 3e 4d ad aa 3d 4a c6 7b 3e 16 a2 21 3e
       0.40749487 0.08333836 0.2458736 0.15784487
000230 f5 b7 65 3d d4 fe 86 3e ef e4 80 3a 01 3d 86 be
       0.05608364 0.26366293 0.0009833853 -0.26218417
000240 2c e9 49 3e 1d ff 11 3e 15 de 9f 3d 1d d7 4d bc
       0.19717854 0.14257474 0.07806031 -0.012563494
000250 e1 e2 b1 bc 7f e1 9b 3e 83 23 01 3f 0f e8 fe 3e
       -0.02171463 0.30445477 0.5044481 0.49786422
000260 f9 62 c1 3e 26 85 22 3f eb 23 ad 3e 5a 22 04 3f
       0.37770823 0.6348442 0.33816466 0.51614916
000270 f5 a3 60 3d 4a d1 69 be 47 05 6b 3e d5 c2 1b 3f
       0.05484386 -0.22833744 0.22951232 0.60844165
000280 9e e4 d4 3e 46 82 27 3f d9 0a 08 3f 9d df a5 3e
       0.4158067 0.65433156 0.5314155 0.32397166
000290 89 f7 41 be fd 85 18 3f cb e9 b0 3e cf b6 27 bd
       -0.18942083 0.5957945 0.3455337 -0.040945824
0002a0 f6 67 91 3e 94 f5 3c 3e 65 72 a5 3d 3a 5c 0e 3f
       0.28399628 0.18453056 0.0807846 0.55609477
0002b0 f0 b6 a6 3e 92 ac a6 3e 55 fb 9b 3e 48 63 4b 3e
       0.32561445 0.32553536 0.3046519 0.19862092
0002c0 af 1a 4a 3e 34 32 e5 3d 1e cc 7b 3d 62 c6 63 3e
       0.19736741 0.11191216 0.06147396 0.22243646
0002d0 e1 82 57 be b7 ae 85 3c 5f d3 dd 3e 33 89 ad be
       -0.2104602 0.016318662 0.43325326 -0.33893737
0002e0 5f 96 55 be 9c 73 80 3e d6 d3 77 bd 95 ff 48 bd
       -0.20858143 0.25088203 -0.060504757 -0.049071867
0002f0 d9 2a 77 3e 20 9d 99 3c b8 e7 a3 bc 98 d3 f4 3c
       0.24137439 0.01875168 -0.020007953 0.029886052
000300 0f fa 16 bf 10 d5 2a bf 12 f9 10 bf 3a a5 57 3c
       -0.5897531 -0.6673136 -0.5663005 0.013161952
000310 90 51 7f be 4a f4 ae be 89 bf 34 be 44 c5 a6 be
       -0.24933457 -0.34170753 -0.1765119 -0.32572377
000320 79 23 5e be 73 23 01 bf e8 15 32 bf e8 b8 20 bf
       -0.21693219 -0.50444716 -0.69564676 -0.62782145
000330 f9 4d 00 bf 9c 5c 0e bf f7 74 ce be 9c 71 fe bd
       -0.50118977 -0.5561006 -0.40323612 -0.12424013
000340 b1 3c a2 be 7e 67 21 be 18 96 4a bf d8 a6 16 bf
       -0.3168693 -0.15762135 -0.79135275 -0.58848333
000350 f4 a3 26 bf d1 e6 12 bf 1a d6 06 bf 9a 6f c6 be
       -0.6509392 -0.5738345 -0.52670443 -0.3875702
000360 8f 0b 78 bd 91 2a b2 be 7c 03 13 bf 2d 9d b0 3d
       -0.060557898 -0.347981 -0.5742719 0.08623729
000370 65 77 24 bd f2 d4 be bd d4 de 1d 3e 65 9c bd 3d
       -0.040152926 -0.0931796 0.15417033 0.092583455
000380 f4 d3 58 3c 8a 52 92 3e df 68 db bd d9 ef 5c be
       0.013234127 0.28578597 -0.10713362 -0.2157587
000390 ad 49 a4 3e d3 6c e1 3d ac 43 75 3d 3b 4f c1 3e
       0.3208746 0.11007085 0.05987899 0.3775576
0003a0 df c3 ae 3e d2 b7 26 3e 76 dc 99 3e d9 cb ba bc
       0.34133813 0.1628106 0.3005101 -0.02280228
0003b0 d3 16 a9 be 6b 1a bd 3e 0d 7d 80 3e 22 28 8c 3c
       -0.33025226 0.36934218 0.25095406 0.01710898
0003c0 26 f6 48 3e 83 e0 53 3e 01 6e 59 3d da 38 7a be
       0.19625148 0.20691113 0.053083424 -0.2443575
0003d0 67 0f 25 bf 4a c9 1f 3e e8 7a de 3e e1 f1 1c bf
       -0.6447663 0.1560413 0.43453145 -0.6130658
0003e0 28 6b 69 bf c4 f0 09 bf 2e 81 ce bf 9f 08 b4 bf
       -0.9117913 -0.53883004 -1.6133173 -1.4065131
0003f0 07 8c 11 be ef 4b d3 be 19 0f 02 be 95 be d5 3e
       -0.14213572 -0.4126887 -0.12701072 0.41746965

down_convs.3.conv1.bias f4 [24]
000000 23 b0 fa 38 ba 26 3b 3a 99 86 82 3a 5b d9 34 38
       0.00011953737 0.00071392546 0.0009958326 4.3117772e-05
000010 d1 22 dc 39 b9 2b 43 b9 3a 6c 33 b8 c4 6b 10 39
       0.0004198761 -0.00018612937 -4.277772e-05 0.00013773056
000020 8e 74 01 ba f5 44 0d ba 04 5f d8 b8 db 67 c4 ba
       -0.00049383275 -0.00053889985 -0.00010317381 -0.0014984565
000030 37 50 fc 39 62 74 0e bb e7 a4 b7 36 af 5c 53 b5
       0.0004812495 -0.002173685 5.473022e-06 -7.87385e-07
000040 e2 0b e7 b9 ab c8 d9 b9 c1 40 2f b8 5e 43 13 39
       -0.00044068607 -0.00041538975 -4.1783558e-05 0.00014044109
000050 8f a9 61 ba 47 eb 6d 38 5c 82 c9 b9 75 94 53 38
       -0.0008608335 5.6724322e-05 -0.00038434833 5.044458e-05
