outputs/outputs_new_full_mask/epoch_170_model.pth (torch, 695187 bytes, 241 tensors)

down_convs.0.conv1.weight f4 [3, 1, 3, 3, 3]
00000000: f29a d4be 605f f7bd fea1 34be f743 a2be
00000010: 73b8 8abe ad1e 7ebc b861 0abe b281 c8bc
00000020: 8a9c 2cbe 2dd1 11be b8dc 7dbd 730b 96bc
00000030: d68b 9cbe 8b6d acbe c8b2 8cbd f7dd 48be
00000040: 216b 1dbe e548 95bc f1b2 61bc f459 61be
00000050: ece7 e5bd 9500 aebe f849 bfbd f48d 423e
00000060: 9c72 163e bdfe 8ebe e2c0 67be 6c29 dabf
00000070: dcb8 0abf 654f 3d3e 0426 e7bf 4378 71bf
00000080: 172e a03f 43f6 11bf c0f7 953e 5405 983f
00000090: f936 373e bd3e 2b3f c485 503f 4930 483f
000000a0: 3ca8 fa3f 58e1 e740 9dc6 ae3d 657a a53e
000000b0: 133c 193f 57c8 5dbc f2c1 6b3f b75b 953f
000000c0: c4c3 96bf cd86 2ebf 13c8 fa3f 7e9d c2be
000000d0: 91ec 813c 0b8c 123d b7a6 7cbf 0212 af3f
000000e0: b0c5 1e40 cbd6 0dbf 7c87 b33f f8b9 b240
000000f0: 2cf2 34bf 9baa dc3e 19e9 233f 6370 063b
00000100: 026a c0bc 811b 4a3f 79e9 4d3e d403 083e
00000110: 092b e93f c666 ae3f 0b64 613f a914 d93f
00000120: 5ade a2bf 2e16 603d bc4e bebf d5c4 b5bf
00000130: 1a23 a1bc 7a3e 96bf e634 023e 078f 923f
00000140: 90d6 51bf
-0.41524464 -0.12078738 -0.1763992 -0.31692478 -0.2709385 -0.015510243 -0.13513839 -0.024475906
-0.1685659 -0.1423995 -0.061978072 -0.018316006 -0.30575436 -0.33677325 -0.06870037 -0.19615923
-0.15372898 -0.018223235 -0.013775573 -0.2200697 -0.11225876 -0.3398482 -0.0934028 0.18999463
0.14692158 -0.27928725 -0.22632173 -1.7043891 -0.54188323 0.18487318 -1.8058476 -0.9432413
1.2514066 -0.5701639 0.2929058 1.1876626 0.17892064 0.66892606 0.8145411 0.7819868
1.9582591 7.246258 0.08533976 0.32319942 0.5985729 -0.013536534 0.9209281 1.1668614
-1.1778493 -0.6817444 1.9592308 -0.38010782 0.015859874 0.035778087 -0.98691887 1.367737
2.480816 -0.55405873 1.4025722 5.5852013 -0.70682025 0.43098912 0.64027554 0.0020513765
-0.023488048 0.7894822 0.20108594 0.1328271 1.8216258 1.3625114 0.8804328 1.695943
-1.2724106 0.054708652 -1.4867778 -1.4200693 -0.019670058 -1.1737816 0.12715492 1.1449898
-0.8196802

down_convs.0.conv1.bias f4 [3]
00000000: 732d f939 69b6 0340 0194 c1bd
0.00047526843 2.0580084 -0.09452058

down_convs.0.conv2.weight f4 [3, 3, 3, 3, 3]
00000000: f664 b7bc dd6e 2c3d 9bf6 e7bd c31b 4c3e
00000010: a370 4dbd 8f66 f5bd 87f1 f3bd ab4c e4bd
00000020: 6707 613d 22b3 ce3e 7ac7 98bd 7427 7fbc
00000030: 7c57 f93d 19cc fdbd 053e b13d 2abf 2e3e
00000040: e475 3c3d 67cc 55be 12bf 983d ab88 753e
00000050: 2529 393d 4f47 e5bc 34d3 973d e524 ccbd
00000060: be8c 16be 4be6 28be 6f75 153d f9ed 43bf
00000070: 888b 2bbf 4105 c7bf 052a db3f e77d 23bf
00000080: a058 f5bf e4e2 0c40 1900 973f 5f2f ecbe
00000090: 1082 4f3d b90d 41bf c437 dcbf 6b0f e03f
000000a0: 4639 9abf 54a2 0ec0 8353 a53f 8a34 1abe
000000b0: 5f16 febf 3d33 b6bf 0a74 35bf 8f1d 573f
000000c0: 4682 fd3e 74cc b6bf 232d 9b3e c673 e73e
000000d0: 0687 70bf efa4 aebf 3863 fbbe 1eb9 35bf
000000e0: 952b a3be 44c5 f23f 717d 8e3e 9a34 9d3e
000000f0: 210c e33f ae0e d13f 3f0a e03e 8adb 403d
00000100: c0c3 aebf 4f4e 6cc0 cf6a 6a3f 1ab7 06c0
00000110: a7c2 70c0 d62a cd3f 02dd 853f 425e 95bf
00000120: 778e 423f 101e 83bf 2160 a7bf f1c2 da3f
00000130: 840c d2bf 205f 02c0 9c62 f83e 3112 1ebf
00000140: 12bb 0fc0 fd6c 01be 3829 66be 2abc 9cbd
00000150: 6659 c53d 23c8 acbd 5746 15be c86f a9bc
00000160: 5ba8 5ebe 1b69 0c3e ce3d 83be 2585 70bd
00000170: 639c a4bd a182 ff3d 500e a8bb 490b 6abd
00000180: 78cd b6be 4ab2 b5bc 43db a3bd 7dc4 723c
00000190: a6a0 4f3d 62c8 c8ba a75b 163c 1498 01be
000001a0: ce19 88bd 26f7 47bd 63f4 22be 588b 8b3d
000001b0: 3aa1 923f 8010 edbf dabb 63bf 0b89 0940
000001c0: 898d 6b3f 5bb2 263e 77c0 bbbe a187 d93f
000001d0: 3599 66be 6dea 68be 4355 f3bf 3630 fb3f
000001e0: ecc9 24bf d5d3 08bf a96d a73f e281 b5c0
000001f0: 2362 d7bf 4db1 74be 5e36 45bf e954 65bf
00000200: 4554 b8bf d41d 0e3f f79a 8b3f c3fb 5a3e
00000210: c4b8 00bf da95 2240 3a07 003f bea2 803f
00000220: c51a 903f 014f adbf 7a02 cb3f 8fa8 c03f
00000230: 987e b6bf de61 3f3f d35c 973f 4ef3 46bf
00000240: 06a1 1cc0 b4a0 4ec0 82fc 553f c3ec 0dc0
00000250: 1304 0cc0 b4ba 8b3f 333f 0cc0 7f7e 1ac0
00000260: 5430 933f a3a4 a73f 3fab 05c0 6a43 dc3f
00000270: 7451 e43f 831c 7bbf eb5c d83f f3bf 66bf
00000280: 0a73 28c0 99ca fb3d 0707 f43d 0d21 323d
00000290: 4fc7 89bd 6630 e13c fd40 14be 2fef 71bd
000002a0: d1d8 1f3d 6a85 51be ad58 e3bd b697 3c3e
000002b0: 9225 67bd e8e4 f1bc 3f18 f1bd 5926 42bc
000002c0: 34cb 0ebe ab02 91be b083 7c3d 3a54 17be
000002d0: bbaf 9a3d 49c5 3ebe 6878 e0bd 5d56 7fbc
000002e0: 2a21 703d c159 00bc 1e13 a9bd 4801 fe3d
000002f0: fe50 5ebd bd36 d13f f095 5540 f017 ce3f
00000300: e6a0 323f 3557 c540 039b 1f3f b3cc db3e
00000310: 6bdf ad3f e470 e63d b3c2 333f 1dcc bc3f
00000320: 6b46 4f3f b76c 9fbd 26de b43f 29df 55bf
00000330: e5b2 ef3e ee5d 663f fa46 40bf 8690 21bf
00000340: 7ae0 8dbe d835 5fbf d30f a8bf cdae 31bf
00000350: 600e 10c0 d85e 1bbe 0e22 293e 8990 97bf
00000360: d90a 48bf f14d c83d d082 17bf 5913 e6bf
00000370: 0b31 2abf c53b d9bf 172a adbe feef cd3e
00000380: a617 b7be 4590 f23e 96ae f93f 6be4 903f
00000390: 7295 15be 5354 4440 b489 6dbd 9b67 073f
000003a0: fa3e 9a3f 964e 803e 0019 213f 7664 3b40
000003b0: b17d 963f 5933 6f3e a973 4c40 b31b c1bd
000003c0: 7404 593f 783f 0040 5ff0 123f
-0.02238701 0.042097915 -0.11326333 0.19932465 -0.050156247 -0.11982452 -0.11911302 -0.11147436
0.0549387 0.40371042 -0.07459922 -0.015573371 0.121748894 -0.12392444 0.086544074 0.17065111
0.046010867 -0.20878755 0.07458319 0.23977916 0.045205254 -0.027988104 0.07413331 -0.099679746
-0.14702126 -0.164941 0.036488947 -0.7653499 -0.6700978 -1.5548478 1.7122198 -0.63863987
-1.9167671 2.2013483 1.1796905 -0.4612989 0.050661147 -0.75411564 -1.7204518 1.7504705
-1.2048728 -2.2286577 1.2916111 -0.15059105 -1.9850577 -1.4234387 -0.70880187 0.8402948
0.49513453 -1.4281144 0.30307874 0.45205516 -0.9395603 -1.3644084 -0.49099135 -0.7098559
-0.31869188 1.8966451 0.2783008 0.30704194 1.7738076 1.6332605 0.43757817 0.04708437
-1.3653488 -3.6922796 0.91569227 -2.1049256 -3.7618806 1.6028697 1.0458071 -1.166939
0.75998634 -1.0243549 -1.3076211 1.7090741 -1.641007 -2.037056 0.48512733 -0.6174651
-2.2457929 -0.12639232 -0.22476661 -0.07653077 0.09636192 -0.084366105 -0.14577614 -0.020683184
-0.2174391 0.1371197 -0.2563309 -0.058720727 -0.08037641 0.12476087 -0.0051286593 -0.05713967
-0.35703635 -0.022179741 -0.08000805 0.014817354 0.050690316 -0.0015318508 0.009177125 -0.1265567
-0.06645547 -0.048819683 -0.15913539 0.06813687 1.1455452 -1.852066 -0.88958514 2.1489894
0.9201284 0.16278975 -0.36670277 1.6994516 -0.22519381 -0.22745676 -1.9010395 1.9624088
-0.6437061 -0.5344823 1.3080341 -5.672105 -1.6826824 -0.2389576 -0.7703608 -0.8958269
-1.4400717 0.55514264 1.0906667 0.21385102 -0.5028193 2.5403962 0.50011027 1.0049665
1.125817 -1.3539735 1.5860131 1.505144 -1.4257383 0.7475871 1.1825203 -0.77715003
-2.447328 -3.2285585 0.8358842 -2.2175758 -2.1877487 1.0916352 -2.1913574 -2.4139707
1.1499124 1.3097118 -2.088577 1.7208073 1.7837358 -0.9809038 1.6903356 -0.9013664
-2.6320214 0.12294502 0.11915403 0.04348855 -0.06727468 0.027488898 -0.14477916 -0.059065994
0.03902513 -0.2046105 -0.11100898 0.18417248 -0.056432314 -0.029528096 -0.11772203 -0.011849963
-0.13944703 -0.28322348 0.061649024 -0.14778224 0.07553049 -0.18629946 -0.10960466 -0.015584555
0.058625378 -0.007833899 -0.082555994 0.12402588 -0.05427646 1.634483 3.3372765 1.6101055
0.6977676 6.1668954 0.62345904 0.4292961 1.3583807 0.11252001 0.7021896 1.474979
0.80966824 -0.077844076 1.4130294 -0.8354364 0.46816173 0.89987075 -0.751083 -0.6311115
-0.27710325 -0.87191534 -1.3129829 -0.6940735 -2.2508774 -0.15172899 0.16516897 -1.1840984
-0.7814155 0.09780491 -0.5918398 -1.7974654 -0.66481084 -1.6971365 -0.33821175 0.40222162
-0.3576023 0.47375694 1.9506404 1.1319708 -0.1460779 3.0676467 -0.057992652 0.52892464
1.2050469 0.25059956 0.6292877 2.9280066 1.1757108 0.23359431 3.1945593 -0.09429111
0.8477242 2.0038738 0.5739803

down_convs.0.conv2.bias f4 [3]
00000000: a507 b63f 745f a43e b494 df40
1.4221083 0.32104075 6.986902

down_convs.0.norm0.weight f4 [3]
00000000: 6717 f13e f8f1 6540 49ab 5540
0.47088167 3.5928936 3.3385794

down_convs.0.norm0.bias f4 [3]
00000000: d866 02bf 1b7d 1a3d 5610 563e
-0.5093818 0.037716966 0.20904669

down_convs.0.norm0.running_mean f4 [3]
00000000: 8423 debc 32c4 0740 484b 00bd
-0.027116545 2.1213498 -0.031321794

down_convs.0.norm0.running_var f4 [3]
00000000: 4ec1 5a41 452b 0843 ba76 fe42
13.672194 136.16902 127.23189

down_convs.0.norm1.weight f4 [3]
00000000: 752c 1340 04b0 7240 c665 2740
2.2995884 3.7919931 2.6155868

down_convs.0.norm1.bias f4 [3]
00000000: a20b 18bf 90d5 2c3f 457d 65be
-0.5939275 0.6751337 -0.22411068

down_convs.0.norm1.running_mean f4 [3]
00000000: 4340 b4c1 a4c9 58c1 e131 1d42
-22.531378 -13.549229 39.29871

down_convs.0.norm1.running_var f4 [3]
00000000: e0e4 6345 2378 8044 e175 b845
3646.3047 1027.7543 5902.735

down_convs.1.conv1.weight f4 [6, 3, 3, 3, 3]
00000000: 6979 dbbe b014 eebe cc80 69c0 bda4 3bbf
00000010: 8fb4 91bf 5319 22c0 f73d bbbf 9b29 efbf
00000020: 60b1 f0bf a0d2 a9bd 9998 f83c a297 43c0
00000030: 8711 1f3e 3d70 55bf 7275 52c0 0793 923e
00000040: 417b b1bd 5fb8 bbbf d51c 01bf 1009 c93d
00000050: 45c6 2dc0 1ae2 753f d08a 58be 690d fbbf
00000060: 48b8 f03f 2d32 bf3f 303c 8bbe 141d 39bf
00000070: 325b 34bf d855 27bf 4da8 92be 8d1b d8be
00000080: a85a 05bf 9380 ae3c 205a 09bf 4541 34bf
00000090: 9ef8 0dbe 7cdf 993e f90d d5be 28f6 a7be
000000a0: 901f dfbd 7f8a 6cbf 80fd bb3e 1676 a23e
000000b0: db36 c4be fe9f 213e 906a 75be f5af 69bf
000000c0: 00e0 1e3f 76ea 803e 9f92 803d 5206 803f
000000d0: 519b 393f d6f7 7c3e d84b 633f 3bf1 32c0
000000e0: b214 3cc0 85a6 82bf 0d0d 64c0 3041 75bf
000000f0: e92f cdbf 81d9 d6bf abb9 c2bf cd12 8cbf
00000100: e4d5 68c0 36e5 1dc0 73f5 19c0 0c83 87c0
00000110: 0e1c cebf 9bdb 31bf bde2 a9bf c6ab cebf
00000120: cc5b a8bf d251 25bf ca20 d43f edbf 81c0
00000130: 9a4e 67c0 3ab2 50bf 9ba6 9cbf caef fbbf
00000140: e022 14c0 eb89 babe b4c6 77be 594a 20c0
00000150: 4fa3 1fbf de96 67bf c95d eabf 6893 d6bf
00000160: de30 0fc0 3d85 eabf f630 9bbd c514 d23e
00000170: 784c f3bf 42a7 8a3e 106c 69bf 052a 19c0
00000180: f2b7 04be f25e b2be c09d 4ebf aa67 3e3e
00000190: 20dd 5e3f 5d15 c7bf a33e 953f 5c3a fe3e
000001a0: 48e1 b1bf a523 0940 48a7 c63f 8770 2e3f
000001b0: 488a c93e df08 d83e 0640 34bc 5707 8c3e
000001c0: b2a3 7ebd e085 91be 7a44 083d 3fd8 26be
000001d0: e0ad c0be 860b 113f aec2 d93e 1e48 43be
000001e0: 3982 02bc 8127 583e 1afd 2bbf d05d 843e
000001f0: 2b62 853e 87e3 88be 26c3 ac3e 5e36 063d
00000200: a138 13bf c30a 943f 5e93 1e3f 3a3a 2d3f
00000210: 8c08 683f 18e0 2b3f b6bc ad3d 9635 08c0
00000220: 485d 99c0 d26c 8ec0 b2e3 3dc0 8704 49c0
00000230: 51ef 01bf 347b e5bf cb1e 83bf e92b 18bf
00000240: 2052 f2bf e3a9 6fc0 bfbf 75c0 0623 1dc0
00000250: 41d4 3fc0 e479 c8bf 27e5 03bf 706b cdbe
00000260: 6d60 6bbf e75c 69bf 8a8f 44bf 0b43 97be
00000270: 073a 89c0 d6be 8ec0 3900 1fc0 f379 a9bf
00000280: 5deb f5bf e64a 13c0 6e5e 17c0 24ba e1bf
00000290: 6292 eabf 0f50 eabf 5cfa 30bf 790d bbbe
000002a0: 24e5 ccbf bb3e b9bf 7fa3 a1bf 5a50 d9be
000002b0: ff5b 83be f00e bbbd f175 6abf cf18 c9be
000002c0: ea1e 5abc 6a28 99bf 28e9 acbf e6d7 05bf
000002d0: db50 913f 4b5b 9d3f ba06 b93f 0536 193f
000002e0: 567e 873f 55ec 783f 10fb bcbd 39a9 993d
000002f0: 86a5 ed3e d175 393e 41a6 af3e cb5e 2ebf
00000300: 0b8f 77bd ede1 20be b679 cabe 10e9 13c0
00000310: 7970 89bf d11e b6bf 320d b43f e779 be3f
00000320: d456 873d 49be 7dbe 49e2 b43e 7a22 19be
00000330: 3a54 3cc0 b32b 32bf 31af bfbf 1fdf 753f
00000340: 1bd4 5e3f eeef 2ebe 60ac 05bf 6b4f 333d
00000350: 5369 4cbe 1031 8bc0 d78a 04c0 4ba7 11c0
00000360: f1b9 12c0 e907 0dc0 49b4 29c0 59cd aebf
00000370: 87b9 5bbf e65b b1bf 0ffd 913e 3f5d ecbe
00000380: 0483 ebbf eda8 683e 50d0 343b 6df8 f8bf
00000390: ceb7 243f 818b b13e 3be4 90bf 8762 dc3f
000003a0: eb26 a23e f365 6bbf 83bd bb3f 88c1 763e
000003b0: 5e92 0ac0 f0f9 b43f 2b74 803e 7708 b3bf
000003c0: e372 3640 65ae 7a3f 8dc5 f3be bf4d 9dbf
000003d0: 5bab c03f aa0d 4040 7f62 aabf 7a2a 003f
000003e0: 06c7 ad3f d2b5 23be f71c 743f d09f acbd
000003f0: b1ce 86bf 0dc2 d93e ba4c b43f dd33 babf
-0.42866066 -0.46500158 -3.6484861 -0.73298246 -1.1383227 -2.5327957 -1.4628285 -1.8684572
-1.880413 -0.08292127 0.030346202 -3.05613 0.1553403 -0.8337439 -3.2884183 0.28627798
-0.08666087 -1.466564 -0.5043462 0.09816182 -2.7152264 0.9604813 -0.21146703 -1.9613467
1.8806238 1.4937187 -0.27194357 -0.72309995 -0.70451653 -0.6536536 -0.28644028 -0.4220852
-0.52091455 0.021301543 -0.53653145 -0.70412093 -0.13864371 0.30053318 -0.41612223 -0.3280499
-0.10894692 -0.9239883 0.36716843 0.31730717 -0.383231 0.15783688 -0.23966432 -0.91284114
0.62060547 0.2517888 0.06277966 1.0001929 0.7250262 0.24703917 0.88787603 -2.7959735
-2.9387631 -1.0207068 -3.5632966 -0.95802593 -1.6030246 -1.6785127 -1.5212911 -1.0943238
-3.6380548 -2.467115 -2.405606 -4.234747 -1.6102312 -0.69475716 -1.327232 -1.6146171
-1.3153014 -0.6457797 1.6572506 -4.0546784 -3.6141725 -0.8152195 -1.2238344 -1.9682553
-2.3146286 -0.36433348 -0.24196893 -2.5045378 -0.62358564 -0.9046458 -1.8309871 -1.6763735
-2.2373576 -1.8321911 -0.07577698 0.4103147 -1.9007711 0.27080733 -0.91180515 -2.3931897
-0.12960795 -0.34838063 -0.8070946 0.18594232 0.8705616 -1.5553395 1.165974 0.496539
-1.3896875 2.1428006 1.55198 0.68140453 0.39363313 0.42194268 -0.0110015925 0.2734935
-0.06216783 -0.2842245 0.03326843 -0.16293429 -0.37632656 0.5665821 0.4253134 -0.1907048
-0.007965618 0.2110882 -0.6718308 0.25852823 0.2605146 -0.2673609 0.33742636 0.032766692
-0.57508284 1.1565784 0.61943614 0.6766697 0.9063804 0.67138815 0.084832594 -2.1282706
-4.792637 -4.4507837 -2.9670224 -3.1409013 -0.5075579 -1.7928224 -1.0243772 -0.59442
-1.8931313 -3.744744 -3.8398283 -2.4552627 -2.99733 -1.5662198 -0.51521534 -0.4012103
-0.9194401 -0.9115738 -0.76781523 -0.29543337 -4.2883334 -4.4607954 -2.4843886 -1.3240341
-1.9212452 -2.3014464 -2.3651385 -1.7634931 -1.8325922 -1.8305682 -0.6913202 -0.36533716
-1.6007428 -1.4472269 -1.262802 -0.42444116 -0.25656125 -0.091337085 -0.91586214 -0.3927674
-0.013313035 -1.1965458 -1.3508654 -0.5228256 1.13528 1.2293485 1.4455178 0.5984805
1.058543 0.97235614 -0.09227574 0.0750298 0.46415347 0.1811135 0.3430653 -0.6811339
-0.06043915 -0.15711184 -0.39545983 -2.3111 -1.0737449 -1.4228154 1.4066527 1.4880952
0.06608358 -0.2477962 0.35328892 -0.14954558 -2.9426408 -0.6959793 -1.4975339 0.9604358
0.870424 -0.17083713 -0.5221615 0.04377691 -0.19962053 -4.349739 -2.070974 -2.2758358
-2.292599 -2.2036078 -2.6516287 -1.3656417 -0.8582997 -1.385617 0.2851338 -0.4616489
-1.8399358 0.2272069 0.0027589984 -1.9450814 0.64342964 0.34676746 -1.131965 1.7217568
0.31670317 -0.9195244 1.4667209 0.24097264 -2.1651835 1.4138775 0.2508863 -1.3986958
2.8507621 0.97922355 -0.47611657 -1.2289351 1.5052294 3.000834 -1.3311309 0.50064814
1.3576362 -0.15987328 0.95356697 -0.08428919 -1.0531827 0.42530861 1.4085915 -1.4547077

down_convs.1.conv1.bias f4 [6]
00000000: fdbc 24bd 2bdd 1fbe 1a2f de3e 91a7 bbbe
00000010: 7da9 263b b3a9 fbbd
-0.040219296 -0.15611713 0.4339531 -0.3665128 0.0025430613 -0.12288227

down_convs.1.conv2.weight f4 [6, 6, 3, 3, 3]
00000000: 5152 6ebf bbc6 23bf 8b8d a9bf f9d9 a9bf
00000010: f29f d7bf 8f0b b3bf 9cfc d8bf 65c4 01c0
00000020: 5fb5 0cc0 b47e 37be f80c 893e 5cd2 b9be
00000030: d9de 33bf 8c3b 31bf de89 1cbf f7a5 96be
00000040: 78e2 78bf 7b2f bfbf 1c62 cebe 1db5 9b3e
00000050: 0fd0 5cbf f613 76be c101 2f3f a0db d53d
00000060: b86e 64bf f12b 8ebf 7c06 c1bf d8ec 4fbf
00000070: a35b 0bbf e06a 6dbf bb2b ddbf 246b f4bf
00000080: 0667 b7bf 33b0 f8bf c504 2ac0 9981 32c0
00000090: c9ff debe f7fe d33e 5876 4abd 8d20 dcbf
000000a0: db5b 74bf 1d8d 03bf cd56 8bbf e6d6 afbf
000000b0: ec79 f5bf 2eb3 56bf 3bfe c83e cb24 25bf
000000c0: 60b4 9bbf 59fa 493e 8040 0a3f 7309 f4bf
000000d0: 4087 efbf 4c2d b7bf 205c ca3e 52e6 be3f
000000e0: 4dd3 a63f deaf 153f 3a9d da3f b25c 8c3f
000000f0: eef1 ef3e 6955 a63f 7d32 123f 2010 1a40
00000100: 1f99 7c40 f1e7 2c40 ebbb 1840 0900 6340
00000110: 938a 3b40 8f31 763f 772c e73f c3fd e83f
00000120: 99b7 bf3f 73de 4040 1b83 4640 f68d 373f
00000130: 58df d83f 9951 c53f 8677 f8bd 7eb0 893e
00000140: 59ee 0c3f 7a86 f3bf 219a c9bf a021 dbbf
00000150: 822b 2fbf 9c2b a4bf 7f1f 91bf 08b2 e13e
00000160: 4cd7 4abf 9160 0b3e c1d6 59bd afe1 bc3f
00000170: 1ea5 31bf 99e6 0f3f 0d1e 353f d745 65bf
00000180: 92ee 1b3e 601b 80be 0d3f 0dbf a313 b8bf
00000190: a9c0 a93e 10ba 22bf dcdd 03bf d600 aabe
000001a0: 101e 62bf f0b1 a1bf 73c3 bbbf 3f1b c7be
000001b0: 94f8 8a3f c049 143e 7e2b 9dbe 55f8 54bf
000001c0: b8f0 88be 3a62 0bc0 af56 2fbf b5ef cbbf
000001d0: d5be 9abf d7c2 ac3e 5d93 39bf 2e91 84bf
000001e0: dde9 a3bd 8f91 be3e 6c27 d0bf ef6c 4cbf
000001f0: 7907 b6bf 9fcc 9dbf 2511 0740 988b 153f
00000200: 074d 1cbb 71ee f13f 502e ad3f 4609 82bf
00000210: 82ef ff3f 6762 613e aa96 31bf 60fa fb3d
00000220: 6a59 26bf 678b eabf dca1 84bf fe59 a6bf
00000230: 584d 04c0 02a3 073e 52e5 efbe 7d4c 08bf
00000240: d88e 803e 1d81 43be b188 31c0 986f 85bf
00000250: 39e7 2dbf ca3e 0cc0 1723 813e 4084 e43e
00000260: 68db 9cbe 0cff 683f 125e fb3e a5ea 08c0
00000270: 484a 5abf 35d2 a6be 2c00 ccbf d50d 25bf
00000280: 2bb4 bfbe 9935 a2be 3407 bb3f 1c5c 3140
00000290: 7a85 5940 11c2 4f3f e256 e73f d91e 3140
000002a0: 8278 ac3f 41fa d23f 5709 1740 a57e 4bbe
000002b0: 8c10 903f 7a18 1640 1c4e 99be dbd8 7e3f
000002c0: 5cab f73f 510c 943f f648 bb3f 7ba1 f43f
000002d0: d98b 0dc0 4556 96bf c0fb 1d3e 2025 04c0
000002e0: 7a74 a9be cfe7 403f 9e40 d0be 9c05 613f
000002f0: 7e63 ae3f ee08 b63f 400a 3d40 e9b8 5040
00000300: 4c08 8b3f 2fd8 1040 a97d 3640 ef5f d83f
00000310: cdc9 1e40 18f2 3c40 4266 103e 76da d53f
00000320: 827a 1340 501b be3e f75e ea3f ded8 1540
00000330: 4a17 f53f d78a 4040 c4ad 2e40 ff9a e3bf
00000340: 65a0 0fbf 81dc 33be 893e b3bf 27a9 8c3d
00000350: c6fb 543f 34b5 2d3f 9fa9 f53f d840 f13f
00000360: ca17 de3f bff7 2dbc fe33 a4be ebc2 3140
00000370: d3f3 423f 3038 013f 8a92 0d40 9009 0b3f
00000380: 5eef 0f3f fb6a 063f 9c62 36bf 02fa 87be
00000390: d0ee 8a3f 6144 00bf 43e3 563d 566e 1b3f
000003a0: 679f 3abf fba0 123e da2c 7a3f fd66 7b3f
000003b0: 52e5 c23f 2c2e b83f 53b2 373f d728 a73f
000003c0: f090 143f c641 c83e 64e0 473f 2bfd 0140
000003d0: b226 593f 2c2b f23f 2635 9a3f 45d2 563f
000003e0: ee39 1840 13b4 303f de15 08bd 655a 923f
000003f0: 3620 ce3f 705e a4bb cfeb b83f e225 d33e
-0.93094355 -0.63975114 -1.324632 -1.3269645 -1.6845686 -1.3987902 -1.695209 -2.027612
-2.19857 -0.17919427 0.26767707 -0.36293304 -0.70261914 -0.69231486 -0.6114787 -0.29423496
-0.97220564 -1.4936365 -0.40309227 0.30411616 -0.8625497 -0.24031052 0.6836205 0.10442281
-0.89231443 -1.110716 -1.5080104 -0.8122077 -0.544367 -0.92741203 -1.727897 -1.9095197
-1.4328315 -1.9428772 -2.656541 -2.78916 -0.43554524 0.4140546 -0.049429268 -1.7197434
-0.9545266 -0.51387197 -1.0885864 -1.3737457 -1.9177833 -0.83867157 0.39256462 -0.64509267
-1.2164421 0.19724406 0.5400467 -1.9065384 -1.871315 -1.4310699 0.3952341 1.4914038
1.3033234 0.5847148 1.7079232 1.0965788 0.46864265 1.2994815 0.5710829 2.4072342
3.9468458 2.7016566 2.3864696 3.5468771 2.930333 0.9616937 1.8060445 1.8202442
1.4977905 3.0135772 3.101752 0.7170099 1.6943159 1.5415527 -0.12132172 0.26892465
0.5505119 -1.9025414 -1.5750161 -1.7119637 -0.6842576 -1.2825809 -1.1337737 0.4408114
-0.79234767 0.13611056 -0.05318332 1.4756373 -0.69392574 0.5621124 0.7074898 -0.8955969
0.15227726 -0.25020885 -0.5517433 -1.4380993 0.331548 -0.6356516 -0.51510406 -0.33203763
-0.8832712 -1.2632427 -1.4669021 -0.38887975 1.085711 0.14481258 -0.30697244 -0.83191425
-0.26746154 -2.1778703 -0.68491644 -1.5932528 -1.2089487 0.337424 -0.72490484 -1.0356805
-0.0800359 0.37220427 -1.6262031 -0.7985372 -1.422103 -1.232807 2.1104214 0.5841613
-0.0023849623 1.8900892 1.3529758 -1.015908 1.9994967 0.22010194 -0.6937052 0.123036146
-0.64980185 -1.8323792 -1.0361896 -1.2996213 -2.0672207 0.13245776 -0.46854645 -0.5324171
0.2510898 -0.19092222 -2.773968 -1.0424681 -0.6793094 -2.1913323 0.25222084 0.4463215
-0.30636144 0.9101417 0.49095207 -2.1393216 -0.85269594 -0.3258225 -1.5937552 -0.6447423
-0.37442145 -0.31681517 1.4611573 2.771247 3.3987718 0.81155497 1.807339 2.7675078
1.3474276 1.6482621 2.359945 -0.1987253 1.125505 2.345244 -0.29942405 0.99549645
1.934917 1.1566259 1.4631641 1.911178 -2.2116606 -1.1745077 0.15428066 -2.064766
-0.33096677 0.7535371 -0.406743 0.87899184 1.3624113 1.4221475 2.9537506 3.261286
1.0861907 2.2631948 2.8514197 1.6904277 2.481067 2.9522762 0.14101508 1.6707294
2.3043523 0.37130213 1.8310231 2.3413615 1.9147732 3.008474 2.7293558 -1.7781676
-0.5610412 -0.17564584 -1.4003459 0.06868201 0.83196676 0.6785462 1.9192389 1.8847914
1.735101 -0.010618149 -0.32070917 2.7775218 0.76153296 0.5047636 2.212069 0.54311466
0.5622462 0.5250699 -0.71244216 -0.26557928 1.085413 -0.5010434 0.052462827 0.60715234
-0.7289948 0.14319222 0.9772469 0.9820402 1.5226233 1.438909 0.71756476 1.3059338
0.5803366 0.3911268 0.7807677 2.0310771 0.8482467 1.8919425 1.204747 0.83914596
2.3785357 0.6902477 -0.03322398 1.1433836 1.610358 -0.0050161406 1.4446963 0.4123984

down_convs.1.conv2.bias f4 [6]
00000000: 2af4 f93c 1750 cc3d 67cc a8bd 9255 e73d
00000010: 2434 183f 9aea 83be
0.030511934 0.099762134 -0.08242112 0.11295618 0.5945456 -0.25764924

down_convs.1.norm0.weight f4 [6]
00000000: bbd3 3140 11d7 4c40 09ce e43f 5e98 0b40
00000010: d5c8 b73f 61e5 0740
2.778548 3.2006266 1.7875377 2.1811748 1.4358164 2.1233752

down_convs.1.norm0.bias f4 [6]
00000000: 3a0c 893e 9cc9 893c 73b3 7e3d 492d 6e3f
00000010: e0ac afbe e7b7 a83e
0.2676714 0.016819768 0.062182855 0.9303785 -0.3431158 0.32952806

down_convs.1.norm0.running_mean f4 [6]
00000000: d544 57c2 57fc 37c2 85e1 0ec2 e037 7ec1
00000010: 8569 9142 c080 72c2
-53.81722 -45.996426 -35.720234 -15.888641 72.70609 -60.625732

down_convs.1.norm0.running_var f4 [6]
00000000: eb1f 4d46 c156 9e46 c780 6c44 6e30 8943
00000010: 0fcf 1545 bfeb a544
13127.9795 20267.377 946.01215 274.37836 2396.9412 1327.3671

down_convs.1.norm1.weight f4 [6]
00000000: f182 a23f 7fbc c73f 3aff a23f 30a9 da3f
00000010: d6f7 d03f 031d dd3f
1.269621 1.56044 1.2734139 1.7082882 1.6325634 1.7274479

down_convs.1.norm1.bias f4 [6]
00000000: d641 38bf fc32 c0bf 41c9 71bf 80ff ab3e
00000010: e008 733f 68b8 85bf
-0.7197546 -1.5015559 -0.94447714 0.3359337 0.9493542 -1.0446901

down_convs.1.norm1.running_mean f4 [6]
00000000: e09c 59c2 bc75 df42 5df7 7ec1 1265 ebc1
00000010: 97cd 99c2 63b3 97c1
-54.4032 111.72995 -15.935391 -29.42435 -76.90154 -18.962591

down_convs.1.norm1.running_var f4 [6]
00000000: e10c 4f44 0cf1 c044 ba8a b244 dab9 3444
00000010: 5892 3245 40d3 2f45
828.20123 1543.5327 1428.3352 722.90393 2857.1465 2813.2031

down_convs.2.conv1.weight f4 [12, 6, 3, 3, 3]
00000000: 0d4a 47bf 47ed 36bf a5fd 56c0 7c32 fbbf
00000010: dabb b7be b74f 28bf e24c 8ebe 2a17 6a3d
00000020: 9eee 6f3f c01a c33e f530 64bf 5190 3bc0
00000030: 67b9 603f cf8b 583f 9dcb c3bf 8aa9 b53f
00000040: 0f96 df3f 33a0 963e ee8c 2340 0e21 a83f
00000050: d9ba a8bf 0f88 0340 895e 0440 d625 afbf
00000060: f61f b43f 94cd 1f40 f4c2 8b3f 4665 8c3f
00000070: 91fa 043e ce3c bebf f177 b63f 948c 60bf
00000080: 0143 d3bf 9d89 3e3f 2c8e 29bd 71e7 e9be
00000090: 827d 823f 3de8 cfbe db5a b8bf 6499 b53e
000000a0: 6c6e 45bf 92b4 38bf e60a 17bf 1042 c1be
000000b0: 87f1 0e3e f0e8 ec3e 76dd b1bf ca9d f2bf
000000c0: f586 763e 0bbc b0bf ff66 48bf cc1a 13c0
000000d0: 2c48 11c0 8497 2fbf 05b5 0540 26d5 af3f
000000e0: 010b ef3f f908 383f addd ea3e 855e ab3f
000000f0: f54f 67bf 0f6e 88bf b9c5 44bf c2a6 a93f
00000100: f405 8fbe b6fe c43f 644e 8cbd 37e7 46bf
00000110: 5d78 aa3f 7326 57be 5f3a 4dbf fbb4 95bf
00000120: a836 aebe 34d4 f2bf c11d 4d3f 67d0 34bf
00000130: effa b1bf b36d 1040 47bb 14bf c075 4fbf
00000140: cb74 a63d 9a08 733f ac64 0140 c4dd f33f
00000150: efaf 7e3f 8df2 ce3e c198 cfbf caa3 89bf
00000160: e57b 3ebd 5b4e 85bf d260 cb3f 1066 2d40
00000170: 7342 ef3f d023 393f 5f21 193f 04a1 0c3f
00000180: b00e 1ec0 d5e1 cebf 8872 393f 1440 7cbe
00000190: b321 453f f68a f13f 650f d4bf e70c 8ebf
000001a0: 1a74 413f 6391 a2bf e36c 0bc0 5f92 103f
000001b0: fd25 e9bf 6cc7 4cbf f893 16bf 2999 43bf
000001c0: 4463 583f 77bd 59be 0418 62bf fff9 d13d
000001d0: b125 5bbf 58ef d3be f961 5e3f 9334 3d3f
000001e0: e94e 3940 d996 5440 6e3f a13f fcdb 0540
000001f0: 4e1d 2040 7865 d23f 8a35 3d3f da9a 43be
00000200: a3cd e7be c4e3 2340 3f75 3040 6565 333f
00000210: 93ba 1140 d013 0c40 b4c6 453f 1fe1 1cc0
00000220: 2399 8b3f 0349 753e e312 c9bf 946b 9cbe
00000230: c7dc 5dbd 06d9 95bf cac2 cdbf a89e 0b3e
00000240: ad6a f33f 8032 3040 66fc 0840 b644 63bd
00000250: 3b87 8fbe 8036 49bd 9cdd d4bf a611 09c0
00000260: 40d2 b6bf 21b0 1140 6c97 bc3f 5cdb 8b3e
00000270: 70c8 54bf 23c7 583e 0382 80be fb84 9ebf
00000280: 06ff 3fbf f20d 87be c694 07be 9189 263f
00000290: 7e6b 0b40 60b0 9e3f 11e6 963e 5e3c 443f
000002a0: 7a12 0640 24c4 0f3e 5c5e 3b3f ab1b cabf
000002b0: 4844 85bf ad9c 8abd c282 a0be 8745 bdbe
000002c0: e5b4 313f 486b 6dbf 98bb bcbf 9b70 973e
000002d0: 1144 96c0 5e9a 22c0 c5fe 87bf 36a6 16be
000002e0: e7d2 683e 5e53 1e40 e01e eabd 870b f83e
000002f0: 7397 1c40 2c80 ed3f 8dfe 003f 78a3 3bbe
00000300: 6caa f7bd 001f a3bf 5151 35c0 2a76 193f
00000310: 77cf 3c3f 06dc 24c0 1ae3 ea3f 9d04 b93f
00000320: df4c 1940 0062 3cbf 46ce 13c0 56c5 0ec0
00000330: 1efa 383e 303f 8cbe c4c8 06bf 9483 d23f
00000340: 8197 c63f 9344 dc3f 44fd 823e 5c4c 47bf
00000350: 1b3a 54bf c043 b33f 5a2e d73f 80cb da3f
00000360: 1de1 8a3e c7d0 173f 13d6 0e3f 1609 de39
00000370: 9d99 43be b1e4 e5bf 74b8 3b3f b38b 303c
00000380: 09d5 0bc0 0f59 113f b878 8e3f 7556 9f3f
00000390: de7b f8bd d4ef 25bf cf26 0ebf c9e8 a03f
000003a0: 3265 823f f4c7 5a3f c1af 6d3f 54b8 d23e
000003b0: 64fd 643e a06c 983f b3aa 1e3d a875 2a3e
000003c0: be9f 0740 81c2 d33f 8b82 c73f b552 3cbf
000003d0: 79c7 82bf dd89 d0bf b784 e8bf 0bb0 9fbe
000003e0: 6022 64bf d564 ccbf 2c6a 10c0 7ca7 46c0
000003f0: f51e 883f 09b6 9e3f 8ac5 edbd 182a 5ebf
-0.7784737 -0.71455806 -3.3592312 -1.9624782 -0.35885507 -0.65746635 -0.27793032 0.057150997
0.93723476 0.38106346 -0.891372 -2.9306834 0.877829 0.8458833 -1.5296513 1.4192364
1.7467669 0.29419097 2.5554767 1.3135087 -1.3182021 2.0551794 2.06827 -1.3683422
1.4072254 2.4969225 1.091887 1.0968406 0.12986208 -1.4862306 1.4255353 -0.87714505
-1.6504823 0.7442873 -0.04139535 -0.45684388 1.0194552 -0.4060687 -1.4402727 0.3546859
-0.77121615 -0.7215053 -0.59001005 -0.37745714 0.13959323 0.46271467 -1.389571 -1.8954403
0.2407492 -1.3807386 -0.7828216 -2.2985106 -2.27003 -0.6859057 2.0891736 1.3736923
1.8675233 0.7188869 0.4587225 1.338822 -0.9035638 -1.0658587 -0.768642 1.3254015
-0.2793423 1.5390232 -0.06850889 -0.77696556 1.3317982 -0.21010761 -0.8016719 -1.1695856
-0.34026074 -1.8971009 0.80123526 -0.70630497 -1.3904704 2.2566955 -0.5809826 -0.8103905
0.08127745 0.94935 2.0217695 1.9052052 0.99487203 0.40419427 -1.6218492 -1.075311
-0.046504874 -1.0414537 1.5888922 2.7093544 1.8692154 0.7232027 0.59816545 0.5493319
-2.4696465 -1.6162668 0.72440386 -0.24633819 0.77004546 1.8870533 -1.6567198 -1.1097687
0.7556778 -1.2700619 -2.178521 0.56473345 -1.8214718 -0.79991794 -0.5881953 -0.7640558
0.8452647 -0.21263681 -0.88317895 0.10252761 -0.8560439 -0.41393542 0.86868244 0.73908347
2.8954413 3.321707 1.2597482 2.0915518 2.5017886 1.6437216 0.7390982 -0.1910204
-0.45274076 2.5607767 2.7571561 0.7007659 2.2770126 2.1887093 0.7725632 -2.4512403
1.0906109 0.23953633 -1.5708889 -0.30550826 -0.054165628 -1.1706855 -1.607507 0.13634741
1.901693 2.7530823 2.1404052 -0.05548545 -0.2803286 -0.04912424 -1.663013 -2.1417022
-1.4282913 2.276375 1.473371 0.27315795 -0.83118343 0.21169715 -0.2509919 -1.2384332
-0.7499851 -0.26377827 -0.13240346 0.6505366 2.1784358 1.2397575 0.29472402 0.76654613
2.0948777 0.14039665 0.73190856 -1.5789694 -1.0411463 -0.06768165 -0.3134976 -0.36967108
0.6941665 -0.92741823 -1.4744749 0.295781 -4.695809 -2.5406718 -1.0624624 -0.14711842
0.22736703 2.4738383 -0.1143167 0.48446295 2.4467437 1.855474 0.50388414 -0.18324077
-0.12093052 -1.2743835 -2.8330882 0.5994593 0.73754066 -2.5759292 1.8350556 1.4454533
2.3953168 -0.73587036 -2.309465 -2.2307944 0.18064162 -0.27391958 -0.52650094 1.6446404
1.5514985 1.7208427 0.2558385 -0.7785089 -0.8290116 1.4005051 1.681102 1.7093353
0.27124873 0.59302944 0.557954 0.0004234991 -0.19101568 -1.7960416 0.7332833 0.010775494
-2.1848776 0.5677652 1.113059 1.244826 -0.12133001 -0.64819074 -0.5552797 1.257104
1.0187132 0.85461354 0.92846304 0.41156256 0.22362286 1.190815 0.03873701 0.16646445
2.119125 1.6543733 1.5586714 -0.735637 -1.0217124 -1.6292073 -1.8165501 -0.31188998
-0.8911495 -1.5968271 -2.2564802 -3.1039724 1.0634447 1.2399303 -0.11609943 -0.8678298

down_convs.2.conv1.bias f4 [12]
00000000: 6244 6abd 8c02 aa3d 7c68 87bd a48e fa3c
00000010: f024 6c3c dd24 7336 5387 073c 173f c8bc
00000020: f4ee 943d e21d b53c d9c9 3eb8 5fe2 2bbe
-0.05719412 0.08301267 -0.06611726 0.030585594 0.014413103 3.623128e-06 0.00827201 -0.024444146
0.07272139 0.022108976 -4.5487515e-05 -0.16785572

down_convs.2.conv2.weight f4 [12, 12, 3, 3, 3]
00000000: e491 a13f 22a3 0cc0 8e9c 85c0 3bcc 013f
00000010: 6138 25c0 f5d4 9cc0 5587 a13e 3fc0 10c0
00000020: 270e 2ec0 6185 b03e 2a68 12c0 af76 6fc0
00000030: 9cb4 0440 aea7 d83d 926c 91bf 31ac de3f
00000040: 88c2 653f c194 763f 4b84 453f 0597 9f3f
00000050: 68aa 9b3f 3e5c 473e 21a5 6e3f ab6d 163f
00000060: 4ff3 f1bf fe7b a3be 0fdb 8bbe 58e6 373f
00000070: 2ce5 4cbf 4f9f 75be da7f b73f 6e0d 603d
00000080: acc7 bbbe 2b45 4dc0 a410 ffbf c49e 53c0
00000090: ef1f c73f 7da7 dcbf 0a74 fabf 8d8b a43f
000000a0: 462a babf 0248 25c0 c381 61bf 0546 2dbf
000000b0: 1797 82bf 477f 1a40 7522 483f e49b 803f
000000c0: 2422 9cbf dbcb fbbf 90ff dabe e8a1 16c0
000000d0: 8c16 1dc0 200c 89bf 209d 4f3f 5ab1 05be
000000e0: cd7c 9f3f 598b b0bf 2f78 debf 7205 f2bf
000000f0: 20f7 54be 7b4f bcbe 7095 c5bf cab7 a63f
00000100: 49bf ba3f 687a f83f 48d1 bbbf 2bd0 7d3e
00000110: 85f9 2a3f a76a 90bf a057 ff3e d60e 5bbe
00000120: 982c 3cbf a74c 673e bcf5 333e f4ca d7bf
00000130: dd40 f2bf 1893 a0bf cde7 3ebf 6941 a6bd
00000140: 53eb 333e e9d7 af3d 9239 043f 2da5 173e
00000150: 10d5 f63f 485c b63f 12bc 9d3f 512c e0be
00000160: 1726 05c0 b816 1cc0 71b2 17bf 8d28 a7bf
00000170: f8fe 0cc0 1b8f 843f 95e5 c23f 60be 1d3f
00000180: ed06 593e f1d9 263f 1b5a 86bf 6fe4 85bf
00000190: 47b5 91be 606d 53c0 f64e 4c3f b35d ec3f
000001a0: 440e 1b3e 3413 bd3e 8ef0 dcbb 861e 8abf
000001b0: 2131 17c0 caa1 58c0 b843 b6bf 92bf a1be
000001c0: e10b 963f 0113 bd3f 1e18 d53e 4b26 0c3f
000001d0: 6d7c e53d 2395 b9bf 8658 d0bf c7b4 f0bd
000001e0: 4598 5fbf f0b2 143f ccc7 c93f ec9d 943e
000001f0: d7b9 d43e 1a00 493f ddf2 89bf c6be 16c0
00000200: 5a87 86bf 7270 fabf b6c1 49bf 5130 e13e
00000210: f854 fbbd 9a9b f1be 5154 003e 5401 e4bd
00000220: c719 0fbe 88d2 0fbe d1e4 2ebe 948b 92be
00000230: 27d6 4cbe 8b9e bc3b 0604 e8bd 36bb e1bc
00000240: aa34 92be 4122 bebe 29ea 03be d8a8 b5be
00000250: 000f 6bbe 1172 04be c016 753c 4ac1 2ebe
00000260: 5238 463c ee48 9fbe 0374 8ebe d42f 80be
00000270: bd6a 9cbe 03be e0be afcc 5abe 1100 5bbe
00000280: 9f16 92be 5804 58be fd5c ff3e 90ae b9bf
00000290: 8ac4 aac0 f66d fc3e 41c5 153f 9600 ccbf
000002a0: d24c 09bf 65e9 513f 455c 8cbf 7fb3 583f
000002b0: 232f bbbf 9861 49c0 1f2c fb3d a40a b0bf
000002c0: 4a1a a1bf 3584 b1bd 7510 7f3f 337b bfbd
000002d0: b52d b4bf 2cf0 cabf a24e c73c 9651 d13e
000002e0: a6a8 26be 2e8f ce3f 70ba 21c0 dc74 4b3f
000002f0: 5b8d 093f a88b cc3e 18cd 80bf 107f 3dc0
00000300: fe19 8cbd 3dea bebf e0bb b2bf e4f1 73bf
00000310: bc92 383f e3e2 fd3f a01a 413f 2475 10bf
00000320: d3a9 6abf d26c eb3d 474f b5bf 42e8 9ebf
00000330: 5588 83bf b9a7 183f bf41 d93f fcb9 a23f
00000340: 5658 153f 0312 033f 4d4b 0fbe 10e0 5dbf
00000350: 094c bfbe 334a 0dc0 0884 46be d80b 7c3f
00000360: 7971 fcbf 024e a6bf 5806 67c0 b264 04bf
00000370: f0d7 0cbf e616 47be 73f9 d5be 3c45 c3be
00000380: b05d 393f 6ef0 9b3e 31a3 2a3f a70e e9bf
00000390: 5a98 873f 984f 103f 6435 d0bd 1e9a 2fbf
000003a0: ee38 9abf 44e6 0e3f 66ca 93bf 6681 9e3f
000003b0: 4dcd b1bf ad58 01c0 38e6 743e 3eef 873f
000003c0: f845 7ec0 fc45 31c0 5197 8f3f 4446 583f
000003d0: f8dd 4d40 d26a d33f 5842 1ec0 93e6 443f
000003e0: 9cbf 1b3f 0e96 77c0 cbce 6dc0 89ac 4fc0
000003f0: 8519 403f a7fe 0440 fc17 0b40 711e 79be
1.2622647 -2.1974568 -4.1753607 0.50702256 -2.581566 -4.9009957 0.31548563 -2.2617338
-2.7196138 0.3447676 -2.2876077 -3.7416189 2.0735235 0.10578857 -1.1361258 1.7396299
0.89749956 0.9632073 0.7715499 1.2467963 1.2161379 0.19468781 0.93220717 0.5876109
-1.8902377 -0.31930536 -0.27315566 0.7183585 -0.8003719 -0.23986553 1.4335892 0.054700308
-0.36675775 -3.2073467 -1.9926953 -3.3065653 1.555662 -1.7238613 -1.9566662 1.2855088
-1.4544151 -2.58252 -0.88088626 -0.67684966 -1.0202359 2.4140184 0.7817758 1.0047574
-1.2197919 -1.9671587 -0.42773104 -2.353632 -2.4545012 -1.0706825 0.8109913 -0.13055936
1.2459961 -1.3792526 -1.7380427 -1.8907912 -0.20797396 -0.3677939 -1.543623 1.3024838
1.4589626 1.9412355 -1.4673243 0.24786441 0.66786987 -1.1282548 0.4987154 -0.21392378
-0.73505545 0.22587834 0.17574209 -1.6858811 -1.8926045 -1.254489 -0.7457245 -0.08117945
0.17570238 0.085861035 0.51650345 0.14809103 1.9283772 1.4246912 1.232302 -0.4378381
-2.0804498 -2.4388866 -0.59256655 -1.305925 -2.203062 1.0356172 1.5226313 0.61618614
0.21194048 0.651763 -1.0496248 -1.0460337 -0.28458616 -3.3035507 0.79807985 1.8466095
0.1514216 0.36928713 -0.0067425435 -1.0790565 -2.3623736 -3.3848748 -1.4239416 -0.3159147
1.1722375 1.4771425 0.41619962 0.5474593 0.11205373 -1.4498638 -1.6277015 -0.117532305
-0.8734172 0.58085537 1.5764098 0.29026735 0.41548035 0.7851578 -1.0777241 -2.355394
-1.0510056 -1.9565566 -0.78811204 0.43982175 -0.12272066 -0.47189027 0.12532164 -0.11133066
-0.13974677 -0.14045155 -0.17079474 -0.28622115 -0.20003568 0.0057562045 -0.113288924 -0.02755509
-0.28555804 -0.3713551 -0.12882294 -0.3548038 -0.22954941 -0.12934138 0.014959037 -0.17065921
0.012098389 -0.31110328 -0.27822885 -0.2503649 -0.30550185 -0.43894967 -0.21367143 -0.21386744
-0.28532884 -0.21095407 0.49875632 -1.4506397 -5.3364916 0.49302644 0.5850411 -1.5937679
-0.53632843 0.81996757 -1.0965658 0.8464889 -1.462376 -3.1465816 0.12264275 -1.3753247
-1.2586148 -0.086677946 0.99634486 -0.0934967 -1.4076449 -1.5854545 0.024329487 0.40882558
-0.16275272 1.6137445 -2.5270042 0.7947519 0.53731316 0.399503 -1.006259 -2.9608803
-0.06840895 -1.4915234 -1.3963585 -0.9529097 0.720989 1.9834865 0.7543125 -0.5642874
-0.9166538 0.11495365 -1.4164819 -1.241463 -1.027598 0.59630924 1.6973189 1.2713008
0.58337915 0.5119936 -0.13993569 -0.8667002 -0.37362698 -2.2076538 -0.19386303 0.9845557
-1.9722129 -1.2992556 -3.6097622 -0.5171615 -0.55016994 -0.19442329 -0.41791877 -0.3813876
0.7240858 0.3045687 0.6665526 -1.8207597 1.0593369 0.5637145 -0.101664335 -0.6859454
-1.2048624 0.5582011 -1.1546142 1.2383239 -1.3890778 -2.0210373 0.23915946 1.0619886
-3.9730206 -2.7698965 1.1218053 0.84482217 3.216673 1.6516974 -2.4727993 0.7691433
0.6083925 -3.8685336 -3.7157466 -3.2449057 0.7503894 2.0780427 2.173339 -0.24328019

down_convs.2.conv2.bias f4 [12]
00000000: 8e54 8e3d a9e5 06be 2a30 cfbc 6532 d0bb
00000010: 9b27 79bc 8171 76bd b270 95bd 646d 163d
00000020: 9fab 1e3d 4829 9f3d 263a babd b079 3d3d
0.06949721 -0.13173546 -0.025291521 -0.0063536637 -0.015207197 -0.06016684 -0.072968856 0.036725417
0.03873789 0.07771546 -0.09093122 0.04625863

down_convs.2.norm0.weight f4 [12]
00000000: c352 1f40 2e84 1740 b821 e63f d298 3640
00000010: c339 b43f 7f9c a33e 8032 1540 64dc db3f
00000020: 33a4 0640 a8ef d83f 0265 bb3e f448 e93f
2.4894264 2.3674426 1.797904 2.8530774 1.4080127 0.31955335 2.3312073 1.7176633
2.103772 1.6948137 0.366005 1.8225389

down_convs.2.norm0.bias f4 [12]
00000000: 9657 36bf 89d6 f1be f17b 363e bba5 6abf
00000010: 4a63 62bf 8fc8 1ebf 3ff5 7b3c edce 49bf
00000020: 16d9 ccbf 2482 55bd ce7a 07bf 3553 8a3f
-0.71227396 -0.4723399 0.17820717 -0.91659135 -0.88432753 -0.6202478 0.015378295 -0.7883137
-1.6003749 -0.052126065 -0.5292176 1.0806643

down_convs.2.norm0.running_mean f4 [12]
00000000: 4121 fe41 a00c 49c1 182a 0541 cbb6 92c2
00000010: 3aa9 5e41 de76 92c1 7705 f2c1 9d49 b941
00000020: 32d7 9ac1 2d5d 8bc1 8957 33c1 258b 2c40
31.766237 -12.565582 8.322777 -73.35702 13.916315 -18.30804 -30.252668 23.160944
-19.355076 -17.420496 -11.208871 2.6959927

down_convs.2.norm0.running_var f4 [12]
00000000: b4b5 cf44 fd64 0245 bcb1 6744 bcd5 f844
00000010: 7427 2345 da05 0144 4eeb 4a44 1df5 0245
00000020: f063 b844 757e fa44 a5c8 9743 115a 3444
1661.6782 2086.3118 926.7771 1990.6792 2610.4658 516.09143 811.67664 2095.3196
1475.123 2003.9518 303.56754 721.4073

down_convs.2.norm1.weight f4 [12]
00000000: f0cc 2340 559e 8e40 c25c ce3f 53dd bb3f
00000010: f78b 0840 7ae4 2340 198e 2240 684c e43f
00000020: dfa2 ea3f eec5 0d40 e1ec f23f 7304 d53f
2.5593834 4.4568276 1.6122057 1.4676918 2.1335428 2.56082 2.539923 1.7835817
1.8330954 2.2152057 1.897854 1.6641983

down_convs.2.norm1.bias f4 [12]
00000000: fe8e 97bf 426b d7bf d293 11bf dbf2 afbf
00000010: 0454 cfbe 347d 2abf 836e 06bf 06f4 913d
00000020: a5ab 89bf 9317 87bf 276a d6bf 8a89 b3bf
-1.1840513 -1.6829607 -0.5686618 -1.3745989 -0.40493786 -0.66597295 -0.5251238 0.07126622
-1.0755507 -1.0554069 -1.6751145 -1.4026349

down_convs.2.norm1.running_mean f4 [12]
00000000: 84cc 7ac2 cc01 51c2 1dde d341 ce97 c1c1
00000010: c8fc b9c0 9f3f cfc1 ddba 44c2 65e0 44c2
00000020: 8926 e4c0 ae57 4dc2 4472 1dc2 46ff 19c2
-62.699722 -52.251755 26.483454 -24.199123 -5.812107 -25.906065 -49.182484 -49.219135
-7.129704 -51.335625 -39.361588 -38.49929

down_convs.2.norm1.running_var f4 [12]
00000000: 0178 d844 5fa9 5645 a763 8e45 d07c 4b44
00000010: d138 2145 7a8e cd44 2f85 0245 08c0 9644
00000020: 2c8a d644 221d a944 3b71 9644 d2c4 5f44
1731.7501 3434.5857 4556.4565 813.9502 2579.551 1644.4524 2088.324 1206.001
1716.3179 1352.9104 1203.5385 895.0753

down_convs.3.conv1.weight f4 [24, 12, 3, 3, 3]
00000000: 16eb 833f 11b1 a43f 68d3 053f 7aa7 f63f
00000010: 3b3b 523f 81fc 6cc0 112f 07c0 0824 95bf
00000020: 6076 ddbf 4632 1b3e c6ab c93f 3927 4cbf
00000030: bad3 1540 8b30 2abe 8dbf f7bf 45c7 ce3f
00000040: 3064 a0bf c021 323f 2657 1f3f 778c ef3e
00000050: 7cdb 143f c5f0 6e3f 4849 843f 36e0 86be
00000060: 0a67 8d3f 3d74 83bf 958d 3e3e 533b 26c0
00000070: 1214 3d3e 630c 98c0 2ebd 0dc0 5b13 1a40
00000080: 3f64 993f 163d 52bf d39b 0840 fb6b 113f
00000090: 814f af3e 8c9d d03f e897 0f3d 039d 53bc
000000a0: 6618 7f3f 0e45 973f f503 bdbf 0ced 28bf
000000b0: b467 b7bf b575 07c0 edc2 693e f950 ecbf
000000c0: 1ef8 6b40 5a02 1740 c4ff 3f40 f7a1 6e40
000000d0: e723 6d3f 53b3 16c0 77e9 6abf f209 a4bf
000000e0: 3788 773f 3262 c2bf ee53 1cc0 12f9 b6be
000000f0: 9050 ec3f 5655 003f 0f84 6c3f c746 6bbe
00000100: d18d 1fbf d4a0 733e 7cce 8abf ea99 1fc0
00000110: 5b05 50bf 6a4e 6140 5b9d 5140 c2d3 1b40
00000120: 9303 883f 65bd a63f 9f72 e63f d6e6 27c0
00000130: d602 37c0 7c5f 0bc0 cee1 ed3f 012b 3c40
00000140: 7e0d 6f3f ef4c 1ac0 3aa8 48bf ae37 a9c0
00000150: f7b1 f13d 317b ce3e 7fba e3bf b7e1 0040
00000160: ef89 a63e af5e 2a3f 85b2 c9bf bb70 b2bf
00000170: 164b febf 21ba 00c0 c57a a9bf 1366 30c0
00000180: c287 8b3f c34b 3dbe ab7c b23d ad1c 8cbe
00000190: 3588 d23e 048a cb3c 22a9 9dbf 7a46 62bf
000001a0: 33b7 72be d209 763f c614 603f bd69 d33f
000001b0: 3bbf 8dbe 153b b13f 2f77 11c0 7efd 37bf
000001c0: 8e67 5dbe 5d89 203d 9885 38c0 0d88 95bf
000001d0: fa19 04bf cbee 003f 7989 aa3f 253c bcbe
000001e0: 777f e8be 4318 813f 1904 fb3f 73ae 00bf
000001f0: ed29 f7be fc47 20bf b367 46be 373b 04be
00000200: d55e 1cc0 5b8c b4bf 3b24 bbbf bc92 36bf
00000210: 2caf 763f 3f0c a9bf c9cd 45c0 f8f1 983f
00000220: 140e 9d3f 691f a3be 79c3 c23f 8cba 5cbe
00000230: 834d ed3e cce3 59bf 712a 5ebe 9e49 993e
00000240: a601 15bf 2402 23bf a6cf 0640 b25f e3bf
00000250: 3bd8 0fc0 d111 53bf cc1e 673f f3fb b8bf
00000260: 9f6b 1ec0 653a 3c40 e457 4640 5e08 3b40
00000270: 97f5 383d f27e 183f 7073 8b3f 8154 1740
00000280: bbc4 d23f 54ef 1840 2042 f2bf 380b 1dc0
00000290: 080d 1d3e 57c3 47c0 9c5a 53bf 7fd2 42c0
000002a0: 92de 0b3d 24e2 a53d 88ab 9cbd 4c25 9c3f
000002b0: 39e1 043f aa60 aa3f d677 713f cc64 ae3f
000002c0: 97c8 61bf cedf 22be 04f3 083f 9146 8fbf
000002d0: e21a 8f3f 30d1 c3bf 3a73 1e40 4a27 283e
000002e0: bb50 8abf ab97 85bf 6687 b33f e0b1 c8be
000002f0: 1da9 ef3e e5d0 ffbf 9f5c 223e cc84 433f
00000300: 4837 bcbf 244d 4f3d 6f84 12c0 47ca bd3f
00000310: 458e e93f 9677 813f f7a4 39bf 4e2b 0a3f
00000320: c91c 5c3f 5737 e9bf 771e fdbf 4c97 75c0
00000330: 9403 44be 4bab 74bf 38e2 a6be 0ff9 e63e
00000340: 97bd a3be eb7c 343e 6bd8 a8bf d038 acbf
00000350: 770a 7dbf 584e a73f 2fb5 80bf 25b1 003f
00000360: e234 07c0 a236 20c0 3b79 8ec0 b5e5 863f
00000370: 2b24 7e3f 9179 063f cd6f 8140 8c1f 4940
00000380: bee6 3d40 96b2 813f cf89 ca3e a5fe debf
00000390: ccb9 b63f 27e3 8a3f d2e2 d63f d599 2540
000003a0: 19dc dd3f e16d e53f b2ac 833f 7dae b43f
000003b0: ef3e 6f3d b7bd a43f d9fe 403f 4421 fc3f
000003c0: 0e3b e73f 0a30 ab3f 382f e03f 2d22 2ac0
000003d0: 4a66 d6be a659 87bf 058d 88bf d285 29bf
000003e0: 4ebb d03e a99b 85be 0da2 58be a1e1 a8bf
000003f0: aa1b 66bf eb87 a8bf f84d 12c0 340e 0140
1.0306118 1.2866536 0.52275705 1.926986 0.8212163 -3.7029116 -2.1122477 -1.1651621
-1.730175 0.15155897 1.5755546 -0.7974735 2.3410478 -0.1662008 -1.9355332 1.6154562
-1.2530575 0.6958275 0.6224235 0.46786854 0.58147407 0.93336135 1.0334864 -0.26342934
1.104707 -1.0269848 0.18608697 -2.5973709 0.18464687 -4.751512 -2.2146716 2.4074314
1.1983718 -0.8212446 2.1345108 0.5680539 0.34240344 1.629808 0.03505698 -0.0129158525
0.99646604 1.1817949 -1.4766833 -0.65986705 -1.4328523 -2.1165593 0.22828265 -1.8462211
3.6870189 2.3595185 2.9999857 3.7286355 0.9263291 -2.354695 -0.9176249 -1.2815535
0.9669222 -1.5186217 -2.4426227 -0.357369 1.8462086 0.5013021 0.92389005 -0.22976218
-0.6232577 0.2379182 -1.0844264 -2.4937692 -0.8125817 3.520411 3.2752292 2.4347997
1.0626091 1.3026549 1.800373 -2.623464 -2.859548 -2.177703 1.8584535 2.9401248
0.9337996 -2.4109457 -0.78381693 -5.288047 0.11801522 0.40328363 -1.7791289 2.0137765
0.3252711 0.66550726 -1.5757605 -1.3940653 -1.9866664 -2.0113604 -1.3240591 -2.75623
1.0900805 -0.18485932 0.08715185 -0.27365628 0.41119543 0.024846084 -1.231724 -0.8838879
-0.23702697 0.96108735 0.875317 1.6516644 -0.2768496 1.3846155 -2.2728994 -0.71871173
-0.21621534 0.0391935 -2.883154 -1.1682144 -0.5160214 0.5036437 1.3323203 -0.36764637
-0.45409748 1.0085529 1.9610626 -0.5026619 -0.48274174 -0.6260984 -0.19375496 -0.12913214
-2.443288 -1.4105333 -1.4620432 -0.7131765 0.9636104 -1.3206862 -3.0906851 1.1948843
1.2269921 -0.31859902 1.5215904 -0.21555537 0.463482 -0.85113215 -0.21695878 0.29938978
-0.5820564 -0.6367514 2.1064239 -1.7763579 -2.2475727 -0.8244906 0.9028137 -1.4451889
-2.4753187 2.9410641 3.0991144 2.9223857 0.045156088 0.59568703 1.0894604 2.3645327
1.6466287 2.3896074 -1.892643 -2.4538097 0.15337002 -3.1212976 -0.82560134 -3.0440977
0.034147806 0.080997735 -0.076499045 1.2198882 0.5190616 1.331075 0.9432348 1.3624511
-0.881967 -0.15905687 0.5349581 -1.119341 1.1180079 -1.5298214 2.4757829 0.16421238
-1.0805887 -1.043691 1.4025695 -0.39198208 0.4680871 -1.9985625 0.15855645 0.76374507
-1.470437 0.050610676 -2.289333 1.4827355 1.8246542 1.011462 -0.7251734 0.5397233
0.8598142 -1.8220013 -1.9774922 -3.8373594 -0.1914199 -0.9557387 -0.32594466 0.45111892
-0.31980583 0.17625777 -1.3191046 -1.3454838 -0.98844093 1.3070784 -1.0055293 0.502703
-2.1126027 -2.5033345 -4.4522986 1.0538851 0.9927394 0.52529246 4.0448976 3.1425505
2.9672084 1.0132625 0.39558265 -1.7421461 1.4275451 1.0850571 1.678797 2.5875142
1.7332793 1.7924157 1.0287077 1.411575 0.058409628 1.2870396 0.75388867 1.9697652
1.8064897 1.3374035 1.751441 -2.658336 -0.41874915 -1.0574234 -1.0668036 -0.6621982
0.40767902 -0.26095322 -0.21155567 -1.3193856 -0.8988596 -1.3166479 -2.2860088 2.016492

down_convs.3.conv1.bias f4 [24]
00000000: 17f3 75ba 3cf4 64bc 0314 c93a c87e e838
00000010: 08a3 363c 6562 593b cd7d 9736 fa6d 1139
00000020: b735 bebb 8af1 e8bb 0115 a03b c792 fd3b
00000030: cdd7 acbb 1163 a2bc ad26 5ab8 8bc9 df38
00000040: f5bb 0fbc 5baa 753c 2ea9 3bb8 4436 09bb
00000050: d8e0 99b9 8394 7438 ec78 153b b1f4 4e38
-0.00093822315 -0.013974246 0.0015341047 0.00011086237 0.011147268 0.003317022 4.514796e-06 0.00013869247
-0.005804743 -0.007108872 0.0048853164 0.0077384445 -0.005274749 -0.01982263 -5.201127e-05 0.00010671009
-0.00877284 0.014994229 -4.4741835e-05 -0.0020936886 -0.00029349956 5.8312446e-05 0.002280767 4.9342114e-05

down_convs.3.conv2.weight f4 [24, 24, 3, 3, 3]
00000000: daa9 fd3f 622a 91bd ae68 75bf a478 b9be
00000010: 51cf bbbf 0104 1dc0 a1ce 17c0 4ff7 1ac0
00000020: 4787 4cbf 8814 7e3e 30a3 713e 51b4 273e
00000030: 4605 0c3f 1b5c 86bf 377f 90bf 9ab5 22c0
00000040: 62b5 0dc0 53ff 92bf a9b1 923f 7e57 c3be
00000050: 3beb 80bc 5076 81bf 5298 99be 0996 d4be
00000060: c1f9 a9bf 51b8 15bf 9019 97be 100f cdbe
00000070: 1102 73c0 d7ed c63f 72c7 ebbe 07eb 11be
00000080: 72f2 4cbf 5fab 0340 6a58 933f 452e 7ebf
00000090: d2e5 aabf add8 5a3f 61d1 9a3f 3fbe 893e
000000a0: 7829 72be 91f0 313f 7deb 2cbf 40e3 97bf
000000b0: 29e7 6ebe b6bc edbf 4f07 98bf 5e04 703f
000000c0: 003a 61be 99e2 acbf a935 6ebf e6e0 65bf
000000d0: beef c1bf 6854 953f 6c2d 6f3f bf5d cfbf
000000e0: f625 15bf 5a73 07c0 cf62 21c0 4c03 f2bf
000000f0: ed5b fb3f 5f98 853e 8f38 3f40 32ea af3f
00000100: 9df2 5d3f 067e 8a3f 68c5 69c0 04c3 9cbf
00000110: 445a 38be e1f7 2440 f716 c13e 0354 a63f
00000120: 6575 4e40 f303 803f 23a1 4a3f 66e2 64c0
00000130: 481a dfbf 63ba 4cbe a45c 4940 427f e33f
00000140: ddc1 0b40 7650 833e ac5f 6d3e 6960 233f
00000150: a09a a83c fb63 50bd cc70 353e 1099 ba3d
00000160: 2135 a8bb 2de3 5c3e 0f46 253e cbb0 1a3d
00000170: 63db 093f efb2 5a3c b426 08be 2895 183e
00000180: 1d01 433d fc7b c5bd 807e 3f3e 0626 b2be
00000190: 4d7b 02be 87be 023f 6455 c1bd 667e b8be
000001a0: 3726 cb3d 3861 4ebd cd0c 49be a0ca 5f3e
000001b0: ce42 8abf b743 a8be 606b 37be e88a 793f
000001c0: 340f 1d3f c81c 3940 82b6 c4bf a91e cabf
000001d0: 5d5f 18c0 3136 91bf 1b7f da3f 7829 a6bf
000001e0: 27ee 9cbe a8c1 233f dcee 993f 58a7 26c0
000001f0: 3664 72bf b104 5bbe e84c 783f a488 a13f
00000200: c198 0c3f d7fe 23bf 0026 863f 272d 18bf
00000210: bc44 cabf 6a31 713e c2f9 04bf a3df b7c0
00000220: 7e43 45c0 f935 75c0 4cac f73f ff9a d43f
00000230: c082 90be e063 803f 6500 1040 e367 02c0
00000240: 4cd8 b0bf 7e59 a03e 4dc3 0cc0 f22a 0540
00000250: eb22 1e40 28d7 b53f 1d3b babe 5a9e 09bd
00000260: 4a23 04c0 9a7f d0bf 8a14 8fbe bf2c ccbf
00000270: 5f21 c03f 0242 a73f c3b0 7f3e c43b 81bf
00000280: be11 713f b119 bc3f a641 923e f9dc ad3e
00000290: 53e9 2d3e 64cf 513e 5c7b 5d3e b8f3 5d3e
000002a0: b0c2 913e bf72 d83e 041c ab3e e310 56be
000002b0: 183a 27bd bc74 aabe a5d7 16be efe9 613e
000002c0: 7daf 633d 0323 eb3d a88d 9d3e 666d bb3e
000002d0: 5100 a5be 6010 8fbe 3767 b0be 956f 46bf
000002e0: 5207 aabe 9dc0 c8be 375e 06bf db83 d7bc
000002f0: f568 6e3e a9a8 bc3e cfea 753e a848 aa3d
00000300: a625 5f3e 57bc 5b3e 3235 d43d a403 793e
00000310: 2a1a 3d3e 116b 343e d8e1 d33c e410 8c3d
00000320: e681 343c cd7c 1d3e 41ff e33d 6ae9 a03c
00000330: 6d10 363e 1fa8 1a3e 9c91 2a3e aa91 efbd
00000340: 70e7 0f3d 8f6c bcbc 258b 1dbd b73e ec3c
00000350: 01cf b5bb 13ea 1d3e c7a0 203e e595 1f3e
00000360: 028b 9ebf 1767 bdbf ab2d 85bf e1f5 18c0
00000370: badb 243f a056 1cbf 1223 bcbe 17e1 263e
00000380: ea45 c13e 864f 673e bffd 743f 4911 5e3f
00000390: 77aa 8e3e 18d8 b3be d4db 983f c929 2d3f
000003a0: 61a8 e03f 49e0 0240 1425 da3d 8368 babf
000003b0: 95c0 e9bf b70d 88bf 016d 3ebf e987 a7bf
000003c0: d22c d6bf e0cb fbbf 8694 c4bf 9d0b 92c0
000003d0: 7546 30c0 7916 6dc0 1dcc d73f e603 af3f
000003e0: e733 eb3f 91a2 56c0 26ae 06bf 20da 59bf
000003f0: e3a5 98c0 901d fcbf cd14 5ac0 c07e 2340
1.981746 -0.07088162 -0.95862854 -0.36224854 -1.4672643 -2.4533694 -2.3719866 -2.4213445
-0.79893917 0.2481252 0.23597407 0.16377379 0.54695547 -1.0496858 -1.1288823 -2.542334
-2.2141957 -1.1484169 1.1460468 -0.3815269 -0.015737167 -1.0114231 -0.29999024 -0.41520718
-1.3279344 -0.5848437 -0.2951169 -0.40050554 -3.7970011 1.5541333 -0.46050602 -0.14249812
-0.8005744 2.0573347 1.1511357 -0.9928935 -1.3351386 0.8548687 1.2095147 0.2690296
-0.23648632 0.695077 -0.67546827 -1.1866226 -0.23330368 -1.8573215 -1.187723 0.93756664
-0.21994781 -1.3506652 -0.9305063 -0.8979629 -1.5151289 1.1666384 0.93428683 -1.6200484
-0.5826105 -2.1164155 -2.5216558 -1.8907256 1.9637429 0.26092812 2.987827 1.3743346
0.86698323 1.0819709 -3.6526737 -1.2247014 -0.18003184 2.5776293 0.37712833 1.2994388
3.2259152 1.0001205 0.79152125 -3.5763183 -1.7429895 -0.19992976 3.1462793 1.7773211
2.1837075 0.25647324 0.23181027 0.63818985 0.020581543 -0.0508766 0.1771881 0.091112256
-0.0051332866 0.21571036 0.16140006 0.03776626 0.5385038 0.013348325 -0.13296014 0.14900649
0.047608484 -0.09642789 0.187006 -0.34794635 -0.12742348 0.5107197 -0.09440115 -0.36033934
0.09919398 -0.050385684 -0.1963379 0.21854639 -1.0801637 -0.32864162 -0.17912054 0.9747758
0.61351323 2.8923817 -1.5368197 -1.5790607 -2.3808205 -1.1344663 1.707004 -1.2981405
-0.30650446 0.6396737 1.2026019 -2.6039639 -0.9468416 -0.21388508 0.9699235 1.2619824
0.54920584 -0.6406073 1.0480347 -0.59443897 -1.5802226 0.23554006 -0.519436 -5.7460494
-3.0822444 -3.8314192 1.9349456 1.6609801 -0.28224754 1.003048 2.250024 -2.0375907
-1.3816009 0.31318277 -2.1994202 2.0807462 2.4708812 1.4206285 -0.36373225 -0.03359828
-2.0646539 -1.6288941 -0.27945358 -1.5951155 1.5010184 1.3067019 0.24969773 -1.0096364
0.941677 1.469534 0.2856571 0.3395765 0.16983537 0.2048927 0.21629089 0.21675003
0.28468847 0.42275044 0.33419812 -0.2090488 -0.040826887 -0.33292186 -0.147307 0.22061895
0.05558728 0.11481287 0.30772138 0.36606902 -0.32226804 -0.2794218 -0.34453747 -0.7751401
-0.3320871 -0.39209452 -0.5248751 -0.02630799 0.23282225 0.36847427 0.24015354 0.08314639
0.21791705 0.21458565 0.10361709 0.24317795 0.18467012 0.17618968 0.025864527 0.06839159
0.011017298 0.15379639 0.1113267 0.01964255 0.17779703 0.15103196 0.16657108 -0.11697705
0.035132825 -0.023000984 -0.038462777 0.028838499 -0.0055483584 0.15421323 0.15686332 0.15584524
-1.2386172 -1.4797086 -1.0404562 -2.3900073 0.64397776 -0.6106968 -0.36745507 0.16296802
0.37748653 0.2258893 0.95699686 0.86745125 0.2786443 -0.35125804 1.1942086 0.67641884
1.7551385 2.0449393 0.10651603 -1.4563144 -1.8261896 -1.0629185 -0.74385077 -1.3088351
-1.6732428 -1.9671593 -1.5357826 -4.5639176 -2.7543004 -3.7044966 1.6859165 1.3673065
1.8375214 -3.3536723 -0.5260948 -0.8509846 -4.77025 -1.9696522 -3.4075196 2.5546112

down_convs.3.conv2.bias f4 [24]
00000000: ff5f 5fbb 330d 5a38 fd16 65ba fc3d 8dbb
00000010: 8538 1bbc 2e92 1bba f1ca 01ba d4b9 9bba
00000020: 5999 16bb f23f 813b 440e 14bb aaef 15bb
00000030: 92a6 f6bb fc2b 38bb fe76 2a39 a368 41bc
00000040: cc0e bfbb 0ec3 8dbb f1a6 d93a 99a3 523b
00000050: d9c7 fdb8 8f0b c63b 7c24 0f3c f916 bc38
-0.0034084318 5.1987543e-05 -0.0008739082 -0.0043103676 -0.0094739245 -0.0005934563 -0.00049512 -0.0011880943
-0.0022979586 0.0039443905 -0.002259151 -0.0022878447 -0.007527181 -0.0028102389 0.00016256791 -0.0118047325
-0.0058306213 -0.004326231 0.0016605539 0.0032140969 -0.000121012046 0.0060438584 0.008736726 8.9688176e-05
