outputs/outputs_new_diff_mask/epoch_10_model.pth (torch, 694854 bytes, 241 tensors)

down_convs.0.conv1.weight f4 [3, 1, 3, 3, 3]
000000 9a be a6 be e4 ab 9d 3d 40 15 3d bd 3a ed 97 bf
       -0.32567292 0.07698801 -0.046162844 -1.1869271
000010 84 ac 7f bf d0 69 c0 bf c4 cb 97 be 4c 20 0e 3e
       -0.9987261 -1.5032291 -0.29647648 0.13879508
000020 1b 32 0e be 17 cf 8a bd 22 a0 8d bd 65 a8 47 bb
       -0.13886301 -0.067777805 -0.069153085 -0.0030465361
000030 36 96 01 bf 1c 21 0c bd 5b 85 63 bf fd 2b 28 be
       -0.5061983 -0.034211263 -0.8887536 -0.1642303
000040 ba 35 35 3f 93 ff 9a 3e 57 bf a0 be 69 c5 0b 3e
       0.70785105 0.30273113 -0.3139598 0.13649525
000050 39 f1 ca be a2 d5 9e bf bb 91 72 bf 32 51 97 bf
       -0.39637163 -1.2408946 -0.9475362 -1.1821654
000060 e1 44 bb be 85 ee 0c 3e ae 12 ef be 30 c7 69 3e
       -0.36575988 0.13762863 -0.4669394 0.2282989
000070 b1 76 03 3f 9b 53 d0 3e f1 1f 05 3f 5c 62 53 3f
       0.51352984 0.40688786 0.52001864 0.8257196
000080 6c a0 59 bd ca 44 64 bd 13 cc 8d bd 04 ac c0 be
       -0.053131506 -0.055729665 -0.0692369 -0.37631238
000090 05 f5 94 3e 95 fe ee 3e 34 76 28 3f 31 c1 8b 3f
       0.29093185 0.46678606 0.65805364 1.0918332
0000a0 36 ae 8e 3f a6 09 ce bb 9c c9 4d 3d 77 18 aa be
       1.1146915 -0.0062877713 0.050241098 -0.3322179
0000b0 ae 6d b6 be e0 de e7 3e 20 75 0a 3f b9 6e 08 3f
       -0.35630554 0.45287228 0.5408497 0.5329395
0000c0 16 7b 89 3e 55 2e 0b 3f 99 fe eb bd 4e 33 04 be
       0.2685172 0.5436757 -0.1152317 -0.12910196
0000d0 56 cb 30 bf 6b 3b 0b bf 9b de 1f 3f af 70 6c 3f
       -0.69060266 -0.5438754 0.62449044 0.9235944
0000e0 b0 29 06 3f 0f 9b 9b be 64 d9 83 be d4 9f 80 be
       0.5240736 -0.30391738 -0.25751793 -0.2512194
0000f0 a4 03 ef 3e 46 66 02 3f a2 ef 11 3d cc d5 8a 3f
       0.46682465 0.50937307 0.035628922 1.0846496
000100 b4 38 8c 3f 69 44 db 3e 13 46 6d bc 30 c2 89 be
       1.0954804 0.4282563 -0.014482039 -0.26905966
000110 8a fd 75 be bd fd af 3e 17 3f 9b 3e 8d 2e 02 3f
       -0.24022499 0.34373274 0.3032157 0.5085228
000120 96 11 d8 3e 5f 78 75 3f 86 4c fa bc b7 18 d4 be
       0.42200917 0.95886797 -0.030554067 -0.41425106
000130 d8 a5 0a bf c0 84 04 bf 3c 5c 5a 3e c0 ee 46 3e
       -0.5415931 -0.5176506 0.21324247 0.19427013
000140 75 a9 7a 3e
       0.24478705

down_convs.0.conv1.bias f4 [3]
000000 bf e1 0c ba 1d c3 33 bb 90 cd 47 3b
       -0.0005374215 -0.002742953 0.0030487515

down_convs.0.conv2.weight f4 [3, 3, 3, 3, 3]
000000 ef b2 3c 3f 74 06 2b 3f 6d a3 2d 3f 90 ff 11 3f
       0.7371053 0.6680672 0.6782749 0.5703058
000010 fc 3e 47 3f 0a 4a e4 3e 59 c4 fb 3e f7 bc f4 3e
       0.7783048 0.44587737 0.4917324 0.4780042
000020 34 3b e2 3e e4 a2 2e 3f bf ee 27 3f a7 31 35 3f
       0.44185793 0.682173 0.6559867 0.7077889
000030 e6 42 dc 3e 1a 55 21 3f 54 bb 0e 3f fa 19 41 3e
       0.4301979 0.6302048 0.5575459 0.18857566
000040 a4 bf dd 3e 36 12 c6 3e 2c 3a 3b 3f 32 eb 08 3f
       0.43310273 0.3868577 0.7313564 0.5348388
000050 7f de 46 3f b2 27 bb 3e 95 6a ea 3e 15 92 cb 3e
       0.7768325 0.36553723 0.4578444 0.3975989
000060 b5 27 ad 3e 57 60 61 3e 3f 14 95 3e 08 bc 89 3e
       0.33819357 0.22009407 0.2911701 0.2690127
000070 32 82 79 3d 48 d1 59 be bb a0 d5 be ce 35 f0 bd
       0.06091518 -0.2127124 -0.4172419 -0.117290124
000080 19 cf e5 be a9 c6 d2 3d d9 ca 60 3e 80 57 91 bc
       -0.44884565 0.10291798 0.2195238 -0.017741919
000090 ba d7 84 bd f8 72 e1 be a3 1e bf bd 61 61 2e bd
       -0.06486459 -0.44033027 -0.09332015 -0.042573337
0000a0 c1 c8 d0 3e 0d 55 3d 3d a3 e3 1b 3c d9 05 61 3e
       0.40778163 0.04622369 0.009514722 0.21974887
0000b0 92 44 4a 3d 2a a1 6f 3e b3 b5 a3 bb 7a 74 68 3e
       0.0493818 0.23401323 -0.0049960255 0.22700682
0000c0 a5 eb 13 be cd e3 a1 bd 4a b1 88 be 30 5b 9d 3d
       -0.1444536 -0.07904778 -0.2669776 0.07683408
0000d0 a1 ca cb bd ca 5e a1 be f6 f4 2b 3f 47 37 db 3e
       -0.09950758 -0.3151763 0.67170656 0.4281561
0000e0 77 1d 28 3f 42 8e e1 3c a9 6d bf bd ec b8 f1 be
       0.6566996 0.027533654 -0.09347088 -0.47211397
0000f0 03 19 f4 3b 19 7b e7 3e 5c a1 c1 3e 5a 5f 82 3d
       0.0074492707 0.45211104 0.3781842 0.06365843
000100 d6 03 38 3c a4 68 08 3f 27 02 48 3f 72 a1 79 3f
       0.011231383 0.5328467 0.78128284 0.9751197
000110 64 55 5b 3e 27 40 c9 be ce 29 f0 3d 9a 03 bf 3e
       0.21419293 -0.39306757 0.117267236 0.37307435
000120 e7 0a 52 bd f0 00 d1 be 19 e7 ae 3e 2c 42 3a 3f
       -0.05127993 -0.40821028 0.3416069 0.7275722
000130 5b 8f 26 3f e6 e7 48 3e c6 94 8c be d0 56 b8 3d
       0.65062493 0.19619712 -0.27457255 0.09000933
000140 d5 6a 47 3e 5e 45 04 3d df 81 96 3c 11 dc 18 3e
       0.19474347 0.032292716 0.018372474 0.14927699
000150 4c aa 78 bd 15 4d c5 bb 8a f8 9d bd 51 b0 b0 3d
       -0.060709283 -0.006021152 -0.07713421 0.0862738
000160 15 ab f0 bd 1b f5 a1 bc 61 ad c2 3e 3a 04 9c bd
       -0.11751381 -0.019770196 0.38022903 -0.07617994
000170 ec 11 1b 3e 4b 6b 29 be f8 fd 10 bd ba 13 d2 bd
       0.15143555 -0.16544835 -0.035398453 -0.10257669
000180 39 66 83 bd f5 cf e7 3d 3c fb 59 be 0d 47 fb bc
       -0.06415982 0.113189615 -0.21287245 -0.030673528
000190 63 7f bf 3d 81 c9 f7 bd e6 69 d2 3a 28 a2 ab bb
       0.09350469 -0.12098981 0.0016053289 -0.0052378364
0001a0 51 1b f6 bd 4d c3 0e be 17 71 63 be 99 fd d7 be
       -0.12016929 -0.13941689 -0.22211109 -0.42185667
0001b0 bc 66 d0 3e c5 82 d5 3e 18 5f 2d 3f 46 1a 33 3f
       0.4070338 0.41701332 0.67723227 0.69961965
0001c0 23 fc 08 3f 80 c3 68 3f 32 ed 19 3f 8b 15 2f 3f
       0.5350973 0.9092331 0.60127556 0.68392247
0001d0 d5 38 bd 3d bb e8 21 3f c5 86 d1 3e cc c5 29 3f
       0.092393555 0.63245744 0.40923133 0.6631744
0001e0 7f a1 21 3f c7 5f 05 3f 8e 2a 1a 3f 46 d9 78 3f
       0.6313705 0.5209927 0.60221183 0.9720653
0001f0 62 30 97 3f 55 cd e7 3e 58 44 71 3f f3 e9 42 3f
       1.181164 0.45273843 0.9424491 0.7613823
000200 a0 da 66 3f f6 a6 1c 3f ec b4 29 3f 43 b0 54 3f
       0.90177345 0.6119226 0.6629169 0.83081454
000210 10 a3 db 3e dc f8 07 3f 33 e7 82 bb 05 9b eb be
       0.42897844 0.53114104 -0.0039948463 -0.46016708
000220 42 02 a4 be d0 e5 47 bb e8 23 42 3f 9d 14 13 3e
       -0.32032973 -0.003050197 0.7583604 0.14363332
000230 87 a1 f3 3e 24 35 00 3f 03 f0 17 3f 5a 65 34 3e
       0.47584173 0.50081086 0.59350604 0.17616788
000240 ce 73 d8 be cc 8a b6 be 5d 87 c3 3d cc 32 60 3e
       -0.42275852 -0.3565277 0.09547303 0.21894377
000250 68 5d de bd 48 9d be bd 9e c9 62 3f 12 63 af 3f
       -0.108576596 -0.09307343 0.88588893 1.3702109
000260 a6 af 42 3e 65 55 02 bf 57 76 a2 be a6 5c 43 be
       0.19012317 -0.5091155 -0.3173091 -0.19078311
000270 72 cb 65 3f b7 cb 62 3e db 90 86 3e 54 1b 0e 3f
       0.8976356 0.22148024 0.2628239 0.5551045
000280 f2 e2 40 3f 92 8a 2f be 2f 01 c1 3e 16 88 a2 3e
       0.7534629 -0.17142704 0.37696216 0.3174445
000290 86 59 ff 3e 76 83 d2 3d 4e 2e 79 3e 2e eb 68 3e
       0.49872988 0.102789804 0.2433407 0.22745964
0002a0 8f 14 54 3a f0 4b b0 bd d0 8b 03 3e ef f0 90 3e
       0.00080902217 -0.08608234 0.12846303 0.28308818
0002b0 40 27 25 3e e0 28 ba 3e 71 3f 7f bb 2c 72 90 3d
       0.16128254 0.3635931 -0.0038947726 0.070530266
0002c0 7a 81 5e 3e 19 15 22 3e e8 c1 8a be a7 0b d0 3c
       0.21729079 0.1582836 -0.27101064 0.025396181
0002d0 19 ca 04 3f 33 91 62 3e bf 0a a5 3e cb 1d 86 3d
       0.51870877 0.22125702 0.3223476 0.06548651
0002e0 56 fa c9 3d aa 43 d5 3d 42 72 01 bd 34 81 db bd
       0.09862201 0.104132965 -0.031603105 -0.10718003
0002f0 fb ce bf 3d 1e c3 af be 0a 19 f0 bc 8e 83 25 3f
       0.0936565 -0.3432855 -0.029308815 0.6465386
000300 c8 bb f5 bd ba 17 0e 3e fe ad 66 3d 00 4d 5a 3f
       -0.11998707 0.13876238 0.056318276 0.8527374
000310 a0 c9 98 3f ba aa 81 3f ee 17 a1 bd 4d 02 ab 3e
       1.1936531 1.0130227 -0.07865892 0.33400193
000320 04 d0 e4 3e 0f 01 d2 bd c4 34 bc 3e 92 55 db 3e
       0.44689953 -0.10254108 0.36759007 0.42838722
000330 ed 15 75 3f a5 ea 96 3f 34 be 69 3f 62 67 e4 3e
       0.9573658 1.1790358 0.9130585 0.44610125
000340 91 50 b6 3e e2 9d 21 3f 03 36 ca be 8b 30 31 3e
       0.35608342 0.63131535 -0.39494333 0.17303674
000350 29 36 14 be 2a 38 20 3f 3a 43 2b 3f 3d a2 0a 3f
       -0.14473785 0.625857 0.66899455 0.54153806
000360 65 ed 47 3f 72 fa 0b 3f b8 0f 47 3f 3a de e0 3e
       0.7809661 0.54679024 0.7775836 0.43919545
000370 6f b2 43 3f 7e 11 94 3f ae 05 f7 3e 01 3a 09 3f
       0.76444143 1.1567838 0.4824652 0.5360413
000380 45 04 d7 3e 61 78 38 3e c1 fc 81 3e 93 1a 74 3e
       0.41995445 0.18014671 0.25388148 0.23838262
000390 30 46 01 3f 88 28 93 3f 40 6e 9e 3f f3 39 49 3e
       0.5049772 1.1496744 1.2377396 0.19651012
0003a0 7a c1 04 3f ca 30 a8 3e f7 3a 10 3f 94 46 af 3e
       0.5185772 0.32849723 0.56339973 0.34233534
0003b0 28 95 71 3f 6e 9f 3b 3d 14 1a f8 3e 95 d5 2d 3f
       0.9436822 0.04580634 0.48457396 0.67904025
0003c0 f8 6a 9f 3e cc f1 5e 3d 18 a7 b6 3b
       0.31136298 0.054429814 0.0055741183

down_convs.0.conv2.bias f4 [3]
000000 9b b2 60 3e 52 52 4e 3d 0e f3 dc 3d
       0.21943133 0.050371476 0.107885465

down_convs.0.norm0.weight f4 [3]
000000 ef f6 18 3f d7 d9 6d 3e 8b 7c da 3e
       0.5975179 0.2322763 0.42673144

down_convs.0.norm0.bias f4 [3]
000000 d3 a1 85 bf d4 6d d8 bf 0a f4 d1 bf
       -1.044001 -1.6908517 -1.64026

down_convs.0.norm0.running_mean f4 [3]
000000 e4 3e 13 bb 14 cd 17 bb a0 90 6f 3b
       -0.0022467906 -0.0023163008 0.003655471

down_convs.0.norm0.running_var f4 [3]
000000 43 eb 71 42 25 c3 04 42 26 9b e9 41
       60.479748 33.19057 29.200756

down_convs.0.norm1.weight f4 [3]
000000 e1 1c a8 3f a8 c6 d9 3e 36 ef 87 3f
       1.3133813 0.42534375 1.0619876

down_convs.0.norm1.bias f4 [3]
000000 50 ba 26 be 47 6e c8 bf 0f 04 00 bf
       -0.1628201 -1.5658654 -0.5000619

down_convs.0.norm1.running_mean f4 [3]
000000 d8 de 0c 3f 5b 14 cf 3d 16 65 aa 3e
       0.5502753 0.101113044 0.33280247

down_convs.0.norm1.running_var f4 [3]
000000 c1 72 a0 40 92 27 a8 3f af a9 85 40
       5.014008 1.3137076 4.1769633

down_convs.1.conv1.weight f4 [6, 3, 3, 3, 3]
000000 9a 45 1e bf 54 e7 07 bf d8 ca ed be 9c 08 3d be
       -0.61824954 -0.53087354 -0.4644382 -0.18460315
000010 60 b5 a6 be fc bb d4 be e7 0d 78 3e 06 21 bc be
       -0.32560253 -0.4154967 0.24224053 -0.36743945
000020 56 c3 41 bf a8 b6 0e bf 1d a8 0d bf 67 bc 16 bf
       -0.75688684 -0.5574746 -0.55334646 -0.5888123
000030 dd 4a 03 be 4e 8a d8 be 77 a3 9a be 83 70 b2 3e
       -0.12821527 -0.42293018 -0.3020284 0.34851465
000040 38 30 86 be 94 55 d2 be 6e df 1e bf fa 93 64 bf
       -0.26208663 -0.41080916 -0.62059677 -0.89288294
000050 c9 91 00 bf d2 b0 ae 3c aa 52 55 be c7 20 e4 bd
       -0.5022245 0.021324549 -0.20832315 -0.11139064
000060 e8 11 13 3f 67 25 a1 3e bf 31 4d 3e e1 be 55 be
       0.574492 0.31473848 0.20038508 -0.20873596
000070 ad f3 20 bc f7 43 20 ba 99 28 1d 3e 40 95 47 be
       -0.009823722 -0.0006113643 0.15347518 -0.19490528
000080 ac 38 f4 be c2 7c 89 3e 2a 43 48 be 5e 19 50 bf
       -0.47699487 0.26852995 -0.19556871 -0.8128871
000090 b6 a4 90 be 29 20 c7 bd 58 9e 5b 3d f6 55 cb bc
       -0.28250664 -0.09722931 0.053617805 -0.024821263
0000a0 ec 20 20 be d9 70 b1 be 3e af c3 3e 80 ce c7 3c
       -0.15637559 -0.34656408 0.38219637 0.024390459
0000b0 30 65 d6 be 18 79 07 bf c1 f4 06 bf e5 cb 20 be
       -0.41874075 -0.5291915 -0.52717215 -0.1570278
0000c0 60 d5 ac 3e 7a b3 50 3b 43 fb 01 3e 70 a9 34 3f
       0.33756542 0.0031845258 0.12693505 0.7057104
0000d0 4f 28 12 3f 68 b7 0b 3e 7d 08 84 bd bc 50 69 be
       0.57092756 0.13644183 -0.064469315 -0.22784704
0000e0 b4 8a 80 3d 6a 05 ae 3b c4 a5 5c bd af c3 a2 be
       0.062764555 0.005310704 -0.053869024 -0.3178992
0000f0 c3 eb 80 3d 95 77 dd be d9 4d 6c bf e9 a3 22 bf
       0.06294968 -0.43255296 -0.92306286 -0.6353136
000100 d0 e0 fd be cf 20 17 be f2 dd e7 be 3b c8 d9 be
       -0.4958558 -0.14758609 -0.45286518 -0.42535576
000110 8a a3 c0 be 9d 4e 90 3e c1 20 55 be 3a 03 02 bf
       -0.3762477 0.28184977 -0.20813276 -0.50786173
000120 c7 d0 33 bf fa 5c 34 bf 39 22 d3 bc 0a 34 98 be
       -0.70240444 -0.7045437 -0.025773155 -0.29727203
000130 82 5e ab be 36 78 98 be 23 62 ed 3e 83 e6 12 3e
       -0.3347054 -0.29779214 0.46363935 0.14345746
000140 c5 16 35 bd 77 76 56 3d 15 64 70 3d cd e5 27 bd
       -0.044211168 0.05235907 0.058689196 -0.04099064
000150 af b2 48 be a7 65 f9 3b 01 be 3b be 80 24 62 be
       -0.19599412 0.007610995 -0.183342 -0.22084236
000160 34 ba 0a 3f 58 92 73 be f4 eb 2e bd d7 f8 46 bc
       0.54190373 -0.23786294 -0.04270549 -0.012144289
000170 3a 17 41 bc 65 45 3f 3e 4a cd 30 3f 40 f1 80 3e
       -0.011785323 0.18678816 0.69063246 0.2518406
000180 94 d2 00 3f c5 2e 50 40 8d 87 67 3f f4 30 9a bd
       0.50321317 3.2528546 0.9044121 -0.07528868
000190 ad c3 fb 3c 70 b7 aa be 99 76 98 be 46 e0 3f 3d
       0.030732954 -0.33343077 -0.29777983 0.046844743
0001a0 9b b8 88 bd 4b ef 77 be e8 6b 73 3f 58 9a 7b 3e
       -0.06675836 -0.24212377 0.95086527 0.24570596
0001b0 a4 c3 9c be f0 80 ed 3d 41 0c 80 3c 60 1e db be
       -0.30618012 0.115968585 0.015630843 -0.42796612
0001c0 49 74 32 3e e2 a2 b7 be af 90 40 bf 84 fa 8c be
       0.17427172 -0.35866457 -0.7522077 -0.27534878
0001d0 65 a7 20 bf cf 78 1b be ca 11 e2 3c 27 83 09 3e
       -0.62755424 -0.15182804 0.027596373 0.13428937
0001e0 e1 c9 c5 bd a3 1e bc 3f 2f 20 18 3f 9b 92 9e be
       -0.09657646 1.469685 0.5942411 -0.30971226
0001f0 af 99 aa 3f d1 f7 9e 3e 36 db 86 3d b5 34 09 be
       1.332815 0.31048444 0.0658478 -0.13399012
000200 08 83 0f bc 79 33 e4 be 07 be d0 3e b3 fd 8e 3c
       -0.008759268 -0.4457052 0.4076998 0.017454958
000210 21 26 32 bf 1d f3 c4 3d 0e e7 bd be e0 8b 88 3d
       -0.6958943 0.09616683 -0.37090343 0.06667304
000220 c8 24 96 3e 76 de 7e 3d 6a 91 ca be be 79 23 be
       0.29324937 0.062223874 -0.39564067 -0.1596441
000230 ae 3b dd be 51 ca 37 bf d4 e4 18 3d a4 11 5f bf
       -0.43209594 -0.71793085 0.037327603 -0.8713629
000240 84 79 31 3c 57 43 a2 3e 6a ff 81 3d 77 69 57 3d
       0.010832194 0.31692 0.063475445 0.052590813
000250 93 43 6e 3f b4 df 0f 3e cd 0a 39 3e d5 91 33 40
       0.9307186 0.1405018 0.18070526 2.805776
000260 61 5e a3 3e 84 ad 75 3c 0f d8 ab bc b6 ff 11 bd
       0.31907943 0.014994983 -0.020977048 -0.035644256
000270 f7 86 7c be eb bb c6 3d b0 87 bf be 6f 86 5f be
       -0.2466086 0.09703811 -0.3740821 -0.21828626
000280 56 d4 57 3f ce 6d 3e be 71 ac 47 bf 4c 99 ef be
       0.84308374 -0.18596575 -0.779975 -0.46796644
000290 8f 97 2d bf 1e e1 70 bd bb b7 8f 3d 20 ae 1a 3e
       -0.67809385 -0.05880844 0.07017466 0.15105486
0002a0 b7 f0 e9 3e 4c 12 b8 3e b8 2c af 3e ac 58 80 be
       0.45691463 0.3595146 0.34213805 -0.2506765
0002b0 0b c8 71 be a1 41 66 be 40 02 47 3e 7e 38 1a 3e
       -0.23611467 -0.22485973 0.19434452 0.15060613
0002c0 85 11 96 3d 1f 04 0b 3f b5 b0 94 3e a2 5c bc 3e
       0.0732756 0.54303163 0.29041067 0.36789423
0002d0 36 ab c0 be ca 8e 7c be 57 dd dc be 56 fd 78 3e
       -0.37630624 -0.24663845 -0.4313762 0.2431539
0002e0 bd b3 ff 3d 0f 90 7a 3e 87 e5 b6 3e dc eb 06 3f
       0.12485454 0.24469016 0.3572199 0.5270364
0002f0 fa 44 c8 3e ea 28 79 bf 05 12 27 bf ee a0 48 bf
       0.39115125 -0.97328055 -0.6526187 -0.7837056
000300 e8 fa 78 3e 66 fb e8 3a ce 46 91 3e 1b 31 30 3e
       0.24314463 0.0017775118 0.28374332 0.17206232
000310 34 ab f2 3e 51 49 31 3e 5a fa ed be 9c bb b4 be
       0.47396243 0.17313124 -0.46480066 -0.35299385
000320 a4 9c f2 be f0 ac be 3d b4 63 de 3d 0d f7 95 3e
       -0.47385132 0.09310329 0.108588606 0.29290047
000330 a1 38 f1 3e d8 77 bf 3e 59 53 94 3e fa 41 5d bf
       0.47113517 0.3739612 0.2896984 -0.864288
000340 93 6a d6 be f7 08 16 bf 63 22 24 3d a7 6b 31 3e
       -0.41878185 -0.5860743 0.040071856 0.17326222
000350 1b e8 af 3e 1f 81 e6 3e 19 76 ca 3e f6 cd ac 3e
       0.3435677 0.45020387 0.39543226 0.33750886
000360 46 0e 27 bf 88 ac fc be ec 8d 66 bf f8 2a 1a 3e
       -0.65256155 -0.4935038 -0.90060306 0.15055454
000370 a4 f0 1b 3e 70 d7 11 3b 79 f4 24 3d 15 ca 0d 3e
       0.15228516 0.0022253655 0.04027221 0.1384662
000380 ec 26 c7 3e fe d0 15 bf 82 88 8b be 67 1c fc be
       0.38896883 -0.5852202 -0.27252585 -0.4924042
000390 1e 90 81 3d 40 59 0a 3e fd 46 48 bd 5b d7 b0 3e
       0.06326316 0.13510609 -0.048895825 0.34539303
0003a0 d8 a2 7f 3e 51 4b d3 3e e2 63 12 bf 0d 28 b5 be
       0.24964464 0.412684 -0.5718366 -0.3538212
0003b0 57 03 30 bf 7d f7 ad bd bc 68 82 3d bf 1a bd bb
       -0.68755096 -0.0849447 0.06367633 -0.0057710106
0003c0 82 53 dd 3e 06 81 e7 3e c4 69 a1 3e 00 5e e7 bd
       0.43227774 0.45215625 0.31526005 -0.11297226
0003d0 92 3e 8e 3e ae 63 f7 3d 26 dd ba be 84 0f ba 3e
       0.27782112 0.12079559 -0.36496848 0.36339962
0003e0 8e b9 8c 3e 48 1b 34 be a6 95 40 3f 08 a8 b0 3e
       0.27485317 -0.17588532 0.75228345 0.34503198
0003f0 53 39 99 3d af bb 6a 3e 90 e9 4e 3e e6 11 73 3d
       0.07481637 0.22923158 0.20206285 0.05934324

down_convs.1.conv1.bias f4 [6]
000000 f6 72 97 3d c8 a3 f0 b9 b3 e5 4e bb 67 7e fb bb
       0.07394974 -0.00045898394 -0.0031570017 -0.0076749804
000010 f5 64 c4 38 9d 04 a0 3a
       9.364813e-05 0.0012208406

down_convs.1.conv2.weight f4 [6, 6, 3, 3, 3]
000000 85 f5 20 bf 6e b0 1d be 53 fc 24 bd f4 05 80 be
       -0.62874633 -0.15399334 -0.040279698 -0.25004542
000010 01 52 7e 3e e0 b3 f8 3e 6b a8 44 bf 85 8d cb bd
       0.2483597 0.48574734 -0.76819485 -0.09939102
000020 98 f1 45 3d 1a e8 51 bf 17 e6 1b bf b1 76 98 be
       0.048326105 -0.81994784 -0.60897964 -0.29778054
000030 6d af 46 bf 0b 54 90 be c4 4c a3 ba d2 a7 4e bf
       -0.7761143 -0.2818912 -0.0012458791 -0.80724823
000040 4c 85 d5 be ec a5 bb be 77 5c 45 bf b3 1b 2c bf
       -0.4170326 -0.36650026 -0.77094215 -0.67229766
000050 18 68 d9 be 18 30 29 bf 79 18 e3 be 21 94 ef be
       -0.4246223 -0.6608901 -0.4435461 -0.467927
000060 02 4d 24 bf 61 d7 9f be 7f db 85 be 73 cd 3e 3f
       -0.64180005 -0.3121901 -0.26144025 0.7453224
000070 23 02 31 3f b8 42 3a 3f 0e 1f 05 3f 9a 69 51 3e
       0.69143885 0.72758055 0.5200051 0.2045044
000080 ea d5 01 3e 6f d5 c8 3e 42 2e d0 3d 5a 7d e5 bc
       0.12679258 0.39225337 0.10165073 -0.028013874
000090 45 08 f9 3e 5a 3f 43 3f 4f 6f 33 3f 09 95 89 3e
       0.48639122 0.7626854 0.7009172 0.26871517
0000a0 cf 94 1a 3e ee ca f0 3d 2b 13 81 bd 8b ea 2e be
       0.15095828 0.11757456 -0.06302484 -0.17081659
0000b0 7d be 69 be 26 06 d5 3e 72 a6 f0 3e 26 43 28 3f
       -0.22826572 0.41606253 0.47001988 0.6572746
0000c0 53 c8 5c 3e 29 0b e2 3c 1b 8f 4e 3e d4 75 ae 3d
       0.21560793 0.027593212 0.20171778 0.08518568
0000d0 cb f9 50 be 27 fb cd be 8f 43 e6 3c a1 3f 22 be
       -0.20407788 -0.40230677 0.028108386 -0.15844585
0000e0 37 c9 a2 be 2b 3a 2c be c9 a8 0b bf 2d a9 e2 be
       -0.3179414 -0.16819064 -0.5455442 -0.44269696
0000f0 ca 3c cb 3e cd 4f b9 3e 6f 5c a3 3e e4 67 94 bc
       0.39694816 0.36193696 0.3190646 -0.018115945
000100 78 e8 ef be 22 f4 04 bf 5b ab 13 bf 69 3a 63 bf
       -0.46857047 -0.5193502 -0.5768334 -0.88761
000110 59 c9 29 bf c4 08 34 3e 22 e7 e3 3d 98 28 92 3e
       -0.6632286 0.17581469 0.111280695 0.28546596
000120 d3 5a 1f be de 2d c6 be 2e 3b 39 bf 95 89 cc be
       -0.1556199 -0.3870687 -0.72355926 -0.39948717
000130 13 19 2e bf b9 0d 16 bf 50 2a e6 3e 09 d7 47 3e
       -0.6800701 -0.5861469 0.44954157 0.19515623
000140 f5 5c 9f 3e 17 7a 88 3f 9f d4 9e 3f 01 42 92 3f
       0.31125608 1.0662259 1.2408637 1.1426393
000150 05 2e 14 3f 6a 0a e2 3e 48 d6 73 3e 63 f1 9e 3e
       0.5788272 0.4414857 0.2381221 0.31043538
000160 cf 7f 70 3e c3 26 40 3e 63 09 8d 3f 26 7e ae 3f
       0.23486255 0.18764786 1.101849 1.3632247
000170 41 c7 88 3f 9c 2a cd 3e 0f fe 03 3f cd 33 41 3e
       1.0685807 0.4007157 0.5155954 0.18867417
000180 67 7e 91 3e 1e 88 24 be 6d c2 0e 3e fb f6 6d 3f
       0.2841675 -0.1606755 0.13941355 0.9295499
000190 f4 6f a5 3f ed e4 88 3f 63 ca ac 3e a4 97 81 3e
       1.292479 1.0694863 0.3374816 0.25311005
0001a0 ff 7f 19 3e 89 3f 8f 3d c2 26 09 be d2 2e 75 be
       0.14990233 0.0699454 -0.13393691 -0.23943642
0001b0 0a d8 81 3e 30 ec c3 3e 72 1d 9c 3e 96 c1 95 3e
       0.25360137 0.38266134 0.30491215 0.29249257
0001c0 cb 64 75 3e d0 f3 b7 3d 37 09 65 3e fe c4 b0 bc
       0.2396423 0.089820504 0.22366796 -0.021578308
0001d0 a8 0b 2f be 19 12 cb 3e 0f d1 e2 3e e5 0d 04 3f
       -0.1709429 0.39662245 0.44300124 0.515837
0001e0 15 ac 1b 3e 78 55 91 bc 54 98 24 3e f5 d6 1d be
       0.15202363 -0.01774095 0.16073734 -0.15414031
0001f0 89 c8 43 be 37 3b 35 bd 30 d6 d8 3e 61 30 8c 3e
       -0.19119467 -0.044245925 0.42350912 0.2738066
000200 fa 4a 10 3f 75 4a c1 bd ea 4d 1e be 3e 76 8e 3d
       0.56364405 -0.0943803 -0.1545941 0.06956147
000210 8d bd a8 bd da e7 13 be a7 6f 44 be 69 92 2f 3f
       -0.08239279 -0.14443913 -0.19183217 0.6858278
000220 4f 73 59 3f 1a 5c 53 3f 4b 55 de 3e da 1b ad 3e
       0.8494157 0.8256241 0.43424448 0.33810312
000230 2c 08 54 3d ef 97 9d 3e 4b 86 00 3d d5 9a 12 3c
       0.051765606 0.3077998 0.03137807 0.008948048
000240 75 ec 21 3f d4 77 3c 3f bd 5c 2e 3f 52 67 02 3f
       0.6325143 0.73620343 0.6811026 0.50938904
000250 6e d9 dd 3e 9f 32 52 bc 70 f1 8b 3d 3d ab 68 3b
       0.43329948 -0.012829452 0.0683316 0.0035502457
000260 a3 18 42 3c 08 43 84 3e 8a a9 d9 3e f6 a4 1c 3f
       0.011846694 0.2583239 0.4251216 0.6118921
000270 d9 36 24 3d b9 d4 4e 3d a7 fd 05 be 36 16 ca 3d
       0.04009137 0.050495837 -0.13085042 0.09867518
000280 a6 c6 05 bd 1e 0a 84 be ae 0d 0a bf 7f 4c 12 bf
       -0.03266015 -0.2578897 -0.53927124 -0.57147974
000290 8e 0d b8 be fa ec 52 bf 0b 48 07 bf 3a 93 34 bf
       -0.3594784 -0.8239285 -0.52844304 -0.7053715
0002a0 6a 93 5f bf 09 fe 35 bf 75 34 4f bf 2a f1 18 be
       -0.8733431 -0.7109075 -0.8093942 -0.14935747
0002b0 03 1a 10 be 57 3b 72 be a5 c7 09 bf 28 d5 9d bd
       -0.14072423 -0.23655449 -0.5382026 -0.07706672
0002c0 16 ef e0 be 8d 1c 29 bf 5f 19 10 bf d9 7b 3a bf
       -0.43932408 -0.6605919 -0.56288713 -0.72845227
0002d0 d8 7d ba be db 4a 1e be 3a 24 f6 be b4 e4 0f bf
       -0.36424136 -0.15458243 -0.48074514 -0.5620835
0002e0 27 6f 3d be ba e4 03 bf 8c 90 2b bf 54 89 1e bf
       -0.18499433 -0.51520884 -0.67017436 -0.61928296
0002f0 f8 12 21 bf c8 a6 1e be 25 a0 20 3e 33 14 77 bd
       -0.6291957 -0.1549331 0.1568609 -0.060321998
000300 1f 0a 84 be b9 fb 8b be 86 80 b9 be e4 8b 5e be
       -0.25788972 -0.27340487 -0.36230868 -0.21733052
000310 66 64 82 be 0c 14 c3 be cb 34 19 3e ae 85 66 3e
       -0.25467223 -0.38101232 0.14961545 0.22511932
000320 84 6d c7 3d 56 61 99 be 50 b6 4d be 21 02 e8 bd
       0.09737685 -0.29957074 -0.20089078 -0.11328531
000330 6b 84 80 be 87 c9 02 bf 92 8d ee be cf e8 7c be
       -0.25101027 -0.51088756 -0.46592385 -0.24698184
000340 14 ce 58 be 03 4e 16 be a7 d4 9b be be ce 4e be
       -0.21172363 -0.14678197 -0.30435678 -0.20196053
000350 af 6f 11 be bb fb cf be 64 a8 e2 be c7 ce 99 be
       -0.1420276 -0.40621743 -0.44269097 -0.3004057
000360 de da 1d 3e c9 c9 4e be 68 73 7c be 43 c8 3d 3f
       0.15415522 -0.20194162 -0.24653399 0.741337
000370 54 16 f8 3e 77 84 e9 3d 9a fc d3 ba 5e bf 29 3d
       0.48454535 0.11402219 -0.0016173304 0.041442268
000380 84 55 2f 3e 0c 53 df 3c eb 26 ed bd 41 85 43 be
       0.17122465 0.02726128 -0.11579689 -0.19093801
000390 3c e4 bc 3d b0 23 bb 3d dd ce e8 bd fd b7 23 be
       0.0922322 0.09137666 -0.11367581 -0.15988155
0003a0 16 d5 0e be 24 d3 08 3e 40 90 72 3d 5d 52 60 be
       -0.13948473 0.13361794 0.0592196 -0.21906419
0003b0 bd a8 2b be 41 02 16 be 09 65 3b be e3 23 8c be
       -0.16763587 -0.14649297 -0.1830026 -0.2737113
0003c0 d9 8b e1 be 47 4a 99 be 46 1b aa 3e 32 30 b3 3e
       -0.44052008 -0.29939482 0.33223933 0.34997708
0003d0 8a 26 02 3f 63 1a 85 bd f5 af 98 bd b6 82 91 be
       0.50840056 -0.064991735 -0.07455436 -0.28420037
0003e0 b8 18 ae be f2 b4 80 be 42 db b2 be 34 11 d2 be
       -0.34003234 -0.2513805 -0.34932905 -0.4102875
0003f0 05 b9 fe 3e 75 8f 1a 3f e9 fd 19 bb aa 69 f3 bd
       0.49750534 0.6037515 -0.002349729 -0.11885388

down_convs.1.conv2.bias f4 [6]
000000 bc 0a 46 3b 1d e9 43 3e c4 62 98 bb 39 bf 11 bc
       0.00302188 0.19131894 -0.0046504457 -0.008895689
000010 7a 6c f5 3b c4 76 0a 3c
       0.007489738 0.0084511675

down_convs.1.norm0.weight f4 [6]
000000 75 fe af 3f 2e 8d 5c 3f 7e cb a2 3f a7 71 7d 3f
       1.3749529 0.86152923 1.2718351 0.99001545
000010 cc fe 31 bd e5 97 97 3e
       -0.043455884 0.29608074

down_convs.1.norm0.bias f4 [6]
000000 f5 26 4d 3f 70 79 57 be 8a ce df bf 05 e3 3c bf
       0.8013757 -0.21042418 -1.7484906 -0.73783904
000010 2e 5a 5f bf a9 d0 3b bf
       -0.8724698 -0.73365265

down_convs.1.norm0.running_mean f4 [6]
000000 32 7f 3d c0 ca d8 f6 3f c5 fe 87 bd 1e 76 1d 40
       -2.9608884 1.9284909 -0.0664039 2.4603343
000010 c8 33 ef 3f d6 98 8a 40
       1.8687677 4.3311567

down_convs.1.norm0.running_var f4 [6]
000000 45 c9 97 43 d7 f3 16 43 11 d1 b8 42 f5 f2 44 43
       303.57242 150.9525 92.40833 196.94905
000010 ca 4d 07 43 66 26 0c 44
       135.30386 560.6

down_convs.1.norm1.weight f4 [6]
000000 b2 60 72 3f b7 c8 9c 3f d5 06 a9 3f 3e 8e 9b 3f
       0.94678795 1.2248753 1.320521 1.2152784
000010 ab 3a 64 3f a7 e8 82 3f
       0.8915202 1.022725

down_convs.1.norm1.bias f4 [6]
000000 e6 76 12 be 37 4a 15 3f df 9b 85 be 73 48 7f bf
       -0.14303169 0.5831637 -0.26095483 -0.99719924
000010 17 1c 5d bf 66 fc 85 bf
       -0.86370987 -1.0467651

down_convs.1.norm1.running_mean f4 [6]
000000 fb 9c ee c0 07 69 59 c1 b6 29 6a 40 56 f7 07 41
       -7.4566627 -13.588141 3.6587958 8.497885
000010 ac 0e 22 41 8d 56 b5 41
       10.128582 22.667261

down_convs.1.norm1.running_var f4 [6]
000000 83 a7 8e 43 f2 29 4c 42 a9 d6 e1 41 2d be 60 42
       285.3087 51.040962 28.229815 56.18572
000010 d8 97 84 42 08 e6 ce 42
       66.29657 103.44928

down_convs.2.conv1.weight f4 [12, 6, 3, 3, 3]
000000 8d 3d a2 3e 7e 60 d1 3e 99 6c c6 3e 13 06 8c 3e
       0.31687585 0.4089393 0.38754728 0.27348384
000010 60 c4 20 3e 83 11 f2 3d 00 34 15 3f d9 7a 0a 3f
       0.15699911 0.11819746 0.5828247 0.540937
000020 01 ee 53 3e 6f 7f f5 3e 04 80 c7 3e cd 9a 2e 3e
       0.2069626 0.47948787 0.38964856 0.1705124
000030 4f 45 91 3e e9 7e 59 3e 3d 77 65 3d 08 f1 47 3f
       0.2837319 0.21239819 0.056021918 0.7810216
000040 a9 91 6d 3f c0 74 c4 3e b0 7a 1a 3f c0 45 0d 3f
       0.92800385 0.38370323 0.60343456 0.55184555
000050 3a 07 af 3e 7b 26 bd 3e 70 70 9e 3e a6 a3 60 3e
       0.341852 0.3694342 0.30945158 0.21937427
000060 55 9a 32 3f d4 bb 2c 3f c3 19 13 3f d8 3f 50 3f
       0.6976674 0.674741 0.57461184 0.8134742
000070 7f 35 85 bd ec 78 cc bb dd b6 b9 3e 8a 39 c0 be
       -0.06504344 -0.006240001 0.36272326 -0.375439
000080 50 a6 47 be 01 17 a1 3d b5 80 eb be ea 62 95 be
       -0.19497037 0.07865716 -0.45996633 -0.29177028
000090 20 c5 30 3d fd 90 cc be e9 3f b4 be b9 ae 47 be
       0.043156743 -0.39954367 -0.3520501 -0.19500245
0000a0 32 b3 7f bf ea f9 05 bf 5d 59 1c bf 55 a3 99 bf
       -0.99882805 -0.52334464 -0.6107386 -1.200297
0000b0 5b e6 e9 be a2 42 75 3e f7 26 07 be c8 35 6a 3d
       -0.4568356 0.239512 -0.13198458 0.057180196
0000c0 24 b3 0f be d9 76 f6 be 2a 72 0d be 8d e6 d5 be
       -0.1403318 -0.4813755 -0.13813081 -0.4177746
0000d0 1d ef 18 bf 6f 1a d6 bd 8b ab a0 3e 8e 51 30 3e
       -0.5973986 -0.104542606 0.31380877 0.1721861
0000e0 5c d4 86 3e c1 96 d7 3e 72 0a 65 3e a1 90 f6 3e
       0.26333892 0.42107204 0.22367266 0.48157218
0000f0 3a 12 e1 3e cc 17 0e 3f 8d b3 8b 3e 10 60 53 3e
       0.43959218 0.5550506 0.27285424 0.20642114
000100 0c f3 71 3e ae 0f c7 3e e8 9a 1c 3f 1c ce 12 3f
       0.23627871 0.3887915 0.6117387 0.5734575
000110 78 fd ef 3e 51 21 6d 3f 17 25 9e 3f 27 6b 22 3f
       0.4687307 0.9262896 1.2355069 0.6344475
000120 97 69 c6 3e cd 75 cf 3e 7e 3b c8 3e 6a df f6 3e
       0.38752434 0.40519562 0.3910789 0.48217326
000130 85 7e 2c 3f f5 c6 20 3f 62 b1 29 3f 95 33 81 3f
       0.67380553 0.62803584 0.6628629 1.0093867
000140 dc 10 20 3f 9e 2f 51 3e 81 a0 26 3e 04 a5 63 3e
       0.62525725 0.20428321 0.16272165 0.22230917
000150 4d e4 01 3f d5 e9 d4 3e 39 38 ce 3e 61 b2 e5 3e
       0.50738984 0.4158465 0.4027727 0.44862655
000160 69 8c 21 3f 7e 0f 06 3f 78 75 fc 3d 81 c2 25 be
       0.63104874 0.5236739 0.12327093 -0.16187479
000170 57 84 9c 3e 13 dd 37 3f b4 39 5a 3f 41 3e 00 3f
       0.30569717 0.7182171 0.852443 0.5009499
000180 2c 21 58 3f 94 7f a6 3f e5 a3 3f 3f fe a6 71 3e
       0.84425616 1.3007684 0.7485946 0.23598859
000190 bc 58 99 3e a8 3c 60 3e 07 6c 34 3f b3 fb 2b 3f
       0.2995051 0.21898139 0.70477337 0.6718094
0001a0 fd 57 e8 3e 73 af 3d 3f 69 ae 57 3f f6 bf 25 3f
       0.4537963 0.7409584 0.84250504 0.64746034
0001b0 86 8b a1 bd ed a5 4e be a4 e5 5d be 2c e2 52 3e
       -0.0788794 -0.20180483 -0.21669632 0.2059409
0001c0 f6 43 9f 3e f7 24 c7 3e 59 bd 91 3e 10 35 7e 3e
       0.31106538 0.3889539 0.28464773 0.24824929
0001d0 9b fe c6 3e ca 92 ca bd 44 3c 99 be ad be 11 be
       0.38866124 -0.09891279 -0.29928792 -0.14232893
0001e0 c0 bd 90 3e 85 9d b8 3e 13 47 8d 3e f1 9b e0 3e
       0.28269768 0.36057678 0.27593288 0.43868974
0001f0 0d 84 05 3f 4e ea 16 3f 37 56 a7 be 0f 15 5e be
       0.5215462 0.5895127 -0.32682964 -0.2168772
000200 b4 44 c5 be 40 2c 4d 3e 31 75 16 3e 4a 3d 12 bd
       -0.3852898 0.20036411 0.14693142 -0.03570298
000210 09 0c 89 3e c1 78 9a 3e b6 2d 4a 3e b0 eb ca 3d
       0.26766995 0.30170253 0.19744 0.09908235
000220 a8 98 0e 3e eb 0f cd 3d 42 00 17 3f c2 87 ff 3e
       0.13925421 0.10012802 0.5898477 0.49908262
000230 a2 76 e7 3e 22 a0 0d 3f af 83 0a 3f 0d 9d ff 3e
       0.45207697 0.5532247 0.54107183 0.49924508
000240 7e 31 39 3e 30 8f 3b 3e 4c 8d 32 3e aa 89 1a 3f
       0.18085286 0.1831634 0.17436713 0.6036631
000250 0b 48 0f 3f 33 b4 10 3f c0 6b 18 3f 82 76 1f 3f
       0.55969304 0.5652496 0.59539413 0.62290204
000260 cd ee 10 3f f7 5e 54 3e f0 cd 0b 3e b2 26 b7 3e
       0.5661438 0.20739351 0.13652778 0.3577171
000270 d2 31 b5 3e 62 f2 b0 3e 55 d1 0c 3f c6 88 d1 3e
       0.35389572 0.34559923 0.55006915 0.40924662
000280 47 ed df 3e 62 af 0a 3f 67 d8 96 3c 80 03 c0 3e
       0.43735716 0.5417386 0.018413736 0.3750267
000290 d7 e7 a8 3c ba 8f 74 be 24 51 8a bd 96 41 bb be
       0.020618362 -0.23882952 -0.067537576 -0.36573476
0002a0 f9 f6 94 bf 5c 6c 54 bf 5a c2 54 bf 55 d6 ce 3e
       -1.163787 -0.82977843 -0.83109057 0.40397897
0002b0 b6 27 72 3f 44 59 07 3f df 84 ef bd b5 77 0a 3f
       0.94591844 0.52870584 -0.11695265 0.5408891
0002c0 06 bf b0 bd f7 0b 92 bf 90 3c 1d bf 50 3a 12 bf
       -0.08630185 -1.1409901 -0.61420536 -0.5712023
0002d0 c8 83 d0 3d a3 c2 1e 3f 5b c0 32 3d 0c ca c8 be
       0.10181385 0.6201574 0.043640476 -0.3921665
0002e0 aa a6 4b 3e b2 b0 8e be 2d 71 96 bf ca c1 4f bf
       0.19887796 -0.27869183 -1.1753289 -0.81155074
0002f0 eb 57 85 bf 6e 70 0e 3c 6a 57 45 bf e4 11 a1 be
       -1.0417455 0.0086937975 -0.7708651 -0.31458962
000300 94 f1 9d 3f 76 9b 86 3f 94 8d 7b 3f de 26 f0 3e
       1.2339349 1.0516193 0.98262906 0.46904653
000310 75 0f 31 3f dd 46 bd 3e 1a 9c 39 bf ad 2f db bf
       0.6916421 0.36968127 -0.7250382 -1.7123924
000320 82 53 14 bf 44 3f 62 3f 87 2c 26 3f fd dc 2d 3f
       -0.5793992 0.88377786 0.64911693 0.67915326
000330 1a 3a 53 3e fd 87 f7 3e 06 ab e7 3e 96 4d 30 be
       0.20627633 0.48345938 0.45247668 -0.17217097
000340 66 45 05 bf 53 90 79 bd f1 36 98 3f 26 38 91 3f
       -0.5205902 -0.060928654 1.1891767 1.134526
000350 79 9d 63 3f 73 a4 f8 3e 48 ce 01 3f 7c bf ad 3e
       0.8891216 0.48562965 0.50705385 0.33935153
000360 57 0d 5c bd 6d e7 89 3e 65 56 01 bd 50 62 22 bf
       -0.05372366 0.26934376 -0.031576533 -0.6343126
000370 a2 fb a1 be ea 26 c7 be 2c 7a 34 bf f5 2e f0 be
       -0.31637293 -0.38896877 -0.7049892 -0.46910825
000380 6a 92 38 bf 61 b7 af 3e 07 0e 8c 3f 8c d6 c6 3e
       -0.7209841 0.34319595 1.0941781 0.3883556
000390 6e be 99 be 19 e0 ac 3e 0e 10 6d be e6 96 0d bf
       -0.300281 0.33764723 -0.23150656 -0.5530838
0003a0 53 30 df bd 65 44 eb be d9 ba b0 bc 2a b4 e0 3e
       -0.10897889 -0.45950618 -0.02157347 0.43887454
0003b0 e2 48 f5 3d 01 1d 15 bf 39 37 7a be 84 02 d1 be
       0.11976792 -0.5824738 -0.24435128 -0.40822232
0003c0 b4 2b 23 bf 54 54 e3 be 54 2b d9 be f6 93 43 be
       -0.6373856 -0.44400275 -0.4241587 -0.19099411
0003d0 03 ea d0 3d 04 0f 38 be 8a ac 21 bf cb e0 b8 be
       0.10200884 -0.17974478 -0.631539 -0.36109003
0003e0 81 ba e4 be f0 fc 2b bf 0d fc 0e bf 93 66 1e bf
       -0.4467354 -0.67182827 -0.5585335 -0.61875266
0003f0 21 70 4f 3d bd 0a df 3e ee 5a 4a 3e 55 80 ae be
       0.050644044 0.4356288 0.1976125 -0.34082285

down_convs.2.conv1.bias f4 [12]
000000 fb ce 2c 3c 47 9a c2 3a e1 18 39 35 f6 49 60 bc
       0.010547395 0.0014847004 6.8954074e-07 -0.013689509
000010 e6 f5 e4 bb 9b 50 5c 3a 02 2e 4d ba dc 5b 5f bc
       -0.006987321 0.0008404345 -0.0007826985 -0.013632741
000020 4d fa ea 36 ea cb 23 b7 3e fd c2 3a a0 a5 a6 37
       7.0028823e-06 -9.7630345e-06 0.0014876497 1.9865867e-05

down_convs.2.conv2.weight f4 [12, 12, 3, 3, 3]
000000 71 be 43 be e9 d6 a5 bd 4b ba eb 3c 2a b2 81 be
       -0.19115616 -0.080976315 0.028775355 -0.2533124
000010 62 b2 dc bd e2 24 6a be a4 b5 fd 3d 40 6f 8c 3e
       -0.10776211 -0.22865632 0.12388161 0.27428627
000020 a5 25 a2 ba ff 0c 52 be a7 b6 ba 3d 74 a1 8b 3d
       -0.0012370838 -0.2051277 0.091168694 0.06817904
000030 04 2c ab bd 0e f8 d6 bd a1 c1 f3 bc f3 1f 4e bc
       -0.08358005 -0.104965314 -0.029755415 -0.0125808595
000040 fa 75 8e 3e f3 97 6d bd ca 54 e9 bd 89 05 83 3b
       0.27824384 -0.05800624 -0.11393125 0.0039984626
000050 4c 70 dd bd a5 af ea 3d 94 42 d3 bd 34 3d 5f be
       -0.108124346 0.11459283 -0.10315433 -0.21800691
000060 7a d4 ba bd 1b 82 36 bc ff d3 42 be d2 15 4e 3e
       -0.09122558 -0.011139418 -0.19026183 0.20125511
000070 7b 28 a9 3c d3 1c 72 3b 7a a0 8b 3f a8 8f 52 3f
       0.020649185 0.003694345 1.0908349 0.8225045
000080 99 e1 31 3f da bb b0 3f 54 c8 b8 3f cd 0c bd 3f
       0.6948486 1.3807328 1.4436135 1.4769531
000090 cb 0a 7a 3e 0e 46 e1 bd 33 ef 15 bd 20 2f 87 3f
       0.2441818 -0.1099969 -0.03660507 1.0561256
0000a0 eb a2 4f 3f e9 06 30 3f e3 04 95 3f cd 0d 9a 3f
       0.8110797 0.68760544 1.1642116 1.2035462
0000b0 59 96 c9 3f 4a b8 9d 3c 91 dc 3d be d4 58 32 be
       1.5749007 0.019252915 -0.1854117 -0.17416698
0000c0 c4 4d 2c 3f 16 a9 9e 3e 28 e2 a0 3e 1a 33 7d 3f
       0.6730616 0.30988377 0.31422544 0.989061
0000d0 62 10 69 3f 3a 06 91 3f 41 0e e2 bd be 47 5e 3c
       0.91040623 1.1330025 -0.11037875 0.013566909
0000e0 8d e2 ce bd 93 d1 20 bd 11 2c ee bc 4f 1c fa bc
       -0.10101805 -0.039262366 -0.029073747 -0.030531077
0000f0 b9 33 ae bd 27 67 ae bd bc 36 b8 bd 82 26 c9 bd
       -0.08505959 -0.085157685 -0.08994815 -0.09821798
000100 0c dc b2 bc 87 33 d9 bd ac ac f3 bd b4 6b 9f 3c
       -0.021833442 -0.10605531 -0.11898169 0.019460537
000110 45 fa 35 be b3 77 d2 bd 7b 7d ee bc 69 a7 dd bd
       -0.17771251 -0.10276737 -0.029112568 -0.108229466
000120 3f 8f 06 be 61 46 31 be b9 da 10 be b3 bd 29 bd
       -0.13140582 -0.17312004 -0.14145936 -0.041440677
000130 13 48 d4 3c 45 03 b2 bd cc cd b4 bd 66 02 83 bd
       0.025913274 -0.0869203 -0.08828315 -0.06396942
000140 aa 8a e6 bd c4 57 4a be 3d 3c 90 be 59 e8 e7 be
       -0.11256917 -0.19760042 -0.28170958 -0.45294455
000150 90 b2 69 3f b6 03 43 3f 26 cf 0d 3f bc cc da 3f
       0.9128809 0.7617754 0.5539421 1.709373
000160 6c 51 cf 3f 61 31 c8 3f 4b da 73 be 60 88 cb be
       1.6196723 1.5640069 -0.23813741 -0.39752483
000170 d0 7a ec be d4 31 3b 3f 2e 96 52 3f 36 37 53 3f
       -0.46187449 0.73122907 0.82260406 0.8250612
000180 3b 18 8d 3f 66 2d 95 3f 3c cf c2 3f 26 d0 30 be
       1.102302 1.165448 1.5219493 -0.17266902
000190 f1 ec 9b be 6c 2e df be 50 26 dc 3e 63 2f 2b 3f
       -0.3045421 -0.43590105 0.4299798 0.6686918
0001a0 45 8e 11 3f 36 3b 65 3f ad dc 82 3f bf 66 b3 3f
       0.5685771 0.89543474 1.0223595 1.4015731
0001b0 cd 69 f1 be da f7 b1 be cb 9c 99 3e 8f 8d 5d 3e
       -0.47151032 -0.34759408 0.30002436 0.21636032
0001c0 2c 84 24 3f 31 91 ca 3f 6c 19 e5 3d 20 6e 27 3e
       0.6426418 1.5825559 0.111864895 0.16350603
0001d0 a4 b5 74 3f 43 c1 c0 bd 92 03 0b 3e e1 f4 0c 3f
       0.9558966 -0.09411862 0.1357558 0.55061156
0001e0 03 19 bd bb 51 7f da 3e 52 88 c1 3f 5a 30 f1 be
       -0.005770804 0.4267526 1.5119727 -0.47107202
0001f0 42 67 7c be 54 ae 02 3f 41 fd 00 3e 9b af b9 3e
       -0.24648765 0.51047254 0.12596609 0.3626679
000200 6c b6 31 3f b4 86 74 3e 7f b5 26 3f 1a 48 b4 3f
       0.6941898 0.2387951 0.6512069 1.4084504
000210 97 51 05 bf d8 ba d3 be 2d da a7 3e 2c f4 4e 3d
       -0.5207762 -0.41353488 0.32783642 0.05052583
000220 37 c7 19 3e 43 6b da 3e 8c d9 7c 3e 91 b8 23 3e
       0.150174 0.4265996 0.24692363 0.15988375
000230 52 43 4a 3e f1 94 7e be 93 aa d9 bd f7 08 ea bc
       0.19752243 -0.24861504 -0.106282376 -0.028568728
000240 5f 80 bd 3e b8 74 22 3e 5b 99 6c 3e d5 f6 cd 3e
       0.37012002 0.15864837 0.23105375 0.4022738
000250 72 f2 0a 3f a2 84 99 3e fc dc af 3a f0 18 be 3e
       0.5427619 0.29984003 0.0013417299 0.371284
000260 e9 fe b2 3e fe 7b c9 3e b1 79 49 3d 08 5c 1f 3e
       0.34960106 0.3935241 0.04918832 0.15562451
000270 f9 cf db 3e f3 48 db 3e 0b 4c e4 3e 3b 81 e8 3c
       0.42932108 0.42829093 0.44589266 0.028381934
000280 0b fa 96 3e 6f ab 76 3e 3c db d7 bc 58 5e 8a be
       0.29487643 0.24088834 -0.026349656 -0.27025104
000290 a2 9f cd be 1d 17 b5 3e 4f 2b bc 3e 6d 46 f2 3e
       -0.40160853 0.35369197 0.36751792 0.47319356
0002a0 1c 26 d5 be f8 5e 06 bf c0 60 8e bd 99 0e 4e 3e
       -0.41630638 -0.5248866 -0.06952047 0.20122756
0002b0 d9 04 b9 3d 6c 59 7c 3d cf cc 17 3f 1f 62 db 3e
       0.09034128 0.061608717 0.5929689 0.42848298
0002c0 67 8b 1f 3f 96 c5 bd be 5d c0 13 bf 4a 03 f5 be
       0.62322086 -0.3706481 -0.577154 -0.47854072
0002d0 ec 84 06 3f 82 0b b3 3e 78 6a cb 3d fc 67 56 3f
       0.5254657 0.34969717 0.09932417 0.8375242
0002e0 54 9e 50 3f d3 c9 2d 3f df fd 6c 3d 79 f8 9e be
       0.8149159 0.67886084 0.057859298 -0.31048945
0002f0 c4 9a b6 be 66 c7 8b 3d eb 61 48 bd c3 1e 9f be
       -0.35664952 0.068251416 -0.048921507 -0.31078157
000300 44 60 92 3f cc b2 71 3f 63 29 44 3f ee e5 b4 3f
       1.1435628 0.9441345 0.7662565 1.4132669
000310 a5 45 c5 3f cf 54 f5 3f 43 80 95 3d 92 6c 03 bb
       1.5411879 1.9166507 0.072998546 -0.0020053727
000320 25 ca 42 be bf ef 90 3f c6 47 76 3f 9f e4 93 3f
       -0.19022425 1.1323165 0.9620327 1.1554145
000330 de 9f 9b 3f 69 3d ac 3f 42 bc 05 40 20 ab cc bd
       1.2158163 1.3456241 2.0896153 -0.09993577
000340 34 a3 da bd 0c 01 8f be 1c d7 53 3f 11 07 5c 3f
       -0.1067566 -0.27930486 0.82750106 0.8594828
000350 73 76 6a 3f 04 7c 9a 3f 69 21 b4 3f 93 8c f9 3f
       0.9158699 1.2069097 1.4072696 1.9496025
000360 91 b5 4e be 3b d9 5f bd 8b 6f 84 3d 4e a2 4c 3e
       -0.2018645 -0.054650526 0.06466588 0.1998379
000370 e5 64 8a bc 16 ff c7 3d 33 50 03 3e b8 89 38 be
       -0.016893813 0.09765451 0.12823562 -0.18021286
000380 47 48 a0 bd 11 9d 2e be f2 9c 86 be 78 7d a0 bd
       -0.07826286 -0.17052104 -0.26291615 -0.07836431
000390 be 3e 49 bd 9a d2 b9 bd cd bf c7 bd 27 a8 97 bc
       -0.0491321 -0.09073372 -0.0975338 -0.018512798
0003a0 d8 c5 6d 3b b6 38 3c bd f0 fa f3 bd 1d 37 1e bd
       0.0036281254 -0.04595252 -0.11913097 -0.03862678
0003b0 cf c1 0b 3e b2 9c b9 3c f8 ba b7 bd b4 5f b1 3c
       0.13648151 0.022657726 -0.08971208 0.02165208
0003c0 63 60 f6 3d f6 45 cc 3c 11 f6 58 3e e0 cd ac 3e
       0.12030103 0.024935704 0.21187617 0.3375082
0003d0 51 cb a0 3e 55 cb 78 3e f1 3d ad 3c 35 65 34 3e
       0.31405118 0.24296315 0.0211477 0.17616732
0003e0 34 f5 e4 3d 7a ee 6e be fc b0 cf 3c c0 20 00 3e
       0.11179581 -0.23333159 0.025352947 0.12512493
0003f0 7c 6b 72 3e 31 0e 1c 3e 82 75 52 3e f0 b8 9c 3e
       0.23673815 0.15239789 0.20552638 0.30609846

down_convs.2.conv2.bias f4 [12]
000000 48 29 1a b9 29 fa 12 3a e0 66 ef b7 1d 28 ad 37
       -0.00014701963 0.0005606735 -2.8538925e-05 2.0641886e-05
000010 2b ed 96 b8 3d b8 85 b6 3b 01 73 39 67 7d 10 3a
       -7.196733e-05 -3.985157e-06 0.00023174744 0.00055118505
000020 4a eb 94 38 72 e6 02 39 8c c9 b5 39 46 68 1e ba
       7.101016e-05 0.00012483614 0.00034673174 -0.00060427596

down_convs.2.norm0.weight f4 [12]
000000 3b de 9e 3f 68 e4 d5 3f 62 7a 43 3f 09 91 d2 3f
       1.2411569 1.6710329 0.76358616 1.6450511
000010 60 ac 97 3f 6d 9f f0 3e 64 90 4b 3f 04 6f ea 3f
       1.184948 0.46996632 0.795172 1.8315129
000020 2f df c1 3e 1e 2a 26 3e 89 64 43 3f 25 11 4d 3f
       0.37865588 0.16227004 0.7632528 0.80104285

down_convs.2.norm0.bias f4 [12]
000000 f4 27 cb 3e 60 77 ba be 65 c2 9e be 0e a9 2c bf
       0.3967892 -0.364192 -0.31007686 -0.67445457
000010 1c f3 d9 be 60 d2 1a 3f 29 cd ed bd 23 4f de be
       -0.4256829 0.60477257 -0.11611397 -0.43419752
000020 b6 06 9f be a5 08 a9 bd 5c fd 7c 3e 3c d6 99 be
       -0.31059808 -0.08253602 0.24706024 -0.3004626

down_convs.2.norm0.running_mean f4 [12]
000000 65 83 51 40 a4 ef 4f 40 46 c8 8e c0 9c b4 0b 41
       3.2736447 3.2490015 -4.4619474 8.731594
000010 7c b6 91 40 c7 c0 04 c1 1d 81 a5 40 94 5b c3 be
       4.553526 -8.297065 5.172011 -0.38155806
000020 86 a2 e0 c0 ab f8 5b 41 39 10 fe 40 ff 53 99 c0
       -7.0198393 13.74821 7.9394803 -4.7915034

down_convs.2.norm0.running_var f4 [12]
000000 7c 7b 95 44 67 a7 6d 43 87 ea e5 42 6d d5 49 43
       1195.8589 237.65392 114.95806 201.8337
000010 52 9c 48 43 db f1 32 44 49 fc 2a 43 69 58 7e 43
       200.61063 715.779 170.98549 254.34535
000020 9e 01 0d 44 71 ca 66 43 3f 64 fd 42 44 3a 0f 43
       564.02527 230.79079 126.69579 143.2276

down_convs.2.norm1.weight f4 [12]
000000 b9 6d b8 3f 68 1d aa 3f fd cc b1 3e 8f 92 0a 3f
       1.4408485 1.3290224 0.34726706 0.5412988
000010 37 0f 70 3f 3e 37 0a 3f 9b c3 a7 3f 53 c5 a5 3f
       0.93773216 0.5399054 1.3106569 1.2950844
000020 53 2f 99 3f 32 e0 88 3f 2e 61 74 3f 28 8d 9e 3f
       1.1967567 1.0693419 0.95460784 1.2386827

down_convs.2.norm1.bias f4 [12]
000000 b3 cb 7d bf 4f 87 45 bf bf 99 24 be 88 fc 17 be
       -0.99138945 -0.7715959 -0.16074274 -0.14842427
000010 e7 b6 1e bf 86 e2 86 be df cf 48 bf 66 ce 0a bf
       -0.61997837 -0.263447 -0.78442186 -0.5422119
000020 31 08 2b bf a5 78 0b bf 7a 52 1d bf e8 84 03 bf
       -0.66809374 -0.54480964 -0.61453974 -0.51374674

down_convs.2.norm1.running_mean f4 [12]
000000 6c e6 3b 41 ba a4 80 3f 6a 69 bb bf 67 e6 96 40
       11.743755 1.005027 -1.4641545 4.7156253
000010 23 df 76 40 db e7 27 c1 c4 da 0c 40 f7 67 b0 40
       3.8573692 -10.494105 2.2008524 5.512691
000020 93 58 3d 3f b5 cd cf 40 9c c6 89 40 34 69 b7 40
       0.7396328 6.4938607 4.3054943 5.731592

down_convs.2.norm1.running_var f4 [12]
000000 f4 2f cd 43 5f 3c 65 43 47 ec cd 42 8a a1 e9 43
       410.37463 229.23582 102.96148 467.26202
000010 22 c2 a3 43 82 0c 57 43 dc ff 90 43 87 59 04 44
       327.51666 215.04886 289.9989 529.39886
000020 5b c8 9f 43 06 a8 9a 43 14 39 08 44 91 47 fe 43
       319.56528 309.31268 544.89185 508.5591

down_convs.3.conv1.weight f4 [24, 12, 3, 3, 3]
000000 7b be 98 be fe 59 a0 3e eb aa 25 3f ef 7f 26 bf
       -0.29832825 0.3131866 0.64713925 -0.6503896
000010 93 2a 5d 3c fb 73 d6 3e 9f c5 9a be 37 0f ba 3e
       0.01349892 0.4188536 -0.30228898 0.36339733
000020 62 a3 df 3e a1 38 15 be 64 a9 0d 3f 51 ce 86 3f
       0.4367934 -0.14572383 0.55336595 1.0531713
000030 40 81 c2 be f7 32 52 3e 78 97 16 3f 69 ed 8f bd
       -0.37989235 0.20527254 0.5882487 -0.07027704
000040 90 4e 00 3f 17 aa 20 3f 1b 21 8a be 5f fa 24 3f
       0.50119877 0.62759537 -0.26978382 0.64444536
000050 22 9c 93 3f a8 5c 39 bf f4 24 c6 3d 76 76 bf 3e
       1.1532023 -0.7240701 0.09675017 0.37395066
000060 a6 46 49 be 30 b2 84 3e 10 ad d5 3e 5c 9b 4b bf
       -0.19655856 0.25917196 0.417336 -0.79533935
000070 1e 9e c9 3d 6e d2 56 bc f1 3d 5a bf de aa d8 bd
       0.098446116 -0.013111694 -0.85250765 -0.10579465
000080 88 eb 3e 3e e2 97 e0 be 32 8f 58 3e 25 32 0e 3f
       0.18644536 -0.43865877 0.21148375 0.55545264
000090 11 70 c9 be d9 14 ee 3e b7 c5 c9 3e d9 dc 0f bf
       -0.39343312 0.4650028 0.39408657 -0.5619636
0000a0 f4 0f b9 3e ca a6 00 3f e2 e0 88 bd 32 31 29 3f
       0.36144984 0.502545 -0.06683518 0.6609069
0000b0 b7 57 6a 3f ba 81 2d bf 48 c1 32 3e 9f be c5 3d
       0.9154009 -0.6777607 0.17456543 0.09655499
0000c0 08 22 1e bf e8 51 14 3e 2f f4 a1 3e 54 0c ab bd
       -0.6177068 0.1448437 0.3163161 -0.08351961
0000d0 d3 d6 08 3f 49 a5 1f 3f 56 ad a8 3d 13 f9 48 3e
       0.53452796 0.6236158 0.08236186 0.19626264
0000e0 51 0e e0 3e 80 6e e5 be 26 57 0e 3e 80 cd b6 bd
       0.43760923 -0.44810867 0.13900432 -0.08925915
0000f0 3d 99 a5 be 83 25 88 bd ae a1 bb bd 42 31 88 3e
       -0.32343474 -0.0664778 -0.09161697 0.2660008
000100 8e e3 a3 3e 0c 2b 41 3e 15 c0 84 be 18 e6 d3 bc
       0.32009548 0.18864077 -0.25927797 -0.025866553
000110 2a 9c af 3b a5 18 77 be 16 aa e4 3b 36 0c dd bd
       0.0053591924 -0.24130495 0.0069782836 -0.10793345
000120 8a 26 b4 3e 74 b4 f9 3e ed b7 89 3e 23 19 01 be
       0.35185653 0.48770487 0.26898137 -0.12607245
000130 ce c2 ac 3d 8a c2 82 bd 9d 3d 87 be 0c b4 a2 3c
       0.084355935 -0.06384762 -0.26414195 0.019861244
000140 dd 92 aa 3b fb e4 aa be e0 63 98 3e 10 70 49 3f
       0.0052054957 -0.33377823 0.297637 0.7868662
000150 0b 0a 8d bf 65 ba a4 be ff 9c b7 3c 07 e5 8b bf
       -1.101869 -0.32173458 0.022413729 -1.0929269
000160 4e 08 91 be 4a 42 80 3e 26 8c 8d bd 04 26 5f 3f
       -0.28326648 0.25050575 -0.06911497 0.8716738
000170 06 c5 bc 3f 99 cc 39 bf 63 f3 59 3d 6b 9a 0a 3f
       1.4747627 -0.72577816 0.053210627 0.54141873
000180 56 2b 54 bf 81 55 ea bc 8c 7d 1d 3f 93 fc 54 be
       -0.82878625 -0.028605225 0.61519694 -0.20799474
000190 10 af 7b 3f 9d 33 aa 3f 23 bf 4a bf 03 01 37 3e
       0.98314 1.3297001 -0.791979 0.1787148
0001a0 f3 b6 48 3e c2 38 3f bf 88 e5 07 3d bc 63 ed 3e
       0.1960104 -0.7469598 0.033177882 0.46365154
0001b0 c9 84 1d bf 1d 5b 24 3b 5b 00 ae 3e d3 ed 3c bf
       -0.6153074 0.0025078722 0.33984646 -0.7380039
0001c0 5e 5a 9b be 20 49 74 3d d1 a8 55 bf f4 bc 06 bd
       -0.30342382 0.05964005 -0.8346072 -0.032895043
0001d0 ad dc 7a 3e 2a d6 58 be be 5e 09 3f ac 7e 77 3f
       0.24498244 -0.21175447 0.5366019 0.9667766
0001e0 e1 e8 e6 be d5 ca 20 3d 86 9b 0a 3f 3d 26 26 bf
       -0.45099548 0.039255936 0.5414356 -0.64902097
0001f0 25 61 a8 bc 82 9e cd 3e 16 8b 61 bd 25 10 4d 3f
       -0.020554135 0.40159994 -0.055064283 0.8010276
000200 61 e1 af 3f 8a 80 23 bf 5b ec 18 3e b2 83 96 3e
       1.3740655 -0.6386801 0.14933912 0.2939735
000210 b1 a4 ff be 09 1a d8 bc 5c cd 53 3e 9d 9d 34 3e
       -0.49930337 -0.026379602 0.20683807 0.1763825
000220 5a b2 8a 3d 9d 00 86 3d b4 2a db 3d eb 8c cb 3d
       0.06772299 0.06543086 0.10701504 0.09938987
000230 8b 6d 58 3d 17 de 6f be ec fd 71 bd 2e df ba 3b
       0.052838843 -0.23424564 -0.05908005 0.0057028746
000240 1a 65 35 3e 64 df 8f 3d 73 2e 47 3d 5c 26 d3 3d
       0.17714348 0.0702503 0.04862828 0.10310051
000250 75 5c 06 3e 5d fa 21 3d 56 2d 10 be 65 47 3a be
       0.13121207 0.039545406 -0.14079794 -0.18191297
000260 6a f6 73 3d 24 f7 31 3e ae 4a 11 3d 7a 81 52 3c
       0.05956117 0.17379433 0.03547161 0.012848252
000270 f3 e6 4a 3e e5 a6 0a 3d 53 aa 47 3d 67 12 9c bd
       0.19814663 0.03385057 0.04874642 -0.076206975
000280 fd 5b a1 bd 40 67 de bc ef a5 55 bf c8 40 0d bc
       -0.078788735 -0.027148843 -0.8345632 -0.008621402
000290 0b 33 da 3d b1 bc 6d bf 8f 9e 82 bd 9a 23 37 3e
       0.10654267 -0.92866045 -0.06377899 0.17884675
0002a0 e2 f7 d5 be d7 ce 0d 3e 10 d2 d6 3e 5d d9 6a be
       -0.41790682 0.13848434 0.4195714 -0.2293448
0002b0 2d f7 bc 3e 33 75 0a 3f ca e7 0b bf 84 96 8a 3e
       0.3690733 0.5408508 -0.5465056 0.2706796
0002c0 1e bc 35 3f 7d ff 92 bd 44 81 2c 3f da bf 5a 3f
       0.7099017 -0.07177637 0.67384744 0.8544899
0002d0 e6 75 d9 be fa 30 93 3e 6a cf 12 3f 32 9b 19 bf
       -0.42472762 0.28748304 0.5734774 -0.60002434
0002e0 35 12 0e 3e 65 1a 9c 3e e9 65 4a be 4c 3a b2 3e
       0.13874133 0.30488887 -0.19765438 0.34810102
0002f0 81 1b f3 3e 4b 6e de be 60 a5 a8 3e 92 c9 0a 3f
       0.4748192 -0.43443522 0.3293867 0.5421382
000300 6b fc 27 bf e2 87 7c 3d 24 ed a1 3e ef 38 56 be
       -0.65619534 0.061653025 0.31626236 -0.20920156
000310 0e 37 15 3f 8a 06 19 3f e9 ce 4c be a4 5a 00 3f
       0.5828713 0.597756 -0.20000805 0.50138307
000320 0c 25 1a 3f 47 07 d5 be cc d4 2c 3e 2e 9b fb 3e
       0.6021278 -0.41607115 0.1687805 0.4914183
000330 2b 03 78 bb 7b 0f 01 3f 24 ef 05 3f 4a 71 40 be
       -0.0037843685 0.50414246 0.52318025 -0.18793216
000340 15 31 e4 3e 4f 1a 09 3f c9 6d 0b bf 01 87 9d 3c
       0.44568697 0.5355577 -0.54464394 0.019229414
000350 bf 65 7d 3e de 8a 40 3d 43 e6 91 3e 00 c4 05 3f
       0.24745844 0.047007434 0.28495988 0.522522
000360 40 30 45 bf a5 77 59 3e 71 71 38 3f c3 d6 93 bf
       -0.7702675 0.21237047 0.720481 -1.1549915
000370 f6 c5 9c be 2f f0 ff 3d d9 9a 46 bf 01 f0 47 3e
       -0.30619782 0.12496983 -0.7758003 0.19525148
000380 91 6c e1 3e 78 94 a0 be 6d ca 1b 3f 9c c2 d0 3f
       0.44028142 -0.31363273 0.6085575 1.630939
000390 97 12 27 bf 3b e1 cc 3e 9b 64 61 3f a9 cc dd be
       -0.6526274 0.40015587 0.88044137 -0.43320206
0003a0 06 01 e8 3e 73 88 3e 3f 90 3c c1 be c7 ea 4b 3f
       0.4531328 0.74426955 -0.37741518 0.79655117
0003b0 35 2e d3 3f dc 8e 0d bf 72 64 3d 3e 4a 09 30 3f
       1.6498476 -0.5529611 0.18495348 0.68764174
0003c0 82 23 d7 be e1 ed ab 3e 90 77 b4 3e e4 1f eb be
       -0.42019278 0.33579925 0.3524747 -0.45922768
0003d0 7b 53 ad 3e ce a3 e4 3e 7e a1 49 bf 3b a5 b0 3d
       0.33852753 0.44656223 -0.7876204 0.08625265
0003e0 8b dd 66 3e 1f df 02 bf 7e f6 8f 3e d9 f6 a7 3e
       0.2254545 -0.51121706 0.28117746 0.32805517
0003f0 0d 59 7e bd f4 02 32 3f 35 25 8e 3f 7e f3 e5 be
       -0.062096644 0.69535756 1.1105105 -0.44912332

down_convs.3.conv1.bias f4 [24]
000000 4b 8e 42 37 99 fb 7d 33 a7 6c 39 36 f3 35 99 35
       1.1596431e-05 5.913498e-08 2.7630392e-06 1.141509e-06
000010 aa fb e9 36 11 61 1f 35 36 7b 8a 37 d3 b8 39 b5
       6.9732387e-06 5.9373366e-07 1.6508257e-05 -6.9186825e-07
000020 5e d0 4b b7 f3 15 e6 b5 ab 03 22 b3 c6 68 1e b6
       -1.2148257e-05 -1.7142723e-06 -3.77219e-08 -2.360482e-06
000030 db 84 64 b4 ee 66 2d 37 de e8 24 b8 08 cc 2e 37
       -2.1282487e-07 1.0335569e-05 -3.931752e-05 1.0418713e-05
000040 46 bc d3 34 53 1a 03 b7 ce b5 5f b5 3a 43 8c b5
       3.94388e-07 -7.814338e-06 -8.3338534e-07 -1.0450378e-06
000050 19 f6 87 37 32 59 0c 37 f4 89 d5 b6 03 b4 8d 37
       1.6207852e-05 8.365418e-06 -6.3639545e-06 1.6892334e-05
