outputs/outputs_new_diff_mask/epoch_50_model.pth (torch, 694854 bytes, 241 tensors)

down_convs.0.conv1.weight f4 [3, 1, 3, 3, 3]
-0.44958156 0.818688 0.6220389 -2.1106791 -1.3365629 -1.7338018 -0.7422401 0.36672324
-0.018863168 -0.10761972 1.0293373 0.6845935 -0.46842965 -0.39167053 -1.7565907 -0.55912316
1.1907364 0.6338003 -0.37699795 0.80666506 -0.09761652 -1.1166419 -1.4366714 -2.769647
-1.5718764 -0.13563593 -0.78100616 0.4215511 0.34421438 0.24937263 1.0488883 2.187363
1.2441462 -0.75859064 -0.6744551 -0.9140836 0.35002807 -0.34498313 0.28364307 1.6214515
1.9975919 1.4335372 -0.21828549 -0.7342861 -0.63263375 0.59500307 0.4125497 0.36953908
0.25654304 1.3136951 0.873475 -0.043028623 -0.50703055 -0.56474084 0.24891508 1.8626901
0.011092818 -0.39938757 -0.515506 -0.5358163 0.2596277 0.9166394 -0.49492398 2.4043424
1.4484509 0.91943306 -0.03403929 -1.3794065 -0.19001113 0.98162246 1.0666938 0.58190525
0.42145404 1.6858526 -0.933034 -0.33841255 -0.33721977 -0.15604703 -0.05234237 0.484027
-0.33000308
00000000: 8e2f e6be 8995 513f f13d 1f3f 5e15 07c0
00000010: 7e14 abbf 38ed ddbf 7203 3ebf 26c3 bb3e
00000020: ee86 9abc ba67 dcbd 53c1 833f 8541 2f3f
00000030: 03d6 efbe 0a89 c8be f7d7 e0bf b222 0fbf
00000040: 0d6a 983f bd40 223f e005 c1be 9a81 4e3f
00000050: 2ceb c7bd 1fee 8ebf d9e4 b7bf e541 31c0
00000060: 3f33 c9bf 25e4 0abe 05f0 47bf 8cd5 d73e
00000070: de3c b03e 8a5b 7f3e f941 863f c1fd 0b40
00000080: 2f40 9f3f ff32 42bf 17a9 2cbf 6201 6abf
00000090: e136 b33e a1a1 b0be aa39 913e b98b cf3f
000000a0: 17b1 ff3f 267e b73f 3b86 5fbe 2dfa 3bbf
000000b0: 49f4 21bf 1f52 183f b739 d33e 3a34 bd3e
000000c0: 9c59 833e 2927 a83f 0f9c 5f3f c83e 30bd
000000d0: c1cc 01bf db92 10bf 98e3 7e3e a16c ee3f
000000e0: a7be 353c 877c ccbe 34f8 03bf 422b 09bf
000000f0: eced 843e e1a8 6a3f ad66 fdbe bfe0 1940
00000100: d766 b93f f75f 6b3f c86c 0bbd 6490 b0bf
00000110: 4792 42be 9c4b 7b3f 6c89 883f bef7 143f
00000120: d3c8 d73e 05ca d73f 51db 6ebf 6944 adbe
00000130: 12a8 acbe cbca 1fbe f464 56bd 63d2 f73e
00000140: 2af6 a8be

down_convs.0.conv1.bias f4 [3]
-0.020805575 -0.01359747 0.033284094
00000000: 7470 aabc ecc7 5ebc e754 083d

down_convs.0.conv2.weight f4 [3, 3, 3, 3, 3]
1.0710597 0.5852974 0.55988777 0.20093638 0.3071248 0.0764256 -0.18190923 -0.18601993
-0.12708871 1.1595863 0.7692363 0.8702968 0.22671308 0.14058293 0.14829576 -0.5594498
-0.24765116 -0.2600943 1.1696261 0.73623806 1.0128182 0.44505402 0.15650138 0.18521658
-0.17061153 -0.13234718 -0.11049793 -0.022624912 0.24451838 0.86914724 0.86550355 0.331085
-0.759997 -1.3946115 -0.9244032 -1.4772279 0.11805362 -0.1366715 0.05588655 -0.7905352
-0.27429578 0.15122469 0.28582275 0.6177968 -1.1764839 0.91147876 0.124995716 -0.35958233
-2.0018477 -1.3692325 0.3519674 0.37986735 0.06433428 -1.7488607 0.8419075 0.015977006
0.38040355 -0.6974541 -0.69693124 -1.2371432 0.98129994 0.43509573 0.3332682 -0.82913136
-0.6673753 0.23648402 1.327442 1.6160377 -0.48737317 -0.78289586 -0.722275 0.366276
-1.4085131 -1.3429091 0.9906242 1.8631771 1.129785 -0.81980276 -1.2697408 -0.7328478
0.9869126 0.04085758 0.16860309 0.33876356 0.18677881 0.41070816 0.12619467 0.08245646
-0.4512359 -1.0998869 0.431542 0.22081055 0.57075834 0.22560827 0.33838522 0.14816117
0.13842435 0.30203226 -0.68738216 -0.05079488 0.29208085 0.13601115 0.062004365 0.031425588
-0.32037824 -0.38436595 -0.3776874 -1.0490658 0.5503083 0.34080425 0.8451365 1.6479787
0.7441783 2.2005217 0.9004956 0.71043736 0.10860829 0.50767326 0.33386102 0.6574863
0.8809244 0.27793732 1.0311723 0.8054162 1.0248129 0.38757122 0.8586352 0.6479456
1.0324544 1.4415414 0.7834121 1.9669392 0.5570218 0.4241031 -0.044339545 -0.8942015
-0.7367152 -0.13507587 1.5184796 -0.33835983 0.48357704 0.5216114 0.17719695 0.7785963
-1.0856996 -0.28546315 -0.46896577 -0.4494021 -1.1158988 -0.79163015 1.1162257 2.3447728
0.25714546 -1.0704069 -0.98547226 -0.92070276 0.67594314 -0.81903625 0.41790307 1.3284245
1.0114161 0.3217419 0.35867354 0.056010827 0.063537896 -0.141064 0.21734677 -0.3541325
-0.2589665 -0.7103583 -0.64559406 0.22019133 -0.17710981 -0.082106166 -0.13517742 -0.032638103
-0.35321075 0.23919766 -0.54914683 -0.40394115 0.34559652 -0.26381645 -0.24612424 -0.17954835
-0.20841293 -0.5490021 -0.04465841 -0.3791807 -0.4929959 0.38887188 -0.21726552 1.1526515
0.03038083 -0.07777395 -0.028625796 1.5088958 2.6057105 1.7975198 -0.117763124 -0.1608133
0.3075563 -0.6303784 -0.0743762 0.02404698 1.8854309 2.5217261 1.270664 1.2304422
0.42789644 1.2520936 -0.8257256 -0.28971583 -0.28009865 0.7357628 0.66002077 -0.22544406
1.1851927 -0.40252295 1.4433323 1.1700783 0.41192216 1.8110992 1.340999 0.41228095
0.7114072 -0.599632 0.053537443 -0.42523316 0.019426275 1.8835443 0.49214894 0.5481876
1.0798954 0.4766302 1.1838021 -0.5031122 1.6027802 0.3373862 -0.29149148 0.89630437
1.2161403 0.53855073 1.1030605
00000000: 7c18 893f 0dd6 153f ce54 0f3f 44c2 4d3e
00000010: 763f 9d3e 0685 9c3d 6a46 3abe 027c 3ebe
00000020: 8b23 02be 536d 943f acec 443f c5cb 5e3f
00000030: 7927 683e f9f4 0f3e d8da 173e 1a38 0fbf
00000040: 4498 7dbe 152b 85be 4fb6 953f 197a 3c3f
00000050: 07a4 813f 1fde e33e e641 203e 6aa9 3d3e
00000060: cab4 2ebe 0586 07be bd4c e2bd e157 b9bc
00000070: 0763 7a3e 6f80 5e3f a491 5d3f f983 a93e
00000080: 2a8f 42bf a182 b2bf b0a5 6cbf ce15 bdbf
00000090: 19c6 f13d 9df3 0bbe 4ce9 643d 8460 4abf
000000a0: 7f70 8cbe a5da 1a3e 5c57 923e ee27 1e3f
000000b0: 0697 96bf ac56 693f c1fd ff3d 2d1b b8be
000000c0: 461e 00c0 0343 afbf 1235 b43e f97d c23e
000000d0: b1c1 833d abda dfbf 4087 573f 36e2 823c
000000e0: 41c4 c23e 5a8c 32bf 166a 32bf b55a 9ebf
000000f0: 7936 7b3f dec4 de3e 21a2 aa3e f441 54bf
00000100: 1cd9 2abf de28 723e 9fe9 a93f 53da ce3f
00000110: fa88 f9be dd6b 48bf 04e7 38bf 8788 bb3e
00000120: 284a b4bf 72e4 abbf 8c99 7d3f 967c ee3f
00000130: cb9c 903f 98de 51bf de86 a2bf ea9b 3bbf
00000140: 4ea6 7c3f 475a 273d 4aa6 2c3e 6b72 ad3e
00000150: f242 3f3e 5748 d23e 2d39 013e efde a83d
00000160: 6408 e7be 18c9 8cbf 13f3 dc3e 291c 623e
00000170: 381d 123f db05 673e d440 ad3e 90b7 173e
00000180: 1dbf 0d3e f9a3 9a3e 47f8 2fbf 4b0e 50bd
00000190: 9f8b 953e 8246 0b3e 4af8 7d3d 1eb8 003d
000001a0: 9e08 a4be 9dcb c4be 3e60 c1be ca47 86bf
000001b0: 01e1 0c3f e57d ae3e de5a 583f f7f0 d23f
000001c0: 7882 3e3f 59d5 0c40 e186 663f 39df 353f
000001d0: 066e de3d e0f6 013f d5ef aa3e 0651 283f
000001e0: 4384 613f cd4d 8e3e 74fd 833f c22f 4e3f
000001f0: 122d 833f bc6f c63e 84cf 5b3f c3df 253f
00000200: 7727 843f 6e84 b83f b28d 483f aac4 fb3f
00000210: fb98 0e3f 0b24 d93e 629d 35bd 64ea 64bf
00000220: 5e99 3cbf 5451 0abe 8a5d c23f 803d adbe
00000230: 6997 f73e 5388 053f 1e73 353e 1652 473f
00000240: 34f8 8abf 3a28 92be 481c f0be 0818 e6be
00000250: c6d5 8ebf 46a8 4abf 7ce0 8e3f c210 1640
00000260: 92a8 833e 1803 89bf e947 7cbf 2db3 6bbf
00000270: 9c0a 2d3f 5cac 51bf 64f7 d53e d009 aa3f
00000280: 1576 813f 5bbb a43e 0fa4 b73e 9c6b 653d
00000290: 2820 823d 1573 10be 2790 5e3e db50 b5be
000002a0: 4297 84be 0bda 35bf a745 25bf d679 613e
000002b0: 465c 35be 4727 a8bd f36b 0abe 88af 05bd
000002c0: 0ad8 b4be 3bf0 743e e394 0cbf 60d1 cebe
000002d0: 07f2 b03e f312 87be fe07 7cbe 86db 37be
000002e0: 336a 55be 678b 0cbf bdeb 36bd f923 c2be
000002f0: f569 fcbe 371a c73e da7a 5ebe 168a 933f
00000300: 38e1 f83c f347 9fbd a580 eabc 7f23 c13f
00000310: f6c3 2640 2115 e63f cb2d f1bd 3eac 24be
00000320: 0578 9d3e 7b60 21bf 8d52 98bd 2cfe c43c
00000330: cd55 f13f f663 2140 1ea5 a23f 217f 9d3f
00000340: 3e15 db3e 9a44 a03f c162 53bf a255 94be
00000350: 1769 8fbe f35a 3c3f 1ff7 283f cfda 66be
00000360: 65b4 973f 7d17 cebe 1dbf b83f 20c5 953f
00000370: 76e7 d23e 19d2 e73f dba5 ab3f 7d16 d33e
00000380: c81e 363f 7c81 19bf 144a 5b3d 29b8 d9be
00000390: da23 9f3c fb17 f13f f2fa fb3e 0656 0c3f
000003a0: 033a 8a3f e008 f43e d486 973f f6cb 00bf
000003b0: e727 cd3f e2bd ac3e 5f3e 95be 3474 653f
000003c0: 7caa 9b3f 76de 093f 1631 8d3f

down_convs.0.conv2.bias f4 [3]
0.18558864 0.0051882067 0.1274393
00000000: f30a 3e3e d501 aa3b 737f 023e

down_convs.0.norm0.weight f4 [3]
0.6275053 0.30940586 0.8535695
00000000: 30a4 203f 726a 9e3e 8883 5a3f

down_convs.0.norm0.bias f4 [3]
-0.735634 -3.1723864 -2.289519
00000000: 8352 3cbf 6108 4bc0 7b87 12c0

down_convs.0.norm0.running_mean f4 [3]
-0.022670629 -0.012732372 0.032065228
00000000: c1b7 b9bc 709b 50bc d456 033d

down_convs.0.norm0.running_var f4 [3]
116.24361 99.15116 50.228848
00000000: ba7c e842 654d c642 57ea 4842

down_convs.0.norm1.weight f4 [3]
1.6183722 0.66824466 1.4111693
00000000: d226 cf3f 1512 2b3f 32a1 b43f

down_convs.0.norm1.bias f4 [3]
-0.64215076 -4.434076 -1.1916002
00000000: fe63 24bf f3e3 8dc0 5b86 98bf

down_convs.0.norm1.running_mean f4 [3]
0.46286833 0.042387318 0.3921644
00000000: 14fd ec3e 539e 2d3d c6c9 c83e

down_convs.0.norm1.running_var f4 [3]
4.687627 4.8426747 20.857748
00000000: 0a01 9640 31f7 9a40 abdc a641

down_convs.1.conv1.weight f4 [6, 3, 3, 3, 3]
-0.31878927 -0.18200901 -0.24833226 -0.53404427 0.08644061 0.55478317 0.16572836 -0.19331318
-0.8030399 -0.84106785 -0.6475401 -0.6693068 -0.73913527 -0.3604405 0.0017888754 0.48395982
0.29239798 -0.20384192 -1.1316833 -1.2726438 -0.6683323 -0.65142834 -0.3423837 -0.022020087
0.7258502 0.97809327 0.49159256 -0.6335092 -0.09578732 0.67414576 -0.5206108 -0.6431693
-0.019439988 0.6559251 -0.27627933 -1.4350282 -0.9274057 -0.34089962 0.21728286 0.12137433
0.076365404 -0.4022145 1.4472768 0.6100053 -0.7548171 -1.3922065 -0.93679935 -0.6372679
0.5833683 0.32035547 -0.3938068 1.9605541 1.661213 0.21183738 0.72146004 -0.87952226
-0.51906765 -0.1253831 -0.4409513 0.1723387 0.12262601 -0.7195129 -1.2967188 -0.81375384
-1.2251544 -1.0291444 -0.6020132 -0.66096383 -0.8989508 0.74665785 0.027387463 -0.8569994
-1.5663996 -1.7120771 -0.585868 -0.44652265 -0.58315057 -1.3881611 1.0136795 0.7013875
-0.1366487 0.09141423 0.59380674 0.62144774 -0.65131485 0.07191124 0.19090126 -0.02534562
0.5321393 -0.20097037 0.2179312 -0.4709035 -0.39647064 -0.11538205 0.4375903 0.5492851
0.5610743 3.1038783 1.1805663 0.31475526 -0.38319582 -0.91620976 -0.34204543 -0.009894615
0.23408021 -0.02421115 1.3178581 1.4148161 0.11232198 0.51316786 0.1876362 -0.5778284
0.15611435 -0.53505635 -1.7513741 -1.2542716 -1.0806949 -0.2037674 -0.43269315 -0.38492474
-0.20935369 1.8649837 0.6077527 -1.2315193 0.5708666 -0.32007876 -0.31156465 -1.0835117
-0.8070622 -0.67431676 0.6284064 -0.24039492 -1.5701475 -0.58741957 -1.2935948 -0.13665758
0.3159682 -0.028373178 -1.0109009 -0.5097229 -1.0601606 -1.3701051 -0.11632021 -1.3832448
-0.06590865 0.39294323 0.22080442 0.026309079 1.6058018 0.267359 0.60482824 4.374403
0.89171404 -0.06923764 -0.032544386 0.18489519 -0.23116297 0.91792285 -0.1403363 0.1875428
2.5941305 0.32691205 -1.4406266 -0.6997537 -1.1537186 -0.3233741 -0.03468562 -0.064275324
0.8432231 1.0106319 0.8790039 -0.5859572 -0.15879524 -0.18366425 0.4626803 0.19042955
0.03147312 1.1691619 0.7857584 0.73515826 -0.8151702 -0.22020394 -0.5600631 0.5495464
0.19504105 -0.015369714 0.65937835 0.9122392 0.2652412 -0.6872942 -0.7579856 -1.1807725
0.0874184 -0.1270001 0.33176622 1.0647448 0.81991404 0.62729704 -0.601499 -0.7311243
-0.39551333 -0.34172228 -0.32489073 0.38417894 0.811682 -0.040192407 0.63246465 -1.3112453
-0.6063771 -0.34885502 -0.37000734 0.052927494 0.7110599 0.764342 0.6833832 1.4114568
-0.88844985 -0.9510304 -1.5646021 0.23230931 0.16506873 -0.016357621 0.6790276 0.50311744
0.6850124 -1.2718114 -1.1024354 -0.9047716 -0.14808549 -0.13052696 0.058750354 0.64406204
0.1569821 0.7610169 -1.3237683 -1.0954568 -1.0227939 -0.28025177 -0.04435978 0.24126273
0.7200824 0.71493655 1.0946777 -0.75455135 -0.69209635 -0.9525202 -0.7693255 1.1333483
1.9348351 0.08251602 0.9343924 0.9745014 -0.15522543 -0.8396016 -1.3028356 -0.09995567
00000000: 5938 a3be 9260 3abe d04a 7ebe 20b7 08bf
00000010: c607 b13d 4506 0e3f b2b4 293e e4f3 45be
00000020: 0694 4dbf 3950 57bf 30c5 25bf b157 2bbf
00000030: f837 3dbf a88b b8be b378 ea3a 95c9 f73e
00000040: 30b5 953e f0bb 50be 00db 90bf fee5 a2bf
00000050: d317 2bbf 02c4 26bf eb4c afbe 7863 b4bc
00000060: 52d1 393f 5264 7a3f 05b2 fb3e a92d 22bf
00000070: 242c c4bd d194 2c3f c046 05bf bea6 24bf
00000080: 9c40 9fbc b5ea 273f 7c74 8dbe 01af b7bf
00000090: 766a 6dbf 658a aebe 667f 5e3e 1b93 f83d
000000a0: 7765 9c3d 0fef cdbe 5e40 b93f 4f29 1c3f
000000b0: b23b 41bf d333 b2bf 15d2 6fbf fd23 23bf
000000c0: a057 153f a205 a43e 0ba1 c9be 70f3 fa3f
000000d0: a1a2 d43f e6eb 583e 9bb1 383f 5f28 61bf
000000e0: 9ee1 04bf 6d64 00be 5ec4 e1be 8e79 303e
000000f0: 5823 fb3d ff31 38bf e2fa a5bf 2c52 50bf
00000100: dcd1 9cbf 01bb 83bf 891d 1abf ed34 29bf
00000110: a421 66bf f824 3f3f ac5b e03c 5064 5bbf
00000120: c87f c8bf 5825 dbbf 72fb 15bf 9e9e e4be
00000130: 5b49 15bf 43af b1bf 40c0 813f 228e 333f
00000140: a3ed 0bbe 6237 bb3d b803 183f 3317 1f3f
00000150: 92bc 26bf 3346 933d 9f7b 433e 9ea1 cfbc
00000160: 483a 083f 2dcb 4dbe 5b29 5f3e 431a f1be
00000170: 33fe cabe 6d4d ecbd d60b e03e f39d 0c3f
00000180: 91a2 0f3f f1a5 4640 cc1c 973f 9a27 a13e
00000190: 3e32 c4be b98c 6abf 9420 afbe 061d 22bc
000001a0: b9b2 6f3e 7656 c6bc 93af a83f b218 b53f
000001b0: 1109 e63d f85e 033f b423 403e 90ec 13bf
000001c0: 71dc 1f3e 74f9 08bf 072d e0bf f98b a0bf
000001d0: 3654 8abf 67a8 50be f589 ddbe db14 c5be
000001e0: d060 56be c9b7 ee3f ae95 1b3f 6da2 9dbf
000001f0: 5024 123f 5de1 a3be 6785 9fbe 83b0 8abf
00000200: a19b 4ebf 06a0 2cbf 3edf 203f 162a 76be
00000210: 98fa c8bf 2161 16bf 8494 a5bf f7ef 0bbe
00000220: 95c6 a13e de6e e8bc 3365 81bf 337d 02bf
00000230: 58b3 87bf 9b5f afbf 4a39 eebd 2a0e b1bf
00000240: 1dfb 86bd db2f c93e 8e1a 623e 2386 d73c
00000250: ea8a cd3f 47e3 883e 06d6 1a3f 1cfb 8b40
00000260: 5f47 643f 77cc 8dbd 434d 05bd 2a55 3d3e
00000270: fcb5 6cbe fefc 6a3f 52b4 0fbe 380b 403e
00000280: 3c06 2640 0461 a73e 7466 b8bf 0f23 33bf
00000290: 0dad 93bf 4a91 a5be 8212 0ebd c8a2 83bd
000002a0: 78dd 573f 635c 813f 6606 613f 4b01 16bf
000002b0: 389b 22be 7b12 3cbe 6fe4 ec3e f7ff 423e
000002c0: f5e9 003d 19a7 953f 7627 493f 5533 3c3f
000002d0: ffae 50bf 247d 61be 4c60 0fbf 13af 0c3f
000002e0: d7b8 473e 41d1 7bbc 05cd 283f 8288 693f
000002f0: b2cd 873e 83f2 2fbf 580b 42bf 8e23 97bf
00000300: 6b08 b33d 500c 02be 43dd a93e 8f49 883f
00000310: e3e5 513f 8a96 203f d7fb 19bf f62a 3bbf
00000320: b980 cabe 39f6 aebe 1458 a6be 1ab3 c43e
00000330: 64ca 4f3f cba0 24bd 34e9 213f e3d6 a7bf
00000340: 883b 1bbf 209d b2be 9a71 bdbe 80ca 583d
00000350: 0608 363f ebab 433f 34f2 2e3f 9eaa b43f
00000360: 7371 63bf ba76 73bf e244 c8bf 7ee2 6d3e
00000370: c707 293e 6b00 86bc c1d4 2d3f 4ecc 003f
00000380: f95c 2f3f b7ca a2bf 9a1c 8dbf 1d9f 67bf
00000390: b9a3 17be dca8 05be 36a4 703d 40e1 243f
000003a0: eabf 203e 01d2 423f 3d71 a9bf ee37 8cbf
000003b0: e9ea 82bf 297d 8fbe 9ab2 35bd 940d 773e
000003c0: 5257 383f 1506 373f 661e 8c3f 472a 41bf
000003d0: 3a2d 31bf 5dd8 73bf 84f2 44bf 8f11 913f
000003e0: ada8 f73f 29fe a83d 5734 6f3f ec78 793f
000003f0: 6af3 1ebe 21f0 56bf 51c3 a6bf 8fb5 ccbd

down_convs.1.conv1.bias f4 [6]
-0.034740683 0.011693105 0.017645622 -0.0448461 9.364813e-05 -0.008437539
00000000: 3f4c 0ebd 7094 3f3c 8d8d 903c 8bb0 37bd
00000010: f564 c438 9b3d 0abc

down_convs.1.conv2.weight f4 [6, 6, 3, 3, 3]
-0.7015052 0.118931346 0.9317381 -0.33585835 1.2031916 1.781636 -0.56018376 0.14926362
0.5593216 -0.36821464 -0.5559575 0.6178123 -0.97273314 0.08973252 0.84569764 -0.2307661
-0.13877895 0.004712692 0.7853338 -0.30188227 0.09751753 -0.80285764 -0.3698415 0.08043086
0.29280818 0.23897316 0.15838058 1.0647615 0.61118823 1.0234029 0.16130435 -0.47212806
-0.25156412 0.8769038 0.66197 0.654756 0.6487064 0.5004688 0.91710436 -0.4358266
-0.8940466 -0.4956462 0.17615363 0.0326086 0.06620935 1.2894597 0.71617043 1.390696
0.1528338 -0.38973862 0.29179162 0.3322849 -0.14937042 -0.22833759 0.9463448 0.72712743
0.6681384 -0.17114145 -0.6008941 -0.46535873 -0.4473333 -0.060671896 0.25096607 0.74126
0.15667307 0.11421881 -0.69291884 -1.0409062 -0.7448521 -0.6258258 -0.16912891 0.32893908
0.73012805 0.25874898 -0.07726149 -0.48153567 -0.792781 -0.44906783 -0.38085106 -0.23813468
0.1555408 2.2429457 2.3927956 3.2920156 0.0852 0.06933595 1.0412469 -0.46981257
-1.1492423 -0.34833667 1.779646 1.8850455 2.7201006 -0.7202855 -0.42069003 0.54887235
-1.0356358 -2.0386665 -0.56023717 2.5187173 2.7052734 3.2471213 0.40495488 0.2668803
1.2626143 -0.63084215 -1.1062795 0.016497962 0.25360137 0.38266134 0.30491215 0.29249257
0.2396423 0.089820504 0.22366796 -0.021578308 -0.1709429 0.39662245 0.44300124 0.515837
0.15202363 -0.01774095 0.16073734 -0.15414031 -0.19119467 -0.044245925 0.42350912 0.2738066
0.56364405 -0.0943803 -0.1545941 0.06956147 -0.08239279 -0.14443913 -0.19183217 0.25009286
0.47710773 1.1375244 0.9866247 0.5505616 0.75550556 -0.25660515 -0.9330027 -0.5406746
0.20989536 0.31399235 1.0295217 0.5405047 0.34485203 0.5285735 -0.758594 -1.1093738
-0.7281628 0.31979734 0.72198087 1.5107803 0.57768357 0.57687306 0.8734952 -0.41491285
-0.7977039 -0.6501643 -0.11490814 -0.76412815 -0.7994973 -1.6215111 -1.7312834 -1.9092013
-1.0162553 -1.3030367 -1.1369255 -0.41640824 -0.4992791 -0.50940186 -1.4592844 -0.90164226
-1.5447652 -1.2995851 -1.6717352 -1.656839 -1.1151384 -0.8116995 -0.6456775 -1.6842403
-1.2100464 -1.4983486 -1.5422349 -1.8235968 -1.2823194 0.25683403 0.5199519 0.47738782
-0.0037628668 -0.88060313 -0.45266512 -0.64419353 -1.5471667 -1.4142767 0.69013286 0.17555481
0.033067323 -0.20641665 -1.9442703 -0.6826939 -1.2037526 -3.1524568 -1.8694193 0.36877272
0.21673621 0.33707544 0.48694056 -0.05511823 0.48739898 -0.30036288 -1.3324867 -0.42364988
-0.27442548 -0.16496168 0.5107508 1.073278 0.80477524 0.39843753 -0.32079822 0.054790176
0.07322549 -0.0059894626 0.6282218 1.2126416 0.17115688 0.10341897 0.0658944 -0.13318285
0.07583809 0.07082766 0.6181457 1.0296943 1.2629493 -0.20702745 -0.098773785 -0.059255496
-0.15133011 -0.048849106 0.2817237 0.26280925 0.48244286 0.082878605 -0.69443214 -0.7685261
-0.512847 0.19563809 -0.28696072 -0.5115263 0.46235162 0.66694045 0.42100134 -1.11608
00000000: d895 33bf 4792 f33d 6386 6e3f a0f5 abbe
00000010: 2f02 9a3f a60c e43f 3468 0fbf 90d8 183e
00000020: b32f 0f3f a186 bcbe 3b53 0ebf f228 1e3f
00000030: 0a05 79bf afc5 b73d a47f 583f f34d 6cbe
00000040: 121c 0ebe ed6c 9a3b a30b 493f 5090 9abe
00000050: 45b7 c73d 1488 4dbf dd5b bdbe efb8 a43d
00000060: f4ea 953e 61b5 743e 852e 223e 1b4a 883f
00000070: d576 1c3f defe 823f f82c 253e c5ba f1be
00000080: 03cd 80be c47c 603f de76 293f 179e 273f
00000090: 9f11 263f b91e 003f 5ac7 6a3f aa24 dfbe
000000a0: 3de0 64bf 57c5 fdbe 9e61 343e 9890 053d
000000b0: c598 873d 040d a53f f256 373f 5402 b23f
000000c0: 7780 1c3e d28b c7be b665 953e 3f21 aa3e
000000d0: 8ff4 18be 54d1 69be a743 723f 0625 3a3f
000000e0: 1e0b 2b3f b43f 2fbe 32d4 19bf 8043 eebe
000000f0: df08 e5be 1883 78bd a07e 803e 37c3 3d3f
00000100: e86e 203e 8deb e93d 2163 31bf 6a3c 85bf
00000110: a1ae 3ebf 1f36 20bf 2130 2dbe b46a a83e
00000120: ace9 3a3f bf7a 843e 463b 9ebd d88b f6be
00000130: b2f3 4abf 38ec e5be e9fe c2be 94d9 73be
00000140: 1646 1f3e 6c8c 0f40 9023 1940 62b0 5240
00000150: 567d ae3d 0200 8e3d 9447 853f 468b f0be
00000160: 5f1a 93bf 2f59 b2be 71cb e33f 2c49 f13f
00000170: 2116 2e40 a164 38bf af64 d7be e682 0c3f
00000180: b78f 84bf 8379 02c0 b46b 0fbf aa32 2140
00000190: 3323 2d40 d6d0 4f40 3f56 cf3e 89a4 883e
000001a0: 589d a13f df7e 21bf 919a 8dbf bc26 873c
000001b0: 0ad8 813e 30ec c33e 721d 9c3e 96c1 953e
000001c0: cb64 753e d0f3 b73d 3709 653e fec4 b0bc
000001d0: a80b 2fbe 1912 cb3e 0fd1 e23e e50d 043f
000001e0: 15ac 1b3e 7855 91bc 5498 243e f5d6 1dbe
000001f0: 89c8 43be 373b 35bd 30d6 d83e 6130 8c3e
00000200: fa4a 103f 754a c1bd ea4d 1ebe 3e76 8e3d
00000210: 8dbd a8bd dae7 13be a76f 44be 2c0c 803e
00000220: 7747 f43e 669a 913f 7093 7c3f 9bf1 0c3f
00000230: d068 413f c061 83be 44d9 6ebf a769 0abf
00000240: cfee 563e 9bc3 a03e 5ec7 833f 845e 0a3f
00000250: 7290 b03e 9850 073f 3733 42bf f6ff 8dbf
00000260: e168 3abf 7abc a33e bdd3 383f 4061 c13f
00000270: 12e3 133f f4ad 133f 629d 5f3f 756f d4be
00000280: 5336 4cbf 2b71 26bf f554 ebbd e79d 43bf
00000290: dbab 4cbf ad8d cfbf b29a ddbf b560 f4bf
000002a0: a714 82bf e8c9 a6bf c686 91bf 7633 d5be
000002b0: 83a1 ffbe 2968 02bf d5c9 babf 07d2 66bf
000002c0: deba c5bf ce58 a6bf 6bfb d5bf 4d13 d4bf
000002d0: dbbc 8ebf 8acb 4fbf 1f4b 25bf 3095 d7bf
000002e0: cde2 9abf e3c9 bfbf f467 c5bf 9f6b e9bf
000002f0: 0b23 a4bf c07f 833e 911b 053f 2d6c f43e
00000300: 6e9a 76bb 356f 61bf b9c3 e7be dee9 24bf
00000310: 8f09 c6bf 0507 b5bf 8cac 303f a4c4 333e
00000320: 9a71 073d e35e 53be d9dd f8bf 07c5 2ebf
00000330: 9114 9abf dac1 49c0 2249 efbf c7cf bc3e
00000340: 19f0 5d3e 2795 ac3e 4650 f93e a7c3 61bd
00000350: 5c8c f93e 2ac9 99be ed8e aabf a3e8 d8be
00000360: 7f81 8cbe b7eb 28be 90c0 023f 2c61 893f
00000370: c005 4e3f 0100 cc3e aa3f a4be aa6b 603d
00000380: 3ff7 953d 4143 c4bb 25d3 203f d737 9b3f
00000390: c043 2f3e 53cd d33d a5f3 863d 1661 08be
000003a0: 0051 9b3d 180e 913d cc3e 1e3f 06cd 833f
000003b0: 53a8 a13f 01ff 53be e949 cabd e4b5 72bd
000003c0: 48f6 1abe 0016 48bd 173e 903e ef8e 863e
000003d0: c002 f73e 42bc a93d 4ec6 31bf 20be 44bf
000003e0: f149 03bf 5a55 483e 84ec 92be 63f3 02bf
000003f0: 5ab9 ec3e 9cbc 2a3f 7d8d d73e b6db 8ebf

down_convs.1.conv2.bias f4 [6]
0.016712505 0.18931533 -0.080469064 0.006416973 -0.000525927 -0.090415925
00000000: aae8 883c e1db 413e f7cc a4bd 7945 d23b
00000010: 5dde 09ba fc2b b9bd

down_convs.1.norm0.weight f4 [6]
2.0847223 1.0749239 1.3008008 1.1860086 -0.043455884 0.3803245
00000000: 176c 0540 1b97 893f a480 a63f 21cf 973f
00000010: ccfe 31bd e5b9 c23e

down_convs.1.norm0.bias f4 [6]
1.6353204 -0.6652587 -1.4299684 -1.2485362 -0.8724698 -1.3145065
00000000: 2e52 d13f 654e 2abf 3409 b7bf 09d0 9fbf
00000010: 2e5a 5fbf c041 a8bf

down_convs.1.norm0.running_mean f4 [6]
-4.591966 4.2305927 0.38108587 5.5092745 2.5137236 9.893864
00000000: 63f1 92c0 0461 8740 b01d c33e fa4b b040
00000010: d9e0 2040 444d 1e41

down_convs.1.norm0.running_var f4 [6]
722.7151 410.67545 386.93796 695.5476 168.86378 1741.3494
00000000: c4ad 3444 7556 cd43 0f78 c143 0ce3 2d44
00000010: 21dd 2843 2eab d944

down_convs.1.norm1.weight f4 [6]
0.942581 2.140932 1.6060545 0.6901161 0.9314947 1.5022953
00000000: fd4c 713f 0805 0940 3293 cd3f 73ab 303f
00000010: 7076 6e3f 364b c03f

down_convs.1.norm1.bias f4 [6]
-1.0811868 1.9643927 -0.56420755 -1.4305274 -1.0899888 -0.56813717
00000000: 5464 8abf 3871 fb3f e86f 10bf 861b b7bf
00000010: c184 8bbf 7071 11bf

down_convs.1.norm1.running_mean f4 [6]
7.69992 -58.579174 -1.4917008 2.4563987 -4.186481 45.659733
00000000: bf65 f640 1351 6ac2 0df0 bebf a335 1d40
00000010: a7f7 85c0 91a3 3642

down_convs.1.norm1.running_var f4 [6]
650.0692 366.9856 119.54589 464.17715 321.02777 822.21313
00000000: 6e84 2244 287e b743 7f17 ef42 ad16 e843
00000010: 8e83 a043 a48d 4d44

down_convs.2.conv1.weight f4 [12, 6, 3, 3, 3]
1.0136187 0.9496361 1.0524849 0.5886717 0.3997121 0.46288824 1.008618 0.957125
0.61254674 0.93553466 0.6527635 0.5607626 0.36057734 0.15582524 0.1528439 1.1182727
1.3293204 0.63620746 1.3775929 1.0616802 0.8443425 0.70756584 0.43951654 0.34331173
1.1696808 0.9598141 0.77592796 0.68669605 0.21802023 0.8257687 -0.28113315 -1.2221782
-0.2335188 -1.2333848 -2.3003507 -0.9197747 0.48092154 0.9543138 0.21279879 -0.6864934
-1.3211457 -1.1051854 -2.4512799 -3.67543 -1.9614935 0.793448 0.4530105 0.31631514
-0.1451647 -0.7422111 -0.41269314 -1.1389983 -1.7469622 -0.7196113 0.51580846 0.19399402
0.43396586 0.33972365 0.11510689 0.6734658 0.8023415 0.93367827 0.93492943 0.037598867
-0.028075496 0.7110943 0.049395848 -0.04567786 0.72667056 0.68074274 1.0939211 1.2496421
0.26591057 0.38947132 0.8881319 0.089285664 0.34325448 0.9437806 0.46115115 0.8789694
1.171087 0.03801266 -0.42220607 0.049339164 0.6002438 0.18493174 0.43559417 0.85294986
0.85975736 0.9001143 -0.4444172 -1.7011636 -0.1637622 0.57270074 -0.22432615 0.40217343
1.0696971 1.2748467 1.148837 0.13749944 -0.108311705 0.11107726 0.8950986 0.6484353
0.61085016 1.1647217 1.217226 1.1983376 0.22694795 0.037366223 -0.07504677 0.9480029
0.93707514 0.78977835 1.0720396 0.90280926 0.8946531 0.10166255 -0.11205336 -0.020104552
1.1081251 1.1754509 0.84020513 1.3439529 1.359486 1.2152582 -0.31525415 -0.18209182
-0.35886404 0.8182086 0.7864799 0.48931715 1.1413572 1.1582989 0.91424817 -0.541503
-0.49676645 -0.70986223 0.24146365 0.11580972 0.07762907 0.3785728 0.3243278 0.40337977
-1.0020185 -0.5633832 -0.3607387 -0.26416925 0.03411023 0.37822548 -0.16573884 0.21297444
0.5728028 -1.7748324 -1.1535876 -0.4127135 -1.2590269 -0.62810576 0.18315414 -1.1727029
-0.39346036 0.41363773 0.5461465 1.2635057 0.27688146 -0.06729085 -0.17919403 -0.3770315
-1.4172722 -1.4679409 -1.0937707 1.4676257 2.5063221 1.0469385 -0.19178866 -0.095386915
-0.36531222 -1.8036926 -1.4948559 -1.0200329 0.59407943 1.324719 0.18519087 -0.40080783
-0.1813087 -0.326057 -1.4705452 -1.2634467 -1.346291 0.1658827 -0.748557 -0.106971726
1.7512628 1.4069835 1.6479995 1.1742475 1.4059991 1.5479333 -1.2013386 -2.7977335
-0.5731661 1.0069141 0.026720367 1.029225 0.91155756 1.2060994 1.8406386 -0.89369965
-1.1231002 -0.051382367 0.9238614 0.83746916 1.556423 1.1442538 1.2639582 1.6933576
0.014470721 -0.15242022 0.11391876 -0.26502421 0.26315495 0.15661518 -1.0125825 -0.12339151
-0.7165709 0.070463456 0.07238184 -0.14455391 -0.4069023 1.1800698 0.33480984 -0.8408771
0.555312 -0.9172122 0.038838945 -0.010815247 -0.050378975 -0.8839995 0.26883793 -0.20612754
-1.1879954 -0.1941825 -1.0848235 0.11705598 0.0727921 -0.052146602 -0.547669 -1.0144345
-0.6069498 -1.6228884 -1.1881243 -1.0084853 0.5837267 0.5812579 0.25645804 -1.0817916
00000000: 42be 813f 5a1b 733f d3b7 863f 30b3 163f
00000010: 10a7 cc3e b0ff ec3e 651a 813f 2506 753f
00000020: ddcf 1c3f 337f 6f3f 821b 273f 238e 0f3f
00000030: 989d b83e a790 1f3e 1c83 1c3e 8f23 8f3f
00000040: 2c27 aa3f 7ede 223f f754 b03f 23e5 873f
00000050: d526 583f 0923 353f 5008 e13e 8ec6 af3e
00000060: 1ab8 953f 60b6 753f 37a3 463f 50cb 2f3f
00000070: b240 5f3e 9465 533f aff0 8fbe 5670 9cbf
00000080: 8d1f 6fbe 8edf 9dbf f238 13c0 5b76 6bbf
00000090: 593b f63e e94d 743f ede7 593e 08be 2fbf
000000a0: 4d1b a9bf b776 8dbf c5e1 1cc0 3f3a 6bc0
000000b0: 3812 fbbf 681f 4b3f fef0 e73e 0ff4 a13e
000000c0: 0ea6 14be 8c01 3ebf 844c d3be b2ca 91bf
000000d0: 759c dfbf 7238 38bf 060c 043f 5ea6 463e
000000e0: c630 de3e 42f0 ad3e 29bd eb3d 4168 2c3f
000000f0: 4166 4d3f 8a05 6f3f 8957 6f3f 4501 1a3d
00000100: 95fe e5bc 470a 363f 4d53 4a3d b518 3bbd
00000110: 1507 3a3f 2845 2e3f 9b05 8c3f 46f4 9f3f
00000120: 6e25 883e c968 c73e 9d5c 633f 67db b63d
00000130: 0dbf af3e 9b9b 713f 011c ec3e 2304 613f
00000140: 2ee6 953f 2ab3 1b3d 652b d8be dd17 4a3d
00000150: 94a9 193f bf5e 3d3e 3306 df3e ec5a 5a3f
00000160: 0f19 5c3f e46d 663f a78a e3be bbbf d9bf
00000170: 47b1 27be 849c 123f c1b5 65be ade9 cd3e
00000180: d6eb 883f 2d2e a33f 170d 933f a7cc 0c3e
00000190: 87d2 ddbd 797c e33d 2f25 653f dbff 253f
000001a0: ad60 1c3f 9a15 953f 10ce 9b3f 2063 993f
000001b0: 0b65 683e 530d 193d 1fb2 99bd 51b0 723f
000001c0: 28e4 6f3f ea2e 4a3f 9838 893f 821e 673f
000001d0: fc07 653f 7434 d03d 3b7c e5bd 4db2 a4bc
000001e0: 0bd7 8d3f 2d75 963f af17 573f a606 ac3f
000001f0: a303 ae3f 958d 9b3f fe68 a1be 4776 3abe
00000200: 07bd b7be 1e76 513f bf56 493f c787 fa3e
00000210: fe17 923f 2343 943f 2b0c 6a3f f19f 0abf
00000220: 2c58 febe 88b9 35bf 3f42 773e a52d ed3d
00000230: fdfb 9e3d 4bd4 c13e 4b0e a63e cb87 ce3e
00000240: 2442 80bf e239 10bf beb2 b8be 3141 87be
00000250: 2bb7 0b3d c5a6 c13e 71b7 29be f915 5a3e
00000260: 34a3 123f b52d e3bf c2a8 93bf 2f4f d3be
00000270: cb27 a1bf 8acb 20bf c28c 3b3e 211b 96bf
00000280: a373 c9be 53c8 d33e 42d0 0b3f 8eba a13f
00000290: 68c3 8d3e c9cf 89bd a47e 37be 460a c1be
000002a0: 2d69 b5bf 7de5 bbbf ae00 8cbf 29db bb3f
000002b0: 9567 2040 1502 863f 3f64 44be 375a c3bd
000002c0: 340a bbbe 66df e6bf 7057 bfbf 7090 82bf
000002d0: 9715 183f 6490 a93f ada2 3d3e af36 cdbe
000002e0: fda8 39be f1f0 a6be d33a bcbf 9fb8 a1bf
000002f0: 4353 acbf 28dd 293e 6ea1 3fbf fe13 dbbd
00000300: 6129 e03f 0918 b43f a6f1 d23f be4d 963f
00000310: c7f7 b33f ae22 c63f 77c5 99bf 110e 33c0
00000320: 03bb 12bf 90e2 803f ace4 da3c a5bd 833f
00000330: d65b 693f 7761 9a3f 0c9a eb3f 80c9 64bf
00000340: bfc1 8fbf 5176 52bd 2e82 6c3f 6164 563f
00000350: de38 c73f e976 923f 62c9 a13f f1bf d83f
00000360: 9a16 6d3c 0c14 1cbe 3d4e e93d 41b1 87be
00000370: 3fbc 863e bb5f 203e 4e9c 81bf b0b4 fcbd
00000380: 3171 37bf 254f 903d ee3c 943d f105 14be
00000390: 8055 d0be 870c 973f 326c ab3e b943 57bf
000003a0: ed28 0e3f 6bce 6abf 9615 1f3d 6f32 31bc
000003b0: 2f5a 4ebd cb4d 62bf 20a5 893e 1913 53be
000003c0: 3c10 98bf c7d7 46be 7fdb 8abf 0cbb ef3d
000003d0: 0614 953d ad97 55bd 0934 0cbf fdd8 81bf
000003e0: 1061 1bbf cfba cfbf 7514 98bf 0c16 81bf
000003f0: 1d6f 153f 51cd 143f 784e 833e 2678 8abf

down_convs.2.conv1.bias f4 [12]
0.02517686 -0.00547981 4.529385e-05 -0.025957167 0.011017618 0.010564211 0.0019844887 -0.009719262
8.3985215e-06 7.164367e-05 0.004611283 2.0057127e-05
00000000: b43f ce3c fa8f b3bb e7f9 3d38 20a4 d4bc
00000010: 3d83 343c 8315 2d3c 320e 023b 8a3d 1fbc
00000020: 60e7 0c37 673f 9638 3f1a 973b 5a40 a837

down_convs.2.conv2.weight f4 [12, 12, 3, 3, 3]
-0.35058126 -0.32190642 -0.42084575 -0.7807615 -0.7171393 -1.0075575 -0.87181723 -0.7439237
-1.2169255 -0.22436409 0.21505843 -0.08743274 -0.45846248 -0.4142833 -0.5432753 -0.8518852
-0.50545514 -0.9561114 -0.018555706 0.14344712 -0.19961634 -0.049054723 -0.2043538 -0.3774226
-0.61231875 -0.3988493 -0.3669865 0.26454 1.480229 0.90725106 0.7957486 1.8388438
0.93536514 2.3529427 1.9128416 1.3609947 1.3900532 2.5417225 1.6817844 2.2301514
2.7810335 1.7217613 2.273419 1.2058767 1.603047 -0.6319337 0.38061365 -0.45440963
-0.58490956 0.196849 -0.33182678 1.6398101 1.358827 1.2290888 -0.1933607 -0.10517725
-0.23207076 -0.14045449 -0.16146949 -0.17729142 -0.19716598 -0.24105473 -0.24916781 -0.17667055
-0.12134585 -0.22640537 -0.235244 -0.12104389 -0.32346335 -0.2363351 -0.18824846 -0.28587246
-0.19583656 -0.25872093 -0.25693402 -0.15182333 -0.11112996 -0.23452094 -0.2324957 -0.21905142
-0.28069612 -1.3844156 -0.79667574 -1.0785565 0.9313884 1.2940693 0.4954431 1.3444592
1.3266652 0.87172925 -0.42801 0.034035888 -0.38888824 1.3319157 1.5718892 1.0079339
1.8040358 1.699282 1.2593428 -0.14613299 -0.116863266 -0.8064807 0.44372827 1.0378354
0.26420897 0.8406321 1.3518459 1.3971786 0.3068532 0.17693426 0.38088626 0.9611187
1.226238 2.0065696 0.20684181 -0.15561539 0.9993832 0.4623651 0.37299976 0.6481403
0.66373825 1.1509213 2.9766657 -0.061672155 0.3570628 2.0024502 0.18640581 0.14445575
0.4388666 0.8697504 1.5014173 2.6619582 0.4459955 0.72129786 2.0751932 0.40689927
1.3656201 1.1000957 -0.6868262 0.26491362 0.61982626 -1.7535069 0.103757225 0.9762329
0.8013044 0.6831579 -0.13602278 -0.47326654 0.8392451 0.63269347 -1.2909875 1.0415015
2.0160182 -0.027894706 -0.20264551 -0.78536665 -0.6638065 0.3537253 0.41780326 -0.89407104
0.6264183 0.96476877 0.7094421 0.23919143 -0.33698994 0.6465801 0.4356581 0.056164008
-0.50330824 -1.2084957 -1.2237036 0.6836636 0.49192134 0.23700595 0.7783849 0.597565
0.47121695 -0.27908993 -0.9375531 -1.6496675 -0.5277698 -0.5233766 -0.6478658 0.84484583
0.86589646 0.42884365 1.5178068 0.51631975 -0.6526309 -0.8521878 0.2644273 -0.25233394
1.2925063 2.022857 1.1205169 2.0018764 2.0988228 2.0133333 0.61419773 1.7151673
1.2882472 2.391904 2.068893 2.2869291 2.580551 2.2263365 2.723672 -0.36896655
0.9474431 0.18155932 1.4228944 1.7322382 1.163583 1.7966989 1.8555845 1.7767192
-0.15579595 -0.051722545 0.071938224 0.260989 0.017880516 0.1354931 0.06859801 -0.27178204
-0.18809535 -0.13698459 -0.25649932 -0.078469045 -0.03178572 -0.09322746 -0.09744459 -0.08047095
-0.06198885 -0.09907343 -0.0987405 -0.02406977 0.123328865 -0.010003461 -0.109144785 -0.022545792
0.0900154 -0.036117435 0.16275245 0.6331599 0.8039864 -0.0031511888 1.5128474 1.7574297
0.5435877 -0.30818838 -0.6171677 -0.3555368 0.3224716 0.15218098 -0.15922086 1.1827989
00000000: 637f b3be ebd0 a4be 1879 d7be fcdf 47bf
00000010: 7196 37bf a5f7 80bf 6a2f 5fbf c971 3ebf
00000020: 37c4 9bbf b3bf 65be 4738 5c3e f00f b3bd
00000030: 98bb eabe f11c d4be 1714 0bbf 2615 5abf
00000040: 8265 01bf b7c3 74bf 2302 98bc cde3 123e
00000050: 3a68 4cbe 9bed 48bd 1f42 51be 893d c1be
00000060: ecc0 1cbf fa35 ccbe a8e5 bbbe c971 873e
00000070: 2578 bd3f 9b41 683f 2eb6 4b3f 3c5f eb3f
00000080: 1774 6f3f 9d96 1640 fed7 f43f 1335 ae3f
00000090: 43ed b13f 95ab 2240 b644 d73f cdba 0e40
000000a0: 74fc 3140 ad62 dc3f b27f 1140 2b5a 9a3f
000000b0: a530 cd3f 68c6 21bf cbdf c23e 61a8 e8be
000000c0: a2bc 15bf c992 493e 33e5 a9be 4ce5 d13f
000000d0: 0bee ad3f c852 9d3f 5900 46be 2c67 d7bd
000000e0: f5a3 6dbe 4dd3 0fbe 4258 25be e28b 35be
000000f0: e1e5 49be 0dd7 76be d925 7fbe 20e9 34be
00000100: 2c84 f8bd cfd6 67be cee3 70be dce5 f7bd
00000110: fd9c a5be d401 72be 34c4 40be e05d 92be
00000120: 6189 48be 1277 84be db8c 83be 9377 1bbe
00000130: 1b98 e3bd 4226 70be 5a13 6ebe 044f 60be
00000140: 67b7 8fbe 8834 b1bf f1f2 4bbf 240e 8abf
00000150: 786f 6e3f 10a4 a53f b8aa fd3e 3d17 ac3f
00000160: 2ad0 a93f a629 5f3f 2024 dbbe 3769 0b3d
00000170: 5c1c c7be 377c aa3f aa33 c93f fa03 813f
00000180: a5ea e63f 1382 d93f 2532 a13f e3a3 15be
00000190: 0256 efbd 8575 4ebf 5a30 e33e cad7 843f
000001a0: 6646 873e aa33 573f 4909 ad3f c0d6 b23f
000001b0: dd1b 9d3e 412e 353e 8603 c33e e00b 763f
000001c0: 5ef5 9c3f a36b 0040 57ce 533e a459 1fbe
000001d0: 94d7 7f3f 1ebb ec3e d3f9 be3e 86ec 253f
000001e0: c0ea 293f 6451 933f b181 3e40 f19b 7cbd
000001f0: efd0 b63e 2528 0040 2ae1 3e3e 35ec 133e
00000200: 1fb3 e03e f6a7 5e3f 712e c03f 865d 2a40
00000210: 8659 e43e faa6 383f f7cf 0440 1a55 d03e
00000220: a4cc ae3f f0cf 8c3f d8d3 2fbf c2a2 873e
00000230: efac 1e3f ea72 e0bf ab7e d43d 66ea 793f
00000240: 4922 4d3f 70e3 2e3f 8e49 0bbe fe4f f2be
00000250: c4d8 563f 33f8 213f 143f a5bf ec4f 853f
00000260: 7106 0140 7083 e4bc 4e82 4fbe ca0d 49bf
00000270: 39ef 29bf 7c1b b53e 4fea d53e d7e1 64bf
00000280: f35c 203f 16fb 763f ff9d 353f 99ee 743e
00000290: f289 acbe 4686 253f 940e df3e 3b0c 663d
000002a0: cfd8 00bf fdaf 9abf 52a2 9cbf 9404 2f3f
000002b0: 1ddd fb3e b0b1 723e 3c44 473f 05fa 183f
000002c0: 5943 f13e e0e4 8ebe 7b03 70bf 4e28 d3bf
000002d0: ec1b 07bf 02fc 05bf 88da 25bf d147 583f
000002e0: 64ab 5d3f 6591 db3e 7e47 c23f 882d 043f
000002f0: d212 27bf fb28 5abf 0463 873e ea31 81be
00000300: d970 a53f 7d76 0140 196d 8f3f be1e 0040
00000310: 1d53 0640 74da 0040 103c 1d3f 9a8a db3f
00000320: 49e5 a43f f514 1940 be68 0440 0c5d 1240
00000330: bf27 2540 4c7c 0e40 a450 2e40 2fe9 bcbe
00000340: a28b 723f b0ea 393e 6721 b63f fbb9 dd3f
00000350: 4af0 943f 3bfa e53f cb83 ed3f 896b e33f
00000360: f988 1fbe 05db 53bd 5954 933d 5aa0 853e
00000370: 297a 923c b4be 0a3e 1d7d 8c3d 0427 8bbe
00000380: 119c 40be b045 0cbe e153 83be 61b4 a0bd
00000390: be31 02bd 0aee bebd 0791 c7bd f4cd a4bd
000003a0: 05e8 7dbd 03e7 cabd 7638 cabd f72d c5bc
000003b0: d893 fc3d 8ee5 23bc 4d87 dfbd f4b1 b8bc
000003c0: fe59 b83d e0ef 13bd 94a8 263e c416 223f
000003d0: 0dd2 4d3f 2d84 4ebb fca4 c13f 75f3 e03f
000003e0: 9028 0b3f deca 9dbe b4fe 1dbf eb08 b6be
000003f0: ff1a a53e 55d5 1b3e cb0a 23be f465 973f

down_convs.2.conv2.bias f4 [12]
0.0016117683 -0.0010529496 -0.0034822172 -0.0007281342 0.00012678589 -6.0834935e-07 -0.0018848133 -3.425494e-05
-0.0005766006 0.0041457815 -9.19619e-05 0.00023852178
00000000: f841 d33a 2003 8aba e935 64bb 42e0 3eba
00000010: d4f1 0439 734d 23b5 d70b f7ba f6ac 0fb8
00000020: 0327 17ba 56d9 873b abdb c0b8 b41b 7a39

down_convs.2.norm0.weight f4 [12]
0.8275521 2.167693 0.29870516 1.520965 1.8370551 1.8909141 1.3589635 2.4998589
0.21849102 0.89434433 1.0480506 0.6689281
00000000: 74da 533f 7bbb 0a40 e2ef 983e fbae c23f
00000010: 9f24 eb3f 7909 f23f 84f2 ad3f b0fd 1f40
00000020: 1cbc 5f3e c0f3 643f 8626 863f df3e 2b3f

down_convs.2.norm0.bias f4 [12]
0.3414566 -0.45598152 -0.7117826 -1.567927 -1.4194124 1.6014247 -0.76516706 -0.77484137
-0.5021086 -0.004433657 -1.0238801 -0.5139273
00000000: 66d3 ae3e 6976 e9be 6237 36bf d5b1 c8bf
00000010: 4eaf b5bf 7cfb cc3f fde1 43bf 015c 46bf
00000020: 308a 00bf 3648 91bb 810e 83bf bd90 03bf

down_convs.2.norm0.running_mean f4 [12]
-29.420137 29.840897 -11.486261 52.47858 12.366073 6.0392804 10.191395 -4.124429
-18.276052 73.178566 28.461714 -8.936657
00000000: 715c ebc1 28ba ee41 bac7 37c1 11ea 5142
00000010: 6fdb 4541 c941 c140 f40f 2341 53fb 83c0
00000020: 5b35 92c1 6d5b 9242 97b1 e341 8cfc 0ec1

down_convs.2.norm0.running_var f4 [12]
1576.8519 1187.1377 1175.9437 1135.7369 410.1919 886.89984 528.965 1378.0016
624.61285 1861.2795 398.04367 166.13905
00000000: 431b c544 6864 9444 33fe 9244 95f7 8d44
00000010: 9018 cd43 97b9 5d44 c33d 0444 0d40 ac44
00000020: 3927 1c44 f2a8 e844 9705 c743 9923 2643

down_convs.2.norm1.weight f4 [12]
1.5920516 1.3199509 1.9219525 1.9508518 1.5754987 0.082865745 1.1093868 1.5655767
1.0469954 1.7572925 0.4312159 0.55529946
00000000: 59c8 cb3f 27f4 a83f 8a02 f63f 83b5 f93f
00000010: f1a9 c93f 84b5 a93d 6300 8e3f d164 c83f
00000020: f203 863f f6ee e03f 55c8 dc3e 1b28 0e3f

down_convs.2.norm1.bias f4 [12]
-1.8210993 -2.209414 -0.4634962 -0.24717413 -2.4217896 -0.6541928 -1.3181847 -1.3496596
-2.1254566 -1.0247129 -1.1779544 -0.66076237
00000000: c819 e9bf 0a67 0dc0 604f edbe 371b 7dbe
00000010: 9afe 1ac0 2e79 27bf 47ba a8bf a5c1 acbf
00000020: 7b07 08c0 cb29 83bf 36c7 96bf b927 29bf

down_convs.2.norm1.running_mean f4 [12]
32.347897 -2.315868 -31.722645 -10.684822 -26.650799 0.9244191 -8.995684 -6.844849
-29.790379 -3.3239324 -9.925172 -38.103382
00000000: 3f64 0142 2e37 14c0 fac7 fdc1 08f5 2ac1
00000010: d634 d5c1 bba6 6c3f 52ee 0fc1 0109 dbc0
00000020: b252 eec1 4fbb 54c0 81cd 1ec1 dd69 18c2

down_convs.2.norm1.running_var f4 [12]
2643.9893 490.41782 835.99274 439.59903 832.56555 603.471 478.32285 3490.388
821.99243 643.3365 2070.0635 1316.7549
00000000: d43f 2545 7b35 f543 89ff 5044 adcc db43
00000010: 3224 5044 25de 1644 5329 ef43 3526 5a45
00000020: 847f 4d44 89d5 2044 0461 0145 2898 a444

down_convs.3.conv1.weight f4 [24, 12, 3, 3, 3]
0.37158316 0.80468607 0.64199215 0.1739471 1.1947033 0.1571381 0.20384198 1.4124242
-0.28995174 0.18632211 0.77348757 1.1933066 0.25438783 0.7678225 -0.14506774 0.11947067
1.0311475 -0.693176 0.9327981 1.6566404 1.1620064 0.3899018 1.2344692 -0.2024666
0.1284761 0.9710461 -0.69788164 -1.8253715 0.55339736 0.7261035 -1.9924196 0.11366693
0.9183268 -2.0800614 -0.12702823 1.5994328 -0.82247996 1.2235775 1.5288364 -1.1467166
0.5897028 1.2326163 -0.9787934 0.26472613 1.7226278 -1.7153202 0.42869323 0.5508025
-2.2522542 -0.4877526 0.35050976 -1.8175461 -0.6297306 1.1841197 -0.5040436 0.21333821
-1.3948407 -0.53718287 0.9952938 -2.3114522 0.5230835 1.2773286 -1.9027541 -1.1144658
0.40217373 -0.31658718 -1.1402727 0.54625916 -1.3372631 0.030173164 0.9883619 -1.4517604
0.22261457 0.87955636 -2.0104365 -0.20705265 1.5672979 -2.0790217 0.18140271 1.6979046
-1.6218777 -2.1111562 1.0690999 -0.9756718 -2.3474414 1.3186761 -0.41805854 -2.2900438
1.3638892 -0.06770913 -2.1523783 1.3410686 -1.2409899 -1.9924327 1.201716 -0.8344262
-2.1415648 1.2654423 -0.43138742 -1.8637034 2.2153883 -1.9518061 -2.0052621 1.5749835
-1.2968946 -2.3584752 0.98939633 -0.38520223 -3.6783214 -0.47449172 -1.2998743 -3.03371
-0.3093927 -0.06173989 -3.1054842 -0.25584763 0.55473715 -2.7399304 0.5480183 -0.12551118
-2.0129442 -0.013056713 0.5257455 -2.242014 -0.5025272 0.6140699 -2.9648626 1.2287537
0.4787213 -2.5887434 0.2750863 0.80483055 -2.7514381 -0.53690755 0.8487173 -0.258406
-0.2408357 -0.5456335 -0.46970633 -0.31041208 -0.37496102 -0.5588115 -0.5639061 -0.19376981
-0.22817579 -0.30301338 -0.68117607 -0.41763717 -0.41331115 -0.43264106 -0.32390556 -0.48360652
-0.020903345 -0.036045555 -0.46978602 -0.82804716 -0.051817536 -0.5872448 -0.48225057 0.075661555
-0.26746854 0.002299389 -1.465953 0.37494016 1.0892814 -1.4578855 0.16718718 0.81895024
-1.494944 -0.065069675 1.0321481 -0.3700015 1.069709 1.9926535 -0.72345304 0.5863156
1.3735267 -0.61819446 0.35366738 1.0173906 -1.042733 0.523624 1.3360124 -1.6184887
-0.28462666 0.39749467 -1.5933603 -0.72085816 0.46482113 1.1789815 1.053681 0.27607486
-0.26169026 0.097319156 0.20027603 -0.24441226 0.31575292 0.18035494 1.9802818 1.0914615
0.5707922 0.28007594 -0.89273673 -0.15535252 -0.16271915 -1.0163865 -0.91569155 3.0013514
2.1881354 0.9884917 1.1238614 0.25180617 0.27158388 0.54024875 -0.41864142 -0.30632588
-1.7550113 -0.41016427 0.010576927 -2.141225 -1.1434445 -0.213036 -1.7295607 -0.6444347
0.38719508 -1.0932534 0.4950681 1.8867209 -1.4442402 -0.6186049 1.0389849 -1.0883741
-0.9664087 0.600197 -1.3837876 0.7581204 1.6925205 -1.3434368 -0.60840476 1.1086243
-1.281602 -0.87834156 0.5537517 -0.120469846 0.0009516716 0.11496759 0.05440771 0.8079384
-0.33471406 0.3044054 1.2764608 -0.51474786 -0.3708319 -0.07635048 1.2023032 0.1051465
00000000: 2640 be3e e8ff 4d3f 9959 243f 301f 323e
00000010: 0aec 983f cfe8 203e f4bb 503e 51ca b43f
00000020: 8e74 94be 39cb 3e3e 4803 463f 45be 983f
00000030: 1f3f 823e 0490 443f a38c 14be 0aad f43d
00000040: a4fc 833f fb73 31bf dbcb 6e3f cb0c d43f
00000050: a0bc 943f 35a1 c73e 1603 9e3f 6853 4fbe
00000060: 3d8f 033e 7a96 783f 5fa8 32bf c6a5 e9bf
00000070: 73ab 0d3f ebe1 393f 9b07 ffbf 35ca e83d
00000080: 7717 6b3f ba1f 05c0 b013 02be 37ba cc3f
00000090: 0c8e 52bf 309e 9c3f e9b0 c33f 9cc7 92bf
000000a0: c3f6 163f 5fc6 9d3f 3492 7abf 2f8a 873e
000000b0: 117f dc3f 9d8f dbbf ae7d db3e 6501 0d3f
000000c0: ef24 10c0 b5ba f9be 0476 b33e 5aa5 e8bf
000000d0: 0636 21bf 3c91 973f 0009 01bf 5575 5a3e
000000e0: 248a b2bf d184 09bf 93cb 7e3f d5ee 13c0
000000f0: cde8 053f 817f a33f 728d f3bf d1a6 8ebf
00000100: b7e9 cd3e b717 a2be 75f4 91bf a4d7 0b3f
00000110: 702b abbf b62d f73c 4905 7d3f 49d3 b9bf
00000120: 13f5 633e 9b2a 613f feaa 00c0 9c05 54be
00000130: 389d c83f b10e 05c0 a2c1 393e f054 d93f
00000140: b099 cfbf 2f1d 07c0 44d8 883f a1c5 79bf
00000150: 7b3c 16c0 61ca a83f c50b d6be 1490 12c0
00000160: ec93 ae3f 16ab 8abd 91c0 09c0 23a8 ab3f
00000170: c2d8 9ebf 0908 ffbf d4d1 993f f59c 55bf
00000180: 660f 09c0 03fa a13f d0de dcbe d58d eebf
00000190: ecc8 0d40 c8d4 f9bf 3756 00c0 0f99 c93f
000001a0: a400 a6bf 42f1 16c0 1449 7d3f 3a39 c5be
000001b0: 9e69 6bc0 94f0 f2be 4862 a6bf 4e28 42c0
000001c0: b868 9ebe f8e2 7cbd 41c0 46c0 76fe 82be
000001d0: 4103 0e3f 055b 2fc0 ed4a 0c3f 0186 00be
000001e0: 14d4 00c0 d3eb 55bc 4297 063f 287d 0fc0
000001f0: 9fa5 00bf af33 1d3f 4fc0 3dc0 cd47 9d3f
00000200: f51a f53e f9ad 25c0 1dd8 8c3e 6009 4e3f
00000210: 9017 30c0 c672 09bf 8945 593f cb4d 84be
00000220: a29d 76be a3ae 0bbf 597d f0be 55ee 9ebe
00000230: e4fa bfbe 450e 0fbf 265c 10bf 986b 46be
00000240: eaa6 69be 9224 9bbe 8e61 2ebf 8ad4 d5be
00000250: 859d d3be 2183 ddbe f3d6 a5be 469b f7be
00000260: 7e3d abbc 81a4 13bd cb87 f0be e6fa 53bf
00000270: a03e 54bd ad55 16bf 8ce9 f6be 72f4 9a3d
00000280: a3f1 88be 59b1 163b 59a4 bbbf 28f8 bf3e
00000290: 936d 8b3f fe9b babf 1e33 2b3e b9a6 513f
000002a0: 535a bfbf 4043 85bd 6e1d 843f d670 bdbe
000002b0: 39ec 883f 450f ff3f 3834 39bf c718 163f
000002c0: b9cf af3f fe41 1ebf e413 b53e db39 823f
000002d0: 4678 85bf 390c 063f 7402 ab3f a32a cfbf
000002e0: 96ba 91be 6c84 cb3e 3bf3 cbbf 298a 38bf
000002f0: 09fd ed3e dee8 963f 05df 863f af59 8d3e
00000300: 44fc 85be 444f c73d 2915 4d3e 3547 7abe
00000310: 5eaa a13e f7ae 383e e079 fd3f 03b5 8b3f
00000320: 701f 123f 1d66 8f3e 658a 64bf bb14 1fbe
00000330: d99f 26be f418 82bf c36a 6abf 2416 4040
00000340: 690a 0c40 cb0d 7d3f b1da 8f3f bdec 803e
00000350: 0b0d 8b3e be4d 0a3f 2b58 d6be bfd6 9cbe
00000360: 36a4 e0bf 0d01 d2be d94a 2d3c d509 09c0
00000370: 645c 92bf 1c26 5abe 3f62 ddbf acf9 24bf
00000380: 6f3e c63e baef 8bbf 9179 fd3e 1280 f13f
00000390: dddc b8bf e45c 1ebf 75fd 843f d84f 8bbf
000003a0: 9066 77bf 83a6 193f f41f b1bf 2e14 423f
000003b0: 83a4 d83f bdf5 abbf 6ac0 1bbf 67e7 8d3f
000003c0: 890b a4bf feda 60bf acc2 0d3f e5b8 f6bd
000003d0: 9a79 793a 2174 eb3d 9eda 5e3d 0dd5 4e3f
000003e0: a45f abbe 06db 9b3e 1163 a33f 84c6 03bf
000003f0: aedd bdbe a45d 9cbd 12e5 993f 0c57 d73d

down_convs.3.conv1.bias f4 [24]
-0.00020924308 5.9187016e-08 0.00010988993 2.2368579e-06 2.0604053e-05 2.7795944e-05 -0.00032147375 -0.0001662305
1.20487475e-05 -0.0002551177 -3.8991743e-08 -4.9883667e-05 3.3920128e-06 0.0005176331 -0.00012312425 1.0894824e-05
4.1422794e-07 6.3897246e-06 -8.3339506e-07 0.00031980628 0.00041769867 -0.00021380435 -0.00016122378 1.5959682e-05
00000000: 4368 5bb9 d034 7e33 b574 e638 ed1c 1636
00000010: ded6 ac37 562b e937 7a8b a8b9 294e 2eb9
00000020: fa24 4a37 51c1 85b9 e077 27b3 2e3a 51b8
00000030: 56a2 6336 c5b1 073a ea1a 01b9 eac8 3637
00000040: 0e63 de34 5167 d636 79b6 5fb5 acab a739
00000050: 91fe da39 ab30 60b9 2e0e 29b9 28e1 8537

down_convs.3.conv2.weight f4 [24, 24, 3, 3, 3]
1.2404748 -0.1830399 -0.41429213 0.48165956 -0.5137081 -0.85463005 0.3401724 -0.3883522
-1.2340114 1.1840297 -0.16841643 -0.24817973 0.34384277 -0.44907406 -0.5497151 0.34147814
-0.16708851 -0.8072491 0.2593768 -0.53920555 -0.34460846 0.066367835 -0.7386032 -0.90870607
-0.15280116 -0.862249 -1.5030787 0.11185587 0.07040346 0.084002376 0.011875325 0.09421595
0.18941627 0.010331621 -0.008296591 0.0139733795 0.11702679 0.14876787 0.072721705 0.12320621
0.1000182 0.13303788 -0.00078669604 0.03490869 0.14986712 0.17705126 0.035486586 0.11201558
0.13474466 0.12882486 0.10020935 0.02243668 0.00269666 -0.022293882 -0.92399013 -0.47618222
-0.9672359 -0.3934918 -0.175338 -0.6680687 -0.1228685 0.1542966 -0.30084407 -0.08548528
0.36726508 -0.20969807 -0.014129399 0.41804177 -0.14156994 -0.4355622 -0.14296737 -0.270002
-0.47589168 -0.21041958 -0.761742 -0.6018656 -0.18369947 -0.565785 -0.5099258 -0.27872097
-0.18092763 -0.16481328 0.0879133 -0.2559405 0.07164658 0.1429639 -0.1519805 0.07918882
0.068670906 -0.26667458 0.31298125 0.38515323 0.015621222 0.3637154 0.6193717 0.16817209
0.3914181 0.47220507 -0.16291608 0.048799966 0.18532364 -0.14918546 0.12578437 0.14624648
-0.040997863 0.1016971 0.038287744 -0.24796295 -0.97601086 -0.7574927 -1.1143503 -0.6449992
-0.5141867 -0.97695804 -0.45225886 -0.40009418 -0.83111125 -0.11167696 0.10499985 -0.37593377
-0.0008417723 0.23006831 -0.341064 -0.49203137 -0.2524711 -0.64470315 0.15072252 0.49619415
0.0072158948 0.26509205 0.56897736 0.010532876 -0.36255437 -0.05124345 -0.44673026 -0.2432983
-0.22356237 -0.7114527 -0.05471947 -0.045459192 -0.4418024 0.1999521 0.11966239 -0.13406724
0.3306348 0.40762216 -0.20280406 -0.14197175 0.14128904 -0.040347956 0.037416548 -0.16634776
-0.15089813 0.02706305 -0.04440082 -0.42082766 0.20093136 0.46784082 0.19732045 0.18380319
0.28262275 0.11534719 -1.5066969 -0.6335369 -0.5081002 -0.8743195 -0.40680894 -0.41161212
0.0054137395 0.09405441 -0.30972064 -0.74807096 -0.0013861926 -0.16237898 -0.25718424 0.06426716
-0.22032548 0.39491874 0.34435284 -0.09270319 -1.2490091 -0.7902961 -0.97305876 -0.84592927
-0.75652206 -0.96892625 0.21393195 0.36466542 -0.027471181 -1.357645 -0.8058364 -0.8591581
-0.8980201 -0.5076259 -0.8147837 -0.15713665 0.059116554 -0.655036 -0.3522187 0.3063299
0.031279813 -0.40033102 -0.20382637 -0.3926205 -0.62950546 -0.33378437 -0.4929757 -0.60255414
-0.13501547 -0.71204937 -0.82064354 -0.57558435 -0.84861857 -0.6153969 -0.6706671 -0.42944205
-0.8492933 -0.8737826 -0.5556066 -0.46960124 -0.19473043 -0.48941073 -0.3385922 -0.013423518
0.14411664 -0.9434403 -0.93289375 -0.63318133 -0.32239285 -0.11304578 -0.48502338 -0.3500829
0.2583362 0.24383564 -1.257014 -1.049264 -0.7889477 -0.62096584 -0.64547616 -0.8412468
-0.31705686 0.31106892 -0.13088831 -1.1157314 -0.5441942 -0.6356628 -0.5957779 -0.33511052
-0.4205481 0.18286179 0.34993652 0.12126268 -0.5143869 0.24967124 0.048103943 -0.58800614
00000000: e1c7 9e3f d06e 3bbe 191e d4be 159c f63e
00000010: 6082 03bf 09c9 5abf 142b ae3e 19d6 c6be
00000020: 16f4 9dbf 498e 973f 5b75 2cbe d422 7ebe
00000030: 290c b03e 09ed e5be 21ba 0cbf 39d6 ae3e
00000040: 4019 2bbe e1a7 4ebf 09cd 843e 6009 0abf
00000050: 8570 b0be dceb 873d 1915 3dbf f6a0 68bf
00000060: e877 1cbe 5abc 5cbf e264 c0bf b114 e53d
00000070: b02f 903d 7009 ac3d b990 423c 4bf4 c03d
00000080: 57f6 413e f645 293c 6dee 07bc 9af0 643c
00000090: beab ef3d 9b56 183e 1eef 943d 8a53 fc3d
000000a0: 58d6 cc3d 153b 083e 473a 4eba 6afc 0e3d
000000b0: c476 193e ed4c 353e 625a 113d 6d68 e53d
000000c0: 81fa 093e aaea 033e 8f3a cd3d 21cd b73c
000000d0: 73ba 303b a9a1 b6bc 9e8a 6cbf 28ce f3be
000000e0: c69c 77bf c277 c9be ce8b 33be 8d06 2bbf
000000f0: 7ba2 fbbd eeff 1d3e 3c08 9abe e812 afbd
00000100: 2b0a bc3e 17bb 56be ff7e 67bc 9209 d63e
00000110: b6f7 10be 0202 dfbe 0a66 12be b43d 8abe
00000120: 13a8 f3be 3b78 57be 8601 43bf dd13 1abf
00000130: b71b 3cbe 49d7 10bf 7f8a 02bf 84b4 8ebe
00000140: 1845 39be d0c4 28be e30b b43d a20a 83be
00000150: 71bb 923d 2165 123e c7a0 1bbe c02d a23d
00000160: 55a3 8c3d 9289 88be 143f a03e ce32 c53e
00000170: 27f0 7f3c e838 ba3e 258f 1e3f 4e35 2c3e
00000180: f467 c83e ddc4 f13e 79d3 26be 79e2 473d
00000190: 7bc5 3d3e 13c4 18be 9ecd 003e a3c1 153e
000001a0: 60ed 27bd 9246 d03d 9cd3 1c3d 00ea 7dbe
000001b0: d9db 79bf 0beb 41bf 08a3 8ebf ab1e 25bf
000001c0: bda1 03bf ec19 7abf 798e e7be 25d9 ccbe
000001d0: b5c3 54bf e4b6 e4bd 290a d73d 647a c0be
000001e0: 62aa 5cba 0797 6b3e f19f aebe 89eb fbbe
000001f0: e443 81be 440b 25bf 0157 1a3e 290d fe3e
00000200: 5073 ec3b 25ba 873e 80a8 113f 1592 2c3c
00000210: baa0 b9be a7e4 51bd d4b9 e4be 3123 79be
00000220: 89ed 64be c421 36bf 8621 60bd 6b33 3abd
00000230: ed33 e2be 3ec0 4c3e 8e11 f53d ec48 09be
00000240: f748 a93e dab3 d03e deab 4fbe 0b61 11be
00000250: 13ae 103e e643 25bd 1842 193d 1157 2abe
00000260: 0a85 1abe 54b3 dd3c a2dd 35bd b976 d7be
00000270: f3c0 4d3e d588 ef3e 5f0e 4a3e e736 3c3e
00000280: eeb3 903e 263b ec3d 72db c0bf 792f 22bf
00000290: db12 02bf 67d3 5fbf 4349 d0be d3be d2be
000002a0: bd65 b13b 999f c03d b493 9ebe 9481 3fbf
000002b0: e8b0 b5ba ad46 26be a7ad 83be 809e 833d
000002c0: 019d 61be ca32 ca3e 044f b03e 2cdb bdbd
000002d0: 88df 9fbf d850 4abf 611a 79bf d28e 58bf
000002e0: 6eab 41bf 8d0b 78bf fa10 5b3e 6db5 ba3e
000002f0: 3e0b e1bc 50c7 adbf 4b4b 4ebf c9f1 5bbf
00000300: a5e4 65bf c5f3 01bf aa95 50bf 6ee8 20be
00000310: 3324 723d 70b0 27bf 0256 b4be 46d7 9c3e
00000320: 431f 003d 30f8 ccbe dcb7 50be 8e05 c9be
00000330: 4527 21bf c9e5 aabe 5067 fcbe fd40 1abf
00000340: 7f41 0abe de48 36bf b215 52bf 7f59 13bf
00000350: 113f 59bf a78a 1dbf d7b0 2bbf d4df dbbe
00000360: 496b 59bf 37b0 5fbf 3c3c 0ebf 936f f0be
00000370: 6a67 47be 0b94 fabe f55b adbe 51ee 5bbc
00000380: 5093 133e 4e85 71bf 20d2 6ebf 2c18 22bf
00000390: ad10 a5be 8c84 e7bd fc54 f8be 113e b3be
000003a0: a444 843e 0db0 793e d6e5 a0bf 484e 86bf
000003b0: 7af8 49bf 9ef7 1ebf ed3d 25bf f35b 57bf
000003c0: 4755 a2be 6d44 9f3e 9607 06be 49d0 8ebf
000003d0: 5050 0bbf ccba 22bf e784 18bf 9b93 abbe
000003e0: 1552 d7be 1f40 3b3e e12a b33e 9158 f83d
000003f0: dcae 03bf d1a9 7f3e a408 453d 9287 16bf

down_convs.3.conv2.bias f4 [24]
6.301374e-06 0.00031867233 0.00030165396 4.9800856e-06 -0.00018897152 0.00015559471 5.2684436e-06 9.691135e-06
-0.00019855119 -1.0198783e-05 -0.00016335079 -8.497368e-06 -5.4194752e-05 0.000105786705 -0.0001574106 2.4519593e-06
-4.863392e-06 0.00020339915 -0.00024251638 -4.6841606e-06 3.1634813e-06 -4.0554517e-07 1.0438063e-05 -8.2618964e-05
00000000: 6470 d336 7a13 a739 4f27 9e39 9c1a a736
00000010: a826 46b9 2327 2339 96c7 b036 1c97 2237
00000020: 2e32 50b9 701b 2bb7 2549 2bb9 eb8f 0eb7
00000030: 2c4f 63b8 ced9 dd38 960e 25b9 578c 2436
00000040: 3830 a3b6 8b47 5539 ff4b 7eb9 a22c 9db6
00000050: 324c 5436 b4b9 d9b4 241f 2f37 b843 adb8
