outputs/outputs_new_diff_mask/epoch_60_model.pth (torch, 694854 bytes, 241 tensors)

down_convs.0.conv1.weight f4 [3, 1, 3, 3, 3]
00000000: 3879 21bf 9002 353f 7606 283f b2c6 2ac0
00000010: 225b dabf ef2d e9bf fc9f 50bf 6b54 f33e
00000020: 2b45 863d d245 81be ab02 6d3f 7c0c 2a3f
00000030: a6d9 5bbf 52b6 5ebf 7860 fdbf 065c d8be
00000040: 9799 bf3f 79ce 483f b93d cabe 3e12 4f3f
00000050: 2bcf b0bd 8e28 8cbf bb86 bcbf 8b25 37c0
00000060: 69d7 b2bf 3d9b 2b3e e39b 25bf d53e b93e
00000070: 9e90 6f3c 518e f1bd a9c5 893f 3d54 1c40
00000080: 54e8 bf3f 21ac 8fbf d7a9 71bf fa9b 81bf
00000090: 3659 263e e883 46bf 2d17 0fbe 08ba dc3f
000000a0: 1a1d 0840 6f8f e53f f3f6 aabe 730b 4bbf
000000b0: 7ded 13bf 826f e33e 3afc 0d3e 00ee 233e
000000c0: e323 363e ec2e a73f f210 853f 997a cf3d
000000d0: 596b 93be 32eb b1be 1902 3b3e a210 0640
000000e0: 1444 cabd 3242 89be 8271 fbbe 3978 dcbe
000000f0: 428d 533e 25df 8a3f d576 e3be 372b 2940
00000100: 7ddf e03f 6717 903f 9568 ebbd 13ad d0bf
00000110: 61dd 47be 4e82 753f 014f 983f 0a2a 1c3f
00000120: 84ec 323e f727 d83f ba97 82bf 8b64 cebe
00000130: ef44 e8be 582e 11be c572 9ebe d285 b73e
00000140: 7246 06bf
-0.6307559 0.70707035 0.6563486 -2.6683774 -1.7059062 -1.8217143 -0.81494117 0.47525343
0.065561615 -0.2524858 0.92582196 0.664253 -0.8587898 -0.8699695 -1.9795065 -0.42257708
1.4968747 0.7844005 -0.39500216 0.8088721 -0.08633264 -1.0949876 -1.4728616 -2.8616664
-1.3971988 0.16758437 -0.6469099 0.3618075 0.014621882 -0.11794723 1.0763446 2.4426415
1.4992776 -1.1224405 -0.9439978 -1.0125725 0.16244969 -0.7754502 -0.13973685 1.7244272
2.1267762 1.7934397 -0.33391532 -0.79314345 -0.57784253 0.4442101 0.13865748 0.16008759
0.17787127 1.3061194 1.0395796 0.101308055 -0.28792837 -0.34749752 0.18262519 2.0947652
-0.09876266 -0.26808316 -0.49110037 -0.43060473 0.20659354 1.0849348 -0.444266 2.6432626
1.7568203 1.1257142 -0.11494557 -1.6302818 -0.19518043 0.95901954 1.189911 0.61001647
0.17473036 1.6887196 -1.0202553 -0.40311083 -0.45365092 -0.14177835 -0.30946937 0.35844284
-0.5245124

down_convs.0.conv1.bias f4 [3]
00000000: 6c56 8bbd f604 c0bc 3622 513d
-0.06803593 -0.023439866 0.051058017

down_convs.0.conv2.weight f4 [3, 3, 3, 3, 3]
00000000: 808d a33f 26b5 193f f22b 0e3f 3b63 ea3c
00000010: 058a 8b3e 6367 ed3d ed34 963c a5a1 a2bd
00000020: 3468 ebbd e241 ae3f 6f45 4a3f 6466 5a3f
00000030: 33a2 b03a 73b6 9bbb 960e ba3d fab4 c8be
00000040: 956f b7bd 9f17 66be 01c0 a73f 4f8d 403f
00000050: 15c8 803f e8b4 5b3e 2678 1abd 33d0 1a3d
00000060: be49 dabd ae0b 82bb 40c5 53bd a299 e93d
00000070: 2403 ed3e 0623 893f 6bb5 843f c281 893e
00000080: 113c 64bf 9535 d2bf 092e 63bf cbff a0bf
00000090: a94c 9a3e df16 7fbd 6701 6ebc 5473 83bf
000000a0: f367 f9be dc06 143e 8674 2e3f 841f 8f3f
000000b0: 94a8 83bf 4dc7 903f 0ba9 293e 1f91 15bf
000000c0: 40f1 1ec0 f3ed cbbf 281f e53e fc2f 3d3f
000000d0: b455 e83e 2e12 e7bf 8042 913f 279b 8e3d
000000e0: 3471 a43e 26f1 7abf 838c 3abf b96e 97bf
000000f0: c059 933f 89bf d13e c99d a03e 705a 42bf
00000100: cdcf 3abf d243 0a3e edce a33f e2d5 e43f
00000110: 009b e6be 772a 59bf 8d37 58bf 8cb3 da3e
00000120: 895d b4bf 772f abbf ddce 8d3f dfba f23f
00000130: 8d4d a03f 698f 6abf 8919 adbf bb72 42bf
00000140: e717 923f e567 503a 86de 083e 0950 c73e
00000150: 798a 1ebd 1d66 913e de41 523e c5e6 1e3f
00000160: 6971 53bd 765c 85bf d526 913e dcb9 143e
00000170: 8336 173f 49c7 77bd 05b8 dc3d b070 84bc
00000180: b015 113f c9f2 393f 95cf f4be 8baa 95be
00000190: 827b 363e 13b8 f93d e3ba 90be 5c60 8dbe
000001a0: 7c21 09bf 3283 0bbe 7c71 68bd a5ec 56bf
000001b0: 5293 443f 9f20 d83e 6c64 7d3f b2c0 dc3f
000001c0: 08e1 303f 8b50 0c40 50c5 403f 361a 413f
000001d0: ae2f a33e a709 273f 4c62 a63e f11d 3d3f
000001e0: a400 973f f573 e63e 0c1b 843f 37bf f53e
000001f0: 0dbd 743f bb43 213f 2037 8f3f ee80 413f
00000200: 4347 9c3f 7541 de3f 8ab5 853f e6d7 0940
00000210: 0776 283e b42a 4a3e 581d 983d 3fb9 74bf
00000220: 9ffa 2ebf 2197 aebd cc01 cd3f 8f64 d2be
00000230: 5078 103f 768b 943e 0124 06be 07ed 2f3f
00000240: 45f7 95bf a73c 0bbe 7868 efbe 1884 febe
00000250: b4a0 95bf 40ad 3fbf 6fc1 8e3f d7b7 2740
00000260: d195 cb3e f8f8 9abf 4f7d 85bf 9e42 7abf
00000270: ba38 563f 4605 4fbf c44f 1e3f f704 bc3f
00000280: 171a b13f 0975 4d3f 8fee 923f 46ea 4d3f
00000290: 2a4b 463f 05f5 95bc 34c8 103f 0f57 ab3d
000002a0: 2cdf e4be 4879 65bf 92cc 5ebf bcdb 563f
000002b0: a6c0 ca3e 417d 023f eec1 9dbd 445d 5d3e
000002c0: 2e54 bbb9 4ab7 6d3e 30b1 26bf 2bf5 0dbf
000002d0: 94ac 2f3f b601 5a3d f54d 143e e128 d4bd
000002e0: 3905 6dbc 1e06 babe 057a 93bd 200a 9ebe
000002f0: c751 f9be f33e ec3e 04d1 8cbe a98c 903f
00000300: 07c8 25bd 32fc 07be 28f6 51bc d733 b53f
00000310: 2061 2540 6fdb e23f 0383 f8bd 9a87 a6be
00000320: 58e7 623e f915 6dbf ccf2 92be dcf1 cabd
00000330: 159c e63f 04fd 1d40 0535 9e3f 01f1 963f
00000340: 1eb9 923e 9587 9d3f 165a 9bbf 495c 01bf
00000350: c01b bcbe 4612 1a3f ddfe 003f ae37 a1be
00000360: 6107 903f 8621 23bf f95a 9e3f 9fc3 a13f
00000370: c393 9a3e 35fb fd3f 693b d83f 96b0 273f
00000380: 4154 403f 9a4d 44bf bd97 0abe 5d96 44bf
00000390: dffc 7ebd 4fa7 f33f 9f8e 143f 29e2 3e3f
000003a0: 1ffb b53f f782 173f 4376 a53f bcf1 11bf
000003b0: 75a1 cc3f 7c4d eb3e 695c b8be 73c2 843f
000003c0: 98f6 a53f 9d01 353f 7bd3 ab3f
1.2777557 0.60042036 0.55535805 0.02861177 0.27253738 0.11591985 0.018335784 -0.079409875
-0.114944845 1.3613856 0.790122 0.85312486 0.0013476074 -0.0047519743 0.09084813 -0.39200574
-0.089568295 -0.22469948 1.310547 0.7521562 1.006106 0.21455729 -0.03771224 0.03779621
-0.106585965 -0.0039686775 -0.051701784 0.11406256 0.4629146 1.0713813 1.0367864 0.2685681
-0.89154154 -1.6422602 -0.8874212 -1.2578062 0.30136612 -0.06227767 -0.0145267015 -1.026957
-0.4871212 0.14455742 0.6814655 1.1181493 -1.0285821 1.1310822 0.16568391 -0.5842456
-2.4834747 -1.5931991 0.44750333 0.73901343 0.45377886 -1.8052423 1.1348419 0.06963187
0.32117617 -0.98024213 -0.72870654 -1.1830665 1.1511765 0.40966442 0.3137038 -0.75919247
-0.7297333 0.13502434 1.2797524 1.7877772 -0.4504013 -0.8483042 -0.84459764 0.42715108
-1.4091045 -1.337386 1.1078755 1.8963279 1.2523667 -0.91625077 -1.3523418 -0.75956315
1.1413544 0.0007950052 0.13366136 0.3892825 -0.038706277 0.2839822 0.20532939 0.62070876
-0.05162183 -1.0418842 0.2834994 0.14524025 0.59067553 -0.060492788 0.107772864 -0.016167015
0.5667372 0.72636086 -0.47814623 -0.29231676 0.17820552 0.121933125 -0.28267583 -0.2761258
-0.5356672 -0.13624266 -0.056748852 -0.8395484 0.7678729 0.42212388 0.98981357 1.7246306
0.6909337 2.192416 0.75301075 0.7543062 0.31872314 0.65249103 0.3249687 0.7387381
1.179707 0.45010343 1.0320754 0.47997448 0.9560097 0.62993973 1.1188698 0.75587356
1.2209247 1.7363726 1.0446026 2.1538024 0.16451274 0.19742852 0.07427472 -0.95595163
-0.6835117 -0.08524919 1.6016173 -0.41092345 0.5643358 0.2901265 -0.13099672 0.6872105
-1.1716086 -0.13597356 -0.4675939 -0.49710155 -1.1689668 -0.74873734 1.1152781 2.6205957
0.39762738 -1.2107229 -1.0428866 -0.977579 0.8368031 -0.8086742 0.6184046 1.4689015
1.3836087 0.80256706 1.1479052 0.804356 0.7745844 -0.018305311 0.56555486 0.083662145
-0.44701517 -0.89638186 -0.870309 0.8392904 0.39600104 0.5097237 -0.07703005 0.2161761
-0.00035730138 0.2321445 -0.65114117 -0.5545222 0.6862271 0.053224288 0.14482863 -0.103593595
-0.014466577 -0.36332792 -0.07201008 -0.308671 -0.48695204 0.46141776 -0.27503216 1.1292926
-0.040473964 -0.13279799 -0.012815036 1.4156445 2.584053 1.7723216 -0.121343635 -0.3252533
0.22158563 -0.9261165 -0.28700864 -0.09909412 1.8016382 2.4685678 1.235993 1.1792299
0.28656858 1.2307001 -1.2136867 -0.5053144 -0.36739922 0.60184133 0.5038889 -0.31487793
1.1252252 -0.6372303 1.2371513 1.2637824 0.30190858 1.9842287 1.689313 0.65503824
0.7512856 -0.7668091 -0.13534446 -0.76791936 -0.062252875 1.9035434 0.5803012 0.74563843
1.4217261 0.5918421 1.2926716 -0.5700948 1.5986773 0.45957553 -0.36008003 1.0371841
1.296588 0.70705587 1.3423914

down_convs.0.conv2.bias f4 [3]
00000000: a79f 87bd db8e 88bc 5f15 8f3c
-0.06622248 -0.016669681 0.017466245

down_convs.0.norm0.weight f4 [3]
00000000: 2068 293f 1677 d83e c6c5 693f
0.6617451 0.42278355 0.91317403

down_convs.0.norm0.bias f4 [3]
00000000: d22f 34bf 2a22 59c0 8647 18c0
-0.7038547 -3.3927102 -2.3793654

down_convs.0.norm0.running_mean f4 [3]
00000000: 4bc4 8abd 95a6 b5bc 7b77 623d
-0.06775721 -0.022174159 0.055289727

down_convs.0.norm0.running_var f4 [3]
00000000: eb75 1b43 72fa bd42 987a 6142
155.46062 94.98915 56.36972

down_convs.0.norm1.weight f4 [3]
00000000: 4af7 bf3f 0a90 2e3f cddd bb3f
1.4997342 0.68188536 1.4677063

down_convs.0.norm1.bias f4 [3]
00000000: 5402 77bf 6047 a7c0 20a3 babf
-0.9648793 -5.227463 -1.4581032

down_convs.0.norm1.running_mean f4 [3]
00000000: e7d7 933e a20c 9d3d 1dab 1f3f
0.28875658 0.07668425 0.62370473

down_convs.0.norm1.running_var f4 [3]
00000000: 0947 cc40 3817 0441 0b43 ef41
6.3836713 8.255669 29.907736

down_convs.1.conv1.weight f4 [6, 3, 3, 3, 3]
00000000: 6ca7 cdbe 7ff8 9abe 3a77 e8be b467 01bf
00000010: e316 823e 7f0f 2a3f 3f9e 17be f2c8 91be
00000020: 939f 35bf 3bc8 87bf 6c82 61bf d351 7cbf
00000030: 9944 53bf 061e 84be c0dc e73b 1b53 783e
00000040: 355f 9e3e cd0e 19bd 5356 adbf b48a 9dbf
00000050: 02ed 2bbf 42f9 41bf 1adb 4fbe 1c26 ed3d
00000060: b017 0c3f 35db 8c3f 0f13 3b3f 8a39 24bf
00000070: 8809 34be 05d7 403f 0e8c 5dbf 448b 36bf
00000080: f168 ef3c de45 693f 29b2 f9bd d5e1 b5bf
00000090: 94e8 95bf 3718 c5be f23d ea3d 04ee ecbd
000000a0: 08a5 0d3e f7c8 ebbe 075c e43f 4d0c 433f
000000b0: 85ad 7bbf 3df7 f3bf ba42 97bf e2e5 4fbf
000000c0: 7e70 b93e 1680 e83e 2424 afbe 69ae 0f40
000000d0: e0e5 ed3f 1866 f03c b79d 333f f258 a9bf
000000e0: 6c20 f6be f2b8 b4be 27ed 26bf 533a c33e
000000f0: 886a 863e b095 22bf 05f9 a4bf 8247 7fbf
00000100: acdd abbf 0cf4 5cbf 7b68 51bf 742b 28bf
00000110: 17fc 66bf 9b0c 573f 965d 123e b1a6 80bf
00000120: b57e e0bf d1da e7bf d983 66be 7b34 35bf
00000130: 0229 16bf a55e a7bf 4808 803f 4de3 4e3f
00000140: 3e00 46be 02c7 623e cdd7 233f 0f0e 313f
00000150: e09b 1ebf e72b f03d 8569 273e 27a7 533e
00000160: 3071 193f cb95 11be f781 783e 9a1c 06bf
00000170: 283c d1be 1d7b 72be 22a8 7c3e b72c e43e
00000180: cca8 2c3f 64bc 4640 9859 a53f 196c be3e
00000190: 98e1 abbe ed40 68bf d7d9 06bf 671f 81be
000001a0: cdf9 bc3d 6b7c 983d 287e af3f 0a5c d23f
000001b0: c840 873e 7d70 343f 19fe ba3e d9dc 15bf
000001c0: c0bd 633c 7e2d 3bbf e997 debf 32f3 a1bf
000001d0: 5874 7fbf 0539 99bd d293 70be ffaa 9bbe
000001e0: cc82 84be aa0d ed3f f06e e33e 1440 a0bf
000001f0: a059 293f 8568 c5be 8a75 a0be 686d 8bbf
00000200: cb8f 69bf 1965 41bf 3ade 493f e832 8ebe
00000210: 43ab e8bf 81d8 18bf 3009 c2bf e0b0 d7bd
00000220: d356 a73e 11e0 a8bd 6d03 80bf 8997 0dbf
00000230: 2b41 9cbf ed34 a9bf 9c40 a3bc 33a9 b3bf
00000240: fe18 06bd b8c8 c63e c720 033e 0b72 353d
00000250: fc7f d23f 28ab 113e be33 333f 281b 9840
00000260: ec64 873f 65f1 38bb 2c82 30bd 0fec 643d
00000270: 8dda 5dbe ef8c 7b3f 37ae 68be f030 663e
00000280: c3c5 4540 9143 153f 41b8 c8bf 16fe 5ebf
00000290: 2447 a6bf 68fb 5bbe 44e7 41bd 41bd f7bd
000002a0: c92b 5d3f b518 893f 5fc1 903f 4b1b 14bf
000002b0: 31ca 6fbe 4142 87be 54ea 143f 5e13 b73d
000002c0: 6707 acbb dc3c 983f 9d02 363f a87c 483f
000002d0: 489b 36bf e68b 1dbe 91a0 11bf d68f 123f
000002e0: 66c6 f43d eeb4 7cbd 88ac 093f afde 583f
000002f0: 35c6 773e 33eb 30bf 520a 3bbf 400e 8bbf
00000300: 271b e4bc 3cab 0ebe 1517 c03e 4811 913f
00000310: 7daf 523f b409 5a3f 3770 35bf 5988 6bbf
00000320: 10e2 d2be b66a e2be 0b47 d7be b8c6 ab3e
00000330: 1e9a 303f f199 67be e1da 593f 5953 aebf
00000340: 51af 2dbf 8e89 7bbe 3bf7 f5be 74d4 78bd
00000350: bbe0 143f f601 413f 4651 463f 9993 e43f
00000360: 3ad3 68bf 9858 75bf d901 c4bf 6842 7b3e
00000370: 66b1 673e 7450 c43d 6f9c 553f 648d 2b3f
00000380: f623 6b3f 2c71 b2bf 7301 a5bf 120b 81bf
00000390: 7586 1cbe 2efd 0bbe b315 f93d d867 3e3f
000003a0: 1a64 673e c7fc 723f 1d70 b6bf b80c a2bf
000003b0: 2cc0 90bf ed03 8dbe 362d 73bd 7cb3 853e
000003c0: f6c4 4e3f 7067 463f 9b7f a03f 7f9e 27bf
000003d0: 1ab4 e4be fc1b 34bf 60eb 6abf f863 ad3f
000003e0: f40c 0b40 1b75 0abe cec7 803f defb b03f
000003f0: c644 fabc 83f7 30bf 1fed 92bf 5bfb 3bbe
-0.40166795 -0.30267712 -0.45403463 -0.50548863 0.25408086 0.66429895 -0.1480646 -0.28473622
-0.70946616 -1.060798 -0.88089633 -0.98562354 -0.82526547 -0.25804156 0.007075876 0.24250452
0.30932012 -0.03736763 -1.3541969 -1.2307954 -0.6715852 -0.7577096 -0.20298424 0.115795344
0.54723644 1.1004397 0.73075956 -0.641503 -0.17581761 0.75328094 -0.8654183 -0.7130625
0.029224845 0.91122234 -0.121921845 -1.4209543 -1.1711602 -0.38495037 0.114375964 -0.115688354
0.13832486 -0.46051762 1.7840585 0.76190645 -0.98311645 -1.9059826 -1.1817238 -0.8121015
0.36218637 0.45410222 -0.3420726 2.2450202 1.8585777 0.029345557 0.7016253 -1.3230269
-0.4807161 -0.35297352 -0.65205616 0.38130435 0.26253152 -0.63509655 -1.2888495 -0.9971849
-1.3427024 -0.86309886 -0.8180005 -0.65691304 -0.9022841 0.8400361 0.14293513 -1.005087
-1.7538668 -1.8113652 -0.22511233 -0.70783204 -0.5865632 -1.3075758 1.0002527 0.80815583
-0.1933603 0.22146228 0.6400116 0.69162077 -0.61956596 0.11727124 0.16348846 0.20669232
0.59938335 -0.14217298 0.24268328 -0.5238739 -0.40866208 -0.23679776 0.24673513 0.44565365
0.67445064 3.1052485 1.2917967 0.37191847 -0.33570552 -0.9072407 -0.5267615 -0.2521927
0.09227333 0.07445606 1.3710375 1.6434338 0.26416612 0.70484143 0.36521986 -0.5854011
0.01390022 -0.7311629 -1.7390109 -1.2652342 -0.997869 -0.07481579 -0.23493889 -0.30403897
-0.2588104 1.8519795 0.44420576 -1.2519555 0.6615238 -0.38556305 -0.31339675 -1.0892763
-0.91235036 -0.7554489 0.78854716 -0.27773213 -1.8177265 -0.5970536 -1.5159054 -0.10531783
0.3268343 -0.08245862 -1.0001045 -0.5530935 -1.2207388 -1.3219277 -0.01992827 -1.403601
-0.03273868 0.3882501 0.12805472 0.044298213 1.6445308 0.14225447 0.7000083 4.753315
1.0577674 -0.0028220054 -0.04309289 0.055889186 -0.21665402 0.9826192 -0.22722708 0.22479606
3.0901954 0.58306223 -1.568123 -0.87106454 -1.299046 -0.21482623 -0.047339693 -0.12096644
0.86394936 1.0710665 1.1309012 -0.57854146 -0.23416974 -0.26417735 0.58170056 0.08939241
-0.005249906 1.1893573 0.7109774 0.7831521 -0.7133069 -0.15385398 -0.5688563 0.57250726
0.11951904 -0.061695985 0.53778887 0.8471479 0.24196704 -0.69108886 -0.7306262 -1.0863724
-0.027844978 -0.13932508 0.3751761 1.1333399 0.82299024 0.85171056 -0.7087435 -0.92004925
-0.41188097 -0.4422204 -0.4204639 0.33550048 0.68985164 -0.22617318 0.8509961 -1.3619186
-0.67845637 -0.24564192 -0.48040184 -0.060749486 0.5815541 0.7539362 0.77467763 1.7857543
-0.90947306 -0.9583831 -1.5313064 0.2453705 0.22626266 0.09585658 0.83441824 0.6701262
0.9185175 -1.3940787 -1.2891067 -1.0081503 -0.15285666 -0.13670799 0.12162342 0.74377203
0.2259678 0.9491696 -1.4252964 -1.2660131 -1.1308646 -0.27542058 -0.05936929 0.26113498
0.8076929 0.77501583 1.2538942 -0.6547622 -0.44668657 -0.703552 -0.91765404 1.3546133
2.1726656 -0.13521235 1.0060976 1.3826864 -0.030550372 -0.6912767 -1.1478614 -0.18357603

down_convs.1.conv1.bias f4 [6]
00000000: 19f0 babd 51bd 4bbd 82a0 19bc 9592 86bd
00000010: f564 c438 3f26 2fbc
-0.09127826 -0.049741093 -0.009376647 -0.06570927 9.364813e-05 -0.010690271

down_convs.1.conv2.weight f4 [6, 6, 3, 3, 3]
00000000: 16a3 94bf e202 cfbe ab3c 393f adf2 d0be
00000010: 5e6c 983f 5840 da3f c801 75bf 0cdf 83be
00000020: a003 a73e 6260 34bf 62ca 74bf eb44 143f
00000030: 38f8 69bf 9801 203e 89ad 433f e601 d2be
00000040: fd7d a0be 2956 893c 3015 623f 3e88 ecbe
00000050: 299b 853e a706 24bf 3bcb 75be b20d 803d
00000060: 6aa6 523e 73d7 513e 5ece 883e aabe 873f
00000070: 7372 383f 4f69 623f 6d99 753d e0b8 05bf
00000080: 2746 84be ef38 4b3f 6e81 153f 7a2c 2e3f
00000090: b9a4 593f e061 583f eaac 673f 3156 f8be
000000a0: a109 81bf eae6 1bbf aa27 6c3d 6489 56be
000000b0: 760f f7bd a62f ba3f 011f 7c3f 0a40 b73f
000000c0: a396 c03e 10a1 afbe 09d9 a03e 8bec e03e
000000d0: 00e2 4ebe 390d aebe 3c38 8b3f e841 4c3f
000000e0: 7f84 333f a1ab 4fbe 68bc 2bbf 9b10 04bf
000000f0: 46f1 fcbe 49e9 8ebe 8693 36bd 15a1 543f
00000100: 5ee6 3a3e 52cb c73d 2613 3dbf aeb3 8dbf
00000110: 7b2f 51bf b205 15bf 638d b6be 3b6f cd3b
00000120: 9126 6b3f 9931 d93e 327c 063d 8c06 b8be
00000130: 8e16 3abf bf6f d5be 3787 d0be 937e f6be
00000140: 7905 3abe 4213 2240 fbb5 3640 dbd9 4a40
00000150: 41dd f03d ada3 2e3e 462f 863f c3c7 e9be
00000160: eb2f a1bf 1c5d 7bbe 2f99 0440 f308 1040
00000170: f5db 1b40 68c9 16bf 2255 cabe 50b3 c53e
00000180: 4a96 9bbf 6b9f 1ec0 9b3a 2abf 21dc 2340
00000190: 142a 3640 fc60 3f40 1694 403f 51a8 c53e
000001a0: 776c a23f 22d0 04bf 4a62 99bf 5044 423e
000001b0: 0ad8 813e 30ec c33e 721d 9c3e 96c1 953e
000001c0: cb64 753e d0f3 b73d 3709 653e fec4 b0bc
000001d0: a80b 2fbe 1912 cb3e 0fd1 e23e e50d 043f
000001e0: 15ac 1b3e 7855 91bc 5498 243e f5d6 1dbe
000001f0: 89c8 43be 373b 35bd 30d6 d83e 6130 8c3e
00000200: fa4a 103f 754a c1bd ea4d 1ebe 3e76 8e3d
00000210: 8dbd a8bd dae7 13be a76f 44be 5e3e 553e
00000220: 93b2 1e3f 4f8e 953f 4ce9 873f 486c 213f
00000230: 16ad 3d3f bd33 06bf 1e5a 99bf e870 44bf
00000240: 4687 be3d 5257 ba3e 794e 603f 0120 083f
00000250: 95ee a43e d500 b93e 9a1e 86bf fa75 b6bf
00000260: 14a5 81bf cf67 893d d410 2b3f 8b72 a63f
00000270: 8edc 2e3f 50b3 303f 44fb 5f3f 8951 10bf
00000280: 455e 81bf 4b13 54bf 2ae0 97be 08fa 83bf
00000290: b985 8ebf 2aca edbf 343f efbf 567f febf
000002a0: 5ce0 3fbf 83bd a3bf 5997 84bf 8103 41bf
000002b0: 69e6 1bbf fe94 06bf 461c dabf 4a76 5ebf
000002c0: c3e6 b3bf 80af a6bf 8b48 e1bf a966 d3bf
000002d0: ef9a c1bf c2c6 6dbf 4a08 0cbf d77f f6bf
000002e0: 5188 a1bf 4572 aebf 18c3 e8bf cc3d 00c0
000002f0: e603 96bf ec6e 873e 6222 f33e 313a f03e
00000300: 3179 f83b b86a 5fbf a8e0 80be 09b2 35bf
00000310: a60e f4bf d704 c5bf ca3f 283f 087b dd3c
00000320: 09b3 fcbd 5c94 34be 224d 0ec0 29ff 34bf
00000330: 4c7d a1bf 4cf8 75c0 0fd1 14c0 a0f9 f83e
00000340: 1b19 993e 5b05 a23e 1e1f 2a3f a010 f13c
00000350: 47f1 e63e 3ac8 20be 640e d2bf b7b2 41bf
00000360: 6c11 c5be a5d0 7dbe 143d de3e d0d5 543f
00000370: 4463 263f 2444 b23e 9345 debe 033a fdbd
00000380: cc5b 1fbe ff73 ccbd 840c 173f f791 9a3f
00000390: adb2 c0bd 2acb ac3b fb6c 2b3d 60f8 6bbe
000003a0: 5f2a 04be f2ce 00be f3c4 0c3f d881 803f
000003b0: 4f89 a43f baf1 99be 4b2d edbd 6ab0 5fbd
000003c0: 08bf fbbd 6314 95be c7ce d4bd 68f8 613e
000003d0: c1e1 aa3e fbb4 0dbe 2799 25bf 16b5 64bf
000003e0: 0be2 00bf 36eb bbbc 92ef 22bf 77d7 0fbf
000003f0: 94fb ca3e 8f4a 233f d489 b93e ed83 94bf
-1.161227 -0.40431887 0.72358197 -0.40810147 1.1908071 1.7050886 -0.9570584 -0.2575611
0.32619953 -0.7045957 -0.9562131 0.5791766 -0.91394377 0.15625608 0.7643667 -0.41017073
-0.3134612 0.016764717 0.8831358 -0.46197695 0.2609494 -0.6407265 -0.24003308 0.06252612
0.20571294 0.20492344 0.26719946 1.0605061 0.72049636 0.8844194 0.05996077 -0.5223522
-0.25834772 0.7938375 0.5840062 0.68036616 0.8501697 0.84524345 0.9049822 -0.4850326
-1.0081064 -0.6089922 0.057655014 -0.20950848 -0.12063496 1.4545791 0.9848481 1.4316418
0.37614927 -0.34302568 0.31415585 0.43930468 -0.202034 -0.33994463 1.0876536 0.79788065
0.7012405 -0.20280315 -0.6708436 -0.5158784 -0.49402827 -0.27912357 -0.044574283 0.8305829
0.1825194 0.09755577 -0.73857343 -1.1070459 -0.81713074 -0.58211815 -0.35654745 0.006269363
0.9185572 0.42420653 0.032833286 -0.35942495 -0.72690666 -0.41686818 -0.4072816 -0.48143443
-0.1816615 2.5324254 2.8548572 3.1695468 0.11760951 0.17054625 1.0483177 -0.4566022
-1.2592748 -0.24547237 2.0718496 2.2505462 2.4353 -0.5890107 -0.39518076 0.38613367
-1.215524 -2.47848 -0.66495675 2.5603106 2.8463182 2.9902945 0.7522596 0.38604978
1.2689351 -0.51880085 -1.198312 0.18971372 0.25360137 0.38266134 0.30491215 0.29249257
0.2396423 0.089820504 0.22366796 -0.021578308 -0.1709429 0.39662245 0.44300124 0.515837
0.15202363 -0.01774095 0.16073734 -0.15414031 -0.19119467 -0.044245925 0.42350912 0.2738066
0.56364405 -0.0943803 -0.1545941 0.06956147 -0.08239279 -0.14443913 -0.19183217 0.20824572
0.6199123 1.1684054 1.0618072 0.6305585 0.74092233 -0.52422696 -1.1980627 -0.7673478
0.09303145 0.36394745 0.8761974 0.53173834 0.32213274 0.36133447 -1.0478089 -1.4254754
-1.0128503 0.06709253 0.6682255 1.3003706 0.6830529 0.6902361 0.87492776 -0.5637441
-1.0106894 -0.8284194 -0.2966321 -1.0310678 -1.1134559 -1.857732 -1.8691163 -1.988261
-0.7495172 -1.2792209 -1.0358688 -0.7539597 -0.60898453 -0.52571094 -1.7039878 -0.86899245
-1.4054798 -1.3022308 -1.7600263 -1.6515704 -1.5125407 -0.92881405 -0.5470015 -1.9257764
-1.2619725 -1.3628622 -1.8184538 -2.0037718 -1.171994 0.26451814 0.4748717 0.46919397
0.0075828065 -0.87272215 -0.251714 -0.70974785 -1.906697 -1.5392102 0.65722334 0.027036205
-0.12338836 -0.1763472 -2.2234578 -0.70701844 -1.2616363 -3.8432798 -2.32526 0.4862795
0.29901966 0.3164471 0.6645373 0.029426873 0.45105955 -0.1570138 -1.6410642 -0.7566332
-0.38489854 -0.24786623 0.43405974 0.8313875 0.6499522 0.34817612 -0.43412456 -0.123645805
-0.15562361 -0.09983062 0.5900347 1.2075795 -0.0940908 0.0052732425 0.04185198 -0.23043966
-0.12906788 -0.12578943 0.5498802 1.0039625 1.2854403 -0.30067235 -0.115809046 -0.0546116
-0.12292296 -0.29117116 -0.10391002 0.22067416 0.33375362 -0.1383857 -0.64686817 -0.89338815
-0.50344914 -0.022939306 -0.63646805 -0.5618815 0.39645064 0.6378564 0.36237967 -1.160276

down_convs.1.conv2.bias f4 [6]
00000000: 89b2 2c3c 2d14 05bb d698 b0bd 5556 c73c
00000010: eb5c e4bb 0eda 393d
0.010540613 -0.0020306215 -0.08622901 0.024333159 -0.0069690845 0.04537397

down_convs.1.norm0.weight f4 [6]
00000000: a6cc 0440 b34a 963f 10c8 a73f c15e 903f
00000010: ccfe 31bd 9a3a 023f
2.0749907 1.1741546 1.3107929 1.1278917 -0.043455884 0.5087067

down_convs.1.norm0.bias f4 [6]
00000000: 172b f93f c633 40bf 2619 95bf 4974 a1bf
00000010: 2e5a 5fbf 768f c2bf
1.9466275 -0.75079 -1.16483 -1.2613612 -0.8724698 -1.5200031

down_convs.1.norm0.running_mean f4 [6]
00000000: 36ea abc0 1130 8540 a332 873e 7b11 a340
00000010: f3b2 1b40 11d8 1a41
-5.37234 4.1621175 0.2640582 5.095884 2.4327972 9.677751

down_convs.1.norm0.running_var f4 [6]
00000000: 4d58 6f44 e707 e543 b096 eb43 c1fb 2044
00000010: 3aa8 2943 3b7e e944
957.3797 458.06174 471.17725 643.93365 169.65714 1867.9447

down_convs.1.norm1.weight f4 [6]
00000000: 5d2b 5e3f fc70 0f40 7760 df3f 0d58 253f
00000010: bc1f 613f dec3 d03f
0.8678492 2.241271 1.7451314 0.6458748 0.8793905 1.6309774

down_convs.1.norm1.bias f4 [6]
00000000: ba77 91bf 3e77 0640 55a9 14bf 0c3e cdbf
00000010: 5171 77bf 02c7 08bf
-1.1364663 2.101028 -0.5807088 -1.603456 -0.9665728 -0.5342866

down_convs.1.norm1.running_mean f4 [6]
00000000: e468 2d40 e42a 97c2 4bb5 68c0 8262 b740
00000010: 0619 aec0 4a1e 6e42
2.709527 -75.58377 -3.6360652 5.730775 -5.4405546 59.52958

down_convs.1.norm1.running_var f4 [6]
00000000: 2035 2f44 22cc 0944 4d06 1243 bc76 1544
00000010: cdb4 ce43 eef5 6544
700.8301 551.1896 146.02461 597.8552 413.4125 919.84265

down_convs.2.conv1.weight f4 [12, 6, 3, 3, 3]
00000000: e78b 9f3f 8dbc 7e3f be9b 823f bd65 3b3f
00000010: c78e 9f3e 20b9 903e 5dcf 943f c7f9 693f
00000020: 6f8c ed3e 6275 893f 094b 213f 79bb 063f
00000030: 7e33 0a3f e8e5 9e3d 23e5 56bc e0b3 b13f
00000040: a71a b43f db1e 0b3f 2217 ca3f 16ec 913f
00000050: acf0 5e3f 8d66 6d3f 084d 043f 759b 883e
00000060: 380e bd3f d085 963f 3a0f 4c3f 1e6e 0e3f
00000070: 1178 c43e 612c 8c3f ab3e d2be 1707 88bf
00000080: 9d9d dd3c 3988 c2bf dc36 1cc0 e959 66bf
00000090: efc3 dd3e bcc3 a43f caa3 f33e 99ca 40bf
000000a0: 0336 83bf ded8 6cbf a1cd 35c0 ca71 7dc0
000000b0: d99d 0bc0 afba 7f3f 04f8 3d3f 41aa 133f
000000c0: 5e05 debc b0be 13bf 2b29 84be 275f a1bf
000000d0: b2f7 f5bf f3cb 57bf 704f f23e 4fa4 fc3c
000000e0: 5a68 9d3e 2b18 8b3e b0d3 d33d e1f6 2c3f
000000f0: c948 673f 6319 8e3f 0707 873f 9d96 0f3e
00000100: 11b0 f1bd 35fd 173f 772b 803d f48b 85bc
00000110: ab5a 473f 3178 4e3f 6a44 ab3f f1e7 bd3f
00000120: af02 cf3e 0252 f33e 5323 683f 59d8 373e
00000130: 54eb 0b3f dcdf 983f dd75 1c3f 40c6 9b3f
00000140: 5101 cb3f 1a95 a43d 510c 11bf 2362 16be
00000150: 1442 263f 5b99 8bbb 8d59 373e 8dba 563f
00000160: 94d2 1c3f c9d7 183f 8dc6 dfbe e68c f7bf
00000170: 5742 dcbe bc3e 303f ff0c ddbe bf15 1d3e
00000180: 7566 8b3f 3065 643f 6354 5f3f 8019 353e
00000190: 1863 d8bd d4a5 393d b6df 883f 6929 413f
000001a0: aa84 1a3f 0bfb a33f 6042 a53f 6e36 9b3f
000001b0: e2ce a83e b247 a03b fa51 85be 6338 8a3f
000001c0: d991 703f 0655 1f3f f2c4 a03f 3d70 6e3f
000001d0: 453e 413f 699a 5c3e bf90 8cbd 2745 fabd
000001e0: 42e5 9f3f a455 9e3f 39d0 3d3f ce37 bf3f
000001f0: 8d7b b03f 295e 893f 687a 4dbe 668c 13bd
00000200: 32c4 a7be 1f70 833f 5ca1 7c3f 1447 113f
00000210: 644e b33f 7239 af3f 9743 793f ca96 27bf
00000220: a410 09bf daf8 3abf c4ce 6b3d b1e8 a93c
00000230: 1816 ba3d 02b7 0d3e 8776 1b3e b070 cc3e
00000240: 17d5 95bf aa1f 05bf 1c45 38be b324 f0be
00000250: 6ffb 683b 42fe 0b3f fc63 e8be 401a a03d
00000260: e772 2d3f 1cd7 ffbf 9e1f 90bf 605f 0ebe
00000270: a3a9 c2bf 738d 27bf 4c99 de3e 13fe c8bf
00000280: ffbd 0dbf 0cff 073f be00 af3e 2c32 943f
00000290: 1bf7 053e f51f 89be d2d1 e7be 77b3 bdbe
000002a0: 0074 e0bf d7f6 e7bf d0c2 83bf fdc5 c93f
000002b0: c17b 2d40 acf6 853f 6e90 e7be e65f 24bf
000002c0: a31b 05bf 07f7 0bc0 9c77 e2bf 20ca 82bf
000002d0: fdd0 2b3f a166 b63f 0de1 e23d d3cc a0be
000002e0: b900 70be b64a 65be d147 c8bf a7ec a1bf
000002f0: 789c a2bf 62d2 e4bd 9bc7 87bf 9a9c 35bf
00000300: 1c5a b73f cc66 9e3f c974 9e3f 9a30 883f
00000310: c530 c33f 7833 c63f eb2b 63bf 6917 26c0
00000320: 99b2 36bf 36e1 803f 51e2 67be 4ee5 333f
00000330: 4842 693f 20ed c53f 25ab 0440 8132 51bf
00000340: 83bf 82bf 5319 91bd 2221 5c3f 3265 313f
00000350: 5e79 b63f 84f2 a43f 5052 c83f 6f40 0240
00000360: 1aae 8c3e 471d f63d 45d0 f13e f865 c8bd
00000370: 7e0d 9f3e dbdb 713e 0abb 94bf 57c4 82be
00000380: 5d44 25bf 2b00 42be 9a93 5cbe 504f 67be
00000390: 04c1 28bf ee49 903f 02cf f93e 7607 83bf
000003a0: 9b62 0b3f d908 3abf 568f f0bc fadb e4bd
000003b0: 0854 013e df50 87bf 2bb3 873e 85e5 72bd
000003c0: 961e 9cbf 3c38 6ebe b72f 8bbf 3a0e f1bd
000003d0: 4e48 20be c025 23be d923 4fbf 551c a9bf
000003e0: 2fd1 0abf ac3f 02c0 3462 f0bf 935e b5bf
000003f0: 326e 823e 671f 503e 0f0f 073d 07af d8bf
1.246457 0.99506456 1.0203779 0.73202115 0.31163618 0.2826624 1.1625782 0.91396755
0.46396205 1.0738947 0.6300512 0.5262981 0.5398482 0.07758695 -0.013116154 1.3883018
1.4070634 0.54343957 1.578831 1.1400173 0.87085986 0.92734605 0.5168004 0.26681104
1.4769964 1.1759586 0.79710734 0.55636775 0.38372853 1.0951043 -0.41063437 -1.0627164
0.027052695 -1.5197822 -2.4408484 -0.8998094 0.43313548 1.2872233 0.475859 -0.7530914
-1.0250858 -0.92518413 -2.8406756 -3.9600701 -2.1815093 0.9989423 0.74206567 0.5768166
-0.027102169 -0.5771284 -0.2581266 -1.2607163 -1.9216216 -0.84295577 0.4732623 0.030840067
0.30743676 0.27166876 0.103431106 0.6756421 0.90345436 1.1101497 1.054902 0.14022298
-0.1180116 0.5937074 0.0625829 -0.016302086 0.77872723 0.8065215 1.3380253 1.4836408
0.40431735 0.47523504 0.906789 0.17953624 0.5465596 1.1943316 0.61117345 1.2169876
1.5859777 0.08036251 -0.5665942 -0.14685874 0.6494458 -0.0042602248 0.17905255 0.83878404
0.61258817 0.5970426 -0.4370617 -1.9339874 -0.43019363 0.68845725 -0.43173978 0.15340327
1.0890642 0.892169 0.8723814 0.17685509 -0.10565776 0.04532416 1.0693271 0.7545381
0.6035868 1.2810987 1.2910881 1.2125986 0.3297034 0.0048913592 -0.26039106 1.0798458
0.93972546 0.6223911 1.2560103 0.9314001 0.7548564 0.21543278 -0.068635456 -0.12220221
1.2491839 1.2369885 0.7414585 1.4938905 1.3787705 1.073186 -0.20066226 -0.036022566
-0.32766873 1.0268592 0.98683715 0.5674908 1.4008298 1.3689406 0.9736876 -0.6546446
-0.53541017 -0.7303597 0.057570234 0.020740839 0.09086245 0.13839343 0.15181933 0.39929724
-1.1705655 -0.5200144 -0.17995113 -0.46903 0.0035550257 0.5468484 -0.45388782 0.07817507
0.6775345 -1.9987521 -1.1259649 -0.1390357 -1.5208019 -0.6545021 0.4347633 -1.5702537
-0.55368036 0.53123546 0.34180254 1.1577811 0.13082545 -0.26782194 -0.45277268 -0.37050983
-1.75354 -1.8122205 -1.0293827 1.5763546 2.7106783 1.0465903 -0.4522738 -0.6420883
-0.51995295 -2.1869524 -1.7692752 -1.0217934 0.67115766 1.425007 0.11078081 -0.31406268
-0.23437776 -0.22391781 -1.5646917 -1.2650346 -1.2704 -0.1117294 -1.060779 -0.7094208
1.4324374 1.2375121 1.237939 1.0639832 1.5249258 1.5484457 -0.8873889 -2.5951788
-0.7136627 1.0068729 -0.22644927 0.70271766 0.9111676 1.546299 2.0729458 -0.8171769
-1.0214695 -0.07084908 0.85988057 0.69295037 1.4255788 1.288651 1.565012 2.0351827
0.2747658 0.12017303 0.4722921 -0.09785074 0.3106498 0.23619024 -1.161958 -0.2554042
-0.6455744 -0.18945377 -0.2154068 -0.22588849 -0.6591952 1.1272562 0.48790747 -1.0236652
0.54447335 -0.7266975 -0.029365223 -0.1117477 0.12629712 -1.0571555 0.26503882 -0.059300918
-1.2196834 -0.23263639 -1.0873936 -0.117702916 -0.15652582 -0.15932369 -0.80914074 -1.3211771
-0.5422544 -2.0351362 -1.8779969 -1.4169487 0.25474697 0.20324479 0.032973345 -1.6928414

down_convs.2.conv1.bias f4 [12]
00000000: bc97 a33c 983e 18bb e7f9 3d38 725b d8bc
00000010: 51c5 203c 966c 393c 8c19 6e3b 39ae 11bc
00000020: 60e7 0c37 4ce9 6dba 7af9 af3b e93f a837
0.019969814 -0.0023230668 4.529385e-05 -0.026410792 0.009812669 0.011317393 0.0036331145 -0.008891636
8.3985215e-06 -0.00090755965 0.005370316 2.0056921e-05

down_convs.2.conv2.weight f4 [12, 12, 3, 3, 3]
00000000: 004a fcbe e3de 7abe 0617 65be 62ad 85bf
00000010: 9b51 2bbf c931 60bf d322 a0bf f97d 41bf
00000020: 5def 8abf c9ca dabe 74b3 863e 17bd 653d
00000030: 71b5 47bf e395 d0be 5060 dbbe bf25 90bf
00000040: d916 fcbe 0aaa 65bf 945d 68bb 5012 b33e
00000050: 75e9 fc3d b430 29be b9ca 1abe abea 0abe
00000060: 61cc 35bf 1a5b c2be 5bb4 85be 9c57 a53e
00000070: 10db ec3f 536f a73f 96b8 683f c67c 1140
00000080: c720 933f 3c2e 3640 6198 0a40 6991 833f
00000090: bb62 b73f b15b 2140 1761 c93f a333 0e40
000000a0: 0b28 3d40 2e99 e13f 2df2 1340 7de0 173f
000000b0: 6283 ec3e f893 1bbf d42e f43e cf4f f1be
000000c0: 4972 81bf 1695 4c3e 720a 49be d619 e83f
000000d0: 23c8 bc3f 2aab 863f 5900 46be 2c67 d7bd
000000e0: f5a3 6dbe 4dd3 0fbe 4258 25be e28b 35be
000000f0: e1e5 49be 0dd7 76be d925 7fbe 20e9 34be
00000100: 2c84 f8bd cfd6 67be cee3 70be dce5 f7bd
00000110: fd9c a5be d401 72be 34c4 40be e05d 92be
00000120: 6189 48be 1277 84be db8c 83be 9377 1bbe
00000130: 1b98 e3bd 4226 70be 5a13 6ebe 044f 60be
00000140: 67b7 8fbe e949 e6bf a972 85bf d764 b2bf
00000150: 859b a63e c3d4 8f3f 13bf 413e b276 983f
00000160: 8016 c93f ea1f 453f 3361 79bf 6e38 70be
00000170: 86cb 54bf 11dd 653f d348 a83f d36c 2e3f
00000180: 370b de3f 4f2b c93f 3d4a 463f 2af0 bcbe
00000190: 60b1 bcbd 030c 3ebf 8ea2 ba3e a158 953f
000001a0: 4a90 d53e fbb8 473f 0eb3 bb3f 667c c03f
000001b0: 41ab a93e 9038 6e3e 57af d43e c399 8b3f
000001c0: c02c a83f 068d 0c40 68d3 e33e 5ae6 77bd
000001d0: 63c3 9d3f 5041 773e 7482 e13d da3c 1f3f
000001e0: 91c3 323f 513e 913f 2137 4740 e166 89be
000001f0: fd1b de3d 8655 f23f 1d2a 64be 444f f3bd
00000200: be98 923e a0d1 663f 36af ba3f 166f 2540
00000210: dc65 613e 4c7b ab3e da69 0340 1338 a33e
00000220: 4a54 bf3f 0e6b f53e ca19 7abf 9c2b f73d
00000230: 7567 d13e db53 edbf c240 503e 8086 9d3f
00000240: 075f 063f e2c3 ce3e 3057 58bf a765 3dbf
00000250: 88a9 cd3e 96ac cb3e d8f1 d1bf abc4 843f
00000260: 8ebd 0640 6393 56be 92cd 7abd 3b3e dbbf
00000270: 6eeb 2cbf 271d b43e d56f c23e 3ff6 94bf
00000280: afd2 2e3f d763 a83f 09c7 1e3f 3f8b 883e
00000290: 8c34 0cbd 7c32 473f c46b 193f 375b af3e
000002a0: 14d6 80be b942 a1bf a570 bfbf bd83 313f
000002b0: 6124 123f b6d3 2d3f 28b7 803f e50e 433f
000002c0: 1eca 133f f01e 313c 70dc 5abf ee44 0ec0
000002d0: b470 4cbf 6d37 25bf 0ff1 ebbe b677 573f
000002e0: 8fd7 713f 9156 af3e d324 e33f 6e5e 813f
000002f0: 73e7 39bf 6937 97bf b917 ab3d 1b55 133b
00000300: ac50 cd3f 6421 2440 e19d bd3f 4f71 0740
00000310: 164f 1140 af09 1e40 c9f0 dc3e 186e d23f
00000320: cd62 ae3f 4307 2740 d73f 1e40 ae08 3240
00000330: dc21 2040 0158 e83f e626 2440 c0a9 29bf
00000340: 96b3 623f d8fa 063f e4f9 b43f d393 1040
00000350: 35cf df3f a578 e33f 2d39 f33f 03dc e03f
00000360: f988 1fbe 05db 53bd 5954 933d 5aa0 853e
00000370: 297a 923c b4be 0a3e 1d7d 8c3d 0427 8bbe
00000380: 119c 40be b045 0cbe e153 83be 61b4 a0bd
00000390: be31 02bd 0aee bebd 0791 c7bd f4cd a4bd
000003a0: 05e8 7dbd 03e7 cabd 7638 cabd f72d c5bc
000003b0: d893 fc3d 8ee5 23bc 4d87 dfbd f4b1 b8bc
000003c0: fe59 b83d e0ef 13bd 94a8 263e 7e3a 833f
000003d0: fd81 ae3f 9501 ab3c 667f db3f dcc8 fb3f
000003e0: fe82 443e 3396 ccbe 2a84 88bf fcf8 6cbf
000003f0: 16e3 dd3e 450b ae3e 33e3 93be 6379 bb3f
-0.49275208 -0.24499087 -0.22372064 -1.0443537 -0.66921395 -0.87575966 -1.2510628 -0.75582844
-1.0854298 -0.42732838 0.26308787 0.056088533 -0.7801123 -0.40739354 -0.42846918 -1.1261519
-0.4923618 -0.89712584 -0.0035456168 0.3497491 0.12349216 -0.16522485 -0.15116395 -0.13566081
-0.7101498 -0.3796013 -0.26114163 0.32293403 1.8504353 1.3080848 0.90906656 2.2732406
1.1494378 2.846572 2.1655505 1.0278751 1.4327005 2.5212214 1.5732754 2.2219017
2.955569 1.7624872 2.3116562 0.59326917 0.46193987 -0.6077266 0.47691977 -0.47131202
-1.0113002 0.19978747 -0.19632891 1.8132885 1.4748577 1.0520985 -0.1933607 -0.10517725
-0.23207076 -0.14045449 -0.16146949 -0.17729142 -0.19716598 -0.24105473 -0.24916781 -0.17667055
-0.12134585 -0.22640537 -0.235244 -0.12104389 -0.32346335 -0.2363351 -0.18824846 -0.28587246
-0.19583656 -0.25872093 -0.25693402 -0.15182333 -0.11112996 -0.23452094 -0.2324957 -0.21905142
-0.28069612 -1.7991306 -1.0425617 -1.3937024 0.32540527 1.1236805 0.18920545 1.1911223
1.5709991 0.7700182 -0.9741394 -0.23459026 -0.8312305 0.89790446 1.3147224 0.681348
1.7347172 1.5716342 0.7745703 -0.3690198 -0.09213519 -0.7423708 0.36452144 1.1667672
0.41711646 0.7801663 1.4664018 1.5037963 0.3313847 0.23263764 0.41540024 1.0906299
1.3138657 2.1961074 0.44497228 -0.060522415 1.2325252 0.24146008 0.1101121 0.6220223
0.6982966 1.1347142 3.1127398 -0.26836303 0.10845182 1.893235 -0.2228169 -0.11880353
0.28632158 0.9016361 1.458472 2.5849051 0.22011513 0.33492506 2.0533357 0.3187872
1.4947598 0.4793324 -0.976956 0.12068865 0.40899244 -1.8541216 0.20337203 1.2306671
0.5248875 0.40383822 -0.8450804 -0.73983234 0.40168405 0.3978011 -1.640193 1.0372518
2.1053195 -0.20954661 -0.061231203 -1.7128366 -0.6754674 0.3517849 0.37975946 -1.1637648
0.6829023 1.3155469 0.62022454 0.26668736 -0.0342298 0.7781141 0.5993006 0.3424928
-0.2516333 -1.2598487 -1.4956251 0.6934164 0.5708676 0.6790117 1.0055895 0.761946
0.5773028 0.010810599 -0.8549261 -2.2229571 -0.7985947 -0.645377 -0.4608235 0.8416704
0.9446954 0.34245732 1.7745613 1.0106943 -0.7261879 -1.1813785 0.08354134 0.0022481147
1.6040244 2.564538 1.4813806 2.1162908 2.270452 2.469341 0.43152454 1.6439848
1.3623902 2.6098182 2.4726465 2.7817798 2.5020666 1.8151857 2.5648742 -0.6627464
0.88555276 0.5272651 1.413876 2.2590225 1.748511 1.7771193 1.9001824 1.7567142
-0.15579595 -0.051722545 0.071938224 0.260989 0.017880516 0.1354931 0.06859801 -0.27178204
-0.18809535 -0.13698459 -0.25649932 -0.078469045 -0.03178572 -0.09322746 -0.09744459 -0.08047095
-0.06198885 -0.09907343 -0.0987405 -0.02406977 0.123328865 -0.010003461 -0.109144785 -0.022545792
0.0900154 -0.036117435 0.16275245 1.0252225 1.3633419 0.020874778 1.7148254 1.9670672
0.19190595 -0.39958343 -1.0665333 -0.9256742 0.43337315 0.33992973 -0.28884277 1.4646419

down_convs.2.conv2.bias f4 [12]
00000000: 4925 3a3b 5e5e c5ba 5f10 0ebb 29e7 883c
00000010: 9623 453b 734d 23b5 5748 c0ba 42da 98b9
00000020: 458b acba 7553 d9ba 3d2c 7338 0185 bab8
0.0028403571 -0.0015058031 -0.0021677238 0.016711788 0.0030081025 -6.0834935e-07 -0.0014669996 -0.00029154314
-0.0013164064 -0.0016580658 5.7976915e-05 -8.893945e-05

down_convs.2.norm0.weight f4 [12]
00000000: 215c 463f 1ac3 0f40 e2ef 983e 8809 ed3f
00000010: 5d4b e63f 6ff8 0240 1244 b03f ade7 2340
00000020: 1cbc 5f3e 7562 623f f2ff 973f 5e2b 2b3f
0.7748433 2.246283 0.29870516 1.8518534 1.7991749 2.0464132 1.3770773 2.5610154
0.21849102 0.88431484 1.1874983 0.6686305

down_convs.2.norm0.bias f4 [12]
00000000: 04cb ed3d 9c76 eabe 6237 36bf 753d e3bf
00000010: b7f1 88bf 2d53 ff3f 04d4 79bf 9cf0 28bf
00000020: 308a 00bf f08b dd3d 1273 a8bf e2a1 03bf
0.11610988 -0.45793617 -0.7117826 -1.775313 -1.0698766 1.9947258 -0.97589135 -0.6599214
-0.5021086 0.108177066 -1.3160117 -0.5141889

down_convs.2.norm0.running_mean f4 [12]
00000000: 14d1 e0c1 1ce8 e841 f150 3bc1 3361 6842
00000010: 11ac 5641 e9d5 fa40 4396 1041 288b 983f
00000020: fbe9 99c1 0e90 8442 aa11 aa41 91b9 19c1
-28.102089 29.113335 -11.707261 58.09492 13.417008 7.838612 9.036685 1.1917467
-19.239248 66.28136 21.258625 -9.607804

down_convs.2.norm0.running_var f4 [12]
00000000: 3a2f cc44 5111 a844 4423 8344 4dc1 a544
00000010: 7de4 f043 00b9 7944 fdaf fe43 de3b d044
00000020: 8b59 1244 bc31 c144 67a2 b143 d530 1843
1633.4758 1344.5411 1049.102 1326.0406 481.78506 998.8906 509.3749 1665.8708
585.3991 1545.5542 355.26877 152.19075

down_convs.2.norm1.weight f4 [12]
00000000: 405d af3f d940 a63f a55b 0e40 d50c f63f
00000010: c582 c33f 84b5 a93d 0561 8a3f 06e5 e43f
00000020: aa46 a23f bf12 d83f cd53 dc3e e28a 0e3f
1.3700333 1.298854 2.2243435 1.9222666 1.5274283 0.082865745 1.0810858 1.7882392
1.2677815 1.6880721 0.43032685 0.5568067

down_convs.2.norm1.bias f4 [12]
00000000: 3f86 f9bf 5975 19c0 43c3 abbe acfd 06bf
00000010: 229b 20c0 2e79 27bf 606e c1bf c0b1 bbbf
00000020: 85ae 09c0 df77 8bbf f740 9abf 0b01 0abf
-1.9494094 -2.3977873 -0.3354741 -0.5273082 -2.5094686 -0.6541928 -1.5111809 -1.466362
-2.1512768 -1.0895957 -1.2051076 -0.5390784

down_convs.2.norm1.running_mean f4 [12]
00000000: f961 f641 11ca 65c1 a155 4dc2 b49a 42c1
00000010: e2ed bec1 829f f540 fed8 cac1 e53d 82c1
00000020: 0e22 12c2 5028 6c3e 2350 3ec1 ef6a 85c2
30.797838 -14.361833 -51.333622 -12.162769 -23.866154 7.675721 -25.355953 -16.280222
-36.533257 0.23062253 -11.894565 -66.708855

down_convs.2.norm1.running_var f4 [12]
00000000: 7d36 2d45 40fb ea43 073a 9444 c2c9 1744
00000010: 3ee0 6f44 e057 1144 cbe6 0744 ac27 5e45
00000020: 46c1 6c44 9dc0 4f44 9823 0845 4918 d544
2771.4055 469.9629 1185.8134 607.15247 959.5038 581.37305 543.60614 3554.4795
947.0199 831.0096 2178.2246 1704.7589

down_convs.3.conv1.weight f4 [24, 12, 3, 3, 3]
00000000: 8837 133f 5bb2 413f 809f 243f 8a55 ac3e
00000010: 3d53 9a3f 3e67 353e 53a6 613d a9ef ab3f
00000020: 45ee 10be 68dc 8f3e 8067 2c3f 26f7 923f
00000030: f157 3a3e d9bd 143f 7f92 8bbe f8b1 60bc
00000040: 70d8 723f ae57 2fbf f456 923f 718c d93f
00000050: 0069 8f3f 6070 a33e 7335 933f b360 8cbe
00000060: f381 443d c045 803f 98fb 0abf bc08 f1bf
00000070: 93e4 eb3e 85d1 1a3f 5c29 0dc0 284d 603d
00000080: d156 7f3f e43e 08c0 0be2 b7be 0fc4 d83f
00000090: d456 73bf bcc7 943f eb88 bd3f 7798 a6bf
000000a0: 7f02 453f ef00 c33f 5791 86bf a5bd 453e
000000b0: 1003 f63f 6bca 00c0 d7a1 b03e e73d 103f
000000c0: 2f98 1dc0 311d 61be 89bc 583f 759c 05c0
000000d0: c07f 24bf 3e58 d73f 0e80 80bf 0e12 8abe
000000e0: 2e63 0bc0 ece8 27bf 6536 663f 8f07 21c0
000000f0: a895 403f bf82 a03f 40d9 fcbf 8af0 e2bf
00000100: 147f 853d f557 49bf 1951 b5bf 9ee4 0f3f
00000110: 3147 b8bf 28ee 803e 4815 833f 74a2 c0bf
00000120: 156f 81be 9f3a 593f 6229 12c0 3b81 c7be
00000130: 17ff e53f f454 03c0 a370 853e a2d6 f53f
00000140: 43db c1bf 2d57 08c0 1c53 8f3f 57aa 96bf
00000150: cbd2 10c0 ad61 cf3f 47ad 0cbf 07b0 0cc0
00000160: 9232 d53f 5c27 21be 0b2d 0dc0 2122 a63f
00000170: 0911 a7bf b8ef 05c0 7d97 ba3f 643d 4fbf
00000180: f6ed 06c0 eb0a c63f 1ec0 fdbe 1728 ccbf
00000190: 8a9c 1640 c002 febf 0d1d f0bf f0bb e63f
000001a0: 496f 9ebf 9760 0fc0 66b4 8f3f 188c 9cbe
000001b0: a070 77c0 f7c1 cabe ebbc b4bf 122d 4ac0
000001c0: 8f13 59be d18b f13b eff6 57c0 ba76 b7be
000001d0: 6fc9 f13e 2c77 43c0 73b0 fd3e 184d 1abe
000001e0: 0aee 0cc0 3f07 81bd 44ec 253f bedb 0ec0
000001f0: fcdc 1fbf da50 0b3f 4c0a 4dc0 ff0d a33f
00000200: 76bf 163f e9f9 2fc0 d139 9d3e c345 833f
00000210: df5c 27c0 845f 03bf 431b 813f cb4d 84be
00000220: a29d 76be a3ae 0bbf 597d f0be 55ee 9ebe
00000230: e4fa bfbe 450e 0fbf 265c 10bf 986b 46be
00000240: eaa6 69be 9224 9bbe 8e61 2ebf 8ad4 d5be
00000250: 859d d3be 2183 ddbe f3d6 a5be 469b f7be
00000260: 7e3d abbc 81a4 13bd cb87 f0be e6fa 53bf
00000270: a03e 54bd ad55 16bf 8ce9 f6be 72f4 9a3d
00000280: a3f1 88be 59b1 163b b29f bdbf 6b5e 9c3e
00000290: 0f50 763f 2827 c4bf 4f54 193d 9d4e 333f
000002a0: 592f b9bf 76e2 34be 3859 893f dd5c a7be
000002b0: 0b72 8c3f fd3d 0140 23ad 26bf c7d5 2a3f
000002c0: df2c b63f b44b e5be 776e b63e d516 863f
000002d0: 78fb 83bf 52ad 0f3f 0d72 b93f a63a c6bf
000002e0: 8944 e1bd da48 233f d3be cbbf 038e 10bf
000002f0: bb03 443f bc9c f93f b42c ae3f c0cc 2a3e
00000300: bc5b d33c 14e4 30b9 e03c 163d fa2a f5be
00000310: 7fd2 6d3d e0f3 203e fef6 1b40 4cc3 3f3f
00000320: ddf2 983e 64be bd3e 7cdb e1bf 9086 31bf
00000330: 546a aabe 7ad3 e4bf 503a b2bf a69f 5640
00000340: 7c8f cd3f d2dd 0d3f a04a a83f ab6c f5be
00000350: f855 96bd c849 233f 58cd 88bf b8bb 3bbf
00000360: 11f6 f1bf e632 f7be 3f08 a8bd 13a7 13c0
00000370: 0b11 97bf 08f2 943c 6b78 ebbf 6bfd 7cbf
00000380: f200 653e f985 bfbf d60e 873e 61fb ed3f
00000390: 3698 e1bf cbd1 67bf d44b a03f 6acb 8cbf
000003a0: 0108 c2bf ede0 783e 103a dabf 9d2a 003f
000003b0: e9ae e43f 56a2 c5bf 1340 4bbf 18cb a93f
000003c0: 299e a3bf 56ea a5bf 64c9 b13e 0949 4bbe
000003d0: 77ef 97be 82c3 66bd d3bd 5f3e 0089 3c3f
000003e0: 522e 3fbe e418 ac3e d19e b23f d50a b7be
000003f0: 2158 ffbe 72f3 a9be 923e 893f bcf1 c93d
0.5750661 0.75662774 0.6430588 0.3365901 1.2056652 0.17715165 0.05509026 1.3432513
-0.14153393 0.28097844 0.6734543 1.1481674 0.1819761 0.58102185 -0.27260205 -0.013714306
0.9486151 -0.68493164 1.1432786 1.6995984 1.1203918 0.31921673 1.1500686 -0.27417526
0.04797549 1.0021286 -0.5429015 -1.883079 0.46072826 0.6047595 -2.2056494 0.054761082
0.99741846 -2.1288385 -0.35914645 1.6934832 -0.95054364 1.1623454 1.4807409 -1.3015279
0.76956934 1.523466 -1.0513104 0.19310625 1.9219685 -2.0123546 0.34498474 0.56344455
-2.4624135 -0.21983792 0.8466268 -2.0876744 -0.6425743 1.6823804 -1.0039079 -0.269669
-2.1779284 -0.65589786 0.8992675 -2.5160863 0.7522836 1.25399 -1.97538 -1.7729657
0.06518379 -0.78649837 -1.4165374 0.5620822 -1.4396726 0.251817 1.024087 -1.5049577
-0.2528006 0.84855074 -2.2837758 -0.38965783 1.7968472 -2.0520601 0.26062497 1.9206126
-1.5145038 -2.1303208 1.1197238 -1.1770734 -2.2628658 1.6201683 -0.549519 -2.1982439
1.6656058 -0.1573767 -2.2058742 1.2979165 -1.3052074 -2.0927563 1.457748 -0.8095305
-2.108274 1.5472082 -0.49560636 -1.5949734 2.3533044 -1.9844589 -1.8758866 1.8026104
-1.2377712 -2.2402704 1.1226928 -0.30575633 -3.866249 -0.39601108 -1.4120153 -3.1590009
-0.21198867 0.0073714037 -3.3744466 -0.3583277 0.47223994 -3.0541487 0.49548683 -0.15068471
-2.2020288 -0.0630021 0.6481364 -2.232162 -0.6244657 0.54420245 -3.2037535 1.2738646
0.58885896 -2.7496283 0.30708173 1.0255665 -2.6150434 -0.5131762 1.0086445 -0.258406
-0.2408357 -0.5456335 -0.46970633 -0.31041208 -0.37496102 -0.5588115 -0.5639061 -0.19376981
-0.22817579 -0.30301338 -0.68117607 -0.41763717 -0.41331115 -0.43264106 -0.32390556 -0.48360652
-0.020903345 -0.036045555 -0.46978602 -0.82804716 -0.051817536 -0.5872448 -0.48225057 0.075661555
-0.26746854 0.002299389 -1.481436 0.30540785 0.9621591 -1.532445 0.03743392 0.7004183
-1.4467574 -0.17664513 1.0730352 -0.32688037 1.0972303 2.0194085 -0.65107936 0.6673245
1.4232444 -0.4478432 0.35631153 1.0475718 -1.0311117 0.5612384 1.448793 -1.5486648
-0.109994 0.6378304 -1.591761 -0.5646669 0.7656819 1.9500957 1.3607392 0.16679668
0.025800578 -0.00016869634 0.03667915 -0.4788435 0.058062073 0.15718031 2.4369502 0.74907374
0.2987279 0.3705932 -1.7645106 -0.6934595 -0.33284247 -1.7877038 -1.3924046 3.3534942
1.6059413 0.55416596 1.3147774 -0.4793447 -0.07340616 0.63784456 -1.0687666 -0.7333331
-1.8903219 -0.4828102 -0.08204698 -2.3070724 -1.1802076 0.018181816 -1.8396124 -0.98824185
0.22363642 -1.496276 0.26378506 1.859234 -1.7624576 -0.90554494 1.2523141 -1.0999577
-1.5158693 0.24304552 -1.7048969 0.5006502 1.7865878 -1.5440166 -0.79394644 1.3265104
-1.2782642 -1.2962139 0.3472396 -0.1985208 -0.29674885 -0.056338795 0.21849756 0.73646545
-0.18670014 0.3361274 1.3954717 -0.35750452 -0.49871925 -0.33193547 1.072222 0.0986056

down_convs.3.conv1.bias f4 [24]
00000000: 329e 1539 d034 7e33 48ad 9d39 ed1c 1636
00000010: 355d 49b8 1195 5b38 743a d4b9 9d9a c238
00000020: 5587 b1b8 7218 72b9 39da 29b3 0bf8 17b9
00000030: 96d5 49b5 84e2 4739 5d17 11b9 eac8 3637
00000040: 0e63 de34 6c15 bc38 79b6 5fb5 5b77 6038
00000050: ba6a 1d39 05a5 4bba d77f efb7 28e1 8537
0.0001426868 5.9187016e-08 0.00030074478 2.2368579e-06 -4.800894e-05 5.2352498e-05 -0.00040479342 9.27944e-05
-8.465225e-05 -0.00023088025 -3.954685e-08 -0.00014492885 -7.5189143e-07 0.00019062503 -0.00013836981 1.0894824e-05
4.1422794e-07 8.968529e-05 -8.3339506e-07 5.351692e-05 0.00015012446 -0.0007768425 -2.855055e-05 1.5959682e-05

down_convs.3.conv2.weight f4 [24, 24, 3, 3, 3]
00000000: 75e1 943f 73f0 bbbd dd37 d8be 423a b43e
00000010: d36a eabe ba25 52bf 57f6 683e c3f3 b5be
00000020: bd99 9abf 28a3 a53f c5bb c4bd 3790 8bbe
00000030: 13b0 c43e 0fca a0be c244 07bf 760a ab3e
00000040: 286a 46bd bd60 41bf c4bf eb3e 4c43 e8be
00000050: e718 a7be 793c 443e 44ce 18bf 52ef 59bf
00000060: cca6 a7bd 825c 4bbf c963 bdbf b114 e53d
00000070: b02f 903d 7009 ac3d b990 423c 4bf4 c03d
00000080: 57f6 413e f645 293c 6dee 07bc 9af0 643c
00000090: beab ef3d 9b56 183e 1eef 943d 8a53 fc3d
000000a0: 58d6 cc3d 153b 083e 473a 4eba 6afc 0e3d
000000b0: c476 193e ed4c 353e 625a 113d 6d68 e53d
000000c0: 81fa 093e aaea 033e 8f3a cd3d 21cd b73c
000000d0: 73ba 303b a9a1 b6bc 7fff 75bf f4a4 15bf
000000e0: c053 7dbf 5061 d6be 602a 99be 1520 32bf
000000f0: 6b3c 9ebd aae1 6b3e dab7 8bbe c084 13be
00000100: 33e9 c03e 5a4e 07be 3bee 7cbc 4a28 f03e
00000110: 4255 af3c 2f7f d2be 3567 4dbd ed8c 4ebe
00000120: 5e5e 07bf 529e 47be d18c 31bf 75ee 1abf
00000130: bdf5 9abd 0349 dcbe 7733 f7be 7cda 5abe
00000140: 4aca 44be d0c4 28be e30b b43d a20a 83be
00000150: 71bb 923d 2165 123e c7a0 1bbe c02d a23d
00000160: 55a3 8c3d 9289 88be 143f a03e ce32 c53e
00000170: 27f0 7f3c e838 ba3e 258f 1e3f 4e35 2c3e
00000180: f467 c83e ddc4 f13e 79d3 26be 79e2 473d
00000190: 7bc5 3d3e 13c4 18be 9ecd 003e a3c1 153e
000001a0: 60ed 27bd 9246 d03d 9cd3 1c3d 00ea 7dbe
000001b0: d1a6 80bf 9a9e 4bbf cbda 8fbf 0cdd 25bf
000001c0: bba1 09bf 17a6 7cbf 4d37 f3be 849c afbe
000001d0: c2be 51bf b12f 35be c50b 203d 5fae d7be
000001e0: 4826 2dbd 610f 1c3e be98 c0be d006 03bf
000001f0: f64e 95be f922 23bf a909 063e 6056 ed3e
00000200: a9be 35bc 32ef 9a3e c8d0 1a3f e93f 1f3d
00000210: 20e4 88be f2f2 833c 3023 dcbe 38c2 43be
00000220: ef12 70be 9e87 35bf d2ed 813d d97c 4e3d
00000230: ec98 d6be 63d2 8f3e 1cd6 933e d8d7 00be
00000240: f6f4 f63e 0574 ff3e b8a2 47be 1228 b83d
00000250: 125f 3b3e 52f6 e3bc fce3 d23d a17d 873d
00000260: 97e5 d5bd f5b0 123e 0bd2 dc3c a2f3 d3be
00000270: 0a20 b73e 2bd5 f43e 520d 4c3e 0d43 b83e
00000280: 9826 8d3e e706 fe3d 1826 c7bf 86c6 41bf
00000290: 5031 05bf b31d 61bf 8248 edbe 359d dfbe
000002a0: 88a6 763c 0f32 3e3e daf7 73be 976f 45bf
000002b0: a428 46bc 4617 00bd e5e1 7bbe 5767 9c3d
000002c0: 5e05 d6bc eb89 c13e 62c6 c53e 80e0 b7bc
000002d0: a756 a2bf 611e 49bf abde 64bf de35 58bf
000002e0: 27d8 3dbf 4712 5bbf 0d1e 493e 9ec0 c03e
000002f0: 626f 193c 78e6 b0bf 5815 85bf 6c42 70bf
00000300: 93a1 69bf a679 2fbf 663e 67bf dfaf 16be
00000310: 1c58 443e 3020 2ebf c397 d4be 233f 7d3e
00000320: 17f0 3f3e ffd6 d8be e5a7 9fbe 1f5a 0fbe
00000330: bca4 2abf b73f 91be b068 c6be f9ce 1bbf
00000340: 3134 22be ab11 1dbf dd79 53bf fdd9 febe
00000350: ca2c 28bf 47cc 1dbf 8f21 30bf b00a d0be
00000360: 3e30 5fbf 64d6 5fbf 949c 0cbf 5b05 e0be
00000370: 256e 84be 72ab 07bf 00c7 b0be 852a 84bd
00000380: 95aa e33d 376e 77bf 33ae 6ebf 22e0 21bf
00000390: 858b 83be a8fb 2ebe 9ff3 d2be 7079 adbe
000003a0: c7e0 603e 1f83 963e bf80 a1bf dd15 88bf
000003b0: f5dd 3fbf da29 1cbf 7a6f 28bf 6605 4dbf
000003c0: 5a1b a1be 47ed 853e 1394 0bbe c670 9abf
000003d0: c01f 49bf e8b2 44bf faee 13bf 5d1d a0be
000003e0: d3c8 d3be 8af5 893e d860 0a3f abaf 3e3e
000003f0: 69f4 1cbf 0086 553e c02d 1e3e 9fbe 08bf
1.1631304 -0.091767214 -0.4223012 0.35200697 -0.45784625 -0.82088816 0.22750221 -0.35537538
-1.2078167 1.2940416 -0.09606127 -0.27258465 0.38415584 -0.31404158 -0.5283929 0.3340642
-0.048441082 -0.75538236 0.46044743 -0.45363843 -0.32636186 0.19163693 -0.59689736 -0.851308
-0.08186111 -0.7943803 -1.4796077 0.11185587 0.07040346 0.084002376 0.011875325 0.09421595
0.18941627 0.010331621 -0.008296591 0.0139733795 0.11702679 0.14876787 0.072721705 0.12320621
0.1000182 0.13303788 -0.00078669604 0.03490869 0.14986712 0.17705126 0.035486586 0.11201558
0.13474466 0.12882486 0.10020935 0.02243668 0.00269666 -0.022293882 -0.9609298 -0.58454823
-0.9895592 -0.4187112 -0.29915142 -0.69580203 -0.077263676 0.23035303 -0.27288705 -0.14406109
0.37677917 -0.13213482 -0.015437658 0.46905738 0.021402959 -0.41112658 -0.050147254 -0.20170946
-0.5287837 -0.19493988 -0.69355494 -0.60520107 -0.07566402 -0.43024454 -0.48281452 -0.21372408
-0.19217792 -0.16481328 0.0879133 -0.2559405 0.07164658 0.1429639 -0.1519805 0.07918882
0.068670906 -0.26667458 0.31298125 0.38515323 0.015621222 0.3637154 0.6193717 0.16817209
0.3914181 0.47220507 -0.16291608 0.048799966 0.18532364 -0.14918546 0.12578437 0.14624648
-0.040997863 0.1016971 0.038287744 -0.24796295 -1.0050908 -0.7953888 -1.1238645 -0.64790416
-0.53762406 -0.98690933 -0.4750313 -0.342991 -0.819317 -0.17693974 0.039073724 -0.42125222
-0.042272836 0.15240242 -0.37616533 -0.5118227 -0.29161805 -0.6372524 0.13089623 0.4635496
-0.01109282 0.30260617 0.60474825 0.03887931 -0.26736546 0.016107056 -0.42995596 -0.19117057
-0.23444723 -0.7091006 0.06344189 0.050412033 -0.41913545 0.280902 0.2887429 -0.12582338
0.48233765 0.49893203 -0.19495666 0.08992018 0.18297985 -0.027827416 0.10297391 0.06615759
-0.104441814 0.14325316 0.026955625 -0.41396815 0.3576663 0.47818884 0.19926956 0.35988656
0.27568507 0.1240366 -1.55585 -0.7569355 -0.5202837 -0.8793594 -0.46344382 -0.43674627
0.015054353 0.18573783 -0.23825017 -0.771234 -0.01209465 -0.031272195 -0.2459789 0.07636898
-0.026125606 0.37800536 0.38627917 -0.022445917 -1.2682694 -0.7856198 -0.89402264 -0.84457195
-0.7415795 -0.85574764 0.1964037 0.37646955 0.009364935 -1.3820333 -1.0397139 -0.9385135
-0.9126217 -0.68544996 -0.9032959 -0.14715527 0.19174236 -0.68017864 -0.41522035 0.24731116
0.18743931 -0.4235153 -0.3118278 -0.13999222 -0.66657615 -0.28368923 -0.38751745 -0.6086269
-0.15840222 -0.61355084 -0.82607824 -0.49775687 -0.6569334 -0.6163983 -0.68801206 -0.40633154
-0.87182987 -0.8743651 -0.5492642 -0.43754086 -0.25865284 -0.5299598 -0.34526825 -0.064534225
0.1111652 -0.9665255 -0.93234557 -0.63232625 -0.25692382 -0.17088187 -0.41201493 -0.33881712
0.21960746 0.29396912 -1.2617415 -1.0631672 -0.74948055 -0.6100136 -0.657951 -0.8008636
-0.3146618 0.2615759 -0.13630705 -1.2065666 -0.7856407 -0.7683549 -0.57786524 -0.31272402
-0.41364154 0.26945144 0.5405402 0.186217 -0.6131044 0.20851898 0.1544714 -0.53415865
