outputs/outputs_new_diff_mask/epoch_90_model.pth (torch, 694854 bytes, 241 tensors)

down_convs.0.conv1.weight f4 [3, 1, 3, 3, 3]
00000000: c3de 9cbe f4f1 8f3f 83e3 893f 0031 33c0
00000010: 94e6 06c0 138e e8bf 8ea1 8ebf dfa7 9f3e
00000020: 514d 4fbe 9144 d83d 2778 a93f 9d9f 7f3f
00000030: 9fdf 66bf 81bc f9bf 33fa 3bc0 a9fa 1cbf
00000040: 30dd bc3f ee58 103f ef72 313e ff8d 993f
00000050: 6de1 a43d a210 adbe 34b7 a0bf 60d0 3fc0
00000060: b1a4 e4bf 5a8f 94bd b07d 81bf c8f1 42be
00000070: 9715 f4be a716 c2be 330d 9d3f c95c 4140
00000080: 2ad3 e73f 5913 afbf 3100 81bf e846 68bf
00000090: e330 3dbe fac4 8cbf e9d7 91be 5a57 0e40
000000a0: 0924 3740 dd08 2240 622e 19bf 18a2 6abf
000000b0: 7a3c 09bf 630e c53e 9b27 f73d 2257 a63e
000000c0: d6ba ad3e 6bc5 ef3f a416 c73f 56b7 32be
000000d0: 2b9a 00bf 61c6 04bf 72cb a73e 5267 2e40
000000e0: bc6a 2fbf 484f dcbe fac0 53bf 2125 bebe
000000f0: 31aa 193c 8e4c 823f cbcb 2bbf cdfe 3440
00000100: d26a 2240 9981 7e3f 7fdc d3be 3f19 0bc0
00000110: 97b0 3bbe f8ef 873f 7dd7 a63f ada8 fe3e
00000120: 3a73 0cbf 242a cb3f b593 dabf 3214 edbd
00000130: 9812 90be 9985 933e 52da e4be 7904 b93e
00000140: 1cae 30bf
-0.30638704 1.1245713 1.0772556 -2.7998657 -2.1078234 -1.8168358 -1.1143053 0.31182763
-0.20244338 0.10559953 1.3239793 0.99852926 -0.9018497 -1.9510652 -2.937146 -0.6131998
1.4755001 0.56385696 0.17329 1.1996459 0.08050809 -0.33801752 -1.2555909 -2.9970932
-1.786276 -0.07253905 -1.0116482 -0.19037545 -0.47672722 -0.37907907 1.2269653 3.0212882
1.8111317 -1.367778 -1.0078183 -0.90733194 -0.1847568 -1.0997612 -0.2848504 2.2240815
2.8615744 2.531791 -0.598364 -0.91653585 -0.53607905 0.3848754 0.12068101 0.32488352
0.33931607 1.8732122 1.5553784 -0.1745275 -0.5023524 -0.518652 0.32772404 2.7250562
-0.6852224 -0.43029237 -0.82716334 -0.37137702 0.009378956 1.0179613 -0.6710784 2.8280518
2.5377698 0.994165 -0.41379163 -2.173416 -0.18329082 1.0620108 1.3034512 0.49738064
-0.5486332 1.5872235 -1.7076327 -0.115761176 -0.28139186 0.28812864 -0.44697815 0.36136225
-0.6901567

down_convs.0.conv1.bias f4 [3]
00000000: 7dfc d6bd 72a0 3abd 10c6 1f3d
-0.10497377 -0.04556317 0.039007246

down_convs.0.conv2.weight f4 [3, 3, 3, 3, 3]
00000000: 73f8 b43f 717d ec3e 20ee d73e 41a6 b5be
00000010: 7e36 ea3e 65ae be3e a9ca 1e3f faaf b6bd
00000020: 9caa 12bf 1993 c53f bcd7 533f 9416 693f
00000030: 8404 80be 1b97 eebd b42e 353c e832 80bd
00000040: 2dad 0c3e 44c2 adbd cd10 ae3f b836 443f
00000050: 98d5 8d3f c69e 5f3e cad4 f2bd 69e2 0ebe
00000060: d48b f43d e228 c63e e3f3 0c3f 0002 523e
00000070: cf94 f23e e108 703f 3a8c 7f3f e2e5 04bd
00000080: cf0f 99bf 13cf 15c0 5bd1 afbf 5fbd cebf
00000090: 969f 073f c302 c6bd 78f9 92be 4acd c7bf
000000a0: dc06 53bf 07a5 083e a8cc 3e3f 7804 883f
000000b0: 2aa9 debf bf7f c43f d1af 343e 18c7 65bf
000000c0: 1a92 56c0 bfd9 eabf 603c db3e a6c9 953f
000000d0: 7a55 243f 5aec 1ec0 a042 bb3f 7428 263e
000000e0: 6a8d bb3e 8ee0 94bf f386 3cbf 506f a2bf
000000f0: 934b a13f b629 3c3e cb1f 7b3e 830b 2cbf
00000100: a2df 55bf a251 973d 024f ba3f 9801 1140
00000110: 44c0 19bf 49e2 86bf 7bc6 6dbf 5203 213f
00000120: a5f1 b0bf ef6f cabf 4d33 9c3f 88ae 0b40
00000130: 5a02 c43f 23d7 a0bf 35ee b8bf 4a94 47bf
00000140: 9e94 a93f c811 4f3e f769 cf3d 46b3 0dbd
00000150: 8aa7 943e 2809 643e e5d6 713e f3c7 9f3e
00000160: b309 64be 7666 a4bf 1e5a a13d d580 023e
00000170: 64c7 1d3f d0c3 903e 8122 08bd 38e2 f43c
00000180: 00ba 1e3f 978b 883f 871e e0be 85fa 82bf
00000190: d6b1 59bd eef1 b63e e563 773e c806 82bc
000001a0: 740c 31be 8dd1 e93c 6b30 bf3e dbbe 1ebf
000001b0: 3003 a63f ea38 603f 064c c73f 31b6 0440
000001c0: a612 843f b1d0 2a40 8cf6 dc3d 11d2 803e
000001d0: 663d 71be 0482 983f a2bb 783f 4742 c83f
000001e0: dd64 fc3f a6d3 813f 62e6 ad3f cefb 213e
000001f0: 0a4d 463f d973 ca3e f20e f33f 5dcc da3f
00000200: 6fff 1a40 2b0f 2440 53b0 d93f 05ef 2940
00000210: 389f 20be feda 3dbd 5ad1 5abe 5c4c 0bbf
00000220: 16a0 a9be 76db 393e 5be0 c63f 2466 16bf
00000230: d5a8 2c3f 02a3 0abe 8324 91be 61f1 603f
00000240: 4599 72bf 588d e33d d123 13bf c8da 35bf
00000250: 6203 99bf 96c5 1fbf a81b 9e3f c444 3b40
00000260: 460a 183f 74fa bfbf 6247 acbf 29fd adbf
00000270: c3ff 573f c528 62bf 2260 6b3f edc5 c63f
00000280: f01f ca3f 91a6 7d3f fd5f c23f 7c67 8f3f
00000290: 68de 893f 7395 ad3e 1c95 893f 496e 263f
000002a0: a7fb 9bbf 2af7 edbf 8f2d ecbf b890 943f
000002b0: 0cdf 1a3f b05e 443f 35cf 043e 89c8 013f
000002c0: 520b fe3e b6e1 a8be b73b c1bf cf19 b0bf
000002d0: db28 663f 3f79 0f3d 1a07 f13d 6e8b 173d
000002e0: bdd3 3d3e c9ac 3e3d ee15 f2be f033 23bf
000002f0: e7d6 63bf 4e2b f23e f264 46be 02db bc3f
00000300: 06b5 bc3d 5709 a33e 6bad 183f 7d1c 913f
00000310: fcda 0e40 0f38 b33f 8975 d8be 5498 0abf
00000320: 6d0b 063f 0ad1 9bbf 2349 72be de40 1dbc
00000330: 4677 d83f 200d 1640 4005 743f ab31 6f3f
00000340: 4f3c d53e 549f ec3f ab01 b9bf 834a 07bf
00000350: 9212 d3be f82b 203f c769 283f e235 50be
00000360: 0cfa 9e3f 033e 6dbf ef9e a03f b873 d13f
00000370: f697 923e 453b 1240 b702 d83f 2230 813f
00000380: 8e0f a93f 1189 5fbf 51db 21bf 07b4 8cbf
00000390: 776d c1bd cea6 df3f 898a a73e 381b a43e
000003a0: e5f7 ba3f 7aed 983f a82d e23f f38e b1be
000003b0: 4ee7 fd3f 353e 363f 4542 14bf 4d8d 913f
000003c0: 9873 9b3f de00 7b3f 7173 0740
1.4138321 0.46189454 0.42173862 -0.35478404 0.457447 0.37242427 0.62027985 -0.089202836
-0.5729158 1.5435516 0.8275106 0.91050076 -0.25003445 -0.11649915 0.011058498 -0.062597096
0.13737936 -0.08484319 1.3598877 0.76645994 1.1080809 0.21837911 -0.118569925 -0.13953556
0.119407326 0.38703066 0.5505964 0.20508575 0.47379157 0.9376355 0.99823344 -0.032445796
-1.1957949 -2.3407638 -1.3735765 -1.6151541 0.52977884 -0.096684955 -0.28705955 -1.5609524
-0.8243234 0.13344203 0.7453103 1.0626364 -1.7395375 1.5351485 0.17645194 -0.8975692
-3.3526673 -1.8347701 0.428195 1.1702163 0.64192927 -2.4831758 1.4629707 0.16226369
0.36631328 -1.1631029 -0.73643416 -1.269022 1.2601188 0.18375286 0.24523847 -0.67205065
-0.8354436 0.07388617 1.4555361 2.2657223 -0.60059 -1.0537807 -0.9288098 0.6289569
-1.3823744 -1.581541 1.2203156 2.1825275 1.5313218 -1.2565655 -1.4447695 -0.77960646
1.3248479 0.20221627 0.10127633 -0.034594797 0.29034072 0.22269118 0.23617132 0.31207237
-0.22269325 -1.2843769 0.078785166 0.12744458 0.6163237 0.28274393 -0.03323603 0.029893026
0.62002563 1.06676 -0.4377329 -1.0232702 -0.053148113 0.35731453 0.241592 -0.015872374
-0.17289907 0.028542304 0.37341627 -0.6200997 1.2969723 0.87586844 1.5570076 2.07362
1.0318191 2.6689875 0.107892126 0.25160268 -0.23558578 1.1914678 0.97161305 1.5645226
1.9718281 1.0142715 1.3585932 0.15818712 0.774613 0.3954151 1.8988936 1.7093617
2.4218404 2.5634258 1.7006935 2.6552136 -0.15685737 -0.046351425 -0.21368924 -0.5441339
-0.33129948 0.18150124 1.5537218 -0.58749604 0.6744512 -0.13538745 -0.2834817 0.87868315
-0.9476512 0.111109436 -0.57476526 -0.7103696 -1.1954157 -0.6241087 1.235219 2.9260721
0.59390676 -1.4998307 -1.3459284 -1.3592883 0.84374636 -0.8834346 0.9194356 1.5529152
1.5790997 0.99082285 1.5185543 1.1203456 1.0770998 0.33903083 1.074863 0.6501203
-1.2186173 -1.8591053 -1.8451403 1.1606665 0.6049659 0.7670698 0.12969668 0.5069662
0.49618012 -0.32984704 -1.5096349 -1.3757876 0.8990609 0.03502774 0.11768933 0.036998205
0.18537803 0.0465515 -0.47282356 -0.63751125 -0.8899979 0.47298664 -0.19374445 1.4754336
0.09214215 0.31843063 0.59639615 1.1336819 2.2321157 1.4001483 -0.42277172 -0.54138684
0.52361184 -1.2173169 -0.23660712 -0.009597985 1.6911399 2.344551 0.9532051 0.9343516
0.41647574 1.8486123 -1.4453634 -0.5284807 -0.41225106 0.6256709 0.65786403 -0.20333055
1.2420058 -0.9267275 1.2548503 1.636344 0.28631562 2.2848675 1.6875829 1.0092814
1.3207872 -0.8731852 -0.63225275 -1.099244 -0.09444707 1.747278 0.3272288 0.32052016
1.4606901 1.1947472 1.7670183 -0.34679374 1.9836214 0.7118867 -0.5791362 1.1371247
1.2144651 0.980482 2.116421

down_convs.0.conv2.bias f4 [3]
00000000: 7e28 6fbd 874f e2bc 266d 83bb
-0.058388226 -0.027625812 -0.0040108142

down_convs.0.norm0.weight f4 [3]
00000000: 8653 403f 7206 093f d3eb 8a3f
0.75127447 0.5352546 1.0853218

down_convs.0.norm0.bias f4 [3]
00000000: 7a63 2ebf fa6d 86c0 0173 1dc0
-0.6812054 -4.200925 -2.4601443

down_convs.0.norm0.running_mean f4 [3]
00000000: 9672 d8bd 495d 3cbd 8fe8 123d
-0.105687305 -0.0459874 0.035866316

down_convs.0.norm0.running_var f4 [3]
00000000: 51fc 3743 008a 0a43 80b4 4942
183.98561 138.53906 50.42627

down_convs.0.norm1.weight f4 [3]
00000000: 024a 9e3f 57ef 403f e722 e23f
1.2366335 0.75365204 1.7666901

down_convs.0.norm1.bias f4 [3]
00000000: 5084 b9bf 13d8 d2c0 d03c d6bf
-1.4493504 -6.5888762 -1.6737309

down_convs.0.norm1.running_mean f4 [3]
00000000: f666 ff3e 6d63 5c3e 622d 5d3f
0.4988324 0.21522303 0.86397374

down_convs.0.norm1.running_var f4 [3]
00000000: 9766 3941 69ab 8a41 e25c 4f42
11.587546 17.333696 51.840706

down_convs.1.conv1.weight f4 [6, 3, 3, 3, 3]
00000000: 8545 f93e 1b26 483e 184c eb3e fee2 c9be
00000010: 16e4 803e 8f3c 9c3f ae2f 14bf 186b 0cbf
00000020: a576 56bf e40e 43bf 79c7 c4bf c685 8dbf
00000030: 7b47 82bf 449c 47bf 6485 a0be ed77 3a3e
00000040: 36b0 b13e 4f2f 86bd fa6f 85bf bf17 dabf
00000050: a95a 82bf c1e9 6cbf 40ef d0be e9ec b23d
00000060: 0e61 3a3f 3ed2 a03f 9db4 2f3f b656 a9bf
00000070: 393e 25bf 12b6 cf3f 1fa2 c9bf 1efa 8fbe
00000080: 2327 573f 0790 7d3f b2fe 1ebc 1a1d abbf
00000090: 89a5 e0bf 7131 23bf 525a 74be e9cf 2dbe
000000a0: 7467 7d3f 78d2 abbd 9bf7 1140 708e 993f
000000b0: f147 98bf db03 33c0 2615 bfbf e53e 8cbf
000000c0: 4777 ab3e 95cd 653f 9f9f 1abf 33fc 2540
000000d0: c02b 1740 2865 3abe abab a23f 158d 9cbf
000000e0: 3181 c13e e60e 27bf ff7c 4cbf 3bfb 643f
000000f0: 33dd 7c3e 251f 37bf e25c a6bf 32c6 92bf
00000100: 8e8a d2bf 52f2 69bf f4c8 84bf b736 0bbf
00000110: af7e 90bf ee15 8c3f e6b2 f53e 15e7 9cbf
00000120: 7bda 0bc0 03e6 13c0 a3c4 8abe dd56 62bf
00000130: c863 08bf 7a01 cfbf 178f 903f a5bc 8b3f
00000140: 16ba f6be 0a3b b33e fde5 513f c088 503f
00000150: f221 43bf be83 ae3e 96a6 e23e 5e9a cb3e
00000160: b422 083f 6c90 f8bd 41cd ed3e 01df ecbe
00000170: e7c9 80be ca89 49bf e25b 43be 2dbc ae3e
00000180: 764b e43e 9d74 2640 a3bb 993f 875e 283f
00000190: 10f3 23bd 8269 0fbf c3f7 14bf ac6c c5be
000001a0: 753e 0e3e beb3 1e3e 21c3 af3f f9ad 0740
000001b0: 790c 003f ff47 843f bfed 453f 3fbb 37bf
000001c0: 506e 83be 9b85 88bf 1883 debf 971b b8bf
000001d0: c27d 6abf 786a 343c 1625 233e 6b00 8ebb
000001e0: 1e36 0abf 6559 e73f 834d d43d b5b2 c4bf
000001f0: 07db 433f e3fc 09bf c061 e2be 23c4 58bf
00000200: fbd2 4bbf 7b79 9dbf 2f51 833f 0ed1 fdbe
00000210: 84b1 34c0 46b8 4bbf f885 fbbf 36e0 c2be
00000220: 44f2 a83e ec7f 98bd bddd a3bf fbba 3abf
00000230: 3b8e c3bf e569 d9bf 6d81 99be e565 e7bf
00000240: 0d58 37be 4a59 d93e 6365 873d 614b 07be
00000250: f5a0 d93f 45bc c5bb b343 f83e b219 a740
00000260: 9c93 aa3f 53c4 06be 23bf 23be 3a1a 94be
00000270: c7d0 d3be 1def 8b3f 6d9e f2be 2659 023d
00000280: 2f13 8840 c5b7 a53f 7eb7 eebf 203c 67bf
00000290: b737 8fbf 8a4e 11be c34d 52be d13e abbe
000002a0: 2940 523f 8e55 4c3f d87d 703f d3cb 1cbf
000002b0: 8faf 09be eccc 45bd 2362 1c3f afad 31be
000002c0: 4269 983b 8a5f 9b3f d90a 0e3f ad80 423f
000002d0: 5659 dfbe 51a1 423e 9046 7bbe 859f 0e3f
000002e0: 919b 0b3e c1c9 843e 41c2 173f 85c1 843f
000002f0: 69b9 b43e 9af6 40bf ca07 6cbf 61df afbf
00000300: fb9d 14bf de80 03bf 466d 333e 669a 5d3f
00000310: 2719 c93e 560a 833f 9494 75bf 3618 97bf
00000320: cb36 0ebf b4c8 58bf 07a5 20bf a86f b53e
00000330: 3ec1 8d3e 2cf2 70bf 2d64 6c3f 4dcd dbbf
00000340: f964 71bf d857 16bf 3530 52bf 247b 2dbe
00000350: 97e5 093f b730 753f 45f0 863f d699 1e40
00000360: 91f3 a7bf 73f0 b7bf 9a95 f0bf 5a05 573e
00000370: 391a 693e 7b0f 6f3e 5566 873f e604 563f
00000380: 3e87 ad3f 4cae debf 6c25 e6bf a9aa a5bf
00000390: 152b 38be 5db7 35be 0648 8c3e 99d6 503f
000003a0: e161 3a3e 3c89 a93f 57a4 dabf 0081 dabf
000003b0: b93a b1bf 3aba a2be 289e f3bd 4b3e bb3e
000003c0: 5840 803f 1d8c 6d3f 9676 de3f b068 e1bf
000003d0: 4bfe 8fbf 2fcb 89bf bcec a5bf 26d8 e73f
000003e0: 6366 3240 9296 15bf 49c7 8d3f be4c 0340
000003f0: 9a61 77bf 8aa7 8ebf 8e8d 9dbf 85a2 f3be
0.48685852 0.19545786 0.45956492 -0.39430994 0.25174016 1.2205981 -0.57885253 -0.5485091
-0.8377479 -0.76194596 -1.5373374 -1.105645 -1.0178064 -0.7797282 -0.3135177 0.1820981
0.3470475 -0.06551992 -1.0424798 -1.7038497 -1.0183917 -0.9254418 -0.40807533 0.08736593
0.72804344 1.2564161 0.6863497 -1.3229587 -0.6454807 1.6227438 -1.57526 -0.28120512
0.8404409 0.99047893 -0.009704279 -1.3368256 -1.7550517 -0.63747317 -0.2386258 -0.16973843
0.9898598 -0.08389753 2.2807376 1.1996593 -1.1896955 -2.7971103 -1.4928329 -1.0956694
0.3348944 0.8976682 -0.6039981 2.593518 2.3620453 -0.1820265 1.2708639 -1.2230555
0.37793878 -0.6525711 -0.7987823 0.8944585 0.24693756 -0.715319 -1.2997096 -1.1466734
-1.6448534 -0.91385376 -1.0373826 -0.54380363 -1.1288661 1.0944192 0.4798805 -1.2258021
-2.18521 -2.3109138 -0.27103147 -0.8841379 -0.53277254 -1.6172326 1.1293668 1.0916945
-0.48188847 0.3500598 0.8199156 0.81458664 -0.7622367 0.34084886 0.4426772 0.3976621
0.5317795 -0.12136921 0.4644566 -0.46263888 -0.2515404 -0.78725874 -0.1907802 0.34127942
0.44588822 2.6008675 1.2010387 0.6576924 -0.040026724 -0.5602037 -0.58190554 -0.38559473
0.13891013 0.15498254 1.3731424 2.1199934 0.5001903 1.0334471 0.77315897 -0.7177009
-0.256701 -1.0665773 -1.7383757 -1.438342 -0.9159814 0.011011712 0.15932116 -0.004333546
-0.53988826 1.8074156 0.10366347 -1.5367037 0.76506084 -0.539015 -0.44215202 -0.8467428
-0.79618806 -1.2302698 1.025915 -0.4957356 -2.8233347 -0.79578054 -1.9650259 -0.38061684
0.32997334 -0.07446274 -1.2802044 -0.7294156 -1.527778 -1.6985441 -0.29981557 -1.8077971
-0.17904682 0.42450935 0.06611135 -0.13212349 1.7002245 -0.0060344064 0.4848915 5.2218866
1.3326297 -0.13160829 -0.15990882 -0.2892626 -0.41370222 1.0932347 -0.47386494 0.0318233
4.2523417 1.2946707 -1.8649747 -0.9032612 -1.1188878 -0.14190117 -0.20537476 -0.33446363
0.8212915 0.79818046 0.9394202 -0.6124851 -0.13445877 -0.04829113 0.61087245 -0.17351411
0.0046512196 1.2138531 0.554853 0.75977594 -0.43622845 0.1900685 -0.24538636 0.5571216
0.13633563 0.25935176 0.5928078 1.0371557 0.35297707 -0.75376284 -0.92199385 -1.3740045
-0.5805356 -0.5136851 0.17522153 0.8656372 0.39277002 1.0237529 -0.9592984 -1.1804264
-0.5555236 -0.8468125 -0.6275181 0.3543675 0.27686495 -0.94119525 0.92340356 -1.7172028
-0.942947 -0.5872779 -0.8210481 -0.16941506 0.5386595 0.9577746 1.0542074 2.4781394
-1.3121206 -1.4370254 -1.8795655 0.20998135 0.2276391 0.23345749 1.0578104 0.83601224
1.3556898 -1.7396941 -1.798017 -1.2942706 -0.17985184 -0.17745729 0.273987 0.8157745
0.182014 1.3245006 -1.7081403 -1.7070618 -1.3846046 -0.31782705 -0.118954 0.36570963
1.0019636 0.9279192 1.737994 -1.7610073 -1.1249479 -1.0765132 -1.2962871 1.8112838
2.7874992 -0.5843288 1.1076442 2.051559 -0.96633303 -1.1144879 -1.2308824 -0.4758493

down_convs.1.conv1.bias f4 [6]
00000000: fee9 afbd 2766 c9bd 17c9 4e3c b94d 22be
00000010: f564 c438 7132 c6bc
-0.08589552 -0.09833937 0.012621186 -0.15849961 9.364813e-05 -0.024193974

down_convs.1.conv2.weight f4 [6, 6, 3, 3, 3]
00000000: bd09 41bf 70a2 3bbf 0a96 a23e e422 71be
00000010: 9f1d ba3f 4f87 0a40 efc0 37bf 5eb6 0f3e
00000020: f82b 443f 1eba 8dbe 7d50 b3bf dd52 183e
00000030: c93d 31bf a96a ba3e 0be1 813f 6cb9 dbbd
00000040: 8a6d 653e b666 133f 847e b63f a4c7 19bf
00000050: c4e9 3f3e 6c87 24bf 3090 17be fe2e 4b3e
00000060: fbc2 d23e 6b8c 3a3f 7112 5c3f 0ad2 a23e
00000070: c9a9 333f f922 853f 7455 e7be 012a 4ebf
00000080: 04ba 49be 1f3c 183f df12 1f3f d8bc 8c3f
00000090: f5d0 e83c 5a75 1f3f d9bf 3f3f e5f8 80bf
000000a0: ab39 bcbf 9ece 16bf ed1c 86be b3c6 13bf
000000b0: 6ca3 acbe 4c40 2f3f 7f4f 353f 34c2 8b3f
000000c0: 6646 493f e637 353d 22a1 733f b132 703f
000000d0: de17 7ebc e686 b7be 415a 923f 02cf 3d3f
000000e0: 8b60 213f 8317 e4be 4909 8fbf 0d41 42bf
000000f0: 65d3 c2be e1ee cbbd 11ef 103e 5d74 2c3f
00000100: d880 37be b63a afbe 71fd 72bf 858d c5bf
00000110: 8032 93bf f25d 4abe 94c5 083e f285 cb3e
00000120: a3a5 633f 820f eb3d a4ab b1be 9176 0abf
00000130: e301 90bf 3e13 3fbf 3e4e 733e 4f53 403e
00000140: baab cf3e 6d91 3140 24fc 7a40 afb3 6b40
00000150: e33b 203f 9286 223f 2b2b bc3f 952f 67bb
00000160: fa57 84bf 410c 293c bea4 1240 8820 5840
00000170: b811 1d40 500b 1ebf f763 21bf c6ca bc3e
00000180: cd74 a7bf 1fbb 55c0 aef5 84bf 15a7 0d40
00000190: 4304 4740 4203 2c40 d235 373f 20ef 5a3e
000001a0: 5462 b23f 15c1 7c3d ffcf d1bf e5f3 923d
000001b0: 0ad8 813e 30ec c33e 721d 9c3e 96c1 953e
000001c0: cb64 753e d0f3 b73d 3709 653e fec4 b0bc
000001d0: a80b 2fbe 1912 cb3e 0fd1 e23e e50d 043f
000001e0: 15ac 1b3e 7855 91bc 5498 243e f5d6 1dbe
000001f0: 89c8 43be 373b 35bd 30d6 d83e 6130 8c3e
00000200: fa4a 103f 754a c1bd ea4d 1ebe 3e76 8e3d
00000210: 8dbd a8bd dae7 13be a76f 44be 0632 11be
00000220: 09d4 203f 2cdd 943f 34ba 653f 87ba d93e
00000230: 21cf 253f aedb 90bf 3ffb 04c0 4015 c7bf
00000240: 71a0 4fbf 7930 07be b447 9a3e c46b 87be
00000250: 2f74 e6be a5c5 a4be ab9e 09c0 d11a 34c0
00000260: 6b2b 14c0 9143 d5bf aeab 42bf 29a9 603d
00000270: 1cff 0ebf 51e7 d8be 5164 42bd 5e32 f3bf
00000280: 4f72 26c0 d47a 12c0 3564 94bf 5bc6 d8bf
00000290: a938 bebf 5082 02c0 fb57 0ec0 9401 13c0
000002a0: 56d6 cebe ef29 9bbf fa2c 56bf f99e a2bf
000002b0: 16d5 7abf 541f 5fbf ad3b e0bf 8fe0 44bf
000002c0: 93cc b2bf 6b44 8dbf 7c12 e7bf ff6b dcbf
000002d0: 68b8 d4bf 44d6 94bf 976f 43bf f6cf 00c0
000002e0: 972a a1bf 2129 a4bf 7d74 c5bf da39 08c0
000002f0: 78cd a4bf 4c36 f13e ca21 e03e 45a6 653f
00000300: 5d4b f03d 74b3 93bf 50f6 e83c c784 1abf
00000310: 92a6 13c0 e4af b7bf a31e 0b3f 73ab 9abe
00000320: c214 003d ba6e edbd c3d7 4dc0 cab8 7ebf
00000330: 99f6 9fbf e62a 9bc0 9203 39c0 1d38 3d3f
00000340: 289f f63e 166a 2e3f 350e 973f 3cd7 bbbd
00000350: 5543 9f3e 2aa4 ba3d 6077 00c0 ec2c 85bf
00000360: f032 8cbd 8961 25bd 511d fb3e f571 aa3f
00000370: 977f 663f cf45 0b3f 08cc c9be 3c6d adbe
00000380: 3e3b acbe 3606 ad3e ca1f 803f ae03 ad3f
00000390: a05a ac3c 7bb8 9fbe 3c62 0dbf 8b53 2fbe
000003a0: c9f3 a5be 0e04 a6be e4e0 a13f f2ad c93f
000003b0: f31f b33f 7c4c 5bbd e48c 8dbe 58cb 43bf
000003c0: e3f6 c7bb 67c4 d5be ea96 89be a1e8 0a3e
000003d0: 50ee 6a3e 8b52 b63d f2b4 08bf f7ea 82bf
000003e0: c86a 0bbe 5a42 20be de1b 8cbf 2779 30bf
000003f0: 3029 5d3e b233 653f 8f57 363f b1d5 c1bf
-0.75405484 -0.73294735 0.31755096 -0.23548466 1.454029 2.1645086 -0.7177877 0.14034411
0.7662959 -0.2768106 -1.4008938 0.1487536 -0.692349 0.364095 1.0146803 -0.10728726
0.22405067 0.575786 1.425736 -0.6007025 0.18741518 -0.6426914 -0.14801097 0.19842145
0.41164383 0.7287051 0.8596564 0.31800872 0.70180947 1.0401298 -0.45182383 -0.8053284
-0.19699866 0.5946674 0.6213817 1.099513 0.028419951 0.6228844 0.7490211 -1.0075957
-1.4705099 -0.5890902 -0.26193944 -0.57725066 -0.3371843 0.68457484 0.70824426 1.0918641
0.78623044 0.044242762 0.95167744 0.9382735 -0.01550862 -0.35845107 1.1433793 0.74143994
0.6303794 -0.44549188 -1.1174709 -0.7588051 -0.38051906 -0.09957672 0.14153697 0.67365056
-0.17920244 -0.3422448 -0.9491797 -1.5433813 -1.1499786 -0.197624 0.1335662 0.3975063
0.88924617 0.11477567 -0.34701264 -0.5408717 -1.1250576 -0.74638736 0.23760316 0.1878178
0.40560704 2.774501 3.9216394 3.682842 0.6259138 0.6348659 1.4700674 -0.0035276164
-1.0339348 0.010317863 2.291305 3.3769855 2.4542065 -0.6173601 -0.6304316 0.36873454
-1.308252 -3.339546 -1.0387475 2.2133229 3.109635 2.6876988 0.715665 0.21380281
1.3936257 0.061707575 -1.63916 0.071754254 0.25360137 0.38266134 0.30491215 0.29249257
0.2396423 0.089820504 0.22366796 -0.021578308 -0.1709429 0.39662245 0.44300124 0.515837
0.15202363 -0.01774095 0.16073734 -0.15414031 -0.19119467 -0.044245925 0.42350912 0.2738066
0.56364405 -0.0943803 -0.1545941 0.06956147 -0.08239279 -0.14443913 -0.19183217 -0.14179239
0.6282354 1.1629996 0.8973725 0.42525122 0.6476918 -1.1317041 -2.0778348 -1.555336
-0.8110419 -0.13202085 0.3013283 -0.26449406 -0.45010516 -0.3218204 -2.1503093 -2.8141367
-2.31515 -1.6661245 -0.7604321 0.054848824 -0.55858016 -0.4236398 -0.04745895 -1.8999746
-2.6007268 -2.2887468 -1.1593081 -1.6935533 -1.4861041 -2.0392036 -2.22412 -2.2969713
-0.403979 -1.2122172 -0.8366238 -1.2704765 -0.97981393 -0.8715718 -1.7518212 -0.7690515
-1.3968681 -1.1036505 -1.8052516 -1.7220458 -1.6618776 -1.1627889 -0.7634215 -2.012693
-1.2591122 -1.2825052 -1.5426174 -2.128531 -1.2875204 0.47111738 0.4377578 0.8970683
0.117331244 -1.153914 0.028437763 -0.6035885 -2.3070416 -1.4350553 0.5434362 -0.3020893
0.031269796 -0.11593385 -3.216294 -0.99500716 -1.2497131 -4.8489866 -2.890843 0.7391375
0.48168302 0.68130624 1.1801211 -0.09171912 0.31106058 0.09113343 -2.007286 -1.0404334
-0.06845653 -0.04037622 0.49045804 1.3316027 0.90038437 0.54403394 -0.39413476 -0.33872402
-0.33638948 0.337938 1.0009701 1.3516748 0.021039307 -0.31195435 -0.5522802 -0.17121713
-0.32412556 -0.32424968 1.2646756 1.5756209 1.3994125 -0.053539738 -0.27646554 -0.7648215
-0.0061024292 -0.41751406 -0.2687295 0.13565303 0.22942472 0.089024626 -0.534011 -1.0227956
-0.13614953 -0.15650311 -1.0946004 -0.68934864 0.21597743 0.89532006 0.71227354 -1.5143338

down_convs.1.conv2.bias f4 [6]
00000000: 915a d8bc a138 54bf 69b2 9cbd eb1c 763c
00000010: 3d16 c6bc 1b59 403e
-0.026410373 -0.8289891 -0.076512165 0.015021543 -0.024180526 0.18783991

down_convs.1.norm0.weight f4 [6]
00000000: cd1e 0840 c032 a73f e960 ae3f 387f 913f
00000010: ccfe 31bd b04e 113f
2.12688 1.3062363 1.3623325 1.1366949 -0.043455884 0.5676069

down_convs.1.norm0.bias f4 [6]
00000000: 4ede 2540 7487 56bf 29ee d0be bd95 89bf
00000010: 2e5a 5fbf 8c1a 05c0
2.5916934 -0.83800435 -0.40806702 -1.0748821 -0.8724698 -2.0797453

down_convs.1.norm0.running_mean f4 [6]
00000000: 942d b3c0 864b 6840 85f6 14bf b7d2 4640
00000010: d82c 1e40 1f78 da40
-5.5993137 3.6296096 -0.5818866 3.106611 2.471487 6.827163

down_convs.1.norm0.running_var f4 [6]
00000000: cb7f 8e44 a1ce d143 5fb0 3b44 af84 f743
00000010: 10fe 3f43 db61 b644
1139.9935 419.6143 750.7558 495.0366 191.99243 1459.058

down_convs.1.norm1.weight f4 [6]
00000000: a4cd 773f 979f 0f40 f0e2 f43f 407e 393f
00000010: 7125 553f 02c8 0240
0.9679816 2.2441156 1.9131756 0.7245827 0.83260256 2.0434575

down_convs.1.norm1.bias f4 [6]
00000000: 67e2 aabf 4189 0740 9b02 d3be 1c63 e9bf
00000010: 8117 96be 292e b5be
-1.3350343 2.1177523 -0.41212925 -1.8233371 -0.29314807 -0.3538678

down_convs.1.norm1.running_mean f4 [6]
00000000: 5f24 8241 6751 d5c2 3940 5fc1 7767 8c41
00000010: 540d 36c2 e9c7 8542
16.26776 -106.65899 -13.953179 17.55052 -45.513016 66.89045

down_convs.1.norm1.running_var f4 [6]
00000000: 2d17 0a44 7a5c 5c44 a2ec 7843 c0d9 9d44
00000010: b511 0144 7552 4c44
552.3621 881.44495 248.92435 1262.8047 516.2767 817.2884

down_convs.2.conv1.weight f4 [12, 6, 3, 3, 3]
00000000: 5d18 783f 6020 243f 93ae 683f a01d 1c3f
00000010: 9e22 bc3d 003f 953e 1fb5 cc3f bd8f b23f
00000020: 9689 683f e9d0 8e3e bc7d 8dbe b35a 513e
00000030: 979e 643d cf1b b5be 7b76 1c3e 0a31 d73f
00000040: 0729 fe3f 6b81 973f 4d3c ad3f fa09 403f
00000050: c531 2e3f 779c 2f3f 33ea b53e cce6 cf3e
00000060: 6f42 d93f 7042 c83f bb3a a03f 8f20 5c3e
00000070: 5b94 f53e 3f67 9d3f 04cd e0be bf4e 4bbf
00000080: e831 db3e 9492 efbf 5b3c 2cc0 c274 33bf
00000090: f78d 1b3e c4ba a93f 049b 0d3e 45ea 4dbf
000000a0: 2128 53bf f8d4 7ebf ddad 48c0 7a44 8dc0
000000b0: 351c 1cc0 7df5 833f 17e9 1c3f 9d1b b43e
000000c0: d2f3 513e 1f3b 1abf 1478 b5be 7681 77bf
000000d0: c742 0dc0 0cac 96bf 6262 003f 9fa2 5bbe
000000e0: 5e5b ad3d c083 6f3e e8ca b73e 2503 8a3f
000000f0: adb1 b53f 1eaa d73f 6ab0 d73f 5158 87bc
00000100: 5d53 31bf 9f43 333f 590b 8abd 0c85 393d
00000110: 1574 ae3f 6c11 923f ca54 e33f 3838 1340
00000120: af14 03be 2ae3 2abd 8339 773f 11ed d6bd
00000130: 18bc 1d3f eeb7 d93f a1bc 093f 1379 c33f
00000140: 27f0 2040 ae5d 5e3e 9473 32bf 437b d1be
00000150: 4ca3 583f 4a83 4cbd e0b9 1c3a 97a5 973f
00000160: 10a0 353f bebb 163f e292 ffbe 271a 15c0
00000170: 1b16 32bf 14bf 413f fdb1 03bf 71e1 523e
00000180: fdbd 933f 3205 473f 9558 823f b191 143e
00000190: b781 50be 57b5 87bd 8f71 803f 99b1 5c3f
000001a0: e81e 4e3f 201b 953f fef8 af3f 49b3 c73f
000001b0: bda1 853f 3c69 393f 8aa2 8e3e 686f b83f
000001c0: 546a 923f 4ead 2e3f b035 ed3f b2ce 963f
000001d0: f724 823f e01b 583f bd6c 3a3f 3f54 003f
000001e0: b560 b43f 7e66 ba3f 6941 6c3f e7c1 df3f
000001f0: d590 bc3f 950d ac3f 12b5 e6bb c664 ed3e
00000200: 185a 573e 05ef 683f 8e9e 8a3f 8615 603f
00000210: b394 bc3f 0fd4 ce3f 0e8d cd3f 89f6 3abd
00000220: 5fce 8fbe b896 89bf 048e ea3d cfb0 8bbe
00000230: 9dc9 07bf 9da8 42be 8a25 25bf e57f 28bf
00000240: c87c 5cbf f40b 96be 5d71 96be cc46 1ebf
00000250: 0514 9bbe 9c7f f13d ed02 5cbf 5dae 45bf
00000260: 889a 5ebe b3a0 08c0 99cb 8dbf e71c 34be
00000270: b173 0ec0 bfec 8cbf 1368 783e 2092 2dc0
00000280: 17cf e4bf 8820 a8be ad41 133f 5bd8 8c3f
00000290: 5158 72be 723c b53e 4d48 7cbe 5b5e 9ebd
000002a0: cec9 1fc0 0582 16c0 af28 4dbf 457e 1840
000002b0: 5564 5140 03cb 933f f686 85be 6b7c 76bf
000002c0: dc20 21bf cee5 4bc0 48cd 1fc0 7725 a5bf
000002d0: 2180 6f3f 278a c83f a536 b2bd 7c9a 83be
000002e0: 7a11 d3be f808 24bc c701 13c0 f595 f4bf
000002f0: 4a6f b7bf 4fdc e5be 7d3d b4bf ce74 8abe
00000300: 86ca 933f 6edb b73f 87fe d33f c90b 673f
00000310: f8a5 ce3f ca0a da3f 9466 eabe 05e8 28c0
00000320: 13d3 b83d eb37 923f 76c9 7dbe 309a 803f
00000330: 51d9 303f 32d1 c53f e762 0740 186c c4be
00000340: f266 96bf 92bc 72be 353c 963f 0504 3d3f
00000350: 9b5e d93f f0a9 ab3f b97b ad3f 2900 fd3f
00000360: b1b1 4f3f eb89 523e 6f0d 0e3f 8d21 11bf
00000370: 15af adbe be05 f23d 51a5 c8bf 0097 83be
00000380: 5020 47bf d56d af3e f221 df3c 1d95 88be
00000390: 3af1 ddbe 189d 803f 8cc8 083f 5154 9ebf
000003a0: 23f3 0f3f 6d5e 3bbf f1bf c73d bdc3 57bc
000003b0: d5a1 ca3e 364e b1bf 859f a53d 79e2 4bbe
000003c0: 9408 acbf 2058 92be 730f 6dbf 6cd2 7e3e
000003d0: c794 1f3d 31b4 9dbe e1f3 0ebf c41d bdbf
000003e0: 001c ddbe b1eb 05c0 bee3 1bc0 a0b9 fbbf
000003f0: 4df2 973e 989c bb3e 1ddd 9ebd 18e1 10c0
0.96912175 0.641119 0.9089138 0.60982704 0.0918629 0.29149628 1.5992774 1.3950115
0.9083494 0.2789376 -0.2763499 0.20444755 0.055815306 -0.3537278 0.15279572 1.681184
1.985627 1.183637 1.3534027 0.75015223 0.6804469 0.6859812 0.35530242 0.40605772
1.6973399 1.5645275 1.2517923 0.21496795 0.4796475 1.2297133 -0.43906415 -0.7941703
0.42811513 -1.8716607 -2.6911838 -0.70100033 0.15190874 1.3260121 0.13828665 -0.8043559
-0.82483107 -0.99543715 -3.1356118 -4.414609 -2.4392216 1.0309292 0.61293167 0.35177317
0.20503166 -0.6024646 -0.35443175 -0.96681917 -2.2072008 -1.1771255 0.5015012 -0.21448754
0.084646925 0.23390102 0.35896993 1.078221 1.4194847 1.6848791 1.6850712 -0.016521605
-0.6926783 0.70025057 -0.06740446 0.0452929 1.3629175 1.1411567 1.776025 2.3003063
-0.12800859 -0.041720547 0.9657213 -0.104944356 0.61615133 1.7009256 0.5380345 1.5271324
2.5146577 0.21715423 -0.6970761 -0.40914354 0.8462417 -0.049929895 0.0005978625 1.1847409
0.7094736 0.5888022 -0.4991675 -2.3297212 -0.6956498 0.7568219 -0.51443464 0.20593812
1.1542355 0.777423 1.0183283 0.14508702 -0.20361982 -0.06626385 1.0034655 0.8620849
0.8051591 1.1648903 1.3747861 1.5601588 1.0439984 0.724262 0.27858382 1.4408998
1.1438699 0.6823319 1.8532009 1.1781828 1.0167531 0.84417534 0.7282217 0.5012855
1.4092013 1.4562528 0.9228731 1.7481049 1.4731699 1.3441645 -0.007040628 0.46365947
0.21030462 0.90989715 1.0829637 0.8753284 1.4732879 1.6158465 1.6058671 -0.04564527
-0.28087136 -1.0749121 0.114528686 -0.27283332 -0.5304201 -0.19009633 -0.64510405 -0.6582015
-0.861279 -0.29305995 -0.29383364 -0.6182678 -0.3028871 0.11791918 -0.85941964 -0.7721918
-0.21738636 -2.1348083 -1.1077758 -0.1758915 -2.2258112 -1.1009749 0.24258451 -2.7120438
-1.7875699 -0.3283732 0.5752209 1.1003526 -0.23666503 0.3539768 -0.24636956 -0.077328406
-2.4966922 -2.3516858 -0.80140203 2.3827069 3.2717488 1.1546329 -0.2607953 -0.96283597
-0.62940764 -3.1859012 -2.4969044 -1.2902058 0.93554884 1.5667161 -0.08701829 -0.257038
-0.4122427 -0.010011904 -2.2969835 -1.9108263 -1.4330838 -0.44894645 -1.4081265 -0.2704224
1.154618 1.436384 1.656205 0.9025236 1.61444 1.7034543 -0.45781386 -2.6391613
0.09024634 1.1423315 -0.24783882 1.0047054 0.690816 1.5454466 2.1154115 -0.3836372
-1.1750166 -0.23704746 1.1737124 0.7383426 1.6981996 1.3411236 1.3553382 1.9765674
0.8113051 0.20560424 0.5548925 -0.5669182 -0.3392264 0.118175015 -1.567545 -0.2570114
-0.7778368 0.34263483 0.027237866 -0.26676264 -0.43348104 1.0047941 0.5343101 -1.2369481
0.5623037 -0.7319096 0.09753407 -0.013169226 0.39576593 -1.3851993 0.080870666 -0.19910611
-1.3440118 -0.2858286 -0.926017 0.24884957 0.038960245 -0.30801538 -0.5584088 -1.4774709
-0.43185425 -2.0925105 -2.4357753 -1.9666023 0.29677048 0.3664291 -0.07757018 -2.2637386

down_convs.2.conv1.bias f4 [12]
00000000: 3fe3 8f3c 3a0f 13bb e7f9 3d38 7397 9bbc
00000010: 1cde a83c 058a 8c3b 782c 87ba 4b28 2cbc
00000020: 60e7 0c37 1abf c0bb 9760 1d3c a040 a837
0.017564414 -0.0022439496 4.529385e-05 -0.018993115 0.020613723 0.004288914 -0.0010312935 -0.0105076535
8.3985215e-06 -0.005882156 0.009605548 2.0057254e-05

down_convs.2.conv2.weight f4 [12, 12, 3, 3, 3]
00000000: 96cb 31bf 7caf efbd 7fac 4bbc d3b8 c2bf
00000010: 1cbf 18bf 5296 43bf 800b 05c0 2d8b 86bf
00000020: cdbf aebf eee4 4fbf 10f9 e33e b94b 4c3e
00000030: 0d24 6abf a9d3 0fbc ec7b 49be f1ac 8cbf
00000040: a4c7 57be 863a 6dbf b992 c0be 86d1 363e
00000050: 56d1 2b3e b9d4 0ebe 99a4 093d ddc7 be3e
00000060: a34d f8be 6993 2a3d c49b db3e 8550 ba3e
00000070: 961a d53f 8cea 683f 6a12 633e 7127 e03f
00000080: fc67 203f 8d78 4640 b2c2 1f40 8f61 5f3f
00000090: 1379 6b3f 13e7 1040 d8e2 de3f 3201 1240
000000a0: a15a 4c40 f987 1440 1be9 1040 07ce 053b
000000b0: c32e 4a3d a8ee 40bf d8a4 4a3f 72c5 2ebf
000000c0: dc11 b1bf ebe9 d43e 0ebb e2bd dcc7 0440
000000d0: 407e d63f a09f b13f 5900 46be 2c67 d7bd
000000e0: f5a3 6dbe 4dd3 0fbe 4258 25be e28b 35be
000000f0: e1e5 49be 0dd7 76be d925 7fbe 20e9 34be
00000100: 2c84 f8bd cfd6 67be cee3 70be dce5 f7bd
00000110: fd9c a5be d401 72be 34c4 40be e05d 92be
00000120: 6189 48be 1277 84be db8c 83be 9377 1bbe
00000130: 1b98 e3bd 4226 70be 5a13 6ebe 044f 60be
00000140: 67b7 8fbe c163 ddbf 8cbe 95bf e447 91bf
00000150: 81d8 e93e f566 913f 7c16 853e 4450 be3f
00000160: a6ff ff3f 7df8 413f 56af 57bf 95b7 4cbe
00000170: 1900 a6be d7b5 a13f 7c5d ab3f 1d68 983f
00000180: f727 0440 ea11 b03f 2b9b 493f 8808 50bf
00000190: 33a6 d5bd ee8d 7bbf 10eb c63e aa64 c53f
000001a0: 9470 063f b8dd 253f 9079 bc3f fec1 ad3f
000001b0: c086 a33e 27d9 313d 606e 0c3e 7e33 b63f
000001c0: f120 ca3f 0a55 0a40 d5c4 953f 8b32 283f
000001d0: cb40 0240 dc0c 023e eb90 25bf d832 723e
000001e0: b4ed 3f3f ab4b 963f 1b23 7540 b7f9 37be
000001f0: 52ef 59be 7f3e ef3f 77f6 f4be a11f 4cbf
00000200: 20e1 213e 9e9d 8d3f 972e d13f 4ec0 3f40
00000210: 7100 f73e 5011 b6be cee0 b53f 3af9 94bd
00000220: 4f55 1140 e979 863f d8b5 95bf 4753 0a3f
00000230: 7fc2 4c3e 87a9 1fc0 1250 073f 141b b33f
00000240: 9874 85be 6747 f93e 3300 3bbf 871d 9bbf
00000250: 7ac2 c03e 2022 01be 9c93 20c0 85fe 043f
00000260: a7ae e33f 4034 30bc ecd8 efbd c444 08c0
00000270: d82b 76bf 7495 083e 5c5e 5ebf 69c6 0cc0
00000280: e7b1 e93e 160d 803f 1b3a 483f 1af8 57bc
00000290: dc4f 9bbe 7dc6 2f3f 6c86 693e 44be 84bd
000002a0: c9f4 a0bd 8ee7 f5bf 511d 03c0 6cd1 973f
000002b0: 2931 173f 9040 a43f f3ac 823f 6b56 1d3f
000002c0: 0642 283f aeba 273e 1b14 c3bf a6bd 63c0
000002d0: 9fb7 8abf 403c 23bf 8c8b df3e a762 823f
000002e0: dd87 8f3f 7e25 d13e a782 ff3f a9d1 1b3f
000002f0: 61d2 f8bf 4a22 d4bf afa5 ddbe 2545 ac3f
00000300: 0a85 483f 7f13 ed3f 6996 6b3f 4507 dd3f
00000310: f415 2540 329d 0a40 b23c cdbc 2fbb 113f
00000320: 9b24 a23f c98f 923f d8f7 c03f a6d2 2140
00000330: 305f b53f 057a 8d3f eaa1 0f40 6b0b cfbf
00000340: 1343 84bf c658 73bf aa32 ae3f 7175 1240
00000350: ab6f f03f 6d3c 5d3f 68ad 7f3f 8778 dc3f
00000360: f988 1fbe 05db 53bd 5954 933d 5aa0 853e
00000370: 297a 923c b4be 0a3e 1d7d 8c3d 0427 8bbe
00000380: 119c 40be b045 0cbe e153 83be 61b4 a0bd
00000390: be31 02bd 0aee bebd 0791 c7bd f4cd a4bd
000003a0: 05e8 7dbd 03e7 cabd 7638 cabd f72d c5bc
000003b0: d893 fc3d 8ee5 23bc 4d87 dfbd f4b1 b8bc
000003c0: fe59 b83d e0ef 13bd 94a8 263e b938 ed3f
000003d0: f767 0640 ad11 203d a8ff fe3f eab3 0c40
000003e0: 8ea3 5abe 4bbc 29bf 9b06 d2bf 8752 e8bf
000003f0: 49b6 a13f f469 9c3f 9303 cd3e 1dff aa3f
-0.6945127 -0.11703393 -0.012431263 -1.5212654 -0.5966661 -0.76401246 -2.078827 -1.0511223
-1.3652283 -0.81208694 0.44525957 0.19950761 -0.9146126 -0.008778491 -0.19676179 -1.0990278
-0.2107225 -0.92667425 -0.3761194 0.17853364 0.16779074 -0.13948335 0.03360424 0.3726186
-0.48496732 0.041644488 0.42892277 0.36389557 1.6648738 0.9098289 0.22174993 1.7512037
0.6265867 3.1011078 2.4962583 0.8725824 0.9198162 2.2641037 1.7412977 2.281323
3.1930315 2.320799 2.2642276 0.0020416991 0.049361 -0.7536416 0.7915778 -0.6827003
-1.3833575 0.41584715 -0.11070834 2.0746984 1.6757278 1.3876839 -0.1933607 -0.10517725
-0.23207076 -0.14045449 -0.16146949 -0.17729142 -0.19716598 -0.24105473 -0.24916781 -0.17667055
-0.12134585 -0.22640537 -0.235244 -0.12104389 -0.32346335 -0.2363351 -0.18824846 -0.28587246
-0.19583656 -0.25872093 -0.25693402 -0.15182333 -0.11112996 -0.23452094 -0.2324957 -0.21905142
-0.28069612 -1.7296067 -1.1698775 -1.1350064 0.45672992 1.1359545 0.25993717 1.4868245
1.9999893 0.7576979 -0.84251916 -0.19991906 -0.3242195 1.2633618 1.3387904 1.1906773
2.0649393 1.3755467 0.7875239 -0.8126302 -0.104320906 -0.9826344 0.38851213 1.5421345
0.5251553 0.6479144 1.4724598 1.3574827 0.31938744 0.043419983 0.1371398 1.4234464
1.5791303 2.1614404 1.1700693 0.6570212 2.0352046 0.12700218 -0.6467425 0.23652208
0.7497208 1.1741842 3.8302677 -0.17966352 -0.212827 1.8690947 -0.47844288 -0.7973576
0.15808535 1.1063726 1.6342343 2.9961123 0.48242524 -0.35560083 1.420923 -0.07274099
2.2708318 1.0505954 -1.1696119 0.5403332 0.1999607 -2.4947221 0.5285655 1.3992639
-0.26065516 0.48687288 -0.7304718 -1.2118386 0.37648374 -0.12610674 -2.5090094 0.51950866
1.7787675 -0.010754645 -0.117112964 -2.1291971 -0.9616065 0.13338262 -0.8686273 -2.19961
0.4564354 1.0003994 0.7821366 -0.013181711 -0.30334365 0.68662244 0.22805184 -0.06481603
-0.07859189 -1.921129 -2.0486643 1.1860785 0.5905939 1.2832203 1.020903 0.6145999
0.65725744 0.16379806 -1.5240511 -3.5584502 -1.0837287 -0.6376381 0.43661153 1.0186356
1.1213337 0.40848917 1.9961747 0.6086679 -1.9439203 -1.6572964 -0.4329047 1.3458601
0.78328 1.8521575 0.9202638 1.7267843 2.579465 2.1658444 -0.025053356 0.56926244
1.2667421 1.145013 1.5075636 2.528482 1.4169674 1.1052862 2.2442575 -1.617536
-1.033297 -0.9505733 1.3609211 2.288418 1.8784078 0.8642033 0.9987397 1.7224282
-0.15579595 -0.051722545 0.071938224 0.260989 0.017880516 0.1354931 0.06859801 -0.27178204
-0.18809535 -0.13698459 -0.25649932 -0.078469045 -0.03178572 -0.09322746 -0.09744459 -0.08047095
-0.06198885 -0.09907343 -0.0987405 -0.02406977 0.123328865 -0.010003461 -0.109144785 -0.022545792
0.0900154 -0.036117435 0.16275245 1.8532935 2.1000955 0.039079357 1.992177 2.198481
-0.21351454 -0.6630294 -1.6408266 -1.8150185 1.2633754 1.2219834 0.4004179 1.3359104

down_convs.2.conv2.bias f4 [12]
00000000: f0a6 253b 4398 0fbb cd5c 0c3c 2748 b63c
00000010: bf93 7e3b 734d 23b5 3d27 3539 5e35 8db9
00000020: bd92 08bb 1737 c23b 1b58 b9b9 8328 52ba
0.0025276504 -0.0021910823 0.008567047 0.022251202 0.0038845388 -6.0834935e-07 0.00017276123 -0.00026933377
-0.0020839416 0.0059269774 -0.00035351593 -0.0008016901

down_convs.2.norm0.weight f4 [12]
00000000: e7aa 4b3f 43ca 2f40 e2ef 983e 9645 0e40
00000010: 02f1 c03f cb1a 1240 a625 aa3f 746c 2a40
00000020: 1cbc 5f3e fdb0 6e3f a288 b43f c16d 2a3f
0.7955765 2.74672 0.29870516 2.2229972 1.507355 2.2828853 1.3292739 2.6628695
0.21849102 0.9323881 1.4104197 0.6657372

down_convs.2.norm0.bias f4 [12]
00000000: 96b5 473e b7cd 99bf 6237 36bf e8f0 16c0
00000010: 5f9b 0dbf d7f0 3a40 f6d0 8bbf 2aee 5cbf
00000020: 308a 00bf 167a 773e 57b4 e5bf c250 04bf
0.19502863 -1.2015904 -0.7117826 -2.3584538 -0.553152 2.9209497 -1.0923145 -0.8630091
-0.5021086 0.24167666 -1.794566 -0.51685727

down_convs.2.norm0.running_mean f4 [12]
00000000: f858 f4c1 9700 ac41 c7db 74c1 8f39 7b42
00000010: 640f 0541 e6cd c4c0 0fb7 1f41 1a3c de40
00000020: 85df b4c1 75d3 0e42 da65 ae41 7e65 4bc1
-30.543442 21.500288 -15.303657 62.80621 8.316257 -6.150134 9.982192 6.9448366
-22.60914 35.7065 21.799732 -12.712278

down_convs.2.norm0.running_var f4 [12]
00000000: 602d fa44 dc13 f144 a5bd 9744 c31e d544
00000010: f2cb 2744 3317 d544 5423 1944 cf52 1545
00000020: 75db 3444 071e 9a44 b639 f943 0fce 3f43
2001.418 1928.6206 1213.9264 1704.9613 671.18665 1704.725 612.552 2389.1755
723.429 1232.9384 498.45087 191.80492

down_convs.2.norm1.weight f4 [12]
00000000: 1a5e ac3f 69c4 ce3f 3f54 0540 b006 f53f
00000010: c150 aa3f 84b5 a93d 39a3 a13f e662 1040
00000020: 2511 b13f 1fcb eb3f ecf3 243f d80c 463f
1.3466218 1.615369 2.083267 1.9142666 1.3305894 0.082865745 1.2627937 2.2560363
1.3833357 1.8421363 0.64434695 0.7736335

down_convs.2.norm1.bias f4 [12]
00000000: 3fd4 0bc0 7307 43c0 8835 a7bd 3f70 aebe
00000010: 9981 18c0 2e79 27bf db93 cebf 9d0f b7bf
00000020: b52f 21c0 7168 f0be 1faa c0bf 1100 f8be
-2.1848295 -3.0473297 -0.08164507 -0.34070012 -2.38291 -0.6541928 -1.6138872 -1.430164
-2.5185368 -0.46954682 -1.5051917 -0.4843755

down_convs.2.norm1.running_mean f4 [12]
00000000: 657e d640 d3c1 25c2 ea9d 6dc2 69d9 72c0
00000010: 6b08 8ac2 abf1 5741 b23d 1bc2 3153 2dc2
00000020: 4e99 59c2 415c e5c1 655a 73c2 7666 1bc3
6.702929 -41.43928 -59.404213 -3.7945197 -69.01644 13.496501 -38.81025 -43.33124
-54.39971 -28.670046 -60.838276 -155.40024

down_convs.2.norm1.running_var f4 [12]
00000000: 8a9a 2045 4b8e 4344 01e9 9c44 19aa 4e44
00000010: 55f8 d544 17e4 4044 fb12 5e44 206d bb45
00000020: 5104 ba44 b020 b144 6b05 4545 36de 9145
2569.6587 782.2233 1255.2814 826.6578 1711.7604 771.5639 888.2966 5997.6406
1488.1349 1417.0215 3152.3386 4667.7764

down_convs.3.conv1.weight f4 [24, 12, 3, 3, 3]
00000000: 89ff 763f 2736 603f 80e1 583f e381 343f
00000010: 6acb 9a3f 187f 893c fdab 50bb abd7 aa3f
00000020: f6d0 0cbd dde7 5b3d bcf7 353f d153 a93f
00000030: c7ed e1bb 45cc ae3e ded9 60bf ed0f 9dbe
00000040: d119 463f 3e0b 5cbf 62a7 063f e137 ac3f
00000050: 61b9 503f 9542 14be 6570 4a3f c37a 2cbf
00000060: 7209 56be 1211 933f 4b25 4abe f962 bebf
00000070: 0d30 d13e 06fb fc3e d808 17c0 4aeb b4bd
00000080: 959a b13f 40f7 31c0 6d45 dfbe edf1 2b40
00000090: dc32 34bf 9e08 933f 3d45 b83f 7d55 c5bf
000000a0: d60f 4b3f c5ff 0040 aac0 00c0 35d3 153e
000000b0: 99b0 3c40 3c40 19c0 6bcb a73d ede1 873e
000000c0: be4c 54c0 4c5e 89be e57d 9f3f c957 6ac0
000000d0: cdae 71bf c45d 2b40 b4be 59bf 1f96 54bf
000000e0: fd1f 3fc0 fec4 e7be 03dd 513f 14b6 14c0
000000f0: d42b 893f 467e 713f 6e11 e2bf 6533 d1bf
00000100: e97f 29bf 1591 aebf 8dfb a2bf bca8 a83e
00000110: 2a78 9dbf 051b fe3e 25f3 4c3f 9a9c 85bf
00000120: f971 133d 5050 8b3d f61e 1cc0 e6ca 7dbe
00000130: 9f4c b03f 1ee5 f0bf d3bc 193e 8bbb e73f
00000140: 1228 87bf 35f5 fdbf 9ac8 dc3f e847 b2bf
00000150: d793 1dc0 a83a 0840 eb72 6fbf 794e 26c0
00000160: 5621 cd3f eaf9 31bf c896 17c0 da44 a63f
00000170: 6ad1 a7bf 72fe 1fc0 5ba0 c63f 41ff 81bf
00000180: 2c1a 1bc0 d05b c43f ca4b 56bf d5b0 b2bf
00000190: 05ee 0140 1330 2cc0 1c54 dabf aac2 c53f
000001a0: 47d1 e0bf 7af2 25c0 de80 3a3f b98d 1ebf
000001b0: 4434 77c0 e84d b63b cff7 a9bf 69ae 52c0
000001c0: 2e64 a43e 720d a13e 4079 54c0 b38a 093e
000001d0: d1d0 5c3f 2910 49c0 aef6 1e3f 0f01 fabd
000001e0: 78b8 13c0 7895 313e 6d1c 723f 1f08 07c0
000001f0: efeb 30be 99c7 563f c714 55c0 fa2a b93f
00000200: 3100 c23e 0ca6 4bc0 7dc8 1d3f 8469 b83f
00000210: fc29 2dc0 9b43 bf3e a4f0 e73f cb4d 84be
00000220: a29d 76be a3ae 0bbf 597d f0be 55ee 9ebe
00000230: e4fa bfbe 450e 0fbf 265c 10bf 986b 46be
00000240: eaa6 69be 9224 9bbe 8e61 2ebf 8ad4 d5be
00000250: 859d d3be 2183 ddbe f3d6 a5be 469b f7be
00000260: 7e3d abbc 81a4 13bd cb87 f0be e6fa 53bf
00000270: a03e 54bd ad55 16bf 8ce9 f6be 72f4 9a3d
00000280: a3f1 88be 59b1 163b 844c a2bf 2bc7 873e
00000290: 32bf 9a3f 67b2 d3bf ec88 8ebe 4900 7f3f
000002a0: 1d74 d7bf 9dfc d3be 9975 de3f e4dc 9fbe
000002b0: a299 8a3f d5ef 1940 c3e8 37bf 5ab8 f83e
000002c0: 0f61 e43f ae59 38bf 14d0 783e b979 e43f
000002d0: 2fa1 b2bf 6883 913e c80e c13f d829 fdbf
000002e0: be25 94be de77 7b3f ba38 2cc0 27d6 47bf
000002f0: 44bc e33f 049d 6340 522c eb3f 952a 41bf
00000300: 13e6 853f 90d8 0c3f f226 c8be b4c2 63be
00000310: d727 a83e 02e1 773e d6f5 6d40 5727 803f
00000320: 4507 f6be dfa9 733f a390 ecbf 9fc5 a1bf
00000330: 1d01 f7bd 9150 00c0 7768 dbbf b1c0 8140
00000340: 148b cf3f 4f81 a9be 1db8 eb3f b368 5d3c
00000350: c217 46be 3e0f 913f facf 08bf e15b eebe
00000360: f69d d0bf 8319 23bf ba00 f8be c7e7 2bc0
00000370: 7d83 98bf 9a3b 293f 89ea c2bf a81e 77bf
00000380: 6fb8 783f 8a37 cebf 62b1 733e e193 c03f
00000390: b2db 04c0 eced 9abf bda8 ec3f c2f9 41bf
000003a0: 0711 dcbf e4a0 693f 62b2 ffbf c930 063e
000003b0: e6e8 c03f a364 0cc0 7cc5 a1bf 21f5 f63f
000003c0: 9cd8 9fbf d44a 88bf 9801 b63f 0ef7 48be
000003d0: 1f88 bebf 720d 81bf 43e8 b83e 4bae 4a3e
000003e0: d39a b8be dc5d 143f 3d01 bc3f 8c30 353d
000003f0: 7dfa 91be 6339 f5be 35cb 043f 8548 a53e
0.96483666 0.8758263 0.84719086 0.7051069 1.2093327 0.016784236 -0.0031840794 1.3347067
-0.03437897 0.05368792 0.7108114 1.3228704 -0.0068948003 0.3414022 -0.8783244 -0.30676213
0.7738314 -0.85954654 0.52599156 1.3454553 0.81532866 -0.14478524 0.7907775 -0.6737482
-0.2090204 1.1489584 -0.19740789 -1.4873954 0.40856972 0.49410266 -2.3599148 -0.0883394
1.38753 -2.780716 -0.43607655 2.686641 -0.70390105 1.1487005 1.439613 -1.5416714
0.7932104 2.015611 -2.0117593 0.1463135 2.9482787 -2.3945456 0.08193096 0.26539555
-3.317184 -0.26829755 1.2460295 -3.661608 -0.9440735 2.677598 -0.85056615 -0.83041567
-2.9863274 -0.4526748 0.8197786 -2.3236132 1.07165 0.943333 -1.7661569 -1.6343809
-0.662108 -1.3638026 -1.2733017 0.32941234 -1.2302296 0.4962999 0.8005851 -1.0438416
0.035997365 0.06802428 -2.4393897 -0.24784431 1.3773383 -1.8819921 0.15013437 1.8104109
-1.0559103 -1.9840456 1.7248719 -1.3928194 -2.4621484 2.12858 -0.93534726 -2.5985396
1.6025798 -0.69521964 -2.368578 1.2989762 -1.3110783 -2.499905 1.5517687 -1.0156022
-2.4234724 1.5340519 -0.83709395 -1.3960215 2.0301526 -2.6904342 -1.7056918 1.5450032
-1.7563866 -2.5929246 0.72852886 -0.61935 -3.862565 0.0055634864 -1.327875 -3.2918952
0.3210768 0.3145557 -3.3199005 0.13431816 0.8625613 -3.1416113 0.62095153 -0.12207233
-2.308134 0.17342174 0.94574624 -2.1098707 -0.17277502 0.8389831 -3.3293931 1.446624
0.3789077 -3.1820097 0.61634046 1.4407201 -2.7056875 0.37356266 1.8120313 -0.258406
-0.2408357 -0.5456335 -0.46970633 -0.31041208 -0.37496102 -0.5588115 -0.5639061 -0.19376981
-0.22817579 -0.30301338 -0.68117607 -0.41763717 -0.41331115 -0.43264106 -0.32390556 -0.48360652
-0.020903345 -0.036045555 -0.46978602 -0.82804716 -0.051817536 -0.5872448 -0.48225057 0.075661555
-0.26746854 0.002299389 -1.2679601 0.2651914 1.2089598 -1.6538819 -0.27838838 0.9960981
-1.683231 -0.41403666 1.7379638 -0.31223214 1.0828135 2.4052632 -0.7183954 0.4857815
1.784212 -0.7201184 0.24298126 1.7849647 -1.3955439 0.28420568 1.5082636 -1.9778395
-0.28935045 0.9822978 -2.6909623 -0.78061146 1.7791829 3.5564585 1.83729 -0.754556
1.0460838 0.5501795 -0.39092213 -0.22242242 0.32842895 0.24206927 3.7181296 1.0012006
-0.4805242 0.9518108 -1.848164 -1.2638434 -0.12060759 -2.0049174 -1.7141255 4.054772
1.6214318 -0.33106467 1.8415562 0.013513732 -0.19345 1.1332777 -0.5344235 -0.46554473
-1.6298206 -0.637108 -0.48438054 -2.6860216 -1.1915127 0.6610657 -1.5227824 -0.9653115
0.97156423 -1.6110699 0.23798135 1.5045129 -2.0759091 -1.2103858 1.8488995 -0.75771725
-1.7192696 0.91261125 -1.9976313 0.13104548 1.5071075 -2.1936424 -1.2638392 1.9293557
-1.2487979 -1.0647836 1.4219236 -0.19625494 -1.4885291 -1.0082228 0.36114702 0.1979305
-0.36055622 0.5795572 1.4687878 0.04423575 -0.2851142 -0.47895345 0.5187257 0.3228189

down_convs.3.conv1.bias f4 [24]
00000000: 2f6c 1bba b240 7d33 a9e6 7b3a ed1c 1636
00000010: ca1d 0e39 307c d339 b9a1 8239 9463 0a3a
00000020: 3ffd b837 9ed1 13ba 1d27 c138 46c1 073a
00000030: b53c c23a bbbf ec39 0f6f bab9 eac8 3637
00000040: 0e63 de34 a299 8b3a 79b6 5fb5 006a 8039
00000050: c853 98b9 a930 dfba 45dd c439 28e1 8537
-0.00059289014 5.8964993e-08 0.0009609261 2.2368579e-06 0.00013553273 0.00040337583 0.00024916025 0.00052791205
2.2052436e-05 -0.00056388404 9.2102426e-05 0.00051786413 0.0014819117 0.00045156278 -0.0003555943 1.0894824e-05
4.1422794e-07 0.0010650645 -8.3339506e-07 0.0002449304 -0.0002905412 -0.0017028052 0.00037548892 1.5959682e-05

down_convs.3.conv2.weight f4 [24, 24, 3, 3, 3]
00000000: 9cae 853f f656 50be 21de fdbe 300f 933e
00000010: ed45 0bbf e0fe 4cbf cc02 803e b403 11bf
00000020: d498 a3bf 2130 813f fcbd 71be 6a65 9fbe
00000030: b752 843e 70e4 92be fdb7 0fbf 31b9 be3e
00000040: 40d1 0e3c 210e 51bf 158b da3d 804a 08bf
00000050: 5c2a afbe ee18 d8bc 8e8e 04bf 09e2 58bf
00000060: a18d bfbd 46a4 33bf aa46 bdbf b114 e53d
00000070: b02f 903d 7009 ac3d b990 423c 4bf4 c03d
00000080: 57f6 413e f645 293c 6dee 07bc 9af0 643c
00000090: beab ef3d 9b56 183e 1eef 943d 8a53 fc3d
000000a0: 58d6 cc3d 153b 083e 473a 4eba 6afc 0e3d
000000b0: c476 193e ed4c 353e 625a 113d 6d68 e53d
000000c0: 81fa 093e aaea 033e 8f3a cd3d 21cd b73c
000000d0: 73ba 303b a9a1 b6bc e9f5 83bf fb78 01bf
000000e0: 46b1 73bf 6654 06bf 1670 93be e1b2 3abf
000000f0: 6098 bebe 7a35 603d 2241 e4be 8cda 1ebe
00000100: dddc 8f3e b392 bbbe 05e9 883d 2eab 3a3f
00000110: ce33 513d d8a9 1ebf e9d2 27be 4c65 d3be
00000120: 32c7 2cbf c41f d8be 76ce 84bf 9c14 17bf
00000130: 1e8d bc3d dea8 a8be 5610 04bf 1b6b 88be
00000140: 32eb 9fbe d0c4 28be e30b b43d a20a 83be
00000150: 71bb 923d 2165 123e c7a0 1bbe c02d a23d
00000160: 55a3 8c3d 9289 88be 143f a03e ce32 c53e
00000170: 27f0 7f3c e838 ba3e 258f 1e3f 4e35 2c3e
00000180: f467 c83e ddc4 f13e 79d3 26be 79e2 473d
00000190: 7bc5 3d3e 13c4 18be 9ecd 003e a3c1 153e
000001a0: 60ed 27bd 9246 d03d 9cd3 1c3d 00ea 7dbe
000001b0: 4768 80bf 6543 4fbf b7a0 93bf 6d2f 1fbf
000001c0: 1867 0bbf f0b6 82bf ec5e dbbe 49db 9fbe
000001d0: 997b 5abf 96ab 90be 9953 303d fe6c dabe
000001e0: e228 edbd 436a c73d a489 e6be 88c1 12bf
000001f0: d20a d9be ecf5 2fbf f79a 80bc 4534 a53e
00000200: fecf d0bd 75f8 533e cb94 223f f55c 443d
00000210: 6fa7 bcbe 35ce f23d feb1 bebe 870a 26be
00000220: 4185 88be ffe9 61bf ada7 793e b596 2dbe
00000230: 2935 2dbf 2a74 2a3f d1c8 87be ea50 0bbf
00000240: cc5d 023f 4911 243f 31cf 97be ee86 3e3e
00000250: 8b02 f83d b071 90be 5458 a43e bbea bdbe
00000260: 42ed f6be 8e56 bbbb 5195 dc3d 0bb6 c4be
00000270: 8f3d a43e 9b0a 103f d6ed 193d 8963 3b3e
00000280: a6f4 eb3e 8bd5 d63c f27b c7bf 10e2 4abf
00000290: fda8 13bf b81c 7ebf 000e 02bf d227 03bf
000002a0: 7afc 83be d103 22bc bf30 b9be 7de0 36bf
000002b0: f429 66bd c7cf 30be c2bc 90be 9569 453e
000002c0: 5dd8 d6bb 6801 2a3e 7209 6f3e 037f bebd
000002d0: 1071 abbf 249b 70bf dce6 84bf 8208 60bf
000002e0: 1f16 3abf b1fa 50bf 6c73 d13d 6a2d 933e
000002f0: a60c c7bc 84ae b2bf a248 7ebf b09f 7cbf
00000300: 0039 74bf 3fdb 13bf d724 6bbf 5d2c ccbe
00000310: 41fe 5cbd 7109 68bf 5bf6 d8be 75e0 4f3e
00000320: f95c 8abd 7bdd d5be 05f1 b4bd f1d5 34be
00000330: 1562 51bf 4fa1 cbbe 601c 1bbf 8169 31bf
00000340: 962b c9be c15e 78bf 07fb 53bf 3467 c7be
00000350: 5f84 38bf c399 03bf 8d7d 3ebf 297e d9be
00000360: f047 60bf ff21 5fbf 761d 0dbf c6fd eebe
00000370: fc51 9cbe 725f 13bf 12df bfbe e30e 20bd
00000380: 7c08 f23d b972 76bf 5581 6bbf 2edf 20bf
00000390: f4c4 8ebe ee55 26be 357b dfbe 0ebd c6be
000003a0: dccd a23e 393e a03e 68fe a1bf a274 8bbf
000003b0: 25be 3dbf 390e 1ebf 679b 30bf 810e 50bf
000003c0: 28fe afbe 1671 6b3e 5ef5 11be 0e1d 99bf
000003d0: 5037 1cbf ad48 2cbf ed92 1cbf a81e bfbe
000003e0: 3fdd e7be 131a 23be f6a3 4f3e e09e 873b
000003f0: ba81 fdbe 0496 d53e ef8c 5d3e 9215 0ebf
1.0443912 -0.20345673 -0.49583533 0.28722525 -0.54403573 -0.8007641 0.25002134 -0.56646276
-1.2781014 1.0092813 -0.2360763 -0.3113206 0.25844356 -0.2868991 -0.5614012 0.37250665
0.008716881 -0.81662184 0.10671059 -0.5323868 -0.34212005 -0.026379075 -0.5178002 -0.847199
-0.093531854 -0.70172536 -1.478719 0.11185587 0.07040346 0.084002376 0.011875325 0.09421595
0.18941627 0.010331621 -0.008296591 0.0139733795 0.11702679 0.14876787 0.072721705 0.12320621
0.1000182 0.13303788 -0.00078669604 0.03490869 0.14986712 0.17705126 0.035486586 0.11201558
0.13474466 0.12882486 0.10020935 0.02243668 0.00269666 -0.022293882 -1.0309421 -0.50575227
-0.9519237 -0.5247253 -0.28796452 -0.729292 -0.37225628 0.0547385 -0.44580942 -0.15513057
0.28098193 -0.3663536 0.0668507 0.7291745 0.051074795 -0.6197791 -0.1638905 -0.4128822
-0.6749145 -0.42211735 -1.0375507 -0.5901582 0.092066035 -0.32941335 -0.51587427 -0.26644215
-0.31234127 -0.16481328 0.0879133 -0.2559405 0.07164658 0.1429639 -0.1519805 0.07918882
0.068670906 -0.26667458 0.31298125 0.38515323 0.015621222 0.3637154 0.6193717 0.16817209
0.3914181 0.47220507 -0.16291608 0.048799966 0.18532364 -0.14918546 0.12578437 0.14624648
-0.040997863 0.1016971 0.038287744 -0.24796295 -1.0031823 -0.8096221 -1.1533421 -0.6218174
-0.54454184 -1.0212078 -0.42845857 -0.3122199 -0.85344845 -0.2825591 0.043048475 -0.4266128
-0.115800634 0.09737065 -0.45026886 -0.57326555 -0.42391068 -0.6873462 -0.015698893 0.3226644
-0.10195921 0.20700248 0.6350829 0.047940213 -0.36846492 0.11855737 -0.37245172 -0.16214953
-0.26664165 -0.88247675 0.2438037 -0.16952021 -0.6765924 0.665835 -0.26520398 -0.5442034
0.5092437 0.64088875 -0.29650262 0.18606159 0.1210986 -0.28211737 0.3209864 -0.37093148
-0.48227888 -0.005717105 0.10770667 -0.38420138 0.32078215 0.5626618 0.037580334 0.18299688
0.4608509 0.026224872 -1.55847 -0.79251194 -0.5767973 -0.9926257 -0.5080261 -0.51232636
-0.25778562 -0.009888605 -0.36170003 -0.7143629 -0.056192353 -0.17266761 -0.2826901 0.19278558
-0.006556554 0.16602099 0.23343447 -0.09301569 -1.3393879 -0.93986726 -1.0382953 -0.8751298
-0.72690004 -0.81632525 0.10227093 0.28745586 -0.024298023 -1.3959508 -0.9932958 -0.98681164
-0.95399475 -0.5775642 -0.9185309 -0.39877596 -0.053953413 -0.90639406 -0.42375454 0.20300467
-0.067560144 -0.4177054 -0.08835033 -0.17659737 -0.81790286 -0.39771506 -0.6059017 -0.6930161
-0.39291066 -0.97019583 -0.8280491 -0.38945925 -0.7207698 -0.51406497 -0.74410325 -0.42479065
-0.8760977 -0.8716125 -0.5512308 -0.4667799 -0.305313 -0.57567513 -0.37474877 -0.039076697
0.118180245 -0.962688 -0.9199422 -0.62840545 -0.27884638 -0.16243717 -0.43648687 -0.38816112
0.31797683 0.31297472 -1.2655764 -1.0894969 -0.7411826 -0.6174045 -0.68987125 -0.8127213
-0.34373593 0.22992358 -0.14253756 -1.1961992 -0.610219 -0.67298394 -0.6116169 -0.37328076
-0.45285985 -0.15927915 0.2027739 0.0041388124 -0.49513036 0.41716015 0.21635793 -0.55501664

down_convs.3.conv2.bias f4 [24]
00000000: f99b f036 4e27 39b9 c1eb 0439 2a39 ee39
00000010: b209 8739 662a 003a 5680 b036 5887 043a
00000020: 7e40 8cba 59ec 3ab9 95e2 c8b7 b760 d03a
00000030: a552 05bb a671 9e3a 8075 33b9 3a8a 85b6
00000040: 0eeb 9a38 8623 23b9 64ce 34ba 3331 41b5
00000050: 62f1 5c36 37b5 8039 e1ee 6638 fecd b3b9
7.170715e-06 -0.00017657617 0.00012676326 0.00045437488 0.0002575643 0.00048891304 5.260149e-06 0.0005055568
-0.0010700373 -0.00017826389 -2.3947368e-05 0.0015897964 -0.002034345 0.0012088313 -0.00017114542 -3.9798006e-06
7.3870746e-05 -0.00015558125 -0.00068972097 -7.1969697e-07 3.2923058e-06 0.00024549078 5.5058747e-05 -0.00034295017
