outputs/outputs_new_diff_mask/epoch_150_model.pth (torch, 695187 bytes, 241 tensors)

down_convs.0.conv1.weight f4 [3, 1, 3, 3, 3]
000000 cc 19 25 bf 76 53 ad 3f 04 ee b3 3f e0 b2 36 c0
       -0.6449249 1.3541095 1.4057012 -2.8546677
000010 31 e5 48 c0 a5 4b 13 c0 c4 0b 23 bf 40 08 4e 3f
       -3.1389887 -2.301492 -0.6368983 0.8048134
000020 f2 95 b4 bd 3a c2 6d be fe 6e dd 3f 37 bb b5 3f
       -0.08817662 -0.23218623 1.7299497 1.4197758
000030 6e 96 32 bf 4d 4c 6a c0 1d 74 8e c0 26 a4 bd be
       -0.6976079 -3.660907 -4.451674 -0.37039298
000040 63 5c 02 40 0b b9 3d 3f c4 26 f9 bd 58 4d 92 3f
       2.0368888 0.7411048 -0.12165597 1.1429853
000050 9e 41 bb 3d a9 e9 1b 3f 83 4d 32 bf 58 31 14 c0
       0.09143375 0.6090341 -0.69649523 -2.3155117
000060 2a 9e 04 c0 81 4d f6 bd ea 98 99 bf fc 3b 8a be
       -2.0721536 -0.120265014 -1.1999791 -0.2699889
000070 44 59 24 bf e5 1e d9 be 88 94 cc 3f c8 24 56 40
       -0.6419871 -0.42406383 1.5982828 3.345995
000080 01 58 04 40 8a c8 e8 bf 93 9d b5 bf 02 4f b5 bf
       2.0678713 -1.81862 -1.4188713 -1.4164736
000090 89 36 a5 be e0 38 b1 bf 50 cd 25 bf 9d 91 21 40
       -0.3226817 -1.3845482 -0.64766407 2.5245125
0000a0 4e a6 4f 40 64 e6 3c 40 55 c2 8a bf 7c 31 a8 bf
       3.2445254 2.951562 -1.0840555 -1.3140101
0000b0 20 f0 84 bf 6f ee 5e 3e 8e ca a4 be 5e 0d b2 bd
       -1.038578 0.21770643 -0.32185787 -0.08693956
0000c0 d3 71 1d 3f ce 47 1a 40 49 3d 14 40 ec 88 5c bf
       0.61501807 2.4106326 2.3162405 -0.86146426
0000d0 2f 31 93 bf 8f 88 88 bf 2e c6 62 3f 2e cd 65 40
       -1.1499385 -1.0666674 0.8858365 3.5906482
0000e0 55 95 88 bf 26 8e 8c be 91 9c 62 bf c9 1b 39 be
       -1.0670573 -0.274522 -0.8852015 -0.18077005
0000f0 a8 32 3e 3e 56 11 9d 3f 02 1a 04 bf 30 e0 84 40
       0.18574011 1.2270916 -0.51602185 4.1523666
000100 46 e1 6d 40 85 d4 47 3f b9 16 14 bf fb 98 29 c0
       3.7168746 0.78058654 -0.5784717 -2.6499622
000110 7e f1 90 be 75 42 95 3f de b8 b5 3f b0 05 f1 3e
       -0.28309244 1.1660906 1.4197042 0.47074652
000120 79 36 62 bf f4 6c d0 3f 9f fa 09 c0 56 e3 c2 bd
       -0.8836437 1.628325 -2.1559217 -0.09516017
000130 c6 c0 cc be e1 00 c1 3e 1b 65 43 bf e5 01 b7 3e
       -0.39990824 0.37695983 -0.7632615 0.35743633
000140 cb 64 14 bf
       -0.579663

down_convs.0.conv1.bias f4 [3]
000000 ef 60 04 be 7f ea 2d bd c7 29 3d 3d
       -0.12927602 -0.04245996 0.04618242

down_convs.0.conv2.weight f4 [3, 3, 3, 3, 3]
000000 68 4e d5 3f cc 68 04 3f 4c 63 0e 3f 8b 7f 64 bf
       1.6664553 0.5172241 0.55620265 -0.89257115
000010 b8 69 39 3f 59 95 86 3f d5 ea 8e 3f 8a 97 05 bf
       0.7242694 1.0514327 1.1165415 -0.52184355
000020 99 0f dd bf dc 60 df 3f 8d 2b 94 3f d3 fe a9 3f
       -1.7270385 1.7451434 1.1575791 1.3280891
000030 c0 87 bc bd 94 e0 64 be 9a bb 83 3d b2 18 54 be
       -0.0920558 -0.22351295 0.064322665 -0.20712546
000040 6c ab 7c bc 59 ba ef bd 9d 25 b7 3f f4 fb 95 3f
       -0.01542173 -0.11705465 1.4308354 1.1717515
000050 2f 0b c7 3f c2 07 65 3f 7e bd 1c be 32 e1 f6 bd
       1.5550288 0.8946496 -0.1530666 -0.12054671
000060 0f d4 11 be 93 f5 2a 3f ae b1 af 3f a2 bc 53 3d
       -0.1424105 0.66780967 1.3726099 0.051693566
000070 ee d7 25 be 9d bd 08 3e 11 99 4f 3f 5f 9c 56 3e
       -0.16195652 0.13353582 0.81092936 0.20958088
000080 e6 4d 91 bf ba ab 08 c0 83 32 87 bf 75 07 da bf
       -1.1351898 -2.1354814 -1.056229 -1.7033526
000090 c9 06 65 3f 67 96 19 3d 05 32 8f be a9 a5 f6 bf
       0.8946348 0.03749695 -0.2796785 -1.9269305
0000a0 43 e4 94 bf a4 48 33 be b1 89 ba 3f 70 fe a7 3f
       -1.163216 -0.17508179 1.457327 1.3124523
0000b0 02 50 11 c0 61 1b 07 40 b3 ce c3 3e 7b c1 89 bf
       -2.2705083 2.111046 0.38243636 -1.076217
0000c0 e8 60 79 c0 dc 94 21 c0 56 66 38 be 4c 6d ff 3f
       -3.8965397 -2.5247107 -0.18007788 1.995523
0000d0 24 72 89 3f ff ea 40 c0 76 37 e0 3f 3a 0c 6b 3e
       1.0737958 -3.014343 1.7516925 0.22953883
0000e0 23 31 18 3f 59 60 ea bf ec 86 6b bf e4 70 b0 bf
       0.59449977 -1.8310653 -0.9200275 -1.3784451
0000f0 53 1b b6 3f f4 70 c7 bd 8e 14 6a 3e fe 3d 1b bf
       1.4227089 -0.09738341 0.22859403 -0.6064147
000100 a7 9a 7d bf aa 65 53 3e 04 f6 c5 3f 86 5b 35 40
       -0.99064106 0.2064425 1.5465703 2.8337111
000110 bd 92 20 bf 31 74 a9 bf 5b 09 8d bf d5 a1 82 3f
       -0.62723905 -1.3238584 -1.101848 1.0205637
000120 69 62 a9 bf a8 6e 05 c0 f1 35 9e 3f 40 88 2d 40
       -1.3233157 -2.084879 1.2360212 2.711441
000130 46 ad 06 40 9b 26 ab bf 9a 08 dc bf f0 ef 84 bf
       2.1043258 -1.3371156 -1.7190125 -1.0385723
000140 09 d7 d3 3f bc 92 8a 3f a6 4b e2 3e ce 3a ea 3e
       1.6549999 1.082603 0.4419834 0.4574799
000150 86 0f f9 3e 5d 47 bd 3d 68 d1 1f 3e 88 92 e5 3e
       0.48644656 0.09242127 0.15607226 0.44838357
000160 8e 97 81 be 10 ec f8 bf dd ff 77 3e f4 e7 ba 3e
       -0.2531094 -1.944704 0.24218698 0.3650509
000170 04 cb b3 3f 0b bc 82 be 14 b6 54 bf c6 2b cf bd
       1.404633 -0.2553409 -0.8309033 -0.10115771
000180 fe ad ab 3f 87 d6 b8 3f f1 07 76 bf 08 6a c6 bf
       1.3412473 1.4440469 -0.9610587 -1.5501108
000190 e2 5a 30 bd 7f af 8d 3f 0a 30 48 be e6 79 19 bf
       -0.043055423 1.1069182 -0.19549575 -0.5995163
0001a0 bc 0b 10 bf 90 cd bc 3e 68 32 cf 3e 01 00 8c bf
       -0.56267905 0.36875582 0.40468144 -1.0937501
0001b0 59 15 f6 3f 86 73 b0 3f 3c 47 27 40 c6 b3 50 40
       1.9225265 1.3785255 2.6137228 3.2609725
0001c0 57 83 82 3f aa eb 12 40 55 e6 67 bf 92 4f 9f be
       1.0196332 2.2956338 -0.90585834 -0.31115395
0001d0 c3 be ac bf 44 2e d3 3f 05 63 a3 3f 45 d4 06 40
       -1.3495716 1.6498494 1.2764593 2.106706
0001e0 d9 23 50 40 fa 6d ac 3f 65 35 cf 3f 8d 35 2f 3f
       3.252188 1.3471062 1.618817 0.68441087
0001f0 22 ac b9 3f a0 89 04 bd e3 c9 27 40 bb 6c ed 3f
       1.4505656 -0.032357812 2.6216972 1.8548807
000200 86 fe 32 40 4e 89 66 40 8a cc 44 40 21 14 84 40
       2.7967849 3.6021304 3.074984 4.127457
000210 16 eb 8e 3e 5c 72 96 3e b6 05 b8 be 2c 9b 9c 3e
       0.2791373 0.29384124 -0.35941857 0.30587137
000220 eb 0d 89 3d 66 68 0f 3e c7 64 bd 3f 33 a8 41 bf
       0.06692108 0.14004669 1.479638 -0.75647277
000230 31 76 4d 3f f8 de d9 be 2b 5a 2a bf 6e de b6 3e
       0.8025847 -0.42552924 -0.66543835 0.35716575
000240 b3 cc 56 bf 87 48 78 be 25 27 81 bf cb a8 75 bf
       -0.83906096 -0.24246417 -1.0090071 -0.9596068
000250 9d 55 ac bf d7 11 2c bf c2 25 ba 3f 46 de 33 40
       -1.3463627 -0.6721472 1.4542773 2.8104415
000260 fe d9 13 3f ef 17 0f c0 52 48 13 c0 28 b8 01 c0
       0.57754505 -2.2358358 -2.301289 -2.026865
000270 2c 53 7c 3f 72 16 8c bf 17 ab 1a 3f 64 c4 a7 3f
       0.9856441 -1.094435 0.6041731 1.3106809
000280 e4 ac c5 3f 88 03 91 3f 59 8d 01 40 36 4f a2 3f
       1.5443387 1.1329203 2.0242522 1.2680423
000290 59 d3 ab 3f be b0 55 3f c0 14 db 3f 91 01 9b 3f
       1.3423873 0.8347281 1.7115707 1.2109853
0002a0 78 a4 a6 bf 79 e3 19 c0 3a 28 05 c0 41 4e ba 3f
       -1.3018942 -2.4045088 -2.0805802 1.4555131
0002b0 61 86 f1 3e 18 64 65 3f 30 06 f6 3e bb 0e 6b 3f
       0.47172835 0.89605856 0.48051596 0.9181935
0002c0 82 e3 76 3f 62 37 b3 be c5 f5 03 c0 13 e0 c3 bf
       0.964409 -0.3500319 -2.0618756 -1.5302757
0002d0 f9 35 73 3f 97 03 63 be dc 0a f1 3c d3 61 96 3e
       0.9500423 -0.22169338 0.029424123 0.2937151
0002e0 84 d3 c6 3e ba a6 ae 3e 48 7b e9 bd 0f d9 88 be
       0.3883325 0.34111577 -0.11400467 -0.26728103
0002f0 04 b0 11 bf c4 bd a5 3e 51 4d 1d bf 39 a1 9c 3f
       -0.56909204 0.32371342 -0.614461 1.2236701
000300 eb 6c 00 bf 31 a7 33 3d 62 4b 70 3e 90 c0 87 3f
       -0.50166196 0.043860618 0.23466256 1.060564
000310 87 9e 0a 40 00 56 bd 3f e8 fb 81 bf f5 65 9f bf
       2.1659257 1.479187 -1.0155001 -1.245299
000320 15 83 9a 3e 75 31 b1 bf 9e 4c b5 be ec b6 ce be
       0.30178133 -1.3843218 -0.35410017 -0.40373933
000330 71 53 db 3f 38 8a 21 40 c8 d6 7d 3f a4 74 ef 3e
       1.7134839 2.5240612 0.99155855 0.46768677
000340 7c 74 86 3e fa 7f f6 3f 8c ea ac bf 61 61 47 bf
       0.26260746 1.9257805 -1.3509078 -0.77882963
000350 0f e4 8f bf 44 10 85 3f 13 3a 98 3f d8 8e aa 3e
       -1.1241473 1.0395589 1.1892723 0.33312106
000360 bd 86 a4 3f 51 d1 88 bf 20 9f ba 3f 62 c1 1f 40
       1.2853619 -1.0688878 1.4579811 2.4961782
000370 99 f8 2a 3d 3a c2 27 40 97 ec 07 40 5b b8 cd 3f
       0.041740987 2.6212296 2.1238153 1.6071886
000380 89 f2 05 40 61 cc a6 bf 7f d3 a9 bf bb 8b 95 bf
       2.0929282 -1.3031121 -1.3267668 -1.1683267
000390 57 41 eb 3d 7e 7b 9b 3f 68 7e ab 3e b5 4d 2e 3f
       0.11487072 1.2147062 0.33494878 0.6808732
0003a0 46 cf 16 40 95 5a e7 3f 37 b4 03 40 45 01 16 bf
       2.356401 1.8074518 2.0578744 -0.5859569
0003b0 ec e6 08 40 1f c8 bd 3f 83 d5 81 be 33 01 db 3f
       2.1390944 1.4826697 -0.2535821 1.7109741
0003c0 2c f1 d6 3f 63 59 8d 3f e0 37 11 40
       1.679235 1.1042904 2.2690353

down_convs.0.conv2.bias f4 [3]
000000 cb 44 d9 bd e9 17 4d bd 7a ad 69 be
       -0.10608824 -0.05007163 -0.22820082

down_convs.0.norm0.weight f4 [3]
000000 9e b9 7f 3f b0 39 53 3f 0c 83 ae 3f
       0.99892604 0.825099 1.3633742

down_convs.0.norm0.bias f4 [3]
000000 ef 93 3c bf 2c 87 96 c0 0e 79 2e c0
       -0.7366323 -4.7040005 -2.7261386

down_convs.0.norm0.running_mean f4 [3]
000000 e3 7c 04 be 0c d8 2d bd 19 54 35 3d
       -0.12938266 -0.042442366 0.044269655

down_convs.0.norm0.running_var f4 [3]
000000 58 c7 65 43 a1 0e 20 43 6d 36 b5 42
       229.77869 160.05714 90.6063

down_convs.0.norm1.weight f4 [3]
000000 a0 b0 a0 3f c4 17 5b 3f e4 98 e6 3f
       1.2553902 0.8558314 1.8015409

down_convs.0.norm1.bias f4 [3]
000000 21 0a ff bf 60 a1 04 c1 0f bb 08 c0
       -1.9924966 -8.289398 -2.1364172

down_convs.0.norm1.running_mean f4 [3]
000000 67 7b 8e 3f 78 73 76 3e 1a 9e e4 3f
       1.113141 0.24067485 1.7860749

down_convs.0.norm1.running_var f4 [3]
000000 28 22 1b 42 ba 8f 32 42 6d bd 1d 43
       38.783356 44.640358 157.73994

down_convs.1.conv1.weight f4 [6, 3, 3, 3, 3]
000000 ed 2e 44 3f c7 9e 0a 3f c4 d4 fa 3e 69 d7 8d 3e
       0.76634103 0.54148525 0.48990452 0.27703407
000010 be ea 19 3f 3d bc 9a 3f b8 99 e5 bf 94 e0 a3 bf
       0.60123813 1.2088696 -1.7937536 -1.2802911
000020 5f a1 a3 bf a8 b8 8f bf a3 ca 03 c0 3e 65 eb bf
       -1.2783622 -1.1228228 -2.059243 -1.8390272
000030 91 bf 3a bf 57 1c 22 bf 0f 4e 1b bf 64 af c2 be
       -0.7294856 -0.63324493 -0.6066598 -0.38024437
000040 eb af b2 3e ff 0d 02 bd a6 dd 93 bf c4 b8 0f c0
       0.3489984 -0.03175163 -1.1552017 -2.2456522
000050 bd 5c 01 c0 60 e4 81 bf bc 68 c2 be 47 06 24 bc
       -2.0212853 -1.014782 -0.3797053 -0.010011262
000060 6d 71 1f 3f 78 a4 bb 3f ed 9b 79 3f 44 2c d0 bf
       0.6228245 1.4659567 0.9750355 -1.6263509
000070 83 ff ee be cf d8 6e 40 ff 7f 1c c0 f5 8c 8d bd
       -0.46679315 3.731983 -2.4453123 -0.06911651
000080 0e e7 81 3f ff cd 52 3f 73 d7 a0 be a5 39 f2 bf
       1.0148637 0.82345575 -0.31414375 -1.8923842
000090 53 f2 2c c0 d8 45 8d bf 91 a4 94 3e ef 30 2e 3e
       -2.7022903 -1.103694 0.29031804 0.17010854
0000a0 66 b4 f1 3f 4d a5 0c be cc 72 43 40 44 e3 c8 3f
       1.8883178 -0.13734932 3.0538816 1.5694356
0000b0 86 75 e6 bf 0f 27 8f c0 ab 08 1c c0 4e 95 c6 bf
       -1.8004615 -4.473518 -2.438029 -1.5514314
0000c0 b0 88 1d 3f b7 b6 76 3f ae 86 bb bf 74 c1 5c 40
       0.61536694 0.9637255 -1.4650476 3.4493074
0000d0 65 db 2f 40 4f 6f 40 bf 04 c9 df 3f 14 b1 b0 bf
       2.7477658 -0.75169843 1.748322 -1.380404
0000e0 c2 aa 79 3f 13 b1 27 bf 2a b0 77 bf bf 8f 93 3f
       0.9752618 -0.6550457 -0.9675318 1.1528243
0000f0 aa 86 44 3e d6 84 4a bf 08 6a b6 bf 47 fb 8d bf
       0.19191995 -0.7910894 -1.4251108 -1.1092309
000100 4c 03 ea bf cb 79 4e bf af 01 74 bf a1 7d 99 be
       -1.8282256 -0.8065459 -0.9531507 -0.2997866
000110 fc e8 80 bf 0b bd 9d 3f 40 44 4e 3f d4 9b a6 bf
       -1.0071101 1.2323316 0.8057289 -1.3016305
000120 cf e0 19 c0 69 e0 1b c0 ce b8 85 bf 7f 4a 8c bf
       -2.4043462 -2.435572 -1.0447023 -1.0960234
000130 17 36 26 bf 3e 23 05 c0 29 9e 87 3f 58 ef 96 3f
       -0.64926285 -2.080276 1.0595142 1.1791792
000140 50 7a 62 bf 9b f0 a1 3e 3d da 4a 3f c1 73 2a 3f
       -0.88467884 0.3162888 0.79239255 0.66582876
000150 4f 92 1b bf 79 d3 f7 3e 7e a8 2a 3f d8 9e 18 3f
       -0.60770124 0.48403528 0.6666335 0.59617376
000160 74 34 e5 3e 14 dd c2 bd 1e 5e 57 3f 47 33 cc be
       0.4476658 -0.095148236 0.84127986 -0.39882872
000170 59 a0 88 be 47 96 6d bf c7 22 a5 be 89 d2 2b 3f
       -0.26684836 -0.9280743 -0.32253096 0.67118126
000180 2b 60 b1 3e a5 7f 18 40 c2 6d ba 3f 6e c9 52 3f
       0.34643683 2.3827908 1.4564745 0.8233861
000190 62 dc 45 3e 17 5c 5a be 6a e5 00 bf 1a d2 65 be
       0.1932235 -0.21324192 -0.5035006 -0.22443429
0001a0 22 f4 35 3f 9b 56 08 3f 33 44 18 40 fc 3f 7e 40
       0.7107564 0.5325715 2.3791625 3.9726553
0001b0 c7 7d 0b 3f 31 29 76 3f 56 82 16 3f 54 d1 3e bf
       0.54488796 0.96156603 0.58792627 -0.7453816
0001c0 54 22 89 be 6f bb d2 bf 3f d3 c3 bf 28 8d 00 c0
       -0.26784003 -1.646345 -1.5298842 -2.0086155
0001d0 34 55 a5 bf ed 8c ab 3e a2 f8 d7 3e 3e 22 fa bc
       -1.2916627 0.33505955 0.4218188 -0.030533906
0001e0 d7 c3 de be 1b 22 12 40 95 7a 89 be 16 59 93 bf
       -0.4350879 2.2833316 -0.26851335 -1.1511562
0001f0 da 34 6a 3f ca 20 87 bf 2e 0c 0d bf 1e ad 3b bf
       0.91486895 -1.0556881 -0.5509671 -0.7331103
000200 11 75 65 bf fe 19 91 bf 45 b8 cd 3f aa ea 66 bf
       -0.89631754 -1.1336057 1.607186 -0.9020182
000210 bc 8d 47 c0 98 4c 8b bf f4 81 52 c0 82 22 08 bf
       -3.1180258 -1.088275 -3.2891817 -0.53177655
000220 7a 75 b2 3e fc ff af be e9 08 b1 bf 44 f9 12 bf
       0.34855253 -0.34374988 -1.3830844 -0.574116
000230 13 a9 c7 bf eb 31 09 c0 16 56 ce be f6 41 de bf
       -1.5598472 -2.1436718 -0.40300053 -1.736388
000240 f4 8e 1a bd d6 6b 2d 3f 0b 8b 59 3d 26 bb d5 bd
       -0.037733987 0.6774267 0.053111117 -0.10436086
000250 67 c9 00 40 7a 28 1b 3e c4 87 ec 3e 12 3f b9 40
       2.0122926 0.1515216 0.4619733 5.788949
000260 3a ee f7 3f 52 ff 27 be 00 5d 11 be 9c 6f ec be
       1.9369576 -0.1640599 -0.14195633 -0.461789
000270 06 6f e8 be b4 c3 b5 3f 7b 4d ed be 69 9a 6c 3e
       -0.45397204 1.4200349 -0.46348175 0.23105778
000280 ca 40 c4 40 97 0d 1e 40 12 5e d0 bf 18 d2 86 bf
       6.132909 2.4695795 -1.6278708 -1.0532866
000290 27 48 a4 bf f6 06 e0 be 0e ef 2a bf 48 98 49 bf
       -1.2834519 -0.4375531 -0.6677102 -0.7874799
0002a0 d8 57 2b 3f c0 81 8e 3e e1 b0 c0 3e f9 fd 03 bf
       0.66930914 0.27833366 0.37634948 -0.51559407
0002b0 a5 90 66 be 65 e3 69 bd 0e eb be 3e 31 41 0a bf
       -0.22516115 -0.057101626 0.37288707 -0.54005724
0002c0 bd e9 7f be 6e 79 91 3f 3d 3b 3f 3e f0 54 40 3e
       -0.24991508 1.1365182 0.18674941 0.18782401
0002d0 d6 40 9e bd 2d 89 3d 3f 9e da 04 3f f0 b3 1c 3f
       -0.0772721 0.7403744 0.51896083 0.6121206
0002e0 3b 1e 06 3f 48 2a 45 3f d7 9e 7e 3f bd 1b b6 3f
       0.5238988 0.7701764 0.9946112 1.4227215
0002f0 85 49 66 3e d6 d8 10 bf 37 e3 0a bf e4 96 9b bf
       0.22488983 -0.56580865 -0.5425295 -1.2155423
000300 8d 4b 6d bf 1b 4a 30 bf 9a 9c 0e be 19 40 8d 3f
       -0.92693406 -0.68863076 -0.13926926 1.1035186
000310 3e 61 17 3e 5a ab a9 3f b2 dc 88 bf 08 bf 78 bf
       0.14783189 1.3255417 -1.0692351 -0.9716649
000320 55 4a 27 be 2a 24 19 bf e3 28 0c bf 81 d2 d8 3d
       -0.16336949 -0.59820807 -0.5474989 0.105870254
000330 1b 04 75 3e 6c 49 ca bf 31 07 8a 3f 2f 36 2c c0
       0.23927347 -1.5803657 1.0783445 -2.690807
000340 36 4c c2 bf 95 e1 a1 bf f3 c1 66 bf 07 7b e3 be
       -1.5179508 -1.2646967 -0.90139693 -0.444298
000350 9e 46 89 be 14 7c a4 3f e1 7d a1 3f a7 6a 4e 40
       -0.2681169 1.2850366 1.261654 3.2252595
000360 4a c4 e6 bf 9d 9d 0c c0 6c e0 32 c0 9f ae 96 3e
       -1.8028653 -2.19712 -2.7949476 0.294301
000370 7a d6 ce 3e 53 87 dc 3e 4a 0c e8 3f 54 fb 97 3f
       0.40398008 0.43071994 1.812875 1.1873574
000380 1d 61 f2 3f 1c ac 1f c0 aa 58 21 c0 f7 40 ea bf
       1.8935887 -2.4948797 -2.5210366 -1.8301076
000390 06 0a d4 bd f2 e1 10 be 46 ef 92 3e cc 46 85 3f
       -0.10353474 -0.14148691 0.28698176 1.041223
0003a0 2a 24 cc bd e5 6e b5 3f 6c 55 24 c0 33 62 17 c0
       -0.09967835 1.4174467 -2.5677137 -2.3653686
0003b0 3e 35 db bf 9b 5e 45 be 14 4c 11 be a2 b1 4f 3e
       -1.7125623 -0.1927437 -0.14189178 0.20282605
0003c0 58 a9 af 3f 8e 65 79 3f ac 6b 09 40 2f 4e 07 c0
       1.3723555 0.97420585 2.1471968 -2.114147
0003d0 df d6 b9 bf 62 00 b6 bf 13 38 49 bf 49 f8 20 40
       -1.4518698 -1.4218867 -0.7860119 2.5151541
0003e0 94 26 6b 40 0a 46 93 bf ba a6 8a 3f 74 ad 0b 40
       3.6742296 -1.1505749 1.0832131 2.1824617
0003f0 51 b8 94 bf 37 0d c8 bf 12 35 bf bf 7d 0a 17 3f
       -1.1618749 -1.5629033 -1.4938071 0.5900038

down_convs.1.conv1.bias f4 [6]
000000 b7 b0 a2 3c 3c 50 ea bd a0 96 5c 3d 89 6c c4 bd
       0.019859655 -0.11441085 0.053854585 -0.09591014
000010 f5 64 c4 38 50 a3 a3 bc
       9.364813e-05 -0.019975334

down_convs.1.conv2.weight f4 [6, 6, 3, 3, 3]
000000 d5 2e 38 3f c7 0d c3 be 91 a1 12 3e 54 c2 7e bf
       0.7194646 -0.3809645 0.14319445 -0.9951527
000010 49 44 94 3f b0 dd 12 40 a1 e3 a2 bf a8 fb a7 3c
       1.1583339 2.2947807 -1.2725717 0.020505741
000020 fc a6 27 3f 0c 85 7d 3f db 6b 56 bf ea e8 d7 bd
       0.6548917 0.9903114 -0.83758324 -0.10542472
000030 10 4a e8 bf e4 22 d9 3d be a7 6b 3f fb 17 2e bf
       -1.8147602 0.10602358 0.9205283 -0.6800534
000040 61 c8 54 be 17 2d 64 3e 7b 32 15 40 4a 4e f0 3e
       -0.20779563 0.22282825 2.331206 0.4693473
000050 eb b6 31 3f d1 74 26 c0 97 c7 93 bf a8 54 fb be
       0.69419736 -2.60088 -1.1545285 -0.49088025
000060 6f cc 36 bf 17 3d 07 bf 46 5f 9a bd 58 c7 88 3e
       -0.7140569 -0.5282759 -0.07537703 0.26714587
000070 c5 00 9d 3f 7b 23 8c 3f b8 ca 41 bf 97 e4 81 bf
       1.226586 1.0948328 -0.7569995 -1.0147885
000080 e8 c1 8a 3e 44 d9 3a 3f 55 c1 7a 3f 0e d2 db 3f
       0.27101064 0.7298777 0.9795125 1.7173479
000090 84 da f5 3e a7 25 d2 3f 1a 56 9d 3f 2a 9a ba bf
       0.48018277 1.641774 1.2291901 -1.4578297
0000a0 8a f0 05 c0 65 95 d8 be dc aa ad be d6 df f1 be
       -2.0928063 -0.4230148 -0.33919418 -0.47241086
0000b0 a3 28 e2 3d 49 db 59 3e b5 b8 09 3f 5f e1 12 3f
       0.11042907 0.21275057 0.53797466 0.5737514
0000c0 0c 09 1d 3f 5a ab 1f be 0b 93 d5 3f 6a 6c b5 3f
       0.6134193 -0.15592709 1.6685499 1.417371
0000d0 c1 42 81 3e 88 8a 42 3d a0 d1 da 3f 4c d4 60 3f
       0.25246242 0.047495395 1.7095222 0.8782394
0000e0 43 50 d4 3e dc 2e 9f bf 19 ef fd bf 16 7a bf bf
       0.41467485 -1.2436175 -1.9838592 -1.4959133
0000f0 23 d9 af 3e a0 a4 95 3e 74 30 59 3f 0f 4f 57 3f
       0.3434535 0.2922716 0.8483956 0.8410501
000100 00 d1 2b bf 91 b3 8e bf 06 4c 0e c0 d1 7b 1b c0
       -0.67115784 -1.1148549 -2.22339 -2.4294322
000110 c9 18 e0 bf f2 8c c7 3d bc 1f 2e 3f a9 d4 8e 3f
       -1.7507564 0.0974368 0.6801717 1.1158649
000120 73 f4 8f 3f 92 de 27 be eb 2e 4d bf 87 a9 e1 bf
       1.1246475 -0.16393498 -0.80149716 -1.7629861
000130 3c bf f1 bf d1 bd a4 bf 11 8d 9d 3e 89 26 da 3e
       -1.8886485 -1.2870427 0.30771688 0.42607525
000140 a1 49 5c 3f 0c 1d 40 40 2b 39 86 40 ff 52 57 40
       0.8604985 3.0017729 4.1944785 3.3644407
000150 ab 0d 91 3f 94 9d 91 3f a2 38 f1 3f 07 0f bc 3f
       1.1332296 1.1376214 1.8845408 1.4692086
000160 d7 b5 fc 3e 32 fd 9c 3f 86 86 47 40 10 82 9c 40
       0.49357483 1.2264769 3.1175857 4.890877
000170 84 74 1d 40 1c 6d 79 bd 3f fe 8d be 88 7e 07 3f
       2.4602365 -0.06089507 -0.27733037 0.52927446
000180 ed ae 2f bf ef 1d 5c c0 53 bb 8a bf 66 c6 0d 40
       -0.6862629 -3.439327 -1.0838417 2.2152343
000190 e6 42 4d 40 39 66 16 40 55 b1 81 3f 67 65 6e 3e
       3.2072082 2.3499892 1.0132242 0.2328087
0001a0 ea 28 f8 3f aa 24 8e 3f b7 df 8a bf 45 0a 66 3f
       1.9387486 1.1104939 -1.0849522 0.8985942
0001b0 0a d8 81 3e 30 ec c3 3e 72 1d 9c 3e 96 c1 95 3e
       0.25360137 0.38266134 0.30491215 0.29249257
0001c0 cb 64 75 3e d0 f3 b7 3d 37 09 65 3e fe c4 b0 bc
       0.2396423 0.089820504 0.22366796 -0.021578308
0001d0 a8 0b 2f be 19 12 cb 3e 0f d1 e2 3e e5 0d 04 3f
       -0.1709429 0.39662245 0.44300124 0.515837
0001e0 15 ac 1b 3e 78 55 91 bc 54 98 24 3e f5 d6 1d be
       0.15202363 -0.01774095 0.16073734 -0.15414031
0001f0 89 c8 43 be 37 3b 35 bd 30 d6 d8 3e 61 30 8c 3e
       -0.19119467 -0.044245925 0.42350912 0.2738066
000200 fa 4a 10 3f 75 4a c1 bd ea 4d 1e be 3e 76 8e 3d
       0.56364405 -0.0943803 -0.1545941 0.06956147
000210 8d bd a8 bd da e7 13 be a7 6f 44 be af 77 1d be
       -0.08239279 -0.14443913 -0.19183217 -0.15377687
000220 f9 25 cb 3e 75 42 13 3f 67 3a ce 3f 50 1d 32 3f
       0.39677408 0.5752328 1.6111573 0.6957598
000230 56 48 49 3f 25 4b a2 bf 8e f3 27 c0 5f 7e 0e c0
       0.78626 -1.2679182 -2.6242404 -2.226463
000240 65 a7 27 bf 57 6d c2 be 97 bb a1 be 1d b5 22 3e
       -0.654898 -0.37974045 -0.31588432 0.15889402
000250 e1 14 a8 be 01 d8 b1 be 69 65 21 c0 d9 5a 6e c0
       -0.3282843 -0.3473511 -2.5218146 -3.724295
000260 ff 7e 59 c0 05 04 03 c0 b9 36 b4 bf a0 3d 47 bf
       -3.3983762 -2.0471203 -1.40792 -0.7782841
000270 99 11 cd be b1 8e 1a bf 4b e0 44 be c5 e6 16 c0
       -0.40052488 -0.6037398 -0.19226186 -2.357835
000280 d7 c9 6c c0 f9 03 5b c0 91 e9 e7 bf 26 94 06 c0
       -3.6998193 -3.4221175 -1.8118154 -2.1027923
000290 66 fc bb bf 92 65 36 c0 f6 31 82 c0 95 9e 61 c0
       -1.4686401 -2.8499494 -4.0685987 -3.525304
0002a0 a0 b3 b4 3c a7 35 ba bf b3 12 a7 bf 58 db c3 bf
       0.022058308 -1.4547623 -1.3052582 -1.5301313
0002b0 a6 a0 a4 bf 06 de 7a bf 58 57 07 c0 bf 09 c4 bf
       -1.2861526 -0.9799503 -2.114706 -1.5315474
0002c0 b3 73 f2 bf 21 f7 8c bf 43 83 15 c0 8e bc 0e c0
       -1.8941559 -1.1012918 -2.3361366 -2.2302585
0002d0 c1 89 05 c0 e0 d2 be bf 0f 5d a0 bf c8 74 b4 bf
       -2.0865328 -1.4908104 -1.2528399 -1.4098139
0002e0 6d 6d b8 bf c0 fc 92 bf e7 9a ab bf 19 0f 08 c0
       -1.4408394 -1.1483383 -1.3406647 -2.1259215
0002f0 24 02 b4 bf bf a1 4d 3f 54 09 12 3f 6a 6b 9b 3f
       -1.4063153 0.8032493 0.57045484 1.2142155
000300 6b 1e 07 3f 25 65 90 bf 86 a6 72 bd 18 bb f1 be
       0.5278079 -1.1280867 -0.05924084 -0.47213054
000310 94 cb 21 c0 81 3a aa bf 05 6d eb 3e d1 e5 0b bf
       -2.5280504 -1.3299104 0.45981613 -0.54647547
000320 68 76 96 3d 73 f4 6a 3e 99 af 81 c0 ab 94 a0 bf
       0.07346803 0.22944812 -4.0526853 -1.254537
000330 75 2f ad bf 0e fc b3 c0 1d 71 70 c0 c0 9f 83 3f
       -1.3530108 -5.6245184 -3.756904 1.0283127
000340 c1 88 27 3f 30 28 78 3f 50 b1 bd 3f 39 2c f9 be
       0.65443045 0.9693632 1.4819736 -0.48666552
000350 c5 77 73 3e 03 1f d1 bd 4c 98 30 c0 b4 b4 c4 bf
       0.23776157 -0.10210993 -2.7592955 -1.5367646
000360 be 6f 21 be c0 70 c5 bd aa f3 e7 3e fe ab a0 3f
       -0.15765283 -0.09640646 0.45303088 1.2552488
000370 41 0d d6 3e a6 2f 12 3f 26 93 33 be 0a 11 30 bf
       0.41806987 0.57103956 -0.17536601 -0.68776
000380 b7 e1 2d bf 1e 77 7f 3f 32 49 b4 3f ea 97 ae 3f
       -0.6792254 0.99791133 1.4084837 1.364011
000390 f9 a4 6a be 1f 22 68 bf 9b d3 82 bf f7 5e c2 3d
       -0.22914495 -0.90677065 -1.0220827 0.09490769
0003a0 79 3e 44 be 0a 1e 2e bf 21 7d 0c 40 58 96 07 40
       -0.19164456 -0.68014586 2.1951373 2.1185513
0003b0 2d d5 ab 3f b3 be 99 3e ca 17 cd be 66 fa d6 bf
       1.3424431 0.30028304 -0.40057212 -1.6795166
0003c0 f8 62 a1 be e6 e4 04 bf 99 09 ac bf ae 17 20 bf
       -0.3152082 -0.5191177 -1.3440429 -0.6253613
0003d0 c2 bf 6d 3e d9 ec e5 3e 49 bd 08 bf f0 ee a3 bf
       0.23217681 0.44907263 -0.53413826 -1.2807293
0003e0 34 4d b0 be a8 2e 55 bf 11 72 a2 bf 91 d5 28 bf
       -0.344339 -0.83274317 -1.269106 -0.65950876
0003f0 e6 3d dd be 42 c8 58 3f 0d 09 40 3f 75 de 09 c0
       -0.43211287 0.8468057 0.7501381 -2.1542027

down_convs.1.conv2.bias f4 [6]
000000 df 32 71 bd f4 ab 1a c0 c6 21 12 be a2 02 f4 3c
       -0.058886405 -2.4167452 -0.14270696 0.029786412
000010 c7 67 ea 3d d0 f3 61 3f
       0.11445575 0.88262653

down_convs.1.norm0.weight f4 [6]
000000 da d5 1f 40 c8 a4 b6 3f a0 ce cf 3f cf 2f a2 3f
       2.4974275 1.4269037 1.6234932 1.267084
000010 cc fe 31 bd 63 7a 27 3f
       -0.043455884 0.6542112

down_convs.1.norm0.bias f4 [6]
000000 5a 51 56 40 a1 03 7e bf 43 71 8a 3e 1e 23 3c bf
       3.3487153 -0.9922429 0.27039537 -0.73491085
000010 2e 5a 5f bf ea 62 19 c0
       -0.8724698 -2.3966622

down_convs.1.norm0.running_mean f4 [6]
000000 7d 37 d8 c0 6f 2a bf 40 42 06 d8 bf 42 92 82 40
       -6.7567735 5.97393 -1.687691 4.0803537
000010 63 19 1a 40 17 39 c1 40
       2.4077995 6.038219

down_convs.1.norm0.running_var f4 [6]
000000 8d 08 c1 44 b3 2d 84 44 bc 51 92 44 5b 8f 54 44
       1544.2672 1057.4281 1170.5542 850.2399
000010 ed b8 34 43 97 40 c9 44
       180.72237 1610.0184

down_convs.1.norm1.weight f4 [6]
000000 70 d2 a1 3f dc 00 1c 40 59 87 01 40 6a 30 54 3f
       1.2642345 2.4375525 2.023886 0.82886374
000010 7b 01 62 3f fe dc f3 3f
       0.8828351 1.9051816

down_convs.1.norm1.bias f4 [6]
000000 e7 74 e3 bf c4 5e 2e 40 d9 ef 5b bf 6f 58 2a c0
       -1.7770051 2.724534 -0.85912853 -2.6616476
000010 12 7c 19 3d 09 6b 0c be
       0.03747184 -0.13712706

down_convs.1.norm1.running_mean f4 [6]
000000 3b e1 45 c0 32 f3 28 c3 c0 0b ae c1 23 15 81 42
       -3.091872 -168.94998 -21.755737 64.54128
000010 80 79 7e c2 92 df db 42
       -63.618652 109.93666

down_convs.1.norm1.running_var f4 [6]
000000 63 0a a4 44 e6 7f c8 44 6c 0e f8 43 f6 95 b9 44
       1312.3246 1603.9968 496.11267 1484.6863
000010 03 84 70 44 a4 d0 ac 44
       962.0627 1382.52

down_convs.2.conv1.weight f4 [12, 6, 3, 3, 3]
000000 3c a3 5a 3f 3d 67 fc 3e 2c 8a 8f 3f 08 0a 67 3f
       0.85405326 0.49297515 1.1214042 0.9024968
000010 87 82 09 3e b8 7e b5 3e 75 7e 24 40 b8 59 f7 3f
       0.13428698 0.3544824 2.5702183 1.9324255
000020 d2 27 85 3f d9 31 c1 be 88 e7 61 bf b9 f5 07 3f
       1.0402777 -0.37733343 -0.88243914 0.5310932
000030 ea de 77 be 76 c1 58 bf e9 69 b8 3e a3 e9 23 40
       -0.24206129 -0.846702 0.36018303 2.561135
000040 1a c6 04 40 e1 9a ba 3f ba 4c bf 3f 73 ba 1f 3f
       2.0745912 1.4578515 1.494529 0.62393874
000050 69 a1 55 3f be b4 70 3f 46 38 88 3e 6e fe d1 3e
       0.8344942 0.9402579 0.26605433 0.41014427
000060 70 5b 18 40 89 3e cc 3f 6e 21 93 3f 94 ef 7a bd
       2.380581 1.5956584 1.1494577 -0.061263636
000070 e4 25 bd 3e 32 b9 b2 3f 98 69 2e bf 31 66 70 bf
       0.3694297 1.3962767 -0.68129873 -0.9390593
000080 6e de 73 3f f1 1d 16 c0 a9 f7 4a c0 7a fa 22 be
       0.95261276 -2.3455775 -3.171366 -0.15915862
000090 54 82 87 3e 75 96 d8 3f fa ea dd 3d 2b 92 75 bf
       0.2646662 1.6920916 0.10835834 -0.9592616
0000a0 8b 40 37 bf 9e 24 71 bf 39 47 80 c0 e8 51 b6 c0
       -0.7158286 -0.941965 -4.008694 -5.6974983
0000b0 8c c0 40 c0 e5 3f bf 3f 5e c9 81 3f 05 7b 54 3f
       -3.0117521 1.4941374 1.0139577 0.8300021
0000c0 df 04 47 3f ff 61 1e be 53 43 14 3e c0 df 76 bf
       0.7774181 -0.1546707 0.14478807 -0.96435165
0000d0 7a ff 2e c0 e9 d2 af bf 5a 19 55 3e 88 66 55 be
       -2.734343 -1.373624 0.20810452 -0.20839894
0000e0 8e 25 79 bd 4e 41 11 be fa 89 e7 3e 49 86 74 3f
       -0.06082683 -0.14185068 0.45222455 0.955174
0000f0 b4 9c dd 3f 5d ae 0a 40 62 cb 08 40 f6 ea 8f be
       1.7313447 2.1668923 2.1374135 -0.28108948
000100 53 65 95 bf 05 25 62 3f 1e c8 33 3e 7d fa b6 3e
       -1.1671547 0.8833774 0.17556807 0.35737982
000110 59 e4 d3 3f a4 e6 da 3f c0 93 16 40 8d 02 50 40
       1.6554061 1.7101636 2.352768 3.2501557
000120 d7 6c 0d bf 7c fe 26 bf 5c cf 62 3f 49 26 c4 3e
       -0.552442 -0.6523206 0.88597655 0.3831046
000130 4a cf 80 3f d6 ec f6 3f 62 b0 a9 3f 93 83 1a 40
       1.006326 1.9291027 1.3256953 2.4142807
000140 03 7b 60 40 24 a6 df 3c 6f 2b 5b bf cb 3e 38 bf
       3.507508 0.027300902 -0.8561315 -0.71970814
000150 69 41 8f 3f 5f 9d ef 3e 26 29 f7 3d ba 68 9a 3f
       1.1191837 0.46799752 0.12068395 1.206321
000160 c3 1a 42 3f 76 8c b6 3e 86 f4 41 bf 1a 10 2d c0
       0.75822085 0.35654038 -0.7576374 -2.7041078
000170 27 5f 4e bf 5b cc 9e 3f f4 5c 89 3e 39 e8 21 3f
       -0.8061394 1.2406114 0.2682873 0.6324497
000180 b7 35 ad 3f 09 d6 9f 3f ac 0b 93 3f 94 a3 3f bd
       1.3532017 1.2487193 1.1487937 -0.04678686
000190 61 57 b7 be c7 61 2f be ca 8a 84 3f 6e 90 89 3f
       -0.35808852 -0.17127143 1.0354855 1.0747201
0001a0 38 1f 51 3f 58 d8 8b 3f 8f e1 b4 3f af 57 bd 3f
       0.8168826 1.0925398 1.4131335 1.4792384
0001b0 06 13 97 3f 6a 75 88 3f 73 0e f7 3e b2 c7 cd 3f
       1.180268 1.0660832 0.4825321 1.6076567
0001c0 e1 7c c1 3f d9 f7 8f 3f e1 c9 aa 3f d8 58 38 3f
       1.5116235 1.1247512 1.3342859 0.72010565
0001d0 7e 64 92 3f 8d 54 63 3f cb 98 9c 3f 4f 23 77 3f
       1.1436918 0.8880089 1.2234129 0.9653825
0001e0 e9 f1 d8 3f 43 f0 08 40 e9 ba ce 3f 0f 88 a1 3f
       1.6948825 2.1396644 1.615079 1.2619647
0001f0 22 b1 8e 3f 91 72 ad 3f 84 41 87 3c 34 4d 9f 3f
       1.1147807 1.3550588 0.016510732 1.2445436
000200 bf 6b 97 3f fd 78 5f 3f 44 a3 cf 3f 22 78 d4 3f
       1.1829756 0.8729399 1.62217 1.6599162
000210 08 23 b8 3f e7 30 f3 3f 3a 75 0b 40 af ae bd 3e
       1.4385691 1.8999299 2.17903 0.37047336
000220 c4 49 4d be 7d 33 fd bf cb 54 6d 3c df 2c e8 be
       -0.2004767 -1.9781338 0.014485548 -0.45346734
000230 b5 29 ca bf 36 c4 73 bf 09 5e 1d c0 b0 32 49 c0
       -1.5793978 -0.9522127 -2.4588645 -3.1437187
000240 4b 52 62 bf f9 7a 8e bd 7e 43 9e be 80 3a b2 bf
       -0.8840682 -0.06957049 -0.30910867 -1.3924103
000250 f1 04 59 be 80 6d dc 3e 4c 7e f3 bf f4 76 07 c0
       -0.21193291 0.43052292 -1.9022918 -2.1166353
000260 16 67 8d bf fe fe 24 c0 5a b0 b6 be c6 82 a4 3f
       -1.1047084 -2.5780635 -0.3568142 1.2852409
000270 39 78 6c c0 98 03 4c bf 02 13 fb 3f 98 43 88 c0
       -3.6948378 -0.79692984 1.9615176 -4.258251
000280 29 be 40 c0 82 e1 18 3d 74 94 2c 3d 48 fd 66 3f
       -3.0116065 0.037324436 0.042133763 0.90230227
000290 1a cf e5 be 15 0f f0 3e c7 31 2d bf b4 bb 52 3e
       -0.44884568 0.46886507 -0.6765408 0.20579416
0002a0 13 bb 59 c0 c3 b2 21 c0 16 29 a0 be 28 7c 38 40
       -3.402043 -2.5265357 -0.31281346 2.882578
0002b0 35 b8 68 40 40 7c d4 3f e5 93 51 bf 8b cb 15 c0
       3.636243 1.6600418 -0.81866294 -2.3405483
0002c0 fa 91 69 bf 8c 32 97 c0 c1 4c 50 c0 bd 81 05 c0
       -0.9123837 -4.7249203 -3.2546847 -2.0860436
0002d0 ba 10 7b 3f 2b 8c d7 3f 5b b7 06 39 e4 95 95 be
       0.980724 1.6839651 0.00012847541 -0.2921592
0002e0 f1 16 7d bf aa 96 8d 3d c8 f1 1a c0 1d 34 10 c0
       -0.9886313 0.069135025 -2.4210072 -2.2531807
0002f0 e0 4c 03 c0 b8 c9 cf be cb 40 b5 bf ed 43 e6 be
       -2.051567 -0.40583587 -1.4160398 -0.44973698
000300 f5 8a e7 3f ce af d5 3f 43 e5 06 40 1c 64 9f 3f
       1.8089281 1.6694276 2.107743 1.2452426
000310 21 83 0c 40 72 6d 10 40 73 47 06 be 7d d7 3d c0
       2.1955035 2.25668 -0.13113193 -2.9662774
000320 17 c5 0d 3d 4c 33 b6 3f 4c b8 34 bf 4e dd 8f 3f
       0.034611788 1.4234405 -0.70593715 1.1239412
000330 8f 08 03 3f 0a 98 af 3f 5a 5c f3 3f d4 54 6b bf
       0.51184934 1.3718274 1.9012558 -0.9192631
000340 28 a0 ce bf 86 a4 f7 be 8a 5a 67 3f 25 cd 18 3f
       -1.6142626 -0.4836771 0.90372527 0.59688026
000350 40 cb 01 40 55 81 bb 3f aa 88 a5 3f 3e e6 01 40
       2.0280304 1.4648844 1.2932332 2.0296779
000360 92 5e a7 3f 2c 0d 81 3d b2 e4 58 3f 83 4a 76 be
       1.3075736 0.063013405 0.8472396 -0.24051861
000370 26 90 b4 be 27 46 bd 3e c7 88 1e c0 f5 2e 03 bf
       -0.35266227 0.36967584 -2.4770982 -0.51243526
000380 79 38 14 3d 32 f7 bb 3e 27 5e 05 bf c0 39 9b be
       0.03618667 0.36712033 -0.5209679 -0.30317497
000390 94 5b 26 bf 80 c1 01 3f ac 13 83 bc c2 42 03 c0
       -0.6498349 0.5068588 -0.016000591 -2.0509496
0003a0 f8 51 75 3f b8 d0 cd 3e 9b 64 4a be 9a dc 6a be
       0.958282 0.40198302 -0.1976494 -0.22935715
0003b0 a8 96 cc 3e 7b c5 e3 bf 5f 90 b2 3e 99 f2 0a 3e
       0.39958692 -1.7794641 0.3487577 0.13569106
0003c0 17 00 fe bf 32 10 11 bf 7a 6c b2 be 60 eb d3 3e
       -1.9843777 -0.5666534 -0.34848386 0.41390514
0003d0 db a1 38 3e c6 23 4e 3c b7 dd 33 be 91 b7 df bf
       0.18030493 0.012581771 -0.17565046 -1.7477895
0003e0 90 e1 7b bc 68 19 44 c0 b9 cc 4e c0 81 9e f2 bf
       -0.0153736025 -3.0640507 -3.2312453 -1.8954622
0003f0 fc be 16 3f 22 bb 29 3f a9 77 30 3e fb c4 56 c0
       0.5888517 0.66301167 0.17233147 -3.3557727

down_convs.2.conv1.bias f4 [12]
000000 b3 c7 bb 3c 2d 68 4d bc e7 f9 3d 38 92 ad 87 bc
       0.022922372 -0.0125370445 4.529385e-05 -0.016562257
000010 b1 80 90 3c be 07 35 ba 8f 7c e6 3b ff 10 e7 3b
       0.01763949 -0.0006905756 0.0070338915 0.0070515866
000020 60 e7 0c 37 7f 9e a9 bb e9 c9 a1 3b 22 41 a8 37
       8.3985215e-06 -0.005176365 0.0049373996 2.005749e-05

down_convs.2.conv2.weight f4 [12, 12, 3, 3, 3]
000000 65 d9 9c bf 17 f1 10 bf 0e bc ac bd 3d 8f 2d c0
       -1.2253844 -0.56617874 -0.08434306 -2.7118676
000010 8a 81 7c bf e3 24 06 be ee d7 8a c0 0e 16 03 c0
       -0.9863516 -0.13100009 -4.3388586 -2.048221
000020 f4 11 85 bf 2d 53 91 bf db 16 2f 3f 03 c5 84 3e
       -1.0396104 -1.1353508 0.6839425 0.25931558
000030 45 2c 78 bf 53 ff 45 3f d6 3f 3e 3f cd 51 e1 bf
       -0.9694255 0.7734272 0.74316156 -1.7603089
000040 c4 15 a4 3d 34 5d c0 bd 7d 7a 4d bf 82 ff 7f 3e
       0.08011964 -0.09392777 -0.8026503 0.24999812
000050 d8 3f 66 3e 70 60 13 bf f5 73 51 3e eb f7 3c 3f
       0.22485292 -0.57569027 0.2045439 0.7381579
000060 75 8b b1 bf 4a 51 b8 bc d0 6b 64 3f 50 ad 24 3d
       -1.3870684 -0.0224997 0.8922701 0.040204346
000070 99 1d d8 3f aa 2f 41 be 79 da 8e be 98 60 d5 3f
       1.6884032 -0.18865839 -0.27901056 1.6670103
000080 a9 d0 a6 be 1f 7a 52 40 8b 63 68 40 db dc f8 3f
       -0.3258107 3.2887037 3.6310756 1.94424
000090 a7 f3 ce 3f 10 49 1e 40 63 89 c3 3f 41 b3 29 40
       1.6168107 2.4732094 1.5276302 2.6515658
0000a0 76 c0 61 40 76 63 1b 40 05 02 1d 40 2d 4f 60 3e
       3.527372 2.4279456 2.4532483 0.21905203
0000b0 80 46 20 3f fc ff 83 3e c9 7b df 3f 59 d4 2a be
       0.62607574 0.25781238 1.7459651 -0.16682567
0000c0 ac 56 ba bf d8 57 a0 3f e5 0b ac be 2e 34 3b 40
       -1.45577 1.2526808 -0.33602825 2.9250598
0000d0 e1 d2 61 40 ee 6b 29 40 59 00 46 be 2c 67 d7 bd
       3.528496 2.6472125 -0.1933607 -0.10517725
0000e0 f5 a3 6d be 4d d3 0f be 42 58 25 be e2 8b 35 be
       -0.23207076 -0.14045449 -0.16146949 -0.17729142
0000f0 e1 e5 49 be 0d d7 76 be d9 25 7f be 20 e9 34 be
       -0.19716598 -0.24105473 -0.24916781 -0.17667055
000100 2c 84 f8 bd cf d6 67 be ce e3 70 be dc e5 f7 bd
       -0.12134585 -0.22640537 -0.235244 -0.12104389
000110 fd 9c a5 be d4 01 72 be 34 c4 40 be e0 5d 92 be
       -0.32346335 -0.2363351 -0.18824846 -0.28587246
000120 61 89 48 be 12 77 84 be db 8c 83 be 93 77 1b be
       -0.19583656 -0.25872093 -0.25693402 -0.15182333
000130 1b 98 e3 bd 42 26 70 be 5a 13 6e be 04 4f 60 be
       -0.11112996 -0.23452094 -0.2324957 -0.21905142
000140 67 b7 8f be 61 f0 fe bf 12 f2 38 bf e6 2f 8c bf
       -0.28069612 -1.9917108 -0.7224437 -1.0952117
000150 21 60 07 bd 6d 60 be 3f 9e 22 2e 3f 02 8c d3 3f
       -0.03305066 1.4873177 0.6802157 1.6527102
000160 5d c0 43 40 88 34 ae 3f ee 75 45 bf c3 28 3c be
       3.058616 1.3609781 -0.7713307 -0.18374924
000170 f8 6b 8b 3d a0 96 48 3f 3a 04 69 3f 38 6c 31 3f
       0.06807703 0.78354836 0.91022074 0.69305754
000180 70 7a 07 40 b1 c4 99 3f 74 fc 17 3f e9 5d 90 bf
       2.116848 1.201315 0.5936959 -1.1278659
000190 ba 59 c4 be 61 38 17 bf b1 bd ce 3d 94 1a c6 3f
       -0.38349706 -0.590704 0.100947745 1.5476861
0001a0 be ac e5 3e c3 ae 25 3e fc 08 9a 3f f8 fe 80 3f
       0.44858354 0.16179948 1.2033992 1.007781
0001b0 05 41 80 3d 6f 3a a6 3e 2e aa b0 3e 6a ba b5 3f
       0.062624015 0.32466456 0.34504837 1.4197514
0001c0 1d 3e a7 3f bd 18 ac 3f 01 7c 89 3f 25 2e 53 3f
       1.306583 1.344505 1.0740968 0.82492286
0001d0 32 28 14 40 e7 4c ce 3e 30 40 76 bf e9 c3 c2 be
       2.3149533 0.40293047 -0.9619169 -0.38040093
0001e0 3b f0 b8 3f f7 27 8e 3f 68 27 76 40 26 cb 0d 3f
       1.4448313 1.1105946 3.8461552 0.55388105
0001f0 ce e3 73 3e c3 bf 18 40 8c b5 05 be 6a 68 b7 bf
       0.2381737 2.3867042 -0.13057536 -1.432874
000200 3f fb 63 bf a5 54 9b 3f 2b 0d aa 3f 08 00 48 40
       -0.89055246 1.2135206 1.3285269 3.125002
000210 40 75 fd 3e fc e7 f9 be ac bc 09 40 b2 d2 01 bf
       0.49503517 -0.48809803 2.1521406 -0.5071212
000220 aa 08 16 40 15 db 79 3e fe 6b 80 be 43 40 82 3f
       2.3442788 0.2439998 -0.25082392 1.0175861
000230 2a f8 be be 9f 29 fd bf e6 88 97 3f af fe ff 3f
       -0.3729871 -1.9778327 1.1838653 1.9999598
000240 45 18 7f bf a3 9c 89 3e c7 c0 0d bf 1a 25 9c be
       -0.9964641 0.26877317 -0.5537228 -0.30497056
000250 58 4a 88 3f ff 20 bd be 41 30 1d c0 e2 ed ae 3e
       1.0647688 -0.36939237 -2.4560702 0.34165865
000260 57 96 0a 40 f3 5d a3 3f da a1 58 bf 7a df 26 c0
       2.165426 1.2763046 -0.84621966 -2.60739
000270 66 25 5e bf 37 61 14 3f 55 56 8f bf e3 0a 54 c0
       -0.86775815 0.5796084 -1.1198221 -3.3131645
000280 d2 da 74 3c 36 f9 d9 3f 65 92 54 3f 6d 8a f3 3e
       0.014944749 1.7029178 0.8303588 0.47566548
000290 06 be 03 bf 94 9c 0f 3f 59 5d d1 3e 00 20 48 be
       -0.5146183 0.56098294 0.4089153 -0.19543457
0002a0 df 5d a9 be a6 e4 0e c0 4c 2d 4b c0 65 cc 9d 3f
       -0.3307943 -2.2327056 -3.1746397 1.2328001
0002b0 cf 0b 25 3f f9 2c 1b 40 1f e2 55 3f 52 96 5a be
       0.64471143 2.42462 0.8354816 -0.21346405
0002c0 35 bf 39 3f 9d 6c b0 be d2 42 df bf 31 fe 8e c0
       0.72557384 -0.34457865 -1.7442267 -4.468529
0002d0 0c a7 8b bf 01 d7 60 bf be 27 e4 3f aa 02 9c 3f
       -1.0910354 -0.8782807 1.7824628 1.2188313
0002e0 aa c4 ba 3e fb 50 82 3e 72 a6 10 40 d5 b9 9c 3e
       0.36478168 0.25452408 2.260159 0.3061053
0002f0 86 8e 09 c0 7d 75 c2 bf f4 5f be bf 79 4b 21 3f
       -2.149324 -1.5192105 -1.4873033 0.6300579
000300 25 79 01 3f e9 bd ca 3f 05 4a 24 3f ff cc bb 3f
       0.50575477 1.5839206 0.64175445 1.4671935
000310 5c bd 07 40 a0 7f 0f 40 45 f5 3a 3e 1b d5 a2 be
       2.1209326 2.2421646 0.18257625 -0.31803212
000320 fc 05 22 be e7 41 c0 3f e7 c6 6e 3f ef 59 c2 3f
       -0.15822595 1.5020112 0.9327225 1.5183696
000330 d0 fa 30 40 4d a6 f3 3f 8a 9f 07 40 d8 fe 95 be
       2.7653084 1.9035126 2.1191125 -0.29295993
000340 a1 3f 67 bf 91 0c 0c c0 00 f5 1e 40 58 d0 54 40
       -0.90331465 -2.188267 2.4837036 3.3252163
000350 ff 49 19 40 a0 5f 2d 40 e5 71 0d 40 9d 1c db 3f
       2.3951414 2.7089615 2.2100766 1.7118107
000360 f9 88 1f be 05 db 53 bd 59 54 93 3d 5a a0 85 3e
       -0.15579595 -0.051722545 0.071938224 0.260989
000370 29 7a 92 3c b4 be 0a 3e 1d 7d 8c 3d 04 27 8b be
       0.017880516 0.1354931 0.06859801 -0.27178204
000380 11 9c 40 be b0 45 0c be e1 53 83 be 61 b4 a0 bd
       -0.18809535 -0.13698459 -0.25649932 -0.078469045
000390 be 31 02 bd 0a ee be bd 07 91 c7 bd f4 cd a4 bd
       -0.03178572 -0.09322746 -0.09744459 -0.08047095
0003a0 05 e8 7d bd 03 e7 ca bd 76 38 ca bd f7 2d c5 bc
       -0.06198885 -0.09907343 -0.0987405 -0.02406977
0003b0 d8 93 fc 3d 8e e5 23 bc 4d 87 df bd f4 b1 b8 bc
       0.123328865 -0.010003461 -0.109144785 -0.022545792
0003c0 fe 59 b8 3d e0 ef 13 bd 94 a8 26 3e 76 d4 ba 3f
       0.0900154 -0.036117435 0.16275245 1.4596088
0003d0 fe 3d d4 3f fc 78 b0 bf 32 65 5c 40 85 89 31 40
       1.6581419 -1.3786922 3.4436765 2.7740185
0003e0 bd 67 97 bf bc 6c 2f bf 81 ed 06 c0 78 e4 63 c0
       -1.1828533 -0.6852529 -2.108246 -3.5608196
0003f0 33 a2 c7 3f ba 11 f3 3f cd 02 aa 3f 71 92 c0 3f
       1.5596374 1.8989785 1.3282105 1.504469

down_convs.2.conv2.bias f4 [12]
000000 7f f6 b2 3b 8e 71 1f bc 44 99 99 3c 5f 0b 05 3d
       0.0054615135 -0.009731663 0.01874984 0.032481547
000010 25 5b 8d 3c 73 4d 23 b5 ff 94 cc 3b ca 40 b7 3a
       0.017255375 -6.0834935e-07 0.0062433477 0.0013981101
000020 97 a1 8b 3b 3e 15 d3 3b d8 2f 73 39 b0 60 9a ba
       0.0042612064 0.0064417413 0.00023192109 -0.0011778083

down_convs.2.norm0.weight f4 [12]
000000 3d 8c 5a 3f 32 ff 41 40 e2 ef 98 3e 00 2b 32 40
       0.85370237 3.031201 0.29870516 2.7838745
000010 88 22 cc 3f 36 5e 1d 40 89 9e b1 3f a7 21 36 40
       1.5948038 2.4588752 1.3876506 2.845804
000020 1c bc 5f 3e 94 17 9b 3f bf 75 bf 3f ba 1f 29 3f
       0.21849102 1.211657 1.4957808 0.66064036

down_convs.2.norm0.bias f4 [12]
000000 44 d8 c3 be 14 c7 d7 bf 62 37 36 bf 4e 24 3b c0
       -0.38250935 -1.6857629 -0.7117826 -2.9240909
000010 8b f9 49 be 41 29 69 40 f5 b9 97 bf 9c 02 8e bf
       -0.197241 3.643143 -1.1853625 -1.1094546
000020 30 8a 00 bf 9b 74 49 3f 10 8f 26 c0 8d 87 05 bf
       -0.5021086 0.7869355 -2.6024818 -0.5215996

down_convs.2.norm0.running_mean f4 [12]
000000 f1 97 2a c2 2a 2e bf 41 3c 97 8c c1 26 8a a3 42
       -42.64838 23.897541 -17.573845 81.76982
000010 93 f4 25 41 b0 9a 64 c0 5b 5b 80 41 71 15 8b 41
       10.3722105 -3.5719414 16.044607 17.38547
000020 5e 1b da c1 fb 62 7c 41 d5 7f 0a 42 f1 31 82 c1
       -27.263363 15.774165 34.624836 -16.274385

down_convs.2.norm0.running_var f4 [12]
000000 0e 31 83 45 15 8d 71 45 b9 a8 c1 44 4b 01 74 45
       4198.132 3864.8176 1549.2726 3904.0808
000010 82 76 91 44 f2 b2 5a 45 ce 62 86 44 e0 8a 4c 45
       1163.7034 3499.184 1075.0876 3272.6797
000020 41 dc 65 44 d0 4b d3 44 11 ca 97 44 3a 88 71 43
       919.44147 1690.3691 1214.3146 241.53214

down_convs.2.norm1.weight f4 [12]
000000 03 c4 81 3f 8c 8d d5 3f 65 1f 15 40 07 af ec 3f
       1.0137943 1.6683822 2.3300412 1.8490914
000010 f5 fd a0 3f 84 b5 a9 3d c2 4a b8 3f f2 76 36 40
       1.2577502 0.082865745 1.4397814 2.8510098
000020 df 52 e0 3f 76 24 ec 3f 8d 19 5d 3f 45 f8 8a 3f
       1.752529 1.8448627 0.8636711 1.0857016

down_convs.2.norm1.bias f4 [12]
000000 d5 1a 09 c0 4e db 86 c0 bc c1 d6 be 0a 85 1d bf
       -2.1422627 -4.2142706 -0.41944683 -0.61531126
000010 4e c2 21 c0 2e 79 27 bf b5 1f 12 c0 32 e1 fb bf
       -2.5274844 -0.6541928 -2.2831852 -1.9678099
000020 4c 57 4c c0 dc 2c 27 bf ad cc 04 c0 14 ab 60 bd
       -3.1928282 -0.65302825 -2.0749924 -0.054850653

down_convs.2.norm1.running_mean f4 [12]
000000 1c 99 ac 41 8b 5e b9 c2 02 d9 aa c2 82 51 07 c2
       21.57476 -92.684654 -85.42384 -33.829597
000010 07 71 db c2 05 b5 a7 41 66 40 04 c2 31 0a 21 c2
       -109.72076 20.963388 -33.06289 -40.259953
000020 6c 53 c5 c2 fe 94 61 c2 ee ba df c2 01 10 56 c3
       -98.66293 -56.3955 -111.8651 -214.06252

down_convs.2.norm1.running_var f4 [12]
000000 fc 55 5a 45 29 ac df 44 92 6f cf 44 f3 3e ab 44
       3493.374 1789.38 1659.4866 1369.9672
000010 5c b4 25 45 8b 68 3e 44 33 ab 99 44 6a 3b 1e 46
       2651.2725 761.6335 1229.35 10126.854
000020 64 05 04 45 d9 16 0d 45 db 37 62 45 88 de df 45
       2112.337 2257.428 3619.491 7163.8164

down_convs.3.conv1.weight f4 [24, 12, 3, 3, 3]
000000 28 04 08 3f 0a fb 33 3f cf 3e 17 3f 00 72 56 3f
       0.5313134 0.7030493 0.59080213 0.837677
000010 9f c2 a3 3f 92 43 7b 3e 52 03 7d 3e a0 2b 90 3f
       1.2793769 0.24537495 0.24708298 1.1263313
000020 0b da 8f 3e f5 cb 78 bf ce da 1f 3f 60 b5 f8 3f
       0.2809604 -0.97186214 0.62443244 1.9430351
000030 c9 02 12 bf 39 1e 16 3e 2c 62 3e bf e7 f3 a8 bd
       -0.570355 0.14659967 -0.7436855 -0.08249646
000040 fc a5 4b 3f 3c 2f 82 bf 0d c3 a4 3e ee ad a3 3f
       0.7955015 -1.0170665 0.32180062 1.2787454
000050 6b 78 a9 3f 4c 21 19 bf 27 fa 47 3f 57 b7 29 be
       1.3239874 -0.5981643 0.7811608 -0.16573845
000060 f6 62 17 bf 6d b5 91 3f 43 2c 27 be 8f ab d8 bf
       -0.5913538 1.1383492 -0.16325478 -1.6927356
000070 5b 1c e3 bd b0 55 66 3e f6 c7 63 c0 5c 7b 4e bf
       -0.11089393 0.22493625 -3.5590796 -0.8065698
000080 f8 1b c7 3f 87 ca 8a c0 de 20 f5 be 45 4f 83 40
       1.555541 -4.3372226 -0.47876638 4.1034265
000090 fe fc 07 bf c9 31 8c 3f 45 8d e1 3f ac 18 f1 bf
       -0.5312041 1.0952693 1.7621237 -1.8835654
0000a0 2a 54 ea 3e d2 e5 0f 40 91 98 57 c0 1a 0c b0 be
       0.45767337 2.248402 -3.368687 -0.34384233
0000b0 c0 49 7f 40 c7 3e 19 c0 ac e8 9e be 27 b1 92 3e
       3.9888763 -2.3944566 -0.3103689 0.28650782
0000c0 e3 f2 6b c0 2f 99 49 bf 65 96 b8 3f be 2a 93 c0
       -3.6866996 -0.78749365 1.4420897 -4.5989676
0000d0 95 c0 a9 bf 00 d8 83 40 d6 a2 76 bf 08 2d 1a bf
       -1.3261896 4.120117 -0.9634222 -0.6022496
0000e0 44 1f 8c c0 43 c9 bc be a9 ae b1 3e 6e 8d 15 c0
       -4.3788166 -0.368723 0.34703568 -2.3367572
0000f0 bf c0 95 3f 6b 4a f5 bb 22 2c ce bf 22 65 11 c0
       1.1699446 -0.007485678 -1.6107218 -2.2717977
000100 b5 96 41 be c5 76 11 c0 64 e6 99 bf 90 e9 49 3e
       -0.18905146 -2.272874 -1.2023435 0.19718003
000110 b4 b5 2d bf 4e fb cc 3f 7e 21 37 3f 3f b4 64 bf
       -0.6785538 1.6014192 0.7153548 -0.89337534
000120 c7 cd 36 bf 6c 99 a3 bc 18 42 31 c0 bb 01 2f bf
       -0.7140774 -0.019970618 -2.769659 -0.68362015
000130 49 35 aa 3f c7 c5 ae bf 94 a5 11 be fa 44 a7 3f
       1.3297511 -1.3654107 -0.1422332 1.3067925
000140 7a 42 b4 bf f6 56 07 c0 f2 fb e1 3f 3d 8d 0e c0
       -1.4082787 -2.1146827 1.7655013 -2.2273705
000150 de 15 03 c0 b6 57 06 40 e0 02 bb bf 59 bd 23 c0
       -2.0482097 2.0991035 -1.4610252 -2.5584319
000160 81 3c 93 3f 2c d5 8b bf 10 98 22 c0 4d 67 a4 3f
       1.1502839 -1.092443 -2.5405312 1.2844025
000170 8d 1e aa bf af b0 1c c0 7d 5d f0 3f a3 6d 26 bf
       -1.3290573 -2.448284 1.877853 -0.6501104
000180 b7 8d 13 c0 b5 ea f4 3f 29 2a 1f bf 4b 5d 51 bf
       -2.3055246 1.9134127 -0.62173706 -0.8178298
000190 ad 88 bd 3f 64 2f 75 c0 32 32 77 bf 34 2b eb 3f
       1.4807335 -3.8310175 -0.96560967 1.837256
0001a0 6b 33 fc bf 65 52 39 c0 65 b0 8e 3e 81 ef 39 bf
       -1.9703192 -2.895654 0.27868953 -0.7263108
0001b0 7e 19 8b c0 69 29 46 be ef 09 55 bf cc 77 6d c0
       -4.346862 -0.19351734 -0.8321828 -3.7104368
0001c0 59 42 8a 3f f7 b7 20 3f 14 c0 62 c0 9e 58 7e 3f
       1.0801498 0.6278071 -3.5429735 0.9935397
0001d0 f3 5a 80 3f 50 0c 4a c0 22 9c a7 3e f4 d5 1a 3f
       1.0027755 -3.1570015 0.32736307 0.60482717
0001e0 f2 3a 2d c0 26 c5 e1 3e 94 77 af 3f a6 c9 04 c0
       -2.7067227 0.44095725 1.3708367 -2.0748076
0001f0 0a d1 3a 3f a5 c5 31 3f d4 ca 56 c0 84 93 80 3f
       0.7297522 0.69442207 -3.3561296 1.0045018
000200 a5 5e 7d 3e be d5 70 c0 27 f5 87 3f 01 32 f7 3f
       0.24743135 -3.7630458 1.062169 1.9312135
000210 f6 4d 45 c0 8e 9c 75 3f d0 b0 fd 3f cb 4d 84 be
       -3.0828834 0.9594201 1.9819584 -0.258406
000220 a2 9d 76 be a3 ae 0b bf 59 7d f0 be 55 ee 9e be
       -0.2408357 -0.5456335 -0.46970633 -0.31041208
000230 e4 fa bf be 45 0e 0f bf 26 5c 10 bf 98 6b 46 be
       -0.37496102 -0.5588115 -0.5639061 -0.19376981
000240 ea a6 69 be 92 24 9b be 8e 61 2e bf 8a d4 d5 be
       -0.22817579 -0.30301338 -0.68117607 -0.41763717
000250 85 9d d3 be 21 83 dd be f3 d6 a5 be 46 9b f7 be
       -0.41331115 -0.43264106 -0.32390556 -0.48360652
000260 7e 3d ab bc 81 a4 13 bd cb 87 f0 be e6 fa 53 bf
       -0.020903345 -0.036045555 -0.46978602 -0.82804716
000270 a0 3e 54 bd ad 55 16 bf 8c e9 f6 be 72 f4 9a 3d
       -0.051817536 -0.5872448 -0.48225057 0.075661555
000280 a3 f1 88 be 59 b1 16 3b e4 c3 a1 bf 8b 1e e8 3d
       -0.26746854 0.002299389 -1.2637906 0.113339506
000290 0b 4f c8 3f 34 92 d5 bf 9f eb 6f bf b2 17 8f 3f
       1.5649122 -1.6685243 -0.93718904 1.1179106
0002a0 9a ba e0 bf 36 5c 27 bf 49 a4 37 40 d0 36 f1 3c
       -1.7556946 -0.6537508 2.8694022 0.029445082
0002b0 ef 87 ae 3f f3 3a 5e 40 96 fc a0 be 9e 68 a9 3e
       1.3635234 3.472348 -0.31442708 0.3308763
0002c0 ed f3 16 40 73 f9 66 bf 41 69 fd 3d 77 ba 32 40
       2.358638 -0.9022438 0.12373591 2.792631
0002d0 28 87 ad bf 60 7f c6 3d d5 02 05 40 7e c4 12 c0
       -1.3556871 0.096922636 2.0782979 -2.293243
0002e0 2a 03 49 bf e8 0d a7 3f e6 48 73 c0 b4 fe 85 bf
       -0.7852045 1.3051119 -3.8013244 -1.0468354
0002f0 33 41 3f 40 51 3a 7d 40 29 88 95 3f f8 0d 49 c0
       2.9883544 3.9566844 1.1682178 -3.1414776
000300 ea e2 de 3f 79 32 6a 3f 73 e5 dc bf 64 79 10 3e
       1.7412999 0.91483265 -1.7257522 0.14108807
000310 e5 32 8e 3f cd 40 86 3d 15 a5 8a 40 2f 0b 5f 3f
       1.1109282 0.065553285 4.3326516 0.8712644
000320 f9 e2 98 bf fe a7 b2 3f 5c bd 07 c0 6e 04 e8 bf
       -1.1944267 1.3957517 -2.1209326 -1.8126352
000330 19 84 4b 3e 9f ef d7 bf 45 5f 1d c0 68 fb 8f 40
       0.1987461 -1.6870002 -2.4589398 4.4994392
000340 76 a1 92 3f 00 e7 fa bf 50 c6 e2 3f a9 37 58 3e
       1.1455524 -1.9601746 1.771677 0.21114983
000350 a0 64 00 bf 65 4e 10 3f 4b ba af be 80 74 41 bf
       -0.5015354 0.5636962 -0.34321818 -0.7556839
000360 48 98 e1 bf 52 fa 94 bf 96 5c 03 bf 16 54 58 c0
       -1.7624598 -1.1638892 -0.5131315 -3.3801322
000370 68 00 a3 bf 32 fd b6 3f 71 55 8c bf 7c 83 aa be
       -1.2734499 1.4296019 -1.0963575 -0.3330344
000380 91 23 0f 40 09 9c 94 bf 22 42 e7 3d b1 e4 0e 40
       2.2365458 -1.1610118 0.11291911 2.2327082
000390 cd 4f 2a c0 ae 2c b1 bf 66 48 3d 40 4b 08 1a be
       -2.6611207 -1.384176 2.9575438 -0.15042226
0003a0 ae 5d de bf e4 29 e7 3f b3 e9 0d c0 11 bb 3f bf
       -1.7372339 1.8059659 -2.2173889 -0.74894816
0003b0 c0 bc ab 3f 22 15 48 c0 c1 f3 f7 bf 43 22 3d 40
       1.3416977 -3.1262898 -1.9371263 2.9552162
0003c0 30 d8 7a bf e1 50 a6 bf 53 94 11 40 42 e6 d4 be
       -0.97986126 -1.2993432 2.274678 -0.41581923
0003d0 93 d9 e1 bf db 8d a6 bf 7d da cc 3c 3b 21 aa be
       -1.7644523 -1.3012041 0.025006527 -0.33228478
0003e0 33 b1 c3 3e 8e 31 cc bd 74 49 66 3f d2 06 ad 3f
       0.3822113 -0.09970389 0.8995583 1.3517706
0003f0 da 58 68 bf 2d 97 0a 3f 4f e9 6a be 76 a2 11 bd
       -0.90760577 0.54136926 -0.22940563 -0.035555325

down_convs.3.conv1.bias f4 [24]
000000 38 55 94 3b b2 40 7d 33 bf f8 db 3a ed 1c 16 36
       0.0045267604 5.8964993e-08 0.0016782506 2.2368579e-06
000010 d3 b9 e1 3a 12 cb 18 ba 61 88 dc ba cd 04 89 3a
       0.0017221518 -0.00058285997 -0.0016825312 0.0010453701
000020 4c 7a 1a 3a b0 a7 3c b9 1d 27 c1 38 52 3e 5a ba
       0.00058928574 -0.00017991546 9.2102426e-05 -0.00083253265
000030 fb 83 51 bb 13 28 fe 39 59 b9 f8 b8 ea c8 36 37
       -0.0031969536 0.00048476513 -0.00011860085 1.0894824e-05
000040 0e 63 de 34 dc 7f 0b ba 79 b6 5f b5 e1 8c b6 38
       4.1422794e-07 -0.0005321482 -8.3339506e-07 8.704677e-05
000050 fd b7 27 ba 4d b5 d0 bb 9f 6e 37 3b 28 e1 85 37
       -0.0006397961 -0.006369269 0.002798952 1.5959682e-05
