outputs/outputs_full_mask/epoch_3_model.pth (torch, 694457 bytes, 241 tensors)

down_convs.0.conv1.weight f4 [3, 1, 3, 3, 3]
000000 2c 12 86 3e ac 60 1f 3e 8c bd c9 3e ff 96 b5 bd
       0.2618574 0.15564221 0.39402425 -0.08866691
000010 c4 8b 91 3d 27 cb 13 3e af cf ad be 9b 64 dc 3d
       0.07106736 0.14432965 -0.33947513 0.107613765
000020 db 44 2d be 0b de 6f 3e 22 41 36 3f 1a 08 af 3e
       -0.16920798 0.23424546 0.71193135 0.34185869
000030 a4 e1 ea 3b 99 db d3 3e 7d c3 a0 3e 85 5d 19 be
       0.0071680117 0.41378477 0.31399146 -0.14977081
000040 cb 9e 4d bc 63 e1 8c 3e d9 b8 a0 3e 77 3c 8f 3e
       -0.012550066 0.27515706 0.31391028 0.2797582
000050 e9 69 51 3e 1b 8a 07 be 54 ad 73 3e c9 f6 db 3e
       0.20450558 -0.13236277 0.23796588 0.4296172
000060 86 4a 4f be 7b 88 0f 3e 73 e3 f2 3d d3 f0 a4 be
       -0.20243272 0.14016907 0.11859789 -0.32214984
000070 74 c3 8c bd 26 40 94 be ca 1d c7 bd dd cd 43 3e
       -0.06873217 -0.2895519 -0.09722479 0.191215
000080 fa 5d ac 3d c8 da 7b 3e d9 57 e2 3e d8 8b b3 3d
       0.08416362 0.24595177 0.44207647 0.087669075
000090 b8 be aa be d5 59 1c be b4 8b db be 71 3c ed 3b
       -0.33348632 -0.15268643 -0.42880023 0.007239871
0000a0 12 bc 90 3d b1 7f da 3d 9c 00 1d 3f 6a a4 1c 3f
       0.070671216 0.106688865 0.61329055 0.61188376
0000b0 41 b7 a3 3e b3 31 c2 be f7 e7 0a be b4 3f b0 be
       0.3197575 -0.37928542 -0.1356505 -0.34423602
0000c0 86 d6 09 be 82 c4 83 3d 08 84 72 be 44 69 9d 3e
       -0.1346074 0.06433965 -0.23683178 0.30744374
0000d0 46 ed ee 3e ef c2 ff 3e 30 35 76 3e 42 a0 16 3f
       0.466654 0.4995341 0.24043727 0.58838284
0000e0 95 a3 d7 3e cd 02 00 bd 04 b1 48 bd 03 60 37 3e
       0.4211699 -0.03125267 -0.04899694 0.1790772
0000f0 82 71 c5 be ac c8 67 be 27 85 c3 be 02 d3 01 3f
       -0.38563162 -0.22635144 -0.38187525 0.507126
000100 c8 9c 4f 3f a6 e6 bc 3e a3 31 01 3d a8 41 17 3e
       0.81098604 0.3689472 0.031541478 0.1477114
000110 17 8c 8c 3e af 10 96 be 58 fe 91 bd e7 2d 8a bd
       0.2745063 -0.29309604 -0.0712859 -0.067470364
000120 0d 52 c0 3d 35 86 1a 3f a5 9c 4f 3e 0b cd 7a 3e
       0.0939065 0.60361034 0.20274599 0.2449228
000130 77 87 ea 3d 60 d9 9e 3d ef 49 62 be fe 49 92 be
       0.11451619 0.07756305 -0.22098516 -0.28572077
000140 1a 14 51 bd
       -0.05104456

down_convs.0.conv1.bias f4 [3]
000000 37 3c 3d bd db d6 cc bd a3 4a fa bc
       -0.046200003 -0.10001918 -0.030553168

down_convs.0.conv2.weight f4 [3, 3, 3, 3, 3]
000000 54 0c 8a be db 53 95 be 4d 93 53 be 01 80 9b 3d
       -0.2696253 -0.2916554 -0.2066166 0.07592774
000010 a1 78 0d bd 6d f0 3e be 1d 50 7e 3d 09 23 63 3c
       -0.03453887 -0.18646403 0.06208812 0.0138633335
000020 75 02 64 be b6 e3 5a be 74 69 26 bd 92 45 37 be
       -0.22266562 -0.21375927 -0.04062791 -0.17897633
000030 76 5c cb bd 8f 8e b5 3a 4f 82 b2 bd 4c e3 8f 3d
       -0.09929745 0.001385169 -0.08716261 0.07025775
000040 0f 1a 84 3c 26 ef 68 3d 4a d7 50 be 8b 94 79 3d
       0.016125707 0.056868695 -0.20394626 0.060932677
000050 f3 89 3d be 0c b0 bd 3d 3a 42 d5 bd df db 86 be
       -0.18509655 0.09262094 -0.10413022 -0.26339623
000060 a8 96 19 3d ec 25 93 3d 44 a5 66 3e 00 6a 9d 3d
       0.037497193 0.071849674 0.22523981 0.076862335
000070 6a a7 21 3e 81 fb 5d 3e bf 00 83 3e 2a de 95 3e
       0.1578652 0.21677972 0.25586507 0.2927106
000080 db 4d 66 3e d1 ab 06 3f 35 a4 23 3f fc 19 48 3f
       0.22490637 0.5260592 0.63922435 0.7816465
000090 1b 5b ef 3e 4d 0b 49 3d d2 06 f2 bb d5 99 d2 3e
       0.46749195 0.049083043 -0.007386067 0.4113299
0000a0 0f b5 28 3f ab 1f d4 3e 4d 45 62 3f b2 06 36 3f
       0.65901273 0.4143041 0.88386995 0.71103966
0000b0 04 03 1f 3f 00 37 64 3d ee 3a 81 3d 62 1b 60 3e
       0.62113976 0.055716515 0.06310068 0.21885446
0000c0 da 1a 90 3e 7f df b0 3e 3e 5c e1 3e b2 1a 2b 3f
       0.28145486 0.34545514 0.44015688 0.6683761
0000d0 35 64 54 3f 01 45 15 3f 5f 03 97 be b7 98 44 be
       0.82965404 0.58308417 -0.2949476 -0.19198881
0000e0 4a 66 92 bd 61 4d 4c be d3 0d 41 be dd 82 90 be
       -0.07148416 -0.19951393 -0.1885293 -0.2822484
0000f0 4f 2a c9 3c a6 a0 88 bc 0a 57 ab bd b3 43 f7 bc
       0.024556307 -0.016678166 -0.08366211 -0.030183649
000100 40 7f 79 be 9f 91 55 be fe c5 5a be 78 46 91 be
       -0.24364948 -0.20856331 -0.2136459 -0.28374076
000110 45 34 af be dc 32 ec bd b8 4e 26 3e 69 62 c6 3d
       -0.34219566 -0.11533138 0.16240966 0.09686739
000120 37 c4 82 be ab 68 18 be e2 93 9a be 2a 5b 45 be
       -0.25540325 -0.14883678 -0.3019095 -0.19273058
000130 3d a9 00 be 43 94 3b bd 9a 68 43 bd 7b 9b fe 3d
       -0.1256456 -0.04579569 -0.047707178 0.12431999
000140 60 53 16 be fe a6 94 3c fe 04 da 3d 6f a9 5c 3e
       -0.14680243 0.018146034 0.106454834 0.21549009
000150 31 6f a7 bd 18 0a 55 be 58 c8 42 be f4 41 84 be
       -0.08175505 -0.20804632 -0.19021738 -0.25831568
000160 86 12 ca be a9 1a f4 be dd f5 72 3b aa 71 c2 3d
       -0.39467257 -0.4767659 0.0037072815 0.09494336
000170 e7 32 9d 3e ed c6 b1 be cc 1b 52 be 6b 6f b5 bd
       0.30702898 -0.3472208 -0.20518416 -0.08859142
000180 49 7a 17 bf 95 95 c0 be f8 e9 a0 be 69 17 14 3d
       -0.5917097 -0.37614122 -0.31428504 0.03615514
000190 72 0b 5b 3d c4 11 3c 3e 14 f9 10 3d 11 cf 8b be
       0.053477712 0.18366152 0.03539379 -0.27306417
0001a0 a7 2e 58 3d 21 54 c5 be 12 8d 7c be d6 03 bd be
       0.052778866 -0.38540748 -0.24663189 -0.3691699
0001b0 1f 4e 44 bd d0 d8 3b be 88 b6 0f bd 04 c8 20 3b
       -0.047926065 -0.18344426 -0.035086185 0.002453328
0001c0 39 41 66 be ee b4 6f be 27 fe 8e be 7e 0e 77 3d
       -0.22485818 -0.23408863 -0.27928278 0.060316555
0001d0 ee 21 35 bc c8 35 32 be 97 99 03 be 25 0d b2 bd
       -0.011055453 -0.17403328 -0.12851559 -0.08693913
0001e0 97 6c db be a8 ea b5 bd b1 28 36 be 40 2e 26 3e
       -0.42856285 -0.08882648 -0.1778896 0.1622858
0001f0 bf 30 16 bd b8 9d 9b 3d 82 7a c3 be 8a fd 54 be
       -0.03666758 0.07598442 -0.38179404 -0.20799842
000200 47 17 d8 bc 82 43 91 bd ac c2 75 be f5 ce 5c be
       -0.026378287 -0.07092954 -0.24000043 -0.21563323
000210 cf 1b a2 bc 23 5e 89 bd dc dc 29 be 51 0b 65 3e
       -0.01978865 -0.06707408 -0.16588157 0.22367598
000220 30 e6 03 3e 51 cb 80 3e 9f 52 ed bd 21 1b 3e 3d
       0.12880778 0.25155118 -0.11588024 0.04641259
000230 2c dc 04 3e 13 2f 2f 3d a3 30 06 be 90 80 89 be
       0.12974614 0.042769503 -0.13104491 -0.26855898
000240 a6 18 1e 3e 25 53 b1 3e 71 59 5c 3e 48 ca 23 be
       0.1543909 0.34633747 0.21518494 -0.15995133
000250 70 32 9a be fc 45 df bd 63 f9 8c be df 14 ac be
       -0.30116606 -0.1090202 -0.27534017 -0.33609673
000260 75 3a bb be cf 8d ab 3e ca 74 76 3e 1c 86 05 3e
       -0.36568037 0.3350663 0.24067989 0.1303944
000270 d1 1f da bd 8d 58 ba bd 95 4a 0a 3d c1 01 07 be
       -0.106506 -0.09098921 0.033762533 -0.13184263
000280 6e 3d c5 bd d3 a7 90 be d3 92 b3 3e 08 87 c9 3e
       -0.096308574 -0.2825304 0.35072955 0.39360833
000290 72 3b c3 3d ca 7d b9 3d 8e 16 5c 3e 08 69 9c bd
       0.09532823 0.090571955 0.21492979 -0.076372206
0002a0 5b ff ba 3d 6b 3d cc 3d 75 78 8b be 40 d0 55 3f
       0.091307364 0.09972652 -0.2724034 0.8352089
0002b0 5f 42 11 3f fc 95 84 3e 15 c5 2c 3e 9d 79 ea 3e
       0.567419 0.2589568 0.16872056 0.4579591
0002c0 d1 3e 68 3d 57 3b 13 3c c3 d7 2a 3d 86 1c 88 3c
       0.05670053 0.008986316 0.041709673 0.016615164
0002d0 f1 73 f3 3e f4 80 17 3f 58 65 79 3e aa 68 40 3e
       0.47549394 0.5918114 0.24355066 0.18789926
0002e0 8c 52 58 3e 02 ab 22 be dd a8 06 be e9 9b 95 bd
       0.21125239 -0.15885547 -0.13150354 -0.07305128
0002f0 c8 81 83 3e a5 c4 b9 be ae f7 5f be 64 8b 76 be
       0.25684953 -0.3628284 -0.21871826 -0.24076611
000300 86 98 5d be 73 37 39 be 49 96 5a 3d 28 e8 ec 3d
       -0.21640214 -0.18087558 0.05336598 0.11567718
000310 8c fb 75 3c 24 82 86 3e 11 31 25 be 94 6d 4e be
       0.015013587 0.26271164 -0.16131999 -0.20158988
000320 f0 2b e1 be 1f 26 ef 3c 70 a2 16 be 04 77 e3 bd
       -0.43978834 0.029192982 -0.14710402 -0.11106685
000330 20 59 bc 3d 05 17 a6 3e f1 bc 86 3e 7e 90 e2 bd
       0.09196687 0.32439438 0.26316026 -0.11062716
000340 ba 18 8e 3d 2b 45 6f be c5 03 04 3e ad ab 78 3e
       0.0693831 -0.23366229 0.12892063 0.24284239
000350 c6 b8 43 3d f0 01 60 3e 69 e2 bc 3e ee 88 d6 3e
       0.047783636 0.21875739 0.36891487 0.41901344
000360 70 2e ac 3e f5 d6 1f 3e 15 11 33 3e af 12 f3 3d
       0.3362918 0.15609343 0.17486985 0.11868798
000370 6b 7e 6e 3e 49 e5 43 3d 7a 02 07 be f1 bd c8 3c
       0.23290412 0.047826085 -0.13184538 0.024504634
000380 e5 3a 70 bd c1 60 ef 3e 7b a4 1c 3f f0 73 99 3d
       -0.058649916 0.46753505 0.6118848 0.074928164
000390 23 ba ad 3b de 63 07 3f f5 14 88 3e 0c 73 9e ba
       0.0053017302 0.5288676 0.2657849 -0.001208873
0003a0 a8 d6 1b 3d d1 81 a2 bc 13 48 a3 3e 8c 6b a7 3e
       0.03804651 -0.019837292 0.31890926 0.3269924
0003b0 14 6a 85 3e 77 b4 84 3d b0 c6 ab 3e b2 90 63 3e
       0.26057494 0.064797334 0.33550024 0.22223166
0003c0 76 14 ba bd 57 9e 17 bd 2f bc 53 be
       -0.09085934 -0.03701624 -0.20677255

down_convs.0.conv2.bias f4 [3]
000000 32 f5 20 3d 95 93 2e bf 92 9b 81 3b
       0.039296336 -0.6819394 0.003955313

down_convs.0.norm0.weight f4 [3]
000000 ab 92 8e 3f 31 2b 8d 3f c3 e5 4f 3f
       1.113851 1.1028806 0.81209964

down_convs.0.norm0.bias f4 [3]
000000 05 50 81 be a1 c3 ed be 10 be 50 be
       -0.25256363 -0.46438316 -0.20385003

down_convs.0.norm0.running_mean f4 [3]
000000 fc c0 18 bd 84 89 86 bd f8 32 3b bd
       -0.03729342 -0.06569198 -0.045702904

down_convs.0.norm0.running_var f4 [3]
000000 5c be 84 41 0f 9b 31 40 69 a5 0b 41
       16.592949 2.775089 8.727883

down_convs.0.norm1.weight f4 [3]
000000 cf aa 75 3f b4 43 6d 3f c4 d5 6c 3f
       0.9596376 0.9268143 0.9251368

down_convs.0.norm1.bias f4 [3]
000000 ad d5 97 be 98 f8 6e 3b 65 3a d3 bd
       -0.2965521 0.0036464091 -0.10313872

down_convs.0.norm1.running_mean f4 [3]
000000 80 d5 60 3f 80 43 12 c0 dc 21 02 40
       0.87825775 -2.2853699 2.0333166

down_convs.0.norm1.running_var f4 [3]
000000 9f 9d 35 42 78 4b e6 41 8d 74 0e 42
       45.403927 28.78685 35.61382

down_convs.1.conv1.weight f4 [6, 3, 3, 3, 3]
000000 7a d3 59 be 28 45 58 be 18 8e 85 be 69 a5 ff bd
       -0.21272078 -0.21120131 -0.2608497 -0.12482721
000010 ee 93 c0 3d 94 c6 cf 3b f3 81 c0 be fa 1d 9c be
       0.09403215 0.006340811 -0.37599143 -0.3049162
000020 eb 80 f1 be cb 7d 1d 3d 0d ef 81 39 1a 27 a4 3d
       -0.4716867 0.038450044 0.00024782904 0.080152705
000030 27 bd d7 3d 79 78 7d 3e 1a eb a6 3d bf c2 aa be
       0.10534125 0.24752988 0.08150311 -0.33351704
000040 96 60 d4 bd 16 83 5b be 15 61 d1 be c1 50 a2 bd
       -0.10369985 -0.21436724 -0.4089438 -0.07925559
000050 d5 86 37 be 42 30 36 bc 03 99 52 bd 2b d7 2b bd
       -0.17922528 -0.011119904 -0.051415455 -0.041953247
000060 54 69 7e be 81 0b 8a be b7 a8 f3 bd 9d b5 c7 3d
       -0.24844867 -0.26961902 -0.11897414 0.09751437
000070 19 7a 35 3e 63 22 98 3e 7c e9 d4 bd 58 a5 86 be
       0.17722358 0.29713735 -0.10396096 -0.26298022
000080 9e 42 55 be db fb ae bd 03 4d a4 be cb e0 0c bf
       -0.20826194 -0.08544131 -0.32090005 -0.55030507
000090 84 df 9d 3e 05 2a a0 bd 8b 03 86 3e 41 3b 8f be
       0.3083459 -0.078205146 0.26174578 -0.27974895
0000a0 5f 1c 92 be 3a c3 a6 be f9 83 e6 be f8 30 e7 be
       -0.2853727 -0.3257082 -0.45022562 -0.45154548
0000b0 97 3b 83 be ea 1b d4 3d c6 ab c1 3d 92 6d 03 3e
       -0.256314 0.10356887 0.09456591 0.12834767
0000c0 5b 23 1f be 1c 5a a0 be d8 62 85 be 85 bc 37 be
       -0.15540831 -0.31318748 -0.26051974 -0.17943008
0000d0 11 20 8c be 0d 30 a5 be aa b2 e5 3e 51 40 3c 3f
       -0.27368215 -0.32263222 0.44862872 0.7353564
0000e0 c9 3c fc 3e 32 29 08 be de eb 45 3e a4 9b 1b bd
       0.49265125 -0.13296965 0.19328257 -0.037990227
0000f0 fc 86 82 be b9 cd 18 3e ca 70 d6 3b 68 d7 3b 3f
       -0.2549361 0.14922227 0.006544207 0.7337556
000100 05 82 9d 3f 28 34 1a 3f d9 2d 0d be 00 3e d0 3e
       1.2305304 0.60235834 -0.1378702 0.40672302
000110 c4 60 68 3c a8 bc de 3c 29 2c aa 3e 07 6a 94 bc
       0.014183227 0.027189568 0.33236817 -0.018116964
000120 34 c6 d9 3d 7d 49 a1 3e 99 8f 37 3e 50 aa d8 be
       0.10633507 0.3150138 0.17925872 -0.42317438
000130 1c 13 4b be 64 c3 96 be 7e d3 47 be 8b c6 87 bd
       -0.19831508 -0.29445946 -0.19514272 -0.06629666
000140 e2 4f 46 be df 42 ec be 5d 24 a3 be 24 00 ff bd
       -0.1936641 -0.4614477 -0.3186368 -0.12451199
000150 f6 90 da be 60 f5 26 bf 2f 55 3a be 49 a5 5e 3e
       -0.4268872 -0.6521816 -0.18196557 0.21742739
000160 41 44 d9 bc e2 1d 89 3e cd 00 4d be f9 56 88 bd
       -0.026521804 0.2678061 -0.20019837 -0.06657214
000170 cb 75 4a be 2f ab e6 be b3 3d 09 bf ca f0 b1 be
       -0.19771497 -0.45052478 -0.5360977 -0.3475402
000180 7e 91 ed bc 74 88 0e bd f2 5f c3 3d 8b d1 98 be
       -0.02900004 -0.0347981 0.095397845 -0.2984737
000190 ac 92 3f be 1d b1 cb be 24 cf b5 be 87 22 ae be
       -0.18708295 -0.39783564 -0.35509598 -0.34010717
0001a0 0c 53 38 be b5 1e 2b 3e fb aa e7 3c 6e a3 94 3e
       -0.1800043 0.16710933 0.028279772 0.29030937
0001b0 b8 ef b2 3d 7e d7 1f be 45 98 be bc 7f 7f 46 be
       0.08737129 -0.15609547 -0.023265967 -0.19384573
0001c0 2c 68 42 be 99 9b 32 be 9e 16 81 be 76 00 e6 bd
       -0.18985051 -0.17442168 -0.25212568 -0.11230557
0001d0 0d 8f 52 be 68 50 8e bc f4 50 e5 3b 4e cd 49 bd
       -0.20562382 -0.017372325 0.0069981758 -0.04926806
0001e0 0d 0d 78 be cc 19 82 be 95 08 8b bd f1 d8 4f bd
       -0.24223728 -0.25410306 -0.06788746 -0.050744
0001f0 26 ae 74 be cb 9d 19 bd d7 db 0a bd 4b d4 37 be
       -0.23894557 -0.037504 -0.033901062 -0.17952077
000200 32 22 d3 bd 7a 49 71 be 46 2d 80 be fe a9 50 be
       -0.103092566 -0.23563185 -0.2503454 -0.20377347
000210 ba 9f 1c 3e 01 96 ac bd 4a 3a ee bc b7 91 10 bf
       0.15295306 -0.084270485 -0.029080529 -0.56472343
000220 b3 47 5d bf f0 b2 26 bf 86 9e 6a be 13 b9 c9 be
       -0.8643753 -0.65116787 -0.22912034 -0.39399013
000230 92 ad 6e be fd b2 d1 3e bc d3 6f 3e e0 b4 5c 3e
       -0.233084 0.4095687 0.23420614 0.21553373
000240 3c 0e f9 be 72 fd 0a bf cf 4d 01 bf cd 5c 80 be
       -0.48643672 -0.54292977 -0.5050935 -0.250708
000250 34 04 7b be 31 29 bc bd 95 89 d3 3e 98 40 cd 3e
       -0.24513322 -0.09187544 0.41315904 0.40088344
000260 4e a8 c6 3e 48 f0 1b bf b0 82 9b be 0b 60 1b be
       0.3880028 -0.60913515 -0.30373144 -0.15173356
000270 ec 50 d5 be cf c0 cb be 45 7f c5 bd 49 62 9d 3e
       -0.416633 -0.3979554 -0.09643415 0.30739048
000280 7b af a7 3e 1e 6d b3 3e 0c d9 14 be ae 21 73 3c
       0.32751068 0.35044187 -0.14535922 0.014839573
000290 70 98 54 be 73 da 6e be 98 6e e3 bd 55 a3 42 3d
       -0.20761275 -0.2332552 -0.111050785 0.047519047
0002a0 d0 9e c5 be 0e e0 48 be e7 b2 33 be ce b2 32 be
       -0.38597727 -0.1961672 -0.17548715 -0.17451021
0002b0 52 fa 53 3e aa 36 7d 3e ea 44 6a be 52 d3 99 3e
       0.20700958 0.24727884 -0.22877851 0.30044037
0002c0 59 c1 b0 3e ee cf 5a be 7f 29 f3 bd 7e 02 59 3c
       0.34522513 -0.21368381 -0.11873149 0.013245223
0002d0 18 32 35 bd 5a 40 27 3e 39 a1 4e 3e 62 88 df bd
       -0.044237226 0.16333142 0.20178689 -0.10914685
0002e0 c4 5e 5a 3e c2 74 3e 3f 1d 99 5e be 00 6d a2 3d
       0.21325213 0.7439691 -0.21738096 0.07930946
0002f0 b2 9f ef 3d 2b 89 f9 3e 13 c2 00 3e fa 93 33 3e
       0.11700381 0.48737463 0.12574033 0.17536917
000300 f5 e1 b1 bd 26 4d 5d be 25 b6 f4 3a b5 0f 6e be
       -0.08685676 -0.21611461 0.0018670006 -0.2324818
000310 62 73 8f be 8d 78 91 be 39 cc 4d 3e f0 c9 af 3d
       -0.28017718 -0.28412285 0.20097436 0.085834384
000320 9d b3 c3 3d b6 bc 8a 3c b5 a8 3e be 6c 2e 8a be
       0.09555743 0.016935688 -0.18619044 -0.26988542
000330 6c a9 3c be 94 a9 a9 be 79 df a9 be 5e 25 9c bd
       -0.18424004 -0.3313719 -0.3317831 -0.07624315
000340 6e 33 30 bc cc 15 a2 3c 65 ef e5 bd a9 99 8d be
       -0.010754449 0.019785784 -0.112273015 -0.27656296
000350 06 d7 aa be 38 bc 49 be ef 82 ae be d9 2c 97 be
       -0.33367175 -0.19700706 -0.3408427 -0.29526404
000360 b4 d6 fe 3c 35 e2 c1 3e da 33 93 3e 38 dc 44 3d
       0.031108238 0.37867895 0.28750497 0.04806158
000370 b6 c7 7d 3e da 86 b3 3d 10 4c e5 bd 71 03 cc 3e
       0.24783215 0.08765955 -0.111961484 0.39846376
000380 51 89 27 3e 29 fe 06 3e 9e 80 de 3e be e2 9f 3e
       0.16360976 0.13182892 0.43457502 0.31227678
000390 70 72 02 3e 20 d0 5c 3f bf 4a fa 3e f7 cd 9a bb
       0.12738967 0.86255074 0.48885152 -0.00472426
0003a0 2e 38 0c 3f b4 66 46 3f 97 46 8a 3d 1e f2 8e 3d
       0.54773223 0.7750046 0.06751745 0.06979774
0003b0 8d 89 65 3e c0 7e 6c be cd 46 6e 3e 9d 4d 1d 3e
       0.22415753 -0.23095226 0.23269196 0.15361638
0003c0 33 bb c4 3c 98 90 6d 3e d6 34 9e 3e 6a 3d 45 be
       0.024015045 0.2319969 0.30899686 -0.19261709
0003d0 44 96 5c be d5 7c 93 be 38 06 9b be 01 e6 77 be
       -0.21541697 -0.28806177 -0.30278182 -0.24208833
0003e0 22 fa 11 be 3d 38 a2 ba e1 da 4d be 52 bb 2a be
       -0.14255574 -0.001237638 -0.20103027 -0.1667302
0003f0 8f 0a de bd c1 e1 94 bd 27 08 86 3b ed a1 34 be
       -0.10841858 -0.07269622 0.0040903273 -0.17639895

down_convs.1.conv1.bias f4 [6]
000000 95 af 32 bd fd fc d1 3c 21 6b 29 ba 04 08 de bd
       -0.04362448 0.02563333 -0.0006462802 -0.108413726
000010 1a 83 0e 39 c7 cd 7b 3d
       0.00013591014 0.06147554

down_convs.1.conv2.weight f4 [6, 6, 3, 3, 3]
000000 59 28 81 3c b5 f6 b4 3b da dd 2f be 32 2b 53 3c
       0.01576631 0.005522574 -0.17174473 0.0128887165
000010 c3 04 0c 3e 28 65 00 3d 1d 32 ff 3d 01 24 52 3e
       0.13673691 0.03134647 0.1246073 0.20521547
000020 f5 ac da bc 0d 4d 96 3e 25 c7 87 3e 5b 39 c3 3d
       -0.0266938 0.2935566 0.26519123 0.09532424
000030 3e 42 7e 3e 56 d7 04 3f 65 bd 52 3e d0 4a bc 3e
       0.24829957 0.51891077 0.20580061 0.36775827
000040 6a c8 5a 3f 5e e5 14 3f 45 06 88 3e 77 80 3b 3d
       0.8546206 0.58162487 0.26567283 0.04577681
000050 19 a5 0d 3e 92 24 f9 3d 64 04 f8 3e 5b 09 54 3e
       0.13832511 0.12165178 0.4844085 0.20706694
000060 89 53 c3 3e 71 60 7d 3f 74 e7 0a 3f 4e bb 49 be
       0.3814967 0.9897528 0.5425942 -0.19700357
000070 4a 14 a4 be 06 fb 4a be 6b e7 47 be 63 33 ea bd
       -0.3204673 -0.1982232 -0.19521873 -0.114355825
000080 d8 23 88 be 47 3c 80 be 05 5f 8e be e1 eb b7 bd
       -0.26589847 -0.25045988 -0.2780687 -0.08980537
000090 fd db 20 be e3 0b c0 bd ca db 6b bd 84 a7 83 bc
       -0.15708919 -0.09377267 -0.057582654 -0.016071089
0000a0 bb eb be bd 9c 32 72 bd e3 53 2f be f5 fc 63 be
       -0.09322306 -0.059130296 -0.17121844 -0.22264464
0000b0 a3 21 bd bd 16 de 7b be 6f 4e 47 bd ae d2 81 be
       -0.09234931 -0.24596438 -0.048658784 -0.25356048
0000c0 7c 16 cf ba 15 bc 08 be c1 4d a7 3d 47 57 86 be
       -0.0015799548 -0.13352998 0.08169127 -0.26238462
0000d0 d2 f0 04 be 80 a7 13 be 2d 41 79 3e 78 15 96 3e
       -0.1298249 -0.14419365 0.24341269 0.29313254
0000e0 ab d4 bb bd 7f 8f 90 3e ea 9b 64 3e 2d bb 57 bc
       -0.091714226 0.2823448 0.22325101 -0.013167185
0000f0 c7 82 f2 3d ae 46 ed 3e ef 8a 4b be b7 f3 ac 3e
       0.1184135 0.46342987 -0.19877218 0.3377969
000100 d2 c9 17 3f 33 12 ab 3d 4d 6d 1b 3f 84 64 7f 3f
       0.5929233 0.083530806 0.60713655 0.9976275
000110 65 af 3d 3d 45 dd f5 3e 57 f6 4b 3f 8a 7a 6e 3d
       0.046309847 0.48020378 0.7967276 0.05822233
000120 c6 70 57 3d 3a f4 0a 3e 4c 14 db bd c7 d5 4a 3e
       0.052597784 0.13569728 -0.10697231 0.19808112
000130 58 e1 e3 3e d7 79 f0 bb 93 ac a0 3e 02 38 b4 3e
       0.4450786 -0.007338743 0.31381664 0.3519898
000140 93 34 36 3c f9 b2 78 be 99 c8 d1 bd e8 50 25 be
       0.011120933 -0.24287023 -0.10243339 -0.16144145
000150 08 20 38 be fe cb 1f be f9 60 db bd b7 f0 02 be
       -0.17980969 -0.1560516 -0.107118554 -0.12787138
000160 90 a4 93 be f1 7c d9 3c 2c 7f 3a be e0 04 46 be
       -0.2883649 0.026548835 -0.18212575 -0.19337797
000170 03 6d a5 be 59 36 f3 bd 42 47 99 bc c2 fb 2e be
       -0.32309732 -0.118756 -0.018710736 -0.17088225
000180 1d 69 97 be 2a 18 8d be d6 c0 0e be 51 f9 1f be
       -0.29572383 -0.27557498 -0.13940749 -0.1562245
000190 37 93 62 be 6d 1b 0a bd aa 57 4d bd 8d ee 4a be
       -0.2212647 -0.03371756 -0.05013243 -0.19817562
0001a0 ab 3c 46 bc 1b a5 d1 bc 5b 98 0a be 94 89 8c be
       -0.012099425 -0.025591424 -0.13534681 -0.27448714
0001b0 e1 97 7e 3e 1e 60 09 3f 37 46 90 3d 30 04 7f bb
       0.24862625 0.5366229 0.070446424 -0.0038912408
0001c0 36 0e ac 3e d7 07 f8 3c 6f 7f 6a 3d ca 22 65 3d
       0.33604592 0.030277176 0.057250436 0.05594138
0001d0 c5 e3 b8 3d c9 1f ba 3e b0 63 83 3f 49 da 88 3e
       0.090278186 0.36352375 1.0264797 0.26729038
0001e0 ea ac 94 3e 12 63 5f 3f 85 d7 dc 3e b7 44 e6 3d
       0.29038173 0.87260544 0.43133178 0.11243575
0001f0 18 99 06 3f 36 a1 73 3e 25 e1 0d 3c 55 b7 ba 3d
       0.5257735 0.23791966 0.008659636 0.09116999
000200 33 45 5d 3e ad 99 fd 3d 67 ae d0 3e 4a de ac 3d
       0.21608429 0.12382827 0.40758058 0.08440836
000210 27 be 1d 3e ca 95 c3 3e 7f c6 92 3e cf 76 85 3d
       0.15404569 0.38200217 0.28667066 0.065168016
000220 6b 7f e3 3d 3a a6 5d 3e 8f 02 9a bd 10 0c 26 3d
       0.111082874 0.21645442 -0.07520019 0.040538847
000230 f1 cc bf 3d d2 ae 88 be 9a 43 ff be d1 ab b5 be
       0.09365261 -0.26695877 -0.49856263 -0.35482648
000240 00 9a de 3d 5d be 09 3e b4 cd 16 3e a5 36 f0 bb
       0.10869217 0.13451524 0.14726907 -0.007330733
000250 15 cc 32 3e 40 fc 09 3e fc fa 93 be 4b 59 83 be
       0.17460664 0.13475132 -0.28902423 -0.25654063
000260 dd 22 4a be 4f fc 10 be f9 27 8a 3c 6d 4a 3c 3e
       -0.19739862 -0.14158748 0.016864764 0.18387766
000270 7e 1a a9 3c f0 35 ca 3d 24 11 64 3e f6 bd 59 be
       0.020642515 0.09873569 0.22272164 -0.2126387
000280 01 98 8d be 0a 40 85 be c8 40 9b 3e 2d 96 6f 3e
       -0.27655032 -0.2602542 0.30322862 0.23397131
000290 26 0d 2b 3e 4d 31 bc 3e c6 c5 7e 3e 99 1b a0 3e
       0.16704234 0.36756364 0.24880132 0.31271055
0002a0 21 0d 0d be f1 f2 f3 bd 98 29 7b 3d 7a 82 e1 3d
       -0.1377454 -0.11911572 0.061318964 0.110112146
0002b0 f5 e6 91 bc cf 8d 60 3d 10 c8 01 3e 1b 24 c1 3d
       -0.017810324 0.05482274 0.12673974 0.09430715
0002c0 f2 33 e5 3d ff 09 60 be 70 f4 8c be 3e 5f 89 be
       0.111915484 -0.21878813 -0.2753024 -0.26830477
0002d0 bd 45 a2 3d ff 72 2f bd 61 11 88 bc c8 19 db 3c
       0.07923458 -0.04283428 -0.01660985 0.026745692
0002e0 cc be 0d bd d7 84 d6 bb 0d 51 96 be 17 1e 86 be
       -0.034605786 -0.0065465975 -0.29358712 -0.26194832
0002f0 fa ba b5 be 47 1a cd be 0d 42 d3 be 7a 22 04 bf
       -0.35494214 -0.4005911 -0.4126133 -0.5161511
000300 ca f0 8f be ad c7 94 be 16 95 33 be 40 75 03 be
       -0.28113395 -0.2905859 -0.1753734 -0.12837696
000310 52 52 bd bd ca 87 9f be e1 9f ed be be d1 c0 be
       -0.09244217 -0.31158286 -0.4641104 -0.3766002
000320 99 4a aa be 8b 45 02 be 56 91 0f be a4 09 a9 bd
       -0.33260038 -0.12721841 -0.14020285 -0.08253792
000330 8d bb 7c bd 91 4e 95 bd 9f ee 23 be e1 5b 81 be
       -0.0617023 -0.07290376 -0.16008995 -0.2526541
000340 01 45 dc be 08 4e 32 be 0c 0f a5 be da 3e c5 bb
       -0.43021396 -0.17412579 -0.32238042 -0.0060194554
000350 da f9 cc bd cf 35 53 bd ca 33 e2 bc 14 93 5d bd
       -0.10008593 -0.051564988 -0.027612586 -0.054095343
000360 13 bc 13 bd aa 56 55 3e 5e 74 2a 3e 08 e2 35 be
       -0.036068033 0.20833841 0.16645953 -0.17762005
000370 db 83 37 be 28 fe be bd 47 b6 71 bd 5c 90 99 be
       -0.17921393 -0.0932582 -0.059011724 -0.2999295
000380 0e bd 39 be 46 e9 fd bd 3c 07 38 be 7a 02 0f be
       -0.18138525 -0.12398009 -0.1797151 -0.13965788
000390 23 85 d0 be f7 f7 f2 bd 07 6f ea bd e1 91 f4 ba
       -0.40726575 -0.11863702 -0.11446958 -0.0018659198
0003a0 91 64 84 be b9 68 87 be 62 70 3d be c7 25 1d be
       -0.25857976 -0.26447085 -0.18499902 -0.15346442
0003b0 0e 8c 22 be 9b 0e 34 be e9 35 cc be a1 b8 25 be
       -0.15873739 -0.17583697 -0.3988488 -0.16183712
0003c0 88 1a 59 be 0e ba 9f be 15 96 b1 bd 7e 8d 9d be
       -0.21201527 -0.31196636 -0.08671204 -0.30772012
0003d0 b3 d2 a6 be 64 21 1f bf 95 4a 85 be a1 e7 3e be
       -0.32582626 -0.62160325 -0.26033464 -0.18643047
0003e0 61 d7 dc be 5f 3e 24 be d3 69 90 be 05 7a 84 be
       -0.4313307 -0.16039418 -0.28205737 -0.25874344
0003f0 cf 6b da be a3 16 79 be af 2b a0 be 74 32 1b be
       -0.42660376 -0.24325041 -0.31283328 -0.15155965

down_convs.1.conv2.bias f4 [6]
000000 bf d1 2e bb 05 ba 8f bc ad 7e 74 3a 90 5f e4 3b
       -0.0026675311 -0.017544756 0.00093267375 0.0069693998
000010 8f cc 42 3a 34 ac c1 3b
       0.00074309943 0.005910421

down_convs.1.norm0.weight f4 [6]
000000 3d b8 6e 3f ec 72 a8 3f e9 35 1d 3f 19 e3 9e 3f
       0.93249875 1.3160071 0.61410385 1.2413055
000010 82 7d 2c 3f 79 d0 b5 3f
       0.6737901 1.4204246

down_convs.1.norm0.bias f4 [6]
000000 6c 38 3e be 4d 71 77 3e 81 1b f6 be 0e 84 b0 3e
       -0.1857621 0.24164315 -0.4806786 0.3447575
000010 c8 30 af be 22 c0 42 be
       -0.34216905 -0.19018605

down_convs.1.norm0.running_mean f4 [6]
000000 e5 66 f6 be 1b 82 36 c0 a1 c3 88 3f 62 cb d3 bf
       -0.48125377 -2.851691 1.0684701 -1.6546443
000010 35 d6 e6 3f 3e d7 d0 3f
       1.8034121 1.6315687

down_convs.1.norm0.running_var f4 [6]
000000 4e 49 8c 41 6f a5 60 42 38 f5 11 42 86 30 f8 41
       17.535793 56.161556 36.48947 31.023693
000010 b1 4b 65 42 b9 90 96 41
       57.323917 18.820665

down_convs.1.norm1.weight f4 [6]
000000 92 a7 81 3f 16 09 49 3f 04 0e 98 3f 79 0d 8c 3f
       1.0129263 0.7852949 1.1879277 1.0941612
000010 05 a2 54 3f 16 fe 85 3f
       0.8305972 1.0468166

down_convs.1.norm1.bias f4 [6]
000000 4e b4 37 be 84 8c 25 bd 33 c5 53 3e 05 49 d4 bd
       -0.17939875 -0.04041721 0.20680694 -0.1036549
000010 b5 53 c8 be f8 af e6 be
       -0.39126363 -0.45056129

down_convs.1.norm1.running_mean f4 [6]
000000 40 6f d3 bf 37 e7 eb c0 ab 99 9d c1 b5 22 c5 c0
       -1.6518326 -7.3719745 -19.700033 -6.1604867
000010 4a 83 aa bf 73 54 73 c0
       -1.3321316 -3.8020294

down_convs.1.norm1.running_var f4 [6]
000000 72 38 17 43 27 3a 81 42 15 58 2d 42 fa 17 a8 42
       151.22049 64.61358 43.336018 84.04683
000010 32 ca 10 43 47 c4 cf 42
       144.78983 103.883354

down_convs.2.conv1.weight f4 [12, 6, 3, 3, 3]
000000 cb 3a c4 3e a1 b7 ea 3d 75 49 f5 3e 38 77 6d 3d
       0.38326105 0.11460806 0.47907606 0.057975024
000010 ec 58 42 be 54 86 a2 3d c6 dd 8e bc 85 11 d9 be
       -0.18979234 0.07935777 -0.017439734 -0.4239618
000020 6b 70 aa bd 22 60 8e 3e 8e 73 87 bc bf 23 a5 3e
       -0.08322223 0.2780772 -0.016534593 0.32253835
000030 f7 f8 67 3b 0a 31 b2 be c9 28 cd bd 9f 2f 74 be
       0.0035396197 -0.3480304 -0.10017545 -0.23846291
000040 4e ba 0c bf 80 ad a1 be da 3e a2 3e 01 05 a9 3e
       -0.5497178 -0.31577682 0.31688577 0.3301163
000050 cd fe b9 3e 38 22 53 3e ad ae 31 be ac cd a5 3d
       0.3632721 0.20618522 -0.1735179 0.080958694
000060 22 b8 11 3d f6 03 4c be 8b 7a 8c be 4c 06 72 bd
       0.035575993 -0.19923386 -0.27437243 -0.059088036
000070 e0 2e 73 bd d6 62 d9 be 8d 60 bc 3d 85 e1 21 3e
       -0.059370875 -0.42458218 0.09198103 0.15808685
000080 23 a3 29 bd 3a 2e c2 3e ad 80 b5 3e d8 44 60 3e
       -0.041415345 0.37925893 0.35449734 0.21901262
000090 5f eb b2 bd 65 d7 1a be 91 d8 c8 bd 3c 47 77 3d
       -0.087363 -0.15121229 -0.09806932 0.06037067
0000a0 fe c8 01 3d b3 7c 28 bd 15 68 71 3e e2 ad 57 3e
       0.03168582 -0.041134547 0.2357486 0.21062425
0000b0 4a 73 e8 3d c3 20 85 bd 44 d0 a3 be 5c 70 9c be
       0.11350115 -0.065003894 -0.31994832 -0.30554473
0000c0 a3 e9 b3 bd 6e af 81 bd b2 a6 48 be 1e 2b 0f 3e
       -0.08784797 -0.06332289 -0.19594839 0.13981292
0000d0 ad 6a 98 3d b2 ee 67 3d c6 2f f5 be 4a 5f b2 be
       0.07442222 0.056624122 -0.4788801 -0.34838325
0000e0 49 7d 13 bf 9e 1f 64 be 2d 73 02 be 43 4c 9a be
       -0.57613045 -0.22277686 -0.12739249 -0.30136308
0000f0 5f 56 86 3e 54 49 93 3e 98 fc 86 3e 6f 22 de be
       0.2623777 0.28766882 0.2636459 -0.43385646
000100 57 1e 90 be e3 1c ce be d1 8c 9f 3c b4 78 d5 3d
       -0.28148147 -0.40256414 0.019476326 0.10423413
000110 f9 fe b8 bd 36 bb 9c 3e 6f 6e fa 3e 28 0f f5 3e
       -0.09033007 0.3061158 0.4891238 0.47863126
000120 98 24 c0 be 62 be aa be 5d de b8 be f5 a8 82 be
       -0.3752792 -0.33348376 -0.3610715 -0.2551953
000130 ff cb 19 3e f9 6a 11 3d e9 ef 5e 3e ae 3d b1 3e
       0.15019225 0.035502408 0.21771206 0.3461737
000140 9a ac 0b 3f 44 7c 03 3f a6 6c ba 3e 0b f8 a9 3e
       0.54560244 0.5136149 0.36411017 0.33197054
000150 3c e6 c2 3d fc c2 ed bd 62 a7 e3 3c ec a4 37 bd
       0.0951657 -0.11609456 0.027789775 -0.044835016
000160 98 72 a0 be 27 bb c6 bc 6b 13 9d 3e 3d cd 6d 3e
       -0.31337428 -0.024259163 0.30678877 0.23222823
000170 b9 95 c7 3e 2a 25 4a 3e fa 0a 72 be ae f2 2e bc
       0.38981417 0.1974074 -0.23637 -0.0106779765
000180 de e5 63 bd 4a 17 f4 be 93 d2 a8 be dd 7f ac 3e
       -0.05563914 -0.47674018 -0.32973155 0.33691302
000190 c8 ef 5a 3e 26 1e ef 3e 29 6e 9d 3e c8 0c 6d 3d
       0.21380532 0.4670269 0.30748108 0.057873517
0001a0 9d 84 6d 3e 06 57 b8 3d e1 8c 3f be 91 61 b7 bd
       0.23195119 0.090009734 -0.18706085 -0.08954156
0001b0 3a e6 1d 3e f8 62 08 3e 45 ec 91 3e 3d b4 5b 3e
       0.15419856 0.13319004 0.28500572 0.21455474
0001c0 a3 1e 36 bc 2a 27 22 3e 6b ea cf 3e 86 0e 29 3e
       -0.011115703 0.15835252 0.40608534 0.16509447
0001d0 36 a2 08 bd 8c 4e 63 3e d6 91 41 3c 3c b4 f4 3d
       -0.03335782 0.22197932 0.011814555 0.119484395
0001e0 ad 23 39 3e d2 78 12 be 3d 29 88 3c 36 d3 b1 3e
       0.18080015 -0.14303902 0.016621226 0.34731454
0001f0 45 6f b8 3d c5 85 12 3e e6 60 b6 3d 53 87 b8 3d
       0.09005598 0.14308842 0.08905201 0.09010186
000200 30 40 4b 3e e4 d7 8c 3e 73 12 76 bc 68 48 4b 3d
       0.19848704 0.2750846 -0.015019047 0.0496296
000210 02 18 d0 3e 58 86 3e 3e 9e 06 1f 3d e7 11 8a 3e
       0.40643317 0.18605936 0.03882467 0.26966783
000220 b9 df 1b 3e 78 c8 4c 3e 1c 18 94 3e 38 97 95 bd
       0.15222062 0.19998348 0.28924644 -0.07304233
000230 e1 42 09 bd 8b a5 7f 3e 4e 99 ad 3d 6e 74 7d bd
       -0.033511046 0.24965493 0.08476506 -0.061878614
000240 fd 4c 70 3e db 9b aa 3d 5b ff 44 3e 1a fe 7d 3e
       0.23466869 0.08330508 0.19238035 0.24803963
000250 d8 09 44 3d b8 6f de bd 26 14 ce 3e 3a 41 06 3e
       0.04786095 -0.108611524 0.40249747 0.1311082
000260 0c e9 90 3d 5b d9 91 3e fd 99 60 3e 6f 4f b1 3e
       0.070757 0.28486142 0.21933742 0.34630916
000270 db ec 15 3f 34 3f 7c 3e cf 57 9e 3d e7 ab c0 3e
       0.5856454 0.24633485 0.07731592 0.3763115
000280 3f fd 3d 3e cd 65 1e 3e ce e1 89 bc 2c 9e 68 3d
       0.18553637 0.15468521 -0.016831305 0.05679147
000290 65 87 33 3e 26 a6 e3 3d 34 ca a7 3b 98 a3 c4 3d
       0.17532118 0.11115675 0.00512054 0.096015155
0002a0 94 40 72 3d 4f b5 2d be 9c 88 fd bd 56 e9 4d be
       0.059143618 -0.16963695 -0.12379572 -0.20108542
0002b0 72 9f 71 be 14 e2 03 3d 17 77 8d bd 60 2c 73 be
       -0.2359598 0.032198027 -0.0690748 -0.23747396
0002c0 c6 34 9d be 89 d4 b0 be 55 45 87 be d2 d8 9b be
       -0.30704325 -0.3453715 -0.26420084 -0.30438858
0002d0 05 c3 b6 bd bd a4 1e ba 79 40 01 be f4 b8 58 be
       -0.08923916 -0.00060517696 -0.1262225 -0.21164304
0002e0 7c a4 72 be cb 26 67 be d2 ca bf be 54 1a c4 be
       -0.23695558 -0.22573392 -0.37459427 -0.38301337
0002f0 0e 59 92 be 90 54 2f 3d 2b 66 ec 3b 00 90 c1 3d
       -0.28583568 0.042805254 0.007214328 0.09451294
000300 d5 b9 3d 3e 20 3a bd 3d a4 ae 87 3d 18 c9 c9 3d
       0.1852792 0.09239602 0.06625107 0.09852809
000310 7c 70 e7 3d 13 85 a7 3e e8 ad ca bc ae 5c f7 3d
       0.113007516 0.32718715 -0.024741128 0.12078224
000320 37 cf 25 3e 1a fd c3 3d 35 39 20 3e bc 8c fa 3d
       0.16192327 0.0956976 0.15646823 0.12233874
000330 38 fd ba bc 7f ba a6 bd 97 70 10 3e ef d1 13 be
       -0.022825822 -0.0814104 0.1410545 -0.14435552
000340 fa 48 0a be dc 04 e1 3d be 6b 71 be a0 aa 6d be
       -0.13504401 0.10987255 -0.23576257 -0.2320962
000350 52 f3 f3 bd 14 65 c6 be d5 69 e0 be cc ed c1 bd
       -0.11911644 -0.3874899 -0.43830743 -0.09469184
000360 5b 26 a0 3e af c4 67 3e 7d 9c a0 3e f1 e0 4b 3e
       0.31279263 0.22633623 0.3136939 0.19910027
000370 e8 42 8c 3d d7 ef a8 3d 38 0c 0c 3e 69 58 02 3e
       0.06848699 0.08248871 0.13676536 0.12729038
000380 5b a9 95 3e 95 d2 b0 3e 8b c5 02 3f 8f 65 15 3f
       0.2923077 0.3453566 0.51082677 0.5835809
000390 ff b3 93 3e 24 57 2d 3e 31 ec b2 3e 94 b5 72 3e
       0.28848264 0.16927773 0.34945825 0.23702079
0003a0 0a 12 4a 3e d5 25 3a 3e 61 4c f0 3e ab a2 e2 3e
       0.19733444 0.18178494 0.46933272 0.4426473
0003b0 bc 63 34 3f a9 b5 27 3e 9b 44 94 3e 7c 51 a8 3e
       0.7046468 0.16377892 0.28958592 0.32874668
0003c0 26 7a 8a bc 23 0e 97 3d 9b 83 6b 3e ec 94 23 3d
       -0.016903948 0.07375743 0.22999422 0.039936945
0003d0 72 ad f3 3b 1a 3a fa 3d 7e c4 bd bd 07 28 ea bd
       0.007436448 0.12218113 -0.092659935 -0.11433416
0003e0 bd 8b 1b be 4e 58 19 bd 0a c8 26 be a3 0a bb bd
       -0.15190025 -0.03743773 -0.16287246 -0.09132888
0003f0 09 8f c8 bd ab 15 c1 bd f7 e3 40 bd c7 74 3f be
       -0.09792907 -0.09427961 -0.047092404 -0.18696891

down_convs.2.conv1.bias f4 [12]
000000 a7 18 2b 3b b9 5d 26 3a 62 4b 67 3b 3e 58 95 ba
       0.0026107223 0.0006346363 0.0035292734 -0.0011394096
000010 84 91 0e bb ce 77 a7 bb c8 9c 0c b9 88 49 9f b9
       -0.0021754215 -0.0051107174 -0.00013409846 -0.00030381628
000020 5a 5a 35 b9 4d a6 87 39 cc d6 48 3a 8d 5b 91 38
       -0.00017295164 0.0002587311 0.0007661402 6.9311915e-05

down_convs.2.conv2.weight f4 [12, 12, 3, 3, 3]
000000 44 40 d5 bc a7 bc d9 3c 19 e0 c9 bd fa 97 0e 3e
       -0.02603162 0.026579214 -0.09857196 0.13925162
000010 30 b7 00 3e 75 05 d2 3c 5f a9 c7 3d 6b ef 2d 3e
       0.1256988 0.025637368 0.09749102 0.16985862
000020 0e 29 2b be a5 6c ae bd 34 e9 62 3d 39 1f 86 bd
       -0.1671488 -0.08516816 0.05539818 -0.06548924
000030 76 b7 42 3e f2 05 0f 3e bb 26 04 ba 6f 2f d1 bc
       0.19015297 0.13967112 -0.00050411717 -0.025535313
000040 12 a1 40 3e e3 80 16 bc 96 05 8f be 78 ba 7e be
       0.18811443 -0.009186002 -0.2793395 -0.2487582
000050 57 18 a9 be fd f3 ee 3b 39 b3 72 bd 13 bc 7a be
       -0.33026382 0.0072922693 -0.05925295 -0.24485807
000060 1a 2f cc 3b 62 b3 66 3d b5 d6 89 be 64 32 d2 be
       0.006231201 0.056323417 -0.2692162 -0.4105407
000070 9a d5 0c bf be 5b da be 98 87 75 bd 1d c7 1e 3e
       -0.5501343 -0.4264812 -0.059943765 0.15505643
000080 30 7a 0f be af f2 c8 3d 6a cf ca bd a1 a3 71 be
       -0.14011455 0.09811913 -0.09902842 -0.23597576
000090 e1 36 8c be c7 54 f2 bd af a1 2f be 52 cf 18 bd
       -0.2738562 -0.11832576 -0.17151521 -0.03730709
0000a0 4b 97 72 bd 3b c6 c5 bc 75 eb ad bd d7 5f 38 be
       -0.059226315 -0.024142375 -0.084921755 -0.1800531
0000b0 4a 3a 77 be ec f5 24 be 0b 40 d4 bd 6d a5 4b be
       -0.2414333 -0.16109437 -0.10363778 -0.19887324
0000c0 c2 8e 99 bd 04 86 a0 bc fd 54 32 bd d5 7b 25 be
       -0.07497932 -0.019595154 -0.043538082 -0.1616052
0000d0 79 16 79 be c6 42 6a be 29 ea 76 be 25 a4 d0 be
       -0.24324979 -0.22877035 -0.24112763 -0.40750232
0000e0 65 28 2b bf 51 ad 94 bd 1f ef 40 3c 5e c0 9f bd
       -0.6685851 -0.0725962 0.011775761 -0.07800363
0000f0 0c 56 88 3e 43 db a9 3e 73 9c f5 3e 93 0c cc bd
       0.2662815 0.33175096 0.47970924 -0.09963336
000100 9a ca 46 be 91 e3 db be 92 7e 89 bd 37 d6 b2 bd
       -0.19413224 -0.42947057 -0.067135945 -0.087322645
000110 a4 15 ba bd 61 5c ff 3d 3e 35 05 3e a1 b4 b5 3e
       -0.09086159 0.12468792 0.13008592 0.3548937
000120 7f 3e e3 be d1 0c 05 bf 8a 3e f9 be be b8 d0 3b
       -0.44383618 -0.5197268 -0.48680526 0.0063696792
000130 98 fe 8e 3d d1 16 9b 3c a0 35 9e 3e 04 92 6f 3e
       0.06982154 0.018931778 0.30900288 0.23395544
000140 fb 60 d2 3e 34 ad 59 bf cd 56 08 bf 52 76 11 bf
       0.41089615 -0.8502991 -0.5325745 -0.5682117
000150 3d d0 24 be 34 f6 07 be 0c 50 d9 bd e4 dc 65 3e
       -0.16095062 -0.13277513 -0.10610971 0.22447544
000160 24 1b 12 3e 87 1b 8c 3d f3 4c 11 bf 3d 40 14 bd
       0.14268166 0.06841188 -0.5675804 -0.036194075
000170 9d 48 12 3e d4 f3 8e be 0c e7 04 3e 0a 16 e8 3d
       0.14285512 -0.279204 0.12978762 0.113323286
000180 7e 35 36 3e 84 f1 3b 3e 05 fd 8d 3d 6b 6c ff be
       0.17793843 0.1835385 0.06933025 -0.49887404
000190 f6 4c 34 3d da e8 be 3c 4d cd 49 bd c2 00 86 3d
       0.04401871 0.023304392 -0.049268056 0.06543113
0001a0 1d ec 35 3e 0c 99 98 3e 86 ed 71 3e 98 2f 7b 3e
       0.17765851 0.29804265 0.23625764 0.24529874
0001b0 76 4f b6 3b a8 7c 08 3e dd 43 48 3e 6f 81 42 be
       0.0055636717 0.13328803 0.19557138 -0.18994687
0001c0 a7 c3 a1 3d 51 15 23 3d 0e 3c c4 bc c9 79 18 3e
       0.07898646 0.03981525 -0.023954418 0.14890207
0001d0 dc 35 b5 3d 89 f7 97 3c 9c 4c 09 3e d5 32 94 3e
       0.088481635 0.018550651 0.1340813 0.28945032
0001e0 f4 3b 72 bd b3 0d 1d 3e ac 59 3e 3e de de 86 bd
       -0.059139207 0.15337257 0.18588895 -0.06585477
0001f0 a9 a5 a2 3d d0 87 9b 3d e1 f6 12 3e 3d 0b 6f 3e
       0.079417534 0.075942636 0.1435199 0.23344131
000200 9a 14 34 3e 9c d5 46 bd 7a c0 c9 3d bd bd 33 3e
       0.17585984 -0.048543558 0.09851165 0.17552848
000210 e9 63 db 3b a5 70 c5 3d f9 52 2a 3e 25 5d 7f 3e
       0.00669526 0.09640626 0.16633214 0.24937876
000220 f9 00 2e 3e a8 ca 39 3e 57 73 b2 3e 10 bc 70 3e
       0.16992559 0.18143713 0.34853622 0.2350924
000230 32 01 83 3d ce 4c 44 3e 09 bf 5e 3d d8 5e 8d 3d
       0.06396712 0.19169924 0.054381404 0.06902856
000240 30 85 41 3e 3b c4 41 3c 55 dd f1 3c ae da 88 3e
       0.18898463 0.01182657 0.029524485 0.2672934
000250 07 3f 35 3e 32 96 2c 3d e5 f1 41 3e 48 71 78 3e
       0.17699824 0.042135425 0.18939932 0.24261963
000260 53 96 c0 3a 0b 9d 81 3e 63 0c fb 3d 75 9d 25 3e
       0.0014693238 0.25315127 0.12258222 0.16173346
000270 6d b1 14 3e 92 52 d0 3d 92 24 ec 3b fc 5c 25 3e
       0.14520808 0.10171999 0.007206508 0.16148752
000280 f1 16 21 3e 09 c3 a2 bd 47 a6 a7 be 90 74 c6 bc
       0.15731408 -0.07947356 -0.32744047 -0.024225503
000290 3a 21 c9 bc 08 ea b5 be 71 5d c6 3d 1a 4f e3 3d
       -0.024551976 -0.35530114 0.09685791 0.11099072
0002a0 7c ae 12 3d 21 61 1c 3e 4c ed 07 3f 44 12 86 be
       0.035810933 0.15271427 0.5309646 -0.2618581
0002b0 d1 3d 10 3e 81 6f 2a 3e 12 84 99 bd 4a d2 6a 3e
       0.14086081 0.16644098 -0.074958935 0.22931781
0002c0 fd 42 94 3e 8e b3 32 3e 2c c1 56 3e eb 72 b0 3e
       0.28957358 0.17451307 0.20972127 0.34462675
0002d0 6d 4d 85 be 43 06 ea 3d a4 56 72 3c 61 43 06 be
       -0.26035634 0.114269756 0.014791165 -0.1311164
0002e0 ef 61 7f 3e 6e 6e 65 3e 9a 28 1b 3e 8a c2 b5 3e
       0.24939702 0.22405407 0.15152207 0.35499984
0002f0 56 de 98 3e 6e f6 a1 bd 29 be 69 3c 97 3c 28 bd
       0.2985713 -0.07908331 0.014266529 -0.041073408
000300 d0 d2 d2 3c 3d 49 28 3b 1d 07 42 bd d3 db c1 bb
       0.025735289 0.002567842 -0.047370065 -0.0059160977
000310 a5 b4 43 3c 3c 46 d4 3c 34 2f 0c be 53 5f de bd
       0.0119449245 0.025912397 -0.13689882 -0.108580254
000320 1f 3d c5 bd f7 f3 ad bc af 1d 12 ba e8 d1 1a bc
       -0.096307985 -0.021234496 -0.0005573881 -0.00944946
000330 85 fa 19 3e 33 c6 81 3d 51 50 5b bb 5d 6e a8 bd
       0.15036972 0.063366316 -0.003346462 -0.08224175
000340 40 30 de bd fa d9 4e be c6 2e a8 3d 89 af 3d bc
       -0.10849047 -0.20200339 0.08212046 -0.011577495
000350 e5 fe 29 bd 66 50 7b 3c d3 28 c7 bc 1f 94 f9 3c
       -0.041502852 0.015338993 -0.024311459 0.030466137
000360 0b fd 02 3c ce d4 3b be 66 69 d2 bd cd ef 47 3e
       0.0079949 -0.18342897 -0.102740094 0.1952507
000370 07 bf 50 bd 11 5f 15 bc fe 06 e2 3d cb 5d c8 3c
       -0.050963428 -0.009116904 0.1103649 0.024458786
000380 c5 01 32 3e 5c 17 f1 bb 18 da 4c be 99 70 2b be
       0.17383488 -0.007357521 -0.20005071 -0.16742171
000390 b0 82 1e 3e 43 f5 05 3e f2 84 1b 3c 90 e0 ef 3c
       0.15479541 0.13081841 0.009492146 0.029281884
0003a0 5c 06 3a 3c b5 47 d0 3c c5 11 9b bd 0f 7e 12 be
       0.011354055 0.025424818 -0.07571749 -0.143059
0003b0 19 d8 67 be bd b2 0d 3e 39 43 71 3c e9 9c 24 bd
       -0.22641028 0.13837714 0.0147255 -0.040188704
0003c0 00 cf 1f 3d a6 a4 3f 3c c6 2f 0f bb d4 7c 87 3e
       0.03901577 0.01169697 -0.0021848544 0.26462424
0003d0 a8 e0 67 3d 5b 48 a4 3b ee c2 03 3e 57 1a b2 3d
       0.056610733 0.0050135083 0.12867329 0.0869643
0003e0 e3 82 bf bc 05 f7 6d 3d 28 a3 e7 3d 34 71 8b 3d
       -0.023377841 0.058096904 0.113104165 0.06808701
0003f0 41 77 28 bc 7e 32 06 be ca 62 48 bd 07 b1 2a 3d
       -0.010282339 -0.13105199 -0.048922338 0.041672733

down_convs.2.conv2.bias f4 [12]
000000 a9 ca c9 3a 90 00 10 ba b4 be 01 ba c5 74 6e b8
       0.001539548 -0.0005493248 -0.00049493765 -5.6852372e-05
000010 65 f3 54 3b 15 c5 bb 38 46 44 07 b9 7a 83 19 3b
       0.0032493707 8.953564e-05 -0.00012900037 0.0023424313
000020 ce 87 f9 b8 25 17 dd ba b8 d6 91 3b e1 a7 97 b9
       -0.00011898541 -0.001686786 0.0044506453 -0.00028926044

down_convs.2.norm0.weight f4 [12]
000000 a9 51 71 3f 6e 3b 76 3f f7 9b 94 3f 2f 90 65 3f
       0.9426523 0.9618443 1.1610097 0.8967313
000010 de 56 89 3f 20 f0 aa 3f c0 a9 8f 3f fd 02 6f 3f
       1.0729635 1.335453 1.1223679 0.93363935
000020 8f 88 47 3f 09 7d 30 3f df da 8c 3f 61 3a 2e 3f
       0.77942747 0.6894079 1.1004294 0.6805783

down_convs.2.norm0.bias f4 [12]
000000 3f 24 86 bc a4 6b 4d 3d f0 8a 98 be b4 cd 87 be
       -0.016374705 0.050151482 -0.297935 -0.26524127
000010 6b 3f 74 3d 7c 2b a5 bc 6f 7f 45 bd 49 18 17 3e
       0.059630793 -0.020162337 -0.048217233 0.14755358
000020 b7 59 99 3e ba be 07 be f1 90 28 bf 08 61 67 3e
       0.2995126 -0.1325635 -0.65846163 0.22595608

down_convs.2.norm0.running_mean f4 [12]
000000 a0 67 e3 3f 06 02 21 40 57 3e 92 40 7a 6b 46 40
       1.7765999 2.5157485 4.57011 3.1003098
000010 01 23 71 3f ec 1e d1 3f a7 fa ba 3f e1 04 1d c1
       0.94194037 1.6337562 1.4607743 -9.813691
000020 a3 86 c3 c0 68 53 c1 c0 a3 e5 15 41 5e d4 ce c0
       -6.110185 -6.0414314 9.368564 -6.4634237

down_convs.2.norm0.running_var f4 [12]
000000 5b 44 49 42 12 cd 73 42 a6 af a5 42 95 06 71 42
       50.316753 60.950264 82.84306 60.256428
000010 bc 41 05 43 64 50 9b 42 59 a6 96 42 c5 8b 7b 44
       133.25677 77.65701 75.3249 1006.1839
000020 c9 d3 bf 43 11 10 9c 43 e9 cc 97 43 1e 43 ce 43
       383.65457 312.12552 303.60086 412.52435

down_convs.2.norm1.weight f4 [12]
000000 01 ca a6 3f 54 cc 84 3f b9 d7 a1 3f 3a dc 8b 3f
       1.3030397 1.0374856 1.2643958 1.0926583
000010 c5 cf 68 3f 6e df e2 3e 19 d3 88 3e d0 3b 87 3f
       0.9094203 0.44311088 0.26723555 1.0565128
000020 74 74 98 3f 6a ca 8f 3f a9 7e 8e 3f 72 14 51 3f
       1.1910539 1.1233647 1.1132404 0.8167182

down_convs.2.norm1.bias f4 [12]
000000 e8 d9 09 bd e1 4b 96 bc 70 57 d1 3d 1c 2a 8b 3d
       -0.033655077 -0.018346729 0.102217555 0.06795141
000010 60 25 b2 be 82 1b bf be 63 d8 dd be 85 85 cb be
       -0.3479414 -0.37325674 -0.43329152 -0.39750305
000020 a4 27 de 3e a7 d8 8f 3e 9c bb ca bc 85 ac b7 3d
       0.43389618 0.2809498 -0.024747662 0.08968452

down_convs.2.norm1.running_mean f4 [12]
000000 38 c5 a5 3f 49 6c 67 c0 0a 90 c3 c0 5f 27 2c c1
       1.2950811 -3.6159842 -6.111333 -10.759612
000010 23 cb 71 40 ab 8a 41 40 69 7d 63 3f d3 87 70 40
       3.7780235 3.0240886 0.88863236 3.75829
000020 f9 da 15 c1 80 31 e7 c0 fb 5d 60 c1 31 4d da c0
       -9.36596 -7.2247925 -14.022944 -6.821923

down_convs.2.norm1.running_var f4 [12]
000000 15 4d 42 42 42 62 6c 42 a3 c5 1b 42 63 76 b9 42
       48.575275 59.095955 38.943005 92.731224
000010 ae a6 41 42 07 f1 3f 43 08 3a 33 43 c9 d7 5c 42
       48.412773 191.94151 179.22668 55.210728
000020 98 f5 1a 43 26 5a b6 42 29 05 bd 42 a4 e4 b0 42
       154.95935 91.17607 94.51008 88.44656

down_convs.3.conv1.weight f4 [24, 12, 3, 3, 3]
000000 4c b4 a1 3c 7d 61 ec 3d 25 18 b2 3e 86 43 10 3e
       0.019739293 0.11542032 0.34784046 0.14088258
000010 48 9d bd 3d 7d 52 5d 3e 6b ab 5f 3e df 4d a4 3e
       0.09258515 0.21613498 0.21842735 0.3209066
000020 e6 45 a2 3e 30 c2 56 bc d8 5d 7b 3e 05 5d 74 3e
       0.31693953 -0.013107821 0.24547517 0.23863609
000030 70 58 8e 3d 7e 15 81 3d 0e 2f 41 3e 58 20 98 3e
       0.06950462 0.063029274 0.18865606 0.29712176
000040 31 a7 e8 3e b3 1e 0c 3f f7 b1 b1 bd 9f 41 8b b8
       0.45440057 0.54734343 -0.08676522 -6.6402594e-05
000050 a9 1f bd bd dd 49 81 bd 69 ee 47 3c dd 64 02 3d
       -0.09234554 -0.063129164 0.0122028375 0.031834472
000060 d3 3e dc 3e f8 18 0a 3f e1 3f c1 3e 9c 23 9e be
       0.4301668 0.5394435 0.37744048 -0.30886543
000070 97 9b aa bd b0 76 c1 bd b1 77 c7 be 75 99 c5 bb
       -0.08330458 -0.09446466 -0.38958505 -0.0060302564
000080 87 77 93 be 20 45 2e 3e 73 d2 ec 3e a0 eb 95 3e
       -0.2880213 0.17018557 0.4625431 0.2928133
000090 f2 02 4f bd 76 97 42 3d c7 2f 01 3e 0c 17 1c 3c
       -0.05053992 0.047507726 0.12615882 0.009526979
0000a0 ac 67 5a 3e 01 a4 9e bc 98 aa 34 3e 42 85 58 3e
       0.2132861 -0.019365313 0.17643201 0.21144584
0000b0 09 83 ca 3d 09 ad 19 3e 53 ed 4d 3e c0 91 b2 3e
       0.09888274 0.15007414 0.20110063 0.34876823
0000c0 91 f5 dd be c9 c4 1c be 94 7d a5 be 1d d3 2a be
       -0.43351415 -0.15309443 -0.3232237 -0.16682096
0000d0 f0 fe 93 bd 09 17 f8 bd 11 0c a8 3c 94 83 33 3e
       -0.0722636 -0.121137686 0.020513566 0.17530662
0000e0 d0 90 38 3e c2 31 b1 3e 24 6c 0e 3f 10 00 fe 3e
       0.18023992 0.34608275 0.5563376 0.49609423
0000f0 97 2d 8d 3e 5e 83 9e 3e 83 8c 8e 3e 33 47 70 3e
       0.27573845 0.309596 0.27841577 0.2346466
000100 af f4 c4 3e 5c 9a b3 3e 30 69 05 3f 48 a5 65 3f
       0.3846793 0.35078704 0.5211363 0.89705324
000110 e2 b1 05 3f ff bb 68 3e cc b2 ec 3e 23 ee c5 3e
       0.5222455 0.22727965 0.4623016 0.38658246
000120 9d e1 59 3e 52 57 ba 3e d1 6c 1f 3e 4c d5 9f 3e
       0.21277471 0.36394745 0.15568854 0.3121742
000130 b7 98 0e 3f 09 9b 94 3e 98 99 94 3e 19 42 8b 3e
       0.55701774 0.29024532 0.29023433 0.27198866
000140 a6 aa 25 3e 6b 35 1c bd b4 4f 93 3e 36 00 eb 3d
       0.16178378 -0.03813688 0.28771746 0.114746496
000150 30 72 3f be 94 64 70 3e 88 36 55 bd aa cf 96 3e
       -0.18695903 0.23475868 -0.05205396 0.2945531
000160 25 db 00 3f bc 44 8d 3e 31 18 ce 3e ac 95 b9 3e
       0.5033439 0.27591503 0.40252832 0.36247003
000170 3a 1a 81 3e 7a dc 8d 3e ca c3 1f 3f 6b 59 10 3e
       0.25215322 0.27707273 0.62408125 0.1409661
000180 94 45 88 3e b6 da 69 3e cd 1a 99 3d 40 c7 b7 3e
       0.26615584 0.22837338 0.07475815 0.35894203
000190 6a 07 d2 3e 49 f1 44 3e 7a ce f5 3d ed 94 03 3f
       0.4102128 0.19232668 0.12002273 0.5139912
0001a0 07 11 1b bc a6 13 c5 3d bd 59 6c bd 04 5e 91 be
       -0.009464509 0.09622888 -0.05770277 -0.2839204
0001b0 06 e7 22 bf a7 08 9e be 2d d9 80 be 69 d0 c6 be
       -0.63633764 -0.30865976 -0.25165692 -0.3883088
0001c0 94 54 27 be 9e f1 47 be 25 a9 a4 3e a8 e4 8b 3e
       -0.16340858 -0.19525763 0.32160297 0.27322888
0001d0 69 09 31 3e 9d 64 a0 be e7 09 d6 3c 17 66 96 bb
       0.17288746 -0.31326762 0.026127769 -0.004589807
0001e0 b5 b9 0b be 57 1b 0d 3e 6b 27 b6 3b 36 28 90 3e
       -0.1364506 0.1377996 0.005558898 0.2815568
0001f0 f3 89 17 3e fb 06 73 3d 6b e7 b9 be 23 07 1e bd
       0.14798717 0.05933283 -0.3630937 -0.038581025
000200 81 b0 08 bd c3 fc 87 be 58 66 5e be b4 41 6c be
       -0.033371452 -0.2656003 -0.21718729 -0.23071939
000210 10 4b 38 bc 8f b4 ef bd 55 40 97 bd 86 37 be be
       -0.011248365 -0.11704361 -0.07385317 -0.37151736
000220 d8 ec 0b be 66 73 15 be a5 c1 b7 3d f4 f2 87 3e
       -0.13664567 -0.14594802 0.08972482 0.26552546
000230 d1 4e 37 3e 4f 9d 96 3e 01 86 d7 3e 96 0e fb 3e
       0.1790116 0.29416892 0.42094424 0.49034566
000240 76 69 bb bd a4 80 c6 3d f2 a0 b4 3d f0 47 1f 3e
       -0.091509745 0.09692505 0.088197604 0.15554786
000250 28 05 8b 3e 3f c2 45 3e db cb 54 3e 29 2e 52 3e
       0.2715237 0.1931238 0.2078089 0.20525421
000260 b8 2b 5e 3e 64 d5 be bd e1 62 c7 3c da 79 35 bc
       0.21696365 -0.09318045 0.024339141 -0.011076415
000270 20 2e 12 3e 23 31 82 3d 1c 2d cc 3c 9b 74 84 3d
       0.14275408 0.06357028 0.024923854 0.06467553
000280 84 7a e1 3d 2b 02 1e 3e aa dc 23 bf 19 2f 0a bf
       0.11009696 0.15430515 -0.6400858 -0.53978115
000290 6e 56 e4 be f8 24 10 bf 5e eb c0 be e1 b1 55 be
       -0.4459719 -0.5630641 -0.3767957 -0.20868637
0002a0 b2 31 fd 3d fd 02 44 3e 4c 3f 97 3e 1c ea 38 be
       0.12362994 0.19141765 0.2954048 -0.18058056
0002b0 44 02 d2 bd f8 69 c2 bd 9e bf b5 be 7a 5c 13 be
       -0.102543384 -0.09492868 -0.35497755 -0.14390746
0002c0 7c b8 dd bd be 1a 1f bd fd 96 3b 3d 16 78 1d 3e
       -0.10826203 -0.038843863 0.04579829 0.1537784
0002d0 4c 5e 1f be 4d ee 0b 3e 90 5a cf 3d 60 03 ef be
       -0.15563315 0.13665123 0.10124695 -0.46682262
0002e0 7c 7d 7a be 06 e3 64 be b7 8a 6a be 03 55 fd bd
       -0.24461931 -0.22352228 -0.22904478 -0.1236973
0002f0 92 f5 3a 3c bd 6d e4 be 3b da b8 be a2 b1 6f be
       0.011411088 -0.44614974 -0.36103997 -0.23407605
000300 be d6 2f 3e 56 b5 5d 3d 48 84 4f 3e e7 75 ed 3e
       0.17171761 0.054128014 0.20265305 0.46379015
000310 a7 e5 c4 3e a1 15 b1 3e 69 72 5f be 1c 78 a6 bd
       0.3845646 0.34586814 -0.21820988 -0.08128378
000320 39 bc f2 bc 27 14 88 3e 54 93 7a 3e f5 2f a0 3e
       -0.029630767 0.26577875 0.24470264 0.31286588
000330 1f 66 ac 3e c0 66 aa 3e 0e 90 cb 3e c0 2e 98 be
       0.33671662 0.33281517 0.39758343 -0.29723167
000340 1d 93 94 3b b0 fa 9e bd 01 6a 16 3e 86 02 8e 3e
       0.004534139 -0.077626586 0.14688875 0.277363
000350 c4 09 33 3e 8d 47 98 3e 93 0f cc 3e 1d ac b9 3e
       0.17484194 0.2974209 0.39855632 0.36264125
000360 61 e0 92 bd 33 d8 04 3d f2 a9 72 bc c2 a4 b0 bd
       -0.07171703 0.032432746 -0.014811026 -0.08625175
000370 00 73 9d 3e bb e3 17 be ef a3 b3 3e 34 72 0a 3f
       0.307518 -0.14832966 0.3508601 0.5408051
000380 1a cd 35 3e db 62 86 3d 5b 52 d3 3d 3a 28 84 bd
       0.17754021 0.06561824 0.103184424 -0.06452985
000390 39 66 f3 3e aa d3 14 3f eb d5 46 3d da ca 22 3f
       0.47538927 0.58135474 0.04854385 0.63590777
0003a0 d1 cc ee 3e 40 4c 84 3d ad 86 46 3e 84 ad 26 3e
       0.46640638 0.06459856 0.19387312 0.16277128
0003b0 bc 7a 30 38 0b db 98 3e 3c 41 b3 3e 89 f3 33 be
       4.2075975e-05 0.29854617 0.35010707 -0.1757337
0003c0 2b d1 1a 3e d5 76 e2 3d 40 29 30 be 0a 3a 83 be
       0.15118854 0.11057822 -0.17203236 -0.25630218
0003d0 11 32 a8 bd 31 f1 5e 3d 52 f9 21 3d 5a 33 93 3e
       -0.082126744 0.054429237 0.03954441 0.28750116
0003e0 b7 2e 04 3e 62 9c 8d 3e d6 51 d3 3e a5 97 d5 3e
       0.12908445 0.27658373 0.41273373 0.41717258
0003f0 3d f3 b0 3d 10 80 af 3e de ba ea 3e 12 c8 9d 3e
       0.08640144 0.3427739 0.45845693 0.30816704

down_convs.3.conv1.bias f4 [24]
000000 ff 92 cb 36 47 22 4a 38 16 f4 e3 b7 f2 1b db 39
       6.066984e-06 4.8192476e-05 -2.717417e-05 0.00041791756
000010 25 d5 f3 38 40 ef 1c b8 5b f7 5b b8 20 74 ae 38
       0.00011626844 -3.7416117e-05 -5.2444037e-05 8.3185965e-05
000020 15 f7 3f 37 a6 71 d8 36 26 d9 c1 37 89 f9 5e b8
       1.1442015e-05 6.450532e-06 2.310851e-05 -5.3161322e-05
000030 f0 fc bd 37 90 dd 68 37 8e c3 4c b6 89 79 4f b8
       2.2648339e-05 1.3879864e-05 -3.0512197e-06 -4.9465834e-05
000040 0b 40 d8 36 d6 2a 26 b7 7b ca 42 b7 d8 8d aa 38
       6.444757e-06 -9.904345e-06 -1.1610445e-05 8.132652e-05
000050 0a 02 1e b7 9a e8 26 37 8b 66 cd 38 61 9a 54 b8
       -9.418009e-06 9.948528e-06 9.794262e-05 -5.0688515e-05
