outputs/outputs_full_mask/epoch_6_model.pth (torch, 694457 bytes, 241 tensors)

down_convs.0.conv1.weight f4 [3, 1, 3, 3, 3]
00000000: a28d 423e 1971 1d3e 93b2 a03e 4456 01be
00000010: 4226 053e 63b9 113e d991 f7be 4e8e 4e3c
00000020: 6fbd 89be 0822 7f3e 7a0f 7a3f bc4c e73e
00000030: 50a6 883d dbd2 423f e3af 0b3f 741a 65be
00000040: b6b7 26bc f906 953e aff6 8e3e 5601 b93e
00000050: c682 4e3e a00a 13be a059 c23e dee8 033f
00000060: 09ae 90be 3f9d 0b3e 9ea0 063e 28e4 c8be
00000070: 11c7 f5bd dd1b aabe 282e dfbd e833 683e
00000080: 22da f03d 3dcf 893e 4625 073f 1703 293e
00000090: 7cfb c3be bc38 44be 434f ecbe be0b d03c
000000a0: 9986 053e 2602 283e df6c 343f 941a 433f
000000b0: 7f7e e73e 948f d2be 29db 24be f29a bdbe
000000c0: 3e24 ffbd 9294 e03d 8a6a 4ebe 0e76 c23e
000000d0: 990c 173f 89c0 183f cc7a 533e fd0f 263f
000000e0: 861f c73e 3c59 52bd 6b08 14bc 11c2 1d3e
000000f0: 00c6 fbbe 04ee a0be e8c0 fbbe 18bc 163f
00000100: bcc8 913f bbea 053f 4a1f b93d 7ebe a13e
00000110: aad7 bc3e 0bca b4be ae25 ccbd c600 e1bd
00000120: 62f6 b23d 342a 413f 8705 7e3e 0e47 6c3e
00000130: 503a 433e 110f d63d 0601 9abe bcb1 a7be
00000140: 5ca7 cabd
0.18999341 0.15375175 0.3138624 -0.12630564 0.13002875 0.14230876 -0.4835346 0.01260717
-0.2690234 0.24915326 0.97679865 0.4517573 0.066723466 0.7610299 0.54565257 -0.22373372
-0.010175636 0.29106882 0.2792258 0.36133832 0.20167074 -0.14359522 0.37959003 0.515272
-0.28257778 0.13634203 0.13147208 -0.3923657 -0.120008595 -0.33224383 -0.108974755 0.2267605
0.117603555 0.26915923 0.5279125 0.16505085 -0.38277805 -0.19162267 -0.46154222 0.025396224
0.13039626 0.1640707 0.70478624 0.7621243 0.45213696 -0.41125166 -0.16099228 -0.37032276
-0.124580845 0.109658375 -0.20157829 0.37980694 0.590036 0.59668785 0.20652312 0.64868146
0.38891238 -0.05135463 -0.00903521 0.15406062 -0.491745 -0.31431592 -0.49170613 0.5888076
1.1389384 0.52311295 0.09039171 0.31590647 0.3688329 -0.35310397 -0.09968124 -0.10986476
0.087384 0.7545502 0.24806796 0.2307398 0.19065213 0.104520924 -0.30078906 -0.32752788
-0.098952025

down_convs.0.conv1.bias f4 [3]
00000000: 4887 16be 18b3 14bc 8b3c 5d3d
-0.14700043 -0.009075902 0.054012816

down_convs.0.conv2.weight f4 [3, 3, 3, 3, 3]
00000000: 928d 94be 6767 a1be bf02 54be 0679 6a3d
00000010: 0e8a 5dbd 231d 3ebe 986b f83d 8917 a63d
00000020: ad92 1cbe a346 71be 704b 92bd 1e24 42be
00000030: 635a e7bd ca2d bdbc c166 c0bd 3e20 0a3e
00000040: b549 a63d a74d f63d b162 5fbe bfd6 293d
00000050: bc73 3dbe 4ece b33d 293d f3bd 4d71 86be
00000060: ce55 c43d 4c22 023e 9840 8e3e 401f 67bd
00000070: 577f 833d 8ad1 283e 6490 c73e 4c79 063f
00000080: ec82 c73e 83a4 043f 5275 3a3f f813 693f
00000090: 2d72 b63e 6a1f 1abd 8788 70bd a036 133f
000000a0: 2eeb 6c3f b2ee 1b3f 5b08 823f cebf 773f
000000b0: 293c 5e3f 2efb e7bc 3586 09bc 2cd0 313e
000000c0: 8122 aa3e 85ee f53e cb9e 023f 83cc 463f
000000d0: 146f 873f d710 4e3f 3d38 b1be fe1c 8fbe
000000e0: 880a 12be 4cbb a8be 672d a9be 39e8 cabe
000000f0: 674b a9bb 8692 17bd f3fb c8bd ed27 c1bd
00000100: 0921 b3be 99bc 9abe 6d6f b1be 3e02 dfbe
00000110: 6ec7 f1be 3080 1dbe b765 fe3d 53b6 7b3d
00000120: a8f0 99be c60c 67be e029 bbbe e34f 98be
00000130: 3db7 80be f222 18be e596 c3bd e686 943d
00000140: d461 4abe 6c1a 0b3d f328 073e 683d 933e
00000150: c49d aabd ea66 50be 6508 0ebe db12 69be
00000160: d5e9 b3be 4195 ccbe f118 573c ca74 ec3d
00000170: e8f6 c13e a6c9 b9be d228 5bbe f78d 28bd
00000180: 9d44 13bf 7624 b4be 6b74 7ebe eee1 973d
00000190: 3820 d33d 6c4c 903e f94e 473d 8626 80be
000001a0: a709 043e 1858 bdbe 533b 65be cbbc 9cbe
000001b0: d025 d6bd 025d 79be ad65 c2bd af45 90bd
000001c0: ae65 8dbe f78a 8fbe 84a0 b3be 8ff3 1d3d
000001d0: a512 33bd 74b6 68be e205 3fbe 2b98 16be
000001e0: 8cb6 efbe f7ef f4bd 5f9e 54be 5750 0e3e
000001f0: e252 7bbb ee72 bb3d 62d6 dbbe 17f5 85be
00000200: e3dd a8bd 4765 edbd baea 8dbe 5a66 88be
00000210: d8c8 82bd e789 7dbd 6356 33be 1709 7e3e
00000220: 708f 193e 8a77 9d3e 8bce 03be cf91 c93c
00000230: 7f4d 1d3e cb11 4d3d 8e91 dcbd 1b47 4cbe
00000240: 7f90 2e3e 0d8c b83e b4eb 883e 7049 41be
00000250: ecc0 adbe d762 bdbd 6715 8dbe 1041 a7be
00000260: 7d7a 9bbe ffdf bf3e 5326 903e 66a9 563e
00000270: 9013 cebd f8b3 b1bd 091d b93d ea55 01be
00000280: fd78 a0bd aaec 56be 52cc cf3e bf8d e53e
00000290: 9569 363d 9c3c 403e 53f8 a23e 69a3 97bd
000002a0: 7c55 f33d 739d 013e 5896 96be c81a 843f
000002b0: 052c 563f b528 9f3e 830e b53e 054e 2d3f
000002c0: b9db 083e ed92 8d3d 1e61 f43d f442 2a3d
000002d0: a3cb 123f 8a1b 393f 98e1 843e 3d7a 953e
000002e0: 6267 aa3e ca1f 0cbe 8a52 b7bd d5b0 83bc
000002f0: 7858 873e 0b0c 96be 78fe 3ebe 4602 6cbe
00000300: b6de 3abd b7d4 cfbc bea4 563e 3738 4e3e
00000310: 2c1b 4d3d 3daf 9f3e aa7f ffbd 5090 4abe
00000320: 13cd debe fabc 4b3e 0423 773b 92b3 5f3d
00000330: 29b2 1d3e 765b a93e ba98 963e 2e2a aabd
00000340: a7bc 8e3d 540a 71be 7a49 943e ffab c53e
00000350: 7ed9 513e 20b9 943e 383d c63e eeb0 e93e
00000360: 6d13 753e 9383 a13d 9276 2f3d 499a 463e
00000370: 9c1d ad3e 1262 443d 6503 cbbd a7c7 a93d
00000380: 7b8d 1bbd 9ed2 e63e 6998 2c3f 0559 7f3d
00000390: dc7d 273e f91b 443f 894a b73e 2d9d 8d3d
000003a0: 8ced 103e 8a79 543d 6c98 943e 1a1a c13e
000003b0: 41c8 793e edc7 0b3e 41a5 ee3e 425d 803e
000003c0: 0028 58bd ba64 013d 35b1 30be
-0.2901426 -0.31524202 -0.20704173 0.057244323 -0.054086737 -0.18565802 0.12129897 0.08109958
-0.15290327 -0.23562102 -0.07143295 -0.1895909 -0.11296537 -0.023093123 -0.09394599 0.13488862
0.08119527 0.1202653 -0.21814992 0.041464563 -0.1850118 0.08779584 -0.118769 -0.26258317
0.095866784 0.12708396 0.27783656 -0.056426287 0.064207725 0.16486183 0.3897735 0.52528834
0.38967073 0.51813525 0.72835267 0.91046095 0.35633984 -0.037627615 -0.058723953 0.57505226
0.92546356 0.60911095 1.01588 0.96777046 0.8681055 -0.028318014 -0.008393814 0.17364568
0.3322945 0.48033538 0.5102355 0.7765581 1.0580773 0.80494446 -0.3461322 -0.27951807
-0.1426183 -0.32955396 -0.33042452 -0.39630297 -0.0051664594 -0.03700497 -0.098136805 -0.09431443
-0.3498614 -0.30222014 -0.34655324 -0.43556398 -0.47222465 -0.15380931 0.12421744 0.061453175
-0.3006642 -0.22563466 -0.36555386 -0.2974845 -0.251398 -0.1485708 -0.09550265 0.07252292
-0.19763881 0.033960745 0.13199215 0.28757787 -0.08330873 -0.20351759 -0.1387039 -0.22761099
-0.35139337 -0.39957622 0.013128505 0.11545713 0.37883687 -0.36286658 -0.2140229 -0.041151013
-0.5752657 -0.35184067 -0.24849097 0.074161395 0.103088796 0.28183305 0.0486593 -0.2502939
0.12894307 -0.36981273 -0.22385912 -0.30612788 -0.10456431 -0.24351886 -0.09492049 -0.07044541
-0.27616638 -0.2803571 -0.350834 0.038562354 -0.043718953 -0.2272585 -0.18654588 -0.14706485
-0.4681896 -0.11959832 -0.20763539 0.13897835 -0.0038348963 0.091527805 -0.42937 -0.2616355
-0.082454465 -0.11591583 -0.27718145 -0.26640588 -0.06385964 -0.061899092 -0.17513423 0.24808155
0.14996123 0.30755264 -0.12871759 0.02460566 0.15361594 0.050065797 -0.1076995 -0.19949
0.17047308 0.3604435 0.26742327 -0.1887567 -0.3393625 -0.09247368 -0.2755539 -0.32666826
-0.3036689 0.37475583 0.2815424 0.20963058 -0.10062325 -0.086769044 0.09038741 -0.1263043
-0.07835577 -0.20988718 0.40585572 0.44834706 0.044534285 0.1877312 0.3183008 -0.07404215
0.11881539 0.12657718 -0.29411578 1.0320673 0.8366092 0.31085745 0.35362634 0.67697173
0.13365068 0.069127895 0.11932586 0.041567758 0.57341975 0.72307646 0.25953364 0.29194823
0.33282 -0.13684002 -0.0895129 -0.016075531 0.26434684 -0.29306063 -0.1865176 -0.23047742
-0.04562255 -0.025369985 0.20961282 0.20138632 0.05007474 0.31188384 -0.12475522 -0.19781613
-0.43515834 0.19896308 0.003771008 0.05461461 0.15399994 0.33077592 0.29413396 -0.083088264
0.06969576 -0.23539096 0.28962308 0.38607785 0.20493123 0.2904749 0.3871858 0.456428
0.23933192 0.07886424 0.042837687 0.19394793 0.33811653 0.04794509 -0.09912757 0.08290034
-0.037976723 0.45082563 0.6742006 0.062340755 0.16356605 0.7660518 0.35799053 0.069147445
0.14153117 0.05187372 0.2902254 0.37715226 0.24392797 0.13650484 0.46610454 0.2507115
-0.052772522 0.0315902 -0.17255099

down_convs.0.conv2.bias f4 [3]
00000000: 3241 1a3d e301 5fbf b429 00be
0.03765983 -0.87112254 -0.12515908

down_convs.0.norm0.weight f4 [3]
00000000: c6d3 873f 83b2 9e3f 8b0a 573f
1.0611503 1.2398227 0.8400046

down_convs.0.norm0.bias f4 [3]
00000000: 33f9 71be 36c7 e2be 6d6d 90bd
-0.23630218 -0.4429261 -0.07052121

down_convs.0.norm0.running_mean f4 [3]
00000000: d626 19be ff13 cc3c 9869 af3c
-0.14956221 0.024911879 0.021412656

down_convs.0.norm0.running_var f4 [3]
00000000: 76ca ab41 de34 9c40 05f0 5841
21.473858 4.8814535 13.5585985

down_convs.0.norm1.weight f4 [3]
00000000: 8946 853f 58f5 563f e8eb 753f
1.0412151 0.83968115 0.9606309

down_convs.0.norm1.bias f4 [3]
00000000: 7f50 a4be c658 54bd 8933 2ebd
-0.32092664 -0.051842473 -0.042529617

down_convs.0.norm1.running_mean f4 [3]
00000000: cf32 1b3f 29aa 2bc0 d194 5d40
0.606244 -2.6822608 3.462208

down_convs.0.norm1.running_var f4 [3]
00000000: b711 a242 bec4 1742 9ec2 ab42
81.0346 37.94213 85.88011

down_convs.1.conv1.weight f4 [6, 3, 3, 3, 3]
00000000: f524 7dbe f63d c3be 6e64 0bbf 4a86 3b3d
00000010: 9076 223e 73f6 1abc 1c26 e8be f4b0 ebbe
00000020: 95c2 25bf f532 4bbd 426d 4cbe d4f2 55be
00000030: e924 713e b96f 803e d879 0a3c e52b ddbe
00000040: 3210 98be 9472 e3be 4ab9 05bf 90bf 8bbe
00000050: d454 dbbe bf17 ca3d 36e7 9ebd 5d30 1dbe
00000060: 0c1a 99be 5ce4 e2be 2e40 b2be cb31 033e
00000070: e951 473e d49d a33e 4d01 c73c 7691 16be
00000080: 5e88 c4bd 3326 09be abc9 babe 11a4 0ebf
00000090: 2bd4 643e cd71 30be 5661 333e 780d 6abe
000000a0: f426 86be b27c a0be c124 1ebf 040b 1abf
000000b0: 050d b2be 15f4 11bd 3e55 71bd cbae eebb
000000c0: 1b8d 1dbe 1130 b0be 7c96 99be c9d1 a5be
000000d0: 3e2e cebe 7433 c7be f88e e53e e834 563f
000000e0: 08d1 d03e e64e 0dbe cb21 873e 539b 2fbe
000000f0: 6b95 82be 5f50 323e 4b52 09be 3893 503f
00000100: 1d8a be3f dc8b 223f b1f6 17bd a45f 263f
00000110: 817e ca3c 882f db3d b511 f03e e4ad 25bd
00000120: a9aa b83c b977 a73e c0e5 bf3d 60e2 fcbe
00000130: e581 38be 2abc cabe 7bbe 6ebe 4c4f 58bd
00000140: 0994 90be d787 17bf 5e8c cfbe abc6 82be
00000150: 0fea d5be ea41 4cbf d904 aebe fb4a c43e
00000160: ae02 bebc 9f11 a13e 444e 03be 08e6 003e
00000170: adec ddbd c6af 1dbf 0bd1 58bf c667 35bf
00000180: d631 54bc f217 4abe 4b66 963b 510e 08be
00000190: cfcc e23d 4c6f 33be d06d f3be 39e7 14bf
000001a0: 2215 e7be 32cc 753e 2cd1 5fbd 44f9 883e
000001b0: dab1 433d ce5f 73be 4064 12be f4d3 99be
000001c0: 80eb 87be bbfe 0ebe 472c 92be cdb7 57bc
000001d0: 6263 9ebc 13cd 83bd cefe ddbd 2f1b 3fbe
000001e0: fd64 b5be bb9d a0be 2ca4 b8bb c64a 2bbb
000001f0: 8c3c 9fbd 9198 693e 9b05 d9bc c02e 79be
00000200: f1e7 2dbe 2948 8cbe 950c 82be f744 d7bd
00000210: 88f4 923e 0db8 043e 8d85 8e3e c579 09bf
00000220: b747 5dbf a085 6abf f24f 48bc d83e 4abe
00000230: 0402 6cbe c69b 313f 29c3 e63e 9bf4 9d3e
00000240: e342 2bbf 985a 28bf ae6c 51bf cf68 15be
00000250: dcef 7cbd 8a76 5bbd dd0b 273f b726 1c3f
00000260: 6003 053f 89ab 87bf 4b44 28bf 0388 0cbf
00000270: 9e9b f2be d241 9cbe d02b 89bd 0f62 e83e
00000280: 6ade 033f f39f fa3e f4c2 5abe 39b5 a3bc
00000290: cde1 84be b67b 81be f785 e3bd 8f05 3a3d
000002a0: 067f c4be ea8b 47be 9256 3abe 0b69 69be
000002b0: 0e04 503e 1d2f 7e3e 0e2e 5fbe 35e7 af3e
000002c0: 9c2e cd3e 845c 35be b608 9abd bb65 5d3d
000002d0: 66b9 b1bd ebd4 403e f1a0 813e 8361 a7bd
000002e0: cb7c 903e cb46 553f e66f 2ebe 6179 023e
000002f0: 0e79 223e 928e 1f3f 4cbb 943e 6c6a a73e
00000300: 97b0 6eba 2b43 15be 1dd4 353d 5800 b9bd
00000310: ad4c 31be 56bb 50be c0be ab3e 9a99 833e
00000320: 7366 803e 4b9c d03d 0812 e7bd f72b 6bbe
00000330: 6ea0 8ebd fdf7 7cbe 3227 8fbe fd4f 5f3d
00000340: a9ef 0b3e 8659 113e bf75 a1bc fb17 4cbe
00000350: 42c7 90be c042 8ebd 88d7 74be 651d 62be
00000360: c327 d8bc a61a d53e 7125 bb3e ee6c 6a3b
00000370: ff9e a53e 47a1 453e 29bd 3dbe fc8e f13e
00000380: 6280 7a3e 1b1c f03d d89c 0f3f 8b3b f53e
00000390: 2905 0a3e 7938 903f 18b7 433f 36eb 12bd
000003a0: fd43 513f a7ad 853f 828d d6bc 8952 773d
000003b0: 5378 723e 10ff a9be 2f90 753e 6376 473e
000003c0: 4da4 13be b6a9 6b3e 6767 b33e 4d7e 73be
000003d0: a1ec 27be 4b50 3bbe 9efc 06be 2e7e 25bd
000003e0: be43 b73c 3ed8 e53c ad18 81be 6935 62be
000003f0: 6e13 1abe 27d9 ec3c a3ff 413e b085 08be
-0.24721129 -0.3813321 -0.5445012 0.045782365 0.1586554 -0.009458172 -0.45341575 -0.46033442
-0.64750034 -0.049609143 -0.19963554 -0.20893413 0.23549236 0.25085238 0.008451901 -0.4319755
-0.29699856 -0.44423354 -0.52235854 -0.27294588 -0.42838156 0.098678105 -0.07758944 -0.1535048
-0.29902685 -0.4431485 -0.3481459 0.12811963 0.1946484 0.3195635 0.024292612 -0.14703926
-0.095963225 -0.13393478 -0.36481985 -0.55719095 0.2234656 -0.17230912 0.175176 -0.228567
-0.26201594 -0.31345135 -0.6177483 -0.6017306 -0.34775558 -0.035633165 -0.058919184 -0.0072840205
-0.15385859 -0.34411672 -0.29997623 -0.32386616 -0.40269655 -0.38906443 0.4483564 0.8367448
0.40784478 -0.13799629 0.2639297 -0.17149095 -0.25504622 0.17413472 -0.13410299 0.8147464
1.4885899 0.6349466 -0.037100498 0.64989686 0.024718525 0.10702425 0.4688851 -0.04044904
0.022542315 0.3270853 0.09369993 -0.4939146 -0.18018301 -0.39596683 -0.2331485 -0.05281
-0.28237942 -0.5919165 -0.4053678 -0.25542197 -0.41780135 -0.79788077 -0.33988073 0.38338456
-0.023194637 0.31458756 -0.12822825 0.1258775 -0.10836158 -0.61596334 -0.84693974 -0.7086147
-0.012951335 -0.19735697 0.004589831 -0.13286711 0.110742204 -0.17522925 -0.47544718 -0.5816532
-0.4513331 0.24003676 -0.05464284 0.26752675 0.047777034 -0.23767015 -0.14296055 -0.3004452
-0.2654686 -0.1396436 -0.28549406 -0.01316638 -0.019334499 -0.06435599 -0.10839616 -0.18662713
-0.3542861 -0.3137034 -0.005634805 -0.0026137098 -0.0777522 0.22812106 -0.02649193 -0.2433424
-0.1698301 -0.27398804 -0.25400224 -0.10511201 0.28702188 0.12960835 0.27836266 -0.5370143
-0.86437553 -0.91610146 -0.012226092 -0.19750535 -0.23047644 0.69378316 0.4507077 0.30850682
-0.66898936 -0.65763235 -0.8180646 -0.14590763 -0.061752185 -0.053579845 0.65252477 0.60996574
0.51958275 -1.0599223 -0.65729207 -0.5489504 -0.47384351 -0.30518967 -0.0669781 0.45387313
0.5151125 0.48950157 -0.21363431 -0.019983875 -0.25953522 -0.25289696 -0.11109536 0.045415457
-0.3837816 -0.19486967 -0.18197086 -0.22793977 0.20314047 0.2482266 -0.21794912 0.34356084
0.40074623 -0.17711073 -0.07521193 0.054052096 -0.0867794 0.18831222 0.253181 -0.08172896
0.2822021 0.83311146 -0.17034873 0.12741615 0.15866491 0.6232692 0.29049146 0.3269838
-0.00091052934 -0.14576404 0.04439174 -0.09033269 -0.17314406 -0.20383963 0.33543968 0.25703126
0.25078163 0.101860605 -0.11282736 -0.2296599 -0.06964193 -0.24703975 -0.2795959 0.054519642
0.13665642 0.14194307 -0.019709466 -0.19931023 -0.28277022 -0.06946325 -0.23910344 -0.22081526
-0.026386147 0.41621894 0.36552003 0.0035770494 0.32347867 0.19299804 -0.1852919 0.471794
0.24463037 0.11724111 0.560987 0.4789699 0.13478531 1.1267234 0.76451254 -0.035868846
0.81744367 1.044362 -0.026190523 0.060381446 0.23678713 -0.3320241 0.23980783 0.19478755
-0.14418145 0.23013958 0.35039827 -0.23778649 -0.1639886 -0.18292348 -0.13182303 -0.040403537
0.02237117 0.028057214 -0.2521414 -0.22090687 -0.15046474 0.02891214 0.18945174 -0.13332248

down_convs.1.conv1.bias f4 [6]
00000000: 122e 0e3c fb60 423d 58c7 3cbc 8b8b 24be
00000010: 8e9e d83b e2be ce3c
0.008677976 0.04745577 -0.011522137 -0.16068856 0.006610698 0.025237504

down_convs.1.conv2.weight f4 [6, 6, 3, 3, 3]
00000000: 5050 1bbe 2461 e7bd 47f8 99be 5e44 de39
00000010: 3913 253e eb9f 7abb ad85 b9bb fbf5 fe3d
00000020: e185 08be e138 173e d9ec 343e 1c5b afba
00000030: fd13 ae3e 5fed 2b3f 6a3e 813e e970 b63e
00000040: be51 833f dc52 263f 17fc cc3d 16f5 88bd
00000050: d7a6 8b3c eeae 5b3e 5c0e 253f b1f9 8a3e
00000060: 1b9e e73e fa04 a63f 0cfa 323f c3a0 46bd
00000070: 08f8 29be ef56 52bd f85f 7bbe 14f8 1abe
00000080: 81a1 9cbe c44e b7be af9b b9be 2f14 38be
00000090: ca7c 60bc c0f3 223d 5e87 903d 81cf 57bd
000000a0: 7e81 0cbe d38f d7bd 5fed 85be f2c5 92be
000000b0: 0abf 33be e180 a5bd ef4c c23d 1f0e fbbd
000000c0: 6178 68bc 9c09 2abe 8773 133d f7f6 adbe
000000d0: 1a3c 47be 0be4 65be 3ec3 323e c5a3 593e
000000e0: e55a 6bbe acce ba3e 04a9 943e abfa 94bd
000000f0: 9aa6 2e3e 180e 063f 0b17 82be 71ae ac3e
00000100: ec36 1a3f f410 9fbb 1b22 6f3f e8e1 a93f
00000110: 89f9 993d f808 3b3f ee19 883f b4f1 d93d
00000120: 57ea 0a3d a7bf 013e 75ea 36be c818 d13e
00000130: e308 283f 824a 313d 1c1e 043f dc42 123f
00000140: 7ef3 a63d 93f3 8fbe 8a15 0bbe c5b5 49be
00000150: 03fc 6cbe a8e3 4ebe 3eb5 1abe 10d9 3abe
00000160: f53c acbe 5810 733b 670a 66be a776 75be
00000170: f302 c2be f331 3cbe e4f7 9dbd 9458 6ebe
00000180: e1b6 bebe a604 afbe 7c5e 4cbe 75fa 39be
00000190: 4229 87be 5ef7 abbd 320b bebd 3f98 7fbe
000001a0: 2c15 91bd 9af1 bdbd ed45 4fbe 675d b0be
000001b0: 5974 5d3e 84d9 063f f15b 00bd 12be 453d
000001c0: bc42 e13e 4ae5 a53c bb02 c83d 8b26 0c3e
000001d0: 69e2 9a3d 8c2c cd3e 8b7c a63f 5869 813e
000001e0: 5b6b ef3e d23c a53f 3c33 0e3f be07 863e
000001f0: d0b4 4c3f 08ff ae3e d3e7 7d3c b3e7 323e
00000200: 4ad9 543e 2f74 893e a2a3 283f 107a 4c3e
00000210: 4bb2 8f3e 9769 163f 076d c63e 17d8 6d3d
00000220: 90f5 d33d fddd 543e cad3 fbbd 73df 5ebd
00000230: 436a 59bc 64e5 d7be e716 42bf 3285 15bf
00000240: 207b d83d 5fca 063e 0549 163e d75c cbbd
00000250: 8fac 2e3d 1a98 c93b 14f4 f7be ef0f 0ebf
00000260: f2cd f3be ea3e 14be 8044 953c 212b 463e
00000270: 606f abbd cbc4 ebbc 161f e53d 0dd6 cabe
00000280: 6c35 19bf de58 15bf 450b dd3e 6907 be3e
00000290: ae51 833e 4eca 123f 7990 f53e ef5d 033f
000002a0: 6d4d 7b3c c51d 033d 08e7 733e 66c8 4f3e
000002b0: ace5 c83d d3f8 073e 9acd 863e b4e3 723e
000002c0: bf97 803e 66e1 1ebe 5b71 4ebe 0b9b 0abe
000002d0: b73a 193e 57da 893d f229 833d 259f ff3d
000002e0: f870 853d 037c d23d 7e3d 5cbe 4003 1fbe
000002f0: 9912 38be b97a dcbe 347b f9be c9da 1bbf
00000300: 9e79 b3be 73f1 adbe 9379 53be 1d5c e6bd
00000310: 59b0 6dbd 6fe7 70be 976a ddbe 5ea8 c7be
00000320: ede9 b1be d3f3 08be b18d 25be 1d57 89bd
00000330: afd9 113c 20d1 533c 281c 5cbc 06dc 80be
00000340: 5d47 edbe 9e5f 45be 5d06 aabe 0ac5 41bd
00000350: 2ca0 e0bd 4a2b df3c 9208 993d cc0c a83d
00000360: 2a10 d3bd d880 0e3e d664 e83d e6cb 54be
00000370: ed02 5ebe 2884 cdbd be53 bdbd 357a aabe
00000380: 923b 2fbe c79d 72be 7bb1 92be e7b4 4cbe
00000390: cad6 fcbe f8b0 55be 972b 0cbe 2399 9fbd
000003a0: 0fd8 abbe f1e2 8dbe d887 95be 1034 82be
000003b0: 2157 56be 6019 7ebe 7f02 f3be 52ac 24be
000003c0: 2911 87be e04f bdbe a97f 8ebd e42f c3be
000003d0: b219 c6be 19ff 36bf f766 b2be bd9c 6fbe
000003e0: e140 edbe 9ff0 c5bd d30a 4bbe ba9f 48be
000003f0: 08fc d0be 9861 7cbe ceaa a5be a1e3 18be
-0.15167356 -0.11297825 -0.30072233 0.00042394077 0.16120614 -0.0038242291 -0.0056616873 0.12449261
-0.13332321 0.14767791 0.17668475 -0.0013378593 0.33999625 0.67159075 0.2524293 0.3563302
1.0259321 0.64970183 0.1000902 -0.066873714 0.017047329 0.21453449 0.64475036 0.27143624
0.45237812 1.2970269 0.6991279 -0.048493158 -0.16598523 -0.051352438 -0.24548328 -0.15133697
-0.30591968 -0.3580228 -0.3625159 -0.1797645 -0.013701627 0.03978324 0.07057069 -0.052688126
-0.13721272 -0.10525479 -0.26157662 -0.28666645 -0.17553344 -0.08081222 0.0948733 -0.12258553
-0.014188857 -0.16605228 0.035998847 -0.33977482 -0.1945652 -0.22450273 0.17457291 0.2125388
-0.22983892 0.36485803 0.290352 -0.072743736 0.17055741 0.52365255 -0.25408205 0.33726838
0.60240054 -0.004854316 0.93411416 1.3272066 0.07518298 0.7306056 1.0632913 0.10641804
0.03391489 0.12670766 -0.17862876 0.4083922 0.6563856 0.043283947 0.51608443 0.5713327
0.08151911 -0.2811552 -0.13582435 -0.19698246 -0.2314301 -0.20204031 -0.15108201 -0.18246865
-0.33640257 0.00370886 -0.22464906 -0.23971044 -0.37892875 -0.18378429 -0.07713297 -0.23275977
-0.372489 -0.34183234 -0.19957918 -0.18161948 -0.26398665 -0.08396791 -0.09279479 -0.24960421
-0.07084116 -0.092745975 -0.20241518 -0.3444626 0.21626414 0.5267565 -0.031337682 0.04827697
0.43996227 0.020250935 0.09766146 0.13686578 0.075627156 0.4007305 1.3006757 0.25275683
0.46761593 1.2909186 0.5554693 0.26177782 0.799634 0.34178948 0.015497166 0.17471199
0.20786014 0.26846454 0.65874684 0.19968438 0.28065714 0.5875487 0.38755056 0.058067407
0.10349572 0.20787807 -0.12296255 -0.054412317 -0.013269964 -0.421672 -0.75816196 -0.58406365
0.10570359 0.13163136 0.14676292 -0.09929817 0.042645033 0.006152165 -0.48428404 -0.5549306
-0.4761806 -0.14477125 0.01822114 0.1935239 -0.083708525 -0.028780362 0.1118757 -0.39616433
-0.5984714 -0.58338726 0.4317266 0.37115029 0.25648254 0.5733994 0.47961786 0.51315206
0.015338284 0.032010812 0.238186 0.2029129 0.098094314 0.13278513 0.26328737 0.23719674
0.25115773 -0.1551567 -0.20160429 -0.13535707 0.14963804 0.06731098 0.06404485 0.12481526
0.06515688 0.102775596 -0.21507832 -0.15528584 -0.17975844 -0.4306238 -0.4872681 -0.60880715
-0.35053724 -0.33973274 -0.20651846 -0.11248038 -0.058029506 -0.23525785 -0.43245384 -0.3899564
-0.34748784 -0.13374262 -0.16167332 -0.06706069 0.0089019975 0.012928277 -0.013434447 -0.25167865
-0.46343508 -0.19274756 -0.3320798 -0.04730705 -0.1096805 0.027242322 0.07472338 0.08205566
-0.103058174 0.13916337 0.11347358 -0.20780906 -0.21680804 -0.100349724 -0.09244488 -0.33296362
-0.17112568 -0.23693 -0.28651032 -0.19990884 -0.4938262 -0.2086829 -0.13688503 -0.077928804
-0.33563277 -0.27712205 -0.29205203 -0.25430346 -0.20931675 -0.24814367 -0.47462842 -0.1608136
-0.2638028 -0.36975002 -0.06957943 -0.38122475 -0.3869148 -0.71483 -0.3484418 -0.23399635
-0.4633856 -0.096650355 -0.19828348 -0.19592181 -0.40817285 -0.24646604 -0.32356876 -0.14930584

down_convs.1.conv2.bias f4 [6]
00000000: 8ca7 ddbb 239d 0dbd 9098 b3bc b08d 64ba
00000010: 2758 b83a f72f 8f3c
-0.006764358 -0.034573685 -0.021923333 -0.0008718623 0.0014064357 0.017478926

down_convs.1.norm0.weight f4 [6]
00000000: 19eb 7c3f 075a d33f 05e5 2a3f 13f5 af3f
00000010: 4a90 4d3f da8b ae3f
0.9879623 1.6511849 0.66755706 1.3746666 0.8029829 1.3636429

down_convs.1.norm0.bias f4 [6]
00000000: c9d4 4abd 66ff 223e dae1 edbe c98c 903e
00000010: 6800 69be f9b1 77be
-0.049519334 0.1591774 -0.46461374 0.2823241 -0.22754061 -0.24188985

down_convs.1.norm0.running_mean f4 [6]
00000000: 6080 2fbf d26d 21c0 4e8a 1840 d2fc 0cc0
00000010: 9bf6 4a40 4dae 65bd
-0.6855526 -2.522328 2.3834414 -2.202931 3.1713016 -0.05607443

down_convs.1.norm0.running_var f4 [6]
00000000: c791 cb41 4078 6342 2d4b 6442 9204 5042
00000010: d989 d242 bd75 1542
25.44618 56.86743 57.073414 52.004463 105.26923 37.36498

down_convs.1.norm1.weight f4 [6]
00000000: b296 5d3f 7b2b 783f 6aef aa3f 5118 9f3f
00000010: 35f0 433f 25a1 883f
0.8655807 0.96941346 1.3354313 1.2429296 0.765384 1.0674177

down_convs.1.norm1.bias f4 [6]
00000000: b80b 6fbe 2fb6 19be c42c bc3e 6f9c afbe
00000010: 1113 edbe 9fab 1abf
-0.23344314 -0.15010904 0.36752903 -0.34299037 -0.4630361 -0.60418123

down_convs.1.norm1.running_mean f4 [6]
00000000: f6a6 11c0 9b3b cec0 3bd4 c4c1 586c e0c0
00000010: 6cc1 6dc0 df1e 82c0
-2.2758155 -6.444776 -24.603628 -7.0132256 -3.7149305 -4.0662684

down_convs.1.norm1.running_var f4 [6]
00000000: c222 6c43 d819 c742 0e5d ba42 0d88 4e42
00000010: bf4d 0c43 6c1b c642
236.13577 99.550476 93.18175 51.632862 140.3037 99.05356

down_convs.2.conv1.weight f4 [12, 6, 3, 3, 3]
00000000: 8d0a fb3e d14c 133e 1561 f73e 09ab 013e
00000010: c1e5 49be 6fb8 763d e58a 733d de25 d8be
00000020: 9808 bcbd b6d7 ac3e f1cf 96bd 928b 813e
00000030: 50de 1e3d 8fb9 dfbe 1419 47be 175e 4ebe
00000040: 74da 24bf 03b0 d3be 3b3a b83e d564 903e
00000050: d1c9 9a3e 5737 843e 6785 60be dee1 6d3c
00000060: 4a36 b33d 9194 81be 04ee b3be e119 46be
00000070: d614 22be 0c8a e7be b89e d7bd 3cfe 3bbd
00000080: b207 6bbe 12ca 983e 51da 843e 0ef3 b53d
00000090: 85e2 eb3c 8a16 aa3d d2a0 fb3d 87c6 4fba
000000a0: 24d5 ab3c dba4 87bd 6444 473e afeb 4c3e
000000b0: 00e6 883d 2c11 c63d 08e0 3ebd 78ef f5bc
000000c0: 38d4 11be 9fe8 49bd e603 3ebe 4d45 633d
000000d0: b6c4 bf3c 22e4 20bc cb98 2abf 0b10 fabe
000000e0: 23f5 3bbf 1c3d a0be 88db 19be 3607 b7be
000000f0: e203 823e 2f47 bc3e d60d a93e d982 0abf
00000100: 61ab 99be d065 f7be c419 5c3d 0a36 7c3e
00000110: 0906 08bd 8e28 e23e 817b 3e3f ea80 2b3f
00000120: 4d83 05bf 7a80 d7be 09a2 00bf e6d4 88be
00000130: 5239 563e 8151 c63c 903b ab3e 28b5 093f
00000140: 5ab9 2b3f e604 303f bdbc 003f 7bc3 c43e
00000150: 0de9 1f3e bf70 91bd 48cb 1c3d 47b1 9a3d
00000160: b6c6 7abe 728b 8f3a 72a6 ea3e 5d98 ad3e
00000170: 0f17 d43e d082 863e c01e 49be 7527 83bc
00000180: aa24 953d d304 d4be e6a1 a7be 854c d53e
00000190: b9de 813e f9b4 eb3e cebc c03e db73 b93d
000001a0: cdb8 6b3e c907 733e 0598 e6bd 0fe5 86bd
000001b0: bcb5 453e 3d66 2f3e 9cc7 ba3e 2fe7 813e
000001c0: 3b78 283d 06c1 5f3e d5f6 cc3e b96e 6f3e
000001d0: 11da 3f3d be2f 9a3e cdbc 863d ddbf 493e
000001e0: 7ac5 733e 6900 c0bd e32f 563d 23e3 aa3e
000001f0: f5ae 113e 11ec 423e 94d4 863e 0f6f 743e
00000200: 438b ae3e ee37 bc3e f365 873d 5548 da3d
00000210: 4a98 b13e 3f93 383e 681d bd3c 0c7f 893e
00000220: f8de 113e 7a69 513e 84b8 c13e f06d 853d
00000230: 3196 d83d a60d 6c3e 3325 243e 45a8 d13c
00000240: 5fcf 783e 9564 503d 4205 233e 057a ae3e
00000250: 8d79 343e 776e a3bb 58f4 c13e 3ea4 433e
00000260: d0cf fc3d e164 b93e 234b 853e d6ed bb3e
00000270: 0891 2a3f 8812 b43e 2dec 1b3e be63 943e
00000280: 2769 283e 95ec f23d 22ce c73b c76c cb3d
00000290: e9b2 c63e d69a 073e 1df9 2f3d 02fd 903e
000002a0: 0772 f93c 4319 39be 5c15 d3bc caec 83be
000002b0: e33f b3be f8f4 d33d 6adb 16be 4ff3 cbbe
000002c0: 721e a0be 6b8e e3be 3a80 d7be cd7f b7be
000002d0: 2f13 09bd ffd0 6bbd 7f21 24bd e524 48be
000002e0: c2b4 c8be 84ae 8ebe d284 d9be c400 0bbf
000002f0: 5006 c7be 660b b73e 8a61 8b3e f52b 4e3e
00000300: e491 0e3f b6dd c93e 5568 293e 41dd 163e
00000310: 1f71 be3d 0021 a13e 63d7 db3e 4994 343f
00000320: 97f9 2b3f d9cf c73e 81d5 193f 83c1 033f
00000330: c989 a3be 2964 8fbe c04e b63d 5209 623e
00000340: bc54 fb3e 17a2 433f 61a5 b1be 7227 b2bd
00000350: 621a 193e 4b89 83bf cae5 6abf 501e bbbe
00000360: 2638 d33e 4c99 7b3e 315b 9d3e f884 ff3d
00000370: 7391 dcbd 3a0c 2abe 36bb 5a3e dfe3 183e
00000380: 1205 653e 3c4d 183f 1186 523f 16a2 503f
00000390: 5d7b 963e d59d 7f3e 5137 b23e 4c10 9f3e
000003a0: dee3 bd3e 6b7a 893e 1e8f 523f b710 6e3f
000003b0: a9ce 8f3f 8a3b 053e f73b dd3e 6a96 e13e
000003c0: 02b8 aebd 281e 2d3e 75f5 933e 6731 023e
000003d0: 0c94 333d 77d0 3f3e fb5f 78bd 62d9 eabd
000003e0: 4dd2 23bd 9114 2bbe f22d 8ebe 7412 83bd
000003f0: 1df5 25bc a258 ffbc 3d62 993d 66b7 75be
0.49031487 0.14384772 0.48316255 0.12662901 -0.1971655 0.060234483 0.059458632 -0.4221639
-0.09181327 0.33758324 -0.073638804 0.25301796 0.038786232 -0.43696257 -0.1944316 -0.2015308
-0.64395833 -0.41345224 0.35981926 0.2820193 0.302321 0.2582347 -0.21925889 0.014519183
0.08750589 -0.2530866 -0.3514253 -0.1934581 -0.15828261 -0.4522251 -0.1052832 -0.045896754
-0.22952154 0.29841667 0.25947812 0.0888425 0.028794536 0.0830508 0.122865334 -0.0007926006
0.020975657 -0.066232406 0.19459683 0.20011781 0.06684494 0.09671244 -0.04660037 -0.030021414
-0.14241111 -0.04929411 -0.18556175 0.055486012 0.023409229 -0.009820016 -0.66639394 -0.48840365
-0.73420924 -0.31296623 -0.15025151 -0.3574769 0.25393587 0.3677306 0.33018368 -0.5410591
-0.30013564 -0.48319864 0.05373551 0.2462999 -0.03320888 0.44171566 0.744072 0.6699358
-0.52153474 -0.42090207 -0.50247246 -0.2672493 0.20920303 0.024208786 0.3344388 0.5379205
0.670797 0.68757474 0.5028799 0.3843039 0.15616246 -0.07101583 0.0382798 0.07553344
-0.24489865 0.0010951592 0.45830113 0.33905306 0.41423842 0.26271677 -0.19640636 -0.016010026
0.07282384 -0.4140993 -0.32740706 0.41659942 0.25365236 0.4603651 0.37644047 0.09055301
0.23019715 0.23733439 -0.11259464 -0.06586658 0.19307607 0.17128845 0.36480415 0.25371692
0.041130286 0.21850976 0.40032068 0.23382081 0.046838824 0.3011455 0.0657898 0.19702096
0.238058 -0.09375078 0.052291762 0.33376417 0.14226897 0.19035365 0.2633406 0.2387049
0.34090623 0.3676142 0.06611242 0.106583275 0.346865 0.1802492 0.023085311 0.26854742
0.14245212 0.20450392 0.37836087 0.065151095 0.10575522 0.23052081 0.16029815 0.025592932
0.24297856 0.050877172 0.15919974 0.3407747 0.17624493 -0.0049875337 0.37881732 0.19105622
0.123443246 0.36209777 0.26033887 0.36704892 0.6662755 0.35170388 0.15226813 0.28982347
0.16446362 0.11861531 0.006097571 0.09932857 0.38808373 0.13242659 0.042962182 0.2831803
0.03044988 -0.18076043 -0.02576702 -0.25766593 -0.3500968 0.103494585 -0.14732137 -0.39834067
-0.31273228 -0.44444594 -0.42090017 -0.35839692 -0.03346556 -0.05757236 -0.040071007 -0.19545324
-0.39200407 -0.2786752 -0.42484146 -0.54298043 -0.38872004 0.35750884 0.27222854 0.20133956
0.5569136 0.39426965 0.16543706 0.14732839 0.0929892 0.3147049 0.42937765 0.70538765
0.6717772 0.39025763 0.60091406 0.5146715 -0.3194106 -0.28006104 0.08901739 0.22073868
0.49088085 0.76419204 -0.34696487 -0.0869893 0.1495147 -1.0276273 -0.9175688 -0.36546564
0.41253775 0.24570197 0.30733636 0.12476534 -0.1076993 -0.16606227 0.21360478 0.14930676
0.22365215 0.5949285 0.8223582 0.81497324 0.29390994 0.24962552 0.34807828 0.3106712
0.3708791 0.2685121 0.8224963 0.92994255 1.1234943 0.13010994 0.43209812 0.4406007
-0.085311905 0.16906035 0.28898206 0.12714158 0.04384236 0.18731867 -0.06063841 -0.11467244
-0.03999548 -0.16707064 -0.27769428 -0.06400004 -0.01012924 -0.031170193 0.074894406 -0.23995742

down_convs.2.conv1.bias f4 [12]
00000000: 92d5 783b a143 063a 0575 4e3b 221d 883b
00000010: f6c0 093a ec20 85bb 0cf0 dd3a 915a 7ab9
00000020: 76ce ee39 433a 4cb9 5026 ef3a 4a83 9bba
0.0037969095 0.0005121772 0.0031502855 0.0041538635 0.00052548887 -0.0040627625 0.0016932501 -0.00023875597
0.00045548723 -0.0001947666 0.0018245671 -0.0011864689

down_convs.2.conv2.weight f4 [12, 12, 3, 3, 3]
00000000: 97d6 9c3a e42c 543a d41e 9cbd 8e7a 1f3e
00000010: e6b1 9a3d e837 04bd a970 7d3e 6fbd b23e
00000020: b2a4 5abd d993 b3bd b804 963a 7b1e a4bd
00000030: f035 2a3e 0286 563d af71 9bbd 0656 a23d
00000040: 70ee a03e 77d9 933d 9d0d 89be a55e 8dbe
00000050: 2a64 a7be 554a 23bc d3aa d4bd 9b4c 87be
00000060: 80e9 cb3c af71 da3d 997d 7fbe b198 dabe
00000070: 589c 1fbf 429a 08bf febe 9dbc e2c1 223e
00000080: a78e 39be f2d9 833e 0960 e7ba 58cd 29be
00000090: 48bd 9fbe 4d4a 43be 68bf 87be 7221 29bd
000000a0: 3fd8 9cbd 6b8a a2bd 6238 9939 6144 17be
000000b0: 13ca 7bbe 1847 2abe 186b 00be 9dd6 7ebe
000000c0: c248 aebd aa9c 49bd dafa e9bd d346 c9bd
000000d0: 98a4 86be 4f11 93be 0566 2bbe 3b4e 0dbf
000000e0: 5cf0 79bf aee9 2ebd c999 04bd 687b 2bbe
000000f0: 5b04 a53e d08b ae3e a5cf 0b3f 1f75 a4bd
00000100: 27bd afbe 0164 30bf 708c 33bd 3046 f6bd
00000110: 9ad6 20be 0c15 423e 497c ee3d 3632 c63e
00000120: e9ad 12bf fb03 3abf bfcb 36bf f5d6 2c3c
00000130: d20f d33c cfa9 38bd eed4 e93e 74bc 903e
00000140: 3fe4 f83e 798d a0bf 9713 3dbf 605a ffbe
00000150: 7a00 93be 8e4c 83be 0031 c9bd fce4 bd3e
00000160: 49a5 483e 9e94 183e 1891 59bf a5bb babd
00000170: 7f70 a13e 0fe1 eebe 9db8 8bbc aa28 cc3d
00000180: ccd1 6d3e 36a2 0e3e 8ade 153d 527e 39bf
00000190: 38cb 3ebb b965 203e 6bca 71be 3d23 6ebd
000001a0: 9c0d 203e 8bab a73e 3ec2 4d3e c19d 513e
000001b0: cb99 c93d b687 7a3e bfe3 ab3e c639 5bbe
000001c0: f971 f53d 27a3 d13d fa84 60bd 27c9 073e
000001d0: c9c0 a63d 7489 b03d 4cd2 413e 5b18 b73e
000001e0: 4b86 ddbd 6459 243e 6a6d 523e 1fd5 0abe
000001f0: 3e4c ac3c ebd2 a83c cf63 5e3e 10d0 923e
00000200: 269b 6b3e 27b7 36be 351b ee3c 1a1a fe3d
00000210: 2bfb 0abe 72f1 b4bc 10b1 763d 4020 a03e
00000220: 5d8a 863e c3ce 1c3e 49a9 c23e 8673 903e
00000230: fdb3 3d3e 8d74 843e 3c2e bb3d 0744 bb3d
00000240: 99b4 a53e 6a01 413e 703d 463d 2b2f 8e3e
00000250: 75a5 053e c6b2 853d 4afc 053e 6b5b b93d
00000260: a20b f9bd 1176 ae3e 2d60 603e e144 f23d
00000270: 512f 5b3e 2644 af3d b0ce 913c 201e fb3c
00000280: a8ee 79bd a965 84be 5ff3 92be 8c34 e13d
00000290: b963 9c3d 19e8 acbe 9853 413e 10af 543e
000002a0: 1fdd 2c3d 66d8 333e 4bc0 233f 3c35 64be
000002b0: 5d61 943e bd22 963e fdcc 5bbd 0db8 ad3e
000002c0: 4cb0 cf3e 7984 1e3e da48 663e 1778 dc3e
000002d0: 39e6 c3be 4657 eb3d d9af 9c3c c6b2 5abe
000002e0: 17e0 883e 2e8f 823e 38af fd3d 48d2 bf3e
000002f0: bc2e c03e a3d6 38be 8aa4 a1ba 273c 0ebd
00000300: a84a a4bc fab8 2f3c 478e 27bd dc41 2ebd
00000310: fb8c 07bc 1bd3 7bbc 9741 59be b070 f1bd
00000320: a70c babd a675 71bd 842d 283c 993b 0939
00000330: 18d3 ee3d 23c6 4d3d d2f3 fbbc 92ca 32be
00000340: c93f 18be 199c 73be a4ec 2b3c 5b0e 04bd
00000350: 4ce8 8dbd a302 52bd 6390 71bd 23d5 1bbd
00000360: 0e9e dd3c 5b34 4ebe 99d9 24be 3835 753e
00000370: 965a 363b 5fe8 1a3d 9696 ad3d 3acf ebbc
00000380: e059 ab3d 04ec 14bd 8c0a 7bbe 3bb5 64be
00000390: 184f 4d3e 7bf4 3a3e 89c8 763d 59c9 043b
000003a0: 90b4 39bd 0e7b 83bd dea7 babd 93f2 2bbe
000003b0: c64f 88be f491 393e 36bf 473d 771f 5fbc
000003c0: a9b1 d2bc c064 c4bd f6b7 15be 5306 7c3e
000003d0: 1aa2 603d f7c4 2f3d 5ed3 9d3e 992a 823e
000003e0: ada2 dd3d 0bc9 e03d 327c 053e 67ec ad3c
000003f0: 0be3 b0bd 404c 3ebe 10ad fabc b906 f93d
0.0011965808 0.00080938474 -0.076230675 0.15574095 0.07553463 -0.03227988 0.24750008 0.3491015
-0.053379722 -0.08768434 0.0011445498 -0.08013626 0.16622138 0.052373894 -0.07590043 0.07926564
0.31431913 0.072192125 -0.267682 -0.2761127 -0.32693607 -0.009966453 -0.10384145 -0.26425633
0.024891615 0.10666215 -0.24950255 -0.4269462 -0.62347937 -0.5336038 -0.019256111 0.15894273
-0.18120824 0.25752217 -0.0017652522 -0.16582239 -0.31199098 -0.19071312 -0.2651322 -0.04129166
-0.07658433 -0.079365574 0.00029224443 -0.14772178 -0.24588804 -0.16628683 -0.12540853 -0.24886556
-0.08509971 -0.049221672 -0.11424799 -0.09827962 -0.2629745 -0.28724143 -0.16738136 -0.55197495
-0.97632384 -0.042703323 -0.032373223 -0.16746294 0.32229885 0.34091043 0.54613715 -0.080301516
-0.34324 -0.68902594 -0.043835104 -0.12025106 -0.15706864 0.18953341 0.11644799 0.38710183
-0.57296616 -0.72662324 -0.7140464 0.010549297 0.02576438 -0.045083817 0.45670265 0.28268778
0.48611638 -1.2543174 -0.73858017 -0.49873638 -0.287113 -0.25644344 -0.09823799 0.37088764
0.19594301 0.14900443 -0.8498702 -0.091178216 0.3153114 -0.4665608 -0.017055804 0.099686936
0.23224562 0.13929066 0.036589183 -0.72458375 -0.0029112827 0.15663804 -0.23612373 -0.058139075
0.15630192 0.32748064 0.20093629 0.20470335 0.09843787 0.24465832 0.33572194 -0.21408758
0.11984629 0.10236197 -0.054814316 0.13260327 0.081422396 0.08619967 0.18927878 0.3576077
-0.1081663 0.16049725 0.2054955 -0.13557862 0.021032449 0.020608386 0.21717761 0.28674364
0.23008403 -0.17843305 0.029065708 0.12407322 -0.13572375 -0.022087786 0.060227454 0.31274605
0.26277438 0.15313248 0.3801978 0.28213137 0.18525691 0.2587017 0.09139678 0.091438346
0.32364348 0.18848196 0.048398435 0.2777036 0.13051398 0.06528239 0.13084522 0.0905064
-0.12160422 0.34074453 0.21911688 0.11829544 0.21404769 0.0855792 0.017798752 0.030654013
-0.061018616 -0.2585881 -0.28701302 0.10996351 0.07636208 -0.33770826 0.18879545 0.20769906
0.042203065 0.17563018 0.6396529 -0.22285932 0.28980532 0.29323378 -0.05366229 0.33929482
0.4056419 0.15480222 0.22488728 0.4306037 -0.38261583 0.114912555 0.01912682 -0.21357259
0.26733467 0.25499862 0.12386936 0.3746512 0.37535655 -0.18050627 -0.0012332362 -0.034725334
-0.02005513 0.010725254 -0.04090717 -0.042543277 -0.008273358 -0.015370156 -0.21216427 -0.117890716
-0.090844445 -0.05895009 0.010264758 0.0001308754 0.11661357 0.050237786 -0.030755911 -0.17460087
-0.14868082 -0.23790015 0.010493431 -0.032240253 -0.06929073 -0.051272046 -0.05897559 -0.03804506
0.027052905 -0.2013716 -0.16098632 0.23946083 0.002782499 0.037819263 0.084759876 -0.028785337
0.08366752 -0.036357895 -0.24515742 -0.22334759 0.20049703 0.18257324 0.06024984 0.0020261614
-0.045338213 -0.06419955 -0.091140494 -0.16791753 -0.26623362 0.18122083 0.048766337 -0.013618342
-0.02571948 -0.09589529 -0.14620957 0.24611787 0.054842092 0.04291245 0.30825323 0.25423124
0.108220436 0.10975846 0.13035658 0.02123089 -0.08637055 -0.18583775 -0.0306001 0.12159485

down_convs.2.conv2.bias f4 [12]
00000000: 822d 213b cc73 c23a 2a2e 04bc 6770 7e3b
00000010: 2f46 803b 5ada 10b9 d184 6fb7 21fc 64ba
00000020: 70a8 8d3b 878d 20bb 0db5 ce3b 617a 11b8
0.0024593775 0.0014835536 -0.008067647 0.0038824321 0.0039146165 -0.00013814252 -1.4276434e-05 -0.000873508
0.004323058 -0.002449842 0.006308204 -3.468467e-05

down_convs.2.norm0.weight f4 [12]
00000000: e173 3f3f c377 7d3f 3467 a73f fc64 8c3f
00000010: 8259 9e3f b838 b03f 8356 963f 0750 4f3f
00000020: ac22 2f3f 8eba 293f 1c52 953f 0343 3f3f
0.7478619 0.99010867 1.307837 1.0968318 1.2371066 1.3767309 1.1745151 0.8098149
0.6841228 0.66300285 1.1665683 0.74711627

down_convs.2.norm0.bias f4 [12]
00000000: 56f7 0abe ef8c 20bd e632 aebe cc56 bcbe
00000010: 0820 943e 794e 12be a19e d93d 19a9 223e
00000020: b39a 973e 0bd5 41be 7da1 47bf 664b 623e
-0.13570914 -0.039196905 -0.34023207 -0.3678497 0.28930688 -0.14287747 0.10625959 0.15884818
0.29610214 -0.18928926 -0.77980787 0.22099075

down_convs.2.norm0.running_mean f4 [12]
00000000: 337b 1b40 2520 7b40 74af ab40 c610 8240
00000010: 8f32 a13f 078b 2a40 9146 0b40 267e 2fc1
00000020: 3b53 abc0 fc61 13c1 086e 0841 a743 adc0
2.4293945 3.923837 5.3651676 4.0645475 1.2593554 2.6647356 2.176182 -10.968298
-5.35391 -9.211422 8.526863 -5.4145083

down_convs.2.norm0.running_var f4 [12]
00000000: b7a2 9542 235d af42 e3a1 d342 a72a b342
00000010: 2a85 6243 4421 d542 eef6 ba42 12e3 5b44
00000020: ee36 9043 ce1c 8643 6475 5943 a1f7 7b43
74.8178 87.68191 105.816185 89.583305 226.52017 106.56497 93.482285 879.548
288.42914 268.22504 217.45856 251.9673

down_convs.2.norm1.weight f4 [12]
00000000: 7669 a13f 156f 973f 0961 aa3f 52b7 ca3f
00000010: 3229 7e3f 8450 d63e 74fa 993e 946a 663f
00000020: bbe7 dd3f 37bd 943f 5246 733f 06c2 523f
1.2610309 1.1830775 1.3310863 1.5837195 0.9928161 0.41858304 0.30073893 0.90006375
1.7336344 1.1620244 0.95029175 0.82327306

down_convs.2.norm1.bias f4 [12]
00000000: 03d8 9dbd d673 193e f9a1 6ebd 4cf1 11be
00000010: 414e 07bf 0739 bebe 1575 06bf 7e77 cdbe
00000020: 083f 3d3e 9f3a b83e a57c 94bb 89eb 8aba
-0.077072166 0.14985594 -0.058259938 -0.14252204 -0.5285378 -0.37152883 -0.52522403 -0.40130228
0.18481076 0.35982224 -0.0045314603 -0.0010598759

down_convs.2.norm1.running_mean f4 [12]
00000000: d1ed 8c3e 4172 5ac0 a571 71c0 e88c 3ec1
00000010: a457 df3f 25bd debf b11e a93f 377f 413f
00000020: 1e8d 45c1 a87c 0ec1 8244 80c1 f9e9 42c1
0.2752519 -3.4132235 -3.7725613 -11.909401 1.7448621 -1.7401472 1.3212491 0.7558474
-12.346952 -8.905434 -16.033451 -12.182122

down_convs.2.norm1.running_var f4 [12]
00000000: ef3a 5742 3c63 ae42 eb74 b142 16b8 0a43
00000010: 724d 1542 063f 2443 24e4 0243 1472 8442
00000020: de35 2b43 6022 0143 8d27 1043 5fc7 aa42
53.807552 87.19382 88.728355 138.71909 37.32563 164.24619 130.89117 66.22281
171.21042 129.13428 144.1545 85.3894

down_convs.3.conv1.weight f4 [24, 12, 3, 3, 3]
00000000: c0c6 b93c 69d7 533d 8c50 863e cbc7 ee3d
00000010: 4a1a 8f3d b25b 6c3e 257b fc3d 5a3b d03e
00000020: 2a3a 023f 4497 673a ac95 193e cfbd b73d
00000030: 8749 0b3e e164 2f3d 450d 0f3e 2adc 093f
00000040: 7f68 563f f634 663f a7b6 53bd b417 90bd
00000050: bb5d 58be 797c ba3d c448 5d3d 79f2 763d
00000060: 38b3 613f 13c9 743f 553c 353f f6ec 2abf
00000070: 70bc 91be 68b6 5dbe a9e3 0fbf b0a8 933d
00000080: 7ab8 b8be 08a7 c2bd 0dbf 263e 344e 78bd
00000090: 46c3 f8bd 4d45 243c e65e 293d e9f0 a03d
000000a0: 3f77 083f 32d9 6a3d 6af2 bcbd ff57 ccbc
000000b0: 733b 1fbe dccc 263c e3c5 ad3c 5885 0a3e
000000c0: 5df4 32bf d11f 2cbe 8bcb debe d327 0ebf
000000d0: f3fa bbbe 765b ccbe 4dff 0c3e 7789 bb3e
000000e0: f4c8 093f 87f8 a43e d716 153f 7013 353f
000000f0: a478 f03d b193 7a3e 547d aa3e 2b3b c73e
00000100: f0ca 1c3f 3e7c 2f3f 143f 1e3f 6633 993f
00000110: f17d 4d3f 72f5 6e3e 3e4a 263f af13 e93e
00000120: 4d81 cc3e bffa 073f 447e 993e 4b3c 0b3f
00000130: 3071 403f e4ea b23e b8d3 df3e bccc 9e3e
00000140: ea98 503d 2639 433e 40e2 023f 54dc c63e
00000150: a5cf 48be bade 123f 39a1 46bd 2a57 723e
00000160: cf5d f23e 5f71 dabd 813d 473f 2106 243f
00000170: 47f5 cd3e 994e 1a3f 2312 a53f 5368 013f
00000180: a7f2 6d3e 216f 693e 0789 17bd 263e 083f
00000190: c221 ef3e 8f20 683e 6668 163e 9a69 673f
000001a0: 8244 613e ba07 86bd f03c b9bd cc37 dcbe
000001b0: 7f8e 28bf d0b4 1bbe 78e4 acbe 3251 05bf
000001c0: f9cf 46be 8b0d fbbe ec86 ee3d 0117 e1bd
000001d0: 7520 95be 8d42 53be 61c2 813e 80a7 9a3c
000001e0: 37a9 13be 6490 763e 8de8 7dbd 2064 9f3c
000001f0: f623 47be a000 78be 7bb5 02bf dfff 18bd
00000200: 1dd4 8bbd 067e 07bf d4f1 83be 46e7 9dbe
00000210: 54ce 9fbe f4fa c1be f268 94be 0ccb a2be
00000220: dd21 a6bd 4d66 d0bd 767e 1d3e 21ee b63e
00000230: 3721 863e 6647 323e fd80 943e 423f d13e
00000240: 34bf 66bc 870a 703e 8a86 3d3e 4314 7f3e
00000250: ea3d b93e 491a 6d3e 6bcc 223e 6672 ca3d
00000260: 59d9 e23d 2011 8fbd 7eb7 a53d c804 6cbc
00000270: 49ae 8c3e ca0c 1d3e 8f85 8e3d beb7 0e3e
00000280: 0a07 8b3d 6325 dd3d f108 0fbf a90a cebe
00000290: 124f ddbe 4d42 2cbf 05d0 c7be 6165 adbe
000002a0: 3978 eb3d 554a 243e b30b 693e 44d6 88bc
000002b0: dea8 b33d a1a6 59bd a71d b2be e622 c3bd
000002c0: ae95 34be 0a2d a3bd 8625 e6bc 8d87 cf3d
000002d0: 97ef 02be 55d8 513e c8c7 da3d e529 12bf
000002e0: 6fbf 95be ffa7 a4be a4f9 a4be 510c 71be
000002f0: d09c 70bd 2550 a5be ecb2 aebe 028b 7ebe
00000300: 87e4 963e 0099 983d 5592 7c3e 6698 1b3f
00000310: 35c5 e23e 06f3 c03e 9437 e6bd bc16 2a3d
00000320: cc50 223d 2303 b63e 4ac4 8d3e 5b4a a03e
00000330: 59ec 0a3f 4140 e03e 17fc d33e 951d 91be
00000340: acfa 913d 9eba 92bd 3ebb 8f3e 412a ab3e
00000350: 5d99 253e 19d2 173f e17b 103f 7918 ed3e
00000360: 828d 7f3c 8439 d63d be83 623e ad91 f8bd
00000370: f226 1e3f e634 b8bd d2a6 9f3e 4901 1c3f
00000380: 0bf3 0ebe 6e3c 7e3e cfe6 4b3e ce0c 263d
00000390: d389 2b3f 5552 883f f4c1 8d3e 8d03 1f3f
000003a0: ce02 0a3f 5991 ddbc 4a25 543e 2409 223d
000003b0: ccce 36bd adfb 693e 4a70 143f 6b2d 08bd
000003c0: f40b bcbc 94c6 d13d ce86 8dbe d0e1 afbd
000003d0: bb78 103e 048a 8e3e c084 ea3d 5ad2 c73e
000003e0: 111e 873e 8c87 ad3d 5c3e 1c3e 1474 783e
000003f0: 5b5d bd3e 9a09 173f 3e2d 2d3f 26be 033f
0.02267778 0.051719103 0.26233327 0.11659201 0.06987436 0.23081854 0.123281755 0.40670282
0.5087 0.0008834491 0.14998502 0.0897175 0.13602267 0.042820815 0.13969906 0.5385157
0.837532 0.8992456 -0.051687863 -0.07035771 -0.21129505 0.091057725 0.054024473 0.060289834
0.8816409 0.95619315 0.70795184 -0.66767824 -0.2846408 -0.21651614 -0.56206757 0.07209909
-0.36078244 -0.09504515 0.16283818 -0.060621455 -0.121466205 0.010026288 0.041350268 0.0785845
0.53306955 0.05733604 -0.09225924 -0.024944304 -0.15550022 0.010180678 0.021212524 0.13527429
-0.6990412 -0.16809012 -0.43514666 -0.55529517 -0.36714897 -0.3991353 0.13769265 0.36628315
0.53822255 0.3222086 0.58237976 0.70732784 0.117417604 0.24470402 0.33298743 0.3891233
0.6124716 0.68548954 0.61815 1.196881 0.80270296 0.23335817 0.64957035 0.4552283
0.399424 0.53116983 0.29979146 0.54388875 0.7517271 0.34944832 0.43716216 0.31015575
0.05092708 0.19064769 0.5112648 0.38839972 -0.1961046 0.57371104 -0.048493598 0.23666063
0.47337195 -0.10666155 0.7782822 0.6407185 0.40226194 0.6027618 1.289616 0.5054981
0.23237096 0.22796299 -0.036995914 0.5321983 0.46705443 0.2266867 0.14688262 0.9039551
0.2199879 -0.065444425 -0.09044826 -0.4301132 -0.6584243 -0.15205693 -0.33768058 -0.5207702
-0.19415273 -0.4903377 0.11646828 -0.10990716 -0.29126325 -0.20630856 0.25343612 0.018878698
-0.14420019 0.24078518 -0.061989356 0.019456923 -0.19447312 -0.24218988 -0.5105817 -0.037353393
-0.06827567 -0.5292667 -0.25770438 -0.3084051 -0.31212103 -0.37886775 -0.28986317 -0.31795537
-0.08111928 -0.10175762 0.15380272 0.35728553 0.26197216 0.17410049 0.2900466 0.40868574
-0.014083672 0.23441516 0.18508354 0.24910073 0.3618005 0.23154558 0.15898292 0.09885101
0.11076612 -0.06985688 0.08091639 -0.014405437 0.2747672 0.1533691 0.06959068 0.1393728
0.06788452 0.107981466 -0.5587302 -0.40242508 -0.43224388 -0.67288667 -0.39025894 -0.33866408
0.1149754 0.1604398 0.22758369 -0.016703732 0.08772443 -0.053137425 -0.34788248 -0.09528141
-0.17635223 -0.07967575 -0.028094064 0.10133276 -0.12786709 0.2049268 0.106826365 -0.57095176
-0.29247615 -0.3215942 -0.3222171 -0.23539855 -0.058743298 -0.32287708 -0.34120882 -0.24857715
0.29471228 0.074510574 0.24665196 0.60779417 0.44291082 0.37685412 -0.112410694 0.041525587
0.039627835 0.35549268 0.2768882 0.3130673 0.5426689 0.43799022 0.41403267 -0.28342882
0.0712789 -0.07164501 0.28072542 0.33430675 0.16171785 0.5930496 0.56439024 0.46307734
0.015597703 0.10460189 0.22120568 -0.121371605 0.61778176 -0.089944646 0.3118196 0.6093946
-0.13959901 0.2482774 0.19912265 0.040539555 0.6700718 1.0650126 0.27687037 0.62114793
0.5391053 -0.027046846 0.2071735 0.0395595 -0.04463081 0.22849913 0.5798384 -0.03324644
-0.022954918 0.10242954 -0.2764191 -0.08587992 0.14108555 0.27839673 0.11451101 0.39027673
0.26390126 0.08473119 0.15258163 0.2426303 0.36985287 0.58999026 0.6764716 0.5146202

down_convs.3.conv1.bias f4 [24]
00000000: e026 96b5 11db ee37 b666 c1b7 6c67 f5b8
00000010: 65bf 2a39 9ffd 10b8 2af2 d738 f659 1db9
00000020: e629 1d37 c10a 2337 7582 1039 dbc1 20ba
00000030: fd21 5eb8 1794 df39 ad68 c739 0ccc 54b9
00000040: fb72 1537 7ac8 15b7 66d0 40b7 9cc0 7cb9
00000050: 39d4 59b7 2d30 71b7 59ea f536 8cc3 fbb7
-1.1187185e-06 2.8473822e-05 -2.3055221e-05 -0.00011701774 0.00016283763 -3.456848e-05 0.000102971055 -0.000150062
9.3676845e-06 9.718061e-06 0.00013781509 -0.00061324023 -5.296058e-05 0.0004264421 0.00038034227 -0.00020293909
8.907863e-06 -8.927769e-06 -1.1492613e-05 -0.00024104345 -1.298362e-05 -1.4375936e-05 7.3288506e-06 -3.001259e-05
