outputs/outputs_full_mask/epoch_13_model.pth (torch, 694790 bytes, 241 tensors)

down_convs.0.conv1.weight f4 [3, 1, 3, 3, 3]
0	0x3d9be6ab	0.07612356
1	0x3e3a5505	0.18196495
2	0x3e8fac78	0.2806127
3	0xbe5948fa	-0.21219245
4	0x3e213880	0.1574421
5	0x3d930e00	0.07180405
6	0xbf426c99	-0.75946957
7	0xbe538ec2	-0.20659927
8	0xbf029664	-0.5101073
9	0x3e7a0fd4	0.244201
10	0x3fb4e361	1.413189
11	0x3f530960	0.8243618
12	0x3d830640	0.063976765
13	0x3f8662e9	1.0498935
14	0x3f2e6007	0.68115276
15	0xbeef08ee	-0.466865
16	0xbe508e94	-0.20366889
17	0x3d9baf54	0.076018006
18	0x3e2ce116	0.16882738
19	0x3eff0d72	0.49814945
20	0x3e9130bc	0.28357494
21	0xbe8949de	-0.2681417
22	0x3ed4b108	0.41541314
23	0x3ee69c7a	0.45041257
24	0xbf0bf251	-0.5466662
25	0xbd9bd6c7	-0.07609325
26	0xbdda516f	-0.106600635
27	0xbf04348a	-0.5164267
28	0xbe776584	-0.24159819
29	0xbeed0ee5	-0.46300426
30	0xbe0852cf	-0.13312839
31	0x3e6e201c	0.23254436
32	0x3dbccd2d	0.09218822
33	0x3eb3753c	0.3505038
34	0x3f2c415d	0.67287236
35	0x3e844c37	0.25839397
36	0xbef945f9	-0.48686197
37	0xbe994ad5	-0.29939905
38	0xbf15412e	-0.5830258
39	0x3d85f694	0.06541172
40	0x3e3ad0b2	0.18243673
41	0x3e296a5d	0.1654448
42	0x3f594113	0.8486492
43	0x3f765d73	0.9623634
44	0x3f146687	0.57968944
45	0xbf051c5e	-0.5199641
46	0xbe8e6984	-0.27814877
47	0xbf00a36a	-0.5024935
48	0xbdaabde3	-0.08336999
49	0x3e1b4f42	0.15166953
50	0xbe634932	-0.2219589
51	0x3ef0b678	0.47014213
52	0x3f37e270	0.7182989
53	0x3f24209d	0.64112264
54	0x3e65f029	0.22454895
55	0x3f4d1531	0.8011046
56	0x3ec5327f	0.38515088
57	0xbdb23730	-0.087019324
58	0x3ce07c75	0.027403096
59	0x3dd9cb5c	0.10634491
60	0xbf319234	-0.69363713
61	0xbefa135b	-0.48842892
62	0xbf2dd7c4	-0.6790736
63	0x3f3bad8a	0.73311675
64	0x3fced4c5	1.6158682
65	0x3f3a4e0c	0.7277534
66	0x3de2c3ad	0.110724784
67	0x3ee7c3c4	0.45266545
68	0x3ed2d9c5	0.4118177
69	0xbf081df9	-0.53170735
70	0xbe7c53c3	-0.24641328
71	0xbe853293	-0.26015148
72	0x3dc943c2	0.09827377
73	0x3f7e6d86	0.9938587
74	0x3e9a5028	0.3013928
75	0x3e27cc1e	0.16386458
76	0x3e608041	0.21923925
77	0x3d5f2373	0.054477166
78	0xbefd55f4	-0.4947964
79	0xbef731ff	-0.48280331
80	0xbe8636dd	-0.26213732

down_convs.0.conv1.bias f4 [3]
0	0xbe33cd26	-0.17558727
1	0xbe6222bf	-0.22083567
2	0x3d7b9758	0.06142363

down_convs.0.conv2.weight f4 [3, 3, 3, 3, 3]
0	0xbe9c0422	-0.30471903
1	0xbeaf516f	-0.34241816
2	0xbe4d8892	-0.20071629
3	0x3b29906f	0.0025873443
4	0xbdf4a22e	-0.11944996
5	0xbe68a805	-0.22720344
6	0x3e1b159a	0.15144959
7	0x3dcb83da	0.09937258
8	0xbe1ab5f8	-0.15108478
9	0xbe8f5816	-0.27996892
10	0xbe0a2d65	-0.13493879
11	0xbe593f9a	-0.21215668
12	0xbe272024	-0.16320854
13	0xbdc8b192	-0.09799494
14	0xbe16dd56	-0.1473287
15	0x3e4d9a54	0.20078403
16	0x3de2daf1	0.11076916
17	0x3deff6c7	0.11716991
18	0xbe8a4e53	-0.27012882
19	0xbc985f78	-0.01860021
20	0xbe459f7e	-0.19299123
21	0x3cfc4213	0.030793225
22	0xbe48528f	-0.19562744
23	0xbe9dcb1a	-0.30819017
24	0x3e25db75	0.16196997
25	0x3e1fe123	0.15613227
26	0x3e8fa6c3	0.28056917
27	0xbe9eec94	-0.3103987
28	0xbe2effa5	-0.17089708
29	0xbd5c4e9d	-0.05378591
30	0x3ede4940	0.4341526
31	0x3f21b92b	0.6317317
32	0x3ec3342e	0.38125747
33	0x3f46e30b	0.7769019
34	0x3f8e28a3	1.1106151
35	0x3f9f0c2d	1.2425591
36	0x3e5641f1	0.20923592
37	0xbe34d50e	-0.17659399
38	0xbe5f4281	-0.21802713
39	0x3f43bb54	0.76457715
40	0x3f91b2ed	1.1382729
41	0x3f2196f2	0.6312095
42	0x3fa11b45	1.2586447
43	0x3facd945	1.3503805
44	0x3f95904b	1.168466
45	0xbe161cca	-0.1465942
46	0xbe0a780d	-0.13522358
47	0x3cdbe80a	0.026844043
48	0x3f05d20a	0.5227362
49	0x3f2a2bbd	0.6647299
50	0x3f00061c	0.5000932
51	0x3f65d575	0.89778835
52	0x3fa31b2c	1.2742667
53	0x3f71ceaf	0.94456
54	0xbed1c6e3	-0.4097205
55	0xbec8ef3c	-0.3924502
56	0xbe61075e	-0.21975467
57	0xbef5dc75	-0.48019758
58	0xbefc41ac	-0.49268854
59	0xbf03e0c4	-0.5151484
60	0xbdb984fc	-0.09058568
61	0xbe0bd535	-0.13655551
62	0xbe532bdd	-0.20622201
63	0xbe658e19	-0.22417487
64	0xbf0776d7	-0.5291571
65	0xbedc6393	-0.4304472
66	0xbf025193	-0.5090572
67	0xbf1c2d18	-0.6100631
68	0xbf1966b8	-0.5992236
69	0xbe3dac45	-0.18522747
70	0x3d5c2132	0.053742595
71	0xbd206394	-0.039157465
72	0xbedd0b14	-0.43172514
73	0xbec79da4	-0.38987458
74	0xbeede01c	-0.46460044
75	0xbeef4cfe	-0.46738428
76	0xbedba618	-0.42900157
77	0xbe85decb	-0.2614654
78	0xbdf85b0e	-0.12126742
79	0x3ba8b394	0.0051483605
80	0xbe9348c1	-0.28766444
81	0x3df42595	0.11921231
82	0x3e619132	0.22028044
83	0x3ed6acea	0.41928798
84	0xbd6c1621	-0.05763829
85	0xbe35a171	-0.17737366
86	0xbd665a66	-0.056238554
87	0xbe6db882	-0.23214915
88	0xbebbb88a	-0.3666423
89	0xbed5f732	-0.41790158
90	0x3d8e6551	0.06952918
91	0x3e2fc9b2	0.17166784
92	0x3ef933a3	0.48672208
93	0xbebd3c7e	-0.36960214
94	0xbe68c747	-0.22732268
95	0x3ca36c48	0.019949093
96	0xbf1cfedc	-0.61326385
97	0xbecd9c77	-0.40158436
98	0xbe92ab09	-0.28646114
99	0x3e2b1179	0.16705884
100	0x3e47ddd7	0.19518219
101	0x3ed3837d	0.41311255
102	0x3daeaa08	0.08528525
103	0xbe57b351	-0.21064498
104	0x3e6cfcb6	0.23143277
105	0xbed1bdd8	-0.40965152
106	0xbe83322d	-0.2562422
107	0xbea70cee	-0.32627052
108	0xbef6587a	-0.48114377
109	0xbf2053a1	-0.6262761
110	0xbee4e81a	-0.4470833
111	0xbe45d9ee	-0.19321415
112	0xbeed9cf9	-0.46408823
113	0xbf1923ff	-0.5982055
114	0xbd146d5f	-0.036237117
115	0x3ed23e2a	0.41063052
116	0x3e8ded35	0.27720037
117	0xbf29cac9	-0.6632505
118	0xbf1d2dfc	-0.6139829
119	0xbf0af34f	-0.5427751
120	0xbf06cd34	-0.52656865
121	0xbe6bdd62	-0.2303367
122	0xbed66d42	-0.41880232
123	0x3f06dd16	0.526811
124	0x3ee739d3	0.45161304
125	0x3ef4a14e	0.47779316
126	0xbf650cfb	-0.8947293
127	0xbf311656	-0.69174707
128	0xbee151a1	-0.4400759
129	0xbe6d56b4	-0.23177606
130	0xbebcb0d4	-0.3685366
131	0xbed58a26	-0.4170696
132	0x3e993634	0.29924166
133	0x3ea9a386	0.3313257
134	0x3e0a5fa7	0.13513051
135	0x3eb17328	0.3465817
136	0x3e70315d	0.2345633
137	0x3ed42686	0.4143564
138	0xbe2e15f3	-0.1700056
139	0xbcb8094f	-0.022465376
140	0x3e2e086d	0.16995402
141	0xbe5eaf54	-0.2174657
142	0xbece16ba	-0.40251714
143	0xbeede1b8	-0.46461272
144	0x3e72bdae	0.2370517
145	0x3ed02cb1	0.40659097
146	0x3eace401	0.33767703
147	0xbe8bc3d3	-0.2729784
148	0xbee674bc	-0.45010936
149	0xbdfa640a	-0.12226112
150	0xbf1583fc	-0.5840452
151	0xbf291d05	-0.66059905
152	0xbf16c81e	-0.58899105
153	0x3ef1716b	0.47156844
154	0x3eb6aa67	0.35676882
155	0x3e97eb38	0.29671645
156	0xbe0a8d19	-0.13530387
157	0xbe16d041	-0.1472788
158	0x3dde5f95	0.108580746
159	0xbec98d4a	-0.39365608
160	0xbeaa4bf3	-0.3326107
161	0xbeccaaf0	-0.39974165
162	0x3f16b32b	0.5886714
163	0x3f258cbb	0.6466786
164	0x3d0a13da	0.03371034
165	0x3ead7ba9	0.33883408
166	0x3edc802c	0.43066537
167	0xbe01cdc8	-0.12676156
168	0x3dfcee0a	0.1235009
169	0x3e0f9f63	0.14025645
170	0xbeae9514	-0.34098113
171	0x3fbc89c0	1.4729538
172	0x3fc1ef3e	1.5151136
173	0x3ef0d02d	0.47033826
174	0x3f1a4716	0.6026472
175	0x3f6d11d1	0.9260531
176	0x3e09cf10	0.13457894
177	0x3e0472f7	0.1293448
178	0x3e60033c	0.21876234
179	0x3d3e89f9	0.0465183
180	0x3f3f0570	0.7461767
181	0x3f805025	1.0024458
182	0x3ea8a59c	0.3293885
183	0x3eb8a1ac	0.36060846
184	0x3ec67645	0.38762107
185	0xbe65a86f	-0.22427534
186	0xbcb873e7	-0.022516204
187	0x3d8afc07	0.06786352
188	0x3e804826	0.25055045
189	0xbe96b22b	-0.29432806
190	0xbe808617	-0.25102302
191	0xbe894add	-0.2681493
192	0x3cb9d772	0.02268574
193	0x3d84a0c0	0.06475973
194	0x3eb4a4ff	0.35282132
195	0x3d4bd78a	0.0497661
196	0xbdf3524c	-0.11880931
197	0x3e3b9fa2	0.18322614
198	0xbe359e58	-0.17736185
199	0xbebf7f56	-0.37401837
200	0xbf13ee4f	-0.57785505
201	0x3e99b8a5	0.30023685
202	0x3dfa90d2	0.122346535
203	0x3e78002d	0.24218817
204	0xbd3bbb4a	-0.04583291
205	0x3df6857c	0.12037179
206	0x3e190282	0.14942363
207	0xbbc4cd56	-0.0060059233
208	0xbb8850f3	-0.0041600405
209	0xbeadf3e2	-0.3397513
210	0x3eec9426	0.46206778
211	0x3f10f225	0.56619483
212	0x3edc2f08	0.43004632
213	0x3d6d3eb0	0.05792111
214	0x3e17d3af	0.14826845
215	0x3e9d31e3	0.30702123
216	0x3e67ec9e	0.22648856
217	0x3e2fd994	0.17172843
218	0x3cc52fb7	0.024070604
219	0x3ebd6a55	0.36995187
220	0x3eff76bf	0.49895284
221	0xbc130844	-0.008974139
222	0x3d771bdb	0.0603293
223	0x3e8b83c3	0.27248964
224	0x3d7e8430	0.062137783
225	0x3f1b07d2	0.6055881
226	0x3f92b9e0	1.1462975
227	0x3ea48dff	0.32139584
228	0x3ed4aeee	0.4153971
229	0x3f8a40a3	1.0800976
230	0x3eca1783	0.39471063
231	0x3eabc9d9	0.33552435
232	0x3ee5f055	0.4490992
233	0x3e67b654	0.22628146
234	0x3ea6f35e	0.3260755
235	0x3f2bca65	0.67105705
236	0x3ee21637	0.44157574
237	0x3e2d1873	0.16903858
238	0x3f09add6	0.5378088
239	0x3e3041c9	0.17212595
240	0x3e4bff0c	0.19921511
241	0x3e9c8491	0.3056989
242	0xbd3309b2	-0.043710418

down_convs.0.conv2.bias f4 [3]
0	0x3cd41a8b	0.025891563
1	0xbf8805b1	-1.0626737
2	0xbf0a3bcf	-0.5399751

down_convs.0.norm0.weight f4 [3]
0	0x3f7bd71e	0.9837512
1	0x3fb47c29	1.4100391
2	0x3f6afbbc	0.91790366

down_convs.0.norm0.bias f4 [3]
0	0xbe2f2275	-0.17102988
1	0xbec951f4	-0.39320338
2	0x3e3ba8fc	0.18326181

down_convs.0.norm0.running_mean f4 [3]
0	0xbe4e06d9	-0.201198
1	0xbe2936fc	-0.16524881
2	0x3cd33db4	0.025786258

down_convs.0.norm0.running_var f4 [3]
0	0x417c3520	15.76297
1	0x40f3fe3e	7.6247854
2	0x416b1252	14.691973

down_convs.0.norm1.weight f4 [3]
0	0x3f92f90c	1.1482253
1	0x3f400f09	0.7502294
2	0x3f832b48	1.0247583

down_convs.0.norm1.bias f4 [3]
0	0xbe7f6fcc	-0.24944991
1	0x3e83baa2	0.25728327
2	0xbda7699c	-0.0817444

down_convs.0.norm1.running_mean f4 [3]
0	0x3ebc8c43	0.3682576
1	0xc07801f4	-3.8751192
2	0x40b73a67	5.725879

down_convs.0.norm1.running_var f4 [3]
0	0x433dc57f	189.77147
1	0x42d4528f	106.16125
2	0x433e1a81	190.10353

down_convs.1.conv1.weight f4 [6, 3, 3, 3, 3]
0	0xbef1e21c	-0.4724282
1	0xbef362ba	-0.4753626
2	0xbf1583ad	-0.58404046
3	0x3dba42c6	0.09094767
4	0x3e45aab1	0.19303395
5	0x3d1e710a	0.03868202
6	0xbf271e33	-0.65280455
7	0xbf338c5c	-0.70136046
8	0xbf4e607b	-0.8061597
9	0xbe4871c4	-0.19574648
10	0xbe5319e7	-0.2061535
11	0xbe532825	-0.20620783
12	0x3e9b1708	0.3029101
13	0x3e8fb83c	0.28070247
14	0x3c93a334	0.018022157
15	0xbf2e8e78	-0.6818614
16	0xbf1e1ccf	-0.6176271
17	0xbf3a8490	-0.72858524
18	0xbf0247f7	-0.5089106
19	0xbe39d945	-0.18149288
20	0xbec18f59	-0.37804678
21	0x3e39fc23	0.18162589
22	0xbd383374	-0.044970945
23	0xbe29e687	-0.16591845
24	0xbef5309d	-0.47888651
25	0xbf38e039	-0.72217137
26	0xbf237f05	-0.6386569
27	0xbf4249d9	-0.7589393
28	0xbf376b5c	-0.7164819
29	0xbece6009	-0.40307644
30	0x3da5343a	0.08066602
31	0xbe0204a6	-0.12697086
32	0xbd72096d	-0.05909102
33	0x3df2cea1	0.118558176
34	0xbddf533b	-0.10904547
35	0xbecc6973	-0.399242
36	0xbef9fa38	-0.48823714
37	0xbf5a2a7f	-0.85221094
38	0xbe974e86	-0.29552096
39	0xbe3fc722	-0.18728307
40	0xbe96ac8a	-0.29428512
41	0xbeae95e1	-0.34098724
42	0xbe087eff	-0.13329695
43	0xbe272dc4	-0.16326052
44	0xbde119f2	-0.10991277
45	0xbee524da	-0.44754678
46	0xbed476ed	-0.41496983
47	0xbe330ad9	-0.17484607
48	0xbe4dbbc9	-0.20091166
49	0xbef5b1f9	-0.47987345
50	0xbed697bf	-0.41912648
51	0x3e67e42d	0.22645636
52	0x3d219626	0.039449833
53	0xbe3e31f2	-0.1857374
54	0x3f02595c	0.509176
55	0x3f8a6ee3	1.081509
56	0x3f01f532	0.50764763
57	0xbe29bda7	-0.16576253
58	0x3ec85bd9	0.39132574
59	0xbe42131d	-0.18952604
60	0xbe91c20d	-0.28468361
61	0x3e82c688	0.25542092
62	0xbe1fbb74	-0.15598851
63	0x3f680379	0.906303
64	0x3fe69872	1.8015273
65	0x3f4f4780	0.80968475
66	0xbc0ca77e	-0.008584855
67	0x3f5a3105	0.8523105
68	0x3d869159	0.065706916
69	0x3e13869e	0.14406821
70	0x3f23c781	0.63976294
71	0x3c49a185	0.012306576
72	0xbd8c2d15	-0.06844536
73	0x3ec6c835	0.3882462
74	0x3de64408	0.11243445
75	0xbf1cc59c	-0.6123903
76	0xbe391da7	-0.18077718
77	0xbef7bf7e	-0.48388284
78	0xbe8de6f7	-0.27715275
79	0x3bd9fc07	0.0066523585
80	0xbe9fe39c	-0.3122834
81	0xbf6539cf	-0.89541334
82	0xbf06f5e7	-0.5271897
83	0xbd55c79a	-0.052192308
84	0xbf0a118a	-0.5393301
85	0xbf7ee95e	-0.9957484
86	0xbf020581	-0.5078965
87	0x3f473590	0.77816105
88	0x3de9d0a2	0.11416747
89	0x3f01eaa8	0.5074868
90	0xbf09a513	-0.5376751
91	0xbe2ad1d8	-0.16681612
92	0xbd76e533	-0.060277175
93	0xbf58dd0c	-0.8471229
94	0xbf7bc54e	-0.9834794
95	0xbf77a826	-0.9674095
96	0x3e53b91a	0.2067608
97	0xbe6f0a43	-0.23343758
98	0x3dd5d46b	0.10440906
99	0xbecf1ab4	-0.4045006
100	0xbd955f66	-0.072935864
101	0xbdc57db3	-0.09643116
102	0xbf1e1e71	-0.617652
103	0xbf4e34d9	-0.8054939
104	0xbf52a757	-0.8228659
105	0x3f138259	0.5762077
106	0x3db58b51	0.08864463
107	0x3f0594ae	0.5217999
108	0x3f0b09c5	0.5431178
109	0x3ec38d57	0.3819377
110	0x3e8e2380	0.2776146
111	0xbf3ae1eb	-0.73000973
112	0xbf2d652e	-0.6773251
113	0xbf125e0c	-0.57174754
114	0xbea6143b	-0.3243731
115	0xbc2ca839	-0.010538154
116	0xbc0b959c	-0.008519556
117	0x3ed57630	0.41691732
118	0x3ef2840c	0.4736637
119	0x3e4bd779	0.19906415
120	0xbf45ca98	-0.7726226
121	0xbf2e4d92	-0.6808711
122	0xbec20af3	-0.3789898
123	0xbd66fc2c	-0.056392834
124	0xbe094905	-0.13406761
125	0x3e51ee36	0.20501027
126	0x3e7f4de2	0.24932054
127	0x3e1ed923	0.15512519
128	0x3d811e0f	0.06304561
129	0xbeacf5e4	-0.3378135
130	0xbea2153e	-0.31656832
131	0xbea58a2b	-0.32331976
132	0x3eb75527	0.35807154
133	0x3e40f1d6	0.18842253
134	0x3ecb67dd	0.3972768
135	0xbf3bc687	-0.73349804
136	0xbf926199	-1.1436034
137	0xbfb0e204	-1.3818974
138	0xbdd0e5b4	-0.102000624
139	0xbea323ea	-0.31863338
140	0xbe7c6228	-0.24646819
141	0x3f6946e1	0.9112378
142	0x3f1792bb	0.5920827
143	0x3ee3b6f7	0.4447553
144	0xbf2d3182	-0.6765367
145	0xbf24c0db	-0.64356774
146	0xbf8479ac	-1.0349631
147	0xbe305c59	-0.17222728
148	0xbde2c0b2	-0.1107191
149	0xbb5762d3	-0.00328653
150	0x3f528774	0.82237935
151	0x3f32f587	0.69905895
152	0x3f1fedeb	0.6247241
153	0xbf9084f2	-1.1290572
154	0xbf266a55	-0.65006
155	0xbf3a1d53	-0.72700995
156	0xbe9ab8e4	-0.30219185
157	0xbe21a8bf	-0.15787028
158	0x3e158900	0.14603043
159	0x3f198277	0.599647
160	0x3f221e81	0.63327795
161	0x3f249f80	0.6430588
162	0xbe529523	-0.20564704
163	0xbc9c3dc4	-0.01907242
164	0xbe860e5d	-0.26182833
165	0xbec2a21b	-0.38014302
166	0xbe93e527	-0.28885767
167	0xbe187641	-0.1488886
168	0xbe81f53e	-0.25382417
169	0xbe3a6230	-0.18201518
170	0xbe7d41e7	-0.24732171
171	0xbe79cac2	-0.24393752
172	0x3e2f8b54	0.17142993
173	0x3e5556db	0.20833914
174	0xbea90f30	-0.330194
175	0x3e590c10	0.21196008
176	0x3e8df046	0.27722377
177	0x3c2bac66	0.010478115
178	0x3d045c1a	0.032314397
179	0x3dd965fd	0.10615156
180	0xbdadceeb	-0.08486732
181	0x3e28e71b	0.1649441
182	0x3e5ed387	0.21760379
183	0xbe14cb16	-0.14530596
184	0x3e531d3d	0.20616622
185	0x3f45fd35	0.7733949
186	0x3db4e3f6	0.088325426
187	0x3ea54638	0.32280135
188	0x3e9d1e1e	0.3068704
189	0x3f1e0661	0.61728483
190	0x3e6334ca	0.22188106
191	0x3ddb3bb6	0.10704748
192	0x3cdcd792	0.02695826
193	0xbe252967	-0.16129075
194	0x3c442055	0.011970599
195	0x3ebda041	0.37036327
196	0x3e152879	0.1456622
197	0xbad178e2	-0.001598146
198	0x3ee1c5c0	0.44096184
199	0x3ea67913	0.32514247
200	0x3e0c92d5	0.13727887
201	0x3e0bd4a5	0.13655336
202	0xbdf73368	-0.12070352
203	0xbe912bd5	-0.28353754
204	0x3ecb9bd5	0.39767328
205	0x3da7e684	0.08198264
206	0xbd8f007f	-0.069825165
207	0x3e937337	0.2879884
208	0x3ea79b5d	0.3273572
209	0x3e2dc74b	0.16970555
210	0x3da103c8	0.07862049
211	0xbe11a2de	-0.14222285
212	0xbe8a0c94	-0.2696272
213	0x3ed54da0	0.41660786
214	0x3e01c7a7	0.12673818
215	0x3d2b2223	0.041780602
216	0x3d253a7b	0.040338974
217	0x3f25bb43	0.64738864
218	0x3ed6ca15	0.4195105
219	0x3d955de9	0.072933026
220	0x3f198273	0.59964675
221	0x3ea5a031	0.3234878
222	0xbe35821c	-0.17725414
223	0x3f33e084	0.7026446
224	0x3eb4b305	0.3529283
225	0x3ea331b6	0.31873864
226	0x3f84f2a2	1.0386546
227	0x3f4ba88b	0.7955405
228	0x3e935827	0.28778192
229	0x3fdef2cd	1.7417847
230	0x3f960d6c	1.1722846
231	0x3da873b1	0.082251914
232	0x3fad2680	1.3527374
233	0x3fb2f8f9	1.398223
234	0x3d334333	0.043765258
235	0x3e9a98dc	0.30194747
236	0x3ebbb4f2	0.36661488
237	0xbeb3db29	-0.35128143
238	0x3eca1ebf	0.39476582
239	0x3e8740a3	0.264165
240	0xbe2064cf	-0.15663455
241	0x3ee9ab01	0.45638278
242	0x3eedb8cf	0.4643006
243	0xbe01f377	-0.1269053
244	0xbdd91d2b	-0.106012665
245	0x3e422dab	0.18962733
246	0xbe065a84	-0.13120466
247	0xbd1c4ac9	-0.03815726
248	0x3e7c5284	0.24640852
249	0xbcd75873	-0.026287293
250	0xbebe9538	-0.3722322
251	0xbe9fff9b	-0.312497
252	0xbecf9a80	-0.40547562
253	0xbea61e64	-0.3244506
254	0x3e4962b6	0.19666561
255	0xbed5d7b2	-0.41766125

down_convs.1.conv1.bias f4 [6]
0	0x3d48f7cb	0.04906444
1	0xbe8f64de	-0.28006643
2	0xbc509bbc	-0.0127324425
3	0x3ed3041d	0.41214076
4	0x3c84f256	0.016228836
5	0x3d99d941	0.07512141

down_convs.1.conv2.weight f4 [6, 6, 3, 3, 3]
0	0xbe5a0f53	-0.21294908
1	0xbdc70c1e	-0.09719108
2	0xbe921e81	-0.28538898
3	0x3da0e0fc	0.07855412
4	0x3e85ae55	0.26109567
5	0x3d57cebd	0.052687395
6	0xbdc44cad	-0.09584937
7	0x3b9898ad	0.0046568722
8	0xbe8f4d62	-0.27988726
9	0x3e18f855	0.14938481
10	0x3e7cd782	0.24691585
11	0x3d5f175e	0.054465644
12	0x3efe5f67	0.4968216
13	0x3f6631d9	0.8991981
14	0x3edf32e2	0.43593508
15	0x3e968758	0.29400134
16	0x3f7b7953	0.98232
17	0x3f14565c	0.57944274
18	0x3dcbbef4	0.09948531
19	0xbc8aa898	-0.016926095
20	0x3d5c640a	0.053806342
21	0x3ed2a733	0.41143188
22	0x3f745b9c	0.95452285
23	0x3f0d5f4a	0.55223525
24	0x3ec423c5	0.3830854
25	0x3fa3356c	1.2750678
26	0x3f281a6c	0.65665317
27	0x3ea620c1	0.32446864
28	0x3e27fcd0	0.16405034
29	0x3ea6923d	0.32533446
30	0xbe7f22ca	-0.24915615
31	0xbe2ca5fd	-0.16860195
32	0xbe982231	-0.29713586
33	0xbf0cefa2	-0.5505315
34	0xbf053de4	-0.5204756
35	0xbea50492	-0.3223005
36	0x3e9a1a8d	0.30098382
37	0x3eb68f79	0.35656336
38	0x3edfc0a2	0.43701655
39	0xbdd44f79	-0.10366721
40	0xbe39a4a7	-0.18129216
41	0xbe033aed	-0.12815447
42	0xbed0fdde	-0.40818685
43	0xbebc8e32	-0.36827236
44	0xbe884fed	-0.2662348
45	0x3e614182	0.21997645
46	0x3ec34245	0.38136497
47	0x3e492ef7	0.19646822
48	0xbd9474c6	-0.07248835
49	0xbe5d41c9	-0.21607126
50	0x3bb94629	0.0056541157
51	0xbee112c3	-0.43959627
52	0xbe6fa7de	-0.2340388
53	0xbe887c35	-0.26657262
54	0xbcd463ca	-0.02592649
55	0x3d99662f	0.07490193
56	0xbe9e8b90	-0.30965853
57	0x3ee20c25	0.4414989
58	0x3ed42085	0.4143106
59	0x3bba3155	0.0056821504
60	0x3ed1d5a4	0.40983307
61	0x3f4fbe0a	0.8114935
62	0xbd881ed9	-0.06646509
63	0x3e166ddf	0.1469035
64	0x3f048674	0.5176766
65	0xbd024bbe	-0.031810515
66	0x3f9dc1aa	1.2324727
67	0x3fd69cfd	1.6766659
68	0x3e79c9c3	0.24393372
69	0x3fa6c948	1.3030176
70	0x3fd43e5e	1.6581533
71	0x3ecc49ab	0.39899954
72	0xbd8df09d	-0.06930659
73	0x3dd82498	0.10553855
74	0xbe2ca208	-0.16858685
75	0x3f1fe862	0.62463963
76	0x3f6f6e77	0.9352793
77	0x3e6dfcf6	0.23241028
78	0x3f72db8c	0.9486625
79	0x3f84f77f	1.038803
80	0x3ec0e9d9	0.37678412
81	0xbe81d697	-0.25359032
82	0xbe133564	-0.14375836
83	0xbe6438ee	-0.22287342
84	0xbe7ccf51	-0.2468846
85	0xbe72ebad	-0.23722716
86	0xbe52c960	-0.20584631
87	0xbe5806be	-0.21096322
88	0xbec6e13f	-0.38843724
89	0xbd5d79bc	-0.054071173
90	0xbe780fd3	-0.24224786
91	0xbe92c5a3	-0.2866641
92	0xbed5d5bb	-0.41764626
93	0xbe6a7ef9	-0.22899999
94	0xbe0b7f3b	-0.13622753
95	0xbe9afb44	-0.30269825
96	0xbeeac1c1	-0.45850947
97	0xbeddf454	-0.4335047
98	0xbe98e66d	-0.298633
99	0xbe5c3d2b	-0.21507709
100	0xbea1a07e	-0.31567758
101	0xbe0599b0	-0.13046908
102	0xbe17d033	-0.14825515
103	0xbea277e4	-0.31732094
104	0xbe0d7e7a	-0.13817778
105	0xbe4238a9	-0.18966927
106	0xbea16d9c	-0.31528938
107	0xbee069de	-0.4383077
108	0x3d8ad4ba	0.067788556
109	0x3ec18dc2	0.37803465
110	0xbe4f381a	-0.20236245
111	0xbd250a48	-0.040293008
112	0x3eaccc6e	0.33749717
113	0xbe1d068d	-0.1533453
114	0x3e92dfcd	0.2868637
115	0x3ed076ea	0.40715724
116	0x3e728639	0.23684014
117	0x3eaea624	0.3411113
118	0x3faf45a3	1.3693126
119	0x3e6e59c5	0.23276432
120	0x3f04153a	0.5159489
121	0x3fbb1c66	1.4618042
122	0x3f04dfbb	0.51903886
123	0x3f2a079e	0.6641787
124	0x3fbf4deb	1.4945654
125	0x3f35f9ba	0.7108418
126	0x3b25cd25	0.0025299278
127	0x3e9196c0	0.28435326
128	0x3e8965fc	0.2683562
129	0x3eb04d6b	0.34434065
130	0x3f50ce49	0.81564766
131	0x3e6fdf3e	0.23425004
132	0x3f2eb1d9	0.68240124
133	0x3f95bd38	1.169837
134	0x3f3feece	0.7497376
135	0x3cb672f4	0.02227161
136	0x3d6b7875	0.057487924
137	0x3e24e8d0	0.16104436
138	0xbe5e830e	-0.21729681
139	0xbea23754	-0.31682837
140	0xbeda8965	-0.4268295
141	0xbe970e97	-0.2950332
142	0xbf4976f8	-0.78697157
143	0xbf1d2e1e	-0.61398494
144	0x3d6567ab	0.05600707
145	0x3d88e321	0.066839464
146	0x3db030e5	0.08603076
147	0xbe810c50	-0.25204706
148	0xbea93af7	-0.330528
149	0xbf06c534	-0.5264466
150	0xbed0dfec	-0.4079584
151	0xbf200197	-0.62502426
152	0xbf146caf	-0.5797834
153	0xbe40d6d1	-0.18831946
154	0xbd20c15b	-0.0392469
155	0x3e15f402	0.14643863
156	0xbe94dbb6	-0.29073876
157	0xbee287c4	-0.44244206
158	0xbee9d6da	-0.4567173
159	0xbe8a3f5f	-0.27001473
160	0xbf2c7ff5	-0.67382747
161	0xbf3f6e3d	-0.74777585
162	0x3f181cef	0.5941915
163	0x3f179369	0.59209305
164	0x3eef1478	0.46695304
165	0x3edb9813	0.4288946
166	0x3eca8683	0.3955575
167	0x3f020f0e	0.5080422
168	0xbe4e7595	-0.20162041
169	0xbda0a7a1	-0.07844473
170	0x3ea312f1	0.3185039
171	0x3edb9059	0.42883566
172	0x3eb31ce7	0.34982988
173	0x3eb168da	0.34650308
174	0x3db7c5a9	0.089732476
175	0x3dae1fb1	0.085021384
176	0x3e47f1ac	0.19525784
177	0xbeda5035	-0.42639318
178	0xbec70d77	-0.3887746
179	0xbde36ef0	-0.11105144
180	0x3eb6d8d7	0.3571231
181	0x3e909cda	0.28244668
182	0x3e591b35	0.21201785
183	0xbba1e381	-0.0049404507
184	0xbd85f4c1	-0.06540824
185	0x3d86e576	0.06586735
186	0xbecc8734	-0.39946902
187	0xbe8d1518	-0.27555156
188	0xbe097215	-0.13422425
189	0xbf771ad6	-0.96525323
190	0xbf7fc073	-0.9990303
191	0xbf92bdaf	-1.1464137
192	0xbf2f534a	-0.68486464
193	0xbf2b1172	-0.66823494
194	0xbf16d43d	-0.589176
195	0xbecb4764	-0.39702904
196	0xbee603a1	-0.44924644
197	0xbf20add2	-0.6276523
198	0xbf298afc	-0.662277
199	0xbf2328e3	-0.63734263
200	0xbf1a535b	-0.6028344
201	0xbe96b441	-0.29434398
202	0xbebc9a9d	-0.3683671
203	0xbe8edd83	-0.27903375
204	0xbd48b412	-0.048999853
205	0xbe6ecfec	-0.23321503
206	0xbe86f6b6	-0.263601
207	0xbf04715d	-0.5173548
208	0xbf4040b3	-0.75098723
209	0xbf03314c	-0.51247096
210	0xbefdea18	-0.49592662
211	0xbe8e38dc	-0.27777755
212	0xbec642d5	-0.38722864
213	0xbdb31e20	-0.0874598
214	0xbe4f1896	-0.20224223
215	0xbe6e8467	-0.23292695
216	0xbe7e8efb	-0.2485923
217	0x3d43279a	0.04764519
218	0x3deb9dd0	0.1150471
219	0xbed023ec	-0.40652406
220	0xbeb01fbb	-0.34399208
221	0xbde710ea	-0.11282523
222	0xbe687a0b	-0.22702806
223	0xbed09a5f	-0.40742776
224	0xbe1e5d71	-0.15465333
225	0xbeb3ab6a	-0.35091716
226	0xbebcd53c	-0.36881435
227	0xbe417d45	-0.18895443
228	0xbf397af5	-0.7245324
229	0xbeca6425	-0.3952953
230	0xbe3e90b1	-0.18609883
231	0xbe83f8ff	-0.25775906
232	0xbf005cd5	-0.5014165
233	0xbea6a51e	-0.3254785
234	0xbe81b400	-0.25332642
235	0xbe5ae463	-0.21376185
236	0xbdce067b	-0.1005983
237	0xbead6523	-0.33866224
238	0xbf0f9206	-0.5608219
239	0xbdcca801	-0.09992982
240	0xbeb870a3	-0.36023435
241	0xbef4e868	-0.47833562
242	0xbce28575	-0.027651528
243	0xbee9ef61	-0.45690444
244	0xbf04b289	-0.51834923
245	0xbf6de1c8	-0.9292264
246	0xbed78b85	-0.42098632
247	0xbec3f3dc	-0.38271987
248	0xbf25a386	-0.6470264
249	0x3ca5f293	0.02025727
250	0xbdd8363f	-0.105572216
251	0xbe5b0a24	-0.21390587
252	0xbeae55e8	-0.34049916
253	0xbe8733cd	-0.26406708
254	0xbec3ce68	-0.38243413
255	0xbd5ded36	-0.0541813

down_convs.1.conv2.bias f4 [6]
0	0xbc2c80b1	-0.010528729
1	0xbc6e7f9e	-0.0145567935
2	0xbc3ccf42	-0.0115240235
3	0xbca91687	-0.020640625
4	0xba953a11	-0.0011385103
5	0x3ceffdcc	0.029295824

down_convs.1.norm0.weight f4 [6]
0	0x3f864fb8	1.0493078
1	0x40056827	2.084482
2	0x3f0daff1	0.5534659
3	0x3fbfc278	1.4981222
4	0x3f5b868c	0.8575218
5	0x3fb098cc	1.379663

down_convs.1.norm0.bias f4 [6]
0	0x3e948b78	0.29012656
1	0x3debde2c	0.11516985
2	0xbf83892e	-1.0276239
3	0x3e80ce35	0.25157323
4	0xbed2856e	-0.41117424
5	0xbe50348a	-0.20332542

down_convs.1.norm0.running_mean f4 [6]
0	0xc065f438	-3.593031
1	0xc084368e	-4.1316595
2	0x40bd13b5	5.9086556
3	0xbec77af2	-0.38960987
4	0x40a82bed	5.255362
5	0x3ff561a0	1.9170418

down_convs.1.norm0.running_var f4 [6]
0	0x4292b9b1	73.36268
1	0x42c0d89f	96.42309
2	0x432139aa	161.22525
3	0x43209010	160.56274
4	0x4362d3fb	226.82805
5	0x42b5ebfa	90.96089

down_convs.1.norm1.weight f4 [6]
0	0x3f57cc2e	0.8429593
1	0x3f8bc89d	1.0920597
2	0x3fb8802f	1.4414119
3	0x3fb4d12b	1.4126333
4	0x3f40a2c1	0.7524834
5	0x3f896c79	1.0736228

down_convs.1.norm1.bias f4 [6]
0	0xbdfd2ddf	-0.12362265
1	0xbd4490de	-0.04798972
2	0x3ed7bb2d	0.4213499
3	0xbf16e8af	-0.58948797
4	0xbee9b47e	-0.45645517
5	0xbf2e6cf3	-0.68134993

down_convs.1.norm1.running_mean f4 [6]
0	0xbf61779d	-0.8807314
1	0xc12d5f85	-10.83582
2	0xc1f499fa	-30.575184
3	0xc135db06	-11.3659725
4	0xc12a35ed	-10.638165
5	0xc0b8418b	-5.758001

down_convs.1.norm1.running_var f4 [6]
0	0x436ded47	237.92686
1	0x43681c32	232.11014
2	0x433b95ac	187.58466
3	0x4302839b	130.51408
4	0x43440f8c	196.06073
5	0x43526d26	210.42636

down_convs.2.conv1.weight f4 [12, 6, 3, 3, 3]
0	0x3f1c5be4	0.61077714
1	0x3e5626f0	0.20913291
2	0x3f039914	0.51405454
3	0x3e78e219	0.24305
4	0xbe253daa	-0.16136804
5	0x3da01a2e	0.078174934
6	0x3daf9fdf	0.08575415
7	0xbf046fdb	-0.5173318
8	0xbe3073a5	-0.17231615
9	0x3ec05221	0.3756266
10	0xbdf1ac3f	-0.118004315
11	0x3e478c27	0.19487058
12	0x3d9260a6	0.071473405
13	0xbf07ba48	-0.5301862
14	0xbe9325d2	-0.28739792
15	0xbe90b81f	-0.28265473
16	0xbf6d2c37	-0.9264559
17	0xbf261315	-0.64872867
18	0x3ec3a562	0.38212115
19	0x3e5eabb7	0.21745192
20	0x3e68cde0	0.22734785
21	0x3e9bcf03	0.30431375
22	0xbe983ce6	-0.29733962
23	0xbd919979	-0.07109351
24	0x3d0a7c03	0.033809673
25	0xbef538e9	-0.47894982
26	0xbf102f7a	-0.56322443
27	0x3e0784a9	0.132342
28	0x3ecb5465	0.39712825
29	0xbe2a5951	-0.16635634
30	0xbf0796c3	-0.5296442
31	0xbeba9d07	-0.36447927
32	0xbf1522d0	-0.58256245
33	0x3e871722	0.26384836
34	0x3e63970b	0.22225587
35	0xbc9e8134	-0.019348718
36	0x3ec718bc	0.38886058
37	0x3f20d73f	0.6282844
38	0x3efa5da3	0.48899564
39	0xbea26b39	-0.3172243
40	0xbe05de5e	-0.13073108
41	0xbe59ea64	-0.21280819
42	0x3e211dd4	0.15734035
43	0x3e8a6167	0.27027437
44	0x3df8eabb	0.12154146
45	0x3e7626c6	0.24038228
46	0x3e77049a	0.24122849
47	0x3e3bb171	0.18329407
48	0xbefac9bd	-0.4898204
49	0xbe5846c6	-0.21120748
50	0xbea90d02	-0.33017737
51	0xbd6bac0e	-0.05753713
52	0x3d0965ef	0.033544477
53	0x3c52caea	0.012865761
54	0xbf860029	-1.0468799
55	0xbf442865	-0.7662414
56	0xbf79d974	-0.9759743
57	0xbf154d24	-0.5832083
58	0xbe9c13dd	-0.30483904
59	0xbef1c6f4	-0.47222102
60	0x3e7ad11f	0.24493836
61	0x3eee848f	0.4658551
62	0x3ee77457	0.45205948
63	0xbf4769a8	-0.77895594
64	0xbecb79e1	-0.39741424
65	0xbf0968cb	-0.53675526
66	0xbdd77307	-0.105199866
67	0x3e7fa558	0.24965417
68	0x3cc3ed5e	0.023916896
69	0x3f07c41f	0.5303363
70	0x3f7e2f33	0.9929077
71	0x3f76e988	0.9645009
72	0xbf6a569c	-0.91538405
73	0xbf2592dd	-0.6467722
74	0xbf19c218	-0.6006179
75	0xbf142f9b	-0.5788514
76	0x3d888edb	0.066678725
77	0x3c171f64	0.009223793
78	0x3eb3a4ae	0.35086578
79	0x3f349a4f	0.70547956
80	0x3f6a9b35	0.9164308
81	0x3f211595	0.62923557
82	0x3f0a95c6	0.54134786
83	0x3ea854fc	0.32877338
84	0x3ac41d98	0.0014962433
85	0xbe8aa063	-0.2707549
86	0xbe3469b0	-0.17618442
87	0x3e5f7921	0.21823551
88	0xbdd7cca7	-0.10537081
89	0x3e1144ee	0.14186451
90	0x3ee22469	0.44168404
91	0x3ed9de4c	0.42552412
92	0x3ee3bfd7	0.444823
93	0x3e119774	0.14217931
94	0xbea762f7	-0.32692692
95	0xbe022960	-0.12711096
96	0x3ea0dbaa	0.3141759
97	0xbe114642	-0.14186957
98	0xbdbba67e	-0.09162615
99	0x3ea68d61	0.3252974
100	0x3e65f793	0.22457723
101	0x3ed43a1c	0.41450584
102	0x3e9a1a2c	0.30098093
103	0x3b839e4a	0.0040166723
104	0x3e2d5590	0.16927171
105	0x3f10d5a6	0.56576
106	0x3e2f938a	0.17146125
107	0x3e2d8f43	0.16949181
108	0x3ee8c8ce	0.45465702
109	0x3ece82e2	0.4033423
110	0x3f249107	0.64283794
111	0x3dabc834	0.08387795
112	0xbd840ce5	-0.06447772
113	0x3e603e70	0.21898818
114	0x3e7a19ac	0.24423856
115	0x3e4e54a6	0.20149478
116	0x3d154a9f	0.036448117
117	0x3f18aec7	0.5964169
118	0x3e9931cd	0.29920807
119	0x3ee2f46b	0.443271
120	0x3ddc0c54	0.10744539
121	0xbe53a51d	-0.20668454
122	0xbcc5c5bf	-0.024142144
123	0x3e7cbe02	0.24681857
124	0x3e37e21f	0.17957352
125	0x3e7415d0	0.23836446
126	0x3f2ab429	0.6668115
127	0x3f0f6de9	0.56027085
128	0x3f22f4ca	0.6365477
129	0x3e8fbc7d	0.28073493
130	0xbd481b31	-0.048854057
131	0xbd014d47	-0.031567838
132	0x3e67b655	0.22628148
133	0x3e36dd78	0.17857921
134	0x3c845deb	0.016158065
135	0x3e8818d9	0.26581457
136	0x3e3f9bd7	0.18711792
137	0x3eb60dfa	0.35557538
138	0x3e81b107	0.25330374
139	0x3dc80148	0.097658694
140	0x3e578ec2	0.21050552
141	0xbe05d2c8	-0.13068688
142	0xba8dfcda	-0.0010832802
143	0xbd5e3fef	-0.05426019
144	0x3e8b33a1	0.27187827
145	0x3d471427	0.048603203
146	0x3e38ac9e	0.18034598
147	0x3e8ffca9	0.28122452
148	0x3e85ca80	0.26131058
149	0x3dc41915	0.095750965
150	0x3dd3c834	0.1034092
151	0x3df4310b	0.11923417
152	0x3e116b20	0.14201021
153	0x3f03217b	0.5122296
154	0x3e9c1a05	0.304886
155	0x3eb4ed8b	0.3533748
156	0x3f0fbefa	0.5615078
157	0x3eb47493	0.3524519
158	0x3e067982	0.13132289
159	0xbcbaa85b	-0.022785356
160	0x3d2c5bf7	0.042079892
161	0x3d92b39b	0.07163163
162	0xbd8f835f	-0.07007479
163	0x3da14506	0.07874493
164	0x3ee4b0aa	0.44666034
165	0x3e1f91a3	0.155829
166	0x3e2a3bcf	0.16624378
167	0x3efe5a49	0.49678257
168	0x3db84f05	0.08999447
169	0xbd80ae87	-0.062832884
170	0x3e215fd8	0.15759218
171	0xbeb1d483	-0.34732446
172	0xbedbe2ed	-0.42946568
173	0x3e4c9201	0.19977571
174	0xbe570fa6	-0.21002063
175	0xbef68495	-0.48148027
176	0xbe72a1fd	-0.23694606
177	0xbefc0100	-0.49219513
178	0xbf067605	-0.52523834
179	0xbebfe27b	-0.37477478
180	0xbca9ba40	-0.020718694
181	0xbcb4f7a1	-0.022090735
182	0x3e4c7de3	0.19969897
183	0xbe19d93e	-0.15024278
184	0xbee4973f	-0.44646642
185	0xbe38a40d	-0.1803133
186	0xbeee75dd	-0.46574298
187	0xbf359109	-0.7092443
188	0xbee06313	-0.43825588
189	0x3f3262eb	0.69682187
190	0x3f05e2f9	0.5229946
191	0x3edb2d50	0.42808008
192	0x3e6d0775	0.23147376
193	0xbc961c05	-0.018323908
194	0xbe2c4d89	-0.16826452
195	0xbf20b492	-0.6277553
196	0xbf27dd8d	-0.65572435
197	0xbdecdf25	-0.11565999
198	0x3f8c9682	1.0983431
199	0x3fa40610	1.281435
200	0x3f9a4f3f	1.2055434
201	0x3ec5b2b4	0.38612902
202	0x3f378795	0.71691257
203	0x3f351328	0.70732355
204	0xbf4cd208	-0.8000798
205	0xbf0bc837	-0.5460238
206	0x3e11a3e2	0.14222673
207	0x3f61c9c9	0.88198525
208	0x3f93a5c2	1.153496
209	0x3fc2ed5b	1.5228685
210	0xbee67678	-0.4501226
211	0x3d50e580	0.05100012
212	0x3ee60a0f	0.4492955
213	0xbfb9a39e	-1.4503057
214	0xbf76988e	-0.9632653
215	0xbd8d77a8	-0.06907588
216	0x3f32a9aa	0.69790137
217	0x3ed57131	0.4168792
218	0x3f0d15d9	0.5511146
219	0xbe81f570	-0.25382566
220	0xbf25df50	-0.6479387
221	0xbf08ca22	-0.5343343
222	0xbe04d2d3	-0.12971048
223	0xbe308c14	-0.17240936
224	0x3db2830b	0.08716401
225	0x3f92ade4	1.1459317
226	0x3fb467a0	1.4094124
227	0x3fb658de	1.424587
228	0x3e8b7a69	0.2724183
229	0x3e8e3cfe	0.27780908
230	0x3effca50	0.4995904
231	0x3ee87118	0.45398784
232	0x3f2d9b27	0.6781487
233	0x3f3773d6	0.71661127
234	0x3f97c40f	1.1856707
235	0x3fb27cc4	1.3944325
236	0x3fc4bff4	1.537108
237	0x3d98f66d	0.07468877
238	0x3f131973	0.5746071
239	0x3f2d0e4f	0.6759996
240	0x3d9f664b	0.07783183
241	0x3f132f73	0.57494277
242	0x3f566f32	0.8376342
243	0x3c6c7d3c	0.014434155
244	0xbd973a9b	-0.07384225
245	0x3d871dc6	0.06597476
246	0xbec91098	-0.39270473
247	0xbe9dec62	-0.30844408
248	0xbd05eac6	-0.0326946
249	0xbf29a5f8	-0.66268873
250	0xbf1c8b94	-0.6115048
251	0xbe375f59	-0.17907466
252	0x3d8e3ec5	0.06945566
253	0x3dce5282	0.10074331
254	0x3e98332d	0.29726544
255	0xbebf6d0d	-0.37387887

down_convs.2.conv1.bias f4 [12]
0	0xbb2f3dac	-0.002673964
1	0xbc08a6c3	-0.00834054
2	0x3b4657dd	0.0030264773
3	0x3c29733b	0.0103424145
4	0xbc07a41e	-0.008278875
5	0xb8928121	-6.985875e-05
6	0x3c0cb4f6	0.008588066
7	0xba3594ac	-0.0006926756
8	0xbb5bbc21	-0.0033528882
9	0xba8e557b	-0.0010859215
10	0xbc01cd52	-0.007922487
11	0xba33c08b	-0.0006856999

down_convs.2.conv2.weight f4 [12, 12, 3, 3, 3]
0	0xbc5097f4	-0.012731541
1	0xbdc13790	-0.09434426
2	0xbe108682	-0.1411381
3	0x3ddd0b76	0.107932016
4	0x3d685442	0.05672098
5	0x3d7dd56f	0.061971124
6	0x3e403176	0.18768868
7	0x3ed5b26b	0.41737685
8	0x3de93873	0.1138772
9	0xbdfc38dd	-0.12315533
10	0xbdefa62f	-0.11701619
11	0xbe20596a	-0.15659109
12	0x3e13b28c	0.14423579
13	0x3d830358	0.06397122
14	0x3db71def	0.08941256
15	0x3cc895ec	0.02448555
16	0x3edeb556	0.43497723
17	0x3eb3ede4	0.35142434
18	0xbeb544e8	-0.35404134
19	0xbed73b81	-0.42037585
20	0xbec786fa	-0.38970166
21	0x3c83416d	0.016022408
22	0xbca0b5d8	-0.01961796
23	0xbc970b26	-0.018437933
24	0x3d8a517e	0.06753825
25	0x3ec7fee3	0.3906165
26	0x3e5a0130	0.21289515
27	0xbf169e86	-0.5883564
28	0xbf2f2c6e	-0.6842717
29	0xbf1696b2	-0.5882369
30	0x3e82869c	0.25493324
31	0x3ebc302f	0.3675551
32	0x3c7358c9	0.014852711
33	0x3f1d3f10	0.6142435
34	0x3e449597	0.19197689
35	0x3e849ba5	0.25899997
36	0xbee5e0d2	-0.44898087
37	0xbe648eb2	-0.22320059
38	0xbea61fc7	-0.3244612
39	0x3de0c355	0.10974757
40	0x3d2cd01a	0.04219065
41	0x3c996f8c	0.018729948
42	0x3e757b88	0.23972905
43	0xbdf6e5b6	-0.12055533
44	0xbe0e66db	-0.13906424
45	0xbea3009e	-0.31836408
46	0xbe333ea6	-0.17504367
47	0xbeb60fd0	-0.3555894
48	0xbd25c2ba	-0.04046891
49	0xbdb33c0f	-0.0875169
50	0xbe6119b5	-0.21982463
51	0x3e0f1666	0.13973388
52	0xbe9cf442	-0.30655104
53	0xbec056f5	-0.37566343
54	0xbdcc168e	-0.099652395
55	0xbf80c7b5	-1.0060946
56	0xbfcd10f5	-1.60208
57	0x3dfac899	0.12245292
58	0xbe48d969	-0.19614185
59	0xbed11a45	-0.40840355
60	0x3f146168	0.5796113
61	0x3ebad6d5	0.3649203
62	0x3f1aebe3	0.60516185
63	0xbddb9f87	-0.10723787
64	0xbf4aa35d	-0.7915552
65	0xbfa5f236	-1.2964542
66	0x3e0ea874	0.13931447
67	0xbe8f4d2b	-0.27988562
68	0xbed4d86d	-0.4157137
69	0x3ebf1a5d	0.373248
70	0x3cdb63a1	0.026780905
71	0x3e9c65c6	0.30546397
72	0xbf0533c7	-0.5203213
73	0xbf855053	-1.0415138
74	0xbf9e0226	-1.2344406
75	0x3e9b3000	0.3031006
76	0xbcfafcf9	-0.030638205
77	0xbe80a3b0	-0.25124884
78	0x3f46911f	0.7756519
79	0x3e9f30d5	0.31091943
80	0x3ef10dd9	0.47080877
81	0xbfd61d46	-1.6727684
82	0xbf593566	-0.84847105
83	0xbe75678c	-0.23965281
84	0xbf3499d9	-0.7054725
85	0xbeeaa5c0	-0.45829582
86	0xbe11541a	-0.14192238
87	0x3f0db8b0	0.55359936
88	0x3ec56e82	0.38560873
89	0x3e9c90cd	0.30579224
90	0xbf9c2484	-1.2198644
91	0xbea2b27e	-0.31776804
92	0x3ec6d837	0.38836834
93	0xbf497670	-0.78696346
94	0xbe3f00d0	-0.18652654
95	0x3cd166d4	0.025561728
96	0x3e3b4eae	0.18291733
97	0x3dce84b9	0.100839086
98	0xbc0141f3	-0.007889259
99	0xbf8b7b42	-1.089699
100	0xbe92a18a	-0.2863887
101	0x3dd86c36	0.105675146
102	0xbedad048	-0.4273703
103	0xbdd6da60	-0.104908705
104	0x3e1d5f85	0.15368469
105	0x3e0eb23d	0.1393518
106	0x3d71cbb0	0.059032142
107	0xbb1d3435	-0.0023987417
108	0x3e299758	0.1656164
109	0x3e9460ce	0.28980106
110	0x3ee6f414	0.45108092
111	0xbe928ea8	-0.28624463
112	0x3e22c716	0.15896258
113	0x3e3a0b91	0.18168475
114	0xbdcdf05e	-0.10055612
115	0x3e05837e	0.13038442
116	0x3d8a6ab4	0.06758633
117	0x3e1b6075	0.15173514
118	0x3e293075	0.16522391
119	0x3ebf9da7	0.37424967
120	0xbe298fa6	-0.16558704
121	0x3e229ffe	0.15881345
122	0x3e5e7bc4	0.217269
123	0xbe768c4c	-0.24076957
124	0xbcbc5232	-0.022988413
125	0xbca89a55	-0.020581404
126	0x3e890683	0.2676278
127	0x3e8ae929	0.27131012
128	0x3e6e59c3	0.23276429
129	0xbea88690	-0.32915163
130	0xbd6a9756	-0.05727323
131	0x3d1b90f1	0.037980024
132	0xbebba7e5	-0.3665153
133	0xbe21a606	-0.15785989
134	0xbd8a972e	-0.067671165
135	0x3f8c8af1	1.0979902
136	0x3f3ca572	0.7368995
137	0x3ec002e6	0.3750221
138	0x3f597b8d	0.8495415
139	0x3eff5ed2	0.4987703
140	0x3f0c09c3	0.54702395
141	0x3e69643d	0.22792144
142	0xbdf0decb	-0.117612444
143	0x3e06cac7	0.13163291
144	0x3f80c4f5	1.0060107
145	0x3f116d61	0.56807524
146	0x3e2bd43b	0.16780178
147	0x3f0f3498	0.55939627
148	0x3dacc3e3	0.084358
149	0x3e15f2f6	0.14643463
150	0xbdd62fb0	-0.104583144
151	0xbe9d2b0e	-0.3069691
152	0xbe5ca02b	-0.21545474
153	0x3f32e78f	0.6988458
154	0x3e94a895	0.29034868
155	0xbc95ca87	-0.01828505
156	0x3ef3a092	0.47583443
157	0x3c4beff4	0.012447346
158	0x3d74f4b1	0.05980367
159	0xbdc9fc54	-0.09862581
160	0xbe8e0880	-0.2774086
161	0xbe0a4ae8	-0.13505137
162	0xbdca18d1	-0.098680146
163	0x3e8ff322	0.28115183
164	0x3e0fb7c7	0.14034949
165	0xbed03ba7	-0.4067051
166	0x3e4e7b5c	0.20164245
167	0x3e23acd7	0.15983902
168	0xbdc1498a	-0.094378546
169	0x3d43452d	0.047673393
170	0x3f2642b5	0.64945537
171	0xbe119256	-0.14215979
172	0x3ec718df	0.38886163
173	0x3eb56b5d	0.35433474
174	0xbcde071b	-0.027102998
175	0x3ec5efd6	0.38659543
176	0x3ec48c4d	0.3838829
177	0xbb1cd9f3	-0.0023933619
178	0x3da9370e	0.08262454
179	0x3ec99d75	0.39377943
180	0xbf102adc	-0.563154
181	0x3d096cd4	0.033551052
182	0xbd880c2b	-0.06642946
183	0xbe9210f9	-0.28528574
184	0x3e663953	0.22482805
185	0x3e43d955	0.19125874
186	0x3bd36afe	0.0064519634
187	0x3e8cc23c	0.2749194
188	0x3eacdb05	0.3376085
189	0xbe6391b2	-0.22223547
190	0x3d24dc0f	0.040248927
191	0x3da73c64	0.081658155
192	0xbe2c3255	-0.16816075
193	0xbd7e31e4	-0.0620593
194	0xbdb0e8ec	-0.08638176
195	0xbde8d3e6	-0.113685414
196	0xbd7e5249	-0.062090192
197	0xbdd6cc7b	-0.1048822
198	0xbe1ba956	-0.15201315
199	0xbb57ce26	-0.003292927
200	0x3da21e0e	0.07915889
201	0xbe10786f	-0.14108442
202	0x3c93f2c9	0.018060105
203	0x3d9758df	0.07389998
204	0x3dd02e11	0.101650365
205	0x3d2925b8	0.041295737
206	0xbd320ef4	-0.04347129
207	0xbe45be4b	-0.19310872
208	0xbdf87cd1	-0.12133182
209	0xbe29f97f	-0.16599081
210	0xbe3b4966	-0.18289718
211	0xbde64c43	-0.112450145
212	0xbd947fba	-0.072509244
213	0xbe200d31	-0.15630032
214	0xbde223d0	-0.11041987
215	0xbd1bd9f9	-0.03804967
216	0x3e28bcfa	0.16478339
217	0xbe176980	-0.14786339
218	0xbd0b005d	-0.033935893
219	0x3e5118dd	0.20419641
220	0xbcc6f992	-0.024288926
221	0x3dca5434	0.09879342
222	0x3e288c67	0.16459809
223	0x3ade7fe0	0.0016975366
224	0x3c883d57	0.016630812
225	0x3d746227	0.059663918
226	0xbe455c25	-0.19273432
227	0xbd9d97f5	-0.07694999
228	0x3e63a859	0.22232188
229	0x3e4d5aa4	0.20054108
230	0x3e402b57	0.18766533
231	0x3dc824d1	0.09772647
232	0xbd3cf83f	-0.046135183
233	0xbe2de558	-0.16982019
234	0xbcc3ddbc	-0.023909442
235	0xbde98548	-0.114023745
236	0xbe013ee1	-0.12621643
237	0x3e7f5e6d	0.24938364
238	0x3e05854a	0.13039127
239	0x3e2d1644	0.16903025
240	0xbdfb342b	-0.122658096
241	0xbe89e059	-0.26928976
242	0xbebe3800	-0.371521
243	0x3ea66453	0.32498416
244	0xbafaae3d	-0.0019125413
245	0xbdad1c0d	-0.08452616
246	0x3ec6b72f	0.38811633
247	0x3eda6738	0.42656875
248	0x3ea42de5	0.32066265
249	0xbdb9f296	-0.09079473
250	0xbd6c3e82	-0.0576768
251	0xbe53c69b	-0.2068123
252	0xbd807638	-0.062725484
253	0xbe8dba53	-0.27681217
254	0xbdac75f7	-0.084209375
255	0x3e85bf5f	0.26122567

down_convs.2.conv2.bias f4 [12]
0	0x3c5caf25	0.013469492
1	0x3c359775	0.011083473
2	0xbc834011	-0.01602176
3	0x3b997ce1	0.004684076
4	0xbc174e10	-0.00923492
5	0x39a7c8ee	0.00032002426
6	0xbac94efb	-0.0015358621
7	0xbb952dc6	-0.0045525758
8	0x3c9f011b	0.019409707
9	0xbbad9fdf	-0.005298599
10	0x3c69bc54	0.014266092
11	0xba7ca5ca	-0.00096377416

down_convs.2.norm0.weight f4 [12]
0	0x3f2cda4a	0.6752058
1	0x3f7762ba	0.9663502
2	0x3fc1e71b	1.5148653
3	0x3faf81b9	1.3711463
4	0x3fb68888	1.4260416
5	0x3fad3c37	1.3534001
6	0x3f9e2320	1.2354469
7	0x3f3d8ad6	0.7403997
8	0x3eee0d61	0.46494582
9	0x3f6d1162	0.9260465
10	0x3f99318f	1.1968249
11	0x3f8d7c96	1.1053646

down_convs.2.norm0.bias f4 [12]
0	0xbe961376	-0.29311723
1	0x3cf774bf	0.030207036
2	0xbe8d9e3c	-0.27659786
3	0xbf3cdf61	-0.7377835
4	0x3eb3ab8a	0.3509181
5	0xbd24c299	-0.040224645
6	0x3e1bf4a2	0.15230039
7	0x3e8108bb	0.25201973
8	0x3e665d4b	0.22496526
9	0xbe4b505d	-0.19854875
10	0xbf59732a	-0.8494135
11	0x3ebca6dd	0.36846057

down_convs.2.norm0.running_mean f4 [12]
0	0x3f75ce37	0.96017784
1	0x4113c112	9.234636
2	0x41102aaf	9.010421
3	0x40aa2e74	5.3181705
4	0x3ffed4bb	1.990867
5	0x40df099c	6.969923
6	0x404f6fbf	3.2411954
7	0xc15dc8fb	-13.8615675
8	0xc0c7b760	-6.2411346
9	0xc11213f2	-9.129869
10	0x41224143	10.140933
11	0xc046146b	-3.0949962

down_convs.2.norm0.running_var f4 [12]
0	0x429d48ed	78.64243
1	0x43423538	194.20789
2	0x432f1cb1	175.11208
3	0x433858f9	184.34755
4	0x43c9ece4	403.8507
5	0x439f9e79	319.23807
6	0x42f36fcd	121.71836
7	0x44c0058c	1536.1733
8	0x43d3b496	423.41083
9	0x438010b7	256.13058
10	0x4346cfc7	198.81163
11	0x43b2d662	357.67487

down_convs.2.norm1.weight f4 [12]
0	0x3f8ba7cb	1.0910581
1	0x3fb39fb0	1.4033108
2	0x3f95cae9	1.1702548
3	0x4004c52e	2.074535
4	0x3fb57b6c	1.417829
5	0x3f11f12e	0.57008636
6	0x3eec7381	0.46181872
7	0x3f28c99c	0.6593263
8	0x4005736b	2.0851696
9	0x3fa96f99	1.3237182
10	0x3f5f6ee7	0.872786
11	0x3f45e533	0.77302855

down_convs.2.norm1.bias f4 [12]
0	0xbcaed08b	-0.021339675
1	0x3e728b28	0.23685896
2	0x3c6c89fe	0.014437197
3	0xbec2e673	-0.38066444
4	0xbf40d0c6	-0.75318563
5	0xbe8c9b6b	-0.27462325
6	0xbf4dea94	-0.8043606
7	0xbf11d3e1	-0.56963927
8	0x3c9ee4cf	0.019396214
9	0x3f3348d1	0.70032984
10	0xbd0a6748	-0.033789903
11	0xbecfda87	-0.4059641

down_convs.2.norm1.running_mean f4 [12]
0	0xc0026270	-2.0372581
1	0xc0cd905a	-6.423871
2	0xc0df054e	-6.9693975
3	0xc1654e66	-14.33164
4	0x4103746c	8.215923
5	0x3f8269c8	1.0188532
6	0x4177d07b	15.488399
7	0xbf613e46	-0.87985647
8	0xc14ad1f4	-12.676258
9	0xc14fe775	-12.994008
10	0xc1957f1f	-18.68707
11	0xc1c9616c	-25.17257

down_convs.2.norm1.running_var f4 [12]
0	0x42ccd690	102.41907
1	0x430ec3ca	142.7648
2	0x431ef0fa	158.94131
3	0x43bb562c	374.67322
4	0x42c8c5ae	100.38609
5	0x44123bdb	584.93524
6	0x43289c18	168.60974
7	0x42c8f485	100.47758
8	0x438b2679	278.30057
9	0x435c04ca	220.0187
10	0x430e0f9c	142.06097
11	0x43ab4b1d	342.58682

down_convs.3.conv1.weight f4 [24, 12, 3, 3, 3]
0	0x3dc61101	0.09671212
1	0x3dcc87ff	0.09986877
2	0x3ec49b36	0.38399667
3	0x3c0c63cc	0.008568715
4	0xbe0c01fc	-0.13672632
5	0x3de7cd53	0.11318459
6	0xbe92e40a	-0.28689605
7	0x3e29614d	0.16541024
8	0x3f1aec59	0.6051689
9	0xbcd2081d	-0.025638634
10	0x3db44af3	0.08803358
11	0x3e2849cf	0.16434406
12	0x3b530fa4	0.0032205367
13	0xbd958ef9	-0.073026605
14	0x3da9a6a1	0.08283735
15	0x3ed2530b	0.41078982
16	0x3f853196	1.0405757
17	0x3f823e3b	1.0175241
18	0xbd4a9c7e	-0.04946565
19	0xbdd65d27	-0.10466986
20	0xbdb99f54	-0.090635926
21	0x3da5ef51	0.081022866
22	0x3ce58dad	0.028021658
23	0x3c31139f	0.010807901
24	0x3f99fb7f	1.2029876
25	0x3f9fb7fe	1.2478025
26	0x3f0249d5	0.5089391
27	0xbf66bee2	-0.90135014
28	0xbe14e660	-0.14541006
29	0xbe1eb96f	-0.15500425
30	0xbe4611c7	-0.19342719
31	0x3ec9068c	0.39262807
32	0xbf174321	-0.59086806
33	0x3ed2174b	0.41033396
34	0x3e5e6b4d	0.2172062
35	0xbe27fc88	-0.16404927
36	0xbe8d45a3	-0.2759219
37	0x3d5f2402	0.0544777
38	0x3cd09c33	0.025465107
39	0x3e50bdba	0.20384875
40	0x3f23f591	0.6404658
41	0xbdfe7dbe	-0.12426327
42	0xbe21c1db	-0.15796606
43	0xbe6752c1	-0.22590162
44	0xbed96c0a	-0.4246524
45	0xbe919132	-0.28431088
46	0xbdb71ea1	-0.08941389
47	0x3d895c0c	0.0670701
48	0xbf7ed1a2	-0.99538624
49	0xbe8bc3b2	-0.2729774
50	0xbed3c527	-0.41361353
51	0xbf52f11c	-0.82399154
52	0xbf1a4377	-0.60259193
53	0xbf1389d2	-0.5763217
54	0x3e6cff84	0.23144346
55	0x3e9f8940	0.311594
56	0x3f2dfd0b	0.6796424
57	0x3e516036	0.20446858
58	0x3ee481f0	0.44630384
59	0x3f7e1e42	0.9926492
60	0xbe99a6df	-0.30010125
61	0x3b81e9a0	0.003964618
62	0x3eae9742	0.34099776
63	0x3eb88826	0.36041373
64	0x3f2be9d9	0.671537
65	0x3f687867	0.9080872
66	0x3f25b474	0.64728475
67	0x3fb7a077	1.4345845
68	0x3f88b56a	1.0680363
69	0x3dab67de	0.083694205
70	0x3f09d4ce	0.5384034
71	0x3e95121d	0.29115382
72	0x3ed7dddb	0.4216145
73	0x3f122680	0.57089996
74	0x3e9ffaf1	0.3124614
75	0x3f4d5145	0.8020213
76	0x3f6b2df3	0.9186699
77	0x3e0d88e3	0.1382175
78	0x3f17ada6	0.5924934
79	0x3e42ea8f	0.1903479
80	0xbe8ebf9e	-0.27880567
81	0x3f1352d9	0.5754829
82	0x3f2b481c	0.66906905
83	0x3ef09951	0.4699197
84	0xbebcb45e	-0.3685636
85	0x3ec8b0d4	0.3919741
86	0xbed6c5d8	-0.41947818
87	0x3e078532	0.13234404
88	0x3ec79b7b	0.3898581
89	0xbebc3d97	-0.3676574
90	0x3f940bb0	1.1566067
91	0x3f339b97	0.70159286
92	0x3e9c2016	0.3049323
93	0x3f342a5e	0.7037715
94	0x3fb88edf	1.4418601
95	0x3f01faf3	0.50773543
96	0x3e7eda9a	0.24888077
97	0x3ed5fa62	0.4179259
98	0x3d7a748f	0.061146315
99	0x3f7758d8	0.9661994
100	0x3f13f4d0	0.5779543
101	0x3c4d19ad	0.012518329
102	0x3e9f6f72	0.31139714
103	0x3f91ee0d	1.1400772
104	0x3e8e2525	0.27762714
105	0xbe0d3fe5	-0.13793905
106	0x3e020884	0.12698561
107	0xbe87bda9	-0.26511887
108	0xbf18c7f9	-0.59680134
109	0x3dbd3dd9	0.09240312
110	0xbee73592	-0.45158058
111	0xbe7cbc8c	-0.246813
112	0xbe78e75c	-0.24307007
113	0xbf6a0245	-0.91409713
114	0x3e48fa97	0.19626842
115	0xbee030b8	-0.4378717
116	0xbf137e9b	-0.5761506
117	0xbd26c802	-0.040718086
118	0x3eee6bb4	0.46566546
119	0x3d1aaa2d	0.03775995
120	0xbe4467ae	-0.19180176
121	0x3d06479f	0.032783147
122	0xbeb34c6c	-0.35019243
123	0xbe9c0fec	-0.30480897
124	0xbf104149	-0.5634962
125	0xbf10f9c3	-0.56631106
126	0xbeb04957	-0.34430954
127	0x3e6cf610	0.2314074
128	0x3e9067ed	0.2820429
129	0xbf33120a	-0.699494
130	0xbe8e4438	-0.27786422
131	0xbe10eb97	-0.1415237
132	0xbf08dd24	-0.53462434
133	0xbf03ab37	-0.5143313
134	0xbed76627	-0.42070124
135	0xbe9a4adb	-0.30135235
136	0x3cec79ce	0.028866675
137	0x3d94a197	0.07257383
138	0x3f0134ae	0.5047101
139	0x3f4ac435	0.7920564
140	0x3f44988a	0.76795256
141	0x3e354959	0.17703761
142	0x3ed2c149	0.4116309
143	0x3f2926e7	0.66074985
144	0xbd4ce6d5	-0.050024826
145	0x3eb6a5f4	0.35673487
146	0x3ed7702d	0.4207777
147	0x3ef61d5b	0.4806927
148	0x3f2b2023	0.6684591
149	0x3f083937	0.532123
150	0x3e5fb6ec	0.21847123
151	0x3e8f2425	0.27957264
152	0x3e4d58bf	0.20053385
153	0xbd9201ea	-0.07129271
154	0x3e483776	0.19552407
155	0x3e3e2b4a	0.18571201
156	0x3f11049c	0.5664766
157	0x3ebc3711	0.36760762
158	0x3e8dc8df	0.27692315
159	0x3eec2178	0.46119285
160	0x3ead9f7e	0.33910745
161	0x3e708d78	0.23491466
162	0xbeee77bb	-0.46575722
163	0xbe7d96bf	-0.24764536
164	0xbee26a3e	-0.4422168
165	0xbf51aee5	-0.8190749
166	0xbf1e4cc4	-0.61835885
167	0xbf52bc28	-0.82318354
168	0x3e46ce47	0.19414626
169	0x3dac1feb	0.08404525
170	0x3d88c9a5	0.06679086
171	0xbc51ae36	-0.012797883
172	0x3d449250	0.047991097
173	0xbe7b0e35	-0.24517138
174	0xbeefe9fb	-0.468582
175	0xbe7332c9	-0.23749842
176	0xbf0c91e4	-0.5491011
177	0xbe07d574	-0.1326502
178	0xbe11351c	-0.14180416
179	0xbe22430f	-0.15845893
180	0xbdb9dee4	-0.09075716
181	0x3dc1d4e7	0.09464436
182	0xbdab7c0e	-0.08373271
183	0xbf4f792d	-0.81044275
184	0xbf05c579	-0.52254444
185	0xbf355107	-0.7082676
186	0xbed129a7	-0.4085209
187	0xbec1b607	-0.37834188
188	0xbeb65c55	-0.3561732
189	0xbe7f215f	-0.24915074
190	0xbebd1c2a	-0.3693555
191	0xbe538928	-0.2065779
192	0x3ee01bbc	0.4377116
193	0x3e690468	0.22755587
194	0x3ef7b8df	0.48383233
195	0x3f17b83d	0.592655
196	0x3f16a08b	0.5883872
197	0x3efd2fbe	0.49450487
198	0xbe22b770	-0.15890288
199	0xbd4be4e8	-0.04977885
200	0x3d349736	0.04408952
201	0x3edcc2a8	0.4311726
202	0x3e9d80f2	0.3076244
203	0x3ec7bc42	0.39010817
204	0x3f08f5df	0.5350017
205	0x3edc8b40	0.4307499
206	0x3ec97990	0.39350557
207	0xbea2870b	-0.31743655
208	0x3d2a5a35	0.041589934
209	0xbc6799c7	-0.0141357845
210	0x3ed3bce2	0.41355044
211	0x3eab00e9	0.33399132
212	0x3e1adc2b	0.1512305
213	0x3f2e6ff0	0.68139553
214	0x3f0a1c08	0.5394902
215	0x3ef00b6e	0.4688372
216	0x3e68111f	0.22662781
217	0x3e2b1179	0.16705884
218	0x3e9866b2	0.2976585
219	0xbe8167bf	-0.25274464
220	0x3f101786	0.56285894
221	0xbe71e7be	-0.23623559
222	0x3e844efe	0.25841516
223	0x3f14a9b8	0.5807147
224	0xbee21546	-0.44156855
225	0x3ef4a1c4	0.47779667
226	0x3e8d159d	0.27555552
227	0x3d6713ea	0.056415476
228	0x3f74aeca	0.95579207
229	0x3fa96f15	1.3237025
230	0x3ec3400b	0.38134798
231	0x3f3a4b3e	0.7277106
232	0x3f29bfc2	0.66308224
233	0xbda509d5	-0.08058516
234	0x3f1cf511	0.6131144
235	0x3ee87eb9	0.45409182
236	0x3d9c7776	0.07639973
237	0x3f1be475	0.6089547
238	0x3f62b3c0	0.88555527
239	0x3dd81fd8	0.10552949
240	0xbd0201fe	-0.03174018
241	0x3de616f9	0.112348504
242	0xbe826223	-0.25465497
243	0xbe2b77f3	-0.16744976
244	0x3e46842a	0.19386354
245	0x3ec4957d	0.383953
246	0x3eb0bc52	0.34518677
247	0x3f1608a1	0.58606917
248	0x3f06f82a	0.5272242
249	0x3c29061d	0.010316399
250	0x3d098a46	0.033579133
251	0x3e6552e2	0.22394899
252	0x3e9a4b5a	0.30135614
253	0x3f3e6cc6	0.74384725
254	0x3f690900	0.9102936
255	0x3f6575f8	0.8963313

down_convs.3.conv1.bias f4 [24]
0	0xb9602d20	-0.00021379115
1	0x3abf1ad3	0.0014580138
2	0x3906e97e	0.00012866218
3	0x3a68bed6	0.00088785344
4	0xb95ef62d	-0.00021263277
5	0x39801958	0.00024432945
6	0x37c48cab	2.3430524e-05
7	0xb91c6b7b	-0.00014917359
8	0x371d29e6	9.3676845e-06
9	0x37f315d1	2.8978016e-05
10	0x3afff003	0.0019526485
11	0xb7dd4d05	-2.6381118e-05
12	0x39b9b875	0.0003542338
13	0x3a3325e1	0.00068339525
14	0xba7432b2	-0.00093154155
15	0x3aa1ccc1	0.0012344347
16	0xb4ea094b	-4.3592658e-07
17	0xb71a0025	-9.179149e-06
18	0xb7399cac	-1.1063337e-05
19	0x38cf520d	9.885812e-05
20	0xb750e964	-1.2452107e-05
21	0xb8f06b72	-0.00011464105
22	0xba52b8d5	-0.00080384064
23	0x3a942f51	0.0011305605
