outputs/outputs_full_mask/epoch_15_model.pth (torch, 694854 bytes, 241 tensors)

down_convs.0.conv1.weight f4 [3, 1, 3, 3, 3]
000000 38 db 8d 3d 5a 38 61 3e ec 67 9a 3e d7 f6 5b be
       0.06926578 0.21994153 0.3015741 -0.2148088
000010 73 b2 4a 3e f7 be bc 3d d2 82 48 bf e7 30 50 be
       0.19794635 0.09216111 -0.78324616 -0.20331155
000020 2f 7c 06 bf cc 79 89 3e ca fd c9 3f 93 82 80 3f
       -0.5253324 0.26850736 1.5780575 1.0039848
000030 d9 fb 9b 3d 90 dc 94 3f c1 00 49 3f 49 c6 f6 be
       0.076163955 1.162981 0.78516775 -0.48198155
000040 ed ce 29 be 9c fc d1 3d 5f 18 1e 3e 02 cd 0f 3f
       -0.16582842 0.102532595 0.15438984 0.5617219
000050 98 35 aa 3e 85 0b 97 be d9 2e e9 3e 0a 94 f7 3e
       0.33244014 -0.29500976 0.45543554 0.48355132
000060 12 7c 13 bf 14 83 60 bd 90 18 ba bd 22 7b 15 bf
       -0.5761119 -0.054812506 -0.09086716 -0.5839101
000070 4e f2 8d be 93 f0 f3 be 0c dd 28 be 1d 12 7a 3e
       -0.27723926 -0.4764448 -0.16490573 0.24420972
000080 25 ad fa 3d 26 66 ac 3e e6 64 34 3f 1b d2 9b 3e
       0.12240056 0.33671683 0.7046646 0.30433735
000090 8b 29 09 bf 11 95 a3 be e1 73 15 bf 8e fd 22 3d
       -0.53579015 -0.31949666 -0.5837994 0.03979259
0000a0 55 b4 49 3e 62 14 4a 3e 0a b5 58 3f 80 48 81 3f
       0.19697697 0.19734338 0.84651244 1.010025
0000b0 0a ca 23 3f 02 60 10 bf 0b 0e 9a be 95 ea 01 bf
       0.6398016 -0.56396496 -0.3008884 -0.5074857
0000c0 8a 3a d7 bd 0c 96 28 3e a1 05 43 be a1 f7 fa 3e
       -0.10509212 0.16463488 -0.19045116 0.4901705
0000d0 c2 b1 48 3f 34 33 37 3f d8 a6 94 3e 78 ae 60 3f
       0.78396237 0.71562505 0.29033542 0.8776622
0000e0 5f 21 cc 3e 5f 71 ff bc 33 77 9f 3d 83 d8 d6 3d
       0.3986921 -0.03118199 0.07786407 0.10490515
0000f0 d3 bb 2f bf 36 06 fd be 10 7d 38 bf 3e fb 54 3f
       -0.6864597 -0.494188 -0.7206583 0.83195865
000100 40 92 e2 3f 39 46 49 3f 9f e7 36 3e 5a 35 08 3f
       1.7700882 0.78622776 0.17861794 0.5320641
000110 19 37 df 3e 8f 75 03 bf 9c 02 6f be d9 c9 90 be
       0.43596724 -0.51351255 -0.23340839 -0.28278998
000120 02 af 1c 3e 3b 3c 8a 3f 39 9e a2 3e 15 81 51 3e
       0.15301135 1.0799631 0.3176134 0.20459397
000130 a8 df 8c 3e 8b f8 8a 3d f0 b1 f7 be 5a fa f1 be
       0.27514386 0.06785687 -0.48377943 -0.47261316
000140 87 e3 91 be
       -0.28493902

down_convs.0.conv1.bias f4 [3]
000000 2e c3 94 be f6 c1 ef bd 9c 45 d6 3d
       -0.2905516 -0.11706917 0.10462496

down_convs.0.conv2.weight f4 [3, 3, 3, 3, 3]
000000 7d 98 b5 be c3 5a c2 be a8 b6 57 be ff e9 65 bd
       -0.35467902 -0.3795987 -0.21065772 -0.05613136
000010 13 1e 1f be db d1 6f be 66 a3 d8 3d 8b 0c aa 3d
       -0.15538816 -0.23419897 0.10578041 0.08303174
000020 8f 03 14 be 53 86 a8 be b8 f9 30 be fb 8d 64 be
       -0.14454482 -0.3291498 -0.1728276 -0.22319786
000030 1a 26 58 be c0 65 03 be a4 cd 1d be 2b 5d 1c 3e
       -0.21108285 -0.12831783 -0.15410477 0.15269916
000040 84 25 ab 3d 82 9f de 3d 24 26 9e be 93 6e 49 bd
       0.08356765 0.108702675 -0.30888474 -0.049177717
000050 04 bd 4c be 40 f9 5f bc 7c df 6a be 79 bd a3 be
       -0.19993979 -0.013670266 -0.22936815 -0.31980494
000060 de 9f d3 3d 9b 1d e7 3d 23 75 84 3e e4 6d d8 be
       0.103332266 0.11284944 0.25870618 -0.4227134
000070 fa cc 70 be 92 43 80 bd c6 3c bd 3e 42 47 20 3f
       -0.23515692 -0.06262888 0.3696043 0.6260873
000080 25 1b c9 3e ff 73 46 3f 69 c4 91 3f 06 48 a1 3f
       0.39278522 0.77520746 1.1388065 1.2600105
000090 60 9f e6 3d 19 f4 6c be 6f 18 69 be 3e fd 2a 3f
       0.11260867 -0.23139991 -0.22763227 0.66792667
0000a0 b0 41 8c 3f 95 a2 1b 3f d5 bf 9f 3f 93 d8 b2 3f
       1.0957546 0.60794955 1.2480417 1.3972343
0000b0 5b 53 9a 3f 10 04 74 be a7 05 4e be ac 9b 6a 3b
       1.2056688 -0.23829675 -0.20119344 0.0035798354
0000c0 ee 97 cd 3e 9e 71 19 3f 91 34 f0 3e 25 34 6b 3f
       0.40154976 0.5993899 0.46915105 0.9187644
0000d0 ba 7a ad 3f d7 d3 81 3f 83 1a fb be bd c5 ef be
       1.3553078 1.0142773 -0.49043664 -0.4683055
0000e0 e8 23 8a be 74 4c 15 bf 05 e5 11 bf de 4a 0d bf
       -0.2698052 -0.58319783 -0.5699008 -0.55192363
0000f0 7e f4 40 be c0 e7 48 be b4 68 69 be 81 0d 9e be
       -0.18843266 -0.19619656 -0.22793847 -0.30869678
000100 2b bd 1b bf 53 c5 f7 be fd cd 16 bf 9a 97 2b bf
       -0.6083552 -0.48392734 -0.58908063 -0.670282
000110 27 91 20 bf cf d2 90 be 8d 3a 91 bc 24 ef a5 bd
       -0.62721485 -0.28285834 -0.017728115 -0.08102253
000120 fa fa fe be 32 68 e7 be 9d 95 01 bf ee 1d 08 bf
       -0.49800855 -0.45196682 -0.50618917 -0.5317067
000130 68 2e f7 be 32 74 94 be ef ec 6c be 97 7e b5 bd
       -0.48277593 -0.289949 -0.23137258 -0.08862036
000140 cd 0c b4 be 31 16 40 3e cd d1 89 3e e9 8a fa 3e
       -0.35166016 0.18758465 0.26917878 0.48934105
000150 45 c3 07 bd 1c 1d 26 be ce e9 92 bc 18 9d 4f be
       -0.033145208 -0.16222042 -0.017933752 -0.2027477
000160 3a 08 b4 be df d1 d3 be e5 e4 c5 3d e8 a3 3b 3e
       -0.35162526 -0.41371056 0.09662799 0.18324244
000170 fe a8 06 3f 0d 07 bb be b3 18 64 be a4 28 78 3d
       0.5260161 -0.36528817 -0.22275047 0.060585633
000180 57 ee 16 bf cc 42 c9 be 64 30 94 be 4a 46 55 3e
       -0.5895743 -0.39308774 -0.2894317 0.20827594
000190 3e 59 65 3e bb 26 ef 3e cf 83 e9 3d 80 55 30 be
       0.22397324 0.46709237 0.114020936 -0.17220116
0001a0 13 77 98 3e d6 47 c7 be c7 05 7e be 4a 4f a7 be
       0.29778346 -0.38921994 -0.24806891 -0.3267768
0001b0 79 b0 5b bf 1c 9d 6c bf 82 24 37 bf e9 94 45 be
       -0.8581615 -0.9242723 -0.7154008 -0.19295086
0001c0 15 24 f7 be 16 38 31 bf b2 01 06 3e 63 d3 12 3f
       -0.48269716 -0.69226205 0.13086584 0.573538
0001d0 49 cf ea 3e 78 c5 7a bf 7b 5d 58 bf 04 bf 39 bf
       0.4586127 -0.97957563 -0.8451764 -0.7255709
0001e0 10 f4 e4 be 74 10 40 be db 01 fd be 0c 2c 29 3f
       -0.44717455 -0.18756276 -0.49415478 0.66082835
0001f0 c6 8f 14 3f 81 91 1f 3f 93 74 9d bf 7b b8 6b bf
       0.5803188 0.62331396 -1.2301201 -0.9207837
000200 e2 2a 18 bf fb 53 59 be 16 19 d0 be c7 c9 09 bf
       -0.59440434 -0.21223442 -0.4064414 -0.5382351
000210 f1 8a eb 3e da 4b f6 3e 67 ea 9a 3e 3b 26 d6 3e
       0.4600444 0.48104745 0.3025696 0.41826043
000220 17 f6 8e 3e dd 6f f1 3e b8 d5 32 be 08 3c 13 bd
       0.27922127 0.47155657 -0.1746434 -0.035945922
000230 c3 68 40 3e 98 ff 81 be 15 81 e6 be 0a 9c 06 bf
       0.18789963 -0.25390315 -0.45020357 -0.52581847
000240 8c b7 83 3e c2 12 cc 3e 9b 9f b1 3e 2e 88 9d be
       0.25725973 0.3985806 0.34692082 -0.3076796
000250 ba df fa be bb 4e f2 bd f5 84 1f bf d8 41 36 bf
       -0.48998815 -0.11831423 -0.6231225 -0.7119422
000260 ca d1 27 bf 2f 64 fe 3e 66 03 b6 3e 4d 6f a0 3e
       -0.6555449 0.4968581 0.35549468 0.31334916
000270 76 e7 15 be af c0 1b be d7 a4 14 3e 78 35 df be
       -0.14639077 -0.15210222 0.14516006 -0.4359548
000280 f0 37 c5 be cf 1d eb be 60 75 1d 3f 22 0b 31 3f
       -0.3851924 -0.4592118 0.61507225 0.6915761
000290 96 d4 47 bb 0f d4 a9 3e 92 b0 e1 3e 15 79 2d be
       -0.0030491701 0.331696 0.44080025 -0.1694072
0002a0 4e 30 28 3e fe 84 54 3e b5 64 a1 be b8 aa d1 3f
       0.16424677 0.20753857 -0.31522146 1.6380224
0002b0 06 89 de 3f d1 32 fc 3e 83 e8 25 3f b6 0b 7b 3f
       1.7385566 0.4925752 0.6480791 0.98064744
0002c0 6f bc e8 3d a9 98 5f 3e 6f ff b2 3e 83 01 f8 3d
       0.11364066 0.21835579 0.34960505 0.12109663
0002d0 c6 b0 4e 3f 24 45 8c 3f 3b e6 a5 3e af 37 b4 3e
       0.80738485 1.09586 0.32402214 0.35198733
0002e0 08 dd c7 3e 96 1f 88 be ec a4 36 3d 48 4a 35 3e
       0.3903582 -0.26586598 0.044590876 0.17704117
0002f0 14 4d a2 3e e0 5f 8d be d6 ae 6e be 1e b4 83 be
       0.3169943 -0.2761221 -0.23308882 -0.25723356
000300 3f f5 21 3d 0e d6 ca 3d 67 aa c2 3e fb 9f b2 bb
       0.039540526 0.09904109 0.38020632 -0.0054512
000310 07 93 42 be d6 bf a4 3d a4 e3 35 be 49 a0 c5 be
       -0.19001399 0.08044402 -0.1776262 -0.3859885
000320 1a c3 13 bf c6 e1 a7 3e d0 b9 2e 3e 9d 47 9c 3e
       -0.57719576 0.3278944 0.1706307 0.30523387
000330 8d d3 c8 bd b3 a8 39 3d 39 30 4c 3d 4a cc 1d 3c
       -0.09805975 0.0453269 0.049850676 0.009631226
000340 d2 43 55 3c d6 8b a4 be a6 37 00 3f b7 29 23 3f
       0.013016658 -0.32137936 0.5008491 0.63735527
000350 e2 74 00 3f 15 ea 80 bc f0 e7 72 3d c7 ed 47 3e
       0.5017835 -0.015736619 0.059303224 0.19524299
000360 24 da 3c 3e eb 18 32 3e 8e 5c dd bc cc 97 9b 3e
       0.18442589 0.17392318 -0.027021673 0.3038925
000370 1e 1b ef 3e 4f f3 96 bd 52 75 b4 3d 81 7d bc 3e
       0.46700376 -0.07370626 0.088114396 0.36814502
000380 2e 17 0b 3e 9b e2 28 3f 8f cc a4 3f 35 df ba 3e
       0.13583061 0.6597077 1.2874926 0.36498418
000390 a7 8a c7 3e 2b 07 8b 3f e1 ae b6 3e 1b e8 d2 3e
       0.3897297 1.0861562 0.35680297 0.41192707
0003a0 d7 a6 1e 3f 87 ac bf 3e 0f 7c b1 3e 3d 14 43 3f
       0.6197333 0.37436315 0.34664962 0.76202756
0003b0 cb 4e e8 3e d2 13 db 3d 6a e1 00 3f 64 b5 e0 3d
       0.45372614 0.1069714 0.50343955 0.109720975
0003c0 50 54 8b 3e 2a fb ec 3e 50 94 ba 3d
       0.27212763 0.46285373 0.091103196

down_convs.0.conv2.bias f4 [3]
000000 6a 3b 8f 3d 30 bb d7 bf ba 28 da be
       0.06993754 -1.6854 -0.42609197

down_convs.0.norm0.weight f4 [3]
000000 d2 3c 75 3f 85 3e b7 3f 53 0c 79 3f
       0.9579593 1.4315954 0.9728443

down_convs.0.norm0.bias f4 [3]
000000 2b 1a 08 be 59 81 aa be 15 7e 5a 3e
       -0.13291232 -0.3330181 0.21337159

down_convs.0.norm0.running_mean f4 [3]
000000 3b eb a7 be a7 80 89 bd f4 1d 71 3d
       -0.32796654 -0.067139916 0.058866456

down_convs.0.norm0.running_var f4 [3]
000000 dc cd b0 41 c4 45 05 41 66 64 a4 41
       22.100517 8.329533 20.549023

down_convs.0.norm1.weight f4 [3]
000000 be 57 95 3f 3f d9 4a 3f 47 b3 80 3f
       1.1667402 0.7923774 1.0054711

down_convs.0.norm1.bias f4 [3]
000000 49 45 86 be f4 be c7 3e 56 f7 14 be
       -0.26224735 0.39012873 -0.14547476

down_convs.0.norm1.running_mean f4 [3]
000000 89 67 4b bf ae 73 88 c0 35 6d de 40
       -0.7945486 -4.264121 6.950831

down_convs.0.norm1.running_var f4 [3]
000000 34 01 50 43 83 ff fa 42 69 b6 79 43
       208.0047 125.49905 249.71254

down_convs.1.conv1.weight f4 [6, 3, 3, 3, 3]
000000 0f 5c e4 be c6 f6 cf be 32 bc 02 bf c7 57 19 3e
       -0.44601485 -0.4061796 -0.51068413 0.1497489
000010 eb 8b 52 3e 88 0b 37 3d c1 b1 33 bf ab f2 40 bf
       0.20561187 0.04468873 -0.70193106 -0.7537028
000020 96 20 57 bf 16 e6 1e be fe 50 01 be 58 ab 13 be
       -0.840341 -0.15517458 -0.12628552 -0.14420831
000030 39 69 cb 3e 4d 2b a6 3e 75 e7 33 3d 93 54 38 bf
       0.39728716 0.3245491 0.043921907 -0.7200405
000040 64 cd 2c bf 6a 3e 48 bf 52 ea de be 02 3f da bd
       -0.675009 -0.78220236 -0.43538147 -0.10656549
000050 3c c7 b2 be 54 43 a1 3e 73 85 fb 3c 8b 5b 02 be
       -0.3491763 0.3149668 0.030703282 -0.12730233
000060 62 cf f6 be e5 a3 42 bf 97 cf 2f bf 5f d6 a2 bf
       -0.48205096 -0.76031333 -0.6867613 -1.2721671
000070 49 a0 a4 bf a5 02 58 bf 29 65 e0 bd 3b 47 ab be
       -1.2861415 -0.84379035 -0.10956795 -0.33452782
000080 4d 16 74 be 23 4a ad 3e d9 15 7a 3e d0 ac 0b bd
       -0.23836632 0.33845624 0.24422397 -0.034100354
000090 34 eb 5d bf 58 37 a1 bf fd 1b 1b bf e0 b9 81 be
       -0.86687016 -1.2595015 -0.6058958 -0.25337124
0000a0 48 9b d3 be d7 82 e5 be 9d 81 04 3e f4 06 51 3e
       -0.41329408 -0.44826385 0.12940069 0.20412809
0000b0 ce db 88 3e ac 64 3e bf f3 0b 3a bf 39 15 de be
       0.26730198 -0.74372363 -0.72674483 -0.43375567
0000c0 31 87 71 be 89 72 10 bf 6c 80 fa be 3d d4 c3 3e
       -0.23586728 -0.56424767 -0.48926103 0.38247862
0000d0 6a 48 48 3e 54 eb 24 bd 23 d5 f1 3e c0 50 88 3f
       0.19558874 -0.04026349 0.47232923 1.0649643
0000e0 91 53 e1 3e 41 a3 40 be e8 c6 d6 3e de d2 54 be
       0.4400907 -0.18812276 0.41948628 -0.20783564
0000f0 6b 5a 9f be a4 c8 8b 3e 69 0c 32 be 60 be 6a 3f
       -0.3112367 0.27301514 -0.17387547 0.9169674
000100 4f c7 ec 3f 01 ed 4b 3f d8 0c ba ba 8e f6 69 3f
       1.8498324 0.79658514 -0.0014194502 0.9139184
000110 09 8d 9e 3d 06 19 14 3e b3 c8 30 3f 33 62 c0 3c
       0.07741744 0.1446267 0.6905624 0.023484325
000120 a2 87 a2 bd 97 10 d0 3e fc a9 bb 3d 0a db 20 bf
       -0.07936026 0.40637657 0.09163281 -0.6283423
000130 53 4c 27 be 83 db fe be 4b 83 97 be ba 17 ae 3c
       -0.16337709 -0.4977685 -0.29592356 0.021251548
000140 8c da a7 be d8 be 75 bf 81 78 1e bf 86 6f 89 bd
       -0.32783926 -0.9599433 -0.61902624 -0.067107245
000150 e8 ca 1c bf e6 ba 8d bf e9 6d 15 bf bc a5 5b 3f
       -0.6124711 -1.1072662 -0.58370835 0.85799766
000160 3a ba 15 3e 1e 76 0f 3f c7 f5 12 bf fe 95 79 be
       0.14621821 0.5603961 -0.57406276 -0.24373624
000170 9c 35 95 bd fa 7e 4f bf d5 f0 68 bf 98 2c 6e bf
       -0.07285616 -0.81053126 -0.9099248 -0.93036795
000180 4a 2d 9f 3e 0f 61 49 be 1f f0 27 3e 63 c5 d3 be
       0.3108924 -0.19665931 0.16400193 -0.41361532
000190 3c ec fa bd 77 a3 bc bd f4 87 0f bf b4 8c 40 bf
       -0.122520894 -0.09210866 -0.56066823 -0.75214696
0001a0 66 7f 4e bf c0 6d 37 3f 0a e4 36 3e aa cf 1e 3f
       -0.80663145 0.7165184 0.17860427 0.6203562
0001b0 4b 43 08 3f 8f d3 03 3f d0 35 e2 3e 8d 36 41 bf
       0.5322768 0.5149469 0.4418168 -0.7547386
0001c0 bd 40 5c bf ae f8 5e bf 4a 90 cc be 7d f2 37 be
       -0.8603628 -0.87098205 -0.39953834 -0.17963596
0001d0 78 9a 36 be 81 32 13 3f 87 55 40 3f af ff e7 3e
       -0.17832363 0.5749894 0.75130504 0.4531226
0001e0 c1 e5 51 bf 44 a1 52 bf b3 9f 18 bf 80 fd c8 bd
       -0.819912 -0.8227732 -0.5961868 -0.09813976
0001f0 ca 28 92 be 66 be 57 3d 33 bb 8c 3e 71 5e 9b 3e
       -0.28546745 0.052671812 0.27486572 0.3034549
000200 d1 96 48 3e 06 41 b7 be 52 bf d8 be f5 19 07 bf
       0.19588782 -0.35791796 -0.42333466 -0.5277398
000210 c5 14 ad 3e 5e 32 88 3d 07 65 a2 3e 2c 0a 45 bf
       0.33804908 0.06650232 0.31717703 -0.76968646
000220 8b 02 8e bf 05 d0 b0 bf 66 a6 13 bd 6e b7 89 be
       -1.1094526 -1.3813483 -0.03604736 -0.26897758
000230 db 80 62 be 54 ff 73 3f b6 63 26 3f 38 89 05 3f
       -0.22119467 0.95311475 0.64995897 0.52162504
000240 84 0f 25 bf 51 63 08 bf e3 40 7a bf 77 a7 dd bd
       -0.644768 -0.53276545 -0.9775526 -0.10822957
000250 f2 ba 80 bd a6 58 26 3d c4 f3 64 3f ba 4f 46 3f
       -0.06285657 0.040611885 0.89434457 0.77465403
000260 94 fb 35 3f 43 1f 90 bf 43 22 17 bf 2e d6 36 bf
       0.71087 -1.125954 -0.59036654 -0.7142056
000270 15 44 6d be 16 4b a5 bd 0a 21 60 3e 3b af 26 3f
       -0.23170502 -0.08070962 0.21887603 0.6511113
000280 e5 21 31 3f 36 b0 35 3f 48 77 c7 bd a0 44 a7 3d
       0.69192344 0.70972 -0.09739548 0.08167386
000290 9f 69 31 be d7 ef 8f be b8 5b 70 be ca e3 0d be
       -0.17325447 -0.2811267 -0.23472488 -0.13856426
0002a0 fb 66 6a be 64 97 43 be 74 9c 8b be e9 14 19 be
       -0.22890846 -0.1910072 -0.27267802 -0.14949383
0002b0 3c 23 83 3e 1c 9e 90 3e 1a 0f 7b be dd e5 8b 3e
       0.2561282 0.28245628 -0.2451748 0.2732381
0002c0 29 9d 9d 3e f9 d0 fc 3a ba 48 03 bc f2 b7 47 3d
       0.30783966 0.0019288353 -0.008012945 0.04875941
0002d0 7e 44 d1 3b ce 5c 77 3e e6 2c 90 3e 09 46 7e bd
       0.0063863387 0.24156496 0.28159255 -0.06207851
0002e0 49 e6 89 3e 3a 8e 4f 3f d8 70 c1 3d ba dd 93 3e
       0.26933506 0.81076396 0.09445351 0.288801
0002f0 28 2b 77 3e 68 ff 2c 3f 7f 6e f6 3d 24 46 a0 bd
       0.24137557 0.6757722 0.12032794 -0.07825878
000300 87 d8 3c bb 36 71 90 be 39 46 bd bd c0 71 53 3e
       -0.0028815584 -0.28211373 -0.092419095 0.20648861
000310 02 03 82 bd 87 5a 23 be 0a d0 1d 3f d8 77 aa 3e
       -0.0634823 -0.15952502 0.6164557 0.3329456
000320 62 31 2b 3d c2 c7 0a 3d 11 09 9b be 74 98 e4 be
       0.041795142 0.03388191 -0.30280355 -0.44647563
000330 fb 25 82 3e 7d 45 31 be 18 e7 95 be 3a 2e f2 3e
       0.25419602 -0.17311664 -0.29277873 0.47300893
000340 0f 5d ae 3e ec 41 9c 3d e0 6d e3 bc f9 19 a6 be
       0.34055373 0.07629761 -0.027762353 -0.3244169
000350 78 e4 e4 be 9d 33 b7 3e 43 d9 a7 bd 24 91 25 be
       -0.44705558 0.35781565 -0.08195736 -0.16168648
000360 54 3f 98 3d 74 d4 40 3f 3a 48 fc 3e 64 57 02 3e
       0.07433954 0.7532418 0.49273854 0.1272865
000370 fe 44 46 3f 03 b0 f7 3e b1 6e 4d be 2b ea 3e 3f
       0.77449024 0.48376474 -0.20061757 0.7457606
000380 d3 11 be 3e 98 0f b5 3e 9a 9e 96 3f df 59 6b 3f
       0.37122974 0.3536346 1.1767151 0.9193401
000390 39 72 95 3e 13 a6 f4 3f 28 c8 ac 3f 30 e5 1d 3d
       0.29188707 1.9113182 1.3498583 0.03854865
0003a0 e2 40 b2 3f 93 f6 b6 3f f3 b7 43 3c 57 37 aa 3e
       1.3926051 1.4293998 0.011945712 0.33245346
0003b0 fe bd ca 3e 7b 8a dc be 31 c9 ba 3e 52 33 82 3e
       0.39598078 -0.43074402 0.36481622 0.2542978
0003c0 b1 39 85 be ec 25 c8 3e 86 de cb 3e b2 ac 48 bc
       -0.26020578 0.39091432 0.3981821 -0.012248205
0003d0 c2 9d 9a bd 0d 7e 4b 3e 03 86 e8 bd 9a d5 be bd
       -0.07549621 0.19872303 -0.11353686 -0.09318085
0003e0 d3 f6 4c 3e 21 f4 35 bd 55 0e f5 be 6a 48 e1 be
       0.20016031 -0.044422273 -0.47862497 -0.4400056
0003f0 48 23 a2 be bb 37 96 be 6f 64 60 3e 6b f2 bc be
       -0.31667542 -0.29339394 0.21913312 -0.369037

down_convs.1.conv1.bias f4 [6]
000000 fc eb a0 3d 47 aa 64 be 85 d9 91 bc 8d ac f3 3e
       0.078575104 -0.2233058 -0.017803917 0.47592583
000010 86 ed 1f 3d dc 87 80 3d
       0.03904488 0.06275913

down_convs.1.conv2.weight f4 [6, 6, 3, 3, 3]
000000 ac e4 b9 be 45 5f 73 be 32 06 d2 be 94 23 40 3d
       -0.36307275 -0.23766811 -0.41020352 0.04690893
000010 d3 33 3f 3e a1 44 79 bd 56 23 1d bd 38 d7 1b 3d
       0.18672113 -0.060856465 -0.038363777 0.038047045
000020 f7 01 9f be 04 90 60 3c ec 8c fa 3d 94 58 57 bd
       -0.31056187 0.013706211 0.1223391 -0.05257471
000030 b3 13 00 3f 84 a2 5e 3f 7b ae bd 3e 73 6a e5 3e
       0.5003006 0.8696673 0.3704718 0.44807777
000040 74 14 97 3f 60 d8 2d 3f c8 3d f5 bb 07 01 e0 bd
       1.1803117 0.6790829 -0.0074841715 -0.10937696
000050 5a 0e cd bc 0d 2e e1 3e 98 3d 79 3f 48 1a 0a 3f
       -0.025031257 0.43980446 0.9735961 0.5394635
000060 eb 02 0f 3f a2 c8 c5 3f 82 ba 55 3f e9 41 eb 3e
       0.5586383 1.5451853 0.83487713 0.45948723
000070 72 31 b3 3e 44 84 05 3f ca 8c 24 be 75 ef ff bd
       0.3499866 0.52154946 -0.16069332 -0.12496845
000080 4b 44 98 be 9a f7 06 bf 02 31 fa be 64 1c 99 be
       -0.29739603 -0.5272156 -0.48865515 -0.29904473
000090 b1 81 dc 3e f6 a0 02 3f ef cb 18 3f 08 44 65 bd
       0.43067697 0.51026857 0.5968618 -0.055973083
0000a0 f7 59 29 be eb 90 0f be d3 ec c8 be 4e 0f b0 be
       -0.16538225 -0.14020126 -0.39243183 -0.34386677
0000b0 a2 9f 79 be f9 2a ad 3e 44 10 fe 3e ca 6c 8c 3e
       -0.24377301 0.33821848 0.49621785 0.2742675
0000c0 bf 9f 2a bd 6f 7e 64 be b7 0a 5c bc b0 33 d5 be
       -0.041656252 -0.22313856 -0.013430289 -0.41640997
0000d0 54 93 5c be a9 dc 7b be 47 85 07 be 1d 65 07 bd
       -0.21540576 -0.24595894 -0.13234435 -0.033055414
0000e0 93 f7 db be 3e c6 f7 3e 7b 2d ec 3e 85 d6 ee bb
       -0.42962322 0.48393434 0.4612845 -0.0072887563
0000f0 71 4e 05 3f ef c8 69 3f 41 67 51 bd d1 af ce bb
       0.5207282 0.91322225 -0.05112386 -0.00630758
000100 a7 a5 ba 3e 32 a2 2c be c4 19 a7 3f 55 33 e0 3f
       0.36454508 -0.16858748 1.3054738 1.7515665
000110 22 1f 71 3e 69 0d c2 3f 4e df eb 3f 17 42 e0 3e
       0.23547032 1.5160342 1.8427522 0.43800423
000120 28 9e 52 be 97 b3 12 bd 51 d6 9e be 37 b4 27 3f
       -0.20568144 -0.0358158 -0.31022885 0.6550936
000130 0d f9 76 3f 04 fd 55 3e 6e 75 8b 3f d4 ee 94 3f
       0.9647377 0.20897299 1.0895212 1.1635385
000140 ba a5 cf 3e d1 69 6f be fb 93 0c be 52 12 67 be
       0.40556127 -0.2338021 -0.13728325 -0.22565582
000150 d5 b0 79 be 9f 06 81 be 22 cf 6e be 2a 34 48 be
       -0.24383862 -0.25200364 -0.23321202 -0.19551149
000160 94 fd c7 be 1d 81 97 bd 7e ea 7b be 3c 1b 99 be
       -0.39060652 -0.07397673 -0.2460117 -0.2990359
000170 8c 42 df be 1b 92 78 be a4 9a 28 be 32 c5 af be
       -0.4360546 -0.24274485 -0.1646524 -0.34330136
000180 22 b9 ec be 1f b0 e8 be ba c6 b2 be b6 f6 56 be
       -0.46234995 -0.4544687 -0.3491724 -0.2099255
000190 ca 8c a6 be 71 da 1e be b2 1e 2c be 85 9f b5 be
       -0.3252929 -0.15513016 -0.16808584 -0.35473266
0001a0 23 88 3f be ce f1 56 be e7 26 b9 be cc d8 02 bf
       -0.18704276 -0.20990679 -0.36162493 -0.51112056
0001b0 c5 5c c3 3c 38 0c b5 3e 30 31 8d be ff 82 19 bd
       0.023847947 0.35360885 -0.2757659 -0.037478443
0001c0 b1 eb b9 3e 48 eb 34 be a4 05 81 3e 5e 53 c6 3e
       0.3631263 -0.17667878 0.25199616 0.3873548
0001d0 40 32 3d 3e 0b 8d ac 3e 2b fb b6 3f 94 8b 3d 3e
       0.184762 0.33701357 1.42954 0.18510276
0001e0 01 71 0d 3f 00 a2 ca 3f 76 4a 07 3f 8b cf 20 3f
       0.55250555 1.5830688 0.52847993 0.62816685
0001f0 e6 a5 bb 3f 79 73 21 3f a9 b2 cb 3c 4f dd b0 3e
       1.4660003 0.6306682 0.024865465 0.34543845
000200 ff 05 81 3e 11 a0 b9 3e 1b 90 5e 3f 3d a1 65 3e
       0.25199887 0.36254933 0.8693864 0.22424789
000210 f2 5e 24 3f b4 d3 8e 3f 56 95 27 3f 74 77 a8 bc
       0.64207375 1.1158357 0.65462244 -0.020564772
000220 17 5f 6d 3c ff b3 fc 3d fd 8d 94 be 75 ad cf be
       0.014488003 0.12339019 -0.29014578 -0.40562025
000230 96 bd 07 bf 8e d2 04 be 03 ac 33 bf 96 de 06 bf
       -0.5302366 -0.12970945 -0.70184344 -0.5268339
000240 92 03 18 3d e5 e5 2b 3d a9 89 5a 3d bf 3c b5 be
       0.03711278 0.04196729 0.05335394 -0.35397908
000250 85 fc e2 be dc 86 22 bf d6 2e 9f be fb 14 1a bf
       -0.44333282 -0.6348703 -0.3109042 -0.60188264
000260 1a 8c 0b bf 70 41 30 be d6 30 f7 bc 6b b7 09 3e
       -0.54510653 -0.17212462 -0.030174654 0.13448875
000270 88 10 c2 be 6e 01 0a bf 7b 65 0d bf 3a 36 65 be
       -0.37903237 -0.5390843 -0.5523297 -0.22383967
000280 a2 1e 2d bf 19 f5 3d bf 4c 77 14 3f d8 ed 16 3f
       -0.67624867 -0.74202114 0.5799453 0.5895667
000290 2a c4 fd 3e 6f aa cf 3e 1b d2 d3 3e ff 07 11 3f
       0.49563724 0.40559718 0.41371235 0.56652826
0002a0 5c 8a 48 be 2d b4 78 bd f3 b6 b4 3e 86 20 c9 3e
       -0.1958403 -0.060718704 0.3529583 0.39282626
0002b0 25 73 a8 3e c1 41 b9 3e 51 08 d1 3b 10 69 29 3d
       0.32900348 0.3618298 0.006379165 0.04135996
0002c0 be 85 47 3e 76 48 f5 be bd c8 e0 be 9e 1f 13 be
       0.19484612 -0.47906846 -0.4390315 -0.1436753
0002d0 6c 2b b1 3e c1 ff 94 3e 78 66 86 3e d1 66 7e bd
       0.3460344 0.29101375 0.26250052 -0.062109772
0002e0 79 2a b1 bd 5e 07 b4 3d 8f 65 dd be 39 9b 9b be
       -0.08650679 0.08790468 -0.43241546 -0.30391863
0002f0 5a 8a 1e be be 5b 82 bf be bb 85 bf 61 5a 98 bf
       -0.15482464 -1.0184247 -1.0447919 -1.1902581
000300 16 fa 3e bf 54 f1 3a bf e0 d7 25 bf 69 b2 d1 be
       -0.7460035 -0.7302449 -0.64782524 -0.4095643
000310 f6 36 f2 be 1f 1a 29 bf 67 e7 28 bf 85 5a 1f bf
       -0.47307557 -0.6605548 -0.6597809 -0.62247497
000320 9a f3 0f bf 46 ad 94 be 8a a8 ba be 4c 65 92 be
       -0.5623108 -0.29038447 -0.3645671 -0.28592908
000330 6c fb 8c 3c 73 3a 46 be f1 cb 54 be 3d 2d 02 bf
       0.017209731 -0.19358234 -0.20780922 -0.5085028
000340 f8 54 38 bf e6 fe eb be 02 15 e8 be 70 18 84 be
       -0.7200465 -0.4609291 -0.45328528 -0.25799894
000350 6f 66 c0 be 79 72 aa 3c 29 f7 d7 bd 27 99 fe bd
       -0.3757815 0.020806538 -0.10545189 -0.12431555
000360 49 ff b0 be e7 b5 dc bc b8 07 a4 3d 21 0a 01 bf
       -0.34569767 -0.026942207 0.08009285 -0.5040608
000370 23 99 d4 be 17 d1 01 be 0c 03 99 be 12 a0 e8 be
       -0.41523084 -0.12677418 -0.29885137 -0.45434624
000380 6a c3 1d be b1 ae e1 be 2b 08 dd be 44 a1 4f be
       -0.15406576 -0.4407859 -0.43170294 -0.20276362
000390 ad 86 55 bf ff 99 f4 be 6c 0c 3c be fc ef b2 be
       -0.83408624 -0.4777374 -0.18364114 -0.3494872
0003a0 e1 c1 11 bf 28 c3 a4 be c2 c1 8e be 32 74 5a be
       -0.5693646 -0.32180142 -0.278822 -0.21333387
0003b0 4e c6 44 bd 0e ea bf be 0a bb 0f bf af 09 7c bc
       -0.04804068 -0.37483257 -0.56144774 -0.015383168
0003c0 f8 9e d2 be 46 37 00 bf 44 3e 4c 3d a8 61 eb be
       -0.4113691 -0.5008434 0.04986407 -0.45972943
0003d0 32 10 02 bf 5d 93 6b bf 53 c1 c5 be 00 09 be be
       -0.5080596 -0.92021734 -0.38624057 -0.3711624
0003e0 bd cc 27 bf c4 29 ee 3d d7 bf ff bc a2 89 2c be
       -0.6554678 0.1162906 -0.031219406 -0.16849378
0003f0 15 44 9d be 69 31 67 be 73 b5 ad be 68 4b b4 3c
       -0.30716005 -0.22577442 -0.33927497 0.022008613

down_convs.1.conv2.bias f4 [6]
000000 b1 65 10 bd e4 26 97 bc 54 f1 69 bc 96 4f 05 bd
       -0.03525323 -0.018451162 -0.0142787285 -0.032546602
000010 c3 a3 16 3b f6 16 0f 3d
       0.0022985793 0.034934007

down_convs.1.norm0.weight f4 [6]
000000 f1 cb 8b 3f 68 29 04 40 39 95 1d 3f e3 d2 c1 3f
       1.0921613 2.0650272 0.6155582 1.5142483
000010 38 9b 62 3f 90 c8 aa 3f
       0.88518095 1.3342457

down_convs.1.norm0.bias f4 [6]
000000 c3 b7 e6 3e db 45 2c 3d e8 c0 8b bf 63 09 23 3e
       0.45062074 0.042058807 -1.0918245 0.1592155
000010 b1 2e d0 be ad 66 80 be
       -0.40660623 -0.25078335

down_convs.1.norm0.running_mean f4 [6]
000000 bc f8 bd c0 8a 90 78 c0 5e ff 9b 40 95 53 2c 40
       -5.936613 -3.883822 4.8749228 2.6926014
000010 7b 01 52 40 c3 6a a5 3e
       3.2813404 0.32308015

down_convs.1.norm0.running_var f4 [6]
000000 e6 bc 97 42 6c 4b 85 42 78 8f 3c 43 cd 86 fd 42
       75.86894 66.64731 188.56042 126.76328
000010 22 2a 5f 43 b9 ad d4 42
       223.16458 106.3393

down_convs.1.norm1.weight f4 [6]
000000 93 d0 61 3f 19 5f 8f 3f fd fe b9 3f 63 41 b7 3f
       0.88208884 1.1200897 1.4530941 1.431683
000010 ad 9f 3b 3f ef 37 84 3f
       0.7329052 1.032957

down_convs.1.norm1.bias f4 [6]
000000 f7 bc 66 bd 4e 55 86 3d f2 f4 f5 3e 3b 6b 39 bf
       -0.056332555 0.06559239 0.4803844 -0.72429246
000010 5e 0d f6 be 6d 45 31 bf
       -0.48057073 -0.6924656

down_convs.1.norm1.running_mean f4 [6]
000000 d2 e0 c7 3f 83 9c 0a c1 72 17 e7 c1 69 cf d4 c0
       1.5615485 -8.663211 -28.886448 -6.6503186
000010 4b d8 56 c1 2b 68 ba c0
       -13.427806 -5.825216

down_convs.1.norm1.running_var f4 [6]
000000 66 83 75 43 2f b4 73 43 31 a6 50 43 4a 5d e7 42
       245.51328 243.70384 208.64919 115.682205
000010 8d 93 60 43 db 7f 40 43
       224.57637 192.49944

down_convs.2.conv1.weight f4 [12, 6, 3, 3, 3]
000000 a1 64 2e 3f 6c 27 5d 3e 2b b6 f9 3e 48 91 91 3e
       0.681223 0.2159707 0.48771796 0.28431153
000010 59 da 37 be 48 f1 49 3d a9 83 b5 3d 1a 54 12 bf
       -0.17954387 0.04930237 0.08863003 -0.5715958
000020 fb d4 62 be 05 2a fb 3e 6b 04 99 bd c1 78 3f 3e
       -0.22151558 0.49055496 -0.07471546 0.18698408
000030 03 26 0b 3e 8f 44 0b bf b8 0f a7 be b8 eb 88 be
       0.13588719 -0.5440149 -0.3262918 -0.2674234
000040 62 3a 7f bf 3d 32 3a bf 78 ad 0f 3f b0 78 a5 3e
       -0.9969846 -0.7273291 0.5612407 0.3231864
000050 db b1 88 3e 91 34 d7 3e e6 e9 84 be 53 f5 a1 bd
       0.26698193 0.42032292 -0.259597 -0.0790812
000060 72 cd cb 3d 92 5b fe be c6 43 1e bf 05 e5 33 3e
       0.09951295 -0.49679238 -0.61822164 0.17567833
000070 61 5d 00 3f aa 15 50 be b3 26 2b bf 8c 00 f9 be
       0.50142485 -0.20320764 -0.66855925 -0.4863323
000080 f5 c6 44 bf a5 58 54 3e c8 8f 56 3e 5e 27 c2 bc
       -0.76866084 0.2073694 0.20953286 -0.023700412
000090 c6 1b 0a 3f 15 02 55 3f c8 cf 10 3f e7 3e cb be
       0.5394863 0.832063 0.5656705 -0.39696428
0000a0 46 b6 42 be 32 df 99 be 16 e6 d5 3d fc c1 85 3e
       -0.19014844 -0.30053097 0.10444276 0.2612456
0000b0 68 ce 04 3e ef 8b a9 3e bc be ae 3e 24 2f 56 3e
       0.12969363 0.33114573 0.34129894 0.2091642
0000c0 d7 d5 1a bf 4a 5c 99 be 65 9e d5 be 6f af 1c be
       -0.60482544 -0.29953223 -0.41722408 -0.15301298
0000d0 80 20 d2 bc 52 ad 99 bc 27 51 8c bf 5a 55 38 bf
       -0.025650263 -0.018759403 -1.0962266 -0.72005236
0000e0 ab 1b 6e bf 01 eb 1e bf ff 65 77 be ea a6 d1 be
       -0.9301097 -0.6207734 -0.24160002 -0.40947658
0000f0 39 77 90 3e 47 61 18 3f b6 06 18 3f 3e df 53 bf
       0.2821596 0.59523433 0.5938524 -0.82762516
000100 0a be ae be bc fd ef be 05 ca 27 be 1a ed 9a 3e
       -0.34129363 -0.4687327 -0.16385658 0.3025902
000110 f8 50 b8 3d 33 04 12 3f 05 43 92 3f 9d d5 91 3f
       0.089998186 0.5703766 1.1426703 1.1393315
000120 88 e2 88 bf ae 07 31 bf d7 6b 12 bf 9e 66 39 bf
       -1.0694132 -0.69152343 -0.571958 -0.72422206
000130 9a 3a 1a 3d 3e c9 31 3d 12 65 ad 3e 9c 0b 50 3f
       0.037653543 0.04340481 0.33866173 0.81267715
000140 13 87 8a 3f 8f 55 18 3f ca 1b ec 3e dc d1 21 3e
       1.0822471 0.5950555 0.4611495 0.15802711
000150 68 92 d6 bd 1d 43 da be 8d 62 a3 be d9 61 3a 3e
       -0.104771435 -0.42629328 -0.31911126 0.18201388
000160 83 09 0f be 75 d6 20 3e 8b 23 e0 3e 1c c5 c2 3e
       -0.13968472 0.15706809 0.43777117 0.38041008
000170 93 e5 a3 3e eb 59 b4 3c 03 46 02 bf 91 63 98 be
       0.3201109 0.022015532 -0.5088808 -0.29763463
000180 2a a5 99 3e 6b e7 23 be 2e 47 a5 bd 90 98 a7 3e
       0.30008823 -0.16006248 -0.08070217 0.32733583
000190 79 93 3c 3e da b3 99 3e 69 da 52 3e 68 c0 28 be
       0.18415631 0.30020028 0.2059113 -0.16479647
0001a0 6d 78 62 bc ec 07 1b 3f 26 92 36 3e 9c c6 37 3e
       -0.013822657 0.6055896 0.17829189 0.17946857
0001b0 dd d8 02 3f f6 7d ef 3e 53 50 3f 3f f0 e3 4a bc
       0.5111216 0.46775788 0.7473194 -0.012383446
0001c0 06 ef 04 be d5 7d 3f 3e 26 31 7d 3e 4e d2 60 3e
       -0.12981805 0.18700345 0.2472578 0.21955225
0001d0 51 61 24 3d 35 e2 33 3f 93 c5 c9 3e 61 b7 0d 3f
       0.04013187 0.7026704 0.3940855 0.5535794
0001e0 6c f9 1e 3d 54 a4 7e be 33 e1 36 bd 87 54 7a 3e
       0.038812086 -0.24867374 -0.04464836 0.24446307
0001f0 60 3b 44 3e 19 b9 6e 3e 02 48 53 3f c1 fa 2c 3f
       0.19163275 0.23312797 0.8253175 0.6757012
000200 96 6c 3f 3f f6 1f 43 3e 62 fd 03 be 08 8f ca bd
       0.74775064 0.19055161 -0.12889627 -0.09890562
000210 0d 76 31 3e d7 b2 15 3e 6c 57 0e bd 5e e6 55 3e
       0.17330189 0.14619003 -0.03475134 0.2088866
000220 08 5f 19 3e 4e 03 bb 3e 85 c6 3f 3e 6d c3 84 3d
       0.14977658 0.3652596 0.18728073 0.06482587
000230 3c 56 46 3e 34 d8 2a be 48 e4 98 bc d2 f0 9f bd
       0.19368833 -0.16684037 -0.01866354 -0.07809605
000240 09 3f 84 3e 52 7f 1c 3d c5 89 48 3e 0f e5 5c 3e
       0.25829342 0.03820736 0.19583805 0.21571754
000250 2d 1f 65 3e 85 f6 89 3d 38 13 96 3d 21 ce de 3d
       0.22375174 0.06736473 0.073278844 0.1087916
000260 91 aa f4 3d cb 96 08 3f 1d 5a 94 3e d3 dd ad 3e
       0.119465955 0.5335509 0.28975 0.339583
000270 c6 36 db 3e d2 90 76 3e 22 73 ae 3c 37 a2 9f bd
       0.42815226 0.24078682 0.021295134 -0.07794612
000280 7a 15 89 3c 8f 65 2f 3d a6 d2 7d bd 9a d6 c3 3d
       0.016733874 0.042821463 -0.061968468 0.095624164
000290 6e 3d da 3e 32 97 57 3e fe fa 6a 3e 43 34 07 3f
       0.42624992 0.2105377 0.22947308 0.5281412
0002a0 d5 db de 3d 76 4a 42 bd 24 28 20 3e 3d 53 b7 be
       0.108817734 -0.047434293 0.15640312 -0.35805693
0002b0 24 e6 e0 be 50 ba 05 3e 8d a7 51 be 42 57 fb be
       -0.43925583 0.13059354 -0.20474072 -0.4909001
0002c0 1d 94 96 be de ef 0b bf 5c 6a 1c bf e3 d4 fa be
       -0.29409876 -0.54662883 -0.6109979 -0.48990545
0002d0 48 a6 65 3b 9f 5e 51 3c c6 85 41 3e 58 99 26 be
       0.0035041738 0.012778907 0.18898687 -0.16269433
0002e0 32 49 f7 be 28 0f 85 be a9 38 0a bf 13 f8 56 bf
       -0.4829803 -0.25988126 -0.53992707 -0.8397228
0002f0 e0 41 1d bf cd 05 3a 3f 42 c3 1d 3f ab e1 07 3f
       -0.6142864 0.726651 0.61626065 0.53078717
000300 ca 9c 9f 3e d0 72 61 3e 4c d5 ba 3d aa de 17 bf
       0.31174308 0.22016454 0.091227144 -0.59324133
000310 77 70 01 bf af fd f6 3d 17 68 95 3f 3e 90 b0 3f
       -0.5056223 0.12060105 1.1672391 1.3794019
000320 25 30 af 3f 95 37 15 3f fd a3 88 3f d6 14 8a 3f
       1.3686568 0.58287936 1.0675045 1.0787609
000330 be 38 32 bf 83 6f b6 be fd 8d bc 3e de ae 70 3f
       -0.6961783 -0.35631952 0.36827078 0.94016826
000340 8e 1d 9b 3f 67 5a d5 3f 6a bd 90 be e1 14 b0 3e
       1.2118394 1.6668214 -0.2826951 0.3439093
000350 86 73 4a 3f 2d b6 b4 bf 45 52 5f bf 0f 91 02 3d
       0.79082525 -1.4118096 -0.8723491 0.03187662
000360 71 f6 3f 3f d2 be 0c 3f 24 62 2f 3f 1d ef 8b be
       0.74985415 0.5497867 0.68509126 -0.27330866
000370 a3 f4 18 bf 05 b0 e3 be 85 df 6e be 96 b1 4e be
       -0.59748286 -0.4447023 -0.23327453 -0.20184931
000380 85 47 13 3e 0f 3a 9c 3f bd 88 cc 3f f6 2c d5 3f
       0.14382751 1.2205218 1.5979229 1.6654346
000390 d7 a1 96 3e 91 7e c9 3e 82 d1 2a 3f c7 17 c2 3e
       0.2942035 0.39354375 0.66725934 0.37908766
0003a0 ee de 2b 3f ec 71 4f 3f 79 c1 8c 3f 35 76 b5 3f
       0.6713704 0.81033206 1.0996543 1.4176699
0003b0 52 a1 d0 3f b4 97 80 3b 4d 7e 1b 3f 53 dc 3e 3f
       1.6299231 0.0039243344 0.60739595 0.7455494
0003c0 07 c3 4e bd 3e d0 04 3f 33 cb 5f 3f 6d d4 f4 3d
       -0.05047896 0.5188025 0.8741943 0.119545795
0003d0 7c 4a 66 3c 11 86 49 3d cc 55 95 be 64 4a 29 be
       0.014055844 0.04920012 -0.2916702 -0.16532284
0003e0 8d fb da 3d 84 23 3a bf 05 98 19 bf e0 46 35 bd
       0.10692511 -0.7271044 -0.5999759 -0.044257045
0003f0 de e4 1e 3e d1 bb 51 3e e7 15 ab 3e d1 21 77 be
       0.15516993 0.20481803 0.33415148 -0.24133994

down_convs.2.conv1.bias f4 [12]
000000 99 79 2d bb e3 da 13 bc 4a 0b 73 bc 6b fe 57 3b
       -0.0026470183 -0.009024355 -0.0148342345 0.0032958041
000010 45 e5 aa bb be 24 24 3a 40 32 16 3c 96 e6 33 b9
       -0.0052153193 0.00062615785 0.009167254 -0.0001715667
000020 71 b0 fe ba 5f 60 40 b8 eb 3f 30 bc 40 02 80 bb
       -0.0019431246 -4.586612e-05 -0.010757427 -0.003906518

down_convs.2.conv2.weight f4 [12, 12, 3, 3, 3]
000000 2f f2 54 3d 96 82 cf bb 63 8e 61 bc 70 e7 4b 3e
       0.051988777 -0.0063327057 -0.013766858 0.19912505
000010 b7 6c 11 3e 24 0f 11 3e 28 82 07 3e 51 30 c5 3e
       0.14201628 0.14165932 0.13233244 0.38513425
000020 03 09 cd 3d 77 fa a1 bd 63 8a 37 bd 46 8e 28 bd
       0.100114845 -0.079091005 -0.04480971 -0.041151308
000030 cd c2 63 3e bc 83 08 3e a9 d2 1e 3e c0 cd b1 bc
       0.2224228 0.13331503 0.15510048 -0.021704555
000040 bc e7 d1 3e 0c f9 b5 3e 20 a3 ae be e7 89 bc be
       0.40997112 0.3554157 -0.3410883 -0.3682396
000050 dc df 95 be 33 3f 7e 3d e8 ab ad 3c 1e db ea 3c
       -0.29272354 0.06207199 0.021200135 0.028668936
000060 3b d1 a0 3d b9 1d dd 3e 66 85 8f 3e d4 ae 1b bf
       0.078524075 0.4318674 0.28031462 -0.6081364
000070 33 12 37 bf fe 14 1a bf 15 64 8e 3e 49 40 b7 3e
       -0.71512145 -0.6018828 0.27810732 0.35791233
000080 38 5c bf 3d ce 37 4f 3f 22 1b 8c 3e 80 ce d7 3e
       0.09343761 0.80944526 0.2736445 0.42149734
000090 d0 a9 05 bf d4 01 a1 be d9 6e d8 be 95 83 a3 3d
       -0.5221224 -0.31446707 -0.4227207 0.07984082
0000a0 2a ec 2d bd 09 36 d7 bc 2d 5b c4 3e db d5 c9 bd
       -0.04246155 -0.026270883 0.38350812 -0.09855243
0000b0 ef 2c ce bd 68 15 e2 be dc 92 a7 be ce 7d 06 bf
       -0.10067164 -0.44156957 -0.32729232 -0.5253571
0000c0 0e 78 a1 bd 00 08 58 be d5 2f b3 be 7f b5 8b 3e
       -0.07884227 -0.21096802 -0.3499743 0.27286908
0000d0 87 82 a7 be 16 3b e5 be c1 17 1c bd b4 85 85 bf
       -0.32716772 -0.44771641 -0.03810859 -1.0431428
0000e0 a1 20 d2 bf fc e2 2c 3e 56 86 6a be 59 31 dd be
       -1.6416208 0.16883463 -0.22902808 -0.43201712
0000f0 c8 38 16 3f 6e 50 99 3e 99 ac 01 3f fe 00 e5 bd
       0.5868039 0.29944175 0.5065399 -0.1118183
000100 8c f4 63 bf f2 1b b3 bf dc 93 15 3e 5a a4 a9 be
       -0.89045024 -1.3992903 0.14607185 -0.33133203
000110 15 dd ee be 4e 4f ab 3e a7 8a a3 bd ea 87 1c 3e
       -0.46653047 0.33458942 -0.0798543 0.15286222
000120 6c d6 fd be b5 af 94 bf 45 02 b3 bf 51 72 a8 3e
       -0.49577653 -1.1616122 -1.3985068 0.32899716
000130 80 ef 96 bd dc da a1 be 38 91 49 3f 8e 3c 6b 3e
       -0.073699 -0.3161229 0.7873721 0.22972319
000140 1f 1e 9f 3e 4e 25 f1 bf 78 bb 5c bf 9d 84 f1 bd
       0.31077668 -1.883951 -0.86223555 -0.11792872
000150 0c b9 51 bf 5e ec e2 be 84 39 16 bd 8c b0 f2 3e
       -0.81922984 -0.4432096 -0.036675945 0.4740032
000160 f8 cf ce 3e 01 93 c5 3e b3 18 be bf 87 92 eb be
       0.40393043 0.38588718 -1.4851288 -0.4601023
000170 70 a9 d4 3e e6 24 64 bf 03 92 45 be f8 6c d6 3d
       0.4153552 -0.891188 -0.1929398 0.10470003
000180 6d 23 f4 3d 00 51 01 3e 8f 2e 92 3d 86 a3 ae bf
       0.119208194 0.12628555 0.071377866 -1.3643653
000190 92 06 fd be 72 89 77 3d 63 c3 f8 be 07 06 f4 bd
       -0.49419075 0.060433812 -0.48586568 -0.11915212
0001a0 44 0d 56 3e 0d ac b6 3d fe 97 ad 3d 6e 95 92 3d
       0.20903498 0.08919535 0.08476256 0.07157408
0001b0 3d 28 d2 3d ea ee 73 3e 40 73 ef 3e 51 c7 9a be
       0.10261581 0.23821607 0.46767616 -0.3023019
0001c0 91 1b 4a 3e 12 37 8a 3e ac 15 03 be 27 7f 0c 3e
       0.19737078 0.2699514 -0.12801236 0.1372038
0001d0 a5 f3 0a 3e 93 74 c6 3d d2 88 ba 3d f4 68 c1 3e
       0.13569506 0.096902035 0.09108128 0.37775385
0001e0 b1 45 0d be 1b 35 66 3e 9b 80 a2 3e 7e f2 89 be
       -0.13796116 0.22481196 0.31738743 -0.2694282
0001f0 a9 68 a8 bc df 1c 0d 3d b6 34 88 3e 22 ae 69 3e
       -0.020557718 0.03445136 0.26602715 0.22820333
000200 69 9a 88 3e 90 3f 80 be e4 7d 30 3d c6 0d 2b 3e
       0.26680306 -0.25048494 0.04308881 0.16704473
000210 df 92 cc be c6 96 1a be 70 42 e0 bb 96 52 b7 3f
       -0.39955804 -0.15096578 -0.0068438575 1.4322078
000220 53 b5 77 3f 98 4b 1d 3f 73 83 88 3f b6 a3 27 3f
       0.96761054 0.6144347 1.0665115 0.6548418
000230 f8 a0 41 3f 0e 03 8c 3e 2d ba 89 bd 3b 6b 6b 3e
       0.75636244 0.2734608 -0.06724963 0.22990124
000240 74 db 98 3f 5e f2 2d 3f 67 ff 96 3e f5 4e 3a 3f
       1.1941972 0.6794795 0.29491732 0.7277673
000250 2c 7a 3c 3e 60 8c 92 3e 59 dc b0 bd 2a fd 97 be
       0.1840598 0.28622723 -0.08635778 -0.29685336
000260 7b 13 20 be f2 d1 4a 3f 24 b4 a6 3e f5 08 71 3c
       -0.15632431 0.792266 0.3255931 0.014711608
000270 69 4d 1d 3f f4 72 8d 3d b4 cc fb 3d c8 78 4a bd
       0.61446244 0.06906691 0.122949034 -0.049431592
000280 20 9d 7d be 2e e5 73 bd 32 70 1f be bc 78 5e 3e
       -0.2476697 -0.059544735 -0.15570143 0.21725744
000290 e9 1a cc 3d 73 1d 00 bf 9e 91 1e 3e ce e1 38 3e
       0.0996607 -0.50044936 0.15485236 0.18054888
0002a0 ad 74 08 be 3d 61 64 bc 7d 02 24 3f 43 da 4c be
       -0.13325758 -0.013939199 0.64066297 -0.20005135
0002b0 ce 58 9f 3e 29 7c 9b 3e 3e 6e c7 bd 2b 42 ae 3e
       0.3112244 0.30368164 -0.09737824 0.34034857
0002c0 7b ea cf 3e ab b3 5e 3c 9f d2 96 3d 1f ef dc 3e
       0.40608582 0.013592641 0.073643915 0.43151185
0002d0 39 b7 1f bf c5 50 4b bd 96 0e 07 be 22 9b a0 be
       -0.6238895 -0.049637575 -0.13189158 -0.31368357
0002e0 ac cd 4f 3e ef a7 70 3e 8f 9d 35 3d 67 a9 8f 3e
       0.20293301 0.23501562 0.044339713 0.2805893
0002f0 c3 1f ca 3e e1 34 89 be ed 1a ad 3c 0e 71 81 3d
       0.39477357 -0.26798156 0.021131003 0.063203916
000300 32 4b f4 bd 5c ba 30 bc ef 87 67 bd ff 2d 3c bd
       -0.11928405 -0.010786619 -0.05652612 -0.045942303
000310 0a 7f 73 3c 33 f1 ea bc b2 ab 57 be 4c aa 19 bd
       0.014861831 -0.028679466 -0.2106159 -0.037515923
000320 d2 8d 4b 3d 60 64 dc bd 0a ad 7e 3d f0 47 c1 3d
       0.049695797 -0.107613325 0.06217674 0.09437549
000330 37 3f 26 3e 07 b7 03 3e 58 f4 46 3d 0c 41 a1 be
       0.16235052 0.12862788 0.048572868 -0.3149494
000340 e3 2c 58 be c9 10 77 be 24 97 55 be 18 61 01 be
       -0.21110873 -0.24127497 -0.20858437 -0.12634695
000350 b5 6b d8 bd 1d 15 f6 bd 17 ba 14 bd 37 76 51 3d
       -0.105674185 -0.12015746 -0.03631028 0.05113813
000360 f1 ee ae 3e 66 d9 22 bd ad 5f 7b 3c 3f 59 a6 3e
       0.34166673 -0.03975811 0.015342635 0.32489964
000370 51 7f 82 3d 61 97 5d 3e 95 75 39 3e 41 2a 54 b9
       0.0637194 0.21639778 0.1811126 -0.00020233636
000380 a2 32 66 3d 8e 3e 5d 3e a0 b4 ee bd 3b fd 73 bd
       0.05620063 0.21605894 -0.11655545 -0.05956767
000390 62 57 9a 3e 1f ee 80 3e 22 9d 8a 3e 54 5f a3 3d
       0.30144793 0.25181672 0.27073008 0.07977167
0003a0 61 b7 c6 bd 43 53 3e be fb 4b b6 3d 7a f8 6f bd
       -0.097029455 -0.1858645 0.08901211 -0.058586575
0003b0 c8 82 0a be bf 1d 8a 3e 85 21 0e 3e d5 7e 63 3e
       -0.13526452 0.2697582 0.13879974 0.22216351
0003c0 54 70 28 be bf cb aa be 29 17 d0 be 10 33 e4 3e
       -0.164491 -0.3335857 -0.4064267 0.44570208
0003d0 6a ac f0 bc 89 fa a5 be f4 e7 e5 3e de e6 f5 3e
       -0.029379088 -0.32417706 0.4490353 0.480277
0003e0 d1 44 56 3e a5 c6 94 bd ac 1d 06 bc e8 d3 31 be
       0.20924689 -0.07264451 -0.008185785 -0.17365992
0003f0 98 6e 2a 3c 97 20 b8 be 95 84 a7 be 41 95 b2 3e
       0.010402344 -0.35962364 -0.3271834 0.34879497

down_convs.2.conv2.bias f4 [12]
000000 00 6d 42 3c b2 6b 6a 3c 89 e7 99 bc 09 b9 33 3b
       0.011866808 0.014307903 -0.018787162 0.0027423522
000010 96 14 b6 bb 1e e1 1f b9 20 2c b2 ba 69 72 cb bb
       -0.0055566533 -0.00015247284 -0.0013593473 -0.006208707
000020 44 47 ba 3c 7a b1 05 bc 59 70 85 3c e3 aa 7b ba
       0.02273906 -0.0081599895 0.016288923 -0.0009600354

down_convs.2.norm0.weight f4 [12]
000000 70 e6 33 3f 09 2e 7c 3f 40 ae be 3f 74 7b c2 3f
       0.70273495 0.98507744 1.4896927 1.5193925
000010 66 a3 b6 3f 61 8f b1 3f 31 8c 9a 3f 6d 1b 4d 3f
       1.4268615 1.3871881 1.2074033 0.80119973
000020 e2 46 f0 3e cb 2d 78 3f b4 73 a0 3f fb c4 96 3f
       0.4692908 0.96944875 1.253531 1.1778864

down_convs.2.norm0.bias f4 [12]
000000 46 b6 88 be 35 86 4f 3c 94 5f 93 be 95 66 34 bf
       -0.26701564 0.012666275 -0.28783858 -0.7046903
000010 ce 5d b6 3e 67 83 7e bc 39 46 11 3e 24 78 89 3e
       0.35618442 -0.015534258 0.14186944 0.26849473
000020 25 40 6b 3e 92 08 5a be 45 59 50 bf d0 47 a1 3e
       0.22973688 -0.21292332 -0.81386214 0.315001

down_convs.2.norm0.running_mean f4 [12]
000000 93 b9 34 3f f2 3a 4d 41 f0 93 26 41 c5 39 c2 40
       0.70595664 12.826891 10.411118 6.069552
000010 da 6f 95 3e bb 43 0a 41 49 6f 84 40 6e a7 8e c1
       0.29186898 8.641536 4.1385846 -17.831753
000020 49 1b 90 c0 dc bd 10 c1 e7 d7 24 41 81 2a f3 bf
       -4.5033307 -9.046352 10.302711 -1.8997346

down_convs.2.norm0.running_var f4 [12]
000000 7e 03 96 42 80 f3 70 43 d1 8b 15 43 6a 73 2a 43
       75.00682 240.95117 149.54616 170.45084
000010 1d 58 ef 43 d1 68 af 43 07 80 df 42 39 71 e3 44
       478.6884 350.81888 111.75005 1819.5382
000020 b6 82 d3 43 4f 7f 86 43 bc 40 31 43 cf a9 d8 43
       423.02118 268.9946 177.25287 433.32663

down_convs.2.norm1.weight f4 [12]
000000 0c af 7c 3f 70 c5 b1 3f d9 76 8c 3f 54 cc 01 40
       0.987046 1.3888378 1.097377 2.0280962
000010 39 ca bf 3f 50 b8 0b 3f a2 86 01 3f 6e 87 2a 3f
       1.4983588 0.54578114 0.5059606 0.666129
000020 ad d9 0a 40 90 50 aa 3f 8d f3 79 3f d2 9f 98 3f
       2.1695359 1.3305836 0.97637254 1.1923773

down_convs.2.norm1.bias f4 [12]
000000 a5 8c fe bd a4 12 85 3e 5f 5b d4 3c b2 e6 b0 be
       -0.124291696 0.25990784 0.025922475 -0.34551007
000010 d1 22 67 bf 04 fc a6 be 4f 7e 72 bf d1 48 06 bf
       -0.902875 -0.32614148 -0.9472398 -0.5245486
000020 56 df a5 3c 56 ce 34 3f 16 3a 0a 3b 25 7e d7 be
       0.020248096 0.70627344 0.002109175 -0.42088428

down_convs.2.norm1.running_mean f4 [12]
000000 5d d2 4e bf 2d 04 04 c1 84 28 d3 c0 4b 91 6f c1
       -0.8078974 -8.2510195 -6.5986958 -14.972972
000010 73 08 dc 40 11 7a 4b 40 1c 44 b2 41 e1 00 b0 bf
       6.8760314 3.1793253 22.283257 -1.3750268
000020 e7 0a 67 c1 ef 49 56 c1 9d 52 bc c1 e4 8b df c1
       -14.440162 -13.39305 -23.540339 -27.943306

down_convs.2.norm1.running_var f4 [12]
000000 88 4c 12 43 22 0f 25 43 39 75 1b 43 6f 58 ab 43
       146.29895 165.05911 155.4579 342.6909
000010 10 88 ac 42 f9 7b ff 43 42 97 99 43 73 66 df 42
       86.26575 510.96854 307.1817 111.700096
000020 96 d4 b8 43 69 ee 72 43 7f 13 39 43 28 35 98 43
       369.66083 242.93129 185.07616 304.41528

down_convs.3.conv1.weight f4 [24, 12, 3, 3, 3]
000000 05 b2 f2 3d 5b 26 b3 3d a2 33 c2 3e e5 0a 4f 3c
       0.11850361 0.0874755 0.37930018 0.012636875
000010 f8 5c 95 be 63 4b 5f bd 1e 7a e9 be c2 6a 51 bd
       -0.29172492 -0.054515254 -0.4560098 -0.051127203
000020 28 1f 1f 3f a5 7e be bd 8b 7f ac bc cb 74 d2 3d
       0.62156916 -0.09301499 -0.021056911 0.10276183
000030 16 5c 7b bd 10 f3 5d be fb 16 83 bd b5 5a 5b 3e
       -0.061367117 -0.21674752 -0.064008676 0.2142132
000040 d7 fe 5d 3f 6c 7a 80 3f dd dd 1e be 44 3c 81 be
       0.8671698 1.003736 -0.15514322 -0.25241292
000050 0e 97 26 be 46 35 05 3d ad 93 6f bd 48 cf a9 bd
       -0.1626856 0.03252151 -0.058490444 -0.08291489
000060 c2 56 98 3f 8b 65 9e 3f 63 60 d7 3e 31 30 61 bf
       1.1901476 1.2374738 0.42065725 -0.8796416
000070 99 88 bc bd 49 01 0a be 1b 08 2b be cd a8 bc 3e
       -0.092057414 -0.13477053 -0.1670231 0.36847535
000080 e7 07 37 bf f9 91 fb 3e d2 5b 85 3e 77 e2 8a bd
       -0.71496433 0.49134806 0.26046616 -0.06781476
000090 a3 d9 28 be 96 f1 fb 3d 5f 4c 68 3d 27 45 30 3e
       -0.16489272 0.12301938 0.05671346 0.1721388
0000a0 fa f4 21 3f 28 31 1e be 54 be d0 bd 5f 3c 33 be
       0.6326443 -0.15448439 -0.10192552 -0.17503498
0000b0 68 c2 be be a7 ad c1 bd bb 88 87 3d f0 bc 56 3e
       -0.37257695 -0.0945695 0.06617876 0.20970511
0000c0 19 71 87 bf 4d 02 7e be f7 40 88 be 3b 91 48 bf
       -1.058139 -0.24805565 -0.26612064 -0.78346604
0000d0 03 f6 1b bf b0 49 17 bf 8d 15 60 3e 1b 5d 50 3e
       -0.6092226 -0.59096813 0.21883221 0.20348017
0000e0 a1 2f 16 3f 28 51 11 3e 73 1a cf 3e 42 7d 8d 3f
       0.58666426 0.14191115 0.40449867 1.1053851
0000f0 8f aa ab be 74 bf ca 3c 46 17 eb 3e d4 b8 b6 3e
       -0.33528563 0.024749495 0.45916194 0.35687888
000100 29 90 27 3f 0e 32 6c 3f 03 1e 21 3f 7d c0 bc 3f
       0.65454346 0.9226388 0.6293642 1.4746243
000110 c3 1a 94 3f 76 28 83 3d 17 c3 04 3f af 28 97 3e
       1.1570667 0.06404202 0.51860183 0.29523227
000120 28 3c 02 3f f8 95 29 3f d5 e9 cf 3e 6f c0 6f 3f
       0.5087304 0.6624446 0.40608087 0.93653005
000130 19 04 86 3f e2 5e 11 3e 43 a7 31 3f fa b6 79 3e
       1.047 0.14196351 0.69395846 0.24386206
000140 22 24 90 be a0 4a 41 3f c2 2a 4e 3f ad bd 0d 3f
       -0.28152567 0.75504494 0.80533993 0.5536755
000150 36 86 ac be cf 24 c6 3e d8 ec e8 be 8b 99 1f 3e
       -0.33696145 0.38699958 -0.45493197 0.15585916
000160 79 d6 df 3e 54 c5 9a be 20 d8 97 3f 98 ca 37 3f
       0.43718317 -0.30228674 1.1862831 0.7179351
000170 d4 41 81 3e e0 c4 23 3f 7b 70 b6 3f da 9d 03 3f
       0.25245535 0.6397228 1.4253076 0.5141274
000180 09 e8 96 3e f2 9f 05 3f c1 dd 3f 3e 84 3a 77 3f
       0.29473904 0.5219718 0.18736936 0.9657366
000190 34 ed 08 3f 65 99 c9 bd 3a 4f 98 3e 9a 5c 97 3f
       0.53486943 -0.09843711 0.29747945 1.1825135
0001a0 c2 4a c6 3e d0 0d 06 be b7 77 43 3e 22 11 26 be
       0.3872891 -0.13091207 0.19088636 -0.16217473
0001b0 f9 f1 17 bf 37 75 c6 3d 3b f9 09 bf 84 2b 42 be
       -0.59353596 0.09690326 -0.5389592 -0.18961912
0001c0 c1 45 9f be b5 6c 7d bf 1d a9 17 3e e9 28 08 bf
       -0.31107906 -0.98994 0.14810605 -0.53187424
0001d0 b9 ed 03 bf 1f 36 f7 bc 50 cc e8 3e b3 2e 0c bc
       -0.5153461 -0.030177174 0.45468378 -0.008556056
0001e0 2b 1b 8a be d7 ce 5c bd 2f 9c a7 be 76 9d d6 be
       -0.26973853 -0.053908195 -0.32736346 -0.41917008
0001f0 7b d7 17 bf d9 88 e7 be 90 2e a7 be e6 f0 7e 3e
       -0.5931317 -0.45221594 -0.32652712 0.24896583
000200 5a 46 ab 3e c2 b8 5b bf 37 6e 91 be 3b 49 9d 3d
       0.3345211 -0.85828793 -0.284044 0.07679983
000210 fd 85 13 bf a6 a6 ed be 0a b6 97 be fe 59 8c be
       -0.57626325 -0.46416205 -0.29631072 -0.2741241
000220 0a 07 24 3d fd b4 73 3d 24 da 12 3f f2 e9 54 3f
       0.040045775 0.059498776 0.57364106 0.8316947
000230 fa a8 48 3f 72 a9 89 3d d9 c2 9d 3e 59 f1 35 3f
       0.7838284 0.06721772 0.3081272 0.7107139
000240 71 7e 08 bc 46 f1 bb 3e e0 1d d8 3e 74 b5 00 3f
       -0.008330927 0.36707515 0.42210293 0.50276875
000250 b5 f1 28 3f 10 e7 f4 3e fc 97 43 3e b8 0e 5b 3e
       0.65993816 0.47832537 0.19100946 0.21392334
000260 45 54 40 3e 32 8b 50 bb 07 02 57 3e 39 14 2a 3e
       0.18782146 -0.0031821248 0.20996867 0.16609277
000270 c3 d7 12 3f a8 59 96 3e de fb 2b 3e 56 1d 13 3f
       0.57360476 0.29365277 0.16795298 0.5746664
000280 f8 aa b7 3e 5a 8c 59 3e 0a 12 1a bf 24 ed 8d be
       0.35872626 0.21244946 -0.60183775 -0.27719986
000290 42 5c d9 be ed 57 76 bf bb 7e 35 bf 0d 0a 66 bf
       -0.424532 -0.96227914 -0.708965 -0.89859086
0002a0 d4 59 82 3e 4c ce 1f 3e 4f 40 0f 3e 0c 54 04 be
       0.25459158 0.1560604 0.13989376 -0.12922686
0002b0 7e 05 2d 3d b5 66 6e be c2 86 0f bf 23 45 84 be
       0.042241566 -0.23281367 -0.56065 -0.25833997
0002c0 e1 84 17 bf 75 c0 ae bd 75 7f ba bd 2b 5d c7 bd
       -0.5918713 -0.08532802 -0.09106342 -0.09734567
0002d0 8c b1 f2 bd 3a 6b c3 3d 79 12 cb bd c0 20 67 bf
       -0.11850271 0.09541936 -0.09915633 -0.9028435
0002e0 9b f6 18 bf 68 a4 4c bf 46 6b ad be 12 d4 af be
       -0.5975129 -0.79938364 -0.33870906 -0.34341484
0002f0 c8 08 9f be 7a 2e 4d be b5 9b b7 be e3 91 59 be
       -0.31061387 -0.2003726 -0.35860983 -0.21247058
000300 3b 1d f0 3e bb 73 88 3e ee 33 08 3f 90 24 28 3f
       0.468973 0.26650795 0.5320424 0.6568079
000310 09 8b 1f 3f 9d 90 f0 3e fe cc e3 bd c7 b9 11 bd
       0.62321526 0.4698533 -0.111230835 -0.03557756
000320 72 99 2d 3d 65 57 d5 3e 4e 2f 8a 3e 17 26 c1 3e
       0.042382665 0.4166824 0.26989216 0.37724373
000330 f7 78 13 3f 79 af d5 3e 08 9b a9 3e 37 4a 89 be
       0.5760645 0.41735438 0.33126092 -0.26814434
000340 dc 03 83 3d 1d 64 32 bc 95 e3 be 3e 38 62 7c 3e
       0.063972205 -0.010888127 0.37283006 0.24646842
000350 36 ca 9f 3d 2a 0a 2e 3f e6 e0 f2 3e a8 43 c7 3e
       0.078022406 0.6798426 0.4743721 0.38918805
000360 85 51 a7 3e 84 87 18 3e 5d c4 a6 3e 68 15 8e be
       0.32679382 0.14895445 0.32571688 -0.27750707
000370 04 96 e4 3e af 44 85 be 96 5a 16 3e 56 f7 10 3f
       0.44645703 -0.26028964 0.14682993 0.56627405
000380 97 e2 a4 be 50 bf 0e 3f 7d e6 91 3e 08 f4 1f 3e
       -0.32204124 0.5576067 0.2849616 0.15620434
000390 e5 b7 61 3f 68 e1 98 3f bf 8e cd 3e ff 51 32 3f
       0.88171226 1.1943789 0.4014797 0.69656366
0003a0 75 a9 34 3f c7 50 13 3d d4 54 50 3f c4 1e 1c 3f
       0.7057107 0.035965707 0.8137944 0.60984445
0003b0 d2 b1 76 3e f6 f6 1b 3f 14 39 60 3f f6 12 53 3e
       0.2409127 0.6092371 0.87587094 0.20612702
0003c0 d8 a3 03 bd 2e 40 18 3e e5 fc 28 be c4 63 32 be
       -0.032138675 0.14868233 -0.16502722 -0.1742087
0003d0 a3 9d 19 3e 09 7c 99 3e 5f 6b bf 3e 8a 92 14 3f
       0.1500154 0.29977444 0.37386605 0.580361
0003e0 c5 92 0c 3f 9a 87 21 bd c5 70 9d 3c a9 b7 aa 3e
       0.5491145 -0.03943596 0.019218812 0.33343247
0003f0 83 14 8a 3e 1d c4 2f 3f 51 f0 5b 3f 02 c0 72 3f
       0.26968774 0.6865862 0.8591357 0.9482423

down_convs.3.conv1.bias f4 [24]
000000 d7 92 5e b9 9b 04 fb 3a 87 6c d4 38 6d bc 1e 3a
       -0.00021226272 0.0019151153 0.000101291625 0.00060552993
000010 15 fc 97 ba 18 4b 64 38 08 97 8d 39 91 a9 5f ba
       -0.0011595512 5.4429373e-05 0.00027006143 -0.0008532042
000020 e6 29 1d 37 d1 15 f3 37 c8 2e 9e 3b c8 99 7d 39
       9.3676845e-06 2.8978016e-05 0.004827354 0.00024185248
000030 05 2a 92 39 d0 30 87 b7 5d 3b 92 ba 41 a3 63 3b
       0.00027878597 -1.6115984e-05 -0.0011156608 0.0034734758
000040 4b 09 ea b4 25 00 1a b7 83 9c 39 b7 11 09 f4 b8
       -4.3592658e-07 -9.179149e-06 -1.10633e-05 -0.000116365154
000050 71 88 52 b7 e1 be cf b9 cd 74 3b 3b f2 03 59 3a
       -1.2548743e-05 -0.00039624333 0.0028603554 0.0008278481
