outputs/outputs_full_mask/epoch_10_model.pth (torch, 694790 bytes, 241 tensors)

down_convs.0.conv1.weight f4 [3, 1, 3, 3, 3]
000000 f6 6f 21 3e c7 1e 4f 3e 9e 02 a7 3e a1 8a 0d be
       0.15765366 0.20226584 0.32619184 -0.13822414
000010 59 52 44 3e d5 21 12 3e 9d e2 1d bf 77 92 af bd
       0.19172038 0.14270718 -0.6167391 -0.08572858
000020 3e e8 c4 be a2 77 8e 3e bb 24 a2 3f bc 00 30 3f
       -0.38458437 0.27825648 1.2667459 0.6875112
000030 98 a2 dc 3d 72 43 80 3f e4 41 2f 3f 3b ff ac be
       0.107732 1.0020583 0.68459916 -0.33788475
000040 19 00 c1 bd 78 57 42 3e 18 58 6f 3e 18 9d e1 3e
       -0.09423847 0.18978679 0.23373449 0.44065166
000050 f9 8b 70 3e 4e 19 39 be d6 c8 e2 3e 30 0c 02 3f
       0.23490895 -0.18076059 0.4429385 0.50799847
000060 64 da d3 be 37 2c f9 3c f8 55 ba 3b 9a aa fd be
       -0.41377556 0.030416591 0.005686518 -0.4954422
000070 76 4f 5d be 00 c1 da be aa 1f 19 be 14 dd 58 3e
       -0.21612343 -0.42725372 -0.14953485 0.21178085
000080 80 f4 a8 3d e5 1d 95 3e 83 02 17 3f f1 a0 3f 3e
       0.0824976 0.2912437 0.5898821 0.18713738
000090 16 8d f2 be 27 a4 90 be 07 8b 0d bf 65 57 a4 3c
       -0.47373265 -0.28250238 -0.55290264 0.020061204
0000a0 79 6c 0f 3e 06 72 14 3e b1 ac 44 3f 50 cf 5c 3f
       0.14006223 0.14496621 0.76826006 0.86253834
0000b0 e8 e5 00 3f 27 6f 01 bf ae a3 83 be 07 1c f1 be
       0.5035081 -0.5056023 -0.25710815 -0.47091696
0000c0 b5 91 0a be 3e 03 e1 3d 28 81 73 be fd d8 d3 3e
       -0.13532145 0.109869465 -0.23779738 0.41376486
0000d0 0b 84 27 3f 53 28 1b 3f 8a 6e 67 3e 6f 96 3e 3f
       0.65435857 0.60608405 0.22600761 0.74448293
0000e0 6f 3f cb 3e 59 c3 64 bd 89 4d d6 3c 0c ef 06 3e
       0.39696833 -0.05585036 0.026160019 0.13177127
0000f0 e6 69 19 bf 5b c0 d2 be 21 b8 19 bf 84 89 2e 3f
       -0.59927213 -0.4116238 -0.60046583 0.6817858
000100 a3 bd b6 3f 13 a5 27 3f b9 79 f4 3d 4d 7a d3 3e
       1.4276623 0.6548626 0.11937279 0.41304246
000110 0d c9 ce 3e cb 1a e5 be 7d 6d 3c be 9d 53 4d be
       0.40387765 -0.44747004 -0.18401141 -0.20051427
000120 86 3c c8 3d 31 dd 64 3f 4e c2 8e 3e d0 93 57 3e
       0.09777169 0.8940001 0.27882618 0.2105248
000130 40 a1 67 3e b7 4f b0 3d 36 c3 cb be ea ee d1 be
       0.22620106 0.086089544 -0.39797372 -0.4100259
000140 07 18 44 be
       -0.1914979

down_convs.0.conv1.bias f4 [3]
000000 52 63 34 be 58 c2 ff bd d3 d0 d3 3c
       -0.17616013 -0.1248824 0.025856411

down_convs.0.conv2.weight f4 [3, 3, 3, 3, 3]
000000 10 e7 a6 be 31 7d ba be 0e b6 6e be d9 66 cc ba
       -0.32598162 -0.36423638 -0.23311636 -0.0015594616
000010 28 f2 00 be 65 38 75 be 94 9c 00 3e db b3 9b 3d
       -0.12592375 -0.23947294 0.1255973 0.07602664
000020 00 d2 31 be 52 a6 95 be a6 2a 14 be b9 fc 71 be
       -0.17365265 -0.29228455 -0.14469394 -0.23631562
000030 01 59 31 be 9d 49 d8 bd b0 77 24 be 57 02 23 3e
       -0.17319109 -0.105609156 -0.16061282 0.15918861
000040 dc 17 a5 3d 4a 1f c0 3d cd 8b 8e be 66 10 f4 bc
       0.080611914 0.09380968 -0.27841035 -0.029792976
000050 99 47 65 be 8c 09 c4 3c 51 2c 4f be 98 d0 a6 be
       -0.22390594 0.023930334 -0.20231749 -0.3258102
000060 34 f5 e6 3d 73 75 f4 3d 2c 92 7e 3e e5 37 85 be
       0.112772375 0.11936464 0.24860448 -0.26019207
000070 61 2a c6 bd 29 cd a0 3c 5c a4 d1 3e 96 80 1d 3f
       -0.09676052 0.019629078 0.4094571 0.6152433
000080 7f 9c c6 3e 4a 11 26 3f 08 17 6c 3f 8b 71 85 3f
       0.38791272 0.6487013 0.9222264 1.0425276
000090 bc 8d 67 3e 33 e7 0b be ce 37 2d be f3 7f 2f 3f
       0.22612661 -0.13662414 -0.16915819 0.6855461
0000a0 c8 36 8c 3f b5 ba 26 3f 33 1e 94 3f ca 0f 98 3f
       1.0954218 0.6512864 1.1571716 1.1879818
0000b0 cf 17 81 3f 42 c1 11 be 2c 24 c9 bd b2 64 82 3d
       1.0085391 -0.14233878 -0.09821352 0.06366862
0000c0 c6 e9 d5 3e 2f 87 1d 3f 16 2c 04 3f 9b 1d 57 3f
       0.41779917 0.615344 0.5162977 0.8402955
0000d0 cd 8f 97 3f a1 70 5c 3f 30 31 c6 be 84 2f bb be
       1.184076 0.8610936 -0.38709402 -0.3655969
0000e0 10 bb 52 be b6 89 e7 be 46 ea ee be 6b 28 fc be
       -0.20579171 -0.45222253 -0.4666311 -0.49249586
0000f0 aa df 93 bd aa 9b db bd a8 1b 2c be de 7f 3c be
       -0.07220395 -0.1072305 -0.16807425 -0.18408152
000100 c6 69 f7 be 2d 62 ce be bc 44 f6 be 60 87 16 bf
       -0.48322886 -0.40309277 -0.48099315 -0.58800316
000110 e7 7c 15 bf 92 f8 43 be c8 04 86 3d f6 7e 43 bc
       -0.5839371 -0.19137791 0.06543881 -0.011932125
000120 4e 13 c9 be 5f a1 b3 be 44 3e e6 be 31 51 de be
       -0.3927254 -0.35084054 -0.4496938 -0.4342132
000130 f6 3e ce be 4c d2 81 be da 43 0d be 5d 97 d2 3b
       -0.4028241 -0.25355756 -0.13795415 0.0064267353
000140 80 64 8e be a3 6a 83 bd fe 3b 55 3d 7b a8 7b 3e
       -0.2781105 -0.06416824 0.052059166 0.24575989
000150 de 35 52 be 4b f9 a0 be 08 c9 46 be 38 10 a9 be
       -0.20528361 -0.31440195 -0.19412625 -0.33020186
000160 9a b2 e0 be d8 10 f0 be f7 dd 82 bd 75 0c 6c 3d
       -0.43886262 -0.4688785 -0.06389993 0.057629067
000170 4f 81 bb 3e 87 44 e6 be 5a 7c 96 be 7c f6 7c bd
       0.36622092 -0.44974157 -0.29391748 -0.061758503
000180 21 c2 2a bf d8 7a de be bc 4b 9d be 33 0c 2f 3d
       -0.6670247 -0.43453097 -0.30721843 0.042736243
000190 93 eb b8 3d e2 ee 9d 3e 7d 5a 04 3d 0c df 84 be
       0.09029307 0.30846316 0.03231286 -0.2595142
0001a0 c2 36 2a 3e a7 02 e0 be bb db 8e be 77 cd af be
       0.16622451 -0.43752024 -0.27902016 -0.34336445
0001b0 02 85 56 be cd 24 bc be d6 38 56 be a6 04 f8 bd
       -0.20949176 -0.36746827 -0.20920119 -0.121102616
0001c0 02 07 9b be 1a dc b1 be e3 76 72 be 95 62 3e 3e
       -0.30278784 -0.34738237 -0.23678164 0.18592294
0001d0 59 86 ad 3c 69 bc b2 be 66 79 ab be 40 68 92 be
       0.021182226 -0.3490937 -0.33491057 -0.2859516
0001e0 77 ea 0a bf bc bb 4d be 24 01 a1 be 11 e2 8b 3e
       -0.54264015 -0.20091146 -0.31446183 0.27320912
0001f0 99 6b 3e 3e 5a cb 51 3e 88 c8 05 bf 01 e4 c2 be
       0.18595733 0.20487729 -0.5225911 -0.38064578
000200 7c 91 3f be 8a 1d 73 be e7 33 c5 be 26 2f d1 be
       -0.18707842 -0.23741737 -0.3851616 -0.40856284
000210 00 a1 b5 bb a5 c3 39 3d ff d4 03 be 5c 54 20 3e
       -0.0055428743 0.045352597 -0.1287422 0.1565718
000220 6c 6b 79 3d 2b 16 70 3e a8 b4 92 be 01 01 0d be
       0.06089346 0.23445956 -0.28653455 -0.13769914
000230 18 c0 41 3d b3 f4 35 be ae 4e a9 be 41 28 bb be
       0.047302336 -0.17769127 -0.3306784 -0.3655415
000240 62 58 ba 3d c9 35 92 3e 67 86 5e 3e 54 fc 9d be
       0.09098889 0.2855666 0.21730958 -0.30856574
000250 6c 15 f2 be 5b a7 27 be 37 63 fb be 90 14 0b bf
       -0.4728197 -0.16372435 -0.49099132 -0.5432825
000260 02 35 eb be e3 7e a8 3e 00 eb 7a 3e ee e0 4a 3e
       -0.4593888 0.32909307 0.24503708 0.19812366
000270 6f db 0b be 69 77 0b be 62 48 c1 3d 12 37 91 be
       -0.13657926 -0.1361977 0.09437634 -0.28362328
000280 98 de 6a be b5 ae 9d be df be 04 3f 0f fe 0f 3f
       -0.22936475 -0.30797353 0.51853746 0.5624704
000290 db d8 6a 3d 53 a1 98 3e 0b 08 d4 3e 6c f2 8f bd
       0.057335716 0.2981058 0.41412386 -0.0702866
0002a0 b3 11 c8 3d dd 37 f1 3d 73 d8 a4 be fa b2 a1 3f
       0.09769001 0.11778233 -0.32196388 1.2632744
0002b0 5b 16 96 3f df 77 d0 3e 85 11 01 3f 93 c8 56 3f
       1.1725572 0.40716454 0.5041736 0.838998
0002c0 7e 9a 28 3e 11 9b 51 3d 36 a5 0a 3e d1 53 ff 3c
       0.16465184 0.051173273 0.13539585 0.031167896
0002d0 02 22 27 3f 40 48 59 3f da 6e 92 3e 11 69 aa 3e
       0.65286267 0.8487587 0.28600198 0.33283284
0002e0 77 67 be 3e fa 1d 33 be 11 5b d2 bd 05 1a 3f bc
       0.37188312 -0.17491904 -0.10271276 -0.011663918
0002f0 e7 a4 6e 3e 07 31 b5 be 06 a9 84 be cb 63 88 be
       0.23305093 -0.35388967 -0.25910205 -0.26638636
000300 fe 99 e1 3a 49 02 d8 3c 35 98 9b 3e da fc f0 3d
       0.0017212031 0.026368277 0.30389562 0.117669776
000310 c6 2b 3b bd 39 9d 8a 3e 51 36 60 be 1d 70 a8 be
       -0.045696042 0.27073076 -0.2189572 -0.32898036
000320 04 05 05 bf d5 ff 85 3e a7 c3 8e 3d 7f c8 34 3e
       -0.5196078 0.26171747 0.069709115 0.17654608
000330 a2 03 56 3d 07 dc 61 3e b7 a0 82 3e b2 fa d0 bd
       0.05224956 0.2205659 0.2551324 -0.10204066
000340 f8 5b f6 39 80 df 94 be af b5 c4 3e 74 16 f8 3e
       0.00046989298 -0.29076767 0.38419864 0.4845463
000350 37 cc b5 3e 01 9e 3a 3e 48 32 8e 3e 31 33 dd 3e
       0.35507366 0.18224336 0.27772737 0.43203118
000360 ad 7b 7c 3e af 1f 0b 3e 69 c5 50 3d ac 44 b5 3e
       0.24656554 0.13586305 0.050969515 0.35403955
000370 db a8 01 3f f8 bd a7 3d 64 e3 84 3c 27 bb 5e 3e
       0.5064828 0.081905305 0.01622171 0.2175108
000380 a6 b9 b6 3c 58 c3 08 3f 6a 56 69 3f c6 1d 4b 3e
       0.022305321 0.5342307 0.9114748 0.19835576
000390 cc b8 ba 3e 74 80 82 3f 32 f0 de 3e f1 52 60 3e
       0.36469114 1.0195451 0.4354263 0.2190664
0003a0 6c 47 9e 3e 6a db 06 3e e2 34 97 3e 88 ab 00 3f
       0.30913866 0.13169637 0.29532534 0.50261736
0003b0 04 c0 a3 3e df f0 48 3e a0 41 0d 3f 8b ae 6d 3e
       0.31982434 0.19623135 0.5517826 0.23211114
0003c0 3f 7f 8a 3d a6 86 21 3e 55 1f 0a be
       0.067625515 0.1577402 -0.13488515

down_convs.0.conv2.bias f4 [3]
000000 51 42 95 bd 91 49 4b bf 28 6c 31 bf
       -0.072880395 -0.7940913 -0.6930566

down_convs.0.norm0.weight f4 [3]
000000 21 d0 87 3f 53 b8 a5 3f 2e d9 6b 3f
       1.0610391 1.2946876 0.92128265

down_convs.0.norm0.bias f4 [3]
000000 08 1e 4a be 1f 9a 00 bf 02 f2 94 3d
       -0.19738019 -0.5023517 0.07272722

down_convs.0.norm0.running_mean f4 [3]
000000 be 81 4b be 52 5f 9c bd 8b 84 0c bc
       -0.19873711 -0.076353684 -0.008576523

down_convs.0.norm0.running_var f4 [3]
000000 35 5e bd 41 30 f2 b0 40 8e e8 5c 41
       23.671 5.529564 13.806776

down_convs.0.norm1.weight f4 [3]
000000 eb a1 8b 3f 1a 89 48 3f 9c 28 81 3f
       1.0908788 0.783342 1.0090518

down_convs.0.norm1.bias f4 [3]
000000 25 78 a4 be a7 30 7f 3d 8a e3 24 bd
       -0.32122913 0.062302258 -0.04025606

down_convs.0.norm1.running_mean f4 [3]
000000 e3 fd 36 be 95 b5 82 c0 07 5c 93 40
       -0.17870288 -4.084666 4.604984

down_convs.0.norm1.running_var f4 [3]
000000 0f 84 06 43 0b 4f b1 42 9d 57 16 43
       134.51585 88.65438 150.34224

down_convs.1.conv1.weight f4 [6, 3, 3, 3, 3]
000000 83 62 bb be 2d 12 d0 be 5c 00 01 bf 5c 75 10 3e
       -0.36598596 -0.40638867 -0.50391173 0.14107269
000010 62 2f 82 3e 28 53 db 3d bf ba 07 bf 36 cf 0c bf
       0.25426775 0.1070922 -0.53019327 -0.5500368
000020 50 94 2d bf af 6b 4b be fe 1b 7b be dc 7a 5b be
       -0.6780443 -0.19865297 -0.24522397 -0.21433586
000030 f5 08 93 3e a1 eb 93 3e cc 60 3e 3d 80 d1 14 bf
       0.2871777 0.28890708 0.04647903 -0.5813217
000040 b3 f4 f2 be 8c 45 17 bf e2 99 1b bf 60 bc 92 be
       -0.47452316 -0.59090495 -0.6078168 -0.28659344
000050 6e 01 e0 be 88 b8 15 3e 65 aa 7f bd fb c2 26 be
       -0.4375109 0.14621174 -0.06241836 -0.16285317
000060 ac 71 d6 be c2 f1 1e bf e4 ab 07 bf e4 d5 9d be
       -0.418836 -0.62087643 -0.5299666 -0.30827248
000070 8e ff 84 be dc 5a 01 bd 91 7f 3b 3d 2e 9f cf bd
       -0.25976223 -0.03158079 0.045775954 -0.10137783
000080 c9 2b db bc 8a ae 88 ba 9c 21 38 be 5d 34 c8 be
       -0.026754277 -0.0010427993 -0.17981571 -0.3910245
000090 4a 8b 07 be 5a 5f f9 be 9e c7 fa bc 74 89 58 be
       -0.13236728 -0.4870556 -0.030612763 -0.21146184
0000a0 e9 dc 73 be f1 47 87 be 54 b2 f0 be ac 44 c2 be
       -0.2381474 -0.26422074 -0.47011054 -0.37943017
0000b0 7f 71 16 be 76 d8 72 be 0f eb 4d be dc 06 5a bd
       -0.14691733 -0.23715386 -0.20109199 -0.053229198
0000c0 30 7d 2f be d0 f5 b3 be 38 dd 86 be e7 45 33 be
       -0.17137599 -0.35148478 -0.26340652 -0.17507134
0000d0 ac de 33 be c9 a9 30 be ec 1c ff 3e b6 89 81 3f
       -0.17565411 -0.17252268 0.49826753 1.0120151
0000e0 32 35 00 3f 75 f0 22 be 07 ff bd 3e 30 22 0d be
       0.5008117 -0.1591204 0.37108633 -0.13782573
0000f0 2a 37 82 be f2 c8 83 3e 91 9e cc bd 29 55 60 3f
       -0.25432712 0.25739247 -0.09991182 0.87629944
000100 06 0a d9 3f 72 49 43 3f c9 ce 10 bd b2 a6 4a 3f
       1.6956184 0.76283944 -0.035353456 0.79160607
000110 6f 0e a3 3d 67 45 0c 3e 28 4b 18 3f 78 ad c4 3c
       0.07961737 0.1369835 0.5948968 0.024008498
000120 f7 69 6f bc bb e4 c8 3e c8 e3 0a 3e 3b 08 12 bf
       -0.014612666 0.39237007 0.13563454 -0.5704381
000130 7e 77 22 be ce 99 d7 be 0c 98 77 be 3a fd 75 3c
       -0.15865895 -0.4210953 -0.24179095 0.015013987
000140 96 a6 88 be 1f 46 57 bf 5a 7a e4 be f0 f3 9c bd
       -0.26689595 -0.8409137 -0.44624597 -0.07663715
000150 2a dc 10 bf 2f 5a 77 bf 71 44 f7 be 4e 18 18 3f
       -0.56585944 -0.96621984 -0.48294404 0.59412086
000160 7d 38 1e 3c 08 55 c7 3e 49 60 ce be 52 26 52 bd
       0.009657023 0.3893206 -0.40307835 -0.051306076
000170 60 21 92 bd 26 cf 4a bf a5 38 75 bf e3 b6 6e bf
       -0.07135272 -0.79222333 -0.9578956 -0.93247813
000180 6a c7 e2 3d de e2 6d be 74 16 84 3d 13 21 a1 be
       0.110731915 -0.23231074 0.06449595 -0.31470546
000190 2f 44 6d bd 3b 38 4d be b0 b7 0d bf b0 9e 38 bf
       -0.057926353 -0.20040981 -0.5535841 -0.7211714
0001a0 54 3c 3d bf b5 30 f1 3e 29 2a 9b 3d 40 ec f9 3e
       -0.7392018 0.47107473 0.07576401 0.48813057
0001b0 d6 59 bd 3e 9a f5 83 3d ed 46 34 3d fa a7 11 bf
       0.36982602 0.06443329 0.044012953 -0.56896937
0001c0 44 e4 07 bf fd ad c3 be ae 0b 8c be 7a 0b 3d bd
       -0.5308268 -0.3821868 -0.2735266 -0.046153523
0001d0 8f a3 ac bd 01 d0 4f 3e 85 fb 03 3e a4 7d 49 bd
       -0.08429634 0.20294191 0.12888916 -0.049192086
0001e0 8c 82 17 bf 20 92 07 bf c0 20 42 be 69 7d 11 3d
       -0.59183574 -0.52957344 -0.18957806 0.03551999
0001f0 fc cb e9 bd c0 7a 27 3e 3b 9e 01 3e 10 dd e0 bd
       -0.1141586 0.16355419 0.12658016 -0.10979664
000200 4c 75 f6 bd 8a fc b3 be fe 93 a9 be 96 85 6a be
       -0.12034091 -0.3515361 -0.33120722 -0.22902521
000210 67 19 b4 3e cd 9f 00 3e cf b0 90 3e ff e9 36 bf
       0.3517563 0.12560959 0.28259894 -0.714508
000220 e1 53 8e bf a4 93 9d bf bb 44 18 be 74 45 97 be
       -1.1119348 -1.2310681 -0.14869969 -0.29545176
000230 68 ba 50 be ec 84 52 3f ab 6f 0b 3f 34 0e db 3e
       -0.20383608 0.8223407 0.54467267 0.42784274
000240 7a cc 27 bf a7 d8 1e bf bb 3d 62 bf cb f7 21 be
       -0.6554638 -0.62049335 -0.88375443 -0.15817182
000250 18 23 40 bd 6a ca 89 3d 20 7a 4f 3f 84 07 37 3f
       -0.046908468 0.067280605 0.8104572 0.7149584
000260 f1 6d 25 3f af 81 81 bf 0f 16 06 bf ac a4 ff be
       0.6462088 -1.0117701 -0.5237741 -0.49930322
000270 91 c9 91 be 74 52 df bd a0 7e 52 3e 67 25 23 3f
       -0.28474095 -0.109043986 0.20556116 0.63728946
000280 1e c9 2c 3f 99 5d 2d 3f 50 86 89 be 74 a8 97 bd
       0.6749438 0.67720944 -0.26860285 -0.07405177
000290 96 d2 9f be f3 e0 87 be 9e 78 25 be 38 97 67 bc
       -0.31215352 -0.2653881 -0.16159293 -0.014135174
0002a0 7a ce 98 be 18 25 20 be f0 be 30 be df ef 9c be
       -0.2984503 -0.1563915 -0.17260337 -0.30651757
0002b0 36 b5 ec 3d ce f4 24 3e f7 9d 6a be 5c 78 9c 3e
       0.11558001 0.1610901 -0.22911821 0.30560577
0002c0 32 87 bb 3e 67 cd 6a bd d3 98 b8 3c 8f 39 09 3e
       0.36626583 -0.057324793 0.02253381 0.13400863
0002d0 16 44 28 be 2e 34 c4 3d a3 4a 26 3e e7 e2 91 bd
       -0.16432223 0.09580265 0.16239409 -0.07123356
0002e0 41 4e 88 3e 7e a1 52 3f 05 c2 5c 3a 29 c6 8c 3e
       0.26622203 0.8227767 0.0008421245 0.27494934
0002f0 db c2 92 3e a6 67 5f 3f a3 f8 15 3f 9e ce 22 3f
       0.28664288 0.8726753 0.58582515 0.6359652
000300 4d e0 3b 3e 30 df 65 3d 3f 3d 8e 3e ca cf e4 3d
       0.18347283 0.05612105 0.27781102 0.11172445
000310 95 c5 64 3c fe 1f e7 3a fe af 1a 3f cb df 17 3f
       0.013963123 0.0017633436 0.6042479 0.59325856
000320 18 74 19 3f 31 8e 85 3e 59 91 a3 3d 28 60 85 3a
       0.5994277 0.26085046 0.07986707 0.0010175752
000330 ba 03 b9 3d 0c 6d 9b bd f3 95 b3 bd 50 2b b2 3e
       0.09033914 -0.075891584 -0.08768835 0.3479867
000340 86 b6 ff 3e cf 66 08 3f 04 cc 17 3e c5 13 1c 3c
       0.49943942 0.53281873 0.1482392 0.009526198
000350 84 d3 c9 bc 3e 4d ab 3d f4 84 86 bd ec ff a0 bc
       -0.024636991 0.08364342 -0.065683275 -0.019653283
000360 36 de a2 3d 27 ad 1c 3f 03 2b e5 3e 72 88 58 3d
       0.079525396 0.6120171 0.44759378 0.0528645
000370 3e 2a e9 3e 5d b5 6e 3e 8d 40 3b be 1f da 13 3f
       0.4554004 0.23311372 -0.18286343 0.577547
000380 07 84 8b 3e f2 8a 9a 3e 14 78 68 3f a0 00 38 3f
       0.27249166 0.30184132 0.90808225 0.71875954
000390 17 4f 73 3e 6b d9 b8 3f 41 c7 70 3f df 66 f7 3c
       0.23760639 1.4441351 0.9405404 0.03020042
0003a0 61 92 8c 3f 3f be 9a 3f 4c 82 8c 3d be fc 7c 3e
       1.0982171 1.2089309 0.0686079 0.24705788
0003b0 af 99 b0 3e 15 eb aa be be 4d 9c 3e bd 25 44 3e
       0.3449225 -0.33382478 0.30528063 0.19155021
0003c0 ac 2a 2d be 09 29 a1 3e 34 85 bb 3e 9b bc 6e be
       -0.1691081 0.3147662 0.36625063 -0.23314135
0003d0 01 ab 48 be 01 a6 b9 bd 29 9d 40 be 01 d7 90 bd
       -0.19596483 -0.09064866 -0.18809952 -0.07072259
0003e0 21 4f 1a 3e bd 8d 83 bd 84 0d bc be 62 45 86 be
       0.15069248 -0.06423519 -0.36729062 -0.2622481
0003f0 a1 19 7f be b7 a5 0b be 34 74 23 3e d9 5c a1 be
       -0.2491212 -0.13637434 0.15962297 -0.3151615

down_convs.1.conv1.bias f4 [6]
000000 2b e4 06 bf 03 80 47 be 9d 61 24 bc 0a e5 23 3e
       -0.52691907 -0.19482426 -0.010033038 0.1600534
000010 69 12 71 3c e7 8e a4 3d
       0.014713862 0.08035069

down_convs.1.conv2.weight f4 [6, 6, 3, 3, 3]
000000 7f 0b 49 be dd 2b 0e be 0b 37 b1 be 3c b9 83 3d
       -0.19633292 -0.1388392 -0.34612307 0.06431815
000010 ff 68 62 3e de 33 7f 3c dd b9 a3 bd 5e cd 69 3c
       0.22110365 0.015576331 -0.07994435 0.014270155
000020 b6 ea 85 be 4c 6a 1f 3e 01 95 49 3e 37 fc 37 bc
       -0.26155633 0.15567893 0.19685747 -0.011229566
000030 e8 83 f1 3e ea 99 4f 3f fa 97 ae 3e 03 b9 a9 3e
       0.4717095 0.8109423 0.34100324 0.33148965
000040 db 38 7d 3f 08 4f 14 3f 4b ac f2 3d 31 5d 35 bd
       0.9891488 0.5793309 0.118492685 -0.044278327
000050 50 42 10 3c a5 eb ba 3e ab b7 51 3f 24 28 d0 3e
       0.008804873 0.36507908 0.8192088 0.40655625
000060 b8 de ef 3e e0 3e ac 3f ae d6 30 3f 8c 8a b8 3d
       0.46849608 1.3456688 0.69077575 0.09010801
000070 b7 98 87 bd b7 95 2a 3d aa 40 8d be da 2e 49 be
       -0.06620925 0.041646685 -0.27588397 -0.19646779
000080 09 65 b3 be cf 48 f8 be 53 42 f0 be ec 6e 8d be
       -0.3503802 -0.4849305 -0.469256 -0.2762369
000090 b8 ca 8b 3d 97 53 c8 3d 99 9b ec 3d fd 94 f3 bd
       0.06825775 0.097815685 0.115531154 -0.11893652
0000a0 11 4e 51 be 49 35 2e be 5d 67 b6 be fc 17 b2 be
       -0.20439936 -0.17012514 -0.35625735 -0.34783924
0000b0 0b 19 76 be d0 4b 97 bb 6e e7 0b 3e 38 c8 cd bd
       -0.2403299 -0.004617192 0.13662502 -0.10047954
0000c0 92 f8 ba bd fd d2 7b be f3 1a 49 bd b5 90 d1 be
       -0.09129442 -0.24592204 -0.049097966 -0.40930715
0000d0 88 75 77 be 3a 82 88 be 9e ca e5 3d e8 24 06 3e
       -0.24165928 -0.26661855 0.11220287 0.13100016
0000e0 c4 a8 9b be ec 94 ef 3e 2a fd c1 3e f2 73 10 bd
       -0.30402195 0.46793306 0.3788846 -0.035266824
0000f0 f5 d7 9a 3e a0 b4 29 3f ff 95 31 be 0c 89 8d 3e
       0.30242887 0.66291237 -0.17342375 0.2764362
000100 cc 70 05 3f 0a 67 90 bd bd d3 97 3f 38 ab c3 3f
       0.5212524 -0.07050903 1.1861492 1.5286627
000110 79 b9 17 3e 37 7a 83 3f 03 e6 aa 3f 9f 0b 66 3e
       0.14816846 1.0271672 1.3351444 0.2246537
000120 af bf 99 3b bb 12 af 3d f9 e2 62 be 9a 8d 13 3f
       0.00469204 0.085484944 -0.22156896 0.5763794
000130 f5 18 4f 3f 54 9f 01 3e c2 10 3d 3f 19 d2 48 3f
       0.80897456 0.12658435 0.73853695 0.78445584
000140 02 4e 4e 3e f0 5f a9 be 42 13 53 be fd de 93 be
       0.20146945 -0.33081007 -0.20612815 -0.28881064
000150 87 20 9f be e9 40 95 be 86 da 82 be b1 e9 97 be
       -0.31079504 -0.29151085 -0.25557345 -0.2967048
000160 c6 e0 e7 be 7b 9e f1 bd 02 ec a0 be 3d 5f af be
       -0.45288676 -0.11797806 -0.3143006 -0.3425235
000170 32 a9 fc be 30 09 94 be d1 3b 3c be 9a f9 b3 be
       -0.49347836 -0.2891326 -0.18382193 -0.35151368
000180 c1 b1 04 bf 7a a9 f4 be fe 9f b0 be c1 43 91 be
       -0.5183373 -0.4778555 -0.34497064 -0.28372005
000190 cd 1b bf be 06 1e 4c be 5e 6b 56 be a1 7e ba be
       -0.37325898 -0.19933328 -0.20939395 -0.36424735
0001a0 e2 ef 3b be cf 5b 79 be e6 9e b0 be c9 32 f5 be
       -0.18353227 -0.24351428 -0.3449623 -0.47890308
0001b0 e3 28 5e 3e f0 51 04 3f 98 52 a7 bd e5 02 88 3d
       0.21695285 0.51687527 -0.081700504 0.06641177
0001c0 f9 be e8 3e c5 ba 7a bc e8 5d 52 3e ba fa 91 3e
       0.454582 -0.015303318 0.20543635 0.28511602
0001d0 5e 22 32 3e 40 31 db 3e 54 e4 b2 3f 86 14 7d 3e
       0.17395923 0.42811012 1.397593 0.2471486
0001e0 7c f6 06 3f 01 9b b6 3f 17 39 0f 3f e1 2f e2 3e
       0.52719855 1.4266053 0.5594649 0.44177154
0001f0 84 50 8e 3f 38 67 01 3f 03 c4 00 3d 2e 9f 6b 3e
       1.1118321 0.50548124 0.03143693 0.23009941
000200 fc ca 62 3e d9 02 a4 3e 36 43 3f 3f da c1 5e 3e
       0.22147745 0.32033423 0.7471193 0.21753636
000210 16 2c e6 3e 4f 42 53 3f 82 38 07 3f 62 16 b4 3d
       0.4495551 0.82523054 0.528206 0.08793332
000220 85 75 fa 3d 23 15 6c 3e 71 a9 9c bd 61 70 e6 bd
       0.12229446 0.23054938 -0.07649506 -0.11251903
000230 d1 ff 23 be eb f6 ab be 28 f6 45 bf 21 31 16 bf
       -0.16015555 -0.3358682 -0.7732873 -0.58668715
000240 38 06 f2 3d 6a 7c 07 3e 1a 61 1d 3e f3 ce 34 be
       0.118175924 0.13231054 0.15369073 -0.1765707
000250 23 e7 28 be 17 21 91 be c7 8f e4 be c9 b9 19 bf
       -0.16494422 -0.28345558 -0.44640943 -0.6004911
000260 91 be 0a bf 65 3f 18 be cf 60 a8 3b 77 1f 45 3e
       -0.5419703 -0.14867933 0.0051384936 0.19250284
000270 23 be 88 be 5d e8 ac be 40 c8 8d be 88 4d ac be
       -0.26707563 -0.3377103 -0.2769184 -0.33652902
000280 80 c6 2a bf 17 58 37 bf 32 ce 05 3f c2 e9 fd 3e
       -0.66709137 -0.7161879 0.52267754 0.49592406
000290 23 1e b8 3e 3d 8e 03 3f 48 b9 f5 3e ff fb 10 3f
       0.35960492 0.51388913 0.4799292 0.56634516
0002a0 cc 60 cd bc de 67 88 3d 52 4b c5 3e 39 2b a0 3e
       -0.02507057 0.06660436 0.38534027 0.31282976
0002b0 f9 5c 70 3e 48 c4 78 3e b6 01 45 3e 59 4e 45 3e
       0.23472966 0.24293625 0.19238934 0.19268169
0002c0 7d d9 89 3e 70 71 75 be b6 f1 61 be cb 43 d4 bc
       0.26923743 -0.23969054 -0.22064862 -0.025911232
0002d0 dd 34 85 3e d3 a2 51 3e 51 7d 26 3e 3a 32 c5 3d
       0.26016894 0.20472269 0.16258742 0.096287206
0002e0 6e 8d 23 3d 58 8a 0b 3e c1 ad 64 be 39 6e d7 bd
       0.0399298 0.13626993 -0.22331907 -0.1051907
0002f0 95 09 f0 bc 2d 57 36 bf a3 b9 39 bf cc 75 56 bf
       -0.029301444 -0.7122677 -0.72548884 -0.83773494
000300 55 0b 0d bf 0b ce f6 be 72 71 b9 be a5 01 8d be
       -0.55095416 -0.48204073 -0.36219364 -0.27540317
000310 5b 3e 92 be c6 80 ff be ac 9f 08 bf 51 cb ea be
       -0.28563198 -0.49902934 -0.5336864 -0.45858243
000320 a0 02 c6 be 4b 41 73 be 73 1e 6d be d0 5f e9 bd
       -0.38673878 -0.23755376 -0.23156147 -0.11395228
000330 7a de aa bc a8 68 03 be eb 17 3f be 0d b2 b1 be
       -0.020858038 -0.12832892 -0.18661468 -0.34706154
000340 14 43 06 bf 54 9d 79 be b7 8f df be b9 c5 17 be
       -0.52446103 -0.24376422 -0.43664333 -0.14821519
000350 96 59 5b be ab c0 9f bc 1e 1a 5f bd be a2 ec bd
       -0.21420893 -0.019501051 -0.054468267 -0.11554478
000360 3e 22 8c be 85 6e c2 3b 94 71 c9 3c 58 d0 b0 be
       -0.27369875 0.005933585 0.024590291 -0.34533954
000370 33 f6 9c be 1e 2f 0c be 4e b9 05 be 1e a9 ab be
       -0.30656585 -0.13689849 -0.1305897 -0.33527464
000380 a5 13 fe bd ab a9 d2 be 7a 5b e8 be b1 66 a2 be
       -0.12406091 -0.4114507 -0.4538229 -0.31718972
000390 ea 39 27 bf d4 0f ba be 86 a2 70 be 34 ca 0b be
       -0.65322745 -0.363402 -0.23499498 -0.13651353
0003a0 08 59 cd be 84 3d 94 be 10 7b b8 be 2a 0d b0 be
       -0.40106988 -0.28953183 -0.3603139 -0.34385043
0003b0 69 12 8b be bf f5 9a be 26 d1 0f bf 6f a9 4e be
       -0.27162483 -0.30265614 -0.5617851 -0.20181821
0003c0 2a c1 84 be 5a 92 cc be 03 12 3b bd 84 90 e5 be
       -0.25928622 -0.39955407 -0.045671474 -0.4483682
0003d0 46 c9 ed be d7 1a 4f bf 7b 37 cb be 7f 69 9f be
       -0.46442622 -0.8090033 -0.39690766 -0.31135175
0003e0 e3 a8 0b bf 76 5f 59 3d 49 1d 7e bd 4c 7e d8 bd
       -0.54554576 0.053069554 -0.062039647 -0.10570964
0003f0 e9 43 bb be 46 fa 6b be 9a 0d 99 be 7f ed a3 bd
       -0.3657525 -0.2304469 -0.2989319 -0.08004283

down_convs.1.conv2.bias f4 [6]
000000 3f 3f ea bb b3 d2 61 bd 4a 71 93 bb ef 60 fb 3b
       -0.007148653 -0.05513258 -0.004499589 0.0076714675
000010 68 eb 0f 3b fe cc 0f 3d
       0.0021960381 0.035107605

down_convs.1.norm0.weight f4 [6]
000000 4e a1 86 3f bf d2 f6 3f 79 64 10 3f 38 81 ba 3f
       1.0517976 1.9283065 0.5640331 1.4570684
000010 06 44 55 3f 6f 9f a9 3f
       0.8330692 1.325178

down_convs.1.norm0.bias f4 [6]
000000 d6 59 34 3d 81 2c bb 3d 83 98 4c bf b2 52 9f 3e
       0.044030987 0.09139348 -0.79920214 0.3111778
000010 e8 54 ad be 64 73 63 be
       -0.3385384 -0.22211987

down_convs.1.norm0.running_mean f4 [6]
000000 81 67 cc bf cb 67 52 c0 bf 87 a5 40 3b a1 15 c0
       -1.5969087 -3.287585 5.1728206 -2.3379657
000010 03 f1 a4 40 f5 72 9f be
       5.1544204 -0.31142393

down_convs.1.norm0.running_var f4 [6]
000000 01 af 55 42 a1 c5 8c 42 b5 1d c1 42 f0 44 db 42
       53.420902 70.385994 96.55802 109.63464
000010 b2 c0 12 43 fe 6f 89 42
       146.75272 68.718735

down_convs.1.norm1.weight f4 [6]
000000 16 dc 4e 3f 43 3a 94 3f af 6e b1 3f 70 fa b9 3f
       0.80804574 1.158028 1.3861903 1.4529552
000010 7b 64 35 3f cd 59 80 3f
       0.70856446 1.0027405

down_convs.1.norm1.bias f4 [6]
000000 bd 9c 29 be dc 49 dd bd 6b 70 b3 3e 9d aa d8 be
       -0.16563697 -0.10805103 0.35046706 -0.42317668
000010 d2 b5 fe be 79 83 28 bf
       -0.49748093 -0.6582561

down_convs.1.norm1.running_mean f4 [6]
000000 a7 5b 88 c0 81 28 ef c0 68 b3 df c1 45 2e 3a c1
       -4.261188 -7.4736943 -27.9626 -11.636296
000010 5b f6 ea c0 88 8c ca c0
       -7.3425727 -6.3296547

down_convs.1.norm1.running_var f4 [6]
000000 fd 3b 87 43 b1 9c 08 43 f0 42 1b 43 77 3c c6 42
       270.46866 136.61208 155.26147 99.118095
000010 ea ad 13 43 90 c1 0f 43
       147.67935 143.7561

down_convs.2.conv1.weight f4 [12, 6, 3, 3, 3]
000000 a3 ed fe 3e 58 44 f4 3d 12 38 e8 3e dc be 07 3e
       0.49790677 0.11927098 0.45355278 0.13256401
000010 67 e5 71 be 58 6e ff 3c 95 00 03 3d f2 45 02 bf
       -0.23622666 0.031180546 0.031982977 -0.5088798
000020 f7 a9 15 be 40 d9 ab 3e 91 02 ee bd bc b0 5d 3e
       -0.14615618 0.33564186 -0.11621583 0.2164945
000030 fe 23 e7 3c c8 09 03 bf 47 23 7f be a4 95 83 be
       0.028215405 -0.511868 -0.24915801 -0.25700104
000040 91 f2 4a bf bc e1 02 bf ba c8 c0 3e 62 58 88 3e
       -0.79276377 -0.51125693 0.37653142 0.2662993
000050 72 02 97 3e 3d 9b 8e 3e 51 7b 80 be e9 69 9f bb
       0.29494053 0.27852812 -0.25094083 -0.0048649204
000060 06 90 85 3d 6c 69 b0 be 6f 52 d4 be cd b3 55 be
       0.06521611 -0.3445543 -0.41469142 -0.2086937
000070 8b 46 e3 bc b4 9b a4 be ba 38 8e be 70 86 27 be
       -0.027743598 -0.32150042 -0.27777654 -0.16359878
000080 24 99 b1 be 9f b0 a4 3e ae 7a 9c 3e 10 c2 ac 3d
       -0.3468715 0.32166 0.30562347 0.08435452
000090 ab 3b 96 3d 2e e5 6a 3e 7f d6 88 3e d6 cc 1e be
       0.073355995 0.22938988 0.26726148 -0.15507826
0000a0 8c 78 46 bd 52 8a 0e be 98 2d 0f 3e 51 9c 66 3e
       -0.048454806 -0.13919953 0.13982236 0.22520567
0000b0 64 3f 86 3d cc cc ba 3d 41 0b 36 3d 73 04 9e 3d
       0.065550596 0.09121093 0.044444326 0.07715692
0000c0 3f 50 a5 be 03 93 06 be 73 e8 88 be d0 d9 a7 bd
       -0.32287785 -0.13142018 -0.26739845 -0.08195841
0000d0 38 0d 23 bd 12 03 b1 bd 79 2c 5c bf 58 a7 20 bf
       -0.03980753 -0.08643164 -0.8600536 -0.62755346
0000e0 f2 1f 65 bf 0c c7 bc be 8a 03 16 be 25 db d0 be
       -0.8950187 -0.3687061 -0.14649788 -0.40792194
0000f0 bd 0e ab 3e 78 4a 01 3f 2b 87 d2 3e b6 15 31 bf
       0.33409682 0.50504255 0.4111875 -0.69173753
000100 1c 66 ce be 31 80 21 bf 3d 4c 74 3c 1f 4d 8f 3e
       -0.40312278 -0.6308623 0.014910755 0.27988526
000110 db cc 8a bd 36 38 06 3f 8c 88 68 3f 0c bd 46 3f
       -0.06777354 0.5242952 0.90833354 0.7763221
000120 91 fc 46 bf ac f6 1e bf 75 60 32 bf ef a2 d5 be
       -0.77729136 -0.6209514 -0.6967843 -0.4172587
000130 d1 f5 04 3e 58 03 99 bd 2c 5f ae 3e 68 1f 1d 3f
       0.12984397 -0.07471341 0.34056985 0.6137605
000140 07 61 36 3f e9 7b 3f 3f f7 eb 11 3f 26 95 c1 3e
       0.712418 0.74798447 0.5700068 0.37809104
000150 cb cd 3a 3e 37 ac df bd b0 20 56 bd 51 c6 8a 3e
       0.18242566 -0.10921519 -0.052277267 0.27104428
000160 ba 6b bd bd 75 f3 a6 3d aa 1d 05 3f 79 e3 d3 3e
       -0.09249063 0.081519045 0.5199839 0.41384485
000170 35 78 df 3e ad 01 93 3e 4d 4b 5e be 89 47 91 bd
       0.43646398 0.28712216 -0.21708412 -0.070937224
000180 ef 86 9c 3e e0 0a 4c be a0 85 4e be e9 37 ea 3e
       0.30571696 -0.19926023 -0.20168161 0.4574578
000190 6b ce 9a 3e c2 06 f5 3e 35 cb d5 3e 88 9c bd 3d
       0.3023561 0.47856718 0.41756597 0.092583716
0001a0 af 7f 52 3e f1 99 fd 3e 71 80 bc 3d 20 10 8a 3d
       0.2055652 0.4953151 0.09204186 0.06741357
0001b0 34 fd 99 3e c9 41 9c 3e ce 7e 0f 3f 2d 0b 1b 3e
       0.3007599 0.3051894 0.56052864 0.15140982
0001c0 7f f8 f3 bc ca de 77 3e 96 ba 75 3e 9d 99 1d 3e
       -0.029781578 0.24206081 0.23996958 0.1539063
0001d0 aa 2b 90 3c 0e cb d2 3e e9 8a 3f 3e 26 27 b8 3e
       0.017598946 0.41170543 0.18705334 0.35967368
0001e0 70 95 09 3e 07 19 2e be d3 6a 20 3d b2 a9 4e 3e
       0.13435912 -0.17001735 0.039164376 0.20181921
0001f0 d2 d4 b2 3d 1c 2c 3a 3e 70 d6 d2 3e 34 11 c4 3e
       0.087319985 0.18180889 0.41179228 0.38294375
000200 78 58 00 3f 84 ce 8a 3e e3 f8 41 bc 16 56 82 3d
       0.5013499 0.27110684 -0.011839124 0.06364076
000210 28 0a 3d 3e 14 8a b2 3d 11 25 01 bd 9f 38 88 3e
       0.18460906 0.087177426 -0.03152949 0.26605698
000220 40 a2 27 3e b4 8b 98 3e 31 35 7b 3e fc 10 e8 3c
       0.16370487 0.29794085 0.2453201 0.028328411
000230 61 ef 23 3e dd ca ff bb b9 55 79 3d 4a 79 81 3c
       0.16009285 -0.0078061656 0.060872767 0.015804905
000240 f2 5c 69 3e e5 5a 1d 3d 2d 2a 3f 3e 5b 5e 6c 3e
       0.22789362 0.038416762 0.18668433 0.23082869
000250 c5 29 24 3e ca 96 17 3d 3d 8a 36 3e a4 1b fc 3d
       0.16031559 0.037009038 0.17826171 0.123099595
000260 cb e4 16 3e 95 f4 c3 3e 3f fb 84 3e 45 00 bc 3e
       0.14735715 0.3827254 0.25972936 0.36718956
000270 18 7c 06 3f bc 01 93 3e e8 56 fe 3d 92 9b 3e 3d
       0.525331 0.2871226 0.1241892 0.046535082
000280 53 78 f7 3c d3 2c 6e 3d 8d 76 a9 3c 8e 94 39 3e
       0.030208742 0.058148216 0.020686412 0.18123075
000290 d2 46 01 3f aa 00 27 3e 6a 44 0f 3e 8f 6a e0 3e
       0.5049869 0.16308847 0.13990942 0.43831298
0002a0 93 2e a1 3d b1 11 ce bd 97 f3 b3 3d 86 86 85 be
       0.078702115 -0.10061968 0.087866955 -0.26079196
0002b0 99 7d a8 be 19 af 74 3e e4 49 3c be da 34 ef be
       -0.32908323 0.2389492 -0.18387562 -0.4672001
0002c0 dc c7 88 be 53 10 eb be 97 2c fd be d7 33 c6 be
       -0.2671498 -0.45910892 -0.49448082 -0.38711426
0002d0 83 97 02 3d bc bb 3a 3c c1 08 23 3e eb 4e f2 bd
       0.031882774 0.011397298 0.15921308 -0.11831459
0002e0 21 9e d4 be 5c 8a 5b be 09 e5 d2 be 8c e1 25 bf
       -0.41526893 -0.21439499 -0.41190365 -0.6479728
0002f0 06 29 e7 be 9a 8c 03 3f 72 43 f6 3e 44 84 fa 3e
       -0.45148486 0.51386416 0.48098332 0.48929036
000300 e4 3d 44 3e 36 bc cc 3c 3b 98 dc bd 07 2f 05 bf
       0.19164234 0.02499209 -0.10771223 -0.52024883
000310 1e aa 05 bf 2d 77 a0 bd 09 1c 52 3f e0 5b 94 3f
       -0.52212703 -0.07835231 0.8207403 1.1590538
000320 47 4d 95 3f 14 62 4c 3e 1f 31 10 3f 52 af 18 3f
       1.1664208 0.19959289 0.5632495 0.5964252
000330 af c3 5b bf 05 ed 21 bf 05 6c ee bc e0 43 04 3f
       -0.85845464 -0.6325229 -0.029104242 0.5166607
000340 c6 7e 6e 3f 30 35 b0 3f ba 70 2d bf 2a 4d 22 be
       0.9316219 1.3766232 -0.6775013 -0.15849748
000350 4a 03 9d 3e a5 f5 c9 bf 80 5d 94 bf c9 ac a6 be
       0.30666572 -1.577809 -1.1591034 -0.325537
000360 0f 88 08 3f 0a 0a ac 3e f5 0f 05 3f f1 7c 31 be
       0.5333261 0.3360141 0.51977473 -0.17332818
000370 c3 3f 01 bf 12 54 f0 be 8f 90 9d bd 05 b3 f9 bd
       -0.5048792 -0.4693914 -0.07693588 -0.121923484
000380 35 b7 5b 3d a2 73 5c 3f 91 11 94 3f 37 d9 9b 3f
       0.053641517 0.8611394 1.1567861 1.2175664
000390 78 fb 59 3e 23 01 50 3e 7c e1 ad 3e 29 4d b9 3e
       0.21287334 0.20312934 0.33961093 0.3619168
0003a0 b8 00 09 3f 8f 46 f3 3e 50 fa 6e 3f ff b7 95 3f
       0.5351672 0.4751477 0.93350697 1.1696776
0003b0 6d 3f b5 3f b6 7f f7 ba ca 85 e8 3e 9c c7 08 3f
       1.4159981 -0.0018882665 0.45414573 0.5342958
0003c0 90 0e aa bc 5c 39 d1 3e 88 57 16 3f 81 8a 79 3c
       -0.020758897 0.40864074 0.5872731 0.015230776
0003d0 88 88 4e bc bb 26 32 3e bf eb c6 be 02 4f ae be
       -0.012605794 0.17397587 -0.38851735 -0.34044653
0003e0 db a2 99 bd 5a 0c 06 bf cf f4 08 bf bc 02 44 be
       -0.07501765 -0.52362597 -0.5349855 -0.19141668
0003f0 fb 14 1a bd 6c f4 41 3d 6e ef 98 3e 8b d1 ea be
       -0.037617665 0.04735224 0.2987017 -0.45862994

down_convs.2.conv1.bias f4 [12]
000000 b8 06 50 3a f9 e1 a8 ba df 74 35 3b 95 73 a4 3b
       0.00079355715 -0.0012884728 0.0027688069 0.0050186613
000010 80 4a 3f 3b 47 c1 a3 3b 2f 51 e3 3a 09 72 dd b8
       0.0029188693 0.0049974057 0.001734292 -0.00010559342
000020 6a d1 b4 ba 12 01 81 ba cd 42 58 bb e3 9d 3f 3a
       -0.001379532 -0.0009842238 -0.00329988 0.0007309599

down_convs.2.conv2.weight f4 [12, 12, 3, 3, 3]
000000 e6 21 82 bd 39 17 a5 bd dc ce f1 bd 6c 9c 9b 3d
       -0.06354122 -0.0806107 -0.118070334 0.075981945
000010 44 0a ee 3c b2 0d cc 3b 61 47 a5 3e 85 05 fe 3e
       0.02905763 0.0062272185 0.3228102 0.49613586
000020 ed 0d f5 3d a2 26 0d be e2 5a a1 bd dc 29 0b be
       0.11965547 -0.13784268 -0.07878663 -0.13590187
000030 15 d2 d7 3d 95 12 05 3d e7 ed b5 3b cc ae 0d 3e
       0.10538117 0.032488424 0.005552042 0.13836211
000040 34 42 f1 3e 9f 6f 93 3e b9 fe 94 be bd a4 a7 be
       0.4712082 0.28796098 -0.29100588 -0.32742873
000050 80 89 b0 be 0f ea 05 bd 2a bf 85 bd bf 0e e7 bd
       -0.34479904 -0.03269392 -0.06530602 -0.112821095
000060 76 18 5f 3d 39 ba 8c 3e 2b 39 90 b9 c9 6d f1 be
       0.054466687 0.27485827 -0.00027508414 -0.47154072
000070 28 62 1e bf fe 5d 1b bf 53 18 32 3d 1c f4 47 3e
       -0.61868525 -0.60690296 0.04348023 0.19526714
000080 bb aa 60 be 67 c2 a9 3e 73 45 19 3d be 11 2e bd
       -0.21940129 0.3315613 0.037419748 -0.04249739
000090 6e e3 cf be d5 a6 57 be 7c 4c b2 be ba de f6 bc
       -0.40603203 -0.21059735 -0.34823978 -0.030135501
0000a0 21 b8 a9 bd b1 2e 0b be 76 b9 62 3d 01 6f 17 be
       -0.08287073 -0.1359203 0.05535265 -0.14788438
0000b0 50 c3 7f be 88 94 6c be df 2f f5 bd 03 59 b1 be
       -0.2497685 -0.23103535 -0.11972021 -0.34638223
0000c0 9f 6f 92 bd 96 1d e7 bd 4f f5 84 be da 64 51 3d
       -0.07150196 -0.1128494 -0.25968406 0.05112157
0000d0 6a 07 83 be c2 5d b6 be 25 6a cb bd 5b 65 47 bf
       -0.25591594 -0.35618407 -0.09932355 -0.7788903
0000e0 59 fa a0 bf f5 9c 0c 3d 65 e0 05 be ba ef 91 be
       -1.25764 0.034329373 -0.13073881 -0.2850321
0000f0 89 c4 ea 3e 87 20 b2 3e 67 8d 1c 3f 77 1d 19 be
       0.4585307 0.3479044 0.6115326 -0.14952646
000100 bb 0c 21 bf 61 a9 75 bf c3 de ca 3c 4e 1a 64 be
       -0.6291005 -0.95961577 0.024764424 -0.2227566
000110 3e 46 8d be 96 19 6e 3e 1f 5e 97 3c cd d4 b0 3e
       -0.27592653 0.23251948 0.018477498 0.34537354
000120 aa 60 24 bf 92 1d 74 bf 96 fd 6d bf 71 88 0f 3e
       -0.6421 -0.9535762 -0.92965066 0.14016892
000130 07 75 11 bc 64 3c f7 bd 02 6c 11 3f c0 6a 82 3e
       -0.008877999 -0.120720655 0.5680543 0.2547207
000140 3c d8 f6 3e 18 66 c5 bf 4b e1 57 bf 61 f1 ce be
       0.4821185 -1.5421782 -0.84328145 -0.40418532
000150 99 32 21 bf 74 1d fe be 78 4a 42 be 05 0d cf 3e
       -0.6296783 -0.49631846 -0.1897372 0.4043962
000160 6c c2 5f 3e e6 e6 62 3e e3 15 94 bf 22 c3 95 be
       0.2185151 0.22158393 -1.1569179 -0.29250437
000170 a8 9c 96 3e f8 c2 36 bf f3 4f 1f be 0e 7b 6b 3d
       0.29416394 -0.7139125 -0.15557842 0.0574904
000180 61 44 41 3e e4 17 c0 3d e2 79 02 3d 2a 5a 5f bf
       0.1887374 0.09379557 0.031854518 -0.87246954
000190 48 f0 f0 bd 0f db 28 3e 07 4b 8c be c2 53 90 ba
       -0.1176458 0.16489814 -0.2740099 -0.001101129
0001a0 50 c5 75 3e ff 89 98 3e dd 33 3c 3e 29 57 37 3e
       0.2400105 0.29792783 0.1837916 0.17904343
0001b0 93 f4 48 3e a4 d9 8f 3e e1 59 ca 3e 58 b8 47 be
       0.19624548 0.28095734 0.39521697 -0.19503915
0001c0 a1 ee 1f 3e 4d f7 0d 3e 5f 23 7c bd e0 ea f5 3d
       0.15618373 0.13863869 -0.06155717 0.120076895
0001d0 33 70 59 3d f2 54 33 3e 46 4b 41 3e 45 9e ba 3e
       0.053085517 0.17512873 0.18876371 0.36448875
0001e0 35 7c b1 bd 88 64 41 3e 7b 74 6c 3e ac 95 13 be
       -0.08666269 0.18886006 0.23091309 -0.14412564
0001f0 a6 ef c0 3c 51 a6 a3 3c 32 9f 9f 3e 3c 2a a6 3e
       0.023551773 0.019976767 0.31176144 0.32454097
000200 d9 12 8c 3e e4 2e 4c be ae dc 14 3d 56 57 06 3e
       0.2735813 -0.19939762 0.03634327 0.13119254
000210 a1 0e 31 be 1f 64 83 bc 49 19 82 3d 5c 5b 29 3f
       -0.17290737 -0.016038952 0.06352479 0.6615503
000220 62 ef d7 3e 29 a3 ca 3d a5 4a 01 3f 41 fa 91 3e
       0.42174822 0.098944016 0.50504524 0.2851124
000230 1c 40 99 3e a4 49 77 3e b2 ef c4 3b c1 ed 29 3e
       0.29931724 0.24149185 0.006010019 0.16594602
000240 c9 d7 26 3f 2b 36 bc 3e f4 18 45 3d 6e b4 9d 3e
       0.6517301 0.36760077 0.0481195 0.3080172
000250 be a7 84 3c bb 03 95 3d 7a 8e 84 bd 4d 3c 13 be
       0.016193267 0.07276102 -0.06472488 -0.14378472
000260 5d a5 09 be 07 47 11 3f c6 cf af 3e c1 66 d2 3d
       -0.13441987 0.56749004 0.34338206 0.10273505
000270 e5 f0 97 3e ec 02 49 3d 52 8e f6 3d d4 84 1e be
       0.29675975 0.049075052 0.12038864 -0.15480357
000280 14 b5 5b be a2 59 13 be 69 c3 2e be 82 12 4f 3e
       -0.21455795 -0.14389661 -0.1706673 0.20221904
000290 d2 74 f1 3d fe a6 c4 be 91 b1 1a 3e 3b 70 eb 3d
       0.1178986 -0.38408655 0.15106799 0.11496016
0002a0 0e 43 4c bd 3c 37 cb 3d 0f f1 23 3f 11 f9 0d be
       -0.049868636 0.099226445 0.640397 -0.13864543
0002b0 43 49 bc 3e 60 e4 b6 3e 87 24 33 3c a9 ab c7 3e
       0.36774644 0.3572111 0.010934002 0.38998154
0002c0 0f 9f c8 3e e3 22 8f 3d f7 a1 2a 3e 0d 41 e0 3e
       0.39183852 0.06989076 0.16663347 0.4379963
0002d0 5a 0e b9 be d7 a5 25 3e 4b d1 80 3d e5 df c7 bd
       -0.36143762 0.16176544 0.062899195 -0.09759501
0002e0 3e 85 b7 3e 3c d6 90 3e e9 0e 13 3e 95 e1 d7 3e
       0.35843843 0.28288448 0.14361157 0.42164293
0002f0 51 af df 3e 0b 5a 42 be 84 83 18 3c fd 43 8c 3c
       0.43688443 -0.18979661 0.0093086995 0.017122263
000300 50 98 17 bd 39 2f 80 3c 89 96 3b bd 1e 41 77 bd
       -0.03701049 0.015647518 -0.04579786 -0.060364835
000310 86 6e db bc 8a 5b 82 bd 23 7e 0e be 92 8f 4f bd
       -0.0267861 -0.06365116 -0.13915305 -0.05067403
000320 32 71 59 3c 7e 4d 37 bd b3 26 74 3d c3 5b 62 3d
       0.013271617 -0.044751637 0.05960722 0.055263292
000330 aa bf 02 3e ad f9 64 3d 27 bb 26 bd 18 18 ef bd
       0.12768427 0.055902172 -0.040705826 -0.116745174
000340 4f d9 ca bd ae ec 23 be 56 46 a1 bd 2d 78 61 bd
       -0.099047296 -0.16008255 -0.07874744 -0.05504625
000350 48 27 80 bd de ae cd bd 5b f6 93 bd 34 7b a3 bc
       -0.06257492 -0.10043119 -0.07224723 -0.019956209
000360 90 ee 19 3e 3d 26 f1 bd a6 85 a4 bc a2 b8 36 3e
       0.1503241 -0.117748715 -0.02008326 0.1784387
000370 56 6d fa bc 91 3e 98 3d 1c 75 b2 3d f3 d1 30 bd
       -0.030569714 0.074338086 0.08713743 -0.043168973
000380 6f 3e 14 bc b3 5b aa 3c 1e c2 4e be 25 f1 e1 bd
       -0.009048088 0.020795679 -0.20191237 -0.11032323
000390 86 5b 1d 3e 98 54 1e 3e 29 89 db 3d ea b7 50 3c
       0.15366945 0.15461957 0.107195206 0.012739161
0003a0 8b 1d a7 bd a1 11 2c be 76 f5 76 bd e8 04 11 be
       -0.08159932 -0.168036 -0.060292684 -0.14162028
0003b0 df 8f 35 be eb 83 38 3e cb 56 af 3d 62 1c ec 3d
       -0.17730664 0.18019073 0.08561476 0.11528851
0003c0 54 66 03 be 0a f5 61 be 68 93 92 be 33 da 55 3e
       -0.12832004 -0.22066131 -0.28628087 0.20884018
0003d0 24 19 ac 3c 95 05 a6 3c 05 01 9d 3e 1f 45 a9 3e
       0.021008082 0.020266334 0.3066484 0.33060548
0003e0 d0 02 6c 3e 0b 21 b6 bd e9 a3 4f bd a3 df 5e be
       0.23047948 -0.08893021 -0.050693426 -0.21764998
0003f0 f3 d2 f7 bd 91 2c 68 be 3f 07 93 3c f5 5f 00 3e
       -0.12100782 -0.2267325 0.017947791 0.12536605

down_convs.2.conv2.bias f4 [12]
000000 10 6e 59 3c a2 03 9e b9 06 25 27 bc bf b1 fe 3b
       0.01327087 -0.00030138815 -0.010201698 0.007772654
000010 6d 35 58 3b 7b c0 c7 b9 cd 01 f3 37 94 ac 63 ba
       0.0032990829 -0.00038099647 2.8968696e-05 -0.0008685079
000020 9c cf 40 3c 4b 38 5c bb 4a 24 0a 3c b4 1d 92 ba
       0.011768248 -0.003360289 0.008431504 -0.0011147768

down_convs.2.norm0.weight f4 [12]
000000 15 c1 26 3f aa 26 87 3f bf ce b5 3f 54 6e a8 3f
       0.6513837 1.0558674 1.4203719 1.315867
000010 26 63 a1 3f 52 90 a9 3f 88 34 a1 3f a3 37 3a 3f
       1.2608383 1.3247168 1.2594156 0.72741145
000020 43 2b 0e 3f 7c 73 42 3f e7 c1 9a 3f 28 f8 81 3f
       0.5553476 0.75957465 1.2090424 1.0153856

down_convs.2.norm0.bias f4 [12]
000000 ea 52 79 be e3 cb cb bc c5 06 8f be 4e 65 0a bf
       -0.24348035 -0.024877494 -0.27934852 -0.5406083
000010 9b e6 93 3e d9 33 fc bd 81 0a 00 3e 48 41 80 3e
       0.28886876 -0.12314577 0.12504007 0.25049806
000020 5c 37 61 3e 0e 1f 72 be 40 89 53 bf 1b bf 97 3e
       0.21993774 -0.23644659 -0.826313 0.2963799

down_convs.2.norm0.running_mean f4 [12]
000000 ab c1 1c 40 c3 9f 97 40 a3 31 e3 40 00 20 8c 40
       2.4493206 4.738252 7.099809 4.3789062
000010 65 d2 c0 3f dc fc c8 40 46 db 52 40 40 0b 8f c1
       1.5064207 6.2808666 3.2946334 -17.880493
000020 80 1b 1b c1 88 ea f8 c0 86 ee 08 41 f4 1f 4a c0
       -9.694214 -7.7786293 8.558233 -3.1582003

down_convs.2.norm0.running_var f4 [12]
000000 a9 72 88 42 9e 8a 0a 43 93 9a 16 43 fa f8 f6 42
       68.223946 138.54147 150.6038 123.48628
000010 bb d8 8d 43 f5 12 32 43 9d 08 be 42 f9 0c f6 44
       283.6932 178.07405 95.01682 1968.4054
000020 84 8d f6 43 07 0d 53 43 5f 6c 22 43 76 d5 80 43
       493.1056 211.05089 162.42332 257.66766

down_convs.2.norm1.weight f4 [12]
000000 60 ed 97 3f 31 37 a6 3f b7 cd a4 3f d9 b4 ef 3f
       1.1869316 1.2985593 1.2875279 1.8727065
000010 36 9b 94 3f 48 b6 06 3f 9f 52 b1 3e ec 74 2c 3f
       1.1609867 0.5262189 0.34633347 0.6736591
000020 a4 a5 fd 3f 7c 83 9e 3f d8 0e 5f 3f 6f f5 50 3f
       1.9816175 1.2383876 0.87132025 0.816245

down_convs.2.norm1.bias f4 [12]
000000 49 10 dc 3d f7 49 33 3e 6a 5d 3c bc 19 a6 bd be
       0.10745294 0.17508684 -0.011496881 -0.37040785
000010 c5 53 3b bf 74 37 99 be 08 56 45 bf 67 fb 0b bf
       -0.731747 -0.2992512 -0.770844 -0.54680485
000020 90 b7 d0 3c 60 b7 02 3f 89 ff bd 3d 61 34 60 be
       0.025478154 0.5106106 0.09277255 -0.21894981

down_convs.2.norm1.running_mean f4 [12]
000000 cb af 9f be 7e 24 87 c0 d6 3e e9 c0 17 d1 16 c1
       -0.31188807 -4.2232046 -7.2889204 -9.426047
000010 6a 8f 45 40 93 bc 6c be 2c e1 61 41 d5 69 06 3f
       3.0868783 -0.2311881 14.117474 0.52505237
000020 e5 e0 51 c1 b4 c4 37 c1 f0 71 8e c1 be 5e 53 c1
       -13.117406 -11.485523 -17.805634 -13.21063

down_convs.2.norm1.running_var f4 [12]
000000 6a e6 96 42 ba 35 05 43 2e c9 0a 43 0c 33 57 43
       75.45003 133.20987 138.78586 215.1994
000010 a4 f8 53 42 91 dc f0 43 2e 2d 4f 43 29 ca b2 42
       52.992813 481.72318 207.17648 89.394844
000020 31 0c 5a 43 14 5c 21 43 d9 a6 cd 42 1e 1a c5 42
       218.04762 161.35968 102.825874 98.55101

down_convs.3.conv1.weight f4 [24, 12, 3, 3, 3]
000000 0b fd f5 3d 42 51 04 3e dd 9d ba 3e 23 e2 fd ba
       0.12011155 0.12921622 0.36448565 -0.0019369762
000010 81 0e 90 bd e8 09 1b 3e 00 6e 22 be c4 e2 9a 3e
       -0.070340164 0.15140498 -0.15862274 0.30251133
000020 a1 0a 0c 3f 1a 30 f2 3b 12 25 10 3e 3c 3a 13 3e
       0.5470372 0.007390988 0.14076641 0.14377683
000030 cc 36 66 bd a6 cf 12 be 11 ff c4 3b 53 88 c4 3e
       -0.056204602 -0.14337024 0.0060118516 0.38385257
000040 19 07 78 3f c7 18 65 3f fe 95 72 bd b5 fa a4 bd
       0.9688583 0.8949093 -0.059225075 -0.08055631
000050 dd 10 0d be 43 97 8c 3c eb cb 51 bd d4 02 98 bd
       -0.13775964 0.017161971 -0.051219862 -0.074224144
000060 7f 9f 84 3f 29 8a 92 3f 4a b5 06 3f 76 bb 59 bf
       1.0361174 1.1448413 0.52620375 -0.8505167
000070 5a 7a 9d be 07 7f b3 be e3 a9 ce be ba c4 5c 3e
       -0.3075741 -0.35057852 -0.40363988 0.2155942
000080 bb 50 16 bf 89 df ed 3d 99 c2 c8 3d 36 d4 46 be
       -0.58716935 0.116149016 0.098027416 -0.1941689
000090 1a 0b 7a be eb 43 50 bd 8a 76 12 be 02 47 a9 3d
       -0.24418297 -0.05084602 -0.14303032 0.08265497
0000a0 83 03 12 3f 24 2a ae bd a0 7d 92 be e9 1e 74 be
       0.5703661 -0.085041314 -0.2861147 -0.23839916
0000b0 14 3a ab be a7 f8 4a be a0 14 f3 bd 82 7c f0 bb
       -0.33442748 -0.19821416 -0.11869168 -0.0073390612
0000c0 ad f2 7b bf d4 32 98 be a6 d2 fd be 15 97 62 bf
       -0.9841717 -0.2972628 -0.49574775 -0.8851178
0000d0 56 17 0f bf 19 fb fd be da 0b 84 3e 8c 74 d2 3e
       -0.5589498 -0.49605635 0.25790292 0.41104543
0000e0 dd d2 1e 3f ad 0d 87 3e 25 e9 0b 3f 8a 22 61 3f
       0.620405 0.2637762 0.54652625 0.8794333
0000f0 9f 79 2e be 6d 31 80 3d d3 5b 85 3e 32 99 ae 3e
       -0.17038582 0.06259427 0.2604662 0.34101254
000100 0c f2 1e 3f d0 f7 3e 3f e5 2a 12 3f 37 bc ab 3f
       0.62088084 0.7459688 0.570967 1.3416814
000110 6d c4 69 3f db 40 74 3d 49 ef 0b 3f 3b 8b 7d 3e
       0.91315347 0.059632163 0.54661995 0.24760143
000120 25 d6 b8 3e 0d 51 00 3f 16 15 6f 3e 8b 1a 39 3f
       0.3610088 0.50123674 0.23347887 0.72306126
000130 1c e4 73 3f 7d 87 82 3e 21 15 0c 3f b7 fc 8b 3e
       0.9526994 0.25493994 0.5471974 0.27341244
000140 45 3f 60 be 60 2b bf 3e da 42 2e 3f f3 e7 16 3f
       -0.21899135 0.3733778 0.6807076 0.58947676
000150 8c 11 59 be 34 52 1b 3f 09 3e 68 be d3 38 95 3e
       -0.211981 0.60672307 -0.22679915 0.29144916
000160 26 a6 0c 3f bb 90 41 be 49 52 87 3f 1f b8 4d 3f
       0.5494102 -0.18902867 1.0571986 0.8035907
000170 de 62 02 3f 14 46 4e 3f 88 ae c7 3f 87 29 13 3f
       0.5093211 0.8057568 1.5600138 0.5748524
000180 b3 05 9f 3e b9 ff c6 3e 18 1c f1 3c bf 05 59 3f
       0.31059036 0.38866976 0.029432341 0.8477439
000190 8f 00 33 3f b0 1c ba 3e fd e1 c5 3e e8 9e 99 3f
       0.6992273 0.36350012 0.38648978 1.2001619
0001a0 dd 25 8a 3e f9 de 50 bd fe 52 8a 3d c8 53 bb be
       0.26982012 -0.050993893 0.06754111 -0.36587358
0001b0 68 30 1b bf 30 19 28 3d 1f ef a8 be 0e ee e9 be
       -0.6062074 0.041039646 -0.32994935 -0.45689434
0001c0 6a 16 57 be ac 86 34 bf d1 3d 10 3e c9 b6 9c be
       -0.21004644 -0.7051799 0.14086081 -0.30608204
0001d0 71 c1 f0 be 87 d3 29 bc 10 f9 fd 3e a3 fa fd 3d
       -0.47022584 -0.010365373 0.49604082 0.12401321
0001e0 b2 84 6e be c3 57 15 3e 9c 90 3c be 8e 2f 83 be
       -0.23292807 0.1458426 -0.18414539 -0.2562222
0001f0 d5 6b f9 be 12 a8 f1 be b1 80 ce be 71 9b a8 3d
       -0.48715082 -0.4719854 -0.4033256 0.08232773
000200 db ab c0 3d 91 2b 48 bf ce 10 cc be e8 9b a0 be
       0.09407779 -0.7819148 -0.3985657 -0.31368947
000210 29 62 1a bf 3c 5d 10 bf 17 bd c6 be ed 97 16 be
       -0.6030603 -0.56392264 -0.3881614 -0.14706393
000220 bb f5 cc 3d 1c 55 bd 3c b7 58 b2 3e 4a 57 1d 3f
       0.10007807 0.023111872 0.3483331 0.6146132
000230 0f 72 14 3f d4 c3 02 3e 42 81 ac 3e 53 73 02 3f
       0.5798654 0.12770015 0.33692366 0.5095722
000240 50 2d b8 3d 4d c2 d0 3e a3 db b1 3e c4 27 a2 3e
       0.08993018 0.4077324 0.34737882 0.31670964
000250 bb 99 0c 3f 85 96 e6 3e f2 dd d7 3c 6b 5e 29 3e
       0.54922074 0.45036712 0.026350949 0.16539924
000260 11 b9 01 3e 3d 95 e7 3b ec b0 73 3e 20 7e 18 3e
       0.12668253 0.007067351 0.23797959 0.14891863
000270 53 45 b9 3e a7 12 9d 3e bd 60 78 3e 17 1d 53 3e
       0.36185703 0.30678293 0.24255653 0.20616566
000280 05 e4 6b 3e 62 b0 3f 3e ac 92 34 bf 4d 8f f3 be
       0.23036201 0.18719628 -0.70536304 -0.47570267
000290 c6 0c 10 bf ba 0e 4b bf a7 7a fa be 91 3a 12 bf
       -0.5626949 -0.79319346 -0.489217 -0.57120615
0002a0 21 bc 26 3e b4 9a e4 3d 12 0c fd 3d e2 99 ee bd
       0.16282703 0.1116232 0.12355818 -0.116504446
0002b0 59 ff c5 3b 63 bc 70 be d6 85 f7 be e8 63 2c be
       0.0060424027 -0.23509364 -0.48344296 -0.16834986
0002c0 9a b5 b1 be f4 6a 5a be 4b 60 0c be 6f 99 5a bd
       -0.34708863 -0.21329862 -0.13708608 -0.053368982
0002d0 21 9f 1e be 0d 2e db 3d a1 1b 69 bd b3 b1 5d bf
       -0.1549039 0.10702143 -0.056911115 -0.8659927
0002e0 2f 8b 07 bf 2c 2a 21 bf 37 0a 0d bf 40 1c d8 be
       -0.5294675 -0.62954974 -0.5509371 -0.42209053
0002f0 2a 65 8b be 1e f5 46 be 00 7d 8b be 33 46 2a be
       -0.2722562 -0.19429442 -0.27243805 -0.16628341
000300 d8 c1 d9 3e 98 d1 74 3e 11 8b e4 3e 96 0f 10 3f
       0.42530704 0.23908079 0.4463735 0.5627378
000310 6a 24 0c 3f 71 7e fa 3e 9c 64 a7 bd ca 2c 81 3d
       0.54743063 0.48924592 -0.081734866 0.06307371
000320 ad 26 c3 3d 05 53 d2 3e dc e5 b3 3e ba aa c9 3e
       0.09528861 0.41078964 0.35136306 0.39388067
000330 da af f1 3e aa 18 dc 3e 60 29 df 3e 46 ed 8b be
       0.47204477 0.42987567 0.43586254 -0.27329463
000340 63 be e2 3d fb 88 c5 3b 28 55 b7 3e 7a 33 c2 3e
       0.1107147 0.0060282922 0.35807157 0.37929899
000350 d2 2a 43 3e 9f ad 0e 3f d1 8b 04 3f 6c a4 f4 3e
       0.19059303 0.55733675 0.5177584 0.47781694
000360 14 3f f4 3d 9a 20 cb 3d 1b 45 8a 3e ac 38 33 be
       0.11926094 0.09918328 0.27005848 -0.17502087
000370 11 98 18 3f 7e e2 5c be da 44 b9 3e af 35 2b 3f
       0.59607035 -0.21570775 0.36185342 0.6687879
000380 e8 3e 5c be 15 5d bd 3e 07 d8 57 3e 76 81 9c 3d
       -0.21508372 0.36985078 0.21078502 0.0764188
000390 a1 06 76 3f 69 b6 b1 3f 58 00 d3 3e 16 f0 41 3f
       0.96103865 1.3883792 0.412112 0.7575697
0003a0 41 b2 2f 3f 4d b6 f4 3c a7 5c df 3e 47 cf 96 3e
       0.6863137 0.029872084 0.43625376 0.29455015
0003b0 08 0f 14 3e 98 f5 23 3f 0c cf 77 3f 29 9f d9 3d
       0.14458859 0.6404662 0.96800303 0.106260605
0003c0 b9 54 63 3d bf a7 2d 3e ca 85 89 be 11 e1 3b bd
       0.05550072 0.16958521 -0.26859885 -0.045868937
0003d0 db 78 30 3e ee 1c 69 3e a4 9d 9b 3e 94 37 0c 3f
       0.17233603 0.22764942 0.30393708 0.54772305
0003e0 73 5d d6 3e 41 48 c4 bc b6 7f 06 bb 68 fe c5 3d
       0.4186817 -0.023960235 -0.00205229 0.09667665
0003f0 66 1f a1 3e dc 00 18 3f 63 a8 2b 3f 93 e5 2e 3f
       0.31469268 0.5937631 0.6705381 0.6831905

down_convs.3.conv1.bias f4 [24]
000000 eb 64 6d 39 3c 35 23 3a bf d7 e4 38 ce 30 2a 3a
       0.00022639676 0.0006225889 0.00010912073 0.0006492258
000010 d0 25 90 b5 d2 8c e4 38 4e 41 05 ba 88 93 37 3a
       -1.0739841e-06 0.00010898117 -0.00050832785 0.000700288
000020 e6 29 1d 37 75 3c 19 37 be 66 bd 39 72 b2 87 ba
       9.3676845e-06 9.133587e-06 0.00036125438 -0.0010352863
000030 de 49 27 b8 69 df f1 b8 66 15 a8 b9 3b f4 44 39
       -3.9884697e-05 -0.00011533389 -0.000320594 0.00018783
000040 a3 58 15 37 25 00 1a b7 36 c1 40 b7 01 b1 08 39
       8.901729e-06 -9.179149e-06 -1.1489077e-05 0.0001303591
000050 0f af a0 b7 94 12 21 b7 3e 64 81 36 6c 00 67 3a
       -1.9155004e-05 -9.600673e-06 3.8561693e-06 0.00088120135
